project/paper_notebooks/saved_variables/paper_notebooks/5/dqn_vs_dqn/final_policy_agent1.pth (torch, 320501 bytes, 16 tensors)

model.model.0.weight f4 [128, 42]
000000 50 27 fa bd e6 ca 95 bd 7e e6 1b 3e 95 5e 83 3c
       -0.122145295 -0.073140904 0.15224645 0.016036311
000010 97 76 19 3d c8 4f 0a 3e 6c 38 d3 3c d8 cb f6 bd
       0.03746661 0.13506997 0.02578374 -0.12050599
000020 11 01 91 3d 31 21 e6 3c 39 83 aa 3d fc 3e f8 3c
       0.070802815 0.028091999 0.0832581 0.03030347
000030 09 f0 86 3c d8 b9 15 bd b5 4f 88 3c 0e 71 d0 3d
       0.01647188 -0.036554188 0.01663957 0.101778135
000040 15 e5 92 3c 7a 9f b5 bd 3c 6a e9 bd 01 62 a8 bb
       0.0179315 -0.08868308 -0.11397216 -0.005138636
000050 a6 e6 9e 3d 00 78 06 3e 9f c2 21 3e 64 98 84 bd
       0.077588364 0.13131714 0.15796898 -0.06474379
000060 b2 fa ba bd ad f3 4a 3e 08 00 e1 bd 10 95 d7 bc
       -0.091298476 0.19819517 -0.10986334 -0.026316196
000070 9d 22 fa 3c bd 1d ac bc 12 99 90 3d 8b d5 3a be
       0.030534083 -0.021010274 0.07060446 -0.18245523
000080 07 bf 65 3d 12 75 55 bd b5 db f0 bd fe b0 85 3d
       0.05609038 -0.0521136 -0.11760656 0.06527899
000090 da 2a 9e bd 0b 6c 84 3d c0 5b 40 bd db 7b 18 be
       -0.07723017 0.0646592 -0.0469625 -0.14890997
0000a0 bc 57 71 bb c8 e6 2a bc 5b cf 01 3e a9 14 5a 3d
       -0.0036825975 -0.010430999 0.12676756 0.05324236
0000b0 bf f5 25 bc 8f 66 12 3e 1c d9 b4 3d b6 bf c1 3d
       -0.010129391 0.14296935 0.08830473 0.09460394
0000c0 64 c0 95 3d 7e 43 e7 bd 2e 2c 21 be c6 7f 09 bd
       0.07312086 -0.1129217 -0.1573951 -0.03356912
0000d0 c5 2a d6 bd 79 ee 16 3e 1b 82 1f bc 14 9e 5b 3d
       -0.104573764 0.14739408 -0.009735609 0.053617552
0000e0 a5 5b 2c 3e ca e5 04 be 97 88 a9 3d f3 00 be 3b
       0.16831835 -0.12978283 0.082780056 0.005798453
0000f0 88 4c 32 be 6e b7 12 3e 5a a9 99 bd 7b 63 77 3e
       -0.17412007 0.14327785 -0.07503004 0.24159043
000100 2b b1 ea 3c c1 e9 8e bd 08 dc 39 3e 3a c2 12 bd
       0.028648933 -0.06978179 0.18150342 -0.03582976
000110 e5 fc 3a 3e bb ce f4 3d 82 60 a5 3d a0 80 c3 3d
       0.18260534 0.11953493 0.08075048 0.09546018
000120 1a 74 9d 3d 76 b7 06 3c 93 a9 66 bd 3a 8a 3c be
       0.0768816 0.008222451 -0.056314062 -0.18412104
000130 e3 45 0f be 81 17 8c 3b e1 93 83 bd 30 52 fc bd
       -0.13991503 0.004275263 -0.0642469 -0.123203635
000140 04 a0 79 3b 7a 1c 97 3d ce e7 f3 bd 96 5d f6 bd
       0.0038089762 0.07378478 -0.119094476 -0.12029569
000150 16 fe 8c bd 92 fb 51 3d 85 e7 a2 bb 1b c7 06 be
       -0.068844005 0.051265307 -0.004971447 -0.1316189
000160 c9 b8 22 3e ef 31 2d 3d c5 db 06 bd 84 81 0c ba
       0.15890802 0.04228395 -0.032924432 -0.00053598755
000170 e3 6b a4 3c 8c eb d3 bd 2d 23 ba bb e7 f6 21 3e
       0.020070976 -0.103476614 -0.005680463 0.15816842
000180 79 1e cf bd 3e 00 3a bc 73 a7 63 be e1 0c 06 3e
       -0.10113234 -0.011352597 -0.22231846 0.1309085
000190 ef e0 74 bd 39 38 74 bd a7 6e 6e 3d 0a e1 eb 3d
       -0.059784826 -0.05962393 0.058210995 0.11517532
0001a0 1f ad 94 3d 4c 39 26 3e 8d 23 32 3e 49 f4 9a 3d
       0.07259583 0.16232795 0.17396374 0.07566125
0001b0 b3 8d e2 bd d4 66 bf 3d 1d 44 02 3e 57 d2 62 bd
       -0.11062183 0.09345785 0.12721296 -0.055376377
0001c0 85 75 24 3e 15 b0 8e bd 63 5b 31 3e 3b 5f c4 bd
       0.16060455 -0.06967179 0.17320018 -0.09588476
0001d0 16 12 e5 3d f5 bc 0a be 8d 7c 8a 3c a6 66 26 3e
       0.1118509 -0.13548644 0.016905094 0.16250095
0001e0 b7 d2 15 3e 62 44 c1 3d 36 02 1d bc be 5f 53 3e
       0.14631163 0.09436871 -0.009583047 0.20641991
0001f0 3a a4 ef 3d 0e be 3c bd 91 f5 0d be 07 cb 46 be
       0.117012456 -0.046079688 -0.13863207 -0.19413386
000200 fa fc cd bd 1f 77 c1 3d 2e e6 92 bd b3 ce e3 3d
       -0.10058017 0.09446549 -0.071728095 0.11123409
000210 71 1d 0f be bc af d0 3d e4 6c d3 3d 79 b1 a5 bd
       -0.13976075 0.10189769 0.103235036 -0.08090491
000220 f8 a7 de bd fe 93 21 3d 1f 07 78 3d a3 c3 64 bd
       -0.10871881 0.039447777 0.060553666 -0.055850636
000230 aa e4 be 3d 0b c0 79 bd 8a 8f 11 3e 21 95 53 bd
       0.09320958 -0.060974162 0.14214912 -0.051655892
000240 5c f2 83 3c 64 47 cd 3d b5 c7 1f 3e 92 bc f8 3c
       0.016106777 0.10023382 0.15603526 0.030363355
000250 bc b6 81 bd d3 81 16 3e f1 c8 5d bd 0b bb 20 3e
       -0.06333682 0.14697962 -0.05414671 0.15696351
000260 95 da 62 3c ea 3a 81 bd 54 74 e3 3d cb 8f 92 bb
       0.013846059 -0.06310065 0.11106172 -0.004472708
000270 10 5d 80 3e 17 fd da bd e2 c1 60 3d 25 8f 08 be
       0.25071 -0.10692804 0.0548724 -0.13335855
000280 f1 3a 9d 3d b0 32 01 3e ea f5 be bd 65 45 59 3e
       0.07677258 0.12616992 -0.09324248 0.21217878
000290 e1 8b 1c 3e 84 e0 55 bd e6 91 10 be 4b 46 8c bd
       0.15287735 -0.052216068 -0.14118156 -0.06849345
0002a0 5a 04 82 3d 97 e2 b7 3d db 50 91 bd 09 62 9d bd
       0.06348486 0.089787655 -0.070955 -0.07684714
0002b0 3f 00 50 bd f7 39 69 bc d4 fa d3 3d fd c7 9b 3d
       -0.050781485 -0.014235011 0.10350576 0.07606504
0002c0 e8 3b c0 3c 33 7c 1e bc e5 91 f0 3d 2d 61 af bd
       0.023466066 -0.009673166 0.11746577 -0.08563457
0002d0 24 08 d1 bd 04 04 1e 3e c9 15 0a 3e 74 40 9e bd
       -0.10206631 0.1543122 0.13484873 -0.07727137
0002e0 5a a6 7a bd 75 f2 ec 3d 4c a1 8a ba 9d 0f 28 3d
       -0.0611938 0.115696825 -0.0010576635 0.041030515
0002f0 84 de 01 3d c2 7e 23 be 55 da a2 bd 7f e6 6b 3e
       0.031706348 -0.15966323 -0.079518 0.23037146
000300 d8 b2 12 3e 9b 68 db bd 20 ab 28 bd 43 de cf 3d
       0.14326036 -0.10713311 -0.041178823 0.10149815
000310 fb 40 87 bd 0c 76 da bd 55 0d 91 bd f2 62 49 3c
       -0.06604191 -0.10667047 -0.07082621 0.012291657
000320 52 08 89 bd 9c 83 d2 bd ba ff 0c 3e 80 58 a7 bd
       -0.0669104 -0.10279009 0.13769427 -0.08171177
000330 4d b3 f9 bd bb 19 8a 3d 99 be b9 bd 35 3a d1 3c
       -0.12192402 0.06743189 -0.09069557 0.02554045
000340 0c d3 c8 bc cd 18 b3 3d 90 06 4a be 13 6c b1 bd
       -0.024514697 0.08744965 -0.19729066 -0.08663192
000350 ce 96 d7 3d d8 d5 ee 3d 3b b2 58 bd a3 1e f8 3c
       0.105268106 0.11661881 -0.05290435 0.030288046
000360 4f 95 7b bd 6b fe 85 be 87 d4 24 3e 28 34 5a bd
       -0.06142169 -0.26170668 0.16096698 -0.053272396
000370 bd cb af 3d bd 4a 1e 3c b1 cd 41 be 3f ca be 3c
       0.08583782 0.009661374 -0.18926121 0.023289798
000380 6e 87 4c 3d 9f ec b8 3d 99 cf ea 3c 3f b0 37 bd
       0.049933843 0.09029507 0.028663443 -0.044845816
000390 10 5b 0a 3c e2 d9 06 3e 7d 06 f7 3d f1 8d da bd
       0.008444563 0.13169053 0.120617844 -0.106716044
0003a0 50 69 36 bd 8d 47 93 3d 74 4a e4 bc 75 6a 1d be
       -0.044534028 0.071913816 -0.027867533 -0.15372641
0003b0 9a 9c 21 3e e3 eb 2f 3c 52 ee 25 3e 89 f8 1f be
       0.15782395 0.010737392 0.16204193 -0.15622152
0003c0 c3 b1 ee 3c 33 1b 82 3d 6c 02 4b be de b5 91 bd
       0.029137498 0.06352844 -0.19825143 -0.071147665
0003d0 72 db 2a bd 35 7c 0e 3c bb 01 d6 bd d7 02 05 3e
       -0.041713186 0.008696605 -0.10449549 0.12989365
0003e0 a6 96 8a bd 98 08 fc bd d1 1e 04 3d 60 48 9f bd
       -0.06767015 -0.12306327 0.03225595 -0.07777476
0003f0 0e 19 35 be ae d8 23 3e a7 6e 98 bd c1 5a 58 3e
       -0.17685339 0.16000625 -0.0744298 0.2112837

model.model.0.bias f4 [128]
000000 b3 da 98 3e be a5 62 3b d7 88 c1 bc de d3 87 bd
       0.29854354 0.0034583653 -0.02362482 -0.06632207
000010 2b 34 89 3e 3d 68 7e 3e 6b b0 70 3e 14 1d 4c 3e
       0.26797614 0.24844451 0.23504798 0.19932967
000020 75 6a bc 3e c9 83 91 3e 59 fa 59 bd 40 82 a6 3e
       0.3679997 0.28420857 -0.053217266 0.32521248
000030 b2 c3 bb 3e 96 fe 06 be f2 dd 31 3c 1b 90 95 3e
       0.3667274 -0.13183054 0.010856139 0.29211506
000040 25 98 4e 3e e3 6b 30 3e c0 cc 0d 3b 3d ba 86 bc
       0.20175226 0.17228656 0.0021636933 -0.016446227
000050 94 d7 40 bc 90 db 4c 3e e9 ea ad 3e 24 01 5f bd
       -0.011770148 0.20005631 0.33968285 -0.054444447
000060 fd a7 da 3a 4e 54 0b 3c 90 ee 75 3e 77 6a e1 3a
       0.0016682144 0.0085039865 0.24016786 0.0017197867
000070 a2 3d 34 3b 1e 4b 26 be 5d ef 7b 3e 49 bf 5f 3e
       0.0027502556 -0.16239592 0.24603029 0.21850313
000080 14 5e ca 3d f4 d7 9f 3e 8d 7e a8 3e 39 66 90 3e
       0.09881225 0.31219447 0.3290905 0.2820299
000090 eb d2 a3 3d 97 ff 39 3c aa f6 8f 3d ae 2c 9d 3e
       0.07999214 0.011352441 0.07029469 0.3069815
0000a0 32 59 3f 3e 50 06 fa bc 4a eb b5 3e 54 71 3d 3e
       0.18686369 -0.030520588 0.35531074 0.18500262
0000b0 3e 80 5e 3e cb 90 b7 3e ae c4 3c 3e 52 35 70 3d
       0.21728608 0.35852656 0.18434402 0.0586446
0000c0 9a 84 c2 3e b2 c6 ab 3e a9 a3 a3 3c 70 6d 3d 3d
       0.37991792 0.3355003 0.0199755 0.046246946
0000d0 ad 4d 07 bd 1d 97 b0 3e 9d f2 8d 3e 54 04 b2 3e
       -0.03303306 0.3449029 0.27724162 0.34768927
0000e0 2a ef 59 bd 6d 85 9e 3e da d0 c0 3e 75 3e 9a 3a
       -0.0532066 0.3096117 0.3765934 0.0011767881
0000f0 c0 4f 00 3f 97 86 98 3b f0 95 88 3e 67 c0 da 3c
       0.5012169 0.0046547162 0.26676893 0.026703073
000100 3a 0c 58 bb 34 85 44 3e 45 a7 5a 3e 02 28 92 bd
       -0.0032966272 0.19191438 0.21352871 -0.07136537
000110 f3 c7 e9 3c f0 85 76 3d 50 89 a1 3d cd c8 b3 3e
       0.028537726 0.060186327 0.078875184 0.35114136
000120 87 69 c1 3e 77 40 9a 3c 08 27 af 3e 13 32 8e 3e
       0.37775823 0.018829567 0.34209466 0.2777258
000130 11 c0 bb 3d 9e 92 c3 3c 92 ff be 3e a8 90 ad 3e
       0.09167493 0.023873623 0.3730436 0.33899426
000140 b6 5c 38 3e cc 3d 63 3e d0 41 d9 bd 76 ac 44 bd
       0.18004116 0.22191542 -0.10608256 -0.048016034
000150 c0 13 8d bd d0 ea 3b 3e 8e cb 9d 3e 91 b3 5c 3e
       -0.06888533 0.18351293 0.30819362 0.21552874
000160 15 f5 ec 3c d7 5d 19 3e 72 1d 10 3d f1 70 5d 3e
       0.028925458 0.14977203 0.03518433 0.21625115
000170 56 42 33 3d eb da 89 3e 7b 69 b5 3e 4a c9 8c 3e
       0.043764435 0.26924834 0.35432038 0.2749732
000180 14 8f 81 3e 82 b2 b6 3e 33 85 e3 3d eb a0 23 be
       0.25304472 0.35683066 0.1110939 -0.15979354
000190 9d da 90 3e 15 78 97 3e 0a 78 a2 3e 2b a6 37 bd
       0.2829179 0.29583803 0.31732208 -0.044836204
0001a0 c2 7d 8f bb 47 0f b7 3e 9a 97 0b be 04 9e 36 3e
       -0.004379005 0.35753843 -0.1363205 0.17833716
0001b0 b6 ff 87 3e a8 d6 54 3e c1 1d 2e ba 92 6e 16 3e
       0.2656228 0.2078501 -0.0006642007 0.14690617
0001c0 01 36 42 3e c1 56 6a 3b 09 2d 86 3c 06 98 22 3e
       0.18965913 0.0035757276 0.016378896 0.15878305
0001d0 5e 6b 0a 3d 52 6e f2 3d 16 6f fb 3d 05 c2 b1 3e
       0.0337938 0.11837448 0.12277047 0.34718338
0001e0 ca ef 11 3c 1f 3f 07 3d 50 92 aa 3e 43 40 c3 3d
       0.008907268 0.03301918 0.33314753 0.09533741
0001f0 55 d3 ac 3e 88 08 87 3e 99 51 7e 3e fe 63 6c 3e
       0.33754984 0.26373696 0.24835815 0.23085019

model.model.2.weight f4 [128, 128]
000000 c9 f5 c8 3d ab ed 1d 3d be 3f 92 3c e1 05 79 bd
       0.09812505 0.038556736 0.01785266 -0.060796622
000010 2e 37 0a bd 49 b0 22 3e bb 4f 41 3e a5 cd 56 3c
       -0.03374403 0.1588756 0.18878071 0.013110553
000020 67 c1 7f 3d 71 2a a7 3d 70 45 2f 3e 53 d4 65 3d
       0.062440302 0.08162392 0.17116332 0.05611069
000030 60 8e e8 3d 22 6a df bb 5c c0 d6 3c de b6 07 3e
       0.11355281 -0.006818072 0.026214771 0.13253352
000040 85 36 54 3d a7 77 a7 bd be e8 39 bd df 9a 85 3d
       0.051809806 -0.08177119 -0.045387976 0.0652368
000050 49 3f ab 3c dc 26 69 3d 79 8b eb 3d 09 0a 60 bd
       0.0209042 0.056921825 0.11501212 -0.05469707
000060 ec 94 17 3e 95 72 5b bc 47 50 ef bc 7c 0e 35 3d
       0.14802903 -0.013394018 -0.029213084 0.044203267
000070 ff 78 cd bc 67 47 39 3d b7 86 bc 3d 19 d8 96 bd
       -0.02508211 0.04523411 0.09205382 -0.07365436
000080 9e 62 85 3c f8 a8 14 bd fe d7 50 3c 93 94 87 bd
       0.016282376 -0.036293954 0.012746809 -0.06620135
000090 68 65 1d 3e 88 a2 67 3e 0d 20 2c 3c 45 17 b8 bb
       0.15370715 0.22620595 0.010505688 -0.0056180083
0000a0 37 55 1b bd c8 aa 16 3e d7 33 96 3d 9a cc 30 3d
       -0.037923064 0.14713585 0.073341064 0.043163873
0000b0 81 b0 e9 3d 19 60 6d 3c 32 8c 1d bd 1d ad 08 3e
       0.114106186 0.0144882435 -0.03846378 0.13347287
0000c0 0a 4e c3 bb 15 d7 35 bd ce 0d 89 3e 6f bc 36 3c
       -0.0059602307 -0.04439457 0.26768345 0.0111533245
0000d0 f5 17 12 bd a5 7b 92 3d d2 2b 7a bd ac c4 61 3e
       -0.03566738 0.071524896 -0.061076947 0.2204768
0000e0 68 e2 98 3d ba 4b ac bd a9 3e 6a be 58 e1 76 3d
       0.074650586 -0.08412881 -0.22875465 0.0602735
0000f0 cb 78 86 3e 6c f6 5f 3e 4e 47 58 3e 2b 5a 03 3e
       0.26264033 0.21871346 0.2112095 0.12827365
000100 9e 86 bf 3b b0 df 46 bd a4 99 89 3d 87 a0 92 bd
       0.005844905 -0.04855317 0.06718758 -0.071595244
000110 e9 34 d6 bb 2a a3 9d 3d 08 57 8e 3d 20 7f 0e 3e
       -0.006537069 0.07697137 0.06950194 0.13915682
000120 a3 e0 a4 39 f4 b4 90 3d 05 be 3d 3d 4d c0 79 bc
       0.00031447885 0.07065764 0.046323795 -0.015243602
000130 af 4b db 3c 8f 94 e1 bc be 4f d4 3c f9 1e 12 3e
       0.026769487 -0.027536659 0.02591693 0.14269628
000140 ff be cc 3d c4 5a 4b 3d 99 fc 21 3d ea 0b ba bd
       0.09997367 0.049647108 0.039547537 -0.09084304
000150 f2 6d a0 3c 55 72 ed 3d 01 c5 19 3e 52 57 21 bd
       0.019583676 0.11594073 0.15016557 -0.039389916
000160 8f ce 1c 3c 83 f0 8b bc 2c 4c 3a 3d c0 b1 a1 bd
       0.009570732 -0.017082458 0.0454828 -0.07895231
000170 28 e8 b1 bb e8 80 b5 3a 17 82 39 bc 89 dd fa 3d
       -0.0054292865 0.0013847621 -0.01132252 0.12249286
000180 9d dd 02 3d e4 70 2e 3e c9 31 87 3e 37 25 3f 3d
       0.03194963 0.17035252 0.2640517 0.04666635
000190 7a 4e 48 3e 13 37 be bc 7d 89 19 bd 38 a3 43 bd
       0.19561186 -0.02321962 -0.037484635 -0.04776308
0001a0 c9 3e 54 3e 35 47 db 3d a3 af 88 3c ff 3a e2 3d
       0.20727076 0.10706941 0.016685313 0.11046409
0001b0 4f ae 72 bc 0a 6a de 3d 9a a4 cf 3d 5b 2b 91 bd
       -0.014812066 0.10860069 0.10138817 -0.070883475
0001c0 ca 10 99 3c 8b 92 d0 ba 68 a2 16 3d 29 46 84 3d
       0.018684763 -0.0015912814 0.036775976 0.064586945
0001d0 44 e5 b0 3d 38 75 82 3d 4b 49 dc 3c 27 c4 29 3e
       0.08637479 0.06370014 0.026890418 0.16578732
0001e0 33 c0 f3 3d 51 f2 1a bd 7e 75 87 3e 7e 69 06 3e
       0.119018935 -0.037828747 0.26456827 0.1312618
0001f0 d5 ca e9 3d 02 19 9c 3b c8 90 46 3d ce a7 d4 3c
       0.1141564 0.0047637234 0.048477918 0.025958922
000200 2c 4f 3b bc 48 6c c5 3d 17 0e 20 bd 1d 44 76 bd
       -0.01143245 0.09639794 -0.039075937 -0.06012355
000210 fe 8c ba 3d 1c 27 86 3e b4 24 64 3d 5a df 85 bd
       0.091089234 0.26201713 0.055699065 -0.065367416
000220 b7 88 f3 3d ab 88 9e 3d 38 5f df 3c 16 80 00 3e
       0.11891311 0.07740911 0.027267084 0.12548861
000230 b3 2f 50 3d 94 54 a3 bd 60 58 a0 3c 8c 46 18 3e
       0.05082674 -0.07975116 0.01957339 0.14870661
000240 2d 6d 0b bd ea a4 a6 3d 99 2b 6f bd 11 6e ec 3d
       -0.034039665 0.081369236 -0.058391187 0.11544431
000250 63 36 3c 3e d0 b8 48 3e ad d9 d4 3c c3 a9 40 bd
       0.18380122 0.1960175 0.025982702 -0.047036897
000260 57 54 0f 3e bc 2c 20 3e 06 22 10 3e 23 9f 89 3c
       0.13997017 0.15642065 0.14075479 0.016799515
000270 84 15 16 3d d1 2d 99 bd d6 1e 79 3e 66 ea 7c 3d
       0.036641613 -0.07479442 0.24328169 0.061746977
000280 ed b4 57 3d f0 85 31 3d 30 86 22 3e 41 f2 83 3c
       0.05266278 0.043340623 0.15871501 0.016106727
000290 3a 40 28 3e 5a 2e 36 3e f0 f2 6a 3d 1d cf af 3d
       0.1643075 0.17791119 0.05736059 0.085844256
0002a0 bd 36 ef bc e3 b9 a7 3d 51 1d 2c bd 78 66 3c 3d
       -0.029200906 0.08189752 -0.042020146 0.04599616
0002b0 c6 01 83 3d 23 24 37 3c 69 f2 07 bb 46 c6 71 3e
       0.06396823 0.011178049 -0.0020743853 0.23610792
0002c0 fa 36 2b 3d a9 3b bc 3d 78 ad aa 3e 7e fd de 3d
       0.041800477 0.09191067 0.3333547 0.108881935
0002d0 0c dd d6 3d 7c 9a 37 3c 1a db a6 3d 44 b3 70 3e
       0.1049138 0.011206266 0.08147259 0.23505884
0002e0 55 01 b2 3d 79 e4 96 bc 82 13 a8 bd 0d 98 0d bd
       0.0869166 -0.018419491 -0.08206846 -0.034568835
0002f0 6c 62 56 3e 37 51 06 3e c5 d0 4f 3e 16 30 ce 3a
       0.20935982 0.13116919 0.20294483 0.0015730883
000300 62 39 b3 3c 35 b7 c6 bc 56 9b 0f bd 2a 11 d1 3b
       0.021877948 -0.024257282 -0.03506025 0.00638022
000310 87 8c a3 3d 43 6e 4c 3e 45 11 dc 3c ac 06 b1 3d
       0.07985788 0.19963937 0.026863704 0.08643851
000320 f2 7a b5 3d 56 25 21 3e de 91 cc bc 77 9b d3 3c
       0.088613406 0.15736899 -0.024971899 0.025830967
000330 49 1b 80 bb e2 98 d6 bd e3 e6 3c 3c 76 58 29 3e
       -0.0039095026 -0.10478379 0.011529657 0.16537651
000340 ad 3f ba 3d 3d 95 bb 3c 08 b8 e0 3d 44 25 aa bd
       0.090941764 0.02289831 0.10972601 -0.08307889
000350 f7 e8 69 3d 28 ff 34 bb 48 da 82 3e 96 c8 d6 3d
       0.05710694 -0.0027617905 0.2555716 0.104874775
000360 e7 1c 15 3e 79 31 af 3b 5e d6 be 3d 45 7a da 3c
       0.14561807 0.005346474 0.09318231 0.02666963
000370 52 92 a3 bd 5d a7 a4 3d 44 16 17 3c 42 6f b9 ba
       -0.07986893 0.080397345 0.009221617 -0.0014147537
000380 02 de 8b 3d ec 13 39 3e 07 93 77 3e 0a 16 ab 3d
       0.06829454 0.18074006 0.2417718 0.08353813
000390 2d 45 84 3e 32 c4 a1 3d a3 e7 0b 3e 61 90 e7 3d
       0.25834027 0.078987494 0.13662581 0.11306835
0003a0 d4 b3 00 3e 1f 88 8a 3d 68 bf 40 3d 64 56 e3 3b
       0.12568599 0.06764244 0.04705754 0.006937789
0003b0 8f 34 02 3e 1b a9 26 3e 75 87 20 3e 15 7e 51 bd
       0.12715362 0.16275446 0.15676673 -0.05114563
0003c0 e1 74 80 3c cb 65 73 bd ff 48 fa 3d 28 7e 34 3e
       0.015680732 -0.05942325 0.12220954 0.1762625
0003d0 68 28 db 3d f3 86 35 bc eb ab 73 3e 1c ca b3 3d
       0.10701066 -0.011079538 0.2379605 0.08778784
0003e0 27 25 d7 3d b8 bf d1 3d 62 d3 1d 3e 36 9e 0d 3e
       0.10505133 0.102416456 0.15412667 0.13829884
0003f0 0f ea 0c 3e 21 60 bb 3d e1 89 5e bc 02 84 4f 3d
       0.13761161 0.091491945 -0.013582678 0.050663

model.model.2.bias f4 [128]
000000 89 61 5e 3e bf 31 93 3e f4 de 9e 3e f1 8a 94 3e
       0.21716894 0.2874889 0.31029475 0.29012254
000010 0e c9 8f 3e 29 16 81 3e 41 c4 57 3e 57 90 68 3e
       0.2808308 0.2521222 0.21070959 0.22711311
000020 be 92 9b 3e 77 12 7f 3e ae ae 36 3e 73 7c 74 3e
       0.30385393 0.24909388 0.17840073 0.23875599
000030 79 7a 7d 3e 26 71 93 3e 37 3a 80 3e 1b 69 f0 3c
       0.24753751 0.28797263 0.25044414 0.029346993
000040 7d 9b 92 3e 76 35 2d 3e 0e 8f d8 3d 8a 93 93 3e
       0.28634253 0.16914925 0.105741605 0.288235
000050 d7 ca 86 3d c3 5f 83 bd 2f b9 44 bc 34 39 71 3d
       0.065816574 -0.064147495 -0.012007042 0.058892444
000060 78 e2 82 3e 58 3a 67 3e d9 30 9c 3e e6 76 5a bd
       0.25563407 0.2258085 0.30506018 -0.053336047
000070 da 55 90 3e e7 5f 82 3e 19 f3 5a 3e d9 b4 c2 3c
       0.281905 0.25463793 0.21381797 0.023767876
000080 a7 aa 6f 3e 41 80 1c 3e 04 c2 a0 3e 20 b4 7b 3e
       0.23404942 0.152833 0.31398022 0.24580431
000090 f4 10 9d 3e 46 76 95 3e ab c9 df bc af 2c 88 3e
       0.30676997 0.29191798 -0.027317842 0.2659659
0000a0 a9 13 a8 3e 48 25 f4 bc dd 6f a3 3e 08 fd 78 3e
       0.328275 -0.029802933 0.31921282 0.24315274
0000b0 7c 2e 91 3e c8 22 34 3e 93 86 2e 3e 3c 80 ad 3e
       0.28355777 0.17591393 0.17043523 0.33886898
0000c0 5c cd 4f 3e 3e 07 43 3e ac 0b 64 3e 28 95 6e 3e
       0.20293182 0.19045731 0.22270077 0.23299086
0000d0 5d 65 79 3e 32 bd 94 3e c2 ff 23 bd 1a 67 4c 3e
       0.24355073 0.29050595 -0.04003883 0.19961205
0000e0 d8 76 9a 3e 36 49 a6 3e 01 ca 55 3e 4d 51 82 3e
       0.30168796 0.3247773 0.2087784 0.25452653
0000f0 96 f3 3b bc 27 c8 a0 3e 1d 99 1c 3e 71 0b 51 3e
       -0.01147165 0.31402704 0.15292783 0.20414521
000100 bb 1d 57 3e 98 79 98 3e 00 62 3f 3e 5a db 43 bc
       0.21007435 0.2978027 0.18689728 -0.011954153
000110 21 7c 91 3e 55 61 2f 3e 1d 07 52 3e 69 5a 2e 3e
       0.28415015 0.17126973 0.20510526 0.17026676
000120 16 9e 62 3e 14 ce b4 3c 90 01 72 3e 7e ef b0 bb
       0.22130617 0.022070922 0.23633409 -0.0053996434
000130 e6 1b 70 3e ad a6 87 3e 1d b8 58 3e ba a9 d9 bc
       0.23448142 0.2649435 0.21163984 -0.02657019
000140 13 5a 94 3e d6 de a2 3e 8f 9c cf 3d 75 16 e4 3c
       0.2897497 0.31810635 0.10137283 0.02784274
000150 22 8a 2b 3e 5d 1c 91 3e 66 db 8c bd 42 bc 6a 3e
       0.16751912 0.28341952 -0.068777844 0.22923377
000160 a8 8b 26 bd 4e 91 a2 3e 5f 83 8d 3e ae e0 80 3e
       -0.04066053 0.31751484 0.2763929 0.25171417
000170 1d fa 87 3e 4d a1 0c 3c 85 74 4f 3e 46 b9 42 3e
       0.2655801 0.008583379 0.20259292 0.19015989
000180 5c a5 95 3e f0 ef 72 3e 8c 90 5d 3e 34 68 35 3e
       0.29227722 0.23724341 0.21637172 0.17715532
000190 a2 90 96 3e 69 09 96 3e 00 27 90 3c 36 72 61 3e
       0.2940722 0.29304054 0.017596722 0.22016224
0001a0 eb 51 34 3e 31 96 0e 3d b5 49 98 3e 8d 1e 92 3e
       0.17609374 0.034811202 0.29743734 0.28538933
0001b0 f5 e2 4b 3e 84 04 85 3e 91 cc 34 3d 2d fa b1 bd
       0.19910796 0.25980008 0.044140402 -0.08690295
0001c0 90 ed 38 3e 9c d3 39 3e 9f 86 35 3e 95 ed 7e 3e
       0.18059373 0.18147129 0.17727135 0.24895318
0001d0 2a 34 30 3e 7f a5 70 3e 93 63 0c bd ed 34 2d 3e
       0.17207399 0.23500632 -0.03427465 0.16914721
0001e0 44 7a 4e 3e 3f e7 f2 3b 5f d8 27 3d 55 d2 5b 3e
       0.20163828 0.0074128206 0.040977832 0.21466954
0001f0 aa 6d 8f 3e 00 c9 15 bd 05 a6 52 3e a2 0c 71 3e
       0.28013355 -0.03656864 0.20571144 0.23539975

model.model.4.weight f4 [128, 128]
000000 fc 00 81 3c d8 21 c6 bb 69 5a 79 bc 2e aa 95 bd
       0.01574754 -0.006046515 -0.015219309 -0.0730785
000010 23 04 55 bc ea 62 87 bd bf b9 06 3d 22 69 65 3d
       -0.013001475 -0.06610663 0.032891985 0.056008466
000020 06 66 92 3b 3b 60 f1 3c 4c a8 41 bd d1 af 1e bd
       0.0044677285 0.029464832 -0.04727964 -0.03874189
000030 7d dd e2 3c 47 a7 78 3d a9 63 29 3d c2 9f 88 3d
       0.027693504 0.060706403 0.04135481 0.066710964
000040 eb 31 29 3d 74 39 26 bd 15 15 4c bd 41 fc 4b bb
       0.04130737 -0.040582135 -0.049824793 -0.0031125697
000050 5c 50 83 3c 4e 1a 52 3d de 3e 4f 3d 3b e1 40 bd
       0.01602953 0.051294617 0.050597064 -0.047089797
000060 4e 0c 62 bd 19 f3 bd bd e3 51 00 3d 2e c2 17 3d
       -0.055187516 -0.09274883 0.031328093 0.03705042
000070 d2 8e bb bd 29 8e 86 3d b7 55 b1 3c 64 28 98 3d
       -0.091581 0.06570084 0.021647317 0.07429579
000080 71 ff 32 3c 93 55 91 3d f1 36 a9 bc 30 ca 6e 3c
       0.01092516 0.070964 -0.02065608 0.014574572
000090 67 2b a7 3c 0b 1f a4 bb d0 8e 82 bc ef fc 45 3d
       0.020406438 -0.0050085834 -0.015937239 0.04833692
0000a0 68 25 7f bc 00 40 64 37 ab 7e 9d bd 67 9a 89 bd
       -0.015572883 1.360476e-05 -0.076901756 -0.06718903
0000b0 26 c3 8f 3b d1 94 b8 bc a1 7c 9e 3d 2f 4d be bd
       0.004387277 -0.022531899 0.07738615 -0.09292065
0000c0 2a b0 5f 3c 2a c5 a7 bd 70 36 74 bc 73 38 96 3d
       0.013652841 -0.08191903 -0.014905557 0.073349856
0000d0 fd 4d 6b 3d ba 91 1e 3d b7 86 6c bd aa 11 a3 3d
       0.057447422 0.038713194 -0.05774566 0.079623535
0000e0 88 58 db bb bc 09 a5 bc 7f d2 c3 bd ab 7f 33 bc
       -0.0066939034 -0.020146243 -0.09561633 -0.010955731
0000f0 3d b2 82 bd a6 29 f2 3c 96 cd 29 3d 6f 09 89 3d
       -0.063816525 0.029560875 0.041455828 0.066912524
000100 23 e0 80 3c 61 08 0f bd b2 1b 60 3d 09 33 01 3a
       0.015731877 -0.0349201 0.054713912 0.00049285643
000110 4a 3b 6f 3b e5 65 01 3d 58 33 8a bb f4 12 39 3d
       0.0036503845 0.031591315 -0.0042175464 0.04518409
000120 78 4a 6d 3d 83 f8 a2 3d 9a 03 ae 3c 1c bc db bb
       0.057932347 0.07957556 0.021241952 -0.006705774
000130 7a ef c4 bd 0c 23 b1 bd 58 23 17 bb 5b fa ad bc
       -0.09615989 -0.08649263 -0.0023061838 -0.021237543
000140 39 eb 49 bb 17 d6 99 3d ec f3 8a 3d 6c b3 a7 bb
       -0.003081037 0.075115375 0.06784806 -0.0051178243
000150 ef db c1 bd 06 58 80 3d 3b e9 8d 3d 56 24 98 3d
       -0.09465777 0.06266789 0.06929251 0.074288055
000160 38 cb c7 3c 43 45 5b 3d a2 01 ae 3a 9a 3b 91 bd
       0.024388894 0.05353285 0.0013275633 -0.07091446
000170 76 80 91 3b 68 24 9c 3d 4f b2 1c 3b 9b 03 d1 3a
       0.0044403626 0.076241314 0.002390999 0.0015946509
000180 3c b2 04 bb 74 b9 61 3d 2d 21 86 bd 45 e1 21 3b
       -0.0020247838 0.055108503 -0.065492965 0.0024700921
000190 55 e8 46 3b 9a 96 64 3d b2 bb be bd 3d 4d 0f bd
       0.0030350883 0.055807687 -0.09313144 -0.03498577
0001a0 1d 2e bb bd 0c 49 93 bc 77 19 48 3d 08 a7 58 bd
       -0.09139655 -0.017979167 0.04885241 -0.05289367
0001b0 fa d0 9d bc 9c 37 c6 bd 3a 07 a6 3d 77 53 54 bd
       -0.019264687 -0.096785754 0.08106847 -0.05183741
0001c0 17 b0 e3 bc d0 26 90 bd fc 77 3b 3c 59 c3 8a bd
       -0.027793927 -0.07038653 0.011442181 -0.06775541
0001d0 9a 17 39 bd 62 90 3b bd 28 81 49 3d 35 47 aa bd
       -0.045188524 -0.04579199 0.04919544 -0.08314363
0001e0 36 31 67 bd 78 eb 7e bc cf 50 c3 3c cc ae 8c 3d
       -0.056443416 -0.01555907 0.023842243 0.06869277
0001f0 c9 a6 61 3b 3b cf 20 3c 13 46 98 3d c2 a9 2b 3d
       0.0034431687 0.009815033 0.074352406 0.04190994
000200 36 4d ac bd 00 cb 0c 3d 99 05 71 bd f9 77 6f 3d
       -0.08413164 0.034373283 -0.05884323 0.058464024
000210 74 11 84 bd 39 3c c1 3c c6 12 9e 3c ba 7b 13 3d
       -0.064486414 0.023588287 0.019296061 0.036006667
000220 69 e7 85 3d f3 72 fb bc 8d 9a f5 39 68 60 26 3c
       0.065382786 -0.03069446 0.0004684519 0.010154821
000230 17 4d af 3d 5f aa e5 3c 9e 10 f8 bc 60 c6 ff bb
       0.085596256 0.02803534 -0.030281361 -0.0078056306
000240 a7 f9 48 bd e0 80 7c bb 12 6c 7e 3d 4b b9 3c bd
       -0.049066212 -0.0038528964 0.062114783 -0.046075147
000250 80 0e 21 ba 3a 6c 6c bd fd e2 9d 3d 00 c0 21 3b
       -0.0006143823 -0.0577204 0.0770931 0.0024681091
000260 36 60 2f bd 4b 5d 6a 3c f9 b6 a6 3d 0a d5 75 3d
       -0.042816363 0.014304469 0.08140368 0.060017623
000270 9b 59 83 bd 51 61 27 3d 3c 2b 88 bc cd dd 70 bd
       -0.06413575 0.040864293 -0.016622178 -0.058805276
000280 94 ac ec bb f4 72 07 bc 2e 6c 22 bd 05 9f 1b 3d
       -0.0072227214 -0.008267153 -0.03965395 0.03799345
000290 b9 47 28 bd da 59 99 3d 40 6c 37 bb df 88 98 bd
       -0.041084025 0.07487841 -0.0027988106 -0.07447981
0002a0 c8 12 18 ba 28 a6 d2 3c 4e e9 b3 bd 69 d4 88 bd
       -0.00058011385 0.025713995 -0.08784734 -0.06681139
0002b0 7b 10 b3 3c 0b 0b 9d 3c 9a 5b 67 3d 6d 65 49 3d
       0.021858444 0.019170305 0.056483842 0.049168993
0002c0 d1 1d 95 3d f8 68 12 bd b0 3c 42 3d 39 d1 f3 3c
       0.07281078 -0.035744637 0.047421157 0.029762851
0002d0 55 60 24 bd 50 7b 81 3d 74 0e 90 3c 50 ac 71 bc
       -0.040130932 0.06322348 0.017585017 -0.014750555
0002e0 dd 7c 92 3d ab 21 d9 bc 61 92 3a 3d a5 b0 11 bd
       0.07152722 -0.026505312 0.045549754 -0.035568852
0002f0 b2 7d 8e bd b0 78 8b 3c 4d 16 b3 3d a6 c6 9c 3d
       -0.06957568 0.017025322 0.08744488 0.07655077
000300 5d e4 72 bc 50 9e 90 3d 17 c2 df bc 8e 69 3c 3d
       -0.014824954 0.07061446 -0.027314229 0.045999102
000310 45 ea 9e bd b9 29 4c 3d 28 ca 63 3d ec 67 a9 bc
       -0.07759527 0.049844477 0.055612713 -0.020679437
000320 b9 f1 a0 bd 44 cc 8e bd 9b d0 29 bd 6a 6a 66 bd
       -0.07858605 -0.06972554 -0.041458707 -0.056253828
000330 a9 bb ee 3c dd 33 a3 bd a4 96 ac 3d ab 3f 8f 3d
       0.029142218 -0.079688765 0.0842717 0.069945656
000340 27 84 89 3d 1f f3 82 bd 70 b5 55 bc ca 70 58 3d
       0.06714659 -0.06394028 -0.013043746 0.05284194
000350 66 9d 97 bd 89 8e 26 3d 5e 16 6e 3d cb 6b 19 bd
       -0.07403068 0.040663276 0.0581268 -0.037456315
000360 68 4e a7 bc 0e 05 8e bd ac 31 a4 bd c7 5a 91 bd
       -0.02042313 -0.06934558 -0.08017287 -0.070973925
000370 02 f0 b6 3c 01 a0 55 bd 79 1f 07 bd c8 49 b6 bc
       0.022331242 -0.052154545 -0.032989 -0.022251979
000380 7d c2 8d bb 6c 48 18 bd 83 8d 56 bd 06 f3 30 3d
       -0.0043261633 -0.037178442 -0.05238105 0.043200515
000390 cc 98 a1 bd 10 32 16 3d 4b bb 3e bd 04 f3 cc bc
       -0.07890472 0.036668837 -0.046565335 -0.025018223
0003a0 32 06 90 3d eb 34 9d 3d 38 7c eb 3c 59 48 af 3b
       0.07032432 0.07676109 0.028745756 0.0053492007
0003b0 3c a0 17 bd 12 87 f8 bc ab 59 40 3c dd 6f 9b 3d
       -0.037018046 -0.030337844 0.0117401285 0.075896956
0003c0 77 6a 13 3d 45 c9 b0 bd ea 40 00 3d 0c 40 4f bd
       0.035990205 -0.08632139 0.031311907 -0.05059819
0003d0 d9 b9 ca 3c 1b 9b 19 bd 0a f7 60 bd d2 03 5d bc
       0.024746822 -0.037501436 -0.054923095 -0.01348968
0003e0 fc 35 5b bd 9a 62 5b 3d 28 4f 74 bc 01 b6 93 bd
       -0.05351828 0.05356083 -0.01491145 -0.07212449
0003f0 80 23 76 bb e9 5c 5a bd 39 30 01 3d 36 7a 99 bc
       -0.003755778 -0.053311262 0.03154013 -0.018735033

model.model.4.bias f4 [128]
000000 fe 3a 24 3c 87 cc 05 3b 17 24 ad 3e bf 6b 36 3d
       0.01002383 0.0020416097 0.33816597 0.04453635
000010 0e df 15 bc d5 05 b0 3d 46 74 86 3e 10 4d 81 3e
       -0.009147419 0.08594862 0.26260585 0.25254107
000020 bd 66 80 3d 3e 0d 23 3d 7a 0e 08 3e 81 ef 08 3e
       0.06269596 0.03980755 0.13286772 0.13372613
000030 9b 95 65 3e 4b 7f fc bb 29 b4 a4 3d 6a 9a 01 3d
       0.22420351 -0.007705604 0.08042175 0.0316414
000040 03 3b 39 3c 95 d1 a8 3e 02 b1 97 3d 0d 75 79 3e
       0.011305573 0.32972398 0.074068084 0.24361058
000050 50 06 ec bc 93 42 4c 3e 5f 3d 96 bd b7 81 54 3c
       -0.028811604 0.19947271 -0.07335924 0.01297038
000060 85 dd 7b 3d a9 58 62 3e 5e 16 65 3e db c5 7f 3e
       0.061490554 0.22104134 0.22371814 0.2497782
000070 36 02 78 3e 37 4c 02 3e 00 5a 68 bd 4f 34 78 3e
       0.24219593 0.12724386 -0.056726456 0.24238704
000080 3c 49 c1 3e 0e f8 80 bd 62 18 c8 3c f8 ef f3 3d
       0.37751186 -0.06297313 0.02442569 0.11911005
000090 28 93 cf bb 27 c0 af 3c 17 ef 52 3c 9c 13 aa 3e
       -0.006334681 0.02145393 0.012874386 0.33218086
0000a0 bb 60 70 3d 55 9d d0 3d c9 69 71 3e 60 6a 8f bd
       0.058686 0.10186259 0.2357551 -0.07002711
0000b0 62 e9 72 3c cd 8d a2 3e be e1 20 3e 7e e9 8b 3e
       0.014826151 0.3174881 0.15711114 0.27326578
0000c0 b0 54 92 bc 10 4d 70 bd 1a 6f 07 bd dc 1a 1c 3e
       -0.017862648 -0.058667243 -0.03306494 0.15244621
0000d0 72 8d 03 3b d2 3d 7f 3e b0 74 50 3d 18 55 57 bd
       0.0020073322 0.24925926 0.050892532 -0.052571386
0000e0 80 86 37 3a e1 63 8b bd b8 a0 36 bd 4a 60 ff bc
       0.0007000938 -0.0680616 -0.044586867 -0.031173844
0000f0 e3 cb a6 bd 68 d8 aa 3e 51 ab fb 3b 9f ef 32 3d
       -0.08144357 0.3336823 0.0076803346 0.04368555
000100 54 10 8b 3c 13 fc 0a bc 76 14 b3 bc 1d 33 58 bd
       0.01697556 -0.008482951 -0.021860342 -0.05278312
000110 2b 57 9e 3e 66 05 05 3d e1 51 69 3e 90 a6 fd bc
       0.3092588 0.03247585 0.2278514 -0.030963212
000120 b5 be 7c 3e ad ee 8a bb d4 1c 57 3e 8f 00 b2 3e
       0.24682124 -0.004239878 0.21007091 0.3476605
000130 7e 4a aa bd 8d 9e 51 3d 53 bf 9c 3e a2 43 9f 3d
       -0.083149895 0.051176596 0.3061472 0.07776572
000140 96 df 18 3d c5 bb a9 3e 3e 1c af bd 86 d9 41 3c
       0.037322603 0.3315107 -0.08550309 0.011831647
000150 37 ac a4 3e 8c a9 7f bd 60 f7 ac bd 6e 64 05 bd
       0.3216264 -0.062417552 -0.084456205 -0.03256648
000160 80 15 8f 3d 23 a7 88 3e 67 37 a4 bd 52 e8 48 3c
       0.06986523 0.26690015 -0.0801838 0.012262421
000170 a4 cc 7d 3e b8 1d e7 bc 77 64 5e 3d 0a a0 0b 3e
       0.24785095 -0.028212413 0.05429503 0.13635269
000180 d9 99 25 bd 87 09 49 bd 84 5a 8b 3c e1 50 63 3e
       -0.040429924 -0.04908135 0.017010935 0.22198822
000190 a3 51 89 3e 31 7e 8a 3e 47 ec be 3c f3 6a 43 3e
       0.26820096 0.270494 0.023306025 0.19083767
0001a0 80 2b 7d 3e 19 91 af 3c 28 96 be bc 14 21 5f 3e
       0.24723625 0.021431493 -0.02326496 0.21789962
0001b0 95 13 7c 3e 95 81 76 bd dc 87 76 3e f2 23 ba bd
       0.24616845 -0.060182173 0.24075264 -0.09088887
0001c0 d2 db 75 3e f0 a4 63 bd a2 0f 5c 3e a9 31 77 3c
       0.24009636 -0.05557722 0.21490338 0.0150875235
0001d0 ac 07 39 3e 28 d1 17 3e c2 d2 84 3d ac 62 71 3e
       0.18069333 0.1482588 0.06485511 0.23572797
0001e0 af 0e 13 bc 30 c6 7f bd 3b 70 18 bd cb b1 56 3e
       -0.008975669 -0.062444866 -0.037216406 0.2096626
0001f0 5c 5f 58 3e 70 66 98 bb 83 aa 48 3e af b9 4d 3d
       0.21130127 -0.0046508834 0.19596295 0.05022591

model.model.6.weight f4 [7, 128]
000000 46 77 c4 bc 1f 92 43 bd 97 97 d6 3d 16 ec 80 3d
       -0.023982655 -0.047746774 0.10478132 0.0629503
000010 45 dd 9b 3d b3 2a e1 3d 53 4c 03 3e b2 c4 8a 3d
       0.07610563 0.10994472 0.12822084 0.06775798
000020 01 ec de bc 10 69 37 bd 21 2c db bc 7c 18 d3 3b
       -0.027212145 -0.04477793 -0.02675444 0.0064421277
000030 b8 79 c8 3d f0 6b 85 bd 3f 35 a7 3d 3f 54 2d 3c
       0.09788841 -0.06514728 0.08164453 0.010579168
000040 21 20 73 3c 7d b2 72 3d f0 04 03 bd 25 fe 73 3d
       0.014839203 0.05925225 -0.03198713 0.059568543
000050 96 d9 85 bd b1 a7 c8 3c 5d 1e a8 3d 74 d5 18 3e
       -0.06535642 0.024494024 0.08208916 0.14925176
000060 eb 6b 93 3d a1 39 08 bd a8 ba 3d 3d 65 10 1a 3e
       0.07198318 -0.033258084 0.046320587 0.15045317
000070 8f 08 17 3e 06 09 bf 3c 24 5b 92 bd e8 7b 3c 3d
       0.14749359 0.023319732 -0.0714629 0.046016604
000080 54 0a 66 3d b8 c2 b8 bc 4e df b5 3c ab 2b c2 3d
       0.056162193 -0.022553787 0.022201207 0.09480985
000090 cd 5c 3c 3d 41 be 97 bd 97 0e 97 bd 9d 0f fe 3d
       0.04598694 -0.07409335 -0.0737583 0.12405322
0000a0 5a 36 28 bd 23 30 d0 3d a1 c0 b7 38 bd 76 8a bd
       -0.04106746 0.10165431 8.762e-05 -0.06760929
0000b0 6e 3e c5 bc 13 01 b5 3d b3 a0 94 3c 99 5e 96 3d
       -0.02407762 0.088380955 0.018143034 0.07342262
0000c0 1a 30 4d 3d e2 2a 5c bd 52 55 7e 3c 16 ee 13 3e
       0.0500947 -0.053751834 0.015523272 0.14446291
0000d0 b8 2c 2a bc fe e6 cf 3d 4b da 5d bc a6 c4 77 3d
       -0.010386638 0.1015148 -0.013540815 0.060490273
0000e0 98 3f cb 3c 80 bf 90 3a 00 13 0d 3d a5 37 a5 3d
       0.024810597 0.00110434 0.034441948 0.08067254
0000f0 c1 83 90 3d 53 82 32 3d 74 54 7e bc f6 e0 3c bd
       0.0705638 0.043581318 -0.015523065 -0.046112977
000100 70 5b b4 3c e3 e5 2c 3d 69 ed a4 3c cc a8 b4 3c
       0.022016257 0.042211425 0.020132737 0.022053145
000110 9f 19 9e 3d 7e ac 75 bd b0 79 d7 3d 8b d7 4e 3d
       0.077197306 -0.059978954 0.10521257 0.050498527
000120 5a 41 18 3e b4 ae 80 bd 64 9f 29 3a 6b 58 c3 3d
       0.1486868 -0.06283322 0.00064705894 0.09538349
000130 59 72 92 bd ba e9 28 bd 27 58 74 3d d4 2b 16 3d
       -0.07150716 -0.041238524 0.05965438 0.03666289
000140 bf b8 3a 3d bf 6c 29 3e 7d 47 96 3d 05 ad 85 bc
       0.045586344 0.1654539 0.07337854 -0.016317854
000150 6f ba e7 bb 7b 06 a4 bd 50 58 f1 3c 23 60 af 3d
       -0.007071785 -0.080090486 0.029461056 0.085632585
000160 6f 6c 86 bd 7b c8 a2 bb 14 0a 0d 3d 1a 99 6d 3d
       -0.06563651 -0.004967747 0.03443344 0.058007337
000170 f9 c4 14 3e fa 6e 91 bd 33 d7 9c bc 27 cd d7 3d
       0.14528264 -0.07101245 -0.019145584 0.105371766
000180 78 3d 41 bc 2c 14 77 3d f0 4d e6 3b 18 4e 20 3e
       -0.01179444 0.06032197 0.007028334 0.1565479
000190 29 c0 12 3e a3 81 c6 3d 4b 2e 9d 3d e6 2d 23 3e
       0.14331116 0.09692695 0.07674845 0.15935478
0001a0 cb 6d 16 3e f2 e0 8e 3d ef 11 c1 bc bc 6f 20 3e
       0.1469032 0.06976499 -0.023568122 0.15667623
0001b0 a5 d6 0d 3e 3e ed c7 bc 74 88 fa 3d f5 1c 97 3d
       0.13851412 -0.024405118 0.122330576 0.0737857
0001c0 e6 4f 6d 3d 24 87 4d 3d 9f 44 9e 3d 48 4f 9c 3d
       0.057937525 0.05017771 0.07727932 0.07632309
0001d0 19 2d 6f 3d b8 de 86 3d d1 d9 dd bb a8 f2 bb 3d
       0.058392618 0.06585449 -0.0067703505 0.091771424
0001e0 f0 0d 31 3d 46 13 24 3d 11 13 95 3d 6f 96 f7 3d
       0.043226182 0.040057443 0.07279027 0.1208924
0001f0 8d 20 bf 3d 6f 75 a8 3d 49 1c d6 3d 0f e6 5b 3d
       0.093323804 0.08225524 0.10454614 0.053686198
000200 25 9e 9a 3d a8 25 8f bc 0a 21 b1 3d 49 c4 7a 3d
       0.07549695 -0.01747401 0.0864888 0.06122235
000210 fc 12 02 bd 79 3e 1a 3d df e9 0e 3e fc e9 6a 3d
       -0.031756386 0.037657235 0.13956402 0.05735205
000220 4c a7 44 3d 9e e7 84 3d 74 f9 12 3c 9f 8b 14 3d
       0.04801111 0.0648949 0.008970607 0.036265966
000230 e7 2d f4 3d 3b f4 9f bd d6 04 94 bd f6 24 0f bd
       0.11922818 -0.07810255 -0.07227485 -0.034947358
000240 fd ed 05 bd 16 97 49 bc 41 ba dc bc 73 f2 f3 3d
       -0.032697666 -0.012304088 -0.026944282 0.11911478
000250 eb b1 54 bd 0b 9a 08 3e 8e 39 e9 bc 9c 91 c5 3c
       -0.05192749 0.13340013 -0.028469827 0.024117284
000260 25 21 3e bd 0e d3 87 bc ea bd 24 3e 55 40 fe 3d
       -0.046418328 -0.01658013 0.16088071 0.12414614
000270 54 33 04 3e 47 7a b8 3d 2a 5d 66 3d c0 b8 24 3d
       0.12910205 0.090076976 0.056241192 0.040215254
000280 df 11 29 3e 10 fb c3 3c 81 74 a7 3d 06 9e 7c 3d
       0.16510724 0.023923427 0.08176518 0.06167414
000290 48 36 93 bd aa 06 f2 bc 57 a9 a0 bd ea f6 fe 3c
       -0.07188088 -0.029544193 -0.07844799 0.031123597
0002a0 b9 a9 94 bc 46 96 f5 3d fd 20 7c 3d 9a c2 82 bd
       -0.018147336 0.11991553 0.061554898 -0.063847736
0002b0 74 e3 b3 bc 3a 9d 8f 3d 1d 67 5c 3d cb 8c 0e bc
       -0.021959044 0.070124105 0.053809274 -0.00870056
0002c0 bc f2 ad bc 5c aa f7 3c 64 6b e6 3c c2 bb fc 3c
       -0.021233909 0.0302326 0.02812738 0.030851249
0002d0 72 09 a2 3d 9c f2 c0 3d 7d 0d 5b 3c bc 33 8b 3c
       0.07911958 0.09421274 0.013369915 0.016992442
0002e0 70 5d f5 bb 40 9f 92 bd c0 29 f2 3b 35 bf 85 3d
       -0.0074879453 -0.07159281 0.007390231 0.065306105
0002f0 d0 4f 86 bc 85 64 fb 3d 32 24 43 3c f5 fb 42 3b
       -0.01639548 0.12275032 0.011910485 0.002975223
000300 a5 49 b4 bd 90 82 0a 3d 40 d2 85 ba 80 11 c6 bc
       -0.08803109 0.03381592 -0.0010209754 -0.024178267
000310 4a 66 73 3d 40 88 b6 bc ed 3a c2 3c 1f 28 8c 3d
       0.059423722 -0.022281766 0.023709739 0.0684359
000320 a3 ed d8 3d 74 b3 a0 bc d2 00 2f 3e f0 15 30 3e
       0.105922006 -0.01961682 0.17090157 0.17195868
000330 03 08 b4 3d 64 8e 33 3c 5b 61 82 3c 00 87 01 bd
       0.087905906 0.010959242 0.015915563 -0.031622887
000340 3c bc 81 3c 07 37 31 3e ed 3a a4 3d 0f 47 a2 bd
       0.015836827 0.17306148 0.08019052 -0.079237096
000350 65 92 1b 3d 91 fe ad 3d 00 89 1d 3b f8 e0 b1 bd
       0.03798141 0.0849582 0.0024037957 -0.086854875
000360 13 c6 12 3c a3 a8 e0 3d c1 e1 48 bd 40 7d 89 bd
       0.008958357 0.10969665 -0.04904342 -0.06713343
000370 61 91 9d 3d a1 fb 9c 3d 95 8e 50 bd 05 11 0c 3c
       0.076937445 0.07665182 -0.050917227 0.00854898
000380 00 87 14 bc 3a 7f 93 bd 6a 3d 73 3d 87 fa 0a 3e
       -0.00906539 -0.07202001 0.05938474 0.13572131
000390 9f f0 0f 3e c2 b7 31 3e 23 e4 13 3d cb 35 17 3e
       0.14056633 0.17355254 0.03610624 0.14766614
0003a0 b0 eb 54 3d 2e d5 8c 3d 2a 0a 4c 3d a9 33 0a 3e
       0.05198258 0.06876598 0.04981438 0.1349627
0003b0 18 22 3e 3c b7 10 d9 bc b3 40 ae 3d c5 98 ad bd
       0.011604808 -0.026497228 0.08508434 -0.08476404
0003c0 30 5f a5 3d 26 ef 8d 3d 53 ba 5a 3d 38 7d 02 3c
       0.08074796 0.069303796 0.05340035 0.007964425
0003d0 8b ac 40 3d 2f 69 c8 3c d4 be 52 bc c8 53 e2 3d
       0.04703955 0.024464218 -0.01286288 0.11051136
0003e0 2c 13 59 bc a1 42 36 bd 30 48 83 bc fd 6b 13 3e
       -0.0132492 -0.044497136 -0.016025633 0.14396663
0003f0 24 1e 6e 3b e6 23 21 3d 06 7d 68 3d e6 9e 6b 3d
       0.0036333883 0.039340876 0.056759857 0.057524584

model.model.6.bias f4 [7]
000000 f1 70 8c 3d e8 df a2 3e bc f3 aa 3e af d6 5d 3e
       0.06857479 0.31811452 0.3338908 0.21663927
000010 2d f7 82 3e 30 6e 29 3e 1f f1 da 3d
       0.25579205 0.1654594 0.106905214

model_old.model.0.weight f4 [128, 42]
000000 89 36 f9 bd f3 2f 95 bd 4d 50 1e 3e cb 22 89 3c
       -0.12168605 -0.07284536 0.1546032 0.016740223
000010 51 0e 14 3d 82 f9 0a 3e 18 ed d0 3c 1e cf ee bd
       0.036146466 0.13571742 0.02550368 -0.11660598
000020 5d e3 91 3d a6 96 f8 3c 98 ab a6 3d 5a 66 f5 3c
       0.07123444 0.030345272 0.08138198 0.029956032
000030 3d 73 8d 3c 6c c7 1b bd d5 b8 97 3c 3a fe d1 3d
       0.017266864 -0.03803198 0.018520752 0.10253568
000040 38 8b 9b 3c f7 ae bb bd df 9e e6 bd e1 e8 e9 bb
       0.018987283 -0.09164231 -0.11260771 -0.007138357
000050 05 c8 9a 3d 27 c9 07 3e 89 2d 22 3e 65 98 84 bd
       0.07557682 0.13260327 0.15837683 -0.064743795
000060 b2 fa ba bd 3e 74 4e 3e f5 d6 e0 bd c0 84 e5 bc
       -0.091298476 0.2016153 -0.109785 -0.028017402
000070 21 33 fa 3c 2e f4 9f bc 12 99 90 3d 8b d5 3a be
       0.030541958 -0.019525614 0.07060446 -0.18245523
000080 e2 18 77 3d 6f 0f 54 bd 35 af f7 bd 21 ee 84 3d
       0.060326464 -0.05177253 -0.12093965 0.06490732
000090 92 f4 9d bd 0a 6c 84 3d c0 5b 40 bd 0b 3f 17 be
       -0.07712664 0.06465919 -0.0469625 -0.14770143
0000a0 76 90 99 bb d9 89 40 bc 12 1e 04 3e 08 01 5e 3d
       -0.0046864105 -0.011751615 0.12902096 0.054200202
0000b0 50 41 00 bc 44 05 14 3e 5e 21 b4 3d 37 e5 c6 3d
       -0.007828072 0.14455134 0.08795427 0.09711688
0000c0 5e 75 97 3d 70 9c dc bd 90 ee 1f be e7 97 01 bd
       0.07395433 -0.107720256 -0.15618348 -0.031639006
0000d0 d6 8e d8 bd 3b 7c 17 3e be 03 f7 bb 91 99 59 3d
       -0.10574119 0.14793484 -0.007538288 0.053124968
0000e0 7e 06 2f 3e 56 8f 03 be ab c2 ab 3d 1d 26 95 3b
       0.1709232 -0.12847647 0.08386739 0.0045516626
0000f0 26 7b 2e be f6 82 11 3e 92 1b 9b bd a0 7c 78 3e
       -0.17039165 0.14210114 -0.07573618 0.2426629
000100 81 07 eb 3c c1 e9 8e bd 08 11 39 3e 8a 73 04 bd
       0.028690102 -0.06978179 0.18072903 -0.03233675
000110 f0 40 3c 3e ef 28 f4 3d 96 05 a5 3d b9 aa c5 3d
       0.18384147 0.1192187 0.08057706 0.096517034
000120 1a 74 9d 3d 28 24 e7 3b ef 90 56 bd a3 5f 3a be
       0.0768816 0.0070538707 -0.052384313 -0.18200545
000130 44 5d 11 be 32 27 79 3b aa 58 84 bd 30 52 fc bd
       -0.14195734 0.0038017747 -0.06462224 -0.123203635
000140 04 a0 79 3b 09 88 99 3d df 09 f4 bd 3d 72 f7 bd
       0.0038089762 0.0749665 -0.11915945 -0.12082336
000150 f1 19 86 bd 71 ad 5d 3d bb c8 8b bb 00 f6 05 be
       -0.06547917 0.054120485 -0.0042658723 -0.13082123
000160 f3 6c 23 3e 6a 88 35 3d 41 6f 00 bd 4f 07 b1 3b
       0.1595953 0.044319548 -0.0313561 0.0054024826
000170 e7 5f c3 3c 00 e7 cc bd 1e 8b 09 bc 20 f1 24 3e
       0.02384944 -0.10004997 -0.0083949845 0.16107607
000180 f1 46 ca bd 5f 08 2e bc 9e 21 60 be 15 9c 08 3e
       -0.09876812 -0.010622113 -0.21887824 0.1334079
000190 66 8d 70 bd a5 06 81 bd 83 7f 81 3d 89 33 ec 3d
       -0.058728598 -0.063000955 0.06323149 0.11533267
0001a0 5e 90 95 3d 1d 14 28 3e a5 80 33 3e 47 f4 9a 3d
       0.073029265 0.16413923 0.17529543 0.075661235
0001b0 b3 8d e2 bd 59 7e c6 3d 78 96 03 3e ce 31 57 bd
       -0.11062183 0.09692068 0.12850368 -0.05253773
0001c0 e7 f2 23 3e 88 07 8a bd 63 5b 31 3e 3b 5f c4 bd
       0.16010629 -0.06739718 0.17320018 -0.09588476
0001d0 62 a6 ee 3d 82 19 08 be d3 3a 86 3c c3 fb 25 3e
       0.11652829 -0.1329098 0.016385471 0.1620932
0001e0 37 7f 16 3e 62 44 c1 3d 36 02 1d bc 5e ef 54 3e
       0.14696966 0.09436871 -0.009583047 0.20794436
0001f0 47 d6 ef 3d b7 b5 36 bd 5a 5e 0e be b4 47 47 be
       0.11710792 -0.04460689 -0.1390318 -0.19460946
000200 cd 7c d1 bd 46 f7 ba 3d 31 a8 96 bd d0 22 df 3d
       -0.10228882 0.09129195 -0.07356299 0.10895312
000210 dd e3 10 be 44 b5 ce 3d 98 b5 d2 3d 49 8f a4 bd
       -0.14149423 0.100931674 0.102885425 -0.08035142
000220 21 db df bd 2d db 1c 3d 3f 49 6d 3d b0 b6 68 bd
       -0.109304674 0.03829496 0.05793118 -0.05681485
000230 9f f2 bc 3d fa 18 78 bd 8a 8f 11 3e 48 11 53 bd
       0.09225964 -0.060570695 0.14214912 -0.051530153
000240 6d d1 84 3c b3 fd ca 3d b1 c8 1d 3e 19 55 f2 3c
       0.016213143 0.099116705 0.15408589 0.029581593
000250 25 95 81 bd d3 81 16 3e e4 50 5c bd 77 7e 20 3e
       -0.06327275 0.14697962 -0.05378808 0.15673243
000260 3d 00 4d 3c 30 84 80 bd 54 84 e0 3d d6 0e 9f bb
       0.012512264 -0.06275213 0.109627396 -0.0048540635
000270 10 5d 80 3e 2d ce cb bd 7a 58 5f 3d 58 ca 0a be
       0.25071 -0.09951434 0.054527737 -0.1355375
000280 45 02 9b 3d d5 34 01 3e 3f 16 bf bd 65 45 59 3e
       0.07568792 0.1261781 -0.09330415 0.21217878
000290 e1 8b 1c 3e 1b 35 5c bd cd c8 10 be b5 5c 8b bd
       0.15287735 -0.053761583 -0.141391 -0.06804792
0002a0 38 42 83 3d 9f e3 b5 3d fc a1 8f bd b1 dc 9a bd
       0.064091146 0.08881306 -0.07013318 -0.07561625
0002b0 af dd 56 bd 54 c1 63 bc 21 e9 d4 3d 90 95 a3 3d
       -0.052457508 -0.0139010735 0.10396028 0.07987511
0002c0 6a b6 be 3c 54 c8 14 bc 47 5e ef 3d 75 01 b0 bd
       0.023280341 -0.009080965 0.11687904 -0.08594028
0002d0 27 23 d0 bd 13 9e 1b 3e 1e 67 0a 3e 8e d9 a0 bd
       -0.10162955 0.1519702 0.13515899 -0.07853995
0002e0 7f 8f 7a bd c0 82 ec 3d 87 7a 36 3a 1e 52 1d 3d
       -0.061172005 0.11548376 0.0006961007 0.03840839
0002f0 cd 67 f7 3c 2b f8 22 be 77 23 a5 bd 7f e6 6b 3e
       0.030200863 -0.15914981 -0.08063405 0.23037146
000300 47 0c 12 3e db 4c dc bd 40 1e 27 bd 6a 7c cc 3d
       0.14262496 -0.107568465 -0.040800333 0.099846676
000310 3f 56 8b bd 3e 2c df bd 55 0d 91 bd 3c 02 35 3c
       -0.068035595 -0.108971104 -0.07082621 0.011047896
000320 2c 91 87 bd b3 ac d2 bd 9c e2 0a 3e bc 38 ad bd
       -0.06619486 -0.10286846 0.13563007 -0.08458087
000330 60 c5 fd bd bb 19 8a 3d 99 be b9 bd 33 3a d1 3c
       -0.12391162 0.06743189 -0.09069557 0.025540447
000340 f9 bf cc bc 61 e4 ae 3d 45 56 49 be 26 59 b4 bd
       -0.024993883 0.085396536 -0.19661815 -0.08806066
000350 d5 c4 da 3d b0 be ee 3d 68 c3 67 bd 3c 5c ff 3c
       0.10682074 0.116574645 -0.05658284 0.03117191
000360 69 a2 78 bd 76 b2 85 be b6 5c 24 3e 94 1e 4b bd
       -0.06070176 -0.26112717 0.16050991 -0.04958971
000370 98 01 ac 3d 40 4b 0a 3c 3d 5a 41 be 69 86 b1 3c
       0.083987415 0.008440793 -0.1888208 0.021670537
000380 1c a0 4b 3d c6 1c ba 3d 0b fe ea 3c 44 3c 38 bd
       0.04971324 0.09087519 0.02868559 -0.04497935
000390 b4 18 0d 3c dc 67 05 3e eb dd f6 3d 59 3b dc bd
       0.008611847 0.130279 0.12054046 -0.10753507
0003a0 95 34 35 bd 8d 47 93 3d 99 28 f3 bc 82 6a 1d be
       -0.0442396 0.071913816 -0.029682444 -0.15372661
0003b0 66 eb 21 3e 93 04 06 3c 36 2f 25 3e 38 b5 1e be
       0.15812454 0.0081798015 0.16131291 -0.15498817
0003c0 c3 b1 ee 3c 2b 9a 7b 3d 6c 02 4b be 1e 78 8f bd
       0.029137498 0.061426323 -0.19825143 -0.070053324
0003d0 f6 9b 32 bd 8f 25 10 3c 53 23 dd bd d7 02 05 3e
       -0.043605767 0.008798017 -0.10797753 0.12989365
0003e0 a6 96 8a bd 98 08 fc bd b1 61 04 3d c7 a5 a5 bd
       -0.06767015 -0.12306327 0.03231973 -0.0808826
0003f0 e7 a8 31 be 32 06 24 3e 2b 2f 94 bd 22 4e 5a 3e
       -0.17349587 0.16017988 -0.07235559 0.21318868

model_old.model.0.bias f4 [128]
000000 6d 5a 99 3e bc 3c bf 3b e7 0a b2 bc 89 b9 8c bd
       0.29951802 0.0058360975 -0.021733714 -0.068713255
000010 5c b2 89 3e ae 20 7e 3e fa 9e 72 3e 3d 5f 4e 3e
       0.2689389 0.24817154 0.23693457 0.20153518
000020 c9 c8 be 3e ab 33 92 3e 50 4b 5a bd 45 bb a6 3e
       0.37262562 0.28555045 -0.05329448 0.3256475
000030 4c d5 bd 3e 16 f9 03 be 19 db 67 3c ee 25 95 3e
       0.37076795 -0.12887987 0.014151358 0.291305
000040 2a 65 52 3e ff f5 32 3e f3 5f b7 3b ff ab 8e bc
       0.20546404 0.17476653 0.005596155 -0.017415999
000050 e3 1e 39 bc f0 a9 4d 3e 64 03 af 3e 73 fa 59 bd
       -0.011298868 0.20084357 0.34182274 -0.053217363
000060 80 e2 a7 3b 96 ef f8 3b 45 e0 7a 3e 28 e8 c4 3a
       0.0051234365 0.0075969202 0.24499615 0.0015022801
000070 d8 27 97 3b 1e 4b 26 be c7 0d 7f 3e b3 a9 60 3e
       0.004612904 -0.16239592 0.249076 0.21939735
000080 fa da ce 3d 3c f9 a0 3e c7 3c aa 3e 1d ca 91 3e
       0.1010036 0.3144015 0.33249494 0.28474513
000090 ad 9f af 3d d1 02 55 3c 67 b5 99 3d e3 4f 9e 3e
       0.085753776 0.01300116 0.07505303 0.30920324
0000a0 ae 14 41 3e b9 84 e9 bc 8e 0c b7 3e 0a 80 3e 3e
       0.18855545 -0.02850567 0.35751766 0.1860353
0000b0 33 7b 61 3e b7 a7 b8 3e f6 23 3e 3e a3 8e 7a 3d
       0.22019653 0.36065456 0.18568406 0.061171185
0000c0 6e 9d c3 3e 90 d0 ac 3e 3d c3 d7 3c 3e a3 40 3d
       0.38206047 0.3375287 0.026338214 0.04703068
0000d0 6d 89 00 bd 68 a3 b1 3e 54 b6 8e 3e fa f8 b1 3e
       -0.03138106 0.34694982 0.2787348 0.34760267
0000e0 ea 77 57 bd a0 77 9e 3e 6d 18 b9 3e 72 ef ab 3a
       -0.052604593 0.30950642 0.36151448 0.0013117625
0000f0 99 d4 00 3f 28 67 26 3c 24 21 88 3e 04 d4 f7 3c
       0.503244 0.01015643 0.26587784 0.030252464
000100 4c b7 28 ba 2d 87 46 3e 40 83 5c 3e fe 5c 90 bd
       -0.0006436005 0.19387503 0.21534443 -0.07048987
000110 25 1a f3 3c c4 52 7a 3d 09 f0 a7 3d c1 c7 b4 3e
       0.029675553 0.061114088 0.0820008 0.3530865
000120 17 ed c2 3e 03 37 af 3c 29 49 b0 3e 97 06 8f 3e
       0.3807151 0.021388536 0.34430817 0.27934715
000130 5e ed b7 3d 10 6a 4d 3c 89 16 c0 3e 84 55 ae 3e
       0.08980821 0.012537494 0.37517193 0.34049618
000140 fe e6 3a 3e bb 86 65 3e 2b 93 cf bd 88 10 40 bd
       0.18252179 0.22414677 -0.10135492 -0.046890765
000150 8b d9 84 bd 8c c5 3d 3e 9e 8a 9e 3e 5c 19 5f 3e
       -0.064868055 0.1853239 0.30965132 0.21787018
000160 05 19 e0 3c e7 aa 1a 3e 1d b7 25 3d de 34 5d 3e
       0.02735568 0.15104257 0.040457834 0.21602198
000170 97 07 4a 3d 18 eb 8a 3e 2e 86 b6 3e e6 2f 8e 3e
       0.049323644 0.27132487 0.35649246 0.2777092
000180 58 de 82 3e 45 ec b7 3e 28 d7 dc 3d 30 86 22 be
       0.2556026 0.35922447 0.10783225 -0.15871501
000190 a0 8c 91 3e 81 96 98 3e d5 87 a3 3e fd 0c 3a bd
       0.284276 0.29802325 0.3193957 -0.045422543
0001a0 70 c1 87 3a ce f3 b7 3e ae cc 15 be 96 bf 38 3e
       0.0010357331 0.35928196 -0.1462886 0.18041834
0001b0 da 1f 8a 3e 7d 3b 56 3e 31 c2 57 bb 3b d0 18 3e
       0.26977426 0.2092113 -0.0032922144 0.14923184
0001c0 53 c4 4a 3e 96 24 a7 3b a0 89 91 3c a3 6d 24 3e
       0.19801454 0.005100797 0.01776582 0.16057448
0001d0 f3 4a 0d 3d 57 19 f4 3d 85 d5 05 3e ab cc b2 3e
       0.034495305 0.11918896 0.13069732 0.34921774
0001e0 98 e7 2f 3c 49 ed 05 3d ab 46 ac 3e 98 86 c8 3d
       0.010736369 0.032696996 0.33647665 0.09791297
0001f0 82 f3 ad 3e 49 da 87 3e 17 7a 7f 3e af c9 6e 3e
       0.33974844 0.26533726 0.24948917 0.23319124
