project/paper_notebooks/saved_variables/paper_notebooks/8/1-mlp_dqn_frozen_agent1/best_policy_agent1.pth (torch, 320501 bytes, 16 tensors)

model.model.0.weight f4 [128, 42]
0	0xbd9ed01d	-0.07754538
1	0xbd1a35ac	-0.03764884
2	0x3e1e793a	0.15475932
3	0x3ca97773	0.02068684
4	0x3d4a140e	0.049335532
5	0x3e0c960c	0.13729113
6	0x3d3515d3	0.044210266
7	0xbdbdfc12	-0.09276594
8	0x3dbd19f3	0.09233465
9	0x3cad8c47	0.021185054
10	0x3e066f2c	0.13128346
11	0x3cca710e	0.024712112
12	0x3be1bd93	0.006889054
13	0xbd21c398	-0.039493173
14	0x3d4ec489	0.0504804
15	0x3db2a281	0.087224014
16	0x3ca625bb	0.020281663
17	0xbc4e7d87	-0.01260317
18	0xbe03b443	-0.12861733
19	0xbd322bc5	-0.043498773
20	0x3d31bff2	0.043395944
21	0x3dc05342	0.0939088
22	0x3de779e6	0.11302547
23	0xbd87f683	-0.06638815
24	0xbd9d2eb6	-0.07674925
25	0x3dca7d02	0.098871246
26	0xbdcf45fd	-0.10120771
27	0xbd4b2121	-0.04959214
28	0x3c991f4a	0.018691678
29	0xbd355f3d	-0.04428028
30	0x3e1f174e	0.15536234
31	0xbdfa5a90	-0.12224305
32	0x3cd5e4ff	0.02611017
33	0xbbbd2ae5	-0.0057729357
34	0xbdbf1e1b	-0.09331914
35	0x3d594025	0.05303969
36	0xbd8f79a6	-0.070056245
37	0x3df7aac6	0.12093119
38	0x3b172c42	0.0023067151
39	0xbe1dd62f	-0.15413736
40	0xbc9c907b	-0.019111862
41	0x3c4373f1	0.011929498
42	0x3e189be6	0.1490322
43	0x3d8108d7	0.06300514
44	0xbce1bdf6	-0.0275564
45	0x3e0bf459	0.1366743
46	0x3d2e918d	0.042619277
47	0x3db133c3	0.08652451
48	0x3d68b248	0.056810647
49	0xbdf18e90	-0.1179477
50	0xbdefc7f6	-0.117080614
51	0xbd8a4475	-0.067513384
52	0xbdc38ffd	-0.09548948
53	0x3dd9cd93	0.10634913
54	0xbd6516be	-0.05592989
55	0x3cdca06e	0.026931968
56	0x3e08bf47	0.13354217
57	0xbe09032b	-0.13380115
58	0x3da082ee	0.07837473
59	0x3d62b59d	0.05534898
60	0xbe4167ba	-0.18887225
61	0x3d9ca865	0.07649306
62	0xbdf8c2ad	-0.121465065
63	0x3e230e52	0.15923432
64	0xbd036437	-0.032077994
65	0xbd462b4e	-0.048381142
66	0x3e1ab9d1	0.15109946
67	0xbe07e3ae	-0.13270447
68	0x3e2abba5	0.16673143
69	0x3d4a0b94	0.049327448
70	0x3d40d967	0.04708233
71	0x3c26157e	0.01013696
72	0x3e1721a2	0.14758924
73	0x3d7b586d	0.061363626
74	0xbdad3336	-0.08457033
75	0xbe05058a	-0.12990394
76	0xbe04b4d7	-0.1295961
77	0xbd6e38ca	-0.058159627
78	0xbe02ed4f	-0.12785839
79	0xbd821e91	-0.06353486
80	0x3d2988b5	0.04139014
81	0x3dbc823a	0.09204526
82	0xbe15f9ba	-0.14646044
83	0xbdfd9441	-0.12381793
84	0xbbfd5d39	-0.0077320603
85	0x3dbaf4e5	0.09128741
86	0x3bd219e6	0.0064117787
87	0xbdf524a9	-0.11969883
88	0x3e309ed5	0.1724809
89	0x3dc62f6f	0.09677016
90	0x3bbf3bd1	0.005835988
91	0x3d36a0ce	0.04458695
92	0x3d1a3d8c	0.037656352
93	0xbe29a66c	-0.16567391
94	0x3da91522	0.08255984
95	0x3dcdb8e7	0.10045033
96	0xbda5b4b8	-0.0809111
97	0x3b995d44	0.0046803076
98	0xbe1ce35f	-0.1532111
99	0x3dfe1dea	0.124080494
100	0xbd8ca4ee	-0.06867395
101	0x3cec66db	0.028857639
102	0xbca6ca1f	-0.02036005
103	0x3d90d02e	0.07070957
104	0x3d01f9f9	0.031732533
105	0x3ddd2f1d	0.10800002
106	0x3df97688	0.12180811
107	0x3bd4c647	0.006493363
108	0xbd5cc9e7	-0.053903487
109	0xbd6165fe	-0.055028908
110	0x3e0cc5a0	0.13747263
111	0xbdb47eb6	-0.08813231
112	0x3e144ae9	0.14481701
113	0xbdba3815	-0.09092728
114	0x3e438137	0.1909226
115	0xbdc925e9	-0.09821684
116	0x3d8b00bc	0.067872494
117	0xbd9d8c55	-0.07692782
118	0xbac63371	-0.0015121532
119	0x3e04f881	0.12985422
120	0x3e186fd4	0.14886409
121	0x3dacc24b	0.08435496
122	0x3c9004f5	0.017580489
123	0x3e09bc19	0.1345066
124	0x3dcd1e16	0.10015504
125	0xbd741a9b	-0.059595685
126	0xbd87440e	-0.06604777
127	0xbe083677	-0.13302027
128	0xbd974371	-0.0738591
129	0x3d8b8a3e	0.06813477
130	0xbda5d73b	-0.080976926
131	0x3df76608	0.12080008
132	0xbde01e04	-0.10943225
133	0x3e24ce0c	0.16094226
134	0x3dca6242	0.098820224
135	0xbdc76216	-0.09735505
136	0xbe0d3c2a	-0.13792482
137	0xbccc073a	-0.02490579
138	0x3dc25fc5	0.09490923
139	0xbc8d5aa1	-0.01725513
140	0x3e0db099	0.13836898
141	0x3b544dc0	0.0032394975
142	0x3dc63495	0.09677998
143	0xbd3c3e4c	-0.04595785
144	0xbd91d5d5	-0.07120863
145	0x3e02373f	0.12716387
146	0x3e0c2354	0.13685352
147	0x3cfcbf7c	0.030853026
148	0xbe2da59f	-0.1695771
149	0x3d608b23	0.05482019
150	0xbd4a614b	-0.049409192
151	0xba7cdad6	-0.0009645646
152	0x3dce1e70	0.10064399
153	0xbd08f34a	-0.033435144
154	0x3e222fdf	0.15838574
155	0xbd7785c8	-0.060430318
156	0x3e197eb5	0.14989741
157	0xbd6a9258	-0.05726847
158	0x3b950648	0.004547868
159	0x3bc863d4	0.006115416
160	0x3dabfd2f	0.083979
161	0x3dec68db	0.11543437
162	0xbe151bef	-0.14561437
163	0x3dc8d362	0.09805943
164	0x3e2336e0	0.15938902
165	0xbdedb932	-0.11607589
166	0xbdd8b8e0	-0.10582137
167	0xbd309cb4	-0.043118194
168	0x3dd407b4	0.10353032
169	0x3dbe4a30	0.09291494
170	0xbde0a65d	-0.10969231
171	0xbd0f8698	-0.035040468
172	0x3ba41c75	0.005008275
173	0xbd0bf20c	-0.03416638
174	0x3dd9e3f6	0.10639183
175	0x3dce8615	0.10084168
176	0xbd58256a	-0.052770056
177	0x3c3a9bc2	0.011389675
178	0x3d974d84	0.07387832
179	0xbca4d0bd	-0.020119065
180	0xbdd5c098	-0.10437125
181	0x3da60a3b	0.0810742
182	0x3e018ef9	0.12652196
183	0xbd84b229	-0.06479294
184	0xbcbdb276	-0.023156386
185	0x3df0f65b	0.117657386
186	0x3d9e378d	0.07725439
187	0x3c1fd4a2	0.009755285
188	0xbd31d680	-0.043417454
189	0xbdf9a1c6	-0.12189059
190	0xbe22ae92	-0.15886906
191	0x3dc19aa2	0.09453322
192	0x3d893717	0.06699961
193	0xbe0735a0	-0.1320405
194	0xbd204b3f	-0.03913426
195	0xbb266a24	-0.0025392855
196	0xbc915edb	-0.017745426
197	0xbe049593	-0.12947683
198	0xbde03fa0	-0.109496355
199	0x3cbbcbb1	0.022924276
200	0xbe1281fe	-0.143074
201	0xbdf52409	-0.11969764
202	0x3e0d1179	0.13776197
203	0xbd7a5c6f	-0.061123308
204	0xbe3ae836	-0.18252644
205	0x3d0e3bf5	0.03472515
206	0xbdcf1e81	-0.1011324
207	0xbd3b4416	-0.04571923
208	0xbd0411be	-0.032243483
209	0x3cbc2c15	0.022970239
210	0xbe145299	-0.14484634
211	0xbd6abacf	-0.05730706
212	0x3d89af49	0.06722886
213	0x3e16067c	0.14650911
214	0xbd7972fa	-0.060900666
215	0x3d5b9772	0.053611226
216	0xbd9605f3	-0.073253535
217	0xbe362231	-0.1778648
218	0x3e13104e	0.14361688
219	0xbdb78df3	-0.089626215
220	0x3d87e7f4	0.066360384
221	0x3b45e1dd	0.003019444
222	0xbe37bef2	-0.17943934
223	0xbcdfd721	-0.027324261
224	0x3da6a65c	0.08137199
225	0x3da467fe	0.080276474
226	0x3d04e01b	0.032440286
227	0xbd037346	-0.032092355
228	0x3cbf20e2	0.02333111
229	0x3da8000b	0.08203133
230	0x3be9f643	0.0071399524
231	0xbe080a80	-0.13285255
232	0xbe0d36fa	-0.13790503
233	0x3dcebd40	0.1009469
234	0xbda15288	-0.0787707
235	0xbdba1415	-0.090858616
236	0x3e28dab6	0.16489682
237	0xbc18afcc	-0.009319257
238	0x3df0f688	0.11765772
239	0xbdb37065	-0.08761672
240	0x3d42524e	0.047441773
241	0x3d953df0	0.07287204
242	0xbd357c6c	-0.04430811
243	0x3c24d6bb	0.010060961
244	0x3d8a4004	0.06750491
245	0xbc7f3879	-0.015577429
246	0xbe10da1d	-0.14145704
247	0x3e1db8df	0.15402554
248	0xbdd7c54c	-0.10535678
249	0x3d14a2d1	0.036288086
250	0x3ca2751d	0.019831235
251	0xbd6fd24d	-0.058550168
252	0xbe07e259	-0.13269939
253	0x3e0aef31	0.13567807
254	0xbd9967f6	-0.07490532
255	0x3e3194e3	0.17341952

model.model.0.bias f4 [128]
0	0x3e8d46f4	0.27593195
1	0xbd347250	-0.04405433
2	0x3d067b62	0.03283251
3	0xbd8fe552	-0.07026161
4	0x3e2839f3	0.16428356
5	0x3e65a259	0.22425212
6	0x3e5ec502	0.2175484
7	0x3e267750	0.16256452
8	0x3ea050f5	0.31311765
9	0x3e8169b5	0.2527596
10	0xbdb022d5	-0.08600394
11	0x3e8faca2	0.28061396
12	0x3e9d5d1b	0.30735096
13	0xbd8e4abc	-0.06947848
14	0x3cdb76fa	0.02679013
15	0x3e850507	0.25980398
16	0x3e3ed640	0.18636417
17	0x3e2e7965	0.17038496
18	0xbc3d4347	-0.011551685
19	0xbd4cda59	-0.05001292
20	0xbd6c6670	-0.05771488
21	0x3e1c2ac0	0.15250683
22	0x3e8a4124	0.27002823
23	0xbd86c2ce	-0.06580125
24	0xbd6dfffa	-0.058105446
25	0xbca07d29	-0.019590931
26	0x3e4f4555	0.20241292
27	0xbd4072d1	-0.046984497
28	0xbc8b5daf	-0.017012445
29	0xbe1df435	-0.15425189
30	0x3e220809	0.15823378
31	0x3e21e846	0.15811262
32	0x3ddd95c2	0.1081958
33	0x3e8a37cf	0.26995704
34	0x3e8cd079	0.27502802
35	0x3e84b8cd	0.25922242
36	0x3de7ece8	0.11324483
37	0xbe10a22f	-0.14124368
38	0x3c0fc5bc	0.008775171
39	0x3e91d32c	0.28481424
40	0x3e336f80	0.17523003
41	0xbdbd6c45	-0.092491664
42	0x3e9e824f	0.30958793
43	0x3e32f96b	0.17477958
44	0x3e31c981	0.17362024
45	0x3e9df561	0.30851272
46	0x3e62fe0e	0.22167227
47	0x3dcb7bec	0.099357456
48	0x3e94f6ed	0.2909464
49	0x3e9300c2	0.28711516
50	0xbd9c54ef	-0.07633387
51	0xbb82cb53	-0.0039915233
52	0xbd91f769	-0.07127268
53	0x3e90f3f2	0.28311116
54	0x3e69800b	0.22802751
55	0x3e8cf865	0.2753326
56	0xbd8902b4	-0.06689969
57	0x3e910ee6	0.2833168
58	0x3e742010	0.23840356
59	0x3c9cc962	0.019138996
60	0x3ecf6bf0	0.40512037
61	0xbcbe78e4	-0.023251005
62	0x3e5d7445	0.21626385
63	0xbb92144a	-0.004457985
64	0x3c0d223b	0.008614118
65	0x3e2e42eb	0.17017715
66	0x3e23278c	0.15933055
67	0xbda6d405	-0.08145908
68	0xbd3143f2	-0.04327769
69	0x3d7750b7	0.06037971
70	0x3d9cb5f0	0.07651889
71	0x3e82595c	0.254588
72	0x3e9fe9c4	0.31233037
73	0xbc5c7025	-0.013454472
74	0x3e94d487	0.29068395
75	0x3e7fc313	0.24976759
76	0x3da3303f	0.079681866
77	0xbd1a5e0b	-0.037687343
78	0x3ea2fe9d	0.3183488
79	0x3e946ade	0.28987783
80	0x3e1d8d07	0.15385829
81	0x3e51bd17	0.20482288
82	0xbd954f90	-0.07290566
83	0xbd0d1863	-0.034447085
84	0xbdde23e0	-0.10846686
85	0x3e35bb2a	0.17747179
86	0x3e8c186d	0.27362385
87	0x3e1e7989	0.1547605
88	0xbc6635db	-0.014050926
89	0x3e02ee9f	0.12786339
90	0x3d95549a	0.07291527
91	0x3e7807f0	0.24221778
92	0x3e18149c	0.14851612
93	0x3e6190e8	0.22027934
94	0x3e9ba464	0.30398858
95	0x3e7d3075	0.24725516
96	0x3e5d4b00	0.21610641
97	0x3ea389d5	0.31941095
98	0x3db38209	0.087650366
99	0xbe0250e1	-0.12726165
100	0x3e82a88e	0.25519222
101	0x3e7dda5a	0.24790326
102	0x3e81683c	0.25274837
103	0xbd48c1f5	-0.049013097
104	0xbdab1d58	-0.08355206
105	0x3ea5caca	0.32381278
106	0xbdffa59c	-0.12482759
107	0x3e1d0237	0.15332876
108	0x3e829fc9	0.2551253
109	0x3e66cb86	0.22538576
110	0xbd69c1f7	-0.057069745
111	0x3e0d4d5f	0.13799046
112	0x3e7de848	0.2479564
113	0xbc5c2859	-0.013437354
114	0xbdc5bb55	-0.096548714
115	0x3e4046d1	0.18777014
116	0xbcd90133	-0.02648983
117	0x3d86f19e	0.065890536
118	0x3e395793	0.18099813
119	0x3e84171a	0.25798875
120	0xbd02548e	-0.03181892
121	0x3d8136cd	0.063092805
122	0x3e969b28	0.2941525
123	0x3e1f7fe4	0.1557613
124	0x3e948ddc	0.2901448
125	0x3e87f26b	0.26552138
126	0x3e604966	0.21903
127	0x3e567e32	0.20946577

model.model.2.weight f4 [128, 128]
0	0x3dc85552	0.097818986
1	0x3c8cf9d5	0.017208973
2	0x3ca323f6	0.019914608
3	0xbc888aa2	-0.016667668
4	0xbd20a4de	-0.03921973
5	0x3d059432	0.032612033
6	0x3e5292f0	0.20563865
7	0x3da96d71	0.082728274
8	0x3d54a14b	0.051911633
9	0x3d466fd9	0.04844651
10	0x3dda77f9	0.10667414
11	0x3d7399d6	0.05947288
12	0x3dfb192b	0.1226066
13	0xbc026170	-0.007957801
14	0x3cb1f092	0.021721158
15	0x3dcd5b0e	0.10027133
16	0x3e15f647	0.14644729
17	0xbd718a63	-0.058969866
18	0xbd3e5d87	-0.046475913
19	0x3d43f019	0.047836397
20	0xbd81e719	-0.063429065
21	0xbd1db95f	-0.03850686
22	0x3dda9e3c	0.10674712
23	0xbd635241	-0.055498365
24	0x3dd83777	0.10557454
25	0xbdab8ab3	-0.08376064
26	0xbced9103	-0.028999811
27	0xbc271c3f	-0.0101996055
28	0xbd08742b	-0.03331391
29	0x3d16ffcb	0.036865037
30	0xbd43dc91	-0.04781777
31	0xbd7365d4	-0.059423283
32	0xbc898444	-0.016786702
33	0xbbc326bb	-0.0059555448
34	0xbc8c6047	-0.017135752
35	0xbd087333	-0.033312988
36	0x3de7f9e0	0.11326957
37	0x3b6e1e1d	0.0036333867
38	0xbc8c5fa4	-0.017135449
39	0x3cce8b4d	0.025212908
40	0xbd179d9e	-0.03701555
41	0x3e09b35e	0.1344733
42	0x3daa1724	0.08305195
43	0x3ce23153	0.02761141
44	0x3d6a0e94	0.05714281
45	0x3ca3e32a	0.020005781
46	0xbcc388cb	-0.023868939
47	0x3ca3158d	0.019907737
48	0xbbe403aa	-0.0069584446
49	0xbd11c3ac	-0.035586998
50	0x3d10ae7e	0.03532266
51	0xbcb61d6c	-0.022230826
52	0xbd6b02c2	-0.057375677
53	0x3d96782a	0.07347138
54	0xbd8540a5	-0.065064706
55	0x3dfec8c3	0.12440636
56	0x3db611c9	0.08890111
57	0xbd2e8ba8	-0.042613655
58	0x3d4d5441	0.05012918
59	0x3d8c2d59	0.06844587
60	0x3e8ebb7a	0.27877408
61	0x3dfd04af	0.12354409
62	0x3e22d0a1	0.15899898
63	0x3dba6b1d	0.091024615
64	0xbaadf08a	-0.0013270539
65	0xbcd785e5	-0.026308963
66	0x3d9a1cb4	0.07525006
67	0xbd16ae24	-0.036787167
68	0xbd6363de	-0.055515163
69	0x3c93ddc4	0.018050082
70	0x3d4eed9b	0.050519567
71	0x3e0b8f8f	0.13628982
72	0x3ca7b50a	0.020472068
73	0xbc818eaf	-0.015815107
74	0x3d45c928	0.04828754
75	0x3d7fcafd	0.062449444
76	0x3b0bd6c3	0.0021337725
77	0x3daafc00	0.083488464
78	0x3cd9a6b8	0.026568756
79	0x3e290212	0.16504696
80	0x3dd91b1b	0.10600873
81	0x3d55c57f	0.0521903
82	0x3ce5fcff	0.02807474
83	0xbd819883	-0.063279174
84	0xbb01b78e	-0.0019793245
85	0x3dce0082	0.100586906
86	0x3d85bdf6	0.06530373
87	0xbcc993f9	-0.024606692
88	0x38b3803b	8.55927e-05
89	0xbba4ced8	-0.0050295405
90	0x3d30035a	0.042971946
91	0xbc9e445b	-0.019319704
92	0x3c971ce3	0.018446391
93	0x3b375054	0.0027971463
94	0xbce41dc2	-0.02784622
95	0x3e09e88a	0.13467613
96	0x3d97eeed	0.07418618
97	0x3e0ed88c	0.13949794
98	0x3e307228	0.17231047
99	0x3d06a8bf	0.032875773
100	0x3e134a23	0.1438375
101	0xbc9baf34	-0.019004442
102	0xbcdf4c68	-0.027258113
103	0xbd79a4c4	-0.06094815
104	0x3df980ed	0.12182794
105	0x3e07d856	0.1326612
106	0x3c27f3b7	0.010250977
107	0x3d99e092	0.075135365
108	0x3a9c1e9f	0.0011910981
109	0x3de3caa1	0.11122633
110	0xbb1c8792	-0.0023884517
111	0xbd44160a	-0.04787258
112	0x3d85500d	0.06509409
113	0x3c9be07c	0.01902794
114	0xbd3f5833	-0.046714973
115	0x3c897d73	0.016783452
116	0x3db5780e	0.08860789
117	0x3d4b6a59	0.049661968
118	0xbd1dbe74	-0.03851171
119	0x3ded27a1	0.11579824
120	0x3dc40d07	0.09572797
121	0xbcd2f86f	-0.025753228
122	0x3e8a0a4c	0.2696098
123	0x3de93443	0.11386921
124	0x3de0e1e4	0.10980585
125	0x3cd3a7b8	0.02583681
126	0x3db28532	0.08716811
127	0x3d17a66b	0.037023943
128	0xbb908670	-0.0044105574
129	0x3dae52f0	0.08511913
130	0xbc04be19	-0.008101963
131	0xbc93d45b	-0.018045595
132	0x3d74158f	0.059590872
133	0x3e056ba5	0.13029344
134	0x3da8d305	0.08243374
135	0x3c249fa0	0.010047823
136	0x3db1e9c4	0.086871654
137	0x3d295284	0.04133846
138	0xbd0f4d6f	-0.034985956
139	0x3dd4e09c	0.10394403
140	0x3d8202c6	0.06348185
141	0xbd5c20b0	-0.05374211
142	0x3c04db77	0.008108965
143	0x3de05f0d	0.109556295
144	0x3c1ea8d7	0.009683809
145	0x3df8fe12	0.12157835
146	0xbd47361f	-0.0486356
147	0x3de5a036	0.112121984
148	0x3dd65580	0.104655266
149	0x3dd785e0	0.105235815
150	0x3c8f6ef9	0.01750897
151	0xbd17a5fe	-0.037023537
152	0x3df283d7	0.11841553
153	0x3d97c94c	0.07411441
154	0x3dffb346	0.124853656
155	0xbd3f050a	-0.046635665
156	0x3d462a63	0.048380267
157	0xbdaa519c	-0.08316347
158	0x3dd5c8ec	0.104387134
159	0x3d929b1f	0.07158493
160	0x3c097441	0.0083895335
161	0x3d9d00d3	0.07666173
162	0x3e01cf2c	0.12676686
163	0x3d260b54	0.040538147
164	0x3dfd1f7c	0.12359521
165	0xbd2951a9	-0.041337643
166	0x3d2838d8	0.041069835
167	0x3d9b70f1	0.07589901
168	0xbc0da091	-0.008644239
169	0x3da59f79	0.080870576
170	0xbc9165b1	-0.017748686
171	0x3c5a37d7	0.013318977
172	0xbcaf75a4	-0.0214184
173	0x3d03aa78	0.032144994
174	0x3cb184d3	0.02166978
175	0x3ddc5416	0.107582256
176	0x3d1f9a70	0.038965642
177	0x3dd2e6ed	0.10297952
178	0x3da0bbbd	0.07848308
179	0x3da5db4f	0.080984704
180	0x3dbfae96	0.093594715
181	0x3c055f0c	0.008140337
182	0x3d89a030	0.067200065
183	0x3e1916c0	0.14950085
184	0x3dcc77e0	0.09983802
185	0xbb9674f8	-0.0045915805
186	0x3e05ce52	0.13066986
187	0xbcd33476	-0.025781851
188	0x3e662eb3	0.22478752
189	0x3ca722d3	0.020402348
190	0x3e053a19	0.13010444
191	0xbcd74b21	-0.026280941
192	0x3bb8a80a	0.005635266
193	0xbbeb07a5	-0.007172542
194	0xbc95c241	-0.018281104
195	0x3d5d8278	0.054079503
196	0x3ced488a	0.028965253
197	0x3e06177b	0.13094895
198	0x3ca9dd03	0.02073527
199	0x3d9a81db	0.07544299
200	0x3dfb2d0f	0.122644536
201	0x3d743b50	0.059626877
202	0xbc58956e	-0.013219221
203	0x3d701734	0.05861588
204	0xbd02e140	-0.031953096
205	0xbbaf9cf9	-0.005359289
206	0x3c8f2ed8	0.017478392
207	0x3e3bc819	0.1833805
208	0x3da4ad30	0.080408454
209	0x3d3830cb	0.044968408
210	0x3dcdaea1	0.100430734
211	0xbcb1f59d	-0.021723563
212	0x3cf0b718	0.02938418
213	0xbcb49034	-0.022041418
214	0x3e134c9c	0.14384693
215	0x3e0f1c88	0.13975728
216	0x3e0b47af	0.13601564
217	0x3c5bb196	0.013409039
218	0x3de285aa	0.11060651
219	0x3d7c490b	0.061593097
220	0xbd04f5ca	-0.032460965
221	0x3da980ca	0.08276518
222	0x3b9753b5	0.004618133
223	0x3c56799b	0.013090516
224	0x3df5088e	0.11964522
225	0x3e111199	0.14166869
226	0x3e126e66	0.14299926
227	0x3d92d050	0.07168639
228	0x3e368eed	0.1782796
229	0x3db4b4fc	0.088235825
230	0x3e22008d	0.15820523
231	0x3ddeb710	0.1087476
232	0x3d24974d	0.040183354
233	0x3dc646ae	0.0968145
234	0x3d2cbeb2	0.04217405
235	0xbd1bef2f	-0.0380699
236	0x3e1bf299	0.15229262
237	0x3e058258	0.13038003
238	0x3d927ece	0.07153092
239	0xbd070ad5	-0.032969315
240	0x3d760d58	0.06007132
241	0xbc7a0fd5	-0.015262564
242	0x3d32b137	0.043626036
243	0x3deb5c60	0.114922285
244	0x3dd2f5b1	0.10300768
245	0xbca80124	-0.020508356
246	0x3e148ec4	0.14507586
247	0x3d068703	0.0328436
248	0x3dd81b84	0.10552123
249	0x3dc63081	0.0967722
250	0x3e192942	0.14957145
251	0x3da76364	0.08173254
252	0x3e011821	0.1260686
253	0x3df809dd	0.12111256
254	0x3ce3d46a	0.027811248
255	0x3d086bfb	0.033306103

model.model.2.bias f4 [128]
0	0x3e0578bf	0.13034342
1	0x3e3e43ba	0.18580523
2	0x3e16e29b	0.1473488
3	0x3e4b9565	0.19881208
4	0x3e424825	0.18972833
5	0x3e24b49e	0.16084525
6	0x3df3918c	0.11892995
7	0x3d1c9179	0.03822467
8	0x3e57b90a	0.2106668
9	0x3e52faf4	0.20603544
10	0x3dba5fa7	0.091002755
11	0x3e23014d	0.15918465
12	0x3e3f9d85	0.18712433
13	0x3e4b1524	0.19832283
14	0x3e24e716	0.16103777
15	0xbd0c16e6	-0.034201525
16	0x3e45ce38	0.19316947
17	0x3db047ff	0.08607482
18	0x3db2edb1	0.08736742
19	0x3e4c10dc	0.19928306
20	0x3d86cad7	0.065816574
21	0xbd76714c	-0.060166642
22	0xbd9c2fa6	-0.07626276
23	0x3d4be672	0.049780317
24	0x3e24d880	0.16098213
25	0x3e1152f8	0.14191806
26	0x3e593215	0.21210511
27	0xbd51c757	-0.051215496
28	0x3e42046e	0.18947002
29	0x3e272428	0.16322386
30	0x3e002873	0.1251543
31	0x3cf0ad45	0.029379496
32	0x3e1667ee	0.14688084
33	0x3d9c5c46	0.07634787
34	0x3e661158	0.22467554
35	0x3e39154a	0.18074527
36	0x3e593da6	0.21214923
37	0x3e4a321a	0.19745675
38	0xbcdfc9ab	-0.027317842
39	0x3e2f4e4f	0.17119716
40	0x3e68b2ca	0.22724453
41	0xbcf42548	-0.029802933
42	0x3e6c0819	0.23049964
43	0x3e14f164	0.14545208
44	0x3e450448	0.19239914
45	0x3dbba8e7	0.09163075
46	0x3db77205	0.089572944
47	0x3e7c886a	0.24661413
48	0x3e29b123	0.16571479
49	0x3deabd1b	0.1146185
50	0x3e0ea4a3	0.13929991
51	0x3e170457	0.1474775
52	0x3e2d6369	0.16932453
53	0x3e583993	0.21115713
54	0xbdadf160	-0.08493304
55	0x3df601e0	0.120120764
56	0x3e5bf15a	0.21478787
57	0x3e6c4486	0.23073015
58	0x3df6b0d5	0.12045447
59	0x3e20e87f	0.1571369
60	0xbd83fa93	-0.064442776
61	0x3e62f89c	0.2216515
62	0x3d87f2b3	0.06638088
63	0x3dfcf037	0.12350505
64	0x3df5dbfc	0.12004849
65	0x3e523637	0.20528494
66	0x3dd46594	0.10370937
67	0xbd8f1965	-0.069872655
68	0x3e4c5285	0.19953354
69	0x3dafe04c	0.08587703
70	0x3df7bed9	0.12096948
71	0x3d9d692e	0.07686077
72	0x3e1076c9	0.14107813
73	0x3d03d542	0.0321858
74	0x3e18d5bd	0.14925285
75	0xbdb1b29a	-0.08676644
76	0x3e0cd1de	0.13751933
77	0x3e2dbebb	0.16967289
78	0x3e04d81d	0.12973066
79	0xbcd9a9ba	-0.02657019
80	0x3e4be5f6	0.19911942
81	0x3e61daff	0.22056197
82	0xbcbc4d18	-0.02298598
83	0xbd8bdac3	-0.06828835
84	0x3db2cf96	0.08731
85	0x3e2adf08	0.16686642
86	0xbd8cdb66	-0.068777844
87	0x3e11679a	0.14199677
88	0xbd268ba8	-0.04066053
89	0x3e683070	0.22674727
90	0x3e418090	0.18896699
91	0x3e252397	0.16126858
92	0x3e347829	0.17623962
93	0x3c9a99b6	0.018872123
94	0x3df4c42f	0.119514816
95	0x3ddbe09f	0.107362024
96	0x3e4e7be6	0.20164451
97	0x3e14d955	0.1453603
98	0x3ddd5d84	0.10808852
99	0x3dbdca9b	0.092671596
100	0x3e56a1a8	0.20960104
101	0x3e5273ba	0.20551959
102	0x3d32f463	0.043690097
103	0x3e06af9e	0.1315293
104	0x3dad7169	0.08468897
105	0xbccf28d2	-0.02528802
106	0x3e5531a3	0.20819716
107	0x3e43c3b0	0.19117618
108	0x3dea9492	0.11454119
109	0x3e30daf2	0.17271021
110	0x3d6cc9a8	0.057809502
111	0xbdaad41b	-0.08341237
112	0x3dc688cf	0.09694063
113	0x3dbb7f03	0.09155085
114	0x3dd11227	0.102085404
115	0x3e1ead50	0.15495801
116	0x3dcbef82	0.09957792
117	0x3e135e9c	0.1439156
118	0xbcf7f247	-0.030266894
119	0x3daa5375	0.083166994
120	0x3e01b466	0.12666473
121	0xbc0e0fd0	-0.008670762
122	0x3c0de1a5	0.008659755
123	0x3df25dd2	0.11834301
124	0x3e427915	0.18991502
125	0xbd988fff	-0.0744934
126	0x3d658293	0.05603273
127	0x3e16ac0f	0.14714073

model.model.4.weight f4 [128, 128]
0	0x3c9b06ba	0.018924106
1	0xbb3c15b2	-0.0028699455
2	0xbc454ef0	-0.012042746
3	0xbd8f28bd	-0.06990192
4	0xbc20f8a1	-0.009824903
5	0xbd80e179	-0.062930055
6	0x3d13bc9b	0.03606854
7	0x3d656922	0.056008466
8	0x3bfa7d06	0.0076442985
9	0x3d05b2fa	0.03264139
10	0xbd34a56f	-0.044103082
11	0xbd11acf5	-0.035565335
12	0x3cfce337	0.030870063
13	0x3d82d511	0.063882954
14	0x3d366685	0.044531364
15	0x3d889fc2	0.066710964
16	0x3d3634c7	0.044483926
17	0xbd193699	-0.037405584
18	0xbd3f123f	-0.04664826
19	0x388638f5	6.400227e-05
20	0x3c83505c	0.01602953
21	0x3d521a4e	0.051294617
22	0x3d5c41b3	0.053773593
23	0xbd33de62	-0.043913253
24	0xbd550972	-0.05201096
25	0xbdb771a8	-0.08957225
26	0x3d0d54bf	0.03450465
27	0x3d17c22e	0.03705042
28	0xbdb50d61	-0.088404424
29	0x3d8d0f9a	0.068877414
30	0x3ccb5b78	0.02482389
31	0x3d982864	0.07429579
32	0x3c670aef	0.014101728
33	0x3d97d704	0.07414058
34	0xbc8f3130	-0.01747951
35	0x3c916ad7	0.01775114
36	0x3cc13128	0.02358301
37	0xbaf02023	-0.0018320124
38	0xbc828ed0	-0.015937239
39	0x3d52ffcb	0.051513474
40	0xbc4b19e6	-0.012396311
41	0x37644000	1.360476e-05
42	0xbd96fd3a	-0.07372518
43	0xbd8318f6	-0.06401245
44	0x3bf7da23	0.0075638457
45	0xbc9e8f11	-0.019355329
46	0x3da4fe12	0.080562726
47	0xbdb7cbbe	-0.089744076
48	0x3c89ddcc	0.016829394
49	0xbda143ba	-0.07874246
50	0xbc402aee	-0.011728985
51	0x3d9cb9e4	0.07652643
52	0x3d7850d8	0.060623974
53	0x3d2b9495	0.041889746
54	0xbd5f83eb	-0.054569166
55	0x3da9931b	0.08280011
56	0xbb668311	-0.0035173337
57	0xbc8b03fc	-0.016969673
58	0xbdbd510e	-0.092439756
59	0xbbfee84e	-0.0077791577
60	0xbd82b23d	-0.063816525
61	0x3d0617b2	0.03273744
62	0x3d36d072	0.044632383
63	0x3d8f8ae0	0.0700891
64	0x3c9ae5e3	0.018908447
65	0xbd020584	-0.03174354
66	0x3d6d1e8e	0.057890467
67	0x3b707a86	0.0036694123
68	0x3bdfb4a9	0.0068269563
69	0x3d0e68c0	0.034767866
70	0xba887156	-0.0010409753
71	0x3d4615cf	0.048360642
72	0x3d7a4d52	0.061108895
73	0x3da2f883	0.07957556
74	0x3cc8095a	0.024418522
75	0xbb674b84	-0.0035292814
76	0xbdbe6e09	-0.09298331
77	0xbdaaa19b	-0.08331605
78	0x3a642ab6	0.0008703874
79	0xbcadfa5b	-0.021237543
80	0x38c85a38	9.553548e-05
81	0x3da05788	0.07829195
82	0x3d91755c	0.07102463
83	0xbafe71aa	-0.0019412537
84	0xbdbb5a7e	-0.091481194
85	0x3d86d976	0.06584446
86	0x3d8de93b	0.06929251
87	0x3d9ea5c7	0.07746463
88	0x3cc7cb38	0.024388894
89	0x3d68481f	0.056709405
90	0x3b93976f	0.0045041363
91	0xbd8aba29	-0.067737885
92	0x3bf99776	0.0076169325
93	0x3d9c2468	0.076241314
94	0x3bb67028	0.0055675693
95	0x3b9c57eb	0.004771223
96	0x3a96f794	0.0011517876
97	0x3d6ebc50	0.058285058
98	0xbd7f3f7b	-0.0623164
99	0x3bb907a3	0.0056466623
100	0x3bcb8b31	0.0062116613
101	0x3d719976	0.058984242
102	0xbdbebbb2	-0.09313144
103	0xbd024a62	-0.03180922
104	0xbdb4acac	-0.08821997
105	0xbc7286ae	-0.014802618
106	0x3d551c53	0.052028965
107	0xbd4ba42d	-0.049717117
108	0xbc83cb39	-0.016088115
109	0xbdbfb62b	-0.09360918
110	0x3da6073a	0.08106847
111	0xbd545377	-0.05183741
112	0xbcc9aa59	-0.02461736
113	0xbd89a55f	-0.06720995
114	0x3c6f8375	0.014618744
115	0xbd8441e8	-0.06457883
116	0xbd2c14be	-0.04201197
117	0xbd2e8d86	-0.042615436
118	0x3d498128	0.04919544
119	0xbda3c5c4	-0.07996705
120	0xbd5a2e5a	-0.05326686
121	0xbc7eeb78	-0.01555907
122	0x3cc350cf	0.023842243
123	0x3d93303d	0.07186935
124	0x3bd8ea63	0.006619738
125	0x3c54da95	0.012991567
126	0x3d9ec784	0.07752898
127	0x3d38ac9d	0.04508649
128	0xbdac4d36	-0.08413164
129	0x3d0ccb00	0.034373283
130	0xbd710599	-0.05884323
131	0x3d6f77f9	0.058464024
132	0xbd841174	-0.064486414
133	0x3cc13c39	0.023588287
134	0x3c9e12c6	0.019296061
135	0x3d137bba	0.036006667
136	0x3d85e769	0.065382786
137	0xbcfb72f3	-0.03069446
138	0x39f59a8d	0.0004684519
139	0x3c266068	0.010154821
140	0x3daf4d17	0.085596256
141	0x3ce5aa5f	0.02803534
142	0xbcf8109e	-0.030281361
143	0xbbffc660	-0.0078056306
144	0xbd48f9a7	-0.049066212
145	0xbb7c80e0	-0.0038528964
146	0x3d7e6c12	0.062114783
147	0xbd3cb94b	-0.046075147
148	0xba210e80	-0.0006143823
149	0xbd6c6c3a	-0.0577204
150	0x3d9de2fd	0.0770931
151	0x3b21c000	0.0024681091
152	0xbd2f6036	-0.042816363
153	0x3c6a5d4b	0.014304469
154	0x3da6b6f9	0.08140368
155	0x3d75d50a	0.060017623
156	0xbd83599b	-0.06413575
157	0x3d276151	0.040864293
158	0xbc882b3c	-0.016622178
159	0xbd70ddcd	-0.058805276
160	0xbbecac94	-0.0072227214
161	0xbc0772f4	-0.008267153
162	0xbd226c2e	-0.03965395
163	0x3d1b9f05	0.03799345
164	0xbd2847b9	-0.041084025
165	0x3d9959da	0.07487841
166	0xbb376c40	-0.0027988106
167	0xbd9888df	-0.07447981
168	0xba1812c8	-0.00058011385
169	0x3cd2a628	0.025713995
170	0xbdb3e94e	-0.08784734
171	0xbd88d469	-0.06681139
172	0x3cb3107b	0.021858444
173	0x3c9d0b0b	0.019170305
174	0x3d675b9a	0.056483842
175	0x3d49656d	0.049168993
176	0x3d951dd1	0.07281078
177	0xbd1268f8	-0.035744637
178	0x3d423cb0	0.047421157
179	0x3cf3d139	0.029762851
180	0xbd246055	-0.040130932
181	0x3d817b50	0.06322348
182	0x3c900e74	0.017585017
183	0xbc71ac50	-0.014750555
184	0x3d927cdd	0.07152722
185	0xbcd921ab	-0.026505312
186	0x3d3a9261	0.045549754
187	0xbd11b0a5	-0.035568852
188	0xbd8e7db2	-0.06957568
189	0x3c8b78b0	0.017025322
190	0x3db3164d	0.08744488
191	0x3d9cc6a6	0.07655077
192	0xbc72e45d	-0.014824954
193	0x3d909e50	0.07061446
194	0xbcdfc217	-0.027314229
195	0x3d3c698e	0.045999102
196	0xbd9eea45	-0.07759527
197	0x3d4c29b9	0.049844477
198	0x3d63ca28	0.055612713
199	0xbca967ec	-0.020679437
200	0xbda0f1b9	-0.07858605
201	0xbd8ecc44	-0.06972554
202	0xbd29d09b	-0.041458707
203	0xbd666a6a	-0.056253828
204	0x3ceebba9	0.029142218
205	0xbda333dd	-0.079688765
206	0x3dac96a4	0.0842717
207	0x3d8f3fab	0.069945656
208	0x3d898427	0.06714659
209	0xbd82f31f	-0.06394028
210	0xbc55b570	-0.013043746
211	0x3d5870ca	0.05284194
212	0xbd979d66	-0.07403068
213	0x3d268e89	0.040663276
214	0x3d6e165e	0.0581268
215	0xbd196bcb	-0.037456315
216	0xbca74e68	-0.02042313
217	0xbd8e050e	-0.06934558
218	0xbda431ac	-0.08017287
219	0xbd915ac7	-0.070973925
220	0x3cb6f002	0.022331242
221	0xbd55a001	-0.052154545
222	0xbd071f79	-0.032989
223	0xbcb649c8	-0.022251979
224	0xbb8dc27d	-0.0043261633
225	0xbd18486c	-0.037178442
226	0xbd568d83	-0.05238105
227	0x3d30f306	0.043200515
228	0xbda198cc	-0.07890472
229	0x3d163210	0.036668837
230	0xbd3ebb4b	-0.046565335
231	0xbcccf304	-0.025018223
232	0x3d900632	0.07032432
233	0x3d9d34eb	0.07676109
234	0x3ceb7c38	0.028745756
235	0x3baf4859	0.0053492007
236	0xbd17a03c	-0.037018046
237	0xbcf88712	-0.030337844
238	0x3c4059ab	0.0117401285
239	0x3d9b6fdd	0.075896956
240	0x3d136a77	0.035990205
241	0xbdb0c945	-0.08632139
242	0x3d0040ea	0.031311907
243	0xbd4f400c	-0.05059819
244	0x3ccab9d9	0.024746822
245	0xbd199b1b	-0.037501436
246	0xbd60f70a	-0.054923095
247	0xbc5d03d2	-0.01348968
248	0xbd5b35fc	-0.05351828
249	0x3d5b629a	0.05356083
250	0xbc744f28	-0.01491145
251	0xbd93b601	-0.07212449
252	0xbb762380	-0.003755778
253	0xbd5a5ce9	-0.053311262
254	0x3d013039	0.03154013
255	0xbc997a36	-0.018735033

model.model.4.bias f4 [128]
0	0x3c584671	0.013200388
1	0x3b05cc87	0.0020416097
2	0x3e494203	0.19654088
3	0x3d366bbf	0.04453635
4	0xbc15df0e	-0.009147419
5	0x3c211066	0.00983057
6	0x3e5bcd19	0.21464957
7	0x3e17fb25	0.14841898
8	0x3d8066bd	0.06269596
9	0x3d230d3e	0.03980755
10	0x3dde7205	0.10861591
11	0x3d273ac1	0.040827516
12	0x3e21034f	0.15723918
13	0xbbfc7f4b	-0.007705604
14	0x3da4b429	0.08042175
15	0x3d019a6a	0.0316414
16	0x3c393b03	0.011305573
17	0x3e2603bb	0.1621236
18	0x3d9e3274	0.07724467
19	0x3d6eefd5	0.05833419
20	0xbcd200a4	-0.025635071
21	0x3e119653	0.142175
22	0xbd963d5f	-0.07335924
23	0x39e827e5	0.00044280212
24	0x3d7bdd85	0.061490554
25	0x3deb691d	0.11494658
26	0x3dfcc0b2	0.12341441
27	0x3e2a17f4	0.166107
28	0x3e2cbc1d	0.16868635
29	0x3d2156e7	0.039389517
30	0xbd685a00	-0.056726456
31	0x3e02f18c	0.12787455
32	0x3e5c1b95	0.21494897
33	0xbd80f80e	-0.06297313
34	0x3cc81862	0.02442569
35	0x3de336db	0.11094447
36	0xbbcf9328	-0.006334681
37	0x3cafc027	0.02145393
38	0x3c52ef17	0.012874386
39	0x3e4f2e61	0.20232536
40	0x3d7060bb	0.058686
41	0x3e000271	0.12500931
42	0x3d613486	0.05498173
43	0xbd8f6a60	-0.07002711
44	0x3c72e962	0.014826151
45	0x3e417913	0.18893842
46	0x3cce257f	0.025164364
47	0x3e21904f	0.15777706
48	0xbc70a1f5	-0.014687051
49	0xbd704d10	-0.058667243
50	0xbd076f1a	-0.03306494
51	0x3c9d8c9c	0.019232087
52	0x3b038d72	0.0020073322
53	0x3deeefcc	0.116668314
54	0x3d5d778b	0.054069083
55	0xbd575518	-0.052571386
56	0x3a378680	0.0007000938
57	0xbd8b63e1	-0.0680616
58	0xbd36a0b8	-0.044586867
59	0xbcff604a	-0.031173844
60	0xbda6cbe3	-0.08144357
61	0x3e3fffba	0.18749896
62	0xbc47a5b6	-0.012185505
63	0x3d32ef9f	0.04368555
64	0x3c8b1054	0.01697556
65	0xbc0afc13	-0.008482951
66	0xbcb31476	-0.021860342
67	0xbd39796c	-0.045281813
68	0x3e38a342	0.18031028
69	0x3d050566	0.03247585
70	0x3dcdc0ad	0.100465156
71	0xbce3a0d4	-0.02778665
72	0x3dfbe941	0.12300349
73	0xbb8aeead	-0.004239878
74	0x3df5cab7	0.120015554
75	0x3e73943d	0.23787017
76	0xbdaa4a7e	-0.083149895
77	0x3d519e8d	0.051176596
78	0x3e0239a2	0.12717298
79	0x3d9f43a2	0.07776572
80	0x3d830cbd	0.06398914
81	0x3e6bb173	0.2301691
82	0xbdaf1c3e	-0.08550309
83	0x3c41d986	0.011831647
84	0x3e1f9806	0.15585336
85	0xbd7fa98c	-0.062417552
86	0xbdacf760	-0.084456205
87	0xbd05646e	-0.03256648
88	0x3d8f1580	0.06986523
89	0x3de1f82c	0.11033663
90	0xbda43767	-0.0801838
91	0x3c7cf3d9	0.015438997
92	0x3e293fa4	0.16528183
93	0xbcd034c8	-0.025415793
94	0x3d5e6477	0.05429503
95	0x3c34ae2f	0.011027857
96	0xbd2599d9	-0.040429924
97	0xbd490987	-0.04908135
98	0x3c8b5a84	0.017010935
99	0x3df96503	0.121774696
100	0x3e3c3c91	0.18382479
101	0x3e1b487d	0.15164371
102	0x3cda229c	0.026627831
103	0x3d9efab6	0.07762663
104	0x3e0d794f	0.13815807
105	0x3caf9119	0.021431493
106	0xbca49068	-0.02008839
107	0x3d9c4039	0.07629437
108	0x3e2dc5a1	0.1696992
109	0xbd705857	-0.058677997
110	0x3e1f8a9b	0.15580218
111	0xbdb57c41	-0.0886159
112	0x3e1bd93f	0.15219592
113	0xbd56c498	-0.05243358
114	0x3e0f084d	0.1396801
115	0x3c7731a9	0.0150875235
116	0x3d63a123	0.055573594
117	0x3dd8ca57	0.10585468
118	0x3d84d2c2	0.06485511
119	0x3e1e88ac	0.15481824
120	0xbc130eaf	-0.008975669
121	0xbd7fc630	-0.062444866
122	0xbd18703b	-0.037216406
123	0x3dd1ced4	0.102445275
124	0x3dd80c3a	0.10549207
125	0xbb986670	-0.0046508834
126	0x3d864af1	0.06557263
127	0x3d4db9af	0.05022591

model.model.6.weight f4 [7, 128]
0	0xbcde7cfa	-0.027159203
1	0xbd43921f	-0.047746774
2	0x3dc8faea	0.09813483
3	0x3d80ec16	0.0629503
4	0x3d9bdd45	0.07610563
5	0x3dcf862b	0.101330124
6	0x3dce8b26	0.10085134
7	0x3d8888cf	0.06666719
8	0xbcdeec01	-0.027212145
9	0xbd376910	-0.04477793
10	0xbcd23b84	-0.025663145
11	0xbc6f22ce	-0.0145957
12	0x3db5ab90	0.088706136
13	0xbd856bf0	-0.06514728
14	0x3da7353f	0.08164453
15	0x3c2d543f	0.010579168
16	0x3c732021	0.014839203
17	0x3d908f9d	0.07058642
18	0xbd1007c9	-0.035163675
19	0x3d270243	0.04077364
20	0xbd85d996	-0.06535642
21	0xbb29a235	-0.0025884036
22	0x3da81e5d	0.08208916
23	0x3de3910d	0.111116506
24	0x3d936beb	0.07198318
25	0xbcc41a27	-0.023938252
26	0x3ce75f1c	0.028243594
27	0x3e02ecc6	0.12785634
28	0x3df8230c	0.1211606
29	0x3c3ca50f	0.011513962
30	0xbd925b24	-0.0714629
31	0x3d623a7a	0.05523155
32	0x3d29f2b2	0.041491218
33	0xbcb8c2b8	-0.022553787
34	0x3cb5df4e	0.022201207
35	0x3d89f90f	0.06736957
36	0x3d3c5ccd	0.04598694
37	0xbd97be41	-0.07409335
38	0xbd970e97	-0.0737583
39	0x3dd3bffa	0.10339351
40	0xbd28365a	-0.04106746
41	0x3d986b8e	0.074423894
42	0xbc40b7ab	-0.01176254
43	0xbd8a76bd	-0.06760929
44	0xbcc53e6e	-0.02407762
45	0x3d925f26	0.071470544
46	0x3a6574db	0.00087530696
47	0x3dbc584a	0.09196527
48	0x3d4d301a	0.0500947
49	0xbd5c2ae2	-0.053751834
50	0x3c7e5552	0.015523272
51	0x3e0626ed	0.13100787
52	0xbc2a2cb8	-0.010386638
53	0x3da76111	0.08172811
54	0xbc5dda4b	-0.013540815
55	0x3d77c4a6	0.060490273
56	0x3ccb3f98	0.024810597
57	0x3a90bf80	0.00110434
58	0x3d0d1300	0.034441948
59	0x3da537a5	0.08067254
60	0x3d9083c1	0.0705638
61	0x3cb04352	0.021516476
62	0xb75bd4a1	-1.3102924e-05
63	0xbd3ce0f6	-0.046112977
64	0x3cb45b70	0.022016257
65	0x3d2ce5e3	0.042211425
66	0x3ca4ed69	0.020132737
67	0x3b9e0832	0.0048227543
68	0x3d9fafb9	0.07797188
69	0xbd75ac7e	-0.059978954
70	0x3e0013f9	0.12507619
71	0x3d4ed78b	0.050498527
72	0x3e001166	0.12506637
73	0xbd80aeb4	-0.06283322
74	0xbcd17e11	-0.025572808
75	0x3d8ad856	0.06779544
76	0xbd927259	-0.07150716
77	0xbd28e9ba	-0.041238524
78	0x3d85e45e	0.06537698
79	0x3d162bd4	0.03666289
80	0x3d9c69b4	0.07637349
81	0x3e12d094	0.14337379
82	0x3d96477d	0.07337854
83	0xbc85ad05	-0.016317854
84	0xbb93e2ea	-0.0045131342
85	0xbda4067b	-0.080090486
86	0x3cf15850	0.029461056
87	0x3daf6023	0.085632585
88	0xbd866c6f	-0.06563651
89	0xbcc0948d	-0.023508335
90	0x3d0d0a14	0.03443344
91	0x3d6d991a	0.058007337
92	0x3dfeac1d	0.12435172
93	0xbd916efa	-0.07101245
94	0xbc9cd733	-0.019145584
95	0x3dad0b40	0.084494114
96	0xbc413d78	-0.01179444
97	0x3d77142c	0.06032197
98	0x3be64df0	0.007028334
99	0x3e0a77f6	0.13522324
100	0x3df8ad50	0.12142432
101	0x3d9976d2	0.07493366
102	0x3d8c6cb1	0.06856669
103	0x3e0f4754	0.13992053
104	0x3e099216	0.13434634
105	0x3d8ee0f2	0.06976499
106	0xbcdb1618	-0.026743934
107	0x3e0bd336	0.1365479
108	0x3df3e9fd	0.11909864
109	0xbc837043	-0.016044741
110	0x3dd5a9f7	0.10432809
111	0x3d971cf5	0.0737857
112	0x3d0b0091	0.033936087
113	0x3d4d8724	0.05017771
114	0x3d7b11ff	0.06129646
115	0x3d9c4f48	0.07632309
116	0x3d3eb938	0.046563357
117	0x3c4c3f93	0.012466329
118	0xbbddd9d1	-0.0067703505
119	0x3d8b3f3e	0.06799172
120	0x3d310df0	0.043226182
121	0x3d241346	0.040057443
122	0x3d951311	0.07279027
123	0x3dc1c85e	0.09462045
124	0x3d9951d2	0.07486309
125	0x3da8756f	0.08225524
126	0x3dca72d2	0.098851815
127	0x3d5be60f	0.053686198
128	0x3d9a9e25	0.07549695
129	0xbc8f25a8	-0.01747401
130	0x3d8f0f1f	0.06985306
131	0x3d7ac449	0.06122235
132	0xbd0212fc	-0.031756386
133	0x3cc9b4ef	0.024622409
134	0x3de1544b	0.11002406
135	0x3d5c01aa	0.053712524
136	0x3d44a74c	0.04801111
137	0x3d84e79e	0.0648949
138	0xbb587057	-0.0033025944
139	0x3ac38e46	0.001491972
140	0x3df83fc4	0.12121537
141	0xbd9ff43b	-0.07810255
142	0xbd9404d6	-0.07227485
143	0xbd0f24f6	-0.034947358
144	0xbd05edfd	-0.032697666
145	0xbc8ce7b1	-0.017200323
146	0xbcdcba41	-0.026944282
147	0x3dbfb500	0.09360695
148	0xbd54b1eb	-0.05192749
149	0x3de5b950	0.11216986
150	0xbce9398e	-0.028469827
151	0xbbf8fdb7	-0.0075986045
152	0xbd3e2125	-0.046418328
153	0xbce321ad	-0.027726019
154	0x3e102647	0.14077102
155	0x3dcddc4a	0.100517824
156	0x3dccfde0	0.1000936
157	0x3d9c0a45	0.07619146
158	0x3d665d2a	0.056241192
159	0x3d0f7f06	0.03503325
160	0x3e16297d	0.14664264
161	0x3cc3fb10	0.023923427
162	0x3da77481	0.08176518
163	0x3d0ec1a0	0.034852624
164	0xbd933648	-0.07188088
165	0xbcf206aa	-0.029544193
166	0xbda0a957	-0.07844799
167	0x3a72a354	0.0009255905
168	0xbc94a9b9	-0.018147336
169	0x3dd76591	0.10517419
170	0x3d2b48ab	0.04181735
171	0xbd82c29a	-0.063847736
172	0xbcb3e374	-0.021959044
173	0x3d42dae5	0.047572035
174	0x3cde826a	0.027161796
175	0xbcb2f366	-0.021844577
176	0xbcadf2bc	-0.021233909
177	0x3cf7aa5c	0.0302326
178	0x3ce66b64	0.02812738
179	0x3bc3261c	0.0059554707
180	0x3da20972	0.07911958
181	0x3d8f78d7	0.0700547
182	0x3c5b0d7d	0.013369915
183	0x3c8b33bc	0.016992442
184	0xbbf55d70	-0.0074879453
185	0xbd929f40	-0.07159281
186	0x3bf229c0	0.007390231
187	0x3d85bf35	0.065306105
188	0xbc864fd0	-0.01639548
189	0x3dc46a2f	0.095905654
190	0x3c987641	0.018611075
191	0x3b42fbf5	0.002975223
192	0xbdb449a5	-0.08803109
193	0x3d0a8290	0.03381592
194	0xba85d240	-0.0010209754
195	0xbca865ac	-0.020556293
196	0x3d5e6cd7	0.054303017
197	0xbcb68840	-0.022281766
198	0x3cca06c9	0.024661439
199	0x3d9293cf	0.071570985
200	0x3d9ed601	0.07755662
201	0xbca0b374	-0.01961682
202	0x3e15092b	0.14554279
203	0x3e13d506	0.1443673
204	0x3db40803	0.087905906
205	0x3c338e64	0.010959242
206	0x3bc46be1	0.0059943055
207	0xbd018700	-0.031622887
208	0x3c8d4b73	0.017247891
209	0x3e19e5b1	0.15029027
210	0x3da43aed	0.08019052
211	0xbda2470f	-0.079237096
212	0x3d67accf	0.056561287
213	0x3dadfe91	0.0849582
214	0x3b1d8900	0.0024037957
215	0xbdb1e0f8	-0.086854875
216	0x3c12c613	0.008958357
217	0x3db1b82a	0.08677705
218	0xbd48e1c1	-0.04904342
219	0xbd897d40	-0.06713343
220	0x3d5062b8	0.050875396
221	0x3d9cfba1	0.07665182
222	0xbd508e95	-0.050917227
223	0xbcad51cf	-0.021157173
224	0xbc148700	-0.00906539
225	0xbd937f3a	-0.07202001
226	0x3d733d6a	0.05938474
227	0x3de3836f	0.11109053
228	0x3de81d4b	0.11333712
229	0x3e1a7287	0.15082751
230	0x3d2813f2	0.041034646
231	0x3dfbeaf5	0.12300674
232	0x3d0a6369	0.03378621
233	0x3d8cd52e	0.06876598
234	0x3d4c0a2a	0.04981438
235	0x3ddd2b8b	0.10799321
236	0xbc9df03f	-0.019279597
237	0xbd103968	-0.035210997
238	0x3d7a8473	0.06116147
239	0xbdad98c5	-0.08476404
240	0x3d5a8f85	0.053359527
241	0x3d8def26	0.069303796
242	0x3ce7f066	0.028312873
243	0x3c027d38	0.007964425
244	0x3cc90b43	0.024541503
245	0xbcef377b	-0.02920126
246	0xbc52bed4	-0.01286288
247	0x3da9b83b	0.08287092
248	0xbc59132c	-0.0132492
249	0xbd3642a1	-0.044497136
250	0xbc834830	-0.016025633
251	0x3ded488d	0.115861036
252	0xbcde7017	-0.027153058
253	0x3d2123e6	0.039340876
254	0x3d30e3ff	0.043186184
255	0x3d6b9ee6	0.057524584

model.model.6.bias f4 [7]
0	0x3d92dfeb	0.07171615
1	0x3e824fb1	0.25451425
2	0x3e173964	0.14767987
3	0x3c95da2f	0.018292515
4	0x3df298f8	0.11845583
5	0x3da5b59e	0.08091281
6	0x3dc1ab7d	0.09456537

model_old.model.0.weight f4 [128, 42]
0	0xbd9ed01d	-0.07754538
1	0xbd1a35ac	-0.03764884
2	0x3e1e793a	0.15475932
3	0x3ca97773	0.02068684
4	0x3d4a140e	0.049335532
5	0x3e0c960c	0.13729113
6	0x3d3515d3	0.044210266
7	0xbdbdfc12	-0.09276594
8	0x3dbd19f3	0.09233465
9	0x3cad8c47	0.021185054
10	0x3e066f2c	0.13128346
11	0x3cca710e	0.024712112
12	0x3be1bd93	0.006889054
13	0xbd21c398	-0.039493173
14	0x3d4ec489	0.0504804
15	0x3db2a281	0.087224014
16	0x3ca625bb	0.020281663
17	0xbc4e7d87	-0.01260317
18	0xbe03b443	-0.12861733
19	0xbd322bc5	-0.043498773
20	0x3d31bff2	0.043395944
21	0x3dc05342	0.0939088
22	0x3de779e6	0.11302547
23	0xbd87f683	-0.06638815
24	0xbd9d2eb6	-0.07674925
25	0x3dca7d02	0.098871246
26	0xbdcf45fd	-0.10120771
27	0xbd4b2121	-0.04959214
28	0x3c991f4a	0.018691678
29	0xbd355f3d	-0.04428028
30	0x3e1f174e	0.15536234
31	0xbdfa5a90	-0.12224305
32	0x3cd5e4ff	0.02611017
33	0xbbbd2ae5	-0.0057729357
34	0xbdbf1e1b	-0.09331914
35	0x3d594025	0.05303969
36	0xbd8f79a6	-0.070056245
37	0x3df7aac6	0.12093119
38	0x3b172c42	0.0023067151
39	0xbe1dd62f	-0.15413736
40	0xbc9c907b	-0.019111862
41	0x3c4373f1	0.011929498
42	0x3e189be6	0.1490322
43	0x3d8108d7	0.06300514
44	0xbce1bdf6	-0.0275564
45	0x3e0bf459	0.1366743
46	0x3d2e918d	0.042619277
47	0x3db133c3	0.08652451
48	0x3d68b248	0.056810647
49	0xbdf18e90	-0.1179477
50	0xbdefc7f6	-0.117080614
51	0xbd8a4475	-0.067513384
52	0xbdc38ffd	-0.09548948
53	0x3dd9cd93	0.10634913
54	0xbd6516be	-0.05592989
55	0x3cdca06e	0.026931968
56	0x3e08bf47	0.13354217
57	0xbe09032b	-0.13380115
58	0x3da082ee	0.07837473
59	0x3d62b59d	0.05534898
60	0xbe4167ba	-0.18887225
61	0x3d9ca865	0.07649306
62	0xbdf8c2ad	-0.121465065
63	0x3e230e52	0.15923432
64	0xbd036437	-0.032077994
65	0xbd462b4e	-0.048381142
66	0x3e1ab9d1	0.15109946
67	0xbe07e3ae	-0.13270447
68	0x3e2abba5	0.16673143
69	0x3d4a0b94	0.049327448
70	0x3d40d967	0.04708233
71	0x3c26157e	0.01013696
72	0x3e1721a2	0.14758924
73	0x3d7b586d	0.061363626
74	0xbdad3336	-0.08457033
75	0xbe05058a	-0.12990394
76	0xbe04b4d7	-0.1295961
77	0xbd6e38ca	-0.058159627
78	0xbe02ed4f	-0.12785839
79	0xbd821e91	-0.06353486
80	0x3d2988b5	0.04139014
81	0x3dbc823a	0.09204526
82	0xbe15f9ba	-0.14646044
83	0xbdfd9441	-0.12381793
84	0xbbfd5d39	-0.0077320603
85	0x3dbaf4e5	0.09128741
86	0x3bd219e6	0.0064117787
87	0xbdf524a9	-0.11969883
88	0x3e309ed5	0.1724809
89	0x3dc62f6f	0.09677016
90	0x3bbf3bd1	0.005835988
91	0x3d36a0ce	0.04458695
92	0x3d1a3d8c	0.037656352
93	0xbe29a66c	-0.16567391
94	0x3da91522	0.08255984
95	0x3dcdb8e7	0.10045033
96	0xbda5b4b8	-0.0809111
97	0x3b995d44	0.0046803076
98	0xbe1ce35f	-0.1532111
99	0x3dfe1dea	0.124080494
100	0xbd8ca4ee	-0.06867395
101	0x3cec66db	0.028857639
102	0xbca6ca1f	-0.02036005
103	0x3d90d02e	0.07070957
104	0x3d01f9f9	0.031732533
105	0x3ddd2f1d	0.10800002
106	0x3df97688	0.12180811
107	0x3bd4c647	0.006493363
108	0xbd5cc9e7	-0.053903487
109	0xbd6165fe	-0.055028908
110	0x3e0cc5a0	0.13747263
111	0xbdb47eb6	-0.08813231
112	0x3e144ae9	0.14481701
113	0xbdba3815	-0.09092728
114	0x3e438137	0.1909226
115	0xbdc925e9	-0.09821684
116	0x3d8b00bc	0.067872494
117	0xbd9d8c55	-0.07692782
118	0xbac63371	-0.0015121532
119	0x3e04f881	0.12985422
120	0x3e186fd4	0.14886409
121	0x3dacc24b	0.08435496
122	0x3c9004f5	0.017580489
123	0x3e09bc19	0.1345066
124	0x3dcd1e16	0.10015504
125	0xbd741a9b	-0.059595685
126	0xbd87440e	-0.06604777
127	0xbe083677	-0.13302027
128	0xbd974371	-0.0738591
129	0x3d8b8a3e	0.06813477
130	0xbda5d73b	-0.080976926
131	0x3df76608	0.12080008
132	0xbde01e04	-0.10943225
133	0x3e24ce0c	0.16094226
134	0x3dca6242	0.098820224
135	0xbdc76216	-0.09735505
136	0xbe0d3c2a	-0.13792482
137	0xbccc073a	-0.02490579
138	0x3dc25fc5	0.09490923
139	0xbc8d5aa1	-0.01725513
140	0x3e0db099	0.13836898
141	0x3b544dc0	0.0032394975
142	0x3dc63495	0.09677998
143	0xbd3c3e4c	-0.04595785
144	0xbd91d5d5	-0.07120863
145	0x3e02373f	0.12716387
146	0x3e0c2354	0.13685352
147	0x3cfcbf7c	0.030853026
148	0xbe2da59f	-0.1695771
149	0x3d608b23	0.05482019
150	0xbd4a614b	-0.049409192
151	0xba7cdad6	-0.0009645646
152	0x3dce1e70	0.10064399
153	0xbd08f34a	-0.033435144
154	0x3e222fdf	0.15838574
155	0xbd7785c8	-0.060430318
156	0x3e197eb5	0.14989741
157	0xbd6a9258	-0.05726847
158	0x3b950648	0.004547868
159	0x3bc863d4	0.006115416
160	0x3dabfd2f	0.083979
161	0x3dec68db	0.11543437
162	0xbe151bef	-0.14561437
163	0x3dc8d362	0.09805943
164	0x3e2336e0	0.15938902
165	0xbdedb932	-0.11607589
166	0xbdd8b8e0	-0.10582137
167	0xbd309cb4	-0.043118194
168	0x3dd407b4	0.10353032
169	0x3dbe4a30	0.09291494
170	0xbde0a65d	-0.10969231
171	0xbd0f8698	-0.035040468
172	0x3ba41c75	0.005008275
173	0xbd0bf20c	-0.03416638
174	0x3dd9e3f6	0.10639183
175	0x3dce8615	0.10084168
176	0xbd58256a	-0.052770056
177	0x3c3a9bc2	0.011389675
178	0x3d974d84	0.07387832
179	0xbca4d0bd	-0.020119065
180	0xbdd5c098	-0.10437125
181	0x3da60a3b	0.0810742
182	0x3e018ef9	0.12652196
183	0xbd84b229	-0.06479294
184	0xbcbdb276	-0.023156386
185	0x3df0f65b	0.117657386
186	0x3d9e378d	0.07725439
187	0x3c1fd4a2	0.009755285
188	0xbd31d680	-0.043417454
189	0xbdf9a1c6	-0.12189059
190	0xbe22ae92	-0.15886906
191	0x3dc19aa2	0.09453322
192	0x3d893717	0.06699961
193	0xbe0735a0	-0.1320405
194	0xbd204b3f	-0.03913426
195	0xbb266a24	-0.0025392855
196	0xbc915edb	-0.017745426
197	0xbe049593	-0.12947683
198	0xbde03fa0	-0.109496355
199	0x3cbbcbb1	0.022924276
200	0xbe1281fe	-0.143074
201	0xbdf52409	-0.11969764
202	0x3e0d1179	0.13776197
203	0xbd7a5c6f	-0.061123308
204	0xbe3ae836	-0.18252644
205	0x3d0e3bf5	0.03472515
206	0xbdcf1e81	-0.1011324
207	0xbd3b4416	-0.04571923
208	0xbd0411be	-0.032243483
209	0x3cbc2c15	0.022970239
210	0xbe145299	-0.14484634
211	0xbd6abacf	-0.05730706
212	0x3d89af49	0.06722886
213	0x3e16067c	0.14650911
214	0xbd7972fa	-0.060900666
215	0x3d5b9772	0.053611226
216	0xbd9605f3	-0.073253535
217	0xbe362231	-0.1778648
218	0x3e13104e	0.14361688
219	0xbdb78df3	-0.089626215
220	0x3d87e7f4	0.066360384
221	0x3b45e1dd	0.003019444
222	0xbe37bef2	-0.17943934
223	0xbcdfd721	-0.027324261
224	0x3da6a65c	0.08137199
225	0x3da467fe	0.080276474
226	0x3d04e01b	0.032440286
227	0xbd037346	-0.032092355
228	0x3cbf20e2	0.02333111
229	0x3da8000b	0.08203133
230	0x3be9f643	0.0071399524
231	0xbe080a80	-0.13285255
232	0xbe0d36fa	-0.13790503
233	0x3dcebd40	0.1009469
234	0xbda15288	-0.0787707
235	0xbdba1415	-0.090858616
236	0x3e28dab6	0.16489682
237	0xbc18afcc	-0.009319257
238	0x3df0f688	0.11765772
239	0xbdb37065	-0.08761672
240	0x3d42524e	0.047441773
241	0x3d953df0	0.07287204
242	0xbd357c6c	-0.04430811
243	0x3c24d6bb	0.010060961
244	0x3d8a4004	0.06750491
245	0xbc7f3879	-0.015577429
246	0xbe10da1d	-0.14145704
247	0x3e1db8df	0.15402554
248	0xbdd7c54c	-0.10535678
249	0x3d14a2d1	0.036288086
250	0x3ca2751d	0.019831235
251	0xbd6fd24d	-0.058550168
252	0xbe07e259	-0.13269939
253	0x3e0aef31	0.13567807
254	0xbd9967f6	-0.07490532
255	0x3e3194e3	0.17341952

model_old.model.0.bias f4 [128]
0	0x3e8d46f4	0.27593195
1	0xbd347250	-0.04405433
2	0x3d067b62	0.03283251
3	0xbd8fe552	-0.07026161
4	0x3e2839f3	0.16428356
5	0x3e65a259	0.22425212
6	0x3e5ec502	0.2175484
7	0x3e267750	0.16256452
8	0x3ea050f5	0.31311765
9	0x3e8169b5	0.2527596
10	0xbdb022d5	-0.08600394
11	0x3e8faca2	0.28061396
12	0x3e9d5d1b	0.30735096
13	0xbd8e4abc	-0.06947848
14	0x3cdb76fa	0.02679013
15	0x3e850507	0.25980398
16	0x3e3ed640	0.18636417
17	0x3e2e7965	0.17038496
18	0xbc3d4347	-0.011551685
19	0xbd4cda59	-0.05001292
20	0xbd6c6670	-0.05771488
21	0x3e1c2ac0	0.15250683
22	0x3e8a4124	0.27002823
23	0xbd86c2ce	-0.06580125
24	0xbd6dfffa	-0.058105446
25	0xbca07d29	-0.019590931
26	0x3e4f4555	0.20241292
27	0xbd4072d1	-0.046984497
28	0xbc8b5daf	-0.017012445
29	0xbe1df435	-0.15425189
30	0x3e220809	0.15823378
31	0x3e21e846	0.15811262
32	0x3ddd95c2	0.1081958
33	0x3e8a37cf	0.26995704
34	0x3e8cd079	0.27502802
35	0x3e84b8cd	0.25922242
36	0x3de7ece8	0.11324483
37	0xbe10a22f	-0.14124368
38	0x3c0fc5bc	0.008775171
39	0x3e91d32c	0.28481424
40	0x3e336f80	0.17523003
41	0xbdbd6c45	-0.092491664
42	0x3e9e824f	0.30958793
43	0x3e32f96b	0.17477958
44	0x3e31c981	0.17362024
45	0x3e9df561	0.30851272
46	0x3e62fe0e	0.22167227
47	0x3dcb7bec	0.099357456
48	0x3e94f6ed	0.2909464
49	0x3e9300c2	0.28711516
50	0xbd9c54ef	-0.07633387
51	0xbb82cb53	-0.0039915233
52	0xbd91f769	-0.07127268
53	0x3e90f3f2	0.28311116
54	0x3e69800b	0.22802751
55	0x3e8cf865	0.2753326
56	0xbd8902b4	-0.06689969
57	0x3e910ee6	0.2833168
58	0x3e742010	0.23840356
59	0x3c9cc962	0.019138996
60	0x3ecf6bf0	0.40512037
61	0xbcbe78e4	-0.023251005
62	0x3e5d7445	0.21626385
63	0xbb92144a	-0.004457985
64	0x3c0d223b	0.008614118
65	0x3e2e42eb	0.17017715
66	0x3e23278c	0.15933055
67	0xbda6d405	-0.08145908
68	0xbd3143f2	-0.04327769
69	0x3d7750b7	0.06037971
70	0x3d9cb5f0	0.07651889
71	0x3e82595c	0.254588
72	0x3e9fe9c4	0.31233037
73	0xbc5c7025	-0.013454472
74	0x3e94d487	0.29068395
75	0x3e7fc313	0.24976759
76	0x3da3303f	0.079681866
77	0xbd1a5e0b	-0.037687343
78	0x3ea2fe9d	0.3183488
79	0x3e946ade	0.28987783
80	0x3e1d8d07	0.15385829
81	0x3e51bd17	0.20482288
82	0xbd954f90	-0.07290566
83	0xbd0d1863	-0.034447085
84	0xbdde23e0	-0.10846686
85	0x3e35bb2a	0.17747179
86	0x3e8c186d	0.27362385
87	0x3e1e7989	0.1547605
88	0xbc6635db	-0.014050926
89	0x3e02ee9f	0.12786339
90	0x3d95549a	0.07291527
91	0x3e7807f0	0.24221778
92	0x3e18149c	0.14851612
93	0x3e6190e8	0.22027934
94	0x3e9ba464	0.30398858
95	0x3e7d3075	0.24725516
96	0x3e5d4b00	0.21610641
97	0x3ea389d5	0.31941095
98	0x3db38209	0.087650366
99	0xbe0250e1	-0.12726165
100	0x3e82a88e	0.25519222
101	0x3e7dda5a	0.24790326
102	0x3e81683c	0.25274837
103	0xbd48c1f5	-0.049013097
104	0xbdab1d58	-0.08355206
105	0x3ea5caca	0.32381278
106	0xbdffa59c	-0.12482759
107	0x3e1d0237	0.15332876
108	0x3e829fc9	0.2551253
109	0x3e66cb86	0.22538576
110	0xbd69c1f7	-0.057069745
111	0x3e0d4d5f	0.13799046
112	0x3e7de848	0.2479564
113	0xbc5c2859	-0.013437354
114	0xbdc5bb55	-0.096548714
115	0x3e4046d1	0.18777014
116	0xbcd90133	-0.02648983
117	0x3d86f19e	0.065890536
118	0x3e395793	0.18099813
119	0x3e84171a	0.25798875
120	0xbd02548e	-0.03181892
121	0x3d8136cd	0.063092805
122	0x3e969b28	0.2941525
123	0x3e1f7fe4	0.1557613
124	0x3e948ddc	0.2901448
125	0x3e87f26b	0.26552138
126	0x3e604966	0.21903
127	0x3e567e32	0.20946577
