project/paper_notebooks/saved_variables/paper_notebooks/5/dqn_vs_dqn_no_move_reward/final_policy_agent1.pth (torch, 320501 bytes, 16 tensors)

model.model.0.weight f4 [128, 42]
000000 9b ae 30 bd d4 38 38 bd cd c5 ae 3d d0 50 36 bd
       -0.043135267 -0.04497607 0.08533821 -0.044510663
000010 64 62 2a bd 78 28 ec 3d d1 b1 d0 bc 90 d6 91 bd
       -0.04159774 0.11531156 -0.025475414 -0.07121003
000020 f7 af ff 3d 26 c5 e5 bc fd ef 1a 3e d8 70 d5 bc
       0.124847345 -0.02804811 0.15130611 -0.026054785
000030 22 3d 8b 3d 8c b1 12 3c 2b d3 e2 3d 2e ef db 3d
       0.067987695 0.008953463 0.11075433 0.10738979
000040 8c f8 8c bc 42 cd 8e bd 9d f4 2d be 26 5c 40 3c
       -0.01720836 -0.069727436 -0.16987844 0.01174072
000050 f8 04 0a 3e 14 21 cb 3d de 55 97 bd 50 24 20 be
       0.13478458 0.099184185 -0.07389425 -0.15638852
000060 7e 1a 07 be 49 b5 a0 3d 37 63 45 be df 91 4b be
       -0.131937 0.078470774 -0.19276129 -0.19879864
000070 ea 3d 84 bd 83 9c fe bd 3c 14 bf 3d a4 4f 98 bd
       -0.06457122 -0.12432196 0.09330031 -0.07437065
000080 ac 88 a0 3d 83 79 85 bd d1 7a 04 be 18 94 b5 3c
       0.07838568 -0.06517317 -0.12937476 0.022165343
000090 a6 10 07 be 37 71 fb 3c a2 b9 69 3c 09 0e 05 be
       -0.13189945 0.030693633 0.01426545 -0.12993635
0000a0 3c bb e9 bd 75 a7 93 bc 67 3b a0 3d 59 38 2a 3d
       -0.11412665 -0.018024186 0.0782383 0.041557644
0000b0 8a b4 a0 bd a6 b8 20 3d 44 87 45 3d 8a 08 fa 3d
       -0.07846935 0.039238594 0.048224702 0.1220866
0000c0 e9 0a 59 bd 9a 74 0f be b0 05 a2 bd f0 22 c2 bd
       -0.05298892 -0.14009324 -0.07911241 -0.0947932
0000d0 a2 d2 25 be f8 ae 01 3e bb bb 3c bd 4a 51 aa 3d
       -0.16193631 0.12664402 -0.04607747 0.08316286
0000e0 ca c1 9f 3d 8e ce 49 bc 53 07 b9 3d 95 7d 5c 3c
       0.07800634 -0.012317313 0.090346 0.013457675
0000f0 18 a6 1c be 60 71 bc 3d cb 00 08 be a4 6c 24 3d
       -0.15297735 0.09201312 -0.13281552 0.04014267
000100 5b 6c 90 bd 76 db 2d be c8 20 59 3d 54 81 4c be
       -0.07051917 -0.16978249 0.05300978 -0.1997121
000110 12 55 25 3c 51 12 bc 3d 81 81 14 bd cf b5 f5 bc
       0.010091083 0.09183181 -0.036256317 -0.02999392
000120 ae 05 8b 3d 10 75 03 3d fe ea a5 bd 6a 83 4c be
       0.06788193 0.03209406 -0.08101462 -0.19972005
000130 62 f3 34 be 07 3e 80 bd 07 3a cf bd 55 09 15 be
       -0.17670968 -0.06261831 -0.1011849 -0.14554341
000140 af e6 8e bc 40 ad dd 3d 4d 3e 52 be e8 e3 25 be
       -0.017443983 0.108240604 -0.20531578 -0.1620022
000150 d1 94 8f 3c 23 e3 b1 3d da f7 6a 3d b2 cd d1 bd
       0.017527016 0.08685901 0.057365276 -0.102443114
000160 aa 3a 99 3d a6 d7 6d 3d 71 58 8b 3c c6 ea b0 b9
       0.074818924 0.058066987 0.017009946 -0.00033744256
000170 a2 90 5b bc 98 f9 72 be 5f 69 35 3e 1d 1a 38 3d
       -0.013401182 -0.23728025 0.17715977 0.04494678
000180 0c 00 96 bd 8e 18 75 3d e4 41 ba be a9 cb 09 3d
       -0.07324228 0.05983787 -0.36378396 0.03364149
000190 4b 8c ea bd 13 dd cc 3d 1c 31 d5 bd 0c 8f 05 3d
       -0.1145254 0.10003104 -0.104097575 0.032607123
0001a0 cc f4 a0 3d 80 a4 d6 3b a5 a2 00 3e 6c b2 0e 3d
       0.07859191 0.0065503716 0.12562044 0.034838125
0001b0 0d 1a f8 bd 68 d7 d4 bc df fb 09 bd ba 10 a5 bc
       -0.12114344 -0.02598162 -0.03368747 -0.020149577
0001c0 0c 90 7f bc e2 4a 18 be 2c 32 3b 3e 12 29 e3 bd
       -0.015598308 -0.14872316 0.18280858 -0.11091818
0001d0 d5 0a a1 3d ff 1f 54 be 86 27 29 3d 13 7b bb 3d
       0.07863394 -0.2071533 0.041297458 0.09154334
0001e0 3c fb 2b 3e be 09 dd 3c cf 57 96 3b 01 3e cc 3d
       0.16795057 0.026982184 0.0045881043 0.09972764
0001f0 66 f8 0e 3d 06 f4 51 bd a2 73 a2 bc c0 6a 26 bd
       0.03490486 -0.05125811 -0.019830529 -0.04062915
000200 0b 2b 20 bc 4f 80 07 3c c3 09 e3 bc c7 c7 16 bb
       -0.009775887 0.008270337 -0.027714616 -0.002300726
000210 75 98 ae bd 41 88 26 3e da b2 32 3e 01 e3 37 bd
       -0.085251726 0.16262914 0.17451039 -0.044894222
000220 6d 55 01 be d0 6e 4e bd b6 dc 88 3d b8 87 c7 3b
       -0.12630244 -0.050398648 0.06682722 0.006089177
000230 19 e2 56 3e a3 20 c4 3c 2b 0a 72 3e da 05 80 bc
       0.20984687 0.023941344 0.23636691 -0.01562779
000240 99 7f b1 bd 51 1c da 3d e7 5c 59 3e 0c 00 a0 3d
       -0.086669154 0.10649932 0.21226846 0.07812509
000250 6a 13 e0 bd f9 4b 36 3d 76 a1 95 3c 42 58 0a ba
       -0.10941203 0.044506047 0.018265467 -0.00052774337
000260 26 77 e7 3d 0b 0f 92 bd 9d ba d0 3d 16 e7 d5 bd
       0.11302023 -0.071317755 0.10191844 -0.10444467
000270 00 2e 19 3e d3 62 26 bc 61 fc 72 bc 6f 2b 6f bd
       0.14958954 -0.0101553975 -0.01483068 -0.05839103
000280 7d cb bc 3d 78 57 e9 3d 68 28 11 be 4a 12 86 3d
       0.092185 0.113936365 -0.1417557 0.06546457
000290 88 41 19 3e 42 e1 db bd 5b e9 f5 bd f9 68 e1 bc
       0.14966404 -0.10736324 -0.120074 -0.027515875
0002a0 3c ff b4 3d bb 7a d0 3d 7d 50 8a be fa 70 6f bd
       0.088377446 0.10179659 -0.27014533 -0.058457352
0002b0 42 e3 14 bd 54 d7 10 be e3 ad 12 3e f1 f9 49 3d
       -0.036349542 -0.14144641 0.14324145 0.04931063
0002c0 dd 39 46 bd ec e0 1d be 4d 0c 29 3d 66 bf 5f bd
       -0.048395026 -0.15417832 0.041271497 -0.05462589
0002d0 a9 5e 0f be 60 d7 1b 3e b4 00 05 3e a8 0e ac bd
       -0.14000954 0.15218878 0.1298855 -0.08401233
0002e0 b8 bf 3f bc 83 63 f1 3d ee 0e a7 3d 39 93 04 3d
       -0.011703424 0.117865585 0.081571445 0.032366965
0002f0 0d 6c bd bb 21 d9 a4 be f8 f0 6d be 05 50 67 bd
       -0.005780703 -0.32196906 -0.23236454 -0.056472797
000300 b3 c6 8d bd 32 9c a1 be bc 83 15 be f0 19 48 bd
       -0.069226645 -0.3156448 -0.14601034 -0.04885286
000310 39 ae c7 bd 13 1d 17 be 7c c1 65 be 30 5c c2 bc
       -0.09750027 -0.14757185 -0.2243709 -0.023725599
000320 68 43 54 be d4 5d 3c be 72 eb bd 3d 8c 1a 2d be
       -0.20728838 -0.18395168 0.09273423 -0.16904658
000330 fb a1 12 be bc f4 4d bd bd 4b 43 be 16 47 cf bd
       -0.14319603 -0.050282225 -0.1907186 -0.101209804
000340 af 08 66 bd 9b 40 c0 bd 15 3c 8f be 27 e1 58 be
       -0.056160625 -0.093873225 -0.27975526 -0.21179639
000350 1c 32 b7 3d d5 bb fa 3d 08 35 6f be 21 f1 be 3d
       0.089451045 0.12242857 -0.23360074 0.093233354
000360 34 c1 07 be d2 a6 4d be ab 97 27 3d 24 95 b4 bd
       -0.13257295 -0.20083168 0.040916126 -0.08817509
000370 b4 92 c1 3d 22 b2 d1 bd df f0 22 be b4 79 49 3d
       0.094518095 -0.10239054 -0.15912198 0.04918833
000380 17 78 b8 3d f3 b6 97 3d 74 fa f1 3d be cb 04 3d
       0.0900728 0.07407942 0.11815348 0.032420866
000390 30 c4 8d 3c 6f 07 36 3d 04 1b db 3d a6 f7 85 be
       0.017305464 0.044440683 0.10698512 -0.26165503
0003a0 40 e3 81 be 2b 16 f0 bb a3 56 41 be 5e b9 35 be
       -0.2536869 -0.0073268614 -0.18880706 -0.17746493
0003b0 92 5b c9 bb 77 c7 25 3d a4 ba a7 bc 37 67 13 be
       -0.0061449492 0.040473428 -0.02047474 -0.14394842
0003c0 27 86 2e 3b fd 16 97 3d e6 c5 57 bd 5e fd d8 bd
       0.0026630254 0.073774315 -0.052678965 -0.10595201
0003d0 e6 91 ee 3d a0 99 c7 bd 42 2b 42 be 8e d2 b4 3d
       0.11648922 -0.097460985 -0.18961814 0.088292226
0003e0 90 27 3d be d8 62 6c 3c 6a 60 18 3b e7 4b 85 bd
       -0.18472123 0.014427863 0.0023250827 -0.06508618
0003f0 16 11 83 be f8 6b 3a 3e ff b0 4f be 37 7a 0a 3e
       -0.25598973 0.1820525 -0.20282362 0.13523184

model.model.0.bias f4 [128]
000000 7e f8 df 3d 9c ed 52 be 94 23 3a bd 7e c5 31 bd
       0.10936068 -0.20598453 -0.045444086 -0.043401234
000010 fb b6 c5 bc 96 82 c3 3d c9 95 7d 3c 09 53 15 bd
       -0.024135103 0.09546392 0.015477606 -0.03645614
000020 72 fd dc 3d f0 72 38 3d ca fb 20 be 8f cf e3 3d
       0.10790528 0.045031488 -0.1572105 0.11123573
000030 3f 63 92 3e 2a 20 6a be 72 8b 47 3d 7b 0c 30 3d
       0.28591344 -0.22863832 0.04871697 0.042980652
000040 8f 95 8a 3d b3 5c 28 3b 3d ca 54 bd f6 9d 1d 3c
       0.06766807 0.0025690019 -0.051950682 0.00962018
000050 dc fa 5e be 3d 4d 85 3d cf 6c 2c 3e 89 13 19 be
       -0.21775383 0.06508873 0.16838382 -0.14948858
000060 1f 11 b4 bd 8e 7d 36 bd 31 bd 03 3d b1 bb 18 be
       -0.08792328 -0.044553332 0.03216285 -0.14915349
000070 17 17 f1 bd 80 24 3a be e5 6b aa 3c f7 b8 52 3d
       -0.11771982 -0.18177986 0.020803401 0.051445927
000080 25 ed e8 bc 60 80 5b 3d e4 53 d0 3d 38 d6 15 3e
       -0.028433392 0.053589225 0.10172251 0.14632499
000090 49 06 b0 bd d6 3e 02 bd 7a b3 17 be 24 e5 f1 3d
       -0.08594949 -0.031798206 -0.14814559 0.11811283
0000a0 32 0f a5 3d 1c 55 0c be 88 17 ea 3d 5c 7b 63 3d
       0.08059539 -0.13704342 0.114302695 0.055537567
0000b0 38 3d 9b 3c 6a ab 6c 3d af f4 f7 3b ca 78 d1 bc
       0.01895009 0.05778066 0.0075670104 -0.025570292
0000c0 86 7a 24 3e a9 9b 01 3d 49 c3 7f bd 50 86 f8 bd
       0.16062364 0.03164259 -0.062442098 -0.12134993
0000d0 f3 5c 2d be 8a b3 05 3e ab 39 e4 3d 40 50 b0 3d
       -0.16929989 0.1305677 0.11143812 0.086090565
0000e0 c1 7b 93 bd 64 53 0e 3e 19 84 06 bd 25 ef d9 bd
       -0.072013386 0.13898998 -0.032840822 -0.10641316
0000f0 16 2a 36 3e 24 bb aa 3b 7f 23 30 bd fc 00 d8 3b
       0.17789492 0.005210297 -0.0430026 0.006591914
000100 4e 79 0e be ba 62 34 3c 77 66 96 bd a9 9a 8a bd
       -0.13913462 0.011009866 -0.07343762 -0.0676778
000110 6a cb c2 bc 86 a5 47 bd 78 3e 10 be 1b 53 d9 3d
       -0.023778636 -0.04874184 -0.1408633 0.10611554
000120 1d 12 2c 3e 66 7d 90 bd b5 39 b1 3d db 4c d8 bb
       0.16803785 -0.07055168 0.08653585 -0.0066009588
000130 6e f0 39 bc 28 02 2c be e5 64 dc 3d fe 4b 77 3e
       -0.011348827 -0.16797698 0.107614316 0.24150082
000140 26 ae 09 be 6f e7 90 3d b1 45 3f be 9f a6 c8 bd
       -0.13445339 0.070753925 -0.18678929 -0.097974055
000150 91 1f 27 be e9 28 61 3d 2e 02 12 3e 5c 6f 23 bd
       -0.16320635 0.054970656 0.14258644 -0.039901122
000160 0a bc 1b bd e5 b4 c9 bd 87 75 36 be f9 38 98 3d
       -0.038021125 -0.09848956 -0.1781827 0.07432742
000170 06 34 2e bd 34 7a 5e 3c f2 0d a0 3d 23 0b 41 3d
       -0.042530082 0.01357894 0.0781516 0.04712976
000180 6d 59 b9 3d 80 bd 05 3e d6 9f b3 3d 8e 3e 0b be
       0.0905026 0.1306057 0.08770721 -0.13598081
000190 9c 0c 02 3e d3 56 4d 3d 18 c2 e9 3d bb ed db bd
       0.12700123 0.05013163 0.114139736 -0.10738703
0001a0 17 5f 1d bc e1 b0 e9 3d 5f a0 27 be fb 1b bb 3b
       -0.009605191 0.1141069 -0.1636977 0.0057101226
0001b0 43 41 c6 3d 47 16 b1 3d 97 69 07 be 65 8c 7a 3b
       0.096804164 0.08646827 -0.13223873 0.0038230654
0001c0 7e 7f c7 3d 64 9f 29 be 94 fd 16 be 91 fe a1 3d
       0.09741114 -0.16564709 -0.1474517 0.07909883
0001d0 59 fc 1a 3d 95 fc 63 bc d9 a8 37 3e f4 0b 1f 3e
       0.037838314 -0.013915201 0.17935504 0.15531904
0001e0 bd 36 91 bd f1 b1 eb bd 06 76 29 3e 01 b2 d6 3c
       -0.070905186 -0.11508549 0.16548929 0.026207926
0001f0 9d 7f ee 3d 6b 17 40 3e 1c 07 5a ba 3a 25 c1 3b
       0.11645434 0.18758933 -0.00083170994 0.0058943303

model.model.2.weight f4 [128, 128]
000000 2b 50 1a 3c 85 09 49 be 29 84 3e bc 5d f0 31 be
       0.009418528 -0.19632538 -0.011628189 -0.17376848
000010 c7 84 e1 bc e5 29 a8 bd 02 8f d4 3d 49 62 aa bd
       -0.027529133 -0.08211116 0.10378839 -0.08319528
000020 0e fa 0f bd 31 50 b2 3c 99 43 64 bd 35 2f 59 bd
       -0.03515058 0.021766754 -0.05572853 -0.053023536
000030 17 31 6f bd da 95 05 3e fa 1c bc bd 91 12 11 3e
       -0.058396425 0.13045445 -0.09185214 0.14167239
000040 57 42 2a 3e 25 54 e1 ba 53 e3 07 3d 1b a8 4d bd
       0.16626869 -0.0017191215 0.033175778 -0.050209146
000050 b0 ac 7e 3d 98 31 f6 bd d3 b2 de bd fb ff 51 3d
       0.062176406 -0.12021178 -0.10873952 0.051269513
000060 53 69 a0 3d 8a 7d 83 3d 1c 3d d7 bb 24 61 91 bd
       0.07832589 0.06420429 -0.006568564 -0.07098606
000070 b6 ae 9e 3d 01 29 bb 3c b6 0f 2a 3d df 07 8b bc
       0.07748167 0.0228467 0.04151889 -0.016971527
000080 da 27 22 3b 79 b2 96 3b f0 af 84 3d 2e 40 35 3d
       0.0024742992 0.0045989123 0.0647887 0.04425066
000090 3c c0 00 3e 2a 9a 8a 3d cd d4 ec 3d d4 36 15 be
       0.12573332 0.06767686 0.11564026 -0.14571697
0000a0 c6 e2 b4 3d 14 f1 cd 3d fa 92 90 3d 20 fd 33 3c
       0.08832316 0.10055748 0.070592836 0.010985643
0000b0 ad 6b e9 ba d1 cc 6f 3d 41 8b 98 bc 53 9b 78 ba
       -0.0017808579 0.058544938 -0.018621089 -0.00094835943
0000c0 d9 10 93 bd 17 58 1d be c9 b9 2e 3e ca 9d 02 be
       -0.07180948 -0.15365635 0.17063059 -0.12755504
0000d0 ce 77 93 3c 1a f9 b1 bd 23 05 21 bd bb 99 c8 3d
       0.018001463 -0.086900905 -0.03931154 0.09794947
0000e0 eb 2d 0a 3e 7d 7e f1 bd 93 a3 ee 3d fa 52 d9 bc
       0.13494079 -0.11791704 0.11652293 -0.026528824
0000f0 08 78 85 3e 6e 12 76 3e d4 91 69 bc 03 41 c3 3d
       0.2606814 0.24030468 -0.01425596 0.095338844
000100 99 0f 1d bd b6 71 2f be fe 52 33 3e 78 a9 04 3c
       -0.038344953 -0.17133221 0.17512128 0.008097045
000110 c0 f9 8a bd 42 d3 50 be 6e 89 7c 3d b4 86 15 be
       -0.06785917 -0.20393088 0.0616545 -0.14602166
000120 2b 01 0c be 74 8f 42 be e3 51 84 3d 51 2b 37 bd
       -0.1367232 -0.19000036 0.06460931 -0.044719044
000130 1d 62 ea 3d 7e b4 9c 3d a1 2b 7e 3d d0 aa a8 bd
       0.11444495 0.07651614 0.062053327 -0.08235705
000140 6c 29 06 3d d5 91 0f bc b1 68 a6 bd 29 d6 00 3c
       0.032754347 -0.008762796 -0.08125437 0.00786356
000150 c0 48 30 bd df 0d ff 3d b5 77 c8 bb 2b 71 f8 bd
       -0.04303813 0.124538176 -0.006117786 -0.1213096
000160 ff 48 15 be 02 7c 34 3c 3c 1d 57 bc f2 b8 18 be
       -0.14578627 0.011015894 -0.013129529 -0.14914301
000170 53 17 28 3e 04 1c db bd 6c 61 10 3d 15 e1 c5 3b
       0.16415147 -0.10698703 0.03524916 0.0060387948
000180 98 d9 89 bd e4 87 8f 3e cf 4e 4b be 49 c3 2c bd
       -0.06730956 0.28033364 -0.19854282 -0.042178426
000190 86 60 f8 3c 8d 9a 03 bc de 07 63 be 5e 64 cb bc
       0.030319463 -0.008032453 -0.2217097 -0.024828132
0001a0 48 3e 6a 3d 3f e1 9a bc 00 14 a9 bb ac 8e 54 bb
       0.057188302 -0.018906234 -0.005159855 -0.0032433672
0001b0 f1 fd d4 3c d8 14 2c bc 81 72 5d 3d 38 ad df bd
       0.025999995 -0.010503016 0.054064278 -0.10921711
0001c0 a0 16 0e 3e bc 2d d9 bc d4 ae 75 bd dd e1 f2 3d
       0.13875818 -0.026511066 -0.059981182 0.11859486
0001d0 07 ba 1c be dd 3a bd bd 8d e1 77 3c 8a 25 8b be
       -0.15305339 -0.09239743 0.015129459 -0.27177078
0001e0 da a5 d3 3d e2 17 d2 bd 06 b6 78 3d d5 1a f9 bd
       0.10334368 -0.102584615 0.060720466 -0.12163321
0001f0 f5 fe a8 bd 1d b1 15 bd b9 84 2c bd 23 95 17 3c
       -0.08251754 -0.03654586 -0.04211876 0.009251866
000200 dd f1 94 bd 25 a7 b6 3d ee 7e cb bd bd 90 5b be
       -0.07272694 0.08918599 -0.09936319 -0.21441932
000210 5c 0b b3 3d 3b 02 1b 3e df 0f 5d 3c 4a 65 fd bc
       0.08742401 0.1513757 0.0134925535 -0.030932087
000220 a5 18 ed bb 99 13 e6 bc 69 00 a5 3c 1f ba c5 ba
       -0.007235604 -0.028085517 0.020141797 -0.0015085376
000230 e4 28 b0 be cf 36 9a bd 91 d9 7a be ab 4b 90 3d
       -0.34406197 -0.07529985 -0.24497057 0.070456825
000240 80 49 b9 3b 8b 83 f2 3d 7f 30 fe bd 34 27 81 bd
       0.005654514 0.11841496 -0.12411594 -0.063063055
000250 79 45 1d 3e 5a 57 3e 3e 17 38 dd bd 48 5b 35 bd
       0.15358533 0.1858801 -0.10801714 -0.044276506
000260 bc b3 9b 3d f1 46 8a bd 8e 16 e8 3d 95 5e 50 bd
       0.07602641 -0.06751812 0.11332427 -0.05087145
000270 13 5d d1 bd 90 d8 85 bd 3a ae b1 3d 86 c6 6c 3d
       -0.102228306 -0.06535447 0.08675809 0.057806514
000280 21 03 79 bb e2 95 13 3b f5 7b d6 3d 79 0d 8b 3d
       -0.003799625 0.0022519757 0.10472862 0.06789679
000290 58 cd f4 3d 64 ba ee bd 8b 95 15 3d 32 c2 5b bb
       0.11953229 -0.11656645 0.03651957 -0.0033532497
0002a0 4a fc a9 bd 7b 74 ae bd 3c b8 93 bd 6f ba 1e 3d
       -0.083000734 -0.08518311 -0.07212874 0.038752016
0002b0 77 c3 83 3c 49 1c f6 bc b6 96 a6 3b cf 4f 86 3d
       0.016084416 -0.030042784 0.005083884 0.06558191
0002c0 5e 4f d3 ba cf ea 5d 3d f8 20 05 3b 97 05 91 3d
       -0.0016121676 0.05417901 0.002031384 0.07081144
0002d0 c1 f2 b1 3d 23 bc f2 bc 28 f2 e0 3c ff 6d 48 3d
       0.0868888 -0.029630726 0.02745922 0.048933025
0002e0 a4 03 c8 bd ca db 2f 3d 78 ac 08 3e 07 47 0c bd
       -0.097663194 0.042934217 0.13347042 -0.034247424
0002f0 34 4d 85 bc d0 3a d0 bd 99 95 4e 3d 1a 80 4c be
       -0.016272165 -0.101674676 0.050435636 -0.19970742
000300 4c 2c 04 be 5b 69 99 bd 18 b2 8a bd ae b2 10 3e
       -0.12907523 -0.07490798 -0.0677225 0.14130661
000310 21 14 31 be bf f0 e7 3d e9 32 4e 3d f7 62 9c 3c
       -0.17292835 0.113252155 0.05034152 0.019090159
000320 4d e9 55 3d 08 38 a6 3d 8b 91 7b bd e6 0c ae bc
       0.052224446 0.08116156 -0.061418097 -0.021246385
000330 b8 bf 03 bd d8 77 87 3c 2c 48 92 bd 06 57 0e bc
       -0.03216526 0.016536638 -0.07142672 -0.00868774
000340 53 05 30 3d 74 58 74 3b df f9 b4 3d da 82 a1 bd
       0.042973828 0.0037284167 0.08836722 -0.07886286
000350 e1 5c 84 bc 9e aa 23 bd 84 fe c4 3d af da 01 3e
       -0.01615757 -0.039957635 0.096188575 0.12681077
000360 30 a3 3d 3d b8 16 0f 3d 28 a6 d8 3d 04 17 f9 3c
       0.046298206 0.034933776 0.10578567 0.030406483
000370 ff a5 2c bd b4 36 23 bc 71 31 74 bd f2 a4 a3 bd
       -0.042150494 -0.009961773 -0.059617463 -0.07990445
000380 a6 15 08 3d c5 36 f7 3c 0a a9 b5 bd 95 cf 0a 3e
       0.03322377 0.030177483 -0.08870132 0.13555749
000390 4c 9b 77 3d 90 40 e5 3c 80 df cf 3d 85 1b 03 3e
       0.060450837 0.027984887 0.10150051 0.12803467
0003a0 e6 60 91 bd af 3a 06 bc 97 d4 e4 3d 6c e2 b9 bd
       -0.0709856 -0.008192702 0.11173361 -0.0907639
0003b0 5f ec ba 3d 3a eb c3 3a 49 2b b4 bd d1 b3 61 bd
       0.091271155 0.0014947422 -0.087973185 -0.055103127
0003c0 86 03 66 3c 11 5b 42 3b 84 e1 b9 3d fd d5 fe 3d
       0.014038926 0.002965633 0.09076217 0.12443159
0003d0 36 ad 7e bd af 87 fa bd 5b a0 41 3e 85 8f 94 be
       -0.062176906 -0.12232911 0.18908827 -0.29015747
0003e0 40 c2 6a 3e a3 54 bb 3d 1d eb 02 3d 69 80 91 3b
       0.22925663 0.091470025 0.031962503 0.0044403565
0003f0 23 0e d0 bd eb fb ce bb d3 f5 7b bc 35 43 90 bc
       -0.10158946 -0.006316652 -0.015378433 -0.017610172

model.model.2.bias f4 [128]
000000 3f e0 6e bd 52 2f 1d 3d 21 7b 4e 3d d5 b3 5d 3d
       -0.058319326 0.038375206 0.050410394 0.05412658
000010 45 6b a7 3d f9 4b ba 3d e2 25 57 bd 89 17 4b 3d
       0.08174757 0.09096522 -0.052526362 0.04958299
000020 bf f0 c4 3d 5a e9 0a 3d cf ad 7e bd 9f 79 9d 3c
       0.09616231 0.033913948 -0.062177476 0.019223033
000030 e7 77 d8 3d ea 4e 9f 3d d4 24 30 3b e7 ac e9 3c
       0.105697446 0.077787235 0.002687742 0.02852483
000040 88 ce c9 3d 90 6c d8 bc 4b 55 09 bd 4d d8 b4 3d
       0.09853846 -0.026418954 -0.033528607 0.088303186
000050 69 49 80 3d 1c 08 84 bd 21 08 c5 bc 09 fd ce bd
       0.06264002 -0.06446859 -0.024051728 -0.101068564
000060 61 5b 53 3d 2d 67 94 bd 67 a1 ce 3d d1 be 81 bd
       0.051600818 -0.07246242 0.10089379 -0.063352235
000070 e6 7b a9 3d d0 1e 3b 3d fa f8 85 bd d3 11 cc bc
       0.08275585 0.045683682 -0.06541629 -0.024910843
000080 c6 0e 47 bc 5c 0e d0 bd 56 6d ac 3d 49 eb 81 3d
       -0.012149518 -0.10158989 0.08419292 0.06343705
000090 7c 6e a4 3d 8f f2 aa 3d 12 ab 18 bd 45 1b 7e 3c
       0.08028886 0.08347046 -0.03727252 0.015509431
0000a0 57 82 03 3e 48 25 f4 bc 6b cb 88 3d 8d 30 f9 3b
       0.1284269 -0.029802933 0.06679424 0.0076046647
0000b0 9c b8 9e 3c c1 65 71 bd 98 f0 a1 bd 5e 50 96 3d
       0.019375138 -0.05893493 -0.07907218 0.073395476
0000c0 4d fe 20 3c 3b 47 84 bd fe e3 83 bd 5c b0 e2 bc
       0.009826255 -0.06458899 -0.064399704 -0.027671985
0000d0 9d 1b dd 3c 3a e5 ef 3d f2 b6 bb bd a1 b6 73 3c
       0.026990706 0.11713643 -0.091657534 0.014875085
0000e0 c8 e8 9e 3d 4f 1b 0a 3e 57 a6 c2 3a 4d 38 53 3d
       0.07759243 0.1348698 0.0014850599 0.051567364
0000f0 74 a4 af bd ef 21 f2 3d 3f 79 ee bd 8d 14 57 bd
       -0.08576289 0.118228786 -0.116442196 -0.052509833
000100 6c 6c 2e bd 9b f3 97 3d 04 b8 e2 bc 8f 0e af bd
       -0.042583868 0.07419511 -0.027675636 -0.08547699
000110 96 48 71 3d 79 6c 23 bd 09 2f 9c bd a1 e2 c8 bd
       0.058907114 -0.03989837 -0.07626159 -0.09808851
000120 44 65 a4 bd f5 6c 29 3d f8 ee aa bc 86 99 ca bd
       -0.080271274 0.041363675 -0.020865902 -0.098925635
000130 5b df 1b bd 03 53 a2 b9 e1 c7 98 bd 64 b6 64 3d
       -0.038054805 -0.00030960896 -0.07459999 0.055838004
000140 f0 d7 da 3d bc f1 d8 3d 09 83 c8 bd fd 6e d8 bd
       0.10685718 0.10592982 -0.09790618 -0.10568044
000150 de dc f2 bd 19 6f a1 3d 26 0d 9a bd 04 5f 2a 3b
       -0.11858533 0.07882518 -0.07522039 0.0025996575
000160 e2 ad 38 bd 79 f1 03 3e 3b d1 89 3d fa d2 22 3d
       -0.045087703 0.12885083 0.06729361 0.039751984
000170 92 1f 9b 3d 64 24 89 3d 7b 5b 42 bd 64 2f a9 bd
       0.07574381 0.06696394 -0.047450524 -0.08260992
000180 91 71 ff 3c e5 96 93 3c b4 e9 d2 3c d8 f3 92 bd
       0.031182082 0.018016288 0.025746204 -0.07175416
000190 9a 4a d3 3d bf 6c c7 3d 38 f9 b4 bc 02 1d 3e bd
       0.103169635 0.097375385 -0.022091493 -0.046414383
0001a0 76 d1 96 bd 59 44 82 bd 0c ee 68 3d 83 dc b9 3d
       -0.0736417 -0.063606925 0.056867644 0.090752624
0001b0 61 6c c8 bd c3 6a db 3b b0 de a7 3d 26 99 ad bd
       -0.09786297 0.0066960766 0.08196771 -0.08476476
0001c0 b6 f5 34 bd fe 10 ad bd a7 56 22 bd 0a 46 07 3c
       -0.04417964 -0.08450507 -0.03963342 0.008256445
0001d0 7c 7a b9 bd 3b 0e 2b 3d b4 3a c0 3c 1e 80 ee bd
       -0.09056565 0.041761618 0.023465492 -0.1164553
0001e0 54 c0 88 bd af 4e 31 bd e0 97 65 3c cc 90 2e 3c
       -0.06677309 -0.04328793 0.014013261 0.010654639
0001f0 dc 7b a5 3c 7b 3e 8c bd 8b 46 b3 3d 44 36 4f bd
       0.020200662 -0.06847855 0.087536894 -0.05058886

model.model.4.weight f4 [128, 128]
000000 98 ee eb 3d c4 fb 3a 3d 0a c3 7a 3d 7d 8a 77 bd
       0.115201175 0.04565026 0.06122116 -0.060434807
000010 b5 f5 f3 3b da 9d 17 bd e0 4d 35 3d 88 e0 bf 3d
       0.007445062 -0.037015773 0.04426372 0.09368998
000020 92 30 13 3c ba 00 21 3d e4 fd 92 bc a5 ca aa 3c
       0.008983748 0.039307334 -0.01794333 0.020848582
000030 8c fd a5 3d b5 93 0d 3e 29 89 ad 3d c6 bb 3c 3e
       0.08105001 0.13825877 0.08473427 0.18431005
000040 33 c1 9a 3d 21 26 a2 be 6c 10 7d 3d 05 8f ee 3c
       0.07556381 -0.31669715 0.06178324 0.029120931
000050 cc 4f 9d 3c 79 ea 60 3d c9 73 80 3e 1f 7e f9 3c
       0.01920309 0.05491111 0.25088337 0.030455647
000060 52 f1 14 bd c2 ec 7a bd 25 f3 7c 3d 66 61 41 3d
       -0.036362953 -0.061260946 0.06175532 0.047212027
000070 71 e5 93 bd 06 7c ca 3d 9d 54 12 3d c5 0c aa 3d
       -0.07221497 0.09886937 0.035725225 0.08303217
000080 b8 ff 87 3d 2b 75 f9 3d f6 d1 b3 3c d4 05 1f 3d
       0.06640571 0.12180551 0.021950703 0.038823918
000090 7e 4e 0c 3d 19 58 42 3c dd 60 e1 3d f2 32 65 3d
       0.034254543 0.011861824 0.11004803 0.05595679
0000a0 58 b8 b4 3c 00 40 64 37 fb 57 b7 bd a5 fc c9 bc
       0.022060558 1.360476e-05 -0.08952328 -0.024656603
0000b0 a3 16 c9 3c ef 14 cf bc 20 b0 b2 3d d2 ef df bd
       0.024546927 -0.025278537 0.087249994 -0.10934414
0000c0 20 0e dd 3c 55 6f 7b bd ec e4 01 3d a5 a1 80 3d
       0.026984274 -0.06138547 0.031712458 0.06280831
0000d0 fe 1e 1c 3e 96 6a 0b 3e 24 b9 8e bd 5a 4b 20 3e
       0.15246198 0.13614878 -0.069689065 0.15653744
0000e0 48 ef 07 3e de 0b 9d 3c 7e 92 92 bd 0f bc b6 3c
       0.13274872 0.019170698 -0.071568474 0.02230647
0000f0 46 a8 0b be 09 35 5b 3d 9e 4b 69 3d e4 21 13 3e
       -0.1363841 0.053517375 0.05695688 0.14368397
000100 ca 21 6a 3d da d6 d0 bc 51 96 ae 3d ba 23 86 be
       0.05716113 -0.025493074 0.08524764 -0.26199132
000110 fb db 97 3b 14 42 36 3d 49 3d 3c 3c 89 e5 9a 3d
       0.004634378 0.04449661 0.011489221 0.075633116
000120 5f 4b 63 bd ab 77 62 3e 07 1a e9 3c c1 b2 df bc
       -0.0554918 0.22115962 0.028454794 -0.027306916
000130 6b ee c7 bd 0b f5 8c bd e4 45 fe bc 37 01 92 3d
       -0.097622715 -0.06882676 -0.031039186 0.07129138
000140 42 3a a2 3d 02 a7 af 3d a3 fa b2 3d 7c ac 3d b9
       0.07921268 0.08576776 0.087392114 -0.000180887
000150 71 2b b2 bc 6e 74 a3 3d e1 d4 97 3d 98 97 d6 3d
       -0.02174923 0.079811916 0.0741365 0.10478133
000160 cc 97 aa 3c 55 d4 b2 3d 15 4b e2 3c 1a d0 6b bd
       0.020824336 0.08731905 0.027623693 -0.057571508
000170 22 0c 3f 3d 9a 61 6e 3d 95 be 0b be 4f 01 f2 3c
       0.04664243 0.05819855 -0.1364692 0.02954164
000180 15 53 3a 3d 2b 8c 4b 3e 0d bc 93 bd bb 4e 7a 3d
       0.04548939 0.19877689 -0.07213602 0.06111024
000190 6d 0f 08 3d 4c 35 be 3d 5a dd 34 be 3f 57 39 bd
       0.033217836 0.09287509 -0.17662564 -0.04524922
0001a0 3d 19 02 be ce e1 34 bd 24 5e 85 3d 39 62 bf bc
       -0.1270494 -0.044160657 0.065120965 -0.023362266
0001b0 7a da b2 bc 0f c9 c7 bd 05 ea 51 3e 28 5d 50 bd
       -0.021832693 -0.09755146 0.20499428 -0.05087009
0001c0 76 3d ad 3d eb c6 26 bc 48 55 5e bd 5e 7a 15 bd
       0.08458988 -0.010179262 -0.05428055 -0.03649365
0001d0 3d 3f 29 3d 35 15 b6 3d 8b ed 92 3d 4e 4b eb bd
       0.041320074 0.08890764 0.07174214 -0.114889726
0001e0 1f 12 28 bb 30 10 47 bd 57 5a 41 3d 84 30 b8 3d
       -0.0025645567 -0.048599422 0.047205295 0.089936286
0001f0 4c 4d c4 3b 62 cb 06 3d 94 03 1c 3e a9 1f ab 3d
       0.00599066 0.032908805 0.1523574 0.08355648
000200 53 be bc bd 02 81 73 3d 31 64 0f be 6c 75 6b 3d
       -0.09215989 0.059449203 -0.14003064 0.05748503
000210 17 70 db bc 7b 02 a5 3d 77 2c 72 bc f3 86 85 3b
       -0.026786847 0.08057114 -0.014781109 0.004074925
000220 27 a5 c9 3d bf 83 6a bd 16 d6 d9 bc 08 c7 28 3c
       0.098459534 -0.05725455 -0.026591342 0.010301359
000230 02 2e 6a 3d b9 e1 c5 3d b8 13 8e bd b3 ea 71 3d
       0.057172783 0.09662194 -0.06937355 0.059061717
000240 5b 13 01 bd 55 9e a6 bd a8 6f 46 bc 04 bb 13 bd
       -0.0315126 -0.08135668 -0.012111582 -0.036067024
000250 80 0e 21 ba fc 23 6f bd 06 c5 0c 3e e1 7e 85 3d
       -0.0006143823 -0.058383927 0.13747033 0.06518341
000260 e1 47 8c bc c9 d3 3d bd 49 19 d4 3d db 08 82 3d
       -0.017124118 -0.046344552 0.10356385 0.06349345
000270 42 84 49 bd 98 15 87 3d 49 78 9b bd ed c8 e2 bd
       -0.049198397 0.065959156 -0.07591302 -0.1107348
000280 2a a2 40 bd e2 8d aa bc 97 ce 27 bd 3f 5c 1e bd
       -0.04702965 -0.020819608 -0.040968504 -0.03866219
000290 74 fb 79 bd 7a 46 bc 3d e1 73 e4 39 a8 d3 e0 bd
       -0.06103082 0.0919313 0.00043573885 -0.1097787
0002a0 ff d5 12 3d 28 a6 d2 3c 94 ae e3 bd 72 0a 95 bd
       0.035848614 0.025713995 -0.111172825 -0.07277383
0002b0 c9 3f c3 3c 4d da 14 3d 79 53 29 3d bd bc 83 3c
       0.023834126 0.036341 0.04133937 0.016081208
0002c0 5a ae 81 3d 4c c4 28 bd 71 9a 25 3d ee b7 c3 3c
       0.06332083 -0.04120283 0.04043049 0.023891415
0002d0 c6 37 b8 bd 55 46 7b 3d 49 0f f9 bb 41 3f 61 bd
       -0.08995013 0.06134637 -0.007600699 -0.054991964
0002e0 b2 6d 53 3d f1 5a 68 3b 1e fd 96 3d 72 37 01 bc
       0.051618285 0.0035454596 0.07372497 -0.007886754
0002f0 36 21 8b bd 3e a9 06 3d d5 b3 70 3d 35 4b d2 3d
       -0.06793444 0.032876246 0.05876525 0.10268251
000300 5b 09 b8 bb dd 85 b9 3d 78 c7 b1 bc 8c bd fc 3d
       -0.0056163496 0.090587355 -0.02170156 0.12340841
000310 1e a7 c0 bd 1e ae 8a 3d 79 3c 01 3d ec 67 a9 bc
       -0.09406875 0.067714915 0.03155181 -0.020679437
000320 87 99 29 be 3f 82 65 bd bf 1c cb bb 76 9d 52 bd
       -0.16562472 -0.056032415 -0.006198495 -0.051419698
000330 6d a8 08 3d e9 5c 9a bd 31 76 cb 3d 3f ef d6 3d
       0.03336375 -0.075372525 0.099346526 0.10494851
000340 2d 55 a7 3d f5 8e de bc 9d ef bb bc 3b eb 00 3d
       0.08170543 -0.027167777 -0.022941405 0.031474333
000350 16 c4 b5 bd 46 5f 9d 3d 1f 09 65 3d c6 68 9f bd
       -0.08875291 0.076841876 0.0559169 -0.07783656
000360 68 4e a7 bc c6 3c 39 bd 0f ce 81 bd bb ae 5d bd
       -0.02042313 -0.045223974 -0.06338131 -0.054121714
000370 5f a2 f4 3a 52 c4 38 bc 00 a9 a5 3d b0 59 a0 bc
       0.0018664113 -0.011277275 0.08088875 -0.019574016
000380 c0 b2 05 bc cd 21 01 bd c5 49 a0 bd 22 49 76 3d
       -0.008160293 -0.031526376 -0.078265704 0.06012834
000390 b1 e6 59 bd c5 b8 40 3d e2 54 8c bd 5d 49 98 bc
       -0.05319852 0.04705121 -0.068521276 -0.01858967
0003a0 65 7f b7 3d eb 34 9d 3d 05 24 fd 3c fa b9 24 3d
       0.089598455 0.07676109 0.030900965 0.040216424
0003b0 c5 6c d9 bd 0b b6 a7 3c a5 f4 a7 bd dd 6f 9b 3d
       -0.10616449 0.020472547 -0.08200959 0.075896956
0003c0 04 ef 90 3d 89 20 10 bd f8 e2 42 3d 56 47 d1 bd
       0.070768386 -0.035187278 0.047579736 -0.102186844
0003d0 7d 47 cb 3c 23 9a 70 bd 43 9f 27 bd 02 87 c8 bd
       0.024814362 -0.058740746 -0.04092337 -0.09791376
0003e0 85 f8 78 bd e1 ba 8c 3d 2c a6 7a bc aa df 3e bd
       -0.06078388 0.06871582 -0.0152984075 -0.04660002
0003f0 d7 e3 23 ba 74 08 b3 bd e8 70 34 bc 0d 26 89 bc
       -0.00062519073 -0.08741847 -0.011013247 -0.016741777

model.model.4.bias f4 [128]
000000 2c ec ac 3d 85 47 17 3d 6e 62 04 3e e0 5b 2c 3e
       0.08443484 0.03693344 0.12928173 0.16831923
000010 a5 d1 83 3d fb a5 1a 3c de 25 2f 3e 23 60 00 3e
       0.06436471 0.009438987 0.17104289 0.12536673
000020 1b 68 12 3e f9 37 4f 3e 64 94 15 3e 07 11 d2 3d
       0.14297526 0.20236196 0.14607388 0.10257154
000030 a1 b4 2f 3e a5 02 07 bc 33 b0 6a 3e f2 09 e5 3d
       0.17158748 -0.008240377 0.22918777 0.111835375
000040 5d d7 d5 3d 67 c8 61 3e d2 3e 48 3e 06 3e 26 3d
       0.10441468 0.22049104 0.19555214 0.040586494
000050 94 0b 87 3d 74 67 f9 bc 5d 79 99 bd 62 06 bc bb
       0.06594005 -0.030444838 -0.07493851 -0.0057380656
000060 92 03 1c 3e 1b 95 83 3e 91 67 fa 3d f1 5b 2b 3e
       0.15235737 0.25699696 0.12226785 0.16734292
000070 2d c0 27 3e e9 3a 92 bc 89 bb 2f 3c 38 57 f9 3d
       0.16381903 -0.017850356 0.010725864 0.12174839
000080 fb bc 66 3e 52 79 87 bd 42 83 3d 3e 6f 7b 8f 3d
       0.22533028 -0.06614937 0.18507102 0.07005965
000090 17 09 e0 3d 54 77 f4 3d 06 b9 07 3e 34 56 53 3e
       0.10939234 0.119368225 0.13254175 0.20638353
0000a0 4c 82 07 3d b9 36 d0 3b f8 56 88 3d e6 cf d5 3d
       0.033083245 0.0063541797 0.06657213 0.10440044
0000b0 ed e9 8b 3b 93 86 2e 3e f6 6a 17 3d ac 31 58 3e
       0.0042698295 0.17043523 0.03696724 0.21112698
0000c0 05 48 e2 3d ac b5 8f bd e2 4f e9 3c f7 27 3e 3d
       0.11048893 -0.07017073 0.028480474 0.046424832
0000d0 e3 89 a5 3d 52 44 d1 3d 42 8c 9a 3d 8e bd e0 bc
       0.080829404 0.10218109 0.07546283 -0.027434137
0000e0 29 30 d4 3d 42 c8 e6 bd 99 80 36 bd 4a 60 ff bc
       0.10360748 -0.11268665 -0.044556234 -0.031173844
0000f0 7f df 61 3c 30 47 3d 3e 0c 80 07 be 07 a7 0c 3c
       0.013786196 0.18484187 -0.1323244 0.008584744
000100 01 5a d3 3d 57 7e 54 bc 1a 8f ac 3d bd 09 a1 bd
       0.10319901 -0.012969575 0.08425732 -0.078631856
000110 b4 22 32 3e 09 1f 26 3e 39 13 ac 3d 99 66 06 bd
       0.1739605 0.16222776 0.08402104 -0.03281269
000120 34 73 b0 3d 1d 55 12 3e 8e 2d 04 3e 1c 62 3e 3e
       0.08615723 0.1429028 0.12908003 0.18592113
000130 5d c1 b0 bd e2 f3 38 3e 69 c5 1d 3e b5 f6 2f 3e
       -0.08630631 0.18061784 0.15407337 0.17183955
000140 85 17 04 bc 66 0f 4c 3e 3e 1c af bd b9 15 15 3e
       -0.008062248 0.19927749 -0.08550309 0.14559068
000150 3c 7f 35 3e ee 07 78 bd 32 5c 83 bd b3 c3 19 bd
       0.17724317 -0.060554437 -0.06414069 -0.03754015
000160 e3 39 31 3e 02 b4 15 3e b6 03 c4 bd 3e 60 4b bd
       0.17307238 0.14619449 -0.0957102 -0.04965233
000170 a3 ca 26 3e 22 6b b7 3d ed f3 d0 3c 82 8f 3d 3d
       0.16288237 0.08955981 0.025506938 0.046279438
000180 d6 b6 80 bd c2 d0 7b bd f1 2e 21 3c f1 bb f0 3d
       -0.06284873 -0.061478384 0.009837852 0.11754597
000190 76 61 0d 3e f3 c9 c8 3d 3a 96 98 3c dc 60 81 3d
       0.1380671 0.09804144 0.018626321 0.063173026
0001a0 4f b3 2a 3e 7a d0 06 3e ce 8b 45 bd ae 2c 20 3d
       0.16669963 0.13165465 -0.04822903 0.03910511
0001b0 42 40 4d 3e 19 60 63 3d 2f a4 11 3e 2f 2b 98 3d
       0.20044044 0.055511568 0.14222787 0.074301116
0001c0 40 b4 10 3e 24 0f 39 3c 44 37 16 3e 33 c0 e8 3d
       0.1413126 0.011295114 0.1466952 0.11364784
0001d0 dd e0 16 3d ad 87 01 3e d0 e1 97 3d 33 ff 98 3d
       0.03683554 0.12649412 0.07416117 0.074705504
0001e0 77 12 77 bb 91 45 90 bd b5 15 d3 3d 39 fe 3c 3d
       -0.0037700215 -0.07044519 0.10306875 0.046140883
0001f0 a2 91 25 3e 3c af b6 bc 67 1c b1 3d f7 98 24 3e
       0.16168836 -0.022300355 0.086479954 0.16073976

model.model.6.weight f4 [7, 128]
000000 af d6 0e 3e 62 a8 ca 3c 2e 59 ee 3d 6a f8 71 3e
       0.13949083 0.024738494 0.116381034 0.23629919
000010 6d 85 83 3e fd c9 21 3e ba 73 46 3e 8f 66 19 3e
       0.25687733 0.15799709 0.19380084 0.14980529
000020 20 2e 00 3e 3e 0d fa 3d 41 7f 28 3d 82 d6 61 3d
       0.12517595 0.12209557 0.041136984 0.05513621
000030 66 69 3c 3e 34 49 46 bd 05 b7 70 3e 68 3c 11 3e
       0.18399581 -0.048409656 0.23507316 0.141832
000040 94 65 2f 3e 80 e9 28 3e 61 b2 81 3d d4 f6 e7 3d
       0.17128593 0.16495323 0.06332851 0.113263756
000050 cb 60 3c bd 55 54 22 bd 5d 1e a8 3d 55 87 29 3e
       -0.045990746 -0.039631207 0.08208916 0.16555531
000060 0c e0 2f 3e cd a1 0d 3d 95 3b c5 3d bb e3 61 3e
       0.17175311 0.034578133 0.09630505 0.22059529
000070 38 e5 4d 3e ed ae 2c bc c2 ba 20 3d 3e 33 c0 3d
       0.20106971 -0.010539752 0.039240606 0.09384774
000080 c7 3e 09 3e b8 c2 b8 bc 70 10 4e 3e 37 2c 89 3d
       0.13402854 -0.022553787 0.20123458 0.066978864
000090 67 34 7f 3e cd 6f ac bd 29 11 6e bd 8e 8b 49 3e
       0.24922334 -0.08419762 -0.058121834 0.19682142
0000a0 fe c3 05 bd 61 13 c3 3a 92 66 50 3d 48 d9 9b 3d
       -0.032657616 0.0014883095 0.05087907 0.076098025
0000b0 d6 46 d8 bc 8c c0 1b 3e 99 21 b4 3d e8 6b 4f 3e
       -0.026400965 0.1521017 0.08795471 0.20256007
0000c0 4f fe 3e 3e 27 5c 56 bd 24 bc 11 3e 09 46 5a 3e
       0.18651699 -0.052333977 0.14231926 0.21315779
0000d0 c7 10 94 bd 09 1e 1e 3e 7e 5d 75 3d ed c1 7b 3d
       -0.072297625 0.15441145 0.059903614 0.06146424
0000e0 47 12 2e 3e 62 19 ad bc 00 13 0d 3d a5 37 a5 3d
       0.1699916 -0.021130268 0.034441948 0.08067254
0000f0 f3 36 24 3e f7 7f ba 3d d4 2e c8 bb be dd 9e 3d
       0.16036586 0.091064386 -0.006109098 0.07757138
000100 d4 ec 4c 3e 92 53 28 3d ba 9e 2e 3e b1 70 35 3a
       0.20012218 0.041095324 0.17052737 0.00069213944
000110 06 b8 2e 3e e9 13 43 3d 9a 08 0e 3e 32 d8 60 3d
       0.17062387 0.04762641 0.13870469 0.05489368
000120 5c 0a 57 3e 6c 6a cf bd 5f 0f 9e 3d ce d5 1e 3e
       0.21000046 -0.1012772 0.077177756 0.15511248
000130 59 72 92 bd d3 8b f4 3d 91 fd 1f 3e d5 fb 54 3e
       -0.07150716 0.11940732 0.15624072 0.20799191
000140 b7 84 1e 3a 5d af 6d 3e 7d 47 96 3d 0d 38 08 3e
       0.0006046998 0.23211427 0.07337854 0.13302632
000150 54 26 60 bb 06 c8 a7 bd 36 4d c9 3d 85 1e ac 3d
       -0.0034202533 -0.08192448 0.0982918 0.08404259
000160 8a c1 ec 3d 6b a1 53 3d 3b d1 6d 3d 75 f2 4d 3d
       0.11560352 0.051667612 0.058060866 0.050280053
000170 1e 2f 4c 3e 5f 2b 16 bc e3 ce 6a bc af c8 29 3e
       0.19939849 -0.009165614 -0.014331552 0.16580461
000180 d8 fb 37 bc ef b5 68 3d f0 4d e6 3b 5e cd 6b 3e
       -0.011229478 0.05681413 0.007028334 0.2302756
000190 6d 65 4f 3e a4 a6 23 3e b1 6c 8c 3d b1 46 66 3e
       0.20253535 0.15981537 0.06856669 0.22487904
0001a0 d7 25 5d 3e 06 2b 7a 3e ce 08 b7 bc 09 ab 5b 3e
       0.21596466 0.24430475 -0.022343066 0.21451963
0001b0 43 a0 47 3e 08 e4 fc 3d f7 95 53 3e d5 e0 67 3e
       0.19494729 0.12348181 0.20662676 0.2264436
0001c0 7a 2d db 3d 83 28 3a 3e 6b 2c f7 3d de 3b 5c 3e
       0.10702033 0.18179516 0.12069019 0.21507213
0001d0 9d 08 b0 3d 53 b2 64 3d 51 76 3f 3d 48 db 09 3e
       0.08595393 0.055834126 0.046743695 0.13462555
0001e0 24 03 78 3d 46 13 24 3d be 08 51 3e 1b cf 3a 3e
       0.06054987 0.040057443 0.20413491 0.18243067
0001f0 c6 6b 2a 3e 6f 75 a8 3d da 84 2f 3e 7f 35 4e 3e
       0.16642675 0.08225524 0.17140523 0.20137595
000200 7c 5e 54 3e c0 a5 a4 3d 21 f5 9b 3d c6 0a 44 3e
       0.20739168 0.08039427 0.07615114 0.19144735
000210 df 66 06 3d 00 91 b4 3d e8 23 43 3e 93 cc d6 3d
       0.03281295 0.08816719 0.19056666 0.10488238
000220 c7 88 17 3e 87 0a 5b 3e 56 af d0 3d c5 3a 99 3d
       0.1479827 0.21390735 0.10189693 0.074819125
000230 17 84 3e 3e eb ef 90 bd af 92 24 3e 56 5b 04 3e
       0.18605076 -0.07077011 0.1607158 0.12925467
000240 44 49 02 3e cd 89 8e 3d 53 e3 97 3d c3 ee 27 3e
       0.12723261 0.06959877 0.074164055 0.16399674
000250 d5 5e 53 3c 26 61 31 3d 8e 39 e9 bc 23 3d 45 bb
       0.012901028 0.04330554 -0.028469827 -0.0030096255
000260 67 51 93 3c 06 c9 9e 3d 4f ac 4b 3e 30 99 2c 3e
       0.017983152 0.07753186 0.1988995 0.16855311
000270 b7 39 30 3e 0f 4c 89 3d da 9b 02 3e 25 99 e4 3d
       0.17209516 0.0670396 0.12754765 0.111620225
000280 98 b0 6c 3e 10 fb c3 3c d8 a5 6d 3e 42 bc 58 3d
       0.2311424 0.023923427 0.23207796 0.05291391
000290 dd 4f c2 3c f3 ca 30 3d 2a d4 4d 3b 0c 9b ab 3d
       0.023719722 0.043162297 0.0031406977 0.08379182
0002a0 4b 28 0b bd 40 cf b8 3d d5 29 f6 3d fc e5 b0 3d
       -0.033973973 0.09023905 0.120196976 0.08637616
0002b0 f5 a4 a7 bc 56 53 e9 3d a8 3f b8 3d 00 4d 6a 3d
       -0.0204644 0.11392848 0.089965165 0.05720234
0002c0 49 76 ce 3d b1 bf 1c 3d a2 7c e0 3d 44 e3 8b 3d
       0.10081155 0.03826875 0.10961272 0.06830457
0002d0 3e 05 2d 3e a1 93 06 3e d5 ac a7 3d 2c c6 3c 3d
       0.16896531 0.13142253 0.08187262 0.04608743
0002e0 18 ff bc 3d c1 08 22 bd b9 df 19 3b 35 bf 85 3d
       0.09228343 -0.03955913 0.0023479296 0.065306105
0002f0 09 9a 1a 3d 20 13 35 3e ac 56 14 bc d2 86 d6 3c
       0.037744556 0.17683077 -0.009053867 0.026187334
000300 4d 5e 81 3d 49 9b 0b 3d 39 ae 18 3e 2d 62 19 bc
       0.063168146 0.03408364 0.1491021 -0.009361786
000310 77 7d d7 3d d3 cf 46 3d c5 7b a2 3b 3d 16 9c 3d
       0.105219774 0.04853804 0.004958602 0.07621429
000320 ee 3f 1c 3e 20 79 e8 3d 99 1a 5b 3e 97 28 60 3e
       0.15258762 0.11351228 0.21396865 0.21890484
000330 03 08 b4 3d b1 46 1d 3e 39 48 a1 3d 54 8f 0a 3e
       0.087905906 0.15358998 0.078751035 0.13531238
000340 0e 16 43 bd 6a 96 6b 3e ed 3a a4 3d e9 d9 92 3d
       -0.047628455 0.23006597 0.08019052 0.07170469
000350 df 19 16 3e 91 fe ad 3d 6f b6 21 bd f8 e0 b1 bd
       0.14658307 0.0849582 -0.039480623 -0.086854875
000360 2e f4 25 3e 78 fd 2e 3e 91 af 9d bd a8 b0 90 bd
       0.16206428 0.17088878 -0.07699502 -0.070649445
000370 cb ba 03 3e 15 ec 4c 3e 95 38 71 bd c0 f0 43 3d
       0.12864225 0.20011933 -0.05889185 0.04783702
000380 00 87 14 bc ba 39 41 bd 6a 3d 73 3d 75 29 3c 3e
       -0.00906539 -0.047174193 0.05938474 0.1837519
000390 96 ab 3e 3e f0 a4 5c 3e c6 8e 05 3d c2 2a 3c 3e
       0.18620142 0.21547294 0.032606862 0.18375686
0003a0 5f 89 ec 3d 83 95 70 3e 2a 0a 4c 3d 76 04 30 3e
       0.11549639 0.23494534 0.04981438 0.17189202
0003b0 c6 86 6b 3d a3 8d ca 3d a8 e3 ff 3d 7c cd 19 3d
       0.057501577 0.09890296 0.12494594 0.03754948
0003c0 8d 7a fe 3d d2 94 44 3e 51 ee cf 3d a3 71 02 3e
       0.124257185 0.19197395 0.10152877 0.12738661
0003d0 f3 45 9d 3d 6f 33 db 3c 5a 0b 96 bc 76 4a c9 3d
       0.076793574 0.026757924 -0.01831596 0.098286554
0003e0 a1 d6 5e bc a1 42 36 bd 70 65 e9 3d 7d 30 34 3e
       -0.013600976 -0.044497136 0.11396301 0.17596622
0003f0 02 64 5a 3d 21 22 14 3d c5 d2 d5 3d 37 92 1d 3e
       0.05331803 0.03616536 0.10440592 0.15387808

model.model.6.bias f4 [7]
000000 72 6c b4 3e a7 02 c5 3e 77 e7 c0 3e 6c 25 74 3e
       0.35238987 0.38478586 0.37676594 0.238424
000010 e1 63 d1 3e ca bb a3 3e 7e 6f b4 3e
       0.40896514 0.3197921 0.35241312

model_old.model.0.weight f4 [128, 42]
000000 ff 92 28 bd 79 66 36 bd f8 7b b4 3d 29 94 2d bd
       -0.04115581 -0.04453132 0.08812708 -0.042377625
000010 34 34 2e bd ae 31 ee 3d aa b8 cd bc e1 c3 8b bd
       -0.042530254 0.116305694 -0.025112469 -0.0682447
000020 1d d4 00 3e b9 84 dd bc 71 ff 1e 3e 98 74 c6 bc
       0.12580915 -0.027040826 0.1552713 -0.024225518
000030 cc d6 8f 3d 0e d8 2a 3c d5 1a e2 3d 2e ef db 3d
       0.07023391 0.010427488 0.11040274 0.10738979
000040 f7 c0 89 bc 30 f7 89 bd 01 b8 2c be 26 5c 40 3c
       -0.016815646 -0.067366004 -0.16867067 0.01174072
000050 e7 f4 09 3e 00 10 cb 3d de 55 97 bd 50 24 20 be
       0.13472329 0.09915161 -0.07389425 -0.15638852
000060 a8 96 06 be be 64 a3 3d 37 63 45 be cf af 4b be
       -0.13143408 0.079781994 -0.19276129 -0.19891284
000070 ec 1f 83 bd 83 9c fe bd 3c 14 bf 3d 0a 22 9b bd
       -0.06402573 -0.12432196 0.09330031 -0.07574852
000080 b1 58 a6 3d 83 79 85 bd d1 7a 04 be fb 42 bc 3c
       0.08122385 -0.06517317 -0.12937476 0.022981158
000090 a6 10 07 be 37 71 fb 3c f4 5f a1 3c 09 0e 05 be
       -0.13189945 0.030693633 0.019699074 -0.12993635
0000a0 3c bb e9 bd 75 a7 93 bc 6c 1a a7 3d b6 2d 30 3d
       -0.11412665 -0.018024186 0.081593364 0.043012343
0000b0 28 a3 a4 bd 82 6d 32 3d 2f e9 59 3d 35 b8 fb 3d
       -0.08038932 0.043561466 0.053200897 0.12290994
0000c0 77 b5 55 bd f8 c3 0a be b0 05 a2 bd f0 22 c2 bd
       -0.05217501 -0.13551319 -0.07911241 -0.0947932
0000d0 69 e7 1f be 8c 95 01 3e bb bb 3c bd e8 38 ac 3d
       -0.1561562 0.12654704 -0.04607747 0.084092915
0000e0 c4 12 ad 3d 8e ce 49 bc 53 07 b9 3d 16 33 a0 3c
       0.08450845 -0.012317313 0.090346 0.01955561
0000f0 18 a6 1c be 60 71 bc 3d 4d 16 07 be 69 0a 3f 3d
       -0.15297735 0.09201312 -0.13192101 0.046640787
000100 5b 6c 90 bd 76 db 2d be 51 dd 68 3d 54 81 4c be
       -0.07051917 -0.16978249 0.05685169 -0.1997121
000110 12 55 25 3c 33 23 c1 3d 9e c0 06 bd cf b5 f5 bc
       0.010091083 0.09430542 -0.032898538 -0.02999392
000120 ae 05 8b 3d 03 e4 0b 3d fe ea a5 bd 6a 83 4c be
       0.06788193 0.034152996 -0.08101462 -0.19972005
000130 62 f3 34 be 56 bb 7a bd 07 3a cf bd 55 09 15 be
       -0.17670968 -0.061213814 -0.1011849 -0.14554341
000140 af e6 8e bc 40 ad dd 3d 4d 3e 52 be e8 e3 25 be
       -0.017443983 0.108240604 -0.20531578 -0.1620022
000150 dd 09 b5 3c 46 9f b8 3d ca 4d 73 3d 10 67 c6 bd
       0.02209943 0.09014754 0.059400357 -0.09687626
000160 8f d1 a1 3d 41 da 79 3d 20 ae 8a 3c 79 17 8e 3b
       0.07901298 0.06099916 0.016928732 0.0043362943
000170 8d b2 30 bc cd 03 73 be dc 95 3a 3e 94 9f 3a 3d
       -0.010784757 -0.23731919 0.1822123 0.04556234
000180 07 bb 8e bd c3 3c 80 3d 8f 83 b7 be a9 cb 09 3d
       -0.069692664 0.062615894 -0.3584256 0.03364149
000190 4b 8c ea bd 39 38 d8 3d e3 ef d1 bd 0c 8f 05 3d
       -0.1145254 0.105575986 -0.10250833 0.032607123
0001a0 79 65 a1 3d 41 f7 fa 3b a5 a2 00 3e 6c b2 0e 3d
       0.078806825 0.0076588695 0.12562044 0.034838125
0001b0 1f 19 f8 bd d8 c6 bd bc df fb 09 bd 4e 41 a5 bc
       -0.121141665 -0.023166105 -0.03368747 -0.020172741
0001c0 59 b2 73 bc e2 4a 18 be 2c 32 3b 3e 07 dc df bd
       -0.014874064 -0.14872316 0.18280858 -0.10930639
0001d0 fb 75 af 3d ff 1f 54 be 86 27 29 3d 12 45 bd 3d
       0.08567425 -0.2071533 0.041297458 0.0924169
0001e0 3c fb 2b 3e be 09 dd 3c b3 8e e7 3b 01 3e cc 3d
       0.16795057 0.026982184 0.0070665716 0.09972764
0001f0 66 f8 0e 3d 06 f4 51 bd 3d f8 a7 bc dd 6a 16 bd
       0.03490486 -0.05125811 -0.020504111 -0.036723007
000200 72 1a 09 bc 4e aa f8 3b 90 72 06 bd fb 87 94 ba
       -0.008368121 0.0075886613 -0.0328241 -0.0011332029
000210 42 6c b0 bd 1c b6 26 3e 6c 8d 34 3e 78 e9 46 bd
       -0.086143985 0.16280407 0.17632073 -0.048562497
000220 22 d1 fd bd 75 76 5e bd e2 38 96 3d 2b 82 f1 3b
       -0.123934045 -0.05431219 0.07335068 0.0073702536
000230 7a da 51 3e a3 20 c4 3c 86 e1 6d 3e 9f 73 8b bc
       0.20493498 0.023941344 0.23230562 -0.017022906
000240 10 00 ba bd 51 1c da 3d 83 b9 58 3e f0 04 99 3d
       -0.09082043 0.10649932 0.21164517 0.07471645
000250 6a 13 e0 bd b3 8b 17 3d fd 4c 78 3c a4 40 30 bb
       -0.10941203 0.036998462 0.015155074 -0.0026893998
000260 26 77 e7 3d 98 af 94 bd 4b 47 ce 3d 16 e7 d5 bd
       0.11302023 -0.07260054 0.10072192 -0.10444467
000270 00 2e 19 3e d7 26 1c bc 0b 8e 76 bc 6f 2b 6f bd
       0.14958954 -0.0095307445 -0.015048514 -0.05839103
000280 7d cb bc 3d 4c 75 e2 3d 68 28 11 be 4a 12 86 3d
       0.092185 0.11057529 -0.1417557 0.06546457
000290 ff cc 1c 3e aa 33 ec bd 5b e9 f5 bd f9 68 e1 bc
       0.15312575 -0.11533292 -0.120074 -0.027515875
0002a0 2f fb b1 3d 99 ec c5 3d 5d fd 8a be ea 02 76 bd
       0.086904876 0.09664268 -0.27146426 -0.060061373
0002b0 50 ef 14 bd 9f e1 11 be bf 3b 12 3e 0d cf 40 3d
       -0.03636104 -0.14246224 0.14280604 0.04707246
0002c0 1a 39 4d bd ec e0 1d be 6a f0 1b 3d d7 0c 5c bd
       -0.050103284 -0.15417832 0.038071074 -0.053723183
0002d0 69 60 15 be 02 c0 1b 3e 56 01 08 3e a8 0e ac bd
       -0.14587559 0.15209964 0.1328176 -0.08401233
0002e0 b8 bf 3f bc 99 5f f1 3d 63 e9 a9 3d 39 93 04 3d
       -0.011703424 0.11785812 0.08296468 0.032366965
0002f0 3a d9 a5 bb 70 ed a3 be f8 f0 6d be 05 50 67 bd
       -0.005061296 -0.32017088 -0.23236454 -0.056472797
000300 ad ad 86 bd 32 9c a1 be bc 83 15 be c5 5d 43 bd
       -0.06576095 -0.3156448 -0.14601034 -0.047696847
000310 91 62 c7 bd 13 1d 17 be 7c c1 65 be 28 a1 d9 bc
       -0.09735597 -0.14757185 -0.2243709 -0.026566103
000320 68 43 54 be d4 5d 3c be 72 eb bd 3d f6 3f 29 be
       -0.20728838 -0.18395168 0.09273423 -0.16528305
000330 fb a1 12 be bc f4 4d bd bd 4b 43 be 16 47 cf bd
       -0.14319603 -0.050282225 -0.1907186 -0.101209804
000340 af 08 66 bd 9b 40 c0 bd 94 14 90 be b9 f0 53 be
       -0.056160625 -0.093873225 -0.281407 -0.20697297
000350 d3 1c b4 3d 49 67 f7 3d 90 d5 70 be 36 9d bd 3d
       0.0879456 0.12080247 -0.23518968 0.09258501
000360 bf b4 07 be 67 42 4e be ab 97 27 3d 7a 34 bb bd
       -0.13252543 -0.20142518 0.040916126 -0.091408685
000370 f1 60 be 3d 22 b2 d1 bd fe 30 27 be 80 85 4a 3d
       0.09295834 -0.10239054 -0.16327283 0.04944372
000380 a7 74 bb 3d f3 b6 97 3d 93 b9 f1 3d 63 34 02 3d
       0.09153109 0.07407942 0.118029736 0.03178824
000390 30 c4 8d 3c 6f 07 36 3d b6 4e dc 3d a6 f7 85 be
       0.017305464 0.044440683 0.107572004 -0.26165503
0003a0 40 e3 81 be 2b 16 f0 bb 8b 6e 40 be 5e b9 35 be
       -0.2536869 -0.0073268614 -0.18792169 -0.17746493
0003b0 92 5b c9 bb 77 c7 25 3d a4 ba a7 bc 37 67 13 be
       -0.0061449492 0.040473428 -0.02047474 -0.14394842
0003c0 27 86 2e 3b 1a 2f 9a 3d e6 c5 57 bd 5e fd d8 bd
       0.0026630254 0.07528515 -0.052678965 -0.10595201
0003d0 e6 91 ee 3d a0 99 c7 bd 42 2b 42 be 8e d2 b4 3d
       0.11648922 -0.097460985 -0.18961814 0.088292226
0003e0 90 27 3d be d8 62 6c 3c 6a 60 18 3b e7 4b 85 bd
       -0.18472123 0.014427863 0.0023250827 -0.06508618
0003f0 6b 2e 83 be f3 ff 32 3e c7 e6 55 be 57 15 0a 3e
       -0.25621352 0.1748045 -0.20888816 0.13484703

model_old.model.0.bias f4 [128]
000000 61 15 e3 3d 43 48 4f be 32 9c 2a bd 24 a9 34 bd
       0.11088062 -0.2024241 -0.041652866 -0.044106618
000010 00 e9 ce bc b5 2c c1 3d 69 88 7d 3c 11 fd 12 bd
       -0.025257587 0.09432355 0.015474417 -0.035885874
000020 05 1c da 3d 12 82 3a 3d 48 bc 22 be ee 7d e2 3d
       0.106498756 0.0455342 -0.15892136 0.110591754
000030 f7 66 90 3e e0 04 6c be 68 54 44 3d c1 2a 32 3d
       0.28203556 -0.23048735 0.04793206 0.043497805
000040 16 7d 88 3d 0e 6c 28 3b c1 31 5e bd f4 57 31 3c
       0.06664483 0.0025699171 -0.054246668 0.010824192
000050 02 0f 62 be d9 3e 86 3d 2f 34 2d 3e d9 f6 17 be
       -0.22076038 0.06554956 0.16914438 -0.14840259
000060 a3 46 b5 bd a3 c4 23 bd 1b 01 fc 3c 57 e5 17 be
       -0.088513635 -0.03998245 0.030762246 -0.1483358
000070 96 74 f2 bd 80 24 3a be 8f 75 9e 3c c0 41 50 3d
       -0.11838643 -0.18177986 0.019343166 0.050843954
000080 e9 ad e6 bc 93 43 73 3d b8 1e d0 3d 16 6b 12 3e
       -0.028159099 0.059390616 0.10162109 0.14298663
000090 b5 bd ae bd 8e 8b f0 bc 44 9e 17 be bb 1b ed 3d
       -0.085322775 -0.02936342 -0.14806467 0.11577555
0000a0 00 52 a1 3d dd d3 0e be fc d2 e9 3d 24 5c 67 3d
       0.078769684 -0.13948007 0.11417195 0.056484357
0000b0 e6 f1 8e 3c a8 e3 6e 3d 30 a7 82 3b 83 f6 cd bc
       0.01744933 0.05832258 0.0039872155 -0.02514196
0000c0 52 ff 24 3e f4 55 e8 3c 61 3a 6d bd 9e 9a f9 bd
       0.16113022 0.028361298 -0.057917003 -0.12187694
0000d0 22 88 27 be 83 8e 05 3e 94 8c e0 3d 17 21 b5 3d
       -0.16360524 0.13042645 0.10964313 0.08844202
0000e0 6e 8d 97 bd 1a 4c 0c 3e d5 84 07 bd 47 aa e2 bd
       -0.074000224 0.13700905 -0.033085663 -0.11067634
0000f0 40 06 3a 3e 4c 9d b9 3b 0b 76 2c bd 76 6d f1 3b
       0.18166447 0.005664503 -0.042104762 0.007367785
000100 17 e2 12 be 48 60 1e 3c f2 77 97 bd 2c aa 8a bd
       -0.14344059 0.00966651 -0.07395925 -0.06770739
000110 c0 db 9d bc fb 40 4b bd d5 16 13 be 30 d3 df 3d
       -0.019269824 -0.049622517 -0.14364178 0.10928953
000120 9d 20 2b 3e 36 85 92 bd 79 f6 af 3d 70 d8 84 bb
       0.1671166 -0.07154314 0.08591933 -0.0040541217
000130 b1 37 2b bc 27 86 2b be 0c f9 d9 3d 18 80 78 3e
       -0.01045029 -0.16750394 0.10643205 0.24267614
000140 20 85 09 be 94 31 97 3d 65 18 40 be fe 42 bf bd
       -0.1342969 0.07382503 -0.18759306 -0.093389496
000150 1e 70 28 be 31 83 57 3d 7a 30 11 3e 0b 38 25 bd
       -0.1644902 0.05261535 0.14178649 -0.04033665
000160 ef 65 1a bd f9 8f cc bd b2 7e 36 be 58 76 92 3d
       -0.037694868 -0.09988398 -0.17821768 0.071514785
000170 19 67 30 bd 9c 79 49 3c 19 52 aa 3d 1e ff 45 3d
       -0.04306707 0.01229706 0.0831644 0.048339
000180 2d 06 bd 3d 95 60 06 3e 28 42 b8 3d 18 53 0b be
       0.092296936 0.1312278 0.08996993 -0.13605917
000190 32 7a ff 3d d2 ec 4f 3d 0c f3 e0 3d 5d 57 df bd
       0.12474479 0.05076296 0.109838575 -0.10905335
0001a0 54 a3 39 bc 0b ed e7 3d 5f a0 27 be ac 46 8f 3b
       -0.011330444 0.11324509 -0.1636977 0.0043724384
0001b0 09 32 bd 3d b7 a6 b4 3d f0 70 08 be 3b 4a e2 b9
       0.09238059 0.08820861 -0.13324332 -0.00043161385
0001c0 3c dc c4 3d 3c 5c 25 be f8 50 19 be a2 8a 95 3d
       0.09612319 -0.16148466 -0.14972293 0.07301833
0001d0 f5 bc 25 3d 15 20 47 bc 7d 46 35 3e 50 db 20 3e
       0.040463407 -0.012153645 0.1770267 0.15708661
0001e0 65 02 92 bd 08 2b f6 bd 97 99 2a 3e 16 ed cc 3c
       -0.07129363 -0.12019926 0.16660152 0.025015395
0001f0 9f 33 ef 3d b7 c1 45 3e 23 8c 3d bb 09 5a 86 3b
       0.11679768 0.19312178 -0.002892264 0.0041000885
