project/paper_notebooks/saved_variables/paper_notebooks/8/5-50epoch_20loop/looping-iteration-15/best_policy_agent1.pth (torch, 320501 bytes, 16 tensors)

model.model.0.weight f4 [128, 42]
000000 cc 48 ee bd 75 66 87 bd 6c 3a f9 3d 8b f4 14 bd
       -0.11634979 -0.06611339 0.12169346 -0.036366027
000010 0a 26 0e 3d be 70 ed 3d 6f 1c 9e 3c 46 af f6 bd
       0.034704246 0.115937695 0.019300668 -0.120451495
000020 06 37 94 3d ef 9b 99 bb 3e b5 e9 3d c0 73 ac 3c
       0.072370574 -0.004687778 0.11411522 0.021051288
000030 1f 90 2d bc 3d 00 f9 bc 72 90 96 3c 7b 65 a8 3d
       -0.010593443 -0.030395621 0.018379424 0.08222481
000040 64 93 d2 3b 80 c0 b8 bc 68 fc 11 be f5 2c 76 bd
       0.0064262617 -0.022552729 -0.14256442 -0.060101468
000050 bd 42 9d 3c e8 2d 71 3d cd 8f e3 3d 41 8f b5 bd
       0.019196862 0.05888167 0.11111412 -0.08865214
000060 f3 ed 8b bd 85 a7 02 3e c3 87 f0 bd 5c 5b b3 bd
       -0.068324946 0.12759216 -0.117446445 -0.0875766
000070 09 46 0c bc ae 9a 02 bd 4a 5d 02 3e 4b 2a 0b be
       -0.00856162 -0.031885795 0.127309 -0.13590352
000080 53 26 07 3d 87 9a 1f bd ce fe 11 be f8 4f 43 3d
       0.032995533 -0.038965728 -0.14257357 0.047683686
000090 52 ba 6f bd 46 1c d4 3d 46 82 12 bb ce 06 03 be
       -0.0585273 0.10356955 -0.002235548 -0.12795565
0000a0 33 a7 13 bd 41 3d 30 bd ca b3 d4 3d 6a 40 d2 3c
       -0.036048125 -0.043027166 0.103858545 0.02566548
0000b0 60 b7 73 bd 7f 75 bb 3d 7a 89 bc 3c b1 e9 7e 3d
       -0.059501052 0.0915327 0.023014773 0.062234584
0000c0 5c 87 f5 3c 4e ec 30 be 5f e2 1c be 64 43 e6 bd
       0.029971771 -0.17277643 -0.15320729 -0.112433225
0000d0 b3 f4 cf bd 0e ac 03 3e c9 2b 98 bd 89 83 50 3d
       -0.101540945 0.12858602 -0.07430226 0.05090669
0000e0 75 b1 b7 3d 76 35 1f be 66 54 76 3d 93 0f 50 3d
       0.08969394 -0.15547737 0.060139082 0.050796103
0000f0 83 7c 2d be ed 40 89 3d af 06 be bd 61 dd da 3d
       -0.16942029 0.06701837 -0.092786185 0.10686756
000100 49 e6 40 bd e6 1e a2 bd 54 4c 0f 3e 28 b5 07 be
       -0.047094617 -0.0791605 0.1399396 -0.132527
000110 4a e8 ff 3d c2 0c a2 3d 1a e3 fa 3b 0a 9e 27 3b
       0.124954775 0.079125896 0.007656467 0.0025576376
000120 cc fc e4 3d e9 d7 58 3d 06 e6 94 bd 1d 90 30 be
       0.1118103 0.052940283 -0.07270436 -0.17242475
000130 c6 6b 02 be ee 14 a1 bd f8 80 f3 bd 3a 35 a5 bd
       -0.12736425 -0.0786532 -0.11889833 -0.08066793
000140 75 90 22 3d 42 c1 e5 3d 64 d0 3b be 57 53 fc bd
       0.039688546 0.112185016 -0.18341213 -0.12320583
000150 f8 11 15 bd 9c c1 85 3d 77 a2 d8 bc 3f a9 35 be
       -0.03639409 0.06531069 -0.026444657 -0.17740344
000160 75 7c 23 3e cd 5e 95 3d eb f4 8a bc a2 2c c9 3c
       0.15965445 0.072934724 -0.01696249 0.024557415
000170 3f 93 c3 3c 46 55 41 be b2 ea 82 3d ba 97 c9 3d
       0.023873923 -0.18880185 0.06392421 0.09843393
000180 04 0e d9 bd ae 83 40 3c b5 d2 3a be 8e 2e fd 3d
       -0.105983764 0.011750145 -0.18244441 0.12362395
000190 6e f9 a3 bd 96 36 a7 3c 31 6b e5 bc b3 b9 66 3d
       -0.08006559 0.02041177 -0.028005214 0.05632944
0001a0 6f 90 f7 3b 13 95 91 3d b9 6f fc 3d dd 7b 99 bc
       0.0075550596 0.07108512 0.12325997 -0.01873582
0001b0 31 db 34 bd cb 11 b8 bc 3c 91 02 3e 2c 70 fd bd
       -0.04415435 -0.022469422 0.12750715 -0.12374911
0001c0 88 21 df 3d 25 a1 97 bd 60 aa 2c 3e 82 1c dc bd
       0.108950675 -0.07403783 0.16861868 -0.10747625
0001d0 2d f0 90 3d b9 11 cf bd e0 f2 4f bd 3e 65 df 3d
       0.0707706 -0.10110802 -0.050768733 0.10907982
0001e0 a2 4e 27 3e 2d 62 78 3d 75 b9 6c 3c ef 4d 22 3e
       0.1633859 0.060640503 0.014448513 0.15850042
0001f0 8f 1f b5 3d 84 96 ee bd be 53 d3 bd 7c 90 24 be
       0.0884391 -0.11649802 -0.10318707 -0.16070741
000200 82 5d d4 bd a9 6d 9d 3b f9 8b d1 bd 86 a5 c5 3d
       -0.10369398 0.0048043323 -0.10231776 0.09650712
000210 ac 37 0d be 36 fc 0d 3e d7 7e a2 3d c9 83 fb bd
       -0.13790768 0.13865742 0.07934349 -0.122809954
000220 6d bc 2a be 40 93 07 bd 74 a6 9f 3d d7 57 5b bc
       -0.16673441 -0.033099413 0.0779542 -0.013387642
000230 2c 70 d4 3d 36 5b a7 bb b5 5c a5 3d f3 4e 7a bd
       0.103729576 -0.0051073087 0.08074323 -0.061110448
000240 d9 54 bd bd 79 14 da 3d 2f 5e e8 3d 9b 4b f3 bb
       -0.09244699 0.10648436 0.11346089 -0.0074247844
000250 61 f9 2d be 76 b4 02 3d 6d 40 31 bd 8d 12 b5 3c
       -0.16989662 0.031910382 -0.04327433 0.022103572
000260 73 d4 ab 3d c5 3f 83 bd 29 4e 04 3e 24 c6 54 bd
       0.08390131 -0.064086474 0.1292044 -0.051946774
000270 dc f6 f5 3d 30 d6 78 bd a4 f6 20 3b 16 d6 01 bd
       0.12009975 -0.06075114 0.0024561072 -0.03169831
000280 81 c8 3a 3d 37 5f dc 3d d3 a3 02 be 7f 72 a8 3d
       0.04560137 0.10760348 -0.12757806 0.082249634
000290 1c e9 20 3e 42 8f b1 bd 02 5c 01 be 56 e2 8a bd
       0.15713924 -0.086699024 -0.12632754 -0.067814514
0002a0 03 27 b0 3d 52 63 a4 3d f8 bd df bd 51 f4 98 bd
       0.08601191 0.08026756 -0.109249055 -0.07468475
0002b0 32 9e 50 3c b7 b7 1a bd 58 47 ac 3d f1 1c c6 3d
       0.012733029 -0.03777286 0.08412045 0.09673489
0002c0 59 bd 76 bd 50 7a 93 3c f3 94 6c 3d 37 b2 7b 3a
       -0.06023917 0.01800266 0.057759237 0.0009601446
0002d0 2c aa c0 bd 9b 51 e5 3d 6a 3f ea 3d b9 36 c0 bd
       -0.09407458 0.11197206 0.114378765 -0.093854375
0002e0 c5 cf 85 bc 90 38 bf 3d 57 a1 a5 3d 71 05 f7 3c
       -0.016334424 0.0933696 0.08087414 0.030153962
0002f0 cf 56 0d bd 1f 00 0f be 71 1f 35 be e9 cd c4 3d
       -0.034506615 -0.1396489 -0.17687775 0.09609587
000300 0f 90 83 3d bf 8d 0b be 0f aa 56 bd ac f3 41 3c
       0.06423961 -0.1362829 -0.052408274 0.011837881
000310 a7 41 d7 bc 25 97 0f be 56 f8 0a be 00 c0 b4 3c
       -0.026276423 -0.14022501 -0.13571295 0.022064209
000320 f1 1b 1c be 05 e9 09 be 39 f8 03 3e 5f b0 17 bd
       -0.15245034 -0.13467796 0.12887658 -0.037033435
000330 d0 3b 47 be c7 92 ff 3c ac 8a d2 bd ca 58 3e bd
       -0.1945641 0.031197919 -0.10280356 -0.046471395
000340 7f 29 31 bd c1 68 a6 3c 66 dc 27 be 7b d5 d4 bd
       -0.043252464 0.020313622 -0.16392669 -0.10392281
000350 e4 de 2b 3d 78 b7 f8 3d 04 01 a1 bd 10 a9 f7 3c
       0.041960612 0.12144369 -0.07861522 0.030231982
000360 83 c8 03 be a6 61 57 be ca c0 e5 3d 29 70 e9 bd
       -0.12869458 -0.21033344 0.11218412 -0.11398346
000370 03 89 0e 3d 04 92 02 bb f3 43 53 be b5 32 50 bd
       0.034798633 -0.0019923458 -0.2063139 -0.050829608
000380 3d 63 88 3d 32 c9 57 3d 85 af 3a bb ff 8d 6e bd
       0.06659553 0.05268211 -0.0028485965 -0.058240887
000390 4b c8 e8 3c 5d b3 80 3d a3 68 90 bc b0 b7 2d be
       0.02841582 0.06284211 -0.01762802 -0.16964602
0003a0 2e e6 e1 bd 1f 8f 92 3d 95 3c a7 bd 7e 1d b0 bd
       -0.110302314 0.071562044 -0.08165852 -0.08599375
0003b0 36 bb 0d 3e bd 6e 7e bb 4c d8 b8 3d a2 89 7a bd
       0.13840947 -0.003882333 0.0902563 -0.061166413
0003c0 8b a8 61 3c 7f d9 94 3d 2f 47 2a bd 41 9c 10 bd
       0.013773094 0.072680466 -0.041571792 -0.035305265
0003d0 b2 69 99 3d d3 5a 1c bd 48 a3 ce bd bb 89 fd 3d
       0.07490863 -0.038172554 -0.10089737 0.123797856
0003e0 4c c5 d7 bd 68 57 37 3d 23 90 40 bb e3 b2 73 bd
       -0.10535678 0.04476109 -0.0029382787 -0.05949677
0003f0 28 5d eb bd c6 52 ec 3d f7 61 a9 bd 85 40 3a 3e
       -0.114923775 0.11539225 -0.082706384 0.18188675

model.model.0.bias f4 [128]
000000 4c 46 84 3e 49 dd b4 bd ce 16 0e 3c b9 c9 ba bd
       0.25834882 -0.08831269 0.008672429 -0.09120507
000010 f4 6f 3c 3e 11 0b 4a 3e fd 78 7d 3e dc f1 05 3e
       0.18402082 0.19730784 0.24753185 0.13080543
000020 be a5 97 3e c9 5d 72 3e 55 3c c6 bd aa c6 86 3e
       0.2961864 0.23668589 -0.09679476 0.26323444
000030 ee 0a 9d 3e 66 a5 bf bd 51 45 37 3d 63 22 81 3e
       0.306724 -0.09357719 0.04474384 0.25221547
000040 d2 63 34 3e c3 36 1b 3e 94 cf 20 bd 74 22 88 bd
       0.17616203 0.15157609 -0.039260462 -0.066471964
000050 a7 76 61 bd df 15 15 3e 15 7e 85 3e 96 69 a6 bd
       -0.055044796 0.14559124 0.26072755 -0.08125608
000060 a8 68 9b bd 24 22 8b bc ae c5 3c 3e 04 61 87 bd
       -0.07588321 -0.016984053 0.18434784 -0.06610301
000070 21 ca 05 bd 72 a8 1d be 76 97 28 3e d2 ba 35 3e
       -0.03266347 -0.15396288 0.16464028 0.17747048
000080 ff e0 d0 3d 2e 62 82 3e 3f ce 7f 3e 21 75 7f 3e
       0.101991646 0.2546553 0.2498102 0.24947025
000090 a2 94 bb 3d 0d f3 dd bd a7 5c cd bb 18 11 8a 3e
       0.09159209 -0.10837374 -0.0062671485 0.26966166
0000a0 c8 9d 22 3e de e5 b7 bd 52 92 96 3e 00 9d 3c 3e
       0.15880501 -0.089793906 0.2940851 0.18419266
0000b0 97 a9 4e 3e e1 6e 96 3e d0 17 5e 3e ce 75 06 3e
       0.20181881 0.2938147 0.21688771 0.13130876
0000c0 cd 44 97 3e db 08 8b 3e c0 34 d5 bd ab 2f c0 bc
       0.29544678 0.27155194 -0.10410452 -0.02346023
0000d0 cf 06 8b bd df 7d 89 3e 90 ce 6f 3e f3 98 c4 3e
       -0.06788408 0.26853845 0.23418641 0.3839794
0000e0 60 30 72 bd 67 8b 88 3e ad 21 64 3e 10 17 47 bb
       -0.059128165 0.26668856 0.22278471 -0.0030378737
0000f0 ff bf cd 3e a1 96 41 bd a1 99 66 3e 0d a7 59 bc
       0.40185544 -0.04726279 0.22519542 -0.013284457
000100 3f 05 89 bc cd bb 18 3e f0 54 1a 3e f3 b2 a4 bd
       -0.016726134 0.1491539 0.15071464 -0.08041944
000110 67 9a 67 bc 2e 4f 5d 3d d4 52 52 3d a5 1d 82 3e
       -0.0141359335 0.05403059 0.051348522 0.25413242
000120 3f be 98 3e d4 0e 1c 3d c6 27 8d 3e 26 38 97 3e
       0.29832646 0.03810008 0.27569407 0.29535025
000130 bb 97 b6 3d 85 b3 53 bd 2a da 9b 3e 3e 8c 8b 3e
       0.08915659 -0.051684875 0.30439883 0.27255434
000140 63 3e 25 3e 55 bb 3c 3e 2c e7 da bd b4 b3 96 bd
       0.1613708 0.18430836 -0.10688624 -0.073584944
000150 5c a1 dc bd a9 94 1f 3e dc ab 8b 3e cd 5e 11 3e
       -0.10772964 0.15584053 0.27279556 0.1419632
000160 44 c6 72 bc 27 8e 00 3e ce 24 7c 3d 11 ed 8d 3e
       -0.014817778 0.12554227 0.061558537 0.2771993
000170 ee b2 04 3e 2c 33 51 3e 0b 2a 93 3e 1d 2b 76 3e
       0.12958881 0.20429677 0.28743014 0.24039884
000180 cb ca 4d 3e 28 8b a7 3e 90 2d d9 3d db 0f e7 bd
       0.2009689 0.32723355 0.106043935 -0.11282321
000190 89 88 81 3e 9b 82 6e 3e 1e 8b 73 3e 0a 72 91 bd
       0.2529948 0.2329201 0.23783538 -0.07101829
0001a0 70 ac be bd c8 d8 9d 3e 60 e0 fd bd 32 87 0d 3e
       -0.093102336 0.30829453 -0.12396312 0.13821104
0001b0 34 1d 76 3e 59 23 51 3e 2d d9 8e bd 54 49 f2 3d
       0.24034578 0.2042364 -0.06975017 0.118303925
0001c0 b9 c1 6e 3e ba 82 0f bd 69 ae 41 bc 3e e7 37 3e
       0.23316087 -0.03503678 -0.011821368 0.17959306
0001d0 a9 c1 0d bd 1e f5 8e 3d df ff 33 3e cf 3a 79 3e
       -0.034608517 0.06980346 0.17578076 0.2433884
0001e0 d6 53 fb bc 42 23 3c 3d 7b 9b 8e 3e 33 c7 1d 3e
       -0.030679625 0.045932062 0.27852997 0.1540802
0001f0 f8 5a 8e 3e 98 99 84 3e c8 cc 51 3e 79 ba 56 3e
       0.2780378 0.25898433 0.20488274 0.20969571

model.model.2.weight f4 [128, 128]
000000 e5 20 95 3d 56 ea 77 3b df 87 3f 3c d6 a9 28 bd
       0.07281665 0.0037828884 0.011690109 -0.041177593
000010 13 ce 9b bc 76 9f 35 3b 33 e4 63 3e b5 7f 52 3d
       -0.019019162 0.0027713454 0.2225502 0.051391322
000020 88 c8 28 3d d6 d1 cf 3c 01 fb dc 3d 13 3f a4 3d
       0.041206867 0.025368612 0.10790063 0.08019843
000030 a8 8f e0 3d b3 37 09 bd c6 11 c1 3c 8b e6 d7 3d
       0.109649 -0.033500385 0.023568045 0.105420195
000040 aa 9e ef 3d d0 b1 ae bd 57 b4 9c bd 72 9c 89 3c
       0.11700185 -0.08530009 -0.076515846 0.016798232
000050 73 1e c5 bd a2 46 1b bd ec 1a bf 3d e1 82 a2 bd
       -0.09624948 -0.037909158 0.09331307 -0.079351194
000060 4b b2 d2 3d 04 73 94 bd 9c 59 6f bd f7 39 e6 bc
       0.10287913 -0.072485 -0.058435068 -0.028103812
000070 ce 0a 34 bd b3 d0 15 3d 8f 17 27 bd fc 3d 1b bd
       -0.043955617 0.036575984 -0.04079395 -0.03790091
000080 f8 43 7b bd 67 da 38 bd dd a0 2b bd 34 77 39 bd
       -0.061344117 -0.04513016 -0.041901458 -0.045279697
000090 e0 d5 d0 3d 51 33 8b bc 4d f1 f8 bc 83 f2 42 39
       0.101970434 -0.016992243 -0.030388499 0.00018591624
0000a0 de 76 7e bd c5 60 0c 3e bb b1 4e 3d ed b9 27 3c
       -0.06212508 0.1370879 0.050462466 0.010237199
0000b0 48 da 50 3d 70 ea 92 bb 85 bf 59 bd aa 39 c2 3d
       0.05098942 -0.0044835135 -0.053161163 0.09483655
0000c0 46 65 87 3c 00 62 87 bd b3 ff 4b 3c c7 93 19 bd
       0.016527783 -0.06610489 0.0124511 -0.037494447
0000d0 d7 59 c3 bd 8f eb e0 3c 1d 6e b9 bd a1 cb 7c 3e
       -0.0953862 0.027456073 -0.090542056 0.24687053
0000e0 2e b1 bd 3d 33 e0 87 bd 95 da ab 3c 9f 91 32 3d
       0.0926231 -0.066345595 0.020978251 0.043595906
0000f0 55 6b 7f 3e bd b1 c1 3d 4c 8e 26 3e 09 66 c0 3d
       0.24943288 0.09457729 0.1626522 0.09394462
000100 26 5c 20 bd c5 33 81 bd ca d2 56 3d 2e e3 21 bd
       -0.03915038 -0.063087024 0.052447118 -0.039523296
000110 af 58 61 bc a7 04 5c bc 8a 6f 03 3d 46 2d 18 3e
       -0.013754054 -0.013428844 0.032088794 0.1486102
000120 71 3b 96 bc 5d 13 b5 3c 02 81 a2 3c 5f e2 be 3d
       -0.01833889 0.02210396 0.019836906 0.093205206
000130 55 30 81 bc 9a d0 64 3d 63 9f 30 bc 5b 77 14 3e
       -0.015770117 0.055863 -0.010780188 0.14498655
000140 c0 cd e2 3d 29 b8 a4 3c d7 d3 19 bc fe 22 bc bd
       0.110744 0.020107346 -0.009388885 -0.09186362
000150 6c 80 95 bc 9a d3 a0 3d 3b de 40 3d 1e 6c 40 bd
       -0.018249713 0.0785286 0.047086935 -0.04697811
000160 cf b2 7e bc 12 da 16 bd 17 d0 7e 3b 56 a8 df 3c
       -0.015545561 -0.03682906 0.0038881355 0.027301949
000170 89 49 67 bc 1f c5 b3 bc fb 1d 57 bd d0 1d f7 3d
       -0.014116653 -0.02194458 -0.052518826 0.12066233
000180 81 66 51 3d 56 f8 01 3e 10 e8 1e 3e 92 8d da bc
       0.051123146 0.12692389 0.15518212 -0.026678834
000190 04 18 ee 3d 8c 77 46 bd 51 5e 85 bd a1 6d a4 bd
       0.11625674 -0.048453853 -0.0651213 -0.080287226
0001a0 c7 2c ea 3d 8b af 05 3e e0 01 3e 3c 61 c1 30 3d
       0.11434322 0.13055246 0.011597127 0.04315317
0001b0 3d 15 c9 bc 19 60 bf 3d e7 2e 4e 3c ad c7 99 bd
       -0.02454626 0.09344501 0.012584425 -0.07508788
0001c0 1a 55 c3 3c 25 b4 74 bc 2c 42 93 3d 7d ea 6f 3c
       0.02384429 -0.014935528 0.07190356 0.014643309
0001d0 0c 7b aa 3d 82 0c 34 3d 62 93 ec bc c4 04 d0 3d
       0.083242506 0.04395724 -0.028878871 0.10157159
0001e0 6b 0d bf 3d c6 88 3e bd be 7d 7a 3e 1c ff ac 3d
       0.09328731 -0.046517156 0.2446203 0.08447096
0001f0 4f 28 84 3d 85 52 77 bc 0d 87 71 3d 48 b7 6e 3c
       0.06453001 -0.015095358 0.058966685 0.014570065
000200 ed a7 ea bc 52 9a 8a 3d fc e7 93 bc 7c 06 30 bd
       -0.028644526 0.067677155 -0.018054955 -0.042974934
000210 0f 88 a3 3d 3d f1 c9 3d 63 48 c4 3d b5 37 bf bc
       0.079849355 0.09860466 0.09584119 -0.023341993
000220 99 8f 9a 3d 0f 91 72 3c 30 f8 17 bd 6d 0e f7 3d
       0.0754692 0.0148050925 -0.037101924 0.120632984
000230 3a cf 4e 3d 91 21 a2 bd f3 9a 13 3c 6d 23 e8 3d
       0.050490595 -0.079165585 0.009009111 0.11334882
000240 5e 91 af bc e0 1c c3 3d cb e1 a3 bd e2 19 a6 3d
       -0.021431621 0.09526992 -0.08002051 0.081104055
000250 d4 f9 8a 3d ce c2 c2 3d 81 60 aa 3a eb 9e 7b bd
       0.06785932 0.09509812 0.0012998731 -0.061430853
000260 a9 a5 f4 3d 0b 8d aa 3d 33 e1 be 3d b2 47 86 bd
       0.1194566 0.08327683 0.09320297 -0.065566435
000270 88 8a 12 3d 2a e9 aa bd 27 5f d6 3d b1 65 b7 3d
       0.035776645 -0.08345254 0.104673676 0.08954943
000280 66 5f 11 bd a0 65 12 3d 3d e9 ce 3d 42 1f 02 3d
       -0.03549137 0.03574145 0.101030804 0.03176809
000290 80 55 ee 3d d7 2c 7d bd d4 bb e8 3c 18 f2 47 3d
       0.116374016 -0.06181034 0.028409876 0.048814863
0002a0 d8 b0 0e bd d2 4e a0 3d 63 c0 50 bd aa 15 04 bc
       -0.03483662 0.07827534 -0.050964724 -0.008061806
0002b0 f6 b6 eb bc b8 12 ff 3b af 54 d8 bb 5a ba 3d 3e
       -0.028773766 0.007784214 -0.006601892 0.18528119
0002c0 0e 9d 88 3d 13 89 95 3d 49 7b 61 3d 66 8e 85 3d
       0.06670581 0.073015355 0.055049215 0.06521301
0002d0 d3 a6 5c 3d 21 6c 17 bd df 3d 18 3d 8c db 88 3e
       0.053870033 -0.036968354 0.03716838 0.2673
0002e0 46 fc cd 3d 42 40 f3 bc 9e 84 d6 3d 48 17 4b bd
       0.10057883 -0.029693726 0.104745135 -0.04958275
0002f0 17 5d 41 3e 56 3d 41 bc f2 c9 04 3e f9 c5 d2 bc
       0.18883167 -0.011794409 0.12967661 -0.025729166
000300 6b 43 08 bd de ba 39 bd e7 a0 28 bd 1b a2 6e 3d
       -0.03326742 -0.045344226 -0.041169073 0.058260065
000310 10 93 8d 3d 4b 70 d2 3d 55 53 d4 ba 57 42 b8 3d
       0.069128156 0.102753244 -0.0016199151 0.08997028
000320 b6 b8 aa 3d 6c e8 c1 3d 59 1b 2b bd 94 df b3 3d
       0.08336012 0.09468159 -0.041774128 0.087828785
000330 2e fb 48 bd ac 3d 03 bd 6d 14 9d bc a2 5f 25 3e
       -0.04906767 -0.032041237 -0.019174779 0.16149762
000340 73 ee ab 3d f6 21 2d 3c 77 e6 84 3d 16 4c 55 bd
       0.0839509 0.010567179 0.0648927 -0.052074514
000350 94 11 90 3b be db 35 bd c7 1a 03 3e e5 ea f0 3d
       0.0043966267 -0.044399016 0.12803183 0.117635526
000360 86 1c f4 3d 3d b2 8c bc 7f 13 8f 3d d6 bc d7 3d
       0.11919503 -0.017174834 0.069861405 0.105340645
000370 8d ef 85 bd 4c b3 6b 3d b1 f4 94 bc 9a e9 16 ba
       -0.06539831 0.057544038 -0.018183084 -0.0005756855
000380 49 cf c0 3d 6e 5c 04 3e 21 5e e8 3d 94 86 1f 3c
       0.094145365 0.12925884 0.11346079 0.009736676
000390 c7 09 1c 3e 4f fb 6b 3d 5f 5f f6 3d b2 47 b3 3d
       0.15238105 0.057612713 0.12029909 0.08753909
0003a0 6e 28 08 3d a1 43 c1 3d 78 43 30 3d 59 af 8e bd
       0.03324168 0.09436727 0.043033093 -0.06967039
0003b0 5c dc 03 3e 78 88 e0 3d 3d 2a ae 3d 2d a3 82 bd
       0.12877029 0.10963529 0.0850415 -0.063787796
0003c0 04 18 9b 3c cc dc 49 bd d8 b2 24 3e 8f 7e eb 3d
       0.01893235 -0.049282834 0.16083848 0.114987485
0003d0 51 15 ca 3d 69 66 d7 bc 3e 9c 1b 3e 4d 46 9a 3c
       0.09867347 -0.02629395 0.1519632 0.01883235
0003e0 c9 be cb 3d 81 0c 95 3d 7a 86 ea 3d dc 99 5a 3d
       0.09948499 0.072777756 0.114514306 0.053369388
0003f0 52 f2 a6 3d a7 81 9f 3d 5e 33 18 ba ef 77 4b 3c
       0.08151688 0.07788401 -0.0005805994 0.012418731

model.model.2.bias f4 [128]
000000 36 5a f5 3d ba bb 33 3e 70 c7 15 3e d6 9f 41 3e
       0.11980097 0.17552081 0.1462686 0.18908629
000010 6e 9b 37 3e 69 62 19 3e bd 9f e0 3d 79 91 1c 3d
       0.17930385 0.14978947 0.10967968 0.03822467
000020 f3 52 4d 3e f4 53 45 3e 43 4f a3 3d 56 15 18 3e
       0.20051174 0.19270307 0.07974102 0.14851889
000030 0b 9c 34 3e b8 7a 40 3e 25 eb 19 3e 14 f7 de bc
       0.1763765 0.18796813 0.15031107 -0.027217425
000040 26 e9 3a 3e d9 e9 97 3d a9 e6 95 3d a5 8e 41 3e
       0.18253002 0.0741765 0.073193856 0.18902071
000050 d7 ca 86 3d 4c 71 76 bd 07 a3 2f bd fa 8e 19 3d
       0.065816574 -0.060166642 -0.042880084 0.03748987
000060 27 dd 19 3e 86 83 05 3e e9 b5 4e 3e 57 c7 51 bd
       0.15025769 0.13038453 0.2018658 -0.051215496
000070 00 e2 36 3e 7e 2b 1d 3e fc 76 eb 3d cc f8 d8 3c
       0.1785965 0.15348622 0.11497304 0.026485823
000080 06 5a 0a 3e e9 01 87 3d 5b 5e 5c 3e 23 1c 2d 3e
       0.13510904 0.06592161 0.21520369 0.16905265
000090 d0 a1 4e 3e b4 67 3f 3e ab c9 df bc 8a 54 24 3e
       0.20178914 0.18691903 -0.027317842 0.16047874
0000a0 00 8c 5e 3e 48 25 f4 bc 37 88 60 3e 44 7b 09 3e
       0.21733093 -0.029802933 0.21926962 0.13425928
0000b0 7d f0 39 3e f5 33 a3 3d 35 47 a1 3d e3 4c 71 3e
       0.18158145 0.079688944 0.0787491 0.23564486
0000c0 d7 3f 1c 3e b2 6d d2 3d fc 39 04 3e 5e 84 0b 3e
       0.15258728 0.10274829 0.12912744 0.13624713
0000d0 97 1e 22 3e 87 b5 4c 3e 38 f3 ba bd 4a 75 e0 3d
       0.15831982 0.19991122 -0.091284215 0.10959871
0000e0 b0 1e 51 3e 3a d4 61 3e f6 0a e1 3d 37 bb 16 3e
       0.20421863 0.22053614 0.10988419 0.14719854
0000f0 a8 05 83 bd 97 9f 58 3e 11 c5 63 3d 88 96 e6 3d
       -0.06397563 0.21154629 0.05560786 0.1125918
000100 1f a1 e0 3d c1 06 48 3e a8 72 bf 3d a9 be 93 bd
       0.109682314 0.19533826 0.09348041 -0.072141
000110 f9 d0 41 3e a8 d0 97 3d 69 13 e1 3d cf 06 88 3d
       0.18927373 0.07412845 0.1099003 0.06641924
000120 51 d9 04 3e 16 b9 d3 3c 70 1d 0d 3e 85 97 b5 bd
       0.12973525 0.025845092 0.13780761 -0.08866791
000130 d7 5f 02 3e 62 69 23 3e 67 61 f3 3d 7f af f3 bc
       0.12731872 0.15958169 0.118838124 -0.029746769
000140 11 5f 40 3e 42 a4 56 3e 95 9b fd ba e1 7b 48 bc
       0.18786265 0.20961097 -0.0019348735 -0.012236566
000150 6d 68 9c 3d dc 13 20 3e 66 db 8c bd d8 9c 06 3e
       0.07637105 0.15632576 -0.068777844 0.13145769
000160 a8 8b 26 bd 2f b2 5c 3e 33 d6 35 3e 09 33 1a 3e
       -0.04066053 0.21552347 0.17757492 0.15058531
000170 04 c2 29 3e b6 99 9a 3c a2 f5 dd 3d 7f fd c4 3d
       0.16577917 0.018872123 0.10837866 0.09618663
000180 9d a9 42 3e ab cd 0a 3e ea 09 d0 3d bd 9e a6 3d
       0.19010015 0.13555019 0.10158141 0.08135746
000190 fd 7f 4b 3e e3 a8 47 3e 32 8c 42 3d e1 d0 f7 3d
       0.19873042 0.19498019 0.047496982 0.12100387
0001a0 64 86 97 3d 14 0b f4 bc 97 57 4a 3e c0 ce 38 3e
       0.0739868 -0.029790439 0.19759975 0.18047619
0001b0 6d 15 d3 3d f5 c8 25 3e c5 be 5f 3d 1b d4 aa bd
       0.10306821 0.1618994 0.05462529 -0.08341237
0001c0 87 33 b0 3d 65 f6 a3 3d 6b be b8 3d 0a 7c 14 3e
       0.08603578 0.080059804 0.09020694 0.14500442
0001d0 d5 37 b6 3d 9f 51 08 3e 18 5b 03 bd a5 87 92 3d
       0.08897368 0.13312386 -0.032069296 0.071547784
0001e0 fd 0c ef 3d 48 91 07 bc a5 e1 0d 3c 00 ca db 3d
       0.11672399 -0.008274384 0.008659755 0.10731888
0001f0 73 02 37 3e 1d db 9e bd 40 0e 8c 3d 1b 74 0b 3e
       0.17872028 -0.07756636 0.068386555 0.1361851

model.model.4.weight f4 [128, 128]
000000 ba 06 9b 3c b2 15 3c bb f0 4e 45 bc bd 28 8f bd
       0.018924106 -0.0028699455 -0.012042746 -0.06990192
000010 a1 f8 20 bc 79 e1 80 bd 9b bc 13 3d 22 69 65 3d
       -0.009824903 -0.062930055 0.03606854 0.056008466
000020 06 7d fa 3b fa b2 05 3d 6f a5 34 bd f5 ac 11 bd
       0.0076442985 0.03264139 -0.044103082 -0.035565335
000030 37 e3 fc 3c 11 d5 82 3d 85 66 36 3d c2 9f 88 3d
       0.030870063 0.063882954 0.044531364 0.066710964
000040 c7 34 36 3d 99 36 19 bd 3f 12 3f bd f5 38 86 38
       0.044483926 -0.037405584 -0.04664826 6.400227e-05
000050 5c 50 83 3c 4e 1a 52 3d b3 41 5c 3d 62 de 33 bd
       0.01602953 0.051294617 0.053773593 -0.043913253
000060 72 09 55 bd a8 71 b7 bd bf 54 0d 3d 2e c2 17 3d
       -0.05201096 -0.08957225 0.03450465 0.03705042
000070 61 0d b5 bd 9a 0f 8d 3d 78 5b cb 3c 64 28 98 3d
       -0.088404424 0.068877414 0.02482389 0.07429579
000080 ef 0a 67 3c 04 d7 97 3d 30 31 8f bc d7 6a 91 3c
       0.014101728 0.07414058 -0.01747951 0.01775114
000090 28 31 c1 3c 23 20 f0 ba d0 8e 82 bc cb ff 52 3d
       0.02358301 -0.0018320124 -0.015937239 0.051513474
0000a0 e6 19 4b bc 00 40 64 37 3a fd 96 bd f6 18 83 bd
       -0.012396311 1.360476e-05 -0.07372518 -0.06401245
0000b0 23 da f7 3b 11 8f 9e bc 12 fe a4 3d be cb b7 bd
       0.0075638457 -0.019355329 0.080562726 -0.089744076
0000c0 cc dd 89 3c ba 43 a1 bd ee 2a 40 bc e4 b9 9c 3d
       0.016829394 -0.07874246 -0.011728985 0.07652643
0000d0 d8 50 78 3d 95 94 2b 3d eb 83 5f bd 1b 93 a9 3d
       0.060623974 0.041889746 -0.054569166 0.08280011
0000e0 11 83 66 bb fc 03 8b bc 0e 51 bd bd 4e e8 fe bb
       -0.0035173337 -0.016969673 -0.092439756 -0.0077791577
0000f0 3d b2 82 bd b2 17 06 3d 72 d0 36 3d e0 8a 8f 3d
       -0.063816525 0.03273744 0.044632383 0.0700891
000100 e3 e5 9a 3c 84 05 02 bd 8e 1e 6d 3d 86 7a 70 3b
       0.018908447 -0.03174354 0.057890467 0.0036694123
000110 a9 b4 df 3b c0 68 0e 3d 56 71 88 ba cf 15 46 3d
       0.0068269563 0.034767866 -0.0010409753 0.048360642
000120 52 4d 7a 3d 83 f8 a2 3d 5a 09 c8 3c 84 4b 67 bb
       0.061108895 0.07957556 0.024418522 -0.0035292814
000130 09 6e be bd 9b a1 aa bd b6 2a 64 3a 5b fa ad bc
       -0.09298331 -0.08331605 0.0008703874 -0.021237543
000140 38 5a c8 38 88 57 a0 3d 5c 75 91 3d aa 71 fe ba
       9.553548e-05 0.07829195 0.07102463 -0.0019412537
000150 7e 5a bb bd 76 d9 86 3d 3b e9 8d 3d c7 a5 9e 3d
       -0.091481194 0.06584446 0.06929251 0.07746463
000160 38 cb c7 3c 1f 48 68 3d 6f 97 93 3b 29 ba 8a bd
       0.024388894 0.056709405 0.0045041363 -0.067737885
000170 76 97 f9 3b 68 24 9c 3d 28 70 b6 3b eb 57 9c 3b
       0.0076169325 0.076241314 0.0055675693 0.004771223
000180 94 f7 96 3a 50 bc 6e 3d 7b 3f 7f bd a3 07 b9 3b
       0.0011517876 0.058285058 -0.0623164 0.0056466623
000190 31 8b cb 3b 76 99 71 3d b2 bb be bd 62 4a 02 bd
       0.0062116613 0.058984242 -0.09313144 -0.03180922
0001a0 ac ac b4 bd ae 86 72 bc 53 1c 55 3d 2d a4 4b bd
       -0.08821997 -0.014802618 0.052028965 -0.049717117
0001b0 39 cb 83 bc 2b b6 bf bd 3a 07 a6 3d 77 53 54 bd
       -0.016088115 -0.09360918 0.08106847 -0.05183741
0001c0 59 aa c9 bc 5f a5 89 bd 75 83 6f 3c e8 41 84 bd
       -0.02461736 -0.06720995 0.014618744 -0.06457883
0001d0 be 14 2c bd 86 8d 2e bd 28 81 49 3d c4 c5 a3 bd
       -0.04201197 -0.042615436 0.04919544 -0.07996705
0001e0 5a 2e 5a bd 78 eb 7e bc cf 50 c3 3c 3d 30 93 3d
       -0.05326686 -0.01555907 0.023842243 0.07186935
0001f0 63 ea d8 3b 95 da 54 3c 84 c7 9e 3d 9d ac 38 3d
       0.006619738 0.012991567 0.07752898 0.04508649
000200 36 4d ac bd 00 cb 0c 3d 99 05 71 bd f9 77 6f 3d
       -0.08413164 0.034373283 -0.05884323 0.058464024
000210 74 11 84 bd 39 3c c1 3c c6 12 9e 3c ba 7b 13 3d
       -0.064486414 0.023588287 0.019296061 0.036006667
000220 69 e7 85 3d f3 72 fb bc 8d 9a f5 39 68 60 26 3c
       0.065382786 -0.03069446 0.0004684519 0.010154821
000230 17 4d af 3d 5f aa e5 3c 9e 10 f8 bc 60 c6 ff bb
       0.085596256 0.02803534 -0.030281361 -0.0078056306
000240 a7 f9 48 bd e0 80 7c bb 12 6c 7e 3d 4b b9 3c bd
       -0.049066212 -0.0038528964 0.062114783 -0.046075147
000250 80 0e 21 ba 3a 6c 6c bd fd e2 9d 3d 00 c0 21 3b
       -0.0006143823 -0.0577204 0.0770931 0.0024681091
000260 36 60 2f bd 4b 5d 6a 3c f9 b6 a6 3d 0a d5 75 3d
       -0.042816363 0.014304469 0.08140368 0.060017623
000270 9b 59 83 bd 51 61 27 3d 3c 2b 88 bc cd dd 70 bd
       -0.06413575 0.040864293 -0.016622178 -0.058805276
000280 94 ac ec bb f4 72 07 bc 2e 6c 22 bd 05 9f 1b 3d
       -0.0072227214 -0.008267153 -0.03965395 0.03799345
000290 b9 47 28 bd da 59 99 3d 40 6c 37 bb df 88 98 bd
       -0.041084025 0.07487841 -0.0027988106 -0.07447981
0002a0 c8 12 18 ba 28 a6 d2 3c 4e e9 b3 bd 69 d4 88 bd
       -0.00058011385 0.025713995 -0.08784734 -0.06681139
0002b0 7b 10 b3 3c 0b 0b 9d 3c 9a 5b 67 3d 6d 65 49 3d
       0.021858444 0.019170305 0.056483842 0.049168993
0002c0 d1 1d 95 3d f8 68 12 bd b0 3c 42 3d 39 d1 f3 3c
       0.07281078 -0.035744637 0.047421157 0.029762851
0002d0 55 60 24 bd 50 7b 81 3d 74 0e 90 3c 50 ac 71 bc
       -0.040130932 0.06322348 0.017585017 -0.014750555
0002e0 dd 7c 92 3d ab 21 d9 bc 61 92 3a 3d a5 b0 11 bd
       0.07152722 -0.026505312 0.045549754 -0.035568852
0002f0 b2 7d 8e bd b0 78 8b 3c 4d 16 b3 3d a6 c6 9c 3d
       -0.06957568 0.017025322 0.08744488 0.07655077
000300 5d e4 72 bc 50 9e 90 3d 17 c2 df bc 8e 69 3c 3d
       -0.014824954 0.07061446 -0.027314229 0.045999102
000310 45 ea 9e bd b9 29 4c 3d 28 ca 63 3d ec 67 a9 bc
       -0.07759527 0.049844477 0.055612713 -0.020679437
000320 b9 f1 a0 bd 44 cc 8e bd 9b d0 29 bd 6a 6a 66 bd
       -0.07858605 -0.06972554 -0.041458707 -0.056253828
000330 a9 bb ee 3c dd 33 a3 bd a4 96 ac 3d ab 3f 8f 3d
       0.029142218 -0.079688765 0.0842717 0.069945656
000340 27 84 89 3d 1f f3 82 bd 70 b5 55 bc ca 70 58 3d
       0.06714659 -0.06394028 -0.013043746 0.05284194
000350 66 9d 97 bd 89 8e 26 3d 5e 16 6e 3d cb 6b 19 bd
       -0.07403068 0.040663276 0.0581268 -0.037456315
000360 68 4e a7 bc 0e 05 8e bd ac 31 a4 bd c7 5a 91 bd
       -0.02042313 -0.06934558 -0.08017287 -0.070973925
000370 02 f0 b6 3c 01 a0 55 bd 79 1f 07 bd c8 49 b6 bc
       0.022331242 -0.052154545 -0.032989 -0.022251979
000380 7d c2 8d bb 6c 48 18 bd 83 8d 56 bd 06 f3 30 3d
       -0.0043261633 -0.037178442 -0.05238105 0.043200515
000390 cc 98 a1 bd 10 32 16 3d 4b bb 3e bd 04 f3 cc bc
       -0.07890472 0.036668837 -0.046565335 -0.025018223
0003a0 32 06 90 3d eb 34 9d 3d 38 7c eb 3c 59 48 af 3b
       0.07032432 0.07676109 0.028745756 0.0053492007
0003b0 3c a0 17 bd 12 87 f8 bc ab 59 40 3c dd 6f 9b 3d
       -0.037018046 -0.030337844 0.0117401285 0.075896956
0003c0 77 6a 13 3d 45 c9 b0 bd ea 40 00 3d 0c 40 4f bd
       0.035990205 -0.08632139 0.031311907 -0.05059819
0003d0 d9 b9 ca 3c 1b 9b 19 bd 0a f7 60 bd d2 03 5d bc
       0.024746822 -0.037501436 -0.054923095 -0.01348968
0003e0 fc 35 5b bd 9a 62 5b 3d 28 4f 74 bc 01 b6 93 bd
       -0.05351828 0.05356083 -0.01491145 -0.07212449
0003f0 80 23 76 bb e9 5c 5a bd 39 30 01 3d 36 7a 99 bc
       -0.003755778 -0.053311262 0.03154013 -0.018735033

model.model.4.bias f4 [128]
000000 71 46 58 3c 87 cc 05 3b 38 01 45 3e bf 6b 36 3d
       0.013200388 0.0020416097 0.19238746 0.04453635
000010 0e df 15 bc 44 19 69 3c cb 8f 55 3e 74 53 15 3e
       -0.009147419 0.014227215 0.20855634 0.14582616
000020 de ce 73 3d 3e 0d 23 3d 66 79 bb 3d 00 4f de 3c
       0.059523456 0.03980755 0.09154014 0.02713728
000030 ae 4f 1d 3e 4b 7f fc bb 29 b4 a4 3d 6a 9a 01 3d
       0.15362427 -0.007705604 0.08042175 0.0316414
000040 03 3b 39 3c 35 35 25 3e 96 b7 98 3d 44 4d 4e 3d
       0.011305573 0.16133578 0.07456891 0.050366655
000050 a4 00 d2 bc 2e 32 07 3e 5f 3d 96 bd 98 44 2c bb
       -0.025635071 0.13202736 -0.07335924 -0.0026286002
000060 85 dd 7b 3d 85 07 f9 3d ae 18 e6 3d 11 77 22 3e
       0.061490554 0.12159637 0.11235176 0.15865733
000070 17 23 26 3e 79 a8 dd 3c 00 5a 68 bd 44 09 f9 3d
       0.16224323 0.027057873 -0.056726456 0.121599704
000080 26 5a 56 3e 0e f8 80 bd 62 18 c8 3c be 86 cd 3d
       0.20932826 -0.06297313 0.02442569 0.10035466
000090 28 93 cf bb 27 c0 af 3c 17 ef 52 3c 03 74 50 3e
       -0.006334681 0.02145393 0.012874386 0.20356755
0000a0 bb 60 70 3d 1b c3 f2 3d b9 4a 44 3d 60 6a 8f bd
       0.058686 0.1185362 0.047922824 -0.07002711
0000b0 62 e9 72 3c 60 95 40 3e 6e db 1e 3c 4f 8d 21 3e
       0.014826151 0.18806982 0.009695871 0.15776561
0000c0 f5 a1 70 bc 10 4d 70 bd 1a 6f 07 bd 22 af 8f 3c
       -0.014687051 -0.058667243 -0.03306494 0.017539565
0000d0 72 8d 03 3b 06 54 e9 3d 73 40 5d 3d 18 55 57 bd
       0.0020073322 0.11392979 0.05401654 -0.052571386
0000e0 80 86 37 3a e1 63 8b bd b8 a0 36 bd 4a 60 ff bc
       0.0007000938 -0.0680616 -0.044586867 -0.031173844
0000f0 e3 cb a6 bd 3c 84 37 3e 88 c1 73 bc 9f ef 32 3d
       -0.08144357 0.17921537 -0.014877684 0.04368555
000100 54 10 8b 3c 13 fc 0a bc 76 14 b3 bc 6c 79 39 bd
       0.01697556 -0.008482951 -0.021860342 -0.045281813
000110 ce 0c 33 3e 66 05 05 3d 76 4e ce 3d 97 a6 fd bc
       0.17485353 0.03247585 0.10073559 -0.030963225
000120 34 0c f6 3d ad ee 8a bb b3 61 dc 3d d8 67 6b 3e
       0.12014046 -0.004239878 0.10760822 0.22988832
000130 7e 4a aa bd 8d 9e 51 3d e2 e4 01 3e a2 43 9f 3d
       -0.083149895 0.051176596 0.12684968 0.07776572
000140 9d 10 96 3d dc 16 6c 3e 3e 1c af bd 86 d9 41 3c
       0.073273875 0.23055595 -0.08550309 0.011831647
000150 05 9c 21 3e 8c a9 7f bd 60 f7 ac bd 6e 64 05 bd
       0.15782173 -0.062417552 -0.084456205 -0.03256648
000160 80 15 8f 3d ff 48 d2 3d 67 37 a4 bd d9 f3 7c 3c
       0.06986523 0.10267829 -0.0801838 0.015438997
000170 98 89 2f 3e c8 34 d0 bc 77 64 5e 3d af f9 78 3b
       0.17142332 -0.025415793 0.05429503 0.003799062
000180 d9 99 25 bd 87 09 49 bd 84 5a 8b 3c 67 f8 fd 3d
       -0.040429924 -0.04908135 0.017010935 0.124008946
000190 93 78 37 3e be ce 12 3e 7e a5 d9 3c ed b3 92 3d
       0.17917089 0.14336678 0.02656817 0.07163224
0001a0 c7 20 12 3e 19 91 af 3c 68 90 a4 bc 4f c6 92 3d
       0.14270316 0.021431493 -0.02008839 0.071667306
0001b0 58 d2 2c 3e 57 58 70 bd 3b 2d 16 3e 41 7c b5 bd
       0.16877115 -0.058677997 0.14665692 -0.0886159
0001c0 12 06 0f 3e 98 c4 56 bd b8 d5 06 3e a9 31 77 3c
       0.1396716 -0.05243358 0.13167465 0.0150875235
0001d0 0a 80 3b 3d 02 fc c4 3d c2 d2 84 3d aa 77 13 3e
       0.045776404 0.09618379 0.06485511 0.14401117
0001e0 af 0e 13 bc 30 c6 7f bd 3b 70 18 bd a7 bf c2 3d
       -0.008975669 -0.062444866 -0.037216406 0.09509211
0001f0 69 65 c5 3d 70 66 98 bb c4 27 7d 3d af b9 4d 3d
       0.09638483 -0.0046508834 0.0618055 0.05022591

model.model.6.weight f4 [7, 128]
000000 fa 7c de bc 1f 92 43 bd 8e 6a b4 3d 16 ec 80 3d
       -0.027159203 -0.047746774 0.08809386 0.0629503
000010 45 dd 9b 3d 07 de b9 3d 22 84 be 3d 72 e5 68 3d
       0.07610563 0.090755515 0.09302546 0.05685944
000020 01 ec de bc 10 69 37 bd d6 c0 2f bd d6 f1 c8 bc
       -0.027212145 -0.04477793 -0.042908512 -0.024529379
000030 13 ee a1 3d f0 6b 85 bd 3f 35 a7 3d 3f 54 2d 3c
       0.07906737 -0.06514728 0.08164453 0.010579168
000040 21 20 73 3c 8e 01 77 3d c9 07 10 bd d4 d8 00 3d
       0.014839203 0.060304217 -0.035163675 0.031456783
000050 96 d9 85 bd 55 08 31 bc 5d 1e a8 3d 24 4b ce 3d
       -0.06535642 -0.010805209 0.08208916 0.10072926
000060 eb 6b 93 3d 7d ab 0d bd b8 b3 95 3c 06 42 f4 3d
       0.07198318 -0.034587372 0.018274173 0.119266555
000070 5b ab e6 3d a9 10 0c b9 24 5b 92 bd d1 a2 34 3d
       0.11263152 -0.00013357647 -0.0714629 0.044100586
000080 12 bd 07 3d b8 c2 b8 bc 4e df b5 3c ec a6 67 3d
       0.033139296 -0.022553787 0.022201207 0.056555673
000090 cd 5c 3c 3d 41 be 97 bd 97 0e 97 bd ad 69 c3 3d
       0.04598694 -0.07409335 -0.0737583 0.095416404
0000a0 5a 36 28 bd b3 ad 85 3d 75 99 af bc bd 76 8a bd
       -0.04106746 0.06527271 -0.021435479 -0.06760929
0000b0 6e 3e c5 bc a2 1b 7f 3d 8f d9 28 bc 09 b2 a6 3d
       -0.02407762 0.062282212 -0.010305776 0.08139426
0000c0 1a 30 4d 3d e2 2a 5c bd 52 55 7e 3c 69 2f f6 3d
       0.0500947 -0.053751834 0.015523272 0.120207615
0000d0 b8 2c 2a bc 4e 69 96 3d 4b da 5d bc a6 c4 77 3d
       -0.010386638 0.07344304 -0.013540815 0.060490273
0000e0 98 3f cb 3c 80 bf 90 3a 00 13 0d 3d a5 37 a5 3d
       0.024810597 0.00110434 0.034441948 0.08067254
0000f0 c1 83 90 3d 68 d2 55 3c 74 28 bb bc f6 e0 3c bd
       0.0705638 0.013050653 -0.022846438 -0.046112977
000100 70 5b b4 3c e3 e5 2c 3d 69 ed a4 3c 32 08 9e 3b
       0.022016257 0.042211425 0.020132737 0.0048227543
000110 dd 85 8a 3d 7e ac 75 bd ad 66 e9 3d 8b d7 4e 3d
       0.06763814 -0.059978954 0.11396537 0.050498527
000120 44 3f ee 3d b4 ae 80 bd 02 7a 0c bd 9f b9 76 3d
       0.11633161 -0.06283322 -0.034296043 0.060235616
000130 59 72 92 bd ba e9 28 bd df a8 5c 3d d4 2b 16 3d
       -0.07150716 -0.041238524 0.053871986 0.03666289
000140 e8 15 80 3d 04 fe 0a 3e 7d 47 96 3d 05 ad 85 bc
       0.06254178 0.13573462 0.07337854 -0.016317854
000150 af ad a0 bc 7b 06 a4 bd 50 58 f1 3c 23 60 af 3d
       -0.019614069 -0.080090486 0.029461056 0.085632585
000160 6f 6c 86 bd 09 4c 07 bd 14 0a 0d 3d 1a 99 6d 3d
       -0.06563651 -0.033031497 0.03443344 0.058007337
000170 77 77 ee 3d fa 6e 91 bd 33 d7 9c bc 3f 6d 99 3d
       0.1164388 -0.07101245 -0.019145584 0.0749154
000180 78 3d 41 bc 2c 14 77 3d f0 4d e6 3b 7e ec 01 3e
       -0.01179444 0.06032197 0.007028334 0.12687871
000190 65 99 e6 3d 06 c6 86 3d b1 6c 8c 3d 28 0f 06 3e
       0.112597264 0.06580739 0.06856669 0.13091719
0001a0 4b 6d ff 3d f2 e0 8e 3d 18 16 db bc 25 0d 02 3e
       0.12472018 0.06976499 -0.026743934 0.12700327
0001b0 a4 4e e3 3d 43 70 83 bc 08 7b c0 3d f5 1c 97 3d
       0.11098984 -0.016044741 0.09398466 0.0737857
0001c0 7e 52 cf 3c 24 87 4d 3d 52 8b 55 3d 48 4f 9c 3d
       0.02530789 0.05017771 0.05213482 0.07632309
0001d0 92 39 1c 3d 79 7f 5d 3b d1 d9 dd bb f4 28 6f 3d
       0.03814084 0.0033797903 -0.0067703505 0.058388665
0001e0 f0 0d 31 3d 46 13 24 3d 11 13 95 3d f8 32 b1 3d
       0.043226182 0.040057443 0.07279027 0.086523
0001f0 3f 82 86 3d 6f 75 a8 3d c3 b9 b5 3d 0f e6 5b 3d
       0.06567811 0.08225524 0.08873322 0.053686198
000200 25 9e 9a 3d a8 25 8f bc fc 7c 86 3d 49 c4 7a 3d
       0.07549695 -0.01747401 0.06566808 0.06122235
000210 fc 12 02 bd 43 24 a4 3c 67 41 d8 3d 44 ef 42 3d
       -0.031756386 0.020036822 0.105593495 0.047591463
000220 4c a7 44 3d 9e e7 84 3d 8d dd 1e bb b2 be 16 bb
       0.04801111 0.0648949 -0.0024240941 -0.0023001847
000230 ee c1 e8 3d 3b f4 9f bd d6 04 94 bd f6 24 0f bd
       0.11365114 -0.07810255 -0.07227485 -0.034947358
000240 fd ed 05 bd 56 30 a4 bc 1a 15 c7 bc f7 e5 b6 3d
       -0.032697666 -0.02004258 -0.024302054 0.08930581
000250 eb b1 54 bd c1 cf d9 3d 8e 39 e9 bc 3c eb 42 bc
       -0.05192749 0.10635329 -0.028469827 -0.011896905
000260 25 21 3e bd 42 39 13 bd 57 75 0a 3e 24 88 c2 3d
       -0.046418328 -0.035943277 0.13521324 0.09498623
000270 83 f4 c2 3d 56 83 8d 3d 2a 5d 66 3d a9 00 f3 3c
       0.09519293 0.06909816 0.056241192 0.0296634
000280 62 ed 10 3e 10 fb c3 3c 81 74 a7 3d 69 c0 fb 3c
       0.14153054 0.023923427 0.08176518 0.030731397
000290 48 36 93 bd aa 06 f2 bc 57 a9 a0 bd 0b 00 2c bb
       -0.07188088 -0.029544193 -0.07844799 -0.0026245143
0002a0 b9 a9 94 bc 89 af c9 3d 58 e5 19 3d 9a c2 82 bd
       -0.018147336 0.09847934 0.037572235 -0.063847736
0002b0 74 e3 b3 bc af da 2c 3d f8 d7 c3 3c eb bd ca bc
       -0.021959044 0.04220074 0.023906693 -0.024748763
0002c0 bc f2 ad bc 5c aa f7 3c 64 6b e6 3c 23 f4 42 3b
       -0.021233909 0.0302326 0.02812738 0.0029747568
0002d0 72 09 a2 3d 2e 9d 84 3d 5d 61 5a 3c bc 33 8b 3c
       0.07911958 0.06475292 0.013328877 0.016992442
0002e0 70 5d f5 bb 40 9f 92 bd c0 29 f2 3b 35 bf 85 3d
       -0.0074879453 -0.07159281 0.007390231 0.065306105
0002f0 d0 4f 86 bc 51 98 ba 3d 90 58 e7 3b f5 fb 42 3b
       -0.01639548 0.09111083 0.007060118 0.002975223
000300 a5 49 b4 bd 90 82 0a 3d 40 d2 85 ba ac 65 a8 bc
       -0.08803109 0.03381592 -0.0010209754 -0.020556293
000310 e8 15 49 3d 40 88 b6 bc d3 48 9d 3c cf 93 92 3d
       0.049093157 -0.022281766 0.019199764 0.071570985
000320 df 5e 96 3d 74 b3 a0 bc 4e 38 0f 3e 86 42 0f 3e
       0.07342314 -0.01961682 0.13986322 0.1399022
000330 03 08 b4 3d 64 8e 33 3c b5 9e d0 3a 00 87 01 bd
       0.087905906 0.010959242 0.0015916439 -0.031622887
000340 ab 2e 1e 3c b0 c2 14 3e ed 3a a4 3d 0f 47 a2 bd
       0.009654681 0.14527392 0.08019052 -0.079237096
000350 f5 1d 3a 3d 91 fe ad 3d 00 89 1d 3b f8 e0 b1 bd
       0.045438726 0.0849582 0.0024037957 -0.086854875
000360 13 c6 12 3c 27 8e a6 3d c1 e1 48 bd 40 7d 89 bd
       0.008958357 0.08132582 -0.04904342 -0.06713343
000370 45 00 3c 3d a1 fb 9c 3d 95 8e 50 bd b1 a3 c6 bc
       0.045898695 0.07665182 -0.050917227 -0.024247976
000380 00 87 14 bc 3a 7f 93 bd 6a 3d 73 3d 2e 5c d8 3d
       -0.00906539 -0.07202001 0.05938474 0.10564457
000390 e6 92 de 3d 1d 4f 15 3e f2 13 28 3d 63 d6 f1 3d
       0.108678624 0.1458096 0.041034646 0.11808469
0003a0 4a ec f2 3c 2e d5 8c 3d 2a 0a 4c 3d f1 c3 d3 3d
       0.029653687 0.06876598 0.04981438 0.10340107
0003b0 cc 46 b9 bc 68 39 10 bd 46 c2 69 3d c5 98 ad bd
       -0.022616766 -0.035210997 0.05707004 -0.08476404
0003c0 76 c6 48 3d 26 ef 8d 3d 5f 74 bf 3c 38 7d 02 3c
       0.049017392 0.069303796 0.02337092 0.007964425
0003d0 c6 1f a1 3c bb 52 03 bd d4 be 52 bc dd b1 a0 3d
       0.019668471 -0.03206132 -0.01286288 0.07846425
0003e0 2c 13 59 bc a1 42 36 bd 30 48 83 bc e0 66 e4 3d
       -0.0132492 -0.044497136 -0.016025633 0.11152434
0003f0 a5 14 fb bc e6 23 21 3d 92 7c 19 3d e6 9e 6b 3d
       -0.030649493 0.039340876 0.037472315 0.057524584

model.model.6.bias f4 [7]
000000 5b 9a ec 3d f7 92 83 3e d0 8e 17 3e 0c 34 0d 3d
       0.115528785 0.25698063 0.14800572 0.034473464
000010 60 40 f7 3d 50 bb 9f 3d 74 fc ca 3d
       0.120728254 0.07799399 0.09911433

model_old.model.0.weight f4 [128, 42]
000000 72 01 ee bd 61 3b 87 bd ba 79 f9 3d 6f 7f 14 bd
       -0.116213694 -0.066031225 0.121814206 -0.036254343
000010 51 82 0e 3d 4d a6 ed 3d e4 87 9e 3c f6 66 f6 bd
       0.03479225 0.11603985 0.019351907 -0.12031357
000020 79 44 94 3d 76 e1 95 bb f1 d2 e9 3d 24 eb ac 3c
       0.072396226 -0.004573996 0.11417187 0.021108218
000030 b9 f8 2b bc 45 ed f8 bc 8e ac 97 3c e5 69 a8 3d
       -0.010496312 -0.030386576 0.018514898 0.08223323
000040 2d 3f d6 3b e3 8d b8 bc dd f2 11 be f3 cc 75 bd
       0.006538293 -0.022528594 -0.14252801 -0.060009908
000050 87 3b 9d 3c cc bf 71 3d cd 8f e3 3d b5 56 b5 bd
       0.019193424 0.059020802 0.11111412 -0.08854429
000060 f3 ed 8b bd a6 a8 02 3e c5 57 f0 bd 5c 5b b3 bd
       -0.068324946 0.12759647 -0.11735491 -0.0875766
000070 81 78 0a bc ae 9a 02 bd bb 79 02 3e 4b 2a 0b be
       -0.008451582 -0.031885795 0.12741749 -0.13590352
000080 53 26 07 3d 34 4f 1f bd ce fe 11 be ca db 43 3d
       0.032995533 -0.038893893 -0.14257357 0.04781703
000090 52 ba 6f bd 4e 50 d4 3d 46 82 12 bb ce 06 03 be
       -0.0585273 0.103668794 -0.002235548 -0.12795565
0000a0 e0 61 13 bd 41 3d 30 bd 9b cb d4 3d 99 b8 d2 3c
       -0.035982013 -0.043027166 0.10390397 0.025722789
0000b0 8a 88 73 bd 57 8f bb 3d 48 c4 bc 3c e0 0e 7f 3d
       -0.059456386 0.09158199 0.023042813 0.062270045
0000c0 b0 cd f5 3c 87 db 30 be 04 e0 1c be cf 26 e6 bd
       0.030005306 -0.17271243 -0.1531983 -0.11237871
0000d0 b3 f4 cf bd be ae 03 3e c6 1a 98 bd 89 83 50 3d
       -0.101540945 0.12859628 -0.07426982 0.05090669
0000e0 10 c8 b7 3d 76 35 1f be 59 83 76 3d 93 0f 50 3d
       0.08973706 -0.15547737 0.060183857 0.050796103
0000f0 83 7c 2d be 74 51 89 3d af 06 be bd 64 00 db 3d
       -0.16942029 0.06704989 -0.092786185 0.10693434
000100 49 e6 40 bd 25 05 a2 bd 54 4c 0f 3e 28 b5 07 be
       -0.047094617 -0.079111375 0.1399396 -0.132527
000110 b9 f9 ff 3d c2 0c a2 3d 1d 0f fc 3b 0a 9e 27 3b
       0.12498803 0.079125896 0.0076922313 0.0025576376
000120 1a 18 e5 3d e9 d7 58 3d 06 e6 94 bd 19 8e 30 be
       0.11186238 0.052940283 -0.07270436 -0.17241706
000130 c6 6b 02 be 6a f3 a0 bd f8 80 f3 bd 62 25 a5 bd
       -0.12736425 -0.078589275 -0.11889833 -0.08063771
000140 75 90 22 3d 42 c1 e5 3d 69 ce 3b be 57 53 fc bd
       0.039688546 0.112185016 -0.18340458 -0.12320583
000150 0c 94 14 bd eb eb 85 3d 9d c6 d7 bc 0e 8f 35 be
       -0.036274 0.065391384 -0.026339823 -0.17730352
000160 58 92 23 3e ed 8f 95 3d ff 92 8a bc 5b 21 ca 3c
       0.15973794 0.07302842 -0.016915796 0.024674108
000170 e0 ca c3 3c cd 3c 41 be dc 03 83 3d 72 b5 c9 3d
       0.02390045 -0.1887085 0.063972205 0.09849061
000180 a1 de d8 bd e0 a9 40 3c 26 b4 3a be 00 33 fd 3d
       -0.10589338 0.011759251 -0.18232784 0.12363243
000190 30 c3 a3 bd aa 5e a7 3c 62 1a e5 bc 4d 13 67 3d
       -0.079962134 0.020430882 -0.027966682 0.05641489
0001a0 10 75 f7 3b be d2 91 3d b9 6f fc 3d 48 b5 98 bc
       0.0075517967 0.07120274 0.12325997 -0.01864113
0001b0 31 db 34 bd f0 0c b8 bc 82 a8 02 3e 2c 70 fd bd
       -0.04415435 -0.022467107 0.12759593 -0.12374911
0001c0 89 53 df 3d 25 a1 97 bd 91 c5 2c 3e 82 1c dc bd
       0.10904605 -0.07403783 0.1687224 -0.10747625
0001d0 2d f0 90 3d 75 ed ce bd e0 f2 4f bd 9b a2 df 3d
       0.0707706 -0.10103885 -0.050768733 0.109196864
0001e0 a2 4e 27 3e 29 bd 78 3d 75 b9 6c 3c ef 4d 22 3e
       0.1633859 0.060727272 0.014448513 0.15850042
0001f0 2d 40 b5 3d 84 96 ee bd 3c 0e d3 bd 28 7b 24 be
       0.08850131 -0.11649802 -0.10305449 -0.16062605
000200 5a 22 d4 bd e6 85 a0 3b 7a 60 d1 bd eb d7 c5 3d
       -0.103581145 0.0048987744 -0.102234796 0.09660324
000210 71 2d 0d be 0c 20 0e 3e a0 8c a2 3d 1e 4f fb bd
       -0.13786866 0.13879412 0.07936978 -0.1227095
000220 45 ad 2a be 44 5a 07 bd 42 d6 9f 3d 55 33 5b bc
       -0.1666766 -0.03304507 0.07804538 -0.013378938
000230 b5 b3 d4 3d e7 01 a7 bb 0d 95 a5 3d b8 36 7a bd
       0.10385839 -0.0050966623 0.0808507 -0.06108734
000240 aa 42 bd bd 3f 44 da 3d 5d 5d e8 3d 13 07 ef bb
       -0.09241231 0.10657548 0.11345933 -0.0072945445
000250 61 f9 2d be 40 1d 03 3d 6d 40 31 bd 6c 1d b5 3c
       -0.16989662 0.032010317 -0.04327433 0.022108756
000260 7c 02 ac 3d c5 3f 83 bd 6f 69 04 3e 24 c6 54 bd
       0.08398911 -0.064086474 0.12930845 -0.051946774
000270 b2 2b f6 3d 30 d6 78 bd a4 f6 20 3b 4d 8d 01 bd
       0.12020053 -0.06075114 0.0024561072 -0.031628896
000280 81 c8 3a 3d 2c a0 dc 3d d3 a3 02 be bf a3 a8 3d
       0.04560137 0.10772738 -0.12757806 0.08234357
000290 1c e9 20 3e 42 8f b1 bd 91 4b 01 be 56 e2 8a bd
       0.15713924 -0.086699024 -0.12626483 -0.067814514
0002a0 72 50 b0 3d 85 71 a4 3d a8 a7 df bd 48 e6 98 bd
       0.08609094 0.08029465 -0.1092065 -0.07465798
0002b0 59 de 50 3c 04 9a 1a bd 99 51 ac 3d 6c 48 c6 3d
       0.012748324 -0.037744537 0.08414001 0.09681782
0002c0 4f be 76 bd 78 c9 93 3c 8f 9c 6c 3d c9 0a 7c 3a
       -0.060240086 0.018040404 0.057766493 0.0009614644
0002d0 c4 9e c0 bd 09 52 e5 3d 20 64 ea 3d b9 36 c0 bd
       -0.09405282 0.111972876 0.114448786 -0.093854375
0002e0 f4 93 85 bc 90 38 bf 3d 36 a1 a5 3d 16 1f f7 3c
       -0.016305901 0.0933696 0.08087389 0.03016619
0002f0 40 58 0d bd 4e ee 0e be 71 1f 35 be c1 dc c4 3d
       -0.03450799 -0.13958094 -0.17687775 0.09612418
000300 0f 90 83 3d bf 8d 0b be 1b a9 56 bd ac f3 41 3c
       0.06423961 -0.1362829 -0.052407365 0.011837881
000310 a8 d3 d6 bc 25 97 0f be f8 f1 0a be 00 c0 b4 3c
       -0.026223972 -0.14022501 -0.13568866 0.022064209
000320 f1 1b 1c be 83 e8 09 be 39 f8 03 3e 2b 78 17 bd
       -0.15245034 -0.13467602 0.12887658 -0.036979835
000330 d0 3b 47 be 5b cb ff 3c ac 8a d2 bd ca 58 3e bd
       -0.1945641 0.031224897 -0.10280356 -0.046471395
000340 d5 28 31 bd c1 68 a6 3c 1d d5 27 be 7b d5 d4 bd
       -0.04325183 0.020313622 -0.1638989 -0.10392281
000350 85 fc 2b 3d a9 c6 f8 3d fc f8 a0 bd b5 cc f7 3c
       0.04198887 0.121472664 -0.0785999 0.03024898
000360 83 c8 03 be 04 58 57 be ca c0 e5 3d 3f 61 e9 bd
       -0.12869458 -0.21029669 0.11218412 -0.11395501
000370 47 9e 0e 3d 04 92 02 bb e5 3b 53 be b5 32 50 bd
       0.034818914 -0.0019923458 -0.20628317 -0.050829608
000380 46 73 88 3d 32 c9 57 3d 40 76 39 bb ff 8d 6e bd
       0.06662612 0.05268211 -0.0028299242 -0.058240887
000390 4b c8 e8 3c 36 be 80 3d a3 68 90 bc 13 b0 2d be
       0.02841582 0.0628628 -0.01762802 -0.16961698
0003a0 2e e6 e1 bd 9e a1 92 3d 95 3c a7 bd 7e 1d b0 bd
       -0.110302314 0.07159732 -0.08165852 -0.08599375
0003b0 f5 c1 0d 3e bd 6e 7e bb a3 e7 b8 3d a2 89 7a bd
       0.1384352 -0.003882333 0.09028556 -0.061166413
0003c0 71 de 61 3c 7f d9 94 3d 2f 47 2a bd ea 94 10 bd
       0.013785944 0.072680466 -0.041571792 -0.035298266
0003d0 b2 69 99 3d ff 3f 1c bd 48 a3 ce bd 62 9c fd 3d
       0.07490863 -0.03814697 -0.10089737 0.12383343
0003e0 4c c5 d7 bd 68 57 37 3d 52 f8 3f bb e3 b2 73 bd
       -0.10535678 0.04476109 -0.0029292298 -0.05949677
0003f0 04 32 eb bd e6 6a ec 3d 59 3a a9 bd 75 57 3a 3e
       -0.11484149 0.11543827 -0.08263082 0.18197425

model_old.model.0.bias f4 [128]
000000 8a 58 84 3e 1a c0 b4 bd f3 0c 10 3c ce 82 ba bd
       0.258488 -0.08825703 0.00879215 -0.0910698
000010 96 86 3c 3e 6b 15 4a 3e 51 8e 7d 3e 6c f8 05 3e
       0.18410715 0.19734733 0.2476132 0.13083047
000020 9e b8 97 3e 99 69 72 3e 04 2b c6 bd 45 d2 86 3e
       0.2963304 0.23673095 -0.09676173 0.26332298
000030 00 1e 9d 3e 70 aa bf bd db d7 37 3d 0a 32 81 3e
       0.3068695 -0.0935868 0.04488359 0.2523349
000040 b6 8a 34 3e b3 5c 1b 3e f5 da 20 bd 49 e7 87 bd
       0.17631039 0.1517208 -0.039271314 -0.06635911
000050 fe 1f 62 bd 70 26 15 3e 4b 89 85 3e cf 46 a6 bd
       -0.05520629 0.14565444 0.2608131 -0.081189744
000060 d3 3a 9b bd 07 d4 8a bc db df 3c 3e 38 49 87 bd
       -0.07579579 -0.016946806 0.18444769 -0.06605762
000070 a0 74 05 bd 72 a8 1d be 0c a3 28 3e de cc 35 3e
       -0.032581925 -0.15396288 0.16468447 0.17753932
000080 b2 fd d0 3d b7 74 82 3e b9 e0 7f 3e d2 98 7f 3e
       0.102046385 0.2547967 0.24988069 0.2496064
000090 5a b9 bb 3d 07 32 de bd fc 7a c9 bb 1b 24 8a 3e
       0.091662124 -0.10849386 -0.006148694 0.2698067
0000a0 b5 c4 22 3e 00 9b b7 bd ba a5 96 3e 03 a3 3c 3e
       0.1589535 -0.08965111 0.29423314 0.18421559
0000b0 ac cc 4e 3e 6f 82 96 3e 9d f2 5d 3e 7c 8f 06 3e
       0.20195264 0.29396388 0.21674581 0.13140672
0000c0 9a 4d 97 3e 31 1c 8b 3e c0 34 d5 bd ce 56 bf bc
       0.29551393 0.27169946 -0.10410452 -0.023356821
0000d0 ef 48 8b bd 00 90 89 3e 35 dc 6f 3e 3f a4 c4 3e
       -0.0680102 0.26867676 0.23423846 0.3840656
0000e0 31 e9 71 bd f9 9d 88 3e 3a 47 64 3e 7d be 45 bb
       -0.05906028 0.26683024 0.22292796 -0.0030173354
0000f0 f3 cb cd 3e d2 55 41 bd 73 b1 66 3e 4b 6a 58 bc
       0.40194663 -0.047200985 0.22528629 -0.013208936
000100 67 64 88 bc 49 dd 18 3e 8f 79 1a 3e e1 7f a4 bd
       -0.016649438 0.14928164 0.15085433 -0.080322035
000110 b2 78 66 bc da ba 5d 3d 18 a5 52 3d ee 25 82 3e
       -0.014066862 0.054133274 0.051426977 0.25419563
000120 1a d2 98 3e bc 4c 1c 3d 1e 3b 8d 3e 06 47 97 3e
       0.29847795 0.038159117 0.27584165 0.29546374
000130 29 a4 b6 3d ab 1e 53 bd 6c ed 9b 3e 4e 9f 8b 3e
       0.0891803 -0.05154292 0.30454576 0.27269977
000140 88 46 25 3e 7c d8 3c 3e 9f a0 da bd 7f c6 96 bd
       0.16140187 0.18441957 -0.10675167 -0.07362079
000150 f9 77 dc bd 59 ac 1f 3e 93 bb 8b 3e 6f 83 11 3e
       -0.107650705 0.15593089 0.27291545 0.14210294
000160 d6 e1 70 bc 29 b5 00 3e 12 8d 7c 3d 14 f7 8d 3e
       -0.014702281 0.12569107 0.061657973 0.27727568
000170 68 bc 04 3e 51 59 51 3e cc 3c 93 3e 3e 4f 76 3e
       0.12962496 0.20444228 0.28757322 0.24053666
000180 b8 f0 4d 3e 96 9b a7 3e 5a 57 d9 3d a5 5f e7 bd
       0.20111358 0.3273589 0.10612364 -0.112975396
000190 ba 9b 81 3e 81 a9 6e 3e e8 b2 73 3e 0a 72 91 bd
       0.25314122 0.23306848 0.23798716 -0.07101829
0001a0 0c 61 be bd 65 e9 9d 3e 60 e0 fd bd 01 ae 0d 3e
       -0.09295854 0.30842128 -0.12396312 0.13835908
0001b0 52 44 76 3e e5 47 51 3e a5 d1 8e bd c3 90 f2 3d
       0.240495 0.20437582 -0.0697358 0.11844017
0001c0 4d e8 6e 3e c6 ef 0e bd eb 04 41 bc 92 f0 37 3e
       0.23330803 -0.034896635 -0.011780958 0.17962864
0001d0 4f 55 0d bd 54 1d 8f 3d 22 1b 34 3e 2c 61 79 3e
       -0.034505185 0.06988016 0.17588475 0.24353474
0001e0 71 69 fa bc 83 81 3c 3d b2 a9 8e 3e ed ed 1d 3e
       -0.030567857 0.04602195 0.27863842 0.15422793
0001f0 70 6e 8e 3e 8e aa 84 3e a7 f3 51 3e 95 d7 56 3e
       0.27818632 0.25911373 0.20503102 0.20980676
