project/paper_notebooks/saved_variables/paper_notebooks/7/7-20epoch_500loop/7-looping-iteration-33/final_policy_agent2.pth (torch, 543093 bytes, 16 tensors)

model.model.0.weight f4 [32, 1, 4, 4]
000000 27 1a a2 3d 19 15 d2 be 4d 58 96 be 2d ff 6b be
       0.079151444 -0.4103172 -0.29364243 -0.2304656
000010 a5 18 a9 be 93 b7 8b bb bf 09 06 3e fa 59 16 be
       -0.33026615 -0.004263827 0.13089655 -0.14682761
000020 1f d6 a2 3c 17 5c 99 bd fb 98 f2 bb 46 21 75 be
       0.019877492 -0.07488268 -0.0074034906 -0.23938474
000030 5b 1d 08 3e 73 44 2f 3d d0 6a ad bd 0d 8c 11 be
       0.13292448 0.042789888 -0.084676385 -0.14213581
000040 7e e0 dc 3d 48 96 a8 bd b0 26 56 be 02 d7 64 3e
       0.10785006 -0.08231789 -0.20913196 0.22347644
000050 e7 9f 0a 3e 74 20 42 3d d6 b0 a4 3c cf 55 01 bf
       0.1353756 0.04739423 0.020103853 -0.5052156
000060 18 e1 40 bd 49 25 2e be d8 a4 eb 3c 84 9b b1 be
       -0.047089666 -0.1700641 0.028765127 -0.34688962
000070 ef 0a 8c be 9f ea 7d 3d e2 c4 42 be e1 97 93 be
       -0.27352092 0.06199133 -0.19020417 -0.28826812
000080 e1 b9 f5 bd 41 ed a1 bd 8a 63 86 be ca 47 13 be
       -0.11998344 -0.07906581 -0.26247817 -0.14382854
000090 b5 ab 88 3e 3e e0 50 be f7 a8 23 be 30 a7 14 bd
       0.26693502 -0.20398042 -0.15982424 -0.036292255
0000a0 00 81 71 3e 4a 5d 59 be 61 05 a6 bd 99 48 59 be
       0.23584366 -0.21226993 -0.08106495 -0.212191
0000b0 01 e2 ad bd 9c 7d 7d 3c 39 e2 cf 3d b0 c2 4c 3d
       -0.084903724 0.015471842 0.101505704 0.049990356
0000c0 3b 73 21 be 51 4d cb bd 27 eb 0a 3e b7 22 a2 be
       -0.15766613 -0.09926856 0.13566266 -0.3166711
0000d0 01 b9 8f 3d 13 bd 75 3e 5c 2b 9c be c9 fd c2 bc
       0.070177086 0.23997907 -0.3050183 -0.023802655
0000e0 30 90 00 3e ee 1b 06 3d de 86 61 be a7 7a b9 be
       0.12555003 0.03274148 -0.22024104 -0.3622639
0000f0 d1 45 5c be d4 36 09 be 43 87 36 be 67 6d 03 3e
       -0.21511008 -0.13399822 -0.17825036 0.12834702
000100 da b1 dc bd ac 5d df bc 2d 0d 8f 3b 08 db 42 3d
       -0.1077611 -0.027266346 0.0043655843 0.047572166
000110 e7 2f 80 be d2 1f 2e be 2b 17 0e be 27 c6 33 be
       -0.25036547 -0.17004326 -0.13876025 -0.17556058
000120 22 82 97 bd 9d da 0a 3e a5 36 9f bd bf 50 9a be
       -0.07397868 0.13559957 -0.077740945 -0.3013973
000130 94 8a 4f be 78 61 18 be 3b 32 6c bd 9d 25 cd bc
       -0.20267707 -0.14880931 -0.05766509 -0.02504235
000140 16 0a 28 3e 28 e9 1d bd e8 bd bc 3d 27 fe 4a be
       0.16410097 -0.038552433 0.09215909 -0.19823514
000150 e5 f0 07 3e 87 f6 21 3e 95 2a 63 3e 52 4b 72 be
       0.13275488 0.15816699 0.22184213 -0.23661545
000160 01 cc e8 be e3 b8 3b 3d 6f 8e f1 be 70 5e c4 3d
       -0.45468143 0.04583062 -0.4717898 0.09588325
000170 2d 0e 6a bd fd 56 ab bd d2 04 c5 bd 87 f0 f0 bd
       -0.057142425 -0.08366201 -0.0962006 -0.11764627
000180 9e 85 df 3c 18 7d 2c 3e c8 d9 bd 3b aa 54 61 be
       0.027285393 0.16844594 0.005793784 -0.22004953
000190 b2 25 38 be fb f1 67 bc 67 7b fd 3d d8 22 94 be
       -0.1798313 -0.014156814 0.12377053 -0.28932834
0001a0 ae 1d bb 3c 19 ad f6 3c 1d 0d 0e 3d 28 7d 51 be
       0.0228413 0.030111836 0.034680475 -0.204579
0001b0 45 d1 4b be 1e 2c 15 be ec f0 8b 3d 28 9b db bd
       -0.19904049 -0.1456761 0.068330616 -0.10722953
0001c0 44 c6 e8 bc f2 27 f3 3c 94 de 34 3d 3e 66 36 be
       -0.028414853 0.029682133 0.04415758 -0.1781244
0001d0 80 8e a7 be bf 00 93 bc ee 2e f5 bd 57 4c 80 3e
       -0.32725906 -0.017944692 -0.11971842 0.25058243
0001e0 4e b9 d2 be fc 65 83 be 66 ca 94 be 62 23 86 bd
       -0.41157 -0.25663745 -0.29060668 -0.065497175
0001f0 79 43 bd bc 17 33 32 bd d4 64 01 bf f0 64 99 3e
       -0.023103463 -0.043505754 -0.50544477 0.29959822
000200 9c 95 f8 3d c7 54 25 3c 2f 97 2a be 37 8e 6f 3e
       0.12137911 0.010091013 -0.16659234 0.23394094
000210 fe 16 87 be f1 21 2d be cb 7b 00 3e ad 82 10 be
       -0.2638473 -0.16907479 0.12547223 -0.14112349
000220 b7 12 4d 3e e4 b7 cf 3d cd 98 ef be d7 60 ca be
       0.2002667 0.10142496 -0.46796265 -0.39527008
000230 3e 3b 29 3d 85 63 ab 3d 81 7b 19 be 23 46 8a bd
       0.041316263 0.08368591 -0.14988519 -0.06751659
000240 e0 27 e6 bc 88 12 98 be 85 e9 34 3b 58 83 5c be
       -0.028095186 -0.29701638 0.0027605009 -0.21534479
000250 dd c1 ba be 48 25 ec bd 27 3c 0c be 2c a0 4d 3e
       -0.3647603 -0.11530548 -0.13694821 0.20080632
000260 78 a1 92 be f2 f9 21 3d 0f 52 37 be 58 1f 42 bd
       -0.28638816 0.039545007 -0.17902397 -0.047393173
000270 34 8c 7a bd ce 37 1b be a8 8a 19 be 7c 42 18 3e
       -0.061168864 -0.15158007 -0.149943 0.14869112
000280 13 4e f4 bc 28 54 01 be 9d 2b e4 be d9 f9 fc bb
       -0.029822385 -0.1262976 -0.44564524 -0.007720214
000290 52 57 f3 be 3a e7 a4 bd 87 d2 aa bd 5b 1c a8 3d
       -0.47527558 -0.080519155 -0.08340936 0.082085334
0002a0 87 1a 8a be 2e 46 d5 3d 84 3c 90 bc 94 38 95 be
       -0.26973364 0.10413776 -0.017606981 -0.29144728
0002b0 8a 19 a4 3d 42 90 41 be d5 17 2d 3e 83 98 02 3e
       0.08012684 -0.18902686 0.16903622 0.12753491
0002c0 0f ce fe 3d 8a af 83 bb 9e c7 9a bd 8a 2a e9 be
       0.12441646 -0.0040187286 -0.07557605 -0.45540267
0002d0 dd da 0b be 3b 96 95 3d 1b b2 05 3e df 89 8b bd
       -0.13657708 0.07304045 0.13056223 -0.06813406
0002e0 8e 17 99 3d ce 47 35 3e 02 1b 78 ba 65 64 8a 3d
       0.07475196 0.17703173 -0.00094644737 0.0675743
0002f0 b8 44 01 3e ae b3 e1 bd ec ad 8d be d3 04 ab 3c
       0.1262387 -0.11020599 -0.27671754 0.020876324
000300 6a 2f 9f be 5c 76 09 bd 3b a4 07 be c0 fa 27 be
       -0.31090862 -0.033560142 -0.13246243 -0.16404247
000310 51 ac bf be d7 ec 02 bd ae 05 fd 3d a6 4f f1 bd
       -0.37436154 -0.03196415 0.12354599 -0.1178277
000320 68 e8 54 be b5 62 d9 bd 38 6b c6 bd c2 29 1a be
       -0.20791781 -0.1061453 -0.09688419 -0.15054992
000330 10 2c 39 3e 17 d8 8a 3e 4b c2 7a bb b9 78 77 3e
       0.18083215 0.27117988 -0.003826278 0.24167146
000340 ec a7 12 3d cb 71 eb 3d a3 4c 1e be 9e ee 19 3d
       0.035804674 0.11496314 -0.15458922 0.03758108
000350 5a 35 80 3e 17 5e c0 3e 68 ee e4 bd 6e 72 14 3e
       0.25040704 0.37571785 -0.11178285 0.14496776
000360 6a 37 36 be e3 00 50 3d 01 d1 b0 3e 84 5f eb 3d
       -0.17794576 0.050782096 0.34534457 0.114928275
000370 3f f1 bd bd ca 06 f1 be aa e2 42 3e b5 57 bd bd
       -0.0927453 -0.47075492 0.19031778 -0.092452444
000380 1e d1 78 3c 93 f1 60 bd 35 98 c9 bc 78 ed 42 3d
       0.015186576 -0.054917883 -0.02460871 0.04758975
000390 ce d6 4a bd 46 d0 be 3d 3a c3 09 be 52 53 b6 3e
       -0.04952126 0.09317069 -0.1345338 0.35610443
0003a0 2c 4e 99 be 8c 0d 7b be b2 42 9e bd a5 cf 8b be
       -0.29942453 -0.24516886 -0.07727565 -0.27306858
0003b0 44 49 74 be 61 bd 21 bd 39 0c 6d be 59 64 97 be
       -0.23856074 -0.039487246 -0.23149194 -0.29568747
0003c0 3b a1 8c be a0 b0 ed 3c 03 08 75 bb 6d ce cb 3e
       -0.2746676 0.029014885 -0.0037388809 0.39805928
0003d0 b6 48 9a be 44 ea 8f 3d b9 71 60 3e 07 cb 22 bf
       -0.301336 0.070271045 0.21918382 -0.63591045
0003e0 c2 d1 31 bd f5 3b b6 be 6f 0f d1 3e 46 99 1e bd
       -0.04341293 -0.3559262 0.40832087 -0.03872039
0003f0 4b 80 21 bd 63 92 3e be 86 10 45 3e 93 ef 70 be
       -0.03942899 -0.1861053 0.19244584 -0.2352889

model.model.0.bias f4 [32]
000000 2c 46 39 be 6b 64 0c 3d 0c 3d db 3c 90 7f 09 be
       -0.18093175 0.034275454 0.026762508 -0.13427567
000010 40 72 fa bd 92 c9 3d be 49 85 9b be 73 45 ff bd
       -0.12228823 -0.18533924 -0.30375126 -0.12464418
000020 fc 3b 4e 3d 5c a2 a3 ba f2 dd 19 3d 0b 13 62 be
       0.050350174 -0.00124843 0.03756518 -0.22077577
000030 a7 97 38 be 41 45 84 be 55 7f 8f be 70 80 12 be
       -0.18026601 -0.25834087 -0.28026834 -0.14306808
000040 4e b3 a9 3d a9 19 d5 3c f6 d4 8e be 89 fb 8a be
       0.08286153 0.026013212 -0.2789685 -0.2714503
000050 87 dc fb 3d ff 31 9f be c0 51 83 3c 36 c8 84 be
       0.12297922 -0.31092831 0.016030192 -0.25934
000060 9c e7 0d 3e e1 4d fe bd ab c7 6f bd a5 6a ba 3b
       0.13857883 -0.12417198 -0.058540028 0.0056889826
000070 fb 3b 38 3e 41 e6 04 be 5c f0 c0 be 26 6b b3 be
       0.1799163 -0.1297846 -0.3768338 -0.35042685

model.model.4.weight f4 [128, 384]
000000 00 c3 37 3c fc 5b f3 3d 9f f8 ce bc b1 91 0e 3c
       0.011215925 0.11882779 -0.025265036 0.008701728
000010 b6 c8 99 3c 10 b6 15 bd 7b 53 fa 3c 06 8b 15 bd
       0.018772464 -0.03655058 0.030557385 -0.036509536
000020 76 e9 34 be b2 23 ed 3d 9d f4 8a bc 5d a3 7b bc
       -0.17667183 0.11579074 -0.016962344 -0.015358773
000030 f9 6b e9 bc 18 26 9b bd 66 68 bf bc 9a ac b8 b9
       -0.028493868 -0.07575625 -0.02336521 -0.00035223813
000040 9b 47 80 3b 67 4c 55 bd 24 fb ae bd 69 74 53 bd
       0.003914786 -0.052074816 -0.08543995 -0.05162469
000050 0f 25 42 ba 43 4a 17 3e d6 62 85 bd 95 01 c7 bd
       -0.0007406035 0.14774422 -0.06512992 -0.097170986
000060 a3 42 c8 bc 40 41 97 3d 22 ed 0f be 01 8a 95 bd
       -0.024445837 0.07385492 -0.14055303 -0.07301713
000070 e0 c9 63 be d6 35 1f 3e 84 01 d1 3b 81 5a 18 bd
       -0.22244978 0.1554788 0.0063783545 -0.037195686
000080 76 b5 c3 bd 4f 47 3f 3e 16 ae 02 3c df 50 99 bd
       -0.09556095 0.18679546 0.007976076 -0.07486128
000090 a3 ee 54 bd 62 6c 17 3c 61 58 d9 bd 8f 3f 11 3c
       -0.051985394 0.009242149 -0.1061256 0.008865251
0000a0 c5 e8 e6 bd 5a c8 28 bd df 9e 1e 3d 33 e5 48 bd
       -0.11274866 -0.041206695 0.03872573 -0.049046706
0000b0 27 5b 0a be 24 13 6a bd bc 72 1b bd 41 35 79 bc
       -0.13511334 -0.05714716 -0.037951216 -0.015210451
0000c0 f6 f8 d2 3d 3a c5 9a bd c3 23 85 3d 51 d9 52 bd
       0.10301392 -0.07557149 0.06500962 -0.05147678
0000d0 13 9f 7d bd 86 1d 9f 3b 86 56 64 3c 1c c4 3f bd
       -0.061919283 0.0048558144 0.013936644 -0.046817884
0000e0 4d ff 60 bd b9 9c 86 3d 00 3e a5 3d 7b a8 f6 bd
       -0.054930974 0.06572861 0.08068466 -0.12043854
0000f0 42 31 c1 3e 8e b3 29 3e e6 5c 0a 3e 9a 06 41 3d
       0.37732893 0.16572401 0.13512 0.047125436
000100 c1 71 0c 3e 69 81 83 bd b1 68 2b 3e 56 cd 44 bd
       0.13715269 -0.064211674 0.16739155 -0.048047386
000110 bd 7e 29 3d 94 25 00 3d 9b a2 d8 3d 30 5e 24 3e
       0.041380633 0.031285837 0.105778895 0.16051555
000120 99 f5 8a 3c 85 7e ed 3c fd 95 a4 3d 56 75 d4 3d
       0.016962813 0.028990993 0.080364205 0.103739426
000130 c4 56 2a 3d 7f 7f ab 3d f8 1c 77 3d 47 20 83 3d
       0.041586652 0.08373927 0.06033036 0.06402641
000140 7a b8 45 3d 80 41 2e 3d 6f c0 43 bc 09 5f 83 3c
       0.048271634 0.042542934 -0.011947735 0.016036527
000150 38 91 39 3c 7f 63 32 bc 88 ee 97 3d 52 66 0c 3d
       0.011326127 -0.0108879795 0.07418543 0.034277268
000160 0e 66 89 3d eb 2a 07 3d bf 25 39 3e a8 da 88 3a
       0.067089185 0.032999914 0.18080805 0.0010441141
000170 91 f1 bd bd 32 0b ca bd 84 de c6 3d dd ca 59 3d
       -0.09274591 -0.098654166 0.0971041 0.05317198
000180 7a d7 29 bd 56 64 bd bd 58 a3 21 bc ce d0 71 bd
       -0.04146526 -0.09247653 -0.009865604 -0.059037022
000190 04 b6 30 bc 08 54 ff bb 42 dd 16 be e8 3c 33 be
       -0.010785583 -0.0077919997 -0.1473284 -0.17503703
0001a0 10 f9 1a be 17 a0 f7 3d 4d 05 f4 bd 87 00 d0 bd
       -0.15134072 0.120910816 -0.119150735 -0.101563506
0001b0 ba b3 5d 3d 1c d7 4d 3d 73 8e c5 bc de c2 e0 3c
       0.05412648 0.050253972 -0.024115777 0.02743667
0001c0 2c a5 a2 3d 60 a8 62 bb 9e 4c 5d 3d da 72 e0 3c
       0.0794166 -0.0034585223 0.054028146 0.027398515
0001d0 48 e5 9c bc ce 6b 4c 3c 0b 0b 91 3d 0b 61 a8 3d
       -0.019152299 0.0124768745 0.070821844 0.082216345
0001e0 6d 0b 85 3d 0e 1e dd 3a 89 c7 4f 3d fb b2 b4 bd
       0.0649632 0.0016869919 0.0507274 -0.088232
0001f0 98 45 90 3d 5f f7 a7 3d f6 1a 67 bd d1 de 57 3c
       0.07044524 0.08201479 -0.056422196 0.013175682
000200 60 6f 8f 3d 20 f2 67 3b 2e da 00 3d 1b 28 c7 bd
       0.07003665 0.003539212 0.031458072 -0.097244464
000210 4f c0 d9 3d 1b 36 a1 bd 32 b3 ae bd d4 6f c7 3c
       0.10632383 -0.07871648 -0.085302725 0.024345316
000220 e1 e8 89 bd 44 12 33 be e1 27 8b 3d 6a 80 bc bd
       -0.06733871 -0.17487437 0.06794716 -0.092041805
000230 c0 03 aa bc cc af ab bd f1 7b 9f bb db 7f 31 3d
       -0.020753741 -0.0838314 -0.00486707 0.043334823
000240 38 4a ae bb 12 d7 c5 bd f1 e6 7b bb 4d eb 8d bc
       -0.005318906 -0.09660162 -0.0038437212 -0.017324114
000250 d9 fd 09 3d ee 00 1a bd e6 82 c2 3c bc 63 41 3d
       0.033689354 -0.037598543 0.023744058 0.047214255
000260 43 e2 1b 3c d0 8b 05 bd 46 72 92 bd 2c 1b 87 3c
       0.009514394 -0.03260404 -0.07150702 0.016492449
000270 1b 37 70 3e 03 75 e7 3d 07 2b a0 3d e4 32 2c 3e
       0.23458521 0.11301615 0.07820707 0.16816288
000280 57 64 20 3e 2c 08 bb bb bd 07 80 3e b4 60 71 3e
       0.15663277 -0.0057077613 0.25005904 0.23572046
000290 39 66 e1 bd 3f 26 0f 3d 30 1d a0 3d 14 50 0e 3e
       -0.110058255 0.034948584 0.07818067 0.13897735
0002a0 bc 69 cb bd 09 31 f9 3d 83 b1 57 3d f7 1b 67 bd
       -0.099322766 0.12167556 0.052659523 -0.056423154
0002b0 24 12 44 bd 5b af 00 3e 77 2e 20 3d 52 4a b3 bd
       -0.047868863 0.12566893 0.039106812 -0.0875441
0002c0 85 0b 14 bd f7 3c b4 bd 2d c0 eb 3d 31 56 11 3e
       -0.0361438 -0.088006906 0.11511264 0.14193036
0002d0 ff e4 b6 3d 3a 32 34 3d 08 ef 50 3e 8b bd 32 3e
       0.08930396 0.043993212 0.20403683 0.17455117
0002e0 7e 34 8c bd ef bd 37 3e 74 6c 21 3d 86 7c 2f 3e
       -0.068459496 0.17943548 0.03941007 0.17137346
0002f0 4a 92 84 3b 81 1e 9b 3d 05 23 42 3d c7 00 40 bd
       0.0040457593 0.075741775 0.04739668 -0.04687574
000300 fd 5b 63 bd 90 f3 a0 3d 74 28 d3 3c 79 9a 56 bd
       -0.05550765 0.07858956 0.025776125 -0.05239341
000310 5c 0a 1f bd f2 e1 ec 3a cb 31 43 3d 74 59 1e be
       -0.03882824 0.0018072708 0.04765491 -0.15463811
000320 fd 78 c2 bd 07 9b 5f 3d a0 ef fc 3c d2 08 f4 3d
       -0.09495733 0.054591205 0.03087598 0.11915745
000330 84 f6 5c bd 27 c8 7f 3e 59 4a ae 3d 2b f4 db bd
       -0.053946033 0.24978696 0.085102744 -0.10739931
000340 46 95 3e 3e c5 f6 06 3e d9 17 3a bd d4 a6 9d bd
       0.18611631 0.13180073 -0.0454329 -0.076978356
000350 3f d9 f7 3d 54 97 38 3e b0 7e 8e bc c0 b7 4b be
       0.12101983 0.18026477 -0.017394394 -0.19894314
000360 4f c6 f6 3d 2c 52 15 3d bf 49 9b 3c ac 25 ce 3d
       0.12049543 0.03645532 0.018956063 0.10065779
000370 24 3a 92 3d c1 0c 2f 3d 5b e3 89 3c 55 3e 1c bd
       0.07139996 0.042736772 0.016832044 -0.038145382
000380 85 43 41 bd e7 e6 a5 bd 94 7b a1 bd 89 dd 9b bd
       -0.047183532 -0.08100682 -0.07884899 -0.07610614
000390 b2 af 7b bd 65 6d 84 3d 04 81 86 bc 03 ae d4 bd
       -0.061446853 0.06466178 -0.016418941 -0.103847526
0003a0 73 be 17 bb 16 0a 1e bd 7d 6f fa 3c bf d7 af bd
       -0.0023154288 -0.038583837 0.03057074 -0.08586072
0003b0 4a 0d da bd b0 5b 4d 3d 21 43 93 bb 32 e7 00 be
       -0.10647066 0.05013627 -0.0044940864 -0.12588194
0003c0 fe 6b 4d 3c f2 07 91 3d c2 0f 0e 3d ba 84 2f 3d
       0.012537954 0.070815936 0.034682997 0.042851187
0003d0 49 11 ba 3d ff d0 a0 3d 20 57 a9 bc 13 e3 0f be
       0.09085328 0.07852363 -0.020671427 -0.14051466
0003e0 05 ae 5a bc da d7 18 3b af e5 a9 bd 3d f9 7c bd
       -0.013347154 0.0023322017 -0.08295762 -0.06176113
0003f0 52 d6 75 3d 66 b3 83 3d 7e 93 ae bd bc 69 0c 3d
       0.060018845 0.06430702 -0.08524226 0.034280524

model.model.4.bias f4 [128]
000000 11 55 d5 3c 67 75 87 3c d4 04 79 3c ce 71 e1 bd
       0.02604154 0.016535474 0.015198905 -0.11008035
000010 4e 2f a1 3c ea 65 cd bd 58 d9 78 3d 21 34 f3 bd
       0.019675877 -0.10029204 0.06075415 -0.11875177
000020 0b b5 c8 3b d3 4c 7e bd bf 32 5d bc f6 5e c1 3c
       0.0061250976 -0.062084984 -0.013500868 0.023604851
000030 51 88 84 bd ec e1 cb bc 74 23 18 3c 35 d1 68 3d
       -0.06471313 -0.024888001 0.009285796 0.05684014
000040 d3 8d 86 bd a8 39 08 3e 63 b0 8c bd 7a 1f a2 bd
       -0.065700196 0.13303244 -0.068695806 -0.0791616
000050 24 ac 51 bd e6 b5 b1 bc 27 c7 38 3d 30 3f 33 be
       -0.051189557 -0.021693181 0.0451118 -0.17504573
000060 6d d3 c3 3d d8 ef 0b 3c 2b 7a aa 3d 66 04 e4 3d
       0.09561811 0.00854107 0.08324083 0.111336514
000070 43 ac 99 bb 19 f0 40 bd 24 95 f7 bc 10 e1 4e bc
       -0.0046897247 -0.047103975 -0.030222483 -0.012626901
000080 0e 9a 84 bb 5a bd 80 bd 83 12 49 bd 63 40 03 be
       -0.004046685 -0.06286116 -0.04908992 -0.1281753
000090 c2 30 c2 3d 67 21 0f be c4 4c c4 3c 3d c0 8d bc
       0.09481956 -0.13977586 0.023962386 -0.01730358
0000a0 12 f8 25 bb 5f 77 7a bd 7b cb a9 bc a1 24 f2 bc
       -0.0025324863 -0.061148997 -0.02072691 -0.029558482
0000b0 18 75 2b bd fb 59 12 bd 1a 95 b4 bd e0 65 1f bd
       -0.041859716 -0.035730343 -0.08817501 -0.038915515
0000c0 fa be b6 bd 94 6b f9 3c 3c 7f a8 bb e7 ee da 3c
       -0.08923145 0.030446805 -0.0051421206 0.026725246
0000d0 25 85 4a bd 13 6e 06 bc 38 16 c6 3d c5 5d 96 bb
       -0.049443383 -0.008204955 0.09672207 -0.004588815
0000e0 3f e6 b0 3c 42 c6 db 3c d3 89 a8 3c 66 aa c4 3d
       0.021594165 0.026827935 0.020573532 0.096028134
0000f0 7b ef fa bc d6 11 d4 bd 7b 4a 60 3d b7 89 f7 bd
       -0.030631771 -0.103549644 0.05475853 -0.12086814
000100 75 23 69 bc f6 8a 56 3d 02 3e 2b bb 38 29 e1 bd
       -0.014229645 0.052378617 -0.0026129489 -0.1099419
000110 b9 3c b3 3c c4 2f 1c bd e6 23 2b be c4 45 1e 3d
       0.02187954 -0.03813149 -0.16712913 0.038640752
000120 b0 c2 ad bb 2e 39 32 bd c1 d4 9c bc 6d 84 8d bd
       -0.0053027496 -0.043511562 -0.019144418 -0.06910024
000130 b6 82 5f 3d 06 31 c0 bd c7 e0 3a bc 46 2c c9 bc
       0.054568015 -0.093843505 -0.01140613 -0.024557244
000140 db 96 ca bc 42 7b 3e 3d ce 95 e5 bd 4d 29 a0 bd
       -0.024730137 0.046504267 -0.112102136 -0.078203775
000150 2a 01 0c be 7b 05 e7 3c 78 ad fe 3c fa 83 b2 bb
       -0.13672319 0.028200855 0.031088576 -0.0054478617
000160 1a 75 b2 bd c6 c3 dd bd 07 f4 80 3c f4 db ea bd
       -0.087137416 -0.108283564 0.015741361 -0.11467734
000170 e4 70 02 be c1 94 88 3b 8a 36 91 bd 75 a4 08 3e
       -0.12738377 0.0041681235 -0.070904806 0.13343985
000180 3e c5 fc bc 40 a4 85 bd 4c e5 d1 b9 4d f9 23 be
       -0.030855771 -0.06525469 -0.00040034426 -0.1601307
000190 69 27 93 bb 4f f8 26 bc ce dd 52 bd 8a 18 cd bb
       -0.004490782 -0.010191037 -0.05148106 -0.006259029
0001a0 b6 10 b5 bd 88 85 da 3c b4 f3 d3 3c fe 07 14 bd
       -0.08841078 0.026675 0.025873043 -0.036140434
0001b0 e3 fd f5 3d 61 fc 93 bd 79 dc fa 3c 39 61 a7 bc
       0.12011316 -0.07225872 0.030622708 -0.020432102
0001c0 59 e5 92 bd f9 27 85 3d 91 83 ec bd d9 94 7f bd
       -0.07172651 0.06501765 -0.11548532 -0.06239781
0001d0 72 7b 03 bc df 5f f4 bd be 97 16 bd 15 1a 32 bd
       -0.008025037 -0.119323485 -0.036765806 -0.043481905
0001e0 4b 66 5d bd 06 18 53 bd 0d be 23 3d 6f 1b e4 bc
       -0.054052632 -0.051536582 0.03997617 -0.027845113
0001f0 38 ba 75 bc fe 18 a8 3d 31 1e d2 bc b6 05 18 bc
       -0.014998011 0.08207892 -0.025649162 -0.009278705

model.model.6.weight f4 [128, 128]
000000 55 a2 6d 3d d1 3a bd bd 08 35 10 bd 88 1c db bd
       0.05801614 -0.09239734 -0.035206825 -0.10698801
000010 56 be 14 3d 00 18 90 bd d5 b7 e7 bd e4 e4 67 bd
       0.03631433 -0.07035828 -0.1131436 -0.05661477
000020 bf 16 45 3d 6c 0d 5e 3d 23 6b 2a 3d ad 48 76 bd
       0.048117395 0.05421202 0.04160608 -0.060127903
000030 fd b6 97 bd d1 6a 5a 3b c4 c8 37 3c e9 c7 1e 3d
       -0.07407949 0.0033327828 0.0112173 0.038764868
000040 6c ae 98 3c 92 71 39 3d dc 6f 8b bc 18 c6 58 bd
       0.018637858 0.045274325 -0.017021112 -0.052923292
000050 b1 af c6 bd 73 b4 82 3c c4 10 44 bd 59 b5 bc bb
       -0.09701479 0.015955186 -0.04786755 -0.005758923
000060 13 e7 54 bd 62 79 ca 3c 56 e0 73 3d fa 88 e7 3c
       -0.051978182 0.024716083 0.059540115 0.028263558
000070 2d e5 07 3d f8 0e 00 bd 63 0e 2b bd c4 d7 b7 bd
       0.033177543 -0.031264275 -0.041761767 -0.08976701
000080 9b b7 b4 bd 29 e7 84 bb e8 cd 92 bd f4 97 06 bd
       -0.088240825 -0.0040558768 -0.0716818 -0.032859758
000090 ba 5e f2 bc 3b 70 a2 ba e5 b5 3d bd 55 18 1b 3d
       -0.029586185 -0.0012393066 -0.046316046 0.037865
0000a0 e5 46 a9 3c e8 d3 48 bd bd 89 26 bd 1b e7 5d 3d
       0.020663688 -0.049030215 -0.0406587 0.054175477
0000b0 a7 a2 8d 3d 86 b6 77 bd a3 57 67 bd 65 3e 9b bb
       0.06915789 -0.060476802 -0.05648006 -0.0047376626
0000c0 40 2f 80 bc 80 d2 b4 bb ee d5 b9 bd 7c fa 3c 3d
       -0.01564753 -0.0055182576 -0.09074007 0.046137318
0000d0 a9 45 8a 3d 77 31 8e bb 65 b7 61 bd 7e 49 ae 3d
       0.06751568 -0.0043393928 -0.05510654 0.08510111
0000e0 12 40 3b bd 4f 91 64 bd 64 66 11 3c 25 47 37 bd
       -0.0457154 -0.05580264 0.0088745095 -0.044745583
0000f0 c9 aa 8c bd 2e 74 d5 bd 2a 27 ca bd 55 da b0 bd
       -0.06868512 -0.1042255 -0.09870751 -0.086353935
000100 1f 7c 18 bd a3 ee 8a bd af 84 8f bd 79 e3 c2 bd
       -0.037227746 -0.067837976 -0.07007729 -0.09516043
000110 06 b2 ad bc 75 14 a9 bd 47 23 2e 3d 33 bb 7c bd
       -0.021203052 -0.08255855 0.04251411 -0.061701965
000120 27 f6 c0 bd b0 e6 9c bd 04 5c 85 3d 09 ed 63 3d
       -0.0942195 -0.07661188 0.06511691 0.055645976
000130 7f ec 4e 3d 60 dd a6 bd 40 b4 8d 3d 1c ce 5a bd
       0.05051851 -0.08147693 0.069191456 -0.053419217
000140 82 76 97 3d 2d de 60 3d 02 74 76 3d d4 14 c0 bc
       0.073956504 0.054899383 0.060169227 -0.023447432
000150 68 29 d6 bc 03 15 54 bd 8c 3b 3e 3d 8b 29 d9 3c
       -0.02614279 -0.05177785 0.046443507 0.026509067
000160 13 c2 51 bd 07 de b4 bd b0 ed 6f 3d ed 25 07 bd
       -0.051210474 -0.08831411 0.058576286 -0.032995153
000170 7f b6 b5 3d 65 84 a9 3d 97 4e 1f bc 08 88 8c bd
       0.08872699 0.082772054 -0.009723327 -0.068618834
000180 2d 45 2f bd 14 a6 44 bd 20 5e 6c 3d 5d da 9c 3c
       -0.04279058 -0.048009947 0.057706952 0.019147092
000190 5f 85 1f bb 02 7a 95 bd 43 b6 3a 3d d7 72 ae 3c
       -0.002434097 -0.07298662 0.045583975 0.021294994
0001a0 c2 28 34 3d bf 3c 57 3d 87 ef b2 bc d5 ec da 3b
       0.043984182 0.052548166 -0.021842731 0.0066810646
0001b0 7b e7 68 bd 1d 46 46 3c 24 f9 50 bd 5a 63 f9 bc
       -0.056861382 0.012101677 -0.05101885 -0.030442882
0001c0 6c db 31 bd 7b 14 13 bd 80 a1 98 bd d3 fc 79 3d
       -0.043422148 -0.035908204 -0.07452679 0.061032128
0001d0 a9 65 de 3c 7a ba 9f 3c 23 b6 df 3c 69 c9 79 3c
       0.027148085 0.019498099 0.02730853 0.015245774
0001e0 4c b2 da bb 10 ae 9e bd 55 71 2f bc 9f f9 e4 bd
       -0.0066740867 -0.077480435 -0.010708173 -0.11180424
0001f0 d0 dc 22 bd 5d c1 3c bc c2 a8 80 3d e0 a5 89 bd
       -0.039761364 -0.011520711 0.06282188 -0.06721091
000200 d5 4c 66 3c 2f ec 21 bd 89 92 ee bd 4d 1f c2 bd
       0.014056404 -0.039531883 -0.11649043 -0.094786264
000210 4d b2 dd bd 13 bd 5f bd d5 a3 86 bd c3 2a 73 3d
       -0.10825024 -0.054623675 -0.06574217 0.059366953
000220 81 c5 b9 bd 03 6b ab bd f7 ff 3a bb 69 48 ad bd
       -0.09070874 -0.0837002 -0.0028533915 -0.08461077
000230 c0 66 99 bd b5 76 30 3d 93 1c 08 bd 47 37 81 bd
       -0.07490301 0.043081958 -0.033230375 -0.063093714
000240 3c 60 92 bd e4 42 c6 bd 58 20 57 bc 65 c3 87 bd
       -0.071472615 -0.09680727 -0.01313027 -0.066290654
000250 76 68 07 be bb e3 5b 3d 17 90 a8 bd 96 c7 92 bd
       -0.13223442 0.053683978 -0.08230608 -0.07166974
000260 99 b8 3d 3d c0 e2 42 bd e0 f2 80 bd ce f8 a0 bd
       0.046318624 -0.047579527 -0.06296325 -0.07859956
000270 bd da 73 3c 66 a2 42 bd 6f df 20 bc 24 b5 a9 bd
       0.014883694 -0.047518156 -0.009818896 -0.08286503
000280 18 26 0e be ac 6c e6 bb 92 81 e1 bc 37 6a 39 bc
       -0.13881719 -0.0070319977 -0.027527604 -0.0113168275
000290 1c 42 4b 3d 5e 14 9c 3c 4f 0e c7 bc c6 8b 26 3d
       0.049623594 0.01905268 -0.024298815 0.040660642
0002a0 1a 14 58 bd 88 65 67 3d 0b ad 1f bd 49 be 39 3d
       -0.052753545 0.056493312 -0.038983386 0.045347486
0002b0 03 e3 93 bc fb 59 ea 3c 0f df db bd 71 8f bb 3d
       -0.018052584 0.02860736 -0.107359044 0.09158219
0002c0 08 02 9e 3c ec e3 e9 bd be 31 41 3d 62 f8 c6 3c
       0.019288078 -0.11420426 0.04716658 0.02428836
0002d0 f6 36 cd 3b fd f0 4a bd 23 b8 a8 bd 31 8b a6 3d
       0.0062626554 -0.04954623 -0.08238246 0.081320174
0002e0 70 6a 43 3d b4 ed 44 3d c9 45 83 3b fa 02 0c bd
       0.04770893 0.048078254 0.004006122 -0.034182526
0002f0 74 19 8a 3d b0 b6 5e bd 60 63 5b bd fb 61 ae 3d
       0.06743136 -0.054373443 -0.05356157 0.08514782
000300 b2 bc 18 3d 13 1a 9a 3c 02 86 f3 bd f1 99 9a 3c
       0.03728933 0.018811261 -0.11890794 0.018872233
000310 06 55 ca bd 9a 55 90 3c 38 a5 01 3d 81 e8 a1 bd
       -0.09879498 0.017618943 0.031651706 -0.07905675
000320 ac db 0c 3d ff 26 c5 bd e5 c9 9a 3d 1f 71 93 3b
       0.034389183 -0.096265785 0.075580396 0.004499569
000330 e2 72 2a 3d bd b7 81 bc 66 1e c7 bd 58 55 0e bd
       0.041613467 -0.015834684 -0.09722595 -0.03474936
000340 3e 94 2d bc c2 da fa 3c 26 a5 a0 3c 3b 34 ac 3d
       -0.010594426 0.03062189 0.019609999 0.084084
000350 cb 50 57 bd c5 72 c5 3c ef d6 ff 3b 24 87 ab 3c
       -0.052567285 0.024102578 0.0078076045 0.020938464
000360 3a 8a 0a bd ba 9d ec 3c c4 71 e7 bd 4a ed 31 3d
       -0.03382323 0.028883804 -0.11300996 0.043439187
000370 54 69 54 3c 20 c2 0d bd 87 1b 97 bd 05 59 d0 bd
       0.012964565 -0.03460896 -0.07378297 -0.10173229
000380 d4 f7 d0 3c e3 88 b1 3d a1 b5 b1 3a d0 b7 a8 bd
       0.025508799 0.08668687 0.0013558158 -0.082381845
000390 06 47 a0 bd 64 bf 94 3d 1d bf 83 bd 61 fa 00 bd
       -0.07826047 0.07263067 -0.06432936 -0.03148878
0003a0 43 17 44 bc e1 a0 99 bd 41 8b 61 bd 0e ad 08 3c
       -0.011968437 -0.07501388 -0.055064443 0.008342041
0003b0 ee 52 80 bd f6 54 f0 bc 2a d5 9c bd 46 61 2e 3d
       -0.062658176 -0.029337388 -0.07657845 0.042573236
0003c0 a0 5d f2 bc c6 ef 26 bd 33 fa cf bd 5a e6 d8 3b
       -0.02958566 -0.04075601 -0.101551436 0.006619257
0003d0 63 40 1c 3d af d2 d7 bd 6e a3 7e 39 0a 42 1a 3d
       0.03814734 -0.105382316 0.0002428421 0.037660636
0003e0 21 d9 fb 3b 4c 76 c4 3c f9 91 f1 3b b2 83 31 bd
       0.007685796 0.02398219 0.0073721376 -0.043338485
0003f0 ca 30 af 3c 5e d1 70 bd 85 76 d9 bd 7a f9 70 3d
       0.02138557 -0.058793418 -0.10618309 0.05883167

model.model.6.bias f4 [128]
000000 37 a8 0f bd 36 0f 28 3d f1 d9 ce bd 65 d2 cc 3c
       -0.03507253 0.04103013 -0.10100163 0.025002668
000010 32 69 28 3c d7 27 56 bd 18 25 0a be b0 6a f1 bc
       0.010278987 -0.052284088 -0.13490713 -0.029469818
000020 c6 02 59 3d 31 39 ec bd 8b d0 b9 bc 69 f8 31 3d
       0.05298116 -0.11534346 -0.022682449 0.043449793
000030 92 12 67 3c 82 50 ac bd 3f b8 2d bc bf c3 bb bd
       0.014103549 -0.08413793 -0.01060301 -0.09168195
000040 cf f3 89 3d 72 58 77 bc 3d b5 bf bd fa 00 c9 bd
       0.06735956 -0.015096771 -0.0936074 -0.098146394
000050 1a 08 c5 bc ae 24 b3 bc 64 df 0a 3e f7 55 19 3e
       -0.024051715 -0.021868076 0.1356178 0.14974199
000060 0d 2a e5 3b 73 03 91 bd e3 1e 94 bd 87 fe 70 bd
       0.0069935382 -0.07080736 -0.07232454 -0.058836486
000070 67 5f dd 3c de a9 ac 3c b1 d7 b8 bc ee 69 f0 3b
       0.02702303 0.021077093 -0.022563787 0.0073368466
000080 ad 21 30 bb 48 ab 09 bd 5d 63 8d bd 5e 56 c0 3b
       -0.002687554 -0.033610612 -0.06903718 0.005869671
000090 06 bc 86 3c da 3c a3 bb 72 ae f0 3c 2f bf 11 3d
       0.016447078 -0.0049816193 0.029380057 0.035582718
0000a0 cf 97 52 bd 6d 74 35 bb 2b fa 10 bd b0 8c 7c 3c
       -0.051414307 -0.0027687803 -0.03539483 0.015414402
0000b0 6e 8f 5f bd f2 b5 50 3d 04 2e 4e 3d fe 3c ec bc
       -0.054580145 0.050954767 0.050336853 -0.028837677
0000c0 bb 4e 0d bd 1a 50 80 bd a7 df b8 bc 83 af e1 bb
       -0.03449891 -0.06265278 -0.022567583 -0.0068873777
0000d0 86 69 59 3d 6d c4 07 3e 51 e9 4e bd ad 9a 90 bd
       0.05307915 0.13258524 -0.050515477 -0.07060752
0000e0 10 b2 13 3d a3 0e f5 3d 5f 51 d6 bb c9 bd 5a bd
       0.036058486 0.11965682 -0.006540462 -0.05340365
0000f0 d5 3b a8 3b 8c 09 58 bc 6f 18 c2 bd 8e 0e 09 bd
       0.0051340857 -0.01318587 -0.094773166 -0.033461146
000100 89 54 67 3d 9a 42 7b bc db 1a a4 bc 7b 45 ca bd
       0.056477103 -0.015335703 -0.020032337 -0.098765336
000110 97 2b 51 3d 84 e3 87 bd e1 51 9b 3d d5 01 fb bc
       0.05106696 -0.06635192 0.075839765 -0.030640522
000120 50 16 21 bd de 6c df 3b 03 e4 ab 3c 4c 86 dd bd
       -0.03932792 0.006818398 0.020982748 -0.10816631
000130 36 96 df bd a3 73 21 bd 90 92 29 be 68 9c 97 bc
       -0.10917322 -0.03941692 -0.16559815 -0.018507197
000140 0c 59 a7 ba 3c 1a 8b 3d ec 1c d7 bd 1b e5 44 bd
       -0.0012767627 0.06792113 -0.10503563 -0.048070055
000150 8f ea 83 b9 e2 b9 95 bd 3e 2b 96 3d 75 6b bd bd
       -0.00025161027 -0.07310845 0.073324665 -0.092490114
000160 4f 1f b2 bd 43 70 02 bc bf 8a ff 3d 09 92 94 3d
       -0.08697378 -0.007961336 0.124776356 0.072544165
000170 93 f1 96 bc f6 bd 22 3d 46 38 11 3e 14 1b 2d bd
       -0.018425738 0.039731942 0.14181623 -0.04226215
000180 30 40 94 3d 5b 41 8b bd e5 be ed bd 36 e9 a4 3d
       0.07238805 -0.06799575 -0.11608676 0.08052294
000190 5f 12 86 bd 23 5d 94 bd b7 86 b7 bd 5e 10 b4 3d
       -0.06546473 -0.07244327 -0.08961242 0.08792184
0001a0 07 a4 dc bd 15 9a f3 3d 1e 90 52 bd ef 9a c4 bd
       -0.10773473 0.11894623 -0.051406972 -0.09599864
0001b0 4c c3 c7 3d af b0 b9 bd f5 a7 8f bd 45 3d 65 3d
       0.09754047 -0.09066903 -0.07014457 0.055966634
0001c0 e0 06 9e bd c6 43 32 3c 43 a2 07 bc 05 7c 7d 3d
       -0.07716155 0.010880416 -0.008278432 0.061885852
0001d0 a4 f8 ba bd f1 c2 71 3d 3a f9 89 bd fe 61 08 be
       -0.09129456 0.0590238 -0.06736989 -0.13318631
0001e0 9a 0c 8b 3c ee e8 b5 3d 1a e9 9b bd 91 d5 ab bb
       0.016973782 0.088823184 -0.0761282 -0.005243965
0001f0 f9 50 1c 3b 31 fc 41 3d 91 70 23 3b f3 8e 22 bd
       0.0023851974 0.04735965 0.002493892 -0.03968711

model.model.8.weight f4 [7, 128]
000000 ee a9 c3 bc 0a 99 fa bc 12 b1 df bd 85 c2 34 3e
       -0.02388474 -0.030590553 -0.10922445 0.17652328
000010 81 6b 0c 3d 94 15 2d bd 6c 64 88 3e 0f d7 53 3d
       0.03428221 -0.042256907 0.26639116 0.051718768
000020 72 c6 c8 3d d3 9e 8e 3d 4d 87 17 3d 4f 87 18 3e
       0.098034754 0.06963887 0.036994267 0.14895366
000030 8a 50 87 3b 5f 1e 5b 3d 82 a0 01 bb 16 d2 6d 3d
       0.004129474 0.05349576 -0.0019779508 0.05806168
000040 23 cb ad 3d 6e 02 c0 3d 94 63 95 bb ec d4 3a 3e
       0.08486011 0.093754634 -0.00455899 0.18245286
000050 9a 9c f3 3c 05 b0 67 3d 4d 98 f3 3e 33 28 db 3d
       0.02973776 0.05656435 0.47577134 0.10701027
000060 f9 8b 94 bd 81 41 c1 3d 10 b6 e1 bb 5b 35 9a 3d
       -0.0725326 0.09436322 -0.0068881586 0.07529708
000070 3b cc 4f 3d d2 d2 eb bc 57 b8 26 3e 8b 07 8c 3d
       0.05073188 -0.02878705 0.16281258 0.06837376
000080 2d e4 97 3d 91 d1 84 3d ad e7 43 bb 38 4d 03 bc
       0.07416568 0.06485284 -0.0029892728 -0.008014016
000090 76 50 1e bc 6d 9d 45 3e ea 19 5b 3c 25 0c e9 3d
       -0.009662738 0.19298334 0.013372878 0.113792695
0000a0 56 d5 10 bc 21 c8 29 bd 27 39 9e 3d 31 83 80 3c
       -0.008839926 -0.041450623 0.07725745 0.015687557
0000b0 8b ff 4d 3d ac a9 5a 3e 31 4c 3a bb b5 85 b8 bb
       0.050292533 0.21353787 -0.0028426761 -0.0056311735
0000c0 64 5f 50 3e f0 d1 d0 3d 48 2d 72 bd d4 11 26 bd
       0.20348889 0.101962924 -0.059125215 -0.040544346
0000d0 76 fe 07 bd 17 f0 b9 3e 7c b0 2f 3c 03 54 8c bc
       -0.033201657 0.36315987 0.0107232295 -0.017129904
0000e0 04 24 80 3e a3 51 0f bc 40 0c 39 3e 8e f0 24 3e
       0.25027478 -0.008747491 0.18071079 0.1610739
0000f0 c2 95 9f bb 36 be b4 3e 5e 95 20 3d 7a 8a 68 3e
       -0.0048701474 0.3530137 0.039204948 0.22709075
000100 6a 6a 7c bd cd 64 68 3e 6c c1 31 3e 20 72 64 bd
       -0.06162492 0.22694702 0.17358941 -0.0557729
000110 69 ce f3 bc 32 66 14 3d c4 00 2f 3e 84 01 f3 3d
       -0.02976151 0.036230274 0.17090136 0.118655235
000120 e5 68 4d bc 39 35 0c 3e 40 0b 24 3d 76 9d b2 3d
       -0.012537216 0.13692178 0.04004979 0.087214395
000130 15 58 7e 3e b0 21 40 3e 08 94 86 b8 e5 a8 b5 3d
       0.24838288 0.18762851 -6.417191e-05 0.08870105
000140 af 52 fa 3c 96 87 50 3e f4 6c bc 3d 88 e9 bc 3c
       0.030557005 0.20364222 0.09200469 0.023060575
000150 6e 6c e9 36 72 65 84 3e a1 36 90 3e 67 2a 83 3d
       6.956564e-06 0.25858647 0.2816668 0.06404572
000160 1e a0 0a 3e fb 83 dd bc 00 8a 0e bd 8e 45 83 bc
       0.13537642 -0.027040472 -0.034799576 -0.016024377
000170 84 1b 21 3e 7e 34 fa 3b 8f 97 9a 3e b4 47 8a 3c
       0.15733153 0.007635652 0.30193755 0.016879894
000180 8e 34 53 3e 0b 81 58 bc b1 32 c3 3d ef b5 f0 3d
       0.20625517 -0.01321436 0.09531153 0.11753451
000190 1c 17 ba 3d 70 49 1f 3c a3 48 64 3c 93 93 b8 38
       0.09086439 0.009722099 0.013933334 8.8012916e-05
0001a0 cc 4b e4 bb da eb 83 3e 36 75 10 3e b4 87 89 3d
       -0.0069670435 0.25765878 0.14107212 0.067153364
0001b0 fb 34 11 3e 58 9f c4 3c ef 42 87 3c 58 6b c1 3d
       0.14180367 0.024001762 0.016511409 0.09444302
0001c0 2b dc 60 3e 40 bc fe 3c 1c 0d a8 3b 96 4a 4f 3c
       0.21958987 0.031095624 0.005128516 0.01265206
0001d0 20 47 cf 3d 12 8e 05 3e 87 10 82 bd 24 6e b4 3d
       0.10120988 0.13042477 -0.063508086 0.0881007
0001e0 29 31 42 3d 35 85 a5 3d f1 c8 12 3e 3b 5e 6e bd
       0.047410164 0.08082048 0.14334466 -0.058195334
0001f0 f4 48 5f 3e 05 01 02 3d 8a 24 38 bd 12 ab db 3d
       0.21805173 0.031739254 -0.04495672 0.107259884
000200 3a fb 81 bd b9 46 94 bd fd 70 6e 3d 74 39 c8 3d
       -0.06346746 -0.07240052 0.058213223 0.09776583
000210 b6 a6 18 3e 76 ab 9a 3c e6 06 fd 3d 66 32 04 bc
       0.14907345 0.018880587 0.123548314 -0.008068657
000220 2a 5b 9a 3e a9 1d d0 3c 34 5c 11 3a de ae 9e 3e
       0.30147678 0.025404768 0.00055450504 0.30992788
000230 2f 17 f6 3d 15 b7 1b 3e 99 f3 03 3e 85 24 10 bd
       0.12016141 0.15206559 0.12885894 -0.035191078
000240 31 55 9b bc cb 03 90 3e 00 ed 3a bc 45 9b 46 3e
       -0.01896152 0.28127894 -0.011409044 0.19395168
000250 fd 8c 33 3d 8c ba 16 3d 9d d8 53 3c 9a 8f bd 3d
       0.04383563 0.036799 0.012930063 0.092559054
000260 56 06 c9 3d c4 31 a0 3d 60 fe 46 3b 27 c7 b8 3d
       0.098156616 0.07821992 0.0030364022 0.0902236
000270 fb 3f 05 3e e1 87 c4 3d 8f ce 3c 3e 6e 72 3f 3d
       0.13012688 0.09596229 0.18438171 0.046739988
000280 9b 9b 8b 3c 2c df 6e bc a0 f4 28 bd e9 43 9d bd
       0.017041972 -0.0145795755 -0.041248918 -0.076789685
000290 23 ab 7c 3d 25 1f fb 3d bb 2c 0c bd a8 6f 03 bd
       0.061686646 0.122618 -0.034222346 -0.032088906
0002a0 f4 a6 91 bc 3c 6e 24 3e 5d cb 5b 3e 10 56 5e 3d
       -0.017779805 0.16057676 0.21464296 0.054281294
0002b0 36 82 7b 3c 3c ab 85 3e 38 21 00 3d a0 cb a7 3d
       0.015350869 0.26107204 0.03128168 0.08193135
0002c0 ba f6 5e 3d eb ad 8d 3d 65 68 8c bd 81 e1 e0 3c
       0.054434516 0.06917938 -0.06855849 0.027451279
0002d0 6a 45 0e 3c e0 5d aa 3d 05 1b 25 3d 2f a1 42 bc
       0.008683542 0.083186865 0.04030897 -0.0118792495
0002e0 7b 6d 16 3e 28 bf 29 3e dc 55 96 bc 8a c9 4a 3e
       0.14690201 0.16576827 -0.018351488 0.19803444
0002f0 37 b2 e5 bc 62 9d 5e 3c f0 df 0d 3d c0 3b a8 3e
       -0.028039081 0.013587328 0.03463739 0.32858086
000300 7c d5 bc 3d 79 92 c5 3d cd 46 d0 3d 9c 82 5c bd
       0.092204064 0.09647078 0.10169754 -0.053835496
000310 95 96 9c 3d 35 37 8e 3d 61 36 a0 3d 4e 77 ba 3d
       0.07645909 0.06944124 0.07822872 0.09104787
000320 09 5e 53 3d 9e 71 90 3e 1a c2 ec 3d 47 5b 8b 3d
       0.05160335 0.28211683 0.115604594 0.06804519
000330 50 51 fa 3d a4 9d 0b 3e 59 c0 21 3d 71 ca 1a 3e
       0.122225404 0.13634354 0.039490078 0.15116288
000340 08 5c ad 3c 6d cb d5 bd 13 9e 5d 3d 07 7c 40 bd
       0.021162048 -0.10439191 0.05410583 -0.04699328
000350 6f 7b a1 3d 4a 32 98 bd 42 e7 87 3e 63 83 ee 3d
       0.07884871 -0.07431467 0.26543623 0.11646154
000360 9d 20 81 3e c4 93 89 bc 5f dd 8b 3d 9e 18 ab 3d
       0.25220194 -0.016794093 0.068293326 0.08354305
000370 0a dc b6 3d a6 ed c8 3d 7a 06 83 3d 3a e1 ac bc
       0.08928688 0.09810953 0.0639772 -0.02110349
000380 d7 ef 40 3e d8 3c b5 3d 4f df a1 3c 98 0c 86 3e
       0.18841492 0.08849496 0.019759802 0.26181483
000390 00 8b 6a 3e 44 18 7e 3d c3 e1 a6 bd a0 64 15 3d
       0.22904587 0.06203486 -0.081485294 0.036472917
0003a0 44 7b dd 3c bd 98 6c 3e 13 0e 23 3e b1 e4 1e 3e
       0.027036317 0.2310514 0.15923338 0.15516926
0003b0 c4 38 7a 3e dc 94 6f 3d ea b9 3d 3d d5 01 02 3e
       0.24435717 0.058491573 0.04631988 0.12696011
0003c0 d4 00 cb 3d a9 f0 7c bd 90 15 a0 3c 82 cf e3 3d
       0.09912267 -0.06175295 0.019541532 0.11123563
0003d0 bf 80 45 bb 77 72 51 3e c3 c6 9a bd 55 b3 4b 3d
       -0.0030136553 0.20453821 -0.07557442 0.04973157
0003e0 2c 8b f7 bc b3 d1 d1 3c 4c ce a3 3e a2 18 35 3c
       -0.03021773 0.025612688 0.3199333 0.011053236
0003f0 5e ed 04 3e f8 09 27 39 16 6d 3e bd c8 59 39 3d
       0.12981173 0.00015930075 -0.04649075 0.045251638

model.model.8.bias f4 [7]
000000 12 a0 ca 3e 01 a0 38 3d 9f 63 e6 bd 6d ef 3e 3d
       0.3957525 0.045074467 -0.1124947 0.046615053
000010 c6 fd f6 3d bd 8f 0d 3e f4 f4 2c 3e
       0.12060122 0.13824363 0.16890317

model_old.model.0.weight f4 [32, 1, 4, 4]
000000 27 1a a2 3d 19 15 d2 be 4d 58 96 be 2d ff 6b be
       0.079151444 -0.4103172 -0.29364243 -0.2304656
000010 a5 18 a9 be 93 b7 8b bb bf 09 06 3e fa 59 16 be
       -0.33026615 -0.004263827 0.13089655 -0.14682761
000020 1f d6 a2 3c 17 5c 99 bd fb 98 f2 bb 46 21 75 be
       0.019877492 -0.07488268 -0.0074034906 -0.23938474
000030 5b 1d 08 3e 73 44 2f 3d d0 6a ad bd 0d 8c 11 be
       0.13292448 0.042789888 -0.084676385 -0.14213581
000040 7e b1 cd 3d da 80 a8 bd f4 97 5d be e9 4e 60 3e
       0.100436196 -0.082277015 -0.21639997 0.21905102
000050 23 1c 01 3e e2 70 38 3d df 30 07 3c cf 55 01 bf
       0.1260839 0.04502953 0.008251398 -0.5052156
000060 71 b6 5a bd 63 3c 46 be 74 85 8f 3c 84 9b b1 be
       -0.053396646 -0.19358973 0.01751969 -0.34688962
000070 5d d7 92 be 4a 8e 1d 3d e2 c4 42 be e1 97 93 be
       -0.28679934 0.038465776 -0.19020417 -0.28826812
000080 f0 53 f3 bd 71 ec 64 bd 58 2a 84 be a9 5b 23 be
       -0.11881244 -0.05588955 -0.25813556 -0.15952934
000090 dc 8e 8a 3e ff a5 62 be f7 a8 23 be bf d1 6c bd
       0.27062118 -0.22133635 -0.15982424 -0.057817217
0000a0 f9 d2 70 3e b7 68 71 be 61 05 a6 bd 99 48 59 be
       0.2351798 -0.23575102 -0.08106495 -0.212191
0000b0 50 a3 a9 bd bd f3 03 bc 39 e2 cf 3d b0 c2 4c 3d
       -0.082831025 -0.008053717 0.101505704 0.049990356
0000c0 9f 79 20 be 44 bb c5 bd e9 5e f8 3d b7 22 a2 be
       -0.15671395 -0.09654859 0.12127478 -0.3166711
0000d0 be 93 91 3d bb 89 78 3e 5c 2b 9c be c9 fd c2 bc
       0.07108258 0.2427129 -0.3050183 -0.023802655
0000e0 30 90 00 3e ee 1b 06 3d de 86 61 be a7 7a b9 be
       0.12555003 0.03274148 -0.22024104 -0.3622639
0000f0 d1 45 5c be d4 36 09 be 43 87 36 be 67 6d 03 3e
       -0.21511008 -0.13399822 -0.17825036 0.12834702
000100 da b1 dc bd ac 5d df bc 2d 0d 8f 3b 08 db 42 3d
       -0.1077611 -0.027266346 0.0043655843 0.047572166
000110 e7 2f 80 be d2 1f 2e be 2b 17 0e be 27 c6 33 be
       -0.25036547 -0.17004326 -0.13876025 -0.17556058
000120 22 82 97 bd 9d da 0a 3e a5 36 9f bd bf 50 9a be
       -0.07397868 0.13559957 -0.077740945 -0.3013973
000130 94 8a 4f be 78 61 18 be 3b 32 6c bd 9d 25 cd bc
       -0.20267707 -0.14880931 -0.05766509 -0.02504235
000140 ea 6e 1f 3e c5 6b 68 bd 00 7d 9b 3d a5 54 47 be
       0.15569654 -0.056743402 0.07592201 -0.19465883
000150 d9 f1 f6 3d 3d 4e 14 3e f8 3d 51 3e 1f a3 6f be
       0.120578475 0.1448297 0.20433795 -0.2340207
000160 39 96 ff be e3 b8 3b 3d f2 ad f2 be e9 ae c9 3d
       -0.49919298 0.04583062 -0.47398335 0.098478146
000170 07 30 d0 bd fd 56 ab bd 6c 0b f9 bd 64 87 c1 bd
       -0.101654105 -0.08366201 -0.12160382 -0.09449652
000180 d9 d7 98 bb 2d d2 38 3e 42 56 62 3c b4 6d 55 be
       -0.004664403 0.18048926 0.013814511 -0.2084263
000190 22 cf 4e be 8e 00 6c bc d1 1a ff 3d dc df 93 be
       -0.20196202 -0.014404429 0.12456287 -0.2888173
0001a0 ae 1d bb 3c b3 43 fc 3c 47 af 36 3d 28 7d 51 be
       0.0228413 0.030794 0.04460075 -0.204579
0001b0 45 d1 4b be 1e 2c 15 be 44 cb 9b 3d 28 9b db bd
       -0.19904049 -0.1456761 0.07607129 -0.10722953
0001c0 8f 45 d5 bc f6 13 a1 bb a9 d3 79 3d 2c 0a 2e be
       -0.026034145 -0.0049157096 0.06099287 -0.16996068
0001d0 80 8e a7 be 2f 26 24 bd e3 bd e0 bd 07 19 85 3e
       -0.32725906 -0.040075477 -0.10973718 0.25995657
0001e0 4e b9 d2 be fc 65 83 be 39 ca 94 be 95 a8 62 bd
       -0.41157 -0.25663745 -0.29060534 -0.055336554
0001f0 79 43 bd bc 17 33 32 bd d4 64 01 bf 83 fe a1 3e
       -0.023103463 -0.043505754 -0.50544477 0.3163949
000200 60 42 0b 3e 9d 2b 8b 3c 37 ce 2e be 67 6b 61 3e
       0.13599539 0.01698857 -0.17070852 0.22013627
000210 06 0a 6e be be a6 2a be 30 d6 f4 3d f3 42 14 be
       -0.23246011 -0.1666517 0.119549155 -0.14478664
000220 6c 69 56 3e 3b 4a e9 3d cd 98 ef be 69 6a c4 be
       0.20938653 0.113911115 -0.46796265 -0.38362435
000230 84 65 88 3d 76 2d d7 3d 81 7b 19 be 1b aa 87 bd
       0.066599876 0.10506718 -0.14988519 -0.06624242
000240 92 46 01 bd 7c 3b a9 be 03 08 39 3c dc db 49 be
       -0.03156144 -0.33053195 0.011293414 -0.19712776
000250 dd c1 ba be 48 25 ec bd fa d9 e0 bd c4 ce 60 3e
       -0.3647603 -0.11530548 -0.10979076 0.21953875
000260 78 a1 92 be f2 f9 21 3d 0f 52 37 be bb ee f6 bc
       -0.28638816 0.039545007 -0.17902397 -0.030143132
000270 34 8c 7a bd ce 37 1b be a8 8a 19 be 59 05 2a 3e
       -0.061168864 -0.15158007 -0.149943 0.16603602
000280 16 82 12 bd 04 4a e7 bd 9d 2b e4 be c6 65 b8 bb
       -0.03576859 -0.11293414 -0.44564524 -0.0056273667
000290 52 57 f3 be 3a e7 a4 bd 87 d2 aa bd f0 16 a9 3d
       -0.47527558 -0.080519155 -0.08340936 0.08256328
0002a0 87 1a 8a be 2e 46 d5 3d 84 3c 90 bc 5c 17 90 be
       -0.26973364 0.10413776 -0.017606981 -0.28142822
0002b0 8a 19 a4 3d 42 90 41 be d5 17 2d 3e c1 ac 07 3e
       0.08012684 -0.18902686 0.16903622 0.13249494
0002c0 4d 26 f9 3d f0 43 b5 bc 3d 54 9e bd 8a 2a e9 be
       0.121655084 -0.022127122 -0.07730911 -0.45540267
0002d0 15 fb 0e be 39 35 35 3d b3 7b 05 3e df 89 8b bd
       -0.13962968 0.04424021 0.13035469 -0.06813406
0002e0 d3 c0 91 3d 99 bd 1e 3e 1e 5f 1d 3c 65 64 8a 3d
       0.071168564 0.15502013 0.009605197 0.0675743
0002f0 aa 2a fc 3d eb f0 08 be 1c b3 80 be d3 04 ab 3c
       0.12312825 -0.13373153 -0.2513665 0.020876324
000300 6a 2f 9f be 5c 76 09 bd 3b a4 07 be c0 fa 27 be
       -0.31090862 -0.033560142 -0.13246243 -0.16404247
000310 51 ac bf be d7 ec 02 bd ae 05 fd 3d a6 4f f1 bd
       -0.37436154 -0.03196415 0.12354599 -0.1178277
000320 68 e8 54 be b5 62 d9 bd 38 6b c6 bd c2 29 1a be
       -0.20791781 -0.1061453 -0.09688419 -0.15054992
000330 10 2c 39 3e 17 d8 8a 3e 4b c2 7a bb b9 78 77 3e
       0.18083215 0.27117988 -0.003826278 0.24167146
000340 02 87 10 3d ad 3b f5 3d c3 dc 1f be 9a 1f 19 3d
       0.035285003 0.11974273 -0.15611558 0.037383653
000350 fb f1 87 3e d4 91 bd 3e da 45 e6 bd e5 84 11 3e
       0.26551804 0.3702532 -0.11243792 0.14210851
000360 28 2b 27 be 48 1b 30 3d 04 b8 af 3e d7 df ea 3d
       -0.16325057 0.042994767 0.3432008 0.11468475
000370 13 e2 95 bd 90 39 f2 be 2c 8e 45 3e ec c4 9f bd
       -0.07318511 -0.47309542 0.19292516 -0.07801232
000380 f3 14 98 3c e7 a4 2c bd 31 04 09 bd e4 be 28 3d
       0.018564677 -0.04214945 -0.033451263 0.041197672
000390 82 62 22 bd 6a 39 ee 3d 3a c3 09 be a9 b7 b4 3e
       -0.039644726 0.116320446 -0.1345338 0.35296372
0003a0 2c 4e 99 be 8c 0d 7b be b2 42 9e bd 23 72 8b be
       -0.29942453 -0.24516886 -0.07727565 -0.27235517
0003b0 44 49 74 be 61 bd 21 bd 39 0c 6d be 59 64 97 be
       -0.23856074 -0.039487246 -0.23149194 -0.29568747
0003c0 3f 4b 98 be 48 d0 45 3d d8 7c e7 3b 56 91 cc 3e
       -0.29744908 0.048294336 0.007064443 0.39954633
0003d0 10 53 a5 be 47 ce 8b 3d 4d 6e 62 3e 8b 8a 23 bf
       -0.32289934 0.06826454 0.22112389 -0.63883275
0003e0 c2 d1 31 bd fa b9 b9 be 8e 76 d2 3e 1c 9f 2d bd
       -0.04341293 -0.362747 0.41106075 -0.042388067
0003f0 4b 80 21 bd 63 92 3e be 4e 06 4d 3e 40 55 75 be
       -0.03942899 -0.1861053 0.20021936 -0.23958302

model_old.model.0.bias f4 [32]
000000 2c 46 39 be 74 0e 10 3d cf e2 03 3d 26 9d 13 be
       -0.18093175 0.035170034 0.032198723 -0.14415416
000010 40 72 fa bd 8f 66 48 be 01 04 99 be 42 2b eb bd
       -0.12228823 -0.19570373 -0.29885867 -0.1148286
000020 bd 20 5e 3d 30 e7 29 3c 57 51 3d 3d 04 a9 62 be
       0.05423044 0.010370061 0.04622015 -0.22134787
000030 a7 97 38 be ce b0 83 be 00 d2 90 be 04 b7 0b be
       -0.18026601 -0.2572083 -0.28285217 -0.13644034
000040 1c d3 bd 3d 9b f1 f9 3c ff 9c 8b be a0 d1 82 be
       0.092687815 0.030510714 -0.27268216 -0.25550556
000050 98 5a f2 3d 59 6c a1 be 4d 4a 9d 3c e8 4b 79 be
       0.11833686 -0.31527975 0.019200468 -0.24345362
000060 96 4a 0d 3e 00 0c f4 bd 6e 21 8d bd 60 7f 37 3b
       0.13797984 -0.11916351 -0.06891142 0.0027999505
000070 49 f6 35 3e 1b 7b 01 be 5a 80 bd be 02 12 b1 be
       0.17769732 -0.12644617 -0.37011987 -0.3458405
