project/paper_notebooks/saved_variables/paper_notebooks/8/7-20epoch_500loop/looping-iteration-125/best_policy_agent2.pth (torch, 320501 bytes, 16 tensors)

model.model.0.weight f4 [128, 42]
000000 5e 65 a5 be da 84 2b bf de f0 87 be dd 5b 9e 3d
       -0.323039 -0.6699959 -0.26550955 0.07732365
000010 9d 02 26 3e 0a ac 3e bd 64 7c c3 be 8b 51 f1 3c
       0.16211934 -0.046550788 -0.3818084 0.029457828
000020 f8 ec 32 be 4d f7 a9 bc 5c 0c 0e be 9f b1 ca bd
       -0.17473209 -0.020747805 -0.13871902 -0.0989716
000030 87 15 86 3e 34 bf b5 bd c8 74 c2 bd a2 63 76 bd
       0.261883 -0.0887436 -0.094949305 -0.06015361
000040 82 b6 48 be e2 6d eb be ec c1 d6 bd 81 ce 2c be
       -0.19600871 -0.4598227 -0.104862064 -0.1687565
000050 8a 96 05 3e ba af 5f bd 2f d2 cc bd a0 c1 cc 3d
       0.13045707 -0.054610945 -0.10001027 0.099978685
000060 c5 3e f2 3d 12 70 93 bd 94 76 0f bf c7 7c bb bd
       0.118283786 -0.0719911 -0.5604031 -0.09154659
000070 94 f1 c2 bd 2a ed bc be d4 4c 20 3d 67 5c 8d 3d
       -0.095187336 -0.36899692 0.03913577 0.0690239
000080 9d ef 01 bd a4 58 47 be 3f a6 76 be bc 3d ab 3b
       -0.031722654 -0.19467407 -0.24086855 0.005225865
000090 6c aa 44 be 28 c7 28 be 38 44 65 3e 87 bd fe 3c
       -0.19205636 -0.16482222 0.22389305 0.031096233
0000a0 2d 6c fb bd 96 7a 95 be fd d9 e3 ba bd 70 b4 bd
       -0.12276492 -0.29195088 -0.0017383691 -0.088105656
0000b0 35 92 13 3c 2e 38 b3 be 3b 63 1f be 0a 0e a5 be
       0.009007026 -0.350038 -0.15565197 -0.32237273
0000c0 62 d9 aa 3d 1b 9a 8d be db 3b 8c 3e ef 44 b0 be
       0.08342244 -0.27656636 0.27389416 -0.34427592
0000d0 67 c4 d2 bb 8d 1b 02 3d f9 81 4e 3e cc 4c c1 3d
       -0.0064321044 0.031764556 0.20166768 0.09438476
0000e0 7e 47 3b be cb 9b 7f 3e 77 4b 4b be d9 a2 ac be
       -0.18288991 0.24961774 -0.19853006 -0.33717993
0000f0 57 09 41 3d 0d 9c bf 3e 39 7b b1 be 28 85 af bd
       0.047128048 0.37423745 -0.34664324 -0.085703194
000100 e4 f0 49 be 28 4f 4a bd c9 b7 0d bd 9c 2c a1 bb
       -0.19720799 -0.049391896 -0.0345991 -0.004918648
000110 26 ea a9 be 35 51 3d be 75 2f fc bd 0c f3 9a be
       -0.33186454 -0.1848801 -0.12313739 -0.30263555
000120 62 27 f2 bd 8b a4 1f be b6 50 9c 3d ff b7 2d be
       -0.11823918 -0.15590112 0.07632582 -0.1696472
000130 6c 5f 53 be 6e fb b0 bd a1 87 9e be f1 ff 5c 3d
       -0.2064187 -0.086417064 -0.30962852 0.053955022
000140 72 13 44 be 3b 7a 67 bc bf 19 af bd 87 34 85 bd
       -0.19148043 -0.014128263 -0.085498326 -0.065041594
000150 a1 89 31 be b0 99 a5 bb f2 62 a6 be d2 32 e9 3d
       -0.17337658 -0.0050537214 -0.32497364 0.11386646
000160 ae ff c2 bd f6 8a 7b bd 67 b6 5d be 88 ee f2 3d
       -0.09521423 -0.06141182 -0.21651612 0.118619025
000170 61 30 4b bb 7c db 5b be 86 94 5d 3e b0 c7 13 bd
       -0.0031004178 -0.21470445 0.21638688 -0.03607911
000180 90 4b 2c bc 30 dd 9c bb 46 47 76 3e d3 d3 89 bd
       -0.010516062 -0.00478711 0.24050626 -0.067298554
000190 3b 92 fa bd c8 52 68 3e 3e 6d 7e bd 28 24 29 3d
       -0.122349225 0.22687829 -0.0621159 0.041294247
0001a0 05 3e 40 3e 65 f2 5d 3d cd 3d 96 3e aa a6 6b be
       0.18773659 0.054186244 0.29344025 -0.23012796
0001b0 43 ef 09 3f a3 3f 29 bd b0 fd be bc 61 df 09 bf
       0.5388071 -0.041320454 -0.023314327 -0.53856474
0001c0 17 4d 7a be 9c 15 73 3e 0b a5 75 be 02 08 cc 3e
       -0.2444347 0.23738712 -0.2398874 0.3984986
0001d0 74 be bf bd bf 42 29 3e 34 c5 94 be 29 1b 47 be
       -0.09362498 0.16529368 -0.29056704 -0.19443955
0001e0 fe 72 0c be e2 db 3f be 9e 39 11 3e 47 17 33 3e
       -0.13715741 -0.18736222 0.14182135 0.17489348
0001f0 f1 25 77 be d3 28 be 3d e3 d2 ce 3d 8d 24 5a be
       -0.24135567 0.0928513 0.10098817 -0.21303006
000200 d7 e9 fa 3d 70 5a 82 3d 82 b2 0f 3e 52 11 76 3d
       0.12251633 0.06364906 0.14032939 0.06007511
000210 6e 34 25 3e 9d 8a 71 3e ff 94 b9 bc e6 63 7c be
       0.16133282 0.23588033 -0.022654055 -0.24647483
000220 2d 1f 3c 3e 7a a5 95 3d 84 11 5f 3e 55 f1 2d 3d
       0.18371268 0.07306953 0.21784025 0.04246648
000230 c5 2a 05 3e 21 e6 5b bd ba 77 c1 be f0 2a 96 be
       0.13004597 -0.053686265 -0.37786657 -0.29329634
000240 4b 68 13 3e e1 88 70 bd 70 6d 09 be 6c f9 94 be
       0.14395253 -0.058724288 -0.13420653 -0.29096544
000250 3e b3 68 3d bd fa b8 bd c7 1a d0 be ee 05 17 bd
       0.056811564 -0.090321995 -0.4064543 -0.03687089
000260 77 9f 88 3d a3 15 71 be 08 79 d3 be df a5 67 be
       0.066710405 -0.2354341 -0.41303277 -0.22621869
000270 20 df 95 3d b1 0d 3b be a8 74 0b 3d 21 43 39 3e
       0.07317948 -0.18266942 0.0340468 0.18092014
000280 51 0f 95 be cc 68 8a bc 6f 43 1c be 2a 08 9e 3d
       -0.29113248 -0.016895674 -0.15260099 0.07716401
000290 27 16 f8 be 06 b6 93 3c 79 b2 a4 3e af 18 d1 be
       -0.484544 0.018031131 0.32167414 -0.40839145
0002a0 1a e4 3a be 03 00 75 be 6c 64 a8 be ed dd 5c 3b
       -0.18251076 -0.23925786 -0.32889116 0.0033701614
0002b0 34 92 08 bd aa 39 7d bd e1 ee 64 3e c7 94 c1 bd
       -0.033342555 -0.06182257 0.2235675 -0.09452205
0002c0 66 a5 54 3c 06 df 2b 3e 47 a2 ca 3c 30 db 3e 3c
       0.012978887 0.16784295 0.024735583 0.011648938
0002d0 e9 8f 7d be 5d da 03 3d c9 61 ac 3d d1 9b 41 3e
       -0.24761929 0.03219067 0.084170885 0.18907095
0002e0 03 5d fe 3e 2c 0d 33 3f b8 54 88 3e 07 cd ac 3c
       0.49680337 0.69941974 0.26627135 0.021093858
0002f0 dd 98 98 be 4d 17 11 3e 50 2c 0e be e4 7d 23 3c
       -0.29804125 0.14169045 -0.13884091 0.009978745
000300 9a 5c 9b be f2 b5 86 3c f7 2f a4 bd 99 69 40 3f
       -0.30344087 0.01644418 -0.08016961 0.7516113
000310 15 f9 5a 3e de 6f f6 3d af d1 8b 3d 18 f6 f8 be
       0.2138408 0.12033056 0.06827103 -0.48625255
000320 e3 c7 ae bc 68 a0 90 be b3 b1 20 3f 6b 2e eb 3e
       -0.021335548 -0.2824738 0.6277115 0.45933852
000330 a5 4a 52 3e ef e8 15 be c1 ff b1 be c8 fe a3 bc
       0.20536287 -0.14639638 -0.34765437 -0.02001895
000340 09 a5 2b bd fe c6 49 3e 2d d0 bc bd 0a c1 69 3d
       -0.041905437 0.19704816 -0.09219394 0.057068862
000350 7d 64 34 be 7d a2 43 be 1d 51 07 3d c1 f4 15 be
       -0.17616458 -0.19104953 0.03303634 -0.14644147
000360 9c 2a 3c be 30 05 a3 bc c2 99 d4 3b ca 72 d6 bd
       -0.18375629 -0.019899935 0.006488056 -0.10471113
000370 54 0e 70 be ae be 87 bd 0b 57 21 be 79 5e 02 be
       -0.23442966 -0.06628166 -0.1575586 -0.12731351
000380 a8 f7 56 be 71 f9 da bd 9c 82 13 3a 7d 4e c8 3d
       -0.20992911 -0.106921084 0.00056270673 0.097805955
000390 53 80 9d 3d e0 2f 20 3c 8a f8 16 be c8 89 6a 3d
       0.076904915 0.009777039 -0.14743248 0.057260305
0003a0 d3 f4 f4 bc b2 de 58 3c 3b a0 96 3d 74 7a 25 3d
       -0.029901898 0.013236688 0.0735478 0.040399984
0003b0 98 ff 9e bc 62 04 4e 3d 59 a2 9e 3d da 4d 50 ba
       -0.019408986 0.05029715 0.07745809 -0.0007946171
0003c0 3d 5d f7 3d 65 d4 03 3d 9a 65 60 3c 5c c0 80 3d
       0.12078331 0.032184977 0.013696099 0.0628669
0003d0 57 00 24 be 18 17 79 3d 63 cb 91 bd 30 fe 06 bd
       -0.16015755 0.06081304 -0.07118871 -0.032957256
0003e0 93 a0 55 3d dd 4a 16 be ce 9a c6 3d 6c 42 01 be
       0.05215509 -0.14676996 0.096974954 -0.12622994
0003f0 9e 83 84 bd d0 ca ef bd 9f 2d 62 bd 19 ea 50 be
       -0.064704165 -0.11708605 -0.05521929 -0.20401801

model.model.0.bias f4 [128]
000000 b8 25 18 bd 9d 68 cd 3d 75 23 19 bd 19 a1 8c 3e
       -0.037145346 0.10029719 -0.03738733 0.27466658
000010 4f 70 55 be d2 96 90 be c1 d5 91 3d f3 e1 ac 3e
       -0.20843624 -0.28240067 0.071208484 0.33766136
000020 8a 6f 0f 3e 4b 95 16 be a6 e7 ae be c3 d7 2c 3e
       0.14007393 -0.14705388 -0.3416111 0.16879182
000030 0f fa 76 3d e7 f6 91 be 7e 3b 83 bd 19 75 06 be
       0.06029707 -0.28508684 -0.064078316 -0.13130607
000040 a1 50 89 3e fd b7 66 3e 37 00 15 bb f4 9b e4 3d
       0.26819327 0.22531123 -0.0022735724 0.11162558
000050 94 2d 16 3e 77 d3 92 3d 4f dd be bd 55 ce 08 be
       0.14665824 0.0716924 -0.09319555 -0.1335996
000060 25 1f 1d be 39 4a 59 3d 71 4f 93 3e e4 83 5d be
       -0.15343912 0.0530493 0.28771546 -0.21632344
000070 8c 17 cf 3e 6d a3 1c 3d 12 38 19 3d 83 dc d0 3d
       0.40447652 0.038241792 0.03740699 0.10198309
000080 62 43 8a 3d 59 a4 05 3c 29 21 36 3d 63 0c 9c 3e
       0.067511335 0.008156859 0.044465218 0.304782
000090 8a ed 65 be 50 51 27 be 5b 78 7a 3d 1c 31 68 3d
       -0.22453895 -0.16339612 0.061149936 0.05668746
0000a0 a3 47 98 3e e0 a1 85 3d 81 ea 38 3e e0 65 9d 3d
       0.29742154 0.06525016 0.18058206 0.07685447
0000b0 2f 03 8f 3e 9e 3b 99 3e 6d ad 28 3e 71 83 2d be
       0.27932116 0.29928297 0.16472407 -0.16944672
0000c0 3a 73 ad 3d ad f3 b0 bd a9 80 b8 be 36 64 3e 3e
       0.08469243 -0.086402275 -0.3603566 0.18592915
0000d0 f5 fa ac 3e 56 f7 82 3d f0 30 16 3e ea e8 94 bc
       0.33785215 0.06394832 0.14667106 -0.018177468
0000e0 c9 bf 8a 3e fd 04 42 3e ee 2b 21 3d c6 bf 4e be
       0.27099445 0.18947215 0.039348535 -0.20190343
0000f0 61 3c 9a bc 3b b1 a6 3d a4 77 bc be e2 e9 01 bd
       -0.018827619 0.08139273 -0.3681003 -0.03171719
000100 c5 b1 3f 3e 49 72 e9 be ec 29 37 bd 86 36 91 3e
       0.18720157 -0.45595005 -0.044717714 0.2836191
000110 d1 c3 27 be 1d 58 7c bd 33 6e bf 3d d3 65 dc be
       -0.16383292 -0.06160747 0.09347191 -0.43046436
000120 c7 9f 44 bd fc cf 4e be ea 90 31 be fa df 12 be
       -0.048003938 -0.20196527 -0.17340437 -0.14343253
000130 cd 59 8e 3e 2c 51 f6 bc 99 87 9d 3e a7 5b ce bd
       0.27802888 -0.030068003 0.30767515 -0.10076075
000140 b6 d3 33 3e 35 cf fe 3e 06 bf 86 3e 22 c2 fa 3d
       0.1756123 0.4976746 0.26317614 0.12244059
000150 15 8b 1a 3e 80 43 cf 3c 08 28 ac bd 28 d3 2e bd
       0.15092118 0.025300741 -0.08406073 -0.042681843
000160 c2 09 0a be 33 df 1f 3e 62 59 38 be 2d 97 d0 3d
       -0.13480285 0.15612487 -0.18002847 0.101850845
000170 3a 79 30 3e 1b a6 e0 3c 88 52 2c bd 8d f5 48 be
       0.17233744 0.027422955 -0.042070895 -0.1962492
000180 47 ab 49 3e 12 e1 a0 bc 46 1b 52 3d 7b 29 77 be
       0.19694243 -0.019638572 0.05129554 -0.24136917
000190 52 e4 7f be f6 47 a1 3e 18 09 f4 bd 62 45 21 3e
       -0.24989441 0.31500214 -0.11915797 0.15749124
0001a0 fb 16 ba 3e 13 ce 5c 3e 5f 5a a2 3d e8 d7 0c 3e
       0.36345658 0.21562986 0.07927393 0.13754237
0001b0 9f f2 45 3e 9c f7 fd 3d 6c 5a fa 3d 9b 63 df bd
       0.19330834 0.12400743 0.12224278 -0.1090767
0001c0 18 58 0a bd 80 29 8c 3e b3 c2 e8 bd 5f 8f fd 3d
       -0.03377542 0.27375412 -0.11365261 0.123808615
0001d0 b3 43 80 bc 77 ed 94 3d 2f 58 97 3d 43 f4 94 3b
       -0.015657282 0.07271855 0.073898666 0.00454572
0001e0 39 15 9d 3e a1 b0 48 be a9 0e b2 3d c6 e8 0e be
       0.30680254 -0.19598629 0.086942025 -0.13955984
0001f0 07 7f e4 bc aa 71 b7 3c 73 c7 af 3e ba ee 1b 3e
       -0.027892603 0.022393066 0.34331855 0.15227786

model.model.2.weight f4 [128, 128]
000000 94 9e c4 bd 86 6b 6f bd 3e 10 aa bd 0e d0 0c be
       -0.09600559 -0.05845215 -0.08303879 -0.13751242
000010 c7 09 14 bd f7 ea fe 3c e6 d9 70 bd 86 1c 4d 3d
       -0.036142137 0.0311179 -0.058801554 0.05007603
000020 c4 b6 8c be 39 33 c7 3d a7 4e d7 bd 64 69 ff bd
       -0.2748319 0.09726567 -0.105130486 -0.124712735
000030 ff b6 13 bd 26 c4 b5 3d ad 41 51 3d 3b b7 d6 bb
       -0.03606319 0.08875303 0.051088024 -0.0065526045
000040 fc 86 82 bd a5 68 01 be 85 95 72 bd a3 95 12 3d
       -0.063734025 -0.12637575 -0.059224624 0.035787236
000050 17 44 21 bd b1 1e 83 bc 21 00 88 3c 0c 8d 60 bd
       -0.039371576 -0.016005846 0.016601624 -0.054822013
000060 53 1e 06 bc c3 17 20 be a0 b0 06 be 8f 5f b4 bd
       -0.008185941 -0.15634064 -0.13153315 -0.08807289
000070 e8 76 02 be 13 12 56 bd a2 49 8b 3b 91 65 26 bd
       -0.12740672 -0.05226333 0.004250721 -0.040624205
000080 ab df 91 3c ec 31 dc 3c e7 52 f8 bc e8 33 3f be
       0.017806849 0.026879273 -0.030312968 -0.18672144
000090 db 95 85 3d 2a 8b 85 bd 8e 80 29 3e 1e 91 05 bd
       0.06522723 -0.06520684 0.16552946 -0.032609098
0000a0 df 3b b1 bd d1 13 3d be c7 92 2f be 0e e2 df bd
       -0.08653998 -0.1846459 -0.17145835 -0.109317884
0000b0 76 47 1b be dc b7 4d be 52 d7 fb bd 91 0d ca bc
       -0.15163979 -0.20089668 -0.122969285 -0.024664672
0000c0 26 f4 98 3c 57 cf 06 3d 80 f5 e7 b9 c0 91 fa bc
       0.018671107 0.03291258 -0.00044242665 -0.030587077
0000d0 2f f4 cc bc 30 dd 86 bb ea 69 cb bd 6d ef ce 3c
       -0.02501878 -0.004115723 -0.09932311 0.025260651
0000e0 03 d8 07 be 72 b8 32 3d ee da c9 bd f2 e2 a2 bd
       -0.13265996 0.043632932 -0.09856211 -0.07953443
0000f0 d2 34 48 bd 8b 11 53 3d 3d b1 55 3d c8 7e 50 bb
       -0.0488785 0.051530402 0.05217098 -0.0031813849
000100 5f c8 10 bd 49 c4 15 bd c1 e5 d1 bd 01 14 c6 3c
       -0.03534734 -0.036564145 -0.102489 0.02417946
000110 fd 3c b5 bd 74 1b cb 3d b0 d9 6b 3c c5 5a 58 3d
       -0.08849523 0.09917346 0.014395162 0.05282094
000120 e7 5e ab bd 61 1d 50 bd 6b a8 88 3c ad 57 af bd
       -0.083677106 -0.050809268 0.01668187 -0.08561645
000130 85 32 84 3d 32 f1 b2 3d ae 39 ab bc 07 63 9e bc
       0.06454948 0.087374106 -0.020901527 -0.01933433
000140 50 e5 ae bd 7c 0c 93 bd 14 cc 1a bc 49 fc 93 3a
       -0.08539832 -0.071801156 -0.00944807 0.0011290397
000150 5c 72 0c 3e cd b8 13 be 32 05 3f bc a7 e7 31 be
       0.137155 -0.14425965 -0.0116589535 -0.17373525
000160 41 47 ae bd b2 c6 b3 bd f3 aa 75 bd ab ae de 3c
       -0.08509684 -0.087781325 -0.059977483 0.027182898
000170 a1 24 4c bd d0 07 88 bc aa 46 02 3e 8b 8e 80 bd
       -0.04983962 -0.016605288 0.12722269 -0.06277188
000180 b9 f6 5b 3d 4f 1d 27 be 92 8b 9e bd 14 74 7c bd
       0.05370209 -0.16319774 -0.07741465 -0.06163414
000190 97 c5 27 be 7c 40 0a bd 27 3e 85 bd 2f 89 e5 3c
       -0.16383968 -0.033752903 -0.06505995 0.028019516
0001a0 fe 61 f5 bd 50 59 77 3d 6e e1 72 bd f0 70 58 bd
       -0.11981581 0.06038791 -0.059297018 -0.05284208
0001b0 86 2f 83 bd 6b c7 20 bc f0 ff 70 bd e5 a7 f5 bd
       -0.06405549 -0.00981317 -0.05883783 -0.11994914
0001c0 6c 16 09 bb 7b b6 bb bd 07 d7 8f bb 2e 7f 7e 3d
       -0.0020917905 -0.09165665 -0.004389647 0.062133007
0001d0 3d 15 c3 bd 7a b2 c4 bd ab d2 e8 3a 40 76 96 bc
       -0.09525535 -0.09604354 0.0017762979 -0.018366933
0001e0 a0 58 34 3d 1c 16 a8 3b 7a d7 ef 3a d2 8e 2a bd
       0.044029832 0.005129589 0.001829847 -0.04164011
0001f0 ce de 0e be 0f 10 e3 3c 7b 0c a6 3d d7 c6 cc bd
       -0.1395218 0.027717618 0.08107849 -0.09998863
000200 43 ae c3 bd 52 0e 16 be 3c 1a 99 bd 2e 0f a6 bd
       -0.09554722 -0.146539 -0.07475707 -0.08108364
000210 33 91 32 be 3e de 0c 3e e0 b4 08 be 14 a5 f1 bb
       -0.17438202 0.13756654 -0.13350248 -0.007374415
000220 84 1d a2 bd 91 93 75 bc 0f 14 23 3b c2 6b 2e 3d
       -0.07915786 -0.014988796 0.0024883782 0.042583235
000230 1a 85 77 3d 52 3a ce 3d 90 b4 d2 3d 2b 86 ef bd
       0.06042967 0.100697175 0.10288346 -0.116955124
000240 5c 33 58 be 28 1f 11 be ca 16 55 be ec d9 13 be
       -0.21113342 -0.14172041 -0.20809475 -0.144386
000250 dc b2 2f be ba 28 22 be 9b 94 33 3e bb 1c 25 be
       -0.17158073 -0.15835848 0.17537157 -0.16124241
000260 5c 12 31 be 45 98 5e be 27 c1 31 be d8 ae 1f 3e
       -0.1729216 -0.21737774 -0.17358838 0.15594041
000270 fe 2d 6f be ae fc 29 bc dc dd ff 3b 64 fa a0 3a
       -0.23357388 -0.010375185 0.00780843 0.0012281653
000280 58 de fe 3d 3f e5 97 bd 9b 30 95 be 8f c2 62 be
       0.124447525 -0.07416772 -0.29138646 -0.2214453
000290 ba 71 71 bb 78 86 33 be 38 8f a4 3d 80 85 ba bd
       -0.0036841468 -0.17531765 0.08035129 -0.09107494
0002a0 68 74 6d be 57 26 81 be 47 12 0d be 02 84 b2 bd
       -0.23188937 -0.25224563 -0.13776504 -0.08716585
0002b0 f1 f7 21 be 76 82 b4 bd e2 63 d3 bd 19 7e b1 bd
       -0.15817238 -0.08813946 -0.103217855 -0.08666629
0002c0 50 0d d5 bd 2b eb 0a 3d 82 56 b0 be e9 e4 86 be
       -0.1040293 0.03391568 -0.34441 -0.2634652
0002d0 75 fd 92 3d 6c 61 c7 bd de 35 85 be eb b7 c1 3d
       0.07177249 -0.097353786 -0.2601766 0.09458908
0002e0 c7 15 1e be 33 ce 65 be 44 3c b8 3d 34 29 2c be
       -0.15437995 -0.2244194 0.0899587 -0.16812593
0002f0 af f1 85 bd d7 84 95 bd 4b 2d 9d 3d f9 22 4a 3b
       -0.06540238 -0.07300728 0.076746546 0.00308436
000300 73 24 53 be c3 a9 c4 3d 65 fb 1a bc e9 45 47 be
       -0.20619373 0.09602692 -0.009459351 -0.19460262
000310 9f a3 05 be 84 d0 33 3e 10 8b 84 bc 48 13 ab 3e
       -0.13050698 0.17560011 -0.016179591 0.33413148
000320 53 ba c6 bd 78 94 5e be 10 d4 8e 3d 5d 14 9b be
       -0.09703507 -0.21736324 0.069740415 -0.30288973
000330 bd 40 a8 3d e9 cf 37 3e 77 b8 71 bd c9 d7 97 3d
       0.08215473 0.17950405 -0.05901381 0.074142046
000340 3a 8f 02 be e4 83 9e 3d 8e 1b c5 bd 5b ea 75 bc
       -0.12749949 0.0774 -0.09624396 -0.015009488
000350 1f 62 3e 3c 3f 76 36 bc 0e 4e 1d 3e 68 f5 14 bd
       0.011620074 -0.0111365905 0.15361807 -0.03636685
000360 c0 43 89 bd b5 be 8d be 8b cf 30 bc d2 a7 88 be
       -0.067023754 -0.2768456 -0.01079167 -0.26690537
000370 08 0f de 3d c8 84 e7 bb db bc 04 3e 56 ad b8 bd
       0.10842711 -0.0070653893 0.12962668 -0.09017436
000380 7a f9 15 3d fb a2 1e bc f0 cb 07 3e b4 a0 e4 bd
       0.036614873 -0.009682412 0.1326139 -0.11163464
000390 68 66 45 bc b2 5f 87 be 79 52 f5 bc a0 58 43 3d
       -0.012048341 -0.26440197 -0.029946553 0.04769194
0003a0 a8 90 74 be 24 96 24 3e de 96 3e be ea 78 3e be
       -0.23883307 0.16072899 -0.18612239 -0.18600813
0003b0 65 0a 8f be ec dc b6 bd 1f a7 b7 bd b6 d4 a7 bd
       -0.27937618 -0.08928856 -0.08967423 -0.08194868
0003c0 39 81 eb bd 7a 8f 3f be 1a 4f 3f be fb 77 f5 bd
       -0.11499257 -0.18707076 -0.18682519 -0.11985775
0003d0 c1 bb d8 bd 59 5e 73 3d 1f de d4 bd e8 f0 77 be
       -0.10582686 0.05941615 -0.10393929 -0.24212992
0003e0 89 70 c7 3d 0b 71 49 3d c6 4b 0a be 49 7c 9f be
       0.09738261 0.04918007 -0.13505468 -0.3114951
0003f0 e0 1d f3 be 48 98 53 bd 07 62 04 bd 11 f7 97 be
       -0.4748373 -0.0516589 -0.03232005 -0.29680684

model.model.2.bias f4 [128]
000000 29 9e 3c 3c 01 83 53 be 33 5d 47 bd 31 a4 ab 3c
       0.011512318 -0.20655443 -0.048672866 0.020952316
000010 10 f0 90 3d 68 5e 96 bd 2f 2e f3 3d ab 98 92 3e
       0.07077038 -0.07342225 0.11874043 0.286321
000020 20 a9 d5 bd da 2f 25 3c 1d 8a 7c bd d0 ff ac bd
       -0.10432649 0.0100822095 -0.061655153 -0.0844723
000030 37 01 85 bd d3 ea 95 bd d0 34 f9 bd ec 15 d7 bd
       -0.06494372 -0.0732018 -0.12168276 -0.10502228
000040 55 6f 3c be 7a 25 83 3c 52 ec ab 3c f9 e4 c3 bc
       -0.18401845 0.016009081 0.02098671 -0.023912894
000050 ff b8 9a 3d 9d 5d 2b 3c 5b 0a 79 3e 83 02 ca bc
       0.075548165 0.010459331 0.24320357 -0.0246594
000060 ff 1e d4 bd 08 e1 c5 3d f4 6a c7 3c e0 58 10 be
       -0.103574745 0.09662062 0.024342991 -0.14096403
000070 e4 a1 27 be 2d eb b6 3d 80 11 26 be 70 57 97 bd
       -0.1637035 0.08931575 -0.16217613 -0.07389724
000080 5e d1 ce bc c5 53 21 be 7f a9 ce 3d 10 a7 a5 3d
       -0.025246318 -0.15754612 0.100909226 0.08088505
000090 c6 2b d5 bd 67 01 f6 3b aa ed 7f bd b2 e5 f5 b9
       -0.1040874 0.0075074914 -0.062482513 -0.00046901178
0000a0 a4 2c b5 bd 5b 92 a4 bd c4 a4 38 be 80 d2 ad bb
       -0.08846405 -0.080357276 -0.18031603 -0.0053046346
0000b0 99 ef 31 3e 12 c3 aa bd 29 87 9f bd 45 34 01 3e
       0.17376556 -0.08337988 -0.07789452 0.12617595
0000c0 fe 04 1d bc 07 b9 93 be 88 d2 83 be be df 97 3d
       -0.00958371 -0.28852102 -0.2574656 0.07415722
0000d0 50 26 97 3c 6e fc 99 ba 48 0d cc bd c0 f6 43 bd
       0.018450886 -0.0011748204 -0.09963471 -0.04784274
0000e0 20 23 de bc fd b9 82 be 4e 2c 2a 3f 04 5d f5 bc
       -0.027116358 -0.25532523 0.66473854 -0.02995158
0000f0 5e 5d 7f 3d b2 3b ea bd 26 47 80 3e ac fd d2 3c
       0.0623449 -0.11437167 0.25054282 0.025755726
000100 a1 66 c1 3c be 43 2b be ef bd 1c 3d 5b af ab 3d
       0.023608508 -0.1672506 0.038267072 0.08383056
000110 0d e3 c7 3d f7 6f 1b be e3 b5 a2 3c 0c b4 33 bd
       0.097601034 -0.1517943 0.019862121 -0.043872878
000120 f0 11 6d bd f8 09 f6 bd 45 b8 bc bd b0 47 9b 3c
       -0.057878435 -0.1201362 -0.09214834 0.018955082
000130 4a cb 0b be a2 05 5b be 52 5f ce bd 67 d3 94 bd
       -0.13651767 -0.21388867 -0.10076775 -0.07266884
000140 70 11 e6 3d d8 bf 35 be f2 8d 8e bd ee 7b 8b bc
       0.11233795 -0.17748964 -0.06960668 -0.017026868
000150 49 aa d8 3c 4a 0f 85 bc a5 4b 65 bc e6 7e 97 bd
       0.026448386 -0.016242642 -0.013995086 -0.07397251
000160 d6 e0 5a bd 5d ee eb bc c5 46 39 bd 46 fa 1e 3d
       -0.053437077 -0.028800184 -0.045233507 0.038812898
000170 15 df 15 bd a1 3b b2 3c 64 78 bc be e1 b9 22 3d
       -0.0365897 0.021756949 -0.368106 0.03972805
000180 8e 27 9f 3b 25 af ed bb dd c6 8b bd 2b 07 8d bd
       0.00485701 -0.007253545 -0.068250395 -0.06886133
000190 37 07 cb bd ef f2 07 3d 1d 85 dd bc 91 f8 18 3e
       -0.099134855 0.033190664 -0.027041012 0.1493857
0001a0 1e 67 b9 3d 6a 58 4e be 1b 52 66 3d ea 64 59 3c
       0.09052871 -0.20150915 0.056230646 0.013268689
0001b0 4b 8c c7 bd 7b 8f bf bd 86 3d 43 bd b5 6f ba bd
       -0.09743556 -0.093535386 -0.047666095 -0.09103338
0001c0 93 92 bb 3c 28 de 4e 3d a2 da 49 ba 1e 91 69 3e
       0.02289704 0.050504833 -0.00077001203 0.22809264
0001d0 2d a4 4f be c1 85 24 be e8 90 07 3d b9 5e 1d bd
       -0.20277472 -0.16066648 0.033097178 -0.038420413
0001e0 09 81 79 bd 60 c5 16 bd e3 f0 da bd 93 83 d0 bc
       -0.060914073 -0.036809325 -0.10690477 -0.025453364
0001f0 bb 32 b6 bd 49 16 a9 bc ff 27 46 bd 20 8f 44 bd
       -0.08896395 -0.02064051 -0.048377987 -0.047988057

model.model.4.weight f4 [128, 128]
000000 3f 0f 69 3d 89 f2 a3 bd 1f 33 3c be c1 7a dc bd
       0.056899305 -0.08005244 -0.18378876 -0.10765601
000010 36 d7 f2 bd 3e b3 29 bd e6 79 26 be 64 f5 4f bc
       -0.118574545 -0.041430704 -0.16257438 -0.012692783
000020 88 08 83 bd ae 2c 8c bd 27 59 a1 bb 2c 82 0e bd
       -0.063981116 -0.068444595 -0.004923958 -0.03479211
000030 a3 66 0f be 7c 67 c9 bc 48 0b 30 bd a3 41 80 bb
       -0.14003997 -0.024585478 -0.04297951 -0.0039140745
000040 9c db e0 3c 3c 5b 97 bc 11 ed db 3d 85 99 ea bc
       0.027448468 -0.018476121 0.10738576 -0.028637657
000050 32 e8 e6 3d 5e 92 9d 3d 70 91 a2 bc 73 1f b8 3c
       0.112747565 0.07693933 -0.01984474 0.022475934
000060 64 d1 b4 bd c8 00 e1 bd 5f b4 21 3d 31 c1 5a 3c
       -0.088290006 -0.10986477 0.039478656 0.0133517245
000070 16 94 45 bd 25 e1 a9 3b f2 a3 b0 3c bc 40 da 3d
       -0.04823693 0.00518431 0.02156255 0.10656878
000080 16 fc e8 3c 5c de e7 bd e4 f6 f9 bd 95 5c 23 3d
       0.028440516 -0.113217086 -0.12205294 0.039883215
000090 74 2e 13 3c c6 27 18 3d f8 81 ea bd 90 06 6e 3c
       0.008983243 0.037147306 -0.11450571 0.014527932
0000a0 c4 e3 a3 bd b9 65 21 bc 26 e3 ad 3c 83 ba 3a bc
       -0.08002427 -0.009850913 0.021226477 -0.011397007
0000b0 3e 82 67 bd 05 05 84 bd 91 c9 82 bc 34 d3 16 be
       -0.056520693 -0.0644627 -0.015965255 -0.14729005
0000c0 e5 4b 69 bc 73 5a 05 bd c5 02 c4 bd 64 63 06 3d
       -0.014239286 -0.032556962 -0.09570841 0.03280963
0000d0 77 c8 58 3d 17 7a 48 bd ba b2 39 be 1c b6 0a 3c
       0.052925553 -0.04894456 -0.18134585 0.00846627
0000e0 5d d2 a0 3d 44 e3 2a bc 8f 25 27 be 73 8d ca bb
       0.078526236 -0.010430161 -0.16322921 -0.006181413
0000f0 0f b8 a3 bd 5a 9e 8a bc 6c c7 b5 bc 54 43 af bb
       -0.07994091 -0.016921211 -0.022189818 -0.0053486023
000100 bc 79 45 3c 47 7d 2a bc 06 97 06 bd 9a ff a9 bd
       0.0120529495 -0.010405845 -0.03285887 -0.08300705
000110 47 9a 88 3d 29 fb 90 bc 1a 44 40 3b d8 99 a9 3c
       0.06670051 -0.017697887 0.0029337467 0.020703241
000120 60 1c fe bc 21 e5 a3 3b 0c 4e e6 bd 3e cf d4 bd
       -0.03101939 0.0050016795 -0.11245355 -0.10391091
000130 75 b2 61 3d 53 ef 6e 3d cd c5 4f 3d e4 22 35 bd
       0.05510183 0.058333706 0.050725747 -0.044222727
000140 1d 89 0b 3d 4d e8 36 3c 89 b0 45 bd 46 44 3b 3d
       0.03406631 0.011163783 -0.04826406 0.045719407
000150 24 da f1 3b 34 4d b9 bc 02 e5 96 3d 02 1b 90 bd
       0.0073807407 -0.022619821 0.073678985 -0.07036401
000160 f2 bd ef bb 53 46 51 bd 31 ae f7 ba 43 77 ed 3b
       -0.0073163444 -0.051092457 -0.0018896518 0.007246883
000170 5d bd ad 3c 58 c4 c4 bd 0a 00 a1 bd ed 74 b9 bd
       0.02120846 -0.09607762 -0.078613356 -0.09055505
000180 69 55 a3 bd d1 c8 d5 3c 86 80 68 3d 92 a2 05 bd
       -0.07975275 0.026096733 0.056763195 -0.032625742
000190 f8 ec dc 3d 21 58 cf bd 33 0c e0 bd 6b e8 1d bd
       0.10787386 -0.10124231 -0.10939827 -0.03855173
0001a0 38 60 c2 bd 96 34 89 bd 40 f2 0d be 83 41 cb 3b
       -0.094910085 -0.06699483 -0.13861942 0.006202878
0001b0 1c bc 0b 3d 97 f7 89 bd 3c fd dc bd 17 28 a0 3d
       0.034114942 -0.06736677 -0.10790488 0.078201465
0001c0 2e 48 a4 3d 4f b7 c3 3c 97 88 a8 bd 63 3f 3b 3c
       0.0802158 0.02389112 -0.082291774 0.011428687
0001d0 5e 8b 02 3d 28 29 60 3d 34 9c de bd d4 62 8a 3d
       0.031871192 0.05472675 -0.10869637 0.06757131
0001e0 74 49 a7 bd c8 03 de bd cd 55 d8 3d 7e 30 56 bd
       -0.08168307 -0.10840565 0.1056324 -0.05229234
0001f0 8a 3d 1a bd 8e d7 68 3b da 19 80 3c 43 92 de 3a
       -0.037656344 0.0035528871 0.015637327 0.0016980845
000200 77 ac 46 bd 78 90 94 bb 34 e3 48 be aa 83 2b bd
       -0.04850432 -0.0045338236 -0.19617921 -0.04187361
000210 21 45 c6 3d 65 4d 64 bd 26 61 af be a8 7d 25 be
       0.09681154 -0.05573787 -0.34253806 -0.16161215
000220 89 50 56 be 86 f8 d2 bc a6 c9 d1 bd 5b e8 80 bc
       -0.20929159 -0.02575327 -0.102435395 -0.015735796
000230 99 75 f0 bd cf 13 73 3b fb 90 c8 3c 04 8e 61 3a
       -0.1174118 0.0037090664 0.024483195 0.0008604231
000240 35 fe f4 3c eb 81 ad bc ef 00 0d 3d 2a 95 c6 bd
       0.029906372 -0.021180114 0.03442472 -0.096964195
000250 83 50 15 bd 30 dc b9 bc aa 63 f0 bd de 3d 51 bd
       -0.036453735 -0.022688001 -0.117377594 -0.05108439
000260 4c 6e c3 3d b0 cf 08 3e be 1d 03 bb 85 df cf 3d
       0.09542522 0.13360476 -0.0020006741 0.10150055
000270 88 4e 3a be a1 37 83 be 14 eb 01 be 1e b7 4b bd
       -0.1819402 -0.2562838 -0.12687331 -0.04973518
000280 8e 42 67 be fd 75 4f 3e 33 2c 94 3d 82 c9 95 3b
       -0.22583982 0.20259853 0.07234993 0.0045711407
000290 fd 93 86 bd b0 4f 7d be 7f fc c8 bd 8d 17 86 3d
       -0.06571195 -0.2473743 -0.09813785 0.06547461
0002a0 91 f1 ce 3c 6e 51 b4 bd f9 f1 44 3d 64 89 10 bd
       0.025261672 -0.08804594 0.048082326 -0.035287276
0002b0 f0 be 40 bd ea cc 8c bd b8 1e 05 be e7 55 04 be
       -0.047057092 -0.06875022 -0.13 -0.12923394
0002c0 19 08 09 bb c7 a3 35 3d 7b b8 22 be 01 4f 08 bd
       -0.0020909368 0.044345643 -0.15890686 -0.03327847
0002d0 56 f4 5c 3d 42 d5 6b be b6 2b 22 bc ee 54 3d be
       0.053943954 -0.2303057 -0.009898117 -0.1848943
0002e0 a4 c0 cc bd fb c5 bb bd a1 67 e7 bd 3b a5 13 be
       -0.09997681 -0.09168621 -0.112990625 -0.14418499
0002f0 be 3e 0a be fc cb 2e 3c ee 5a d4 3d 6f bb ef 3c
       -0.13500497 0.010668751 0.10368906 0.02926418
000300 ca 75 61 bd 87 73 6c 3d c1 79 79 3d 23 35 93 bd
       -0.055043973 0.057727363 0.06090713 -0.071878694
000310 42 ae 1f be 15 8d 44 bc 7c 39 d9 3e 54 b3 d7 3c
       -0.15593818 -0.011996527 0.4242667 0.026330628
000320 ef 6e 3a 3d 77 39 69 be c8 e3 e9 bb 70 8f d6 3c
       0.04551595 -0.22775827 -0.0071377493 0.026191443
000330 89 ce 72 be 80 87 e3 3d b9 ef 22 bd 2a 9e 8a bb
       -0.237116 0.11109829 -0.0397794 -0.0042302804
000340 92 bb 86 bc 26 1f 8b bd ea b2 b3 3d e3 76 b0 bc
       -0.016446862 -0.067930505 0.087743595 -0.021541065
000350 43 45 17 be 81 e3 cc 3a c8 04 a3 3c dd 8f 41 bd
       -0.14772515 0.0015631766 0.01989974 -0.04725634
000360 fe 51 cc bd ff a9 aa be 3d a0 15 3e f3 43 01 be
       -0.09976576 -0.33332822 0.14611907 -0.12623577
000370 a1 fc 4f be 7f 19 07 be a9 64 90 bc 51 2b ca 3d
       -0.20311214 -0.1319332 -0.017626124 0.09871543
000380 4a 6e e3 bd 8d fb 37 be 85 89 48 bd ac 10 a3 3d
       -0.1110502 -0.17967053 -0.048959274 0.07962164
000390 17 64 c2 bd 11 d1 9b bc 43 2a a2 3c 28 8c 7e 3e
       -0.09491747 -0.019020589 0.019795543 0.24858153
0003a0 f8 61 76 be 78 fb 20 3e 2f b0 48 be de 26 74 3d
       -0.2406081 0.15720928 -0.19598459 0.05960738
0003b0 1a 0b d6 bd 86 84 6a 3d bd cf 56 be c8 39 32 3d
       -0.10451336 0.05725529 -0.20977683 0.043512136
0003c0 77 51 08 bd 78 b7 52 3b 41 b0 56 bd cd 40 ff 3d
       -0.033280816 0.0032152813 -0.052414183 0.12463532
0003d0 75 0a 10 be 5f 34 f9 3c df 7d 28 3c 1f f5 96 bd
       -0.14066489 0.03042048 0.010283916 -0.07370972
0003e0 11 8f 9e bd b5 0f d8 3b 33 1b a6 3d a2 dc 92 bd
       -0.077421315 0.0065936693 0.081106566 -0.071709886
0003f0 d9 9b 86 bd f8 34 15 3c 20 8e 8b 3d 97 1c ac bc
       -0.06572694 0.009106867 0.068142176 -0.021009726

model.model.4.bias f4 [128]
000000 0a 90 d9 bd 5b dd b2 bd ee 4a ce 3c 69 28 a8 bd
       -0.106231764 -0.087336265 0.025182214 -0.082108326
000010 66 26 4f bd f1 0e 2e bd 9e 5c 8d 3e ef f5 05 be
       -0.05057373 -0.042494718 0.27609724 -0.13082097
000020 27 70 e3 bd c3 1d 1e be 0a fe 0d 3e 68 30 25 3d
       -0.11105376 -0.1544104 0.1386644 0.040329367
000030 4d 85 09 be a1 e7 ee 3d 6f 5a 51 bc 03 d3 b3 bd
       -0.13429756 0.116652735 -0.012777909 -0.08780482
000040 c5 49 02 be c7 7a 52 be bd 52 6d bc e0 88 17 be
       -0.12723453 -0.20554648 -0.014485058 -0.14798307
000050 45 6c f1 bd ea 74 23 bd a0 fe 82 bd 6f 67 58 be
       -0.11788229 -0.03990642 -0.06396222 -0.21133207
000060 63 d1 15 be a6 25 1d be ce 63 8a bd 96 c0 a3 bc
       -0.14630656 -0.15346393 -0.067573175 -0.019989293
000070 4b 99 2d be a9 4c 9c bd e0 3c 34 be 81 12 a7 bd
       -0.16953008 -0.07631809 -0.17601347 -0.08157826
000080 cf 57 2d be dd c3 75 be 23 68 07 be 7c 04 62 be
       -0.16928028 -0.24000497 -0.13223319 -0.22072023
000090 58 f4 1f be 04 55 37 3c 83 18 6c be d5 dd 8a 3d
       -0.15620553 0.011189703 -0.23056225 0.06780592
0000a0 40 29 c7 be 8b 27 b7 3c 2c 5e 8f be 7f c0 ad 3d
       -0.3889866 0.022357723 -0.28001535 0.08483981
0000b0 99 d0 33 be 9a 76 d2 3d 68 aa 45 be 63 82 54 bd
       -0.17560042 0.10276528 -0.19303286 -0.05188216
0000c0 39 50 c3 bd 39 9a 82 be c7 84 1e 3e 8f 11 57 bd
       -0.09536786 -0.25508288 0.15480338 -0.05250698
0000d0 cc ac e6 3a 33 be a7 bd 7a 38 88 3d 1d 2e 85 bd
       0.0017599105 -0.081905745 0.06651397 -0.06502936
0000e0 22 32 88 be 76 e7 e5 bd f7 1b d1 be 63 72 ce bd
       -0.26600748 -0.11225788 -0.40841648 -0.10080411
0000f0 da fa 37 be bc ef 19 be 60 24 8c be 7a 80 33 3d
       -0.17966786 -0.15032858 -0.27371502 0.043823697
000100 7c 74 43 3d bc 6e 5b be d1 69 82 3d 46 02 88 3d
       0.04771851 -0.2142896 0.06367839 0.066410586
000110 3b 4b fb bd b6 55 33 be c8 b3 72 3c 7e ff 47 be
       -0.122702084 -0.17513165 0.014813371 -0.19531056
000120 3e 94 11 be 96 74 61 3f 23 c8 33 bc f5 ab ee bd
       -0.14216706 0.8806852 -0.010973009 -0.11653892
000130 84 ac e6 bd 80 46 40 be 98 0e 34 be 4b b0 16 be
       -0.112633735 -0.18776894 -0.17583692 -0.14715688
000140 aa 40 86 be 0b 96 13 bc 82 75 c8 bd 44 13 f2 bd
       -0.2622121 -0.009007941 -0.09788038 -0.11820081
000150 a4 db f2 bc d8 b4 04 be d2 ae d4 bd db 53 05 be
       -0.029645748 -0.12959611 -0.10384907 -0.1302027
000160 12 a8 05 be 24 12 f6 bd 31 a4 f9 bd ae 5f dd bd
       -0.13052395 -0.12015179 -0.1218952 -0.10809265
000170 bc bf 3e be ab 2f 33 be 49 4c 32 3d e7 92 74 bd
       -0.18627828 -0.17498653 0.043529782 -0.05971041
000180 a3 66 22 be 36 e7 8d 3d 55 ef 15 be 5b 84 16 3e
       -0.15859465 0.069288656 -0.14642079 0.14698927
000190 de d1 c0 3e 27 9a c8 bd 22 01 03 bd 34 20 cf bd
       0.37660116 -0.09795027 -0.031983502 -0.10113564
0001a0 df 5e 47 bd 1d 12 f1 bd c3 86 07 3e ef b9 1a be
       -0.04867446 -0.11771033 0.13235001 -0.1510999
0001b0 12 2b fb ba d5 1b db bd 0c 24 32 3e ed f8 c3 bc
       -0.0019162616 -0.10698668 0.17396563 -0.023922408
0001c0 78 b3 82 be d4 f2 9a bd 8e 59 97 bb b0 5b dc bd
       -0.2552755 -0.07565847 -0.00461883 -0.107596755
0001d0 d6 50 88 be 10 0e 88 be 38 52 4f be 38 cf f4 bd
       -0.26624173 -0.2657323 -0.20246208 -0.11953586
0001e0 fb 14 a6 bc df d0 8f 3d 1f 30 9b bc 13 36 26 be
       -0.020273676 0.07022261 -0.018943844 -0.16231565
0001f0 74 12 9d bd 3a 49 e4 bd db 74 5b be d2 ca 5c 3c
       -0.07669535 -0.11146779 -0.21431296 0.0134760905

model.model.6.weight f4 [7, 128]
000000 a6 eb d5 bd 10 62 c4 3e 91 39 be 3d a5 1c 4f 3c
       -0.10445337 0.38356066 0.09288324 0.012641107
000010 ae 40 55 3d 04 40 08 3e d2 6e fd bc 17 82 54 3d
       0.052063636 0.1330567 -0.030936632 0.051881876
000020 e1 09 09 3e 0b ce 02 3e a3 44 5e 3d a2 37 1f 3f
       0.13382675 0.12773912 0.054264676 0.62194264
000030 67 fe aa bd e5 e9 cc 3e 10 80 be 3e 54 69 48 3e
       -0.08349305 0.40022197 0.3720708 0.1957143
000040 af ce 43 bd ee 98 0e 3e 56 8d b3 3e 58 bf 81 3d
       -0.04780453 0.13925526 0.35068768 0.06335324
000050 f5 25 ec 3e 3b b0 a0 3d 97 48 83 3c 3f f9 d1 bc
       0.4612271 0.07846113 0.016025824 -0.025631545
000060 76 1c 1a 3e 98 75 eb bc ac 78 97 3e 52 64 83 3e
       0.1504992 -0.028742597 0.29584253 0.25662476
000070 97 0b 28 3e c7 2e 12 3f ca 3a ac 3d 4c 27 4e 3d
       0.16410671 0.57102627 0.084096506 0.050330445
000080 4c 37 52 3e 4f 7a d9 bd 39 47 b6 bc 66 51 7a 3e
       0.20528907 -0.10619032 -0.022250758 0.24445114
000090 e7 eb 89 3e a2 52 15 3f 93 f2 57 3e 95 b3 a8 bd
       0.26937792 0.5832921 0.21088628 -0.082373776
0000a0 6f 23 38 bd 12 f4 b4 3d 5d 90 32 3d 79 a9 57 3e
       -0.044955667 0.08835615 0.043594707 0.21060742
0000b0 42 b3 2a 3e 57 bc 94 3e 7c 7f bc 3d 9f 97 19 3e
       0.16669944 0.29049942 0.09204003 0.14999245
0000c0 99 45 77 3c 07 20 84 3d a3 2c 80 3e 51 85 80 bd
       0.015092277 0.06451421 0.25034055 -0.06275428
0000d0 60 91 b9 3e 43 4d 03 be d8 3e 7f 3e ba 90 04 3f
       0.36243725 -0.12822442 0.24926317 0.51783335
0000e0 cb 11 6a 3e bd 04 69 bc 12 a7 9f 3d 22 95 6a bd
       0.2285835 -0.014222321 0.07795538 -0.05727113
0000f0 5c 74 6d 3d 07 7e 17 bd aa c9 24 3d 6a 8c 8a 3e
       0.057972297 -0.036985423 0.040231384 0.27060252
000100 da 65 05 3e f9 16 af 3b 5b 73 22 3f 88 ba f9 3d
       0.13027135 0.0053433147 0.6345727 0.12193781
000110 c9 e1 23 3d 6a 64 38 3e 76 a1 7c 3d a7 81 5c bd
       0.040010247 0.18007055 0.06167742 -0.053834584
000120 0a 6f 2c 3e eb fd 85 be 05 61 14 3e 5d 27 81 3e
       0.16839233 -0.26170287 0.14490135 0.25225344
000130 23 22 5c 3d 48 08 09 3e 6a 5f 6e 3c 80 f6 d7 3e
       0.053743493 0.13382065 0.014549116 0.42180252
000140 de ee dc 3d e7 4e aa 3e 30 9f 64 3e 2c d5 0f 3e
       0.10787748 0.33263323 0.2232635 0.14046162
000150 80 e2 0b 3d 2a 17 32 3f 18 82 1b 3e 15 4e 0e 3f
       0.034151554 0.69566596 0.15186346 0.55587894
000160 b3 29 48 39 bc 91 d5 3b d4 89 b0 bd a9 6c 6b 3e
       0.0001908902 0.006517617 -0.08620039 0.2299067
000170 a8 c0 1a 3e 93 88 80 3e ed 9a 9c 3e 12 9c c0 3d
       0.15112555 0.25104198 0.3058695 0.09404768
000180 0a 29 bb be 3a af 4e 3e fc 5d 49 3e 0e ee 42 3e
       -0.36554748 0.20184031 0.19664758 0.19036123
000190 61 fe 7c bb 96 04 d9 3c 17 38 b7 3e 3a b6 03 3d
       -0.003860377 0.026491445 0.3578498 0.032156207
0001a0 39 f4 7f bc 64 f9 2f 3c 9c f0 e2 3e 8b 45 6a 3e
       -0.015622192 0.010740612 0.44324195 0.22878091
0001b0 d0 3c 25 3e 3b fc 39 3e cc c1 8e 3e 87 65 8f 3e
       0.1613648 0.18162625 0.2788223 0.28007147
0001c0 ff 17 3f 3e d9 37 ea 3d 69 b9 22 3e d0 65 2f 3e
       0.18661498 0.11436433 0.15891041 0.17128682
0001d0 49 58 c3 bb 60 2d 83 bb d7 ea e7 3d 9b 06 b1 3e
       -0.005961452 -0.004003212 0.11324089 0.34575352
0001e0 4a 02 06 3d 59 ae 7b 3d 4d 84 0c bc d2 28 63 3c
       0.032717027 0.061445568 -0.008576465 0.013864713
0001f0 9a c3 8a 3e ba 91 0a 3e c6 e3 2f be 09 9d 02 3e
       0.27102357 0.13532153 -0.17176732 0.12755217
000200 ec f8 1b bd fc f2 cd 3d c3 32 36 3d da e5 4a 3e
       -0.038079187 0.10056111 0.044482004 0.19814244
000210 16 55 86 3e 0d 8c b1 3d 9c 5a 8d 3e dc 88 f5 3a
       0.2623679 0.08669291 0.27608192 0.0018732804
000220 49 30 a2 3d 9d 56 15 3d 35 99 3a be b2 76 06 be
       0.07919366 0.036459554 -0.18222506 -0.13131216
000230 d7 c4 97 bd 83 c4 a3 be cd 8f a2 3e 7c f1 ad 3d
       -0.07410591 -0.31985864 0.31750336 0.08493325
000240 e4 24 59 bc 32 6f 44 3e 08 9b 8f 3e c0 91 4f 3e
       -0.013253424 0.19183043 0.28047967 0.20270443
000250 4b fc e6 3e bb 2e 95 3e a0 23 80 bc 4c 64 94 bd
       0.4511436 0.29137215 -0.015641987 -0.072456926
000260 1c fa 62 3e 6c 45 bb 3e 41 08 49 3e b5 0b 9f 3c
       0.22165722 0.36576402 0.19632055 0.019414762
000270 46 e3 b9 3e b2 82 f1 be 12 4b 29 3e 24 41 fd bd
       0.36306208 -0.47170025 0.16532543 -0.1236594
000280 a9 2c 12 bd 39 26 65 3e 19 07 7d 3b 44 b3 bb 3d
       -0.035687122 0.22377862 0.0038608967 0.091650516
000290 a7 9e 3b 3d 3d ce ca 3d d8 03 36 3d 2e fc 20 3e
       0.0458056 0.09902618 0.04443726 0.15721199
0002a0 c6 49 cc 3e f6 69 f7 3d 34 86 4c 3e 75 e7 f9 3e
       0.39900035 0.12080757 0.1997307 0.488094
0002b0 7a ef 1a 3e e7 33 e7 3d d8 7d ac 3e 81 88 e9 3b
       0.15130416 0.112891965 0.3368976 0.0071268682
0002c0 d1 86 e7 bd 3d ef a1 3e 80 69 a5 3d 79 8f 1e 3d
       -0.11305011 0.31627837 0.08076763 0.038711045
0002d0 4a 7f 82 3e a4 d5 23 3e da 2a 7d 3e fc f5 95 3e
       0.2548774 0.15999466 0.24723378 0.29289234
0002e0 11 87 17 3e 71 1a 98 bd b5 a5 f2 3d 0f 5f 25 3d
       0.14797617 -0.07426918 0.11848012 0.040373858
0002f0 2e 4d 3e 3d 85 e7 49 bd cc 2a 37 3c d4 49 b1 3e
       0.046460323 -0.04929306 0.011179637 0.3462664
000300 32 e7 b4 3e ce 30 67 3e 2b 13 7d 3e d7 36 10 3e
       0.35332638 0.22577211 0.24714343 0.1408342
000310 d9 80 13 3e dc 9b ad 39 35 50 f1 3c dc fc 44 bb
       0.1440462 0.00033113256 0.029457191 -0.0030057942
000320 fd 44 60 3d c8 58 ff bd df e5 11 3e a6 cd 0c 3e
       0.054753292 -0.124681056 0.14247845 0.13750324
000330 ca 94 8b 3c 9d 82 82 3e c7 cf 98 3e 06 13 44 be
       0.017038722 0.25490275 0.29846022 -0.19147882
000340 e9 ea 17 3e 45 72 2d ba dc d8 75 3b b2 0c 90 bd
       0.14835705 -0.0006616454 0.0037513291 -0.070336714
000350 74 cc 10 3d 6a 8d 1f 3f f5 74 35 3e 74 85 89 3e
       0.03535123 0.62325156 0.17720397 0.2685963
000360 62 61 74 bb 65 46 99 3c 17 58 52 bd 9a 28 43 3e
       -0.003728949 0.018710325 -0.05135354 0.19058457
000370 5d 07 52 bd 8c b4 e4 3d bb 77 03 3e 64 c2 f2 3d
       -0.051276553 0.11167249 0.12838642 0.11853483
000380 ae 40 81 3d f0 7f b3 3d 29 f7 e5 3d 87 33 5d 3e
       0.06311165 0.087646365 0.11228783 0.21601687
000390 69 63 99 3e 5b 68 0d 3c 2f 5c 34 3e 65 34 5d 3d
       0.29958656 0.008630837 0.1761329 0.054005045
0003a0 1a dc 31 3d c9 3f 8c bc d6 6f 24 3f 98 5b 0b 3e
       0.043422796 -0.017120259 0.6423315 0.13609159
0003b0 b9 cf f7 3d 1a c6 75 bc 49 69 98 3e 4d 04 08 be
       0.12100167 -0.015000844 0.29767826 -0.1328289
0003c0 b0 69 43 3e 20 5d e1 3d d3 35 9a 3d a4 ba 26 3e
       0.19083285 0.1100409 0.075297974 0.16282135
0003d0 ea 9a 79 3d d0 fc 92 be 83 44 31 3e da 57 45 3d
       0.060938753 -0.28708506 0.17311291 0.048179485
0003e0 0c 49 99 3d 7b 16 ed 3d 9f d2 3b 3d 54 4a 75 3c
       0.07484636 0.115765534 0.04585516 0.0149713345
0003f0 64 f2 15 3f d9 63 b8 3e 6c 7c 90 3d c2 90 0c 3e
       0.58572984 0.36013678 0.070549816 0.13727096

model.model.6.bias f4 [7]
000000 66 64 12 3e be a2 b3 3e d6 fb 31 be 33 ab 67 be
       0.14296111 0.350851 -0.17381224 -0.22623901
000010 ca 7e 5e 3e 84 40 ee bd 88 b4 da 3d
       0.21728054 -0.11633399 0.10678965

model_old.model.0.weight f4 [128, 42]
000000 5e 65 a5 be da 84 2b bf de f0 87 be dd 5b 9e 3d
       -0.323039 -0.6699959 -0.26550955 0.07732365
000010 9d 02 26 3e 0a ac 3e bd 64 7c c3 be 8b 51 f1 3c
       0.16211934 -0.046550788 -0.3818084 0.029457828
000020 f8 ec 32 be 4d f7 a9 bc 5c 0c 0e be 9f b1 ca bd
       -0.17473209 -0.020747805 -0.13871902 -0.0989716
000030 87 15 86 3e 34 bf b5 bd c8 74 c2 bd a2 63 76 bd
       0.261883 -0.0887436 -0.094949305 -0.06015361
000040 82 b6 48 be e2 6d eb be ec c1 d6 bd 81 ce 2c be
       -0.19600871 -0.4598227 -0.104862064 -0.1687565
000050 8a 96 05 3e ba af 5f bd 2f d2 cc bd a0 c1 cc 3d
       0.13045707 -0.054610945 -0.10001027 0.099978685
000060 c5 3e f2 3d 12 70 93 bd 94 76 0f bf c7 7c bb bd
       0.118283786 -0.0719911 -0.5604031 -0.09154659
000070 94 f1 c2 bd 2a ed bc be d4 4c 20 3d 67 5c 8d 3d
       -0.095187336 -0.36899692 0.03913577 0.0690239
000080 9d ef 01 bd a4 58 47 be 3f a6 76 be bc 3d ab 3b
       -0.031722654 -0.19467407 -0.24086855 0.005225865
000090 6c aa 44 be 28 c7 28 be 38 44 65 3e 87 bd fe 3c
       -0.19205636 -0.16482222 0.22389305 0.031096233
0000a0 2d 6c fb bd 96 7a 95 be fd d9 e3 ba 34 a0 c6 bd
       -0.12276492 -0.29195088 -0.0017383691 -0.09698525
0000b0 19 35 8b 3b 2e 38 b3 be 5a 59 30 be 0a 0e a5 be
       0.004248273 -0.350038 -0.17221585 -0.32237273
0000c0 62 d9 aa 3d 1b 9a 8d be fc 8d 84 3e ef 44 b0 be
       0.08342244 -0.27656636 0.25889575 -0.34427592
0000d0 67 c4 d2 bb ae 4b 98 3c f9 81 4e 3e cc 4c c1 3d
       -0.0064321044 0.018590774 0.20166768 0.09438476
0000e0 7e 47 3b be 03 81 6f 3e 77 4b 4b be d9 a2 ac be
       -0.18288991 0.23389058 -0.19853006 -0.33717993
0000f0 57 09 41 3d 0d 9c bf 3e 39 7b b1 be 28 85 af bd
       0.047128048 0.37423745 -0.34664324 -0.085703194
000100 5c 5d 5a be 28 4f 4a bd c9 b7 0d bd 9c 2c a1 bb
       -0.21324676 -0.049391896 -0.0345991 -0.004918648
000110 26 ea a9 be 35 51 3d be 75 2f fc bd 0c f3 9a be
       -0.33186454 -0.1848801 -0.12313739 -0.30263555
000120 62 27 f2 bd 8b a4 1f be b6 50 9c 3d ff b7 2d be
       -0.11823918 -0.15590112 0.07632582 -0.1696472
000130 6c 5f 53 be 6e fb b0 bd a1 87 9e be f1 ff 5c 3d
       -0.2064187 -0.086417064 -0.30962852 0.053955022
000140 72 13 44 be 3b 7a 67 bc bf 19 af bd 87 34 85 bd
       -0.19148043 -0.014128263 -0.085498326 -0.065041594
000150 17 3b 36 be 39 9f 89 bc 06 48 ab be b5 0a da 3d
       -0.17795978 -0.016799556 -0.33453387 0.106465735
000160 01 8c d2 bd 6f 09 64 bd c5 74 65 be ca 15 08 3e
       -0.1028061 -0.05567306 -0.22407825 0.13289562
000170 b1 3d 73 bc a0 20 51 be 7e 3d 53 3e 19 ac 33 bd
       -0.014846251 -0.20422602 0.20628926 -0.043865297
000180 e4 04 95 bb 30 dd 9c bb 34 14 81 3e 06 e2 a1 bd
       -0.004547702 -0.00478711 0.25210726 -0.07904439
000190 db bc e7 bd 7c bd 5d 3e 4e d9 a0 bd 45 9e 63 3d
       -0.11315318 0.21654314 -0.078539476 0.05557086
0001a0 05 3e 40 3e 65 f2 5d 3d 15 f3 8e 3e 20 df 63 be
       0.18773659 0.054186244 0.27919832 -0.22253084
0001b0 7b 1e 07 3f ca 6a 84 bd 35 e9 3f bc 61 df 09 bf
       0.52780885 -0.06465681 -0.011713316 -0.53856474
0001c0 17 4d 7a be c5 ca 66 3e 81 dd 6d be 07 96 c7 3e
       -0.2444347 0.22538288 -0.23229028 0.3898165
0001d0 f9 0a d4 bd bf 42 29 3e 34 c5 94 be 29 1b 47 be
       -0.10353655 0.16529368 -0.29056704 -0.19443955
0001e0 fb 75 0c be 58 14 38 be 8a d0 1b 3e 4a 58 20 3e
       -0.13716881 -0.1797651 0.1521627 0.1565868
0001f0 f1 25 77 be d3 28 be 3d 0f da a3 3d 11 32 4b be
       -0.24135567 0.0928513 0.08000576 -0.19843318
000200 e3 1d d7 3d af 49 31 3d e1 d9 1d 3e 76 09 67 3d
       0.10503747 0.04328316 0.15415145 0.056405507
000210 cd f2 2c 3e 70 1a 63 3e 84 3a 8e bc e6 63 7c be
       0.16889496 0.22178054 -0.017361887 -0.24647483
000220 11 84 34 3e e7 28 a7 3d 70 a7 49 3e 55 f1 2d 3d
       0.17628504 0.081620984 0.19692779 0.04246648
000230 fa 0b f3 3d 4b f2 44 bd ba 77 c1 be 67 cb 94 be
       0.11867519 -0.04808263 -0.37786657 -0.29061434
000240 02 60 0e 3e 13 8f a2 bd 70 6d 09 be 6c f9 94 be
       0.13903812 -0.079374455 -0.13420653 -0.29096544
000250 d3 78 11 3d bd fa b8 bd c7 1a d0 be 19 ec 54 bd
       0.035515618 -0.090321995 -0.4064543 -0.051982973
000260 0f d7 4a 3d a3 15 71 be 08 79 d3 be 25 f9 7d be
       0.049521502 -0.2354341 -0.41303277 -0.24802072
000270 20 df 95 3d b1 0d 3b be a1 69 8a 3c 21 43 39 3e
       0.07317948 -0.18266942 0.01689607 0.18092014
000280 51 0f 95 be cc 68 8a bc 98 8d 32 be 2a 08 9e 3d
       -0.29113248 -0.016895674 -0.17436826 0.07716401
000290 27 16 f8 be 89 cb d0 3b 79 b2 a4 3e af 18 d1 be
       -0.484544 0.0063719195 0.32167414 -0.40839145
0002a0 fd 4f 2f be 9a be 65 be 70 89 a1 be f1 ab 7e 3c
       -0.17120357 -0.2243599 -0.3155017 0.015543924
0002b0 d8 e3 ac bc 97 49 53 bd 3f ad 6c 3e c7 94 c1 bd
       -0.021104738 -0.051583853 0.23112963 -0.09452205
0002c0 df 1e ef 3c 56 9d 35 3e 03 2f 1d 3d c2 ce b5 3c
       0.029189525 0.177358 0.038374912 0.022193316
0002d0 f1 6a 70 be 5d da 03 3d c9 61 ac 3d 1b 6f 4e 3e
       -0.23478295 0.03219067 0.084170885 0.20159571
0002e0 14 9e 01 3f cf f9 36 3f 6d f5 8f 3e 07 cd ac 3c
       0.50631833 0.7147493 0.28116933 0.021093858
0002f0 dd 98 98 be 4d 17 11 3e f8 b0 ff bd 54 fb 8f 3c
       -0.29804125 0.14169045 -0.12484926 0.017575897
000300 9e 81 94 be 3f 82 ea 3c f7 2f a4 bd 99 69 40 3f
       -0.2900514 0.02862656 -0.08016961 0.7516113
000310 15 f9 5a 3e c7 8b 09 3e c8 60 9b 3d 52 12 f5 be
       0.2138408 0.13432227 0.07586819 -0.4786554
000320 63 2c f5 bb 68 a0 90 be b3 b1 20 3f 6b 2e eb 3e
       -0.007482098 -0.2824738 0.6277115 0.45933852
000330 b7 76 55 3e 64 21 0e be fb 1b ae be b4 b0 30 bb
       0.20846067 -0.13879925 -0.34005722 -0.0026960792
000340 09 a5 2b bd fe c6 49 3e 2d d0 bc bd 0a c1 69 3d
       -0.041905437 0.19704816 -0.09219394 0.057068862
000350 7d 64 34 be 7d a2 43 be 1d 51 07 3d c1 f4 15 be
       -0.17616458 -0.19104953 0.03303634 -0.14644147
000360 9c 2a 3c be 30 05 a3 bc c2 99 d4 3b ca 72 d6 bd
       -0.18375629 -0.019899935 0.006488056 -0.10471113
000370 54 0e 70 be ae be 87 bd 0b 57 21 be 79 5e 02 be
       -0.23442966 -0.06628166 -0.1575586 -0.12731351
000380 a8 f7 56 be 71 f9 da bd 9c 82 13 3a 7d 4e c8 3d
       -0.20992911 -0.106921084 0.00056270673 0.097805955
000390 53 80 9d 3d e0 2f 20 3c 8a f8 16 be c8 89 6a 3d
       0.076904915 0.009777039 -0.14743248 0.057260305
0003a0 d3 f4 f4 bc b2 de 58 3c 3b a0 96 3d 74 7a 25 3d
       -0.029901898 0.013236688 0.0735478 0.040399984
0003b0 98 ff 9e bc 62 04 4e 3d 59 a2 9e 3d da 4d 50 ba
       -0.019408986 0.05029715 0.07745809 -0.0007946171
0003c0 3d 5d f7 3d 65 d4 03 3d 9a 65 60 3c 5c c0 80 3d
       0.12078331 0.032184977 0.013696099 0.0628669
0003d0 57 00 24 be 18 17 79 3d 63 cb 91 bd 30 fe 06 bd
       -0.16015755 0.06081304 -0.07118871 -0.032957256
0003e0 93 a0 55 3d dd 4a 16 be ce 9a c6 3d 6c 42 01 be
       0.05215509 -0.14676996 0.096974954 -0.12622994
0003f0 9e 83 84 bd 34 a4 e5 bd 9f 2d 62 bd 19 ea 50 be
       -0.064704165 -0.1121296 -0.05521929 -0.20401801

model_old.model.0.bias f4 [128]
000000 b8 25 18 bd 26 39 bb 3d df 3f 49 bd 51 1a 94 3e
       -0.037145346 0.091417596 -0.049133178 0.28926328
000010 e6 2e 46 be d2 96 90 be 5d fc 9b 3d 99 14 b1 3e
       -0.19353828 -0.28240067 0.07616494 0.34586027
000020 f1 fd 14 3e 4b 95 16 be 72 27 b5 be e1 42 39 3e
       0.14549996 -0.14705388 -0.35381657 0.18091919
000030 0f fa 76 3d e7 f6 91 be 7e 3b 83 bd 8c b1 fb bd
       0.06029707 -0.28508684 -0.064078316 -0.12289724
000040 d0 e3 90 3e 4e eb 72 3e 8e ce 23 bc bf 46 fe 3d
       0.28298807 0.23722574 -0.009997977 0.124158375
000050 9b 0a 1d 3e 77 d3 92 3d b1 e9 b2 bd 61 d0 06 be
       0.15336077 0.0716924 -0.08735979 -0.13165428
000060 25 1f 1d be b3 9d 81 3d cd 31 87 3e e4 83 5d be
       -0.15343912 0.06328907 0.26405182 -0.21632344
000070 fb b0 d2 3e 54 d9 62 3c bd fe 23 3d 55 63 e6 3d
       0.4115065 0.01384576 0.04003786 0.11249415
000080 ae ff a7 3d 8e 0e 81 3c 26 74 87 3c db 80 a6 3e
       0.08203064 0.01575401 0.016534876 0.32520184
000090 4d 02 4b be 50 51 27 be d0 3d 3d 3d dd c3 31 3d
       -0.19825096 -0.16339612 0.046201527 0.04339968
0000a0 ab 06 8f 3e 12 5d af 3d b2 15 3f 3e 31 a0 84 3d
       0.27934775 0.08562674 0.1866062 0.064758666
0000b0 6a 80 83 3e 14 89 9b 3e 6f 04 46 3e 41 e8 28 be
       0.2568391 0.3037802 0.19337629 -0.16494848
0000c0 dd 6a 86 3d 0c 09 82 bd a9 80 b8 be 51 74 4f 3e
       0.06563351 -0.06349382 -0.3603566 0.20259215
0000d0 3f e6 b5 3e 67 71 70 3d 2d 46 f4 3d 95 b0 00 bc
       0.35527226 0.0587019 0.119274475 -0.0078546
0000e0 56 35 93 3e 68 de 54 3e 4d dd 6e 3d c6 bf 4e be
       0.2875163 0.20787966 0.058316518 -0.20190343
0000f0 c4 78 d8 bc 3b b1 a6 3d a4 77 bc be 0f d5 89 bc
       -0.026424773 0.08139273 -0.3681003 -0.016825227
000100 46 8a 51 3e c4 b5 e2 be a6 9b 67 bd 7e d4 98 3e
       0.20462903 -0.442793 -0.056544922 0.2984962
000110 61 c9 0e be 1d 58 7c bd 33 6e bf 3d d3 65 dc be
       -0.13944007 -0.06160747 0.09347191 -0.43046436
000120 c7 9f 44 bd fc cf 4e be 9c 5d 42 be fa df 12 be
       -0.048003938 -0.20196527 -0.18981022 -0.14343253
000130 cd 59 8e 3e 2c 51 f6 bc 94 12 99 3e 69 fc ab bd
       0.27802888 -0.030068003 0.29896986 -0.08397753
000140 35 fc 40 3e 29 88 05 3f 8e 16 82 3e 22 c2 fa 3d
       0.1884621 0.5216089 0.25407833 0.12244059
000150 d1 2f 21 3e 80 43 cf 3c bb 83 c9 bd 28 d3 2e bd
       0.15740897 0.025300741 -0.09839579 -0.042681843
000160 c2 09 0a be 7e a9 29 3e 62 59 38 be 66 53 bd 3d
       -0.13480285 0.16568562 -0.18002847 0.092444226
000170 26 0c 32 3e d0 7b 2e 3d 72 d0 3f bd 3c 40 3f be
       0.17387447 0.042598546 -0.04682965 -0.18676847
000180 55 30 63 3e 12 e1 a0 bc c0 e5 71 3d 7b 29 77 be
       0.22186406 -0.019638572 0.059056997 -0.24136917
000190 52 e4 7f be 2c 0d 9d 3e 18 09 f4 bd 73 8d 17 3e
       -0.24989441 0.30674112 -0.11915797 0.14800052
0001a0 0c dc c0 3e 8b b7 64 3e 6c 22 c3 3d ab 81 15 3e
       0.37667882 0.22335641 0.0952805 0.14600246
0001b0 08 bf 52 3e 49 83 d0 3d f3 30 15 3e 9b 63 df bd
       0.20580685 0.10181291 0.14569454 -0.1090767
0001c0 56 08 22 bd 67 3d 94 3e b3 c2 e8 bd 1a eb cf 3d
       -0.03955873 0.28953096 -0.11365261 0.10152264
0001d0 b3 43 80 bc f5 7e be 3d d5 7e 8d 3d 5f 33 d5 3b
       -0.015657282 0.09301559 0.06908957 0.006506368
0001e0 41 40 8f 3e a1 b0 48 be 19 13 c9 3d 5a f9 ff bd
       0.2797871 -0.19598629 0.09818096 -0.12498732
0001f0 17 72 51 bc dc ff 14 3d 60 1f a8 3e 2f 2e 21 3e
       -0.012783549 0.03637682 0.32836437 0.15740274
