project/paper_notebooks/saved_variables/paper_notebooks/8/7-20epoch_500loop/looping-iteration-451/final_policy_agent2.pth (torch, 320501 bytes, 16 tensors)

model.model.0.weight f4 [128, 42]
-0.23376366 -0.71989304 -0.5124586 0.14334847 0.06606302 0.08053852 -0.55663085 0.051711075
-0.27965227 -0.3754926 0.26998624 0.034405086 0.50855833 -0.2254691 -0.14793108 -0.2596802
-0.3437502 -0.24621922 -0.1866726 -0.00068323576 0.0067219357 -0.11500915 -0.06724466 -0.13250983
0.54197514 -0.392942 -0.5391001 -0.19125032 -0.28996277 -0.3202381 -0.060918912 0.3060917
-0.28078634 -0.09509971 -0.29074708 -0.09457382 -0.17303263 -0.040986173 0.61162454 -0.053499512
0.0203496 -0.33875272 -0.2205451 0.015964504 0.21806417 -0.26545408 -0.4155853 0.0419248
0.23522148 -0.059570465 0.13111985 -0.12438986 0.26214048 -0.3864766 0.3512387 0.29627112
0.12721424 0.6567823 0.13425888 -0.27038562 -0.06535591 0.48639303 -0.8171852 0.26510113
-1.5410283 0.4627697 -0.15708289 0.073105365 -0.80471015 -0.24274592 -0.10908186 -0.62555504
0.17860991 -0.14110789 -0.025303772 -0.34167495 -0.23386972 0.093985036 -0.4393811 0.12280237
-0.2560881 -0.14696549 -0.057747748 -0.054292634 0.08513548 -0.57450014 -1.0350946 -0.15577638
-0.7387557 -0.36955 -0.48245907 0.3868043 -0.37814635 -0.5000858 0.28912058 -0.3614265
-0.052839387 0.20611446 0.12878309 -0.31407925 -0.3401387 0.03953145 -0.24913892 0.1532024
0.46493095 -0.45181876 0.29469222 -0.4752221 0.9540631 -0.15653391 0.16905451 -0.42707297
-0.64998245 -0.036875088 -0.37423655 0.13830967 -0.43243533 0.0843472 -0.48348445 -0.50856924
-0.33638895 -0.28326657 -0.23292471 0.057975672 -0.4742389 0.012261789 -0.014600879 -0.13086098
-0.18051493 -0.4630928 0.061600205 -0.22438864 0.41458485 0.22262451 -0.34432077 -0.40378365
-0.31615037 0.058014866 -0.17330582 0.17193708 0.33873224 -0.29923427 -0.19040385 -0.3685971
-0.893847 -0.42706427 -0.2522774 -0.44709414 -0.040991284 0.08331704 -0.44030723 -0.08945737
-0.117771186 -0.6620212 -0.58318526 -0.34513247 0.19886746 -0.26664355 0.04721751 0.12100577
-0.28450018 -0.050351225 -0.23831488 -0.013921906 -0.5658488 -0.11940143 0.24690625 -0.40192947
-0.31485024 -0.087540165 -0.17428596 -0.41432047 0.05175438 -0.02040766 0.064738944 -0.58610606
-0.30442625 -0.14908443 -0.5607974 0.39637783 -0.49484962 -0.17206548 -0.51778436 0.0018453263
0.11683659 0.07769254 0.76566184 -0.122025535 -0.6013212 -0.10920871 -0.16309565 0.12610997
-0.65785915 0.12865219 -0.043724407 0.7302829 -0.07978303 -0.1294375 -0.036659908 -0.7396511
-0.2755963 -0.36811844 0.4289617 0.13136312 0.0001524777 -0.32992068 -0.47881305 0.016515922
0.025570845 -0.15205579 -0.09219394 0.037374232 -0.17616458 -0.19104953 0.013341212 -0.14644147
-0.18375629 -0.019899935 -0.013206614 -0.10471113 -0.23442966 -0.085976295 -0.1575586 -0.12731351
-0.20992911 -0.106921084 0.00056270673 0.097805955 0.0572098 0.009777039 -0.14743248 0.057260305
-0.029901898 0.013236688 0.0735478 0.020705312 -0.019408986 0.05029715 0.07745809 -0.0007946171
0.12078331 0.032184977 -0.0059990324 0.0628669 -0.16015755 0.06081304 -0.07118871 -0.032957256
0.05215509 -0.14676996 0.096974954 -0.12622994 0.49759847 -0.3892162 0.21538033 0.26313058
00000000: be5f 6fbe e94a 38bf 7d30 03bf f1c9 123e
00000010: 0c4c 873d 61f1 a43d 5c7f 0ebf fece 533d
00000020: 952e 8fbe 9140 c0be a33b 8a3e 59ec 0c3d
00000030: e130 023f 5fe1 66be 3f7b 17be cef4 84be
00000040: 0700 b0be e420 7cbe 1a27 3fbe 2d1b 33ba
00000050: af43 dc3b eb89 ebbd 91b7 89bd a8b0 07be
00000060: e2be 0a3f b22f c9be 7702 0abf 20d7 43be
00000070: 0076 94be 40f6 a3be 1c86 79bd 0db8 9c3e
00000080: 3ac3 8fbe a3c3 c2bd cddc 94be ebaf c1bd
00000090: 772f 31be 1ee1 27bd 6d93 1c3f 4e22 5bbd
000000a0: 34b4 a63c ff70 adbe 93d6 61be fec7 823c
000000b0: 374c 5f3e 99e9 87be 99c7 d4be 57b9 2b3d
000000c0: e6dd 703e 2900 74bd 4844 063e 1cc0 febd
000000d0: 4737 863e 43e0 c5be 8fd5 b33e d9b0 973e
000000e0: 7344 023e e322 283f 297b 093e fc6f 8abe
000000f0: 52d9 85bd 8208 f93e 0d33 51bf 56bb 873e
00000100: 6a40 c5bf 26f0 ec3e 56da 20be 44b8 953d
00000110: 7c01 4ebf 6392 78be 4f66 dfbd 6024 20bf
00000120: 84e5 363e 967e 10be db49 cfbc 05f0 aebe
00000130: 8b7b 6fbe 3a7b c03d 8ff6 e0be cf7f fb3d
00000140: fb1d 83be 1f7e 16be e788 6cbd f461 5ebd
00000150: 835b ae3d 7112 13bf fb7d 84bf d883 1fbe
00000160: 181f 3dbf a835 bdbe e004 f7be 370b c63e
00000170: 669c c1be 9f05 00bf 9d07 943e e50c b9be
00000180: 1d6e 58bd ab0f 533e b7df 033e ffce a0be
00000190: a926 aebe bbeb 213d 461e 7fbe 17e1 1c3e
000001a0: 6e0b ee3e ca54 e7be e6e1 963e 5050 f3be
000001b0: 7b3d 743f 6d4a 20be a01c 2d3e 4fa9 dabe
000001c0: 4065 26bf 550a 17bd ef9b bfbe 0da1 0d3e
000001d0: 2a68 ddbe 3abe ac3d 468b f7be 9831 02bf
000001e0: 2c3b acbe 5108 91be d183 6ebe e677 6d3d
000001f0: 71cf f2be ace5 483c 8638 6fbc 6c00 06be
00000200: e8d8 38be 801a edbe 7f50 7c3d 23c6 65be
00000210: 7744 d43e aef7 633e d04a b0be bbbc cebe
00000220: 76de a1be ffa0 6d3d 1577 31be 4610 303e
00000230: 506e ad3e 3c35 99be 3af9 42be c2b8 bcbe
00000240: 28d3 64bf 2ba8 dabe 812a 81be 86e9 e4be
00000250: 7ae6 27bd 20a2 aa3d f36f e1be 6d35 b7bd
00000260: 0532 f1bd 397a 29bf a14b 15bf 34b5 b0be
00000270: e9a3 4b3e 8185 88be 2667 413d e0d1 f73d
00000280: 02aa 91be 163d 4ebd d108 74be b518 64bc
00000290: 78db 10bf bd88 f4bd fed4 7c3e b3c9 cdbe
000002a0: 0d34 a1be 4248 b3bd 0578 32be d021 d4be
000002b0: 67fc 533d f72d a7bc da95 843d 0c0b 16bf
000002c0: c2dd 9bbe 97a9 18be 6b90 0fbf 09f2 ca3e
000002d0: ee5c fdbe ef31 30be 848d 04bf e0de f13a
000002e0: 0648 ef3d 441d 9f3d 6a02 443f 86e8 f9bd
000002f0: 30f0 19bf d1a8 dfbd 8c02 27be f922 013e
00000300: 7569 28bf 66bd 033e 5d18 33bd d2f3 3a3f
00000310: 4965 a3bd 448b 04be b328 16bd c659 3dbf
00000320: f51a 8dbe 057a bcbe dea0 db3e 0e84 063e
00000330: 6ce2 1f39 5deb a8be fc26 f5be 664c 873c
00000340: f379 d13c 83b4 1bbe 2dd0 bcbd b915 193d
00000350: 7d64 34be 7da2 43be 1995 5a3c c1f4 15be
00000360: 9c2a 3cbe 3005 a3bc 8e60 58bc ca72 d6bd
00000370: 540e 70be 5714 b0bd 0b57 21be 795e 02be
00000380: a8f7 56be 71f9 dabd 9c82 133a 7d4e c83d
00000390: d354 6a3d e02f 203c 8af8 16be c889 6a3d
000003a0: d3f4 f4bc b2de 583c 3ba0 963d 309e a93c
000003b0: 98ff 9ebc 6204 4e3d 59a2 9e3d da4d 50ba
000003c0: 3d5d f73d 65d4 033d 8893 c4bb 5cc0 803d
000003d0: 5700 24be 1817 793d 63cb 91bd 30fe 06bd
000003e0: 93a0 553d dd4a 16be ce9a c63d 6c42 01be
000003f0: 3ac5 fe3e 5947 c7be a98c 5c3e 0db9 863e

model.model.0.bias f4 [128]
-0.44349182 -0.0956308 0.2502839 0.6301573 -0.3879828 -0.30209535 0.050278082 0.400899
0.24257599 -0.46647343 -0.8937798 -0.073600866 0.24614024 -0.07085391 -0.06368013 -0.33985087
0.43749118 0.51934403 -1.2526356 -0.1977054 -0.096437566 -0.02225346 0.015860686 -0.6341104
-0.2757639 -0.3840961 0.26584813 -0.19010939 -0.10724358 0.036023293 -0.088561006 -0.050755817
-0.22245605 0.81326586 0.17450562 -0.008398221 0.17332956 0.15959138 0.10453936 0.40842533
-0.113305986 -0.36755097 0.13449624 -0.013646071 0.5682198 0.600425 0.4440778 -0.1748063
-0.13988693 0.14609937 -0.62332106 -0.26320255 0.19328204 -0.27464396 0.025091354 -0.31278753
0.48235178 0.45845398 -0.20567898 -0.23073971 -0.42522684 -0.12202866 -0.3206843 0.01266587
0.091943555 -0.89193845 -0.008024654 0.47756073 -0.2563249 -0.19091411 0.42758498 -0.7252798
0.21209568 0.022527 -0.5086977 -0.21111235 0.076020196 0.07643216 -0.206603 -0.20586225
0.42121843 0.41142213 0.07410904 0.42123428 -0.43462428 -0.036306515 0.1335684 0.15898618
-0.20388472 0.43964228 -0.18002847 -0.18699493 0.25871554 -0.33448717 -0.18126503 -0.070767544
0.27853993 0.32936928 -0.010117537 -0.31349757 -0.2906885 0.7603679 -0.15813889 0.5162768
0.7471599 -0.086177215 -0.28328776 -0.18033402 0.10948137 0.28983864 -0.3174108 -0.15132122
-0.60090804 -0.08649712 -0.3403251 -0.16006695 0.12521876 -0.18669683 0.16761582 -0.14627849
0.53012294 -0.19841512 0.05298245 0.44000086 0.059350245 0.09272702 0.4694368 -0.101647414
00000000: 5c11 e3be 15da c3bd 3625 803e fd51 213f
00000010: aea5 c6be 3eac 9abe 64f0 4d3d a242 cd3e
00000020: d765 783e 9bd5 eebe c1ce 64bf 0dbc 96bd
00000030: 300c 7c3e db1b 91bd ba6a 82bd ef00 aebe
00000040: d8fe df3e bbf3 043f 5d56 a0bf 4973 4abe
00000050: 0f81 c5bd e34c b6bc 45ee 813c 0f55 22bf
00000060: ed30 8dbe 3ea8 c4be 3f1d 883e 09ac 42be
00000070: 86a2 dbbd 298d 133d 795f b5bd 55e5 4fbd
00000080: 85cb 63be 3132 503f 9ab1 323e b198 09bc
00000090: 4e7d 313e ec6b 233e bb18 d63d 201d d13e
000000a0: f80c e8bd a42f bcbe 62b9 093e c593 5fbc
000000b0: da76 113f 74b5 193f 2a5e e33e 6c00 33be
000000c0: 853e 0fbe 139b 153e f891 1fbf 7cc2 86be
000000d0: baeb 453e 229e 8cbe 628c cd3c b025 a0be
000000e0: d0f6 f63e 7bba ea3e 839d 52be 0847 6cbe
000000f0: 55b7 d9be 29ea f9bd bc30 a4be 8284 4f3c
00000100: e74c bc3d 1456 64bf d779 03bc d782 f43e
00000110: 043d 83be fd7e 43be 6bec da3e f0ab 39bf
00000120: 9c2f 593e 8b8a b83c 033a 02bf d62d 58be
00000130: 7ab0 9b3d 7788 9c3d bd8f 53be 8ecd 52be
00000140: f1a9 d73e eca5 d23e 7bc6 973d 05ac d73e
00000150: 1387 debe 24b6 14bd 28c6 083e 46cd 223e
00000160: 28c7 50be cb18 e13e 6259 38be 997b 3fbe
00000170: 5d76 843e e741 abbe 8a9d 39be 93ee 90bd
00000180: c99c 8e3e 17a3 a83e 07c4 25bc c182 a0be
00000190: 20d5 94be 78a7 423f 29ef 21be b72a 043f
000001a0: df45 3f3f ae7d b0bd 180b 91be 7ba9 38be
000001b0: c537 e03d bb65 943e ab83 a2be f3f3 1abe
000001c0: 1cd5 19bf 6725 b1bd 173f aebe 97e8 23be
000001d0: 5939 003e 742d 3fbe 7ba3 2b3e 07ca 15be
000001e0: 23b6 073f 552d 4bbe 2004 593d cb47 e13e
000001f0: 3e19 733d aae7 bd3d 055a f03e 852c d0bd

model.model.2.weight f4 [128, 128]
-0.09600559 -0.083256714 -0.08303879 -0.13751242 -0.036142137 0.0311179 -0.058801554 0.05007603
-0.2748319 0.07246136 -0.105130486 -0.14943752 -0.03606319 0.06391709 0.051088024 -0.0065526045
-0.088537246 -0.12637575 -0.059224624 0.035787236 -0.039371576 -0.016005846 0.016601624 -0.079624526
-0.008185941 -0.15634064 -0.13153315 -0.08807289 -0.12740672 -0.07706549 -0.020623839 -0.040624205
-0.0072478857 0.002085977 -0.055083565 -0.18672144 0.040420216 -0.06520684 0.16552946 -0.032609098
-0.08653998 -0.1846459 -0.17145835 -0.109317884 -0.15163979 -0.20089668 -0.122969285 -0.024664672
0.018671107 0.008107761 -0.00044242665 -0.055379845 -0.02501878 -0.004115723 -0.09932311 0.025260651
-0.13265996 0.043632932 -0.123355374 -0.07953443 -0.07415313 0.051530402 0.027368058 -0.027998503
-0.03534734 -0.036564145 -0.12728743 -0.0008183115 -0.11327856 0.09917346 0.014395162 0.028020136
-0.083677106 -0.050809268 -0.008201097 -0.08561645 0.06454948 0.087374106 -0.045701854 -0.01933433
-0.08539832 -0.071801156 -0.00944807 0.0011290397 0.11235608 -0.14425965 -0.03645872 -0.17373525
-0.08509684 -0.087781325 -0.059977483 0.027182898 -0.04983962 -0.041427396 0.12722269 -0.06277188
0.05370209 -0.16319774 -0.07741465 -0.06163414 -0.16383968 -0.033752903 -0.06505995 0.003126297
-0.11981581 0.06038791 -0.059297018 -0.05284208 -0.06405549 -0.00981317 -0.05883783 -0.11994914
-0.0020917905 -0.09165665 -0.004389647 0.062133007 -0.09525535 -0.12085907 -0.023034995 -0.043169033
0.019228203 0.005129589 0.001829847 -0.06643417 -0.1395218 0.027717618 0.08107849 -0.09998863
-0.09554722 -0.16220433 -0.07475707 -0.08108364 -0.17120363 0.13756654 -0.13350248 -0.007374415
-0.07915786 -0.04214395 0.0024883782 0.06743171 0.06042967 0.07396295 0.10288346 -0.116955124
-0.20784132 -0.14172041 -0.20809475 -0.144386 -0.17158073 -0.15835848 0.13869455 -0.15282036
-0.1729216 -0.21452127 -0.17358838 0.12945674 -0.23357388 -0.029016517 0.011290757 0.0012281653
0.124447525 -0.119631104 -0.29138646 -0.2214453 -0.0036841468 -0.19335328 0.08035129 -0.09107494
-0.23188937 -0.25224563 -0.13776504 -0.08308529 -0.15817238 -0.08813946 -0.12185914 -0.08666629
-0.14883024 0.006907045 -0.36452147 -0.2634652 0.07177249 -0.097353786 -0.2601766 0.098825194
-0.15066215 -0.2244194 0.0899587 -0.1882374 -0.13426183 -0.07300728 0.076746546 -0.008986645
-0.23383273 0.06898873 -0.017523067 -0.19460262 -0.1341554 0.17560011 -0.016179591 0.32522547
-0.056399126 -0.21736324 0.06102516 -0.30288973 0.07332521 0.17950405 -0.05901381 0.074142046
-0.12749949 0.06533005 -0.09624396 -0.015009488 0.014871816 -0.024418483 0.10487005 -0.03636685
-0.097736016 -0.2768456 -0.01079167 -0.26690537 0.10842711 -0.025706729 0.12962668 -0.10881565
0.036614873 0.011155815 0.095936865 -0.11163464 -0.012048341 -0.26440197 0.0005693826 0.017585155
-0.23883307 0.16072899 -0.18612239 -0.18600813 -0.27937618 -0.10792985 -0.05275509 -0.08194868
-0.18270057 -0.1836044 -0.18682519 -0.11985775 -0.10582686 0.05941615 -0.10393929 -0.24212992
0.07934686 0.04918007 -0.13505468 -0.3365628 -0.4748373 -0.07177037 -0.03232005 -0.29680684
00000000: 949e c4bd 7f82 aabd 3e10 aabd 0ed0 0cbe
00000010: c709 14bd f7ea fe3c e6d9 70bd 861c 4d3d
00000020: c4b6 8cbe 9f66 943d a74e d7bd 2606 19be
00000030: ffb6 13bd f7e6 823d ad41 513d 3bb7 d6bb
00000040: 0453 b5bd a568 01be 8595 72bd a395 123d
00000050: 1744 21bd b11e 83bc 2100 883c 2f12 a3bd
00000060: 531e 06bc c317 20be a0b0 06be 8f5f b4bd
00000070: e876 02be 83d4 9dbd 53f3 a8bc 9165 26bd
00000080: ac7f edbb e3b4 083b 4e9f 61bd e833 3fbe
00000090: ab8f 253d 2a8b 85bd 8e80 293e 1e91 05bd
000000a0: df3b b1bd d113 3dbe c792 2fbe 0ee2 dfbd
000000b0: 7647 1bbe dcb7 4dbe 52d7 fbbd 910d cabc
000000c0: 26f4 983c 6ad6 043c 80f5 e7b9 fad5 62bd
000000d0: 2ff4 ccbc 30dd 86bb ea69 cbbd 6def ce3c
000000e0: 03d8 07be 72b8 323d bea1 fcbd f2e2 a2bd
000000f0: 99dd 97bd 8b11 533d fa32 e03c 1e5d e5bc
00000100: 5fc8 10bd 49c4 15bd a357 02be f583 56ba
00000110: 97fe e7bd 741b cb3d b0d9 6b3c 7c8a e53c
00000120: e75e abbd 611d 50bd e55d 06bc ad57 afbd
00000130: 8532 843d 32f1 b23d de31 3bbd 0763 9ebc
00000140: 50e5 aebd 7c0c 93bd 14cc 1abc 49fc 933a
00000150: f21a e63d cdb8 13be bd55 15bd a7e7 31be
00000160: 4147 aebd b2c6 b3bd f3aa 75bd abae de3c
00000170: a124 4cbd c6af 29bd aa46 023e 8b8e 80bd
00000180: b9f6 5b3d 4f1d 27be 928b 9ebd 1474 7cbd
00000190: 97c5 27be 7c40 0abd 273e 85bd 8fe2 4c3b
000001a0: fe61 f5bd 5059 773d 6ee1 72bd f070 58bd
000001b0: 862f 83bd 6bc7 20bc f0ff 70bd e5a7 f5bd
000001c0: 6c16 09bb 7bb6 bbbd 07d7 8fbb 2e7f 7e3d
000001d0: 3d15 c3bd f684 f7bd e3b3 bcbc 03d2 30bd
000001e0: 7784 9d3c 1c16 a83b 7ad7 ef3a a30e 88bd
000001f0: cede 0ebe 0f10 e33c 7b0c a63d d7c6 ccbd
00000200: 43ae c3bd e418 26be 3c1a 99bd 2e0f a6bd
00000210: 0150 2fbe 3ede 0c3e e0b4 08be 14a5 f1bb
00000220: 841d a2bd 229f 2cbd 0f14 233b a319 8a3d
00000230: 1a85 773d e379 973d 90b4 d23d 2b86 efbd
00000240: 5bd4 54be 281f 11be ca16 55be ecd9 13be
00000250: dcb2 2fbe ba28 22be f205 0e3e f17c 1cbe
00000260: 5c12 31be 77ab 5bbe 27c1 31be 4f90 043e
00000270: fe2d 6fbe 0cb4 edbc defc 383c 64fa a03a
00000280: 58de fe3d 2701 f5bd 9b30 95be 8fc2 62be
00000290: ba71 71bb 67fe 45be 388f a43d 8085 babd
000002a0: 6874 6dbe 5726 81be 4712 0dbe 9f28 aabd
000002b0: f1f7 21be 7682 b4bd 4991 f9bd 197e b1bd
000002c0: f466 18be 7e54 e23b 8fa2 babe e9e4 86be
000002d0: 75fd 923d 6c61 c7bd de35 85be dd64 ca3d
000002e0: 2e47 1abe 33ce 65be 443c b83d 4ec1 40be
000002f0: ef7b 09be d784 95bd 4b2d 9d3d b93c 13bc
00000300: d971 6fbe f749 8d3d 898c 8fbc e945 47be
00000310: 0860 09be 84d0 333e 108b 84bc f483 a63e
00000320: c502 67bd 7894 5ebe 85f5 793d 5d14 9bbe
00000330: 872b 963d e9cf 373e 77b8 71bd c9d7 973d
00000340: 3a8f 02be c3cb 853d 8e1b c5bd 5bea 75bc
00000350: eba8 733c 4509 c8bc 1cc6 d63d 68f5 14bd
00000360: d229 c8bd b5be 8dbe 8bcf 30bc d2a7 88be
00000370: 080f de3d eb96 d2bc dbbc 043e bdda debd
00000380: 7af9 153d e1c6 363c 8c7a c43d b4a0 e4bd
00000390: 6866 45bc b25f 87be 9f42 153a be0e 903c
000003a0: a890 74be 2496 243e de96 3ebe ea78 3ebe
000003b0: 650a 8fbe 530a ddbd b915 58bd b6d4 a7bd
000003c0: dc15 3bbe cb02 3cbe 1a4f 3fbe fb77 f5bd
000003d0: c1bb d8bd 595e 733d 1fde d4bd e8f0 77be
000003e0: 9b80 a23d 0b71 493d c64b 0abe f651 acbe
000003f0: e01d f3be 58fc 92bd 0762 04bd 11f7 97be

model.model.2.bias f4 [128]
-0.013288315 -0.25175637 -0.08455078 0.1952517 0.07663895 -0.12624422 0.082151696 0.45805213
-0.17009746 -0.13152167 0.0020281393 -0.59334683 -0.10633764 -0.26852575 0.82492197 -0.22001636
-0.51616853 -0.015225923 -0.022128493 -0.048854787 0.0764916 0.00039103886 0.7992968 -0.04777707
0.8672243 -0.014598145 -0.025164032 -0.23643798 0.3043805 0.13159303 0.765833 -0.11414506
-0.048403475 -0.24093597 -0.15510434 0.057942778 -0.09100234 -0.1703557 -0.078182414 0.5887682
-0.35201734 -0.13870104 0.33428836 -0.045497265 0.31475192 -0.18446094 -0.10219057 0.026402751
-0.00958371 -0.460289 0.4584443 0.04121485 -0.5990253 -0.083177984 -0.15476738 0.5031531
-0.038176224 -0.520031 0.4412989 0.6616696 -0.055210706 -0.13256736 0.36482668 0.025755726
-0.02271781 -0.5001539 0.041350223 0.0662712 -0.05885434 -0.24213916 -0.6113528 -0.083922766
-0.08452494 0.062982224 -0.12136042 -0.004962582 -0.21332428 0.06985069 -0.12884557 -0.13350093
-0.37665692 -0.44205 -0.20104665 -0.03412892 0.042918745 -0.060720183 -0.067306355 -0.07397251
-0.053437077 0.09839889 -0.08514465 -0.34679437 0.82870734 0.08123497 -0.3252692 0.05401204
-0.009054899 -0.007253545 -0.10874388 -0.09614818 -0.14200072 0.033190664 -0.04408498 -0.28969207
0.095605075 -0.31180775 0.29614586 0.05218153 -0.1663805 -0.09645856 0.26174483 -0.09103338
0.008525124 0.050504833 -0.022515723 -0.08719415 -0.40798467 -0.1845293 0.02578036 -0.10439244
-0.3144837 0.35889298 -0.18413566 -0.025453364 -0.14434889 -0.016257215 -0.09197143 -0.08677984
00000000: 3cb7 59bc 36e6 80be f628 adbd 10f0 473e
00000010: e2f4 9c3d 2a46 01be 263f a83d cf85 ea3e
00000020: 072e 2ebe 9ead 06be 88ea 043b 94e5 17bf
00000030: 8cc7 d9bd 357c 89be 162e 533f f84b 61be
00000040: 9f23 04bf 2676 79bc d046 b5bc f51b 48bd
00000050: a1a7 9c3d 5904 cd39 b79e 4c3f e4b1 43bd
00000060: 6902 5e3f 0f2d 6fbc cd24 cebc cc1c 72be
00000070: c3d7 9b3e 53c0 063e a20d 443f e3c4 e9bd
00000080: b942 46bd ebb7 76be acd3 1ebe 6855 6d3d
00000090: 6f5f babd ba71 2ebe 1a1e a0bd 83b9 163f
000000a0: 9e3b b4be a507 0ebe d827 ab3e 575b 3abd
000000b0: 2a27 a13e 54e3 3cbe 4a49 d1bd 954a d83c
000000c0: fe04 1dbc 00ab ebbe 36b9 ea3e e7d0 283d
000000d0: b959 19bf 3859 aabd 577b 1ebe a4ce 003f
000000e0: ac5e 1cbd c020 05bf eef1 e13e 2e63 293f
000000f0: 9f24 62bd bdbf 07be 90ca ba3e acfd d23c
00000100: b31a babc 160a 00bf da5e 293d 32b9 873d
00000110: 4011 71bd 54f3 77be 9e81 1cbf b3df abbd
00000120: 691b adbd d3fc 803d d08b f8bd 289d a2bb
00000130: ae71 5abe e10d 8f3d 18f0 03be 78b4 08be
00000140: 2dd9 c0be 6154 e2be 2cdf 4dbe c4ca 0bbd
00000150: 91cb 2f3d bab5 78bd ead7 89bd e67e 97bd
00000160: d6e0 5abd 5b85 c93d 5160 aebd 088f b1be
00000170: 2a26 543f 855e a63d af89 a6be bb3b 5d3d
00000180: 005b 14bc 25af edbb 1db5 debd 56e9 c4bd
00000190: a368 11be eff2 073d 7492 34bd 8552 94be
000001a0: 98cc c33d 44a5 9fbe 6ea0 973e 4dbc 553d
000001b0: a65f 2abe 118c c5bd 6b03 863e b56f babd
000001c0: f6ac 0b3c 28de 4e3d e572 b8bc d992 b2bd
000001d0: 5ee3 d0be 40f5 3cbe 5531 d33c b4cb d5bd
000001e0: 0204 a1be d2c0 b73e 0f8e 3cbe 9383 d0bc
000001f0: 32d0 13be da2d 85bc 845b bcbd a1b9 b1bd

model.model.4.weight f4 [128, 128]
0.056899305 -0.08005244 -0.1686396 -0.1338796 -0.118574545 -0.041430704 -0.16257438 -0.1728601
-0.063981116 -0.068444595 -0.004923958 -0.039253283 -0.14003997 -0.096548975 -0.053373054 -0.0039140745
0.017982537 -0.018476121 0.10738576 -0.028637657 0.112747565 0.07693933 -0.021036016 0.022475934
-0.20543256 -0.10986477 0.039478656 0.0040760473 -0.012872797 0.07487144 0.013771975 0.10656878
0.028440516 -0.061579283 -0.08672507 0.039883215 0.008983243 0.037147306 -0.11450571 0.06739879
-0.0980733 -0.009850913 -0.08517832 -0.027289208 -0.056520693 -0.0644627 -0.015965255 -0.13906334
-0.014239286 -0.0054099723 -0.20854723 0.03280963 0.035970524 -0.16664322 -0.18134585 -0.061586767
0.078526236 0.011096719 -0.21851254 -0.03388755 -0.06302815 -0.016921211 -0.04179721 -0.0053486023
0.0120529495 -0.060772713 -0.03285887 -0.08300705 -0.057073627 -0.00573355 0.1017966 0.051922135
-0.03101939 0.0050016795 -0.069269545 -0.10391091 0.044102803 -0.020202242 0.050725747 -0.044222727
0.061828326 0.096097656 -0.076665446 0.045719407 0.0073807407 -0.022619821 0.073678985 -0.07036401
-0.0073163444 -0.005244272 0.07571135 0.021972947 0.0052870894 -0.1226915 -0.1884362 -0.0846772
-0.07975275 0.026096733 0.056763195 -0.032625742 0.10787386 -0.10124231 -0.10939827 0.007216598
-0.017772246 -0.06699483 -0.11153173 0.006202878 0.034114942 -0.06736677 -0.070267424 0.078201465
0.0802158 0.02389112 -0.082291774 -0.029161535 0.031871192 0.05472675 -0.10869637 0.0593471
-0.13450098 -0.136819 0.1056324 -0.05229234 -0.037656344 0.0035528871 0.015637327 0.0016980845
-0.04850432 -0.0045338236 -0.19276781 -0.04187361 0.09681154 -0.05573787 -0.26855648 -0.092098884
-0.22429462 -0.113481075 -0.102435395 -0.08436497 -0.1174118 0.016411243 0.050218564 0.021319395
-0.0716037 -0.021180114 0.03442472 -0.096964195 -0.036453735 -0.022688001 -0.07457304 -0.05108439
0.045326788 0.15509684 -0.0020006741 0.043998644 -0.18251441 -0.3528636 -0.27606472 -0.04973518
-0.22583982 0.09095831 0.07234993 0.0045711407 -0.06571195 -0.2473743 -0.09813785 -0.043272056
-0.029517716 -0.08804594 -0.254435 -0.035287276 -0.06364011 -0.06875022 -0.13 -0.24183042
-0.0020909368 0.044345643 -0.25963056 -0.03327847 0.11714579 -0.26292962 -0.009898117 -0.18760139
-0.09997681 -0.16696508 -0.048514206 -0.10219132 -0.12622161 0.010668751 0.13553692 0.02926418
-0.055043973 0.048287425 0.06090713 -0.071878694 -0.06295861 -0.06752893 0.30908933 0.00019911375
0.04551595 -0.22775827 -0.0071377493 0.026191443 -0.2935519 -0.0018959858 -0.0397794 -0.0042302804
-0.06238794 -0.21816175 0.06310313 -0.021541065 -0.14772515 0.0015631766 0.01989974 -0.04725634
-0.09976576 -0.5087659 0.056301408 -0.17845806 -0.109132804 -0.13156267 -0.17259234 0.05589103
-0.1110502 -0.17967053 -0.048959274 0.07962164 -0.09491747 -0.019020589 0.019795543 0.11634404
-0.32806075 0.12346755 -0.3130834 0.05960738 -0.10451336 0.05725529 -0.2984822 0.043512136
-0.033280816 0.0032152813 -0.052414183 0.2637672 -0.18694 0.03042048 0.010283916 -0.07370972
-0.064991 0.0062160874 0.081106566 -0.071709886 -0.06572694 0.009106867 0.068142176 -0.021009726
00000000: 3f0f 693d 89f2 a3bd dcaf 2cbe bc17 09be
00000010: 36d7 f2bd 3eb3 29bd e679 26be 3d02 31be
00000020: 8808 83bd ae2c 8cbd 2759 a1bb 0dc8 20bd
00000030: a366 0fbe 78bb c5bd b49d 5abd a341 80bb
00000040: 1d50 933c 3c5b 97bc 11ed db3d 8599 eabc
00000050: 32e8 e63d 5e92 9d3d b953 acbc 731f b83c
00000060: ea5c 52be c800 e1bd 5fb4 213d 5d90 853b
00000070: 6de8 52bc 3356 993d daa3 613c bc40 da3d
00000080: 16fc e83c 8f3a 7cbd ea9c b1bd 955c 233d
00000090: 742e 133c c627 183d f881 eabd 6008 8a3d
000000a0: a8da c8bd b965 21bc f971 aebd 9e8d dfbc
000000b0: 3e82 67bd 0505 84bd 91c9 82bc 9f66 0ebe
000000c0: e54b 69bc 2346 b1bb 688d 55be 6463 063d
000000d0: d455 133d 85a4 2abe bab2 39be 6842 7cbd
000000e0: 5dd2 a03d 03cf 353c c0c1 5fbe accd 0abd
000000f0: e714 81bd 5a9e 8abc 8d33 2bbd 5443 afbb
00000100: bc79 453c cfec 78bd 0697 06bd 9aff a9bd
00000110: 09c6 69bd 81e0 bbbb bc7a d03d 4eac 543d
00000120: 601c febc 21e5 a33b 31dd 8dbd 3ecf d4bd
00000130: 24a5 343d 2c7f a5bc cdc5 4f3d e422 35bd
00000140: b33f 7d3d d9ce c43d c602 9dbd 4644 3b3d
00000150: 24da f13b 344d b9bc 02e5 963d 021b 90bd
00000160: f2bd efbb 24d8 abbb 8d0e 9b3d 9c00 b43c
00000170: 523f ad3b ae45 fbbd 6bf5 40be 3d6b adbd
00000180: 6955 a3bd d1c8 d53c 8680 683d 92a2 05bd
00000190: f8ec dc3d 2158 cfbd 330c e0bd 3679 ec3b
000001a0: 1a97 91bc 9634 89bd bf6a e4bd 8341 cb3b
000001b0: 1cbc 0b3d 97f7 89bd 5ee8 8fbd 1728 a03d
000001c0: 2e48 a43d 4fb7 c33c 9788 a8bd 2ce4 eebc
000001d0: 5e8b 023d 2829 603d 349c debd f215 733d
000001e0: a0ba 09be 481a 0cbe cd55 d83d 7e30 56bd
000001f0: 8a3d 1abd 8ed7 683b da19 803c 4392 de3a
00000200: 77ac 46bd 7890 94bb ed64 45be aa83 2bbd
00000210: 2145 c63d 654d 64bd 3c80 89be 579e bcbd
00000220: 7dad 65be c468 e8bd a6c9 d1bd 8bc7 acbd
00000230: 9975 f0bd df70 863c fbb1 4d3d 03a6 ae3c
00000240: f6a4 92bd eb81 adbc ef00 0d3d 2a95 c6bd
00000250: 8350 15bd 30dc b9bc c0b9 98bd de3d 51bd
00000260: 95a8 393d b5d1 1e3e be1d 03bb ec37 343d
00000270: 0fe5 3abe 8aaa b4be 5b58 8dbe 1eb7 4bbd
00000280: 8e42 67be 5a48 ba3d 332c 943d 82c9 953b
00000290: fd93 86bd b04f 7dbe 7ffc c8bd 0a3e 31bd
000002a0: 23cf f1bc 6e51 b4bd 4e45 82be 6489 10bd
000002b0: bf55 82bd eacc 8cbd b81e 05be 65a2 77be
000002c0: 1908 09bb c7a3 353d 4cee 84be 014f 08bd
000002d0: 22ea ef3d b69e 86be b62b 22bc 941a 40be
000002e0: a4c0 ccbd e5f8 2abe d5b6 46bd af49 d1bd
000002f0: 3d40 01be fccb 2e3c 31ca 0a3e 6fbb ef3c
00000300: ca75 61bd 09c9 453d c179 793d 2335 93bd
00000310: 72f0 80bd 9c4c 8abd f540 9e3e 31c9 5039
00000320: ef6e 3a3d 7739 69be c8e3 e9bb 708f d63c
00000330: 6f4c 96be ba82 f8ba b9ef 22bd 2a9e 8abb
00000340: 7f8a 7fbd cb65 5fbe 373c 813d e376 b0bc
00000350: 4345 17be 81e3 cc3a c804 a33c dd8f 41bd
00000360: fe51 ccbd 7b3e 02bf 4e9c 663d b6bd 36be
00000370: 0581 dfbd 5db8 06be 0cbc 30be feed 643d
00000380: 4a6e e3bd 8dfb 37be 8589 48bd ac10 a33d
00000390: 1764 c2bd 11d1 9bbc 432a a23c c945 ee3d
000003a0: 94f7 a7be 8edc fc3d 784c a0be de26 743d
000003b0: 1a0b d6bd 8684 6a3d a9d2 98be c839 323d
000003c0: 7751 08bd 78b7 523b 41b0 56bd 7f0c 873e
000003d0: 336d 3fbe 5f34 f93c df7d 283c 1ff5 96bd
000003e0: 001a 85bd 52b0 cb3b 331b a63d a2dc 92bd
000003f0: d99b 86bd f834 153c 208e 8b3d 971c acbc

model.model.4.bias f4 [128]
-0.1999794 -0.17860366 -0.28060338 -0.15956652 -0.18081447 -0.14118768 -0.06517904 -0.1734265
-0.24696249 -0.25074783 -0.3354124 -0.35413232 -0.3020927 -0.15714124 -0.28773773 -0.14967507
-0.16716914 -0.26663053 -0.23283528 -0.21764326 -0.26258245 -0.23589166 -0.08257775 -0.29117012
-0.19049954 -0.3266672 -0.48887518 -0.12987632 -0.49748078 -0.13909051 -0.46057886 -0.3673447
-0.25639665 -0.54279035 -0.1560467 -0.39049715 -0.1849953 -0.26291314 -0.3163916 -0.06108937
-0.794374 -0.009453571 -0.40454963 -0.17635457 -0.3727164 -0.034888584 -0.41445175 -0.11612267
-0.24607368 -0.83737665 -0.055740796 -0.49330363 -0.37752366 -0.5553105 -0.14950018 -0.22758608
-0.67519605 -0.14432488 -0.52830803 -0.14357935 -0.22376037 -0.26467004 -0.34863225 -0.27763745
-0.16822337 -0.5858807 -0.21848789 -0.1556719 -0.18890066 -0.22096947 0.10807843 -0.33270565
-0.257303 5.073281 -0.041662555 -0.20206317 -0.1539677 -0.44294682 -0.53918636 -0.68282616
-0.54032123 -0.30493078 -0.16082722 -0.22067496 0.0054763546 -0.31277794 -0.17560056 -0.5720377
-0.067767896 -0.12015179 -0.2107762 -0.32875672 -0.37931663 -0.3545742 -0.3315937 -0.10095537
-0.60067564 -0.07311739 -0.41138327 -0.44492638 -0.12235255 -0.17040914 -0.41452104 -0.16021727
-0.22272068 -0.16309558 -0.030987158 -0.2667239 -0.06339952 -0.13649599 -0.03474839 -0.17755282
-0.570412 -0.10266038 -0.0868602 -0.47764313 -0.34968427 -0.67780685 -0.27950403 -0.24903093
-0.03207818 -0.33376452 -0.062938735 -0.2112134 -0.4352772 -0.31524 -0.5537859 -0.15125701
00000000: 66c7 4cbe e1e3 36be 3fab 8fbe 6865 23be
00000010: 6e27 39be 8193 10be 977c 85bd b796 31be
00000020: bce3 7cbe 0562 80be 2dbb abbe d550 b5be
00000030: e5ab 9abe a2e9 20be 5c52 93be 6c44 19be
00000040: 632e 2bbe cc83 88be 5f6c 6ebe e0dd 5ebe
00000050: 3571 86be 958d 71be 861e a9bd 4014 95be
00000060: 5012 43be ec40 a7be d94d fabe 4cfe 04be
00000070: cdb5 febe be6d 0ebe fed0 ebbe 9b14 bcbe
00000080: 6c46 83be 4ff4 0abf b5ca 1fbe 3eef c7be
00000090: 686f 3dbe 8d9c 86be 14fe a1be d938 7abd
000000a0: 185c 4bbf 27e3 1abc 2121 cfbe 4b96 34be
000000b0: afd4 bebe 55e7 0ebd 0533 d4be b9d1 edbd
000000c0: bdfa 7bbe 515e 56bf 7650 64bd 4b92 fcbe
000000d0: c84a c1be d428 0ebf 9316 19be 530c 69be
000000e0: a6d9 2cbf e7c9 13be 323f 07bf 7706 13be
000000f0: 7021 65be d582 87be ed7f b2be 7f26 8ebe
00000100: bf42 2cbe 47fc 15bf 4abb 5fbe 7468 1fbe
00000110: 2d6f 41be d245 62be 3958 dd3d 6558 aabe
00000120: 38bd 83be 5158 a240 5ba6 2abd a6e9 4ebe
00000130: b5a9 1dbe edc9 e2be 1e08 0abf b2cd 2ebf
00000140: 7e52 0abf e31f 9cbe e4af 24be 9ef8 61be
00000150: fe72 b33b 6e24 a0be a2d0 33be 1071 12bf
00000160: e5c9 8abd 2412 f6bd b7d5 57be cd52 a8be
00000170: ca35 c2be c08a b5be a6c6 a9be b0c1 cebd
00000180: e1c5 19bf 92be 95bd d4a0 d2be 64cd e3be
00000190: f993 fabd bc7f 2ebe 1a3c d4be ff0f 24be
000001a0: e410 64be 8702 27be c8d8 fdbc 0990 88be
000001b0: 9cd7 81bd 9bc5 0bbe 5454 0ebd 68d0 35be
000001c0: 8506 12bf 9b3f d2bd c3e3 b1bd a48d f4be
000001d0: d109 b3be c084 2dbf 271b 8fbe f701 7fbe
000001e0: 6964 03bd 2fe3 aabe 06e6 80bd 5348 58be
000001f0: a7dc debe 2367 a1be eac4 0dbf 1ee3 1abe

model.model.6.weight f4 [7, 128]
-0.0684404 0.46263576 0.3494428 0.028735615 0.20495838 0.075141326 0.38099125 0.021891626
0.08751461 0.080002785 -0.06704321 0.71129626 0.27953708 0.62978774 0.47489443 0.36362028
-0.030858958 0.18843316 0.32263848 0.06335324 0.35190675 0.08121716 0.016025824 -0.030095667
0.1504992 0.01324187 0.23602349 0.29598108 0.14568007 0.8077168 0.17574951 0.21089464
0.18181078 -0.17000829 -0.022250758 0.14019564 0.24058825 0.81490594 0.19996038 0.21514413
0.07943817 0.08835615 0.0035438708 0.24566518 0.20099793 0.25319484 0.082614005 0.18733539
0.034444842 0.4258647 0.25116286 0.032924198 0.46747833 0.7032892 0.32978806 0.5431539
0.27603778 -0.031159196 -0.079626426 -0.05727113 0.057972297 0.038407978 0.7413184 0.36551282
0.31889898 0.13044687 0.5664357 0.082458794 0.04891992 0.18007055 0.10411802 -0.015667867
0.09527893 -0.107125126 0.14490135 0.20573857 0.053743493 0.12665394 0.28684938 0.35051268
0.197333 0.4983544 0.19977443 0.25327587 0.100775436 0.6525735 0.13306375 0.5968009
-0.07557843 0.006517617 -0.08620039 0.25887504 0.24034485 0.13543373 0.4843909 0.09404768
0.11232261 0.14192377 0.23669718 0.553412 0.4494928 0.0036980286 0.27836987 0.0052504786
0.29412872 -0.010855547 0.4810235 0.4569206 0.1613648 0.16676429 0.31156003 0.35029644
0.51310754 0.11436433 0.14394285 0.18575206 -0.019273194 0.19982205 0.22158296 0.33987078
0.032717027 0.53684425 -0.0733296 0.038918156 0.31676587 0.048284598 -0.10027618 0.07601827
0.01065164 0.1898771 0.22528449 0.17915843 0.29371166 0.14453429 0.6244754 0.0018732804
-0.015234636 0.32121292 -0.16837372 -0.32262492 -0.120631635 -0.15269493 0.4383728 0.08026167
0.009730808 0.19382912 0.28431135 0.20270443 0.4126962 0.28411838 -0.015641987 -0.10228853
0.22165722 0.30967504 0.13890179 0.0020477502 0.36013848 -0.26240984 0.37303266 0.09183041
-0.035687122 0.43129158 0.0038608967 0.18797937 0.0458056 0.73199075 0.007897075 0.4233106
0.48272294 0.12107569 0.20523874 0.37108004 0.067787156 -0.0073276516 0.29524177 0.01890875
-0.15798 0.61953074 0.16631866 0.26557902 0.49555525 0.40490165 0.6153233 0.2106901
0.46514025 -0.05228061 0.27927488 0.040373858 0.061080426 0.5147623 0.284418 0.44567567
0.40872815 0.11950888 0.6606857 0.23980436 0.15484494 0.00033113256 0.060125563 0.0015647296
0.05121822 -0.1024538 0.14247845 0.13750324 -0.0052546626 0.34922376 0.6371536 0.17625818
0.05170409 0.41508257 0.0037513291 -0.0019242686 0.10316098 0.6610153 0.15807869 0.417865
0.025448797 0.018710325 -0.05135354 0.1432369 0.19229138 0.1398438 0.29253334 0.11853483
0.0056689302 0.15292719 0.08658915 0.68640655 0.43822193 -0.007309023 0.108219646 0.07808722
0.29546845 0.0062256358 0.53348273 0.15319069 0.12100167 -0.015000844 0.23642236 -0.29406926
0.32638228 0.1100409 0.075297974 0.32590926 0.20044026 -0.061953492 0.20063148 0.10345203
0.07484636 0.5486131 0.026512885 0.044737365 0.39136514 0.18439803 -0.05356693 0.13727096
00000000: 7b2a 8cbd 98de ec3e 2bea b23e f466 eb3c
00000010: 9ce0 513e b2e3 993d 4911 c33e 1156 b33c
00000020: dc3a b33d 80d8 a33d f34d 89bd 8317 363f
00000030: 7c1f 8f3e c539 213f 5d25 f33e 702c ba3e
00000040: edcb fcbc 9ff4 403e df30 a53e 58bf 813d
00000050: 1f2d b43e 2f55 a63d 9748 833c 308b f6bc
00000060: 761c 1a3e 6ef4 583c 24b0 713e d58a 973e
00000070: 282d 153e 87c6 4e3f aef7 333e c4f4 573e
00000080: 9b2c 3a3e a716 2ebe 3947 b6bc 728f 0f3e
00000090: c45c 763e ad9d 503f 6ac2 4c3e be4e 5c3e
000000a0: 7bb0 a23d 12f4 b43d 4940 683b a78f 7b3e
000000b0: 67d2 4d3e c1a2 813e 8831 a93d d9d4 3f3e
000000c0: 0916 0d3d f00a da3e 6b98 803e 86db 063d
000000d0: 5259 ef3e c30a 343f fbd9 a83e 220c 0b3f
000000e0: d354 8d3e 9241 ffbc 2e13 a3bd 2295 6abd
000000f0: 5c74 6d3d af51 1d3d 0bc7 3d3f 7f24 bb3e
00000100: ba46 a33e dd93 053e ee01 113f 28e0 a83d
00000110: 4160 483d 6a64 383e d43b d53d e659 80bc
00000120: 9a21 c33d 6b64 dbbd 0561 143e 22ad 523e
00000130: 2322 5c3d 92b1 013e ecdd 923e 6676 b33e
00000140: a911 4a3e 4f28 ff3e ab91 4c3e 60ad 813e
00000150: 5a63 ce3d 0f0f 273f dd41 083e f2c7 183f
00000160: ddc8 9abd bc91 d53b d489 b0bd 458b 843e
00000170: f61c 763e 24af 0a3e 1602 f83e 129c c03d
00000180: 6609 e63d 7754 113e bf60 723e 69ac 0d3f
00000190: ec23 e63e a05a 723b 7f86 8e3e 350c ac3b
000001a0: 0a98 963e 77db 31bc b648 f63e 7ff1 e93e
000001b0: d03c 253e 42c4 2a3e cc84 9f3e 0e5a b33e
000001c0: 045b 033f d937 ea3d c165 133e ca35 3e3e
000001d0: d1e2 9dbc 279e 4c3e a5e6 623e 8b03 ae3e
000001e0: 4a02 063d a06e 093f d42d 96bd a568 1f3d
000001f0: 232f a23e 12c6 453d 995d cdbd 77af 9b3d
00000200: 3784 2e3c 246f 423e fab0 663e 4f75 373e
00000210: 6061 963e cc00 143e 9fdd 1f3f dc88 f53a
00000220: b29a 79bc 0576 a43e 296a 2cbe 182f a5be
00000230: b80d f7bd 0f5c 1cbe 6672 e03e 3b60 a43d
00000240: f86d 1f3c 247b 463e 4291 913e c091 4f3e
00000250: eb4c d33e f777 913e a023 80bc a67c d1bd
00000260: 1cfa 623e ba8d 9e3e 453c 0e3e 8c33 063b
00000270: 1264 b83e 955a 86be 23fe be3e 9511 bc3d
00000280: a92c 12bd 40d2 dc3e 1907 7d3b aa7d 403e
00000290: a79e 3b3d bf63 3b3f bc62 013c 2bbc d83e
000002a0: 7627 f73e 88f6 f73d 1b2a 523e 34fe bd3e
000002b0: fed3 8a3d cc1c f0bb ee29 973e 86e6 9a3c
000002c0: 82c5 21be 9199 1e3f 704f 2a3e f9f9 873e
000002d0: 6bb9 fd3e 454f cf3e d485 1d3f 25bf 573e
000002e0: dd26 ee3e 3124 56bd 1efd 8e3e 0f5f 253d
000002f0: 782f 7a3d 76c7 033f 3c9f 913e 9a2f e43e
00000300: d144 d13e 12c1 f43d b322 293f 468f 753e
00000310: ac8f 1e3e dc9b ad39 3946 763d 9d17 cd3a
00000320: 32ca 513d 4cd3 d1bd dfe5 113e a6cd 0c3e
00000330: 4e2f acbb 75cd b23e 801c 233f 067d 343e
00000340: abc7 533d b485 d43e dcd8 753b bd37 fcba
00000350: 1046 d33d 4c38 293f 61df 213e 67f2 d53e
00000360: ff79 d03c 6546 993c 1758 52bd b2ac 123e
00000370: 08e8 443e 3733 0f3e eec6 953e 64c2 f23d
00000380: 6fc2 b93b f298 1c3e a755 b13d 57b8 2f3f
00000390: a05e e03e 8780 efbb 43a2 dd3d 31ec 9f3d
000003a0: a447 973e 6b00 cc3b 5392 083f 05de 1c3e
000003b0: b9cf f73d 1ac6 75bc b418 723e 3f90 96be
000003c0: 941b a73e 205d e13d d335 9a3d 94dd a63e
000003d0: 3640 4d3e f2c2 7dbd 5772 4d3e a8de d33d
000003e0: 0c49 993d e871 0c3f 8d31 d93c 873e 373d
000003f0: 0361 c83e d6d2 3c3e ff68 5bbd c290 0c3e

model.model.6.bias f4 [7]
0.20548609 0.54529965 -0.059918154 0.036794484 0.6807102 0.16193339 0.490701
00000000: f26a 523e c298 0b3f bd6c 75bd d0b5 163d
00000010: 0643 2e3f ded1 253e 293d fb3e

model_old.model.0.weight f4 [128, 42]
-0.23376366 -0.71989304 -0.5124586 0.20081413 0.12802635 0.079476036 -0.55663085 0.051711075
-0.27965227 -0.3754926 0.3156069 0.04900808 0.5025506 -0.2254691 -0.14793108 -0.2596802
-0.3437502 -0.230059 -0.1987872 -0.0027980953 0.0067219357 -0.11500915 -0.06724466 -0.13250983
0.5458457 -0.3881336 -0.5391001 -0.19125032 -0.28996277 -0.3202381 -0.060918912 0.3060917
-0.25853616 -0.09509954 -0.29074708 -0.09457382 -0.17303263 -0.040986173 0.61162454 -0.031249365
0.0203496 -0.33875272 -0.2205451 0.015964499 0.21753131 -0.2659803 -0.4155853 0.041924562
0.23522148 -0.059570465 0.13111985 -0.12438986 0.26162866 -0.3864766 0.3512387 0.29627112
0.12721424 0.6567823 0.13425888 -0.27038562 -0.06535591 0.48639286 -0.8171852 0.26510113
-1.5410283 0.4627697 -0.15708289 0.073105365 -0.80471194 -0.24274592 -0.10908186 -0.62555504
0.17860991 -0.14110789 -0.025303772 -0.34167495 -0.23386972 0.093985036 -0.4393811 0.12280237
-0.2560881 -0.14696549 -0.057747748 -0.054292634 0.07671249 -0.57450014 -1.0350946 -0.15918966
-0.7262246 -0.36955 -0.48245907 0.3868043 -0.37814635 -0.5000858 0.2887694 -0.3614265
-0.052839387 0.20611446 0.12878309 -0.31407925 -0.3401387 0.039945953 -0.24913892 0.1532024
0.46493095 -0.45181876 0.29469222 -0.4752221 0.95497197 -0.15653391 0.16905451 -0.42707297
-0.64998245 -0.036875088 -0.37423655 0.13830967 -0.43243533 0.0843472 -0.48348445 -0.50856924
-0.33638895 -0.28326657 -0.23292471 0.057975672 -0.4742389 0.012261789 -0.052986838 -0.13086098
-0.20357206 -0.52591693 0.096133836 -0.18965298 0.4408051 0.22262451 -0.34432077 -0.40378365
-0.2909876 0.07328389 -0.13750792 0.17193708 0.33873224 -0.29923427 -0.19040385 -0.34343433
-0.893847 -0.40327743 -0.2522774 -0.44709414 -0.040991284 0.08331704 -0.44030723 -0.08945737
-0.117771186 -0.6620212 -0.58318526 -0.34513247 0.19886746 -0.26664355 0.04721751 0.12100577
-0.28450018 -0.050351225 -0.23831488 -0.013921906 -0.5658488 -0.11940143 0.24690625 -0.40192947
-0.29092252 -0.09443163 -0.17930926 -0.3679609 0.1021248 0.022359345 0.0886493 -0.58610606
-0.30442625 -0.12695234 -0.5159013 0.44137377 -0.46182582 -0.17206548 -0.51778436 0.0018453263
0.13474268 0.1190004 0.79792196 -0.0983961 -0.6013212 -0.10920871 -0.16309565 0.14335044
-0.68162984 0.15909052 -0.043724407 0.7302829 -0.07978303 -0.1294375 -0.036659908 -0.7396511
-0.23434505 -0.36811844 0.4289617 0.13136312 0.0001524777 -0.32992068 -0.47881305 0.045451757
0.025570845 -0.15205579 -0.09219394 0.037374232 -0.17616458 -0.19104953 0.013341212 -0.14644147
-0.18375629 -0.019899935 -0.013206614 -0.10471113 -0.23442966 -0.085976295 -0.1575586 -0.12731351
-0.20992911 -0.106921084 0.00056270673 0.097805955 0.0572098 0.009777039 -0.14743248 0.057260305
-0.029901898 0.013236688 0.0735478 0.020705312 -0.019408986 0.05029715 0.07745809 -0.0007946171
0.12078331 0.032184977 -0.0059990324 0.0628669 -0.16015755 0.06081304 -0.07118871 -0.032957256
0.05215509 -0.14676996 0.096974954 -0.12622994 0.5279671 -0.3892162 0.2006244 0.18641724
00000000: be5f 6fbe e94a 38bf 7d30 03bf 38a2 4d3e
00000010: 5719 033e 55c4 a23d 5c7f 0ebf fece 533d
00000020: 952e 8fbe 9140 c0be 3a97 a13e b2bc 483d
00000030: 28a7 003f 5fe1 66be 3f7b 17be cef4 84be
00000040: 0700 b0be 9694 6bbe df8e 4bbe 4060 37bb
00000050: af43 dc3b eb89 ebbd 91b7 89bd a8b0 07be
00000060: 8bbc 0b3f 72b9 c6be 7702 0abf 20d7 43be
00000070: 0076 94be 40f6 a3be 1c86 79bd 0db8 9c3e
00000080: da5e 84be 8cc3 c2bd cddc 94be ebaf c1bd
00000090: 772f 31be 1ee1 27bd 6d93 1c3f abfe ffbc
000000a0: 34b4 a63c ff70 adbe 93d6 61be fbc7 823c
000000b0: 87c0 5e3e 922e 88be 99c7 d4be 17b9 2b3d
000000c0: e6dd 703e 2900 74bd 4844 063e 1cc0 febd
000000d0: 31f4 853e 43e0 c5be 8fd5 b33e d9b0 973e
000000e0: 7344 023e e322 283f 297b 093e fc6f 8abe
000000f0: 52d9 85bd 7c08 f93e 0d33 51bf 56bb 873e
00000100: 6a40 c5bf 26f0 ec3e 56da 20be 44b8 953d
00000110: 9a01 4ebf 6392 78be 4f66 dfbd 6024 20bf
00000120: 84e5 363e 967e 10be db49 cfbc 05f0 aebe
00000130: 8b7b 6fbe 3a7b c03d 8ff6 e0be cf7f fb3d
00000140: fb1d 83be 1f7e 16be e788 6cbd f461 5ebd
00000150: 701b 9d3d 7112 13bf fb7d 84bf 9d02 23be
00000160: dbe9 39bf a835 bdbe e004 f7be 370b c63e
00000170: 669c c1be 9f05 00bf 95d9 933e e50c b9be
00000180: 1d6e 58bd ab0f 533e b7df 033e ffce a0be
00000190: a926 aebe 5e9e 233d 461e 7fbe 17e1 1c3e
000001a0: 6e0b ee3e ca54 e7be e6e1 963e 5050 f3be
000001b0: 0b79 743f 6d4a 20be a01c 2d3e 4fa9 dabe
000001c0: 4065 26bf 550a 17bd ef9b bfbe 0da1 0d3e
000001d0: 2a68 ddbe 3abe ac3d 468b f7be 9831 02bf
000001e0: 2c3b acbe 5108 91be d183 6ebe e677 6d3d
000001f0: 71cf f2be ace5 483c ba08 59bd 6c00 06be
00000200: 3275 50be 7ea2 06bf d1e1 c43d 6434 42be
00000210: 35b1 e13e aef7 633e d04a b0be bbbc cebe
00000220: 54fc 94be dd15 963d e0ce 0cbe 4610 303e
00000230: 506e ad3e 3c35 99be 3af9 42be a0d6 afbe
00000240: 28d3 64bf 617a cebe 812a 81be 86e9 e4be
00000250: 7ae6 27bd 20a2 aa3d f36f e1be 6d35 b7bd
00000260: 0532 f1bd 397a 29bf a14b 15bf 34b5 b0be
00000270: e9a3 4b3e 8185 88be 2667 413d e0d1 f73d
00000280: 02aa 91be 163d 4ebd d108 74be b518 64bc
00000290: 78db 10bf bd88 f4bd fed4 7c3e b3c9 cdbe
000002a0: ccf3 94be 5f65 c1bd d99c 37be 5f65 bcbe
000002b0: cf26 d13d f22a b73c c48d b53d 0c0b 16bf
000002c0: c2dd 9bbe cbff 01be 1c12 04bf befb e13e
000002d0: 6f74 ecbe ef31 30be 848d 04bf e0de f13a
000002e0: fcf9 093e 7bb6 f33d 9d44 4c3f e583 c9bd
000002f0: 30f0 19bf d1a8 dfbd 8c02 27be 75ca 123e
00000300: 4b7f 2ebf a0e8 223e 5d18 33bd d2f3 3a3f
00000310: 4965 a3bd 448b 04be b328 16bd c659 3dbf
00000320: 26f8 6fbe 057a bcbe dea0 db3e 0e84 063e
00000330: 6ce2 1f39 5deb a8be fc26 f5be 9f2b 3a3d
00000340: f379 d13c 83b4 1bbe 2dd0 bcbd b915 193d
00000350: 7d64 34be 7da2 43be 1995 5a3c c1f4 15be
00000360: 9c2a 3cbe 3005 a3bc 8e60 58bc ca72 d6bd
00000370: 540e 70be 5714 b0bd 0b57 21be 795e 02be
00000380: a8f7 56be 71f9 dabd 9c82 133a 7d4e c83d
00000390: d354 6a3d e02f 203c 8af8 16be c889 6a3d
000003a0: d3f4 f4bc b2de 583c 3ba0 963d 309e a93c
000003b0: 98ff 9ebc 6204 4e3d 59a2 9e3d da4d 50ba
000003c0: 3d5d f73d 65d4 033d 8893 c4bb 5cc0 803d
000003d0: 5700 24be 1817 793d 63cb 91bd 30fe 06bd
000003e0: 93a0 553d dd4a 16be ce9a c63d 6c42 01be
000003f0: da28 073f 5947 c7be 7c70 4d3e 29e4 3e3e

model_old.model.0.bias f4 [128]
-0.38894767 -0.09615719 0.24686933 0.591722 -0.34298685 -0.30209535 -0.026435219 0.42866123
0.2504228 -0.46636283 -0.8937798 -0.073600866 0.22071438 -0.07787971 -0.06368013 -0.33985087
0.39791465 0.33230904 -1.2526356 -0.19340378 -0.096437566 0.015814098 0.03362796 -0.62802273
-0.21001223 -0.369389 0.1798253 -0.2066455 -0.051754624 0.0069361627 -0.088561006 -0.050755817
-0.22245605 0.7875649 0.1592467 0.016241336 0.18438019 0.14113493 -0.056213543 0.3391601
-0.11367365 -0.36755097 0.14620422 -0.049206614 0.5177776 0.64109343 0.35913366 -0.1748063
-0.1521301 0.1710368 -0.62332106 -0.26320255 0.16864459 -0.27464396 0.03919775 -0.31278753
0.47759026 0.45845398 -0.20567898 -0.23073971 -0.4241068 -0.12202866 -0.3206843 -0.0056124465
0.091804184 -0.86200225 -0.0026555408 0.4302753 -0.2787286 -0.19091411 0.35580653 -0.7252787
0.27714366 0.068481795 -0.5086977 -0.16767745 0.07791002 0.07643216 -0.206603 -0.20586225
0.40136254 0.406874 0.0739783 0.48116693 -0.43462428 -0.027342856 0.11450929 0.14735992
-0.19151519 0.4387878 -0.18002847 -0.18699493 0.29359323 -0.36220092 -0.20403685 -0.08409438
0.27878162 0.30517167 0.003097002 -0.31349757 -0.2906885 0.7096974 -0.13841033 0.46983707
0.74627846 -0.086177215 -0.28334063 -0.16787514 0.106602676 0.28458118 -0.31850764 -0.15132122
-0.5889626 -0.06336594 -0.3403251 -0.16006695 0.13847494 -0.18669683 0.12947059 -0.09505984
0.5227157 -0.19841512 0.021686006 0.4675174 0.022528443 0.09272697 0.31012204 -0.106405124
00000000: 2624 c7be 10ee c4bd 50cb 7c3e 187b 173f
00000010: f99b afbe 3eac 9abe ac8e d8bc 7c79 db3e
00000020: 6b37 803e 1cc7 eebe c1ce 64bf 0dbc 96bd
00000030: f302 623e 667f 9fbd ba6a 82bd ef00 aebe
00000040: 78bb cb3e 6924 aa3e 5d56 a0bf a40b 46be
00000050: 0f81 c5bd 918c 813c 79bd 093d 19c6 20bf
00000060: 720d 57be 8e20 bdbe 2024 383e e19a 53be
00000070: a8fc 53bd c048 e33b 795f b5bd 55e5 4fbd
00000080: 85cb 63be da9d 493f 9111 233e 8d0c 853c
00000090: 29ce 3c3e ad85 103e 2c40 66bd 65a6 ad3e
000000a0: bbcd e8bd a42f bcbe 8fb6 153e e08c 49bd
000000b0: 138d 043f b31e 243f 5ee0 b73e 6c00 33be
000000c0: fec7 1bbe 4524 2f3e f891 1fbf 7cc2 86be
000000d0: 2bb1 2c3e 229e 8cbe d28d 203d b025 a0be
000000e0: b686 f43e 7bba ea3e 839d 52be 0847 6cbe
000000f0: 8724 d9be 29ea f9bd bc30 a4be 9de8 b7bb
00000100: d503 bc3d 2eac 5cbf 9508 2ebb 0b4d dc3e
00000110: 84b5 8ebe fd7e 43be 462c b63e ddab 39bf
00000120: c6e5 8d3e 2f40 8c3d 033a 02bf a3b3 2bbe
00000130: 4a8f 9f3d 7788 9c3d bd8f 53be 8ecd 52be
00000140: 647f cd3e ca51 d03e ef81 973d 835b f63e
00000150: 1387 debe 20fe dfbc d983 ea3d 85e5 163e
00000160: 8f1c 44be cba8 e03e 6259 38be 997b 3fbe
00000170: da51 963e 6672 b9be 09ef 50be ad39 acbd
00000180: 77bc 8e3e 763f 9c3e 12f7 4a3b c182 a0be
00000190: 20d5 94be bbae 353f 70bb 0dbe 7c8e f03e
000001a0: 1b0c 3f3f ae7d b0bd 0612 91be 76e7 2bbe
000001b0: 8152 da3d a0b4 913e 6f13 a3be f3f3 1abe
000001c0: 41c6 16bf 00c6 81bd 173f aebe 97e8 23be
000001d0: 60cc 0d3e 742d 3fbe f093 043e bcae c2bd
000001e0: b2d0 053f 552d 4bbe daa6 b13c 715e ef3e
000001f0: 928d b83c a3e7 bd3d 51c8 9e3e eeea d9bd

model_old.model.2.weight f4 [128, 128]
-0.09600559 -0.083256714 -0.08303879 -0.13751242 -0.036142137 0.0311179 -0.058801554 0.05007603
-0.2748319 0.07246136 -0.105130486 -0.14943752 -0.03606319 0.06391709 0.051088024 -0.0065526045
-0.088537246 -0.12637575 -0.059224624 0.035787236 -0.039371576 -0.016005846 0.016601624 -0.079624526
-0.008185941 -0.15634064 -0.13153315 -0.08807289 -0.12740672 -0.07706549 -0.020623839 -0.040624205
-0.0072478857 0.002085977 -0.055083565 -0.18672144 0.040420216 -0.06520684 0.16552946 -0.032609098
-0.08653998 -0.1846459 -0.17145835 -0.109317884 -0.15163979 -0.20089668 -0.122969285 -0.024664672
0.018671107 0.008107761 -0.00044242665 -0.055379845 -0.02501878 -0.004115723 -0.09932311 0.025260651
-0.13265996 0.043632932 -0.123355374 -0.07953443 -0.07415313 0.051530402 0.027368058 -0.027998503
-0.03534734 -0.036564145 -0.12728743 -0.0008183115 -0.11327856 0.09917346 0.014395162 0.028020136
-0.083677106 -0.050809268 -0.008201097 -0.08561645 0.06454948 0.087374106 -0.045701854 -0.01933433
-0.08539832 -0.071801156 -0.00944807 0.0011290397 0.11235608 -0.14425965 -0.03645872 -0.17373525
-0.08509684 -0.087781325 -0.059977483 0.027182898 -0.04983962 -0.041427396 0.12722269 -0.06277188
0.05370209 -0.16319774 -0.07741465 -0.06163414 -0.16383968 -0.033752903 -0.06505995 0.003126297
-0.11981581 0.06038791 -0.059297018 -0.05284208 -0.06405549 -0.00981317 -0.05883783 -0.11994914
-0.0020917905 -0.09165665 -0.004389647 0.062133007 -0.09525535 -0.12085907 -0.023034995 -0.043169033
0.019228203 0.005129589 0.001829847 -0.06643417 -0.1395218 0.027717618 0.08107849 -0.09998863
-0.09554722 -0.16220433 -0.07475707 -0.08108364 -0.17120363 0.13756654 -0.13350248 -0.007374415
-0.07915786 -0.04214395 0.0024883782 0.06743171 0.06042967 0.07396295 0.10288346 -0.116955124
-0.20784132 -0.14172041 -0.20809475 -0.144386 -0.17158073 -0.15835848 0.13869455 -0.15282036
-0.1729216 -0.21452127 -0.17358838 0.12945674 -0.23357388 -0.029016517 0.011290757 0.0012281653
0.124447525 -0.119631104 -0.29138646 -0.2214453 -0.0036841468 -0.19335328 0.08035129 -0.09107494
-0.23188937 -0.25224563 -0.13776504 -0.08308529 -0.15817238 -0.08813946 -0.12185914 -0.08666629
-0.14883024 0.006907045 -0.36452147 -0.2634652 0.07177249 -0.097353786 -0.2601766 0.098825194
-0.15066215 -0.2244194 0.0899587 -0.1882374 -0.13426183 -0.07300728 0.076746546 -0.008986645
-0.23383273 0.06898873 -0.017523067 -0.19460262 -0.1341554 0.17560011 -0.016179591 0.32522547
-0.056399126 -0.21736324 0.06102516 -0.30288973 0.07332521 0.17950405 -0.05901381 0.074142046
-0.12749949 0.06533005 -0.09624396 -0.015009488 0.014871816 -0.024418483 0.10487005 -0.03636685
-0.097736016 -0.2768456 -0.01079167 -0.26690537 0.10842711 -0.025706729 0.12962668 -0.10881565
0.036614873 0.011155815 0.095936865 -0.11163464 -0.012048341 -0.26440197 0.0005693826 0.017585155
-0.23883307 0.16072899 -0.18612239 -0.18600813 -0.27937618 -0.10792985 -0.05275509 -0.08194868
-0.18270057 -0.1836044 -0.18682519 -0.11985775 -0.10582686 0.05941615 -0.10393929 -0.24212992
0.07934686 0.04918007 -0.13505468 -0.3365628 -0.4748373 -0.07177037 -0.03232005 -0.29680684
00000000: 949e c4bd 7f82 aabd 3e10 aabd 0ed0 0cbe
00000010: c709 14bd f7ea fe3c e6d9 70bd 861c 4d3d
00000020: c4b6 8cbe 9f66 943d a74e d7bd 2606 19be
00000030: ffb6 13bd f7e6 823d ad41 513d 3bb7 d6bb
00000040: 0453 b5bd a568 01be 8595 72bd a395 123d
00000050: 1744 21bd b11e 83bc 2100 883c 2f12 a3bd
00000060: 531e 06bc c317 20be a0b0 06be 8f5f b4bd
00000070: e876 02be 83d4 9dbd 53f3 a8bc 9165 26bd
00000080: ac7f edbb e3b4 083b 4e9f 61bd e833 3fbe
00000090: ab8f 253d 2a8b 85bd 8e80 293e 1e91 05bd
000000a0: df3b b1bd d113 3dbe c792 2fbe 0ee2 dfbd
000000b0: 7647 1bbe dcb7 4dbe 52d7 fbbd 910d cabc
000000c0: 26f4 983c 6ad6 043c 80f5 e7b9 fad5 62bd
000000d0: 2ff4 ccbc 30dd 86bb ea69 cbbd 6def ce3c
000000e0: 03d8 07be 72b8 323d bea1 fcbd f2e2 a2bd
000000f0: 99dd 97bd 8b11 533d fa32 e03c 1e5d e5bc
00000100: 5fc8 10bd 49c4 15bd a357 02be f583 56ba
00000110: 97fe e7bd 741b cb3d b0d9 6b3c 7c8a e53c
00000120: e75e abbd 611d 50bd e55d 06bc ad57 afbd
00000130: 8532 843d 32f1 b23d de31 3bbd 0763 9ebc
00000140: 50e5 aebd 7c0c 93bd 14cc 1abc 49fc 933a
00000150: f21a e63d cdb8 13be bd55 15bd a7e7 31be
00000160: 4147 aebd b2c6 b3bd f3aa 75bd abae de3c
00000170: a124 4cbd c6af 29bd aa46 023e 8b8e 80bd
00000180: b9f6 5b3d 4f1d 27be 928b 9ebd 1474 7cbd
00000190: 97c5 27be 7c40 0abd 273e 85bd 8fe2 4c3b
000001a0: fe61 f5bd 5059 773d 6ee1 72bd f070 58bd
000001b0: 862f 83bd 6bc7 20bc f0ff 70bd e5a7 f5bd
000001c0: 6c16 09bb 7bb6 bbbd 07d7 8fbb 2e7f 7e3d
000001d0: 3d15 c3bd f684 f7bd e3b3 bcbc 03d2 30bd
000001e0: 7784 9d3c 1c16 a83b 7ad7 ef3a a30e 88bd
000001f0: cede 0ebe 0f10 e33c 7b0c a63d d7c6 ccbd
00000200: 43ae c3bd e418 26be 3c1a 99bd 2e0f a6bd
00000210: 0150 2fbe 3ede 0c3e e0b4 08be 14a5 f1bb
00000220: 841d a2bd 229f 2cbd 0f14 233b a319 8a3d
00000230: 1a85 773d e379 973d 90b4 d23d 2b86 efbd
00000240: 5bd4 54be 281f 11be ca16 55be ecd9 13be
00000250: dcb2 2fbe ba28 22be f205 0e3e f17c 1cbe
00000260: 5c12 31be 77ab 5bbe 27c1 31be 4f90 043e
00000270: fe2d 6fbe 0cb4 edbc defc 383c 64fa a03a
00000280: 58de fe3d 2701 f5bd 9b30 95be 8fc2 62be
00000290: ba71 71bb 67fe 45be 388f a43d 8085 babd
000002a0: 6874 6dbe 5726 81be 4712 0dbe 9f28 aabd
000002b0: f1f7 21be 7682 b4bd 4991 f9bd 197e b1bd
000002c0: f466 18be 7e54 e23b 8fa2 babe e9e4 86be
000002d0: 75fd 923d 6c61 c7bd de35 85be dd64 ca3d
000002e0: 2e47 1abe 33ce 65be 443c b83d 4ec1 40be
000002f0: ef7b 09be d784 95bd 4b2d 9d3d b93c 13bc
00000300: d971 6fbe f749 8d3d 898c 8fbc e945 47be
00000310: 0860 09be 84d0 333e 108b 84bc f483 a63e
00000320: c502 67bd 7894 5ebe 85f5 793d 5d14 9bbe
00000330: 872b 963d e9cf 373e 77b8 71bd c9d7 973d
00000340: 3a8f 02be c3cb 853d 8e1b c5bd 5bea 75bc
00000350: eba8 733c 4509 c8bc 1cc6 d63d 68f5 14bd
00000360: d229 c8bd b5be 8dbe 8bcf 30bc d2a7 88be
00000370: 080f de3d eb96 d2bc dbbc 043e bdda debd
00000380: 7af9 153d e1c6 363c 8c7a c43d b4a0 e4bd
00000390: 6866 45bc b25f 87be 9f42 153a be0e 903c
000003a0: a890 74be 2496 243e de96 3ebe ea78 3ebe
000003b0: 650a 8fbe 530a ddbd b915 58bd b6d4 a7bd
000003c0: dc15 3bbe cb02 3cbe 1a4f 3fbe fb77 f5bd
000003d0: c1bb d8bd 595e 733d 1fde d4bd e8f0 77be
000003e0: 9b80 a23d 0b71 493d c64b 0abe f651 acbe
000003f0: e01d f3be 58fc 92bd 0762 04bd 11f7 97be
