project/paper_notebooks/saved_variables/paper_notebooks/7/7-20epoch_500loop/7-looping-iteration-100/best_policy_agent1.pth (torch, 543093 bytes, 16 tensors)

model.model.0.weight f4 [32, 1, 4, 4]
-0.3181137 -0.19808692 0.0069110543 -0.0023480959 0.017694488 0.2886793 -0.21111594 -0.5964602
0.01558808 -0.00026020216 -0.015609405 -0.2712353 0.07630132 0.18635988 -0.063030295 -0.0487196
0.20116949 0.08091595 -0.42303547 -0.47518864 0.20311873 0.19003955 -0.115357034 -0.35875273
-0.35000685 0.26121783 -0.4623811 -0.02016542 -0.2551465 -0.31371537 -0.08729621 -0.3295332
0.32014808 -0.24926312 -0.079924054 0.32682207 0.0010837592 0.1804601 -0.022804856 -0.44853055
-0.26269644 0.04932055 0.21662425 0.218198 -0.058861252 0.3082222 0.022121541 0.016763786
0.22449346 -0.15231365 -0.25554729 -0.119653754 0.051740617 0.07496292 0.020052206 0.33807543
0.2451007 -0.33755308 0.15621535 0.33610407 -0.42164323 -0.07298176 -0.44572803 0.6783264
-0.03421135 -0.21002279 0.07609851 -0.18333657 0.2257394 0.014944588 0.17545438 0.314716
0.39699307 -0.06660559 -0.48651618 -0.19127828 -0.05402983 -0.32736307 -0.23886174 -0.34811276
0.2206106 0.2659649 -0.29203388 -0.09591768 0.21281317 0.07026057 -0.13007668 -0.21696596
0.57662785 0.07400401 0.2842826 0.1674508 0.043138884 -0.54071397 0.24584556 0.59026533
0.03283398 -0.15682107 -0.25587067 0.55570334 -0.21805978 -0.47334158 0.23235273 -0.27671966
0.09797124 -0.15515122 0.38185424 -1.0783924 -0.3851485 0.013845093 0.15665267 -0.28913936
0.0782152 0.0039158417 0.08368329 -0.09640933 -0.05802867 0.10411903 -0.049968574 0.48440677
0.013836221 0.09222034 -0.2969733 0.9734564 0.3434381 -0.14225484 0.0883301 -0.6426688
0.072462104 -0.1615085 0.023912817 0.45065483 -0.5011783 0.085297905 0.40573192 -0.8014034
-0.36890996 -0.11969588 0.40771127 -0.9728433 0.0929815 -0.112865895 0.07774093 -0.2355233
0.32209733 0.17329162 0.21759473 -0.88645494 -0.43900892 -0.09084763 -0.32770848 -0.21879372
-0.10432426 -0.120969936 0.057420924 -0.42039448 0.10823034 0.105597086 -0.03882277 0.17786974
-0.058072075 0.16826166 -0.22344671 -0.11480686 0.008765591 -0.26177675 0.034317423 -0.25912264
0.0018897632 -0.035373185 -0.037882067 -0.26877543 -0.19658796 -0.38198534 0.13924903 0.07026171
0.2027151 -0.37462375 -0.07019977 -0.3777742 -0.27154312 -0.04286354 0.14246942 -0.5396972
-0.12132488 0.09086378 0.096701585 -0.29769054 -0.09450059 -0.23189977 -0.6347745 0.30554485
-0.0024863603 -0.4620111 0.052061837 -0.013770713 -0.277415 -0.16795292 -0.33451074 0.035809252
-0.16450974 -0.16828305 0.0572313 -0.04393942 -0.24552973 0.030430192 -0.20453928 -0.48557448
0.05266421 -0.023791779 -0.60164917 0.16745187 0.054787498 0.31874916 -0.4785813 0.38413408
-0.06681355 -0.07462575 -0.08817359 -0.8573546 0.12778823 -0.5645972 -0.23187335 0.038205218
0.08793031 -0.16434732 -0.07438077 -0.22506833 0.023468023 0.023981648 -0.017163519 -0.562449
-0.6069842 -0.06810012 -0.30979472 -0.3223853 0.091017805 0.014825959 0.032313824 -0.13041879
0.28876314 -0.006268991 -0.113892145 -0.33768526 -0.10198137 0.16316627 -0.41403672 0.347379
-0.21779999 -0.10049639 0.14244735 -0.18204138 -0.29808483 -0.030130252 -0.23352247 0.3499421
00000000: cddf a2be 4cd7 4abe 2076 e23b 83e2 19bb
00000010: 08f4 903c c6cd 933e c72e 58be 9eb1 18bf
00000020: 2565 7f3c be6b 88b9 97be 7fbc 5adf 8abe
00000030: de43 9c3d 20d5 3e3e 0716 81bd 348e 47bd
00000040: 60ff 4d3e 43b7 a53d 1b98 d8be ed4b f3be
00000050: 5bfe 4f3e ba99 423e 4f40 ecbd 70ae b7be
00000060: 1934 b3be 58be 853e 37bd ecbe f331 a5bc
00000070: 90a2 82be 4d9f a0be 5bc8 b2bd 93b8 a8be
00000080: 73ea a33e d53e 7fbe 39af a3bd 3955 a73e
00000090: ed0c 8e3a 88ca 383e 40d1 babc cca5 e5be
000000a0: 2680 86be 5804 4a3d bfd2 5d3e 4c6f 5f3e
000000b0: 7f18 71bd 4dcf 9d3e 3c38 b53c 3554 893c
000000c0: 9de1 653e 1cf8 1bbe 18d7 82be 070d f5bd
000000d0: f8ed 533d 2986 993d 8644 a43c 3918 ad3e
000000e0: aefb 7a3e c2d3 acbe ebf6 1f3e d515 ac3e
000000f0: 9fe1 d7be 7677 95bd 7736 e4be cda6 2d3f
00000100: 3321 0cbd 3710 57be 89d9 9b3d 95bc 3bbe
00000110: 3b28 673e 25da 743c 50aa 333e 7522 a13e
00000120: ad42 cb3e 8368 88bd a618 f9be 74de 43be
00000130: 624e 5dbd 229c a7be 2c98 74be d63b b2be
00000140: bfe7 613e 8d2c 883e 7785 95be 7d70 c4bd
00000150: b2eb 593e c6e4 8f3d d232 05be 532c 5ebe
00000160: e29d 133f 6a8f 973d 7d8d 913e 3978 2b3e
00000170: 66b2 303d 3b6c 0abf f0be 7b3e a11b 173f
00000180: ec7c 063d b495 20be 7b01 83be 9342 0e3f
00000190: 104b 5fbe d459 f2be e0ed 6d3e 33ae 8dbe
000001a0: 25a5 c83d f6df 1ebe 6682 c33e c308 8abf
000001b0: 2f32 c5be 87d6 623c 8f69 203e 130a 94be
000001c0: 4a2f a03d 7650 803b 2562 ab3d 4172 c5bd
000001d0: 78af 6dbd 5c3c d53d d9ab 4cbd 2a04 f83e
000001e0: 51b1 623c 05de bc3d e20c 98be 7034 793f
000001f0: 1ed7 af3e 41ab 11be 69e6 b43d f185 24bf
00000200: 0367 943d 7c62 25be d0e4 c33c 3bbc e63e
00000210: 394d 00bf abb0 ae3d 18bc cf3e c628 4dbf
00000220: c4e1 bcbe 1d23 f5bd 88bf d03e 420c 79bf
00000230: 166d be3d 3c26 e7bd a336 9f3d 052d 71be
00000240: f1e9 a43e 5c73 313e 27d1 5e3e b6ee 62bf
00000250: c7c5 e0be 520e babd 68c9 a7be 760b 60be
00000260: f5a7 d5bd 16bf f7bd 3432 6b3d f23d d7be
00000270: dea7 dd3d 4943 d83d a004 1fbd 7c23 363e
00000280: fcdc 6dbd c94c 2c3e 37cf 64be dc1f ebbd
00000290: 8e9d 0f3c 9a07 86be 6d90 0c3d b9ab 84be
000002a0: eeb1 f73a 79e3 10bd 3a2a 1bbd ef9c 89be
000002b0: 5b4e 49be 9593 c3be 4c97 0e3e 5fe5 8f3d
000002c0: 8c94 4f3e afce bfbe e6c4 8fbd 9f6b c1be
000002d0: b307 8bbe ae91 2fbd 81e3 113e 9829 0abf
000002e0: 2e79 f8bd ca16 ba3d 7b0b c63d e56a 98be
000002f0: 8689 c1bd 2277 6dbe 9580 22bf 6070 9c3e
00000300: 34f2 22bb b88c ecbe cb3e 553d 8e9e 61bc
00000310: 5709 8ebe dafb 2bbe fe44 abbe b9ac 123d
00000320: 3e75 28be 6452 2cbe 5e6b 6a3d d2f9 33bd
00000330: 256c 7bbe bd48 f93c bf72 51be 389d f8be
00000340: 6db6 573d fae6 c2bc ae05 1abf 8178 2b3e
00000350: db68 603d 1733 a33e 9c08 f5be 39ad c43e
00000360: 8bd5 88bd 63d5 98bd 5b94 b4bd 977b 5bbf
00000370: ebda 023e 7189 10bf 3570 6dbe 137d 1c3d
00000380: ce14 b43d aa4a 28be f254 98bd 5078 66be
00000390: 0340 c03c 2975 c43c 829a 8cbc a8fc 0fbf
000003a0: 5163 1bbf 1378 8bbd 6a9d 9ebe b00f a5be
000003b0: 8b67 ba3d 94e8 723c 805b 043d 818c 05be
000003c0: c3d8 933e 1c6c cdbb 4940 e9bd 15e5 acbe
000003d0: 9cdb d0bd 0f15 273e 9ffc d3be a9db b13e
000003e0: f606 5fbe 0dd1 cdbd b8dd 113e 0e69 3abe
000003f0: 939e 98be b8d3 f6bc 8420 6fbe 9c2b b33e

model.model.0.bias f4 [32]
-0.33290413 -0.013216374 -0.30045897 -0.14345922 -0.013792426 -0.28545415 0.013724827 -0.31173027
-0.0904608 0.11421155 -0.38482988 -0.09099757 -0.1970076 -0.09299094 -0.23567581 -0.25337583
0.051816717 -0.024952702 -0.0761175 -0.43044096 -0.23749611 -0.05045322 -0.118087 0.1618355
-0.0075853015 0.07031802 -0.12050198 -0.102081776 -0.110199235 -0.32891577 -0.11795504 -0.40590832
00000000: 6972 aabe 7e89 58bc c2d5 99be f9e6 12be
00000010: a1f9 61bc 0c27 92be 19de 603c 1c9b 9fbe
00000020: 8343 b9bd bfe7 e93d 6c08 c5be ef5c babd
00000030: 5cbc 49be 0972 bebd 0055 71be 7aba 81be
00000040: c43d 543d 9c69 ccbc 7ee3 9bbd c262 dcbe
00000050: 2e32 73be 09a8 4ebd 99d7 f1bd 35b8 253e
00000060: 1f8e f8bb e502 903d bec9 f6bd 4010 d1bd
00000070: 23b0 e1bd a667 a8be 6992 f1bd 37d3 cfbe

model.model.4.weight f4 [128, 384]
-0.17474538 -0.22548968 -0.17264618 -0.11639831 -0.030594096 -0.19505197 0.033199877 0.03627182
-0.24910863 -0.24647075 -0.0048687863 0.22320825 -0.22521296 -0.46435392 -0.16270724 -0.037082717
0.13446607 -0.6160549 -0.40631473 -0.1835545 0.12311775 -0.05787757 -0.2136669 -0.098491624
-0.15048167 -0.3125103 -0.21017751 0.19016953 0.4285342 -0.14649525 0.13687313 -0.082418635
0.21145907 0.09597449 0.16093679 0.20622231 -0.053022616 0.14380012 0.27419987 0.09345719
-0.341188 0.0027429154 0.2691102 0.14462884 -0.039185956 -0.054639056 0.23257445 -0.17836674
0.1529201 -0.09352268 0.025135832 0.12424438 0.092478745 0.015787203 0.021812236 0.09478848
-0.2614906 -0.20764786 0.15090477 -0.3123387 -0.373933 -0.004048478 0.1774575 -0.08436815
-0.29053575 0.10350594 0.16662738 -0.1479006 -0.028034769 0.12714657 -0.008680762 -0.17536466
-0.070904195 -0.2987599 -0.32471055 -0.07857395 0.21502377 -0.52147067 -0.15248162 0.00908625
0.07014752 -0.21520415 -0.24775767 0.26447058 -0.20729308 0.1113421 0.1493884 0.39459187
-0.5874537 -0.11329968 0.15234092 0.11842646 -0.42617756 -0.15589494 0.45986003 -0.3348838
-0.45412102 0.090610094 -0.048101217 -0.13908331 -0.19819516 -0.18882328 0.014424653 0.17374085
-0.021777872 -0.12841547 -0.013822867 0.21945436 0.1169117 -0.043426264 -0.15107226 -0.310126
0.04429892 0.064415015 -0.084578715 -0.24976252 0.007679313 -0.40046477 -0.25998423 -0.1560664
-0.5058328 -0.109125234 -0.22682464 0.13654767 -0.023106197 -0.15688972 -0.08009118 0.019442622
-0.21276435 -0.24161857 -0.17389551 0.08262176 -0.40560752 -0.037952613 -0.0037422962 0.046332758
-0.25664467 -0.14463165 -0.093174465 -0.1432666 -0.29241428 -0.44614315 -0.23808053 0.0134253325
0.27274835 -0.08999283 0.19610591 0.15485038 0.26973826 0.065678075 0.22022752 0.06377806
0.057826128 -0.053987995 0.26283145 0.2141737 -0.40489033 0.021822058 -0.102907695 0.043893114
-0.24698591 0.1078792 0.027156925 0.2831596 0.002229918 0.12227045 -0.09573829 0.094660155
-0.11777298 -0.257341 -0.15369563 -0.20723908 0.16615446 -0.34925774 -0.11883909 -0.06548267
0.19581217 -0.4373365 -0.21348277 -0.17306814 -0.11124908 -0.094701104 -0.00619094 0.05755406
0.087786905 0.10012645 0.0071028094 0.1402891 0.091487 -0.20308293 -0.26242712 -0.40540266
0.14709935 -0.01291113 0.001835452 0.18925196 0.29277375 0.08304389 0.123631544 -0.124917716
0.32704017 0.033965204 0.15597096 -0.2886801 -0.28665823 -0.2684599 0.22708619 0.03613988
-0.1221156 -0.18207233 0.12354271 0.3257535 -0.3083583 -0.11440839 0.011478026 -0.38679
-0.098311774 0.15343808 0.1445649 0.21577705 0.015494566 0.16438933 0.39051408 1.0516059
-0.115227394 0.32712984 0.32181942 0.45047358 -0.25087756 -0.2742327 0.04073066 0.003316238
0.058118626 0.021514207 0.09343121 0.45594203 -0.10504518 -0.06072132 -0.011472134 -0.38952833
0.24828982 0.09051962 -0.3137449 -0.22514874 -0.20083752 0.16965073 -0.024072638 -0.29756328
-0.34146023 0.019003512 0.11739853 -0.038863096 -0.12662143 -0.038921103 0.19565503 0.4835243
00000000: 74f0 32be c4e6 66be 29ca 30be 3d62 eebd
00000010: 78a0 fabc b4bb 47be 98fc 073d c391 143d
00000020: 5516 7fbe d462 7cbe 578a 9fbb b490 643e
00000030: 3a9e 66be ccbf edbe ba9c 26be 0ce4 17bd
00000040: 79b1 093e c6b5 1dbf 7c08 d0be b6f5 3bbe
00000050: 2925 fc3d 0811 6dbd 7fcb 5abe fab5 c9bd
00000060: de17 1abe 5a01 a0be c638 57be cdbb 423e
00000070: d668 db3e da02 16be 7828 0c3e 1acb a8bd
00000080: ba88 583e 468e c43d 9dcc 243e f12b 533e
00000090: 3e2e 59bd 5740 133e ed63 8c3e 7c66 bf3d
000000a0: 32b0 aebe 7cc2 333b d0c8 893e 9519 143e
000000b0: 7481 20bd 34cd 5fbd ff27 6e3e c5a5 36be
000000c0: 1697 1c3e d288 bfbd a9e9 cd3c d673 fe3d
000000d0: 7f65 bd3d 2a54 813c 93af b23c 7620 c23d
000000e0: 19e2 85be a4a1 54be c886 1a3e dcea 9fbe
000000f0: 2574 bfbe 18a9 84bb 6bb7 353e 35c9 acbd
00000100: 1ac1 94be ecfa d33d 5ea0 2a3e 4173 17be
00000110: 2ca9 e5bc b632 023e c139 0ebc cb92 33be
00000120: 3836 91bd 0ff7 98be 7640 a6be 61eb a0bd
00000130: 312f 5c3e 1a7f 05bf 2424 1cbe 7fde 143c
00000140: 81a9 8f3d 7a5e 5cbe 30b4 7dbe b068 873e
00000150: a344 54be 5407 e43d 46f9 183e f207 ca3e
00000160: 5e63 16bf aa09 e8bd 42ff 1b3e 9289 f23d
00000170: f233 dabe eca2 1fbe c672 eb3e e475 abbe
00000180: 8d82 e8be c991 b93d c805 45bd db6b 0ebe
00000190: acf3 4abe e45a 41be 6155 6c3c 1fe9 313e
000001a0: 8267 b2bc 587f 03be 4e79 62bc a5b8 603e
000001b0: 676f ef3d bddf 31bd b0b2 1abe d6c8 9ebe
000001c0: c972 353d 05ec 833d 9b37 adbd bfc1 7fbe
000001d0: bfa2 fb3b b809 cdbe a71c 85be dfcf 1fbe
000001e0: 427e 01bf 0d7d dfbd b844 68be 27d3 0b3e
000001f0: 3549 bdbc b3a7 20be d806 a4bd 2246 9f3c
00000200: e6de 59be dc6a 77be aa11 32be 9935 a93d
00000210: caab cfbe 3374 1bbd 5041 75bb 6bc7 3d3d
00000220: ee66 83be 521a 14be 41d2 bebd 7bb4 12be
00000230: 53b7 95be e06c e4be 62cb 73be edf5 5b3c
00000240: aca5 8b3e 294e b8bd fdcf 483e 1991 1e3e
00000250: 221b 8a3e 3a82 863d 5383 613e 129e 823d
00000260: 17db 6c3d 8422 5dbd d891 863e 5a50 5b3e
00000270: c94d cfbe 2cc4 b23c 45c1 d2bd 44c9 333d
00000280: e0e9 7cbe c5ef dc3d 3378 de3c 4cfa 903e
00000290: d123 123b ee68 fa3d 7012 c4bd 2fdd c13d
000002a0: f632 f1bd 33c2 83be 6362 1dbe 7b36 54be
000002b0: 6524 2a3e e9d1 b2be e961 f3bd c71b 86bd
000002c0: fc82 483e 92ea dfbe 3a9b 5abe c638 31be
000002d0: 8fd6 e3bd a7f2 c1bd 5edd cabb cebd 6b3d
000002e0: 9fc9 b33d 190f cd3d afbe e83b f2a7 0f3e
000002f0: 895d bb3d f9f4 4fbe d95c 86be f090 cfbe
00000300: 36a1 163e 3489 53bc 8d93 f03a 44cb 413e
00000310: 71e6 953e ea12 aa3d 8932 fd3d dcd4 ffbd
00000320: cf71 a73e 191f 0b3d dab6 1f3e e1cd 93be
00000330: dec4 92be 9373 89be 4889 683e 6907 143d
00000340: be17 fabd 2b71 3abe f603 fd3d 2ac9 a63e
00000350: 24e1 9dbe f24e eabd 550e 3c3c 5709 c6be
00000360: af57 c9bd df1e 1d3e d208 143e a9f4 5c3e
00000370: ecdc 7d3c ad55 283e 76f1 c73e 069b 863f
00000380: 57fc ebbd 907d a73e 84c5 a43e 79a4 e63e
00000390: 0673 80be 3a68 8cbe 31d5 263d 3e55 593b
000003a0: cc0d 6e3d 903e b03c dd58 bf3d 3c71 e93e
000003b0: ed21 d7bd ebb6 78bd 9ef5 3bbc 4270 c7be
000003c0: b03f 7e3e 5a62 b93d 2ca3 a0be 648d 66be
000003d0: 5aa8 4dbe ecb8 2d3e fb33 c5bc 375a 98be
000003e0: e0d3 aebe 41ad 9b3c a46e f03d e92e 1fbd
000003f0: 0ca9 01be bc6b 1fbd cb59 483e 7f90 f73e

model.model.4.bias f4 [128]
0.15345998 -0.007018281 -0.09840523 0.04828387 -0.10290391 -0.08830789 -0.051433615 -0.073994696
-0.19961055 -0.045276273 -0.19494556 0.15649073 -0.15320691 -0.06643517 -0.10470252 -0.12985109
-0.019567803 -0.09034971 -0.08437521 -0.06432019 0.09825867 0.2849772 -0.08284574 0.12249878
-0.006695819 -0.13438664 -0.25943705 -0.07872011 -0.17659168 -0.083994634 -0.13606846 -0.0602763
-0.14831841 0.23301701 -0.0076121497 -0.026012974 -0.04408473 -0.1273687 -0.12278742 -0.008144273
-0.065392315 0.09349733 -0.17102699 -0.078120835 -0.054628663 0.011184626 -0.07323438 -0.023687666
-0.06831841 0.1677109 0.1289897 -0.1285181 -0.07111515 -0.015404787 -0.040929362 -0.14417015
-0.07158993 -0.13586934 0.23212056 -0.13037555 0.15773363 -0.06314008 0.08845911 -0.10523394
-0.050970357 0.28512612 -0.15100585 0.05275962 0.08328824 -0.03852999 -0.11215322 0.065515846
-0.10249123 -0.050635904 0.08648823 -0.05953236 -0.24914306 -0.026514223 0.090186164 -0.025135458
0.004380932 0.00029136837 -0.021312911 -0.16616584 -0.13572128 -0.057779774 -0.20502211 -0.084583476
-0.07134728 -0.13236007 -0.06834118 -0.18315232 -0.03747407 -0.06611822 0.07685033 -0.01572908
-0.15581483 0.02755923 0.07306314 -0.07965312 -0.12774777 0.009641165 0.027146416 -0.0453884
-0.06745727 -0.024097618 0.14982972 0.03046795 -0.20937389 -0.063359365 0.026302004 -0.052887853
-0.08188557 -0.075372696 -0.058776837 -0.1601921 -0.035081547 -0.20410767 -0.11327987 -0.13152729
-0.016003959 0.014593641 0.17849238 0.055488586 -0.10983413 -0.06645746 0.15002263 0.13239922
00000000: 9d24 1d3e 9cf9 e5bb ae88 c9bd 4fc5 453d
00000010: 49bf d2bd c4da b4bd 0eac 52bd 888a 97bd
00000020: b566 4cbe 9d73 39bd cf9f 47be 1b3f 203e
00000030: 46e2 1cbe 2a0f 88bd 466e d6bd aff7 04be
00000040: a84c a0bc 4509 b9bd e9cc acbd 4eba 83bd
00000050: d73b c93d 88e8 913e 07ab a9bd a4e0 fa3d
00000060: 9a68 dbbb a79c 09be efd4 84be 0238 a1bd
00000070: 73d4 34be 6105 acbd 8855 0bbe 48e4 76bd
00000080: c8e0 17be 039c 6e3e 576f f9bb 2919 d5bc
00000090: 3192 34bd f16c 02be f977 fbbd 8f6f 05bc
000000a0: 68ec 85bd 877b bf3d b321 2fbe d1fd 9fbd
000000b0: 4ec2 5fbd b93f 373c e8fb 95bd a30c c2bc
000000c0: 86ea 8bbd 68bc 2b3e e015 043e 409a 03be
000000d0: d2a4 91bd 5c64 7cbc 8ca5 27bd 57a1 13be
000000e0: be9d 92bd 5521 0bbe 03b1 6d3e 2b81 05be
000000f0: ed84 213e 964f 81bd 0d2a b53d e484 d7bd
00000100: 4bc6 50bd 0dfc 913e 47a1 1abe 791a 583d
00000110: 0693 aa3d 9fd1 1dbd 96b0 e5bd 2c2d 863d
00000120: ece6 d1bd 9867 4fbd be20 b13d 34d8 73bd
00000130: 5c1f 7fbe 5b34 d9bc 86b3 b83d e0e8 cdbc
00000140: ec8d 8f3b cdc2 9839 6a98 aebc 6127 2abe
00000150: 85fa 0abe 7caa 6cbd 51f1 51be 1a3a adbd
00000160: 861e 92bd 6689 07be 76f6 8bbd 488c 3bbe
00000170: 697e 19bd fd68 87bd b563 9d3d 46da 80bc
00000180: ec8d 1fbe e5c3 e13c 21a2 953d 2d21 a3bd
00000190: 50d0 02be faf5 1d3c 2962 de3c 30e9 39bd
000001a0: 0a27 8abd 5e68 c5bc f66c 193e ec97 f93c
000001b0: 1c66 56be 8ec2 81bd 4d77 d73c efa0 58bd
000001c0: 9fb3 a7bd 005d 9abd fbbf 70bd 6609 24be
000001d0: abb1 0fbd 9a01 51be 47ff e7bd 17af 06be
000001e0: bc1a 83bc 2b1a 6f3c b5c6 363e 0048 633d
000001f0: b7f0 e0bd d91a 88bd 889f 193e a993 073e

model.model.6.weight f4 [128, 128]
-0.20900714 0.025162742 -0.09711194 -0.07390987 0.004140831 -0.08605139 0.09781068 -0.08883335
-0.015013096 -0.02912199 -0.06180864 -0.08102745 -0.0245742 0.02594547 0.08388476 0.049842384
-0.07675579 -0.039588343 -0.0013392735 -0.034966223 -0.022520099 -0.15122306 -0.043323264 0.029102769
-0.016675495 0.08072118 -0.1542205 0.06635906 -0.046207614 -0.02256785 0.022920018 0.06560864
-0.059022043 -0.03669325 -0.07324603 0.0469229 0.058068853 -0.048404567 0.015150109 -0.054998044
-0.07111385 -0.09877316 -0.09686515 0.033235483 -0.021114957 -0.18030585 -0.056986533 -0.07952012
-0.15753667 -0.18398435 -0.042741608 -0.05668806 0.02427089 -0.06571253 -0.057055473 -0.15420379
0.0027792677 -0.08013506 -0.25156528 -0.101843946 -0.15420194 -0.17108542 0.047908396 -0.08644709
-0.17456949 0.049854293 -0.0963168 -0.10366331 0.04933072 0.032760497 -0.039244317 0.039208584
-0.18604794 0.032619853 0.029914863 0.027610937 -0.027904416 -0.06590821 -0.022671849 0.085109286
-0.013370237 -0.06233485 -0.061722036 0.06298126 0.013817683 -0.11075149 -0.0011111296 0.08939459
0.07093699 -0.27477995 0.03678933 0.037683852 -0.03556208 -0.04426976 -0.10453193 0.027762003
-0.025560103 -0.056507647 0.08984755 -0.041260302 -0.093261756 -0.03932792 0.06774249 -0.1689321
0.065211296 -0.031229455 0.04668843 -0.045556333 -0.11324645 -0.07788865 0.049752604 0.017691206
-0.010124927 -0.026147453 0.09402076 -0.06800332 -0.021999065 0.06773302 -0.07102011 -0.0252874
-0.0390902 0.07375064 -0.18651178 -0.059852704 -0.04007575 0.04437492 -0.007442438 0.053218447
-0.17204714 -0.06980166 -0.0002614279 -0.01941154 0.018473811 0.029042833 -0.10283668 0.045808252
0.0060685156 0.038440727 -0.09148816 -0.04617429 0.027680589 -0.062622495 0.041112427 0.022691688
0.013063893 0.010958796 0.083019495 -0.08495749 0.038502708 -0.0872346 -0.053442802 -0.008900018
0.031026682 -0.07844152 -0.07720413 -0.037587065 -0.06426134 -0.014193907 -0.06945809 -0.023290873
-0.048038416 -0.09648649 0.019317716 -0.062887974 -0.023262313 -0.0056463853 -0.057232358 0.1271936
0.014561556 -0.10925303 0.01938737 0.008638269 -0.03684142 0.054816164 -0.083229005 0.018592626
0.00770783 -0.011776172 -0.105908 -0.05330312 -0.13505247 -0.011271924 -0.018891618 -0.072780594
-0.008092508 -0.08703976 -0.18783134 -0.022239955 0.0014729786 -0.028821504 -0.16636178 -0.016912915
0.048581928 0.0033272682 -0.096387215 -0.18377584 -0.076152995 0.052115943 -0.03878463 -0.026406368
-0.013904561 -0.046517912 -0.007996321 -0.051758155 -0.036343887 -0.07585203 -0.09595631 0.05949568
0.012201547 -0.08572182 -0.07012168 -0.12536322 0.031676807 0.061459083 0.09769814 -0.12510431
0.03841015 0.07614976 -0.058478817 0.0901891 0.048708245 -0.07936037 -0.16746317 -0.07355269
-0.07415978 -0.050628975 -0.032506395 -0.088335745 -0.10032558 0.029528633 -0.0895492 -0.15911882
0.05648505 0.035055205 -0.11712908 -0.16008766 -0.06075052 0.027302682 0.036762606 -0.027535219
-0.029460503 0.042237572 -0.030041147 -0.050158955 0.0145098725 -0.038538184 -0.0940804 -0.2228901
0.021132126 0.025837079 -0.22788912 0.038043942 -0.025871925 0.0064694956 -0.10456232 -0.01171276
00000000: f805 56be 1822 ce3c a0e2 c6bd 0f5e 97bd
00000010: cfaf 873b b63b b0bd f750 c83d 42ee b5bd
00000020: 7df9 75bc 3d91 eebc 0e2b 7dbd b8f1 a5bd
00000030: d54f c9bc 988b d43c c6cb ab3d 8727 4c3d
00000040: 2432 9dbd 6327 22bd 908a afba be38 0fbd
00000050: 127c b8bc 38da 1abe bc73 31bd ee68 ee3c
00000060: 0c9b 88bc 2551 a53d fbeb 1dbe 42e7 873d
00000070: 3244 3dbd 36e0 b8bc c3c2 bb3c d35d 863d
00000080: 19c1 71bd a94b 16bd 0402 96bd 3a32 403d
00000090: 9bd9 6d3d de43 46bd 2a38 783c a145 61bd
000000a0: 23a4 91bd 9549 cabd 3c61 c6bd ee21 083d
000000b0: 46f9 acbc 19a2 38be b66a 69bd 72db a2bd
000000c0: 4b51 21be 6566 3cbe d311 2fbd bd31 68bd
000000d0: bfd3 c63c 4a94 86bd 00b3 69bd 99e7 1dbe
000000e0: 6024 363b da1d a4bd 2acd 80be 8f93 d0bd
000000f0: 1de7 1dbe 0431 2fbe 983b 443d 2c0b b1bd
00000100: 58c2 32be 0434 4c3d be41 c5bd 6e4d d4bd
00000110: 020f 4a3d df2f 063d a6be 20bd 2e99 203d
00000120: 5a83 3ebe 659c 053d 0410 f53c 5530 e23c
00000130: cd97 e4bc e2fa 86bd 50ba b9bc c74d ae3d
00000140: d70e 5bbc d452 7fbd 3fd0 7cbd 52fc 803d
00000150: 9063 623c add1 e2bd 53a3 91ba 8314 b73d
00000160: 6a47 913d f5af 8cbe 69b0 163d 625a 1a3d
00000170: 8ba9 11bd 3554 35bd d614 d6bd 246d e33c
00000180: 6c63 d1bc 9074 67bd fe01 b83d 9000 29bd
00000190: 0500 bfbd 5016 21bd 93bc 8a3d 89fc 2cbe
000001a0: 808d 853d ead4 ffbc 5e3c 3f3d 4799 3abd
000001b0: c1ed e7bd 1684 9fbd 63c9 4b3d 26ed 903c
000001c0: 06e3 25bc 2f33 d6bc f58d c03d 5345 8bbd
000001d0: 6237 b4bc 9cb7 8a3d fe72 91bd 8627 cfbc
000001e0: 0c1d 20bd 930a 973d f2fc 3ebe 1c28 75bd
000001f0: 7826 24bd 7ac2 353d b2df f3bb 96fb 593d
00000200: 202d 30be 2cf4 8ebd 4210 89b9 f304 9fbc
00000210: 6456 973c 3ceb ed3c 0a9c d2bd 6fa1 3b3d
00000220: 66da c63b 0674 1d3d 255e bbbd 4121 3dbd
00000230: 67c2 e23c 3940 80bd 8165 283d ebe3 b93c
00000240: f009 563c 868c 333c 2006 aa3d 31fe adbd
00000250: 04b5 1d3d 0ea8 b2bd d7e6 5abd 62d1 11bc
00000260: ab2b fe3c f3a5 a0bd 331d 9ebd e5f4 19bd
00000270: 739b 83bd 908d 68bc 0b40 8ebd 80cc bebc
00000280: eec3 44bd b59a c5bd 3040 9e3c 69cb 80bd
00000290: 9b90 bebc 5005 b9bb 7a6c 6abd 0a3f 023e
000002a0: 9893 6e3c 0dc0 dfbd 43d2 9e3c 8787 0d3c
000002b0: 07e7 16bd ea86 603d f873 aabd 904f 983c
000002c0: f791 fc3b d8f0 40bc 4be6 d8bd 5f54 5abd
000002d0: 324b 0abe e0ad 38bc 98c2 9abc fe0d 95bd
000002e0: 7096 04bc e741 b2bd dc56 40be 9130 b6bc
000002f0: f610 c13a 131b ecbc be5a 2abe f48c 8abc
00000300: d8fd 463d 4c0e 5a3b a966 c5bd bc2f 3cbe
00000310: 1af6 9bbd 8777 553d a2dc 1ebd 2b52 d8bc
00000320: f5cf 63bc 9189 3ebd 0003 03bc 5c00 54bd
00000330: 54dd 14bd 4f58 9bbd be84 c4bd beb1 733d
00000340: ffe8 473c ec8e afbd f59b 8fbd 375f 00be
00000350: 8abf 013d 85bc 7b3d f615 c83d 581b 00be
00000360: f653 1d3d 68f4 9b3d 7c87 6fbd 10b5 b83d
00000370: 4c82 473d b187 a2bd 777b 2bbe cba2 96bd
00000380: 15e1 97bd 5460 4fbd 6d25 05bd 5fe9 b4bd
00000390: 7f77 cdbd 08e6 f13c 9265 b7bd 0bf0 22be
000003a0: de5c 673d 0c96 0f3d 5fe1 efbd 05ee 23be
000003b0: 8ad5 78bd e0a9 df3c 6394 163d 8a91 e1bc
000003c0: 2757 f1bc 4e01 2d3d da18 f6bc 7a73 4dbd
000003d0: d1ba 6d3c 37da 1dbd 3aad c0bd 4d3d 64be
000003e0: 481d ad3c 48a8 d33c c45b 69be f7d3 1b3d
000003f0: 5cf1 d3bc 10fe d33b c524 d6bd e0e6 3fbc

model.model.6.bias f4 [128]
-0.15095483 -0.12696365 -0.03898019 0.37411293 0.2658899 -0.052091453 0.10358437 0.279845
-0.12815996 -0.05131507 0.14141464 -0.13974324 -0.08164358 0.030131456 0.10478434 0.40992877
0.060783576 0.25428265 -0.050288588 0.3099626 0.12518324 -0.0289554 0.40982774 -0.045470677
-0.119644605 -0.24869958 -0.10533572 0.33039698 0.14733082 0.33423474 0.04059709 0.16286412
-0.01948878 -0.066226184 -0.15908138 0.3256392 -0.02100124 0.13808575 0.15389359 0.4180279
-0.0941511 0.1152537 0.11159863 -0.0029321269 0.05280101 -0.07907321 -0.03470125 0.060248774
0.569221 0.29811105 0.38986665 0.0736664 0.11100965 0.14167824 0.02321719 0.23366868
0.14245376 0.026176292 -0.07601816 0.17532423 0.025904877 -0.068185806 0.3725349 0.036114022
0.4092239 0.077121794 -0.10997128 0.03617802 -0.060073793 -0.18964127 0.23071691 0.008769635
-0.05566901 -0.06881752 -0.17094989 -0.04391374 0.00977799 -0.047926348 -0.073958844 0.0895752
0.13917142 -0.12346451 0.350394 -0.19566824 -0.011039557 -0.03290198 -0.06318999 -0.037102953
-0.026068062 0.18952899 0.37010604 0.18691573 0.16111554 0.11115357 0.29680574 0.042310476
0.3310719 -0.1753819 0.32266986 0.3458671 -0.038978647 0.4271014 0.14556248 0.37436533
-0.016241346 -0.07463568 0.11427761 0.035376113 0.0100905625 -0.08468644 -0.15810114 0.29662582
0.2433544 -0.1289615 0.022176856 -0.01592423 0.30378693 0.3200893 -0.045272708 -0.2075656
0.033510055 0.031828202 0.17570832 0.054782134 0.15379515 -0.0021555924 0.20529658 0.28915077
00000000: e793 1abe c202 02be b1a9 1fbd bb8b bf3e
00000010: b922 883e d95d 55bd 0b24 d43d d847 8f3e
00000020: 5d3c 03be c02f 52bd 00cf 103e da18 0fbe
00000030: c034 a7bd 3ed6 f63c 2c99 d63d 2fe2 d13e
00000040: 33f8 783d 5631 823e 68fb 4dbd 6bb3 9e3e
00000050: 0930 003e e033 edbc f1d4 d13e 763f 3abd
00000060: 3b08 f5bd 1aab 7ebe 41ba d7bd cb29 a93e
00000070: e4dd 163e d120 ab3e 2249 263d dac5 263e
00000080: efa6 9fbc 98a1 87bd 3be6 22be 2eba a63e
00000090: cb0a acbc 5a66 0d3e 4896 1d3e c107 d63e
000000a0: 4bd2 c0bd 220a ec3d d38d e43d ed28 40bb
000000b0: df45 583d 23f1 a1bd e622 0ebd 6bc7 763d
000000c0: 78b8 113f 03a2 983e 9a9c c73e 69de 963d
000000d0: 0759 e33d 1a14 113e fa31 be3c d846 6f3e
000000e0: 66df 113e aa6f d63c 69af 9bbd 3288 333e
000000f0: 7736 d43c 00a5 8bbd e5bc be3e 4cec 133d
00000100: cc85 d13e 08f2 9d3d 9f38 e1bd 672f 143d
00000110: f00f 76bd 5231 42be 0e41 6c3e 84ae 0f3c
00000120: 3005 64bd 33f0 8cbd 7d0d 2fbe e5de 33bd
00000130: dd33 203c 6b4e 44bd bc77 97bd 3473 b73d
00000140: f482 0e3e f6da fcbd d866 b33e 415d 48be
00000150: 42df 34bc 3ac4 06bd c169 81bd 44f9 17bd
00000160: b08c d5bc e313 423e 8a7e bd3e d666 3f3e
00000170: 79fb 243e 7ca4 e33d ecf6 973e c04d 2d3d
00000180: 4282 a93e 5097 33be fc34 a53e 7e15 b13e
00000190: 13a8 1fbd 09ad da3e 550e 153e d0ac bf3e
000001a0: 920c 85bc 97da 98bd 610a ea3d 8be6 103d
000001b0: e352 253c 1670 adbd 44e5 21be 57df 973e
000001c0: e531 793e 7c0e 04be 3dac b53c 8873 82bc
000001d0: f689 9b3e bfe2 a33e e06f 39bd 148c 54be
000001e0: d741 093d 4a5e 023d e2ec 333e 3b63 603d
000001f0: 7a7c 1d3e d744 0dbb 4439 523e 920b 943e

model.model.8.weight f4 [7, 128]
0.013221699 -0.028054863 0.042179585 0.23180728 0.04984178 -0.014668272 0.006461297 0.15039915
-0.06895651 0.059246045 0.31075078 -0.03421897 0.000106041814 0.10348241 -0.015041479 0.3939154
0.18751308 0.27824035 0.069728024 -0.31316188 0.14477456 -0.03253505 0.25581208 0.08724487
0.099260814 0.12774089 0.0052116406 0.38243607 -0.26701707 0.15935682 0.19667937 0.25043243
0.07334315 3.3040462e-05 0.088918984 0.08251654 -0.039103545 0.105660796 -0.053180926 -0.20351867
-0.05740125 0.12609063 0.022576524 0.049936797 0.1202215 0.0026237855 -0.0062967837 -0.10307613
0.082096316 0.2589925 -0.17295302 -0.10320703 0.18046948 0.074867405 0.2296839 0.3870394
0.12337581 -0.08082715 -0.018454663 -0.038440216 0.16661875 -0.053110633 0.40293795 0.013915281
-0.015635569 0.0450224 0.03738586 0.002302221 0.17094237 0.0095505 0.32484838 0.0025257035
-0.0076678204 -0.041509274 -0.024155557 0.067424975 0.049448848 -0.011683802 -0.09981501 -0.029568758
0.10531122 0.072480805 0.093887344 0.0018823093 0.04634737 0.029033042 0.11964031 -0.052564904
0.122492336 0.07952282 0.49943888 0.10337861 0.056559347 0.14910577 0.060320295 0.086534135
0.22707367 0.08607354 0.24535693 0.16310059 -0.018742112 -0.4128122 0.011554182 0.24967164
-0.03134797 0.06968154 0.1034279 -0.010578074 0.056887355 0.011532419 -0.14153525 0.560684
-0.06900781 -0.1102982 -0.015841192 -0.010080933 0.30664217 -0.032449473 0.16534007 0.07514671
0.062817074 -0.02767942 0.16499367 0.17150961 -0.01363924 -0.056478273 -0.1605424 -0.03399214
0.071921244 0.077072 -0.024986925 0.2702934 0.26245707 0.074409135 -0.16468765 0.116079345
0.03763891 0.067858174 0.3284002 -0.073299654 -0.10768365 0.20201007 0.008216538 0.15822613
0.12017302 0.20796326 -0.08614163 -0.35086036 -0.40016267 0.035138175 0.31052065 0.046982277
-0.04284432 0.14484423 -0.071577825 0.29929453 0.037784453 0.021790827 0.15771253 0.21398444
-0.016202629 0.01547689 0.03572323 0.12652098 -0.03945913 -0.010916136 0.048150163 0.039207928
-0.023530029 0.21286851 -0.13240714 0.23502173 0.04038189 0.031276353 -0.048312236 0.054905895
0.04140207 0.07024489 -0.2298722 0.077406175 0.061480142 0.1516461 0.1474194 0.24653654
0.1680893 -0.12860754 -0.017906196 0.17462796 0.12645341 0.056477405 0.27304235 -0.0970982
-0.1412174 0.12657501 0.065501705 -0.08344481 0.025981879 -0.025385924 0.07023429 0.0051520527
-0.10713025 0.046148263 -0.035033662 0.04308579 0.042507924 0.14602065 -0.025564434 -0.06944792
-0.11495817 0.013224812 0.4536792 -0.03941768 -0.12519027 0.045258515 0.011020288 0.06414122
0.08650568 0.25964028 0.18577814 -0.2912672 -0.025089229 0.13369285 -0.1606401 0.12275636
0.21297413 -0.000638489 0.11833904 -0.13044879 -0.13119371 -0.28905627 -0.22600916 0.20620175
-0.07947952 -0.0043065436 0.07813007 0.06800051 0.13962284 0.093654215 0.06661955 0.23401591
-0.06340705 -0.36724314 -0.12905383 0.046151474 0.1840598 0.19815116 0.11448505 0.00676274
0.11436577 -0.10792684 0.11177903 0.12659693 -0.05452328 0.088655055 0.046151116 -0.25158533
00000000: d39f 583c 50d3 e5bc 80c4 2c3d e35e 6d3e
00000010: e526 4c3d 3153 70bc 4ab9 d33b 3c02 1a3e
00000020: 1239 8dbd fbab 723d ba1a 9f3e 3129 0cbd
00000030: c462 de38 96ee d33d 8970 76bc 48af c93e
00000040: 6e03 403e 8575 8e3e 91cd 8e3d c156 a0be
00000050: c83f 143e 7943 05bd cdf9 823e 70ad b23d
00000060: 4149 cb3d 82ce 023e 69c6 aa3b a9ce c33e
00000070: 76b6 88be 6f2e 233e 5166 493e ae38 803e
00000080: ef34 963d ed94 0a38 281b b63d 6ffe a83d
00000090: 0a2b 20bd b064 d83d 3ed4 59bd 3367 50be
000000a0: 931d 6bbd e71d 013e 67f2 b83c 878a 4c3d
000000b0: b136 f63d d1f3 2b3b 4055 cebb 9419 d3bd
000000c0: 1d22 a83d aa9a 843e 991a 31be 355e d3bd
000000d0: fecc 383e 1554 993d 4232 6b3e 072a c63e
000000e0: 75ac fc3d b488 a5bd 3c2e 97bc 7d73 1dbd
000000f0: 1b9e 2a3e 898a 59bd e24d ce3e ebfc 633c
00000100: 2a16 80bc 6869 383d ea21 193d dce0 163b
00000110: 840b 2f3e b379 1c3c 8752 a63e 4686 253b
00000120: 5742 fbbb a105 2abd e0e1 c5bc 1b16 8a3d
00000130: e08a 4a3d 6b6d 3fbc d06b ccbd 2e3a f2bc
00000140: 69ad d73d d170 943d 0248 c03d d2b7 f63a
00000150: bdd6 3d3d b4d6 ed3c fb05 f53d 4c4e 57bd
00000160: 43dd fa3d dcdc a23d 74b6 ff3e 2ab8 d33d
00000170: c6aa 673d 2faf 183e 6a12 773d cf38 b13d
00000180: 0086 683e 5347 b03d d93e 7b3e d703 273e
00000190: 0f89 99bc 1f5c d3be c04d 3d3c eca9 7f3e
000001a0: bb66 00bd 32b5 8e3d 02d2 d33d a84f 2dbc
000001b0: b702 693d 79f2 3c3c 9eee 10be fd88 0f3f
000001c0: f753 8dbd 06e4 e1bd 63c5 81bc 7f2a 25bc
000001d0: 3400 9d3e bde9 04bd e84e 293e 85e6 993d
000001e0: 3da6 803d f3bf e2bc 1af4 283e 37a0 2f3e
000001f0: 1e77 5fbc c355 67bd 3a65 24be 583b 0bbd
00000200: 724b 933d edd7 9d3d 61b1 ccbc e663 8a3e
00000210: c660 863e d163 983d e1a3 28be 02bb ed3d
00000220: 422b 1a3d 3af9 8a3d 1224 a83e 211e 96bd
00000230: 3f89 dcbd badb 4e3e a89e 063c 0806 223e
00000240: 461d f63d 52f4 543e 066b b0bd f8a3 b3be
00000250: 1fe2 ccbe 0ced 0f3d 90fc 9e3e 7d70 403d
00000260: 877d 2fbd 0c52 143e 6597 92bd 223d 993e
00000270: dfc3 1a3d ad82 b23c 657f 213e bd1e 5b3e
00000280: 60bb 84bc c892 7d3c 8652 123d b78e 013e
00000290: e69f 21bd 98d9 32bc 1b39 453d 7e98 203d
000002a0: 0cc2 c0bc 34fa 593e bd95 07be 89a9 703e
000002b0: 7b67 253d a21b 003d 0de3 45bd 01e5 603d
000002c0: 3895 293d 8edc 8f3d 9e63 6bbe 2187 9e3d
000002d0: 9ad2 7b3d 1e49 1b3e 1cf5 163e 1374 7c3e
000002e0: 9a1f 2c3e b2b1 03be 04b0 92bc acd1 323e
000002f0: 017d 013e da54 673d 35cc 8b3e 6cdb c6bd
00000300: 4b9b 10be e19c 013e c225 863d 1de5 aabd
00000310: f3d7 d43c 24f6 cfbc ffd6 8f3d 8dd2 a83b
00000320: 1b67 dbbd f605 3d3d 757f 0fbd ba7a 303d
00000330: ca1c 2e3d 7086 153e 816c d1bc b63a 8ebd
00000340: 306f ebbd e2ac 583c a448 e83e 6f74 21bd
00000350: e131 00be fe60 393d 708e 343c 795c 833d
00000360: e429 b13d 92ef 843e a03c 3e3e f920 95be
00000370: ed87 cdbc c7e6 083e d77e 24be b067 fb3d
00000380: e415 5a3e 4560 27ba bd5b f23d 5e94 05be
00000390: a557 06be 2fff 93be f26e 67be 8d26 533e
000003a0: 29c6 a2bd e81d 8dbb a802 a03d da43 8b3d
000003b0: 4af9 0e3e c8cd bf3d d56f 883d dea1 6f3e
000003c0: 8edb 81bd 4b07 bcbe b026 04be 5409 3d3d
000003d0: 2c7a 3c3e 23e8 4a3e 2377 ea3d fa99 dd3b
000003e0: 9a38 ea3d bf08 ddbd 67ec e43d a0a2 013e
000003f0: ce53 5fbd c890 b53d f408 3d3d cbcf 80be

model.model.8.bias f4 [7]
0.23049042 0.11409686 0.17410922 -0.0011123635 -0.0384001 0.14912064 0.50871897
00000000: ae05 6c3e 9dab e93d b049 323e bacc 91ba
00000010: 6c49 1dbd 15b3 183e 683b 023f

model_old.model.0.weight f4 [32, 1, 4, 4]
-0.3181137 -0.19808692 0.0069110543 -0.0023480959 0.017694488 0.2886793 -0.21111594 -0.5964602
0.01558808 -0.00026020216 -0.015609405 -0.2712353 0.07630132 0.18635988 -0.063030295 -0.0487196
0.21890262 0.060573854 -0.42303547 -0.47518864 0.21428265 0.18802482 -0.115357034 -0.35875273
-0.34469086 0.25343165 -0.4623811 -0.02016542 -0.2551465 -0.31371537 -0.08729621 -0.3295332
0.33811736 -0.24768019 -0.084249884 0.28325978 0.016104182 0.19175412 -0.029860204 -0.48778528
-0.26269644 0.04932055 0.22445296 0.1667664 -0.058861252 0.3082222 0.047431633 -0.034239624
0.21787447 -0.14211574 -0.24409607 -0.16428997 0.055045806 0.07496292 0.018548379 0.2843909
0.2417972 -0.33755308 0.15403067 0.293526 -0.42164323 -0.07298176 -0.46057808 0.6333568
-0.022353511 -0.21002279 0.09317181 -0.18013987 0.23770115 0.014944588 0.1836275 0.31572163
0.40685663 -0.06660559 -0.49675903 -0.18488316 -0.05402983 -0.32736307 -0.24910465 -0.3327629
0.22061348 0.27043214 -0.27979007 -0.12801546 0.2251594 0.06832419 -0.12237659 -0.25919414
0.57287014 0.06621773 0.28432566 0.12713663 0.043138884 -0.54071397 0.24797875 0.552921
0.029380819 -0.1479338 -0.2774645 0.5620975 -0.21805978 -0.46204758 0.20591319 -0.2797634
0.09797124 -0.15515122 0.362981 -1.0783924 -0.3851485 0.013845093 0.12179968 -0.28913936
0.087800466 0.013824174 0.09920542 -0.066829644 -0.069863364 0.10411903 -0.02245285 0.5127694
0.0060499753 0.09222034 -0.25700954 0.97625285 0.3434381 -0.14225484 0.11880262 -0.6229648
0.09137513 -0.15441625 -0.014793528 0.43351123 -0.5011783 0.0965919 0.36658987 -0.8283419
-0.36890996 -0.11969588 0.36205873 -0.9728433 0.0929815 -0.112865895 0.02549039 -0.2355233
0.3329611 0.19349007 0.19850819 -0.88645494 -0.43178144 -0.097532615 -0.34384322 -0.21879372
-0.10432426 -0.12875623 0.045322366 -0.42039448 0.10823034 0.105597086 -0.06174588 0.17786974
-0.058072075 0.16826166 -0.22344671 -0.11480686 0.008765591 -0.26177675 0.034317423 -0.25912264
0.0018897632 -0.035373185 -0.037882067 -0.26877543 -0.19658796 -0.38198534 0.13924903 0.07026171
0.22715126 -0.37462375 -0.12179209 -0.3777742 -0.27154312 -0.04286354 0.092021756 -0.5396972
-0.12132488 0.09086378 0.049860593 -0.29769054 -0.09450059 -0.23189977 -0.6347745 0.30554485
-0.0024863603 -0.4620111 0.052061837 -0.013770713 -0.277415 -0.16795292 -0.33451074 0.035809252
-0.16450974 -0.16828305 0.0572313 -0.04393942 -0.24552973 0.030430192 -0.20453928 -0.48557448
0.052085023 -0.013984341 -0.60164917 0.19164957 0.06499211 0.32555202 -0.4785813 0.41469347
-0.059027266 -0.066839464 -0.08817359 -0.8475602 0.12778823 -0.5645972 -0.23187335 0.008778975
0.08793031 -0.16434732 -0.07438077 -0.22506833 0.023468023 0.023981648 -0.017163519 -0.562449
-0.6069842 -0.06810012 -0.30979472 -0.3223853 0.091017805 0.014825959 0.032313824 -0.13041879
0.27763253 -0.0017846208 -0.11571111 -0.3294166 -0.10286249 0.16316627 -0.41403672 0.35564765
-0.21001384 -0.10049639 0.14244735 -0.2076106 -0.29808483 -0.030130252 -0.23352247 0.33347094
00000000: cddf a2be 4cd7 4abe 2076 e23b 83e2 19bb
00000010: 08f4 903c c6cd 933e c72e 58be 9eb1 18bf
00000020: 2565 7f3c be6b 88b9 97be 7fbc 5adf 8abe
00000030: de43 9c3d 20d5 3e3e 0716 81bd 348e 47bd
00000040: 0228 603e 4a1c 783d 1b98 d8be ed4b f3be
00000050: e96c 5b3e 9489 403e 4f40 ecbd 70ae b7be
00000060: 527b b0be cbc1 813e 37bd ecbe f331 a5bc
00000070: 90a2 82be 4d9f a0be 5bc8 b2bd 93b8 a8be
00000080: b81d ad3e e09f 7dbe 348b acbd 6d07 913e
00000090: ebec 833c 315b 443e 639d f4bc febe f9be
000000a0: 2680 86be 5804 4a3d ffd6 653e d0c4 2a3e
000000b0: 7f18 71bd 4dcf 9d3e ac47 423d d93e 0cbd
000000c0: 7c1a 5f3e ca86 11be 52f4 79be a13b 28be
000000d0: b677 613d 2986 993d c5f2 973c af9b 913e
000000e0: af99 773e c2d3 acbe 37ba 1d3e 0a49 963e
000000f0: 9fe1 d7be 7677 95bd e4d0 ebbe ac23 223f
00000100: b61e b7bc 3710 57be ddd0 be3d 9676 38be
00000110: ee67 733e 25da 743c d908 3c3e 44a6 a13e
00000120: 834f d03e 8368 88bd 3357 febe 0352 3dbe
00000130: 624e 5dbd 229c a7be 4a15 7fbe e65f aabe
00000140: 80e8 613e 1576 8a3e a540 8fbe 7c16 03be
00000150: 3090 663e 8eed 8b3d 94a0 fabd 18b5 84be
00000160: 9ea7 123f 299d 873d 2293 913e 1b30 023e
00000170: 66b2 303d 3b6c 0abf 24ee 7d3e 3b8c 0d3f
00000180: 0bb0 f03c f57b 17be d40f 8ebe 9fe5 0f3f
00000190: 104b 5fbe 8091 ecbe e8da 523e 263d 8fbe
000001a0: 25a5 c83d f6df 1ebe a5d8 b93e c308 8abf
000001b0: 2f32 c5be 87d6 623c 1c72 f93d 130a 94be
000001c0: bbd0 b33d ca7e 623c 362c cb3d fbdd 88bd
000001d0: 8614 8fbd 5c3c d53d 0aef b7bc db44 033f
000001e0: df3e c63b 05de bc3d c196 83be b5eb 793f
000001f0: 1ed7 af3e 41ab 11be ca4e f33d 9f7a 1fbf
00000200: e222 bb3d 4b1f 1ebe 8e60 72bc 2ff5 dd3e
00000210: 394d 00bf f9d1 c53d abb1 bb3e 370e 54bf
00000220: c4e1 bcbe 1d23 f5bd c35f b93e 420c 79bf
00000230: 166d be3d 3c26 e7bd 39d1 d03c 052d 71be
00000240: e179 aa3e 4322 463e bb45 4b3e b6ee 62bf
00000250: 7512 ddbe 2ebf c7bd 380c b0be 760b 60be
00000260: f5a7 d5bd acd8 03be f2a3 393d f23d d7be
00000270: dea7 dd3d 4943 d83d 3fe9 7cbd 7c23 363e
00000280: fcdc 6dbd c94c 2c3e 37cf 64be dc1f ebbd
00000290: 8e9d 0f3c 9a07 86be 6d90 0c3d b9ab 84be
000002a0: eeb1 f73a 79e3 10bd 3a2a 1bbd ef9c 89be
000002b0: 5b4e 49be 9593 c3be 4c97 0e3e 5fe5 8f3d
000002c0: 579a 683e afce bfbe 226e f9bd 9f6b c1be
000002d0: b307 8bbe ae91 2fbd e775 bc3d 9829 0abf
000002e0: 2e79 f8bd ca16 ba3d 9f3a 4c3d e56a 98be
000002f0: 8689 c1bd 2277 6dbe 9580 22bf 6070 9c3e
00000300: 34f2 22bb b88c ecbe cb3e 553d 8e9e 61bc
00000310: 5709 8ebe dafb 2bbe fe44 abbe b9ac 123d
00000320: 3e75 28be 6452 2cbe 5e6b 6a3d d2f9 33bd
00000330: 256c 7bbe bd48 f93c bf72 51be 389d f8be
00000340: 1b57 553d 941e 65bc ae05 1abf c93f 443e
00000350: 951a 853d c1ae a63e 9c08 f5be b452 d43e
00000360: 93c6 71bd 21e3 88bd 5b94 b4bd b5f9 58bf
00000370: ebda 023e 7189 10bf 3570 6dbe b1d5 0f3c
00000380: ce14 b43d aa4a 28be f254 98bd 5078 66be
00000390: 0340 c03c 2975 c43c 829a 8cbc a8fc 0fbf
000003a0: 5163 1bbf 1378 8bbd 6a9d 9ebe b00f a5be
000003b0: 8b67 ba3d 94e8 723c 805b 043d 818c 05be
000003c0: da25 8e3e f0e9 e9ba f2f9 ecbd 4ba9 a8be
000003d0: 92a9 d2bd 0f15 273e 9ffc d3be 7317 b63e
000003e0: de0d 57be 0dd1 cdbd b8dd 113e e097 54be
000003f0: 939e 98be b8d3 f6bc 8420 6fbe b4bc aa3e

model_old.model.0.bias f4 [32]
-0.33290413 -0.010029974 -0.33644658 -0.18178277 -0.0025774231 -0.3110835 0.0020742023 -0.27883533
-0.13443445 0.13629207 -0.38482988 -0.10462637 -0.1970076 -0.06618621 -0.23567581 -0.24378958
0.01978319 0.00391048 -0.074686915 -0.43575695 -0.20670292 -0.024183072 -0.1417996 0.18915361
-0.0117168985 0.07029022 -0.12050198 -0.09909374 -0.0900428 -0.31240082 -0.14846216 -0.39225385
00000000: 6972 aabe c354 24bc ba42 acbe 4325 3abe
00000010: fce9 28bb 5646 9fbe 57ef 073b 81c3 8ebe
00000020: 2fa9 09be 2690 0b3e 6c08 c5be 5a46 d6bd
00000030: 5cbc 49be a38c 87bd 0055 71be faa3 79be
00000040: 5b10 a23c 7c23 803b 74f5 98bd 891b dfbe
00000050: eea9 53be 941b c6bc ea33 11be 7cb1 413e
00000060: 3cf8 3fbc 52f4 8f3d bec9 f6bd a9f1 cabd
00000070: 5c68 b8bd 00f3 9fbe 7706 18be 7fd5 c8be

model_old.model.4.weight f4 [128, 384]
-0.17474538 -0.22548968 -0.17264618 -0.11639831 -0.030594096 -0.19505197 0.033199877 0.03627182
-0.24910863 -0.24647075 -0.0048687863 0.22320825 -0.24122691 -0.47086766 -0.16270724 -0.037082717
0.12536608 -0.6090129 -0.40631473 -0.1835545 0.12843375 -0.05009135 -0.2136669 -0.098491624
-0.15625979 -0.3061873 -0.2108515 0.16026321 0.4284045 -0.14649525 0.093370765 -0.11797891
0.21677475 0.09597449 0.15128636 0.17317072 -0.060247444 0.13816226 0.2173551 0.12679051
-0.34963918 0.0027429154 0.20946191 0.14189404 -0.03386991 -0.054639056 0.16131055 -0.16530234
0.1428672 -0.09352268 0.0039352486 0.10326334 0.10301067 0.015787203 0.0033142616 0.07476217
-0.25370443 -0.20764786 0.12269598 -0.32105842 -0.38625437 0.013715019 0.119589865 -0.0894859
-0.28521976 0.11129222 0.122975715 -0.13482909 -0.028034769 0.12714657 0.0026442544 -0.16229805
-0.0872914 -0.30010238 -0.33886352 -0.11106147 0.1826727 -0.563423 -0.174585 -0.04333866
0.040490832 -0.25735924 -0.2474582 0.21624784 -0.20729308 0.1113421 0.12402726 0.36086783
-0.5874537 -0.11329968 0.11135345 0.10595902 -0.42617756 -0.15589494 0.40793473 -0.31408954
-0.4458702 0.091176525 -0.048101217 -0.16335413 -0.190409 -0.18882328 -0.008224409 0.122494526
-0.021777872 -0.12841547 -0.025330644 0.16853715 0.075803615 -0.08377069 -0.15418832 -0.3132419
0.010051473 0.029675795 -0.08769463 -0.27033356 -0.026001517 -0.43547124 -0.28205442 -0.18120763
-0.5058328 -0.109125234 -0.22682464 0.13654767 -0.023106197 -0.15688972 -0.08009118 0.019442622
-0.21276435 -0.24161857 -0.17389551 0.08262176 -0.405491 -0.046840094 -0.0037422962 0.011603723
-0.2688004 -0.14463165 -0.093174465 -0.14798425 -0.2870983 -0.44614315 -0.23808053 -0.019278774
0.27274835 -0.08999283 0.19610591 0.15485038 0.26973826 0.065678075 0.22022752 0.06377806
0.057826128 -0.053987995 0.26283145 0.2141737 -0.4166322 0.024067117 -0.1300337 0.043893114
-0.2416699 0.11566549 0.005486909 0.2831596 0.002229918 0.12227045 -0.11057508 0.094660155
-0.11777298 -0.257341 -0.15369563 -0.20723908 0.16615446 -0.34925774 -0.11883909 -0.06548267
0.19581217 -0.4373365 -0.21348277 -0.17306814 -0.111172795 -0.098925136 -0.06304176 0.05755406
0.07554913 0.10012645 0.007972908 0.1402891 0.09680298 -0.20308293 -0.32236975 -0.40540266
0.11179134 -0.056282084 -0.0009490031 0.18646742 0.26018205 0.042238384 0.12084709 -0.1277022
0.2907749 -0.006860506 0.13086483 -0.3137864 -0.29924548 -0.27433953 0.20675921 -0.008066166
-0.10934852 -0.18858846 0.12354271 0.28770906 -0.3148745 -0.12092451 -0.009731982 -0.44668716
-0.09215997 0.15958337 0.12333196 0.1715652 0.023280807 0.16438933 0.36806947 1.0106554
-0.115227394 0.32712984 0.29442108 0.39668623 -0.24556158 -0.2742327 0.04073066 0.003316238
0.058118626 0.021514207 0.09343121 0.45594203 -0.10504518 -0.06072132 -0.011472134 -0.38952833
0.2585419 0.0989401 -0.31941774 -0.2637976 -0.20083752 0.16965073 -0.024072638 -0.35640466
-0.34146023 0.019003512 0.11739853 -0.07513542 -0.14018749 -0.04102919 0.16792932 0.44360328
00000000: 74f0 32be c4e6 66be 29ca 30be 3d62 eebd
00000010: 78a0 fabc b4bb 47be 98fc 073d c391 143d
00000020: 5516 7fbe d462 7cbe 578a 9fbb b490 643e
00000030: 3004 77be 9115 f1be ba9c 26be 0ce4 17bd
00000040: f75f 003e 45e8 1bbf 7c08 d0be b6f5 3bbe
00000050: 2384 033e 962c 4dbd 7fcb 5abe fab5 c9bd
00000060: 9102 20be 95c4 9cbe 75e9 57be 0a1c 243e
00000070: d657 db3e da02 16be 2c39 bf3d ed9e f1bd
00000080: 33fa 5d3e 468e c43d d0ea 1a3e aa53 313e
00000090: 06c6 76bd 687a 0d3e 5692 5e3e 5fd5 013e
000000a0: e803 b3be 7cc2 333b 2f7d 563e ac4c 113e
000000b0: 2dbb 0abd 34cd 5fbd 982e 253e 0445 29be
000000c0: c74b 123e d288 bfbd 42f3 803b bb7b d33d
000000d0: 42f7 d23d 2a54 813c 1534 593b e91c 993d
000000e0: 8ce5 81be a4a1 54be 0848 fb3d c561 a4be
000000f0: 22c3 c5be f6b4 603c 88eb f43d 6244 b7bd
00000100: 5308 92be 2ded e33d b1da fb3d a310 0abe
00000110: 2ca9 e5bc b632 023e 3a4b 2d3b 7631 26be
00000120: d5c5 b2bd 05a7 99be 857f adbe 3274 e3bd
00000130: 8d0e 3b3e 7d3c 10bf 69c6 32be e183 31bd
00000140: b7d9 253d 97c4 83be af65 7dbe 1370 5d3e
00000150: a344 54be 5407 e43d 0102 fe3d abc3 b83e
00000160: 5e63 16bf aa09 e8bd 470d e43d 0b01 d93d
00000170: f233 dabe eca2 1fbe d2dc d03e 58d0 a0be
00000180: 1949 e4be c2ba ba3d c805 45bd 4e46 27be
00000190: 94fa 42be e45a 41be acbf 06bc 69de fa3d
000001a0: 8267 b2bc 587f 03be 3682 cfbc 0195 2c3e
000001b0: ed3e 9b3d f88f abbd 8be3 1dbe 3e61 a0be
000001c0: efae 243c a71a f33c 3e99 b3bd 2969 8abe
000001d0: 2201 d5bc 16f6 debe 7069 90be 7e8e 39be
000001e0: 427e 01bf 0d7d dfbd b844 68be 27d3 0b3e
000001f0: 3549 bdbc b3a7 20be d806 a4bd 2246 9f3c
00000200: e6de 59be dc6a 77be aa11 32be 9935 a93d
00000210: 849c cfbe 66db 3fbd 5041 75bb 8b1d 3e3c
00000220: 35a0 89be 521a 14be 41d2 bebd 2f89 17be
00000230: 8cfe 92be e06c e4be 62cb 73be 85ee 9dbc
00000240: aca5 8b3e 294e b8bd fdcf 483e 1991 1e3e
00000250: 221b 8a3e 3a82 863d 5383 613e 129e 823d
00000260: 17db 6c3d 8422 5dbd d891 863e 5a50 5b3e
00000270: d150 d5be 6728 c53c 8e27 05be 44c9 333d
00000280: 5078 77be 07e2 ec3d 87cb b33b 4cfa 903e
00000290: d123 123b ee68 fa3d 3075 e2bd 2fdd c13d
000002a0: f632 f1bd 33c2 83be 6362 1dbe 7b36 54be
000002b0: 6524 2a3e e9d1 b2be e961 f3bd c71b 86bd
000002c0: fc82 483e 92ea dfbe 3a9b 5abe c638 31be
000002d0: 90ae e3bd 4399 cabd 0a1c 81bd cebd 6b3d
000002e0: 81b9 9a3d 190f cd3d cda0 023c f2a7 0f3e
000002f0: a440 c63d f9f4 4fbe a60d a5be f090 cfbe
00000300: dcf2 e43d 0b88 66bd 85c6 78ba 51f1 3e3e
00000310: 9536 853e 2802 2d3d ae7e f73d 5ec4 02be
00000320: 73e0 943e 18ce e0bb 6e01 063e 9ca8 a0be
00000330: b436 99be 3b76 8cbe b0b8 533e f427 04bc
00000340: 1ef2 dfbd 551d 41be f603 fd3d 9a4e 933e
00000350: 3b37 a1be 45a7 f7bd e472 1fbc 2eb4 e4be
00000360: 5ebe bcbd d369 233e 7795 fc3d caae 2f3e
00000370: 64b7 be3c ad55 283e 9a73 bc3e 285d 813f
00000380: 57fc ebbd 907d a73e 5cbe 963e 751a cb3e
00000390: 7f74 7bbe 3a68 8cbe 31d5 263d 3e55 593b
000003a0: cc0d 6e3d 903e b03c dd58 bf3d 3c71 e93e
000003b0: ed21 d7bd ebb6 78bd 9ef5 3bbc 4270 c7be
000003c0: 9b5f 843e 1ba1 ca3d b98a a3be 7b10 87be
000003d0: 5aa8 4dbe ecb8 2d3e fb33 c5bc ac7a b6be
000003e0: e0d3 aebe 41ad 9b3c a46e f03d 99e0 99bd
000003f0: 4f8d 0fbe 390e 28bd aaf5 2b3e f81f e33e

model_old.model.4.bias f4 [128]
0.117681056 -0.007018281 -0.1117456 0.037161928 -0.12292094 -0.08830789 -0.032233916 -0.11524206
-0.19961055 -0.025621641 -0.19494556 0.19522561 -0.15320691 -0.06643517 -0.12025683 -0.12985109
-0.019567803 -0.09034971 -0.122339815 -0.06432019 0.10848641 0.32057828 -0.08284574 0.104125105
-0.006695819 -0.13438664 -0.25943705 -0.07872011 -0.16198848 -0.083994634 -0.13606846 -0.0602763
-0.1290987 0.22934219 -0.015416886 -0.026012974 -0.04096452 -0.1273687 -0.13872811 -0.017590277
-0.058577977 0.12093994 -0.17102699 -0.078120835 -0.03978779 -0.004288304 -0.07323438 -0.023687666
-0.08213218 0.18137017 0.15353411 -0.1285181 -0.07111515 -0.015404787 -0.040929362 -0.14417015
-0.07158993 -0.13586934 0.24075615 -0.13037555 0.19848156 -0.059153356 0.09300085 -0.08658827
-0.07910814 0.265097 -0.15100585 0.072141975 0.083916664 -0.05602953 -0.11215322 0.056742635
-0.15818065 -0.050635904 0.10151569 -0.0816284 -0.24914306 -0.026514223 0.066635616 -0.009714723
0.004380932 0.00029136837 -0.021312911 -0.16616584 -0.13572128 -0.047616772 -0.17886017 -0.084583476
-0.07134728 -0.13236007 -0.0570472 -0.17162485 -0.06256269 -0.06611822 0.08635746 0.027489427
-0.10599086 0.03821109 0.069916576 -0.07965312 -0.12421397 0.009641165 0.027146416 -0.0687895
-0.06745727 -0.024097618 0.10161821 0.048873194 -0.20937389 -0.063359365 -0.02034659 -0.052887853
-0.08188557 -0.075372696 -0.04453728 -0.1601921 -0.035081547 -0.20410767 -0.11327987 -0.13152729
-0.016003959 0.027545795 0.20385066 0.07024536 -0.09813737 -0.06645746 0.16114417 0.1584602
00000000: c402 f13d 9cf9 e5bb e1da e4bd 1b37 183d
00000010: f9bd fbbd c4da b4bd b607 04bd 0704 ecbd
00000020: b566 4cbe 7ae4 d1bc cf9f 47be 39e9 473e
00000030: 46e2 1cbe 2a0f 88bd 3649 f6bd aff7 04be
00000040: a84c a0bc 4509 b9bd 4c8d fabd 4eba 83bd
00000050: 1f2e de3d d622 a43e 07ab a9bd 8b3f d53d
00000060: 9a68 dbbb a79c 09be efd4 84be 0238 a1bd
00000070: 4fe0 25be 6105 acbd 8855 0bbe 48e4 76bd
00000080: 7332 04be aed8 6a3e 1b97 7cbc 2919 d5bc
00000090: 6aca 27bd f16c 02be be0e 0ebe 7c19 90bc
000000a0: 76ef 6fbd 5caf f73d b321 2fbe d1fd 9fbd
000000b0: 86f8 22bd e784 8cbb e8fb 95bd a30c c2bc
000000c0: eb34 a8bd 1ab9 393e 0c38 1d3e 409a 03be
000000d0: d2a4 91bd 5c64 7cbc 8ca5 27bd 57a1 13be
000000e0: be9d 92bd 5521 0bbe c888 763e 2b81 05be
000000f0: c03e 4b3e ca4a 72bd 3b77 be3d 3155 b1bd
00000100: 7303 a2bd cbba 873e 47a1 1abe 2cbf 933d
00000110: 80dc ab3d 387f 65bd 96b0 e5bd f76a 683d
00000120: 1cfa 21be 9867 4fbd 75e7 cf3d ca2c a7bd
00000130: 5c1f 7fbe 5b34 d9bc 4178 883d 802a 1fbc
00000140: ec8d 8f3b cdc2 9839 6a98 aebc 6127 2abe
00000150: 85fa 0abe ce09 43bd 1f27 37be 1a3a adbd
00000160: 861e 92bd 6689 07be 53aa 69bd 6dbe 2fbe
00000170: de20 80bd fd68 87bd 2edc b03d 8231 e13c
00000180: bc11 d9bd 3b83 1c3d 6c30 8f3d 2d21 a3bd
00000190: e563 febd faf5 1d3c 2962 de3c 82e1 8cbd
000001a0: 0a27 8abd 5e68 c5bc 351d d03d 422f 483d
000001b0: 1c66 56be 8ec2 81bd e4ad a6bc efa0 58bd
000001c0: 9fb3 a7bd 005d 9abd b96c 36bd 6609 24be
000001d0: abb1 0fbd 9a01 51be 47ff e7bd 17af 06be
000001e0: bc1a 83bc b8a7 e13c 3abe 503e cddc 8f3d
000001f0: 3ffc c8bd d91a 88bd fa02 253e 6443 223e
