project/paper_notebooks/saved_variables/paper_notebooks/7/5-looping-iteration-3/final_policy_agent1.pth (torch, 543093 bytes, 16 tensors)

model.model.0.weight f4 [32, 1, 4, 4]
00000000: 6a05 1bbe ed71 ccbd d0c8 6e3e 43e1 423c
00000010: 20de 743d f624 623e 0df1 0d3d c502 34be
00000020: b78c 213e b857 293d 619d 7c3e ec43 3c3d
00000030: e713 dc3d 4029 233d ffab f73d a66b 1e3e
00000040: cac2 7a3d 65fc 503d fc1b fcbd f8ba 8bbd
00000050: 34dd a03d 4c7f f23d a895 563e 6b6a 54be
00000060: 046c 77be 0b4a 5b3e 3c14 63be 9c0f a4be
00000070: 5c64 47bb 011d 66bd 18ab 713e a53d 77be
00000080: 6ba5 ed3d 8672 9abd b6be 4ebe f0d4 5b3d
00000090: b791 3bbe 1169 0a3e e61e bcbc d41e 95be
000000a0: f1b3 81bd 6dab 9bbc 06da 763e 8352 d73d
000000b0: 05cc a7bc 0884 7e3e 2bf1 bf3d 8832 173e
000000c0: 756b 663d 04f7 5fbe 5a79 09be 3a0e ffbd
000000d0: 6ccc 08be 3078 5f3e 77d8 8bbd 532e b43d
000000e0: a6a9 573e 359b 26be e662 463e 2b94 0a3e
000000f0: 80c4 42be 8c78 2a3e a573 d6bd 410c 833e
00000100: 36eb 0bbd c310 a4bd 0975 8e3e d1f2 14be
00000110: 2de3 893e d54f ab3d c215 af3d b5af d739
00000120: 1351 683e d6a2 a83d e192 b6bd c227 98be
00000130: 198a 28be 647f 14bd 4507 e2bd e99b 18be
00000140: 6cdc 633d 30a6 493e a33d 78be ef32 58be
00000150: c6a8 32bc 04c5 ed3d e221 0fbc e5ef 6fbe
00000160: 46d9 913e d392 4a3e 277a f5bc 480a 923d
00000170: 5860 973d 7aff 36be b7a1 3f3e 21a5 323e
00000180: 33cd 0bbe 02b8 803d 9525 6ebe a8c3 1c3e
00000190: 0587 51bd 1645 e83d 4cfb 4fbc cae1 d93d
000001a0: b6e6 053e 95e6 273e 529f 443e d8bb 32bd
000001b0: 598e a3bd bedc e7b9 cfe3 6a3e 0ad7 f3bd
000001c0: 921c 4a3e acf0 6abe 9073 763e 7ca8 33be
000001d0: 7086 243e 4aa2 53be 2bd3 5abd 63a2 253e
000001e0: ff81 923e 3b3a 8e3d a7cd 233c 7467 803e
000001f0: c684 5e3e b891 abbd 3827 cebd b2e2 24be
00000200: 4070 30be dac6 e53d 2baa 8ebd 226a 0d3e
00000210: 9819 85be b212 613e f57a 7e3e ad0b 74be
00000220: 608d 60be 19a4 1c3d 5152 353e b6ea c7bd
00000230: b478 443e 2871 d33d 15f7 5c3e 3aa1 96bd
00000240: aeed 4dbd 56f8 1c3e 7ccc 6d3e 2636 85bc
00000250: bb65 87be 6809 c8bb e50b d5bd 155b 8cbc
00000260: 0a53 983d d874 e0bd d049 573e 6817 2cbe
00000270: a600 743e ec77 a6bd 0829 6d3d 2bd5 84bd
00000280: 889a ab3d 234d 073e 2b7d 7ebe 6e3f e53d
00000290: b9c6 803e e8db 54be 7f0a 8dbe 9b63 05be
000002a0: 31d9 483e 1da0 b53d 58e8 85be 3bc3 afbd
000002b0: f27f 173d c629 0cbd bf88 f13d a3c4 653e
000002c0: 2703 b2bd 4676 603c 40f5 353e 7beb 7ebd
000002d0: d71d b3bd bbc1 363e 3dcd 5f3e 40ba c3bd
000002e0: cfd5 af3d 4466 603e 4465 1a3e 7888 de3c
000002f0: 9ccf c13c 2ed0 74be bfe8 47be bfbf d93d
00000300: 249a e83d 1ce6 05be 4232 23bd 89b3 71bc
00000310: ef7e 65bd 41a5 39be 11a2 63be f626 9cbc
00000320: 97a6 a9bd 8753 44be 72c0 583e a1ec 0dbe
00000330: 7492 37be 0197 403d b1dc 0fbe 331b e0bc
00000340: cce6 84bd 33d7 1b3c d4cc 95be e691 1fbe
00000350: b702 0f3e 5045 673e 0e48 28be 7216 103e
00000360: 6334 b5bd 9f34 7fbe dfa2 793e 73a0 1abe
00000370: 9f99 503e 4f29 d63c ccb7 45be 4187 9c3d
00000380: 2979 103e 0e77 003e f6b2 bc3d c625 5c3a
00000390: 0d2a 653d adbf e73d 6519 6b3d 3ee5 80be
000003a0: d6ae 62be b716 063e dbe7 1cbe 2da8 1bbe
000003b0: 9fcd 9b3e ccf6 d93c f8da 6f3e 250c 39be
000003c0: c39f 2c3c 5f5e ed3d 91d2 a6bb 0c42 3bbd
000003d0: aa7c 5e3d ae6c 8cbc bb16 84be 4ae8 0f3e
000003e0: 9440 4cbe 3488 c93d bccb d33c 46c5 01be
000003f0: 44ce 3abe e2de 403e 17c9 93bd 0041 603e
-0.15138784 -0.09982667 0.23318791 0.011894527 0.059782147 0.22084412 0.034653712 -0.17579181
0.15776335 0.04134342 0.2466941 0.045963213 0.107459836 0.03983426 0.120933525 0.15470752
0.06122092 0.051021952 -0.12310025 -0.06822771 0.07854691 0.11840686 0.20955527 -0.2074372
-0.24162298 0.21414964 -0.22175688 -0.3204316 -0.003042481 -0.056180004 0.23600423 -0.2414461
0.116038166 -0.07541375 -0.20189938 0.05366987 -0.18317305 0.13516642 -0.022963952 -0.29125082
-0.06333149 -0.01900264 0.24106607 0.10513785 -0.020483026 0.24855053 0.09372171 0.1476537
0.056254823 -0.21871573 -0.13425198 -0.124538854 -0.13359231 0.21823192 -0.06828397 0.08797898
0.2106081 -0.16270144 0.19373664 0.13533084 -0.19020271 0.16647547 -0.10471276 0.25595286
-0.03415986 -0.080110095 0.27823666 -0.14545752 0.26931134 0.08364836 0.08549072 0.00041138908
0.22687177 0.082341835 -0.08914734 -0.29717833 -0.1645893 -0.0362543 -0.11036543 -0.14903225
0.055630133 0.19692302 -0.24242263 -0.2111318 -0.010904497 0.116098434 -0.008736106 -0.23431356
0.2848608 0.19782571 -0.029965473 0.07130867 0.07391423 -0.17870894 0.18714033 0.17445804
-0.13652496 0.06285097 -0.23256524 0.15309012 -0.051154155 0.11341302 -0.012694191 0.10638769
0.1307629 0.16396554 0.19201401 -0.043636173 -0.07986135 -0.0004422422 0.22938465 -0.1190625
0.19737461 -0.22943372 0.24067521 -0.1754474 0.16066909 -0.20667377 -0.05342404 0.16175227
0.28614804 0.069447 0.009997762 0.25078928 0.21730337 -0.08377403 -0.10066074 -0.16102102
-0.1723032 0.112195686 -0.06966051 0.13810018 -0.2599609 0.21979788 0.24851592 -0.23832579
-0.2192893 0.038242433 0.17707182 -0.097615644 0.1918667 0.10324317 0.2157863 -0.0735497
-0.050275497 0.15329108 0.23222536 -0.016261172 -0.26444802 -0.006104637 -0.10402659 -0.017133275
0.074377134 -0.10959786 0.21024251 -0.16805804 0.23828372 -0.08128342 0.05790046 -0.06485971
0.08379084 0.13213019 -0.24852435 0.11193739 0.25151613 -0.20787013 -0.2754707 -0.13026278
0.19614102 0.0886843 -0.26153827 -0.08582159 0.036987253 -0.034219526 0.1179366 0.22438292
-0.086920075 0.013700074 0.17769337 -0.06223629 -0.08745926 0.1784734 0.21855636 -0.09557009
0.08585703 0.21914011 0.15077692 0.027164683 0.023658566 -0.23907539 -0.1952238 0.10632276
0.11357525 -0.13076061 -0.03984285 -0.014752277 -0.056029256 -0.18129446 -0.22229792 -0.019061547
-0.082837276 -0.19172488 0.21167162 -0.13859798 -0.17926961 0.04701901 -0.14049031 -0.02735672
-0.064893335 0.009511757 -0.29257834 -0.15583 0.1396588 0.22585034 -0.16433737 0.14071062
-0.088478826 -0.24922417 0.24378537 -0.15100269 0.20371102 0.026142744 -0.19308394 0.07642985
0.14108719 0.12545416 0.092138216 0.00083979627 0.055948306 0.11315856 0.057397265 -0.25174898
-0.22137007 0.13094603 -0.15322821 -0.15200873 0.30430314 0.02660694 0.23423374 -0.18071039
0.010536137 0.115902655 -0.0050910194 -0.045717284 0.054318108 -0.017141666 -0.25798592 0.14053455
-0.1994651 0.09840432 0.025853984 -0.1267291 -0.18242747 0.18835023 -0.07216089 0.21899796

model.model.0.bias f4 [32]
00000000: def0 1c3d 0fcf 06be 33f4 27be 13fa 71bd
00000010: add2 18be 72e8 46be accd 043d 89dd eb3d
00000020: 0d45 b23d 4262 3a3e 3b7c cc3c 18fe 47be
00000030: b46f d53d 88bc c73d 650b 323e 9fe8 633e
00000040: 3960 823e dc16 e83d 63a6 56bd 477f 903b
00000050: 9433 873e a8cb 663e c038 253e 1e3b b33e
00000060: b8f8 383e 362f d23d b77b dc3d 1e1e 9a3e
00000070: 0459 4b3e abd6 2ebe 2bee 593e ce46 2dbe
0.038315646 -0.13164924 -0.16401748 -0.05907638 -0.14924116 -0.19424608 0.032422706 0.11516864
0.08704577 0.18201545 0.024961581 -0.19530523 0.10421696 0.09752756 0.17387159 0.22256707
0.25464037 0.11332485 -0.052404772 0.004409704 0.26406538 0.22538626 0.1613493 0.3500604
0.18063629 0.10262911 0.10765784 0.30101103 0.19858176 -0.17074077 0.2128226 -0.16921541

model.model.4.weight f4 [128, 384]
00000000: b6cb fdbb 2d7c f2bc 1835 273c 12b1 8e3d
00000010: c4db 7a3d 9c81 8c3d e0c6 1e3d e042 2f3d
00000020: ca12 323d e70e 103d 2160 b2bc 4ffd a8bc
00000030: 5a1c 663d 129b 053e 9bcd 173d 9473 b33d
00000040: 1028 c53c ba03 a23c 3ed2 a23c 1d2e a03b
00000050: 1681 dd3d 584b 4dbc 45b2 0ebb 7324 eb3d
00000060: db5c df3d 930b db3d da51 633d 3e66 803d
00000070: cde8 773d fddc 823d fc42 203d 5851 753d
00000080: 883c 453d 6ced 4a3d 5c30 14bd d1cd 5cbc
00000090: e0b4 cc3c 3fe1 253d 79ec 133d 2c64 f93a
000000a0: 49f0 123d 4782 103d 616a c63d 7283 b33d
000000b0: 764e c93d fd40 06bd 9e80 973d 397f ba3b
000000c0: 7a71 12bd b1a0 babd f2b4 93bb 09a5 0c3d
000000d0: 4019 333d 1cc0 183c bfd7 d8bc 1471 b43c
000000e0: 028e 073d 4fc5 f53c df97 8f3d 0c66 933d
000000f0: 4a28 89bd fc47 b83c ae17 06bd cea3 47bd
00000100: aa33 98bc eb49 003e 43ec 873d 0b3e 5b3d
00000110: e556 af3d bfb8 d43d 8bca 503d 3353 443d
00000120: 6c2f 93bd 5fd9 a43c d4ea 52bd abed 4e3d
00000130: 84a8 143d f68b 36bc 29c6 d5bb c044 513c
00000140: cff8 a23d c607 d93c 9698 993d e166 933d
00000150: b5b3 0bbc 9282 133c 7768 c33c c97f dabc
00000160: 363d 10bd 2cc2 4c3c 813b 9b3d b76c c9bb
00000170: f339 a83c da62 a43d 704d e53d ed5b 763d
00000180: cf0b d23c a6a2 813d e038 933d 5adc 9a3d
00000190: 7176 c23a 06f0 5d3c abfa c63d 25de bf3c
000001a0: 3a55 2f3d 5b7f 403d 3cbf 9ebc 908c 823d
000001b0: 3429 403d 5d50 43bb 9289 c33c 7e1d 593d
000001c0: bb31 6b3d 3f78 953d 85b6 86bc 7310 6a3d
000001d0: d13c ef3c af3e c5bc dc05 41bb c946 00bd
000001e0: 2d74 c5bc 85d5 1d3d 42fe 4ebc c019 febb
000001f0: 820d 2eba d5d8 c23d 9a8d 8f3d e53b 1a3d
00000200: 805e d93d f08b fa3c 9134 99bc 9626 713d
00000210: 1fe6 eabc 9a78 01bd e0b3 9ebc 5960 093d
00000220: f2a1 9e3c 9797 f93c 34a8 a2bc 8ee5 1ebd
00000230: 426f bf3b bd2d 3bbd 7824 a83b 9d3b 0e3d
00000240: cdb6 0d3e b5c7 1f3c 8196 643e bfed f23d
00000250: 4d9d 1e3e 5320 afbc ca77 1a3e e094 0e3e
00000260: 81cd ddbb 31ce 58bb 2788 163e f6db 3e3d
00000270: b742 1a3d 20bf 293e 7337 aa3d c7d0 9f3d
00000280: 1ae1 ab3b 71da 243e 3c63 993c 6fad e53c
00000290: 3e7a 123e 0750 4a3e 7748 273e 8aed 2d3e
000002a0: ac7f 0c3d a33a 133d caf0 063b 036f bf3d
000002b0: e243 c13c 57b2 4a3d c9cb 1e3d 6c9d 8d3d
000002c0: 9ce3 8e3d 7bce 3c3d 1687 743d 1ed9 82bb
000002d0: bc2a fe3d f85f ac3d 7474 4f3c ae5a ac3d
000002e0: 65c7 663d b88b d93c e7b7 fb3d 29ba f63c
000002f0: 5f71 b93d 677c 593d 4573 563d 3c46 8c3d
00000300: e6f5 e23d 8abe 533d bb7b d23d 3d54 f03c
00000310: 9362 163d 35ef 9cbd 3cf7 c73d e702 b03d
00000320: 7218 993c 67e0 1dbd e80f 0c3e 7feb b53d
00000330: 2143 823d 8396 893c fd4b cb3c 3825 743d
00000340: 6f24 f13c 4ce7 803d 5b60 02bd 80c5 c23c
00000350: 7df2 fa3c b5d8 423d 8073 c63d e957 e83d
00000360: f92b b53d 6ab2 c63d 3c33 da3d a995 f53d
00000370: 8ade 153e 3ebb be3d 8569 153d 5f75 b0bb
00000380: 4925 8e3d c1c6 7a3d df90 183e 4624 cb3d
00000390: b6c7 793b cac0 f93c be09 213e 2aa5 d73d
000003a0: 7152 013d b9cd 8fbc e49b d13c f40e c13d
000003b0: a451 91bb f9e4 b33d ebed efbc 25da 493c
000003c0: 275b 64ba 36f3 d93c 93ec c93c 8107 623d
000003d0: 9575 523d 97e8 843d b80e d1b9 6da9 29bc
000003e0: 70c0 683c 1a76 03bc 3cb4 413d d8c2 50bc
000003f0: 3a92 b83d 4155 ab3d efca b9bb bc3b 523d
-0.0077452315 -0.029600227 0.01020553 0.06967367 0.06124474 0.068606585 0.03876388 0.042788386
0.04347495 0.035170462 -0.021774353 -0.0206286 0.056179382 0.13047436 0.037061315 0.08762279
0.024066955 0.019777168 0.019875642 0.0048883096 0.10815637 -0.01253017 -0.0021773737 0.114815615
0.10906383 0.10695567 0.05549798 0.06269501 0.06052475 0.063898064 0.03912638 0.05989203
0.04815343 0.04954283 -0.03617893 -0.013476805 0.024988592 0.040498015 0.03611419 0.0019027046
0.035873685 0.035280492 0.09688259 0.087653056 0.09829418 -0.03277682 0.07397579 0.0056914357
-0.03575275 -0.09112681 -0.0045076543 0.034337077 0.043725252 0.009323146 -0.026470063 0.022026576
0.033094414 0.03000131 0.07011389 0.07197198 -0.06697138 0.022495262 -0.032737426 -0.0487402
-0.018579323 0.12528197 0.0663686 0.053525966 0.08561496 0.103868 0.05097441 0.047930907
-0.071867794 0.020123182 -0.05149348 0.050519627 0.03629352 -0.011141768 -0.0065238667 0.012772739
0.07957613 0.026492964 0.074998066 0.07197357 -0.008526732 0.009003298 0.023853524 -0.02667226
-0.035214625 0.012497466 0.07579709 -0.006146993 0.020535445 0.08026667 0.11196411 0.06014626
0.025640396 0.06329851 0.071885824 0.0756156 0.0014836324 0.013545996 0.0971578 0.023421356
0.042805888 0.046996456 -0.019378297 0.063744664 0.046914294 -0.002980254 0.02386931 0.05300664
0.057420474 0.07298326 -0.016444454 0.057144593 0.029203804 -0.024077741 -0.0029452955 -0.031317506
-0.024103248 0.038533706 -0.012633862 -0.0077545345 -0.0006639586 0.09514014 0.0700943 0.037654776
0.106137276 0.030584306 -0.018701823 0.05887469 -0.028674183 -0.031609155 -0.01937288 0.03353915
0.01936433 0.030467791 -0.019855596 -0.03879314 0.0058421204 -0.045697916 0.0051313005 0.03472482
0.13839264 0.009752204 0.22323038 0.11861753 0.15489693 -0.021377718 0.15084758 0.13923979
-0.0067688827 -0.0033081884 0.14700375 0.04659649 0.03766128 0.16576815 0.08311357 0.07803493
0.00524534 0.16098954 0.018724076 0.028036801 0.14304444 0.1975709 0.16336237 0.16985145
0.034301445 0.035944592 0.0020590299 0.09347346 0.02359194 0.049486484 0.038768563 0.069147915
0.06977007 0.046095353 0.05969914 -0.0039931675 0.12410495 0.08416742 0.012662042 0.08415733
0.0563425 0.02655588 0.12290936 0.030118065 0.09054827 0.053097155 0.052356023 0.06849334
0.11082058 0.051695384 0.10277506 0.029337043 0.0367151 -0.076628126 0.09763953 0.085943036
0.018688414 -0.038544085 0.13677943 0.08882808 0.0636046 0.016795402 0.024816507 0.059605807
0.029436318 0.062941164 -0.031830173 0.023775816 0.030633206 0.04756995 0.096899986 0.113448925
0.08846278 0.097019985 0.106543034 0.11991436 0.14635673 0.09313057 0.036477584 -0.0053850855
0.06940705 0.061224703 0.14899014 0.09919028 0.0038113422 0.030487437 0.15726373 0.105295494
0.031572763 -0.01755415 0.02558703 0.0942668 -0.004434781 0.087839074 -0.029288253 0.012320076
-0.00087110925 0.02660523 0.02464894 0.055182938 0.051381666 0.064896755 -0.00039874553 -0.010355336
0.014206037 -0.008023763 0.047291026 -0.012741767 0.090122655 0.0836587 -0.0056699435 0.0513265

model.model.4.bias f4 [128]
00000000: 8291 943d e37c 743c fc39 ab3c 44e1 983d
00000010: 0c88 093d b878 19bc efa2 a03d 65e2 05bc
00000020: fcc3 243a e179 603c b012 373c 8008 ae3d
00000030: bd79 963d b6c8 6ebd 886c 5f3c cda2 27bd
00000040: eec7 863b 767a 42bd 031b 7b3d 11d8 a43d
00000050: 3438 913c b979 883d dca0 d53c add2 c43d
00000060: a4e9 0e3d 99d2 ecbb e33f 20bd edd9 fc3c
00000070: 5542 463d 4d23 9b3c b4ce c03c 9e93 40bd
00000080: 7138 8e3d 00bc b13d 388c 7b3d 4fc0 54bb
00000090: 9401 a7bc a3ca adbc 8409 723d e7bb bb3d
000000a0: 6464 1fbd e174 203d f983 3a39 a22d 1a3d
000000b0: 2b4f 23bc e961 353c 4f33 55bd 1f56 1cbc
000000c0: 5498 1f3d d75a 9ebb 2423 3f3d 4a60 e73c
000000d0: d1d4 833c 2a77 063d a03d 78bc bd13 db3c
000000e0: 1e9c f6bc e629 d5bb 9207 cd3d 1f2d 583d
000000f0: 723c 753c 28d1 223d 076b 963d ae50 39bc
00000100: f933 513d e2f6 163d 1095 7f3c 7b4b e73c
00000110: c4a2 053d 849a 303d c1fd b43d aef5 7d3d
00000120: aa2b 903d bd45 873d 5bbb 253d 0f0d 503d
00000130: 2a15 e83b 05fd a43d 98ba ab3d 7799 013d
00000140: fb4f b43d 61fb da3c a2ca 05bc 0e24 043a
00000150: ddb1 56bd 77dc 633d 8653 c5bc b2cb 563d
00000160: dbab 343d b22d 60bc 6d6a 743d 3ad1 173c
00000170: 4f3f 9a3d bd80 6d3c f7f7 2f3d e12f 393d
00000180: ed68 bc3d fd73 003d 1ca4 843d 299d 193d
00000190: cfd5 853d d8ff fb3c da8a 61bc 63de b33d
000001a0: 9f09 10bd 1bc3 04bb 80d8 b73d fc99 8a3d
000001b0: 5d6d 3dbd 9c1f 3abd 2dc5 b43d b292 11bd
000001c0: 25be 893c da61 e33c 6a17 dc3c 5abf 9a3d
000001d0: 4aca b03d bb1f 79bd 5adc 6c3d a6f3 9a3c
000001e0: 3e41 fb3b d7b4 9b3d d3c8 3abb 6806 763c
000001f0: 22c9 22bb b526 4ebd 2046 bb3b 3ee6 113d
0.07254316 0.014922353 0.020901673 0.07464841 0.03357701 -0.0093671605 0.07843577 -0.008171652
0.00062853075 0.013700933 0.011173889 0.08497715 0.073474385 -0.05829688 0.013636716 -0.040926743
0.004113189 -0.04748007 0.061305057 0.08049024 0.017726995 0.06663842 0.02607768 0.09610496
0.034890786 -0.0072272536 -0.039123427 0.030865634 0.048403103 0.018937731 0.023536064 -0.04701578
0.06944359 0.08678436 0.06141302 -0.0032463258 -0.020386495 -0.021214789 0.059091106 0.09166699
-0.0389141 0.039173964 0.00017787506 0.037641175 -0.009967606 0.011070707 -0.052050885 -0.009542017
0.03896363 -0.0048326063 0.046664372 0.028244156 0.01609269 0.032828487 -0.015151411 0.02674281
-0.03010374 -0.006505239 0.100112095 0.052777406 0.014968025 0.03975025 0.073446326 -0.011310739
0.051074956 0.03685654 0.015599504 0.028234234 0.03262593 0.043116108 0.08837462 0.062001877
0.07039578 0.066050984 0.04046188 0.050793704 0.007082601 0.08056072 0.08385199 0.031640496
0.088043176 0.026731195 -0.008165987 0.0005040773 -0.052415717 0.055630174 -0.024087679 0.052440353
0.044109207 -0.01368277 0.059671808 0.009266192 0.075316064 0.014496026 0.042961087 0.045211677
0.091997005 0.031360615 0.06476614 0.037503395 0.065349214 0.030761644 -0.013766015 0.08782651
-0.035165425 -0.0020257893 0.08976841 0.067676514 -0.046246875 -0.0454403 0.08826671 -0.03554029
0.0168143 0.02775662 0.026866633 0.07556029 0.086323336 -0.060821276 0.05782733 0.018915009
0.0076676896 0.07602852 -0.0028501048 0.015016176 -0.0024839123 -0.050329883 0.0057151467 0.035619967

model.model.6.weight f4 [128, 128]
00000000: 32c6 99bd 1822 ce3c 32ad b3bd 96f5 2fbc
00000010: ad95 933d b63b b0bd 2bee 923d 54e9 b7bd
00000020: de9c 4b3d 6969 2c3d caa4 f7bc 86dc 843a
00000030: 0e97 c53b 988b d43c 72b0 b13d b382 983d
00000040: 2432 9dbd 586a 21bc 2184 0d3d 259a 2bbd
00000050: 5ad6 293d 7553 82bd 111a 13bd aaf3 a63d
00000060: 0c9b 88bc 805e a73d e084 6bbd ea3f 963d
00000070: 8419 d8bc 5e49 8cbc 1790 fe3c d35d 863d
00000080: 9093 5dbc 6db9 a6bb 9310 95bd 3a32 403d
00000090: 7c47 b13d 1555 c6bc e47a af3d 2da0 6fbc
000000a0: 23a4 91bd 0746 fcbc 7248 c3bc a621 443d
000000b0: 0f36 013b 6822 debc b66a 69bd 72db a2bd
000000c0: 6686 72bd 9657 b3bd 5c1f e23b 5899 0a3c
000000d0: da2b a13d 4a94 86bd 00b3 69bd 661d 97bd
000000e0: 6024 363b 0d9a 8bbd 3091 c8bb b132 62bd
000000f0: 8c2d 22bd 4aba 85bd 8b30 9a3d d7ea 5f3c
00000100: a2ce 06bd 7e81 1f3d 9787 95bd 9c40 f4bc
00000110: 020f 4a3d 8738 0b3d 8775 abbc 3afd 6e3d
00000120: 3c2f b6bd 7d4b 2a3d 6a46 87bb d0c0 8f3b
00000130: ff12 86bc 60a6 7fbd d6ca 11bd 0017 1f3d
00000140: 7d05 b53c d452 7fbd 3fd0 7cbd 2b54 983d
00000150: 9063 623c 39f6 ff3c 5c19 7c3d 7c99 903d
00000160: 70d5 883d 390b 69bd a79e 143d c850 ab3d
00000170: d961 583c 43d5 1ebd 7c87 d63c f425 343d
00000180: e19b 1a3d 6482 a2bc b6b9 8c3d fc74 45bd
00000190: b7f2 85bd 5016 21bd 2fcc 883d 2b0b 96bd
000001a0: f5c4 ac3d ead4 ffbc 399f 863d 5b05 423c
000001b0: 23d3 9cbd 1684 9fbd 4243 86bc eca8 903c
000001c0: 6369 47bc 8b87 bcbc eee5 b73a 197c 92bd
000001d0: 6327 94bc 8fef b33d 8c14 f13b 0c05 1ebd
000001e0: 0c1d 20bd 58b6 973d 67fa 2b3d c7e5 043c
000001f0: a1f3 22bd 7ac2 353d 015c 90bc 96fb 593d
00000200: a378 7dbd 2cf4 8ebd d88e 653c b3ca 47bd
00000210: ca1b 1d3d 3ceb ed3c 40d1 fb3a e452 ca3c
00000220: 12c2 b0bd 6653 213d 18dd 83bd eaab 493d
00000230: 72ce 6c3d 3940 80bd 1ef2 703d 2ed8 103d
00000240: f009 563c 9cfa a3bc 6607 673d 31fe adbd
00000250: 9093 b4bb a140 833d d7e6 5abd 6a6a d4bc
00000260: d0e5 1b3c 38db 6fbd e351 5cbd e5f4 19bd
00000270: 3ec6 35bd 908d 68bc 70ab 2e3c 80cc bebc
00000280: 119c a5bd 982c 943c 3040 9e3c 69cb 80bd
00000290: e940 923d 5005 b9bb 9829 193c dbc5 a03d
000002a0: 9893 6e3c 4aaf 0f3d 6d63 823d 92df 0e3d
000002b0: 93dc ab3d 2819 133d f873 aabd 904f 983c
000002c0: e9b6 8c3d 785e db3c c07c 22bc 5f54 5abd
000002d0: 36a3 9bbd e0ad 38bc 98c2 9abc 5632 333d
000002e0: 7096 04bc e741 b2bd 7f45 50bd c012 11bd
000002f0: 2331 883d a89e ec3c 28fa 65bc 809f 393b
00000300: 6187 b33d b25d 383d 4eae 9cbd e024 743b
00000310: e6c5 03bd 1151 a73d 08c8 16bc a8b7 853c
00000320: f59f 85bd 2838 dabc 4f3a 873d d4a1 20bd
00000330: 4271 183d 4f58 9bbd 1c82 c6bc 8058 4aba
00000340: 68ea f43c ec8e afbd f59b 8fbd e187 04bd
00000350: 3230 533d 1e2e 793d 10be 3f3c 8c8a 79bd
00000360: f653 1d3d 0384 813d 906f dcbc 3bcb 8c3d
00000370: 8179 8c3d 3724 afbd 682c 57bc e54f 5abd
00000380: 0288 28bd 5cd8 86bc 5820 f53c 5fe9 b4bd
00000390: ca45 6fbd 08e6 f13c 9306 13bd 94ed 923c
000003a0: de5c 673d 0c96 0f3d 9e46 97bd 9631 a4bd
000003b0: 8ad5 78bd e0a9 df3c d0c7 b2bd 8a91 e1bc
000003c0: 08ec 1cbc 4e01 2d3d 5284 1a3d 8c05 f8bc
000003d0: 60df 0c3d 60a0 85bd e3f4 97bd 83ff 45bd
000003e0: 481d ad3c 18dd e13c e1ea a0bd cf8d 863d
000003f0: 5cf1 d3bc 10fe d33b 40f1 c3bc e0e6 3fbc
-0.07508506 0.025162742 -0.08773269 -0.010739705 0.07206283 -0.08605139 0.07174333 -0.08980051
0.049710147 0.042092714 -0.030229945 0.0010136522 0.00602997 0.02594547 0.086762324 0.07446804
-0.07675579 -0.0098520145 0.034549836 -0.04189505 0.041464187 -0.063635744 -0.03591353 0.08151944
-0.016675495 0.08172321 -0.057499766 0.073364094 -0.026379354 -0.017124828 0.031074567 0.06560864
-0.013523951 -0.0050880224 -0.07278552 0.0469229 0.08656213 -0.024210492 0.085683614 -0.014625591
-0.07111385 -0.03079511 -0.023838256 0.047883652 0.001971606 -0.027116016 -0.056986533 -0.07952012
-0.059210204 -0.0875694 0.006900711 0.008459412 0.07869692 -0.06571253 -0.057055473 -0.07378654
0.0027792677 -0.06816492 -0.0061208233 -0.055224124 -0.039594218 -0.065296724 0.0752879 0.01366683
-0.032911904 0.038941853 -0.07301252 -0.029815964 0.04933072 0.033989456 -0.020930065 0.058346964
-0.08895728 0.041575897 -0.004128267 0.0043869987 -0.01636648 -0.062414527 -0.03559383 0.038840294
0.022097344 -0.06233485 -0.061722036 0.07437929 0.013817683 0.031245338 0.061547622 0.07060525
0.06681335 -0.05689547 0.036284115 0.08365017 0.013206922 -0.0387776 0.02618765 0.043981507
0.037746314 -0.019837566 0.06871359 -0.048207268 -0.06540435 -0.03932792 0.0667957 -0.07326349
0.08436004 -0.031229455 0.06573338 0.011842097 -0.07657459 -0.07788865 -0.016389493 0.017658673
-0.012171122 -0.02301385 0.0014030316 -0.07152576 -0.018085187 0.087859266 0.0073571857 -0.03857903
-0.0390902 0.07407826 0.04198685 0.008111424 -0.039783124 0.04437492 -0.017621996 0.053218447
-0.061882626 -0.06980166 0.014011107 -0.048777293 0.03835658 0.029042833 0.0019212142 0.024697728
-0.08630766 0.039386176 -0.06438655 0.049236216 0.05781407 -0.062622495 0.05882465 0.035362415
0.013063893 -0.02001696 0.05640354 -0.08495749 -0.005510755 0.06408811 -0.053442802 -0.025929648
0.009515241 -0.058558673 -0.05378903 -0.037587065 -0.04437851 -0.014193907 0.010660991 -0.023290873
-0.08086408 0.01808767 0.019317716 -0.062887974 0.07141287 -0.0056463853 0.009348296 0.07850238
0.014561556 0.035079278 0.0636662 0.034881182 0.083916806 0.035912663 -0.083229005 0.018592626
0.06870825 0.026778445 -0.009917438 -0.05330312 -0.075994894 -0.011271924 -0.018891618 0.043749176
-0.008092508 -0.08703976 -0.050847527 -0.035418272 0.06649997 0.028884247 -0.014036693 0.002832383
0.08766056 0.04501123 -0.076504335 0.0037253425 -0.032171153 0.08169759 -0.009202965 0.016322926
-0.0652465 -0.026638106 0.06602918 -0.03921683 0.037217386 -0.07585203 -0.024231963 -0.0007718876
0.02989693 -0.08572182 -0.07012168 -0.032356147 0.051559635 0.060834996 0.011703029 -0.060923144
0.03841015 0.06324007 -0.026908666 0.06874701 0.068591125 -0.08551829 -0.013133146 -0.05329885
-0.041145332 -0.01646059 0.02992265 -0.088335745 -0.058416165 0.029528633 -0.03589494 0.017935552
0.05648505 0.035055205 -0.07386516 -0.0801727 -0.06075052 0.027302682 -0.087295175 -0.027535219
-0.009577759 0.042237572 0.037723847 -0.030276082 0.034392715 -0.0652473 -0.07419755 -0.048339378
0.021132126 0.027571246 -0.078572996 0.065700166 -0.025871925 0.0064694956 -0.023918748 -0.01171276

model.model.6.bias f4 [128]
00000000: 2d9a 98bd 7126 6dbd a06c aa3d bcf3 833d
00000010: bb7b 033d ce55 b63d 6118 e43b 1a3e dd3d
00000020: e286 95bd aeb4 a93d ef15 c73d 99dd 93bd
00000030: 0839 dcbc db3c 07bc 705a c93d 6846 57bd
00000040: 41b2 fc3d 77e3 95bd 5196 bcbc 16f1 95bd
00000050: c32d 8ebc 6cd0 84bd 30bc abbc 9086 99bc
00000060: deba 6abd 969c 5abd bcd4 c4bc 3d25 473d
00000070: 56a5 34bd 8f43 5e3d f55d 503d 2f8a 1e3d
00000080: 1450 9bbc cd17 2abc e9c7 9dbd 022b a63c
00000090: beaa 953c 4d29 0c3d 953b 823d a8ea 403d
000000a0: af07 98bc e4e2 e23c 7aee 2b3d 20a2 98bd
000000b0: 3bd2 af3d 48d4 9d3c 11fb fd3c d97a a43d
000000c0: d7ed 6fbd 9676 28bc 8a97 d7bb 0c5b 263d
000000d0: c361 71bd 66ba 11bc 658a c13d eaff db3d
000000e0: c417 5a3d 96de 023b 31fb 54bd a181 0d3d
000000f0: b85c a63b 0b51 a0bd fc4e 173e f8de 8f3d
00000100: 9650 593d 038a aa3d 5a41 70bd af4f a63d
00000110: 54ff 883c 3182 653c 91f3 31bd 43e3 a2bc
00000120: bd86 523c bb9c bf3c 085a 96bd f93b 8bbd
00000130: 1c4c 023d 3c89 5abd 2dcc eabc 06f7 41bb
00000140: 42cb 573d 6ed9 91bd 2d36 343e b36e b4bd
00000150: 6ee4 c03d 69c3 fa3d 1818 9e3d ac95 57bd
00000160: cb75 f83d f428 ed3d 765f ba3d 4201 a93c
00000170: fcb2 80bc 5f18 8d3d 180f 0dbd a638 d53d
00000180: 22b7 a6bb cab3 a1bd 02c6 4b3d ab61 843d
00000190: 76c7 06bc bd3c 2f3d 069c b73d 1edd a63d
000001a0: e36a 2e3c 39a4 4c3c 82f3 f43d 0040 7cb9
000001b0: 6fe4 803d feaa a63d bf8f 66bd 5a49 853b
000001c0: 4976 59bd 728a a1bd 3824 963d 5474 08bc
000001d0: 6c29 e63d 0185 133d 6ce4 8d3c 5ec4 dbbd
000001e0: 26ed f8bc dec1 083d 6bfd 123e f068 363d
000001f0: c633 86bc 4e01 ba3d 13d1 5a3d a746 8d3d
-0.07451282 -0.05789799 0.083215 0.06442973 0.03210042 0.08903085 0.006960914 0.108028606
-0.073011175 0.08286415 0.097209804 -0.07220001 -0.026882663 -0.008254255 0.09831703 -0.05255738
0.12338687 -0.07318776 -0.023020895 -0.07321374 -0.017355805 -0.06485066 -0.020963758 -0.018740922
-0.057307117 -0.05337199 -0.02402722 0.048619498 -0.04410299 0.054263648 0.050870854 0.038706
-0.018959083 -0.010381651 -0.077041455 0.02028418 0.018269893 0.034219075 0.063590206 0.047098786
-0.018558351 0.02769608 0.041975476 -0.07452798 0.0858502 0.019266263 0.031003507 0.08031244
-0.05857643 -0.010282179 -0.006579344 0.040614173 -0.058931123 -0.0088945385 0.09450225 0.10742171
0.05324532 0.0019969097 -0.051997367 0.034547452 0.005076971 -0.07827958 0.14776224 0.0702495
0.05305537 0.08327105 -0.058656074 0.08120667 0.016723312 0.014008091 -0.043445174 -0.019883757
0.012849507 0.023390165 -0.07341391 -0.06798548 0.031810865 -0.053353533 -0.028661812 -0.00295967
0.052684076 -0.071215495 0.17598791 -0.08810177 0.094185695 0.12244303 0.07719439 -0.052632973
0.12131842 0.11580077 0.09100239 0.020630483 -0.015710346 0.06889414 -0.034438223 0.104111955
-0.005087749 -0.0789562 0.04974938 0.06463941 -0.008226266 0.042782534 0.08965306 0.081476435
0.010645601 0.012490326 0.11960508 -0.00024056435 0.0629357 0.08138083 -0.05628943 0.004067582
-0.05309132 -0.078877345 0.07331127 -0.008328516 0.11238369 0.036015514 0.017320834 -0.107308134
-0.030386519 0.03338801 0.14354484 0.04453367 -0.01638211 0.0908228 0.053422045 0.068982415

model.model.8.weight f4 [7, 128]
00000000: 5334 f9bb 98a2 b4bd 3530 7f3d b1e0 25bd
00000010: 90aa 253d 82fe 0cbc f46a c9bc 4ebd 76bd
00000020: 6085 a6bd da35 983d 2f8d ee3d a82b dcbc
00000030: 35e4 9939 77df 9f3d 1c3c a43d 9a1b aebc
00000040: d62a d73d f817 cf3c ecdc 9dbc edcf 92bd
00000050: 600a e0bb 788e 01bd f230 b03d 9f45 a33d
00000060: 4d0f bebb 5552 fe3d 60a4 1dbd 22e3 733d
00000070: d663 13bd 1791 383d b324 ee3d fe59 693d
00000080: 5bf4 c73d 9012 24bd d28d 603d 6711 003d
00000090: 467b 22bc 6c08 903d a67a ab3d 1555 98bd
000000a0: 6180 86bd 400b 71bd a746 19bd 72af 10bd
000000b0: de79 24bd 137d 8d3c 4055 cebb 469b c4bc
000000c0: a158 91bd b65f 09bd 31c6 37bd 0466 813d
000000d0: 582e ef3c fdf7 1bbd a1c1 e53d 282c cf3d
000000e0: 2824 a43d e6de adbd e81a 2abd 220e b0bd
000000f0: 4b3e 17bc eb22 9abd 381c bb3d bbe9 dc3a
00000100: f7aa 4dbd 4b1d 643d 66b9 1c3d 458e eeb9
00000110: 7398 d83d d7ef 2f3d da4b 793d 6823 76bd
00000120: c89f d43d f009 80bd d089 7abd b69b 083d
00000130: cefc f03d 4b89 bbbc 09dd b0bd b759 a7bc
00000140: 90ff 7bbc 45d3 963d 8781 7c3d d0eb 45bc
00000150: 0eee fd3d a1d0 013e ce81 f13c 7a11 31bd
00000160: 5bdb 533d 3dd5 e43d 3adc d73d 9d15 93bd
00000170: 06ce 663d 9155 8c3d aca9 32bd 6d42 583d
00000180: a55a c03d 8da4 a63d 741e 0c3d 35b2 37bb
00000190: f488 a4bc 27a7 89bd 9815 48bc 9805 b33d
000001a0: e1f9 61bd 1f7b f03c 9ba1 bb3d 0364 8fbb
000001b0: 7e52 f73d 681e 783d 42f6 ad3d cf30 bc3d
000001c0: 4731 11bd 150c 4dbd 4f2c 8abd edc6 dbbc
000001d0: 7833 093d 191f 51bd f8c8 163c 9a51 3c3d
000001e0: 24a9 20bd 368c 0bbd 0ee3 c63d b08c d43d
000001f0: 25b2 9b3d 6f1f c33c 5c9d 7ebc 0a17 523d
00000200: 12f0 073d b83e 3e3c 9fa0 d03b 5f15 c6bc
00000210: 9f0f 123e 5931 8c3d 1027 c2bc 91fc 53bb
00000220: 4e11 9cbd bd5e bc3d c58e e53d 0df6 a0bd
00000230: 2a09 a2bd 8182 513d d02e a2bc 524c 3ebd
00000240: c3e3 a33d 2f6b b33d f172 413b 6f8f 803d
00000250: 7f09 febb f2bc 203d d63a b53d 283b 983c
00000260: 8d32 2ebd bce8 f73d fd7f 92bd d95c 593d
00000270: 68a9 c2bc 0e58 fc3d e13b 7b3d ff84 fd3d
00000280: 2726 503d 8bb9 3e3c 2497 bbbc b13d a73d
00000290: 2333 05bc e976 cd3c 8649 d83d 2e90 f63d
000002a0: a77b 2fbc 12d1 33bd acc1 f4bc bce3 d33c
000002b0: 9103 fdbc ede3 ab3c 4a54 77bd 7425 4f3c
000002c0: e25c 983c d6f1 363d cdc3 1ebd 86bb 663d
000002d0: cbf2 b03d 81bb 50bd 89ea c73c 6016 b03d
000002e0: 014c b53d 32dd adbd 04b0 92bc 4033 cf3a
000002f0: 412e a03d f628 493d 5df0 f73c 3ebf 91bd
00000300: c3e4 9abd 43c1 bd3d a7a0 873d 479d fabc
00000310: 64f2 2b3d 030d e5bb b990 b73b 969b 253d
00000320: 1544 82bb f605 3d3d a0e4 7cbb f5bb a13d
00000330: 2f0b 463d 28e2 11bc 794e 81bc c69b 7fbd
00000340: f82a 283c 02ab fb3c 1b13 143e 216a 42bd
00000350: e779 953d 7e3f b83d f1cd 82bc cd47 b03d
00000360: 5206 a63d ea30 b23d 7678 7a3d a7e1 85bd
00000370: a66a 2e3d 4612 993b 8a7b 873c e4ba f73d
00000380: 1a9b c33d f0d0 a9bb 6948 0b3d f351 ba3b
00000390: bb23 f43b 3142 213d f7e1 59bd 737f e43c
000003a0: 2894 b2bc af16 be3d 8325 8d3d 14f0 ce3d
000003b0: 6ca6 953c 9e3e a93d af97 653d f9bb 103e
000003c0: 3868 14bc f7c6 99bd 84e0 8cbd 37cd 8f3d
000003d0: d96b e73d 8573 e4bc 26cc 233d 8013 a6bc
000003e0: 2837 d2bc 094c f6bc 842e d83d c936 b43c
000003f0: a802 403d 5ca4 263d 1ad3 973d 8598 b03c
-0.0076051145 -0.08820075 0.062301833 -0.040497486 0.040445864 -0.008605601 -0.024587132 -0.06023913
-0.08130908 0.07432146 0.116480224 -0.026876286 0.00029352462 0.078062944 0.080192775 -0.021253396
0.10506217 0.025279984 -0.019270383 -0.07168565 -0.0068371743 -0.03163001 0.086030856 0.079722635
-0.005800164 0.12418047 -0.03848684 0.059542783 -0.035983883 0.045060243 0.116280936 0.05697059
0.09763404 -0.040056765 0.05482275 0.031266596 -0.009917086 0.07032856 0.08373003 -0.07438103
-0.06567455 -0.05884862 -0.037420895 -0.035323568 -0.040155284 0.017271554 -0.0062967837 -0.023999821
-0.07096983 -0.033538543 -0.044866744 0.06318286 0.029196903 -0.038078297 0.112185724 0.10115844
0.08014709 -0.0848978 -0.041529566 -0.085964456 -0.00923116 -0.07526191 0.09136242 0.0016854325
-0.050211873 0.055692 0.038262747 -0.00045500897 0.105759524 0.04295334 0.060863353 -0.06009236
0.10382038 -0.062518954 -0.061166584 0.033351623 0.11766969 -0.022892615 -0.08635909 -0.020428522
-0.015380755 0.07364515 0.061646964 -0.012080148 0.12398921 0.12677242 0.029480841 -0.043229558
0.051722866 0.111734845 0.10540052 -0.07181857 0.056348823 0.06852258 -0.043618843 0.052797724
0.09392289 0.08136854 0.03420873 -0.0028029804 -0.020084836 -0.06721335 -0.01221218 0.08741301
-0.055169944 0.029355584 0.09161683 -0.004375936 0.12076281 0.060575873 0.084942356 0.09188997
-0.035447385 -0.05006035 -0.067467324 -0.026828254 0.03349635 -0.051055048 0.009203188 0.04597626
-0.039223805 -0.034069262 0.09711276 0.103783965 0.07602338 0.0238187 -0.015540447 0.051291503
0.033187933 0.011611633 0.006366804 -0.024180112 0.14263771 0.0684535 -0.023700267 -0.0032346586
-0.07620488 0.091977574 0.11208872 -0.078594305 -0.07911904 0.05114985 -0.019797713 -0.046459503
0.080024265 0.08760678 0.0029517973 0.06277358 -0.007752597 0.039242692 0.08849113 0.018582895
-0.042528678 0.121049374 -0.07153318 0.053067062 -0.02376242 0.123214826 0.0613364 0.123788826
0.050817635 0.011640917 -0.022899218 0.081660636 -0.008129868 0.025081115 0.105608985 0.12039219
-0.010710633 -0.043900557 -0.029877506 0.025865428 -0.03088549 0.020982707 -0.06038312 0.012643207
0.018598977 0.044664226 -0.03876095 0.05633118 0.08640059 -0.050960068 0.024403827 0.08598018
0.08852387 -0.08489455 -0.017906196 0.001580812 0.07821322 0.04911133 0.030265981 -0.07116555
-0.07563164 0.09265377 0.06622439 -0.030592574 0.04197921 -0.0069900765 0.005601969 0.04043158
-0.003975401 0.046148263 -0.003858842 0.07897178 0.04835051 -0.0089040175 -0.015784489 -0.062404417
0.010264151 0.030721191 0.14460413 -0.047464494 0.07298642 0.08996485 -0.015967341 0.08607445
0.08106674 0.08700736 0.061150037 -0.065371804 0.042582177 0.004671368 0.0165384 0.120961934
0.09551068 -0.005182378 0.034004603 0.0056860386 0.0074505485 0.039369766 -0.053194012 0.027892804
-0.021799162 0.0928167 0.068919204 0.10104385 0.018267833 0.082638964 0.05605286 0.14134206
-0.009058051 -0.07508653 -0.068787605 0.070215635 0.11299867 -0.027887115 0.039989613 -0.02027297
-0.025661066 -0.030065553 0.10555747 0.02199878 0.046877533 0.04068409 0.07413311 0.021557102

model.model.8.bias f4 [7]
00000000: e5af c23d 3354 393d 0697 513d c6f4 8e3d
00000010: 52aa bb3b 58ed e33c 3975 1b3d
0.095062055 0.045246314 0.051169418 0.069802806 0.005727091 0.027823135 0.03795359

model_old.model.0.weight f4 [32, 1, 4, 4]
00000000: 6a05 1bbe ed71 ccbd d0c8 6e3e 43e1 423c
00000010: 20de 743d f624 623e 0df1 0d3d c502 34be
00000020: b78c 213e b857 293d 619d 7c3e ec43 3c3d
00000030: e713 dc3d 4029 233d ffab f73d a66b 1e3e
00000040: cac2 7a3d 65fc 503d fc1b fcbd f8ba 8bbd
00000050: 34dd a03d 4c7f f23d a895 563e 6b6a 54be
00000060: 046c 77be 0b4a 5b3e 3c14 63be 9c0f a4be
00000070: 5c64 47bb 011d 66bd 18ab 713e a53d 77be
00000080: 6ba5 ed3d 8672 9abd b6be 4ebe f0d4 5b3d
00000090: b791 3bbe 1169 0a3e e61e bcbc d41e 95be
000000a0: f1b3 81bd 6dab 9bbc 06da 763e 8352 d73d
000000b0: 05cc a7bc 0884 7e3e 2bf1 bf3d 8832 173e
000000c0: 756b 663d 04f7 5fbe 5a79 09be 3a0e ffbd
000000d0: 6ccc 08be 3078 5f3e 77d8 8bbd 532e b43d
000000e0: a6a9 573e 359b 26be e662 463e 2b94 0a3e
000000f0: 80c4 42be 8c78 2a3e a573 d6bd 410c 833e
00000100: 36eb 0bbd c310 a4bd 0975 8e3e d1f2 14be
00000110: 2de3 893e d54f ab3d c215 af3d b5af d739
00000120: 1351 683e d6a2 a83d e192 b6bd c227 98be
00000130: 198a 28be 647f 14bd 4507 e2bd e99b 18be
00000140: 6cdc 633d 30a6 493e a33d 78be ef32 58be
00000150: c6a8 32bc 04c5 ed3d e221 0fbc e5ef 6fbe
00000160: 46d9 913e d392 4a3e 277a f5bc 480a 923d
00000170: 5860 973d 7aff 36be b7a1 3f3e 21a5 323e
00000180: 33cd 0bbe 02b8 803d 9525 6ebe a8c3 1c3e
00000190: 0587 51bd 1645 e83d 4cfb 4fbc cae1 d93d
000001a0: b6e6 053e 95e6 273e 529f 443e d8bb 32bd
000001b0: 598e a3bd bedc e7b9 cfe3 6a3e 0ad7 f3bd
000001c0: 921c 4a3e acf0 6abe 9073 763e 7ca8 33be
000001d0: 7086 243e 4aa2 53be 2bd3 5abd 63a2 253e
000001e0: ff81 923e 3b3a 8e3d a7cd 233c 7467 803e
000001f0: c684 5e3e b891 abbd 3827 cebd b2e2 24be
00000200: 4070 30be dac6 e53d 2baa 8ebd 226a 0d3e
00000210: 9819 85be b212 613e f57a 7e3e ad0b 74be
00000220: 608d 60be 19a4 1c3d 5152 353e b6ea c7bd
00000230: b478 443e 2871 d33d 15f7 5c3e 3aa1 96bd
00000240: aeed 4dbd 56f8 1c3e 7ccc 6d3e 2636 85bc
00000250: bb65 87be 6809 c8bb e50b d5bd 155b 8cbc
00000260: 0a53 983d d874 e0bd d049 573e 6817 2cbe
00000270: a600 743e ec77 a6bd 0829 6d3d 2bd5 84bd
00000280: 889a ab3d 234d 073e 2b7d 7ebe 6e3f e53d
00000290: b9c6 803e e8db 54be 7f0a 8dbe 9b63 05be
000002a0: 31d9 483e 1da0 b53d 58e8 85be 3bc3 afbd
000002b0: f27f 173d c629 0cbd bf88 f13d a3c4 653e
000002c0: 2703 b2bd 4676 603c 40f5 353e 7beb 7ebd
000002d0: d71d b3bd bbc1 363e 3dcd 5f3e 40ba c3bd
000002e0: cfd5 af3d 4466 603e 4465 1a3e 7888 de3c
000002f0: 9ccf c13c 2ed0 74be bfe8 47be bfbf d93d
00000300: 249a e83d 1ce6 05be 4232 23bd 89b3 71bc
00000310: ef7e 65bd 41a5 39be 11a2 63be f626 9cbc
00000320: 97a6 a9bd 8753 44be 72c0 583e a1ec 0dbe
00000330: 7492 37be 0197 403d b1dc 0fbe 331b e0bc
00000340: cce6 84bd 33d7 1b3c d4cc 95be e691 1fbe
00000350: b702 0f3e 5045 673e 0e48 28be 7216 103e
00000360: 6334 b5bd 9f34 7fbe dfa2 793e 73a0 1abe
00000370: 9f99 503e 4f29 d63c ccb7 45be 4187 9c3d
00000380: 2979 103e 0e77 003e f6b2 bc3d c625 5c3a
00000390: 0d2a 653d adbf e73d 6519 6b3d 3ee5 80be
000003a0: d6ae 62be b716 063e dbe7 1cbe 2da8 1bbe
000003b0: 9fcd 9b3e ccf6 d93c f8da 6f3e 250c 39be
000003c0: c39f 2c3c 5f5e ed3d 91d2 a6bb 0c42 3bbd
000003d0: aa7c 5e3d ae6c 8cbc bb16 84be 4ae8 0f3e
000003e0: 9440 4cbe 3488 c93d bccb d33c 46c5 01be
000003f0: 44ce 3abe e2de 403e 17c9 93bd 0041 603e
-0.15138784 -0.09982667 0.23318791 0.011894527 0.059782147 0.22084412 0.034653712 -0.17579181
0.15776335 0.04134342 0.2466941 0.045963213 0.107459836 0.03983426 0.120933525 0.15470752
0.06122092 0.051021952 -0.12310025 -0.06822771 0.07854691 0.11840686 0.20955527 -0.2074372
-0.24162298 0.21414964 -0.22175688 -0.3204316 -0.003042481 -0.056180004 0.23600423 -0.2414461
0.116038166 -0.07541375 -0.20189938 0.05366987 -0.18317305 0.13516642 -0.022963952 -0.29125082
-0.06333149 -0.01900264 0.24106607 0.10513785 -0.020483026 0.24855053 0.09372171 0.1476537
0.056254823 -0.21871573 -0.13425198 -0.124538854 -0.13359231 0.21823192 -0.06828397 0.08797898
0.2106081 -0.16270144 0.19373664 0.13533084 -0.19020271 0.16647547 -0.10471276 0.25595286
-0.03415986 -0.080110095 0.27823666 -0.14545752 0.26931134 0.08364836 0.08549072 0.00041138908
0.22687177 0.082341835 -0.08914734 -0.29717833 -0.1645893 -0.0362543 -0.11036543 -0.14903225
0.055630133 0.19692302 -0.24242263 -0.2111318 -0.010904497 0.116098434 -0.008736106 -0.23431356
0.2848608 0.19782571 -0.029965473 0.07130867 0.07391423 -0.17870894 0.18714033 0.17445804
-0.13652496 0.06285097 -0.23256524 0.15309012 -0.051154155 0.11341302 -0.012694191 0.10638769
0.1307629 0.16396554 0.19201401 -0.043636173 -0.07986135 -0.0004422422 0.22938465 -0.1190625
0.19737461 -0.22943372 0.24067521 -0.1754474 0.16066909 -0.20667377 -0.05342404 0.16175227
0.28614804 0.069447 0.009997762 0.25078928 0.21730337 -0.08377403 -0.10066074 -0.16102102
-0.1723032 0.112195686 -0.06966051 0.13810018 -0.2599609 0.21979788 0.24851592 -0.23832579
-0.2192893 0.038242433 0.17707182 -0.097615644 0.1918667 0.10324317 0.2157863 -0.0735497
-0.050275497 0.15329108 0.23222536 -0.016261172 -0.26444802 -0.006104637 -0.10402659 -0.017133275
0.074377134 -0.10959786 0.21024251 -0.16805804 0.23828372 -0.08128342 0.05790046 -0.06485971
0.08379084 0.13213019 -0.24852435 0.11193739 0.25151613 -0.20787013 -0.2754707 -0.13026278
0.19614102 0.0886843 -0.26153827 -0.08582159 0.036987253 -0.034219526 0.1179366 0.22438292
-0.086920075 0.013700074 0.17769337 -0.06223629 -0.08745926 0.1784734 0.21855636 -0.09557009
0.08585703 0.21914011 0.15077692 0.027164683 0.023658566 -0.23907539 -0.1952238 0.10632276
0.11357525 -0.13076061 -0.03984285 -0.014752277 -0.056029256 -0.18129446 -0.22229792 -0.019061547
-0.082837276 -0.19172488 0.21167162 -0.13859798 -0.17926961 0.04701901 -0.14049031 -0.02735672
-0.064893335 0.009511757 -0.29257834 -0.15583 0.1396588 0.22585034 -0.16433737 0.14071062
-0.088478826 -0.24922417 0.24378537 -0.15100269 0.20371102 0.026142744 -0.19308394 0.07642985
0.14108719 0.12545416 0.092138216 0.00083979627 0.055948306 0.11315856 0.057397265 -0.25174898
-0.22137007 0.13094603 -0.15322821 -0.15200873 0.30430314 0.02660694 0.23423374 -0.18071039
0.010536137 0.115902655 -0.0050910194 -0.045717284 0.054318108 -0.017141666 -0.25798592 0.14053455
-0.1994651 0.09840432 0.025853984 -0.1267291 -0.18242747 0.18835023 -0.07216089 0.21899796

model_old.model.0.bias f4 [32]
00000000: def0 1c3d 0fcf 06be 33f4 27be 13fa 71bd
00000010: add2 18be 72e8 46be accd 043d 89dd eb3d
00000020: 0d45 b23d 4262 3a3e 3b7c cc3c 18fe 47be
00000030: b46f d53d 88bc c73d 650b 323e 9fe8 633e
00000040: 3960 823e dc16 e83d 63a6 56bd 477f 903b
00000050: 9433 873e a8cb 663e c038 253e 1e3b b33e
00000060: b8f8 383e 362f d23d b77b dc3d 1e1e 9a3e
00000070: 0459 4b3e abd6 2ebe 2bee 593e ce46 2dbe
0.038315646 -0.13164924 -0.16401748 -0.05907638 -0.14924116 -0.19424608 0.032422706 0.11516864
0.08704577 0.18201545 0.024961581 -0.19530523 0.10421696 0.09752756 0.17387159 0.22256707
0.25464037 0.11332485 -0.052404772 0.004409704 0.26406538 0.22538626 0.1613493 0.3500604
0.18063629 0.10262911 0.10765784 0.30101103 0.19858176 -0.17074077 0.2128226 -0.16921541

model_old.model.4.weight f4 [128, 384]
00000000: b6cb fdbb 2d7c f2bc 1835 273c 12b1 8e3d
00000010: c4db 7a3d 9c81 8c3d e0c6 1e3d e042 2f3d
00000020: ca12 323d e70e 103d 2160 b2bc 4ffd a8bc
00000030: 5a1c 663d 129b 053e 9bcd 173d 9473 b33d
00000040: 1028 c53c ba03 a23c 3ed2 a23c 1d2e a03b
00000050: 1681 dd3d 584b 4dbc 45b2 0ebb 7324 eb3d
00000060: db5c df3d 930b db3d da51 633d 3e66 803d
00000070: cde8 773d fddc 823d fc42 203d 5851 753d
00000080: 883c 453d 6ced 4a3d 5c30 14bd d1cd 5cbc
00000090: e0b4 cc3c 3fe1 253d 79ec 133d 2c64 f93a
000000a0: 49f0 123d 4782 103d 616a c63d 7283 b33d
000000b0: 764e c93d fd40 06bd 9e80 973d 397f ba3b
000000c0: 7a71 12bd b1a0 babd f2b4 93bb 09a5 0c3d
000000d0: 4019 333d 1cc0 183c bfd7 d8bc 1471 b43c
000000e0: 028e 073d 4fc5 f53c df97 8f3d 0c66 933d
000000f0: 4a28 89bd fc47 b83c ae17 06bd cea3 47bd
00000100: aa33 98bc eb49 003e 43ec 873d 0b3e 5b3d
00000110: e556 af3d bfb8 d43d 8bca 503d 3353 443d
00000120: 6c2f 93bd 5fd9 a43c d4ea 52bd abed 4e3d
00000130: 84a8 143d f68b 36bc 29c6 d5bb c044 513c
00000140: cff8 a23d c607 d93c 9698 993d e166 933d
00000150: b5b3 0bbc 9282 133c 7768 c33c c97f dabc
00000160: 363d 10bd 2cc2 4c3c 813b 9b3d b76c c9bb
00000170: f339 a83c da62 a43d 704d e53d ed5b 763d
00000180: cf0b d23c a6a2 813d e038 933d 5adc 9a3d
00000190: 7176 c23a 06f0 5d3c abfa c63d 25de bf3c
000001a0: 3a55 2f3d 5b7f 403d 3cbf 9ebc 908c 823d
000001b0: 3429 403d 5d50 43bb 9289 c33c 7e1d 593d
000001c0: bb31 6b3d 3f78 953d 85b6 86bc 7310 6a3d
000001d0: d13c ef3c af3e c5bc dc05 41bb c946 00bd
000001e0: 2d74 c5bc 85d5 1d3d 42fe 4ebc c019 febb
000001f0: 820d 2eba d5d8 c23d 9a8d 8f3d e53b 1a3d
00000200: 805e d93d f08b fa3c 9134 99bc 9626 713d
00000210: 1fe6 eabc 9a78 01bd e0b3 9ebc 5960 093d
00000220: f2a1 9e3c 9797 f93c 34a8 a2bc 8ee5 1ebd
00000230: 426f bf3b bd2d 3bbd 7824 a83b 9d3b 0e3d
00000240: cdb6 0d3e b5c7 1f3c 8196 643e bfed f23d
00000250: 4d9d 1e3e 5320 afbc ca77 1a3e e094 0e3e
00000260: 81cd ddbb 31ce 58bb 2788 163e f6db 3e3d
00000270: b742 1a3d 20bf 293e 7337 aa3d c7d0 9f3d
00000280: 1ae1 ab3b 71da 243e 3c63 993c 6fad e53c
00000290: 3e7a 123e 0750 4a3e 7748 273e 8aed 2d3e
000002a0: ac7f 0c3d a33a 133d caf0 063b 036f bf3d
000002b0: e243 c13c 57b2 4a3d c9cb 1e3d 6c9d 8d3d
000002c0: 9ce3 8e3d 7bce 3c3d 1687 743d 1ed9 82bb
000002d0: bc2a fe3d f85f ac3d 7474 4f3c ae5a ac3d
000002e0: 65c7 663d b88b d93c e7b7 fb3d 29ba f63c
000002f0: 5f71 b93d 677c 593d 4573 563d 3c46 8c3d
00000300: e6f5 e23d 8abe 533d bb7b d23d 3d54 f03c
00000310: 9362 163d 35ef 9cbd 3cf7 c73d e702 b03d
00000320: 7218 993c 67e0 1dbd e80f 0c3e 7feb b53d
00000330: 2143 823d 8396 893c fd4b cb3c 3825 743d
00000340: 6f24 f13c 4ce7 803d 5b60 02bd 80c5 c23c
00000350: 7df2 fa3c b5d8 423d 8073 c63d e957 e83d
00000360: f92b b53d 6ab2 c63d 3c33 da3d a995 f53d
00000370: 8ade 153e 3ebb be3d 8569 153d 5f75 b0bb
00000380: 4925 8e3d c1c6 7a3d df90 183e 4624 cb3d
00000390: b6c7 793b cac0 f93c be09 213e 2aa5 d73d
000003a0: 7152 013d b9cd 8fbc e49b d13c f40e c13d
000003b0: a451 91bb f9e4 b33d ebed efbc 25da 493c
000003c0: 275b 64ba 36f3 d93c 93ec c93c 8107 623d
000003d0: 9575 523d 97e8 843d b80e d1b9 6da9 29bc
000003e0: 70c0 683c 1a76 03bc 3cb4 413d d8c2 50bc
000003f0: 3a92 b83d 4155 ab3d efca b9bb bc3b 523d
-0.0077452315 -0.029600227 0.01020553 0.06967367 0.06124474 0.068606585 0.03876388 0.042788386
0.04347495 0.035170462 -0.021774353 -0.0206286 0.056179382 0.13047436 0.037061315 0.08762279
0.024066955 0.019777168 0.019875642 0.0048883096 0.10815637 -0.01253017 -0.0021773737 0.114815615
0.10906383 0.10695567 0.05549798 0.06269501 0.06052475 0.063898064 0.03912638 0.05989203
0.04815343 0.04954283 -0.03617893 -0.013476805 0.024988592 0.040498015 0.03611419 0.0019027046
0.035873685 0.035280492 0.09688259 0.087653056 0.09829418 -0.03277682 0.07397579 0.0056914357
-0.03575275 -0.09112681 -0.0045076543 0.034337077 0.043725252 0.009323146 -0.026470063 0.022026576
0.033094414 0.03000131 0.07011389 0.07197198 -0.06697138 0.022495262 -0.032737426 -0.0487402
-0.018579323 0.12528197 0.0663686 0.053525966 0.08561496 0.103868 0.05097441 0.047930907
-0.071867794 0.020123182 -0.05149348 0.050519627 0.03629352 -0.011141768 -0.0065238667 0.012772739
0.07957613 0.026492964 0.074998066 0.07197357 -0.008526732 0.009003298 0.023853524 -0.02667226
-0.035214625 0.012497466 0.07579709 -0.006146993 0.020535445 0.08026667 0.11196411 0.06014626
0.025640396 0.06329851 0.071885824 0.0756156 0.0014836324 0.013545996 0.0971578 0.023421356
0.042805888 0.046996456 -0.019378297 0.063744664 0.046914294 -0.002980254 0.02386931 0.05300664
0.057420474 0.07298326 -0.016444454 0.057144593 0.029203804 -0.024077741 -0.0029452955 -0.031317506
-0.024103248 0.038533706 -0.012633862 -0.0077545345 -0.0006639586 0.09514014 0.0700943 0.037654776
0.106137276 0.030584306 -0.018701823 0.05887469 -0.028674183 -0.031609155 -0.01937288 0.03353915
0.01936433 0.030467791 -0.019855596 -0.03879314 0.0058421204 -0.045697916 0.0051313005 0.03472482
0.13839264 0.009752204 0.22323038 0.11861753 0.15489693 -0.021377718 0.15084758 0.13923979
-0.0067688827 -0.0033081884 0.14700375 0.04659649 0.03766128 0.16576815 0.08311357 0.07803493
0.00524534 0.16098954 0.018724076 0.028036801 0.14304444 0.1975709 0.16336237 0.16985145
0.034301445 0.035944592 0.0020590299 0.09347346 0.02359194 0.049486484 0.038768563 0.069147915
0.06977007 0.046095353 0.05969914 -0.0039931675 0.12410495 0.08416742 0.012662042 0.08415733
0.0563425 0.02655588 0.12290936 0.030118065 0.09054827 0.053097155 0.052356023 0.06849334
0.11082058 0.051695384 0.10277506 0.029337043 0.0367151 -0.076628126 0.09763953 0.085943036
0.018688414 -0.038544085 0.13677943 0.08882808 0.0636046 0.016795402 0.024816507 0.059605807
0.029436318 0.062941164 -0.031830173 0.023775816 0.030633206 0.04756995 0.096899986 0.113448925
0.08846278 0.097019985 0.106543034 0.11991436 0.14635673 0.09313057 0.036477584 -0.0053850855
0.06940705 0.061224703 0.14899014 0.09919028 0.0038113422 0.030487437 0.15726373 0.105295494
0.031572763 -0.01755415 0.02558703 0.0942668 -0.004434781 0.087839074 -0.029288253 0.012320076
-0.00087110925 0.02660523 0.02464894 0.055182938 0.051381666 0.064896755 -0.00039874553 -0.010355336
0.014206037 -0.008023763 0.047291026 -0.012741767 0.090122655 0.0836587 -0.0056699435 0.0513265

model_old.model.4.bias f4 [128]
00000000: 8291 943d e37c 743c fc39 ab3c 44e1 983d
00000010: 0c88 093d b878 19bc efa2 a03d 65e2 05bc
00000020: fcc3 243a e179 603c b012 373c 8008 ae3d
00000030: bd79 963d b6c8 6ebd 886c 5f3c cda2 27bd
00000040: eec7 863b 767a 42bd 031b 7b3d 11d8 a43d
00000050: 3438 913c b979 883d dca0 d53c add2 c43d
00000060: a4e9 0e3d 99d2 ecbb e33f 20bd edd9 fc3c
00000070: 5542 463d 4d23 9b3c b4ce c03c 9e93 40bd
00000080: 7138 8e3d 00bc b13d 388c 7b3d 4fc0 54bb
00000090: 9401 a7bc a3ca adbc 8409 723d e7bb bb3d
000000a0: 6464 1fbd e174 203d f983 3a39 a22d 1a3d
000000b0: 2b4f 23bc e961 353c 4f33 55bd 1f56 1cbc
000000c0: 5498 1f3d d75a 9ebb 2423 3f3d 4a60 e73c
000000d0: d1d4 833c 2a77 063d a03d 78bc bd13 db3c
000000e0: 1e9c f6bc e629 d5bb 9207 cd3d 1f2d 583d
000000f0: 723c 753c 28d1 223d 076b 963d ae50 39bc
00000100: f933 513d e2f6 163d 1095 7f3c 7b4b e73c
00000110: c4a2 053d 849a 303d c1fd b43d aef5 7d3d
00000120: aa2b 903d bd45 873d 5bbb 253d 0f0d 503d
00000130: 2a15 e83b 05fd a43d 98ba ab3d 7799 013d
00000140: fb4f b43d 61fb da3c a2ca 05bc 0e24 043a
00000150: ddb1 56bd 77dc 633d 8653 c5bc b2cb 563d
00000160: dbab 343d b22d 60bc 6d6a 743d 3ad1 173c
00000170: 4f3f 9a3d bd80 6d3c f7f7 2f3d e12f 393d
00000180: ed68 bc3d fd73 003d 1ca4 843d 299d 193d
00000190: cfd5 853d d8ff fb3c da8a 61bc 63de b33d
000001a0: 9f09 10bd 1bc3 04bb 80d8 b73d fc99 8a3d
000001b0: 5d6d 3dbd 9c1f 3abd 2dc5 b43d b292 11bd
000001c0: 25be 893c da61 e33c 6a17 dc3c 5abf 9a3d
000001d0: 4aca b03d bb1f 79bd 5adc 6c3d a6f3 9a3c
000001e0: 3e41 fb3b d7b4 9b3d d3c8 3abb 6806 763c
000001f0: 22c9 22bb b526 4ebd 2046 bb3b 3ee6 113d
0.07254316 0.014922353 0.020901673 0.07464841 0.03357701 -0.0093671605 0.07843577 -0.008171652
0.00062853075 0.013700933 0.011173889 0.08497715 0.073474385 -0.05829688 0.013636716 -0.040926743
0.004113189 -0.04748007 0.061305057 0.08049024 0.017726995 0.06663842 0.02607768 0.09610496
0.034890786 -0.0072272536 -0.039123427 0.030865634 0.048403103 0.018937731 0.023536064 -0.04701578
0.06944359 0.08678436 0.06141302 -0.0032463258 -0.020386495 -0.021214789 0.059091106 0.09166699
-0.0389141 0.039173964 0.00017787506 0.037641175 -0.009967606 0.011070707 -0.052050885 -0.009542017
0.03896363 -0.0048326063 0.046664372 0.028244156 0.01609269 0.032828487 -0.015151411 0.02674281
-0.03010374 -0.006505239 0.100112095 0.052777406 0.014968025 0.03975025 0.073446326 -0.011310739
0.051074956 0.03685654 0.015599504 0.028234234 0.03262593 0.043116108 0.08837462 0.062001877
0.07039578 0.066050984 0.04046188 0.050793704 0.007082601 0.08056072 0.08385199 0.031640496
0.088043176 0.026731195 -0.008165987 0.0005040773 -0.052415717 0.055630174 -0.024087679 0.052440353
0.044109207 -0.01368277 0.059671808 0.009266192 0.075316064 0.014496026 0.042961087 0.045211677
0.091997005 0.031360615 0.06476614 0.037503395 0.065349214 0.030761644 -0.013766015 0.08782651
-0.035165425 -0.0020257893 0.08976841 0.067676514 -0.046246875 -0.0454403 0.08826671 -0.03554029
0.0168143 0.02775662 0.026866633 0.07556029 0.086323336 -0.060821276 0.05782733 0.018915009
0.0076676896 0.07602852 -0.0028501048 0.015016176 -0.0024839123 -0.050329883 0.0057151467 0.035619967
