project/paper_notebooks/saved_variables/paper_notebooks/8/7-20epoch_500loop/looping-iteration-75/best_policy_agent2.pth (torch, 320501 bytes, 16 tensors)

model.model.0.weight f4 [128, 42]
-0.2130861 -0.2871792 -0.08416123 0.15448807 0.2057534 0.13905603 -0.27232617 0.13341303
0.02289079 -0.07129817 0.016960472 -0.049975254 0.24239337 -0.07968955 -0.14678861 -0.06618729
-0.24297962 -0.33055994 -0.06773627 -0.18382458 0.17131342 -0.04242935 -0.019353835 0.09329766
0.27448905 -0.016558386 -0.3085618 -0.041262835 0.040824946 -0.32071283 0.023651686 0.27532905
0.00016472093 -0.12426832 -0.23091026 0.14923929 -0.16855828 -0.17013325 0.3878571 0.11797856
-0.03908961 -0.25731903 -0.061824635 -0.2982295 0.011483606 -0.20327441 -0.11022873 -0.20962463
0.005010542 -0.255553 0.13468508 -0.29481468 0.07592289 0.076387316 0.16828102 0.03021133
-0.17427924 0.123953804 -0.08070673 -0.23818603 0.13076237 0.2251803 -0.43750548 -0.040813647
-0.2164863 -0.07600497 0.0683496 0.16166967 -0.3361379 -0.18394516 -0.097788796 -0.085251324
-0.13450742 -0.014850495 0.14765193 -0.1754394 -0.14469214 -0.07147576 -0.052161474 0.032526515
-0.015816748 0.12792 -0.15635607 -0.07044623 -0.18858336 0.02492063 -0.35513958 0.13313612
0.074324556 -0.024255129 -0.09912559 -0.09122888 0.00656315 -0.19616936 0.2578223 0.07732111
-0.1262061 -0.11271185 0.02818137 -0.22005735 -0.0071366485 0.06452755 0.1357629 -0.078008935
0.2476402 0.024104573 0.3231744 -0.18145223 0.51712877 -0.11906967 -0.10598481 -0.61113244
-0.20482123 0.41053742 -0.20457967 0.38990375 -0.1271621 0.08363807 -0.410909 -0.21409465
-0.063197955 -0.16848846 0.22216813 0.08054856 -0.14942974 -0.10552959 0.12431886 -0.30631936
-0.06109372 0.039563496 0.09470688 -0.10303352 0.12514684 0.05977808 -0.11111349 -0.1794317
0.12742189 0.08635619 0.32607728 -0.053092413 -0.027163243 -0.20699872 -0.27176994 -0.22991161
0.026480172 -0.052406814 -0.2584021 -0.31547266 -0.04484868 -0.07643979 -0.19301154 -0.032617006
0.230658 -0.12121888 -0.33318427 -0.20197248 0.07644536 0.04118455 -0.13451304 0.18666385
-0.21636908 0.019097773 -0.11490458 0.12067457 -0.37975606 -0.06571824 0.32452154 -0.35889482
0.050685067 -0.097868286 -0.08000927 0.061604325 0.085510336 0.11090676 0.3227054 0.037052512
0.08396626 0.198068 0.29135424 0.16454156 0.06396946 0.08740804 0.2716526 0.10010294
0.5400482 0.63288933 0.32142705 0.40104508 -0.25929904 -0.003160517 -0.09212694 -0.08229466
0.14957117 -0.035052914 0.06950512 0.7070131 0.14589502 -0.02975674 0.049990032 -0.17359099
0.02001757 0.0622611 0.59509486 0.37332067 0.12441644 -0.16171108 -0.127698 0.022409549
0.10334163 0.29516125 -0.09219394 0.057068862 -0.17616458 -0.19104953 0.03303634 -0.14644147
-0.18375629 -0.019899935 0.006488056 -0.10471113 -0.23442966 -0.06628166 -0.1575586 -0.12731351
-0.20992911 -0.106921084 0.00056270673 0.097805955 0.076904915 0.009777039 -0.14743248 0.057260305
-0.029901898 0.013236688 0.0735478 0.040399984 -0.019408986 0.05029715 0.07745809 -0.0007946171
0.12078331 0.032184977 0.013696099 0.0628669 -0.16015755 0.06081304 -0.07118871 -0.032957256
0.05215509 -0.14676996 0.096974954 -0.12622994 0.04817605 -0.15831529 0.028579248 -0.0046951775
00000000: 3e33 5abe 2709 93be b95c acbd 1f32 1e3e
00000010: 05b1 523e b464 0e3e 566e 8bbe 6d9d 083e
00000020: 7785 bb3c c604 92bd b0f0 8a3c dab2 4cbd
00000030: f835 783e 4634 a3bd c14f 16be 348d 87bd
00000040: a6cf 78be 273f a9be 50b9 8abd 833c 3cbe
00000050: c96c 2f3e 66ca 2dbd ef8b 9ebc d812 bf3d
00000060: d489 8c3e 74a5 87bc d0fb 9dbe 3803 29bd
00000070: 0f38 273d 7934 a4be 2ec1 c13c eef7 8c3e
00000080: f0b8 2c39 6480 febd bd73 6cbe 2fd2 183e
00000090: 8b9a 2cbe 6937 2ebe 3595 c63e be9e f13d
000000a0: 6d1c 20bd 52bf 83be d43b 7dbd 89b1 98be
000000b0: bc25 3c3c 2b27 50be 9abf e1bd d7a7 56be
000000c0: 792f a43b d8d7 82be e3ea 093e f3f1 96be
000000d0: 767d 9b3d f470 9c3d dc51 2c3e c07d f73c
000000e0: 4276 32be 7edb fd3d 9249 a5bd 0ae7 73be
000000f0: 92e6 053e aa95 663e b800 e0be 362c 27bd
00000100: 96ae 5dbe 7ea8 9bbd e0fa 8b3d bc8c 253e
00000110: 441a acbe 1f5c 3cbe 7e45 c8bd 3f98 aebd
00000120: 50bc 09be 7e4f 73bc 1132 173e 63a6 33be
00000130: 2d2a 14be e261 92bd 45a7 55bd 863a 053d
00000140: 2092 81bc 76fd 023e ce1b 20be 1d46 90bd
00000150: ff1b 41be 5926 cc3c dbd4 b5be d654 083e
00000160: 7937 983d b1b2 c6bc 5b02 cbbd 35d6 babd
00000170: b10f d73b 9fe0 48be 4901 843e 885a 9e3d
00000180: 2c3c 01be 78d5 e6bd 9edc e63c b756 61be
00000190: 8cda e9bb 0527 843d 6e05 0b3e 26c3 9fbd
000001a0: 6595 7d3e f476 c53c 1d77 a53e 9dce 39be
000001b0: 8d62 043f cdda f3bd 900e d9bd 2d73 1cbf
000001c0: a8bc 51be f631 d23e 557d 51be 77a1 c73e
000001d0: c836 02be 704a ab3d aa62 d2be a13b 5bbe
000001e0: ee6d 81bd 3d88 2cbe 0b80 633e a5f6 a43d
000001f0: 1c04 19be e61f d8bd e39a fe3d e4d5 9cbe
00000200: 693d 7abd 550d 223d aef5 c13d 3d03 d3bd
00000210: 7e26 003e dcd9 743d 788f e3bd f2bc 37be
00000220: e27a 023e 84db b03d 9af3 a63e 6e77 59bd
00000230: 7385 debc 79f7 53be 6e25 8bbe f36d 6bbe
00000240: f2ec d83c 87a8 56bd 484d 84be a285 a1be
00000250: 40b3 37bd 778c 9cbd d1a4 45be 6999 05bd
00000260: 9c31 6c3e 9b41 f8bd 2197 aabe e0d1 4ebe
00000270: 638f 9c3d 21b1 283d c9bd 09be cf24 3f3e
00000280: db8f 5dbe ef72 9c3c 1853 ebbd 3b24 f73d
00000290: 636f c2be 4997 86bd b027 a63e 10c1 b7be
000002a0: 259b 4f3d 2b6f c8bd e6db a3bd d154 7c3d
000002b0: 0b20 af3d 1523 e33d a439 a53e 60c4 173d
000002c0: 81f6 ab3d 56d2 4a3e 622c 953e 957d 283e
000002d0: 6c02 833d fd02 b33d 0d16 8b3e c502 cd3d
000002e0: 9940 0a3f 0905 223f 1692 a43e c855 cd3e
000002f0: d8c2 84be ad20 4fbb 0dad bcbd 1a8a a8bd
00000300: 2f29 193e a593 0fbd b358 8e3d cffe 343f
00000310: 8165 153e 68c4 f3bc 59c2 4c3d d6c1 31be
00000320: e3fb a33c 7f05 7f3d 2358 183f e323 bf3e
00000330: 0cce fe3d 9797 25be 44c3 02be 3b94 b73c
00000340: c7a4 d33d 601f 973e 2dd0 bcbd 0ac1 693d
00000350: 7d64 34be 7da2 43be 1d51 073d c1f4 15be
00000360: 9c2a 3cbe 3005 a3bc c299 d43b ca72 d6bd
00000370: 540e 70be aebe 87bd 0b57 21be 795e 02be
00000380: a8f7 56be 71f9 dabd 9c82 133a 7d4e c83d
00000390: 5380 9d3d e02f 203c 8af8 16be c889 6a3d
000003a0: d3f4 f4bc b2de 583c 3ba0 963d 747a 253d
000003b0: 98ff 9ebc 6204 4e3d 59a2 9e3d da4d 50ba
000003c0: 3d5d f73d 65d4 033d 9a65 603c 5cc0 803d
000003d0: 5700 24be 1817 793d 63cb 91bd 30fe 06bd
000003e0: 93a0 553d dd4a 16be ce9a c63d 6c42 01be
000003f0: 4054 453d 671d 22be 071f ea3c 01da 99bb

model.model.0.bias f4 [128]
0.21937492 -0.10599955 0.027977291 0.3587398 -0.000795366 -0.28240067 0.17130065 0.291656
0.17697686 -0.20432992 -0.33966723 0.38715395 0.20091337 -0.25025624 -0.064078316 -0.10291217
0.29034156 0.21436667 -0.08986568 0.016061809 0.16480967 0.044893786 -0.07881012 0.14290822
0.13300657 0.21141443 0.16003574 -0.14881937 0.25230744 0.0015690557 0.03946875 0.20165329
0.20964392 0.18220474 0.05255375 0.389301 -0.24146515 0.10709147 0.23905118 0.24386884
0.13751192 0.14074863 0.16528244 0.16437173 0.50601035 0.40544468 0.15409252 -0.01600745
0.13581589 0.0018194636 -0.04213738 0.25855088 0.32683754 0.21238488 0.0954496 0.021552071
0.24360785 0.13897437 0.0869719 -0.19154368 0.0713846 0.121313594 -0.053785227 0.033309624
0.15194462 -0.244912 0.022053605 0.28116885 -0.27929816 0.17759955 0.19815125 -0.19395006
-0.026787192 -0.007758026 -0.16304283 -0.07450509 0.2019253 -0.030068003 0.102990255 0.1538595
0.10365091 0.49301818 0.17423815 0.4268878 0.14476073 0.17565903 0.09043667 0.04539662
0.000884112 0.20805399 -0.18002847 -0.004705451 0.12920097 0.17431162 0.13618642 0.004824576
0.21148579 0.18390515 0.15112819 -0.18696895 -0.036592357 0.3382295 0.042669155 0.22326232
0.41259345 0.081007265 0.083253324 0.25238612 0.32920232 0.32348794 -0.02534341 -0.11162577
-0.003170378 0.2560104 -0.021225171 0.10865438 -0.037136078 0.061283864 0.046254598 -0.21140598
0.09901608 -0.19596028 0.18390022 -0.009018821 -0.14992376 0.1160118 0.26501778 0.13470592
00000000: d2a3 603e 4b16 d9bd a230 e53c beac b73e
00000010: 1c80 50ba d296 90be 7069 2f3e ef53 953e
00000020: 6c39 353e dd3b 51be dde8 adbe 0b39 c63e
00000030: 3cbc 4d3e 9621 80be 7e3b 83bd 9ec3 d2bd
00000040: a6a7 943e f082 5b3e 7f0b b8bd 0e94 833c
00000050: dec3 283e 8ce2 373d 3367 a1bd 8856 123e
00000060: e032 083e 067d 583e 69e0 233e 1b64 18be
00000070: 712e 813e c6a8 cd3a fca9 213d 337e 4e3e
00000080: e5ac 563e e193 3a3e 9a42 573d 7652 c73e
00000090: a442 77be c652 db3d d5c9 743e c1b8 793e
000000a0: edcf 0c3e 6920 103e cd3f 293e 1051 283e
000000b0: e589 013f 7296 cf3e 6eca 1d3e 0e22 83bc
000000c0: 5213 0b3e 117b ee3a 3f98 2cbd c860 843e
000000d0: 4057 a73e 6c7b 593e 147b c33d f88d b03c
000000e0: 5674 793e 4c4f 0e3e 531e b23d 0724 44be
000000f0: 1732 923d 4373 f83d e64d 5cbd ac6f 083d
00000100: 5f97 1b3e 36ca 7abe c3a9 b43c 5df5 8f3e
00000110: 2b00 8fbe a8dc 353e 29e8 4a3e d89a 46be
00000120: d070 dbbc 0a37 febb b3f4 26be 2096 98bd
00000130: 81c5 4e3e 2c51 f6bc 8eec d23d 588d 1d3e
00000140: ee46 d43d e16c fc3e 7c6b 323e 0a91 da3e
00000150: 283c 143e f6df 333e dc36 b93d cef1 393d
00000160: c1c3 673a 1b0c 553e 6259 38be 2f30 9abb
00000170: 424d 043e bf7e 323e 7474 0b3e 7a17 9e3b
00000180: bb8f 583e a251 3c3e 59c1 1a3e ca74 3fbe
00000190: dee1 15bd 6b2c ad3e dac5 2e3d e19e 643e
000001a0: 733f d33e 23e7 a53d b880 aa3d c138 813e
000001b0: 358d a83e 36a0 a53e fc9c cfbc 0d9c e4bd
000001c0: 1ec6 4fbb cc13 833e 69e0 adbc 3086 de3d
000001d0: 001c 18bd ca04 7b3d 7675 3d3d cf7a 58be
000001e0: f1c8 ca3d d0a9 48be 5750 3c3e adc3 13bc
000001f0: 9d85 19be 9897 ed3d 69b0 873e 59f0 093e

model.model.2.weight f4 [128, 128]
-0.09600559 -0.05845215 -0.08303879 -0.13751242 -0.036142137 0.0311179 -0.058801554 0.05007603
-0.2748319 0.09726567 -0.105130486 -0.124712735 -0.03606319 0.08875303 0.051088024 -0.0065526045
-0.063734025 -0.12637575 -0.059224624 0.035787236 -0.039371576 -0.016005846 0.016601624 -0.054822013
-0.008185941 -0.15634064 -0.13153315 -0.08807289 -0.12740672 -0.05226333 0.004250721 -0.040624205
0.017806849 0.026879273 -0.030312968 -0.18672144 0.06522723 -0.06520684 0.16552946 -0.032609098
-0.08653998 -0.1846459 -0.17145835 -0.109317884 -0.15163979 -0.20089668 -0.122969285 -0.024664672
0.018671107 0.03291258 -0.00044242665 -0.030587077 -0.02501878 -0.004115723 -0.09932311 0.025260651
-0.13265996 0.043632932 -0.09856211 -0.07953443 -0.0488785 0.051530402 0.05217098 -0.0031813849
-0.03534734 -0.036564145 -0.102489 0.02417946 -0.08849523 0.09917346 0.014395162 0.05282094
-0.083677106 -0.050809268 0.01668187 -0.08561645 0.06454948 0.087374106 -0.020901527 -0.01933433
-0.08539832 -0.071801156 -0.00944807 0.0011290397 0.137155 -0.14425965 -0.0116589535 -0.17373525
-0.08509684 -0.087781325 -0.059977483 0.027182898 -0.04983962 -0.016605288 0.12722269 -0.06277188
0.05370209 -0.16319774 -0.07741465 -0.06163414 -0.16383968 -0.033752903 -0.06505995 0.028019516
-0.11981581 0.06038791 -0.059297018 -0.05284208 -0.06405549 -0.00981317 -0.05883783 -0.11994914
-0.0020917905 -0.09165665 -0.004389647 0.062133007 -0.09525535 -0.09604354 0.0017762979 -0.018366933
0.044029832 0.005129589 0.001829847 -0.04164011 -0.1395218 0.027717618 0.08107849 -0.09998863
-0.09554722 -0.12687619 -0.04085711 -0.045769036 -0.13906758 0.13756654 -0.13350248 -0.007374415
-0.07915786 0.004674409 0.06415686 0.042583235 0.06042967 0.100697175 0.10288346 -0.116955124
-0.21113342 -0.14172041 -0.19244356 -0.144386 -0.17158073 -0.14339337 0.23468667 -0.16611436
-0.1729216 -0.21737774 -0.10945147 0.15594041 -0.19521308 -0.010375185 0.0010209677 0.039682187
0.124447525 -0.01389706 -0.29138646 -0.1666247 0.052321114 -0.17531765 0.08035129 -0.09107494
-0.21119721 -0.25224563 -0.12394253 -0.06166791 -0.121716216 -0.08813946 -0.103217855 -0.08366384
-0.06523789 0.030030316 -0.32474723 -0.26047766 0.13165107 -0.053990502 -0.2582438 0.09458908
-0.13471705 -0.20487726 0.0899587 -0.14846425 -0.04975128 -0.053343978 0.09441467 0.049178723
-0.20619373 0.13438782 0.053247623 -0.17545271 -0.13050698 0.19526185 0.019039005 0.37955466
-0.09703507 -0.21736324 0.13418166 -0.24907845 0.08215473 0.17950405 -0.02498251 0.074142046
-0.16307881 0.13620457 -0.036710892 -0.015009488 0.011620074 0.04861661 0.20033723 -0.0010523886
-0.047911577 -0.2768456 -0.01079167 -0.2276265 0.090709 0.029947806 0.12962668 -0.05485947
0.036614873 -0.009682412 0.19171357 -0.11163464 -0.012048341 -0.26440197 -0.029946553 0.09724235
-0.23883307 0.16072899 -0.18612239 -0.18536167 -0.27937618 -0.035588033 -0.070013694 -0.08194868
-0.09429982 -0.14643012 -0.20544401 -0.11985775 -0.10582686 0.07160672 -0.041314222 -0.24212992
0.095454596 0.04918007 -0.09974221 -0.24239819 -0.4395236 -0.07459215 -0.005511071 -0.29680684
00000000: 949e c4bd 866b 6fbd 3e10 aabd 0ed0 0cbe
00000010: c709 14bd f7ea fe3c e6d9 70bd 861c 4d3d
00000020: c4b6 8cbe 3933 c73d a74e d7bd 6469 ffbd
00000030: ffb6 13bd 26c4 b53d ad41 513d 3bb7 d6bb
00000040: fc86 82bd a568 01be 8595 72bd a395 123d
00000050: 1744 21bd b11e 83bc 2100 883c 0c8d 60bd
00000060: 531e 06bc c317 20be a0b0 06be 8f5f b4bd
00000070: e876 02be 1312 56bd a249 8b3b 9165 26bd
00000080: abdf 913c ec31 dc3c e752 f8bc e833 3fbe
00000090: db95 853d 2a8b 85bd 8e80 293e 1e91 05bd
000000a0: df3b b1bd d113 3dbe c792 2fbe 0ee2 dfbd
000000b0: 7647 1bbe dcb7 4dbe 52d7 fbbd 910d cabc
000000c0: 26f4 983c 57cf 063d 80f5 e7b9 c091 fabc
000000d0: 2ff4 ccbc 30dd 86bb ea69 cbbd 6def ce3c
000000e0: 03d8 07be 72b8 323d eeda c9bd f2e2 a2bd
000000f0: d234 48bd 8b11 533d 3db1 553d c87e 50bb
00000100: 5fc8 10bd 49c4 15bd c1e5 d1bd 0114 c63c
00000110: fd3c b5bd 741b cb3d b0d9 6b3c c55a 583d
00000120: e75e abbd 611d 50bd 6ba8 883c ad57 afbd
00000130: 8532 843d 32f1 b23d ae39 abbc 0763 9ebc
00000140: 50e5 aebd 7c0c 93bd 14cc 1abc 49fc 933a
00000150: 5c72 0c3e cdb8 13be 3205 3fbc a7e7 31be
00000160: 4147 aebd b2c6 b3bd f3aa 75bd abae de3c
00000170: a124 4cbd d007 88bc aa46 023e 8b8e 80bd
00000180: b9f6 5b3d 4f1d 27be 928b 9ebd 1474 7cbd
00000190: 97c5 27be 7c40 0abd 273e 85bd 2f89 e53c
000001a0: fe61 f5bd 5059 773d 6ee1 72bd f070 58bd
000001b0: 862f 83bd 6bc7 20bc f0ff 70bd e5a7 f5bd
000001c0: 6c16 09bb 7bb6 bbbd 07d7 8fbb 2e7f 7e3d
000001d0: 3d15 c3bd 7ab2 c4bd abd2 e83a 4076 96bc
000001e0: a058 343d 1c16 a83b 7ad7 ef3a d28e 2abd
000001f0: cede 0ebe 0f10 e33c 7b0c a63d d7c6 ccbd
00000200: 43ae c3bd d5eb 01be c959 27bd 5078 3bbd
00000210: bb67 0ebe 3ede 0c3e e0b4 08be 14a5 f1bb
00000220: 841d a2bd c92b 993b ac64 833d c26b 2e3d
00000230: 1a85 773d 523a ce3d 90b4 d23d 2b86 efbd
00000240: 5c33 58be 281f 11be ed0f 45be ecd9 13be
00000250: dcb2 2fbe b6d5 12be b451 703e e219 2abe
00000260: 5c12 31be 4598 5ebe 1828 e0bd d8ae 1f3e
00000270: f0e5 47be aefc 29bc fed1 853a ca89 223d
00000280: 58de fe3d 7fb0 63bc 9b30 95be aa9f 2abe
00000290: aa4e 563d 7886 33be 388f a43d 8085 babd
000002a0: 1544 58be 5726 81be 95d5 fdbd 7e97 7cbd
000002b0: 5a46 f9bd 7682 b4bd e263 d3bd f357 abbd
000002c0: 719b 85bd 2302 f63c 4545 a6be 545d 85be
000002d0: 8acf 063e 2525 5dbd 8838 84be ebb7 c13d
000002e0: 44f3 09be 58cb 51be 443c b83d 0307 18be
000002f0: 00c8 4bbd 377f 5abd 7a5c c13d a16f 493d
00000300: 7324 53be f69c 093e 2e1a 5a3d e0a9 33be
00000310: 9fa3 05be b9f2 473e b0f7 9b3c fd54 c23e
00000320: 53ba c6bd 7894 5ebe eb66 093e 6c0e 7fbe
00000330: bd40 a83d e9cf 373e 1fa8 ccbc c9d7 973d
00000340: 22fe 26be 3679 0b3e 295e 16bd 5bea 75bc
00000350: 1f62 3e3c 3622 473d 3425 4d3e 4df0 89ba
00000360: ee3e 44bd b5be 8dbe 8bcf 30bc ec16 69be
00000370: a4c5 b93d 1a55 f53c dbbc 043e 53b4 60bd
00000380: 7af9 153d fba2 1ebc 9050 443e b4a0 e4bd
00000390: 6866 45bc b25f 87be 7952 f5bc ff26 c73d
000003a0: a890 74be 2496 243e de96 3ebe 73cf 3dbe
000003b0: 650a 8fbe c2c4 11bd 5763 8fbd b6d4 a7bd
000003c0: 4420 c1bd c7f1 15be ea5f 52be fb77 f5bd
000003d0: c1bb d8bd 8ba6 923d 1a39 29bd e8f0 77be
000003e0: b37d c33d 0b71 493d a545 ccbd 3b37 78be
000003f0: 3d09 e1be c5c3 98bd 3796 b4bb 11f7 97be

model.model.2.bias f4 [128]
0.011512318 -0.14613745 -0.07301579 0.020952316 0.08051666 -0.07342225 0.34320047 0.09140592
-0.06871814 0.0100822095 -0.03116237 0.07609513 -0.0145191355 -0.12652794 -0.101334594 0.11751507
-0.04515925 0.016009081 0.02098671 -0.023912894 0.075548165 0.010459331 0.2811182 -0.0246594
-0.09240389 0.12474257 0.036799505 -0.10621206 -0.17513886 0.023159385 0.12898934 -0.07389724
-0.0053325943 0.029760594 0.15901822 0.08088505 -0.08459935 0.093286395 -0.042815287 -0.00046901178
-0.2072577 -0.04745437 -0.07806547 0.017974086 0.15243115 -0.029079217 -0.07789452 0.1724835
-0.00958371 -0.23718123 -0.2989844 0.09021531 0.07398434 0.09055283 -0.09963471 -0.0843905
-0.027116358 -0.15807298 0.46530282 0.06777818 0.15029743 -0.11437167 0.19404806 0.025755726
0.023608508 -0.13325077 0.038267072 0.08383056 0.01830856 -0.058610313 0.0951061 -0.043872878
-0.057878435 -0.1201362 -0.09214834 0.018955082 -0.063267976 -0.081205636 -0.094524816 -0.07266884
0.072129525 -0.08202996 -0.06960668 -0.017026868 0.047879413 -0.016242642 -0.013995086 -0.07397251
-0.053437077 -0.008072111 0.06769948 0.13083957 0.11875747 0.037195742 -0.29563516 0.03972805
0.079619035 -0.007253545 -0.068250395 -0.06886133 -0.099134855 0.033190664 -0.027041012 0.05880506
0.048429947 0.010956623 0.06645993 0.013268689 -0.096688315 -0.093535386 -0.1018043 -0.09103338
0.02289704 0.050504833 -0.00077001203 0.102850676 -0.10677907 -0.16066648 0.033097178 -0.038420413
0.12104176 0.0035045317 -0.0878008 -0.025453364 -0.07057465 -0.02064051 -0.030446827 -0.047988057
00000000: 299e 3c3c 0ea5 15be 4d89 95bd 31a4 ab3c
00000010: ebe5 a43d 685e 96bd f9b7 af3e 0733 bb3d
00000020: 19bc 8cbd da2f 253c 3a48 ffbc c3d7 9b3d
00000030: abe1 6dbc 8a90 01be 8388 cfbd beab f03d
00000040: e8f8 38bd 7a25 833c 52ec ab3c f9e4 c3bc
00000050: ffb8 9a3d 9d5d 2b3c baee 8f3e 8302 cabc
00000060: 403e bdbd 0879 ff3d 14bb 163d b585 d9bd
00000070: 9a57 33be c0b8 bd3c c815 043e 7057 97bd
00000080: 0bbd aebb 7dcc f33c acd5 223e 10a7 a53d
00000090: 6d42 adbd f00c bf3d 155f 2fbd b2e5 f5b9
000000a0: 5d3b 54be 835f 42bd cae0 9fbd 643e 933c
000000b0: e916 1c3e 8a37 eebc 2987 9fbd 849f 303e
000000c0: fe04 1dbc a3df 72be 7c14 99be cec2 b83d
000000d0: 1a85 973d c373 b93d 480d ccbd edd4 acbd
000000e0: 2023 debc e2dd 21be 2c3c ee3e 49cf 8a3d
000000f0: 92e7 193e b23b eabd 89b4 463e acfd d23c
00000100: a166 c13c e472 08be efbd 1c3d 5baf ab3d
00000110: d5fb 953c 5e11 70bd fdc6 c23d 0cb4 33bd
00000120: f011 6dbd f809 f6bd 45b8 bcbd b047 9b3c
00000130: a492 81bd 244f a6bd 3a96 c1bd 67d3 94bd
00000140: a5b8 933d 53ff a7bd f28d 8ebd ee7b 8bbc
00000150: 341d 443d 4a0f 85bc a54b 65bc e67e 97bd
00000160: d6e0 5abd e340 04bc 06a6 8a3d cffa 053e
00000170: 1e37 f33d 905a 183d 7e5d 97be e1b9 223d
00000180: 4e0f a33d 25af edbb ddc6 8bbd 2b07 8dbd
00000190: 3707 cbbd eff2 073d 1d85 ddbc 93dd 703d
000001a0: 7b5e 463d 6883 333c 251c 883d ea64 593c
000001b0: 8604 c6bd 7b8f bfbd c67e d0bd b56f babd
000001c0: 9392 bb3c 28de 4e3d a2da 49ba 60a3 d23d
000001d0: fcae dabd c185 24be e890 073d b95e 1dbd
000001e0: bee4 f73d 49ac 653b e8d0 b3bd 9383 d0bc
000001f0: 7189 90bd 4916 a9bc a06b f9bc 208f 44bd

model.model.4.weight f4 [128, 128]
0.056899305 -0.08005244 -0.18378876 -0.10765601 -0.118574545 -0.041430704 -0.16257438 -0.012692783
-0.063981116 -0.068444595 -0.004923958 -0.025042998 -0.14003997 -0.024585478 -0.04297951 -0.0039140745
0.04639026 -0.018476121 0.10738576 -0.028637657 0.112747565 0.07693933 -0.01984474 0.022475934
-0.088290006 -0.10986477 0.039478656 0.0133517245 -0.04823693 0.00518431 0.02156255 0.10656878
0.028440516 -0.079977795 -0.12205294 0.039883215 0.008983243 0.037147306 -0.11450571 0.014527932
-0.057339143 -0.009850913 0.021226477 -0.011397007 -0.056520693 -0.0644627 -0.015965255 -0.14729005
-0.014239286 -0.032556962 -0.09570841 0.03280963 0.052925553 -0.04894456 -0.18134585 0.02299221
0.078526236 -0.010430161 -0.15538129 -0.006181413 -0.07994091 -0.016921211 -0.022189818 -0.0053486023
0.0120529495 -0.010405845 -0.03285887 -0.08300705 0.06670051 -0.017697887 0.0029337467 0.020703241
-0.03101939 0.0050016795 -0.11245355 -0.10391091 0.05510183 0.058333706 0.050725747 -0.044222727
0.011436426 0.011163783 -0.04826406 0.045719407 0.0073807407 -0.022619821 0.073678985 -0.07036401
-0.0073163444 -0.051092457 -0.0018896518 0.007246883 0.02120846 -0.09607762 -0.078613356 -0.09055505
-0.07975275 0.026096733 0.056763195 -0.032625742 0.10787386 -0.10124231 -0.10939827 -0.03855173
-0.083170556 -0.06699483 -0.13861942 0.006202878 0.034114942 -0.06736677 -0.085219756 0.078201465
0.0802158 0.02389112 -0.082291774 0.03411377 0.049763598 0.05472675 -0.10869637 0.06757131
-0.08168307 -0.10840565 0.1056324 -0.05229234 -0.037656344 0.0035528871 0.015637327 0.0016980845
-0.04850432 -0.00096643245 -0.1500929 -0.04187361 0.06593231 -0.05573787 -0.2228652 -0.18016939
-0.20929159 -0.02575327 -0.102435395 -0.078067295 -0.1308232 0.060198568 0.024483195 -0.0033217035
0.25097853 -0.021180114 0.03442472 -0.096964195 -0.036453735 -0.022688001 -0.09618529 -0.05108439
0.050497606 0.1100547 -0.0020006741 0.10150055 -0.1819402 -0.0020535865 -0.045218114 -0.04973518
-0.22583982 0.28665283 0.01699696 0.0045711407 -0.06571195 -0.25148195 -0.07780379 0.06547461
0.21880879 -0.08804594 -0.0041035465 -0.035287276 -0.052345328 0.035482 -0.13 -0.02614889
-0.0020909368 0.02768693 -0.022634242 -0.03327847 0.07961801 -0.1994417 -0.009898117 -0.15365663
-0.09997681 -0.073987454 0.07564705 -0.18704583 -0.13339119 0.010668751 0.12311199 0.02926418
-0.055043973 0.057727363 0.06090713 -0.071878694 -0.12472396 -0.048223406 0.2095469 0.026330628
0.04551595 -0.22775827 -0.0071377493 0.026191443 -0.0958948 0.1300383 -0.0397794 -0.0042302804
-0.03285964 0.15732944 0.087743595 -0.021541065 -0.14772515 0.0015631766 0.01989974 -0.04725634
-0.09976576 -0.10812825 0.1825883 -0.06047162 -0.1845435 -0.1319332 -0.019961087 0.09871543
-0.079653434 -0.17967053 -0.048959274 0.07962164 -0.09491747 -0.019020589 0.019795543 0.08132891
-0.030264804 0.21817714 -0.14720048 0.05960738 -0.10451336 0.05725529 -0.09828357 0.043512136
-0.033280816 0.0032152813 -0.052414183 0.017000647 -0.11238397 0.03042048 0.010283916 -0.07370972
-0.07576881 0.0065936693 0.081106566 -0.071709886 -0.06572694 0.009106867 0.068142176 -0.021009726
00000000: 3f0f 693d 89f2 a3bd 1f33 3cbe c17a dcbd
00000010: 36d7 f2bd 3eb3 29bd e679 26be 64f5 4fbc
00000020: 8808 83bd ae2c 8cbd 2759 a1bb f926 cdbc
00000030: a366 0fbe 7c67 c9bc 480b 30bd a341 80bb
00000040: b703 3e3d 3c5b 97bc 11ed db3d 8599 eabc
00000050: 32e8 e63d 5e92 9d3d 7091 a2bc 731f b83c
00000060: 64d1 b4bd c800 e1bd 5fb4 213d 31c1 5a3c
00000070: 1694 45bd 25e1 a93b f2a3 b03c bc40 da3d
00000080: 16fc e83c 66cb a3bd e4f6 f9bd 955c 233d
00000090: 742e 133c c627 183d f881 eabd 9006 6e3c
000000a0: 73dc 6abd b965 21bc 26e3 ad3c 83ba 3abc
000000b0: 3e82 67bd 0505 84bd 91c9 82bc 34d3 16be
000000c0: e54b 69bc 735a 05bd c502 c4bd 6463 063d
000000d0: 77c8 583d 177a 48bd bab2 39be 295a bc3c
000000e0: 5dd2 a03d 44e3 2abc 461c 1fbe 738d cabb
000000f0: 0fb8 a3bd 5a9e 8abc 6cc7 b5bc 5443 afbb
00000100: bc79 453c 477d 2abc 0697 06bd 9aff a9bd
00000110: 479a 883d 29fb 90bc 1a44 403b d899 a93c
00000120: 601c febc 21e5 a33b 0c4e e6bd 3ecf d4bd
00000130: 75b2 613d 53ef 6e3d cdc5 4f3d e422 35bd
00000140: d95f 3b3c 4de8 363c 89b0 45bd 4644 3b3d
00000150: 24da f13b 344d b9bc 02e5 963d 021b 90bd
00000160: f2bd efbb 5346 51bd 31ae f7ba 4377 ed3b
00000170: 5dbd ad3c 58c4 c4bd 0a00 a1bd ed74 b9bd
00000180: 6955 a3bd d1c8 d53c 8680 683d 92a2 05bd
00000190: f8ec dc3d 2158 cfbd 330c e0bd 6be8 1dbd
000001a0: 5355 aabd 9634 89bd 40f2 0dbe 8341 cb3b
000001b0: 1cbc 0b3d 97f7 89bd b287 aebd 1728 a03d
000001c0: 2e48 a43d 4fb7 c33c 9788 a8bd e1ba 0b3d
000001d0: ead4 4b3d 2829 603d 349c debd d462 8a3d
000001e0: 7449 a7bd c803 debd cd55 d83d 7e30 56bd
000001f0: 8a3d 1abd 8ed7 683b da19 803c 4392 de3a
00000200: 77ac 46bd 2f58 7dba f4b1 19be aa83 2bbd
00000210: 8507 873d 654d 64bd c636 64be 537e 38be
00000220: 8950 56be 86f8 d2bc a6c9 d1bd bfe1 9fbd
00000230: 84f6 05be c692 763d fb90 c83c f0b0 59bb
00000240: 4280 803e eb81 adbc ef00 0d3d 2a95 c6bd
00000250: 8350 15bd 30dc b9bc cbfc c4bd de3d 51bd
00000260: 94d6 4e3d 5c64 e13d be1d 03bb 85df cf3d
00000270: 884e 3abe 7795 06bb a136 39bd 1eb7 4bbd
00000280: 8e42 67be 29c4 923e 353d 8b3c 82c9 953b
00000290: fd93 86bd 3ec2 80be 9857 9fbd 8d17 863d
000002a0: 690f 603e 6e51 b4bd 0b77 86bb 6489 10bd
000002b0: 0e68 56bd 9355 113d b81e 05be 3236 d6bc
000002c0: 1908 09bb b3cf e23c 726b b9bc 014f 08bd
000002d0: c40e a33d 723a 4cbe b62b 22bc 2a58 1dbe
000002e0: a4c0 ccbd bc86 97bd d7ec 9a3d f188 3fbe
000002f0: b397 08be fccb 2e3c 2422 fc3d 6fbb ef3c
00000300: ca75 61bd 8773 6c3d c179 793d 2335 93bd
00000310: 476f ffbd e885 45bd 7693 563e 54b3 d73c
00000320: ef6e 3a3d 7739 69be c8e3 e9bb 708f d63c
00000330: 7e64 c4bd c328 053e b9ef 22bd 2a9e 8abb
00000340: d497 06bd f81a 213e eab2 b33d e376 b0bc
00000350: 4345 17be 81e3 cc3a c804 a33c dd8f 41bd
00000360: fe51 ccbd 5872 ddbd 6df8 3a3e 17b1 77bd
00000370: f9f8 3cbe 7f19 07be 6f85 a3bc 512b ca3d
00000380: 5721 a3bd 8dfb 37be 8589 48bd ac10 a33d
00000390: 1764 c2bd 11d1 9bbc 432a a23c c68f a63d
000003a0: e5ed f7bc d469 5f3e b9bb 16be de26 743d
000003b0: 1a0b d6bd 8684 6a3d e548 c9bd c839 323d
000003c0: 7751 08bd 78b7 523b 41b0 56bd f144 8b3c
000003d0: 9129 e6bd 5f34 f93c df7d 283c 1ff5 96bd
000003e0: ae2c 9bbd b50f d83b 331b a63d a2dc 92bd
000003f0: d99b 86bd f834 153c 208e 8b3d 971c acbc

model.model.4.bias f4 [128]
-0.08342608 0.050631646 0.025182214 -0.031097956 -0.019203711 -0.024379814 0.21413112 -0.13082097
-0.034450125 0.016705563 -0.03325866 0.0014830658 -0.13429756 0.13538903 -0.057976875 -0.09890758
-0.0650013 -0.1886591 -0.021037208 -0.08252979 -0.01572228 0.061265904 -0.06396222 -0.21133207
-0.0036248825 -0.06371504 0.04910116 -0.051274862 -0.16315255 0.12794888 -0.16149531 -0.08470112
-0.13941856 -0.21830882 -0.095913246 -0.21335833 -0.06618252 0.09057885 -0.17253424 0.018870687
-0.19435301 0.022357723 -0.09566662 0.10342907 -0.18070653 0.07604352 -0.06251925 -0.044497263
-0.11345373 -0.26980177 0.054111894 -0.017938633 0.032072667 -0.09791157 0.072177336 -0.032245435
-0.18737133 -0.11225788 -0.24018858 -0.07970037 -0.10783453 -0.12880242 -0.061378285 0.05134062
0.08916914 -0.157867 0.020561986 0.036675718 -0.0810422 -0.14190875 0.04329952 -0.16428047
-0.026186556 0.2855089 0.027909644 -0.0609151 -0.09795933 -0.03899589 -0.112396225 -0.027144492
-0.22909296 0.15854847 -0.09230203 -0.10874577 0.017813817 0.001006267 -0.048564874 0.089252055
-0.09087216 -0.09990913 -0.116336375 -0.10809265 -0.1510192 -0.05309913 0.06468261 -0.028625632
-0.1665707 0.08912669 -0.10505476 -0.008371273 0.5285172 -0.06197349 0.107028954 -0.077781506
-0.04867446 -0.11771033 0.124251306 -0.11994647 0.030442413 -0.029620579 0.086367995 -0.02137894
-0.050868943 -0.07565847 0.050702527 -0.1192302 -0.22214651 -0.11866863 0.0020789686 -0.009675548
0.018981839 -0.0015406864 -0.018943844 -0.16231565 -0.0067506414 -0.15619451 -0.14723808 0.0105872145
00000000: 4bdb aabd 2163 4f3d ee4a ce3c 24c1 febc
00000010: 1a51 9dbc 2db8 c7bc 3045 5b3e eff5 05be
00000020: 931b 0dbd 1bda 883c 3c3a 08bd 6e63 c23a
00000030: 4d85 09be 6ca3 0a3e 2979 6dbd 0f90 cabd
00000040: 671f 85bd da2f 41be 3956 acbc 6105 a9bd
00000050: 03cc 80bc f5f1 7a3d a0fe 82bd 6f67 58be
00000060: 708f 6dbb 087d 82bd 4c1e 493d 9705 52bd
00000070: 7611 27be 0805 033e 075f 25be c877 adbd
00000080: bdc3 0ebe 598c 5fbe 2a6e c4bd 9b7a 5abe
00000090: b38a 87bd 6781 b93d d1ac 30be b396 9a3c
000000a0: 7a04 47be 8b27 b73c dcec c3bd 9fd2 d33d
000000b0: 220b 39be b4bc 9b3d 180a 80bd c342 36bd
000000c0: 6e5a e8bd 7523 8abe 6fa4 5d3d 0af4 92bc
000000d0: a15e 033d dc85 c8bd b6d1 933d ca13 04bd
000000e0: 45de 3fbe 76e7 e5bd fff3 75be f339 a3bd
000000f0: 5ad8 dcbd c8e4 03be cc67 7bbd 8b4a 523d
00000100: 4f9e b63d e3a7 21be 9c71 a83c 4739 163d
00000110: 74f9 a5bd 8750 11be d65a 313d 2439 28be
00000120: 3085 d6bc 392e 923e c4a2 e43c 1d82 79bd
00000130: e79e c8bd 28ba 1fbd fe2f e6bd 205e debc
00000140: 5897 6abe 885a 223e d908 bdbd 1ab6 debd
00000150: 48ee 913c b8e4 833a f6eb 46bd c8c9 b63d
00000160: 2f1b babd 289d ccbd c441 eebd ae5f ddbd
00000170: c7a4 1abe 797e 59bd 5178 843d 4d80 eabc
00000180: 8291 2abe 0e88 b63d f326 d7bd aa27 09bc
00000190: e74c 073f ead7 7dbd ff31 db3d e94b 9fbd
000001a0: df5e 47bd 1d12 f1bd 7877 fe3d 7fa6 f5bd
000001b0: 5e62 f93c dba6 f2bc b4e1 b03d e322 afbc
000001c0: f45b 50bd d4f2 9abd 74ad 4f3d f72e f4bd
000001d0: 607a 63be 8a08 f3bd 4e3f 083b 3186 1ebc
000001e0: cd7f 9b3c dbf0 c9ba 1f30 9bbc 1336 26be
000001f0: 7c34 ddbb 74f1 1fbe 94c5 16be ff75 2d3c

model.model.6.weight f4 [7, 128]
-0.13519682 0.28871006 0.09288324 -0.042593054 0.0040957653 0.077460796 -0.090703115 0.051881876
0.03047896 0.16419844 0.06266707 0.5129772 -0.08349305 0.33208546 0.21717158 0.09439624
-0.044924542 0.014533929 0.23557614 0.102671534 0.39863336 0.07906291 0.016025824 -0.025631545
0.2333226 -0.047646433 0.08500609 0.061612118 -0.0012161178 0.43079668 0.084096506 -0.009191659
0.20528907 -0.10619032 -0.050708573 0.23040456 0.2865486 0.49795935 0.17001252 -0.08686087
-0.12839216 0.08835615 -0.1217245 0.16078654 0.14244442 0.3117505 0.0570672 0.13042514
0.07165971 0.036895502 0.16699885 -0.06608389 0.33336496 -0.12527427 0.13894312 0.41995117
0.1958742 -0.014222321 0.056403548 -0.05727113 0.02666362 -0.036985423 0.05072208 0.14700224
-0.028095888 -0.11396415 0.37618402 0.14223355 0.022958899 0.17603552 0.07472126 -0.03208891
0.051461555 -0.23243096 0.16314344 0.23087522 0.053743493 0.1384095 0.014549116 0.28468242
0.16528541 0.2471209 0.20890543 0.021035502 0.046562903 0.52792007 0.16481037 0.35203895
0.022495717 0.006517617 -0.08620039 0.2299067 0.18079163 0.244564 0.14341103 0.11329002
-0.39240786 0.20184031 0.18222103 0.27326286 -0.0761236 0.024316821 0.42499903 -0.029040534
-0.015622192 0.010740612 0.2913956 0.2403612 0.1613648 0.18162625 0.23339401 0.07671963
0.16770934 0.11436433 0.18929933 0.052849077 -0.027328176 -0.29217473 0.106957674 0.29160935
-6.194436e-05 0.08134217 -0.008576465 0.013864713 0.1229933 -0.00845589 -0.20775954 0.062285494
-0.038079187 0.17340074 0.044482004 0.21730128 0.22238465 0.086843155 0.40568522 0.0018732804
0.18409568 0.031178275 -0.061360214 0.016418481 -0.07410591 -0.115342036 0.09197942 0.0579341
-0.014471322 0.004537415 0.23210086 0.1800741 0.1087167 0.29906777 -0.015641987 -0.072456926
0.14662424 0.36398858 0.19368222 0.058055025 -0.0028614944 -0.2830504 0.16532543 0.028147902
-0.035687122 0.22377862 0.0038608967 0.05171167 0.03592853 0.046663504 0.08781262 0.09869639
0.4738188 0.12080757 0.15187901 0.3147405 0.0020603598 0.117460236 0.36621398 0.02752851
-0.0283207 0.14372405 0.1100834 0.038711045 0.2371699 0.17455232 0.30203316 0.2576577
0.16537106 -0.07426918 0.18110235 0.040373858 0.046460323 -0.032514416 0.027378174 0.3725647
0.2827908 0.089884505 0.15310231 0.031853367 0.16601196 0.00033113256 0.045052074 -0.0030057942
0.038566798 -0.14985673 0.14247845 0.11963985 0.017038722 0.2602859 0.29846022 -0.06766927
0.03188839 0.028584342 0.00024159889 -0.00915194 0.0365475 0.33801275 0.16888101 0.16024114
-0.021075912 0.018710325 -0.05135354 0.19058457 -0.0014361549 0.031198228 0.07797763 0.12704499
0.088352636 0.087646365 0.17367893 0.05120265 0.05883327 0.008630837 0.25230405 0.092140175
0.043422796 -0.017120259 0.24306984 0.13609159 0.12100167 0.0057339943 0.13345179 0.024958927
0.21188875 0.1100409 0.075297974 0.08808222 0.060938753 -0.2826093 0.23456495 0.09444103
0.07484636 0.15480891 0.04585516 0.0149713345 0.5567283 0.12600687 -0.106599525 0.09683368
00000000: 0971 0abe ced1 933e 9139 be3d 0e76 2ebd
00000010: c535 863b c4a3 9e3d 8ec2 b9bd 1782 543d
00000020: 03af f93c a323 283e 9857 803d 7952 033f
00000030: 67fe aabd 1b07 aa3e 3a62 5e3e d152 c13d
00000040: cc02 38bd b71f 6e3c df3a 713e 7445 d23d
00000050: ac19 cc3e bceb a13d 9748 833c 3ff9 d1bc
00000060: 1fec 6e3e e828 43bd ac17 ae3d fd5c 7c3d
00000070: 2466 9fba 6291 dc3e ca3a ac3d 9d98 16bc
00000080: 4c37 523e 4f7a d9bd cbb3 4fbd 2cef 6b3e
00000090: 80b6 923e 87f4 fe3e c317 2e3e 1de4 b1bd
000000a0: 3c79 03be 12f4 b43d b24a f9bd 3aa5 243e
000000b0: f3dc 113e c39d 9f3e 4cbf 693d 2b8e 053e
000000c0: 53c2 923d bd1f 173d bf01 2b3e fe56 87bd
000000d0: d0ae aa3e e647 00be 1b47 0e3e d703 d73e
000000e0: 3f93 483e bd04 69bc 6807 673d 2295 6abd
000000f0: aa6d da3c 077e 17bd f5c1 4f3d c187 163e
00000100: 5929 e6bc 0966 e9bd 319b c03e aca5 113e
00000110: 4d14 bc3c a842 343e 7607 993d a96f 03bd
00000120: 5ac9 523d 6202 6ebe 130f 273e 8e6a 6c3e
00000130: 2322 5c3d 38bb 0d3e 6a5f 6e3c e5c1 913e
00000140: 9440 293e 430d 7d3e 4eeb 553e a552 ac3c
00000150: beb8 3e3d c525 073f 0dc4 283e 733e b43e
00000160: f048 b83c bc91 d53b d489 b0bd a96c 6b3e
00000170: 7121 393e fc6e 7a3e 57da 123e 9904 e83d
00000180: afe9 c8be 3aaf 4e3e 2698 3a3e 1ce9 8b3e
00000190: b1e6 9bbd 1234 c73c 7999 d93e 6ae6 edbc
000001a0: 39f4 7fbc 64f9 2f3c ce31 953e 3f21 763e
000001b0: d03c 253e 3bfc 393e d7fe 6e3e 2e1f 9d3d
000001c0: ffbb 2b3e d937 ea3d afd7 413e 4678 583d
000001d0: 57df dfbc ed97 95be a00c db3d d24d 953e
000001e0: 20e8 81b8 b996 a63d 4d84 0cbc d228 633c
000001f0: e9e3 fb3d 938a 0abc ebbe 54be 131f 7f3d
00000200: ecf8 1bbd f78f 313e c332 363d 3a84 5e3e
00000210: cdb8 633e d3da b13d f9b5 cf3e dc88 f53a
00000220: 9483 3c3e 9569 ff3c d954 7bbd 0d80 863c
00000230: d7c4 97bd 7238 ecbd b55f bc3d 4f4c 6d3d
00000240: 2019 6dbc 99ae 943b d9ab 6d3e 5865 383e
00000250: dca6 de3d 691f 993e a023 80bc 4c64 94bd
00000260: aa24 163e b65c ba3e a254 463e 1bcb 6d3d
00000270: e987 3bbb fbeb 90be 124b 293e 6e96 e63c
00000280: a92c 12bd 3926 653e 1907 7d3b 9ecf 533d
00000290: cb29 133d 3b22 3f3d 1ad7 b33d 5521 ca3d
000002a0: 6198 f23e f669 f73d 2c86 1b3e ab25 a13e
000002b0: 1a07 073b fe8e f03d 6680 bb3e 7883 e13c
000002c0: d000 e8bc 662c 133e 6873 e13d 798f 1e3d
000002d0: abdc 723e d8bd 323e 17a4 9a3e b6eb 833e
000002e0: 0857 293e 711a 98bd e572 393e 0f5f 253d
000002f0: 2e4d 3e3d d62d 05bd 3148 e03c cdc0 be3e
00000300: f5c9 903e 5e15 b83d dac6 1c3e ad78 023d
00000310: 0aff 293e dc9b ad39 8688 383d dcfc 44bb
00000320: 38f8 1d3d 0b74 19be dfe5 113e bd05 f53d
00000330: ca94 8b3c 3244 853e c7cf 983e 3096 8abd
00000340: 679d 023d b629 ea3c b555 7d39 05f2 15bc
00000350: d5b2 153d 0210 ad3e 25ef 2c3e 4116 243e
00000360: 64a7 acbc 6546 993c 1758 52bd 9a28 433e
00000370: 5d3d bcba 6d93 ff3c bcb2 9f3d 1518 023e
00000380: 3af2 b43d f07f b33d e4d8 313e dfb9 513d
00000390: 28fb 703d 5b68 0d3c ff2d 813e fdb3 bc3d
000003a0: 1adc 313d c93f 8cbc 4de7 783e 985b 0b3e
000003b0: b9cf f73d 3be4 bb3b 96a7 083e aa76 cc3c
000003c0: 5df9 583e 205d e13d d335 9a3d 7364 b43d
000003d0: ea9a 793d 2bb2 90be cb31 703e 4c6a c13d
000003e0: 0c49 993d 3a86 1e3e 9fd2 3b3d 544a 753c
000003f0: bf85 0e3f f207 013e da50 dabd bd50 c63d

model.model.6.bias f4 [7]
0.22361717 0.2835002 -0.0644526 -0.13592164 0.08899823 -0.12395636 -0.047215294
00000000: e6fb 643e f026 913e baff 83bd 0b2f 0bbe
00000010: b444 b63d d5dc fdbd d364 41bd

model_old.model.0.weight f4 [128, 42]
-0.19128917 -0.2705661 -0.0819508 0.14529233 0.21213445 0.1724922 -0.27232617 0.14698115
0.03560445 -0.07129817 0.0097198365 -0.049975254 0.27253455 -0.07968955 -0.15730369 -0.059214387
-0.24297962 -0.31641686 -0.06773627 -0.15359451 0.17131342 -0.052944455 -0.019353835 0.09329766
0.28846532 -0.016558386 -0.29332244 -0.041262835 0.040824946 -0.32071283 0.023651686 0.28930533
0.00016472093 -0.12728277 -0.23091026 0.14923929 -0.16855828 -0.17013325 0.3878571 0.11797856
-0.03908961 -0.25731903 -0.061824635 -0.2982295 0.011483606 -0.20327441 -0.11022873 -0.22603388
0.005010542 -0.255553 0.13468508 -0.29481468 0.07592289 0.076387316 0.15187177 0.03021133
-0.17427924 0.123953804 -0.08070673 -0.23818603 0.13076237 0.20877105 -0.43750548 -0.040813647
-0.2164863 -0.07600497 0.0683496 0.16166967 -0.3361379 -0.18394516 -0.097788796 -0.085251324
-0.13450742 -0.014850495 0.14765193 -0.1754394 -0.14469214 -0.07147576 -0.052161474 0.032526515
-0.015816748 0.12792 -0.15635607 -0.07044623 -0.18937218 0.050548628 -0.34629276 0.1275522
0.06815994 -0.017607234 -0.09912559 -0.112004995 0.020327732 -0.19616936 0.25041363 0.062645085
-0.10793225 -0.11271185 0.02818137 -0.20629276 -0.0071366485 0.062184125 0.1357629 -0.07966952
0.2476402 0.024104573 0.3369389 -0.18145223 0.5031866 -0.11906967 -0.105674885 -0.61113244
-0.20482123 0.42430192 -0.20457967 0.37596166 -0.1271621 0.09324065 -0.410909 -0.21409465
-0.049433354 -0.16848846 0.22216813 0.08054856 -0.14116098 -0.10552959 0.09904122 -0.31990573
-0.07225172 0.030820152 0.07174811 -0.15089345 0.12514684 0.04722714 -0.11111349 -0.1794317
0.12423929 0.07158849 0.30603847 -0.053092413 -0.037678346 -0.20699872 -0.27176994 -0.26488143
0.026480172 -0.068356894 -0.2584021 -0.32598782 -0.04484868 -0.07643979 -0.2069623 -0.032617006
0.19514419 -0.12121888 -0.33318427 -0.20197248 0.07644536 0.027233789 -0.13451304 0.15945946
-0.21636908 0.019097773 -0.11490458 0.12067457 -0.37975606 -0.06571824 0.2948118 -0.35889482
0.048933428 -0.101322636 -0.06881707 0.046415277 0.056579456 0.08325335 0.3227054 0.035437763
0.078291036 0.198068 0.27477947 0.14971027 0.0464216 0.08740804 0.2848599 0.10768235
0.5400482 0.59810644 0.32142705 0.37398556 -0.25929904 0.0074196863 -0.081923254 -0.08229466
0.1355941 -0.035052914 0.05063141 0.7070131 0.14589502 -0.021605577 0.049990032 -0.18756805
0.02001757 0.05467212 0.59509486 0.37332067 0.13256763 -0.16171108 -0.127698 0.022409549
0.094913945 0.29516125 -0.09219394 0.057068862 -0.17616458 -0.19104953 0.03303634 -0.14644147
-0.18375629 -0.019899935 0.006488056 -0.10471113 -0.23442966 -0.06628166 -0.1575586 -0.12731351
-0.20992911 -0.106921084 0.00056270673 0.097805955 0.076904915 0.009777039 -0.14743248 0.057260305
-0.029901898 0.013236688 0.0735478 0.040399984 -0.019408986 0.05029715 0.07745809 -0.0007946171
0.12078331 0.032184977 0.013696099 0.0628669 -0.16015755 0.06081304 -0.07118871 -0.032957256
0.05215509 -0.14676996 0.096974954 -0.12622994 0.050735176 -0.1477427 0.016539287 -0.028232373
00000000: 4fe1 43be a487 8abe d2d5 a7bd 83c7 143e
00000010: c639 593e cca1 303e 566e 8bbe 3a82 163e
00000020: f9d5 113d c604 92bd f33f 1f3c dab2 4cbd
00000030: a689 8b3e 4634 a3bd 3814 21be c98a 72bd
00000040: a6cf 78be 6401 a2be 50b9 8abd e147 1dbe
00000050: c96c 2f3e 49dc 58bd ef8b 9ebc d812 bf3d
00000060: bab1 933e 74a5 87bc 5c2e 96be 3803 29bd
00000070: 0f38 273d 7934 a4be 2ec1 c13c d41f 943e
00000080: f0b8 2c39 6a56 02be bd73 6cbe 2fd2 183e
00000090: 8b9a 2cbe 6937 2ebe 3595 c63e be9e f13d
000000a0: 6d1c 20bd 52bf 83be d43b 7dbd 89b1 98be
000000b0: bc25 3c3c 2b27 50be 9abf e1bd 6d75 67be
000000c0: 792f a43b d8d7 82be e3ea 093e f3f1 96be
000000d0: 767d 9b3d f470 9c3d 4684 1b3e c07d f73c
000000e0: 4276 32be 7edb fd3d 9249 a5bd 0ae7 73be
000000f0: 92e6 053e 14c8 553e b800 e0be 362c 27bd
00000100: 96ae 5dbe 7ea8 9bbd e0fa 8b3d bc8c 253e
00000110: 441a acbe 1f5c 3cbe 7e45 c8bd 3f98 aebd
00000120: 50bc 09be 7e4f 73bc 1132 173e 63a6 33be
00000130: 2d2a 14be e261 92bd 45a7 55bd 863a 053d
00000140: 2092 81bc 76fd 023e ce1b 20be 1d46 90bd
00000150: c8ea 41be 140c 4f3d 494d b1be 0b9d 023e
00000160: 7097 8b3d 0c3d 90bc 5b02 cbbd e062 e5bd
00000170: 5886 a63c 9fe0 48be 3736 803e 114c 803d
00000180: 950b ddbd 78d5 e6bd 9edc e63c 693e 53be
00000190: 8cda e9bb c8b4 7e3d 6e05 0b3e c629 a3bd
000001a0: 6595 7d3e f476 c53c 4183 ac3e 9dce 39be
000001b0: d6d0 003f cdda f3bd 136c d8bd 2d73 1cbf
000001c0: a8bc 51be 1a3e d93e 557d 51be 0c7e c03e
000001d0: c836 02be f4f4 be3d aa62 d2be a13b 5bbe
000001e0: a17a 4abd 3d88 2cbe 0b80 633e a5f6 a43d
000001f0: 818c 10be e61f d8bd 20d6 ca3d afca a3be
00000200: b6f8 93bd 8b7a fc3c acf0 923d d083 1abe
00000210: 7e26 003e 3f71 413d 788f e3bd f2bc 37be
00000220: 2b71 fe3d fc9c 923d 13b1 9c3e 6e77 59bd
00000230: 9c54 1abd 79f7 53be 6e25 8bbe 8a9e 87be
00000240: f2ec d83c b3fe 8bbd 484d 84be e0e7 a6be
00000250: 40b3 37bd 778c 9cbd eded 53be 6999 05bd
00000260: e1d3 473e 9b41 f8bd 2197 aabe e0d1 4ebe
00000270: 638f 9c3d 6519 df3c c9bd 09be 5749 233e
00000280: db8f 5dbe ef72 9c3c 1853 ebbd 3b24 f73d
00000290: 636f c2be 4997 86bd 92f1 963e 10c1 b7be
000002a0: 6b6e 483d 3e82 cfbd f7ef 8cbd f21d 3e3d
000002b0: dcbf 673d bb80 aa3d a439 a53e 3027 113d
000002c0: 0d57 a03d 56d2 4a3e e5af 8c3e a64d 193e
000002d0: 9324 3e3d fd02 b33d 28d9 913e 9088 dc3d
000002e0: 9940 0a3f 811d 193f 1692 a43e 097b bf3e
000002f0: d8c2 84be d720 f33b 61c7 a7bd 1a8a a8bd
00000300: 2ed9 0a3e a593 0fbd e262 4f3d cffe 343f
00000310: 8165 153e 2efe b0bc 59c2 4c3d d711 40be
00000320: e3fb a33c dfef 5f3d 2358 183f e323 bf3e
00000330: cfbf 073e 9797 25be 44c3 02be 3b94 b73c
00000340: 3e62 c23d 601f 973e 2dd0 bcbd 0ac1 693d
00000350: 7d64 34be 7da2 43be 1d51 073d c1f4 15be
00000360: 9c2a 3cbe 3005 a3bc c299 d43b ca72 d6bd
00000370: 540e 70be aebe 87bd 0b57 21be 795e 02be
00000380: a8f7 56be 71f9 dabd 9c82 133a 7d4e c83d
00000390: 5380 9d3d e02f 203c 8af8 16be c889 6a3d
000003a0: d3f4 f4bc b2de 583c 3ba0 963d 747a 253d
000003b0: 98ff 9ebc 6204 4e3d 59a2 9e3d da4d 50ba
000003c0: 3d5d f73d 65d4 033d 9a65 603c 5cc0 803d
000003d0: 5700 24be 1817 793d 63cb 91bd 30fe 06bd
000003e0: 93a0 553d dd4a 16be ce9a c63d 6c42 01be
000003f0: b0cf 4f3d dd49 17be 667d 873c 9447 e7bc

model_old.model.0.bias f4 [128]
0.2535381 -0.122408785 0.034625184 0.31014156 -0.028448764 -0.28240067 0.20404157 0.3032607
0.1831857 -0.21305545 -0.3291136 0.4233519 0.20994987 -0.25025624 -0.064078316 -0.0912671
0.32565582 0.23167323 -0.10241482 0.016061809 0.18159454 0.06649412 -0.050489016 0.14661448
0.16301072 0.18862079 0.13389033 -0.14881937 0.27717522 0.030655464 0.03715152 0.17771733
0.24213503 0.2270261 0.1018389 0.3877567 -0.24674457 0.13924025 0.28893065 0.24563682
0.11678227 0.13449764 0.18738768 0.19110438 0.550205 0.4428343 0.18708658 0.024110947
0.14506793 -0.006469063 -0.019756615 0.2848965 0.31895012 0.25653875 0.0908599 0.05517642
0.2664898 0.17083913 0.03633662 -0.19154368 0.053157475 0.17459126 -0.010478907 0.0016288257
0.11952932 -0.21769653 0.03247774 0.28549078 -0.268783 0.17891406 0.23092298 -0.1843474
-0.026787192 0.013796049 -0.12190988 -0.060641374 0.21706884 -0.030068003 0.15684305 0.19033746
0.062475253 0.4492086 0.11162051 0.44069692 0.16681677 0.1609 0.12483818 0.08470657
0.000884112 0.24613528 -0.18002847 0.0035830762 0.0917208 0.13024965 0.15203464 -0.0524196
0.22347933 0.20015883 0.14475532 -0.18696895 -0.052987408 0.3403732 0.072851375 0.26963845
0.43468562 0.116549484 0.107382 0.2958809 0.31153238 0.37473273 0.0208073 -0.11162577
0.014061884 0.23213601 -0.018451342 0.114129275 -0.037136078 0.058423802 0.009875032 -0.21140598
0.085081875 -0.18556435 0.21471538 0.032089658 -0.14775886 0.14043577 0.32490605 0.10114983
00000000: bfcf 813e 75b1 fabd 23d3 0d3d e0ca 9e3e
00000010: 620d e9bc d296 90be 46f0 503e fd44 9b3e
00000020: 0895 3b3e 352b 5abe 9481 a8be 95c1 d83e
00000030: 19fd 563e 9621 80be 7e3b 83bd 3fea babd
00000040: 5cbc a63e bf3b 6d3e dcbe d1bd 0e94 833c
00000050: ebf3 393e 122e 883d 92cd 4ebd 1b22 163e
00000060: 48ec 263e cf25 413e 8c1a 093e 1b64 18be
00000070: e9e9 8d3e 2b21 fb3c 312c 183d 88fb 353e
00000080: 3ff2 773e 8879 683e ea90 d03d 0c88 c63e
00000090: 9caa 7cbe ff94 0e3e b8ee 933e 3888 7b3e
000000a0: 8b2b ef3d c0b9 093e 8ee2 3f3e deb0 433e
000000b0: 3cda 0c3f 2dbb e23e a093 3f3e 5284 c53c
000000c0: b08c 143e 6ffa d3bb a0d8 a1bc f4dd 913e
000000d0: 6e4d a33e 0c59 833e c114 ba3d ab00 623d
000000e0: 5a71 883e 74f0 2e3e b5d5 143d 0724 44be
000000f0: a7bb 593d 0dc8 323e b9af 2bbc 527e d53a
00000100: cacb f43d d7eb 5ebe 6107 053d d92b 923e
00000110: ed9d 89be 3f35 373e 1377 6c3e 91c5 3cbe
00000120: d070 dbbc d308 623c e3ab f9bd 1763 78bd
00000130: 4b47 5e3e 2c51 f6bc 779b 203e d3e7 423e
00000140: 0de6 7f3d abfe e53e 4b99 e43d 07a3 e13e
00000150: 04d2 2a3e f8c2 243e 29ab ff3d a37a ad3d
00000160: c1c3 673a e30a 7c3e 6259 38be 0bd2 6a3b
00000170: 1dd8 bb3d 2a60 053e f8ae 1b3e efb5 56bd
00000180: c4d7 643e 70f6 4c3e bd3a 143e ca74 3fbe
00000190: 5309 59bd 6545 ae3e 1a33 953d 0d0e 8a3e
000001a0: 1d8f de3e 7fb1 ee3d 18eb db3d b47d 973e
000001b0: 2c81 9f3e f8dc bf3e 1274 aa3c 0d9c e4bd
000001c0: d163 663c 10b5 6d3e 4527 97bc 9cbc e93d
000001d0: 001c 18bd cc4d 6f3d e3ca 213c cf7a 58be
000001e0: 683f ae3d 9504 3ebe 59de 5b3e 7270 033d
000001f0: 194e 17be 65ce 0f3e 165a a63e a427 cf3d

model_old.model.2.weight f4 [128, 128]
-0.09600559 -0.05845215 -0.08303879 -0.13751242 -0.036142137 0.0311179 -0.058801554 0.05007603
-0.2748319 0.09726567 -0.105130486 -0.124712735 -0.03606319 0.08875303 0.051088024 -0.0065526045
-0.063734025 -0.12637575 -0.059224624 0.035787236 -0.039371576 -0.016005846 0.016601624 -0.054822013
-0.008185941 -0.15634064 -0.13153315 -0.08807289 -0.12740672 -0.05226333 0.004250721 -0.040624205
0.017806849 0.026879273 -0.030312968 -0.18672144 0.06522723 -0.06520684 0.16552946 -0.032609098
-0.08653998 -0.1846459 -0.17145835 -0.109317884 -0.15163979 -0.20089668 -0.122969285 -0.024664672
0.018671107 0.03291258 -0.00044242665 -0.030587077 -0.02501878 -0.004115723 -0.09932311 0.025260651
-0.13265996 0.043632932 -0.09856211 -0.07953443 -0.0488785 0.051530402 0.05217098 -0.0031813849
-0.03534734 -0.036564145 -0.102489 0.02417946 -0.08849523 0.09917346 0.014395162 0.05282094
-0.083677106 -0.050809268 0.01668187 -0.08561645 0.06454948 0.087374106 -0.020901527 -0.01933433
-0.08539832 -0.071801156 -0.00944807 0.0011290397 0.137155 -0.14425965 -0.0116589535 -0.17373525
-0.08509684 -0.087781325 -0.059977483 0.027182898 -0.04983962 -0.016605288 0.12722269 -0.06277188
0.05370209 -0.16319774 -0.07741465 -0.06163414 -0.16383968 -0.033752903 -0.06505995 0.028019516
-0.11981581 0.06038791 -0.059297018 -0.05284208 -0.06405549 -0.00981317 -0.05883783 -0.11994914
-0.0020917905 -0.09165665 -0.004389647 0.062133007 -0.09525535 -0.09604354 0.0017762979 -0.018366933
0.044029832 0.005129589 0.001829847 -0.04164011 -0.1395218 0.027717618 0.08107849 -0.09998863
-0.09554722 -0.12687619 -0.04085711 -0.045769036 -0.13906758 0.13756654 -0.13350248 -0.007374415
-0.07915786 0.004674409 0.06415686 0.042583235 0.06042967 0.100697175 0.10288346 -0.116955124
-0.21113342 -0.14172041 -0.19244356 -0.144386 -0.17158073 -0.14339337 0.23468667 -0.16611436
-0.1729216 -0.21737774 -0.10945147 0.15594041 -0.19521308 -0.010375185 0.0010209677 0.039682187
0.124447525 -0.01389706 -0.29138646 -0.1666247 0.052321114 -0.17531765 0.08035129 -0.09107494
-0.21119721 -0.25224563 -0.12394253 -0.06166791 -0.121716216 -0.08813946 -0.103217855 -0.08366384
-0.06523789 0.030030316 -0.32474723 -0.26047766 0.13165107 -0.053990502 -0.2582438 0.09458908
-0.13471705 -0.20487726 0.0899587 -0.14846425 -0.04975128 -0.053343978 0.09441467 0.049178723
-0.20619373 0.13438782 0.053247623 -0.17545271 -0.13050698 0.19526185 0.019039005 0.37955466
-0.09703507 -0.21736324 0.13418166 -0.24907845 0.08215473 0.17950405 -0.02498251 0.074142046
-0.16307881 0.13620457 -0.036710892 -0.015009488 0.011620074 0.04861661 0.20033723 -0.0010523886
-0.047911577 -0.2768456 -0.01079167 -0.2276265 0.090709 0.029947806 0.12962668 -0.05485947
0.036614873 -0.009682412 0.19171357 -0.11163464 -0.012048341 -0.26440197 -0.029946553 0.09724235
-0.23883307 0.16072899 -0.18612239 -0.18536167 -0.27937618 -0.035588033 -0.070013694 -0.08194868
-0.09429982 -0.14643012 -0.20544401 -0.11985775 -0.10582686 0.07160672 -0.041314222 -0.24212992
0.095454596 0.04918007 -0.09974221 -0.24239819 -0.4395236 -0.07459215 -0.005511071 -0.29680684
00000000: 949e c4bd 866b 6fbd 3e10 aabd 0ed0 0cbe
00000010: c709 14bd f7ea fe3c e6d9 70bd 861c 4d3d
00000020: c4b6 8cbe 3933 c73d a74e d7bd 6469 ffbd
00000030: ffb6 13bd 26c4 b53d ad41 513d 3bb7 d6bb
00000040: fc86 82bd a568 01be 8595 72bd a395 123d
00000050: 1744 21bd b11e 83bc 2100 883c 0c8d 60bd
00000060: 531e 06bc c317 20be a0b0 06be 8f5f b4bd
00000070: e876 02be 1312 56bd a249 8b3b 9165 26bd
00000080: abdf 913c ec31 dc3c e752 f8bc e833 3fbe
00000090: db95 853d 2a8b 85bd 8e80 293e 1e91 05bd
000000a0: df3b b1bd d113 3dbe c792 2fbe 0ee2 dfbd
000000b0: 7647 1bbe dcb7 4dbe 52d7 fbbd 910d cabc
000000c0: 26f4 983c 57cf 063d 80f5 e7b9 c091 fabc
000000d0: 2ff4 ccbc 30dd 86bb ea69 cbbd 6def ce3c
000000e0: 03d8 07be 72b8 323d eeda c9bd f2e2 a2bd
000000f0: d234 48bd 8b11 533d 3db1 553d c87e 50bb
00000100: 5fc8 10bd 49c4 15bd c1e5 d1bd 0114 c63c
00000110: fd3c b5bd 741b cb3d b0d9 6b3c c55a 583d
00000120: e75e abbd 611d 50bd 6ba8 883c ad57 afbd
00000130: 8532 843d 32f1 b23d ae39 abbc 0763 9ebc
00000140: 50e5 aebd 7c0c 93bd 14cc 1abc 49fc 933a
00000150: 5c72 0c3e cdb8 13be 3205 3fbc a7e7 31be
00000160: 4147 aebd b2c6 b3bd f3aa 75bd abae de3c
00000170: a124 4cbd d007 88bc aa46 023e 8b8e 80bd
00000180: b9f6 5b3d 4f1d 27be 928b 9ebd 1474 7cbd
00000190: 97c5 27be 7c40 0abd 273e 85bd 2f89 e53c
000001a0: fe61 f5bd 5059 773d 6ee1 72bd f070 58bd
000001b0: 862f 83bd 6bc7 20bc f0ff 70bd e5a7 f5bd
000001c0: 6c16 09bb 7bb6 bbbd 07d7 8fbb 2e7f 7e3d
000001d0: 3d15 c3bd 7ab2 c4bd abd2 e83a 4076 96bc
000001e0: a058 343d 1c16 a83b 7ad7 ef3a d28e 2abd
000001f0: cede 0ebe 0f10 e33c 7b0c a63d d7c6 ccbd
00000200: 43ae c3bd d5eb 01be c959 27bd 5078 3bbd
00000210: bb67 0ebe 3ede 0c3e e0b4 08be 14a5 f1bb
00000220: 841d a2bd c92b 993b ac64 833d c26b 2e3d
00000230: 1a85 773d 523a ce3d 90b4 d23d 2b86 efbd
00000240: 5c33 58be 281f 11be ed0f 45be ecd9 13be
00000250: dcb2 2fbe b6d5 12be b451 703e e219 2abe
00000260: 5c12 31be 4598 5ebe 1828 e0bd d8ae 1f3e
00000270: f0e5 47be aefc 29bc fed1 853a ca89 223d
00000280: 58de fe3d 7fb0 63bc 9b30 95be aa9f 2abe
00000290: aa4e 563d 7886 33be 388f a43d 8085 babd
000002a0: 1544 58be 5726 81be 95d5 fdbd 7e97 7cbd
000002b0: 5a46 f9bd 7682 b4bd e263 d3bd f357 abbd
000002c0: 719b 85bd 2302 f63c 4545 a6be 545d 85be
000002d0: 8acf 063e 2525 5dbd 8838 84be ebb7 c13d
000002e0: 44f3 09be 58cb 51be 443c b83d 0307 18be
000002f0: 00c8 4bbd 377f 5abd 7a5c c13d a16f 493d
00000300: 7324 53be f69c 093e 2e1a 5a3d e0a9 33be
00000310: 9fa3 05be b9f2 473e b0f7 9b3c fd54 c23e
00000320: 53ba c6bd 7894 5ebe eb66 093e 6c0e 7fbe
00000330: bd40 a83d e9cf 373e 1fa8 ccbc c9d7 973d
00000340: 22fe 26be 3679 0b3e 295e 16bd 5bea 75bc
00000350: 1f62 3e3c 3622 473d 3425 4d3e 4df0 89ba
00000360: ee3e 44bd b5be 8dbe 8bcf 30bc ec16 69be
00000370: a4c5 b93d 1a55 f53c dbbc 043e 53b4 60bd
00000380: 7af9 153d fba2 1ebc 9050 443e b4a0 e4bd
00000390: 6866 45bc b25f 87be 7952 f5bc ff26 c73d
000003a0: a890 74be 2496 243e de96 3ebe 73cf 3dbe
000003b0: 650a 8fbe c2c4 11bd 5763 8fbd b6d4 a7bd
000003c0: 4420 c1bd c7f1 15be ea5f 52be fb77 f5bd
000003d0: c1bb d8bd 8ba6 923d 1a39 29bd e8f0 77be
000003e0: b37d c33d 0b71 493d a545 ccbd 3b37 78be
000003f0: 3d09 e1be c5c3 98bd 3796 b4bb 11f7 97be
