project/paper_notebooks/saved_variables/paper_notebooks/7/6/6-looping-iteration-47/final_policy_agent2.pth (torch, 543093 bytes, 16 tensors)

model.model.0.weight f4 [32, 1, 4, 4]
0	0x3e616448	0.2201091
1	0xbe8a87ca	-0.27056724
2	0xbe55b481	-0.20869638
3	0xbe77b190	-0.24188828
4	0xbe2bca7c	-0.1677646
5	0x3dbe94e5	0.09305743
6	0x3e2d25a7	0.16908894
7	0xbd7176f1	-0.058951322
8	0x3e398fa5	0.18121202
9	0xbd3634bd	-0.04448389
10	0xbc8d42c1	-0.017243745
11	0xbdae13f1	-0.08499897
12	0x3e874068	0.26416326
13	0xbc5f24f0	-0.013619646
14	0xbe5ec1ab	-0.21753566
15	0xbde260ba	-0.110536054
16	0xbd05d070	-0.032669485
17	0xbddea558	-0.108713806
18	0xbdc37ad4	-0.09544912
19	0x3d43c07b	0.047790986
20	0xbd5f0e47	-0.054456975
21	0x3d73ef8d	0.059554625
22	0x3e09ee3d	0.13469787
23	0xbe72c311	-0.23707224
24	0xbe4e1159	-0.20123805
25	0xbd0d1105	-0.03444006
26	0x3e63f0d2	0.22259834
27	0xbe56d041	-0.2097788
28	0xbdd606f8	-0.10450548
29	0x3e23dc10	0.16001916
30	0x3d7567e9	0.05991355
31	0xbe643d22	-0.22288945
32	0xbd980b1e	-0.074239954
33	0x3d1971b0	0.037461936
34	0xbe3956ff	-0.18099593
35	0xbe35d97c	-0.17758745
36	0x3e298ab8	0.16556823
37	0xbd98b7bc	-0.074569196
38	0xbe046ecb	-0.12932889
39	0x3d9138de	0.07090925
40	0x3e39caf9	0.18143834
41	0xbde9894c	-0.114031404
42	0xbd644c6c	-0.055736944
43	0xbd01aae3	-0.03165711
44	0x3e87445b	0.2641934
45	0x3daabcb3	0.08336773
46	0x3c7ba265	0.015358542
47	0x3e4487b5	0.19192393
48	0xbdf7b8a3	-0.120957635
49	0xbe2036c4	-0.15645891
50	0x3e1be5c5	0.15224369
51	0xbc5f81b6	-0.013641765
52	0x3e050e6b	0.12993781
53	0xbbf60fab	-0.007509192
54	0xbea78bb1	-0.32723764
55	0x3e4c241b	0.19935648
56	0x3cbae636	0.022814851
57	0x3e65c10f	0.22436927
58	0xbe4fe961	-0.2030387
59	0xbe2b5742	-0.16732505
60	0xbc883a0d	-0.016629243
61	0x3d2dcc54	0.04243119
62	0xbdf041e9	-0.11731321
63	0x3e134687	0.14382373
64	0x3d86b4e1	0.06577469
65	0x3de4c004	0.111694366
66	0x3e2e5fe8	0.17028773
67	0x3e477463	0.19477992
68	0xbe060ac6	-0.13090047
69	0x3d123816	0.03569802
70	0x3c074792	0.00825681
71	0x3d345a45	0.0440314
72	0x3ccb548f	0.024820594
73	0x3e235443	0.15950112
74	0x3daaf758	0.08347958
75	0xbe0477a8	-0.1293627
76	0xbdbe5838	-0.0929417
77	0x3cfb4ad2	0.030675326
78	0xbb3ed788	-0.0029120166
79	0x3e2b3b5a	0.1672186
80	0xbd6d1101	-0.057877544
81	0xbe3cee42	-0.18450263
82	0x3d90c16f	0.070681445
83	0xbe34f6bc	-0.17672247
84	0x3c1f0e45	0.009707992
85	0x3ddcee0d	0.10787592
86	0x3e8c1088	0.27356362
87	0xbe631e34	-0.2217949
88	0xbe40c7e9	-0.1882626
89	0x3d81bea4	0.0633519
90	0xbea5f168	-0.3241074
91	0x3e779272	0.24176958
92	0xbd5eab88	-0.054362804
93	0xbd85ddbd	-0.06536434
94	0xbdbc3056	-0.09188907
95	0xbe2da3b7	-0.16956984
96	0xbe6a3b24	-0.22874123
97	0x3e8f4617	0.27983162
98	0x3c9a3715	0.018825093
99	0x3c2bb07f	0.010479092
100	0xbe82e4bf	-0.25565144
101	0x3da76d7c	0.08175179
102	0x3c062a09	0.008188733
103	0xbdf19225	-0.11795453
104	0xbce2ff8e	-0.027709749
105	0x3d856e74	0.06515208
106	0xbd97b531	-0.074076064
107	0xbd76565a	-0.060140945
108	0xbe5c4889	-0.21512045
109	0xbe548203	-0.2075272
110	0xbd8eaf96	-0.06967084
111	0xbdc615b7	-0.096721105
112	0x3d998887	0.07496744
113	0xbe382fa7	-0.17986928
114	0x3e956879	0.2918127
115	0xbde8f8b8	-0.11375564
116	0xbd095c65	-0.03353538
117	0x3c68e661	0.014215083
118	0xbd0c597f	-0.034265038
119	0x3e24b389	0.16084112
120	0xbd9ee0dd	-0.07757733
121	0xbe04bfd9	-0.12963809
122	0x3e019d56	0.12657675
123	0xbe779755	-0.24178822
124	0x3d66a600	0.056310654
125	0xbd254342	-0.040347345
126	0xbd8fcc8e	-0.070214376
127	0x3e3c6bf6	0.18400559
128	0x3e9d4954	0.30720007
129	0x3d8e29da	0.06941576
130	0x3e0cc0d5	0.13745435
131	0x3e1749d6	0.1477426
132	0xbdb54722	-0.08851458
133	0xbc2fc600	-0.010728359
134	0x3e36145a	0.17781201
135	0xbe867469	-0.2626069
136	0x3e74446a	0.23854223
137	0x3d8cec03	0.06880953
138	0xbe686e4f	-0.2269833
139	0xbe583f9d	-0.21118017
140	0x3de0d59f	0.10978245
141	0xbda32168	-0.07965356
142	0xbdb756f7	-0.08952134
143	0xbe31b8c6	-0.17355642
144	0x3c094cac	0.008380096
145	0xbe845c49	-0.25851658
146	0x3dcfadc5	0.10140566
147	0xbe4e780f	-0.20162986
148	0xbd933366	-0.07187538
149	0xbddefab4	-0.108876616
150	0x3e56ae34	0.2096489
151	0x3df7a093	0.12091174
152	0xbe7eb3a9	-0.24873222
153	0x3e220054	0.15820438
154	0x3d8b489a	0.06800957
155	0xbe33f0b0	-0.17572284
156	0xbdafb2dd	-0.08579037
157	0xbe0ba6db	-0.13637869
158	0x3e280788	0.16409123
159	0x3df377cc	0.11888084
160	0x3ce991fc	0.028511994
161	0xbde95183	-0.113925
162	0xbe801bab	-0.2502111
163	0x3e3a38da	0.1818575
164	0xbe85fcad	-0.2616934
165	0xbddd9c2b	-0.10820802
166	0x3e305e55	0.17223485
167	0x3e140e05	0.14458473
168	0xbd62aa5f	-0.05533826
169	0x3db7f30a	0.08981903
170	0x3e1af75c	0.15133423
171	0xbcf84f52	-0.03031126
172	0x3e89f4b0	0.26944494
173	0xbe1f8404	-0.15577704
174	0x3e03eb96	0.12882838
175	0x3e236b29	0.15958847
176	0xbc88b6af	-0.016688673
177	0x3ddbde78	0.10735792
178	0x3dd4766d	0.103741504
179	0xbe4c54c2	-0.19954208
180	0xbe72b656	-0.23702368
181	0x3de7aceb	0.11312278
182	0x3dbf253d	0.093332745
183	0x3e2ac3f6	0.16676316
184	0xbe4ae696	-0.19814524
185	0x3e678aff	0.22611617
186	0xbd5607d1	-0.052253548
187	0x3e63691b	0.22208063
188	0x3dcec27e	0.1009569
189	0xbd8d96a3	-0.06913497
190	0xbba6073f	-0.005066782
191	0x3e51c42d	0.20484991
192	0xbe3fa7e2	-0.18716386
193	0x3de9f614	0.11423889
194	0xbd60c197	-0.05487212
195	0x3c9abe60	0.018889606
196	0xbe88d2b5	-0.26723257
197	0x3ccfa66c	0.02534791
198	0x3e4bc6c6	0.19900045
199	0xbdfce6fe	-0.12348746
200	0xbe2a6fc4	-0.16644198
201	0xbdb506dd	-0.088392
202	0xbd82060c	-0.063488096
203	0xbe3548fe	-0.17703626
204	0x3e638196	0.22217402
205	0x3e1e1e73	0.15441303
206	0x3d757475	0.059925515
207	0x3e5af7ca	0.21383587
208	0xbbe07018	-0.0068493
209	0xbceada38	-0.028668508
210	0xbdda5c9d	-0.10662196
211	0xbaf0e348	-0.0018378282
212	0x3dc3aaab	0.09554037
213	0x3e2d9f6b	0.16955344
214	0xbde06620	-0.10956979
215	0xbdd69a75	-0.10478679
216	0xbe5578f3	-0.2084692
217	0xbdd6f373	-0.10495653
218	0x3e93474b	0.2876533
219	0xbe26adfa	-0.16277304
220	0x3db3b1f4	0.08774176
221	0xbe4b4157	-0.19849144
222	0xbe0c5803	-0.13705449
223	0xbe00d835	-0.12582476
224	0x3e0f01ee	0.1396558
225	0x3dc79fd6	0.09747283
226	0x3d8cd9ad	0.06877456
227	0x3dd970e9	0.10617239
228	0x3e4931c6	0.19647893
229	0x3e34abcd	0.17643662
230	0xbdf3a9b0	-0.118976
231	0x3e5b67d9	0.21426333
232	0xbe2d0d28	-0.1689955
233	0xbe93623f	-0.28785893
234	0x3e0c7751	0.1371739
235	0xbe677f4f	-0.22607158
236	0xbe3b8322	-0.18311742
237	0xbe2b827e	-0.16748998
238	0xbdad507a	-0.08462615
239	0xbe55a31c	-0.20863003
240	0xbe7f4f58	-0.24932611
241	0xbc705022	-0.014667543
242	0x3d85f28f	0.06540405
243	0x3e76e110	0.24109292
244	0xbe423d76	-0.18968758
245	0x3e3228b4	0.1739834
246	0x3cdc7b2c	0.026914202
247	0xbea02eef	-0.31285807
248	0x3c702686	0.014657622
249	0xbe51da80	-0.20493507
250	0x3e648784	0.2231732
251	0xbd418cc6	-0.047253393
252	0xbc9cdd8a	-0.019148607
253	0xbe0b33d5	-0.13593991
254	0x3c04e6d8	0.008111678
255	0xbe538172	-0.20654848

model.model.0.bias f4 [32]
0	0x3dc4b2cb	0.096044146
1	0x3dad7fe3	0.08471658
2	0x3e8884e6	0.26663893
3	0x3e2a6ebb	0.16643803
4	0x3e77fd9b	0.24217837
5	0xbe04a904	-0.129551
6	0xbe1a80c5	-0.15088184
7	0x3d0ab09f	0.033859845
8	0x3e1e12c0	0.1543684
9	0x3e73f160	0.23822546
10	0x3ea13c33	0.3149124
11	0x3da01e49	0.078182764
12	0x3d8709da	0.06593676
13	0xbd880342	-0.066412464
14	0xbe270c43	-0.16313271
15	0xbdb3489d	-0.08754084
16	0x3e0a65ba	0.13515368
17	0x3e890198	0.26759028
18	0x3cc4f49b	0.024042418
19	0xbe53ed98	-0.20696104
20	0x3e65ad8f	0.22429489
21	0xbcfd8623	-0.03094775
22	0x3e846bd6	0.25863522
23	0xbe3d0d6c	-0.18462151
24	0x3e2bfdd8	0.16796052
25	0x3dc7ebf8	0.09761804
26	0x3e36bed6	0.17846236
27	0x3e0bdcd2	0.13658455
28	0x3e93846c	0.28811967
29	0x3b99fc57	0.0046992707
30	0xbe5ebff0	-0.21752906
31	0xbe3ad628	-0.18245757

model.model.4.weight f4 [128, 384]
0	0x3c3348dc	0.010942664
1	0x3dfff38d	0.124976255
2	0x3c181af6	0.009283772
3	0x3d42782c	0.047477886
4	0x3ce1fb17	0.02758555
5	0xbcde27fb	-0.027118674
6	0x3d21eadb	0.039530616
7	0x3b65bdea	0.0035055825
8	0xbe28e5ca	-0.16493908
9	0x3e1d93b9	0.15388383
10	0x3c28c463	0.0103007285
11	0x3cb26556	0.021776836
12	0xbd589400	-0.05287552
13	0x3b6ca43a	0.003610863
14	0x3cbd0549	0.02307381
15	0x3d8cfbea	0.06883986
16	0x3bd04fd8	0.0063571744
17	0xbdac1b27	-0.084036164
18	0x3c8c882e	0.01715478
19	0x3d5a06dd	0.0532292
20	0x3c121f6f	0.008918627
21	0x3d8f2589	0.06989581
22	0xbd4245de	-0.04742991
23	0x3ca7ca70	0.020482272
24	0x3d754810	0.059883177
25	0xbcbef453	-0.023309862
26	0xbd411cae	-0.04714649
27	0xbc297d21	-0.010344774
28	0xbd950ade	-0.072774634
29	0x3db73813	0.08946242
30	0x3ce323b9	0.027726995
31	0x3d3300fd	0.043702114
32	0xbcf28711	-0.02960542
33	0x3dcc9d61	0.09990955
34	0x3ce96dd2	0.02849475
35	0x3c26e793	0.0101870475
36	0x3d0a9678	0.033834904
37	0x3c1abc6e	0.009444339
38	0xbdaae33a	-0.08344121
39	0x3ce0fead	0.027465189
40	0x3d460e0f	0.04835325
41	0xbcfae66e	-0.030627456
42	0x3c8a102e	0.016853418
43	0xbd38837a	-0.04504726
44	0x3d82f9ff	0.06395339
45	0xbd3c2456	-0.04593309
46	0xbd04e299	-0.032442663
47	0x3cdc06ec	0.02685877
48	0x3c90656a	0.017626483
49	0xbd27955a	-0.040913917
50	0xbc9f8cc1	-0.019476296
51	0xb93ff572	-0.00018306615
52	0xbcfd6938	-0.030933961
53	0xbcd4a729	-0.025958614
54	0x3cf55231	0.029946418
55	0xbb2ff031	-0.0026846046
56	0xbcb52e89	-0.022116916
57	0xbc69706c	-0.014247995
58	0xbcc9cffa	-0.024635304
59	0xbd8003a8	-0.062506974
60	0x3e62245e	0.22084185
61	0x3ddbed75	0.10738651
62	0x3e37af55	0.17937978
63	0x3c0894d8	0.008336268
64	0x3e123c74	0.14280874
65	0x3b013242	0.0019713794
66	0x3dea93b5	0.11453954
67	0xbd0a7f10	-0.033812582
68	0x3dd684b6	0.10474531
69	0x3d6dbd3d	0.0580418
70	0x3dfa2e51	0.122158654
71	0x3dfd8ce8	0.12380391
72	0x3dab8900	0.0837574
73	0x3d50e87e	0.05100297
74	0x3dd4946e	0.10379873
75	0x3de97859	0.113999076
76	0x3cb36286	0.021897566
77	0xbc4ecb8a	-0.01262177
78	0x3dc57540	0.09641504
79	0x3d948120	0.07251191
80	0x3d479e8c	0.048735186
81	0x3cff38b4	0.031154968
82	0x3c673c9f	0.014113574
83	0x3cc60131	0.02417049
84	0xbcaae40c	-0.020860694
85	0x3c8bd9bd	0.0170716
86	0x3b9cd691	0.0047863205
87	0xbd55a6e9	-0.05216113
88	0xbcaaeb29	-0.020864086
89	0x3b168730	0.0022968762
90	0xbb3f3f74	-0.0029182108
91	0xbd26a1f9	-0.040681813
92	0xbca664a0	-0.020311654
93	0x3c3e0f32	0.0116003025
94	0xbc9c356f	-0.019068448
95	0x3cc9bd35	0.024626354
96	0xbdb2d484	-0.087319404
97	0xba9a7a4c	-0.0011785715
98	0x3bfd1813	0.007723817
99	0x3cc3622e	0.023850527
100	0xbd5c631b	-0.05380545
101	0xbe002f59	-0.12518062
102	0xbdc27787	-0.09495454
103	0xbcd94b8f	-0.026525287
104	0xbdddcca9	-0.108300515
105	0x3d97550b	0.073892675
106	0xbd7ad548	-0.061238557
107	0xbccc856f	-0.02496597
108	0xbbebd8f3	-0.007197493
109	0x3dc40aff	0.0957241
110	0x3c7e9bc8	0.015540071
111	0xbd47d931	-0.048791114
112	0xbc5dd533	-0.0135396
113	0x3d830d38	0.06399006
114	0x3cb8c138	0.022553071
115	0x3c886d07	0.01665355
116	0xbcde6441	-0.027147414
117	0x3d883cf2	0.066522494
118	0x3d486a88	0.04892972
119	0x3d49f949	0.049310002
120	0xbc9c6b1c	-0.019094042
121	0xbc02aa3f	-0.00797516
122	0x3ccf1abf	0.025281308
123	0xbdafe4bd	-0.0858855
124	0x3cde5602	0.027140621
125	0x3d9475ba	0.07249017
126	0xbd2f0794	-0.042731836
127	0xbcdc1573	-0.026865697
128	0x3d316a4e	0.04331427
129	0x3d215de2	0.039396174
130	0x3ce18bc2	0.027532462
131	0xbcafd64b	-0.021464488
132	0x3daaca1f	0.08339333
133	0xbd74d2d6	-0.05977138
134	0xbcdafad1	-0.026730927
135	0xbd096188	-0.03354028
136	0xbd74432f	-0.059634384
137	0xbda356b4	-0.07975522
138	0x3dae8c30	0.085228324
139	0xbd0d879b	-0.03455315
140	0x3d221771	0.039573137
141	0xbd37b0a4	-0.044846192
142	0x3d129649	0.035787854
143	0x3d8f38ba	0.069932416
144	0x3c921acf	0.017835049
145	0xbd6e9271	-0.058245126
146	0x3d00728c	0.03135924
147	0xbc7cd8a9	-0.015432515
148	0x3d3776fa	0.0447912
149	0x3b23ad5e	0.002497516
150	0x3d7acd6c	0.06123106
151	0x3d60f49d	0.05492078
152	0x3cbd0635	0.023074249
153	0x3c0ea60f	0.008706584
154	0xbd00d656	-0.031454407
155	0x3d34752e	0.044057064
156	0x3e18053b	0.14845745
157	0x3c6c53e0	0.014424294
158	0xbc9a6ec9	-0.018851655
159	0x3c9d37d5	0.019191662
160	0x3e0fa91a	0.14029351
161	0xbd8a1a63	-0.06743314
162	0x3dcdc72a	0.10047753
163	0x3dbd8194	0.09253231
164	0xbd7b5baf	-0.061366733
165	0x3dc2905a	0.09500189
166	0x3c0bf0ec	0.008541327
167	0x3d9fa0ec	0.07794365
168	0xbdb5d48f	-0.08878433
169	0xbd7339be	-0.05938124
170	0x3c8f7b3b	0.017514816
171	0xbcab1500	-0.020884037
172	0xbd43b5d0	-0.04778081
173	0x3b166107	0.0022946016
174	0xbd9d4de1	-0.0768087
175	0xbdca0a3c	-0.09865233
176	0xbc50afc0	-0.012737215
177	0xbd159c20	-0.036525846
178	0x3d438334	0.047732547
179	0xbcfbb183	-0.030724293
180	0x3d72cbaf	0.05927628
181	0x3da902bf	0.08252477
182	0x3d68813c	0.056763873
183	0x3dcfbcdd	0.10143445
184	0xbd28a0cf	-0.041168984
185	0x3d736e7a	0.05943153
186	0x3d744568	0.059636503
187	0x3da6ad05	0.081384696
188	0x3b854e31	0.004068159
189	0xbc779084	-0.015110139
190	0xbd6d7732	-0.057975
191	0xbd8a82cc	-0.06763229
192	0x3d178ac9	0.03699759
193	0x3d52e4fc	0.051487908
194	0x3d92bc98	0.07164878
195	0x3cbcd318	0.023049876
196	0xbd82923f	-0.063755505
197	0xbc84fef9	-0.016234862
198	0x3cf27eb3	0.02960143
199	0xbd98fae2	-0.07469727
200	0xbd288420	-0.04114163
201	0x3da564c0	0.08075857
202	0x3ce7e171	0.028305741
203	0xbc5fcbb9	-0.013659411
204	0xbc06665b	-0.008203114
205	0x3e7bba11	0.24582697
206	0x3dd5df1a	0.10442944
207	0xbb9b63e6	-0.0047421334
208	0x3e2a6df4	0.16643506
209	0x3d8c82f1	0.068609126
210	0x3d003376	0.031299077
211	0x3d0a2ede	0.033736102
212	0x3d851178	0.064974725
213	0x3de03a5c	0.10948631
214	0xbbb5d8e1	-0.0055495356
215	0xbd9c4b8e	-0.076315984
216	0x3da76165	0.081728734
217	0x3d828b6e	0.0637425
218	0x3d138eb0	0.03602475
219	0x3cf9c150	0.030487686
220	0x3ca706a2	0.020388905
221	0x3cf239c2	0.029568557
222	0x3a7b0597	0.0009575723
223	0xbd290931	-0.04126853
224	0xbcfd586e	-0.030925956
225	0xbd8dc9dc	-0.06923267
226	0xbdae10dd	-0.0849931
227	0xbcd60f13	-0.026130235
228	0xbd779168	-0.060441405
229	0x3a535bd0	0.00080626924
230	0xbce6c4c5	-0.028169999
231	0xbdbe4baf	-0.09291779
232	0x3dd77df8	0.105220735
233	0xbcd90c97	-0.026495261
234	0x3ce54f5e	0.027991947
235	0xbda6b8bc	-0.08140704
236	0x3c4ac842	0.012376847
237	0x3d4c2028	0.049835354
238	0x3c864441	0.016389968
239	0xbdcd57ef	-0.100265376
240	0x3d45d572	0.04829926
241	0x3d6981f1	0.057008687
242	0x3d5304a6	0.051518105
243	0x3dcc9067	0.0998848
244	0x3d15a32d	0.03653257
245	0x3b776ff1	0.0037755931
246	0x3cd149d9	0.025547909
247	0xbd83de07	-0.06438833
248	0xbd9e5dd6	-0.077327415
249	0xbd804354	-0.06262842
250	0xbd7b49c2	-0.061349638
251	0xbd296d60	-0.041364074
252	0x3de3dfb6	0.11126654
253	0x3dfe89f0	0.12428653
254	0xbd9f1907	-0.077684455
255	0x3d8ca80d	0.06867991

model.model.4.bias f4 [128]
0	0x3cbed0ba	0.023292888
1	0x3c9a5063	0.01883716
2	0x3daa57ea	0.083175495
3	0x3ccebb7c	0.025235884
4	0x3b6e99ea	0.0036407658
5	0xbca4d61c	-0.020121627
6	0x3d78da8e	0.060755305
7	0x3bb10257	0.0054018903
8	0x3d678758	0.05652556
9	0x3d3be95b	0.045876842
10	0x3d5b1e54	0.05349572
11	0x3c8d79fc	0.01727008
12	0xbc9fa8ed	-0.01948973
13	0x3d53d186	0.05171349
14	0x3d84e578	0.0648908
15	0x3d1dc61c	0.03851901
16	0x3cacaf40	0.02107966
17	0x3d510c24	0.05103697
18	0x3d6cb773	0.05779214
19	0x3b99243d	0.0046735094
20	0xba81d56a	-0.0009905521
21	0x3b7d1b1a	0.003862089
22	0x3d8901f1	0.066898234
23	0xbd397bb9	-0.045284007
24	0xbbf78598	-0.0075537674
25	0x3de47070	0.11154258
26	0x3cb89cea	0.02253576
27	0x3d5493f0	0.051898897
28	0x3d23a80c	0.039955184
29	0x3d67be34	0.056577876
30	0xbc894aa9	-0.016759234
31	0xbcaa629e	-0.020798977
32	0x3cbf49bc	0.023350589
33	0xbd68926d	-0.056780268
34	0xbcef0ad3	-0.029179966
35	0xbaaf8a2d	-0.001339262
36	0x3dd3f148	0.10348755
37	0xbc02ecd8	-0.007991038
38	0x3d2f14ff	0.042744633
39	0x3d74bac2	0.05974842
40	0x3b3d416f	0.0028878113
41	0xbd2e2f2d	-0.04252546
42	0xbc285cda	-0.010276044
43	0x3d8280fe	0.063722596
44	0x3d6bd3a6	0.05757489
45	0x3ce804b4	0.028322555
46	0x3d4faeb7	0.05070373
47	0x3d602dfa	0.054731347
48	0x3c14acc0	0.00907439
49	0x3da80855	0.08204714
50	0x3cc41142	0.02393401
51	0x3d58891a	0.052865125
52	0xba426fb5	-0.00074171583
53	0x3cddee95	0.027091304
54	0x3d6ed218	0.05830583
55	0x3c4cf587	0.01250971
56	0x3d42b11d	0.04753219
57	0x3cc1a8d7	0.02364008
58	0x3d170e83	0.036879074
59	0x3d14f378	0.036365002
60	0x3d0c7f09	0.034300838
61	0xbc155fb1	-0.009117053
62	0x3d0576f1	0.032584134
63	0x3d495a8c	0.049158618
64	0x3b270d27	0.0025490017
65	0x3d8bc558	0.0682475
66	0x3c2ab66a	0.010419467
67	0xbcad526c	-0.021157466
68	0x3d716b48	0.058940202
69	0xbd047622	-0.032339223
70	0xbd980338	-0.07422489
71	0x3d421b13	0.0473891
72	0x3d837300	0.06418419
73	0x3c9a91be	0.018868323
74	0x3d8b99fb	0.06816479
75	0xbd3a5064	-0.045486823
76	0x3d912544	0.07087186
77	0x3c4b959b	0.012425805
78	0x3cb7d1c4	0.022438891
79	0x3d0bb52b	0.034108322
80	0x3cfe2aec	0.031026326
81	0x3d788ed5	0.06068309
82	0xbb23cf4b	-0.0024995382
83	0xbcd4fc9a	-0.025999356
84	0xbc01b67b	-0.007917042
85	0x3d8b5437	0.06803172
86	0x3d14636e	0.036227636
87	0x3dade704	0.08491328
88	0xbce2895c	-0.027653389
89	0x3c2cc57f	0.010545134
90	0x3d23263f	0.039831396
91	0xb9fc327d	-0.00048102802
92	0xbd7d0802	-0.061775215
93	0x3cadb32d	0.021203602
94	0x3d19ae2b	0.037519615
95	0x3d03f865	0.03221931
96	0xbc0fa61e	-0.008767633
97	0x3c43cd44	0.011950795
98	0x3c791494	0.01520266
99	0xbcaf22f5	-0.021378973
100	0x3d8d1a8b	0.06889828
101	0x3d0f135a	0.034930564
102	0x3d8ca002	0.068664566
103	0x3d3c30d6	0.04594501
104	0xbc6de798	-0.014520548
105	0x3d104864	0.035225287
106	0xbc1d4d1b	-0.009600903
107	0x3d1bdd4e	0.03805285
108	0x3d9f4399	0.07776565
109	0xbce6cc4f	-0.028173594
110	0x3d4b24b5	0.049595553
111	0x3d98059f	0.07422947
112	0x3d658a71	0.05604023
113	0x3d86198a	0.0654784
114	0xbcfa219a	-0.0305336
115	0xbd671d0d	-0.05642419
116	0x3d571706	0.05251219
117	0xbbf005af	-0.0073248963
118	0xbc3c8dd5	-0.011508425
119	0x3bfdcec0	0.007745594
120	0x3bbe6351	0.0058101793
121	0xbce2d3d2	-0.027688894
122	0x3d296a72	0.04136128
123	0xbaaba36a	-0.0013094966
124	0xbc5cbd2f	-0.013472839
125	0x3d8d4eff	0.06899833
126	0x3d59f25e	0.053209655
127	0x3d56232d	0.05227964

model.model.6.weight f4 [128, 128]
0	0x3d869551	0.065714486
1	0xbd5190d8	-0.051163524
2	0xbd5e2df1	-0.054243032
3	0xbd9f3851	-0.077744134
4	0x3d5edcca	0.05440978
5	0xbd88c181	-0.06677533
6	0xbd88a422	-0.06671931
7	0xbd610b4e	-0.05494242
8	0x3d628301	0.055300716
9	0x3d993dce	0.074824914
10	0x3d530f72	0.0515284
11	0xbd21f60e	-0.039541297
12	0xbd97f954	-0.074206024
13	0x3c97a683	0.018512016
14	0x3cd997ca	0.026561636
15	0x3d1e139e	0.038592927
16	0x3c9761bf	0.018479226
17	0x3d4b08e1	0.049569014
18	0xbb59b2d4	-0.0033218162
19	0xbd58c618	-0.052923292
20	0xbda7e565	-0.081980504
21	0x3c8adcf5	0.016951064
22	0xbd203ad1	-0.03911859
23	0xbb170ea0	-0.0023049489
24	0xbd54e713	-0.051978182
25	0x3d168a02	0.03675271
26	0x3d73e056	0.059540115
27	0x3d0f3f4d	0.034972478
28	0x3d0826fd	0.033240307
29	0xbc8c8c18	-0.017156646
30	0xbd2b0e63	-0.041761767
31	0xbd96c090	-0.07360947
32	0xbd9613e3	-0.07328012
33	0xbb84e729	-0.0040558768
34	0xbd92cde8	-0.0716818
35	0xbcb619e9	-0.022229152
36	0xbc78f904	-0.015196089
37	0x3b615ad1	0.0034386406
38	0xbd3db5e5	-0.046316046
39	0x3d9a0b21	0.07521654
40	0x3ca946e5	0.020663688
41	0xbd48d3e8	-0.049030215
42	0xbd138860	-0.03601873
43	0x3d5c9d8f	0.053861197
44	0x3da4727c	0.08029649
45	0xbd19c37a	-0.037539937
46	0xbd30226b	-0.043001574
47	0xbb8491f4	-0.0040457193
48	0x3afe9580	0.0019423217
49	0xbbe4953b	-0.0069757975
50	0xbd6cc227	-0.057802346
51	0x3d2be32e	0.041964702
52	0x3d612ea8	0.054976135
53	0xbb8e3177	-0.0043393928
54	0xbd427f1a	-0.047484495
55	0x3dae497e	0.08510111
56	0xbd70e8e7	-0.058815863
57	0xbcdf4b39	-0.027257549
58	0x3d07b12d	0.033127952
59	0xbc16e6ba	-0.009210283
60	0xbd738d1d	-0.059460748
61	0xbd8feac1	-0.07027198
62	0xbdaf6bc2	-0.08565475
63	0xbd999bd5	-0.07500426
64	0xbd187c1f	-0.037227746
65	0xbd123f6f	-0.035705026
66	0xbd020b1a	-0.03174887
67	0xbda747a2	-0.0816796
68	0xbbffd081	-0.007806838
69	0xbda9230c	-0.08258638
70	0x3d09ca11	0.03363997
71	0xbd05dcc2	-0.032681234
72	0xbd9d0d0c	-0.07668504
73	0xbd40b70d	-0.04704957
74	0x3dab02b6	0.083501264
75	0x3d6435b2	0.05571527
76	0x3d4b30e2	0.049607165
77	0xbd95e466	-0.07318954
78	0x3d8a9f78	0.067686975
79	0xbd3a0f5e	-0.04542481
80	0x3da8e86d	0.08247457
81	0x3d8b68ac	0.06807074
82	0x3dac8adc	0.08424923
83	0xbcc014d4	-0.023447432
84	0xbc9d576c	-0.019206725
85	0xbd9aa199	-0.075503536
86	0x3d71b2cd	0.05900841
87	0x3d43ea39	0.047830794
88	0xbcc2959e	-0.023752984
89	0xbd97079e	-0.073745
90	0x3d682910	0.056679785
91	0xbce1c777	-0.027560933
92	0x3da38b3f	0.079855435
93	0x3da98465	0.082772054
94	0xbc074d4a	-0.008258173
95	0xbd12753b	-0.03575633
96	0xbd2f452d	-0.04279058
97	0xbd5a86f4	-0.053351358
98	0x3d6c0eef	0.05763143
99	0x3d5598d4	0.0521477
100	0xba91c360	-0.0011120848
101	0xbd96896a	-0.073504284
102	0x3d5a450e	0.053288512
103	0x3d09f6f9	0.033682797
104	0x3d8ac5d5	0.06776015
105	0x3d3fd146	0.046830438
106	0x3c629a34	0.01383071
107	0x3b821ff1	0.003971093
108	0xbcbfd7ea	-0.023418386
109	0x3c453e00	0.012038708
110	0xbd05a857	-0.032631245
111	0xbc90750b	-0.017633935
112	0xbced9e35	-0.029006103
113	0xbd196f7c	-0.037459835
114	0xbd88b6c9	-0.066754885
115	0x3d79fcd3	0.061032128
116	0x3d423920	0.04741776
117	0x3d17a8c6	0.03702619
118	0x3cdb9d39	0.026808368
119	0x3c4eca7d	0.012621519
120	0x3c9a0323	0.018800324
121	0xbd9eae10	-0.077480435
122	0x3c5f2cfa	0.013621563
123	0xbdaa09e6	-0.08302669
124	0x3b1a8525	0.0023577895
125	0xbb3320d3	-0.0027332797
126	0x3d8f4aed	0.06996713
127	0xbd8d2828	-0.06892425
128	0x3c94d3fd	0.01816749
129	0x3c6054c7	0.0136920875
130	0xbdc1d117	-0.09463709
131	0xbd9c1406	-0.07621007
132	0xbd95e8af	-0.073197715
133	0xbd6456b4	-0.05574675
134	0xbcaed29e	-0.021340664
135	0x3d1bd68b	0.0380464
136	0xbdbec95d	-0.09315751
137	0xbd6e9ffe	-0.05825805
138	0x3b77b039	0.0037794246
139	0xbd2846a3	-0.04108299
140	0xbd9a3575	-0.07529727
141	0x3d908f73	0.07058611
142	0x3c060807	0.008180625
143	0xbd860c2d	-0.06545291
144	0xbd2abb79	-0.041682694
145	0xbd976e53	-0.073940895
146	0x3cf88195	0.030335227
147	0xbd92523e	-0.07144593
148	0xbdbb46c0	-0.09144354
149	0x3d7064cc	0.058689877
150	0xbd2b3433	-0.041797828
151	0xbd6d556f	-0.057942804
152	0x3cdada00	0.026715279
153	0xbcf3e91b	-0.02977424
154	0xbd80f2e0	-0.06296325
155	0xbd5efd7d	-0.054440964
156	0x3c5948c0	0.013261974
157	0xbd8cd6ba	-0.06876893
158	0xbc20df6f	-0.009818896
159	0xbdae611d	-0.08514617
160	0xbdbc238f	-0.0918647
161	0xbbe66cac	-0.0070319977
162	0xbce18192	-0.027527604
163	0x3d009c25	0.03139891
164	0x3d972ced	0.07381616
165	0x3d65d417	0.056110468
166	0xbcc70e4f	-0.024298815
167	0x3d9a2297	0.07526129
168	0xbd58141a	-0.052753545
169	0x3d676588	0.056493312
170	0xbd136be1	-0.035991553
171	0x3d8d7935	0.06907884
172	0x3caf7f64	0.02142305
173	0x3d607091	0.05479485
174	0xbd6229d7	-0.055215683
175	0x3d9cd03d	0.07656906
176	0x3d3eca6a	0.046579756
177	0xbdb4c8b7	-0.08827346
178	0x3d5334cb	0.05156402
179	0x3cd40f96	0.025886338
180	0x3a4148ec	0.0007373232
181	0xbd4af0fd	-0.04954623
182	0xbda2e507	-0.0795384
183	0x3da68b31	0.081320174
184	0x3d31b1f4	0.0433826
185	0x3d49b6d2	0.049246617
186	0x3d3b6946	0.045754693
187	0x3bcbec80	0.0062232614
188	0x3d860428	0.065437615
189	0xbcb0b1df	-0.02156919
190	0x3a578979	0.0008222084
191	0x3d929bdb	0.07158633
192	0x3d18bcb2	0.03728933
193	0x3d48fac0	0.04906726
194	0xbda27158	-0.07931775
195	0xbb3ca182	-0.002878279
196	0xbda661db	-0.08124133
197	0x3c90900c	0.017646812
198	0x3cc60579	0.024172531
199	0xbd1178fb	-0.035515767
200	0x3d7f2683	0.062292587
201	0xbda31489	-0.07962901
202	0x3d9dc03c	0.077026814
203	0x3b92b2a4	0.004476862
204	0x3d3c93e7	0.04603949
205	0xbc37e003	-0.011222842
206	0xbdc36686	-0.09541039
207	0xbce1a88a	-0.027546186
208	0xbc4e7f94	-0.012603659
209	0x3c9e00e8	0.019287542
210	0x3d39e966	0.0453886
211	0x3dac343b	0.084084
212	0xbd642f53	-0.055709194
213	0x3d971ea3	0.0737889
214	0x3d61589d	0.05501615
215	0x3d1b868c	0.03797011
216	0xbc0e9306	-0.008702045
217	0x3d5b8b86	0.053599857
218	0xbdb35ead	-0.08758292
219	0x3d83f863	0.064438604
220	0x3bd0cdbb	0.0063721812
221	0xbd0dc220	-0.03460896
222	0xbd8dc2d3	-0.069219254
223	0xbd9eeeb3	-0.07760372
224	0x3cd0f7d4	0.025508799
225	0x3da62c56	0.08113925
226	0x3ab0c9fc	0.001348793
227	0xbd6221ea	-0.055208124
228	0xbdac3502	-0.08408548
229	0x3d9e23ba	0.07721658
230	0xbcd10c91	-0.025518687
231	0xbc251932	-0.010076808
232	0x3d3c9723	0.046042573
233	0xbd54bb13	-0.05193622
234	0xba258025	-0.00063133455
235	0x3d061805	0.03273775
236	0xbca02bd0	-0.019552141
237	0xbd00e43c	-0.03146766
238	0xbd466a66	-0.048441313
239	0x3d44d06a	0.04805032
240	0x3ba5b4dd	0.005056961
241	0xbd160b06	-0.036631607
242	0xbd792514	-0.060826376
243	0x3bd8e65a	0.006619257
244	0x3d9ea7b9	0.07746834
245	0xbdc45b81	-0.095877655
246	0x3b4f917c	0.0031672409
247	0x3d7cde59	0.061735485
248	0x3bd1a757	0.0063981223
249	0x3cc4764c	0.02398219
250	0x3ce4e1e0	0.027939737
251	0x3acb002f	0.0015487726
252	0x3cbec2f5	0.023286322
253	0xbd76baaa	-0.06023661
254	0xbdbbf090	-0.09176743
255	0x3d7dbc2f	0.061947044

model.model.6.bias f4 [128]
0	0xbca7fd85	-0.02050663
1	0x3d923712	0.0713941
2	0xbd4240f2	-0.047425218
3	0x3da02ed0	0.07821429
4	0xbd801449	-0.06253869
5	0xbcd831ed	-0.026390994
6	0x3c90679e	0.017627534
7	0xbb5c72b8	-0.0033637714
8	0x3d365f23	0.044524323
9	0xbdaeeca8	-0.08541232
10	0x3d981501	0.07425881
11	0x3d87a2d1	0.06622852
12	0x3dab3587	0.08359819
13	0xbc5d839a	-0.013520146
14	0x3d3a4244	0.045473352
15	0xbd87e95d	-0.066363074
16	0x3e030194	0.12793571
17	0xbd6c5ff1	-0.057708684
18	0xbd97637a	-0.073920205
19	0xbd051ae9	-0.032496367
20	0x3ce28651	0.027651938
21	0x3d854a6c	0.065083355
22	0xbc80e468	-0.015733913
23	0x3dce672c	0.10078272
24	0x3c539293	0.012913364
25	0xbc7ee1df	-0.015556782
26	0xbbe19f62	-0.006885455
27	0x3a829f33	0.0009965658
28	0x3db17014	0.08663955
29	0x3d7bfbfe	0.061519615
30	0xbc94f9b6	-0.018185478
31	0x3df197e1	0.11796547
32	0x3d534598	0.05158004
33	0x3c778f50	0.015109852
34	0xbc664c3b	-0.014056261
35	0x3d2f916a	0.042863287
36	0x3dde8aef	0.10866343
37	0xbd94d002	-0.07266237
38	0x3d4cf990	0.05004269
39	0x3d4e7676	0.050405942
40	0x3c586518	0.013207696
41	0x3c97783a	0.018489946
42	0xbcacfbe4	-0.021116205
43	0x3d958868	0.07301408
44	0xbc8889d8	-0.016667292
45	0xbd877bda	-0.0661542
46	0x3d969c84	0.07354072
47	0x3d0db5b8	0.03459713
48	0x3de2b93d	0.11070488
49	0x3d2a6669	0.041601572
50	0x38b1d833	8.480288e-05
51	0x3d935601	0.07194138
52	0x3da9b106	0.08285718
53	0x3d8fe695	0.07026402
54	0x3d3bde37	0.045866217
55	0xbca95dd4	-0.020674624
56	0x3da21827	0.07914763
57	0x3d1e708a	0.038681544
58	0x3d26271e	0.04056465
59	0x3d6e0c4e	0.058117203
60	0x3d1ea9ec	0.03873627
61	0x3d7024b6	0.05862876
62	0xbd68978d	-0.056785155
63	0x3d106bba	0.035258986
64	0x3dfcec02	0.123497024
65	0x3d48fdc2	0.049070127
66	0x3d2e5df2	0.042570062
67	0xbd8db508	-0.069192946
68	0x3de49774	0.111617
69	0x3c98090a	0.018558998
70	0x3dd97e9a	0.106198505
71	0x3d15dc2b	0.03658692
72	0x3d13095f	0.03589761
73	0xbd1a86cb	-0.037726205
74	0xbd35fb3e	-0.044429056
75	0xbd08d79d	-0.03340875
76	0xbd69c8ad	-0.057076145
77	0x3d0ddbe2	0.034633525
78	0x3b0e33ae	0.0021698284
79	0xbd8b0fe2	-0.06790139
80	0x3d82488b	0.06361493
81	0xbd5094ce	-0.05092316
82	0xbd13b278	-0.036058873
83	0xb9335b7f	-0.00017104855
84	0x3d88e119	0.06683559
85	0xbc510a3a	-0.012758786
86	0x3d5a1e1c	0.05325137
87	0x3b1ebb5c	0.0024220562
88	0xbd86e494	-0.065865666
89	0x3d3778fa	0.044793107
90	0x3d8a6005	0.067565955
91	0x3dfae482	0.12250616
92	0x3beea71f	0.007283106
93	0x3d97f113	0.07419028
94	0x3d70f19d	0.05882417
95	0xb9d0a93e	-0.00039798947
96	0x3da6b21d	0.08139441
97	0x3cb8b612	0.022547755
98	0xbcfd5159	-0.030922579
99	0x3d45e803	0.048316967
100	0x3d75a865	0.059975047
101	0xbd188b36	-0.037242137
102	0xbd8e4f57	-0.069487266
103	0x3e10b5e8	0.14131892
104	0xbd7d0d20	-0.061780095
105	0x3d277916	0.04088696
106	0xbc6ca357	-0.01444324
107	0xbc1d8596	-0.009614369
108	0x3d601705	0.054709453
109	0xbc97a0e4	-0.018509336
110	0xbca3f205	-0.020012865
111	0x3dc4ed2f	0.09615552
112	0xbc22c47c	-0.009934541
113	0x3d2f9fba	0.042876936
114	0x3d20de3d	0.039274443
115	0x3de2d538	0.110758245
116	0xbce273fd	-0.027643198
117	0x3d84c39e	0.064826235
118	0xbd53711b	-0.051621538
119	0xbd9c25d4	-0.07624403
120	0x3d5ad364	0.053424254
121	0x3d846ee2	0.06466462
122	0xbd917711	-0.07102788
123	0x3db9155e	0.090372786
124	0xbd4bed87	-0.04978707
125	0x3dce48bd	0.100724675
126	0x3c97d0c9	0.018532174
127	0x3d8cc593	0.06873622

model.model.8.weight f4 [7, 128]
0	0xbcd92db9	-0.02651106
1	0xbba07dfd	-0.0048978315
2	0xbcba7d9d	-0.022764975
3	0x3c9c17d7	0.019054336
4	0x3caad502	0.020853523
5	0xbcd61c08	-0.026136413
6	0x3db6435b	0.08899566
7	0x3d91651e	0.07099365
8	0x39517217	0.00019974295
9	0x3da10284	0.07861808
10	0xbcf49a56	-0.02985875
11	0x3cb452e5	0.022012183
12	0xbcad5f42	-0.021163587
13	0xbcccd13c	-0.025002114
14	0x3c1c2ee0	0.00953266
15	0x3da42591	0.08014978
16	0x3dd0ac7f	0.10189151
17	0xbc1a3cbe	-0.009413896
18	0xb9301a00	-0.00016794354
19	0x3db01020	0.085968256
20	0x3d23b64f	0.039968785
21	0x3da51369	0.08060343
22	0xbd5f2f00	-0.054488182
23	0xbcaba354	-0.020951904
24	0x3d122068	0.035675436
25	0x3d9de306	0.07709317
26	0xbbe1b610	-0.0068881586
27	0x3de6e557	0.11274212
28	0x3dbe97af	0.09306275
29	0x3c2deaaf	0.010615035
30	0xbd838dca	-0.064235285
31	0x3dae2de6	0.08504848
32	0x3dbfb44e	0.09360562
33	0x3d9d01eb	0.076663814
34	0x3c1a0280	0.00940001
35	0xbc911a78	-0.017712817
36	0x3c1cf686	0.00958026
37	0x3cb26ef2	0.021781418
38	0xbcda4e75	-0.02664874
39	0x3cb3bb24	0.021939822
40	0xbc8e8c22	-0.017400805
41	0xbdaad121	-0.083406694
42	0xbc5b9642	-0.0134025235
43	0x3c267295	0.010159154
44	0x3d4bead7	0.049784508
45	0xbd02d143	-0.03193785
46	0x3b4fd8e7	0.0031714977
47	0x39daf7ce	0.0004176483
48	0xbaf7af25	-0.0018896802
49	0x3d992f54	0.0747973
50	0xbd722d48	-0.059125215
51	0x3c9f436c	0.019441329
52	0xbcef723e	-0.02922928
53	0x3c8a5280	0.016885042
54	0x3c95b620	0.01827532
55	0xbc5d4493	-0.013505119
56	0x3da57725	0.08079366
57	0x3ddc836c	0.10767254
58	0x3dc2df4f	0.09515249
59	0x3d82ba95	0.06383244
60	0xbbf77f73	-0.007553035
61	0xbd3ec2bc	-0.046572432
62	0x3d50ed9b	0.05100785
63	0x3d70505d	0.05867039
64	0x3c281af5	0.010260333
65	0x3d908e4a	0.070583895
66	0x3bb8d37e	0.005640446
67	0xbd784a1f	-0.060617562
68	0xbbdce113	-0.006740698
69	0x3d1d05fd	0.03833579
70	0x3dd5695b	0.104204856
71	0x3de6aed6	0.11263816
72	0xbd46cdb0	-0.048536003
73	0xbda679aa	-0.08128674
74	0x3d63364e	0.05547171
75	0x3db19a9d	0.08672068
76	0x3d13a739	0.036048148
77	0x3d40234b	0.046908658
78	0xbd8c8802	-0.06861879
79	0x3d18e7c0	0.03733039
80	0x3d74ca3a	0.05976317
81	0xbd8b1312	-0.06790747
82	0x3e044a2c	0.1291892
83	0x3cbce988	0.023060575
84	0xbb46318f	-0.0030241942
85	0x3db18461	0.086678274
86	0xbd3c171e	-0.045920484
87	0x3db6eca6	0.08931856
88	0x3dbef918	0.093248546
89	0xbd4379d0	-0.04772359
90	0xbd855332	-0.06510009
91	0xbd0ca725	-0.03433909
92	0x3cb6c5be	0.022311088
93	0x3cf2f87b	0.0296595
94	0xbb88746d	-0.0041642697
95	0x3c8a47b4	0.016879894
96	0xbd6b4e5b	-0.057447772
97	0xbcf9db4e	-0.03050008
98	0x3d63c834	0.05561085
99	0x3c9df708	0.019282833
100	0x3da0100d	0.078155614
101	0xbb68b675	-0.0035509143
102	0x3c6448a3	0.013933334
103	0xbca7a399	-0.020463752
104	0xbcd73b92	-0.026273523
105	0x3d4bcf23	0.049758088
106	0x3e04e6c6	0.12978658
107	0xbc5b4cf8	-0.01338505
108	0x3d2b4db1	0.04182214
109	0x3cc49f58	0.024001762
110	0x3d16d1fa	0.036821343
111	0x3db9985c	0.09062263
112	0x3d1703dd	0.03686892
113	0x3cd59fff	0.026077269
114	0x3c2251eb	0.009907226
115	0xbd007a00	-0.03136635
116	0x3dcc5889	0.09977824
117	0x3c2a0704	0.010377649
118	0xbda25128	-0.079256356
119	0x3d6f604e	0.058441453
120	0x3d8c467b	0.068493806
121	0xbc8c2550	-0.017107636
122	0x3d921649	0.07133157
123	0xbc53bce0	-0.012923449
124	0x3b597c4d	0.0033185661
125	0x3d819a3e	0.063282475
126	0xbd89455f	-0.067026846
127	0x3d2784a0	0.040897965
128	0xbd820cfb	-0.06350132
129	0xbd927cc2	-0.07152702
130	0x3dcab02b	0.098968826
131	0x3d9feb3e	0.07808541
132	0x3ba619f6	0.0050690128
133	0x3d8884b4	0.06665936
134	0x3df63388	0.120215476
135	0x3a03f9f6	0.00050345005
136	0x3dd46725	0.10371236
137	0x3d8285bf	0.06373166
138	0x3b2e3b75	0.0026585732
139	0x3c8d9d8f	0.017287044
140	0x3df64aaf	0.120259635
141	0x3d759507	0.059956577
142	0x3db1f0f1	0.08688534
143	0xbbfda620	-0.007740751
144	0xbc7d1860	-0.015447706
145	0x3d2a575d	0.041587222
146	0xbc3aed00	-0.011409044
147	0x3de9badc	0.11412594
148	0x3d7f9260	0.062395453
149	0x3d6c5ebd	0.057707537
150	0xbdab94ec	-0.08378014
151	0xbda98ad8	-0.082784355
152	0x3dcf9aea	0.101369694
153	0x3d964170	0.073367
154	0x3c327d4e	0.010894133
155	0x3dbcd604	0.09220508
156	0x3e053ffb	0.13012688
157	0x3dc487e1	0.09596229
158	0x3d9f0bcf	0.07765924
159	0x3c02c4ba	0.007981474
160	0xbcec9777	-0.028880818
161	0xbd73e0ee	-0.05954068
162	0xbd212f68	-0.03935185
163	0xbd9d43e9	-0.076789685
164	0x3d7cab23	0.061686646
165	0x3cea4110	0.028595477
166	0xbd00401d	-0.031311143
167	0xbda90a2d	-0.08253894
168	0xbd079c34	-0.03310795
169	0xbd179ef3	-0.03701682
170	0x3dace8be	0.084428295
171	0x3d93fd0b	0.072259985
172	0x3c7b864e	0.015351845
173	0xbbfa2c55	-0.0076346793
174	0x3d553736	0.052054606
175	0x3da94965	0.08265952
176	0x3ca11b60	0.019666374
177	0xbb03f3a8	-0.0020134244
178	0xbd8c6865	-0.06855849
179	0x3cabeb90	0.020986348
180	0x3c0e456a	0.008683542
181	0xbce519aa	-0.02796634
182	0x3d00aeef	0.03141683
183	0xbc3e6688	-0.011621125
184	0x3e08c0ad	0.1335475
185	0x3db1df83	0.086852096
186	0xbc3d9ece	-0.0115735065
187	0x3d043b6f	0.032283243
188	0xbce7648a	-0.028246183
189	0xbd68f0b8	-0.056870192
190	0xbc78c8da	-0.0151846055
191	0xbcb9befb	-0.022674074
192	0x3dd7b416	0.105323955
193	0x3d746067	0.05966225
194	0x3d8a28ac	0.06746039
195	0xbd89a751	-0.06721366
196	0x3d306be0	0.043071628
197	0x3d845cc5	0.06463007
198	0x3ab914c0	0.0014120564
199	0x3d32f882	0.043694027
200	0x3d0b103a	0.03395102
201	0x3d0dd304	0.03462507
202	0x3d953bd3	0.07286801
203	0x3cd87321	0.026422085
204	0xbc9f63a9	-0.019456701
205	0x3dc8c480	0.098031044
206	0x3ce82380	0.02833724
207	0x3bfac437	0.007652785
208	0x3cae6a7d	0.021291012
209	0xbd8239fa	-0.063587144
210	0x3d14446f	0.036198076
211	0xbd407c07	-0.04699328
212	0x3dafdb8c	0.08586797
213	0xbda183f7	-0.078864984
214	0x3c8b370c	0.016994022
215	0x3dcfcf65	0.10146979
216	0xbcba574b	-0.022746703
217	0xbd4aa90b	-0.04947762
218	0x3d98078b	0.07423314
219	0x3dc7d965	0.097582616
220	0x3cbffe87	0.023436798
221	0x3dd9e76f	0.106398456
222	0x3aafdd28	0.001341735
223	0xbc42fc52	-0.011900978
224	0xbd76457b	-0.060124855
225	0x3db6fca7	0.08934908
226	0xbc5a3d4b	-0.013320277
227	0x3da5db05	0.08098415
228	0x3dfa7292	0.12228884
229	0x3d7cd305	0.06172468
230	0xbda6e1c3	-0.081485294
231	0x3d6cfa8b	0.057856124
232	0x3d4317d2	0.04763014
233	0xbcfdb197	-0.03096847
234	0x3e0ea116	0.13928637
235	0x3d26b2e8	0.040697962
236	0xbcb376f7	-0.021907313
237	0x3d93dc63	0.0721977
238	0x3d5c0ad6	0.05372127
239	0x3e068f18	0.13140523
240	0xbcb37832	-0.0219079
241	0xbd7f636b	-0.06235067
242	0x3d152164	0.036408797
243	0x3df0e896	0.11763112
244	0xbc14ee17	-0.009089968
245	0xbd9f7c5c	-0.077873915
246	0xbd9ac6c3	-0.07557442
247	0x3c0dc910	0.008653894
248	0xbcf2662b	-0.029589733
249	0xbd8321f6	-0.06402962
250	0xbc0efc8f	-0.008727207
251	0xbc64ba07	-0.013960368
252	0xbd82e064	-0.06390455
253	0xbc1392f2	-0.009007202
254	0xbdb161f5	-0.08661262
255	0xbcf53bcb	-0.029935738

model.model.8.bias f4 [7]
0	0x3dd33ff7	0.10314935
1	0x3deccb71	0.11562241
2	0x3e21fa6a	0.15818182
3	0x3ba1071c	0.0049141776
4	0x3dfbc5ff	0.12293624
5	0x3d974ddb	0.073878966
6	0x3cc36e73	0.023856377

model_old.model.0.weight f4 [32, 1, 4, 4]
0	0x3e617335	0.22016604
1	0xbe8a82f8	-0.27053046
2	0xbe55ac37	-0.20866476
3	0xbe7799e4	-0.24179798
4	0xbe2bc3dd	-0.16773935
5	0x3dbe9758	0.0930621
6	0x3e2d1ab6	0.1690472
7	0xbd715e73	-0.058927964
8	0x3e399b23	0.18125586
9	0xbd362531	-0.044469062
10	0xbc8db44e	-0.01729789
11	0xbdadfee3	-0.084958814
12	0x3e874436	0.26419228
13	0xbc5ecc20	-0.013598472
14	0xbe5eecad	-0.21769972
15	0xbde24cf5	-0.11049835
16	0xbd05dd76	-0.032681905
17	0xbddeb65d	-0.10874627
18	0xbdc3443e	-0.095345005
19	0x3d43a9da	0.047769405
20	0xbd5eaf71	-0.054366533
21	0x3d73f1b7	0.05955669
22	0x3e0a04cb	0.13478391
23	0xbe72bddb	-0.23705237
24	0xbe4e0b35	-0.20121463
25	0xbd0d00e3	-0.034424674
26	0x3e640c31	0.22270276
27	0xbe56cd70	-0.20976806
28	0xbdd60895	-0.10450856
29	0x3e23d3b5	0.15998729
30	0x3d75eaf6	0.06003853
31	0xbe643d22	-0.22288945
32	0xbd980477	-0.074227266
33	0x3d198b64	0.03748645
34	0xbe394628	-0.18093169
35	0xbe35b6dc	-0.17745537
36	0x3e299363	0.1656013
37	0xbd98ad79	-0.07454962
38	0xbe045b15	-0.1292537
39	0x3d918415	0.07105271
40	0x3e39df8a	0.1815168
41	0xbde97325	-0.11398915
42	0xbd642eef	-0.055708822
43	0xbd015ba4	-0.031581536
44	0x3e875578	0.26432395
45	0x3daaedae	0.08346115
46	0x3c7bf77b	0.015378828
47	0x3e44800b	0.1918947
48	0xbdf7d41f	-0.12101006
49	0xbe203b42	-0.15647605
50	0x3e1be617	0.15224491
51	0xbc5f3674	-0.0136238225
52	0x3e05056b	0.12990348
53	0xbbf7d538	-0.0075632595
54	0xbea78493	-0.32718334
55	0x3e4c1ca9	0.19932808
56	0x3cbacc41	0.022802474
57	0x3e65b429	0.22432007
58	0xbe4fd741	-0.20296957
59	0xbe2b53bd	-0.16731162
60	0xbc886924	-0.016651697
61	0x3d2daaf2	0.042399354
62	0xbdf04169	-0.11731226
63	0x3e134b8f	0.14384292
64	0x3d868cd5	0.0656983
65	0x3de49cdb	0.1116273
66	0x3e2e5068	0.1702286
67	0x3e476dcc	0.19475478
68	0xbe061b06	-0.13096246
69	0x3d121519	0.03566465
70	0x3c0697ea	0.00821493
71	0x3d33f69b	0.043936353
72	0x3ccae29e	0.024766263
73	0x3e234642	0.1594477
74	0x3daae803	0.08345034
75	0xbe047f74	-0.12939245
76	0xbdbe7807	-0.09300237
77	0x3cfabc34	0.03060732
78	0xbb415325	-0.002949902
79	0x3e2b3132	0.16717985
80	0xbd6ccc8b	-0.057812255
81	0xbe3cf999	-0.18454589
82	0x3d90d4a5	0.07071809
83	0xbe34f6d8	-0.17672288
84	0x3c1ea793	0.0096835075
85	0x3ddcd617	0.10783022
86	0x3e8c14f5	0.2735974
87	0xbe6320e3	-0.22180514
88	0xbe40b59f	-0.18819283
89	0x3d81a12f	0.063295715
90	0xbea5ed63	-0.32407674
91	0x3e778a1d	0.2417378
92	0xbd5e6282	-0.054293163
93	0xbd85fd98	-0.0654251
94	0xbdbc20e0	-0.09185958
95	0xbe2da3b7	-0.16956984
96	0xbe6a2053	-0.22863893
97	0x3e8f4cc8	0.27988267
98	0x3c9a845a	0.018861938
99	0x3c2ba0e5	0.010475372
100	0xbe82e4bf	-0.25565144
101	0x3da78c42	0.08181049
102	0x3c07a4e7	0.008279062
103	0xbdf18a1f	-0.11793923
104	0xbce2ff7d	-0.027709717
105	0x3d858b19	0.065206714
106	0xbd979742	-0.07401897
107	0xbd76565a	-0.060140945
108	0xbe5c4889	-0.21512045
109	0xbe547367	-0.20747148
110	0xbd8e9b3e	-0.06963204
111	0xbdc615b7	-0.096721105
112	0x3d998045	0.074951686
113	0xbe3841b0	-0.17993808
114	0x3e956667	0.2917969
115	0xbde8e40d	-0.11371622
116	0xbd0957e9	-0.033531103
117	0x3c67f815	0.014158268
118	0xbd0c5b3a	-0.034266688
119	0x3e24acf3	0.160816
120	0xbd9ee85f	-0.07759165
121	0xbe04c7d4	-0.12966853
122	0x3e019bc7	0.1265708
123	0xbe779d0f	-0.24181007
124	0x3d6684fa	0.05627916
125	0xbd253a65	-0.040338892
126	0xbd8fdaf3	-0.07024183
127	0x3e3c629e	0.18396994
128	0x3e9d4c2d	0.3072218
129	0x3d8e07d9	0.069350906
130	0x3e0cb50e	0.13740942
131	0x3e173d73	0.14769535
132	0xbdb528b6	-0.088456556
133	0xbc3046af	-0.01075904
134	0x3e360bca	0.17777935
135	0xbe86786d	-0.26263753
136	0x3e7449f3	0.23856334
137	0x3d8cddf5	0.068782724
138	0xbe687505	-0.2270089
139	0xbe584503	-0.21120076
140	0x3de0ccaa	0.109765366
141	0xbda33821	-0.0796969
142	0xbdb76ba7	-0.0895608
143	0xbe31c240	-0.17359257
144	0x3c094e16	0.008380434
145	0xbe845ca9	-0.25851944
146	0x3dcfcc05	0.101463355
147	0xbe4e7552	-0.20161942
148	0xbd9329f4	-0.07185736
149	0xbddeeea0	-0.10885358
150	0x3e56ba4a	0.20969501
151	0x3df7b5f7	0.12095254
152	0xbe7eaef5	-0.24871428
153	0x3e220f53	0.15826158
154	0x3d8b5be4	0.06804636
155	0xbe33e5cb	-0.17568128
156	0xbdaf8e6e	-0.08572088
157	0xbe0b9dc9	-0.13634409
158	0x3e28133c	0.16413587
159	0x3df38c32	0.118919745
160	0x3ce91f25	0.028457234
161	0xbde96c85	-0.113976516
162	0xbe8026ca	-0.25029594
163	0x3e3a39ff	0.18186186
164	0xbe86017f	-0.26173016
165	0xbdddb668	-0.10825807
166	0x3e30499d	0.17215581
167	0x3e14182f	0.1446235
168	0xbd62d90b	-0.05538277
169	0x3db7d9f0	0.08977115
170	0x3e1ae4b1	0.15126301
171	0xbcf807bd	-0.030277127
172	0x3e89f22c	0.26942575
173	0xbe1f7a21	-0.15573932
174	0x3e03c7b3	0.12869148
175	0x3e237a7f	0.15964697
176	0xbc88e606	-0.016711246
177	0x3ddbc6ea	0.10731299
178	0x3dd4967e	0.103802666
179	0xbe4c5d75	-0.19957526
180	0xbe72bd09	-0.23704924
181	0x3de7b479	0.11313719
182	0x3dbf37b7	0.09336799
183	0x3e2aaaa3	0.16666655
184	0xbe4ae14e	-0.1981251
185	0x3e678fcc	0.22613448
186	0xbd55ea28	-0.052225262
187	0x3e636276	0.22205529
188	0x3dceeef5	0.10104171
189	0xbd8d921d	-0.069126345
190	0xbba4f9d2	-0.0050346637
191	0x3e51bb8e	0.20481703
192	0xbe3f9f6e	-0.18713161
193	0x3dea10a8	0.11428958
194	0xbd607ff8	-0.05480954
195	0x3c9a5c18	0.018842742
196	0xbe88c1f2	-0.2671047
197	0x3ccfa702	0.02534819
198	0x3e4bd1cc	0.1990425
199	0xbdfcf803	-0.12351992
200	0xbe2a5507	-0.16633998
201	0xbdb50c96	-0.08840291
202	0xbd81ef99	-0.06344528
203	0xbe354b1b	-0.17704432
204	0x3e63a041	0.22229101
205	0x3e1e1ce2	0.15440705
206	0x3d75b750	0.059989274
207	0x3e5af7db	0.21383612
208	0xbbe00059	-0.006835979
209	0xbcea19cd	-0.028576756
210	0xbdda2cbe	-0.10653065
211	0xbaf022d5	-0.0018320928
212	0x3dc3cece	0.09560929
213	0x3e2db534	0.16963655
214	0xbde02178	-0.10943884
215	0xbdd6a1b6	-0.10480063
216	0xbe555d17	-0.20836292
217	0xbdd6e69b	-0.10493203
218	0x3e934dea	0.2877038
219	0xbe26adfa	-0.16277304
220	0x3db3fa43	0.08787968
221	0xbe4b5d75	-0.1985987
222	0xbe0c362e	-0.13692543
223	0xbe00d835	-0.12582476
224	0x3e0f02e9	0.13965954
225	0x3dc789f6	0.09743111
226	0x3d8cd85d	0.068772055
227	0x3dd9615a	0.106142715
228	0x3e493f1a	0.19652978
229	0x3e34a1f8	0.17639911
230	0xbdf39e9d	-0.118954875
231	0x3e5b5fe4	0.21423298
232	0xbe2d088d	-0.16897793
233	0xbe936257	-0.28785965
234	0x3e0c798e	0.13718244
235	0xbe6773f4	-0.22602826
236	0xbe3b7516	-0.18306383
237	0xbe2b8238	-0.16748893
238	0xbdad5450	-0.08463347
239	0xbe55ac41	-0.20866491
240	0xbe7f5181	-0.24933435
241	0xbc6fade1	-0.014628858
242	0x3d8603ac	0.06543669
243	0x3e76e4b1	0.24110676
244	0xbe423b17	-0.18967853
245	0x3e323549	0.17403139
246	0x3cdced26	0.02696855
247	0xbea03158	-0.31287646
248	0x3c6fb648	0.014630862
249	0xbe51cd7f	-0.20488547
250	0x3e649b44	0.22324854
251	0xbd4174fa	-0.0472307
252	0xbc9ce760	-0.019153297
253	0xbe0b2819	-0.13589515
254	0x3c065893	0.008199829
255	0xbe538172	-0.20654848

model_old.model.0.bias f4 [32]
0	0x3dc4db69	0.09612162
1	0x3dad5a23	0.08464458
2	0x3e888bac	0.2666906
3	0x3e2a71cb	0.16644971
4	0x3e77e79c	0.24209446
5	0xbe049fae	-0.12951538
6	0xbe1a71cb	-0.15082471
7	0x3d0a65f0	0.03378862
8	0x3e1e00e6	0.1543003
9	0x3e7400fa	0.23828498
10	0x3ea134f6	0.31485718
11	0x3d9ff9f3	0.07811346
12	0x3d872ac3	0.06599953
13	0xbd87f32d	-0.06638179
14	0xbe270ff1	-0.16314675
15	0xbdb32ed1	-0.08749164
16	0x3e0a56f5	0.13509734
17	0x3e890998	0.26765132
18	0x3cc48a3b	0.023991695
19	0xbe53dffa	-0.20690909
20	0x3e659761	0.22421028
21	0xbcfd116a	-0.030892093
22	0x3e847324	0.25869095
23	0xbe3cfbdd	-0.18455453
24	0x3e2beaa5	0.16788729
25	0x3dc80849	0.09767205
26	0x3e36c26b	0.17847602
27	0x3e0bc940	0.1365099
28	0x3e937b50	0.28805017
29	0x3b9c178c	0.004763549
30	0xbe5ec1e8	-0.21753657
31	0xbe3ada3a	-0.1824731

model_old.model.4.weight f4 [128, 384]
0	0x3c336943	0.010950389
1	0x3dffd054	0.12490907
2	0x3c18ef42	0.009334387
3	0x3d42b2ed	0.04753392
4	0x3ce269a7	0.02763827
5	0xbcddb96b	-0.027065953
6	0x3d2207d6	0.039558254
7	0x3b68d6de	0.0035528461
8	0xbe28d96a	-0.16489187
9	0x3e1da019	0.15393104
10	0x3c298a9c	0.010347988
11	0x3cb2c87a	0.02182411
12	0xbd5890bd	-0.05287241
13	0x3b6cf1fa	0.0036154971
14	0x3cbd70c1	0.023125054
15	0x3d8d14dc	0.06888744
16	0x3bd20cce	0.006410218
17	0xbdabff5b	-0.083983146
18	0x3c8cf2af	0.017205564
19	0x3d5a38af	0.053276714
20	0x3c12e6e4	0.008966181
21	0x3d8f3e76	0.06994335
22	0xbd42140c	-0.0473824
23	0x3ca82e27	0.02052982
24	0x3d757f42	0.059935816
25	0xbcbe82e9	-0.023255782
26	0xbd40e682	-0.04709483
27	0xbc28b397	-0.010296724
28	0xbd94ef83	-0.07272246
29	0x3db75030	0.089508414
30	0x3ce38c15	0.027776757
31	0x3d3332a5	0.04374947
32	0xbcf223bd	-0.029558057
33	0x3dccb638	0.09995693
34	0x3ce9d126	0.028542113
35	0x3c27ae3d	0.010234413
36	0x3d0ad243	0.033891927
37	0x3c1c30f1	0.009533153
38	0xbdaadcab	-0.0834287
39	0x3ce16a72	0.027516577
40	0x3d46364e	0.048391633
41	0xbcfa7798	-0.030574605
42	0x3c8a7e12	0.016905818
43	0xbd3851c9	-0.04499987
44	0x3d8312da	0.0640008
45	0xbd3bf2a5	-0.0458857
46	0xbd04b0e8	-0.032395273
47	0x3cdc6a51	0.026906164
48	0x3c90c0b2	0.01767001
49	0xbd2770f9	-0.040879223
50	0xbc9f3659	-0.019435095
51	0xb91a73e7	-0.00014729761
52	0xbcfd1462	-0.030893508
53	0xbcd44d3a	-0.02591573
54	0x3cf5b01a	0.029991198
55	0xbb2cd4a2	-0.0026371856
56	0xbcb4cb1d	-0.022069508
57	0xbc68a989	-0.014200577
58	0xbcc96c8e	-0.024587896
59	0xbd7fd596	-0.06245955
60	0x3e62245e	0.22084185
61	0x3ddbed75	0.10738651
62	0x3e37af55	0.17937978
63	0x3c0894d8	0.008336268
64	0x3e123c74	0.14280874
65	0x3b013242	0.0019713794
66	0x3dea93b5	0.11453954
67	0xbd0a7f10	-0.033812582
68	0x3dd684b6	0.10474531
69	0x3d6dbd3d	0.0580418
70	0x3dfa2e51	0.122158654
71	0x3dfd8ce8	0.12380391
72	0x3dab65b8	0.08369011
73	0x3d5113b2	0.051044174
74	0x3dd4946e	0.10379873
75	0x3de97916	0.114000484
76	0x3cb36286	0.021897566
77	0xbc4ecb8a	-0.01262177
78	0x3dc57540	0.09641504
79	0x3d948120	0.07251191
80	0x3d479e8c	0.048735186
81	0x3cff38b4	0.031154968
82	0x3c673c9f	0.014113574
83	0x3cc60131	0.02417049
84	0xbcaa785b	-0.020809343
85	0x3c8bba5e	0.01705664
86	0x3b9d6f1c	0.004804505
87	0xbd556ba6	-0.052104615
88	0xbcaad45a	-0.02085321
89	0x3b1a0287	0.0023500042
90	0xbb3d661a	-0.0028899969
91	0xbd267015	-0.040634234
92	0xbca600bf	-0.020264028
93	0x3c3ed6f3	0.011647928
94	0xbc9bd18e	-0.019020822
95	0x3cca2116	0.02467398
96	0xbdb2c068	-0.08728105
97	0xba971b8b	-0.0011528594
98	0x3bfe7d24	0.007766383
99	0x3cc3ab32	0.023885343
100	0xbd5c3a9a	-0.053766824
101	0xbe002418	-0.12513769
102	0xbdc26805	-0.094924964
103	0xbcd8e827	-0.026477886
104	0xbdddb3cd	-0.1082531
105	0x3d976de7	0.07394009
106	0xbd7aa395	-0.06119116
107	0xbccc2207	-0.02491857
108	0xbbea5fbb	-0.0071525252
109	0x3dc41844	0.09574941
110	0x3c7f4fa0	0.015582949
111	0xbd479f20	-0.048735738
112	0xbc5d2017	-0.01349642
113	0x3d8328eb	0.06404289
114	0x3cb923d8	0.0226001
115	0x3c88d056	0.016700905
116	0xbcde00f2	-0.02710006
117	0x3d8855c7	0.06656986
118	0x3d489c2c	0.048977062
119	0x3d4a2aed	0.049357343
120	0xbc9c2714	-0.019061603
121	0xbc021167	-0.007938719
122	0x3ccf861d	0.025332505
123	0xbdafcb78	-0.085837305
124	0x3cdec45b	0.027193239
125	0x3d94902a	0.072540596
126	0xbd2ed6be	-0.042685263
127	0xbcdbb20b	-0.026818296
128	0x3d319c05	0.043361682
129	0x3d218f99	0.039443586
130	0x3ce1ef2a	0.027579863
131	0xbcaf72e3	-0.021417087
132	0x3daadd14	0.083429486
133	0xbd749d13	-0.05972011
134	0xbcda8743	-0.026675826
135	0xbd0942f5	-0.03351112
136	0xbd741ec8	-0.059599668
137	0xbda344a8	-0.079720795
138	0x3daea61c	0.085277766
139	0xbd0d55c7	-0.03450563
140	0x3d224945	0.039620657
141	0xbd377ed0	-0.044798672
142	0x3d12c81d	0.035835374
143	0x3d8f51aa	0.06997998
144	0x3c92116b	0.017830571
145	0xbd6e60c1	-0.05819774
146	0x3d008b1e	0.031382672
147	0xbc7c78f3	-0.015409696
148	0x3d37ae1e	0.044843785
149	0x3b25bd03	0.0025289662
150	0x3d7b04c4	0.06128384
151	0x3d612637	0.054968085
152	0x3cbd697b	0.023121586
153	0x3c0f6c98	0.008753918
154	0xbd00a4bc	-0.031407103
155	0x3d34a6c8	0.044104367
156	0x3e18053b	0.14845745
157	0x3c6c53e0	0.014424294
158	0xbc9a4ed5	-0.018836418
159	0x3c9d37d5	0.019191662
160	0x3e0fa91a	0.14029351
161	0xbd8a1a63	-0.06743314
162	0x3dcdc72a	0.10047753
163	0x3dbd8194	0.09253231
164	0xbd7b5baf	-0.061366733
165	0x3dc2905a	0.09500189
166	0x3c0bf0ec	0.008541327
167	0x3d9fa0ec	0.07794365
168	0xbdb5f10e	-0.08883868
169	0xbd734100	-0.05938816
170	0x3c8f7b3b	0.017514816
171	0xbcab1500	-0.020884037
172	0xbd43b5d0	-0.04778081
173	0x3b166107	0.0022946016
174	0xbd9d4de1	-0.0768087
175	0xbdca0a3c	-0.09865233
176	0xbc50afc0	-0.012737215
177	0xbd159c20	-0.036525846
178	0x3d438334	0.047732547
179	0xbcfbb183	-0.030724293
180	0x3d72cbaf	0.05927628
181	0x3da90368	0.08252603
182	0x3d68813c	0.056763873
183	0x3dcf99fd	0.10136793
184	0xbd28a0cf	-0.041168984
185	0x3d736e7a	0.05943153
186	0x3d744568	0.059636503
187	0x3da6ad05	0.081384696
188	0x3b854e31	0.004068159
189	0xbc779084	-0.015110139
190	0xbd6d7732	-0.057975
191	0xbd8a82cc	-0.06763229
192	0x3d17b931	0.037041847
193	0x3d5310f4	0.05152984
194	0x3d92d2ae	0.0716909
195	0x3cbd4ab6	0.023106914
196	0xbd82803f	-0.06372117
197	0xbc84918f	-0.016182689
198	0x3cf2dd48	0.02964653
199	0xbd98e206	-0.074649855
200	0xbd28526b	-0.041094225
201	0x3da57d9c	0.08080599
202	0x3ce844da	0.028353143
203	0xbc5f04de	-0.013612
204	0xbc04bde2	-0.008101912
205	0x3e7bbd67	0.2458397
206	0x3dd5f9b1	0.104480155
207	0xbb99dfe4	-0.0046958793
208	0x3e2a7bc3	0.16648774
209	0x3d8c9ea3	0.06866195
210	0x3d006496	0.031345926
211	0x3d0a607c	0.03378342
212	0x3d852a4d	0.06502209
213	0x3de05331	0.109533675
214	0xbbb44bb3	-0.005502188
215	0xbd9c32b9	-0.07626862
216	0x3da77c28	0.08177978
217	0x3d828b50	0.06374228
218	0x3d13c3cc	0.0360754
219	0x3cf9c451	0.030489119
220	0x3ca775af	0.020441858
221	0x3cf2a8cf	0.02962151
222	0x3a8028be	0.0009777767
223	0xbd28d76b	-0.041221064
224	0xbcfcf4da	-0.030878473
225	0xbd8db0f4	-0.06918517
226	0xbdadf7f5	-0.0849456
227	0xbcd5ab7f	-0.026082752
228	0xbd779168	-0.060441405
229	0x3a535bd0	0.00080626924
230	0xbce6c4c5	-0.028169999
231	0xbdbe4baf	-0.09291779
232	0x3dd77df8	0.105220735
233	0xbcd90c97	-0.026495261
234	0x3ce54f5e	0.027991947
235	0xbda6b8bc	-0.08140704
236	0x3c4ac842	0.012376847
237	0x3d4c2028	0.049835354
238	0x3c864441	0.016389968
239	0xbdcd57ef	-0.100265376
240	0x3d460f7c	0.04835461
241	0x3d699ec0	0.05703616
242	0x3d533b7f	0.05157041
243	0x3dcca82b	0.09993013
244	0x3d15d6de	0.036581866
245	0x3b7aa1e2	0.0038243462
246	0x3cd1abb5	0.025594572
247	0xbd83c52b	-0.06434091
248	0xbd9e44fa	-0.07728
249	0xbd802a78	-0.062581
250	0xbd7b180a	-0.061302222
251	0xbd293ba8	-0.04131666
252	0x3de3bc9d	0.111199595
253	0x3dfe96df	0.1243112
254	0xbd9eff9b	-0.077635966
255	0x3d8ca558	0.06867474
