project/paper_notebooks/saved_variables/paper_notebooks/7/6/6-looping-iteration-81/final_policy_agent2.pth (torch, 543093 bytes, 16 tensors)

model.model.0.weight f4 [32, 1, 4, 4]
0.2249726 -0.26868555 -0.19824888 -0.2308831 -0.16234764 0.095242314 0.18018878 -0.050027944
0.18890655 -0.04082468 -0.0076182107 -0.07833491 0.27257165 -0.01016479 -0.21026018 -0.10925403
-0.027173517 -0.111638255 -0.08651272 0.048327453 -0.049466163 0.051337946 0.14423616 -0.23586807
-0.20116186 -0.042900037 0.23161165 -0.20971744 -0.10417412 0.15273102 0.067701064 -0.22310057
-0.06640426 0.046409342 -0.17926024 -0.1664091 0.17611207 -0.06449248 -0.12875862 0.08091679
0.1901587 -0.104613185 -0.0546628 -0.028845504 0.27275026 0.093531296 0.0169254 0.19428475
-0.12387175 -0.15195279 0.14887753 -0.020422436 0.12607226 0.002397881 -0.3257426 0.18804231
0.014095709 0.23374459 -0.20278949 -0.17612395 -0.024714438 0.052095793 -0.11721609 0.14133441
0.059962 0.10868931 0.16372328 0.18692099 -0.13734362 0.02804826 0.00016545117 0.036077693
0.017334593 0.15190445 0.07517039 -0.13463214 -0.10040145 0.022875171 -0.010424109 0.16580626
-0.055992488 -0.18133426 0.07685792 -0.17492345 0.009917161 0.109511666 0.27785194 -0.22141309
-0.18807152 0.06443086 -0.31872475 0.24241592 -0.054412983 -0.06462066 -0.0871311 -0.16928339
-0.22700661 0.28426093 0.021714376 0.011583934 -0.2555831 0.08824836 0.012204603 -0.11736282
-0.027650097 0.07333302 -0.07086172 -0.059753936 -0.21512045 -0.19903524 -0.069770046 -0.09655148
0.068009175 -0.18404849 0.2848728 -0.11607538 -0.04068198 0.012195137 -0.04258157 0.1593982
-0.08314529 -0.13054334 0.11672802 -0.2405114 0.054096747 -0.040621128 -0.07909274 0.1845154
0.30266592 0.06882827 0.12993112 0.14630485 -0.09217948 -0.019166283 0.1701828 -0.25848678
0.24143475 0.060384043 -0.23439628 -0.20757274 0.110473745 -0.08690862 -0.09695423 -0.17566517
0.010419338 -0.25293475 0.10833548 -0.20021173 -0.06875135 -0.10105189 0.21501346 0.12127353
-0.24734284 0.16712631 0.07611409 -0.17551777 -0.08480001 -0.12718846 0.17322217 0.11952723
0.03231557 -0.11009342 -0.2561595 0.1857703 -0.25624838 -0.10148382 0.16171873 0.14969024
-0.051543687 0.10166591 0.14772086 -0.025857149 0.2742428 -0.14616716 0.13027713 0.16264369
-0.015892783 0.104190774 0.09433132 -0.20264894 -0.23528385 0.10718424 0.086419605 0.16647786
-0.19735563 0.21614026 -0.048774492 0.22275606 0.10192891 -0.07853856 0.00036103177 0.20650454
-0.18583545 0.11594582 -0.049277592 0.01904471 -0.26731476 0.031762894 0.20813143 -0.1220394
-0.16642523 -0.09688774 -0.053922314 -0.17650191 0.2223185 0.14839739 0.06848038 0.21397206
-0.0026141556 -0.021765575 -0.09354307 0.005390652 0.099334955 0.17054105 -0.0962592 -0.10334338
-0.20438038 -0.10825041 0.3015679 -0.16313034 0.0915606 -0.19812451 -0.12334638 -0.12592407
0.14666784 0.09781482 0.06650473 0.111490175 0.19460158 0.17590755 -0.12120633 0.20919767
-0.16439435 -0.2908386 0.13379653 -0.22449477 -0.18023205 -0.16952415 -0.088397056 -0.20832539
-0.2464818 -0.012211809 0.07221271 0.24232857 -0.18841846 0.17648906 0.03711998 -0.3106538
0.01601953 -0.20076513 0.23321529 -0.046940316 -0.01714334 -0.13375933 0.014720939 -0.20647226
00000000: 385f 663e 2791 89be c101 4bbe 9f6c 6cbe
00000010: 763e 26be 670e c33d 6883 383e 1aea 4cbd
00000020: b870 413e c837 27bd 2fa2 f9bb 0e6e a0bd
00000030: 838e 8b3e 388a 26bc 724e 57be 94c0 dfbd
00000040: ff9a debc 99a2 e4bd 952d b1bd 02f3 453d
00000050: 089d 4abd bd47 523d a5b2 133e 6687 71be
00000060: 60fd 4dbe f3b7 2fbd 9b2b 6d3e 2bc0 56be
00000070: 3e59 d5bd 8565 1c3e dba6 8a3d 7a74 64be
00000080: f5fe 87bd b917 3e3d ff8f 37be 2667 2abe
00000090: b956 343e a214 84bd 4dd9 03be b4b7 a53d
000000a0: f6b8 423e 703f d6bd 1ae6 5fbd 684d ecbc
000000b0: eca5 8b3e 568d bf3d 23a7 8a3c 95f2 463e
000000c0: 79b0 fdbd 8399 1bbe 5a73 183e f44c a7bc
000000d0: 1619 013e c425 1d3b bcc7 a6be 2a8e 403e
000000e0: b0f1 663c be5a 6f3e 0ca8 4fbe d659 34be
000000f0: ef75 cabc 6662 553d fd0e f0bd f8b9 103e
00000100: b79a 753d 8098 de3d 13a7 273e 3768 3f3e
00000110: cea3 0cbe 77c5 e53c f67c 2d39 34c6 133d
00000120: 4701 8e3c d78c 1b3e eff2 993d 02dd 09be
00000130: 479f cdbd b664 bb3c e2c9 2abc 1ec9 293e
00000140: 6158 65bd b0af 39be af67 9d3d 221f 33be
00000150: 977b 223c a747 e03d 9c42 8e3e 1dba 62be
00000160: d295 40be 54f4 833d e42f a3be e13b 783e
00000170: 26e0 5ebd d657 84bd ca71 b2bd a058 2dbe
00000180: 6c74 68be a68a 913e 59e2 b13c 8aca 3d3c
00000190: cadb 82be 8ebb b43d d1f5 473c eb5b f0bd
000001a0: 7582 e2bc 9f2f 963d f31f 91bd 8bc0 74bd
000001b0: 8948 5cbe e5cf 4bbe 99e3 8ebd c8bc c5bd
000001c0: 6548 8b3d 3577 3cbe d9da 913e eeb8 edbd
000001d0: 26a2 26bd 1dce 473c 036a 2ebd 4839 233e
000001e0: 1448 aabd 27ad 05be 1a0f ef3d 9f48 76be
000001f0: 8d94 5d3d 5762 26bd 60fb a1bd 9bf1 3c3e
00000200: 07f7 9a3e d6f5 8c3d aa0c 053e f0d0 153e
00000210: 98c8 bcbd 9c02 9dbc 6644 2e3e 6158 84be
00000220: ac3a 773e 4255 773d 9405 70be f38d 54be
00000230: 0f40 e23d 26fd b1bd f08f c6bd 92e1 33be
00000240: dfb5 2a3c aa80 81be fede dd3d 4e04 4dbe
00000250: 82cd 8cbd 4bf4 cebd 7d2c 5c3e 425e f83d
00000260: 7147 7dbe 2923 2b3e b4e1 9b3d eeba 33be
00000270: a1ab adbd b13d 02be 2761 313e b1ca f43d
00000280: 555d 043d a978 e1bd 5727 83be 923a 3e3e
00000290: fd32 83be c0d6 cfbd 9899 253e 6648 193e
000002a0: 791f 53bd 3736 d03d 2344 173e 5fd2 d3bc
000002b0: 8d69 8c3e d8ac 15be 5e67 053e 118c 263e
000002c0: 9531 82bc f961 d53d c730 c13d 3483 4fbe
000002d0: 40ee 70be 6983 db3d c3fc b03d 2c79 2a3e
000002e0: 9817 4abe df53 5d3e c3c7 47bd 2a1a 643e
000002f0: 1bc0 d03d d3d8 a0bd dd48 bd39 ed75 533e
00000300: a64b 3ebe 0175 ed3d 4dd7 49bd a703 9c3c
00000310: 7bdd 88be cf19 023d 6820 553e cbef f9bd
00000320: 606b 2abe 146d c6bd a5dd 5cbd ebbc 34be
00000330: 76a7 633e 7cf5 173e 713f 8c3d 7e1b 5b3e
00000340: 4152 2bbb b84d b2bc 8293 bfbd 11a4 b03b
00000350: 2070 cb3d 50a2 2e3e 8b23 c5bd b2a5 d3bd
00000360: 1749 51be 64b2 ddbd 1c67 9a3e a40b 27be
00000370: 2084 bb3d 27e1 4abe 079d fcbd 3df2 00be
00000380: 1830 163e 2353 c83d a233 883d f654 e43d
00000390: a345 473e 1c21 343e 063b f8bd ea37 563e
000003a0: fe56 28be cce8 94be f501 093e f5e1 65be
000003b0: c08e 38be bd97 2dbe 8409 b5bd 4053 55be
000003c0: ba65 7cbe 0a14 48bc 42e4 933d fb24 783e
000003d0: c5f0 40be 8cb9 343e 1f0b 183d 040e 9fbe
000003e0: 643b 833c 6095 4dbe fdcf 6e3e 7d44 40bd
000003f0: 3170 8cbc 35f8 08be 1830 713c 776d 53be

model.model.0.bias f4 [32]
0.10207785 0.08900816 0.27039713 0.16265088 0.2411551 -0.12476441 -0.14695299 0.033454847
0.15409312 0.23905116 0.31562442 0.07562156 0.066949144 -0.052895796 -0.16007388 -0.082900174
0.13588355 0.26510847 0.025547987 -0.19714987 0.22618726 -0.028038125 0.2597158 -0.18731007
0.16925703 0.09873602 0.1821843 0.13735807 0.29113355 0.005898899 -0.21113308 -0.17387807
00000000: 310e d13d e949 b63d 7e71 8a3e f48d 263e
00000010: 5df1 763e 7c84 ffbd d87a 16be f307 093d
00000020: 96ca 1d3e d4c9 743e 8699 a13e 7adf 9a3d
00000030: a21c 893d 43a9 58bd 68ea 23be 91c7 a9bd
00000040: 0f25 0b3e 4cbc 873e 034a d13c a8e1 49be
00000050: a29d 673e 36b0 e5bc 78f9 843e 36ce 3fbe
00000060: b751 2d3e 1c36 ca3d 858e 3a3e 98a7 0c3e
00000070: 750f 953e 8d4b c13b 4533 58be 180d 32be

model.model.4.weight f4 [128, 384]
0.011430126 0.12452469 0.0057859975 0.044390824 0.024687527 -0.030450266 0.03706324 0.0004689094
-0.1679689 0.15080385 0.007059515 0.01853825 -0.053737614 0.003336656 0.019969637 0.067018494
0.0034975654 -0.086999595 0.013880462 0.05156129 0.0060974234 0.06698061 -0.050565355 0.018585078
0.057424355 -0.026507126 -0.049647965 -0.013941075 -0.075728364 0.08666662 0.02532878 0.040566195
-0.032403935 0.09697339 0.025737666 0.0070452215 0.030742878 0.008040378 -0.08494077 0.025165204
0.045485787 -0.033505928 0.014263691 -0.04818555 0.060996756 -0.048675768 -0.03510779 0.023728687
0.015120116 -0.04310321 -0.021435104 -0.0018759146 -0.033240315 -0.028172327 0.027646944 -0.004876966
-0.024599178 -0.016543096 -0.026992632 -0.06467401 0.22029144 0.10731577 0.17935641 0.0081863925
0.14263786 0.0019713794 0.11453954 -0.033938784 0.10468887 0.0580418 0.122158654 0.12369595
0.08280116 0.048046753 0.10370517 0.1132864 0.021403966 -0.013230248 0.09641504 0.07261542
0.048271634 0.031215608 0.014113574 0.024377134 -0.02357542 0.017185202 0.0027378078 -0.053289425
-0.022561073 -0.0009631957 -0.0042788107 -0.04298959 -0.022220386 0.008487501 -0.021625621 0.023097385
-0.08915825 -0.0031052323 0.004856033 0.021550339 -0.055548802 -0.12754352 -0.0976168 -0.029460277
-0.11061265 0.07147415 -0.06405942 -0.02721523 -0.010354621 0.095859036 0.012150809 -0.050813563
-0.016135085 0.060730144 0.019421523 0.014543671 -0.02987558 0.06351181 0.04583685 0.047204196
-0.020953866 -0.010090617 0.02296517 -0.088653475 0.023874093 0.06962723 -0.04504082 -0.02920328
0.040349856 0.03641939 0.025254736 -0.024280285 0.08106879 -0.06240678 -0.02849201 -0.03470499
-0.062078714 -0.08166705 0.0836282 -0.0364378 0.036787193 -0.047175456 0.033471778 0.068130046
0.016105283 -0.061305255 0.031376682 -0.017165314 0.041669894 0.00032185973 0.05803557 0.053238966
0.01996713 0.0062469877 -0.034591578 0.042182945 0.14814922 0.013595346 -0.01947 0.01901296
0.1402722 -0.06746373 0.10047753 0.09239284 -0.06155394 0.09500189 0.008541327 0.07768271
-0.0895339 -0.059874862 0.017190201 -0.021652075 -0.047730125 0.0025357301 -0.07681842 -0.098790765
-0.012788308 -0.03654904 0.04764902 -0.030867273 0.058609217 0.08151655 0.056893844 0.10140797
-0.04139569 0.05940447 0.059652045 0.08147814 0.003753643 -0.015110139 -0.057941727 -0.067524046
0.034181643 0.04880763 0.068264484 0.020991273 -0.06627804 -0.01952414 0.026721118 -0.07767973
-0.04422683 0.07766844 0.025134983 -0.016007163 -0.008750756 0.24575692 0.10168019 -0.007991732
0.16315563 0.06526343 0.028212253 0.03061683 0.061862487 0.10646892 -0.008500919 -0.079456426
0.081414714 0.06306459 0.033756316 0.028102845 0.017099122 0.027263578 -0.0012985419 -0.044419408
-0.034045324 -0.07235858 -0.08773609 -0.029277751 -0.060497057 0.00077427627 -0.028013274 -0.09288009
0.10513231 -0.026360959 0.028105557 -0.08133371 0.012310782 0.049944375 0.01651211 -0.100265376
0.04520904 0.05475281 0.04872262 0.09670179 0.03342358 0.00083172816 0.022436215 -0.067665316
-0.080285005 -0.06567972 -0.06436508 -0.044743165 0.11079126 0.122180276 -0.079884075 0.067628555
00000000: 6c45 3b3c cd06 ff3d 7798 bd3b 27d3 353d
00000010: 7f3d ca3c d672 f9bc a0cf 173d f4d7 f539
00000020: 0a00 2cbe 536c 1a3e 8153 e73b 87dd 973c
00000030: f91b 5cbd ccab 5a3b 5d97 a33c fe40 893d
00000040: 6937 653b d82c b2bd e16a 633c ee31 533d
00000050: e5cc c73b 212d 893d 9e1d 4fbd bc3f 983c
00000060: cd35 6b3d 7925 d9bc aa5b 4bbd 1b69 64bc
00000070: 7917 9bbd 457e b13d 4d7e cf3c bd28 263d
00000080: fdb9 04bd fc99 c63d ccd7 d23c 9adb e63b
00000090: 7dd8 fb3c cabb 033c 6df5 adbd 4227 ce3c
000000a0: 4e4f 3a3d 833d 09bd 42b2 693c 365e 45bd
000000b0: bcd7 793d 3e60 47bd 30cd 0fbd aa62 c23c
000000c0: 5dba 773c fe8c 30bd ac98 afbc 40e1 f5ba
000000d0: ff26 08bd a7c9 e6bc d87b e23c f5ce 9fbb
000000e0: 3784 c9bc 6385 87bc a71f ddbc cf73 84bd
000000f0: 1494 613e 5fc8 db3d 35a9 373e 3820 063c
00000100: a90f 123e 4232 013b b593 ea3d 6503 0bbd
00000110: 1e67 d63d 3dbd 6d3d 512e fa3d 4d54 fd3d
00000120: a893 a93d accc 443d 6063 d43d b302 e83d
00000130: 5f57 af3c afc3 58bc 4075 c53d 65b7 943d
00000140: 7ab8 453d e0b7 ff3c 9f3c 673c 8eb2 c73c
00000150: 3d21 c1bc fbc7 8c3c cb6c 333b 0346 5abd
00000160: 00d2 b8bc f87e 7cba 4435 8cbb da15 30bd
00000170: 8707 b6bc 290f 0b3c 3728 b1bc ba36 bd3c
00000180: 9a98 b6bd 2781 4bbb 5b1f 9f3b 568a b03c
00000190: 2487 63bd c59a 02be 51eb c7bd ae56 f1bc
000001a0: e388 e2bd 0a61 923d 9631 83bd 79f2 debc
000001b0: 6ea6 29bc be51 c43d 3014 473c e221 50bd
000001c0: ba2d 84bc 2cc0 783d e319 9f3c 9448 6e3c
000001d0: a2bd f4bc 7b12 823d 6cbf 3b3d 3059 413d
000001e0: 71a7 abbc 1e53 25bc 7421 bc3c f48f b5bd
000001f0: 9a93 c33c b998 8e3d b97c 38bd b83b efbc
00000200: e445 253d 802c 153d 05e3 ce3c 73e7 c6bc
00000210: 6507 a63d 409e 7fbd 1368 e9bc d226 0ebd
00000220: 4046 7ebd 0e41 a7bd 4345 ab3d cd3f 15bd
00000230: 2bae 163d 0d3b 41bd b419 093d c487 8b3d
00000240: 3aef 833c 381b 7bbd d684 003d 469e 8cbc
00000250: 0dae 2a3d 48bf a839 b5b6 6d3d 1a11 5a3d
00000260: 1b92 a33c 88b3 cc3b e6af 0dbd 06c8 2c3d
00000270: 6eb4 173e 04bf 5e3c 8d7f 9fbc 11c1 9b3c
00000280: 84a3 0f3e 6d2a 8abd 2ac7 cd3d 7538 bd3d
00000290: fc1f 7cbd 5a90 c23d ecf0 0b3c 1d18 9f3d
000002a0: 8d5d b7bd 583f 75bd 77d2 8c3c b15f b1bc
000002b0: aa80 43bd 7e2e 263b fa52 9dbd d052 cabd
000002c0: 0d86 51bc 72b4 15bd 9e2b 433d 5ddd fcbc
000002d0: 3810 703d 26f2 a63d 8509 693d fbae cf3d
000002e0: 878e 29bd 1a52 733d b455 743d 03de a63d
000002f0: aeff 753b 8490 77bc 4e54 6dbd 0c4a 8abd
00000300: 0d02 0c3d 82ea 473d 40ce 8b3d e4f5 ab3c
00000310: c8bc 87bd 17f1 9fbc 3fe6 da3c 8d16 9fbd
00000320: 3127 35bd a210 9f3d e1e7 cd3c 7421 83bc
00000330: 555f 0fbc b4a7 7b3e b43d d03d c1ef 02bc
00000340: 4512 273e d5a8 853d 621d e73c 25d0 fa3c
00000350: 8563 7d3d 610c da3d 7047 0bbc 0dba a2bd
00000360: c2bc a63d 0228 813d 1044 0a3d f037 e63c
00000370: 7513 8c3c de57 df3c d633 aaba 20f1 35bd
00000380: 1c73 0bbd bc30 94bd fbae b3bd e5d7 efbc
00000390: c3cb 77bd cdf8 4a3a 187c e5bc eb37 bebd
000003a0: 9c4f d73d f0f2 d7bc a03d e63c 4a92 a6bd
000003b0: 2ab3 493c 7992 4c3d 6844 873c ef57 cdbd
000003c0: 1d2d 393d 7c44 603d 5f91 473d 970b c63d
000003d0: 2ae7 083d 5508 5a3a 27cc b73c 1d94 8abd
000003e0: 776c a4bd 1783 86bd d7d1 83bd 9c44 37bd
000003f0: 87e6 e23d a739 fa3d 439a a3bd d780 8a3d

model.model.4.bias f4 [128]
0.02045636 0.018790582 0.08443041 0.028027507 0.008869769 -0.019071491 0.05982365 0.005301154
0.054578856 0.04576527 0.05742525 0.022177393 -0.01986819 0.053360704 0.06774661 0.03825532
0.021824103 0.046522703 0.05841701 0.0046292525 0.00037399892 -0.0034835998 0.07361037 -0.043191284
-0.0075537674 0.11105156 0.02253576 0.05098933 0.038663708 0.053011436 -0.016759234 -0.023551907
0.022935117 -0.056780268 -0.029179966 -0.00026158174 0.10071669 -0.010204369 0.042744633 0.05539878
0.0028878113 -0.04252546 -0.0054819267 0.06608298 0.059541788 0.03008041 0.051956687 0.055519924
0.014960974 0.08087072 0.023251906 0.05367154 0.0035033664 0.027091304 0.055165347 0.01250971
0.050854057 0.028528124 0.038750723 0.03403658 0.03524502 -0.007104969 0.037468262 0.043696634
0.0025490017 0.06380321 0.006151291 -0.020419741 0.05922563 -0.032367125 -0.07282935 0.051301397
0.05933261 0.02943752 0.06579307 -0.045556236 0.06793697 0.017354462 0.02070409 0.028491978
0.028579371 0.061788175 -0.00084221363 -0.025999356 -0.0102296565 0.07097131 0.0401464 0.089189745
-0.022714414 0.018088104 0.04314584 -0.0022588223 -0.05906276 0.021203602 0.035949517 0.032026865
-0.008767633 0.009680585 0.015208729 -0.02455869 0.07256033 0.030006105 0.072775416 0.046525545
-0.012421981 0.034331977 -0.0043472545 0.03803132 0.078587845 -0.031813323 0.049352918 0.07274841
0.054788467 0.062405445 -0.021677222 -0.05642419 0.05478946 -0.004681152 -0.014655157 0.008673343
0.0011355588 -0.027688894 0.04189262 0.0042278655 -0.016618226 0.073685244 0.054346543 0.051106434
00000000: 1994 a73c b5ee 993c dae9 ac3d f199 e53c
00000010: 8252 113c d13b 9cbc a509 753d 4eb5 ad3b
00000020: 148e 5f3d 5d74 3b3d bd36 6b3d 5dad b53c
00000030: 9dc2 a2bc c190 5a3d bcbe 8a3d 9cb1 1c3d
00000040: 76c8 b23c 978e 3e3d ad46 6f3d fcb0 973b
00000050: 4915 c439 1b4d 64bb 09c1 963d 58e9 30bd
00000060: 9885 f7bb 006f e33d ea9c b83c 30da 503d
00000070: d65d 1e3d 8522 593d a94a 89bc eeef c0bc
00000080: 6de2 bb3c 6d92 68bd d30a efbc e824 89b9
00000090: 8d44 ce3d 3a30 27bc ff14 2f3d d5e9 623d
000000a0: 6f41 3d3b 2d2f 2ebd bca1 b3bb 8356 873d
000000b0: 17e2 733d 316b f63c 89d0 543d dc68 633d
000000c0: e01e 753c 8c9f a53d c87a be3c b0d6 5b3d
000000d0: bc98 653b 95ee dd3c 0ff5 613d 87f5 4c3c
000000e0: 584c 503d d0b3 e93c 14b9 1e3d f169 0b3d
000000f0: 155d 103d cdd0 e8bb 5278 193d 3efb 323d
00000100: 270d 273b 42ab 823d c590 c93b 4d47 a7bc
00000110: 9396 723d 6493 04bd 8e27 95bd 6a21 523d
00000120: c006 733d f426 f13c 84be 863d 2d99 3abd
00000130: 8a22 8b3d f22a 8e3c a09b a93c 0268 e93c
00000140: 491f ea3c 9915 7d3d 00c8 5cba 9afc d4bc
00000150: 4a9a 27bc 6859 913d 8d70 243d 1da9 b63d
00000160: 9413 babc 812d 943c b1b9 303d c008 14bb
00000170: cbeb 71bd 2db3 ad3c cd3f 133d 9a2e 033d
00000180: 1ea6 0fbc 519b 1e3c 082e 793c 4e2f c9bc
00000190: 839a 943d 5dcf f53c 470b 953d 9291 3e3d
000001a0: 9185 4bbc b09f 0c3d 6a73 8ebb bbc6 1b3d
000001b0: aaf2 a03d b04e 02bd 4926 4a3d 1efd 943d
000001c0: df69 603d da9c 7f3d 6e94 b1bc 0d1d 67bd
000001d0: ea6a 603d 5964 99bb 2f1c 70bc a31a 0e3c
000001e0: 08d7 943a d2d3 e2bc 9997 2b3d e889 8a3b
000001f0: f222 88bc 4ae8 963d 7b9a 5e3d fb54 513d

model.model.6.weight f4 [128, 128]
0.06643177 -0.056772534 -0.050483316 -0.083149545 0.06121994 -0.0622719 -0.067679055 -0.053077057
0.056198277 0.0746621 0.046109106 -0.038124435 -0.074051626 0.015363151 0.026049633 0.03865626
0.018253181 0.04694667 -0.003967411 -0.052923292 -0.07868676 0.015892189 -0.04502501 -0.0005352331
-0.051978182 0.036201432 0.059540115 0.03673065 0.033240307 -0.017279878 -0.041761767 -0.07358488
-0.08007011 -0.0040558768 -0.0716818 -0.020844541 -0.016343215 0.00020665835 -0.046316046 0.06915757
0.020663688 -0.049030215 -0.03645145 0.056909747 0.075291015 -0.034896504 -0.04315011 -0.0031544564
0.0039914907 -0.007944075 -0.05691112 0.041571807 0.06063303 -0.0043393928 -0.046930067 0.08510111
-0.052290052 -0.026960935 0.033903435 -0.009210283 -0.05950445 -0.06600619 -0.09293942 -0.078014724
-0.037227746 -0.039966553 -0.032083135 -0.07962513 -0.0075291246 -0.08255855 0.036852572 -0.034030613
-0.07751325 -0.055630196 0.084892124 0.055645976 0.050411083 -0.077486955 0.06779663 -0.044605196
0.082497545 0.0628426 0.08499305 -0.023447432 -0.018158045 -0.073532134 0.060931694 0.04394854
-0.022801775 -0.06668375 0.05718208 -0.023601498 0.08439443 0.082772054 -0.009513353 -0.035917863
-0.04279058 -0.052402265 0.057706952 0.05287438 0.004329087 -0.07314083 0.04694927 0.0378894
0.061936203 0.049400143 0.004916483 0.0051535754 -0.02240882 0.012038708 -0.037456054 -0.01741266
-0.029480211 -0.03649888 -0.06005301 0.061032128 0.050744176 0.031240933 0.026894797 0.013442615
0.018384723 -0.077480435 0.014362415 -0.08232823 0.0033455212 0.0010404757 0.06463352 -0.06855263
0.019551057 0.012420084 -0.09099823 -0.07823093 -0.06669942 -0.052502457 -0.020329574 0.041361526
-0.091466926 -0.056572836 0.0034929432 -0.038998693 -0.07499587 0.07062604 0.008553842 -0.063427225
-0.041221324 -0.07324572 0.031536277 -0.071403444 -0.08828766 0.059494916 -0.043191064 -0.056201924
0.026715279 -0.028480396 -0.06296325 -0.052028302 0.014488745 -0.06749132 -0.009818896 -0.082655646
-0.093740396 -0.0070319977 -0.027527604 0.033551645 0.07480241 0.05554238 -0.024298815 0.07346293
-0.052753545 0.056493312 -0.035618905 0.071654186 0.019137474 0.05756332 -0.05458951 0.07854313
0.04893913 -0.08796154 0.053406797 0.026375076 0.0060727485 -0.04954623 -0.07706051 0.081320174
0.04847952 0.051213507 0.047105543 0.00804279 0.067211576 -0.017257556 -0.0007904951 0.071925186
0.03728933 0.048545662 -0.07840257 0.00036648347 -0.08070513 0.017618943 0.026489342 -0.03494716
0.06318139 -0.0818351 0.078861795 0.004499569 0.047466226 -0.011233421 -0.09272845 -0.026503948
-0.010711715 0.01853328 0.046802297 0.084084 -0.053277805 0.0759438 0.057856344 0.03682248
-0.007534079 0.0602395 -0.085781425 0.06820283 0.009213809 -0.03460896 -0.06808492 -0.078065224
0.025508799 0.08271228 0.0013558158 -0.05316329 -0.07797045 0.07818605 -0.026907371 -0.00671472
0.04524331 -0.049045138 -0.0037654946 0.035007864 -0.018156108 -0.029497894 -0.047790263 0.049384605
0.00560667 -0.035384744 -0.055250954 0.006619257 0.081061915 -0.09655523 0.0053683016 0.063661896
0.007148563 0.02398219 0.029394796 0.003643671 0.024711808 -0.056579746 -0.093891956 0.06379345
00000000: 610d 883d 518a 68bd 98c7 4ebd 4f4a aabd
00000010: c3c1 7a3d d210 7fbd 519b 8abd 5467 59bd
00000020: 2a30 663d 71e8 983d e7dc 3c3d 5e28 1cbd
00000030: 61a8 97bd bab5 7b3c 0a66 d53c 0756 1e3d
00000040: b287 953c 274b 403d 0e01 82bb 18c6 58bd
00000050: 8626 a1bd 5630 823c 256c 38bd e34e 0cba
00000060: 13e7 54bd f447 143d 56e0 733d e172 163d
00000070: fd26 083d 888e 8dbc 630e 2bbd abb3 96bd
00000080: ccfb a3bd 29e7 84bb e8cd 92bd 2cc2 aabc
00000090: 35e2 85bc 6eb2 5839 e5b5 3dbd 7ca2 8d3d
000000a0: e546 a93c e8d3 48bd 1e4e 15bd 321a 693d
000000b0: 2d32 9a3d a3ef 0ebd 2bbe 30bd ffba 4ebb
000000c0: 0dcb 823b de27 02bc a21b 69bd 3347 2a3d
000000d0: 575a 783d 7731 8ebb be39 40bd 7e49 ae3d
000000e0: 182e 56bd 2edd dcbc 54de 0a3d bae6 16bc
000000f0: f0ba 73bd 412e 87bd 0657 bebd 2fc6 9fbd
00000100: 1f7c 18bd f8b3 23bd 9b69 03bd 8012 a3bd
00000110: e0b6 f6bb 7514 a9bd b9f2 163d af63 0bbd
00000120: 44bf 9ebd 7ddc 63bd ecdb ad3d 09ed 633d
00000130: da7b 4e3d 7bb1 9ebd f6d8 8a3d f0b3 36bd
00000140: 79f4 a83d 9fb3 803d d610 ae3d d414 c0bc
00000150: 2ec0 94bc 0498 96bd 8393 793d 6203 343d
00000160: caca babc 7d91 88bd c237 6a3d ee57 c1bc
00000170: fdd6 ac3d 6584 a93d e5dd 1bbc 9c1e 13bd
00000180: 2d45 2fbd c2a3 56bd 205e 6c3d ce92 583d
00000190: 04db 8d3b dcca 95bd e14d 403d ea31 1b3d
000001a0: d1b0 7d3d ce57 4a3d 731a a13b 53df a83b
000001b0: b492 b7bc 003e 453c 856b 19bd ffa4 8ebc
000001c0: 7c80 f1bc d97f 15bd 25fa 75bd d3fc 793d
000001d0: 20d9 4f3d fcec ff3c 7a52 dc3c 6a3e 5c3c
000001e0: 8f9b 963c 10ae 9ebd 5650 6b3c b49b a8bd
000001f0: 8840 5b3b 9260 883a 945e 843d 5265 8cbd
00000200: 8a29 a03c 9c7d 4b3c 485d babd 8a37 a0bd
00000210: b599 88bd d10c 57bd 358a a6bc b46a 293d
00000220: 0353 bbbd ebb8 67bd dde9 643b 18bd 1fbd
00000230: 6f97 99bd 63a4 903d 6a25 0c3c 22e6 81bd
00000240: b1d7 28bd da01 96bd 2f2c 013d f83b 92bd
00000250: 29d0 b4bd f1b0 733d 1de9 30bd fd33 66bd
00000260: 00da da3c b84f e9bc e0f2 80bd a11b 55bd
00000270: 3362 6d3c e438 8abd 6fdf 20bc 5d47 a9bd
00000280: f7fa bfbd ac6c e6bb 9281 e1bc 736d 093d
00000290: 0232 993d 6880 633d 4f0e c7bc bc73 963d
000002a0: 1a14 58bd 8865 673d 21e5 11bd 6ebf 923d
000002b0: 31c6 9c3c 84c7 6b3d 4099 5fbd 38db a03d
000002c0: 6674 483d 2e25 b4bd 16c1 5a3d 8b10 d83c
000002d0: e8fd c63b fdf0 4abd e7d1 9dbd 318b a63d
000002e0: 7692 463d 41c5 513d bef1 403d e8c5 033c
000002f0: 39a6 893d b85f 8dbc 3a39 4fba 834d 933d
00000300: b2bc 183d d1d7 463d 8791 a0bd 9424 c039
00000310: bb48 a5bd 9a55 903c 2d00 d93c c124 0fbd
00000320: 3f65 813d 2999 a7bd 4b82 a13d 1f71 933b
00000330: f26b 423d 620c 38bc 6ae8 bdbd cf1e d9bc
00000340: 3080 2fbc 1bd3 973c c4b3 3f3d 3b34 ac3d
00000350: d439 5abd 6c88 9b3d c6fa 6c3d 2bd3 163d
00000360: 6fe0 f6bb b2bd 763d 2cae afbd edad 8b3d
00000370: 84f5 163c 20c2 0dbd 1b70 8bbd a9e0 9fbd
00000380: d4f7 d03c 0e65 a93d a1b5 b13a c0c1 59bd
00000390: f9ae 9fbd 0220 a03d d96c dcbc 2707 dcbb
000003a0: 0d51 393d 8ee3 48bd 84c6 76bb 6864 0f3d
000003b0: 1ebc 94bc 91a5 f1bc b9bf 43bd 8347 4a3d
000003c0: 28b8 b73b 98ef 10bd d34e 62bd 5ae6 d83b
000003d0: ca03 a63d c0be c5bd 94e8 af3b 2b61 823d
000003e0: 7e3e ea3b 4c76 c43c 5bcd f03c a8ca 6e3b
000003f0: 6b70 ca3c 2ac0 67bd 6d4a c0bd 24a6 823d

model.model.6.bias f4 [128]
-0.021565178 0.07179241 -0.047485296 0.07818214 -0.06147345 -0.024069777 0.013211209 -0.004606768
0.041336317 -0.08461872 0.07425881 0.06392482 0.083828256 -0.014565548 0.044928584 -0.06415149
0.12793571 -0.057321753 -0.073920205 -0.03286417 0.027661903 0.06481203 -0.015733913 0.10275517
0.012590448 -0.012864975 -0.006885455 -0.0010752121 0.08646238 0.061519615 -0.018185478 0.11610346
0.05154789 0.015109852 -0.01353435 0.042863287 0.10866343 -0.07189064 0.050250176 0.048381645
0.013207696 0.02005444 -0.016294537 0.07301408 -0.016790202 -0.06704041 0.07354072 0.03406695
0.11070488 0.042419665 8.480288e-05 0.07348134 0.08285718 0.07026402 0.046700675 -0.020802129
0.07772427 0.04176591 0.040532496 0.051202018 0.038335864 0.05961378 -0.05673787 0.031915262
0.123497024 0.049116485 0.042570062 -0.07462838 0.111617 0.018558998 0.10523981 0.03599531
0.03589761 -0.038605336 -0.042391907 -0.034014653 -0.055000175 0.03426306 0.0021698284 -0.0695125
0.06506515 -0.050697364 -0.03705078 -0.00017104855 0.06709502 -0.012758786 0.053993326 0.0023361018
-0.067669645 0.044793107 0.067565955 0.12270039 0.009872134 0.07428335 0.059572786 -0.00039798947
0.08222089 0.020946264 -0.02925662 0.048316967 0.06123166 -0.03570942 -0.069487266 0.14137234
-0.061780095 0.041128002 -0.011831664 -0.0095498 0.057876322 -0.018509336 -0.02032634 0.09336122
-0.010475564 0.048664063 0.039274443 0.111015886 -0.02499579 0.06495782 -0.051621538 -0.07624403
0.053091828 0.06702465 -0.069206275 0.090372786 -0.050075743 0.100724675 0.017318022 0.07093823
00000000: 75a9 b0bc e607 933d f17f 42bd f51d a03d
00000010: 96cb 7bbd fb2d c5bc d473 583c 5ff4 96bb
00000020: 4550 293d 944c adbd 0115 983d 04eb 823d
00000030: 26ae ab3d 56a4 6ebc 0907 383d db61 83bd
00000040: 9401 033e 37ca 6abd 7a63 97bd 949c 06bd
00000050: 379b e23c 2bbc 843d 68e4 80bc 4d71 d23d
00000060: 2b48 4e3c 9ec7 52bc 629f e1bb 22ee 8cba
00000070: 3013 b13d fefb 7b3d b6f9 94bc a7c7 ed3d
00000080: e123 533d 508f 773c 2ebf 5dbc 6a91 2f3d
00000090: ef8a de3d 663b 93bd 21d3 4d3d d52b 463d
000000a0: 1865 583c 3549 a43c 1f7c 85bc 6888 953d
000000b0: 9b8b 89bc 7c4c 89bd 849c 963d c989 0b3d
000000c0: 3db9 e23d 3ec0 2d3d 33d8 b138 637d 963d
000000d0: 06b1 a93d 95e6 8f3d 3549 3f3d 3a69 aabc
000000e0: e72d 9f3d bb12 2b3d 6705 263d 35b9 513d
000000f0: 1106 1d3d 942d 743d f865 68bd 94b9 023d
00000100: 02ec fc3d 5e2e 493d f25d 2e3d c4d6 98bd
00000110: 7497 e43d 0a09 983c f887 d73d d16f 133d
00000120: 5f09 133d a120 1ebd 23a3 2dbd f352 0bbd
00000130: dd47 61bd 6c57 0c3d ae33 0e3b 925c 8ebd
00000140: e140 853d 0aa8 4fbd 8fc2 17bd 7f5b 33b9
00000150: 1d69 893d 3a0a 51bc 1b28 5d3d 4919 193b
00000160: 6296 8abd fa78 373d 0560 8a3d 584a fb3d
00000170: bbbe 213c de21 983d 9802 743d 3ea9 d0b9
00000180: 6d63 a83d 8097 ab3c 94ab efbc 03e8 453d
00000190: 0dce 7a3d 0a44 12bd 574f 8ebd e9c3 103e
000001a0: 200d 7dbd d675 283d 98d9 41bc c476 1cbc
000001b0: b90f 6d3d e4a0 97bc 6d83 a6bc 2b34 bf3d
000001c0: b3a1 2bbc f853 473d 3dde 203d 4c5c e33d
000001d0: f9c3 ccbc 9b08 853d 1b71 53bd d425 9cbd
000001e0: d176 593d 3844 893d 05bc 8dbd 5e15 b93d
000001f0: 391c 4dbd bd48 ce3d 86de 8d3c 1048 913d

model.model.8.weight f4 [7, 128]
-0.024372945 -0.0028399185 -0.019826785 0.01902219 0.021791173 -0.026215957 0.08872045 0.07151073
-0.00012644168 0.0807734 -0.02985875 0.022399284 -0.021393761 -0.02354616 0.009549656 0.079019345
0.10189151 -0.008644678 -0.00016794354 0.08499642 0.040028818 0.080153875 -0.054488182 -0.02035078
0.03535309 0.07636845 -0.0068881586 0.1113856 0.09288583 0.010615035 -0.064235285 0.08376833
0.09357347 0.076663814 0.009078414 -0.017712817 0.00958026 0.02607765 -0.02664874 0.021482045
-0.017400805 -0.0872279 -0.013529042 0.010159154 0.050112437 -0.031594887 0.0031714977 0.0002639016
-0.0018896802 0.07179912 -0.059125215 0.018992545 -0.02922928 0.016885042 0.018189669 -0.010748192
0.0800888 0.108765006 0.09512034 0.061052375 -0.0054810247 -0.045321234 0.051866367 0.05729753
0.010260333 0.07063024 0.005640446 -0.0564394 -0.006740698 0.03833579 0.10286639 0.112013645
-0.048536003 -0.080806725 0.056581236 0.084962964 0.039214008 0.04642899 -0.06861879 0.035542175
0.060983818 -0.068479285 0.12799887 0.023060575 -0.003286687 0.086678274 -0.044865347 0.089018896
0.092821956 -0.04772359 -0.06510009 -0.034601267 0.025200622 0.029858744 -0.003597453 0.016879894
-0.05639346 -0.030807616 0.05506564 0.019282833 0.08193706 -0.0038517246 0.013933334 -0.020608699
-0.026273523 0.049566932 0.13152656 -0.013375511 0.04407242 0.024001762 0.036536198 0.090021834
0.0366623 0.029675446 0.009907226 -0.031690564 0.101376496 0.011848496 -0.079256356 0.058441453
0.06738964 -0.017028907 0.07259681 -0.012923449 0.0050451774 0.063282475 -0.06773112 0.042588647
-0.06374299 -0.07258101 0.09891429 0.07808541 0.004279377 0.06609875 0.11678795 6.648625e-05
0.1031774 0.063387156 0.0026585732 0.016848639 0.120259635 0.058192674 0.087018795 -0.008243032
-0.015447706 0.041299753 -0.011409044 0.11327587 0.062318627 0.057735853 -0.08378014 -0.0853971
0.101369694 0.0704212 0.010894133 0.09067855 0.13012688 0.09596229 0.07765924 0.0067572766
-0.028880818 -0.05954068 -0.041171245 -0.076789685 0.061686646 0.02883177 -0.031311143 -0.08281384
-0.03310795 -0.039547093 0.08156415 0.072259985 0.015171592 -0.009744887 0.052054606 0.081955284
0.019666374 -0.0029132697 -0.06855849 0.020455668 0.008683542 -0.02796634 0.031077929 -0.01209695
0.13125427 0.08455108 -0.0115735065 0.031505443 -0.028060338 -0.058980305 -0.015109894 -0.023154095
0.105323955 0.05966225 0.06746039 -0.06718202 0.043071628 0.06463007 -0.0013882266 0.042994972
0.03395102 0.034712147 0.072140194 0.026081381 -0.019762453 0.097358055 0.02833724 0.007535415
0.021162048 -0.063587144 0.033219703 -0.04699328 0.08586797 -0.078864984 0.014698249 0.10137974
-0.023949785 -0.04947762 0.07423314 0.097582616 0.023642933 0.10547483 -0.00092226994 -0.011900978
-0.062250566 0.08836982 -0.016409345 0.08098415 0.12021555 0.06162417 -0.081485294 0.057767596
0.04763014 -0.030982243 0.13638863 0.037914075 -0.022258516 0.0721977 0.053783674 0.12824476
-0.021872764 -0.06212216 0.036408797 0.11763112 -0.011437459 -0.079794 -0.07557442 0.008653894
-0.03021773 -0.064521775 -0.008992924 -0.013960368 -0.06538005 -0.009007202 -0.08699933 -0.03184562
00000000: c5a9 c7bc ed1d 3abb c86b a2bc 6cd4 9b3c
00000010: 6783 b23c d9c2 d6bc 11b3 b53d 3874 923d
00000020: 6e95 04b9 866c a53d 569a f4bc b47e b73c
00000030: f841 afbc e0e3 c0bc 2976 1c3c e5d4 a13d
00000040: 7fac d03d 68a2 0dbc 001a 30b9 9a12 ae3d
00000050: 42f5 233d b727 a43d 002f 5fbd aeb6 a6bc
00000060: 67ce 103d 1067 9c3d 10b6 e1bb 221e e43d
00000070: ed3a be3d afea 2d3c ca8d 83bd bb8e ab3d
00000080: 73a3 bf3d eb01 9d3d a1bd 143c 781a 91bc
00000090: 86f6 1c3c cca0 d53c 754e dabc 1dfb af3c
000000a0: 228c 8ebc 8ba4 b2bd eaa8 5dbc 9572 263c
000000b0: b342 4d3d a469 01bd e7d8 4f3b 465c 8a39
000000c0: 25af f7ba 6b0b 933d 482d 72bd 4196 9b3c
000000d0: 3e72 efbc 8052 8a3c 8002 953c 2f19 30bc
000000e0: 9905 a43d 30c0 de3d 74ce c23d 0e12 7a3d
000000f0: 2b9a b3bb c2a2 39bd d471 543d d1b0 6a3d
00000100: f51a 283c 96a6 903d 7ed3 b83b 002d 67bd
00000110: 13e1 dcbb fd05 1d3d 9dab d23d 6967 e53d
00000120: b0cd 46bd ff7d a5bd bac1 673d 1001 ae3d
00000130: de9e 203d 532c 3e3d 0288 8cbd ac94 113d
00000140: 2bca 793d de3e 8cbd 2312 033e 88e9 bc3c
00000150: 7565 57bb 6184 b13d bac4 37bd 8a4f b63d
00000160: 7019 be3d d079 43bd 3253 85bd 0fba 0dbd
00000170: 8971 ce3c 539a f43c 3fc3 6bbb b447 8a3c
00000180: d4fc 66bd 4160 fcbc 828c 613d 08f7 9d3c
00000190: 9ece a73d 376d 7cbb a348 643c 93d3 a8bc
000001a0: 923b d7bc b206 4b3d e6ae 063e f624 5bbc
000001b0: 4885 343d 589f c43c fba6 153d 5e5d b83d
000001c0: 352b 163d ec19 f33c eb51 223c f7cd 01bd
000001d0: 7b9e cf3d 3220 423c 2851 a2bd 4e60 6f3d
000001e0: 9403 8a3d 3580 8bbc a3ad 943d e0bc 53bc
000001f0: 0452 a53b 3e9a 813d 9db6 8abd 6f71 2e3d
00000200: af8b 82bd 5aa5 94bd 9393 ca3d 3eeb 9f3d
00000210: 043a 8c3b c85e 873d 852e ef3d 896e 8b38
00000220: ac4e d33d 20d1 813d 753b 2e3b 2806 8a3c
00000230: af4a f63d 715b 6e3d e936 b23d c80d 07bc
00000240: 6018 7dbc ee29 293d 00ed 3abc 2efd e73d
00000250: d141 7f3d 6e7c 6c3d ec94 abbd ade4 aebd
00000260: ea9a cf3d fd38 903d 4e7d 323c adb5 b93d
00000270: fb3f 053e e187 c43d cf0b 9f3d 256c dd3b
00000280: 7797 ecbc eee0 73bd 2ea3 28bd e943 9dbd
00000290: 23ab 7c3d 9b30 ec3c 1d40 00bd 4d9a a9bd
000002a0: 349c 07bd 22fc 21bd 1b0b a73d 0bfd 933d
000002b0: 4592 783c 05a9 1fbc 3637 553d 2cd8 a73d
000002c0: 601b a13c 8eec 3ebb 6568 8cbd a592 a73c
000002d0: 6a45 0e3c aa19 e5bc 2497 fe3c 4932 46bc
000002e0: 8567 063e 1e29 ad3d ce9e 3dbc da0b 013d
000002f0: cbde e5bc 5595 71bd 7d8f 77bc a8ad bdbc
00000300: 16b4 d73d 6760 743d ac28 8a3d ba96 89bd
00000310: e06b 303d c55c 843d 28f5 b5ba 7f1b 303d
00000320: 3a10 0b3d 532e 0e3d 3dbe 933d 9fa8 d53c
00000330: dee4 a1bc a963 c73d 8023 e83c a4eb f63b
00000340: 085c ad3c fa39 82bd 6211 083d 077c 40bd
00000350: 8cdb af3d f783 a1bd edd0 703c 2ea0 cf3d
00000360: 5732 c4bc 0ba9 4abd 8b07 983d 65d9 c73d
00000370: d3ae c13c 3003 d83d 7dc4 71ba 52fc 42bc
00000380: 73fa 7ebd 3cfb b43d e46c 86bc 05db a53d
00000390: 9233 f63d a069 7c3d c3e1 a6bd b79d 6c3d
000003a0: d217 433d 79ce fdbc 76a9 0b3e ca4b 1b3d
000003b0: 7e57 b6bc 63dc 933d 454c 5c3d 9852 033e
000003c0: 832e b3bc ce73 7ebd 6421 153d 96e8 f03d
000003d0: 2e64 3bbc 096b a3bd c3c6 9abd 10c9 0d3c
000003e0: 2c8b f7bc fe23 84bd 0f57 13bc 07ba 64bc
000003f0: fae5 85bd f292 13bc b42c b2bd 8e70 02bd

model.model.8.bias f4 [7]
0.10398842 0.11318311 0.15891004 0.0042651314 0.12143925 0.07304036 0.022423735
00000000: e1f7 d43d 8ccc e73d 50b9 223e 84c2 8b3b
00000010: 24b5 f83d 2f96 953d fbb1 b73c

model_old.model.0.weight f4 [32, 1, 4, 4]
0.22491111 -0.26881257 -0.19837952 -0.23102562 -0.16235183 0.09522092 0.18012872 -0.05025037
0.18881252 -0.04086394 -0.007729195 -0.07851087 0.27242243 -0.010224449 -0.21024548 -0.1093145
-0.0273837 -0.111662894 -0.086633064 0.048317026 -0.04965324 0.05142223 0.14409032 -0.23589572
-0.20120943 -0.04283837 0.23143804 -0.20966846 -0.10413425 0.15278898 0.06752737 -0.22310057
-0.066435866 0.046282686 -0.17939968 -0.16659188 0.17600755 -0.06463254 -0.128728 0.08068729
0.19006155 -0.10477119 -0.0545334 -0.028942663 0.27259707 0.093310736 0.016908092 0.19424315
-0.1238682 -0.15199794 0.1489989 -0.020413963 0.12605283 0.0022867057 -0.3256657 0.18816997
0.014182127 0.2336192 -0.20276478 -0.17595163 -0.024628075 0.051917925 -0.11728401 0.1414624
0.060066275 0.10879287 0.16386497 0.18713488 -0.13726309 0.028190872 0.0003298938 0.03630077
0.017463569 0.15204515 0.075339705 -0.13442923 -0.10022486 0.023061179 -0.0102489265 0.16592629
-0.0560643 -0.18142253 0.07680979 -0.17507763 0.009893397 0.109451756 0.27787888 -0.22151564
-0.18807152 0.06435845 -0.31870136 0.24229206 -0.054412983 -0.06469963 -0.08715354 -0.16928339
-0.22710307 0.28417128 0.021511428 0.011411009 -0.2555831 0.08816364 0.012009437 -0.1174406
-0.027650097 0.07319407 -0.07106225 -0.059769183 -0.21512045 -0.199204 -0.06990476 -0.09648043
0.068225384 -0.18391538 0.28499863 -0.115825646 -0.040526304 0.012275869 -0.04243571 0.15956847
-0.0829955 -0.13046253 0.11691208 -0.2404956 0.05422188 -0.04056974 -0.07890789 0.1845501
0.30285627 0.06887686 0.13006262 0.1465116 -0.09203786 -0.019055234 0.17031732 -0.25847742
0.24144073 0.060514756 -0.23423432 -0.20763665 0.110487245 -0.08677607 -0.09676542 -0.17561747
0.010298347 -0.25299433 0.10819436 -0.20024109 -0.06889453 -0.10111962 0.21493573 0.121251926
-0.24746372 0.16703282 0.07600184 -0.17559126 -0.08491872 -0.1273103 0.17304847 0.119427286
0.032210726 -0.11019484 -0.2559594 0.18576676 -0.25633588 -0.10167008 0.16195108 0.14956583
-0.051606677 0.10142826 0.1479241 -0.026048133 0.27413833 -0.14638454 0.13034663 0.16251041
-0.015971258 0.10434833 0.09444776 -0.20248224 -0.23531784 0.10739685 0.08663208 0.16656269
-0.19744383 0.21635385 -0.04867291 0.22269289 0.10186399 -0.07834346 0.00027069234 0.20645733
-0.18588655 0.11591229 -0.049347024 0.019045023 -0.26736924 0.031707108 0.20800196 -0.12205831
-0.16649663 -0.09676414 -0.05409396 -0.17644691 0.22226454 0.14846729 0.06828739 0.21393824
-0.002729969 -0.021859657 -0.09382957 0.0051847445 0.09926493 0.17039856 -0.09649698 -0.10349693
-0.20444454 -0.108387254 0.3013 -0.16311212 0.09148955 -0.19819541 -0.12360635 -0.12587672
0.146583 0.09781596 0.06666833 0.11133505 0.19458708 0.17592283 -0.12107136 0.20925139
-0.16450964 -0.2907306 0.13393684 -0.22445998 -0.18040428 -0.16937399 -0.08826649 -0.2083747
-0.2466299 -0.012326993 0.07212884 0.24205655 -0.18855287 0.17639688 0.036979392 -0.31084567
0.015924636 -0.20092276 0.23299001 -0.047035925 -0.017249996 -0.13390361 0.014522003 -0.20647226
00000000: 194f 663e cda1 89be 0024 4bbe fb91 6cbe
00000010: 8f3f 26be 3003 c33d aa73 383e 55d3 4dbd
00000020: 1258 413e f260 27bd 3045 fdbb 4fca a0bd
00000030: f47a 8b3e 7384 27bc 974a 57be 48e0 dfbd
00000040: c853 e0bc 84af e4bd ad6c b1bd 13e8 453d
00000050: 3261 4bbd 1ea0 523d 6a8c 133e a68e 71be
00000060: d809 4ebe 4977 2fbd 18fe 6c3e 54b3 56be
00000070: 5644 d5bd b774 1c3e ca4b 8a3d 7a74 64be
00000080: 870f 88bd ea92 3d3d 8db4 37be 1097 2abe
00000090: 533b 343e 115e 84bd 46d1 03be 613f a53d
000000a0: 7f9f 423e 4792 d6bd 6a5e 5fbd 2a19 edbc
000000b0: d891 8b3e b319 bf3d d782 8a3c ade7 463e
000000c0: 9cae fdbd 59a5 1bbe 2b93 183e 2f3b a7bc
000000d0: fe13 013e 8edc 153b a8bd a6be a1af 403e
000000e0: 275c 683c df39 6f3e 92a1 4fbe aa2c 34be
000000f0: d1c0 c9bc e4a7 543d 9932 f0bd 85db 103e
00000100: 0e08 763d ccce de3d 38cc 273e 49a0 3f3e
00000110: b28e 0cbe 8bf0 e63c 99f5 ac39 1eb0 143d
00000120: c20f 8f3c b9b1 1b3e b44b 9a3d d1a7 09be
00000130: b142 cdbd ccea bc3c 1deb 27bc 95e8 293e
00000140: aea3 65bd d4c6 39be 744e 9d3d 8d47 33be
00000150: ea17 223c 3e28 e03d 2446 8e3e ffd4 62be
00000160: d295 40be 5dce 833d d32c a3be 691b 783e
00000170: 26e0 5ebd 3d81 84bd 8e7d b2bd a058 2dbe
00000180: b58d 68be e67e 913e bc38 b03c 3ef5 3a3c
00000190: cadb 82be 238f b43d 3bc3 443c b384 f0bd
000001a0: 7582 e2bc c6e6 953d 1689 91bd 88d0 74bd
000001b0: 8948 5cbe 22fc 4bbe 3a2a 8fbd 8897 c5bd
000001c0: c0b9 8b3d 5054 3cbe 57eb 913e ff35 edbd
000001d0: e9fe 25bd ba20 493c 11d1 2dbd eb65 233e
000001e0: 8bf9 a9bd f897 05be 9a6f ef3d 7b44 76be
000001f0: c317 5e3d 752c 26bd 769a a1bd b4fa 3c3e
00000200: fa0f 9b3e 500f 8d3d 232f 053e 2307 163e
00000210: 587e bcbd b919 9cbc aa67 2e3e 2757 84be
00000220: 3d3c 773e 52de 773d 1fdb 6fbe b49e 54be
00000230: 2347 e23d a7b7 b1bd f32c c6bd 11d5 33be
00000240: 66ba 283c 7988 81be 0195 dd3d 000c 4dbe
00000250: 9318 8dbd ce17 cfbd 1d18 5c3e ee52 f83d
00000260: 2167 7dbe a70a 2b3e daa6 9b3d 32ce 33be
00000270: dee9 adbd a25d 02be 9e33 313e 4b96 f43d
00000280: 65ef 033d d5ad e1bd 1c0d 83be a439 3e3e
00000290: 753e 83be 6738 d0bd 81d6 253e c927 193e
000002a0: 8661 53bd 9fb9 cf3d 6a79 173e e562 d5bc
000002b0: dc5b 8c3e d4e5 15be 9679 053e 2169 263e
000002c0: 28d6 82bc 94b4 d53d d46d c13d 8157 4fbe
000002d0: 29f7 70be e1f2 db3d 296c b13d 698f 2a3e
000002e0: b72e 4abe dd8b 5d3e 3f5d 47bd 9b09 643e
000002f0: 119e d03d 8972 a0bd b6eb 8d39 8d69 533e
00000300: 0b59 3ebe 6c63 ed3d 1b20 4abd 4f04 9c3c
00000310: 9fe4 88be 50df 013d 77fe 543e b5f9 f9bd
00000320: 187e 2abe 472c c6bd a191 5dbd 80ae 34be
00000330: 5199 633e cf07 183e 42da 8b3d a012 5b3e
00000340: 48e9 32bb 0613 b3bc b829 c0bd cae4 a93b
00000350: 694b cb3d f67c 2e3e 35a0 c5bd 33f6 d3bd
00000360: e959 51be 23fa ddbd fe43 9a3e dd06 27be
00000370: e05e bb3d bdf3 4abe 5325 fdbd d4e5 00be
00000380: db19 163e bc53 c83d 6889 883d a103 e43d
00000390: d641 473e 1d25 343e 43f4 f7bd ff45 563e
000003a0: 3775 28be a4da 94be bd26 093e d6d8 65be
000003b0: e6bb 38be 6070 2dbe 10c5 b4bd 2d60 55be
000003c0: 8c8c 7cbe 28f7 49bc 49b8 933d acdd 773e
000003d0: 0114 41be 62a1 343e b477 173d 2a27 9fbe
000003e0: 6274 823c b2be 4dbe ef94 6e3e bea8 40bd
000003f0: dd4f 8dbc 071e 09be b2ed 6d3c 776d 53be

model_old.model.0.bias f4 [32]
0.10196281 0.08893816 0.27031124 0.16248311 0.24124499 -0.12476672 -0.1470276 0.033613525
0.15422043 0.23893064 0.31557396 0.07579496 0.06683812 -0.053171873 -0.1599971 -0.08296843
0.13593169 0.26496923 0.025558932 -0.19739935 0.2262269 -0.02821909 0.2596389 -0.1873839
0.16927873 0.09861651 0.18208034 0.13744736 0.291176 0.0057955803 -0.21124248 -0.1740338
00000000: e1d1 d03d 3625 b63d 3c66 8a3e f961 263e
00000010: ed08 773e b285 ffbd 678e 16be 56ae 093d
00000020: f6eb 1d3e 3caa 743e e992 a13e 633a 9b3d
00000030: 6de2 883d c0ca 59bd 48d6 23be 5aeb a9bd
00000040: ad31 0b3e 0caa 873e f760 d13c 0e23 4abe
00000050: 06a8 673e b92b e7bc 64ef 843e 91e1 3fbe
00000060: 6757 2d3e 74f7 c93d 4573 3a3e 00bf 0c3e
00000070: 0515 953e dae8 bd3b f34f 58be eb35 32be

model_old.model.4.weight f4 [128, 384]
0.011310617 0.124408446 0.005645524 0.04423502 0.024531517 -0.030606275 0.03691058 0.0003137958
-0.16812481 0.1506478 0.006912296 0.018383669 -0.05368851 0.0032502743 0.019816482 0.06688002
0.0033589017 -0.087146476 0.013724542 0.05142513 0.005957333 0.06682523 -0.050721306 0.018442396
0.057330552 -0.026661072 -0.04979067 -0.014096033 -0.07588434 0.08651298 0.025185233 0.040410217
-0.032559913 0.096819185 0.025589352 0.006889279 0.030616052 0.007975748 -0.08506185 0.02501039
0.045329805 -0.033656057 0.014114015 -0.04834153 0.060840774 -0.048825867 -0.035260126 0.023572724
0.014973997 -0.043251652 -0.021584786 -0.0020244336 -0.033391178 -0.02832148 0.027491797 -0.005026787
-0.024747869 -0.016690716 -0.027143935 -0.0648232 0.22029144 0.10731577 0.17935641 0.0081863925
0.14266764 0.0019713794 0.11453954 -0.033938784 0.10470836 0.0580418 0.122158654 0.12372553
0.082717136 0.047982696 0.10364841 0.11329059 0.021403966 -0.013222115 0.09641504 0.07261542
0.048271634 0.031264875 0.014113574 0.024377134 -0.0236977 0.017092733 0.0025955027 -0.053419337
-0.022697806 -0.0011189671 -0.00443421 -0.04312085 -0.02234803 0.008331731 -0.021781402 0.022972144
-0.08929446 -0.0032564367 0.0047149993 0.021393485 -0.05570176 -0.12769778 -0.09777212 -0.029615296
-0.11076779 0.071323074 -0.064203724 -0.027363304 -0.01046705 0.09576985 0.011994988 -0.05095871
-0.016279025 0.060574166 0.019265572 0.014399022 -0.030021014 0.06335583 0.045680873 0.047058508
-0.021047259 -0.010242693 0.022818498 -0.08880489 0.023724444 0.06947153 -0.045189332 -0.02935295
0.04019735 0.0362638 0.025106154 -0.02443354 0.08091932 -0.06253947 -0.028641129 -0.034855757
-0.06222523 -0.08180796 0.08348413 -0.036585025 0.03664001 -0.047310922 0.033316825 0.06798633
0.016022924 -0.06131077 0.03128523 -0.017312493 0.041530095 0.00018056309 0.05787955 0.053096995
0.019817922 0.0061017415 -0.0347476 0.042039413 0.148179 0.013595346 -0.01947 0.019042728
0.14030278 -0.06746373 0.10047753 0.09242244 -0.06152417 0.09500189 0.008541327 0.07775093
-0.089654684 -0.059997965 0.017135393 -0.021666903 -0.047730125 0.0025357301 -0.07681842 -0.09872262
-0.01275854 -0.03654904 0.047678147 -0.030867273 0.05862545 0.08144882 0.056893844 0.10141558
-0.04134933 0.05940447 0.059652045 0.08152837 0.0038028485 -0.015110139 -0.057941727 -0.06746705
0.034047563 0.048661683 0.06810934 0.020836204 -0.06643398 -0.01968006 0.026565198 -0.07783567
-0.044381853 0.0775125 0.024979062 -0.016153302 -0.008745666 0.24566579 0.10153387 -0.008148099
0.16299963 0.065107554 0.028057922 0.030460864 0.06170651 0.10631294 -0.008651293 -0.07961241
0.081409715 0.062938206 0.03362053 0.027934358 0.016943274 0.027109388 -0.0014543834 -0.044575267
-0.034201182 -0.072514415 -0.08789193 -0.029433599 -0.060497057 0.00080375385 -0.027967773 -0.09288009
0.10513231 -0.026317403 0.028154314 -0.08133371 0.012310782 0.049993362 0.016573433 -0.100265376
0.04505557 0.054596618 0.04856716 0.09654774 0.03326793 0.0006759595 0.022280293 -0.067820966
-0.08043881 -0.06583549 -0.06452102 -0.044899106 0.1106402 0.12204022 -0.07999039 0.067513034
00000000: 2b50 393c dbc9 fe3d 16fe b83b c82f 353d
00000010: 52f6 c83c 03ba fabc 8c2f 173d f684 a439
00000020: e928 2cbe 6b43 1a3e 8b80 e23b 5999 963c
00000030: 7ce8 5bbd 8e02 553b 2d56 a23c 64f8 883d
00000040: 0521 5c3b da79 b2bd e7dc 603c 28a3 523d
00000050: bb35 c33b abdb 883d 25c1 4fbd 8214 973c
00000060: 71d3 6a3d 5268 dabc 4df1 4bbd 0cf3 66bc
00000070: 4069 9bbd b82d b13d 4351 ce3c 2f85 253d
00000080: 8b5d 05bd 2349 c63d c3a0 d13c 76bf e13b
00000090: 84ce fa3c b6ac 023c e834 aebd 97e2 cc3c
000000a0: bfab 393d efda 09bd 783e 673c c501 46bd
000000b0: 2d34 793d a2fd 47bd ec6c 10bd 961b c13c
000000c0: 7f55 753c a528 31bd 94d2 b0bc 5cac 04bb
000000d0: 30c5 08bd 7302 e8bc 7a36 e13c bfb7 a4bb
000000e0: 0bbc cabc f8ba 88bc f55c debc 07c2 84bd
000000f0: 1494 613e 5fc8 db3d 35a9 373e 3820 063c
00000100: 7717 123e 4232 013b b593 ea3d 6503 0bbd
00000110: 5671 d63d 3dbd 6d3d 512e fa3d d063 fd3d
00000120: 9a67 a93d 8189 443d 9e45 d43d e604 e83d
00000130: 5f57 af3c 92a1 58bc 4075 c53d 65b7 943d
00000140: 7ab8 453d 990f 003d 9f3c 673c 8eb2 c73c
00000150: ae21 c2bc 0f06 8c3c 4f19 2a3b 3cce 5abd
00000160: c0f0 b9bc 4eaa 92ba d94c 91bb 7d9f 30bd
00000170: 3713 b7bc d081 083c e96e b2bc 1430 bc3c
00000180: 04e0 b6bd f169 55bb 4880 9a3b 6441 af3c
00000190: 8727 64bd 35c3 02be c03c c8bd c79b f2bc
000001a0: 39da e2bd d511 923d 3e7d 83bd 0229 e0bc
000001b0: fd7d 2bbc fc22 c43d a086 443c 15ba 50bd
000001c0: 975b 85bc 9e1c 783d d5d2 9d3c e0e9 6b3c
000001d0: a1ee f5bc b4c0 813d de1b 3b3d 6cc0 403d
000001e0: 4d6b acbc f8d0 27bc dced ba3c 57df b5bd
000001f0: c459 c23c 1747 8e3d 7318 39bd 9975 f0bc
00000200: faa5 243d 5a89 143d 6cab cd3c d928 c8bc
00000210: 07b9 a53d b214 80bd cda0 eabc e9c4 0ebd
00000220: e2df 7ebd ef8a a7bd baf9 aa3d 2eda 15bd
00000230: d613 163d 19c9 41bd 3977 083d 6b3c 8b3d
00000240: 8242 833c 0121 7bbd f124 003d eed2 8dbc
00000250: 761b 2a3d 8955 3d39 1b13 6d3d 3c7c 593d
00000260: 3259 a23c 1ef1 c73b 8053 0ebd 8531 2c3d
00000270: 3cbc 173e 04bf 5e3c 8d7f 9fbc 7fff 9b3c
00000280: 88ab 0f3e 6d2a 8abd 2ac7 cd3d fa47 bd3d
00000290: c500 7cbd 5a90 c23d ecf0 0b3c e13b 9f3d
000002a0: e09c b7bd 6dc0 75bd 865f 8c3c ca7e b1bc
000002b0: aa80 43bd 7e2e 263b fa52 9dbd 162f cabd
000002c0: 3209 51bc 72b4 15bd 294a 433d 5ddd fcbc
000002d0: 3d21 703d a4ce a63d 8509 693d f9b2 cf3d
000002e0: ea5d 29bd 1a52 733d b455 743d 59f8 a63d
000002f0: 3639 793b 8490 77bc 4e54 6dbd 2a2c 8abd
00000300: 7575 0b3d 7951 473d e97c 8b3d b0b0 aa3c
00000310: 8a0e 88bd 1438 a1bc 429f d93c 4f68 9fbd
00000320: bfc9 35bd e0be 9e3d e4a0 cc3c ee53 84bc
00000330: fb49 0fbc d08f 7b3e fdf0 cf3d 9b7f 05bc
00000340: 60e9 263e 1c57 853d bad9 e53c 1089 f93c
00000350: f7bf 7c3d 99ba d93d 27be 0dbc d50b a3bd
00000360: 23ba a63d bfe5 803d aeb5 093d 98d6 e43c
00000370: 9fcc 8a3c 8214 de3c 02a1 beba 8e94 36bd
00000380: 8a16 0cbd 7082 94bd af00 b4bd bb1e f1bc
00000390: c3cb 77bd 02b3 523a ac1c e5bc eb37 bebd
000003a0: 9c4f d73d 9897 d7bc e0a3 e63c 4a92 a6bd
000003b0: 2ab3 493c d7c5 4c3d 02c5 873c ef57 cdbd
000003c0: 308c 383d b4a0 5f3d 5cee 463d d2ba c53d
000003d0: f443 083d e032 313a 2985 b63c b8e5 8abd
000003e0: 1abd a4bd c2d4 86bd 9923 84bd 20e8 37bd
000003f0: 5497 e23d 39f0 f93d 00d2 a3bd 4644 8a3d

model_old.model.4.bias f4 [128]
0.020303028 0.018710557 0.08439692 0.027859703 0.00880541 -0.01905052 0.05958371 0.0051416964
0.054386366 0.045611214 0.057595886 0.022034004 -0.01985612 0.053098008 0.06792296 0.038080916
0.0217851 0.046376392 0.058451634 0.0046292525 0.00033869242 -0.0035781288 0.07346429 -0.043199837
-0.0075537674 0.111137085 0.02253576 0.050904196 0.038663708 0.052857265 -0.016759234 -0.02364307
0.0227936 -0.056780268 -0.029179966 -0.000343435 0.10077048 -0.010346081 0.042744633 0.055413235
0.0028878113 -0.04252546 -0.005576593 0.066065945 0.05948628 0.030001745 0.051973708 0.055333488
0.0147637185 0.08090192 0.023055244 0.05352087 0.0034486286 0.027091304 0.05509358 0.01250971
0.050681446 0.028495764 0.03863516 0.033944648 0.035382282 -0.007281497 0.037395127 0.043561816
0.0025490017 0.063706174 0.0060884953 -0.020579515 0.059327696 -0.032367125 -0.07280591 0.05101378
0.05923489 0.029318048 0.06589199 -0.045556236 0.06774316 0.017238768 0.020648926 0.028671436
0.028488072 0.06185363 -0.00086652656 -0.025999356 -0.010321541 0.07090085 0.040120408 0.0889128
-0.022867378 0.017999299 0.04306333 -0.0023622287 -0.05905111 0.021203602 0.03588044 0.032026865
-0.008767633 0.0096145775 0.015208729 -0.024646131 0.072370954 0.02986244 0.07252296 0.0464903
-0.012597546 0.03429239 -0.0043584206 0.03793705 0.07859107 -0.031905405 0.04950926 0.07267748
0.05483917 0.062255852 -0.021798115 -0.05642419 0.05468751 -0.0048253075 -0.014713009 0.008654543
0.000981401 -0.027688894 0.041926596 0.003910735 -0.01679617 0.073618494 0.05425645 0.05092985
00000000: 8952 a63c e246 993c 4bd8 ac3d 083a e43c
00000010: 9144 103c d60f 9cbc 0c0e 743d ad7b a83b
00000020: 3dc4 5e3d d3d2 3a3d aae9 6b3d a880 b43c
00000030: 4da9 a2bc 4c7d 593d 311b 8b3d bcfa 1b3d
00000040: ab76 b23c 2cf5 3d3d fb6a 6f3d fcb0 973b
00000050: 8792 b139 0a7f 6abb 7274 963d 50f2 30bd
00000060: 9885 f7bb d79b e33d ea9c b83c eb80 503d
00000070: d65d 1e3d dc80 583d a94a 89bc 1daf c1bc
00000080: a5b9 ba3c 6d92 68bd d30a efbc 110f b4b9
00000090: c160 ce3d 9c82 29bc ff14 2f3d fdf8 623d
000000a0: 6f41 3d3b 2d2f 2ebd dabb b6bb 954d 873d
000000b0: e3a7 733d 38c6 f53c 62e2 543d 5ea5 623d
000000c0: 86e3 713c e8af a53d 5ade bc3c b338 5b3d
000000d0: 6302 623b 95ee dd3c cea9 613d 87f5 4c3c
000000e0: 5997 4f3d f36f e93c e73f 1e3d 8b09 0b3d
000000f0: 03ed 103d a099 eebb a22b 193d e06d 323d
00000100: 270d 273b 6278 823d 0082 c73b 5f96 a8bc
00000110: 9901 733d 6493 04bd 441b 95bd d3f3 503d
00000120: 49a0 723d 672c f03c 61f2 863d 2d99 3abd
00000130: edbc 8a3d 5138 8d3c f027 a93c 5ce0 ea3c
00000140: d15f e93c 3b5a 7d3d 9d27 63ba 9afc d4bc
00000150: ae1b 29bc 7734 913d 4c55 243d ea17 b63d
00000160: 5e54 bbbc 4473 933c 2d63 303d 9fcf 1abb
00000170: 94df 71bd 2db3 ad3c 5ef7 123d 9a2e 033d
00000180: 1ea6 0fbc 7686 1d3c 082e 793c afe6 c9bc
00000190: 3937 943d 13a2 f43c eb86 943d 9d6c 3e3d
000001a0: f065 4ebc 2d76 0c3d 15d1 8ebb e163 1b3d
000001b0: 5bf4 a03d 3eaf 02bd 39ca 4a3d eed7 943d
000001c0: 0a9f 603d feff 7e3d f691 b2bc 0d1d 67bd
000001d0: 0300 603d 9d1d 9ebb d50e 71bc c9cb 0d3c
000001e0: 5aa2 803a d2d3 e2bc 39bb 2b3d 9f25 803b
000001f0: 1f98 89bc 4bc5 963d 033c 5e3d d29b 503d
