project/paper_notebooks/saved_variables/paper_notebooks/7/6-20epoch_100loop/6-looping-iteration-83/final_policy_agent1.pth (torch, 543093 bytes, 16 tensors)

model.model.0.weight f4 [32, 1, 4, 4]
00000000: 2229 26be 60d9 f0bd 9286 5d3e 66c9 763c
00000010: 265a 673d 9ecf 433e 71a8 ee3a 0348 2cbe
00000020: e653 283e 39ee 813c e99d 633e d23a 463d
00000030: 5608 ec3d 8934 803c 8997 e73d 6243 213e
00000040: 2b1d 4a3d e7de 023d 52a5 13be d0db 96bd
00000050: 5c6f 8a3d e1e5 cf3d 361a 403e 16b1 59be
00000060: f63f 82be 67f2 463e 5e08 7bbe 5c66 a4be
00000070: 4480 44bc cdab b5bd b05d 573e 3749 77be
00000080: 4917 d13d eb0c d1bd a709 61be b629 fc3c
00000090: 51e2 4cbe 892b df3d e65a 1ebd 9891 9cbe
000000a0: 5191 95bd 749d 38bd b0d2 613e aca5 bb3d
000000b0: ab24 e5bc be34 613e b1ea 873d 76ca 093e
000000c0: 0f93 f03c 07c4 72be 8628 1dbe 6d1f 13be
000000d0: afca 1cbe 850e 4c3e a36e b1bd 014d 903d
000000e0: c6a7 403e 746e 34be 134d 313e b4c6 ec3d
000000f0: fe0c 59be bbb4 203e 599b f1bd fd0a 733e
00000100: 5fe7 97bc 0dfd b1bd 3a31 8e3e 902b fbbd
00000110: ea6c 923e d3ba 9e3d bb00 993d 04d6 9c3c
00000120: 3328 7f3e e8c4 9f3d ba4f d3bd 5cd1 92be
00000130: 3a13 10be 098e 17bd c3c0 e6bd 5459 0fbe
00000140: 46ba 563d d116 373e aa7d 70be c389 63be
00000150: 582e 8ebc 33da c23d 6fce ddba 5356 7bbe
00000160: 8c61 8f3e 9ed5 283e 0470 b0bc be20 6e3d
00000170: 0db4 8a3d 753d 52be de0f 4c3e 0fc4 253e
00000180: 46b7 04be d255 8a3d ac5f 66be 026c 183e
00000190: acb0 41bd 4664 e03d 02d2 2fbc 2bee c83d
000001a0: 891c 0e3e b19b 243e 91c4 4b3e 342e 4cbd
000001b0: 6ca2 92bd fc64 3a3b beb9 783e 092a f9bd
000001c0: 74c3 383e 00f7 68be 92aa 693e 3db2 4dbe
000001d0: 5e46 0d3e 3c79 51be a55c 96bd fbc9 0f3e
000001e0: b4fc 8b3e 767c 923d e561 05bc e3ef 6d3e
000001f0: 85d6 523e 7be5 a2bd 3bc8 c1bd 6ab5 36be
00000200: df2e 4cbe 9690 b73d 6884 c2bd dcc6 003e
00000210: ae10 91be 7c06 4a3e 6701 613e aa15 7fbe
00000220: bb67 72be 6e18 463c c619 173e e01a e2bd
00000230: c44f 353e fd73 8d3d c8c9 3c3e c7d3 abbd
00000240: 72c2 5abd a80f 0e3e 449a 553e 71b7 8dbc
00000250: 47da 90be fd62 b2bc 2506 f6bd 3215 6bbc
00000260: f3ef 843d dfb8 0bbe 3bb7 423e 91f6 2abe
00000270: e8cf 713e bb29 cdbd 9f8d 103d 8080 83bd
00000280: 5fd0 903d d77e eb3d fd61 86be 726d c13d
00000290: dfc2 6f3e 55e7 6fbe f987 91be eac5 1bbe
000002a0: a4fd 2e3e b933 693d 776d 8bbe 3fee e1bd
000002b0: 7f9d 613c 2874 75bd ed46 e03d 09f4 4d3e
000002c0: 7ecf 97bd 90d0 053d 7b94 473e 16a2 49bd
000002d0: 8f54 9abd 169b 483e 6631 733e 73ad 9cbd
000002e0: 82d7 d13d fd94 733e 8cc9 2f3e 789e 493d
000002f0: 00e6 353d 6fbd 56be 46a1 26be 6f99 043e
00000300: 3543 de3d 0b6d 0cbe 4e98 5fbd ada1 3abc
00000310: d0ec 6abd d727 3bbe 3f6c 6bbe 589d a5bc
00000320: eb14 a8bd 4c5b 44be 4c3a 483e 8ff3 0dbe
00000330: b344 38be eb77 403d 9cdf 2bbe 2be1 e0bc
00000340: e8da 90bd c08a e3ba 7b39 9bbe ccf8 38be
00000350: a4d7 fd3d 571e 553e bd85 32be f679 f23d
00000360: 594e ddbd d93c 8abe 97d3 6e3e eeca 33be
00000370: 302a 3a3e 296d 3abb 178c 4ebe 2115 5a3d
00000380: bfbb 003e 0bd9 d03d ed2e 9a3d a4ad 4cbc
00000390: 8c57 263d 5064 b93d a85f 203d e742 89be
000003a0: 6646 75be 65bb d93d 3029 2ebe c623 28be
000003b0: 6323 923e 509c 18bc 1ece 4d3e a4a6 43be
000003c0: 1f1e 3d3b a991 ce3d 915a 79bc 034c 66bd
000003d0: 88f0 3e3d 2ddb d8bc f851 88be 7834 033e
000003e0: 51f8 57be 1537 c63d 5f2f 893c b864 0ebe
000003f0: 17a2 46be 524c 2e3e 0500 b7bd d278 4f3e
-0.16226628 -0.11760211 0.21633366 0.015062666 0.056482457 0.19122168 0.0018208158 -0.16824345
0.16438255 0.015860664 0.22228207 0.04839594 0.115250275 0.01565005 0.113082 0.15748361
0.049344223 0.031950857 -0.14418533 -0.07366145 0.06759521 0.10151268 0.18759999 -0.21258959
-0.25439423 0.19428407 -0.2451491 -0.32109344 -0.0119934715 -0.08870659 0.21031833 -0.24149023
0.102095194 -0.10207542 -0.21976338 0.030781608 -0.20008208 0.108969755 -0.038660906 -0.3057983
-0.073031075 -0.045072034 0.22053027 0.09162459 -0.027971586 0.21992776 0.06636561 0.13456139
0.029366998 -0.23707591 -0.1534749 -0.14367457 -0.15311693 0.19927414 -0.086636804 0.07045937
0.18814 -0.1762026 0.17314558 0.11561337 -0.21196362 0.15693943 -0.11797208 0.2373466
-0.018542944 -0.08690844 0.27771932 -0.12264168 0.2859872 0.07750478 0.074708425 0.01914502
0.24917679 0.07801229 -0.10317941 -0.28675354 -0.14069834 -0.03700069 -0.11267235 -0.1399892
0.052423738 0.17879798 -0.23485437 -0.2222052 -0.017356083 0.095142744 -0.0016922484 -0.24544649
0.2800411 0.16487738 -0.021537788 0.058136694 0.06772623 -0.20531256 0.19927928 0.16188072
-0.12960538 0.0675465 -0.22497433 0.14884952 -0.047287628 0.10956626 -0.010731222 0.09811052
0.13878073 0.16075017 0.19899203 -0.04984875 -0.07159886 0.002844154 0.24289605 -0.12166221
0.1804331 -0.22750473 0.22818974 -0.20087524 0.13796374 -0.20456403 -0.07341889 0.14041893
0.27341235 0.07152645 -0.008141016 0.23236041 0.20589645 -0.07953926 -0.09462019 -0.17842641
-0.19939755 0.089631245 -0.09497911 0.12575859 -0.28333038 0.19729036 0.21973191 -0.24910608
-0.23672383 0.012090785 0.14755926 -0.11040282 0.1770621 0.06906889 0.18436348 -0.08390003
-0.053408094 0.1387316 0.20859629 -0.017299386 -0.28291532 -0.021775717 -0.12012891 -0.014348315
0.06491079 -0.13644741 0.1901521 -0.1669562 0.23614466 -0.10017725 0.03529131 -0.06420994
0.07070994 0.11498802 -0.26246634 0.09444703 0.23414181 -0.2342809 -0.2842405 -0.15212217
0.17088944 0.056934092 -0.27231953 -0.1103177 0.01377046 -0.05992523 0.10951028 0.20112623
-0.07412623 0.032669604 0.19490235 -0.049226843 -0.075356595 0.1959041 0.23749313 -0.0765027
0.10246183 0.23787303 0.17166728 0.049223393 0.0444088 -0.209707 -0.16272458 0.12949155
0.108526625 -0.13713472 -0.05458861 -0.011391086 -0.05735475 -0.18276916 -0.22990511 -0.020216629
-0.08207115 -0.19175452 0.19553488 -0.13862441 -0.17994957 0.046989363 -0.16784519 -0.027451118
-0.07073003 -0.0017360076 -0.30317292 -0.18063658 0.12394646 0.20812355 -0.1743383 0.118396685
-0.10805959 -0.26999548 0.23322903 -0.1755788 0.18180156 -0.0028446412 -0.20170628 0.053242806
0.1257162 0.10197648 0.07528482 -0.012492571 0.040610835 0.09052336 0.039153725 -0.26808855
-0.23952636 0.10631446 -0.170079 -0.16419896 0.28542623 -0.009314612 0.20098159 -0.19106537
0.0028857065 0.10086376 -0.015219347 -0.056224834 0.046616107 -0.026471699 -0.26625037 0.12812984
-0.21090819 0.09678475 0.016746221 -0.13905609 -0.1939777 0.17021301 -0.089355506 0.20260933

model.model.0.bias f4 [32]
00000000: b1cd 083c 8c0b 19be ba5c 43be 90ab bcbd
00000010: c848 13be 7b0e 58be 7f9f 9b3c ea15 ae3d
00000020: a1d4 5c3d 5435 203e ae0f 88bb a831 37be
00000030: 240c a13d 3337 8c3d 29e6 153e 49b1 493e
00000040: 799a 6a3e 7e0f b13d a003 80bd 7a76 4bbc
00000050: 5678 7d3e 1864 493e 36d2 0e3e b5ce a33e
00000060: bf27 1b3e 8e8d 8d3d 8b79 933d 2517 8b3e
00000070: 9a23 313e 6eff 3abe 1018 423e ca7b 1dbe
0.008349822 -0.14945811 -0.19078341 -0.092124104 -0.14383233 -0.21099274 0.018996952 0.085002735
0.053913716 0.15645343 -0.00415226 -0.17890036 0.07863644 0.06846466 0.1463858 0.19696535
0.22910489 0.08645533 -0.062506914 -0.012418384 0.24752936 0.19667089 0.13947377 0.31993642
0.1515188 0.06911765 0.07200917 0.27166095 0.17298737 -0.18261501 0.18954492 -0.15379253

model.model.4.weight f4 [128, 384]
00000000: 414c 07bd d94c 22bd ace2 94bc f153 4d3d
00000010: 0e06 0d3d 23f4 4e3d 4075 803b b2fa 9e3c
00000020: 0516 bc3c b817 473c b39a 56bd a923 3abd
00000030: 076f 193d ab82 043e 8a2b c73c 7284 893d
00000040: b1f5 cc3b 5739 baba 3880 013c e656 74bc
00000050: d936 b43d 4be8 fcbc cb11 c5bc f3fa ba3d
00000060: 60f6 b53d cb59 b73d 7414 5c3d 5dd6 343d
00000070: 04c5 2e3d 7843 293d b375 b83c 24d4 3e3d
00000080: 175b 123d 4af8 023d 168b 54bd af32 d8bc
00000090: 8461 973c 0f03 883c fceb e03c b90a e5ba
000000a0: 495c cc3c dacb 203c b2d9 a53d 6446 a73d
000000b0: de19 ba3d c609 6abd 5df5 6e3d 0bd7 c6bb
000000c0: 4327 37bd a832 c4bd 4c93 b2bc ded5 d03c
000000d0: e8b5 ee3c 3e70 d63b e5de 5fbd 31ce 243c
000000e0: 04d4 573c d124 ec3c ab99 2d3d 89c2 723d
000000f0: b213 bbbd 2186 a83c 8038 30bd 391e 7cbd
00000100: 0556 0ebd 4799 db3d d261 503d 42af 1f3d
00000110: 179d 993d 4a78 9c3d e310 1f3d 5874 f53c
00000120: 5c93 d0bd 84ca 113a 4a82 82bd eede d53c
00000130: effe cc3b 58dc 1dbd 478b e5bc 357e 42bc
00000140: 7461 633d e9cc b6bb e23e 793d 7c86 353d
00000150: 342c aebc b6fe 7ebc 9609 a4ba 6594 09bd
00000160: 8c1d 4abd 4110 a2bc fb5d 3f3d 3d5b 68bc
00000170: 34e9 113b 6a90 573d d32e a53d 1ffa 463d
00000180: d9e8 adbb 6cc0 5c3d 7b58 193d b9af 513d
00000190: 4233 ccbc 2940 a6ba 2f26 823d 0a2f 98bb
000001a0: d0ea 2f3c 32b7 bf3c 123d 36bd dffc 0e3d
000001b0: 302b 863c 72ab 4bbc 871c 55bc 3a0d 073d
000001c0: 0f0b 073d ae30 8a3d bfce 4dbd a93b 123d
000001d0: a7da 043c bdea 1fbd e696 d6bc 3508 61bd
000001e0: 19bf 23bd e9a1 933c 64a3 97bc f12f 5bbc
000001f0: 3f06 42bc 48ef a13d cf98 743d d471 f13c
00000200: 2d03 c53d bffd e03c ce3a 0abd 62b8 533d
00000210: a4c6 37bd 992e 15bd c210 21bd b81a 7e3c
00000220: d093 1bbb de5b fb3b 17f3 21bd b092 80bd
00000230: 5e47 bcbc 8ed0 88bd eb86 68bc 7840 2e3c
00000240: b3ef f83d 1f01 e0bc 5f89 493e 86dc c43d
00000250: 1eae 013e 1697 75bd 71e3 113e e695 f63d
00000260: 2949 d3bc 2e23 13bd ee3d 0d3e f1bf fe3c
00000270: 591d 3e3c 7da2 1d3e c897 873d 0903 453d
00000280: f005 f5bc b7dc 193e 7469 b33a 26bb f33b
00000290: a948 e63d 1307 323e 33d2 063e 9ffe 1a3e
000002a0: e09e 203c 1a17 a53c a671 aebc c782 8a3d
000002b0: 9e7c 993b 5c32 053d 9a69 d23c daf5 363d
000002c0: fcec 2f3d 81db c83c d3f2 173d 8664 ffbc
000002d0: f74c b43d 6a5a 603d 9ad3 aabb 193a 653d
000002e0: 2477 cb3c 6fe7 b6ba e2c1 e13d 6c34 b83b
000002f0: 2b92 953d c058 d93c 9e75 103d da69 363d
00000300: abdc cc3d 0845 933c b679 973d 55e1 453c
00000310: 1917 9a3c 6685 e9bd 99ab a63d bfe9 8d3d
00000320: 92f4 02bc 2681 92bd 4db6 ea3d dfad 8f3d
00000330: 7da7 053d 2dc3 2bbc 88e3 273b 54f4 143d
00000340: e737 f5bb 7b12 353d 8e65 62bd 22dc a43b
00000350: 1772 03bb db08 d03c 78cf 833d cb60 b93d
00000360: b029 b93d 08a0 b83d 138f e53d 00ae f73d
00000370: 31dd 173e 8507 ad3d ed54 053d 6876 91bb
00000380: 1339 8e3d b294 443d b710 133e 3568 c93d
00000390: b0e3 92bc 4aa1 c13c 785a 183e 0ed6 c23d
000003a0: cec6 bc3c 25eb 81bc fdf1 813c 08ae ab3d
000003b0: 02a1 2abc 0c7e c23d 62e5 2bbd babe 45ba
000003c0: 8a95 06bd 1313 d3ba a5e9 9f3b a8c7 0b3d
000003d0: 8577 cf3c 7c3f 403d 9fc3 e6bc 131d 11bd
000003e0: 1ac5 62bb 6c62 e4bc 0e21 973c 41bb 11bd
000003f0: c15d 873d c403 823d 25e5 07bd c98c ce3c
-0.033031706 -0.03962407 -0.018174492 0.05012888 0.034429602 0.050525796 0.0039202273 0.01940665
0.022959718 0.012151651 -0.052393626 -0.045444164 0.0374594 0.12940471 0.024312753 0.06714715
0.0062548746 -0.0014207762 0.007904105 -0.014913296 0.08799524 -0.030872485 -0.024056336 0.09129896
0.08884883 0.089526735 0.053730443 0.044149745 0.042668357 0.04132411 0.02251706 0.04658903
0.0357314 0.03197507 -0.051890455 -0.026391355 0.018479116 0.016603021 0.027456276 -0.0017474509
0.024946349 0.009814227 0.08098163 0.08167723 0.09086965 -0.057138227 0.058339465 -0.0060681156
-0.044715177 -0.095799744 -0.021798752 0.025492605 0.029139474 0.006544142 -0.05465593 0.0100589255
0.013173107 0.02882615 0.042382877 0.059267554 -0.09134616 0.02057177 -0.043022633 -0.06155226
-0.034750003 0.10722595 0.05087454 0.0389855 0.07500666 0.07640131 0.038834464 0.029962704
-0.101843566 0.0005561488 -0.06372507 0.026107278 0.0062559764 -0.038540214 -0.028020514 -0.01187091
0.05551286 -0.0055786264 0.060850985 0.044317707 -0.021261312 -0.0155636575 -0.0012515064 -0.033588786
-0.049344584 -0.019783141 0.046720486 -0.014181909 0.0022264244 0.05262796 0.08065572 0.048578378
-0.0053072986 0.053894445 0.037437897 0.051192973 -0.024926785 -0.0012683916 0.06354939 -0.0046442794
0.010737136 0.023402784 -0.044491835 0.034909125 0.016378015 -0.0124310125 -0.01300729 0.0329716
0.03296953 0.06747566 -0.050245997 0.035701428 0.008108771 -0.039042223 -0.026195 -0.054939467
-0.039977167 0.01802154 -0.018510528 -0.013378129 -0.0118423095 0.079069674 0.059716042 0.029473223
0.09619746 0.027464746 -0.033747487 0.051689513 -0.044867173 -0.036421392 -0.039322622 0.0155093
-0.0023739226 0.0076708635 -0.03953847 -0.062779784 -0.02298325 -0.06680404 -0.014192323 0.010635488
0.12155094 -0.027344285 0.19681309 0.09612374 0.12664077 -0.05995854 0.14246918 0.120403096
-0.025791721 -0.03592222 0.13793156 0.031097384 0.011603677 0.15394016 0.06620747 0.048098598
-0.029910058 0.15025602 0.0013688044 0.0074380813 0.112443276 0.17385511 0.13166122 0.15136193
0.009803504 0.020152617 -0.021294426 0.06763225 0.004684045 0.03251873 0.02568512 0.044668056
0.042950615 0.02451873 0.03709681 -0.031175863 0.088037424 0.054773726 -0.005213213 0.05596361
0.024837084 -0.0013954471 0.11023308 0.0056214835 0.0730327 0.026531577 0.03526842 0.04453454
0.100030266 0.017977253 0.073962614 0.012077649 0.018809842 -0.11402397 0.081381984 0.06929349
-0.00799288 -0.07153539 0.11460552 0.07015585 0.032630432 -0.010483545 0.0025617797 0.036365822
-0.0074834707 0.044207077 -0.05527263 0.0050311247 -0.0020057017 0.025394848 0.06436056 0.09051665
0.090411544 0.090148985 0.1120893 0.12093735 0.14830472 0.084487 0.032551695 -0.004439164
0.0694448 0.04799337 0.14361845 0.09834329 -0.017930835 0.023636479 0.14878261 0.09513484
0.023044016 -0.015859196 0.01586246 0.08382803 -0.010414364 0.09496698 -0.041966803 -0.0007543374
-0.032857455 -0.0016103707 0.0048801475 0.034125954 0.025325546 0.046935543 -0.028169451 -0.035428118
-0.0034602345 -0.027878962 0.018448379 -0.03557897 0.06609679 0.063483745 -0.033177514 0.025213616

model.model.4.bias f4 [128]
00000000: a867 333d e37c 743c 1b4a dbbb e382 3b3d
00000010: 0c88 093d 9ad0 0dbd 33d0 523d 02ab 16bd
00000020: fcc3 243a 044f 62bc b4c9 7bbc a7d2 683d
00000030: 083e 413d b6c8 6ebd edc9 4ebc b2a2 7ebd
00000040: b74a 8b3b 767a 42bd de42 083d b718 c23d
00000050: 3438 913c 022b 203d 2b56 83bb c57a 8a3d
00000060: a4e9 0e3d 1534 06bd f091 20bd 5e3f 7a3b
00000070: 5ca9 b23c a172 18bc 5fc7 86bb 9e93 40bd
00000080: c4d4 2f3d 1903 763d 24f6 f63c 4fc0 54bb
00000090: cab3 36bd 9d50 40bd 414e 023d 6184 823d
000000a0: 6464 1fbd 792d 3f3c 4c28 dabc 50a5 103c
000000b0: 5cb2 14bd d907 8dbc 4f33 55bd 1f56 1cbc
000000c0: b560 433c 9364 08bd 9320 903c 4a60 e73c
000000d0: 6c65 48bc 2a77 063d a03d 78bc 2a75 47ba
000000e0: 1e9c f6bc 5f0e 17bd 3fc1 963d a9e8 ce3c
000000f0: 19b7 76bc 19ea 9b3c 589a 383d c029 0fbd
00000100: 6b8e b83c c9bb 7b3d 6215 43bc 695c 033d
00000110: c4a2 053d 2b76 803c 1dcd 713d f0c7 0b3d
00000120: 376c 273d 8eaf 1c3d 24ff 0f3c a70c 293d
00000130: 3260 b0bc 392f 593d 8a9b 603d f317 a63b
00000140: 853c 7a3d 61fb da3c a2ca 05bc ebab efbc
00000150: 9174 5abd b808 eb3c c523 47bd 23f6 c43c
00000160: 519d 823c 6e83 2fbd da8b 003d 7720 8dbc
00000170: ae5f 473d 93be 63bc 6566 663c 982f 8a3c
00000180: 5265 803d 891e 293d fd0f 1a3d 2a79 3d3c
00000190: 3522 1c3d 471c f53c da8a 61bc 2d36 6f3d
000001a0: 9f09 10bd 1bc3 04bb 222d 833d 9c2e 213d
000001b0: 5d6d 3dbd 9c1f 3abd 0d60 753d 86e9 10bd
000001c0: ed03 3ebc 2b23 1139 7113 9fba 3ad2 3e3d
000001d0: 920f 703d d735 8bbd 6524 f13c f4f0 1bbc
000001e0: 3e41 fb3b f819 413d 0f9b 00bd 1eb8 59bc
000001f0: a8b0 03bd b526 4ebd 8021 98bc 3ee6 113d
0.043800026 0.014922353 -0.0066921837 0.04577912 0.03357701 -0.034622766 0.051468085 -0.03678418
0.00062853075 -0.013812784 -0.015367914 0.05684152 0.0471783 -0.05829688 -0.012621385 -0.062166877
0.00425085 -0.04748007 0.033266895 0.0947737 0.017726995 0.039103515 -0.0040080748 0.06761698
0.034890786 -0.032764513 -0.039201677 0.0038184742 0.021809272 -0.009304673 -0.0041131224 -0.04701578
0.04292752 0.060061548 0.030146666 -0.0032463258 -0.044605054 -0.04695188 0.03181291 0.063729055
-0.0389141 0.011668556 -0.026630543 0.008828476 -0.03630291 -0.017215656 -0.052050885 -0.009542017
0.011924912 -0.03329904 0.017593658 0.028244156 -0.012231212 0.032828487 -0.015151411 -0.00076087064
-0.03010374 -0.03687894 0.073610775 0.025257425 -0.015058302 0.019032525 0.04506907 -0.034951925
0.022528848 0.061458383 -0.0119069535 0.03207055 0.03262593 0.015681347 0.059033502 0.034126222
0.040874686 0.03825336 0.008788858 0.04127183 -0.021530244 0.05302355 0.054835834 0.005068773
0.061092872 0.026731195 -0.008165987 -0.029256782 -0.053333823 0.02869068 -0.048618097 0.024043148
0.015944155 -0.04284995 0.031383373 -0.017227395 0.04867523 -0.013900417 0.014062499 0.016868398
0.06269325 0.041288886 0.037612904 0.011564532 0.03811856 0.02992071 -0.013766015 0.058401275
-0.035165425 -0.0020257893 0.06405093 0.03935109 -0.046246875 -0.0454403 0.059906054 -0.035378955
-0.011597616 0.00013841379 -0.0012136531 0.046587206 0.0586086 -0.067973785 0.0294363 -0.009517897
0.0076676896 0.047143906 -0.031397875 -0.013288526 -0.032150894 -0.050329883 -0.018570662 0.035619967

model.model.6.weight f4 [128, 128]
00000000: 018f 9abd 1822 ce3c b43f b4bd 09a4 32bc
00000010: ad95 933d b63b b0bd 8a2b 923d 0397 b8bd
00000020: de9c 4b3d 1ace 2b3d 7b92 f9bc af4b 1a3a
00000030: 700e c23b 988b d43c f8f7 b03d b382 983d
00000040: 2432 9dbd 586a 21bc 53c3 0c3d dcec 2bbd
00000050: 5ad6 293d 0506 83bd b01c 14bd f32a a63d
00000060: 0c9b 88bc 3310 a73d e084 6bbd a41d 963d
00000070: f14e dcbc 9fdb 8ebc 9fb4 fb3c d35d 863d
00000080: 6791 63bc edf2 afbb 0402 96bd 3a32 403d
00000090: 205a b13d 31ab c6bc 67a3 ae3d a914 75bc
000000a0: 23a4 91bd 277c febc 6166 c6bc 63ee 423d
000000b0: f173 c43a f5e2 dfbc b66a 69bd 72db a2bd
000000c0: 2d0c 73bd bbf4 b3bd 85d6 d93b 5899 0a3c
000000d0: ccde 9f3d 4a94 86bd 00b3 69bd 8f18 98bd
000000e0: 6024 363b fdfd 8bbd c04d d5bb 277c 63bd
000000f0: 426d 22bd 36c9 85bd da50 993d 8372 5f3c
00000100: 0167 08bd 47ea 1d3d 1dad 95bd 8c7f f8bc
00000110: 020f 4a3d 8152 0a3d 1500 afbc f84b 6d3d
00000120: cffc b6bd 7d4b 2a3d 6a46 87bb 820b 843b
00000130: 69dc 88bc 19cc 80bd 1f16 13bd cdd5 1d3d
00000140: bb41 b33c d452 7fbd 3fd0 7cbd 8ade 973d
00000150: 9063 623c e4c1 fc3c 86de 7b3d 29a6 8f3d
00000160: e193 883d 6a4f 6bbd 6b52 133d 7d50 ab3d
00000170: 9d4c 543c b024 20bd c26c d33c a680 323d
00000180: cd03 193d 1a17 a4bc a8d9 8b3d 0d75 45bd
00000190: 24bd 86bd 5016 21bd 2fcc 883d f9b3 96bd
000001a0: f5c4 ac3d ead4 ffbc 847e 863d cb77 3b3c
000001b0: 23d3 9cbd 1684 9fbd c330 88bc 26ed 903c
000001c0: 1fe9 4abc 5183 bebc 5038 843a c154 93bd
000001d0: 0e11 97bc 8fef b33d 7a6a e23b a49c 1fbd
000001e0: 0c1d 20bd 28f8 963d 4c6b 2a3d b8ba 023c
000001f0: ba9c 24bd 7ac2 353d 97cc 91bc 96fb 593d
00000200: a378 7dbd 2cf4 8ebd d88e 653c b3ca 47bd
00000210: ca1b 1d3d 3ceb ed3c 40d1 fb3a e452 ca3c
00000220: 12c2 b0bd 6653 213d 18dd 83bd eaab 493d
00000230: 72ce 6c3d 3940 80bd 1ef2 703d 2ed8 103d
00000240: f009 563c 9cfa a3bc 6607 673d 31fe adbd
00000250: 9093 b4bb a140 833d d7e6 5abd 6a6a d4bc
00000260: d0e5 1b3c 38db 6fbd e351 5cbd e5f4 19bd
00000270: 3ec6 35bd 908d 68bc 70ab 2e3c 80cc bebc
00000280: 119c a5bd 982c 943c 3040 9e3c 69cb 80bd
00000290: e940 923d 5005 b9bb 9829 193c dbc5 a03d
000002a0: 9893 6e3c 4aaf 0f3d 6d63 823d 92df 0e3d
000002b0: 93dc ab3d 2819 133d f873 aabd 904f 983c
000002c0: e9b6 8c3d 785e db3c c07c 22bc 5f54 5abd
000002d0: 36a3 9bbd e0ad 38bc 98c2 9abc 5632 333d
000002e0: 7096 04bc e741 b2bd 7f45 50bd c012 11bd
000002f0: 2331 883d a89e ec3c 28fa 65bc 809f 393b
00000300: 6187 b33d b25d 383d 4eae 9cbd e024 743b
00000310: e6c5 03bd 1151 a73d 08c8 16bc a8b7 853c
00000320: f59f 85bd 2838 dabc 4f3a 873d d4a1 20bd
00000330: 4271 183d 4f58 9bbd 1c82 c6bc 8058 4aba
00000340: 68ea f43c ec8e afbd f59b 8fbd e187 04bd
00000350: 3230 533d 1e2e 793d 10be 3f3c 8c8a 79bd
00000360: f653 1d3d 0384 813d 906f dcbc 3bcb 8c3d
00000370: 8179 8c3d 3724 afbd 682c 57bc e54f 5abd
00000380: 0288 28bd 5cd8 86bc 5820 f53c 5fe9 b4bd
00000390: ca45 6fbd 08e6 f13c 9306 13bd 94ed 923c
000003a0: de5c 673d 0c96 0f3d 9e46 97bd 9631 a4bd
000003b0: 8ad5 78bd e0a9 df3c d0c7 b2bd 8a91 e1bc
000003c0: 08ec 1cbc 4e01 2d3d 5284 1a3d 8c05 f8bc
000003d0: 60df 0c3d 60a0 85bd e3f4 97bd 83ff 45bd
000003e0: 481d ad3c 18dd e13c e1ea a0bd cf8d 863d
000003f0: 5cf1 d3bc 10fe d33b 40f1 c3bc e0e6 3fbc
-0.07546807 0.025162742 -0.08801213 -0.010903367 0.07206283 -0.08605139 0.07137211 -0.09013178
0.049710147 0.0419446 -0.030465355 0.00058859115 0.0059221312 0.02594547 0.08641046 0.07446804
-0.07675579 -0.0098520145 0.034365963 -0.041973934 0.041464187 -0.063976325 -0.03616017 0.08113661
-0.016675495 0.08157387 -0.057499766 0.07329872 -0.026893111 -0.017438708 0.030725775 0.06560864
-0.013889647 -0.005369535 -0.07324603 0.0469229 0.08659768 -0.024251552 0.0852726 -0.014958539
-0.07111385 -0.03106506 -0.02421874 0.047590625 0.0014988167 -0.027329901 -0.056986533 -0.07952012
-0.059337784 -0.08786913 0.006647887 0.008459412 0.07806167 -0.06571253 -0.057055473 -0.07426559
0.0027792677 -0.06835554 -0.0065095127 -0.055538323 -0.039654978 -0.065325186 0.07486124 0.013638142
-0.033301357 0.038553502 -0.07308409 -0.030334257 0.04933072 0.033770088 -0.021362344 0.057933778
-0.08934938 0.041575897 -0.004128267 0.004029692 -0.016706662 -0.062889285 -0.03590977 0.038533974
0.021881929 -0.06233485 -0.061722036 0.07415493 0.013817683 0.030854173 0.06149151 0.070141144
0.06668831 -0.057448782 0.03596727 0.08364961 0.012957719 -0.039097488 0.025808696 0.04357972
0.03735714 -0.020030547 0.06828624 -0.04820733 -0.065790445 -0.03932792 0.0667957 -0.07358546
0.08436004 -0.031229455 0.065671 0.011442135 -0.07657459 -0.07788865 -0.016624814 0.017691206
-0.012384682 -0.023255976 0.0010087583 -0.071939 -0.01844075 0.087859266 0.0069096657 -0.038967744
-0.0390902 0.07371551 0.041606233 0.0079790875 -0.04018853 0.04437492 -0.017797751 0.053218447
-0.061882626 -0.06980166 0.014011107 -0.048777293 0.03835658 0.029042833 0.0019212142 0.024697728
-0.08630766 0.039386176 -0.06438655 0.049236216 0.05781407 -0.062622495 0.05882465 0.035362415
0.013063893 -0.02001696 0.05640354 -0.08495749 -0.005510755 0.06408811 -0.053442802 -0.025929648
0.009515241 -0.058558673 -0.05378903 -0.037587065 -0.04437851 -0.014193907 0.010660991 -0.023290873
-0.08086408 0.01808767 0.019317716 -0.062887974 0.07141287 -0.0056463853 0.009348296 0.07850238
0.014561556 0.035079278 0.0636662 0.034881182 0.083916806 0.035912663 -0.083229005 0.018592626
0.06870825 0.026778445 -0.009917438 -0.05330312 -0.075994894 -0.011271924 -0.018891618 0.043749176
-0.008092508 -0.08703976 -0.050847527 -0.035418272 0.06649997 0.028884247 -0.014036693 0.002832383
0.08766056 0.04501123 -0.076504335 0.0037253425 -0.032171153 0.08169759 -0.009202965 0.016322926
-0.0652465 -0.026638106 0.06602918 -0.03921683 0.037217386 -0.07585203 -0.024231963 -0.0007718876
0.02989693 -0.08572182 -0.07012168 -0.032356147 0.051559635 0.060834996 0.011703029 -0.060923144
0.03841015 0.06324007 -0.026908666 0.06874701 0.068591125 -0.08551829 -0.013133146 -0.05329885
-0.041145332 -0.01646059 0.02992265 -0.088335745 -0.058416165 0.029528633 -0.03589494 0.017935552
0.05648505 0.035055205 -0.07386516 -0.0801727 -0.06075052 0.027302682 -0.087295175 -0.027535219
-0.009577759 0.042237572 0.037723847 -0.030276082 0.034392715 -0.0652473 -0.07419755 -0.048339378
0.021132126 0.027571246 -0.078572996 0.065700166 -0.025871925 0.0064694956 -0.023918748 -0.01171276

model.model.6.bias f4 [128]
00000000: bd92 99bd 7126 6dbd abf0 7b3d a152 843d
00000010: 6eda 5c3c f6f6 913d 661d 4c3c f711 b83d
00000020: e286 95bd 88d1 6d3d c81c 893d 51df 93bd
00000030: b73a e5bc 49cd f3bc e1ec ba3d 6846 57bd
00000040: 36f7 e93d 77e3 95bd 734b 98bc 7a01 95bd
00000050: 40ff a4bc 6cd0 84bd 39c0 25bd 5bc2 97bc
00000060: deba 6abd 95ed 8ebd 3dc7 c0bc 2c6d bd3c
00000070: 56a5 34bd edea 043d 15e6 063d df40 593b
00000080: be54 23bd 4c87 cebc a2c4 9dbd 022b a63c
00000090: beaa 953c 9e4b 6e3c 353e 113d 5549 903c
000000a0: aa49 99bc db4f e43c 5952 2c3d 20a2 98bd
000000b0: e5bd af3d bb96 b63b 11fb fd3c 62b7 9e3d
000000c0: 78a4 6fbd d94d 4fbc bc0b 2e3c 5e78 c43c
000000d0: 46cf 72bd 66ba 11bc c512 993d a221 a63d
000000e0: 6423 703c 0a04 e93a 31fb 54bd a181 0d3d
000000f0: 21af a63b 0b51 a0bd 679c 003e 267a 8f3d
00000100: e1e7 813d c48f 4d3d 5c71 73bd 3423 a73d
00000110: c6f1 0bbc 3e30 d4ba b057 7bbd e76a a4bc
00000120: 3c95 84bb bb9c bf3c 085a 96bd 5c98 8cbd
00000130: 56a3 caba 3c89 5abd 655c c1bc 2bb9 43bb
00000140: 42cb 573d 6ed9 91bd 5289 1f3e b36e b4bd
00000150: 7db1 983d 0aee bf3d 6171 4f3d ac95 57bd
00000160: 3c2c b43d c3b4 c03d bd04 713d e1e2 a13c
00000170: 4898 61bc f947 9b3d 562a 0ebd 67d1 ab3d
00000180: faa6 debc 7319 a1bd 04db c53c 7a4b 7a3d
00000190: 981d 02bc f52c 323d 346d f13d a7c6 7d3d
000001a0: e36a 2e3c 80c5 61bc 8509 c73d 5a28 55bc
000001b0: 3000 1b3d ffe6 4e3d 139d b0bd e2bc 13bd
000001c0: 4976 59bd a991 a2bd b25a 993d 4616 06bc
000001d0: 1cfa ad3d 0ec7 1e3d 6ce4 8d3c 2e2e dcbd
000001e0: 26ed f8bc 94d0 703d b602 f03d 82df 9a3c
000001f0: e9bd 3abd 079f ba3d 5d4a 5f3d 0314 8c3d
-0.07498691 -0.05789799 0.061508816 0.06461073 0.013479812 0.07127182 0.012458181 0.089878015
-0.073011175 0.058061153 0.06694943 -0.072203286 -0.027982099 -0.029760974 0.09127212 -0.05255738
0.11424105 -0.07318776 -0.018590664 -0.07275672 -0.020141244 -0.06485066 -0.04046652 -0.018525293
-0.057307117 -0.06978909 -0.023532504 0.023123346 -0.04410299 0.032450605 0.032934267 0.0033150238
-0.03987574 -0.025210999 -0.0770352 0.02028418 0.018269893 0.014544396 0.035459716 0.017613092
-0.018711884 0.02787011 0.04207072 -0.07452798 0.085811414 0.0055721677 0.031003507 0.07749821
-0.05850646 -0.012652838 0.010622915 0.023983177 -0.059279703 -0.0088945385 0.07474283 0.08111884
0.014656875 0.0017777693 -0.051997367 0.034547452 0.005086795 -0.07827958 0.12559663 0.0700572
0.063430555 0.050185934 -0.05943428 0.08161011 -0.00854153 -0.0016188694 -0.061362922 -0.020070506
-0.0040461104 0.023390165 -0.07341391 -0.06864998 -0.0015460055 -0.053353533 -0.023603627 -0.0029865007
0.052684076 -0.071215495 0.15579727 -0.08810177 0.07455728 0.09371574 0.050645236 -0.052632973
0.087974995 0.094094776 0.05884241 0.019761505 -0.013769217 0.07582087 -0.034708343 0.0838955
-0.02717923 -0.07866182 0.024152286 0.061107136 -0.007941626 0.043499906 0.11788407 0.061957028
0.010645601 -0.013779998 0.097186126 -0.013010109 0.037841976 0.050513264 -0.086237095 -0.036068805
-0.05309132 -0.07937939 0.07488002 -0.008184021 0.0849497 0.038764052 0.017320834 -0.107509956
-0.030386519 0.058792666 0.11719267 0.018905405 -0.04559127 0.09112363 0.054514278 0.068397544

model.model.8.weight f4 [7, 128]
00000000: 1818 ffbb 98a2 b4bd 526f 543d b1e0 25bd
00000010: 2e77 f53c ef44 9bbc bf9c e1bc 07ac 90bd
00000020: 6085 a6bd c422 8a3d e429 d93d a82b dcbc
00000030: 47b8 b839 68d6 8a3d 9125 a13d 9a1b aebc
00000040: 13bc d13d f817 cf3c 5866 a8bc edcf 92bd
00000050: 9985 debb 788e 01bd 5044 a63d 5322 a33d
00000060: 4d0f bebb 63f1 e83d d026 1dbd 0819 493d
00000070: d663 13bd 28c1 0d3d 62ee d83d fa63 3e3d
00000080: dbb2 b23d 0746 4ebd d28d 603d 6711 003d
00000090: 467b 22bc 908f 763d 581f 963d 01a3 adbd
000000a0: 9737 8ebd 2917 71bd e8a3 19bd 72af 10bd
000000b0: de79 24bd ce47 ea3b 4055 cebb de68 c5bc
000000c0: a158 91bd f147 0abd 4b7b 57bd 885c 5b3d
000000d0: 582e ef3c fdf7 1bbd eca4 d03d f6c2 b93d
000000e0: 774f 8f3d e6de adbd e81a 2abd 220e b0bd
000000f0: 578a 17bc eb22 9abd 7cd8 a53d bbe9 dc3a
00000100: d493 68bd 8756 393d 55d3 1d3d f691 dfb9
00000110: 7bc8 c33d c764 053d 774d 5c3d 6823 76bd
00000120: b669 bf3d f009 80bd d089 7abd c19b 083d
00000130: d9a5 db3d 4b89 bbbc ed09 bdbd f7e6 a7bc
00000140: 90ff 7bbc 45d3 963d b4a4 513d d0eb 45bc
00000150: ce28 ed3d 4051 ee3d f532 9c3c 7a11 31bd
00000160: 6716 293d 4cef d83d 5575 c23d 3d2c 93bd
00000170: 539e 653d c56a 843d 569d 3abd ecb3 2d3d
00000180: 1407 ab3d 8fa4 a63d 9ec9 c23c fbe4 3fbb
00000190: f488 a4bc 73ca 89bd 15de babc f992 a83d
000001a0: e1f9 61bd 32df 9a3c 7a7a a63d 5ee0 efbb
000001b0: 4803 e23d ef30 4d3d 907c 983d b485 a63d
000001c0: 4731 11bd 150c 4dbd d18d 8abd 9105 dbbc
000001d0: e709 bd3c 01c9 53bd f8c8 163c e1a7 3b3d
000001e0: 24a9 20bd 0ef6 2cbd 8869 b13d e039 bf3d
000001f0: 20cc 873d 6f1f c33c 6bae 7fbc 0a17 523d
00000200: 6423 033d b83e 3e3c 42e7 45bc 5f15 c6bc
00000210: 5f68 fe3d 29f1 4c3d 7749 e2bc fb4c b1bc
00000220: 4e11 9cbd 0e7f a03d b5c3 bf3d 0df6 a0bd
00000230: 2a09 a2bd fccf 063d 99b7 afbc 524c 3ebd
00000240: 7c68 993d 2f6b b33d 9b68 bcba 9c9f 803d
00000250: 094a 0bbc f2bc 203d d427 9f3d fb9c 993c
00000260: 8d32 2ebd 7c74 d23d 3887 92bd 8acf 0d3d
00000270: 68a9 c2bc ad77 d63d 06a4 303d f6c0 d73d
00000280: 972a 053d 3f2c cebb ded1 babc b13d a73d
00000290: 2333 05bc e1c5 203c 7b7d b23d 4fd4 d03d
000002a0: 599e 46bc fb1c 38bd d801 f5bc bce3 d33c
000002b0: 9103 fdbc 87ce 443b 4a54 77bd 9cc2 2f3c
000002c0: a7ef 983c bac2 2c3d 44f7 53bd 2ae7 2c3d
000002d0: 932f b13d 81bb 50bd 150b cc3b f643 8a3d
000002e0: 3102 903d 5a43 adbd 04b0 92bc 4033 cf3a
000002f0: 6e4f a03d f628 493d b2de 413c 9a58 91bd
00000300: ec38 acbd caf3 973d e37e 873d b3a9 01bd
00000310: 2e83 c43c fbfd cfbc e4ee 3dbb 2861 253d
00000320: 2bea b6bc f605 3d3d a0e4 7cbb bff9 a13d
00000330: 1ded f43c 28e2 11bc 53fe b0bc fce1 7ebd
00000340: f82a 283c 02ab fb3c 9e22 013e 216a 42bd
00000350: e3b6 6d3d b88e 923d 24e6 0cbd cd47 b03d
00000360: 1233 803d 9155 973d 77e4 2e3d 74a1 85bd
00000370: 6883 2a3d 637b fab9 cbd0 6f3c 1aed d13d
00000380: edfe 9d3d f0d0 a9bb 5314 7f3c edc6 a43b
00000390: a9c5 f73b 5060 213d 6ea9 93bd ac14 853c
000003a0: 2894 b2bc ea66 983d e667 4f3d eace ba3d
000003b0: 0bef 12b9 197d 833d e895 1a3d 23bf fb3d
000003c0: 3868 14bc 8ecf 99bd 6eba 8ebd 110c 903d
000003d0: fb98 c13d ec35 eabc 26cc 233d 8013 a6bc
000003e0: 2837 d2bc 2d04 39bd 6488 b23d 55c8 6d3b
000003f0: f592 f13c f298 273d 9924 983d f08e b03c
-0.0077848546 -0.08820075 0.051863976 -0.040497486 0.029964056 -0.018953769 -0.027540563 -0.070640616
-0.08130908 0.06744912 0.10603693 -0.026876286 0.00035232512 0.06779176 0.07868493 -0.021253396
0.102409504 0.025279984 -0.020556614 -0.07168565 -0.0067908284 -0.03163001 0.08118498 0.07965531
-0.005800164 0.11374166 -0.038367093 0.049096137 -0.035983883 0.034608036 0.10592343 0.046482064
0.0872552 -0.050359752 0.05482275 0.031266596 -0.009917086 0.060195506 0.07330197 -0.08478356
-0.06944197 -0.058859978 -0.03750983 -0.035323568 -0.040155284 0.007149673 -0.0062967837 -0.024097856
-0.07096983 -0.033760015 -0.052607816 0.05355504 0.029196903 -0.038078297 0.10187706 0.09070389
0.069975786 -0.0848978 -0.041529566 -0.085964456 -0.009249291 -0.07526191 0.08097932 0.0016854325
-0.056781605 0.045248535 0.03853162 -0.00042642624 0.09559723 0.032566812 0.053784814 -0.06009236
0.09346335 -0.062518954 -0.061166584 0.033351664 0.10724992 -0.022892615 -0.09230409 -0.020495875
-0.015380755 0.07364515 0.051182464 -0.012080148 0.115800485 0.11636591 0.019067267 -0.043229558
0.04128113 0.10592517 0.094950356 -0.07186172 0.056059193 0.06465677 -0.045560203 0.042407915
0.083509594 0.08136856 0.02377778 -0.002928077 -0.020084836 -0.06728067 -0.022810975 0.08231158
-0.055169944 0.018905256 0.08128829 -0.007320448 0.11035782 0.050095495 0.074456334 0.081309706
-0.035447385 -0.05006035 -0.067653306 -0.026736053 0.02307601 -0.051705364 0.009203188 0.0458144
-0.039223805 -0.042226844 0.086627066 0.09337211 0.06630731 0.0238187 -0.015605549 0.051291503
0.032016173 0.011611633 -0.012079062 -0.024180112 0.12422251 0.050034676 -0.027622921 -0.021643152
-0.07620488 0.07836734 0.093635 -0.078594305 -0.07911904 0.032913193 -0.02144985 -0.046459503
0.07490632 0.08760678 -0.0014374437 0.06280443 -0.008501538 0.039242692 0.077712685 0.018751612
-0.042528678 0.10276124 -0.07154697 0.034621753 -0.02376242 0.10472045 0.043125175 0.10534851
0.03251132 -0.0062918956 -0.02280515 0.081660636 -0.008129868 0.009812803 0.0871534 0.10196745
-0.012122714 -0.044949513 -0.029908106 0.025865428 -0.03088549 0.0030030326 -0.06038312 0.010727551
0.018668963 0.042177893 -0.051749483 0.042212643 0.08651652 -0.050960068 0.006226907 0.06751244
0.07031668 -0.08460112 -0.017906196 0.001580812 0.0782765 0.04911133 0.01183288 -0.070969775
-0.084092945 0.07419546 0.066159986 -0.03165598 0.023988333 -0.025389662 -0.0028981501 0.04037586
-0.022328457 0.046148263 -0.003858842 0.079089634 0.02989822 -0.0089040175 -0.021605646 -0.062227234
0.010264151 0.030721191 0.12610862 -0.047464494 0.058035742 0.07156128 -0.034399167 0.08607445
0.06259741 0.07389367 0.04269835 -0.06524935 0.041629225 -0.00047775646 0.0146371825 0.10250302
0.07714639 -0.005182378 0.0155688105 0.0050285966 0.0075614047 0.03939849 -0.072100505 0.016245209
-0.021799162 0.07441504 0.050636195 0.09121497 -0.00014012695 0.06420345 0.037740618 0.12292316
-0.009058051 -0.07510291 -0.069691524 0.070335515 0.09453007 -0.028590165 0.039989613 -0.02027297
-0.025661066 -0.045169998 0.08717421 0.0036282737 0.02948902 0.040917344 0.074288554 0.021552533

model.model.8.bias f4 [7]
00000000: eac4 ad3d 09da d83c 4776 343d 1ab0 833d
00000010: 660a 8abc d659 413c 717f cd3c
0.08484824 0.026471155 0.04405811 0.06430073 -0.016850661 0.011801204 0.025085183

model_old.model.0.weight f4 [32, 1, 4, 4]
00000000: 2229 26be 60d9 f0bd 9286 5d3e 66c9 763c
00000010: 265a 673d 9ecf 433e 71a8 ee3a 0348 2cbe
00000020: e653 283e 39ee 813c e99d 633e d23a 463d
00000030: 5608 ec3d 8934 803c 8997 e73d 6243 213e
00000040: 2b1d 4a3d e7de 023d 52a5 13be d0db 96bd
00000050: 5c6f 8a3d e1e5 cf3d 361a 403e 16b1 59be
00000060: f63f 82be 67f2 463e 5e08 7bbe 5c66 a4be
00000070: 4480 44bc cdab b5bd b05d 573e 3749 77be
00000080: 4917 d13d eb0c d1bd a709 61be b629 fc3c
00000090: 51e2 4cbe 892b df3d e65a 1ebd 9891 9cbe
000000a0: 5191 95bd 749d 38bd b0d2 613e aca5 bb3d
000000b0: ab24 e5bc be34 613e b1ea 873d 76ca 093e
000000c0: 0f93 f03c 07c4 72be 8628 1dbe 6d1f 13be
000000d0: afca 1cbe 850e 4c3e a36e b1bd 014d 903d
000000e0: c6a7 403e 746e 34be 134d 313e b4c6 ec3d
000000f0: fe0c 59be bbb4 203e 599b f1bd fd0a 733e
00000100: 5fe7 97bc 0dfd b1bd 3a31 8e3e 902b fbbd
00000110: ea6c 923e d3ba 9e3d bb00 993d 04d6 9c3c
00000120: 3328 7f3e e8c4 9f3d ba4f d3bd 5cd1 92be
00000130: 3a13 10be 098e 17bd c3c0 e6bd 5459 0fbe
00000140: 46ba 563d d116 373e aa7d 70be c389 63be
00000150: 582e 8ebc 33da c23d 6fce ddba 5356 7bbe
00000160: 8c61 8f3e 9ed5 283e 0470 b0bc be20 6e3d
00000170: 0db4 8a3d 753d 52be de0f 4c3e 0fc4 253e
00000180: 46b7 04be d255 8a3d ac5f 66be 026c 183e
00000190: acb0 41bd 4664 e03d 02d2 2fbc 2bee c83d
000001a0: 891c 0e3e b19b 243e 91c4 4b3e 342e 4cbd
000001b0: 6ca2 92bd fc64 3a3b beb9 783e 092a f9bd
000001c0: 74c3 383e 00f7 68be 92aa 693e 3db2 4dbe
000001d0: 5e46 0d3e 3c79 51be a55c 96bd fbc9 0f3e
000001e0: b4fc 8b3e 767c 923d e561 05bc e3ef 6d3e
000001f0: 85d6 523e 7be5 a2bd 3bc8 c1bd 6ab5 36be
00000200: df2e 4cbe 9690 b73d 6884 c2bd dcc6 003e
00000210: ae10 91be 7c06 4a3e 6701 613e aa15 7fbe
00000220: bb67 72be 6e18 463c c619 173e e01a e2bd
00000230: c44f 353e fd73 8d3d c8c9 3c3e c7d3 abbd
00000240: 72c2 5abd a80f 0e3e 449a 553e 71b7 8dbc
00000250: 47da 90be fd62 b2bc 2506 f6bd 3215 6bbc
00000260: f3ef 843d dfb8 0bbe 3bb7 423e 91f6 2abe
00000270: e8cf 713e bb29 cdbd 9f8d 103d 8080 83bd
00000280: 5fd0 903d d77e eb3d fd61 86be 726d c13d
00000290: dfc2 6f3e 55e7 6fbe f987 91be eac5 1bbe
000002a0: a4fd 2e3e b933 693d 776d 8bbe 3fee e1bd
000002b0: 7f9d 613c 2874 75bd ed46 e03d 09f4 4d3e
000002c0: 7ecf 97bd 90d0 053d 7b94 473e 16a2 49bd
000002d0: 8f54 9abd 169b 483e 6631 733e 73ad 9cbd
000002e0: 82d7 d13d fd94 733e 8cc9 2f3e 789e 493d
000002f0: 00e6 353d 6fbd 56be 46a1 26be 6f99 043e
00000300: 3543 de3d 0b6d 0cbe 4e98 5fbd ada1 3abc
00000310: d0ec 6abd d727 3bbe 3f6c 6bbe 589d a5bc
00000320: eb14 a8bd 4c5b 44be 4c3a 483e 8ff3 0dbe
00000330: b344 38be eb77 403d 9cdf 2bbe 2be1 e0bc
00000340: e8da 90bd c08a e3ba 7b39 9bbe ccf8 38be
00000350: a4d7 fd3d 571e 553e bd85 32be f679 f23d
00000360: 594e ddbd d93c 8abe 97d3 6e3e eeca 33be
00000370: 302a 3a3e 296d 3abb 178c 4ebe 2115 5a3d
00000380: bfbb 003e 0bd9 d03d ed2e 9a3d a4ad 4cbc
00000390: 8c57 263d 5064 b93d a85f 203d e742 89be
000003a0: 6646 75be 65bb d93d 3029 2ebe c623 28be
000003b0: 6323 923e 509c 18bc 1ece 4d3e a4a6 43be
000003c0: 1f1e 3d3b a991 ce3d 915a 79bc 034c 66bd
000003d0: 88f0 3e3d 2ddb d8bc f851 88be 7834 033e
000003e0: 51f8 57be 1537 c63d 5f2f 893c b864 0ebe
000003f0: 17a2 46be 524c 2e3e 0500 b7bd d278 4f3e
-0.16226628 -0.11760211 0.21633366 0.015062666 0.056482457 0.19122168 0.0018208158 -0.16824345
0.16438255 0.015860664 0.22228207 0.04839594 0.115250275 0.01565005 0.113082 0.15748361
0.049344223 0.031950857 -0.14418533 -0.07366145 0.06759521 0.10151268 0.18759999 -0.21258959
-0.25439423 0.19428407 -0.2451491 -0.32109344 -0.0119934715 -0.08870659 0.21031833 -0.24149023
0.102095194 -0.10207542 -0.21976338 0.030781608 -0.20008208 0.108969755 -0.038660906 -0.3057983
-0.073031075 -0.045072034 0.22053027 0.09162459 -0.027971586 0.21992776 0.06636561 0.13456139
0.029366998 -0.23707591 -0.1534749 -0.14367457 -0.15311693 0.19927414 -0.086636804 0.07045937
0.18814 -0.1762026 0.17314558 0.11561337 -0.21196362 0.15693943 -0.11797208 0.2373466
-0.018542944 -0.08690844 0.27771932 -0.12264168 0.2859872 0.07750478 0.074708425 0.01914502
0.24917679 0.07801229 -0.10317941 -0.28675354 -0.14069834 -0.03700069 -0.11267235 -0.1399892
0.052423738 0.17879798 -0.23485437 -0.2222052 -0.017356083 0.095142744 -0.0016922484 -0.24544649
0.2800411 0.16487738 -0.021537788 0.058136694 0.06772623 -0.20531256 0.19927928 0.16188072
-0.12960538 0.0675465 -0.22497433 0.14884952 -0.047287628 0.10956626 -0.010731222 0.09811052
0.13878073 0.16075017 0.19899203 -0.04984875 -0.07159886 0.002844154 0.24289605 -0.12166221
0.1804331 -0.22750473 0.22818974 -0.20087524 0.13796374 -0.20456403 -0.07341889 0.14041893
0.27341235 0.07152645 -0.008141016 0.23236041 0.20589645 -0.07953926 -0.09462019 -0.17842641
-0.19939755 0.089631245 -0.09497911 0.12575859 -0.28333038 0.19729036 0.21973191 -0.24910608
-0.23672383 0.012090785 0.14755926 -0.11040282 0.1770621 0.06906889 0.18436348 -0.08390003
-0.053408094 0.1387316 0.20859629 -0.017299386 -0.28291532 -0.021775717 -0.12012891 -0.014348315
0.06491079 -0.13644741 0.1901521 -0.1669562 0.23614466 -0.10017725 0.03529131 -0.06420994
0.07070994 0.11498802 -0.26246634 0.09444703 0.23414181 -0.2342809 -0.2842405 -0.15212217
0.17088944 0.056934092 -0.27231953 -0.1103177 0.01377046 -0.05992523 0.10951028 0.20112623
-0.07412623 0.032669604 0.19490235 -0.049226843 -0.075356595 0.1959041 0.23749313 -0.0765027
0.10246183 0.23787303 0.17166728 0.049223393 0.0444088 -0.209707 -0.16272458 0.12949155
0.108526625 -0.13713472 -0.05458861 -0.011391086 -0.05735475 -0.18276916 -0.22990511 -0.020216629
-0.08207115 -0.19175452 0.19553488 -0.13862441 -0.17994957 0.046989363 -0.16784519 -0.027451118
-0.07073003 -0.0017360076 -0.30317292 -0.18063658 0.12394646 0.20812355 -0.1743383 0.118396685
-0.10805959 -0.26999548 0.23322903 -0.1755788 0.18180156 -0.0028446412 -0.20170628 0.053242806
0.1257162 0.10197648 0.07528482 -0.012492571 0.040610835 0.09052336 0.039153725 -0.26808855
-0.23952636 0.10631446 -0.170079 -0.16419896 0.28542623 -0.009314612 0.20098159 -0.19106537
0.0028857065 0.10086376 -0.015219347 -0.056224834 0.046616107 -0.026471699 -0.26625037 0.12812984
-0.21090819 0.09678475 0.016746221 -0.13905609 -0.1939777 0.17021301 -0.089355506 0.20260933

model_old.model.0.bias f4 [32]
00000000: b1cd 083c 8c0b 19be ba5c 43be 90ab bcbd
00000010: c848 13be 7b0e 58be 7f9f 9b3c ea15 ae3d
00000020: a1d4 5c3d 5435 203e ae0f 88bb a831 37be
00000030: 240c a13d 3337 8c3d 29e6 153e 49b1 493e
00000040: 799a 6a3e 7e0f b13d a003 80bd 7a76 4bbc
00000050: 5678 7d3e 1864 493e 36d2 0e3e b5ce a33e
00000060: bf27 1b3e 8e8d 8d3d 8b79 933d 2517 8b3e
00000070: 9a23 313e 6eff 3abe 1018 423e ca7b 1dbe
0.008349822 -0.14945811 -0.19078341 -0.092124104 -0.14383233 -0.21099274 0.018996952 0.085002735
0.053913716 0.15645343 -0.00415226 -0.17890036 0.07863644 0.06846466 0.1463858 0.19696535
0.22910489 0.08645533 -0.062506914 -0.012418384 0.24752936 0.19667089 0.13947377 0.31993642
0.1515188 0.06911765 0.07200917 0.27166095 0.17298737 -0.18261501 0.18954492 -0.15379253

model_old.model.4.weight f4 [128, 384]
00000000: 414c 07bd d94c 22bd ace2 94bc f153 4d3d
00000010: 0e06 0d3d 23f4 4e3d 4075 803b b2fa 9e3c
00000020: 0516 bc3c b817 473c b39a 56bd a923 3abd
00000030: 076f 193d ab82 043e 8a2b c73c 7284 893d
00000040: b1f5 cc3b 5739 baba 3880 013c e656 74bc
00000050: d936 b43d 4be8 fcbc cb11 c5bc f3fa ba3d
00000060: 60f6 b53d cb59 b73d 7414 5c3d 5dd6 343d
00000070: 04c5 2e3d 7843 293d b375 b83c 24d4 3e3d
00000080: 175b 123d 4af8 023d 168b 54bd af32 d8bc
00000090: 8461 973c 0f03 883c fceb e03c b90a e5ba
000000a0: 495c cc3c dacb 203c b2d9 a53d 6446 a73d
000000b0: de19 ba3d c609 6abd 5df5 6e3d 0bd7 c6bb
000000c0: 4327 37bd a832 c4bd 4c93 b2bc ded5 d03c
000000d0: e8b5 ee3c 3e70 d63b e5de 5fbd 31ce 243c
000000e0: 04d4 573c d124 ec3c ab99 2d3d 89c2 723d
000000f0: b213 bbbd 2186 a83c 8038 30bd 391e 7cbd
00000100: 0556 0ebd 4799 db3d d261 503d 42af 1f3d
00000110: 179d 993d 4a78 9c3d e310 1f3d 5874 f53c
00000120: 5c93 d0bd 84ca 113a 4a82 82bd eede d53c
00000130: effe cc3b 58dc 1dbd 478b e5bc 357e 42bc
00000140: 7461 633d e9cc b6bb e23e 793d 7c86 353d
00000150: 342c aebc b6fe 7ebc 9609 a4ba 6594 09bd
00000160: 8c1d 4abd 4110 a2bc fb5d 3f3d 3d5b 68bc
00000170: 34e9 113b 6a90 573d d32e a53d 1ffa 463d
00000180: d9e8 adbb 6cc0 5c3d 7b58 193d b9af 513d
00000190: 4233 ccbc 2940 a6ba 2f26 823d 0a2f 98bb
000001a0: d0ea 2f3c 32b7 bf3c 123d 36bd dffc 0e3d
000001b0: 302b 863c 72ab 4bbc 871c 55bc 3a0d 073d
000001c0: 0f0b 073d ae30 8a3d bfce 4dbd a93b 123d
000001d0: a7da 043c bdea 1fbd e696 d6bc 3508 61bd
000001e0: 19bf 23bd e9a1 933c 64a3 97bc f12f 5bbc
000001f0: 3f06 42bc 48ef a13d cf98 743d d471 f13c
00000200: 2d03 c53d bffd e03c ce3a 0abd 62b8 533d
00000210: a4c6 37bd 992e 15bd c210 21bd b81a 7e3c
00000220: d093 1bbb de5b fb3b 17f3 21bd b092 80bd
00000230: 5e47 bcbc 8ed0 88bd eb86 68bc 7840 2e3c
00000240: b3ef f83d 1f01 e0bc 5f89 493e 86dc c43d
00000250: 1eae 013e 1697 75bd 71e3 113e e695 f63d
00000260: 2949 d3bc 2e23 13bd ee3d 0d3e f1bf fe3c
00000270: 591d 3e3c 7da2 1d3e c897 873d 0903 453d
00000280: f005 f5bc b7dc 193e 7469 b33a 26bb f33b
00000290: a948 e63d 1307 323e 33d2 063e 9ffe 1a3e
000002a0: e09e 203c 1a17 a53c a671 aebc c782 8a3d
000002b0: 9e7c 993b 5c32 053d 9a69 d23c daf5 363d
000002c0: fcec 2f3d 81db c83c d3f2 173d 8664 ffbc
000002d0: f74c b43d 6a5a 603d 9ad3 aabb 193a 653d
000002e0: 2477 cb3c 6fe7 b6ba e2c1 e13d 6c34 b83b
000002f0: 2b92 953d c058 d93c 9e75 103d da69 363d
00000300: abdc cc3d 0845 933c b679 973d 55e1 453c
00000310: 1917 9a3c 6685 e9bd 99ab a63d bfe9 8d3d
00000320: 92f4 02bc 2681 92bd 4db6 ea3d dfad 8f3d
00000330: 7da7 053d 2dc3 2bbc 88e3 273b 54f4 143d
00000340: e737 f5bb 7b12 353d 8e65 62bd 22dc a43b
00000350: 1772 03bb db08 d03c 78cf 833d cb60 b93d
00000360: b029 b93d 08a0 b83d 138f e53d 00ae f73d
00000370: 31dd 173e 8507 ad3d ed54 053d 6876 91bb
00000380: 1339 8e3d b294 443d b710 133e 3568 c93d
00000390: b0e3 92bc 4aa1 c13c 785a 183e 0ed6 c23d
000003a0: cec6 bc3c 25eb 81bc fdf1 813c 08ae ab3d
000003b0: 02a1 2abc 0c7e c23d 62e5 2bbd babe 45ba
000003c0: 8a95 06bd 1313 d3ba a5e9 9f3b a8c7 0b3d
000003d0: 8577 cf3c 7c3f 403d 9fc3 e6bc 131d 11bd
000003e0: 1ac5 62bb 6c62 e4bc 0e21 973c 41bb 11bd
000003f0: c15d 873d c403 823d 25e5 07bd c98c ce3c
-0.033031706 -0.03962407 -0.018174492 0.05012888 0.034429602 0.050525796 0.0039202273 0.01940665
0.022959718 0.012151651 -0.052393626 -0.045444164 0.0374594 0.12940471 0.024312753 0.06714715
0.0062548746 -0.0014207762 0.007904105 -0.014913296 0.08799524 -0.030872485 -0.024056336 0.09129896
0.08884883 0.089526735 0.053730443 0.044149745 0.042668357 0.04132411 0.02251706 0.04658903
0.0357314 0.03197507 -0.051890455 -0.026391355 0.018479116 0.016603021 0.027456276 -0.0017474509
0.024946349 0.009814227 0.08098163 0.08167723 0.09086965 -0.057138227 0.058339465 -0.0060681156
-0.044715177 -0.095799744 -0.021798752 0.025492605 0.029139474 0.006544142 -0.05465593 0.0100589255
0.013173107 0.02882615 0.042382877 0.059267554 -0.09134616 0.02057177 -0.043022633 -0.06155226
-0.034750003 0.10722595 0.05087454 0.0389855 0.07500666 0.07640131 0.038834464 0.029962704
-0.101843566 0.0005561488 -0.06372507 0.026107278 0.0062559764 -0.038540214 -0.028020514 -0.01187091
0.05551286 -0.0055786264 0.060850985 0.044317707 -0.021261312 -0.0155636575 -0.0012515064 -0.033588786
-0.049344584 -0.019783141 0.046720486 -0.014181909 0.0022264244 0.05262796 0.08065572 0.048578378
-0.0053072986 0.053894445 0.037437897 0.051192973 -0.024926785 -0.0012683916 0.06354939 -0.0046442794
0.010737136 0.023402784 -0.044491835 0.034909125 0.016378015 -0.0124310125 -0.01300729 0.0329716
0.03296953 0.06747566 -0.050245997 0.035701428 0.008108771 -0.039042223 -0.026195 -0.054939467
-0.039977167 0.01802154 -0.018510528 -0.013378129 -0.0118423095 0.079069674 0.059716042 0.029473223
0.09619746 0.027464746 -0.033747487 0.051689513 -0.044867173 -0.036421392 -0.039322622 0.0155093
-0.0023739226 0.0076708635 -0.03953847 -0.062779784 -0.02298325 -0.06680404 -0.014192323 0.010635488
0.12155094 -0.027344285 0.19681309 0.09612374 0.12664077 -0.05995854 0.14246918 0.120403096
-0.025791721 -0.03592222 0.13793156 0.031097384 0.011603677 0.15394016 0.06620747 0.048098598
-0.029910058 0.15025602 0.0013688044 0.0074380813 0.112443276 0.17385511 0.13166122 0.15136193
0.009803504 0.020152617 -0.021294426 0.06763225 0.004684045 0.03251873 0.02568512 0.044668056
0.042950615 0.02451873 0.03709681 -0.031175863 0.088037424 0.054773726 -0.005213213 0.05596361
0.024837084 -0.0013954471 0.11023308 0.0056214835 0.0730327 0.026531577 0.03526842 0.04453454
0.100030266 0.017977253 0.073962614 0.012077649 0.018809842 -0.11402397 0.081381984 0.06929349
-0.00799288 -0.07153539 0.11460552 0.07015585 0.032630432 -0.010483545 0.0025617797 0.036365822
-0.0074834707 0.044207077 -0.05527263 0.0050311247 -0.0020057017 0.025394848 0.06436056 0.09051665
0.090411544 0.090148985 0.1120893 0.12093735 0.14830472 0.084487 0.032551695 -0.004439164
0.0694448 0.04799337 0.14361845 0.09834329 -0.017930835 0.023636479 0.14878261 0.09513484
0.023044016 -0.015859196 0.01586246 0.08382803 -0.010414364 0.09496698 -0.041966803 -0.0007543374
-0.032857455 -0.0016103707 0.0048801475 0.034125954 0.025325546 0.046935543 -0.028169451 -0.035428118
-0.0034602345 -0.027878962 0.018448379 -0.03557897 0.06609679 0.063483745 -0.033177514 0.025213616

model_old.model.4.bias f4 [128]
00000000: a867 333d e37c 743c 1b4a dbbb e382 3b3d
00000010: 0c88 093d 9ad0 0dbd 33d0 523d 02ab 16bd
00000020: fcc3 243a 044f 62bc b4c9 7bbc a7d2 683d
00000030: 083e 413d b6c8 6ebd edc9 4ebc b2a2 7ebd
00000040: b74a 8b3b 767a 42bd de42 083d b718 c23d
00000050: 3438 913c 022b 203d 2b56 83bb c57a 8a3d
00000060: a4e9 0e3d 1534 06bd f091 20bd 5e3f 7a3b
00000070: 5ca9 b23c a172 18bc 5fc7 86bb 9e93 40bd
00000080: c4d4 2f3d 1903 763d 24f6 f63c 4fc0 54bb
00000090: cab3 36bd 9d50 40bd 414e 023d 6184 823d
000000a0: 6464 1fbd 792d 3f3c 4c28 dabc 50a5 103c
000000b0: 5cb2 14bd d907 8dbc 4f33 55bd 1f56 1cbc
000000c0: b560 433c 9364 08bd 9320 903c 4a60 e73c
000000d0: 6c65 48bc 2a77 063d a03d 78bc 2a75 47ba
000000e0: 1e9c f6bc 5f0e 17bd 3fc1 963d a9e8 ce3c
000000f0: 19b7 76bc 19ea 9b3c 589a 383d c029 0fbd
00000100: 6b8e b83c c9bb 7b3d 6215 43bc 695c 033d
00000110: c4a2 053d 2b76 803c 1dcd 713d f0c7 0b3d
00000120: 376c 273d 8eaf 1c3d 24ff 0f3c a70c 293d
00000130: 3260 b0bc 392f 593d 8a9b 603d f317 a63b
00000140: 853c 7a3d 61fb da3c a2ca 05bc ebab efbc
00000150: 9174 5abd b808 eb3c c523 47bd 23f6 c43c
00000160: 519d 823c 6e83 2fbd da8b 003d 7720 8dbc
00000170: ae5f 473d 93be 63bc 6566 663c 982f 8a3c
00000180: 5265 803d 891e 293d fd0f 1a3d 2a79 3d3c
00000190: 3522 1c3d 471c f53c da8a 61bc 2d36 6f3d
000001a0: 9f09 10bd 1bc3 04bb 222d 833d 9c2e 213d
000001b0: 5d6d 3dbd 9c1f 3abd 0d60 753d 86e9 10bd
000001c0: ed03 3ebc 2b23 1139 7113 9fba 3ad2 3e3d
000001d0: 920f 703d d735 8bbd 6524 f13c f4f0 1bbc
000001e0: 3e41 fb3b f819 413d 0f9b 00bd 1eb8 59bc
000001f0: a8b0 03bd b526 4ebd 8021 98bc 3ee6 113d
0.043800026 0.014922353 -0.0066921837 0.04577912 0.03357701 -0.034622766 0.051468085 -0.03678418
0.00062853075 -0.013812784 -0.015367914 0.05684152 0.0471783 -0.05829688 -0.012621385 -0.062166877
0.00425085 -0.04748007 0.033266895 0.0947737 0.017726995 0.039103515 -0.0040080748 0.06761698
0.034890786 -0.032764513 -0.039201677 0.0038184742 0.021809272 -0.009304673 -0.0041131224 -0.04701578
0.04292752 0.060061548 0.030146666 -0.0032463258 -0.044605054 -0.04695188 0.03181291 0.063729055
-0.0389141 0.011668556 -0.026630543 0.008828476 -0.03630291 -0.017215656 -0.052050885 -0.009542017
0.011924912 -0.03329904 0.017593658 0.028244156 -0.012231212 0.032828487 -0.015151411 -0.00076087064
-0.03010374 -0.03687894 0.073610775 0.025257425 -0.015058302 0.019032525 0.04506907 -0.034951925
0.022528848 0.061458383 -0.0119069535 0.03207055 0.03262593 0.015681347 0.059033502 0.034126222
0.040874686 0.03825336 0.008788858 0.04127183 -0.021530244 0.05302355 0.054835834 0.005068773
0.061092872 0.026731195 -0.008165987 -0.029256782 -0.053333823 0.02869068 -0.048618097 0.024043148
0.015944155 -0.04284995 0.031383373 -0.017227395 0.04867523 -0.013900417 0.014062499 0.016868398
0.06269325 0.041288886 0.037612904 0.011564532 0.03811856 0.02992071 -0.013766015 0.058401275
-0.035165425 -0.0020257893 0.06405093 0.03935109 -0.046246875 -0.0454403 0.059906054 -0.035378955
-0.011597616 0.00013841379 -0.0012136531 0.046587206 0.0586086 -0.067973785 0.0294363 -0.009517897
0.0076676896 0.047143906 -0.031397875 -0.013288526 -0.032150894 -0.050329883 -0.018570662 0.035619967
