project/paper_notebooks/saved_variables/paper_notebooks/8/5-50epoch_20loop/looping-iteration-19/final_policy_agent1.pth (torch, 320501 bytes, 16 tensors)

model.model.0.weight f4 [128, 42]
0	0xbdf41a6a	-0.119191006
1	0xbd896c1b	-0.067100726
2	0x3df4a75b	0.11945983
3	0xbd1b9d14	-0.0379916
4	0x3d071a69	0.03298417
5	0x3de98e74	0.11404124
6	0x3c921e51	0.017836722
7	0xbdfbde79	-0.12298293
8	0x3d93bb87	0.072135024
9	0xbbdc6bee	-0.0067267334
10	0x3de79d9f	0.11309361
11	0x3ca1f1e8	0.01976867
12	0xbc431b49	-0.011908361
13	0xbcff2346	-0.03114475
14	0x3c80fdea	0.015746076
15	0x3da83847	0.08213859
16	0x3b95511d	0.0045567886
17	0xbcbcc64f	-0.02304378
18	0xbe12f873	-0.14352588
19	0xbd7a8cad	-0.061169315
20	0x3c9a6cd2	0.018850718
21	0x3d66b3a7	0.056323674
22	0x3de393dc	0.11112186
23	0xbdb8f3e2	-0.09030892
24	0xbd8c2908	-0.068437636
25	0x3e0228aa	0.12710825
26	0xbdf26663	-0.11835935
27	0xbdb3c659	-0.08778066
28	0xbc3353b6	-0.010945251
29	0xbd028dc9	-0.031873498
30	0x3e00b616	0.1256946
31	0xbe0b3758	-0.1359533
32	0x3d06298b	0.032754462
33	0xbd22c643	-0.03973986
34	0xbe122085	-0.14270218
35	0x3d397b4a	0.045283593
36	0xbd6fd59d	-0.058553327
37	0x3dd1051c	0.10206053
38	0xbb150ccb	-0.002274322
39	0xbe032c4d	-0.12809868
40	0xbd15c193	-0.03656156
41	0xbd308fef	-0.043106016
42	0x3dd0621d	0.101749636
43	0x3ccc2fc8	0.024925128
44	0xbd790a61	-0.060800914
45	0x3db86df3	0.09005346
46	0x3cb34ba4	0.021886654
47	0x3d79fec5	0.061033983
48	0x3ceb6178	0.028733
49	0xbe32899f	-0.17435311
50	0xbe1d05c9	-0.15334238
51	0xbde8a6f0	-0.11359966
52	0xbdd16276	-0.10223858
53	0x3e02bc24	0.12767082
54	0xbd99ec82	-0.075158134
55	0x3d4dccf8	0.0502443
56	0x3db3f636	0.087871954
57	0xbe1f3d09	-0.15550627
58	0x3d71914d	0.05897646
59	0x3d4eec3e	0.050518267
60	0xbe2deb0b	-0.16984193
61	0x3d87d5a0	0.066325426
62	0xbdbe6787	-0.0929709
63	0x3dd793ec	0.10526261
64	0xbd40e649	-0.047094617
65	0xbda4417d	-0.080203034
66	0x3e0f2419	0.13978614
67	0xbe07be92	-0.1325629
68	0x3dfec2fc	0.12439534
69	0x3da1c556	0.07898967
70	0x3bc9cfe1	0.0061588143
71	0x3b279e0a	0.0025576376
72	0x3de2faf0	0.11083019
73	0x3d58acb6	0.052899085
74	0xbd94e57a	-0.07270332
75	0xbe30ef67	-0.17278825
76	0xbe0280e1	-0.12744476
77	0xbda3d02c	-0.0799869
78	0xbdf380f8	-0.11889833
79	0xbda705ef	-0.081554286
80	0x3d2260ee	0.03964322
81	0x3de5c1ce	0.11218606
82	0xbe3bfe25	-0.18358667
83	0xbdfc6790	-0.123244405
84	0xbd1dde9b	-0.03854237
85	0x3d83e3fe	0.064399704
86	0xbce79832	-0.028270815
87	0xbe36d083	-0.17852978
88	0x3e21d5b6	0.1580418
89	0x3d91fab9	0.071279
90	0xbc940495	-0.018068591
91	0x3cb876d1	0.022517594
92	0x3cc1cee3	0.023658222
93	0xbe43028e	-0.19043943
94	0x3d816cd5	0.06319586
95	0x3dc6e98d	0.09712515
96	0xbddba12f	-0.10724103
97	0x3c36089c	0.011110451
98	0xbe3cd5b0	-0.1844089
99	0x3dfd0214	0.12353912
100	0xbda74228	-0.08166915
101	0x3ca46c93	0.020071303
102	0xbcedcc63	-0.029028123
103	0x3d623bb9	0.055232737
104	0x3bedeecc	0.007261133
105	0x3d8d82dc	0.06909725
106	0x3dfc6c47	0.1232534
107	0xbca5e8f2	-0.020252679
108	0xbd351a3f	-0.044214483
109	0xbcbbd718	-0.022929713
110	0x3e019a83	0.12656598
111	0xbdfdcd50	-0.12392676
112	0x3ddb3d92	0.10705103
113	0xbd97a29b	-0.074040614
114	0x3e2b0edc	0.16704887
115	0xbddc2c86	-0.1075068
116	0x3d9068a3	0.07051208
117	0xbdd0b560	-0.101908445
118	0xbd502f6d	-0.05082648
119	0x3ddb59a4	0.10710457
120	0x3e2743d4	0.16334468
121	0x3d72462f	0.059148964
122	0x3c6c40a1	0.014419706
123	0x3e222193	0.1583312
124	0x3db4158c	0.08793172
125	0xbdeeb51b	-0.11655637
126	0xbdd8cd98	-0.10586089
127	0xbe256aa4	-0.16153961
128	0xbdd8719d	-0.10568545
129	0x3b5c7239	0.0033637418
130	0xbdd4b0b9	-0.1038527
131	0x3dc1e883	0.09468176
132	0xbe0e7448	-0.13911545
133	0x3e0b63b6	0.13612255
134	0x3da1d8e5	0.079026975
135	0xbdff4107	-0.12463575
136	0xbe2b755b	-0.16743986
137	0xbd0c84ff	-0.034306522
138	0x3d9cfbfa	0.07665248
139	0xbc686ba8	-0.0141858235
140	0x3dcf62de	0.10126279
141	0xbba8b483	-0.005148472
142	0x3da1d4fd	0.079019524
143	0xbd7b3e58	-0.061338753
144	0xbdbf483c	-0.093399495
145	0x3dd7df12	0.10540594
146	0x3de7ab90	0.1131202
147	0xbc21d13c	-0.0098765455
148	0xbe2e0100	-0.16992569
149	0x3cf87c82	0.030332807
150	0xbd315d79	-0.043302033
151	0x3cb19f34	0.02168236
152	0x3da9f829	0.08299286
153	0xbd839674	-0.06425181
154	0x3e01fc49	0.12693895
155	0xbd54e4b4	-0.05197592
156	0x3df2dc91	0.11858476
157	0xbd78f33c	-0.06077884
158	0x3b112f57	0.002215346
159	0xbd050f66	-0.03248539
160	0x3d3aa53b	0.045567732
161	0x3dd7d103	0.10537913
162	0xbe02a3d3	-0.12757806
163	0x3da59036	0.08084147
164	0x3e20e1da	0.15711156
165	0xbdb1ef64	-0.08688238
166	0xbe01dbc1	-0.12681486
167	0xbd8ae256	-0.067814514
168	0x3daa2cd4	0.083093315
169	0x3da25979	0.07927222
170	0xbde31ab8	-0.110890806
171	0xbd9c8587	-0.07642656
172	0x3c3be852	0.011468964
173	0xbd203251	-0.039110485
174	0x3da93c3c	0.08263442
175	0x3dc11c38	0.094292104
176	0xbd77bc8a	-0.06048254
177	0x3c86fb5a	0.016477276
178	0x3d686618	0.05673799
179	0x38b38599	8.5602696e-05
180	0xbdc244a1	-0.09485746
181	0x3de3cb25	0.11122731
182	0x3de56dcb	0.11202582
183	0xbdc036b9	-0.093854375
184	0xbc90cc33	-0.017675495
185	0x3dbe70ad	0.09298835
186	0x3da447a6	0.08021478
187	0x3cf203cc	0.029542826
188	0xbd0e7ac5	-0.03478505
189	0xbe115614	-0.14192992
190	0xbe351f71	-0.17687775
191	0x3dc26bad	0.09493194
192	0x3d8344f6	0.06409638
193	0xbe0baf2b	-0.1364104
194	0xbd585d05	-0.052823085
195	0x3c3f3019	0.011669182
196	0xbce7d3bc	-0.028299205
197	0xbe0f9725	-0.14022501
198	0xbe0c171a	-0.13680688
199	0x3cb459ae	0.022015419
200	0xbe1c1bf1	-0.15245034
201	0xbe0a37d1	-0.13497855
202	0x3e03e6ef	0.12881063
203	0xbd1f99d8	-0.038965076
204	0xbe473bd0	-0.1945641
205	0x3cf77c89	0.03021075
206	0xbdd2a655	-0.102856316
207	0xbd3e58ca	-0.046471395
208	0xbd31e210	-0.04342848
209	0x3ca617d4	0.020275034
210	0xbe285cf7	-0.16441713
211	0xbdd52c75	-0.1040887
212	0x3d2a4541	0.041569952
213	0x3df7e11c	0.12103483
214	0xbda16b38	-0.078817785
215	0x3cf4661b	0.029833844
216	0xbe03eb15	-0.12882645
217	0xbe57c431	-0.21070935
218	0x3de5c6f7	0.1121959
219	0xbde9fb65	-0.11424903
220	0x3d0d84d0	0.034550488
221	0xbb0e7a2c	-0.00217403
222	0xbe537efd	-0.20653911
223	0xbd501465	-0.0508007
224	0x3d878d8d	0.066187955
225	0x3d57e78d	0.05271106
226	0xbb4cc6a7	-0.0031246336
227	0xbd6edf52	-0.058318444
228	0x3ce7cebe	0.028296825
229	0x3d804026	0.06262235
230	0xbc902c00	-0.017599106
231	0xbe2e17c5	-0.17001255
232	0xbde1e62e	-0.110302314
233	0x3d91fb63	0.07128026
234	0xbda73c95	-0.08165852
235	0xbdb00e56	-0.08596484
236	0x3e0d8905	0.138218
237	0xbb7e6ebd	-0.003882333
238	0x3db8123a	0.089878514
239	0xbd7a89a2	-0.061166413
240	0x3c5da665	0.013528441
241	0x3d94d97f	0.072680466
242	0xbd2a28df	-0.041542884
243	0xbd113f24	-0.035460606
244	0x3d9969b2	0.07490863
245	0xbd1dae4a	-0.038496293
246	0xbdcea348	-0.10089737
247	0x3dfd0790	0.12354958
248	0xbdd7c54c	-0.10535678
249	0x3d3775b8	0.04479
250	0xbb45baae	-0.0030171084
251	0xbd73b2e3	-0.05949677
252	0xbdee863f	-0.11646699
253	0x3deaefbf	0.11471509
254	0xbdab23d2	-0.083564416
255	0x3e38fea9	0.18065895

model.model.0.bias f4 [128]
0	0x3e82b766	0.25530547
1	0xbdb90515	-0.090341724
2	0x3bd4be25	0.0064923936
3	0xbdc039e8	-0.09386045
4	0x3e393578	0.18086803
5	0x3e487b1a	0.1957821
6	0x3e7b73d0	0.24555898
7	0x3e0406cf	0.12893222
8	0x3e95dbdd	0.29269305
9	0x3e7059e0	0.23471785
10	0xbdc8ae66	-0.09798889
11	0x3e855fac	0.26049554
12	0x3e9b4c20	0.30331516
13	0xbdbdc4fa	-0.09266086
14	0x3d29c9bd	0.04145216
15	0x3e7f6b24	0.24943215
16	0x3e30e166	0.17273483
17	0x3e17e78a	0.14834419
18	0xbd204d0e	-0.039135985
19	0xbd8b9cd0	-0.06817019
20	0xbd538dad	-0.051648784
21	0x3e12e091	0.14343478
22	0x3e841064	0.25793755
23	0xbda9423a	-0.08264585
24	0xbd9fd7be	-0.078048214
25	0xbc980138	-0.018555269
26	0x3e39ecaa	0.18156686
27	0xbd8858c9	-0.066575594
28	0xbd0d0ae7	-0.034434225
29	0xbe1da872	-0.15396288
30	0x3e26798d	0.16257305
31	0x3e32f235	0.17475207
32	0x3dcc2081	0.09967137
33	0x3e80ab67	0.2513077
34	0x3e7d375f	0.24728154
35	0x3e7c0b86	0.24613771
36	0x3db69b4f	0.089163415
37	0xbdd9d715	-0.10636727
38	0xbc0fd34f	-0.008778407
39	0x3e885f5b	0.2663525
40	0x3e1f5e00	0.15563202
41	0xbdbd79ae	-0.09251724
42	0x3e94d234	0.29066622
43	0x3e3aea36	0.18253407
44	0x3e4b27db	0.19839422
45	0x3e94a840	0.29034615
46	0x3e618cf7	0.2202643
47	0x3e038f19	0.12847556
48	0x3e9609c5	0.2930433
49	0x3e894be5	0.26815715
50	0xbdd534c0	-0.10410452
51	0xbcd5cfa6	-0.026099991
52	0xbd86200e	-0.06549083
53	0x3e87f304	0.26552594
54	0x3e6dabf5	0.23210128
55	0x3ec348b8	0.38141418
56	0xbd77d077	-0.060501542
57	0x3e86f6e8	0.2636025
58	0x3e60f0dd	0.21966882
59	0xbb86911c	-0.004106654
60	0x3ecc1e73	0.3986698
61	0xbd46ecca	-0.048565663
62	0x3e637637	0.22213064
63	0xbc76c105	-0.015060668
64	0xbc95fbe9	-0.018308597
65	0x3e15ff9a	0.14648286
66	0x3e17248f	0.1476004
67	0xbda87858	-0.08226079
68	0xbc83d7ce	-0.016094115
69	0x3d53e5a3	0.05173267
70	0x3d486c72	0.048931547
71	0x3e811224	0.25209153
72	0x3e96f82f	0.29486224
73	0x3d129747	0.0357888
74	0x3e8b64eb	0.27225432
75	0x3e959c28	0.292207
76	0x3db521bc	0.08844325
77	0xbd5f257d	-0.05447911
78	0x3e9a1a67	0.30098268
79	0x3e89fe88	0.26952004
80	0x3e2373b2	0.15962103
81	0x3e39d047	0.18145858
82	0xbde0918b	-0.1096526
83	0xbd9595e2	-0.073039785
84	0xbde0d03f	-0.1097722
85	0x3e1c7610	0.15279412
86	0x3e89d977	0.26923725
87	0x3e0e2628	0.13881743
88	0xbc92256d	-0.017840112
89	0x3dfafb9d	0.12255023
90	0x3d774aba	0.060374
91	0x3e8ca86f	0.27472255
92	0x3e06eb12	0.1317561
93	0x3e4dfb14	0.2011531
94	0x3e9175cf	0.28410193
95	0x3e7386e7	0.2378193
96	0x3e4a6965	0.19766767
97	0x3ea5c58e	0.32377285
98	0x3dd34bad	0.103171684
99	0xbde06888	-0.10957438
100	0x3e7fbd21	0.2497449
101	0x3e6b060a	0.22951522
102	0x3e700688	0.23439991
103	0xbd91c5cd	-0.07117806
104	0xbdc4acf2	-0.09603299
105	0x3e9c271d	0.3049859
106	0xbdfe093a	-0.124041036
107	0x3e0a7188	0.13519871
108	0x3e72991b	0.23691218
109	0x3e4dc875	0.20096
110	0xbd9047ad	-0.07044921
111	0x3dec5b67	0.11540871
112	0x3e6b44c4	0.22975451
113	0xbd1c42d5	-0.038149673
114	0xbc52a4a7	-0.012856639
115	0x3e35d483	0.17756848
116	0xbd14a9b4	-0.036294654
117	0x3d8af981	0.0678587
118	0x3e3167ff	0.17324828
119	0x3e75ba0b	0.23996751
120	0xbd063693	-0.03276689
121	0x3d333052	0.043747254
122	0x3e8d0659	0.27543905
123	0x3e1a2cf5	0.15056212
124	0x3e8c8fd4	0.27453482
125	0x3e83217a	0.25611478
126	0x3e4e42e2	0.20142701
127	0x3e535d8b	0.20641153

model.model.2.weight f4 [128, 128]
0	0x3d9002fd	0.0703182
1	0x3b13140a	0.0022442364
2	0x3c24f77b	0.01006877
3	0xbd311923	-0.043236863
4	0xbcb2c34e	-0.021821644
5	0x3a9c1fe6	0.0011911362
6	0x3e6228d4	0.22085887
7	0x3d4b64fb	0.04965685
8	0x3d1c5d83	0.038175117
9	0x3cc0fa5f	0.023556886
10	0x3ddb326e	0.10702978
11	0x3d9f3c2f	0.07775151
12	0x3dda9811	0.106735356
13	0xbd0f457f	-0.034978386
14	0x3caa6530	0.020800203
15	0x3dd322c2	0.10309364
16	0x3de9adef	0.11410128
17	0xbdb2dddb	-0.08733722
18	0xbd9d8610	-0.07691586
19	0x3c7e2749	0.015512296
20	0xbdcb68f8	-0.099321306
21	0xbd22bc4e	-0.039730363
22	0x3db9fbc6	0.09081225
23	0xbda49e66	-0.080380246
24	0x3dcf1eb3	0.10113277
25	0xbd979ca0	-0.07402921
26	0xbd7912d6	-0.06080898
27	0xbce8d1e4	-0.028420396
28	0xbd39ba53	-0.04534371
29	0x3d15d0b3	0.036575984
30	0xbd2e41a3	-0.042543065
31	0xbd25ad5a	-0.040448524
32	0xbd81d5fb	-0.06339642
33	0xbd4598bd	-0.048241366
34	0xbd34f0e1	-0.044175033
35	0xbd456083	-0.048187744
36	0x3dcd4e4b	0.10024699
37	0xbc990f8e	-0.018684175
38	0xbd071d6c	-0.032987043
39	0xbb429911	-0.0029693285
40	0xbd837a69	-0.06419832
41	0x3e09e8dc	0.13467735
42	0x3d436800	0.047706604
43	0x3c0e48b8	0.00868433
44	0x3d45249c	0.048130617
45	0xbbe6984c	-0.007037198
46	0xbd6413de	-0.05568301
47	0x3dbe0a0d	0.09279261
48	0x3c696253	0.014244634
49	0xbd8d34e7	-0.06894856
50	0x3c4bffb3	0.0124511
51	0xbd22915e	-0.039689414
52	0xbdc70a3f	-0.09718751
53	0x3cc6d9be	0.02427375
54	0xbdbcff5c	-0.092283934
55	0x3e7aa58c	0.24477214
56	0x3dbb8053	0.09155335
57	0xbd8d607f	-0.06903171
58	0x3c9748cc	0.01846733
59	0x3d2e3cc2	0.042538412
60	0x3e7c5677	0.24642359
61	0x3dbf4d36	0.09340899
62	0x3e23c66e	0.15993664
63	0x3dbd3336	0.09238283
64	0xbd24f5dc	-0.040273532
65	0xbd8745e3	-0.06605127
66	0x3d4eaab2	0.050455756
67	0xbd287a81	-0.041132454
68	0xbc7d0413	-0.015442866
69	0xbc755717	-0.014974377
70	0x3cf282f0	0.029603451
71	0x3e164085	0.1467305
72	0xbcb0c20d	-0.021576906
73	0x3ca6d791	0.020366462
74	0x3c8bfb91	0.01708773
75	0x3db998db	0.09062358
76	0xbc8c5e26	-0.017134737
77	0x3d5cb324	0.05388178
78	0xbc648033	-0.013946581
79	0x3e1201ac	0.1425845
80	0x3ddf87ea	0.109145954
81	0x3c93c68e	0.018039014
82	0xbc3f00db	-0.011657919
83	0xbdbcf0db	-0.09225627
84	0xbca42bf2	-0.020040486
85	0x3d9b1731	0.07572783
86	0x3d343d16	0.04400357
87	0xbd4a3192	-0.04936368
88	0xbc938ca4	-0.018011399
89	0xbd1fc8cc	-0.039009854
90	0x3b0b7070	0.0021276735
91	0x3cccaf24	0.024985857
92	0xbc863ecb	-0.016387364
93	0xbcc5833b	-0.024110427
94	0xbd615d63	-0.0550207
95	0x3df376af	0.118878715
96	0x3d4617b8	0.048362464
97	0x3dfe62e0	0.12421203
98	0x3e1c7bb9	0.15281571
99	0xbcf2cdee	-0.02963921
100	0x3de821b5	0.11334554
101	0xbd51eaa8	-0.051249176
102	0xbd8b44a4	-0.068002015
103	0xbda4b9aa	-0.08043225
104	0x3de4d548	0.11173493
105	0x3e02be03	0.12767796
106	0x3c3cbaeb	0.011519174
107	0x3d27bf49	0.040953908
108	0xbce10c7c	-0.027471773
109	0x3db94831	0.090469725
110	0x3c454e07	0.012042529
111	0xbd9f3fa3	-0.077758096
112	0x3cad7913	0.021175897
113	0xbc901db5	-0.01759229
114	0x3d913f8d	0.070921995
115	0x3c51d7a8	0.012807764
116	0x3da85407	0.08219152
117	0x3d2f80d0	0.042847455
118	0xbcfec957	-0.031101866
119	0x3dc9729a	0.09836312
120	0x3dbbb795	0.09165875
121	0xbd447f13	-0.04797275
122	0x3e77d9ec	0.24204224
123	0x3da6c80c	0.08143625
124	0x3d7c04e8	0.061528116
125	0xbc90afe7	-0.017662002
126	0x3d653eba	0.055968024
127	0x3c449c56	0.012000164
128	0xbcff9f19	-0.031203793
129	0x3d875637	0.06608241
130	0xbca129cd	-0.019673252
131	0xbd38c211	-0.04510695
132	0x3d9dbd51	0.07702125
133	0x3dc6c404	0.09705356
134	0x3dc0f13d	0.094210126
135	0xbccd39cb	-0.025051972
136	0x3d943851	0.07237304
137	0x3c55a10d	0.013038886
138	0xbd1b814f	-0.037965115
139	0x3df211bf	0.11819791
140	0x3d42f4aa	0.04759661
141	0xbda53da8	-0.080684006
142	0x3bcca964	0.006245779
143	0x3de361fd	0.11102674
144	0xbcc80b73	-0.024419522
145	0x3dbedd1d	0.09319518
146	0xbda4b1f0	-0.080417514
147	0x3da3615b	0.079775535
148	0x3d84b893	0.06480517
149	0x3dbf071c	0.09327528
150	0xba97d18c	-0.0011582836
151	0xbd7fe6f4	-0.062476113
152	0x3df106ef	0.117689006
153	0x3da7cd54	0.0819346
154	0x3db9fa2c	0.090809196
155	0xbd86ed95	-0.06588284
156	0x3d0d3fbe	0.034484617
157	0xbdaae92a	-0.08345254
158	0x3dd2aab2	0.10286464
159	0x3db2265f	0.08698725
160	0xbd19bdf0	-0.037534654
161	0x3d059bd5	0.032619316
162	0x3dca2341	0.098700054
163	0x3cebf6bf	0.028804181
164	0x3deae296	0.11468999
165	0xbd821f80	-0.063536644
166	0x3cd3d57e	0.025858637
167	0x3d3b04f4	0.04565902
168	0xbd175c41	-0.036953215
169	0x3d9b36c5	0.07578806
170	0xbd5c48ae	-0.05378025
171	0xbc1cfd87	-0.00958193
172	0xbd018106	-0.031617187
173	0x3ba8d74d	0.005152619
174	0xbc16c309	-0.009201773
175	0x3e3b9118	0.18317068
176	0x3d83f1e5	0.06442622
177	0x3d8f81be	0.07007168
178	0x3d617b49	0.055049215
179	0x3d80fe4c	0.06298503
180	0x3d54fdc4	0.051999822
181	0xbd24a23d	-0.040193785
182	0x3d1139d1	0.03545553
183	0x3e87c3dd	0.2651662
184	0x3dcbdc50	0.09954131
185	0xbd04e02d	-0.032440353
186	0x3dd14448	0.10218102
187	0xbd4f6a0c	-0.050638244
188	0x3e3e3b23	0.18577246
189	0xbc54af30	-0.012981221
190	0x3e01fa11	0.12693049
191	0xbcdf4175	-0.027252892
192	0xbd0d2f39	-0.034468863
193	0xbd45a25b	-0.048250537
194	0xbd30a027	-0.043121483
195	0x3d67f129	0.056626473
196	0x3d8a2284	0.067448646
197	0x3dcf2afa	0.10115619
198	0xbb84dd3f	-0.004054695
199	0x3db47531	0.08811415
200	0x3da4147d	0.0801172
201	0x3dbe5130	0.09292829
202	0xbd36a7d2	-0.04459364
203	0x3dae933c	0.085241765
204	0xbd4eb316	-0.05046376
205	0xbd0b9cbb	-0.034085017
206	0xbcb6cb3d	-0.022313708
207	0x3e22dc98	0.15904462
208	0x3da8c151	0.08239997
209	0x3c0a9bfe	0.008460043
210	0x3d801743	0.06254437
211	0xbd56ca53	-0.052439045
212	0x3b270c57	0.0025489533
213	0xbd4123d9	-0.047153328
214	0x3dffbd51	0.12487281
215	0x3debe25d	0.11517785
216	0x3deedae6	0.11662845
217	0xbc9ef9d8	-0.019406244
218	0x3d8b4b4f	0.06801473
219	0x3dd3077e	0.103041634
220	0xbd8ab086	-0.067719504
221	0x3d62cc96	0.05537089
222	0xbca973e5	-0.020685146
223	0xbb1d4863	-0.0023999445
224	0x3dbafb7d	0.09129999
225	0x3e019151	0.1265309
226	0x3de357cd	0.11100731
227	0x3bdb3381	0.0066894894
228	0x3e19102e	0.14947578
229	0x3d605838	0.054771632
230	0x3df0984e	0.117478
231	0x3db2fc64	0.08739546
232	0x3cfa821c	0.03057962
233	0x3dbb62ea	0.09149726
234	0x3d2ff1c4	0.042955175
235	0xbd9370fd	-0.07199285
236	0x3e00d3b3	0.12580757
237	0x3dda5e4f	0.10662519
238	0x3dad1003	0.084503196
239	0xbd883aa5	-0.066518106
240	0x3c849b5b	0.01618736
241	0xbd54f51d	-0.05199157
242	0x3e23ae9e	0.1598458
243	0x3de7c44d	0.11316738
244	0x3dc7e215	0.097599186
245	0xbce0a277	-0.02742122
246	0x3e195def	0.14977239
247	0x3c80476a	0.015659053
248	0x3dc8539c	0.09781572
249	0x3d924032	0.071411505
250	0x3de543c6	0.111945674
251	0x3d4dd78a	0.050254382
252	0x3da0a3c6	0.07843737
253	0x3d9a48c9	0.07533414
254	0xbb6e611e	-0.0036373804
255	0x3c20c246	0.009811943

model.model.2.bias f4 [128]
0	0x3dee4f21	0.116361864
1	0x3e3026cb	0.17202298
2	0x3e12b9c8	0.14328682
3	0x3e3df2b3	0.18549614
4	0x3e340946	0.17581663
5	0x3e15e2ec	0.14637345
6	0x3dd94a85	0.106099166
7	0x3d1cafe9	0.0382537
8	0x3e49d29e	0.1970925
9	0x3e425b46	0.1898013
10	0x3d9c2915	0.07625023
11	0x3e147486	0.14497575
12	0x3e314bf3	0.17314129
13	0x3e3ce6ca	0.18447414
14	0x3e166b0c	0.14689273
15	0xbce7154b	-0.028208395
16	0x3e37598e	0.17905256
17	0x3d90f638	0.070782125
18	0x3d90811b	0.07055875
19	0x3e3deb42	0.18546775
20	0x3d86cad7	0.065816574
21	0xbd765897	-0.06014308
22	0xbd27fcbf	-0.04101252
23	0x3d18f47b	0.03734253
24	0x3e164fb2	0.14678839
25	0x3e01f5cd	0.12691422
26	0x3e4b1d36	0.19835362
27	0xbd51aa21	-0.05118764
28	0x3e334f66	0.17510757
29	0x3e198a24	0.14994103
30	0x3de42ede	0.11141752
31	0x3cd8f8cc	0.026485823
32	0x3e06e674	0.13173848
33	0x3d7fb7a7	0.062431004
34	0x3e58bf96	0.21166834
35	0x3e29b18d	0.16571636
36	0x3e4afec0	0.19823742
37	0x3e3bf389	0.1835462
38	0xbcdfc9ab	-0.027317842
39	0x3e20c6e0	0.15700865
40	0x3e5aed06	0.2137948
41	0xbcf42548	-0.029802933
42	0x3e5d04bf	0.21583842
43	0x3e05f867	0.13083039
44	0x3e3666be	0.1781263
45	0x3d9c3591	0.076274045
46	0x3d99f6c6	0.075177714
47	0x3e6dc74e	0.2322056
48	0x3e19b3a4	0.15009934
49	0x3dcb79e8	0.09935361
50	0x3e008feb	0.125549
51	0x3e07f249	0.13276018
52	0x3e1e9cac	0.15489453
53	0x3e495abf	0.19663523
54	0xbdbaf338	-0.091284215
55	0x3dd96098	0.10614127
56	0x3e4d8445	0.20069988
57	0x3e5e3af5	0.21702178
58	0x3dd9ec4b	0.106407724
59	0x3e132415	0.14369233
60	0xbd8303b1	-0.063971885
61	0x3e550110	0.20801187
62	0x3d552352	0.052035637
63	0x3ddf74ba	0.10910936
64	0x3dd96182	0.10614301
65	0x3e446eb5	0.19182856
66	0x3db8191e	0.08989166
67	0xbd985091	-0.07437242
68	0x3e3e2f6e	0.1857278
69	0x3d90b3ce	0.07065545
70	0x3dda17ac	0.10649046
71	0x3d80f52f	0.06296765
72	0x3e0148b1	0.12625386
73	0x3cd3f088	0.02587153
74	0x3e09a1b3	0.1344059
75	0xbdb87487	-0.09006601
76	0x3dfd937e	0.123816475
77	0x3e1fd284	0.15607649
78	0x3dec3d8f	0.11535179
79	0xbcf3af7f	-0.029746769
80	0x3e3ce665	0.18447264
81	0x3e5324ca	0.20619503
82	0xbb9c4ac2	-0.004769654
83	0xbc1f119a	-0.009708786
84	0x3d9524c8	0.07282406
85	0x3e1cdc5f	0.1531844
86	0xbd8cdb66	-0.068777844
87	0x3e0309b5	0.12796672
88	0xbd268ba8	-0.04066053
89	0x3e593218	0.21210515
90	0x3e3258c0	0.17416668
91	0x3e16a5c5	0.14711674
92	0x3e263561	0.162313
93	0x3c99624e	0.018723633
94	0x3dd6e645	0.10493139
95	0x3dbdff14	0.09277168
96	0x3e3f3e27	0.18676053
97	0x3e072fdf	0.13201855
98	0x3dca8d31	0.098902114
99	0x3d9f748a	0.077859
100	0x3e47efb1	0.19525029
101	0x3e440ea0	0.19146204
102	0x3d42410d	0.04742532
103	0x3df0a010	0.117492795
104	0x3d9067cd	0.070510484
105	0xbd003157	-0.031297054
106	0x3e46bbac	0.19407529
107	0x3e3548bd	0.17703529
108	0x3dcc24b0	0.09967935
109	0x3e223695	0.15841134
110	0x3d5fca94	0.054636553
111	0xbdaad41b	-0.08341237
112	0x3da8f71b	0.08250257
113	0x3d9d0017	0.07666033
114	0x3db218e7	0.08696156
115	0x3e10e626	0.14150295
116	0x3daede47	0.0853849
117	0x3e04c1e1	0.12964584
118	0xbd018ba0	-0.031627297
119	0x3d8b82cb	0.06812056
120	0x3de7b43e	0.11313675
121	0xbc03fc33	-0.008055734
122	0x3c0d26f9	0.008615249
123	0x3dd4fe42	0.10400058
124	0x3e337ba0	0.17527628
125	0xbd9edb1d	-0.07756636
126	0x3d8760db	0.066102706
127	0x3e07e754	0.13271838

model.model.4.weight f4 [128, 128]
0	0x3c9b44a0	0.018953621
1	0xbb3a266b	-0.0028404247
2	0xbc44d31e	-0.012013225
3	0xbd8f1948	-0.06987244
4	0xbc207ccf	-0.009795382
5	0xbd80d204	-0.06290057
6	0x3d13db8e	0.036098056
7	0x3d656922	0.056008466
8	0x3bfb74ab	0.00767382
9	0x3d05d1ed	0.032670904
10	0xbd34867c	-0.044073567
11	0xbd118e02	-0.03553582
12	0x3cfd211d	0.030899579
13	0x3d82e486	0.06391244
14	0x3d368578	0.04456088
15	0x3d889fc2	0.066710964
16	0x3d3653ba	0.04451344
17	0xbd1917a6	-0.03737607
18	0xbd3f123f	-0.04664826
19	0x38c42263	9.352413e-05
20	0x3c83505c	0.01602953
21	0x3d521a4e	0.051294617
22	0x3d5c60a6	0.05380311
23	0xbd33bf6f	-0.043883737
24	0xbd54ea7f	-0.051981445
25	0xbdb76233	-0.08954277
26	0x3d0d73b2	0.034534164
27	0x3d17c22e	0.03705042
28	0xbdb4fdec	-0.08837494
29	0x3d8d1f0f	0.068906896
30	0x3ccb995e	0.024853405
31	0x3d982864	0.07429579
32	0x3c6786c1	0.014131249
33	0x3d97e679	0.07417006
34	0xbc8ef34a	-0.017449994
35	0x3c91a8bd	0.017780656
36	0x3cc16f0e	0.023612525
37	0xbaec418f	-0.0018024909
38	0xbc828ed0	-0.015937239
39	0x3d531ebe	0.05154299
40	0xbc4a9e14	-0.01236679
41	0x37644000	1.360476e-05
42	0xbd96edc5	-0.0736957
43	0xbd830981	-0.06398297
44	0x3bf8d1c8	0.0075933672
45	0xbc9e512b	-0.019325813
46	0x3da50d87	0.08059221
47	0xbdb7bc49	-0.089714594
48	0x3c8a1bb2	0.01685891
49	0xbda13445	-0.07871298
50	0xbc3faf1c	-0.011699464
51	0x3d9cc959	0.076555915
52	0x3d786fcb	0.06065349
53	0x3d2bb388	0.04191926
54	0xbd5f83eb	-0.054569166
55	0x3da9a290	0.082829595
56	0xbb6493ca	-0.0034878128
57	0xbc8ac616	-0.016940158
58	0xbdbd4199	-0.092410274
59	0xbbfdf0a9	-0.007749636
60	0xbd82b23d	-0.063816525
61	0x3d0636a5	0.032766957
62	0x3d36ef65	0.0446619
63	0x3d8f9a55	0.070118584
64	0x3c9b23c9	0.018937962
65	0xbd01e691	-0.031714026
66	0x3d6d3d81	0.057919983
67	0x3b707a86	0.0036694123
68	0x3be0ac4e	0.006856478
69	0x3d0e87b3	0.03479738
70	0xba8492c2	-0.0010114538
71	0x3d4634c2	0.048390158
72	0x3d7a6c45	0.06113841
73	0x3da2f883	0.07957556
74	0x3cc84740	0.024448037
75	0xbb674b84	-0.0035292814
76	0xbdbe5e94	-0.09295383
77	0xbdaa9226	-0.08328657
78	0x3a6be7e6	0.0008999094
79	0xbcadfa5b	-0.021237543
80	0x390321d3	0.00012505734
81	0x3da066fd	0.078321435
82	0x3d9184d1	0.07105411
83	0xbafa9316	-0.0019117321
84	0xbdbb4b09	-0.09145171
85	0x3d86e8eb	0.06587394
86	0x3d8de93b	0.06929251
87	0x3d9eb53c	0.077494115
88	0x3cc7cb38	0.024388894
89	0x3d686712	0.05673892
90	0x3b948f14	0.004533658
91	0xbd8aaab4	-0.0677084
92	0x3bfa8f1b	0.007646454
93	0x3d9c2468	0.076241314
94	0x3bb767cd	0.005597091
95	0x3b9d4f90	0.0048007444
96	0x3a9ad628	0.0011813091
97	0x3d6edb43	0.058314573
98	0xbd7f2088	-0.062286884
99	0x3bb9ff48	0.005676184
100	0x3bcc82d6	0.006241183
101	0x3d71b869	0.059013758
102	0xbdbebbb2	-0.09313144
103	0xbd022b6f	-0.031779703
104	0xbdb49d37	-0.08819049
105	0xbc7286ae	-0.014802618
106	0x3d553b46	0.05205848
107	0xbd4b853a	-0.0496876
108	0xbc838d53	-0.0160586
109	0xbdbfa6b6	-0.093579695
110	0x3da616af	0.08109795
111	0xbd545377	-0.05183741
112	0xbcc96c73	-0.024587845
113	0xbd8995ea	-0.06718047
114	0x3c6fff47	0.014648265
115	0xbd843273	-0.06454935
116	0xbd2bf5cb	-0.041982453
117	0xbd2e6e93	-0.04258592
118	0x3d498128	0.04919544
119	0xbda3b64f	-0.07993757
120	0xbd5a0f67	-0.053237345
121	0xbc7eeb78	-0.01555907
122	0x3cc350cf	0.023842243
123	0x3d933fb2	0.07189883
124	0x3bd9e208	0.0066492595
125	0x3c54da95	0.012991567
126	0x3d9ed6f9	0.077558465
127	0x3d38cb90	0.045116007
128	0xbdac4d36	-0.08413164
129	0x3d0ccb00	0.034373283
130	0xbd710599	-0.05884323
131	0x3d6f77f9	0.058464024
132	0xbd841174	-0.064486414
133	0x3cc13c39	0.023588287
134	0x3c9e12c6	0.019296061
135	0x3d137bba	0.036006667
136	0x3d85e769	0.065382786
137	0xbcfb72f3	-0.03069446
138	0x39f59a8d	0.0004684519
139	0x3c266068	0.010154821
140	0x3daf4d17	0.085596256
141	0x3ce5aa5f	0.02803534
142	0xbcf8109e	-0.030281361
143	0xbbffc660	-0.0078056306
144	0xbd48f9a7	-0.049066212
145	0xbb7c80e0	-0.0038528964
146	0x3d7e6c12	0.062114783
147	0xbd3cb94b	-0.046075147
148	0xba210e80	-0.0006143823
149	0xbd6c6c3a	-0.0577204
150	0x3d9de2fd	0.0770931
151	0x3b21c000	0.0024681091
152	0xbd2f6036	-0.042816363
153	0x3c6a5d4b	0.014304469
154	0x3da6b6f9	0.08140368
155	0x3d75d50a	0.060017623
156	0xbd83599b	-0.06413575
157	0x3d276151	0.040864293
158	0xbc882b3c	-0.016622178
159	0xbd70ddcd	-0.058805276
160	0xbbecac94	-0.0072227214
161	0xbc0772f4	-0.008267153
162	0xbd226c2e	-0.03965395
163	0x3d1b9f05	0.03799345
164	0xbd2847b9	-0.041084025
165	0x3d9959da	0.07487841
166	0xbb376c40	-0.0027988106
167	0xbd9888df	-0.07447981
168	0xba1812c8	-0.00058011385
169	0x3cd2a628	0.025713995
170	0xbdb3e94e	-0.08784734
171	0xbd88d469	-0.06681139
172	0x3cb3107b	0.021858444
173	0x3c9d0b0b	0.019170305
174	0x3d675b9a	0.056483842
175	0x3d49656d	0.049168993
176	0x3d951dd1	0.07281078
177	0xbd1268f8	-0.035744637
178	0x3d423cb0	0.047421157
179	0x3cf3d139	0.029762851
180	0xbd246055	-0.040130932
181	0x3d817b50	0.06322348
182	0x3c900e74	0.017585017
183	0xbc71ac50	-0.014750555
184	0x3d927cdd	0.07152722
185	0xbcd921ab	-0.026505312
186	0x3d3a9261	0.045549754
187	0xbd11b0a5	-0.035568852
188	0xbd8e7db2	-0.06957568
189	0x3c8b78b0	0.017025322
190	0x3db3164d	0.08744488
191	0x3d9cc6a6	0.07655077
192	0xbc72e45d	-0.014824954
193	0x3d909e50	0.07061446
194	0xbcdfc217	-0.027314229
195	0x3d3c698e	0.045999102
196	0xbd9eea45	-0.07759527
197	0x3d4c29b9	0.049844477
198	0x3d63ca28	0.055612713
199	0xbca967ec	-0.020679437
200	0xbda0f1b9	-0.07858605
201	0xbd8ecc44	-0.06972554
202	0xbd29d09b	-0.041458707
203	0xbd666a6a	-0.056253828
204	0x3ceebba9	0.029142218
205	0xbda333dd	-0.079688765
206	0x3dac96a4	0.0842717
207	0x3d8f3fab	0.069945656
208	0x3d898427	0.06714659
209	0xbd82f31f	-0.06394028
210	0xbc55b570	-0.013043746
211	0x3d5870ca	0.05284194
212	0xbd979d66	-0.07403068
213	0x3d268e89	0.040663276
214	0x3d6e165e	0.0581268
215	0xbd196bcb	-0.037456315
216	0xbca74e68	-0.02042313
217	0xbd8e050e	-0.06934558
218	0xbda431ac	-0.08017287
219	0xbd915ac7	-0.070973925
220	0x3cb6f002	0.022331242
221	0xbd55a001	-0.052154545
222	0xbd071f79	-0.032989
223	0xbcb649c8	-0.022251979
224	0xbb8dc27d	-0.0043261633
225	0xbd18486c	-0.037178442
226	0xbd568d83	-0.05238105
227	0x3d30f306	0.043200515
228	0xbda198cc	-0.07890472
229	0x3d163210	0.036668837
230	0xbd3ebb4b	-0.046565335
231	0xbcccf304	-0.025018223
232	0x3d900632	0.07032432
233	0x3d9d34eb	0.07676109
234	0x3ceb7c38	0.028745756
235	0x3baf4859	0.0053492007
236	0xbd17a03c	-0.037018046
237	0xbcf88712	-0.030337844
238	0x3c4059ab	0.0117401285
239	0x3d9b6fdd	0.075896956
240	0x3d136a77	0.035990205
241	0xbdb0c945	-0.08632139
242	0x3d0040ea	0.031311907
243	0xbd4f400c	-0.05059819
244	0x3ccab9d9	0.024746822
245	0xbd199b1b	-0.037501436
246	0xbd60f70a	-0.054923095
247	0xbc5d03d2	-0.01348968
248	0xbd5b35fc	-0.05351828
249	0x3d5b629a	0.05356083
250	0xbc744f28	-0.01491145
251	0xbd93b601	-0.07212449
252	0xbb762380	-0.003755778
253	0xbd5a5ce9	-0.053311262
254	0x3d013039	0.03154013
255	0xbc997a36	-0.018735033

model.model.4.bias f4 [128]
0	0x3c58c243	0.013229909
1	0x3b05cc87	0.0020416097
2	0x3e418ba1	0.1890092
3	0x3d366bbf	0.04453635
4	0xbc15df0e	-0.009147419
5	0x3c38dd22	0.011283191
6	0x3e5257de	0.20541331
7	0x3e134364	0.14381176
8	0x3d73ed4d	0.05955248
9	0x3d230d3e	0.03980755
10	0x3db80393	0.08985057
11	0x3ccb5340	0.02481997
12	0x3e1b866a	0.15187994
13	0xbbfc7f4b	-0.007705604
14	0x3da4b429	0.08042175
15	0x3d019a6a	0.0316414
16	0x3c393b03	0.011305573
17	0x3e22307b	0.15838806
18	0x3d9806c2	0.07423164
19	0x3d4155c4	0.047200933
20	0xbcd1e1df	-0.025620399
21	0x3e05560c	0.13021106
22	0xbd963d5f	-0.07335924
23	0xbbab1bfa	-0.005221841
24	0x3d7bdd85	0.061490554
25	0x3df97505	0.12180523
26	0x3de18119	0.110109515
27	0x3e1f7753	0.15572862
28	0x3e231f05	0.15929802
29	0x3ccca49e	0.02498084
30	0xbd685a00	-0.056726456
31	0x3df3d387	0.1190558
32	0x3e53995b	0.20663969
33	0xbd80f80e	-0.06297313
34	0x3cc81862	0.02442569
35	0x3dc8f11a	0.098116115
36	0xbbcf9328	-0.006334681
37	0x3cafc027	0.02145393
38	0x3c52ef17	0.012874386
39	0x3e4cf7d4	0.20016414
40	0x3d7060bb	0.058686
41	0x3defb35b	0.11704131
42	0x3d3a2369	0.045443926
43	0xbd8f6a60	-0.07002711
44	0x3c72e962	0.014826151
45	0x3e3de017	0.18542515
46	0x3bf0b583	0.0073458566
47	0x3e1ec10b	0.15503328
48	0xbc70a1f5	-0.014687051
49	0xbd704d10	-0.058667243
50	0xbd076f1a	-0.03306494
51	0x3c6a46f3	0.014299142
52	0x3b038d72	0.0020073322
53	0x3de32fe4	0.11093119
54	0x3d5d35f8	0.054006547
55	0xbd575518	-0.052571386
56	0x3a378680	0.0007000938
57	0xbd8b63e1	-0.0680616
58	0xbd36a0b8	-0.044586867
59	0xbcff604a	-0.031173844
60	0xbda6cbe3	-0.08144357
61	0x3e3481cc	0.17627639
62	0xbc6f156e	-0.014592512
63	0x3d32ef9f	0.04368555
64	0x3c8b1054	0.01697556
65	0xbc0afc13	-0.008482951
66	0xbcb31476	-0.021860342
67	0xbd39796c	-0.045281813
68	0x3e30698f	0.17227767
69	0x3d050566	0.03247585
70	0x3dc7ac20	0.09749627
71	0xbcfda697	-0.030963225
72	0x3deed149	0.11661012
73	0xbb8aeead	-0.004239878
74	0x3dd88476	0.1057214
75	0x3e683878	0.22677791
76	0xbdaa4a7e	-0.083149895
77	0x3d519e8d	0.051176596
78	0x3dfe3dd0	0.124141335
79	0x3d9f43a2	0.07776572
80	0x3d95e4a2	0.07318999
81	0x3e68f298	0.22748792
82	0xbdaf1c3e	-0.08550309
83	0x3c41d986	0.011831647
84	0x3e2108a8	0.15725958
85	0xbd7fa98c	-0.062417552
86	0xbdacf760	-0.084456205
87	0xbd05646e	-0.03256648
88	0x3d8f1580	0.06986523
89	0x3dcd8a29	0.100361176
90	0xbda43767	-0.0801838
91	0x3c7cf3d9	0.015438997
92	0x3e2d38cf	0.16916202
93	0xbcd034c8	-0.025415793
94	0x3d5e6477	0.05429503
95	0x3a3e54a4	0.0007260537
96	0xbd2599d9	-0.040429924
97	0xbd490987	-0.04908135
98	0x3c8b5a84	0.017010935
99	0x3df865c7	0.121287875
100	0x3e33f7d5	0.17575009
101	0x3e0f9686	0.14022264
102	0x3cd9d929	0.026592808
103	0x3d8c3a67	0.06847077
104	0x3e0f84b0	0.1401546
105	0x3caf9119	0.021431493
106	0xbca49068	-0.02008839
107	0x3d8b7cc0	0.068109035
108	0x3e2972c6	0.16547689
109	0xbd70751e	-0.05870544
110	0x3e130184	0.14356047
111	0xbdb57c41	-0.0886159
112	0x3e0c6c0e	0.13713095
113	0xbd56c498	-0.05243358
114	0x3e03d7e3	0.12875323
115	0x3c7731a9	0.0150875235
116	0x3d2db160	0.042405486
117	0x3dbfb525	0.093607225
118	0x3d84d2c2	0.06485511
119	0x3e105905	0.14096458
120	0xbc130eaf	-0.008975669
121	0xbd7fc630	-0.062444866
122	0xbd18703b	-0.037216406
123	0x3dbc4c39	0.09194226
124	0x3dbf475f	0.09339785
125	0xbb986670	-0.0046508834
126	0x3d7129b1	0.05887765
127	0x3d4db9af	0.05022591

model.model.6.weight f4 [7, 128]
0	0xbcde7cfa	-0.027159203
1	0xbd43921f	-0.047746774
2	0x3db020d0	0.086000085
3	0x3d80ec16	0.0629503
4	0x3d9bdd45	0.07610563
5	0x3db59198	0.088656604
6	0x3dba308b	0.0909129
7	0x3d604cc5	0.054760713
8	0xbcdeec01	-0.027212145
9	0xbd376910	-0.04477793
10	0xbd37912b	-0.044816177
11	0xbcda2abf	-0.026631711
12	0x3d9da382	0.07697202
13	0xbd856bf0	-0.06514728
14	0x3da7353f	0.08164453
15	0x3c2d543f	0.010579168
16	0x3c732021	0.014839203
17	0x3d6e6eaf	0.058211025
18	0xbd1007c9	-0.035163675
19	0x3cf075e5	0.029353091
20	0xbd85d996	-0.06535642
21	0xbc537023	-0.012905153
22	0x3da81e5d	0.08208916
23	0x3dcb30ed	0.09921441
24	0x3d936beb	0.07198318
25	0xbd16622a	-0.03671471
26	0x3c8494c3	0.016184216
27	0x3deff1d4	0.11716047
28	0x3de2579f	0.11051869
29	0xbb1162e5	-0.002218419
30	0xbd925b24	-0.0714629
31	0x3d2c1097	0.04200801
32	0x3cfe45e7	0.031039191
33	0xbcb8c2b8	-0.022553787
34	0x3cb5df4e	0.022201207
35	0x3d5f14bb	0.05446313
36	0x3d3c5ccd	0.04598694
37	0xbd97be41	-0.07409335
38	0xbd970e97	-0.0737583
39	0x3dbf16de	0.093305334
40	0xbd28365a	-0.04106746
41	0x3d816f0e	0.0632001
42	0xbcc0d998	-0.023541257
43	0xbd8a76bd	-0.06760929
44	0xbcc53e6e	-0.02407762
45	0x3d76775b	0.06017242
46	0xbc4b3ada	-0.012404168
47	0x3da26bca	0.079307154
48	0x3d4d301a	0.0500947
49	0xbd5c2ae2	-0.053751834
50	0x3c7e5552	0.015523272
51	0x3df1e120	0.11810517
52	0xbc2a2cb8	-0.010386638
53	0x3d921a44	0.07133916
54	0xbc5dda4b	-0.013540815
55	0x3d77c4a6	0.060490273
56	0x3ccb3f98	0.024810597
57	0x3a90bf80	0.00110434
58	0x3d0d1300	0.034441948
59	0x3da537a5	0.08067254
60	0x3d9083c1	0.0705638
61	0x3c33356f	0.0109380325
62	0xbcccfffd	-0.025024408
63	0xbd3ce0f6	-0.046112977
64	0x3cb45b70	0.022016257
65	0x3d2ce5e3	0.042211425
66	0x3ca4ed69	0.020132737
67	0x3b9e0832	0.0048227543
68	0x3d863618	0.06553286
69	0xbd75ac7e	-0.059978954
70	0x3de51e7d	0.11187456
71	0x3d4ed78b	0.050498527
72	0x3de9ed4c	0.11422214
73	0xbd80aeb4	-0.06283322
74	0xbd151539	-0.036397193
75	0x3d6e1354	0.0581239
76	0xbd927259	-0.07150716
77	0xbd28e9ba	-0.041238524
78	0x3d540cf9	0.051770184
79	0x3d162bd4	0.03666289
80	0x3d8015e8	0.06254178
81	0x3e08d545	0.13362606
82	0x3d96477d	0.07337854
83	0xbc85ad05	-0.016317854
84	0xbcb1f2c4	-0.021722205
85	0xbda4067b	-0.080090486
86	0x3cf15850	0.029461056
87	0x3daf6023	0.085632585
88	0xbd866c6f	-0.06563651
89	0xbd0ff118	-0.035142034
90	0x3d0d0a14	0.03443344
91	0x3d6d991a	0.058007337
92	0x3dea239e	0.11432575
93	0xbd916efa	-0.07101245
94	0xbc9cd733	-0.019145584
95	0x3d951b04	0.072805434
96	0xbc413d78	-0.01179444
97	0x3d77142c	0.06032197
98	0x3be64df0	0.007028334
99	0x3dff84de	0.12476514
100	0x3de247f4	0.1104888
101	0x3d82766b	0.06370243
102	0x3d8c6cb1	0.06856669
103	0x3e03e89c	0.12881702
104	0x3dfb1c3c	0.12261245
105	0x3d8ee0f2	0.06976499
106	0xbcdb1618	-0.026743934
107	0x3dffc950	0.12489569
108	0x3ddefbe9	0.10887892
109	0xbc837043	-0.016044741
110	0x3dbc301b	0.09188863
111	0x3d971cf5	0.0737857
112	0x3cbe1985	0.023205528
113	0x3d4d8724	0.05017771
114	0x3d4cf42c	0.050037548
115	0x3d9c4f48	0.07632309
116	0x3d13b3c6	0.036060117
117	0x3aae7c20	0.0013312139
118	0xbbddd9d1	-0.0067703505
119	0x3d668ab0	0.056284606
120	0x3d310df0	0.043226182
121	0x3d241346	0.040057443
122	0x3d951311	0.07279027
123	0x3dacdf07	0.084409766
124	0x3d823755	0.0635821
125	0x3da8756f	0.08225524
126	0x3db16aad	0.08662925
127	0x3d5be60f	0.053686198
128	0x3d9a9e25	0.07549695
129	0xbc8f25a8	-0.01747401
130	0x3d853157	0.065035515
131	0x3d7ac449	0.06122235
132	0xbd0212fc	-0.031756386
133	0x3c9ef048	0.019401684
134	0x3dd6f6e8	0.104963124
135	0x3d405881	0.046959404
136	0x3d447d71	0.047971193
137	0x3d84e79e	0.0648949
138	0xbb421ac6	-0.002961801
139	0xbb40399a	-0.0029331208
140	0x3de780a4	0.11303833
141	0xbd9ff43b	-0.07810255
142	0xbd9404d6	-0.07227485
143	0xbd0f24f6	-0.034947358
144	0xbd05edfd	-0.032697666
145	0xbca958d6	-0.020672243
146	0xbcc77d5d	-0.02435177
147	0x3db5990a	0.088670805
148	0xbd54c99d	-0.051950086
149	0x3dd88511	0.105722554
150	0xbce9398e	-0.028469827
151	0xbc49669d	-0.012292531
152	0xbd3e2125	-0.046418328
153	0xbd15e70b	-0.036597293
154	0x3e09d02d	0.13458319
155	0x3dc13d17	0.0943548
156	0x3dc1a90a	0.0945607
157	0x3d8c35c8	0.068461955
158	0x3d665d2a	0.056241192
159	0x3cede7d1	0.029041203
160	0x3e1047c8	0.14089882
161	0x3cc3fb10	0.023923427
162	0x3da77481	0.08176518
163	0x3cf6ae90	0.030112535
164	0xbd933648	-0.07188088
165	0xbcf206aa	-0.029544193
166	0xbda0a957	-0.07844799
167	0xbb558067	-0.0032577754
168	0xbc94a9b9	-0.018147336
169	0x3dc86c7f	0.09786319
170	0x3d174d3a	0.036938883
171	0xbd82c29a	-0.063847736
172	0xbcb3e374	-0.021959044
173	0x3d2a4023	0.04156507
174	0x3cbebfbc	0.023284785
175	0xbccfdf7d	-0.025375122
176	0xbcadf2bc	-0.021233909
177	0x3cf7aa5c	0.0302326
178	0x3ce66b64	0.02812738
179	0x3b19d8be	0.0023475136
180	0x3da20972	0.07911958
181	0x3d83509b	0.06411859
182	0x3c5a615d	0.013328877
183	0x3c8b33bc	0.016992442
184	0xbbf55d70	-0.0074879453
185	0xbd929f40	-0.07159281
186	0x3bf229c0	0.007390231
187	0x3d85bf35	0.065306105
188	0xbc864fd0	-0.01639548
189	0x3db94c3a	0.09047742
190	0x3bd250b6	0.006418313
191	0x3b42fbf5	0.002975223
192	0xbdb449a5	-0.08803109
193	0x3d0a8290	0.03381592
194	0xba85d240	-0.0010209754
195	0xbca865ac	-0.020556293
196	0x3d468a0a	0.048471488
197	0xbcb68840	-0.022281766
198	0x3c9819ba	0.018566955
199	0x3d9293cf	0.071570985
200	0x3d951336	0.07279055
201	0xbca0b374	-0.01961682
202	0x3e0e9281	0.13923074
203	0x3e0e9d04	0.13927084
204	0x3db40803	0.087905906
205	0x3c338e64	0.010959242
206	0x3a797019	0.00095153
207	0xbd018700	-0.031622887
208	0x3c1e4e37	0.009662203
209	0x3e141cbd	0.14464088
210	0x3da43aed	0.08019052
211	0xbda2470f	-0.079237096
212	0x3d376fd1	0.04478437
213	0x3dadfe91	0.0849582
214	0x3b1d8900	0.0024037957
215	0xbdb1e0f8	-0.086854875
216	0x3c12c613	0.008958357
217	0x3da53f67	0.08068734
218	0xbd48e1c1	-0.04904342
219	0xbd897d40	-0.06713343
220	0x3d396792	0.045264788
221	0x3d9cfba1	0.07665182
222	0xbd508e95	-0.050917227
223	0xbccbc8d3	-0.024876034
224	0xbc148700	-0.00906539
225	0xbd937f3a	-0.07202001
226	0x3d733d6a	0.05938474
227	0x3dd70e3f	0.10500764
228	0x3ddd46b7	0.108045034
229	0x3e14aa3b	0.14518063
230	0x3d285d5e	0.041104667
231	0x3df08cdb	0.11745616
232	0x3cedc017	0.02902226
233	0x3d8cd52e	0.06876598
234	0x3d4c0a2a	0.04981438
235	0x3dd278ff	0.102769844
236	0xbcbe71e6	-0.02324767
237	0xbd103968	-0.035210997
238	0x3d6736ac	0.056448624
239	0xbdad98c5	-0.08476404
240	0x3d463fa2	0.04840053
241	0x3d8def26	0.069303796
242	0x3cba4a3a	0.022740472
243	0x3c027d38	0.007964425
244	0x3c9c00cb	0.019043347
245	0xbd05d852	-0.032677002
246	0xbc52bed4	-0.01286288
247	0x3d9f69a1	0.07783819
248	0xbc59132c	-0.0132492
249	0xbd3642a1	-0.044497136
250	0xbc834830	-0.016025633
251	0x3de31c3e	0.11089371
252	0xbd001c05	-0.03127672
253	0x3d2123e6	0.039340876
254	0x3d16e3da	0.03683839
255	0x3d6b9ee6	0.057524584

model.model.6.bias f4 [7]
0	0x3de8277c	0.11335656
1	0x3e834282	0.2563668
2	0x3e15ca8d	0.14628048
3	0x3d0887ce	0.03333264
4	0x3df64d74	0.12026492
5	0x3d9c5464	0.07633284
6	0x3dc9013c	0.098146886

model_old.model.0.weight f4 [128, 42]
0	0xbdf41a6a	-0.119191006
1	0xbd896c1b	-0.067100726
2	0x3df4a75b	0.11945983
3	0xbd1b9d14	-0.0379916
4	0x3d071a69	0.03298417
5	0x3de98e74	0.11404124
6	0x3c921e51	0.017836722
7	0xbdfbde79	-0.12298293
8	0x3d93bb87	0.072135024
9	0xbbdc6bee	-0.0067267334
10	0x3de79d9f	0.11309361
11	0x3ca1f1e8	0.01976867
12	0xbc431b49	-0.011908361
13	0xbcff2346	-0.03114475
14	0x3c80fdea	0.015746076
15	0x3da83847	0.08213859
16	0x3b95511d	0.0045567886
17	0xbcbcc64f	-0.02304378
18	0xbe12f873	-0.14352588
19	0xbd7a8cad	-0.061169315
20	0x3c9a6cd2	0.018850718
21	0x3d66b3a7	0.056323674
22	0x3de393dc	0.11112186
23	0xbdb8f3e2	-0.09030892
24	0xbd8c2908	-0.068437636
25	0x3e0228aa	0.12710825
26	0xbdf26663	-0.11835935
27	0xbdb3c659	-0.08778066
28	0xbc3353b6	-0.010945251
29	0xbd028dc9	-0.031873498
30	0x3e00b616	0.1256946
31	0xbe0b3758	-0.1359533
32	0x3d06298b	0.032754462
33	0xbd22c643	-0.03973986
34	0xbe122085	-0.14270218
35	0x3d397b4a	0.045283593
36	0xbd6fd59d	-0.058553327
37	0x3dd1051c	0.10206053
38	0xbb150ccb	-0.002274322
39	0xbe032c4d	-0.12809868
40	0xbd15c193	-0.03656156
41	0xbd308fef	-0.043106016
42	0x3dd0621d	0.101749636
43	0x3ccc2fc8	0.024925128
44	0xbd790a61	-0.060800914
45	0x3db86df3	0.09005346
46	0x3cb34ba4	0.021886654
47	0x3d79fec5	0.061033983
48	0x3ceb6178	0.028733
49	0xbe32899f	-0.17435311
50	0xbe1d05c9	-0.15334238
51	0xbde8a6f0	-0.11359966
52	0xbdd16276	-0.10223858
53	0x3e02bc24	0.12767082
54	0xbd99ec82	-0.075158134
55	0x3d4dccf8	0.0502443
56	0x3db3f636	0.087871954
57	0xbe1f3d09	-0.15550627
58	0x3d71914d	0.05897646
59	0x3d4eec3e	0.050518267
60	0xbe2deb0b	-0.16984193
61	0x3d87d5a0	0.066325426
62	0xbdbe6787	-0.0929709
63	0x3dd793ec	0.10526261
64	0xbd40e649	-0.047094617
65	0xbda4417d	-0.080203034
66	0x3e0f2419	0.13978614
67	0xbe07be92	-0.1325629
68	0x3dfec2fc	0.12439534
69	0x3da1c556	0.07898967
70	0x3bc9cfe1	0.0061588143
71	0x3b279e0a	0.0025576376
72	0x3de2faf0	0.11083019
73	0x3d58acb6	0.052899085
74	0xbd94e57a	-0.07270332
75	0xbe30ef67	-0.17278825
76	0xbe0280e1	-0.12744476
77	0xbda3d02c	-0.0799869
78	0xbdf380f8	-0.11889833
79	0xbda705ef	-0.081554286
80	0x3d2260ee	0.03964322
81	0x3de5c1ce	0.11218606
82	0xbe3bfe25	-0.18358667
83	0xbdfc6790	-0.123244405
84	0xbd1dde9b	-0.03854237
85	0x3d83e3fe	0.064399704
86	0xbce79832	-0.028270815
87	0xbe36d083	-0.17852978
88	0x3e21d5b6	0.1580418
89	0x3d91fab9	0.071279
90	0xbc940495	-0.018068591
91	0x3cb876d1	0.022517594
92	0x3cc1cee3	0.023658222
93	0xbe43028e	-0.19043943
94	0x3d816cd5	0.06319586
95	0x3dc6e98d	0.09712515
96	0xbddba12f	-0.10724103
97	0x3c36089c	0.011110451
98	0xbe3cd5b0	-0.1844089
99	0x3dfd0214	0.12353912
100	0xbda74228	-0.08166915
101	0x3ca46c93	0.020071303
102	0xbcedcc63	-0.029028123
103	0x3d623bb9	0.055232737
104	0x3bedeecc	0.007261133
105	0x3d8d82dc	0.06909725
106	0x3dfc6c47	0.1232534
107	0xbca5e8f2	-0.020252679
108	0xbd351a3f	-0.044214483
109	0xbcbbd718	-0.022929713
110	0x3e019a83	0.12656598
111	0xbdfdcd50	-0.12392676
112	0x3ddb3d92	0.10705103
113	0xbd97a29b	-0.074040614
114	0x3e2b0edc	0.16704887
115	0xbddc2c86	-0.1075068
116	0x3d9068a3	0.07051208
117	0xbdd0b560	-0.101908445
118	0xbd502f6d	-0.05082648
119	0x3ddb59a4	0.10710457
120	0x3e2743d4	0.16334468
121	0x3d72462f	0.059148964
122	0x3c6c40a1	0.014419706
123	0x3e222193	0.1583312
124	0x3db4158c	0.08793172
125	0xbdeeb51b	-0.11655637
126	0xbdd8cd98	-0.10586089
127	0xbe256aa4	-0.16153961
128	0xbdd8719d	-0.10568545
129	0x3b5c7239	0.0033637418
130	0xbdd4b0b9	-0.1038527
131	0x3dc1e883	0.09468176
132	0xbe0e7448	-0.13911545
133	0x3e0b63b6	0.13612255
134	0x3da1d8e5	0.079026975
135	0xbdff4107	-0.12463575
136	0xbe2b755b	-0.16743986
137	0xbd0c84ff	-0.034306522
138	0x3d9cfbfa	0.07665248
139	0xbc686ba8	-0.0141858235
140	0x3dcf62de	0.10126279
141	0xbba8b483	-0.005148472
142	0x3da1d4fd	0.079019524
143	0xbd7b3e58	-0.061338753
144	0xbdbf483c	-0.093399495
145	0x3dd7df12	0.10540594
146	0x3de7ab90	0.1131202
147	0xbc21d13c	-0.0098765455
148	0xbe2e0100	-0.16992569
149	0x3cf87c82	0.030332807
150	0xbd315d79	-0.043302033
151	0x3cb19f34	0.02168236
152	0x3da9f829	0.08299286
153	0xbd839674	-0.06425181
154	0x3e01fc49	0.12693895
155	0xbd54e4b4	-0.05197592
156	0x3df2dc91	0.11858476
157	0xbd78f33c	-0.06077884
158	0x3b112f57	0.002215346
159	0xbd050f66	-0.03248539
160	0x3d3aa53b	0.045567732
161	0x3dd7d103	0.10537913
162	0xbe02a3d3	-0.12757806
163	0x3da59036	0.08084147
164	0x3e20e1da	0.15711156
165	0xbdb1ef64	-0.08688238
166	0xbe01dbc1	-0.12681486
167	0xbd8ae256	-0.067814514
168	0x3daa2cd4	0.083093315
169	0x3da25979	0.07927222
170	0xbde31ab8	-0.110890806
171	0xbd9c8587	-0.07642656
172	0x3c3be852	0.011468964
173	0xbd203251	-0.039110485
174	0x3da93c3c	0.08263442
175	0x3dc11c38	0.094292104
176	0xbd77bc8a	-0.06048254
177	0x3c86fb5a	0.016477276
178	0x3d686618	0.05673799
179	0x38b38599	8.5602696e-05
180	0xbdc244a1	-0.09485746
181	0x3de3cb25	0.11122731
182	0x3de56dcb	0.11202582
183	0xbdc036b9	-0.093854375
184	0xbc90cc33	-0.017675495
185	0x3dbe70ad	0.09298835
186	0x3da447a6	0.08021478
187	0x3cf203cc	0.029542826
188	0xbd0e7ac5	-0.03478505
189	0xbe115614	-0.14192992
190	0xbe351f71	-0.17687775
191	0x3dc26bad	0.09493194
192	0x3d8344f6	0.06409638
193	0xbe0baf2b	-0.1364104
194	0xbd585d05	-0.052823085
195	0x3c3f3019	0.011669182
196	0xbce7d3bc	-0.028299205
197	0xbe0f9725	-0.14022501
198	0xbe0c171a	-0.13680688
199	0x3cb459ae	0.022015419
200	0xbe1c1bf1	-0.15245034
201	0xbe0a37d1	-0.13497855
202	0x3e03e6ef	0.12881063
203	0xbd1f99d8	-0.038965076
204	0xbe473bd0	-0.1945641
205	0x3cf77c89	0.03021075
206	0xbdd2a655	-0.102856316
207	0xbd3e58ca	-0.046471395
208	0xbd31e210	-0.04342848
209	0x3ca617d4	0.020275034
210	0xbe285cf7	-0.16441713
211	0xbdd52c75	-0.1040887
212	0x3d2a4541	0.041569952
213	0x3df7e11c	0.12103483
214	0xbda16b38	-0.078817785
215	0x3cf4661b	0.029833844
216	0xbe03eb15	-0.12882645
217	0xbe57c431	-0.21070935
218	0x3de5c6f7	0.1121959
219	0xbde9fb65	-0.11424903
220	0x3d0d84d0	0.034550488
221	0xbb0e7a2c	-0.00217403
222	0xbe537efd	-0.20653911
223	0xbd501465	-0.0508007
224	0x3d878d8d	0.066187955
225	0x3d57e78d	0.05271106
226	0xbb4cc6a7	-0.0031246336
227	0xbd6edf52	-0.058318444
228	0x3ce7cebe	0.028296825
229	0x3d804026	0.06262235
230	0xbc902c00	-0.017599106
231	0xbe2e17c5	-0.17001255
232	0xbde1e62e	-0.110302314
233	0x3d91fb63	0.07128026
234	0xbda73c95	-0.08165852
235	0xbdb00e56	-0.08596484
236	0x3e0d8905	0.138218
237	0xbb7e6ebd	-0.003882333
238	0x3db8123a	0.089878514
239	0xbd7a89a2	-0.061166413
240	0x3c5da665	0.013528441
241	0x3d94d97f	0.072680466
242	0xbd2a28df	-0.041542884
243	0xbd113f24	-0.035460606
244	0x3d9969b2	0.07490863
245	0xbd1dae4a	-0.038496293
246	0xbdcea348	-0.10089737
247	0x3dfd0790	0.12354958
248	0xbdd7c54c	-0.10535678
249	0x3d3775b8	0.04479
250	0xbb45baae	-0.0030171084
251	0xbd73b2e3	-0.05949677
252	0xbdee863f	-0.11646699
253	0x3deaefbf	0.11471509
254	0xbdab23d2	-0.083564416
255	0x3e38fea9	0.18065895

model_old.model.0.bias f4 [128]
0	0x3e82b766	0.25530547
1	0xbdb90515	-0.090341724
2	0x3bd4be25	0.0064923936
3	0xbdc039e8	-0.09386045
4	0x3e393578	0.18086803
5	0x3e487b1a	0.1957821
6	0x3e7b73d0	0.24555898
7	0x3e0406cf	0.12893222
8	0x3e95dbdd	0.29269305
9	0x3e7059e0	0.23471785
10	0xbdc8ae66	-0.09798889
11	0x3e855fac	0.26049554
12	0x3e9b4c20	0.30331516
13	0xbdbdc4fa	-0.09266086
14	0x3d29c9bd	0.04145216
15	0x3e7f6b24	0.24943215
16	0x3e30e166	0.17273483
17	0x3e17e78a	0.14834419
18	0xbd204d0e	-0.039135985
19	0xbd8b9cd0	-0.06817019
20	0xbd538dad	-0.051648784
21	0x3e12e091	0.14343478
22	0x3e841064	0.25793755
23	0xbda9423a	-0.08264585
24	0xbd9fd7be	-0.078048214
25	0xbc980138	-0.018555269
26	0x3e39ecaa	0.18156686
27	0xbd8858c9	-0.066575594
28	0xbd0d0ae7	-0.034434225
29	0xbe1da872	-0.15396288
30	0x3e26798d	0.16257305
31	0x3e32f235	0.17475207
32	0x3dcc2081	0.09967137
33	0x3e80ab67	0.2513077
34	0x3e7d375f	0.24728154
35	0x3e7c0b86	0.24613771
36	0x3db69b4f	0.089163415
37	0xbdd9d715	-0.10636727
38	0xbc0fd34f	-0.008778407
39	0x3e885f5b	0.2663525
40	0x3e1f5e00	0.15563202
41	0xbdbd79ae	-0.09251724
42	0x3e94d234	0.29066622
43	0x3e3aea36	0.18253407
44	0x3e4b27db	0.19839422
45	0x3e94a840	0.29034615
46	0x3e618cf7	0.2202643
47	0x3e038f19	0.12847556
48	0x3e9609c5	0.2930433
49	0x3e894be5	0.26815715
50	0xbdd534c0	-0.10410452
51	0xbcd5cfa6	-0.026099991
52	0xbd86200e	-0.06549083
53	0x3e87f304	0.26552594
54	0x3e6dabf5	0.23210128
55	0x3ec348b8	0.38141418
56	0xbd77d077	-0.060501542
57	0x3e86f6e8	0.2636025
58	0x3e60f0dd	0.21966882
59	0xbb86911c	-0.004106654
60	0x3ecc1e73	0.3986698
61	0xbd46ecca	-0.048565663
62	0x3e637637	0.22213064
63	0xbc76c105	-0.015060668
64	0xbc95fbe9	-0.018308597
65	0x3e15ff9a	0.14648286
66	0x3e17248f	0.1476004
67	0xbda87858	-0.08226079
68	0xbc83d7ce	-0.016094115
69	0x3d53e5a3	0.05173267
70	0x3d486c72	0.048931547
71	0x3e811224	0.25209153
72	0x3e96f82f	0.29486224
73	0x3d129747	0.0357888
74	0x3e8b64eb	0.27225432
75	0x3e959c28	0.292207
76	0x3db521bc	0.08844325
77	0xbd5f257d	-0.05447911
78	0x3e9a1a67	0.30098268
79	0x3e89fe88	0.26952004
80	0x3e2373b2	0.15962103
81	0x3e39d047	0.18145858
82	0xbde0918b	-0.1096526
83	0xbd9595e2	-0.073039785
84	0xbde0d03f	-0.1097722
85	0x3e1c7610	0.15279412
86	0x3e89d977	0.26923725
87	0x3e0e2628	0.13881743
88	0xbc92256d	-0.017840112
89	0x3dfafb9d	0.12255023
90	0x3d774aba	0.060374
91	0x3e8ca86f	0.27472255
92	0x3e06eb12	0.1317561
93	0x3e4dfb14	0.2011531
94	0x3e9175cf	0.28410193
95	0x3e7386e7	0.2378193
96	0x3e4a6965	0.19766767
97	0x3ea5c58e	0.32377285
98	0x3dd34bad	0.103171684
99	0xbde06888	-0.10957438
100	0x3e7fbd21	0.2497449
101	0x3e6b060a	0.22951522
102	0x3e700688	0.23439991
103	0xbd91c5cd	-0.07117806
104	0xbdc4acf2	-0.09603299
105	0x3e9c271d	0.3049859
106	0xbdfe093a	-0.124041036
107	0x3e0a7188	0.13519871
108	0x3e72991b	0.23691218
109	0x3e4dc875	0.20096
110	0xbd9047ad	-0.07044921
111	0x3dec5b67	0.11540871
112	0x3e6b44c4	0.22975451
113	0xbd1c42d5	-0.038149673
114	0xbc52a4a7	-0.012856639
115	0x3e35d483	0.17756848
116	0xbd14a9b4	-0.036294654
117	0x3d8af981	0.0678587
118	0x3e3167ff	0.17324828
119	0x3e75ba0b	0.23996751
120	0xbd063693	-0.03276689
121	0x3d333052	0.043747254
122	0x3e8d0659	0.27543905
123	0x3e1a2cf5	0.15056212
124	0x3e8c8fd4	0.27453482
125	0x3e83217a	0.25611478
126	0x3e4e42e2	0.20142701
127	0x3e535d8b	0.20641153
