project/paper_notebooks/saved_variables/paper_notebooks/7/7-20epoch_500loop/7-looping-iteration-274/final_policy_agent1.pth (torch, 543093 bytes, 16 tensors)

model.model.0.weight f4 [32, 1, 4, 4]
0	0xbf205c09	-0.62640435
1	0xbe2a63a0	-0.16639566
2	0x3e9ddbb5	0.30831686
3	0x3d1b9ac8	0.037989408
4	0xbeff3382	-0.49843985
5	0x3e12f642	0.14351752
6	0xbf0a7641	-0.5408669
7	0xbf137c80	-0.57611847
8	0xbe5e4336	-0.21705326
9	0xbe141e65	-0.1446472
10	0xbe6721b6	-0.22571453
11	0xbd53f758	-0.051749557
12	0xbe417810	-0.18893456
13	0x3e13fd47	0.14452086
14	0xbe2e93ca	-0.17048565
15	0xbebac9e2	-0.3648215
16	0x3e9ad499	0.30240324
17	0x3d85f4a1	0.065408
18	0xbf0e0340	-0.5547371
19	0xbe84d530	-0.259439
20	0x3eb2fa3a	0.34956533
21	0x3f1eb4cf	0.6199464
22	0xbf12623c	-0.57181144
23	0xbee9a82b	-0.45636114
24	0xbeb58870	-0.35455656
25	0x3f37588d	0.7161949
26	0xbf246ce6	-0.64228666
27	0x3c812b2e	0.01576766
28	0xbf505b87	-0.8138966
29	0xbf066233	-0.5249359
30	0xbcd69cf0	-0.02619788
31	0xbe2e0c44	-0.16996866
32	0x3ecbe833	0.3982559
33	0xbdb5a96f	-0.088702075
34	0xbe025c5c	-0.12730545
35	0x3eb447f9	0.3521116
36	0x3e2f0677	0.1709231
37	0x3e90a6c9	0.28252247
38	0x3e02cbaa	0.12773004
39	0xbf3dba23	-0.7411215
40	0xbec79030	-0.38977194
41	0x3e8cbb4e	0.27486652
42	0x3e02087f	0.12698554
43	0x3dd55ad3	0.10417714
44	0xbf0aaf83	-0.5417406
45	0x3d8ef5bd	0.069804646
46	0xbe935d9e	-0.28782362
47	0xbeb56d41	-0.35434917
48	0xbd95d48e	-0.07315932
49	0xbeb4f081	-0.3533974
50	0xbe0c31d8	-0.13690889
51	0xbe35c87f	-0.17752264
52	0xbd85ed40	-0.065393925
53	0x3cc943cb	0.024568459
54	0x3e72c7eb	0.23709075
55	0x3ec1f9b2	0.37885815
56	0x3edd00f4	0.4316479
57	0xbe12b39d	-0.1432633
58	0x3eda1d47	0.42600462
59	0x3f093a73	0.5360481
60	0xbf682478	-0.90680647
61	0xbe8cc424	-0.27493393
62	0xbeea9c67	-0.4582245
63	0x3f05e116	0.5229658
64	0xbd2ee939	-0.042702887
65	0xbeae3841	-0.34027293
66	0xbebff4b9	-0.37491396
67	0xbedb67cb	-0.42852625
68	0x3e446b91	0.19181658
69	0x3d4e356c	0.050343916
70	0xbe9951eb	-0.2994531
71	0x3edbbfe4	0.42919838
72	0x3ef14c44	0.471285
73	0xbe94f687	-0.29094335
74	0xbf80a01c	-1.0048862
75	0xbe0eadf1	-0.13933541
76	0xbf1f532b	-0.6223628
77	0xbf44787b	-0.7674634
78	0xbeb4f5f0	-0.35343885
79	0xbe8d65d0	-0.2761674
80	0x3ebba59e	0.36649793
81	0xbd83bb1d	-0.064321734
82	0xbf10d24e	-0.565709
83	0xbe0c0d59	-0.13676967
84	0x3e302fe8	0.17205775
85	0xbbbeaf3e	-0.0058192303
86	0xbf3059a3	-0.68886775
87	0xbe7a51cc	-0.24445266
88	0x3eae09c0	0.33991814
89	0xbde94849	-0.113907404
90	0xbd812b67	-0.063071065
91	0x3ea0fa0e	0.31440777
92	0xbf81d3b5	-1.0142733
93	0xbf531961	-0.824606
94	0x3dd8853f	0.1057229
95	0x3f3caad5	0.7369817
96	0x3bcb5633	0.006205344
97	0x3db75d21	0.0895331
98	0xbe15a670	-0.14614272
99	0xbd2ac5f1	-0.041692678
100	0x3e204ced	0.15654345
101	0xbe8c73bc	-0.27432048
102	0x3cf5393d	0.02993452
103	0xbf329a70	-0.697669
104	0x3e9e6755	0.3093821
105	0xbf17a1e0	-0.59231377
106	0x3f1a3e3b	0.60251206
107	0xbfce6559	-1.6124679
108	0xbeb400ff	-0.3515701
109	0xbe6e8e06	-0.23296365
110	0x3e68109c	0.22662586
111	0xbe73def4	-0.23815519
112	0x3e86bbae	0.26315063
113	0xbd713374	-0.05888696
114	0x3c9e439d	0.01931935
115	0x3ec644fb	0.38724503
116	0xbc8b6985	-0.01701809
117	0xbdc5b234	-0.0965313
118	0x3cda8fc9	0.02667989
119	0x3f21931a	0.63115084
120	0x3d6f28ef	0.058388647
121	0xbe98e12a	-0.29859287
122	0xbdfd5f72	-0.123717204
123	0x3f567fbf	0.83788675
124	0x3f24394e	0.6414994
125	0xbe923d15	-0.28562227
126	0xbdf54b4e	-0.11977254
127	0xbfa37db7	-1.277274
128	0x3ebcea35	0.36897436
129	0xbf3cfed8	-0.7382636
130	0xbe60c5aa	-0.21950403
131	0x3ecbff65	0.39843288
132	0xbf372c42	-0.7155191
133	0xbe4a0edb	-0.1973223
134	0x3e98fa6e	0.29878563
135	0xbf6f2337	-0.9341311
136	0xbf14d159	-0.5813194
137	0xbe526022	-0.20544484
138	0x3e90bbcc	0.28268278
139	0xbf81daa7	-1.0144852
140	0xbdc3091f	-0.09523224
141	0xbec2b8cb	-0.3803161
142	0xbea83cdf	-0.3285894
143	0xbe93a8db	-0.28839764
144	0xbd693ae9	-0.056940947
145	0x3eb2465c	0.34819305
146	0x3e6654cb	0.22493283
147	0xbfa1a7bc	-1.2629313
148	0xbf84ddcd	-1.0380188
149	0xbce45e46	-0.027876984
150	0xbec6957d	-0.38785926
151	0xbee3e276	-0.44508713
152	0xbef5d307	-0.48012564
153	0xbecbd021	-0.39807227
154	0xbe9f9251	-0.31166318
155	0xbf0594e5	-0.5218032
156	0x3ea91be0	0.3302908
157	0x3ef2fe11	0.47459462
158	0xbe424eb1	-0.18975331
159	0x3e038738	0.1284455
160	0xbd6ddcfc	-0.058072075
161	0x3e16de99	0.14733352
162	0xbe7a3d67	-0.24437486
163	0xbdeb1fdc	-0.11480686
164	0x3c0f9d8e	0.008765591
165	0xbe86079a	-0.26177675
166	0x3c5b5e83	0.013389233
167	0xbe84abb9	-0.25912264
168	0x3af7b1ee	0.0018897632
169	0xbd10e379	-0.035373185
170	0xbd70e301	-0.058810238
171	0xbe899cef	-0.26877543
172	0xbe494e5b	-0.19658796
173	0xbec39395	-0.38198534
174	0x3df25234	0.11832085
175	0x3d8fe55f	0.07026171
176	0x3e0e4781	0.13894464
177	0xbf655fc6	-0.89599264
178	0xbdbe86c8	-0.09303051
179	0xbf1214dc	-0.5706308
180	0xbf3ed958	-0.7455039
181	0xbe8acdea	-0.27110225
182	0x3e32295f	0.17398594
183	0xbf046db4	-0.51729894
184	0xbec6cb9e	-0.38827223
185	0x3e094f02	0.13409045
186	0x3e5edf41	0.21764852
187	0xbeb6123a	-0.3556078
188	0xbe2a7ee6	-0.1664997
189	0xbe82a24d	-0.2551445
190	0xbf37506f	-0.71607107
191	0x3e990633	0.29887542
192	0xbb22f234	-0.0024863603
193	0xbeec8cb8	-0.4620111
194	0x3d553ecb	0.052061837
195	0xbc619e8e	-0.013770713
196	0xbe8e0957	-0.277415
197	0xbe2bfbda	-0.16795292
198	0xbeab44fe	-0.33451074
199	0x3d12acb9	0.035809252
200	0xbe28753e	-0.16450974
201	0xbe2c5264	-0.16828305
202	0x3d6a6b5e	0.0572313
203	0xbd33f9d2	-0.04393942
204	0xbe7b6c25	-0.24552973
205	0x3cf948bd	0.030430192
206	0xbe5172bf	-0.20453928
207	0xbef89d38	-0.48557448
208	0xbf275677	-0.6536631
209	0xbd8bc091	-0.068238385
210	0xbd67f04e	-0.056625657
211	0x3e8a8bff	0.27059934
212	0xbf07d41f	-0.53058046
213	0x3e504dac	0.2034213
214	0xbecc7b20	-0.39937687
215	0x3f044bd1	0.51678187
216	0xbe51e61a	-0.20497933
217	0x3c438ab8	0.011934929
218	0xbe24d108	-0.16095364
219	0xbfa9a33e	-1.3252943
220	0xbd6cad40	-0.05778241
221	0xbf7d53c5	-0.9895595
222	0xbe9698d5	-0.29413477
223	0xbe901360	-0.28139782
224	0x3db414ce	0.08793031
225	0xbe284aaa	-0.16434732
226	0xbd9854f2	-0.07438077
227	0xbe667850	-0.22506833
228	0x3cc04003	0.023468023
229	0x3cc47529	0.023981648
230	0xbc8c9a82	-0.017163519
231	0xbf0ffca8	-0.562449
232	0xbf1b6351	-0.6069842
233	0xbd8b7813	-0.06810012
234	0xbe9e9d6a	-0.30979472
235	0xbea50fb0	-0.3223853
236	0x3dba678b	0.091017805
237	0x3c72e894	0.014825959
238	0x3d045b80	0.032313824
239	0xbe058c81	-0.13041879
240	0x3e2dedf3	0.16985302
241	0xbe61178e	-0.21981642
242	0xbefffcfe	-0.49997705
243	0xbee57348	-0.44814515
244	0xbf88723e	-1.0659864
245	0x3dedd327	0.1161254
246	0xbf3e9548	-0.74446535
247	0x3f2949a4	0.6612799
248	0xbe8c9334	-0.27456057
249	0xbe93e163	-0.28882894
250	0xbd9036fb	-0.07041737
251	0xbd6af96a	-0.057366766
252	0xbeb35a3e	-0.35029787
253	0xbd8e821c	-0.0695841
254	0xbdc37be0	-0.09545112
255	0x3ec99a5d	0.39375582

model.model.0.bias f4 [32]
0	0xbe94a39c	-0.29031074
1	0x3e046551	0.12929274
2	0xbf574aa4	-0.8409827
3	0xbe98aa96	-0.29817647
4	0xbdf5d58c	-0.120036215
5	0xbe03e5c5	-0.12880619
6	0x3dbda91a	0.09260769
7	0xbe8dee88	-0.27721047
8	0xbcce75a5	-0.025202582
9	0x3dd7dadc	0.10539791
10	0xbecfbf7d	-0.4057578
11	0x3da882bb	0.0822806
12	0xbe49bc5c	-0.1970076
13	0xbe7d8a07	-0.24759685
14	0xbe715500	-0.23567581
15	0xbdd30be6	-0.10305004
16	0xbd5f7cbc	-0.054562315
17	0x3dd5dba9	0.104422875
18	0xbeba8111	-0.36426595
19	0xbe263084	-0.16229445
20	0xbe502ea5	-0.20330293
21	0x3d78be67	0.060728457
22	0x3c7544bd	0.014970002
23	0x3e85ba65	0.2611877
24	0xbdd62b78	-0.1045751
25	0x3d665838	0.056236476
26	0xbdf6c9be	-0.12050198
27	0x3da615d6	0.081096336
28	0xbe508081	-0.2036152
29	0xbe9c6897	-0.30548546
30	0xbe0644c4	-0.1311217
31	0xbed1e1d9	-0.4099262

model.model.4.weight f4 [128, 384]
0	0xbcb29442	-0.02179921
1	0xbe9252a6	-0.2857868
2	0xbe657d44	-0.22411066
3	0xbe9bfabc	-0.30464733
4	0xbe3ce5c1	-0.18447019
5	0xbea46a91	-0.32112554
6	0x3e70a3c5	0.23499973
7	0xbe69d5fb	-0.22835533
8	0xbee2994b	-0.44257578
9	0xbebecbaf	-0.37264773
10	0x3e2f2d61	0.17107154
11	0xbde1446d	-0.10999379
12	0xbef453f6	-0.47720307
13	0xbf1ea75e	-0.6197413
14	0xbdabff6d	-0.08398328
15	0x3d9fbae2	0.07799317
16	0x3c6b7bbd	0.014372763
17	0xbf68ccef	-0.90937704
18	0xbeacd691	-0.3375745
19	0xbe8c59a3	-0.27412137
20	0x3d899de0	0.067195654
21	0xbe9b25c0	-0.30302238
22	0xbe0c9f0f	-0.13732551
23	0xbe494498	-0.19655073
24	0xbe615a37	-0.2200707
25	0xbe8b55f0	-0.27214003
26	0xbe5a5f14	-0.21325332
27	0x3a38c02c	0.0007047679
28	0x3e727804	0.23678595
29	0xbdf4cd2f	-0.11953198
30	0xbd837f96	-0.064208195
31	0xbd6fbcb3	-0.058529567
32	0x3e89f55d	0.2694501
33	0x3d9087b0	0.0705713
34	0x3e72e5e4	0.23720509
35	0x3eb1b962	0.34711748
36	0xbe0ba28c	-0.13636225
37	0x3c61f3ea	0.013791064
38	0xbd56f5fc	-0.052480683
39	0x3ccce314	0.025010623
40	0xbefbf81b	-0.49212727
41	0xbe5b3946	-0.21408567
42	0x3e82f4fe	0.2557754
43	0x3e8b7aa8	0.27242017
44	0xbe236705	-0.15957268
45	0xbe9e6127	-0.30933496
46	0xbe251af4	-0.16123563
47	0xbd833444	-0.06406453
48	0x3d9c0a0f	0.07619106
49	0xbe524e16	-0.205376
50	0x3d27576f	0.040854868
51	0x3eb4af4e	0.35289997
52	0x3ea9dfe5	0.3317863
53	0xbcea8c65	-0.028631398
54	0x3f109b4f	0.5648698
55	0xbd0da761	-0.034583453
56	0xbe3a9b8a	-0.18223396
57	0xbe511806	-0.2041932
58	0xbba91c4a	-0.005160843
59	0xbf0261c0	-0.50930405
60	0xbf0382cc	-0.51371455
61	0xbe54c02b	-0.20776431
62	0xbe2b4695	-0.16726144
63	0xbdb53f86	-0.08850007
64	0xbefa477d	-0.48882666
65	0x3df40ed5	0.119168915
66	0x3d92edae	0.0717424
67	0x3daaf0a3	0.08346679
68	0xbe2b661e	-0.16738173
69	0x3de2c825	0.11073331
70	0xbe562302	-0.20911792
71	0xbdc56b44	-0.096396
72	0xbde734cf	-0.11289369
73	0xbe2a8874	-0.16653615
74	0xbe9fc226	-0.3120281
75	0x3eb9c837	0.36285564
76	0x3d42dc98	0.047573656
77	0xbf3a8b28	-0.72868586
78	0xbe925163	-0.28577718
79	0x3e9cf608	0.30656457
80	0xbec949ce	-0.3931412
81	0xbeb5d674	-0.35515177
82	0xbc595e0d	-0.013267052
83	0x3db936ef	0.09043681
84	0xbeae0d11	-0.33994344
85	0xbe14970e	-0.14510748
86	0x3e616a12	0.22013119
87	0x3ce90c43	0.02844823
88	0xbf4594de	-0.7718028
89	0xbeb780c3	-0.35840425
90	0x3e7431aa	0.2384707
91	0xbcd364f5	-0.025804976
92	0xbf177591	-0.5916377
93	0xbe671dda	-0.22569981
94	0x3ede2d11	0.43393758
95	0xbe43c6b4	-0.19118768
96	0xbde7ca00	-0.11317825
97	0x3f079fa0	0.52977943
98	0xbe84e59d	-0.2595643
99	0x3e5cbb51	0.2155583
100	0xbf14d038	-0.58130217
101	0xbddac96e	-0.10682951
102	0x3c958258	0.01825063
103	0x3ea1c139	0.3159273
104	0xbe5c0516	-0.21486315
105	0xbec92f69	-0.39293984
106	0x3ca34c36	0.019933801
107	0xbe57f58b	-0.21089761
108	0x3d9e54d4	0.077310234
109	0x3e28acfe	0.16472241
110	0xbd5b6516	-0.0535632
111	0xbe069c1d	-0.1314549
112	0xbe4ed851	-0.20199706
113	0xbe1b23ac	-0.15150326
114	0xbe014e68	-0.12627566
115	0xbd80e4be	-0.06293629
116	0xbf0f912d	-0.56080896
117	0xbf407d44	-0.7519114
118	0xbdaeb78c	-0.085311025
119	0x3f39f30f	0.72636503
120	0xbf017e42	-0.5058328
121	0xbddf7d0d	-0.109125234
122	0xbe6844b8	-0.22682464
123	0x3e0bd327	0.13654767
124	0xbcbd4935	-0.023106197
125	0xbe20a7b3	-0.15688972
126	0xbda406d8	-0.08009118
127	0x3c9f4622	0.019442622
128	0xbe59dee6	-0.21276435
129	0xbe776adc	-0.24161857
130	0xbe3211aa	-0.17389551
131	0x3da93599	0.08262176
132	0xbf2680d0	-0.650403
133	0x3e1b1c79	0.1514758
134	0xbe8ed20b	-0.27894625
135	0xbbc055e7	-0.0058696154
136	0xbf0260b9	-0.5092884
137	0xbc9c42fa	-0.019074906
138	0xbec2f9b5	-0.38081136
139	0xbe3d8185	-0.18506439
140	0xbf3d555d	-0.7395838
141	0xbf40f22a	-0.75369513
142	0xbedf552b	-0.43619666
143	0xbbf1f4ed	-0.0073839338
144	0x3e8ba5ac	0.27274835
145	0xbdb84e29	-0.08999283
146	0x3e48cffd	0.19610591
147	0x3e1e9119	0.15485038
148	0x3e8a1b22	0.26973826
149	0x3d86823a	0.065678075
150	0x3e618353	0.22022752
151	0x3d829e12	0.06377806
152	0x3d6cdb17	0.057826128
153	0xbd5d2284	-0.053987995
154	0x3e8691d8	0.26283145
155	0x3e5b505a	0.2141737
156	0xbf375949	-0.71620613
157	0xbe35ce74	-0.17754537
158	0x3d913be0	0.070914984
159	0xbe3faf01	-0.18719102
160	0xbf049b51	-0.51799494
161	0xbc2bdda7	-0.010489858
162	0x3e2efbd2	0.1708825
163	0x3c66540a	0.014058122
164	0x3e807afa	0.25093824
165	0xbdd7120a	-0.105014876
166	0xbd89e62d	-0.06733356
167	0xbf2942c3	-0.66117495
168	0xbdf132f6	-0.11777298
169	0xbe83c233	-0.257341
170	0xbe1d6263	-0.15369563
171	0xbe54367b	-0.20723908
172	0x3e2a2465	0.16615446
173	0xbeb2d1e9	-0.34925774
174	0xbdf361e9	-0.11883909
175	0xbd861bc7	-0.06548267
176	0x3e4882fc	0.19581217
177	0xbedfea92	-0.4373365
178	0xbe5a9b3a	-0.21348277
179	0xbe3138c6	-0.17306814
180	0x3e8e49ba	0.27790624
181	0xbeabd84f	-0.33563468
182	0xbec24641	-0.37944224
183	0xbe0b5553	-0.13606767
184	0xbe9edd32	-0.31028134
185	0xbdd833ad	-0.105567314
186	0x3ee38e98	0.44444728
187	0x3ceeed1c	0.029165797
188	0xbe9b43f5	-0.30325285
189	0xbf2e58c9	-0.68104225
190	0xbf02ada8	-0.5104623
191	0xbf4f4adf	-0.8097362
192	0x3dbb4065	0.09143142
193	0x3ec5e081	0.38647845
194	0xbe07baa6	-0.13254794
195	0x3ebc192d	0.36737958
196	0x3f102645	0.56308395
197	0x3ea3f219	0.32020643
198	0x3c6e00e9	0.014526584
199	0xbd6b21dd	-0.05740534
200	0x3f0c3d9f	0.54781526
201	0x3d8b1e13	0.067928456
202	0x3e529b84	0.20567137
203	0x3cb06df6	0.021536808
204	0xbf1f7053	-0.6228077
205	0xbf268548	-0.6504712
206	0xbe570946	-0.20999631
207	0xbb1c4d89	-0.0023849925
208	0xbf14eda0	-0.58175087
209	0xbee49d3e	-0.44651216
210	0xbe1056b5	-0.14095576
211	0x3f416e41	0.7555886
212	0xbf2132b1	-0.62967974
213	0xbe268143	-0.16260247
214	0xbe8446e7	-0.25835344
215	0xbf8bcf8a	-1.0922711
216	0xbee2e3b8	-0.4431436
217	0x3e6dbfd8	0.23217714
218	0x3e335b67	0.17515336
219	0x3e40896b	0.18802421
220	0x3c5a509a	0.013324881
221	0x3e2eef21	0.17083408
222	0x3f3c9cb1	0.7367659
223	0x3f53a2d0	0.8267031
224	0xbd7f1ebe	-0.062285177
225	0x3eb40d5a	0.35166436
226	0x3e525831	0.20541455
227	0x3d968031	0.07348669
228	0xbeb09476	-0.34488267
229	0xbf108117	-0.56446975
230	0xbd3090fa	-0.04310701
231	0x3cc1a64e	0.02363887
232	0x3dd089e4	0.101825505
233	0xbe16493a	-0.14676371
234	0x3da7c8c9	0.081925936
235	0x3f2185a4	0.63094544
236	0xbd563a87	-0.05230191
237	0x3e18c2bd	0.14918037
238	0x3ba91557	0.0051600146
239	0xbd34087e	-0.04395341
240	0xbdef6ca4	-0.116906434
241	0xbe95c5ce	-0.29252476
242	0xbf3bf144	-0.7341502
243	0xbdb06928	-0.08613807
244	0xbec42dd4	-0.38316214
245	0x3de99609	0.1140557
246	0xbd799600	-0.060934067
247	0xbecd1a7d	-0.4005927
248	0xbf90827a	-1.1289818
249	0xbdd7a3ec	-0.105293125
250	0xbdcd2f93	-0.1001884
251	0xbe825ea0	-0.25462818
252	0xbde2e641	-0.11079074
253	0xbe0debc7	-0.13859473
254	0x3e44e48b	0.19227807
255	0x3eaa87a0	0.333066

model.model.4.bias f4 [128]
0	0xbdf60c72	-0.120140925
1	0xbcb30ab0	-0.021855682
2	0x3df8d5ca	0.12150152
3	0x3d0d1040	0.034439325
4	0xbe88ccd8	-0.26718783
5	0xbdb4dac4	-0.08830789
6	0xbd8b5aab	-0.06804403
7	0xbd72d855	-0.05928834
8	0xbe2fffed	-0.17187472
9	0xbe6cea78	-0.23136318
10	0xbeb77109	-0.35828426
11	0xbdb6e997	-0.089312725
12	0xbe34021d	-0.17578931
13	0x3ea95737	0.33074352
14	0xbddf45f8	-0.10902017
15	0xbe9c3835	-0.30511633
16	0xbca04ca8	-0.019567803
17	0x3d10a892	0.03531701
18	0x3d0a76cb	0.033804696
19	0xbd83ba4e	-0.06432019
20	0x3cbb5821	0.022869172
21	0x3dfe3ea3	0.12414291
22	0xbda9ab07	-0.08284574
23	0x3e770039	0.24121179
24	0xbbdb689a	-0.006695819
25	0xbe099ca7	-0.13438664
26	0xbe7f0c48	-0.24907029
27	0xbda13802	-0.07872011
28	0xbe4c9dde	-0.19982097
29	0xbdac0561	-0.083994634
30	0xbe19e918	-0.15030324
31	0xbd914058	-0.07092351
32	0xbe9b5b4a	-0.30343086
33	0x3e8273a6	0.25478858
34	0xbdab6f89	-0.08370883
35	0xbcd51929	-0.026012974
36	0xbe46f9c3	-0.19431214
37	0xbe026cf1	-0.1273687
38	0xbe263f11	-0.16234995
39	0xbe10ed0d	-0.14152928
40	0xbddcf452	-0.10788788
41	0x3d4f9a34	0.05068417
42	0xbe42e88b	-0.1903402
43	0xbd88e38f	-0.06684028
44	0xbc7b69d2	-0.015345054
45	0xbd9dd7b4	-0.07707158
46	0xbd95fbe8	-0.07323438
47	0x3e0425e3	0.12905078
48	0xbe6679eb	-0.22507446
49	0x3e3b8641	0.18312933
50	0x3e64f77e	0.22360036
51	0xbe164d2c	-0.14677876
52	0x3e5bca97	0.21464
53	0xbc7c645c	-0.015404787
54	0xbddf120b	-0.10892113
55	0xbe738c43	-0.23783974
56	0xbd929dbe	-0.07158993
57	0xbe0c9e22	-0.13732198
58	0x3c81aebe	0.015830394
59	0xbe68afb0	-0.2272327
60	0xbe461ec3	-0.19347672
61	0xbe9f1954	-0.3107401
62	0xbdee0455	-0.1162192
63	0xbdd80ce2	-0.10549332
64	0xbea13e86	-0.31493014
65	0x3e47dcaa	0.1951777
66	0xbe1aa147	-0.15100585
67	0xbe04c845	-0.12967022
68	0x3e1608de	0.1465182
69	0xbe097e07	-0.13426982
70	0xbe21a26c	-0.15784615
71	0xbe375d4b	-0.17906682
72	0xbdd2db9f	-0.10295796
73	0xbd4f6798	-0.050635904
74	0x3d07e5e0	0.03317821
75	0xbe921c47	-0.285372
76	0xbed730a9	-0.42029312
77	0xbcd9345b	-0.026514223
78	0xbe5cc036	-0.21557698
79	0xbe886f1c	-0.2664727
80	0x3d4bd79d	0.04976617
81	0x3998c2cd	0.00029136837
82	0xbd507999	-0.050897215
83	0xbec8bc12	-0.39205986
84	0xbe0afa85	-0.13572128
85	0x3e0fbe26	0.1403738
86	0xbdde13b8	-0.10843605
87	0xbe5ba005	-0.21447761
88	0xbd921e86	-0.07134728
89	0xbe87d856	-0.2653224
90	0xbeac0009	-0.33593777
91	0xbe840d9e	-0.2579164
92	0xbeb4ba91	-0.3529859
93	0x3d7f12cb	0.06227378
94	0x3d3b064e	0.04566031
95	0xbd583dfc	-0.052793488
96	0xbf0ff924	-0.56239533
97	0xbd00922d	-0.031389404
98	0xbe15702d	-0.14593573
99	0xbda3212d	-0.07965312
100	0xbe7c68cc	-0.24649352
101	0xbbe13ad4	-0.006873468
102	0xbe3085ad	-0.17238493
103	0xbd4d2bf5	-0.05009075
104	0xbd8a270a	-0.06745727
105	0xbd5eb129	-0.05436817
106	0xbd89fc38	-0.0673756
107	0x3d0308b4	0.03199072
108	0xbe988fee	-0.2979731
109	0xbdc9da49	-0.09856088
110	0xbeb21d27	-0.34787866
111	0xbd58a0ef	-0.052887853
112	0xbdb3a915	-0.08772484
113	0xbd9a5d00	-0.075372696
114	0x3c55404d	0.013015819
115	0xbe3a2d44	-0.1818133
116	0xbd0fb1ab	-0.035081547
117	0xbea7849e	-0.32718366
118	0xbe332ad2	-0.17496803
119	0xbd6c8d2b	-0.057751816
120	0xbc831abc	-0.016003959
121	0x3d510a55	0.051035244
122	0xbdd830db	-0.105561934
123	0x3b04a640	0.0020240694
124	0x3e724e55	0.23662694
125	0xbd881ad9	-0.06645746
126	0x3e336728	0.1751982
127	0xbd8c82b7	-0.068608694

model.model.6.weight f4 [128, 128]
0	0xbe7fb6c6	-0.24972066
1	0x3cce2218	0.025162742
2	0xbd40ade6	-0.047040842
3	0xbe66c42a	-0.22535768
4	0xbc95d88f	-0.01829174
5	0xbdb03bb6	-0.08605139
6	0x3dc850f7	0.09781068
7	0xbe1d17a3	-0.15341048
8	0xbcf858ea	-0.030315835
9	0xbcee913d	-0.02912199
10	0xbd9d2521	-0.076730974
11	0xbdff8a0a	-0.12477501
12	0xbcc94fd5	-0.0245742
13	0x3db1de6c	0.08685002
14	0x3dabcbc6	0.08388476
15	0x3d7a611b	0.061127763
16	0xbd9d3224	-0.07675579
17	0x3d59a02c	0.053131267
18	0x3e3c4d5c	0.18388885
19	0xbd0f38be	-0.034966223
20	0xbd244e28	-0.040113598
21	0xbe1ada38	-0.15122306
22	0xbd3173bc	-0.043323264
23	0x3da3e8a9	0.08003361
24	0xbc889b0c	-0.016675495
25	0x3da55125	0.08072118
26	0xbe6cd3ef	-0.23127721
27	0x3d87e742	0.06635906
28	0xbd3d4432	-0.046207614
29	0xbcb8e036	-0.02256785
30	0x3cbbc2c3	0.022920018
31	0x3d865dd3	0.06560864
32	0xbdc22970	-0.0948056
33	0xbe05a2bf	-0.13050364
34	0xbd960204	-0.07324603
35	0x3d40323a	0.0469229
36	0x3d450457	0.048099842
37	0xbd4643de	-0.048404567
38	0x3b771076	0.003769902
39	0xbd50b186	-0.05095055
40	0xbd91a423	-0.07111385
41	0xbe07777a	-0.1322917
42	0xbdc6613c	-0.09686515
43	0x3d50dfe5	0.050994772
44	0xbd8f0534	-0.06983414
45	0xbe23d9df	-0.1600108
46	0xbd696ab6	-0.056986533
47	0xbd8a6cb5	-0.067590155
48	0xbe21514b	-0.15753667
49	0xbdf81ba3	-0.12114646
50	0xbe11e914	-0.14249068
51	0xbd6831bd	-0.05668806
52	0xbdd64cb0	-0.10463846
53	0xbd86944a	-0.06571253
54	0xbd69b300	-0.057055473
55	0xbe1de799	-0.15420379
56	0x3b362460	0.0027792677
57	0xbda41dda	-0.08013506
58	0xbea153df	-0.315093
59	0xbdd0938f	-0.101843946
60	0xbe8fa622	-0.28056437
61	0xbe2f3104	-0.17108542
62	0x3d443b98	0.047908396
63	0xbe2d8fb8	-0.16949356
64	0xbe32c258	-0.17456949
65	0x3d315e7f	0.04330301
66	0xbdc541be	-0.0963168
67	0xbdd44d6e	-0.10366331
68	0x3c88bfa1	0.016692938
69	0x3d062fdf	0.032760497
70	0xbd20bea6	-0.039244317
71	0x3d20992e	0.039208584
72	0xbde1373f	-0.109968655
73	0x3d059c65	0.032619853
74	0xbcdf534f	-0.027261404
75	0x3ce23055	0.027610937
76	0xbce497cd	-0.027904416
77	0xbd86fae2	-0.06590821
78	0xbc17f223	-0.0092740385
79	0x3dae4dc7	0.085109286
80	0x3bc5204c	0.006015813
81	0xbd7f52d4	-0.06233485
82	0xbd7cd03f	-0.061722036
83	0x3d80fc52	0.06298126
84	0x3c626390	0.013817683
85	0xbd511b12	-0.051051207
86	0x3dc84b04	0.09779933
87	0x3dd8300f	0.105560414
88	0x3d91476a	0.07093699
89	0xbe8caff5	-0.27477995
90	0xba755706	-0.0009358976
91	0x3d1a5a62	0.037683852
92	0xbd51d39d	-0.0512272
93	0x3d861840	0.06547594
94	0xbe03df97	-0.12878262
95	0x3d0c7d31	0.03429908
96	0xbd20d5cb	-0.03926639
97	0xbd677490	-0.056507647
98	0x3db801fe	0.08984755
99	0xbd290090	-0.041260302
100	0xbdbf0005	-0.093261756
101	0xbd211650	-0.03932792
102	0x3db28883	0.08717444
103	0xbdbe74e0	-0.09299636
104	0x3d858d80	0.065211296
105	0xbcffd4ea	-0.031229455
106	0x3d3f3c5e	0.04668843
107	0xbd3a9947	-0.045556333
108	0xbde7edc1	-0.11324645
109	0xbd9f8416	-0.07788865
110	0x3d709222	0.058733113
111	0x3c90ed26	0.017691206
112	0xbc25e306	-0.010124927
113	0xbcd6332f	-0.026147453
114	0xbbfb929d	-0.00767739
115	0xbd8b4553	-0.06800332
116	0xbcb43762	-0.021999065
117	0x3d8ab79c	0.06773302
118	0xbda37423	-0.07981136
119	0x3d4ee389	0.050509963
120	0xbd201d0c	-0.0390902
121	0x3e4773be	0.19477746
122	0xbe73323f	-0.23749636
123	0xbdb033d5	-0.08603636
124	0xbde9b9f3	-0.1141242
125	0x3d35c27a	0.04437492
126	0x3d26bbda	0.040706493
127	0x3d59fb96	0.053218447
128	0xbe9c51a4	-0.30531037
129	0xbd8ef42c	-0.06980166
130	0xbe32ef97	-0.17474209
131	0xbc889a61	-0.016675176
132	0x3e2c5d8a	0.16832557
133	0x3cedeb3c	0.029042833
134	0xbdf44b3b	-0.119284116
135	0x3d870365	0.06592444
136	0x3e2a4614	0.16628295
137	0x3d9b771e	0.07591079
138	0xbc18d228	-0.009327449
139	0xbe526b43	-0.2054873
140	0x3ce2c267	0.027680589
141	0xbde6508f	-0.11245834
142	0x3cf4a5ac	0.029864155
143	0x3c6aed62	0.014338823
144	0x3c5609f0	0.013063893
145	0xbb5ed0d0	-0.0033998974
146	0x3cd7f782	0.026363138
147	0xbdadfe31	-0.08495749
148	0xbe4db847	-0.20089827
149	0xbe15d399	-0.146315
150	0xbd5ae6d7	-0.053442802
151	0xbd8deee8	-0.069303334
152	0x3cfe2bab	0.031026682
153	0xbda0a5f3	-0.07844152
154	0xbe773a1d	-0.24143262
155	0xbd19f4e5	-0.037587065
156	0xbd839b73	-0.06426134
157	0xbc688d90	-0.014193907
158	0x3d222a70	0.039591253
159	0xbcbecc80	-0.023290873
160	0xbd2afd91	-0.041745726
161	0x3c9f34cd	0.019434357
162	0xbb02d7b5	-0.0019964997
163	0xbd80cb69	-0.062887974
164	0xbd044361	-0.03229082
165	0xbbb90550	-0.0056463853
166	0xbe211f86	-0.15734681
167	0x3ebaa2eb	0.36452422
168	0x3d085459	0.033283565
169	0xbd8ac2c8	-0.06775433
170	0x3c9ed243	0.01938737
171	0x3d891abe	0.06694554
172	0xbd13d9f6	-0.036096536
173	0xbd9cde4f	-0.076595895
174	0xbdaa73f8	-0.083229005
175	0xbda5837b	-0.080817185
176	0xbd5235c0	-0.05132079
177	0xbe79d639	-0.24398126
178	0xbe52bb6d	-0.2057931
179	0xbd0f88c2	-0.03504253
180	0xbdc80e03	-0.097682975
181	0xbc38ade0	-0.011271924
182	0x3c673420	0.014111549
183	0xbd846340	-0.06464243
184	0xbc049670	-0.008092508
185	0xbe0352cb	-0.12824552
186	0xbe6d4171	-0.23169495
187	0x3bf90136	0.0075990213
188	0x3d22b2f3	0.03972144
189	0x3c825e6d	0.015914166
190	0xbdb11583	-0.08646681
191	0x3e0601bc	0.13086599
192	0x3d826a07	0.06367879
193	0xbd7594a4	-0.059956208
194	0xbdc566a9	-0.096387215
195	0xbec62545	-0.3870031
196	0xbc47a440	-0.012185156
197	0x3d9c9b62	0.076468244
198	0x3d4387a6	0.047736786
199	0xbc00fc12	-0.007872598
200	0xbe53e40d	-0.20692463
201	0xbd3e8991	-0.046517912
202	0xbdc921a7	-0.09820872
203	0xbd590554	-0.052983597
204	0xbdbfca1b	-0.093647204
205	0xbd9b584f	-0.07585203
206	0x3d1203a3	0.035648
207	0x3db9c0c0	0.09069967
208	0xbd2d0835	-0.042244155
209	0xbdaf8eec	-0.08572182
210	0xbd8f9bf5	-0.07012168
211	0xbcfe786a	-0.031063277
212	0x3d01bf8a	0.031676807
213	0x3dacb528	0.0843299
214	0xbd843eb2	-0.06457271
215	0xbdbaffb7	-0.09130805
216	0x3d1d53f6	0.03841015
217	0x3dc65be2	0.09685494
218	0x3e2610d1	0.16217352
219	0x3d8e2c2b	0.06942018
220	0x3d16c480	0.03680849
221	0x3d302360	0.043002486
222	0xbe8e9e6a	-0.27855235
223	0x3dc03094	0.093842655
224	0x3e2b5a99	0.16733779
225	0xbd709e2e	-0.058744602
226	0x3d820023	0.06347682
227	0xbdb4e95f	-0.088335745
228	0xbdcd777f	-0.10032558
229	0x3cf1e608	0.029528633
230	0xbe99a7b9	-0.30010775
231	0xbdb8a4b0	-0.09015787
232	0x3d675cde	0.05648505
233	0xbe2b8a3b	-0.1675195
234	0xbdffd2b0	-0.12491357
235	0xbe9de6eb	-0.3084024
236	0xbbf7c912	-0.0075618112
237	0x3b9b95f3	0.0047481
238	0x3e204743	0.15652184
239	0xbce1918a	-0.027535219
240	0xbcbdd7b3	-0.023174142
241	0x3d2d014e	0.042237572
242	0xbe285bad	-0.16441222
243	0xbd4d737a	-0.050158955
244	0x3c6dbad1	0.0145098725
245	0x3dbf0e30	0.09328878
246	0xbd3f1e0e	-0.04665952
247	0x3b9fdbe4	0.004878508
248	0x3cad1d48	0.021132126
249	0xbe503604	-0.20333105
250	0xbe2238a8	-0.15841925
251	0x3da517de	0.08061193
252	0xbd862f60	-0.06552005
253	0x3bd3fe10	0.0064694956
254	0xbde755ca	-0.1129566
255	0xbd47a51d	-0.04874145

model.model.6.bias f4 [128]
0	0xbd8b83b1	-0.068122275
1	0xbe3d9cd6	-0.1851686
2	0xbd0a1b0c	-0.0337172
3	0x3e1dab68	0.15397418
4	0x3eaa8c72	0.33310276
5	0xbdb274d0	-0.087136865
6	0x3e64dc50	0.22349668
7	0x3e9d7db8	0.30759978
8	0x3e0e804e	0.13916132
9	0xbde68baf	-0.11257111
10	0x3d0778b9	0.033074114
11	0xbe6b3939	-0.22971047
12	0xbe1013fe	-0.14070126
13	0x3e8d4fcf	0.27599952
14	0x3d6f56e4	0.058432475
15	0x3ea5e28c	0.32399404
16	0x3e840d10	0.25791216
17	0x3daeee27	0.08541518
18	0xbe01ce9e	-0.12676474
19	0x3e68c2a5	0.22730501
20	0x3e92499e	0.2857179
21	0xbe126306	-0.14295587
22	0x3eae0eba	0.3399561
23	0xbdd66f0c	-0.10470399
24	0xbd2ce1cf	-0.042207535
25	0xbe865ab5	-0.2624108
26	0xbdd7ba41	-0.10533572
27	0x3ead9c7b	0.33908448
28	0x3ee86239	0.45387438
29	0x3f137a91	0.57608896
30	0xbda4dc8c	-0.080498785
31	0x3cc522b2	0.024064396
32	0xbd71f986	-0.059075855
33	0xbdb7ba8d	-0.089711286
34	0x3d667772	0.056266256
35	0xbb681ef4	-0.003541884
36	0xbd99cd2e	-0.07509838
37	0x3e9b4c2e	0.30331558
38	0x3eae3a14	0.34028685
39	0x3eeb5eb9	0.45970705
40	0xbe0bc825	-0.13650568
41	0x3ebea0cf	0.37232062
42	0x3c97a87c	0.018512957
43	0x3e2b1099	0.1670555
44	0x3d14ad1c	0.036297902
45	0xbdbe032c	-0.09277949
46	0xbc878e73	-0.016547417
47	0xbb1654fc	-0.0022938838
48	0x3f1b5bf2	0.6068717
49	0x3e403f38	0.18774116
50	0x3f07b3d0	0.5300875
51	0x3e9b6f2f	0.30358264
52	0x3d541536	0.05177804
53	0x3d786370	0.060641706
54	0xbd18cf0b	-0.037306827
55	0x3efed67d	0.49773017
56	0x3d92450c	0.07142076
57	0xbd4974cf	-0.049183663
58	0xbe4daf94	-0.20086509
59	0x3e3e50a1	0.18585445
60	0xbd0f0c68	-0.03492394
61	0xbdd9e3c2	-0.106391445
62	0x3e996201	0.29957584
63	0x3af3b759	0.001859407
64	0x3f0cf2a0	0.55057716
65	0x3eafc424	0.3432933
66	0x3d808fa0	0.06277394
67	0x3d26e2a0	0.04074347
68	0xbda29528	-0.079386055
69	0xbe7a5eab	-0.24450175
70	0x3e4a637c	0.19764513
71	0xbc79a1fe	-0.015236376
72	0xbe26673d	-0.1625032
73	0xbdfc7556	-0.123270676
74	0xbe1ef5eb	-0.15523498
75	0x3eca9247	0.39564726
76	0xbd0b6988	-0.03403619
77	0xbdcbbfae	-0.099486694
78	0xbdfca4af	-0.123360984
79	0x3ea9fe63	0.33201894
80	0x3d54d23d	0.05195831
81	0xbd9418b4	-0.07231274
82	0x3e5a54ae	0.21321365
83	0xbe53666e	-0.20644543
84	0xbd8e7d70	-0.06957519
85	0xbdafb6fe	-0.08579825
86	0xbe30ab47	-0.17252837
87	0xbd96ec54	-0.07369295
88	0xbda1b56a	-0.0789593
89	0x3f0bd2ba	0.5461842
90	0x3f3edc62	0.7455503
91	0x3dd7c1ba	0.10534997
92	0x3ec8f75e	0.39251226
93	0x3f08ef6b	0.5349032
94	0x3f13a46c	0.5767276
95	0xbe37703b	-0.17913906
96	0x3e2c7b13	0.16843824
97	0xbe8702a6	-0.26369208
98	0x3ec14f0a	0.37755615
99	0x3e96833e	0.29397005
100	0x3e2e24b8	0.17006195
101	0x3e12669d	0.14296956
102	0x3d8f6a06	0.07002644
103	0x3e5d4dac	0.2161166
104	0x3cd90912	0.026493583
105	0xbe3093ee	-0.1724393
106	0xbd63eab4	-0.055643752
107	0xbc3715f6	-0.0111746695
108	0xbe3734d0	-0.1789124
109	0x3e396fa3	0.18108992
110	0xbdca01f9	-0.098636575
111	0x3eaf36cb	0.3422149
112	0x3ea3649f	0.31912705
113	0x3d4f2741	0.050574545
114	0xbc2a0bd9	-0.010378801
115	0xbd7d6a14	-0.061868742
116	0x3e6ac729	0.22927536
117	0x3ed2ae3e	0.4114856
118	0xbcb27b20	-0.021787226
119	0xbddde00a	-0.10833748
120	0xbddc6194	-0.10760799
121	0xbd00948a	-0.031391658
122	0x3ecc7b91	0.39938024
123	0x3df3ed3d	0.11910484
124	0xbc61a3c9	-0.01377196
125	0x3e2165da	0.1576151
126	0x3e987c82	0.29782492
127	0x3da52995	0.08064572

model.model.8.weight f4 [7, 128]
0	0x3e1e6ea5	0.15471895
1	0x3e7c3c63	0.2463241
2	0x3ee3f5d5	0.44523492
3	0x3df5ee4c	0.12008342
4	0x3e00c877	0.12576471
5	0xbc705331	-0.014668272
6	0x3e35cbcf	0.17753528
7	0x3dc62a28	0.096760094
8	0xbe58d76d	-0.21175928
9	0x3dd6df2e	0.10491787
10	0x3e9d13c0	0.3067913
11	0xbd0850a2	-0.033280022
12	0xbc0df1a9	-0.008663573
13	0x3f12071e	0.5704211
14	0xbd12af32	-0.03581161
15	0x3e8be5cf	0.27323768
16	0x3ef371f7	0.47547886
17	0x3e898bb9	0.26864412
18	0x3d7b939a	0.06142006
19	0xbe0bd8b7	-0.13656889
20	0x3ea27910	0.31732988
21	0x3ce9caa4	0.02853901
22	0x3f0e6e1a	0.5563675
23	0x3c6ba801	0.014383317
24	0xbd6bd7d2	-0.05757887
25	0x3dd0320b	0.10165795
26	0x3baac669	0.0052116406
27	0x3f38d14f	0.7219438
28	0xbf0f69f4	-0.56021047
29	0x3db4eb0c	0.08833894
30	0x3eabdf23	0.33568677
31	0x3e5403cc	0.20704573
32	0x3bedc648	0.007256303
33	0x3e3a34b5	0.18184169
34	0x3e806700	0.25078583
35	0x3e005e4b	0.1253597
36	0xbd202b0a	-0.039103545
37	0x3e81c941	0.25348857
38	0xbe4d1ebb	-0.20031254
39	0x3dd25217	0.10269564
40	0x3da7aeff	0.08187675
41	0x3dd9e564	0.10639456
42	0x3cb8f267	0.022576524
43	0x3e2f053c	0.1709184
44	0x3e0f4b87	0.13993655
45	0x3b2bf3d1	0.0026237855
46	0x3cc3044c	0.02380576
47	0xbd2091b3	-0.03920145
48	0x3dea657b	0.11445137
49	0x3e8f2c79	0.27963617
50	0xbec49127	-0.38391992
51	0x3e9b9574	0.3038746
52	0x3de6fe28	0.11278945
53	0xbeb7c024	-0.3588878
54	0x3ec132b5	0.37734
55	0x3eeda61d	0.46415797
56	0x3e41c153	0.18921404
57	0xbdb325ff	-0.087474816
58	0x3e4c9d22	0.19981816
59	0x3eaa1fbb	0.33227333
60	0x3e000a5e	0.12503955
61	0xbd598a89	-0.053110633
62	0x3e9d1ee7	0.3068764
63	0x3c63fceb	0.013915281
64	0x3e9e3bf2	0.3090511
65	0xbd04323f	-0.03227448
66	0x3d86b867	0.06578141
67	0x3e875308	0.26430535
68	0x3e1e68f8	0.1546973
69	0xbccc1e64	-0.024916835
70	0x3eab1bb8	0.33419585
71	0x3d01dc60	0.031704307
72	0xbc19a2a3	-0.0093771545
73	0xbd2a05a1	-0.041509274
74	0x3bef00c6	0.0072937934
75	0x3d559345	0.0521424
76	0xbc416628	-0.011804141
77	0x3dc6b65e	0.097027525
78	0xbdb45f3e	-0.088072285
79	0x3e1b8923	0.15189032
80	0x3d89881b	0.06715413
81	0x3ea7f9d3	0.32807788
82	0x3e49200f	0.19641136
83	0x3bba9f4d	0.0056952597
84	0x3d1a8b0b	0.037730258
85	0x3bf2cc83	0.0074096336
86	0x3e273331	0.16328122
87	0xbd574e4c	-0.052564904
88	0x3e045af6	0.12925324
89	0x3e134364	0.14381176
90	0x3ec5ba69	0.38618782
91	0x3e4939e9	0.19650997
92	0xbd262070	-0.04055828
93	0x3e1e4c1c	0.15458721
94	0xbdb47457	-0.088112526
95	0x3e2ff2da	0.17182484
96	0x3e82f196	0.2557494
97	0x3da35d71	0.07976807
98	0x3e087381	0.13325311
99	0x3e1714c3	0.14754014
100	0x3e04eef7	0.12981783
101	0xbf2fdcf6	-0.68696535
102	0x3e32f2f6	0.17475495
103	0x3ea9196c	0.33027208
104	0x3d3c7faa	0.046020187
105	0x3cc1076c	0.02356311
106	0xbb40c914	-0.0029416727
107	0xbd6c4455	-0.057682354
108	0x3dba760f	0.09104549
109	0x3e8e2024	0.27758896
110	0xbe7b36f7	-0.24532686
111	0x3f139f66	0.576651
112	0xbe438938	-0.19095314
113	0xbde59b92	-0.11211313
114	0xbc81c563	-0.015841192
115	0x3c72ecf1	0.014826999
116	0x3f4156a8	0.7552285
117	0x3e692775	0.22768958
118	0x3e7bb5a4	0.24581009
119	0x3e954482	0.2915383
120	0x3c28f347	0.010311908
121	0x3d3f9a88	0.04677823
122	0x3e6e6cd4	0.23283702
123	0x3e5fcd66	0.21855697
124	0xbe85115d	-0.2598981
125	0x3c9716be	0.018443462
126	0x3d740235	0.059572417
127	0xbdd55e28	-0.104183495
128	0x3d8fca20	0.07020974
129	0x3ed6393b	0.41840538
130	0x3e8fad59	0.2806194
131	0x3d85141b	0.064979754
132	0x3ee6c893	0.450749
133	0x3d8cf8ef	0.06883418
134	0xbcf308fc	-0.02966737
135	0x3e459387	0.19294558
136	0x3da012b1	0.07816065
137	0x3e11e57c	0.14247698
138	0x3ecc7864	0.399356
139	0xbd729386	-0.05922272
140	0xbe02774c	-0.1274082
141	0x3ec1211c	0.37720573
142	0xbc9df2fd	-0.019280905
143	0x3ebb438c	0.36574972
144	0x3e99f0f2	0.3006664
145	0x3e3e00fc	0.18555063
146	0xbdde9586	-0.10868363
147	0xbe40abf2	-0.18815592
148	0xbe98e800	-0.29864502
149	0x3dbbeef6	0.091764376
150	0x3f5fc483	0.8740923
151	0x3d778511	0.060429636
152	0xbcec4cbf	-0.02884519
153	0x3e3475ed	0.1762311
154	0xbd929765	-0.071577825
155	0x3e368824	0.17825371
156	0x3e67031c	0.2255978
157	0x3ecfa31a	0.40554124
158	0x3d329060	0.043594718
159	0x3e82a9a6	0.25520056
160	0x3d4d90bb	0.050186854
161	0x3e6377c6	0.22213659
162	0x3dda81df	0.10669302
163	0x3e4d6b26	0.20060405
164	0xbc8802b7	-0.016602857
165	0x3ed5658d	0.4167904
166	0x3e63366c	0.22188729
167	0x3ef80357	0.48440048
168	0x3d039da1	0.03213275
169	0x3ee927b9	0.45538118
170	0xbdfc4dd0	-0.12319529
171	0x3eaec181	0.34132007
172	0xbd8cb2ec	-0.06870064
173	0x3c8fef19	0.017570065
174	0x3da0bfb4	0.078490645
175	0x3d82dc08	0.06389624
176	0x3eb3d3d4	0.3512255
177	0x3cee024c	0.02905383
178	0xbe57063e	-0.20998475
179	0x3f187db2	0.59566796
180	0x3dd63224	0.10458782
181	0x3ea3f169	0.3202012
182	0x3eb76a36	0.3582322
183	0x3ed89dd8	0.42307925
184	0x3ea1ef4d	0.31627885
185	0xbdf1a556	-0.117991135
186	0x3d61e857	0.055153217
187	0x3ea17aaa	0.31538898
188	0xbb51d2b6	-0.0032016463
189	0x3d6754da	0.056477405
190	0x3e829b53	0.25509128
191	0xbd9424cd	-0.07233582
192	0x3ed79e12	0.42112786
193	0x3e55f674	0.20894796
194	0x3ea731e8	0.32655263
195	0x3c506980	0.012720466
196	0x3d278cab	0.040905636
197	0xbc1b27b0	-0.009469911
198	0x3ea9dc2d	0.33175793
199	0x3d4b0b93	0.049571585
200	0xbd900834	-0.070328146
201	0x3d3d05f6	0.046148263
202	0xbcf46d45	-0.02983726
203	0x3efbefb0	0.49206305
204	0x3c84c5b3	0.016207552
205	0x3e341703	0.17586903
206	0xbcd16c81	-0.025564434
207	0x3e8faec4	0.28063023
208	0xbe1dee1b	-0.15422861
209	0x3e3b936b	0.18317954
210	0x3eb8fd08	0.36130548
211	0xbd21746f	-0.03941768
212	0xbe0031e1	-0.12519027
213	0x3cae29f0	0.021260232
214	0x3da24692	0.079236165
215	0x3d835c79	0.06414122
216	0x3db112b0	0.086461425
217	0x3f184157	0.594747
218	0x3f32d72e	0.6985959
219	0xbe70f89b	-0.23532335
220	0x3e32c23c	0.17456907
221	0x3eebc3ce	0.46047825
222	0xbd93a719	-0.07209606
223	0x3cb9d899	0.02268629
224	0x3e929064	0.28625786
225	0x3e20fc51	0.15721251
226	0x3ea71ce6	0.32639235
227	0xbc7d7f59	-0.015472257
228	0x3d401f67	0.046904948
229	0xbe3b4068	-0.18286288
230	0xbe803c2b	-0.25045905
231	0x3e93633d	0.2878665
232	0xbd4f4df5	-0.050611455
233	0x3cacd7bf	0.02109897
234	0x3dc213b9	0.09476418
235	0xbc9a8c8f	-0.018865852
236	0x3d7a19fa	0.06105993
237	0x3eabb599	0.33536986
238	0x3f17c4a8	0.5928445
239	0x3f188353	0.59575385
240	0xbebd26d9	-0.369437
241	0xbf1bc745	-0.60850936
242	0xbdcc5408	-0.09976965
243	0x3d3d0954	0.046151474
244	0x3effce49	0.4996207
245	0x3efe9324	0.49721634
246	0x3e130684	0.14357954
247	0x3e85dade	0.26143545
248	0x3e08a97e	0.13345906
249	0xbc18c65a	-0.009324634
250	0x3f09676a	0.5367342
251	0x3e303a37	0.17209707
252	0xbc9f6a65	-0.019459913
253	0x3cb9dc2a	0.02268799
254	0x3cdeed2a	0.027212698
255	0x3d4eda3a	0.050501086

model.model.8.bias f4 [7]
0	0x3ef0923f	0.46986577
1	0x3f3b3c02	0.7313844
2	0x3efb397e	0.490673
3	0x3b68d9c3	0.0035530187
4	0xbe178dd5	-0.14800198
5	0x3ed47c79	0.41501215
6	0x3f657ab4	0.89640355

model_old.model.0.weight f4 [32, 1, 4, 4]
0	0xbf205c09	-0.62640435
1	0xbe2638ef	-0.16232656
2	0x3e9e8975	0.30964246
3	0x3d165591	0.036702696
4	0xbeff3382	-0.49843985
5	0x3e19aad2	0.15006569
6	0xbf0a7641	-0.5408669
7	0xbf137c80	-0.57611847
8	0xbe5e4336	-0.21705326
9	0xbe127ccf	-0.14305423
10	0xbe6721b6	-0.22571453
11	0xbd53f758	-0.051749557
12	0xbe417810	-0.18893456
13	0x3e19302e	0.14959785
14	0xbe2e93ca	-0.17048565
15	0xbebac9e2	-0.3648215
16	0x3e9a74c6	0.30167216
17	0x3d4f5132	0.050614543
18	0xbf0a542c	-0.54034686
19	0xbe8e379e	-0.27776808
20	0x3eb70535	0.3574616
21	0x3f1d9ca7	0.6156716
22	0xbf12543a	-0.5715977
23	0xbeeb65ac	-0.45976007
24	0xbeaea7d0	-0.34112406
25	0x3f355869	0.7083803
26	0xbf246b57	-0.6422629
27	0x3c50f9d7	0.012754879
28	0xbf4f0aac	-0.8087566
29	0xbf084c0d	-0.53241044
30	0xbcd69cf0	-0.02619788
31	0xbe3ab5ba	-0.18233386
32	0x3ebe3a3a	0.37153798
33	0xbdf67fdb	-0.12036105
34	0xbe0276ae	-0.12740585
35	0x3eabf8c3	0.33588228
36	0x3e10f576	0.14156136
37	0x3e84a5aa	0.25907642
38	0x3e028ba6	0.12748584
39	0xbf3db8d1	-0.7411013
40	0xbecb1630	-0.39665365
41	0x3e804c70	0.25058317
42	0x3e01ba15	0.12668641
43	0x3dd55ad3	0.10417714
44	0xbf0b3d6a	-0.54390585
45	0x3d4d61fb	0.05014227
46	0xbe935d9e	-0.28782362
47	0xbeb56d41	-0.35434917
48	0xbd9eb4ef	-0.07749354
49	0xbeb6dc05	-0.35714737
50	0xbe0e1539	-0.13875283
51	0xbe35a50f	-0.17738746
52	0xbd9f8d3d	-0.07790611
53	0x3ccfcaaa	0.025365192
54	0x3e6ab70a	0.22921386
55	0x3ec0a8f7	0.3762891
56	0x3ed87209	0.42274502
57	0xbe12b3ac	-0.14326352
58	0x3ed5224a	0.41627723
59	0x3f082e16	0.5319532
60	0xbf68244a	-0.9068037
61	0xbe8cc424	-0.27493393
62	0xbef140fe	-0.47119898
63	0x3f053930	0.52040386
64	0xbd1b23d3	-0.03787596
65	0xbea5a09d	-0.323491
66	0xbebff46c	-0.37491167
67	0xbedea099	-0.434819
68	0x3e498d59	0.19682826
69	0x3d6ce05d	0.057831157
70	0xbe9951eb	-0.2994531
71	0x3ed8dbf0	0.423553
72	0x3ef8df76	0.48607987
73	0xbe977455	-0.29580942
74	0xbf80a01c	-1.0048862
75	0xbe052626	-0.13002834
76	0xbf19de9b	-0.60105294
77	0xbf44787b	-0.7674634
78	0xbeb4f5f0	-0.35343885
79	0xbe942765	-0.28936306
80	0x3ebc4fe5	0.36779705
81	0xbd72c93c	-0.059273943
82	0xbf12e508	-0.57380724
83	0xbe0cebfa	-0.13761893
84	0x3e3fce33	0.18731003
85	0x3c6d2b32	0.014475631
86	0xbf2e8d04	-0.6818392
87	0xbe75e5c1	-0.24013425
88	0x3eb14090	0.3461957
89	0xbdcd6434	-0.10028878
90	0xbd73eb7d	-0.05955075
91	0x3ea2a063	0.3176299
92	0xbf81569b	-1.0104555
93	0xbf532559	-0.82478863
94	0x3dd88549	0.10572297
95	0x3f3caec3	0.73704165
96	0x3c7763f7	0.015099517
97	0x3dc20862	0.09474255
98	0xbe0d9578	-0.13826549
99	0xbd0b3ec6	-0.033995412
100	0x3e32ea92	0.17472294
101	0xbe87e7a8	-0.26543927
102	0x3d1c41aa	0.03814856
103	0xbf329a70	-0.697669
104	0x3ea440a2	0.3208056
105	0xbf1b7c58	-0.6073661
106	0x3f1a3833	0.60242003
107	0xbfce6559	-1.6124679
108	0xbeb03b0a	-0.34420043
109	0xbe6ea26d	-0.23304148
110	0x3e68b68d	0.22725888
111	0xbe73def4	-0.23815519
112	0x3e6d8357	0.23194633
113	0xbd9a682a	-0.07539399
114	0xbb3f9e76	-0.0029238737
115	0x3ebb805c	0.36621368
116	0xbd1ab620	-0.037771344
117	0xbdce6cbe	-0.10079335
118	0x3c8cb9bd	0.01717841
119	0x3f1c8e4d	0.61154634
120	0x3d3643d6	0.044498287
121	0xbe94af99	-0.2904022
122	0xbe0a4a52	-0.13504913
123	0x3f513073	0.8171455
124	0x3f227c5e	0.6347102
125	0xbe9070d7	-0.2821109
126	0xbdf88308	-0.12134367
127	0xbfa6ea68	-1.3040285
128	0x3eb840a9	0.35986832
129	0xbf29721b	-0.66189736
130	0xbe3522c1	-0.17689039
131	0x3ecee8ea	0.40412074
132	0xbf3a6d4f	-0.7282304
133	0xbe4a0edb	-0.1973223
134	0x3e98ae01	0.29820254
135	0xbf6f2337	-0.9341311
136	0xbf188d42	-0.5959054
137	0xbe526022	-0.20544484
138	0x3e90bbcc	0.28268278
139	0xbf81daa7	-1.0144852
140	0xbdf05d1e	-0.11736511
141	0xbec2b8cb	-0.3803161
142	0xbea83cdf	-0.3285894
143	0xbe93a8db	-0.28839764
144	0xbc9ebb8e	-0.019376542
145	0x3eacec6d	0.3377413
146	0x3e7d3cb7	0.24730192
147	0xbfa1a7bc	-1.2629313
148	0xbf833951	-1.0251867
149	0xbcc89a7e	-0.02448773
150	0xbec5cf8e	-0.38634914
151	0xbee3e276	-0.44508713
152	0xbef5d307	-0.48012564
153	0xbec6ce12	-0.38829094
154	0xbe9da47c	-0.30789554
155	0xbf0594e5	-0.5218032
156	0x3ea91be0	0.3302908
157	0x3ef46000	0.47729492
158	0xbe2a8229	-0.16651215
159	0x3e038738	0.1284455
160	0xbd6ddcfc	-0.058072075
161	0x3e16de99	0.14733352
162	0xbe7a3d67	-0.24437486
163	0xbdeb1fdc	-0.11480686
164	0x3c0f9d8e	0.008765591
165	0xbe86079a	-0.26177675
166	0x3c5b5e83	0.013389233
167	0xbe84abb9	-0.25912264
168	0x3af7b1ee	0.0018897632
169	0xbd10e379	-0.035373185
170	0xbd70e301	-0.058810238
171	0xbe899cef	-0.26877543
172	0xbe494e5b	-0.19658796
173	0xbec39395	-0.38198534
174	0x3df25234	0.11832085
175	0x3d8fe55f	0.07026171
176	0x3e0b5971	0.13608338
177	0xbf655fc6	-0.89599264
178	0xbda6f253	-0.081516884
179	0xbf1214dc	-0.5706308
180	0xbf3ed958	-0.7455039
181	0xbe8acdea	-0.27110225
182	0x3e32295f	0.17398594
183	0xbf046db4	-0.51729894
184	0xbec6cb9e	-0.38827223
185	0x3e094f02	0.13409045
186	0x3e5edf41	0.21764852
187	0xbeb6123a	-0.3556078
188	0xbe2a7ee6	-0.1664997
189	0xbe82a24d	-0.2551445
190	0xbf37506f	-0.71607107
191	0x3e990633	0.29887542
192	0xbb22f234	-0.0024863603
193	0xbeec8cb8	-0.4620111
194	0x3d553ecb	0.052061837
195	0xbc619e8e	-0.013770713
196	0xbe8e0957	-0.277415
197	0xbe2bfbda	-0.16795292
198	0xbeab44fe	-0.33451074
199	0x3d12acb9	0.035809252
200	0xbe28753e	-0.16450974
201	0xbe2c5264	-0.16828305
202	0x3d6a6b5e	0.0572313
203	0xbd33f9d2	-0.04393942
204	0xbe7b6c25	-0.24552973
205	0x3cf948bd	0.030430192
206	0xbe5172bf	-0.20453928
207	0xbef89d38	-0.48557448
208	0xbf2d4799	-0.67687374
209	0xbd6525cc	-0.05594425
210	0xbdd076bc	-0.10178897
211	0x3e815456	0.25259656
212	0xbf07d41f	-0.53058046
213	0x3e5b642c	0.21424931
214	0xbecc7b20	-0.39937687
215	0x3ef0e3b4	0.47048724
216	0xbe51e61a	-0.20497933
217	0x3c3c79dc	0.011503663
218	0xbe24d108	-0.16095364
219	0xbfa9a33e	-1.3252943
220	0xbd6cad40	-0.05778241
221	0xbf7d53c5	-0.9895595
222	0xbe9698d5	-0.29413477
223	0xbe901360	-0.28139782
224	0x3db414ce	0.08793031
225	0xbe284aaa	-0.16434732
226	0xbd9854f2	-0.07438077
227	0xbe667850	-0.22506833
228	0x3cc04003	0.023468023
229	0x3cc47529	0.023981648
230	0xbc8c9a82	-0.017163519
231	0xbf0ffca8	-0.562449
232	0xbf1b6351	-0.6069842
233	0xbd8b7813	-0.06810012
234	0xbe9e9d6a	-0.30979472
235	0xbea50fb0	-0.3223853
236	0x3dba678b	0.091017805
237	0x3c72e894	0.014825959
238	0x3d045b80	0.032313824
239	0xbe058c81	-0.13041879
240	0x3e1e03b1	0.15431096
241	0xbe5f13ad	-0.2178485
242	0xbf017f4d	-0.5058487
243	0xbee702f4	-0.4511944
244	0xbf88723e	-1.0659864
245	0x3ded1146	0.1157556
246	0xbf3c65e9	-0.73593
247	0x3f27010f	0.6523599
248	0xbe8c9334	-0.27456057
249	0xbe93e163	-0.28882894
250	0xbd82fe0c	-0.06396112
251	0xbd90c92c	-0.070696205
252	0xbeb35a3e	-0.35029787
253	0xbd8e821c	-0.0695841
254	0xbdc37be0	-0.09545112
255	0x3ebf0829	0.37310913

model_old.model.0.bias f4 [32]
0	0xbe92e09b	-0.28686985
1	0x3e083a5d	0.13303514
2	0xbf5e735d	-0.8689478
3	0xbe9ba4ef	-0.30399272
4	0xbde2868f	-0.11060821
5	0xbdf35f95	-0.11883465
6	0x3dbf56fe	0.09342764
7	0xbe9d16fd	-0.306816
8	0xbcb5480b	-0.02212908
9	0x3dd62dfd	0.1045799
10	0xbecfbf7d	-0.4057578
11	0x3d81db75	0.06340686
12	0xbe49bc5c	-0.1970076
13	0xbe8498c9	-0.25897816
14	0xbe715500	-0.23567581
15	0xbdee77ee	-0.116439685
16	0xbc704cdf	-0.014666765
17	0x3dc4c418	0.096077144
18	0xbeba8111	-0.36426595
19	0xbe17ead4	-0.14835674
20	0xbe4fb9a8	-0.20285666
21	0x3d38d5ff	0.045125958
22	0x3baee280	0.0053370595
23	0x3e89fb99	0.26949766
24	0xbdceaad8	-0.100911796
25	0x3d878739	0.066175885
26	0xbdf6c9be	-0.12050198
27	0x3d9dc55e	0.077036604
28	0xbe508081	-0.2036152
29	0xbe92c97b	-0.28669342
30	0xbe0644c4	-0.1311217
31	0xbecee418	-0.40408397

model_old.model.4.weight f4 [128, 384]
0	0xbcb29442	-0.02179921
1	0xbe9252a6	-0.2857868
2	0xbe657d44	-0.22411066
3	0xbe9bfabc	-0.30464733
4	0xbe3ce5c1	-0.18447019
5	0xbea46a91	-0.32112554
6	0x3e70a3c5	0.23499973
7	0xbe69d5fb	-0.22835533
8	0xbee2994b	-0.44257578
9	0xbebecbaf	-0.37264773
10	0x3e2f2d61	0.17107154
11	0xbde1446d	-0.10999379
12	0xbeeb13a1	-0.45913413
13	0xbf1304ef	-0.57429403
14	0xbda51934	-0.08061448
15	0x3d9fbae2	0.07799317
16	0xbaa35195	-0.0012460226
17	0xbf6a1cb4	-0.9145005
18	0xbea96f16	-0.33092564
19	0xbe8c59a3	-0.27412137
20	0x3d48045d	0.048832286
21	0xbea38065	-0.31933895
22	0xbde2e3b9	-0.11078591
23	0xbe5edbbe	-0.21763512
24	0xbe3ecf4b	-0.18633763
25	0xbe87209a	-0.2639206
26	0xbe5a5f14	-0.21325332
27	0x3a38c02c	0.0007047679
28	0x3e778935	0.24173434
29	0xbdf4cd2f	-0.11953198
30	0xbd837f96	-0.064208195
31	0xbd6fbcb3	-0.058529567
32	0x3e875e26	0.26439017
33	0x3d9087b0	0.0705713
34	0x3e72e5e4	0.23720509
35	0x3eb1b962	0.34711748
36	0xbe0ba28c	-0.13636225
37	0x3c61f3ea	0.013791064
38	0xbda40b2b	-0.080099426
39	0x3d0326ae	0.03201931
40	0xbefbf81b	-0.49212727
41	0xbe5b3946	-0.21408567
42	0x3e6dca5a	0.23221722
43	0x3e8c9783	0.27459344
44	0xbe236705	-0.15957268
45	0xbea0f85e	-0.3143949
46	0xbe251af4	-0.16123563
47	0xbda1294c	-0.07869205
48	0x3d9c0a0f	0.07619106
49	0xbe524e16	-0.205376
50	0x3d27576f	0.040854868
51	0x3eb4af4e	0.35289997
52	0x3e9fd3e3	0.31216344
53	0xbd54a4ac	-0.051914856
54	0x3f0a8a1d	0.54116994
55	0xbd055c76	-0.03255888
56	0xbe430c91	-0.19047762
57	0xbe5ab7ae	-0.2135913
58	0xbba91c4a	-0.005160843
59	0xbef1685e	-0.47149938
60	0xbeed9033	-0.46399078
61	0xbe328faa	-0.17437616
62	0xbe43aae4	-0.19108158
63	0xbd666797	-0.056251135
64	0xbf017422	-0.5056783
65	0x3dc421cd	0.095767595
66	0x3d92edae	0.0717424
67	0x3df737af	0.12071168
68	0xbe3d942c	-0.18513554
69	0x3db66634	0.089062124
70	0xbe562302	-0.20911792
71	0xbdf633e0	-0.12021613
72	0xbd2b9286	-0.041887783
73	0xbe39b312	-0.18134716
74	0xbe9c2e60	-0.3050413
75	0x3eb9c837	0.36285564
76	0x3d9b9a3e	0.07597779
77	0xbf3ec331	-0.7451659
78	0xbe87df99	-0.2653778
79	0x3e952af9	0.29134348
80	0xbec9f06f	-0.3944125
81	0xbeb9639e	-0.36208814
82	0x3cf2ee8c	0.029654764
83	0x3dc37477	0.09543698
84	0xbeaa9811	-0.33319142
85	0xbe1ce3bf	-0.15321253
86	0x3e6016d2	0.21883705
87	0x3d32fc7d	0.043697823
88	0xbf401b08	-0.75041246
89	0xbeba1521	-0.36344245
90	0x3e6efe04	0.23339087
91	0x3b230b06	0.0024878397
92	0xbf11aac9	-0.5690122
93	0xbe671dda	-0.22569981
94	0x3ed548b0	0.4165702
95	0xbe133d76	-0.14378914
96	0xbda0fee8	-0.078611195
97	0x3f1107bd	0.5665243
98	0xbe8dba9e	-0.2768144
99	0x3e5cbb51	0.2155583
100	0xbf14d038	-0.58130217
101	0xbddac96e	-0.10682951
102	0x3d62ee7f	0.05540323
103	0x3e972c8d	0.29526177
104	0xbe44d9fd	-0.19223781
105	0xbec92f69	-0.39293984
106	0x3c4c5b6a	0.012472967
107	0xbe545102	-0.20734027
108	0x3dd12b6a	0.10213359
109	0x3e554b5f	0.20829533
110	0xbd593bda	-0.053035595
111	0xbe069c1d	-0.1314549
112	0xbe1c8825	-0.1528631
113	0xbdc16032	-0.09442176
114	0xbdf439d7	-0.119250946
115	0xbd80e4be	-0.06293629
116	0xbf02d651	-0.5110827
117	0xbf31e059	-0.6948295
118	0xbd723aa1	-0.059137944
119	0x3f34b385	0.70586425
120	0xbf017e42	-0.5058328
121	0xbddf7d0d	-0.109125234
122	0xbe6844b8	-0.22682464
123	0x3e0bd327	0.13654767
124	0xbcbd4935	-0.023106197
125	0xbe20a7b3	-0.15688972
126	0xbda406d8	-0.08009118
127	0x3c9f4622	0.019442622
128	0xbe59dee6	-0.21276435
129	0xbe776adc	-0.24161857
130	0xbe3211aa	-0.17389551
131	0x3da93599	0.08262176
132	0xbf2680d0	-0.650403
133	0x3e51ba4f	0.20481227
134	0xbe8d83a1	-0.27639487
135	0xbbc055e7	-0.0058696154
136	0xbeebd98d	-0.46064416
137	0x3d1d304d	0.03837614
138	0xbebf403e	-0.373537
139	0xbe3d8185	-0.18506439
140	0xbf2bc403	-0.67095965
141	0xbf323d17	-0.69624466
142	0xbed1f3e5	-0.4100639
143	0xbce815b9	-0.02833067
144	0x3e8ba5ac	0.27274835
145	0xbdb84e29	-0.08999283
146	0x3e48cffd	0.19610591
147	0x3e1e9119	0.15485038
148	0x3e8a1b22	0.26973826
149	0x3d86823a	0.065678075
150	0x3e618353	0.22022752
151	0x3d829e12	0.06377806
152	0x3d6cdb17	0.057826128
153	0xbd5d2284	-0.053987995
154	0x3e8691d8	0.26283145
155	0x3e5b505a	0.2141737
156	0xbf375949	-0.71620613
157	0xbe35ce74	-0.17754537
158	0x3ddddf1f	0.108335726
159	0xbe554080	-0.20825386
160	0xbf049b51	-0.51799494
161	0xbc2bdda7	-0.010489858
162	0x3e28cd70	0.16484618
163	0x3ca114d1	0.019663246
164	0x3e807afa	0.25093824
165	0xbdd7120a	-0.105014876
166	0xbdb9b9e7	-0.09068661
167	0xbf20e3cb	-0.62847584
168	0xbdf132f6	-0.11777298
169	0xbe83c233	-0.257341
170	0xbe1d6263	-0.15369563
171	0xbe54367b	-0.20723908
172	0x3e2a2465	0.16615446
173	0xbeb2d1e9	-0.34925774
174	0xbdf361e9	-0.11883909
175	0xbd861bc7	-0.06548267
176	0x3e4882fc	0.19581217
177	0xbedfea92	-0.4373365
178	0xbe5a9b3a	-0.21348277
179	0xbe3138c6	-0.17306814
180	0x3e8e49ba	0.27790624
181	0xbe9c1d7a	-0.3049124
182	0xbecc96a4	-0.3995868
183	0xbdafc484	-0.08582404
184	0xbe9edd32	-0.31028134
185	0xbdd833ad	-0.105567314
186	0x3ed9bc49	0.42526463
187	0x3d196ba6	0.037456177
188	0xbe8fae68	-0.2806275
189	0xbf2e58c9	-0.68104225
190	0xbf02ada8	-0.5104623
191	0xbf4b7ae2	-0.7948438
192	0x3dbb4065	0.09143142
193	0x3ed5a979	0.4173086
194	0xbe07baa6	-0.13254794
195	0x3ebc192d	0.36737958
196	0x3f102645	0.56308395
197	0x3ea3f219	0.32020643
198	0x3c6e00e9	0.014526584
199	0xbd6b21dd	-0.05740534
200	0x3f120867	0.5704407
201	0x3d8b1e13	0.067928456
202	0x3e529b84	0.20567137
203	0x3cb06df6	0.021536808
204	0xbf26b6be	-0.6512259
205	0xbf29e283	-0.66361254
206	0xbe51065f	-0.20412587
207	0xbb1c4d89	-0.0023849925
208	0xbf1419b9	-0.5785175
209	0xbee59e2c	-0.44847238
210	0xbe05b4ea	-0.13057294
211	0x3f416e41	0.7555886
212	0xbf23875b	-0.6387841
213	0xbe13d9b3	-0.14438514
214	0xbe64d960	-0.22348547
215	0xbf8e79ae	-1.1130884
216	0xbee2e3b8	-0.4431436
217	0x3e6dbfd8	0.23217714
218	0x3e335b67	0.17515336
219	0x3e40896b	0.18802421
220	0x3c5a509a	0.013324881
221	0x3e2eef21	0.17083408
222	0x3f3c9cb1	0.7367659
223	0x3f53a2d0	0.8267031
224	0xbd7f1ebe	-0.062285177
225	0x3eb40d5a	0.35166436
226	0x3e525831	0.20541455
227	0x3d968031	0.07348669
228	0xbea8ee63	-0.32994375
229	0xbf07a5c0	-0.5298729
230	0xbd3090fa	-0.04310701
231	0x3cc1a64e	0.02363887
232	0x3da46110	0.08026326
233	0xbe2e45ad	-0.17018767
234	0x3da7c8c9	0.081925936
235	0x3f2185a4	0.63094544
236	0xbda31165	-0.07962302
237	0x3e03b24a	0.1286098
238	0x3ba91557	0.0051600146
239	0xbd34087e	-0.04395341
240	0xbdc95934	-0.09831467
241	0xbe9d902a	-0.3077405
242	0xbf3340df	-0.7002086
243	0xbdb102c4	-0.086431056
244	0xbed05f0a	-0.4069751
245	0x3db7c942	0.08973934
246	0xbd799600	-0.060934067
247	0xbecf25e3	-0.40458593
248	0xbf938af0	-1.1526775
249	0xbdee8247	-0.11645942
250	0xbdf88bce	-0.12136041
251	0xbe8ed75b	-0.27898678
252	0xbdfe263c	-0.124096364
253	0xbdb960c7	-0.09051662
254	0x3e3fd06b	0.18731849
255	0x3eaad778	0.33367515
