project/paper_notebooks/saved_variables/paper_notebooks/8/5-50epoch_20loop/looping-iteration-11/best_policy_agent2.pth (torch, 320501 bytes, 16 tensors)

model.model.0.weight f4 [128, 42]
0	0xbdaf6b45	-0.08565382
1	0xbdb55b5c	-0.08855316
2	0xbd2607f3	-0.040534925
3	0x3ca74f98	0.020423695
4	0x3cd0b27c	0.025475733
5	0x3cc4cbb6	0.024022918
6	0x3b8fdd29	0.004390378
7	0x3dbd742b	0.09250673
8	0x3d95e1a4	0.07318428
9	0x3daf91ea	0.08572753
10	0xbe3822b2	-0.17981985
11	0xbd86be58	-0.06579274
12	0x3d9da5c5	0.07697634
13	0xbbd7fd36	-0.0065914644
14	0xbdc95449	-0.09830529
15	0x3d0ecccf	0.03486329
16	0xbde7f807	-0.11326604
17	0xbe193a0c	-0.1496355
18	0x3c805656	0.015666168
19	0xbe34442e	-0.17604133
20	0x3da2233a	0.07916875
21	0xbe11ca9a	-0.14237443
22	0x3d84b896	0.064805195
23	0x3e19e7d5	0.15029843
24	0x3e419645	0.1890498
25	0xbd4b9586	-0.049703144
26	0xbdaa8169	-0.08325464
27	0x3e023d71	0.1271875
28	0x3a9fb4db	0.0012184636
29	0xbdbf81fb	-0.09350964
30	0x3d9b2bd7	0.07576721
31	0x3dd470d8	0.10373086
32	0x3ca94176	0.020661097
33	0x3e002efc	0.12517923
34	0x3d466dea	0.048444666
35	0x3d390389	0.045169387
36	0x3c5c40ff	0.013443231
37	0xbdb39d5b	-0.087702475
38	0x3e3fde15	0.18737061
39	0x3e035b89	0.12827887
40	0x3e1f5347	0.15559112
41	0x39cd690a	0.00039178907
42	0x3dae8cb3	0.0852293
43	0xbde802a7	-0.11328631
44	0x3bf1c8e3	0.007378684
45	0xbe269743	-0.1626864
46	0xbe0a5a85	-0.13511093
47	0xbd8054c7	-0.0626617
48	0x3e1d1d82	0.15343288
49	0xbe240ea4	-0.1602121
50	0x3e22b304	0.15888602
51	0xbe475066	-0.19464263
52	0x3e0fdddf	0.14049481
53	0x3cea7931	0.028622242
54	0x3db7ba71	0.08971108
55	0xbe12daf5	-0.14341338
56	0xbe1d8f78	-0.1538676
57	0x3e062463	0.13099818
58	0x3d08e992	0.033425875
59	0xbc94aef1	-0.018149825
60	0x3db27a7c	0.08714768
61	0x3dba50a7	0.090974145
62	0xbe09b3df	-0.13447522
63	0x3d3182fa	0.0433378
64	0xbd3b3be0	-0.045711398
65	0xbd44cbd1	-0.048045937
66	0x3e7a2b92	0.24430683
67	0x3db79acf	0.08965074
68	0xbdd95b03	-0.10613062
69	0xbc9b130b	-0.018929979
70	0xbd0120c7	-0.0315254
71	0xbd369a86	-0.04458096
72	0xbdee358f	-0.11631309
73	0x3d54eed2	0.05198557
74	0x3df76c1a	0.120811656
75	0x3b8885df	0.0041663493
76	0x3d984512	0.07435049
77	0xbdde181e	-0.10844444
78	0xbc844fb9	-0.016151296
79	0x3d23835e	0.039920203
80	0x3dae5de9	0.08514006
81	0x3caf3c15	0.021390954
82	0xbd33a0ae	-0.043854408
83	0xbc07036c	-0.008240562
84	0xbd8a7cfc	-0.0676212
85	0x3e28fd63	0.1650291
86	0xbdd0370f	-0.101667516
87	0xba84e5b2	-0.0010139255
88	0xbd525600	-0.051351547
89	0x3d2747c8	0.04083994
90	0x3ca63cc3	0.020292645
91	0xbd9f4779	-0.07777304
92	0x3d394be4	0.04523839
93	0xbdbfafec	-0.09359726
94	0x3db8e88c	0.0902873
95	0xbe1a0e04	-0.15044409
96	0xbe0e0e08	-0.1387254
97	0x3e1aa04a	0.15100208
98	0x3d8e1285	0.06937126
99	0xbd002daf	-0.031293567
100	0x3b3af365	0.0028526422
101	0xbda01d70	-0.07818115
102	0xbbc80096	-0.0061035855
103	0x3d46a5c6	0.048497938
104	0x3e1313da	0.14363042
105	0x3daac895	0.08339039
106	0x3d31082e	0.04322069
107	0x3de141e9	0.109988995
108	0x3dda97d7	0.106734924
109	0x3c65bfbf	0.014022767
110	0xbe3b953f	-0.18318652
111	0x3dc8484f	0.09779417
112	0xbdc4ccd3	-0.096093796
113	0x3e08a5e7	0.13344537
114	0x3d33975f	0.04384553
115	0x3d9da343	0.07697155
116	0xbc5a6b2e	-0.013331218
117	0x3cf0831f	0.029359398
118	0xbdf80cd0	-0.12111819
119	0xbe138f12	-0.14410046
120	0xbe11acde	-0.142261
121	0x3de5227e	0.111882195
122	0x3e0a3899	0.13498153
123	0x3d1e10d1	0.038590256
124	0xbe1d32c7	-0.15351401
125	0x3b451c62	0.0030076732
126	0x3d465496	0.04842051
127	0xbdfa1d39	-0.12212605
128	0x3d463914	0.048394278
129	0x3d3c0266	0.045900725
130	0xbd1dd385	-0.0385318
131	0xbdb44621	-0.088024385
132	0x3dec0aea	0.11525519
133	0x3dcf5174	0.10122958
134	0xbd2ca436	-0.04214879
135	0x3d99b1bb	0.075046025
136	0xbd38f452	-0.045154877
137	0x3deeaddb	0.11654254
138	0x3daa4263	0.083134435
139	0x3ddd99cb	0.10820349
140	0xbd9fb18e	-0.07797538
141	0x3db8b5d4	0.09019056
142	0xbdd551ae	-0.1041597
143	0xbe0d53d2	-0.13801506
144	0xbd531e20	-0.0515424
145	0xbe3fc432	-0.18727186
146	0x3e031e4a	0.12804523
147	0x3de3680c	0.1110383
148	0x3d211e98	0.039335817
149	0x3c107746	0.0088174995
150	0xbcbd740b	-0.023126623
151	0x3d9af7f7	0.07566827
152	0x3d287a93	0.04113252
153	0x3df8c23b	0.121464215
154	0xbd9c30e9	-0.07626516
155	0xbddfcca7	-0.10927706
156	0x3cbcd12a	0.023048956
157	0x3e889530	0.2667632
158	0xbd55edcb	-0.05222873
159	0x3d1f71e5	0.038926978
160	0x3d82c305	0.06384853
161	0x3de629b6	0.112384245
162	0xbd2ab287	-0.041674163
163	0x3e19e577	0.1502894
164	0xbda90e23	-0.082546495
165	0xbc8d1949	-0.017223971
166	0x3e0c535b	0.13703673
167	0xbcffb73d	-0.031215305
168	0xbe1212f0	-0.14265037
169	0xbdd06b71	-0.10176743
170	0xbdea8fc5	-0.11453203
171	0x3d2469ce	0.040139966
172	0xbd69be3a	-0.05706618
173	0xbe189ff5	-0.14904769
174	0x3dc5dfeb	0.096618496
175	0xbcb6a787	-0.02229668
176	0xbe1060e8	-0.14099467
177	0x3dc689e5	0.0969427
178	0x3e35a7af	0.17739747
179	0x3e058cfc	0.13042063
180	0xbdc3668b	-0.09541043
181	0xbb5f292e	-0.0034051645
182	0x3d6760a9	0.056488667
183	0xbe44dd8a	-0.19225135
184	0x3cc716b4	0.024302818
185	0x3e47700c	0.19476336
186	0x3dec6fa2	0.1154473
187	0x3dead3fa	0.114662126
188	0xbe06ee0c	-0.13176745
189	0xbb0494a3	-0.0020230196
190	0x3b304118	0.0026894268
191	0xba95c040	-0.0011425093
192	0x3e2c8bc9	0.16850199
193	0xbde9ebf7	-0.1142196
194	0xbd2225cd	-0.03958683
195	0x3da2f6a4	0.07957199
196	0xbb699376	-0.0035640872
197	0xbd0fa5bc	-0.035070166
198	0x3d4a75d3	0.049428772
199	0xbde5eecf	-0.1122719
200	0x3cdf4462	0.027254287
201	0xbd854e84	-0.06509116
202	0x3e07857d	0.13234515
203	0x3e26b88c	0.16281337
204	0x3d8ed474	0.06974116
205	0xbdb306ef	-0.08741557
206	0x3d605c32	0.054775424
207	0x3ab49d99	0.0013779878
208	0xbda27556	-0.07932536
209	0xba8be98c	-0.0010674461
210	0xbde670a1	-0.11251951
211	0x3e039e1e	0.12853286
212	0xbe21041b	-0.15724222
213	0xbd20ab4e	-0.03922587
214	0x3e103db7	0.14086042
215	0xbbbe82ab	-0.0058139167
216	0xbe099c7c	-0.134386
217	0xbd14f86e	-0.036369734
218	0x3d3c329e	0.04594671
219	0xbdcc6c5d	-0.09981606
220	0xbdf91471	-0.12162102
221	0x3d792025	0.06082167
222	0xbdcdca05	-0.10048298
223	0xbdb177d4	-0.086654335
224	0xbe145048	-0.1448375
225	0xbdaf09e7	-0.085468106
226	0x3ce44ecc	0.027869605
227	0x3e096e3b	0.13420956
228	0x3deec4c2	0.11658622
229	0x3dd5d6b4	0.10441342
230	0xbdd3b60b	-0.10337456
231	0x3da06027	0.078308396
232	0xbc6aa279	-0.014320963
233	0x3d48b317	0.04899892
234	0x3db98b42	0.090597644
235	0x3d4d1e4f	0.050077733
236	0x3b9df7ac	0.0048207846
237	0x3de580b9	0.112061925
238	0x3db86b1a	0.09004803
239	0xba6a70ea	-0.0008943217
240	0x3e2032c0	0.1564436
241	0x3d3aecea	0.045636095
242	0x3d205030	0.039138973
243	0x3e045d0a	0.12926117
244	0xbdc960b4	-0.09832898
245	0x3dd22f1b	0.10262891
246	0xbd920734	-0.0713028
247	0xbd0ba9d7	-0.03409752
248	0x3dbf3ea5	0.0933812
249	0xbdc85852	-0.09782471
250	0x3de17581	0.1100874
251	0xbd83db08	-0.06438261
252	0x3e1aa490	0.15101838
253	0xbdaab3fd	-0.08335111
254	0x3daaf3c5	0.083472766
255	0x3da73c5c	0.081658095

model.model.0.bias f4 [128]
0	0x3e42c288	0.1901952
1	0x3e29fc66	0.16600189
2	0x3e22de2e	0.15905067
3	0x3e634569	0.22194447
4	0xbd75de45	-0.060026426
5	0xbd7ca845	-0.06168391
6	0x3e037b0a	0.12839904
7	0x3e7e3ad6	0.24827132
8	0x3dcae167	0.09906273
9	0xbda1eec1	-0.07906867
10	0xbc8dfe86	-0.01733328
11	0x3e6b36fe	0.22970197
12	0x3e184f40	0.14873981
13	0xbcd1bc2b	-0.02560242
14	0x3db0f99e	0.08641361
15	0xbd3ae5f4	-0.045629457
16	0x3e823689	0.25432232
17	0x3e921425	0.28530994
18	0xbdab7d90	-0.083735585
19	0x3e902507	0.2815325
20	0x3d9d10ff	0.076692574
21	0xbcb71d81	-0.022352936
22	0x3e34423a	0.17603388
23	0x3e32de01	0.174675
24	0xbc652173	-0.013985026
25	0x3e9003d3	0.28127918
26	0xbca7e92f	-0.020496933
27	0x3e86d4fd	0.26334372
28	0x3d86b245	0.06576971
29	0x3d8573a9	0.06516201
30	0xbd0e2ec2	-0.03471256
31	0x3e9a1855	0.3009669
32	0x3e6f7b33	0.2338684
33	0x3e878521	0.26468757
34	0xbde1807c	-0.110108346
35	0xbcc8aa0c	-0.024495147
36	0xbcea219a	-0.028580476
37	0x3e8d0b68	0.27547765
38	0x3e98ae03	0.2982026
39	0x3e485fd8	0.19567811
40	0xbcc16e78	-0.023612246
41	0x3d0d1e7d	0.034452904
42	0x3e48dfa0	0.19616556
43	0x3e5217f3	0.20516948
44	0x3e86616a	0.26246196
45	0x3e8a001f	0.26953217
46	0x3e922e29	0.28550842
47	0xbd919edf	-0.071103804
48	0x3e368304	0.17823416
49	0xbd43f252	-0.047838517
50	0x3e293ffd	0.16528316
51	0x3e51364c	0.20430869
52	0x3e357dd9	0.17723788
53	0x3e51f03e	0.20501801
54	0x3e6ed166	0.23322067
55	0x3e5f3895	0.21798928
56	0x3e823b62	0.2543593
57	0x3d85a002	0.0652466
58	0x3da775d8	0.08176774
59	0x3daac3dc	0.083381385
60	0x3df236b7	0.11826842
61	0x3d539121	0.051652078
62	0xbcb3977f	-0.021922825
63	0x3e9598bb	0.29218087
64	0x3e4eb0ac	0.20184582
65	0xbe052406	-0.13002023
66	0x3e6d761c	0.23189586
67	0x3e80e53d	0.25174895
68	0x3e181a94	0.14853889
69	0x3e7b035f	0.24513005
70	0x3e9bf6ee	0.3046183
71	0xbdffbca6	-0.12487154
72	0x3e89fe58	0.2695186
73	0x3da61558	0.0810954
74	0xbd8edc8c	-0.0697566
75	0xbde9ff1c	-0.114256114
76	0x3ea537b9	0.32269076
77	0x3e931a4b	0.28730997
78	0x3e81a248	0.25319123
79	0x3e2e4687	0.17019092
80	0x3e5f85f6	0.21828446
81	0x3e2321df	0.1593089
82	0x3e8bd8af	0.27313754
83	0x3e806923	0.25080213
84	0x3e9ac1ab	0.30225882
85	0x3e6b6c31	0.2299049
86	0x3daa5763	0.08317449
87	0x3d833bbf	0.0640788
88	0x3e3d43ee	0.18482944
89	0x3e99be17	0.3002784
90	0xbcc7e814	-0.024402656
91	0x3e0f70ef	0.14007924
92	0x3cdbd5ee	0.026835408
93	0x3e82d318	0.25551677
94	0x3e91ab95	0.2845122
95	0xbcab31bf	-0.020897744
96	0x3e8a9bfe	0.27072138
97	0x3e36ebf8	0.17863452
98	0x3c991804	0.01868821
99	0x3e0c9523	0.13728766
100	0xbd5bd570	-0.053670347
101	0x3e4d51f2	0.20050791
102	0xbced6932	-0.028980825
103	0x3e10a1f3	0.14124279
104	0x3e825e3a	0.25462514
105	0x3e69adb1	0.22820164
106	0x3e7bf531	0.24605252
107	0x3e23ed93	0.16008596
108	0x3e555349	0.20832552
109	0x3e96d838	0.29461837
110	0x3dc53820	0.096298456
111	0x3e261e44	0.16222483
112	0x3e56dc34	0.20982438
113	0x3e17df6e	0.14831325
114	0x3e2619f2	0.16220835
115	0x3e8f56d4	0.27995932
116	0x3e7de5ff	0.24794768
117	0x3def0f73	0.116728686
118	0x3c7ef70a	0.015561828
119	0x3d5dcd28	0.05415073
120	0x3e087e01	0.13329317
121	0x3e3c128e	0.18366453
122	0x3e00c5e9	0.12575497
123	0xbd6ae764	-0.057349578
124	0xbd8547db	-0.06507846
125	0x3dca060c	0.098644346
126	0x3eb1c542	0.34720808
127	0x3d7cdb4f	0.061732586

model.model.2.weight f4 [128, 128]
0	0x3cb8648b	0.02250888
1	0x3d39ddd5	0.04537757
2	0x3d9557f3	0.072921656
3	0xbc51c2fb	-0.012802835
4	0x3d13967f	0.036032196
5	0x3d15d81b	0.036583047
6	0x3cf9339c	0.030420117
7	0x3dbf247d	0.093331315
8	0xbe37b53a	-0.17940226
9	0x3de20d33	0.11037674
10	0xbd899155	-0.06717173
11	0xbcf2cd9e	-0.029639062
12	0xbc24c132	-0.010055827
13	0x3e00d9c4	0.12583071
14	0x3dee3c06	0.11632542
15	0x3ce694d9	0.028147148
16	0x3d83e0db	0.06439372
17	0x3c4b56c8	0.012410827
18	0x3c0bd0c3	0.008533659
19	0x3db715d6	0.08939712
20	0x3d729151	0.059220616
21	0x3d349341	0.044085745
22	0x3daba7a3	0.083815835
23	0x3d75a167	0.05996838
24	0x3dae0cb9	0.084985204
25	0xbd271be6	-0.04079809
26	0xbd18ea16	-0.037332617
27	0x3d84c558	0.06482953
28	0xbd2f5ea9	-0.042814884
29	0xbaf2fc41	-0.0018538312
30	0x3da78335	0.08179323
31	0x3d692695	0.05692156
32	0x3d84f365	0.06491736
33	0x3d9e2771	0.077223666
34	0x3c6186e3	0.01376507
35	0xbce69ce9	-0.028150992
36	0x3dbb176b	0.09135326
37	0x3d2227a0	0.03958857
38	0x3e93883d	0.2881488
39	0xbb797c19	-0.0038068353
40	0xbce6dd57	-0.028181715
41	0xbd85918a	-0.065219
42	0xbd84f0a8	-0.06491214
43	0xbd0df6ea	-0.034659304
44	0xbd1dc1c2	-0.03851486
45	0xbdf10fff	-0.11770629
46	0xbc3aa05c	-0.011390772
47	0x3c663100	0.014049768
48	0x3d6e3545	0.05815627
49	0x3d2ddf02	0.042449005
50	0x3dba082f	0.09083592
51	0x3d96d85b	0.07365485
52	0x3d6d00d3	0.057862114
53	0x3db874b4	0.09006634
54	0x3d23ddfe	0.04000663
55	0x3d49b08c	0.049240634
56	0xbcf3a411	-0.029741319
57	0x3dbd4dd3	0.092433594
58	0x3c8a7916	0.016903441
59	0x3cb1e06f	0.021713464
60	0x3d2ca489	0.0421491
61	0x3e104633	0.14089279
62	0x3e1c6b00	0.15275192
63	0x3db05200	0.0860939
64	0x3db6657a	0.08906074
65	0xbd8cdb01	-0.06877709
66	0xbd064df0	-0.03278917
67	0x3dfe5749	0.12418992
68	0xbcd5c5b0	-0.026095241
69	0x3e21de2b	0.15807407
70	0x3e409167	0.18805467
71	0x3d616b2f	0.05503386
72	0x3bce9b5c	0.0063051414
73	0x3d41144a	0.04713849
74	0x3d40d7d5	0.047080833
75	0xbc087fcb	-0.0083312495
76	0x3e0c00ff	0.13672255
77	0x3dea6481	0.11444951
78	0x3dde509b	0.10855218
79	0x3cad6698	0.021167085
80	0xbb70ab21	-0.0036723095
81	0x3ceb3c26	0.028715204
82	0x3d9fc685	0.078015365
83	0x3d712aea	0.058878817
84	0x3e23664c	0.15956992
85	0xbd0eb440	-0.03483987
86	0x3d548430	0.051883876
87	0xbd9e1322	-0.07718493
88	0x3d40b23d	0.04704498
89	0x3d9c15e5	0.076213636
90	0x3c8d8c7e	0.017278906
91	0x3dc6cb6d	0.09706769
92	0x3cdc0e5c	0.026862316
93	0x3d8b5566	0.06803398
94	0x3e364d4f	0.17802928
95	0xbd25edb1	-0.040509883
96	0x3dac1cdc	0.08403942
97	0xbde05aa1	-0.10954786
98	0xbd2bd27f	-0.04194879
99	0x39b357b3	0.00034206882
100	0xbcd5133b	-0.026010146
101	0x3da28e67	0.07937317
102	0xbb94b0b7	-0.0045376676
103	0x3dc2ace9	0.09505636
104	0xbc5d2fc2	-0.013500156
105	0x3e272207	0.16321574
106	0x3cb2e136	0.021835905
107	0x3d8de791	0.069289334
108	0x3d5463bf	0.051852938
109	0x3d3cc5af	0.046086963
110	0x3d822111	0.06353963
111	0xbd2f370f	-0.042777117
112	0x3ddc6757	0.10761898
113	0x3c4a9bb4	0.012366224
114	0x3bcdcfe0	0.006280884
115	0x3e2b1aa3	0.1670938
116	0xbc8df9ae	-0.01733097
117	0xbc8c97d7	-0.017162247
118	0x3d89254f	0.06696569
119	0x3d38d9c5	0.045129556
120	0x3dba5014	0.09097305
121	0x3d8780f3	0.06616392
122	0x3dda3e3d	0.10656402
123	0x3d5befe5	0.053695578
124	0xbd14aee4	-0.0362996
125	0x3dd560bd	0.10418842
126	0x3e4a577e	0.19759938
127	0xbc6866f8	-0.014184706
128	0x3d391af5	0.045191724
129	0x3d875fa8	0.06610042
130	0x3caf939d	0.021432692
131	0x3d8b4ac7	0.06801372
132	0x3d26abcd	0.040691186
133	0x3d742572	0.059606023
134	0xbcfbd401	-0.03074074
135	0x3e05b0d2	0.13055733
136	0xbd8b7e77	-0.06811231
137	0xbb21791e	-0.0024638842
138	0x3c6880b4	0.0141908415
139	0x3d2a40ee	0.041565828
140	0x3dc1ac22	0.0945666
141	0x3d96991a	0.073534206
142	0x3e06f266	0.13178405
143	0x3c65770c	0.014005434
144	0x3dc9ad8a	0.09847553
145	0x3db6ee91	0.08932222
146	0x3cdd3071	0.027000638
147	0xbd4708e3	-0.04859246
148	0x3c85dd39	0.016340839
149	0xbd5cd59c	-0.05391465
150	0x3e2322ed	0.15931292
151	0x3d4255c9	0.047445092
152	0x3dcbe411	0.099556096
153	0x3d9f6711	0.0778333
154	0x3dd1a901	0.10237313
155	0x3e328923	0.17435126
156	0x3db11302	0.086462036
157	0x3db17433	0.08664741
158	0x3ce5e876	0.028064948
159	0x3e47ebe0	0.19523573
160	0x3db3212b	0.08746561
161	0xbcbb56c1	-0.022868516
162	0x3c348250	0.011017397
163	0x3d441e9d	0.047880758
164	0x3ba625c6	0.005070421
165	0x3bdfdf1d	0.006832017
166	0x3e819c82	0.25314718
167	0xbd6592d9	-0.056048248
168	0x3d25bc70	0.04046291
169	0xbd298581	-0.041387085
170	0xb933ee9f	-0.00017159664
171	0x3d0e18d8	0.03469166
172	0x3d8a7eb5	0.06762449
173	0xbd483409	-0.04887775
174	0x3d81b8a5	0.06334046
175	0x3dcab75a	0.09898253
176	0xbcf5f64c	-0.03002467
177	0x3cb9cd47	0.022680892
178	0xb9af9d89	-0.00033495974
179	0xbd2fe4b3	-0.042942714
180	0x3d42b810	0.047538817
181	0x3dcf6d5a	0.10128279
182	0x3b1331af	0.0022460034
183	0x3b1add22	0.002363034
184	0x3d926ae0	0.07149291
185	0xbd78b899	-0.06072292
186	0x3d5130ad	0.05107181
187	0x3dd5bfbf	0.10436963
188	0x3cb06696	0.021533292
189	0x3b71c44c	0.0036890684
190	0x3e6f3326	0.23359355
191	0x3c44ef8a	0.012020001
192	0xbc8f4cd5	-0.017492691
193	0x3d09c135	0.033631522
194	0x3d9a7870	0.07542503
195	0xbb35bd46	-0.0027731224
196	0xbd267003	-0.040634166
197	0x3e665790	0.2249434
198	0x3d9d6fec	0.07687363
199	0x3e0e99d0	0.13925862
200	0x3ba5e754	0.005062977
201	0x3d4a597d	0.04940175
202	0x3de3ce7c	0.11123368
203	0x3c0d9f5f	0.008643954
204	0x3e05a206	0.13050088
205	0x3dd9d459	0.10636205
206	0x3e55d122	0.20880559
207	0x3e005807	0.1253358
208	0xbc9bbfb0	-0.019012302
209	0x3c4d6940	0.012537301
210	0x3dd411bd	0.10354946
211	0x3d6bc6c7	0.057562616
212	0x3d3cd13f	0.04609799
213	0x3d6d6203	0.0579548
214	0x3d5714c5	0.05251004
215	0x3d2dcfcc	0.0424345
216	0x3d71d3ee	0.059040003
217	0x3d9b7ecc	0.07592544
218	0x3d5dc4af	0.05414265
219	0x3dc72f3c	0.09725806
220	0xbc8014b8	-0.01563488
221	0x3cb09483	0.02155519
222	0x3e18f1d3	0.14935999
223	0xbd9e634f	-0.07733785
224	0x3e65f63a	0.22457209
225	0xbb3218bf	-0.0027175394
226	0x3cf141ac	0.02945026
227	0x3c89c69a	0.016818333
228	0x3c880bb9	0.016607152
229	0xbd1305a2	-0.035894044
230	0x3d55f7d5	0.052238304
231	0x3d2d0d66	0.042249106
232	0xbd6b82f4	-0.057497934
233	0x3e92569f	0.28581712
234	0x3cf1a33e	0.029496785
235	0x3cff8130	0.031189531
236	0xbbd91e8d	-0.0066259564
237	0x3db8024e	0.089848146
238	0xba732fe0	-0.0009276848
239	0x3d03f274	0.032213643
240	0xbd001987	-0.031274345
241	0xbd1a85ea	-0.037725367
242	0xbc29af8b	-0.010356794
243	0x3e2552cb	0.16144864
244	0x3d913c22	0.070915475
245	0x3dd3c653	0.10340562
246	0xbd79b203	-0.06096078
247	0x3ce1d716	0.027568381
248	0x3dbe7fb1	0.09301699
249	0x3d2b2812	0.04178626
250	0x3c3e7d46	0.011626547
251	0xbd294989	-0.041329894
252	0x3bd6d9cf	0.0065567265
253	0x3c87d826	0.01658256
254	0x3e485949	0.1956531
255	0x3d93d057	0.07217472

model.model.2.bias f4 [128]
0	0x3e18befc	0.14916605
1	0x3db6fc6b	0.08934864
2	0x3dbc5a45	0.09196905
3	0x3e2f82f4	0.17139798
4	0x3e479240	0.19489384
5	0x3de7cba2	0.11318137
6	0x3e35bab9	0.1774701
7	0x3e06d1d1	0.13165976
8	0x3dabea50	0.08394301
9	0x3e267d84	0.16258818
10	0x3e5921ec	0.21204346
11	0xbc7bd400	-0.015370369
12	0x3e0c7548	0.13716614
13	0xbd1b042b	-0.03784577
14	0xbd696251	-0.056978527
15	0x3e5379a7	0.20651875
16	0x3e0d073f	0.13772295
17	0x3e51b5ea	0.20479551
18	0x3e23e3bc	0.16004843
19	0x3de548ff	0.111955635
20	0x3e50ddf0	0.20397162
21	0x3d5de8da	0.054177143
22	0x3e4b2b36	0.19840702
23	0x3dc92c24	0.09822872
24	0x3df73193	0.120700024
25	0x3e27d77f	0.16390799
26	0x3e0f17e4	0.13973957
27	0x3e3a79b9	0.18210496
28	0x3de229db	0.110431395
29	0x3def0e3e	0.11672638
30	0x3d749d03	0.05972005
31	0x3dae0c05	0.08498386
32	0x3d849e02	0.0647545
33	0x3ca09df3	0.019606566
34	0x3dcd4f7f	0.10024928
35	0x3e51ee7e	0.20501134
36	0x3d955ec3	0.07293465
37	0x3e3a415c	0.18188995
38	0x3e0b9158	0.13629663
39	0x3d975d97	0.07390898
40	0xbda9c36c	-0.08289227
41	0x3da3bd9f	0.07995152
42	0x3d8e45f1	0.06946934
43	0x3e472d99	0.19450988
44	0x3e4fa537	0.20277868
45	0x3d856bdc	0.06514713
46	0x3dcf239b	0.10114213
47	0x3e38e3d4	0.1805566
48	0x3dfbd4ee	0.122964725
49	0xbd165b6a	-0.036708273
50	0x3d9b9e40	0.07598543
51	0x3e4cb2b5	0.19990046
52	0x3e1c3550	0.15254712
53	0x3e44331b	0.1916012
54	0x3dfc76cb	0.123273455
55	0xbc876bee	-0.016530957
56	0x3e03c959	0.12869777
57	0x3cf99772	0.030467723
58	0x3e05f178	0.13080394
59	0xbc06741b	-0.008206393
60	0x3dd31d8c	0.1030837
61	0x3d709115	0.05873211
62	0x3dd146b7	0.10218566
63	0x3e4e63ea	0.20155302
64	0x3e4bfb06	0.19919977
65	0xbd44d013	-0.048049998
66	0x3e2b3576	0.16719612
67	0x3e5c9101	0.2153969
68	0x3e2a589d	0.16635366
69	0x3d2884f6	0.041142426
70	0x3d945fcb	0.072448336
71	0x3db81bf3	0.08989706
72	0x3db53713	0.08848395
73	0x3c88371d	0.016627843
74	0x3d2d3726	0.04228892
75	0x3e5e1610	0.21688104
76	0x3d490f14	0.049086645
77	0x3e1c0d4d	0.15239449
78	0x3dcd40f3	0.10022154
79	0x3d9750c3	0.07388451
80	0x3e1213b4	0.14265329
81	0x3c54137c	0.012944099
82	0xbd6596e3	-0.0560521
83	0x3df2f00b	0.11862191
84	0x3e4165ca	0.18886486
85	0x3e504ffb	0.2034301
86	0x3da839f7	0.08214181
87	0x3d6c480c	0.057685897
88	0x3dc56713	0.096388005
89	0x3e07496e	0.13211605
90	0x3e26d08e	0.16290495
91	0x3d881b87	0.066458754
92	0x3d691749	0.056906972
93	0x3deb54d2	0.114907876
94	0xbd79d25e	-0.060991637
95	0x3e5c5c57	0.215196
96	0x3e113e35	0.14183886
97	0x3d2abf19	0.04168615
98	0xbcd03bde	-0.025419172
99	0xbcfc8620	-0.030825675
100	0xbd797dcc	-0.060910985
101	0x3e19d2a5	0.15021761
102	0x3e041dc5	0.12901981
103	0x3e2ccec8	0.16875756
104	0x3d8479e3	0.064685605
105	0xbdc054fd	-0.0939121
106	0x3dc3bb7f	0.095572464
107	0x3e294a6a	0.16532293
108	0x3d4c599e	0.049890153
109	0x3d63e857	0.0556415
110	0x3a26444b	0.0006342574
111	0xbd1c41c2	-0.03814865
112	0x3e165e64	0.14684445
113	0x3e2249cc	0.15848464
114	0x3e0809c1	0.13284971
115	0x3e1f5980	0.15561485
116	0xbb9101f4	-0.0044252817
117	0xbda2120d	-0.07913599
118	0x3dd571c1	0.104220875
119	0x3e00c7c5	0.12576206
120	0x3e0d8225	0.13819177
121	0x3e39af59	0.18133296
122	0x3d2a66f6	0.041602097
123	0x3da1fe3e	0.07909821
124	0xbd908971	-0.07057465
125	0x3df203e9	0.11817152
126	0x3db4fd58	0.08837384
127	0x3dd9cf59	0.106352516

model.model.4.weight f4 [128, 128]
0	0x3d855509	0.0651036
1	0xbd57ea28	-0.052713543
2	0xbd9c17ee	-0.07621752
3	0xbda60b5a	-0.08107634
4	0xbd6df50b	-0.05809502
5	0xbceea915	-0.029133359
6	0xbd796c71	-0.060894433
7	0x3cc8457d	0.024447197
8	0xbd91a372	-0.07111253
9	0xbd188535	-0.03723641
10	0x3c266935	0.010156919
11	0xbc1217da	-0.0089168195
12	0xbc4a1732	-0.012334632
13	0x3d385d48	0.045010835
14	0xbd390ad5	-0.045176346
15	0x3b28b84e	0.002574462
16	0x3d335789	0.043784652
17	0xbd356d90	-0.04429394
18	0x3d863630	0.06553304
19	0xbc9c8af4	-0.019109227
20	0x3d9812bf	0.074254505
21	0x3d9d925e	0.07693933
22	0xbc5c29ab	-0.013437669
23	0x3b3fab6b	0.002924646
24	0xbd8a8c21	-0.06765009
25	0xbda9d6e4	-0.0829294
26	0x3d3f7030	0.04673785
27	0x3d9efa55	0.07762591
28	0x3d33b48e	0.043873362
29	0x3d326f72	0.043563314
30	0x3c8ddbd9	0.017316746
31	0x3d9dabc4	0.07698777
32	0x3d6230a6	0.055222176
33	0x3d80bdab	0.06286176
34	0xbd397ddc	-0.045286044
35	0xbbc0f12b	-0.0058881245
36	0x3c418084	0.011810426
37	0x3cf302a5	0.029664347
38	0xbdb6fb14	-0.08934608
39	0x3a715480	0.0009206012
40	0x3cda7988	0.026669279
41	0xbcd1c7b7	-0.025607927
42	0x3da374bc	0.0798125
43	0xbd7f40fb	-0.06231783
44	0xbcabc18e	-0.020966318
45	0xbd6b859f	-0.057500478
46	0xbc235a50	-0.009970263
47	0xbd52a02c	-0.051422283
48	0xbd11b4a7	-0.035572674
49	0x3d3f5d06	0.046719573
50	0xbd0d30ed	-0.034470487
51	0x3c2d55ea	0.010579566
52	0x3d658feb	0.056045454
53	0xbd4a293a	-0.049355723
54	0xbd57a786	-0.052649997
55	0x3d20818e	0.039186053
56	0x3d8b7ad8	0.0681054
57	0xbd862980	-0.06550884
58	0xbda72f74	-0.08163348
59	0x3d9709d8	0.073749244
60	0xbd00a0a2	-0.03140319
61	0x3c28dc91	0.010306493
62	0x3c24e791	0.010064975
63	0x3c9a0d72	0.01880524
64	0x3c97fec8	0.018554106
65	0xbcdccaf8	-0.026952252
66	0xbd0ab7e3	-0.033866774
67	0xbcccdec1	-0.025008561
68	0x3d82353d	0.06357811
69	0x3cfb8e72	0.030707572
70	0x3c7722cd	0.015083981
71	0x3c771905	0.015081649
72	0x3d1b2fac	0.03788726
73	0x3dac6436	0.08417551
74	0xbd7a9e5e	-0.061186187
75	0xbd3fea36	-0.04685422
76	0x3da65b8e	0.081229314
77	0x3da757bf	0.08171033
78	0x3d21cb27	0.03950038
79	0x3b50badb	0.0031849656
80	0x3d917860	0.07103038
81	0x3d036d1a	0.03208647
82	0xbd45b089	-0.04826406
83	0x3d673320	0.05644524
84	0x3d23959e	0.039937608
85	0x3d38f80c	0.04515843
86	0x3da46196	0.080264255
87	0xbd76bc9e	-0.060238473
88	0xbce72317	-0.028214974
89	0xbcb884c7	-0.02252425
90	0xbc10fc83	-0.008849266
91	0x3d30debd	0.04318117
92	0x3d6d728a	0.05797056
93	0xbd6cb436	-0.05778905
94	0xb92f72d3	-0.00016732076
95	0xbdb7edfa	-0.08980937
96	0xbd07a7b7	-0.03311893
97	0x3d2f2e5a	0.042768814
98	0x3d85446a	0.065071896
99	0xbd0589a7	-0.03260198
100	0x3dab29e3	0.08357599
101	0xbd0a0c0a	-0.033702888
102	0xbdaae9a7	-0.08345347
103	0x3bee5862	0.0072737196
104	0xbd6f38de	-0.058403842
105	0x3ceedce4	0.029158063
106	0xbd931353	-0.0718142
107	0x3b355b22	0.0027672728
108	0x3d430a59	0.04761729
109	0xbbca3187	-0.006170455
110	0x3d42ef56	0.04759153
111	0x3da02817	0.078201465
112	0x3d877118	0.06613368
113	0xbc685c6c	-0.014182191
114	0xbd466421	-0.048435334
115	0x3b85abf6	0.004079337
116	0x3d8534f7	0.06504243
117	0x3d9aa901	0.07551766
118	0xbdb308f5	-0.08741943
119	0x3d9f16ab	0.077679954
120	0xbd986fb1	-0.074431784
121	0xbd8d6f5b	-0.06906005
122	0x3d3720be	0.04470896
123	0xbd8134a2	-0.06308867
124	0xbd1a3d8a	-0.037656344
125	0x3bab82ac	0.005234083
126	0x3d448432	0.047977634
127	0x3d300663	0.04297484
128	0x3cc14def	0.023596732
129	0x3dfc38b7	0.12315505
130	0xbcd8d8ea	-0.02647062
131	0x3cc0c693	0.023532188
132	0x3deae939	0.11470265
133	0xbbbd05d4	-0.005768517
134	0x3d7252b8	0.059160918
135	0x3d3ce3e9	0.04611579
136	0xbcc6aa38	-0.024251089
137	0x3d086a68	0.033304602
138	0xbd0c2e3b	-0.034223776
139	0x3d1a524a	0.037676133
140	0x3c31bba2	0.010847958
141	0x3cb62b60	0.02223748
142	0x3cb6fa33	0.022336101
143	0x3dba6fd9	0.091033645
144	0x3de96b13	0.11397376
145	0x3d12c84e	0.035835557
146	0x3dcae351	0.099066384
147	0xbcae858a	-0.02130391
148	0x3ccb9be2	0.024854604
149	0xbd128839	-0.035774443
150	0x3db67784	0.089095145
151	0xbbf37dce	-0.0074307686
152	0x3df5fd88	0.12011248
153	0x3e0419f0	0.1290052
154	0x3cc3337b	0.023828259
155	0x3dde34f1	0.108499415
156	0xbd07630b	-0.03305344
157	0x3da8f3e8	0.082496464
158	0x3cff36af	0.031154005
159	0x3c5e614e	0.013573004
160	0xbe1a4e3c	-0.15068907
161	0xbc83d9a3	-0.016094988
162	0x3d38ba21	0.04509938
163	0x3dc497dc	0.095992774
164	0xbc8f83bb	-0.017518869
165	0xbbeaabd5	-0.0071615973
166	0x3b806f40	0.003919512
167	0x3d93194d	0.0718256
168	0x3d015bc6	0.031581663
169	0x3dd0019e	0.101565585
170	0x3d3825b8	0.044957846
171	0x3c37a1f3	0.011208045
172	0x3d321e41	0.043485884
173	0x3d80f711	0.06297124
174	0x3d25133a	0.04030154
175	0x3e0141af	0.12622713
176	0x3d166559	0.036717746
177	0x3d92ff12	0.07177557
178	0xbd13be32	-0.036070056
179	0x3cf5e664	0.030017085
180	0x3dcd055e	0.10010789
181	0xbccbc8d3	-0.024876034
182	0x3d5a2394	0.053256586
183	0xbd4c07fd	-0.049812306
184	0xbce5efe4	-0.02806849
185	0xbd2e78f4	-0.04259582
186	0x3cc9c5cf	0.024630455
187	0xbdef71e6	-0.11691646
188	0x3d694a61	0.0569557
189	0x3d40b492	0.047047205
190	0x3ded6d25	0.11593083
191	0x3ddfb854	0.1092383
192	0xbc009780	-0.00784862
193	0x3d8d693c	0.069048375
194	0x3df16a1a	0.117878154
195	0xbbf55cde	-0.0074878773
196	0xbd0c1c37	-0.034206595
197	0x3d88ba3c	0.066761464
198	0x3e011d1f	0.12608765
199	0x3dd6866c	0.10474858
200	0x3da647ce	0.081191644
201	0xbdfacb91	-0.122458585
202	0x3d199eb6	0.037504874
203	0x3d999889	0.07499797
204	0xbd1f5409	-0.0388985
205	0xbaeb84eb	-0.001796869
206	0xbca26c0a	-0.019826908
207	0x3d8b6c0b	0.06807717
208	0xbcdd5882	-0.027019743
209	0x3c823ac8	0.01589717
210	0x3d9853b5	0.07437841
211	0x3d25869a	0.04041157
212	0xbcc24b69	-0.023717599
213	0x3db06121	0.08612276
214	0x3d343144	0.043992296
215	0x3cde365e	0.027125534
216	0xbd097c6e	-0.03356593
217	0x3dae91e2	0.08523919
218	0x3ddd6d2a	0.10811837
219	0x3d25f47d	0.040516365
220	0x3d79c741	0.06098104
221	0x3b959b40	0.0045656264
222	0xbde36faa	-0.111052826
223	0x3e048636	0.12941822
224	0x38e2c992	0.00010814065
225	0xbe078abe	-0.1323652
226	0xbd97def5	-0.074155726
227	0x3d3faebe	0.046797507
228	0xbc2832bf	-0.010266005
229	0x3dbc510d	0.09195147
230	0x3dddb314	0.10825172
231	0x3dc32353	0.09528222
232	0x3abbb283	0.0014320168
233	0x3e561daa	0.20909753
234	0x3ce70a16	0.028203052
235	0x3dfad942	0.1224847
236	0xbd30fdfa	-0.04321096
237	0x3e012c91	0.12614657
238	0xbc2f87cf	-0.010713532
239	0x3ba815e0	0.005129561
240	0x3d6ca650	0.057775795
241	0x3d1d272c	0.038367435
242	0xbcc61fbc	-0.024185054
243	0x3dd81c68	0.10552293
244	0xbd506904	-0.0508814
245	0x3c843457	0.016138239
246	0x3ccfa3f6	0.025346737
247	0x3da97b19	0.08275432
248	0x3dfd10e3	0.123567365
249	0x3d5e7dbf	0.05431914
250	0x3dbdc0d3	0.09265294
251	0xbd44f17e	-0.048081867
252	0xbd869bd9	-0.06572694
253	0x3d572f24	0.05253519
254	0x3e070665	0.13186033
255	0x3d81d860	0.063400984

model.model.4.bias f4 [128]
0	0xbc45c932	-0.0120718945
1	0x3e242671	0.16030289
2	0x3d7f2f44	0.062300935
3	0x3d91a4dc	0.071115226
4	0x3daab0e8	0.083345234
5	0x3d594d70	0.053052366
6	0xbd29373b	-0.041312438
7	0xbd6e733a	-0.058215357
8	0x3de215f3	0.11039343
9	0x3d0e3954	0.03472264
10	0x3d67d567	0.0566
11	0x3d8dfcd6	0.0693299
12	0x3bad2138	0.005283501
13	0x3c1d904c	0.009616923
14	0xbd362180	-0.04446554
15	0x3d26e349	0.0407441
16	0xbcf1d52a	-0.02952059
17	0xbc52e9d8	-0.0128731355
18	0x3e10bcc5	0.1413451
19	0x3dd0740c	0.10178384
20	0x3dadae73	0.08480539
21	0x3e292f1d	0.16521879
22	0xbc373ff5	-0.011184682
23	0xbdb9307a	-0.09042449
24	0x3c08d2f6	0.008351078
25	0x3e05eb51	0.13078047
26	0x3e0e5d14	0.13902694
27	0x3d3d1941	0.046166662
28	0xbdbc2ed7	-0.091886215
29	0x3ced2033	0.028946018
30	0x3dddbaa2	0.10826613
31	0x3d9cf715	0.07664315
32	0xbba7bb30	-0.00511875
33	0x3c9bd62c	0.019023024
34	0xbd52076a	-0.0512766
35	0xbd32b999	-0.04363403
36	0x3d8f096f	0.06984221
37	0xbc8cfb9b	-0.017209819
38	0xbd828d67	-0.063746266
39	0x3dddbabe	0.10826634
40	0x3def98b0	0.11699045
41	0x3e15f4fc	0.14644235
42	0xbca13358	-0.019677803
43	0x3d57825d	0.05261456
44	0x3b445e20	0.002996333
45	0x3e04c53f	0.12965868
46	0xbd4abbba	-0.049495436
47	0x3d15d30a	0.036578216
48	0xbda923c3	-0.08258774
49	0xbb5883ca	-0.0033037537
50	0x3e19ad6a	0.15007558
51	0x3d5cfc82	0.053951748
52	0x3d46fb60	0.048579574
53	0xbcf6ce94	-0.030127801
54	0x3e2caffa	0.16864005
55	0x3d31f867	0.043449786
56	0xbcc969ad	-0.024586523
57	0xbc74d011	-0.014942185
58	0x3d1d3bfb	0.03838728
59	0xbd8bd1ee	-0.0682715
60	0xbc855e75	-0.016280392
61	0xbd91cccd	-0.07119141
62	0xbd493d47	-0.049130704
63	0x3e2879bf	0.16452692
64	0x3e083db4	0.13304788
65	0xbd805c80	-0.06267643
66	0x3dcc6f4e	0.09982167
67	0x3e474baf	0.19462465
68	0xbd4e8ad1	-0.050425354
69	0xbc9d500d	-0.01920321
70	0x3e0e6318	0.13904989
71	0xbd032025	-0.032013077
72	0xbd8883dc	-0.06665775
73	0x3d417ce2	0.04723824
74	0x3dcd1065	0.10012893
75	0x3dcd2186	0.1001616
76	0xbcf5e341	-0.03001559
77	0x3df2451a	0.11829586
78	0x3e14d454	0.14534122
79	0x3d3a468d	0.04547744
80	0xbdaa1012	-0.083038464
81	0x3dc79e5c	0.097470015
82	0x3d33077a	0.043708302
83	0xbd2afcf4	-0.04174514
84	0x3d99df03	0.07513239
85	0x3e1d76e4	0.15377384
86	0x3e223116	0.15839037
87	0x3c791f4b	0.015205215
88	0xbd8307cc	-0.063979715
89	0xbabb5c00	-0.0014294386
90	0xbd695d27	-0.056973603
91	0x3c1b4ff2	0.00947951
92	0xbd93f5ff	-0.072246544
93	0x3d796dc9	0.060895715
94	0x3ca6ee0b	0.02037718
95	0x3ba01e42	0.0048864195
96	0xbc9d43e3	-0.01919741
97	0x3e048806	0.12942514
98	0x3cc30674	0.023806788
99	0x3e23f874	0.16012746
100	0xbd5c25cd	-0.053746987
101	0xbd3a65fc	-0.045507416
102	0x3da3308e	0.079682454
103	0x3cc7ab98	0.024373814
104	0x3bd3f730	0.006468676
105	0xbd9e9fd2	-0.07745327
106	0x3d3a00b2	0.04541082
107	0x3d19d800	0.03755951
108	0x3d725273	0.05916066
109	0x3c4de659	0.012567126
110	0x3e28609a	0.164431
111	0xbc986e6c	-0.01860734
112	0x3db67fa3	0.089110635
113	0x3ddd5a27	0.10808211
114	0x3e02ec8d	0.1278555
115	0xbdaac8e7	-0.083391
116	0xbcb1900f	-0.021675138
117	0x3c9c9c1c	0.019117408
118	0x3cdef74b	0.027217528
119	0x3e1f97da	0.1558527
120	0x3dc754db	0.09732982
121	0x3e3c725f	0.18403004
122	0x3da0601e	0.07830833
123	0xbd6f15a0	-0.058370233
124	0x3e259585	0.16170318
125	0x3bc90443	0.0061345412
126	0xbda5f326	-0.081030175
127	0x3d7463a9	0.059665356

model.model.6.weight f4 [7, 128]
0	0xbcf51bf8	-0.029920563
1	0x3d6cabe7	0.057781126
2	0x3d1b73c3	0.037952196
3	0xbd3a0ff2	-0.045425363
4	0xbc9b7fe7	-0.018981887
5	0x3db4dff4	0.08831778
6	0x3d2baca8	0.041912705
7	0x3d70f7b6	0.058829986
8	0x3c99ca89	0.018773334
9	0x3cfc4f41	0.03079951
10	0x3d9077a4	0.0705407
11	0x3d6f643b	0.058445197
12	0xbc0389bf	-0.008028447
13	0x3da11e3c	0.07867095
14	0xbd8186d4	-0.063245445
15	0x3c153073	0.0091057895
16	0xbd5a801a	-0.053344823
17	0xbd602729	-0.054724846
18	0x3db4fe52	0.0883757
19	0x3da27ad2	0.07933582
20	0x3e2099f8	0.15683734
21	0x3b5ba6b0	0.0033516102
22	0x3c6f1e76	0.014594665
23	0xbd0116db	-0.031515937
24	0x3d8c7a8f	0.06859314
25	0xbba3b28c	-0.0049956497
26	0x3daa0308	0.083013594
27	0x3d8ae9b1	0.06782854
28	0xbd901fdf	-0.07037329
29	0x3d90ac05	0.0706406
30	0xbc67460f	-0.014115824
31	0x3c6c8d1a	0.014437938
32	0x3d40d921	0.04708207
33	0xbd056635	-0.032568175
34	0xbd7e666a	-0.06210939
35	0x3d9d8533	0.07691421
36	0x3e0848d4	0.13309032
37	0xb99937d7	-0.00029224038
38	0xbd84cc89	-0.064843245
39	0xbb992c5f	-0.004674479
40	0x3da67e8e	0.08129607
41	0x3db01e95	0.08599583
42	0xbd945cee	-0.072442874
43	0x3d65c075	0.056091744
44	0x3dafb559	0.08579511
45	0x3e20ff1f	0.15722321
46	0xbd5b6882	-0.053566463
47	0x3e09013d	0.13379379
48	0x3da29669	0.07938845
49	0xbd28d230	-0.041216075
50	0x3dbc5e01	0.09197617
51	0xbc435275	-0.011921515
52	0xbb6a585d	-0.0035758235
53	0x3d176ede	0.036970966
54	0x3e087e90	0.1332953
55	0x3de811ac	0.11331496
56	0xbcc550df	-0.024086414
57	0x3d17f8d2	0.037102528
58	0xbd002ff7	-0.031295743
59	0xbda228d4	-0.079179436
60	0xbc7e3a33	-0.015516805
61	0xbd9383a7	-0.07202845
62	0xbc934fb4	-0.017982341
63	0x3de2b913	0.11070456
64	0xbc47a72f	-0.012185856
65	0xbc81d29c	-0.015847497
66	0x3d5743b6	0.05255481
67	0x3de0d95d	0.10978959
68	0x3cb69d74	0.022291876
69	0x3e17c4a6	0.14821109
70	0xbb04a681	-0.0020240846
71	0xbb71be60	-0.0036887154
72	0x3d82f4af	0.06394326
73	0x3a03c0c9	0.00050259806
74	0x3e046ae3	0.12931399
75	0x3dbac16e	0.09118925
76	0x3c9b791c	0.018978648
77	0x3d04dcae	0.03243702
78	0x3ad8b902	0.0016534629
79	0x3df29399	0.11844558
80	0x3d754bd6	0.059886776
81	0x3d6aa91d	0.057290185
82	0x3d18e505	0.037327785
83	0xbd4e79c5	-0.050409097
84	0x3d8d1518	0.06888789
85	0x3e0f9559	0.14021815
86	0x3d9ec856	0.07753055
87	0xbd9ade9d	-0.07561991
88	0x3d0ea558	0.034825653
89	0xbc64c8b9	-0.013963872
90	0xbdb089d4	-0.08620039
91	0x3d99e8fa	0.0751514
92	0x3d84981b	0.06474324
93	0x3d4fad16	0.050702177
94	0x3d9244a3	0.07141998
95	0xbaf2f7e5	-0.0018537013
96	0xba10bbbe	-0.000552114
97	0x3bc65bd0	0.0060534254
98	0x3e0a7e85	0.13524826
99	0x3df9c549	0.12195832
100	0xbd0ed9f0	-0.03487581
101	0xbc979d54	-0.018507637
102	0xbd1a523c	-0.03767608
103	0xbc1b4f4c	-0.009479355
104	0xbd3ce710	-0.046118796
105	0x3b748683	0.003731162
106	0xbcd05234	-0.025429823
107	0x3dc076f9	0.09397692
108	0x3d98f027	0.074676804
109	0xbd618780	-0.055060863
110	0x3d9a4f21	0.07534624
111	0xbb9c5db0	-0.0047719106
112	0x3d78e7d3	0.06076796
113	0x3d5f388d	0.05449729
114	0x3d181e2a	0.03713814
115	0x3c28a5c8	0.010293432
116	0xbcedbcd6	-0.029020708
117	0xbd00bcad	-0.031429935
118	0x3da59801	0.08085633
119	0x3de2fce0	0.11083388
120	0x3c9027b9	0.017597066
121	0x3dd15b82	0.10222532
122	0x3bf6f0ec	0.0075360443
123	0xbc8ce0c8	-0.017197028
124	0x3e1d5ace	0.1536667
125	0xbd5c3af2	-0.053767152
126	0xbb313b4c	-0.00270434
127	0x3d806966	0.06270103
128	0xbd8685aa	-0.06568463
129	0x3dcfb638	0.10142177
130	0x3ab4351d	0.0013748739
131	0xbb6aa1a8	-0.003580192
132	0x3db58600	0.08863449
133	0x3d477c6b	0.04870264
134	0xbca4876e	-0.02008411
135	0xbc3d7020	-0.011562377
136	0x3de7b50b	0.11313828
137	0xbcae22e9	-0.02125688
138	0xbda366cc	-0.07978591
139	0xbd998c60	-0.074974775
140	0xbd82f22f	-0.06393849
141	0xbd5af1ac	-0.053453133
142	0xbc19a732	-0.009378241
143	0xbd52638b	-0.051364463
144	0xbc6d1920	-0.014471322
145	0xbdb3702e	-0.08761631
146	0x3dabb102	0.08383371
147	0x3dde71d5	0.108615555
148	0x3cf0e635	0.029406646
149	0x3d91f8d8	0.07127541
150	0xbd1905f7	-0.037359204
151	0xbda0b015	-0.07846085
152	0xbd8d5418	-0.06900805
153	0x3db6b77e	0.08921717
154	0x3da944a0	0.08265042
155	0x3d7c322e	0.061571293
156	0xbd95b69e	-0.07310222
157	0xbd1ba34b	-0.037997525
158	0x3d44902b	0.04798905
159	0xbca2fa9f	-0.019894896
160	0xbd92fd37	-0.07177203
161	0x3d943c65	0.07238082
162	0xbc04dcd8	-0.008109294
163	0xbd9f86be	-0.07789372
164	0x3d14336d	0.036181856
165	0xbc25cbfc	-0.010119434
166	0xbd47ae3b	-0.048750143
167	0x3e0261f7	0.12732683
168	0x3d0026fc	0.03128718
169	0x3dc83136	0.09775011
170	0xbcbffc24	-0.02343566
171	0x3da31faa	0.07965024
172	0xbd7a76da	-0.061148502
173	0x3d2cd52f	0.042195495
174	0x3db25663	0.08707883
175	0x3d728750	0.059211075
176	0xbce800d0	-0.0283207
177	0x3db3da2d	0.08781848
178	0x3d7af936	0.061272822
179	0xbc84e4f3	-0.016222453
180	0x3dcdfa04	0.10057452
181	0xbc96afb4	-0.018394329
182	0x3deb1ead	0.1148046
183	0x3d33e707	0.043921497
184	0xbd921094	-0.07132068
185	0xbd976603	-0.07392504
186	0xbd84da08	-0.06486899
187	0x3dacc8a1	0.084367044
188	0xbc44ea79	-0.012018793
189	0xbd03f19f	-0.03221285
190	0xbda5a2c0	-0.08087683
191	0x3dbbe908	0.091753066
192	0x3ddb101e	0.106964335
193	0x3cf65bd8	0.030073091
194	0x3d8b67e1	0.06806923
195	0x3dc9c44d	0.098518945
196	0x3d8bfc7f	0.06835269
197	0xbd5537b1	-0.052055065
198	0x3d89fc09	0.06737525
199	0xbd23a2df	-0.039950248
200	0x3d694c3e	0.056957476
201	0x3c977610	0.018488914
202	0x3dfbd881	0.12297154
203	0x3da40d1e	0.080103144
204	0xbab5cc5d	-0.0013870109
205	0x3dfee795	0.124465145
206	0x3e003e34	0.12523729
207	0xbd8c08d9	-0.06837625
208	0x3afa65c0	0.001910381
209	0x3cb1d053	0.021705782
210	0xbd0d9eb6	-0.034575187
211	0xbca8dc06	-0.020612728
212	0x3d9c0b49	0.0761934
213	0x3dbc5017	0.091949634
214	0x3d6ae612	0.05734832
215	0x3b47e0e0	0.0030499026
216	0xbcaca764	-0.021075912
217	0xbcd61cc5	-0.026136765
218	0xbd7ec21e	-0.062196843
219	0x3de4bb87	0.111685805
220	0xbc804ce1	-0.015661659
221	0x3d0cf22d	0.034410644
222	0xbc9c0762	-0.01904649
223	0x3d9dab27	0.0769866
224	0xbcead01c	-0.028663687
225	0x3d2acca7	0.041699078
226	0x3df2e49d	0.11860011
227	0x3d6513db	0.05592714
228	0xbbcad7b0	-0.0061902627
229	0x3d65b372	0.056079336
230	0xbda82c4a	-0.082115725
231	0x3deb28ad	0.11482368
232	0x3c27d330	0.010243222
233	0xbd40751a	-0.046986677
234	0x3d88f185	0.06686691
235	0x3dd0cd43	0.101954006
236	0x3d9b5714	0.07584968
237	0xbd81407a	-0.06311126
238	0x3de76060	0.11297679
239	0xbda1dd27	-0.079035096
240	0x3de379bb	0.111072026
241	0x3dfd7819	0.123764224
242	0x3da7b5d7	0.0818898
243	0x3d07af62	0.033126242
244	0xbcc07224	-0.023491926
245	0xbd88eeb5	-0.06686155
246	0x3dd56c82	0.10421087
247	0x3d03e0fd	0.032196987
248	0x3d9b9f15	0.07598702
249	0x3dccd931	0.100023635
250	0x3d40746d	0.046986032
251	0x3d7dc3ca	0.061954297
252	0x3dee3be6	0.116325185
253	0xbd5baa05	-0.05362894
254	0xbcd270de	-0.025688585
255	0xbd3c301e	-0.045944326

model.model.6.bias f4 [7]
0	0x3e2636d7	0.16231857
1	0x3e2c46b2	0.16823843
2	0x3e040cb0	0.12895465
3	0x3baa46b7	0.005196418
4	0x3e171b28	0.14756453
5	0x3cb25885	0.021770725
6	0x3e1174a5	0.14204653

model_old.model.0.weight f4 [128, 42]
0	0xbdaf6b45	-0.08565382
1	0xbdb55b5c	-0.08855316
2	0xbd2607f3	-0.040534925
3	0x3ca74f98	0.020423695
4	0x3cd0b27c	0.025475733
5	0x3cc4cbb6	0.024022918
6	0x3b8fdd29	0.004390378
7	0x3dbd742b	0.09250673
8	0x3d95e1a4	0.07318428
9	0x3daf91ea	0.08572753
10	0xbe3822b2	-0.17981985
11	0xbd86be58	-0.06579274
12	0x3d9da5c5	0.07697634
13	0xbbd7fd36	-0.0065914644
14	0xbdc95449	-0.09830529
15	0x3d0ecccf	0.03486329
16	0xbde7f807	-0.11326604
17	0xbe193a0c	-0.1496355
18	0x3c805656	0.015666168
19	0xbe34442e	-0.17604133
20	0x3da2233a	0.07916875
21	0xbe11ca9a	-0.14237443
22	0x3d84b896	0.064805195
23	0x3e19e7d5	0.15029843
24	0x3e419645	0.1890498
25	0xbd4b9586	-0.049703144
26	0xbdaa8169	-0.08325464
27	0x3e023d71	0.1271875
28	0x3a9fb4db	0.0012184636
29	0xbdbf81fb	-0.09350964
30	0x3d9b2bd7	0.07576721
31	0x3dd470d8	0.10373086
32	0x3ca94176	0.020661097
33	0x3e002efc	0.12517923
34	0x3d466dea	0.048444666
35	0x3d390389	0.045169387
36	0x3c5c40ff	0.013443231
37	0xbdb39d5b	-0.087702475
38	0x3e3fde15	0.18737061
39	0x3e035b89	0.12827887
40	0x3e1f5347	0.15559112
41	0x39cd690a	0.00039178907
42	0x3dae8cb3	0.0852293
43	0xbde802a7	-0.11328631
44	0x3bf1c8e3	0.007378684
45	0xbe269743	-0.1626864
46	0xbe0a5a85	-0.13511093
47	0xbd8054c7	-0.0626617
48	0x3e1d1d82	0.15343288
49	0xbe240ea4	-0.1602121
50	0x3e22b304	0.15888602
51	0xbe475066	-0.19464263
52	0x3e0fdddf	0.14049481
53	0x3cea7931	0.028622242
54	0x3db7ba71	0.08971108
55	0xbe12daf5	-0.14341338
56	0xbe1d8f78	-0.1538676
57	0x3e062463	0.13099818
58	0x3d08e992	0.033425875
59	0xbc94aef1	-0.018149825
60	0x3db27a7c	0.08714768
61	0x3dba50a7	0.090974145
62	0xbe09b3df	-0.13447522
63	0x3d3182fa	0.0433378
64	0xbd3b3be0	-0.045711398
65	0xbd44cbd1	-0.048045937
66	0x3e7a2b92	0.24430683
67	0x3db79acf	0.08965074
68	0xbdd95b03	-0.10613062
69	0xbc9b130b	-0.018929979
70	0xbd0120c7	-0.0315254
71	0xbd369a86	-0.04458096
72	0xbdee358f	-0.11631309
73	0x3d54eed2	0.05198557
74	0x3df76c1a	0.120811656
75	0x3b8885df	0.0041663493
76	0x3d984512	0.07435049
77	0xbdde181e	-0.10844444
78	0xbc844fb9	-0.016151296
79	0x3d23835e	0.039920203
80	0x3dae5de9	0.08514006
81	0x3caf3c15	0.021390954
82	0xbd33a0ae	-0.043854408
83	0xbc07036c	-0.008240562
84	0xbd8a7cfc	-0.0676212
85	0x3e28fd63	0.1650291
86	0xbdd0370f	-0.101667516
87	0xba84e5b2	-0.0010139255
88	0xbd525600	-0.051351547
89	0x3d2747c8	0.04083994
90	0x3ca63cc3	0.020292645
91	0xbd9f4779	-0.07777304
92	0x3d394be4	0.04523839
93	0xbdbfafec	-0.09359726
94	0x3db8e88c	0.0902873
95	0xbe1a0e04	-0.15044409
96	0xbe0e0e08	-0.1387254
97	0x3e1aa04a	0.15100208
98	0x3d8e1285	0.06937126
99	0xbd002daf	-0.031293567
100	0x3b3af365	0.0028526422
101	0xbda01d70	-0.07818115
102	0xbbc80096	-0.0061035855
103	0x3d46a5c6	0.048497938
104	0x3e1313da	0.14363042
105	0x3daac895	0.08339039
106	0x3d31082e	0.04322069
107	0x3de141e9	0.109988995
108	0x3dda97d7	0.106734924
109	0x3c65bfbf	0.014022767
110	0xbe3b953f	-0.18318652
111	0x3dc8484f	0.09779417
112	0xbdc4ccd3	-0.096093796
113	0x3e08a5e7	0.13344537
114	0x3d33975f	0.04384553
115	0x3d9da343	0.07697155
116	0xbc5a6b2e	-0.013331218
117	0x3cf0831f	0.029359398
118	0xbdf80cd0	-0.12111819
119	0xbe138f12	-0.14410046
120	0xbe11acde	-0.142261
121	0x3de5227e	0.111882195
122	0x3e0a3899	0.13498153
123	0x3d1e10d1	0.038590256
124	0xbe1d32c7	-0.15351401
125	0x3b451c62	0.0030076732
126	0x3d465496	0.04842051
127	0xbdfa1d39	-0.12212605
128	0x3d463914	0.048394278
129	0x3d3c0266	0.045900725
130	0xbd1dd385	-0.0385318
131	0xbdb44621	-0.088024385
132	0x3dec0aea	0.11525519
133	0x3dcf5174	0.10122958
134	0xbd2ca436	-0.04214879
135	0x3d99b1bb	0.075046025
136	0xbd38f452	-0.045154877
137	0x3deeaddb	0.11654254
138	0x3daa4263	0.083134435
139	0x3ddd99cb	0.10820349
140	0xbd9fb18e	-0.07797538
141	0x3db8b5d4	0.09019056
142	0xbdd551ae	-0.1041597
143	0xbe0d53d2	-0.13801506
144	0xbd531e20	-0.0515424
145	0xbe3fc432	-0.18727186
146	0x3e031e4a	0.12804523
147	0x3de3680c	0.1110383
148	0x3d211e98	0.039335817
149	0x3c107746	0.0088174995
150	0xbcbd740b	-0.023126623
151	0x3d9af7f7	0.07566827
152	0x3d287a93	0.04113252
153	0x3df8c23b	0.121464215
154	0xbd9c30e9	-0.07626516
155	0xbddfcca7	-0.10927706
156	0x3cbcd12a	0.023048956
157	0x3e889530	0.2667632
158	0xbd55edcb	-0.05222873
159	0x3d1f71e5	0.038926978
160	0x3d82c305	0.06384853
161	0x3de629b6	0.112384245
162	0xbd2ab287	-0.041674163
163	0x3e19e577	0.1502894
164	0xbda90e23	-0.082546495
165	0xbc8d1949	-0.017223971
166	0x3e0c535b	0.13703673
167	0xbcffb73d	-0.031215305
168	0xbe1212f0	-0.14265037
169	0xbdd06b71	-0.10176743
170	0xbdea8fc5	-0.11453203
171	0x3d2469ce	0.040139966
172	0xbd69be3a	-0.05706618
173	0xbe189ff5	-0.14904769
174	0x3dc5dfeb	0.096618496
175	0xbcb6a787	-0.02229668
176	0xbe1060e8	-0.14099467
177	0x3dc689e5	0.0969427
178	0x3e35a7af	0.17739747
179	0x3e058cfc	0.13042063
180	0xbdc3668b	-0.09541043
181	0xbb5f292e	-0.0034051645
182	0x3d6760a9	0.056488667
183	0xbe44dd8a	-0.19225135
184	0x3cc716b4	0.024302818
185	0x3e47700c	0.19476336
186	0x3dec6fa2	0.1154473
187	0x3dead3fa	0.114662126
188	0xbe06ee0c	-0.13176745
189	0xbb0494a3	-0.0020230196
190	0x3b304118	0.0026894268
191	0xba95c040	-0.0011425093
192	0x3e2c8bc9	0.16850199
193	0xbde9ebf7	-0.1142196
194	0xbd2225cd	-0.03958683
195	0x3da2f6a4	0.07957199
196	0xbb699376	-0.0035640872
197	0xbd0fa5bc	-0.035070166
198	0x3d4a75d3	0.049428772
199	0xbde5eecf	-0.1122719
200	0x3cdf4462	0.027254287
201	0xbd854e84	-0.06509116
202	0x3e07857d	0.13234515
203	0x3e26b88c	0.16281337
204	0x3d8ed474	0.06974116
205	0xbdb306ef	-0.08741557
206	0x3d605c32	0.054775424
207	0x3ab49d99	0.0013779878
208	0xbda27556	-0.07932536
209	0xba8be98c	-0.0010674461
210	0xbde670a1	-0.11251951
211	0x3e039e1e	0.12853286
212	0xbe21041b	-0.15724222
213	0xbd20ab4e	-0.03922587
214	0x3e103db7	0.14086042
215	0xbbbe82ab	-0.0058139167
216	0xbe099c7c	-0.134386
217	0xbd14f86e	-0.036369734
218	0x3d3c329e	0.04594671
219	0xbdcc6c5d	-0.09981606
220	0xbdf91471	-0.12162102
221	0x3d792025	0.06082167
222	0xbdcdca05	-0.10048298
223	0xbdb177d4	-0.086654335
224	0xbe145048	-0.1448375
225	0xbdaf09e7	-0.085468106
226	0x3ce44ecc	0.027869605
227	0x3e096e3b	0.13420956
228	0x3deec4c2	0.11658622
229	0x3dd5d6b4	0.10441342
230	0xbdd3b60b	-0.10337456
231	0x3da06027	0.078308396
232	0xbc6aa279	-0.014320963
233	0x3d48b317	0.04899892
234	0x3db98b42	0.090597644
235	0x3d4d1e4f	0.050077733
236	0x3b9df7ac	0.0048207846
237	0x3de580b9	0.112061925
238	0x3db86b1a	0.09004803
239	0xba6a70ea	-0.0008943217
240	0x3e2032c0	0.1564436
241	0x3d3aecea	0.045636095
242	0x3d205030	0.039138973
243	0x3e045d0a	0.12926117
244	0xbdc960b4	-0.09832898
245	0x3dd22f1b	0.10262891
246	0xbd920734	-0.0713028
247	0xbd0ba9d7	-0.03409752
248	0x3dbf3ea5	0.0933812
249	0xbdc85852	-0.09782471
250	0x3de17581	0.1100874
251	0xbd83db08	-0.06438261
252	0x3e1aa490	0.15101838
253	0xbdaab3fd	-0.08335111
254	0x3daaf3c5	0.083472766
255	0x3da73c5c	0.081658095

model_old.model.0.bias f4 [128]
0	0x3e42c288	0.1901952
1	0x3e29fc66	0.16600189
2	0x3e22de2e	0.15905067
3	0x3e634569	0.22194447
4	0xbd75de45	-0.060026426
5	0xbd7ca845	-0.06168391
6	0x3e037b0a	0.12839904
7	0x3e7e3ad6	0.24827132
8	0x3dcae167	0.09906273
9	0xbda1eec1	-0.07906867
10	0xbc8dfe86	-0.01733328
11	0x3e6b36fe	0.22970197
12	0x3e184f40	0.14873981
13	0xbcd1bc2b	-0.02560242
14	0x3db0f99e	0.08641361
15	0xbd3ae5f4	-0.045629457
16	0x3e823689	0.25432232
17	0x3e921425	0.28530994
18	0xbdab7d90	-0.083735585
19	0x3e902507	0.2815325
20	0x3d9d10ff	0.076692574
21	0xbcb71d81	-0.022352936
22	0x3e34423a	0.17603388
23	0x3e32de01	0.174675
24	0xbc652173	-0.013985026
25	0x3e9003d3	0.28127918
26	0xbca7e92f	-0.020496933
27	0x3e86d4fd	0.26334372
28	0x3d86b245	0.06576971
29	0x3d8573a9	0.06516201
30	0xbd0e2ec2	-0.03471256
31	0x3e9a1855	0.3009669
32	0x3e6f7b33	0.2338684
33	0x3e878521	0.26468757
34	0xbde1807c	-0.110108346
35	0xbcc8aa0c	-0.024495147
36	0xbcea219a	-0.028580476
37	0x3e8d0b68	0.27547765
38	0x3e98ae03	0.2982026
39	0x3e485fd8	0.19567811
40	0xbcc16e78	-0.023612246
41	0x3d0d1e7d	0.034452904
42	0x3e48dfa0	0.19616556
43	0x3e5217f3	0.20516948
44	0x3e86616a	0.26246196
45	0x3e8a001f	0.26953217
46	0x3e922e29	0.28550842
47	0xbd919edf	-0.071103804
48	0x3e368304	0.17823416
49	0xbd43f252	-0.047838517
50	0x3e293ffd	0.16528316
51	0x3e51364c	0.20430869
52	0x3e357dd9	0.17723788
53	0x3e51f03e	0.20501801
54	0x3e6ed166	0.23322067
55	0x3e5f3895	0.21798928
56	0x3e823b62	0.2543593
57	0x3d85a002	0.0652466
58	0x3da775d8	0.08176774
59	0x3daac3dc	0.083381385
60	0x3df236b7	0.11826842
61	0x3d539121	0.051652078
62	0xbcb3977f	-0.021922825
63	0x3e9598bb	0.29218087
64	0x3e4eb0ac	0.20184582
65	0xbe052406	-0.13002023
66	0x3e6d761c	0.23189586
67	0x3e80e53d	0.25174895
68	0x3e181a94	0.14853889
69	0x3e7b035f	0.24513005
70	0x3e9bf6ee	0.3046183
71	0xbdffbca6	-0.12487154
72	0x3e89fe58	0.2695186
73	0x3da61558	0.0810954
74	0xbd8edc8c	-0.0697566
75	0xbde9ff1c	-0.114256114
76	0x3ea537b9	0.32269076
77	0x3e931a4b	0.28730997
78	0x3e81a248	0.25319123
79	0x3e2e4687	0.17019092
80	0x3e5f85f6	0.21828446
81	0x3e2321df	0.1593089
82	0x3e8bd8af	0.27313754
83	0x3e806923	0.25080213
84	0x3e9ac1ab	0.30225882
85	0x3e6b6c31	0.2299049
86	0x3daa5763	0.08317449
87	0x3d833bbf	0.0640788
88	0x3e3d43ee	0.18482944
89	0x3e99be17	0.3002784
90	0xbcc7e814	-0.024402656
91	0x3e0f70ef	0.14007924
92	0x3cdbd5ee	0.026835408
93	0x3e82d318	0.25551677
94	0x3e91ab95	0.2845122
95	0xbcab31bf	-0.020897744
96	0x3e8a9bfe	0.27072138
97	0x3e36ebf8	0.17863452
98	0x3c991804	0.01868821
99	0x3e0c9523	0.13728766
100	0xbd5bd570	-0.053670347
101	0x3e4d51f2	0.20050791
102	0xbced6932	-0.028980825
103	0x3e10a1f3	0.14124279
104	0x3e825e3a	0.25462514
105	0x3e69adb1	0.22820164
106	0x3e7bf531	0.24605252
107	0x3e23ed93	0.16008596
108	0x3e555349	0.20832552
109	0x3e96d838	0.29461837
110	0x3dc53820	0.096298456
111	0x3e261e44	0.16222483
112	0x3e56dc34	0.20982438
113	0x3e17df6e	0.14831325
114	0x3e2619f2	0.16220835
115	0x3e8f56d4	0.27995932
116	0x3e7de5ff	0.24794768
117	0x3def0f73	0.116728686
118	0x3c7ef70a	0.015561828
119	0x3d5dcd28	0.05415073
120	0x3e087e01	0.13329317
121	0x3e3c128e	0.18366453
122	0x3e00c5e9	0.12575497
123	0xbd6ae764	-0.057349578
124	0xbd8547db	-0.06507846
125	0x3dca060c	0.098644346
126	0x3eb1c542	0.34720808
127	0x3d7cdb4f	0.061732586
