project/paper_notebooks/saved_variables/paper_notebooks/8/5-50epoch_20loop/looping-iteration-16/best_policy_agent1.pth (torch, 320501 bytes, 16 tensors)

model.model.0.weight f4 [128, 42]
00000000: 797a efbd 76cb 87bd a12e f83d 89fb 15bd
00000010: e386 0c3d 1f80 ec3d 56cf 9b3c 5fe5 f7bd
00000020: b707 943d d2f4 a8bb 6f84 e93d 9bea a93c
00000030: b851 33bc 6cf7 f9bc 14ee 913c 4254 a83d
00000040: c3bf c33b 80c0 b8bc ba3f 12be d65b 77bd
00000050: 4dbc 9c3c 37d4 6e3d 9789 e33d a570 b6bd
00000060: f3ed 8bbd c08d 023e 2611 f1bd 8063 b3bd
00000070: 0feb 14bc 9aa2 02bd 6bf4 013e 4b2a 0bbe
00000080: 5de2 063d c494 20bd c504 12be 221e 413d
00000090: 9cc8 6fbd e652 d33d 4682 12bb 0612 03be
000000a0: ab58 14bd 413d 30bd 0022 d43d d07c d13c
000000b0: 1fa9 74bd ec24 bb3d 22dd ba3c e9ff 7d3d
000000c0: 733d f43c e42b 31be 5fe2 1cbe 27bd e6bd
000000d0: 5003 d0bd eb80 033e 4d94 98bd fa5d 503d
000000e0: 7727 b73d 7635 1fbe bf6b 753d 930f 503d
000000f0: 168a 2dbe 0af3 883d af06 bebd 8459 da3d
00000100: 49e6 40bd 5198 a2bd 544c 0f3e 28b5 07be
00000110: 5098 ff3d c20c a23d 4340 f33b 0a9e 273b
00000120: 958f e43d e9d7 583d 06e6 94bd 29a8 30be
00000130: c66b 02be 2e8d a1bd f880 f3bd 27a1 a5bd
00000140: 7590 223d 42c1 e53d 17d9 3bbe 5753 fcbd
00000150: e31c 17bd f065 853d 0741 dcbc e5dd 35be
00000160: a215 233e 1481 943d 8f28 8dbc 6400 c53c
00000170: 40dc c23c 98c1 41be 3cc3 823d 64f2 c83d
00000180: f6c2 d9bd 7594 3e3c fe4f 3bbe 7c1c fd3d
00000190: 8ccd a4bd 9636 a73c 1d97 e7bc d97d 653d
000001a0: c377 f53b 9495 903d 8f69 fc3d f8d2 9cbc
000001b0: 31db 34bd f0d2 b8bc 644c 023e 3978 fdbd
000001c0: ee2d de3d 04a5 97bd 0e43 2c3e 821c dcbd
000001d0: 10cc 903d 8f9b cfbd be0a 50bd 656a de3d
000001e0: 164b 273e 6cd3 763d 75b9 6c3c 7942 223e
000001f0: 88c7 b43d 8496 eebd ac8e d4bd f4bd 24be
00000200: af65 d5bd 7d6a 953b c059 d2bd 82b0 c43d
00000210: 3b7f 0dbe b058 0d3e 4e3f a23d a77b fcbd
00000220: cbd4 2abe ffd4 08bd e5e7 9e3d c03f 5dbc
00000230: 3042 d33d 92d3 a8bb 0a6c a43d f34e 7abd
00000240: 7bd9 bdbd 2275 d93d 3028 e83d 1b24 03bc
00000250: 61f9 2dbe 8eeb 003d 6d40 31bd 5243 b43c
00000260: 7849 ab3d b34b 83bd 6fc0 033e 24c6 54bd
00000270: 4921 f53d 30d6 78bd 31e6 1c3b 68e3 02bd
00000280: a3b0 3a3d 0543 db3d d3a3 02be 7fa8 a73d
00000290: 1ce9 203e 49b3 b1bd 7588 01be 56e2 8abd
000002a0: 3f1e af3d f20d a43d 3c57 e0bd bc4b 99bd
000002b0: 59c8 4c3c 5bad 1bbd d1cf ab3d f919 c53d
000002c0: 23f3 76bd 5c0d 913c 5156 6c3d 4d33 523a
000002d0: cefe c0bd 601e e53d f36d e93d b936 c0bd
000002e0: a1ce 87bc 9038 bf3d 7f5a a53d 4ad1 f53c
000002f0: 7283 0dbd 9173 0fbe 711f 35be 304b c43d
00000300: 0f90 833d 7087 0bbe 240e 57bd acf3 413c
00000310: ea12 dabc 2597 0fbe b02c 0bbe 00c0 b43c
00000320: f11b 1cbe 20ff 09be 39f8 033e 503d 19bd
00000330: d03b 47be 4713 fe3c ac8a d2bd ca58 3ebd
00000340: b36e 31bd c168 a63c fdf3 27be 8ce0 d4bd
00000350: fea3 2b3d 738d f83d 8415 a1bd ce40 f73c
00000360: 5fcf 03be 3a74 57be b9b5 e53d 9585 e9bd
00000370: 6370 0e3d 02b3 04bb c54c 53be b532 50bd
00000380: b23e 883d 32c9 573d 4d3d 3ebb ff8d 6ebd
00000390: d57f e83c 9499 803d a368 90bc ccc8 2dbe
000003a0: 2ee6 e1bd 787d 923d 953c a7bd 7e1d b0bd
000003b0: 0db2 0d3e bd6e 7ebb e3b8 b83d a289 7abd
000003c0: ebd9 603c 7fd9 943d 2f47 2abd 76c7 10bd
000003d0: b269 993d b698 1cbd 48a3 cebd e770 fd3d
000003e0: 4cc5 d7bd 6857 373d 12d4 42bb e3b2 73bd
000003f0: 03e5 ebbd dd0c ec3d a3cb a9bd cf0d 3a3e
-0.11693282 -0.06630604 0.12118269 -0.036616836 0.034308325 0.11547875 0.019019764 -0.12104296
0.07228034 -0.005156138 0.11402213 0.020741751 -0.010944776 -0.030513488 0.01781372 0.08219196
0.0059737875 -0.022552729 -0.14282122 -0.060390316 0.019132758 0.058307853 0.111102276 -0.08908204
-0.068324946 0.12749386 -0.11770849 -0.087592125 -0.009089245 -0.03189335 0.12690894 -0.13590352
0.03293072 -0.039204374 -0.14259632 0.047147878 -0.058540925 0.10318546 -0.002235548 -0.12799844
-0.036217373 -0.043027166 0.103580475 0.02557221 -0.0597316 0.09137902 0.022810522 0.062011633
0.029814458 -0.17301899 -0.15320729 -0.11266547 -0.10156882 0.12842147 -0.07450161 0.050870873
0.08943074 -0.15547737 0.059917208 0.050796103 -0.16947207 0.06686981 -0.092786185 0.10661605
-0.047094617 -0.07939208 0.1399396 -0.132527 0.12480223 0.079125896 0.007423432 0.0025576376
0.111601986 0.052940283 -0.07270436 -0.17251648 -0.12736425 -0.07888256 -0.11889833 -0.08087378
0.039688546 0.112185016 -0.18344532 -0.12320583 -0.036892783 0.06513584 -0.026886476 -0.17760427
0.15926221 0.07251182 -0.017231254 0.024048038 0.023786664 -0.18921506 0.06384894 0.09811857
-0.10632889 0.011632075 -0.18292233 0.123589486 -0.080470175 0.02041177 -0.028270299 0.05602822
0.0074910834 0.0705978 0.12324821 -0.019143566 -0.04415435 -0.02256152 0.12724453 -0.12376446
0.10848604 -0.07404521 0.16822454 -0.10747625 0.07070172 -0.10137092 -0.050791495 0.10860137
0.16337237 0.06026022 0.014448513 0.1584567 0.0882712 -0.11649802 -0.10378775 -0.16088086
-0.10419785 0.0045598135 -0.10271025 0.09603979 -0.13818066 0.13803363 0.07922231 -0.12328272
-0.16682737 -0.033406254 0.07759074 -0.013503969 0.10315359 -0.0051521743 0.08028419 -0.061110448
-0.09269997 0.106180444 0.1133579 -0.008004214 -0.16989662 0.031474642 -0.04327433 0.022004757
0.083636224 -0.06410923 0.12866376 -0.051946774 0.11969239 -0.06075114 0.0023940916 -0.031955153
0.04557861 0.10706142 -0.12757806 0.08186435 0.15713924 -0.08676774 -0.1264971 -0.067814514
0.08550691 0.08010472 -0.10954139 -0.07485148 0.0124989385 -0.03800712 0.08389247 0.096240945
-0.060290467 0.017706566 0.057699505 0.00080185087 -0.094236 0.11187434 0.11397924 -0.093854375
-0.01657802 0.0933696 0.080739014 0.030007023 -0.034549184 -0.14008929 -0.17687775 0.095846534
0.06423961 -0.13625884 -0.05250372 0.011837881 -0.026620347 -0.14022501 -0.13591266 0.022064209
-0.15245034 -0.13476229 0.12887658 -0.037411988 -0.1945641 0.031015052 -0.10280356 -0.046471395
-0.04331846 0.020313622 -0.16401668 -0.103943914 0.041904442 0.12136354 -0.07865432 0.030182268
-0.12872075 -0.2104043 0.112163015 -0.11402432 0.03477515 -0.0020248299 -0.20634754 -0.050829608
0.06652583 0.05268211 -0.0029028237 -0.058240887 0.028381268 0.06279293 -0.01762802 -0.16971129
-0.110302314 0.071528375 -0.08165852 -0.08599375 0.13837452 -0.003882333 0.09019639 -0.061166413
0.013723831 0.072680466 -0.041571792 -0.03534647 0.07490863 -0.038231574 -0.10089737 0.1237505
-0.10535678 0.04476109 -0.0029728455 -0.05949677 -0.1151829 0.11525891 -0.08290794 0.1816933

model.model.0.bias f4 [128]
00000000: 4bf2 833e 426f b5bd 8e47 053c 5113 bcbd
00000010: 10de 3b3e 46cd 493e f721 7d3e b9ad 053e
00000020: d44b 973e fd07 723e 68c5 c6bd 9385 863e
00000030: b6b1 9c3e 04af bfbd 659a 343d 94da 803e
00000040: 3eb1 333e 698c 1a3e 6dc3 20bd f2fc 88bd
00000050: 0fdd 5ebd 02b1 143e 7f38 853e 6f2c a7bd
00000060: b057 9cbd 073c 8dbc 1b43 3c3e aa9c 87bd
00000070: 524b 07bd 72a8 1dbe f247 283e ae41 353e
00000080: 9811 d03d d60a 823e 146b 7f3e 61c7 7e3e
00000090: 5399 ba3d 42fa dcbd 91da dfbb b7bf 893e
000000a0: 43f3 213e d410 b9bd 0b39 963e d657 3c3e
000000b0: 1bfa 4d3e c514 963e aab7 5e3e 69ee 053e
000000c0: 500f 973e 25b0 8a3e c034 d5bd b9a6 c4bc
000000d0: 3efb 89bd c02a 893e ca71 6f3e 6d59 c43e
000000e0: d98f 73bd 3537 883e 8077 633e 3e95 4dbb
000000f0: 1e72 cd3e 3489 42bd 3706 663e 1c46 60bc
00000100: e8a8 8bbc 0b21 183e 3ba6 193e 0ea9 a5bd
00000110: 6027 6dbc 1c7c 5b3d be40 503d 64ea 813e
00000120: 266a 983e 678d 1a3d f6cd 8c3e f1ed 963e
00000130: 9b29 b63d b43e 56bd d280 9b3e 9b38 8b3e
00000140: b4f4 243e eb35 3c3e 6a1b dcbd 3684 96bd
00000150: 386a ddbd 6208 1f3e a054 8b3e ccb7 103e
00000160: adc9 7bbc 9bd7 ff3d 86b7 7a3d 7fba 8d3e
00000170: 1fd3 043e 0188 503e bfd3 923e 4389 753e
00000180: 4f20 4d3e 6931 a73e b42b d83d 96ba e5bd
00000190: f833 813e 31d0 6d3e 87de 723e 0a72 91bd
000001a0: e9d7 bfbd 9787 9d3e 60e0 fdbd fade 0c3e
000001b0: 586a 753e d47c 503e 3c2f 8fbd 3301 f13d
000001c0: 650f 6e3e 5324 12bd 2ed8 45bc 6d95 373e
000001d0: 8f60 0fbd 9d46 8e3d 7483 333e 6b8d 783e
000001e0: fbc7 ffbc 06b2 3a3d 5e50 8e3e 4313 1d3e
000001f0: bb00 8e3e 0d5c 843e af19 513e 1315 563e
0.25770792 -0.08859111 0.008134736 -0.09183372 0.18346429 0.19707212 0.24719988 0.13054551
0.2955004 0.2363586 -0.09705621 0.26273784 0.30604333 -0.093595535 0.044092555 0.25166762
0.17548081 0.15092625 -0.039248873 -0.066888705 -0.054410037 0.14520648 0.26019666 -0.08162772
-0.076339126 -0.017240537 0.18384974 -0.06621678 -0.033030815 -0.15396288 0.16433695 0.17700836
0.10159606 0.25398892 0.24943191 0.24880745 0.091112755 -0.107899204 -0.006831475 0.2690408
0.15815453 -0.09036413 0.29340395 0.18392882 0.20114939 0.2931272 0.2174975 0.13079228
0.2950387 0.27087513 -0.10410452 -0.02400528 -0.06737374 0.26790428 0.23383251 0.38349476
-0.059463356 0.2660462 0.22213554 -0.0031369473 0.40126127 -0.04749413 0.22463308 -0.01368859
-0.017048314 0.14856355 0.15004818 -0.08088885 -0.01447472 0.053585157 0.050842993 0.25374138
0.29768485 0.037732508 0.27500886 0.2947841 0.08894654 -0.052305892 0.3037172 0.27191624
0.16108972 0.18379943 -0.10747416 -0.07349436 -0.10811275 0.15530542 0.27213 0.14132613
-0.0153679075 0.12492295 0.061210178 0.27681348 0.12971161 0.20364381 0.28677174 0.23978142
0.20031856 0.32654884 0.10555211 -0.11217229 0.25234962 0.2322395 0.237177 -0.07101829
-0.093673535 0.3076751 -0.12396312 0.13756934 0.23966348 0.20360118 -0.06991431 0.11767807
0.2324806 -0.035679173 -0.012075467 0.17928095 -0.035004195 0.06947062 0.17530614 0.24272697
-0.031223288 0.045579933 0.2779569 0.15339379 0.27734932 0.2585148 0.20419954 0.20906477

model.model.2.weight f4 [128, 128]
00000000: 220d 943d f5db 6b3b d8f6 383c a5c0 2abd
00000010: b82b a0bc a622 263b 5994 633e e971 513d
00000020: df5f 263d 817a cd3c 2382 dc3d ed4c a33d
00000030: 2554 df3d d599 0abd 897e bc3c 9310 d73d
00000040: bf6a ee3d c9a0 afbd 39e3 9cbd 7ea3 863c
00000050: 9a55 c6bd 7c8c 1cbd 381c be3d da09 a3bd
00000060: b3f6 d13d 410e 95bd 3425 71bd 73e6 e6bc
00000070: 2666 35bd b3d0 153d 1afb 27bd 1d05 1dbd
00000080: d1cd 7cbd 7f7a 3bbd 83fd 2cbd 27f4 3bbd
00000090: 74fa cf3d e19d 8ebc 06d7 fdbc b9b3 f1b9
000000a0: 222c 80bd 3ce2 0b3e 095c 4c3d 80ba 233c
000000b0: 986c 4e3d 3d23 a4bb 46bc 5bbd c657 c13d
000000c0: d13a 843c bf90 88bd b3ff 4b3c 7a92 1bbd
000000d0: 8836 c4bd 36c8 db3c 85ff b9bd 3464 7c3e
000000e0: 8c24 bd3d 420c 89bd fa50 a73c 0205 323d
000000f0: 28db 7e3e 4d3a c13d 6d14 263e 2fa3 bf3d
00000100: 306f 21bd 2b68 82bd bee9 543d de7d 23bd
00000110: a99f 66bc 6883 61bc 3774 013d 27ce 173e
00000120: a42a 9bbc c744 b23c 72c0 9d3c e8dd bd3d
00000130: 1801 83bc 03ec 623d 3430 3bbc 87f3 133e
00000140: ff4d e23d ac3e a13c 8a6c 21bc 9d63 bcbd
00000150: e611 98bc dfc1 9f3d a250 3e3d 8084 42bd
00000160: 542b 83bc 48ba 18bd cdc2 6a3b ec9f dc3c
00000170: 919d 6fbc 2ec9 b7bc da51 59bd 233a f63d
00000180: 8d33 4f3d 4f62 013e ae83 1e3e 392a dfbc
00000190: 87e1 ec3d d5d4 48bd 8593 86bd a16d a4bd
000001a0: 4c27 e93d 0f1c 053e e001 3e3c 59b5 2e3d
000001b0: 9238 cebc a336 be3d 85fb 4b3c e9e1 9abd
000001c0: 0cff be3c 5f2a 7ebc 86c8 923d eb58 6b3c
000001d0: 72e9 a93d ee1c 333d c5d4 efbc 60cc ce3d
000001e0: a02f be3d bd5c 3fbd 7bf4 793e 16d8 ab3d
000001f0: cf0c 833d 6f0b 7ebc 1926 6f3d a926 663c
00000200: a117 efbc 4b37 8a3d e11a 97bc 9c2c 32bd
00000210: 0467 a23d 3477 c93d dfa7 c33d 1e54 c1bc
00000220: 2252 993d a5fb 6d3c bed3 18bd c71d f63d
00000230: 8f54 4c3d d6d5 a2bd 608e 0a3c 464a e73d
00000240: df95 b4bc bd2a c23d 0411 a4bd f85a a53d
00000250: 81d1 893d 321c c23d 30ca 593a dbb5 7cbd
00000260: a9e2 f33d 0a3e aa3d 25f3 bd3d 0370 86bd
00000270: 4a94 113d 2ae9 aabd 81dc d53d 6d83 b63d
00000280: 92eb 12bd a4b4 0f3d 843c ce3d 2714 ff3c
00000290: 6f7b ed3d 8beb 7ebd f507 e43c 1247 453d
000002a0: d49c 10bd 3a46 9f3d da21 53bd 180f 08bc
000002b0: 73a2 f0bc 9915 ed3b de01 e9bb 494c 3d3e
000002c0: 2ecf 873d ae4e 943d 497b 613d cb92 843d
000002d0: c7e7 5a3d ec0a 1abd 651c 173d 40a9 883e
000002e0: e072 cd3d c801 f8bc 5f57 d53d 42a4 4bbd
000002f0: 1acb 403e 8ef7 44bc 844c 043e 3234 d5bc
00000300: 7f59 09bd bb18 3cbd 9285 2abd f502 6d3d
00000310: f6ea 8c3d 8eba d13d 477b 08bb 6286 b73d
00000320: 7f84 a93d 3434 c13d 558d 2dbd 89db b23d
00000330: 2de3 49bd 2536 05bd cb76 a2bc 6cd6 243e
00000340: 1a6f ab3d b8dc 263c 82ea 833d 8c8e 55bd
00000350: 8071 853b c9f3 37bd ef77 023e d2d3 ef3d
00000360: b323 f33d 72a9 90bc 9660 8e3d 7cfb d63d
00000370: 5f00 87bd 1ba4 693d cb69 99bc e00e 86ba
00000380: f2ad bf3d 3bbf 033e d290 e73d 991e 163c
00000390: 3e6e 1b3e bc81 693d e533 f53d b247 b33d
000003a0: 350a 063d 1a20 c03d 7843 303d 22c9 8fbd
000003b0: a332 033e 5b5b df3d c6e4 ad3d 65c4 83bd
000003c0: 8f7f 963c db4a 4cbd 6276 243e 1cec ea3d
000003d0: fe83 c93d 6c36 d9bc 2438 1b3e 9874 953c
000003e0: 52e2 ca3d dbb1 943d 2a73 e93d 253f 583d
000003f0: e7cc a53d 83b4 9e3d 9459 9aba 86a7 423c
0.072290674 0.003598926 0.011289321 -0.041687626 -0.019552097 0.0025350242 0.22224559 0.051134024
0.040618774 0.025082828 0.10767009 0.07973657 0.10904721 -0.033838112 0.023009555 0.10501208
0.11641454 -0.08575589 -0.07660527 0.016435381 -0.09684296 -0.038219914 0.09282726 -0.079608634
0.10252132 -0.07278109 -0.05887337 -0.028186059 -0.04428687 0.036575984 -0.041010953 -0.038334955
-0.06171972 -0.04577112 -0.042233955 -0.04588714 0.10155192 -0.017409267 -0.03098632 -0.00046101006
-0.06258418 0.1366052 0.04989246 0.0099931955 0.05039653 -0.0050090835 -0.05364635 0.094405696
0.016141327 -0.06668233 0.0124511 -0.037981488 -0.095807135 0.026828866 -0.090819396 0.246476
0.092354864 -0.06691791 0.020424355 0.043461807 0.24888289 0.09434948 0.1621873 0.09357297
-0.039412677 -0.06367525 0.051980726 -0.03991496 -0.014076152 -0.01376424 0.03160497 0.14824735
-0.018941231 0.021761311 0.019256804 0.09270841 -0.015991732 0.05540086 -0.011425067 0.14448367
0.11050033 0.019683205 -0.009852538 -0.09198687 -0.018563222 0.0780065 0.046463616 -0.047489643
-0.016011871 -0.037287027 0.0035821677 0.026931725 -0.014624969 -0.022434797 -0.053056575 0.120228074
0.050586272 0.12635158 0.1547992 -0.027241813 0.115664534 -0.049031097 -0.06571106 -0.080287226
0.113844484 0.12998985 0.011597127 0.042653415 -0.02517346 0.09287765 0.012450104 -0.0756262
0.023314975 -0.015513032 0.07167153 0.014364461 0.08296479 0.04372876 -0.029276261 0.10097575
0.092864275 -0.0467193 0.24409668 0.083908245 0.063989274 -0.015505656 0.058385942 0.014047303
-0.029186072 0.067488275 -0.018445434 -0.043499574 0.07929805 0.09837189 0.09553503 -0.02359968
0.07486369 0.014525329 -0.037311308 0.12017398 0.04988533 -0.07950942 0.008456796 0.112934634
-0.02204412 0.09480808 -0.08011058 0.080739915 0.06729413 0.09478034 0.00083080214 -0.06169687
0.11908466 0.08312614 0.09274892 -0.06564333 0.03554181 -0.08345254 0.104424484 0.08911786
-0.03586919 0.03508438 0.10070136 0.03113754 0.11595809 -0.06223635 0.027835825 0.04816348
-0.035305813 0.077770665 -0.051545955 -0.00830438 -0.029374337 0.0072352407 -0.0071108183 0.18486132
0.06631313 0.072415695 0.055049215 0.06473311 0.053443696 -0.037608072 0.036892314 0.26691628
0.10031676 -0.030274287 0.10417055 -0.049717195 0.18827477 -0.012021912 0.12919813 -0.026025865
-0.033532616 -0.045922022 -0.04163129 0.05786415 0.06880753 0.102406606 -0.0020825432 0.08961178
0.08277225 0.09433785 -0.042371113 0.08733279 -0.049288917 -0.03252234 -0.019832036 0.1609742
0.083708 0.010184459 0.06441213 -0.052137896 0.004072368 -0.044910226 0.12741064 0.117103234
0.118720435 -0.017658923 0.06952016 0.104971856 -0.06591868 0.05704127 -0.018727204 -0.0010227822
0.09359349 0.12865917 0.11306919 0.0091625685 0.15178773 0.05700849 0.11972789 0.08753909
0.032724578 0.09381123 0.043033093 -0.07020785 0.12812285 0.109060965 0.08490901 -0.06433944
0.018371372 -0.049876075 0.16060784 0.114708155 0.09839629 -0.026515208 0.15158135 0.018244073
0.099064484 0.07260486 0.11398919 0.052794594 0.08095723 0.07749274 -0.0011775964 0.011880761

model.model.2.bias f4 [128]
00000000: e1f9 f33d 8005 333e 4d39 153e d5e5 403e
00000010: 2cea 363e a3b1 183e b42d df3d 7991 1c3d
00000020: 5fa4 4c3e f8b2 443e 04e3 a13d 1561 173e
00000030: 21fc 333e 53c9 3f3e 573b 193e 7174 e0bc
00000040: 3b36 3a3e 7d87 963d dcea 943d 62d8 403e
00000050: d7ca 863d 4c71 76bd 9bc4 2dbd 5df1 183d
00000060: 9d29 193e 84cf 043e 10fe 4d3e 57c7 51bd
00000070: dc2b 363e 1175 1c3e ac06 ea3d ccf8 d83c
00000080: 64a9 093e 249f 853d eea8 5b3e 3169 2c3e
00000090: b5e8 4d3e 89ba 3e3e abc9 dfbc 469e 233e
000000a0: 34d6 5d3e 4825 f4bc 8cd6 5f3e 5bcb 083e
000000b0: 6e3d 393e 27cd a13d 74d1 9f3d fd9a 703e
000000c0: c9c5 1b3e 060c d13d 6380 033e 8ace 0a3e
000000d0: 906c 213e fb0c 4c3e 38f3 babd 180f df3d
000000e0: e467 503e 731d 613e 73a2 df3d 2606 163e
000000f0: a805 83bd cae6 573e 90d2 603d 7232 e53d
00000100: 1339 df3d fa54 473e 50ff bd3d 71ce 94bd
00000110: e11a 413e f665 963d 43b9 df3d 1da7 863d
00000120: 6325 043e 16b9 d33c 946f 0c3e aa46 b6bd
00000130: 99ab 013e 60b5 223e e8f3 f13d 7faf f3bc
00000140: 38ae 3f3e eaf2 553e 3e49 23bb 9751 3fbc
00000150: 3ef3 9a3d 4374 1f3e 66db 8cbd b2e8 053e
00000160: a88b 26bd d5fe 5b3e 2528 353e e17e 193e
00000170: b50d 293e 94c8 9a3c 1891 dc3d 2e9a c33d
00000180: 70fc 413e b817 0a3e 1008 cf3d 972f a53d
00000190: bacd 4a3e 80f2 463e 276d 423d 7f70 f63d
000001a0: 1326 963d d277 f7bc 06a0 493e d41c 383e
000001b0: 6ab4 d13d 3115 253e c5be 5f3d 1bd4 aabd
000001c0: e2c1 ae3d 5c9a a23d ad6f b73d bcc6 133e
000001d0: 0fcc b43d 8c9e 073e bffc 02bd 381f 913d
000001e0: 7e9c ed3d ba31 07bc a5e1 0d3c d674 da3d
000001f0: 104d 363e 1ddb 9ebd f907 8b3d f7c2 0a3e
0.11912895 0.17482567 0.1457264 0.18837674 0.17862767 0.14911513 0.10897389 0.03822467
0.19984578 0.19208896 0.07904628 0.14783128 0.17576648 0.18729143 0.14964043 -0.027399274
0.1818475 0.07350061 0.07271358 0.18832543 0.065816574 -0.060166642 -0.042423826 0.037339557
0.1495728 0.12969786 0.20116448 -0.051215496 0.17790169 0.15279032 0.11427054 0.026485823
0.13443524 0.06524494 0.2145116 0.16837002 0.20108302 0.18625845 -0.027317842 0.15978345
0.21663743 -0.029802933 0.21859187 0.13358824 0.1808984 0.07900458 0.07803622 0.23496623
0.15212168 0.102073714 0.12841944 0.13555351 0.1576407 0.19926827 -0.091284215 0.10891551
0.20352131 0.2198389 0.109196566 0.14650783 -0.06397563 0.21084133 0.054888308 0.11191262
0.10899558 0.1946601 0.092772126 -0.07265938 0.1885791 0.07343666 0.10924008 0.06574843
0.12904887 0.025845092 0.13714439 -0.08900197 0.12663116 0.15889502 0.118140996 -0.029746769
0.18718803 0.20893446 -0.0024915482 -0.011677167 0.07565926 0.15571694 -0.068777844 0.13077047
-0.04066053 0.2148393 0.17691095 0.14989807 0.16509135 0.018894471 0.10769862 0.09550892
0.18943954 0.1348561 0.1010896 0.08065718 0.19805041 0.19428444 0.047467377 0.12033176
0.07331481 -0.030208502 0.1968995 0.17979747 0.102394894 0.16121365 0.05462529 -0.08341237
0.08533074 0.07939598 0.08956847 0.1443128 0.088279836 0.13244075 -0.03197932 0.07086033
0.11602114 -0.008251602 0.008659755 0.10666816 0.17802835 -0.07756636 0.0678863 0.13550936

model.model.4.weight f4 [128, 128]
00000000: ba06 9b3c b215 3cbb f04e 45bc bd28 8fbd
00000010: a1f8 20bc 79e1 80bd 9bbc 133d 2269 653d
00000020: 067d fa3b fab2 053d 6fa5 34bd f5ac 11bd
00000030: 37e3 fc3c 11d5 823d 8566 363d c29f 883d
00000040: c734 363d 9936 19bd 3f12 3fbd f538 8638
00000050: 5c50 833c 4e1a 523d b341 5c3d 62de 33bd
00000060: 7209 55bd a871 b7bd bf54 0d3d 2ec2 173d
00000070: 610d b5bd 9a0f 8d3d 785b cb3c 6428 983d
00000080: ef0a 673c 04d7 973d 3031 8fbc d76a 913c
00000090: 2831 c13c 2320 f0ba d08e 82bc cbff 523d
000000a0: e619 4bbc 0040 6437 3afd 96bd f618 83bd
000000b0: 23da f73b 118f 9ebc 12fe a43d becb b7bd
000000c0: ccdd 893c ba43 a1bd ee2a 40bc e4b9 9c3d
000000d0: d850 783d 9594 2b3d eb83 5fbd 1b93 a93d
000000e0: 1183 66bb fc03 8bbc 0e51 bdbd 4ee8 febb
000000f0: 3db2 82bd b217 063d 72d0 363d e08a 8f3d
00000100: e3e5 9a3c 8405 02bd 8e1e 6d3d 867a 703b
00000110: a9b4 df3b c068 0e3d 5671 88ba cf15 463d
00000120: 524d 7a3d 83f8 a23d 5a09 c83c 844b 67bb
00000130: 096e bebd 9ba1 aabd b62a 643a 5bfa adbc
00000140: 385a c838 8857 a03d 5c75 913d aa71 feba
00000150: 7e5a bbbd 76d9 863d 3be9 8d3d c7a5 9e3d
00000160: 38cb c73c 1f48 683d 6f97 933b 29ba 8abd
00000170: 7697 f93b 6824 9c3d 2870 b63b eb57 9c3b
00000180: 94f7 963a 50bc 6e3d 7b3f 7fbd a307 b93b
00000190: 318b cb3b 7699 713d b2bb bebd 624a 02bd
000001a0: acac b4bd ae86 72bc 531c 553d 2da4 4bbd
000001b0: 39cb 83bc 2bb6 bfbd 3a07 a63d 7753 54bd
000001c0: 59aa c9bc 5fa5 89bd 7583 6f3c e841 84bd
000001d0: be14 2cbd 868d 2ebd 2881 493d c4c5 a3bd
000001e0: 5a2e 5abd 78eb 7ebc cf50 c33c 3d30 933d
000001f0: 63ea d83b 95da 543c 84c7 9e3d 9dac 383d
00000200: 364d acbd 00cb 0c3d 9905 71bd f977 6f3d
00000210: 7411 84bd 393c c13c c612 9e3c ba7b 133d
00000220: 69e7 853d f372 fbbc 8d9a f539 6860 263c
00000230: 174d af3d 5faa e53c 9e10 f8bc 60c6 ffbb
00000240: a7f9 48bd e080 7cbb 126c 7e3d 4bb9 3cbd
00000250: 800e 21ba 3a6c 6cbd fde2 9d3d 00c0 213b
00000260: 3660 2fbd 4b5d 6a3c f9b6 a63d 0ad5 753d
00000270: 9b59 83bd 5161 273d 3c2b 88bc cddd 70bd
00000280: 94ac ecbb f472 07bc 2e6c 22bd 059f 1b3d
00000290: b947 28bd da59 993d 406c 37bb df88 98bd
000002a0: c812 18ba 28a6 d23c 4ee9 b3bd 69d4 88bd
000002b0: 7b10 b33c 0b0b 9d3c 9a5b 673d 6d65 493d
000002c0: d11d 953d f868 12bd b03c 423d 39d1 f33c
000002d0: 5560 24bd 507b 813d 740e 903c 50ac 71bc
000002e0: dd7c 923d ab21 d9bc 6192 3a3d a5b0 11bd
000002f0: b27d 8ebd b078 8b3c 4d16 b33d a6c6 9c3d
00000300: 5de4 72bc 509e 903d 17c2 dfbc 8e69 3c3d
00000310: 45ea 9ebd b929 4c3d 28ca 633d ec67 a9bc
00000320: b9f1 a0bd 44cc 8ebd 9bd0 29bd 6a6a 66bd
00000330: a9bb ee3c dd33 a3bd a496 ac3d ab3f 8f3d
00000340: 2784 893d 1ff3 82bd 70b5 55bc ca70 583d
00000350: 669d 97bd 898e 263d 5e16 6e3d cb6b 19bd
00000360: 684e a7bc 0e05 8ebd ac31 a4bd c75a 91bd
00000370: 02f0 b63c 01a0 55bd 791f 07bd c849 b6bc
00000380: 7dc2 8dbb 6c48 18bd 838d 56bd 06f3 303d
00000390: cc98 a1bd 1032 163d 4bbb 3ebd 04f3 ccbc
000003a0: 3206 903d eb34 9d3d 387c eb3c 5948 af3b
000003b0: 3ca0 17bd 1287 f8bc ab59 403c dd6f 9b3d
000003c0: 776a 133d 45c9 b0bd ea40 003d 0c40 4fbd
000003d0: d9b9 ca3c 1b9b 19bd 0af7 60bd d203 5dbc
000003e0: fc35 5bbd 9a62 5b3d 284f 74bc 01b6 93bd
000003f0: 8023 76bb e95c 5abd 3930 013d 367a 99bc
0.018924106 -0.0028699455 -0.012042746 -0.06990192 -0.009824903 -0.062930055 0.03606854 0.056008466
0.0076442985 0.03264139 -0.044103082 -0.035565335 0.030870063 0.063882954 0.044531364 0.066710964
0.044483926 -0.037405584 -0.04664826 6.400227e-05 0.01602953 0.051294617 0.053773593 -0.043913253
-0.05201096 -0.08957225 0.03450465 0.03705042 -0.088404424 0.068877414 0.02482389 0.07429579
0.014101728 0.07414058 -0.01747951 0.01775114 0.02358301 -0.0018320124 -0.015937239 0.051513474
-0.012396311 1.360476e-05 -0.07372518 -0.06401245 0.0075638457 -0.019355329 0.080562726 -0.089744076
0.016829394 -0.07874246 -0.011728985 0.07652643 0.060623974 0.041889746 -0.054569166 0.08280011
-0.0035173337 -0.016969673 -0.092439756 -0.0077791577 -0.063816525 0.03273744 0.044632383 0.0700891
0.018908447 -0.03174354 0.057890467 0.0036694123 0.0068269563 0.034767866 -0.0010409753 0.048360642
0.061108895 0.07957556 0.024418522 -0.0035292814 -0.09298331 -0.08331605 0.0008703874 -0.021237543
9.553548e-05 0.07829195 0.07102463 -0.0019412537 -0.091481194 0.06584446 0.06929251 0.07746463
0.024388894 0.056709405 0.0045041363 -0.067737885 0.0076169325 0.076241314 0.0055675693 0.004771223
0.0011517876 0.058285058 -0.0623164 0.0056466623 0.0062116613 0.058984242 -0.09313144 -0.03180922
-0.08821997 -0.014802618 0.052028965 -0.049717117 -0.016088115 -0.09360918 0.08106847 -0.05183741
-0.02461736 -0.06720995 0.014618744 -0.06457883 -0.04201197 -0.042615436 0.04919544 -0.07996705
-0.05326686 -0.01555907 0.023842243 0.07186935 0.006619738 0.012991567 0.07752898 0.04508649
-0.08413164 0.034373283 -0.05884323 0.058464024 -0.064486414 0.023588287 0.019296061 0.036006667
0.065382786 -0.03069446 0.0004684519 0.010154821 0.085596256 0.02803534 -0.030281361 -0.0078056306
-0.049066212 -0.0038528964 0.062114783 -0.046075147 -0.0006143823 -0.0577204 0.0770931 0.0024681091
-0.042816363 0.014304469 0.08140368 0.060017623 -0.06413575 0.040864293 -0.016622178 -0.058805276
-0.0072227214 -0.008267153 -0.03965395 0.03799345 -0.041084025 0.07487841 -0.0027988106 -0.07447981
-0.00058011385 0.025713995 -0.08784734 -0.06681139 0.021858444 0.019170305 0.056483842 0.049168993
0.07281078 -0.035744637 0.047421157 0.029762851 -0.040130932 0.06322348 0.017585017 -0.014750555
0.07152722 -0.026505312 0.045549754 -0.035568852 -0.06957568 0.017025322 0.08744488 0.07655077
-0.014824954 0.07061446 -0.027314229 0.045999102 -0.07759527 0.049844477 0.055612713 -0.020679437
-0.07858605 -0.06972554 -0.041458707 -0.056253828 0.029142218 -0.079688765 0.0842717 0.069945656
0.06714659 -0.06394028 -0.013043746 0.05284194 -0.07403068 0.040663276 0.0581268 -0.037456315
-0.02042313 -0.06934558 -0.08017287 -0.070973925 0.022331242 -0.052154545 -0.032989 -0.022251979
-0.0043261633 -0.037178442 -0.05238105 0.043200515 -0.07890472 0.036668837 -0.046565335 -0.025018223
0.07032432 0.07676109 0.028745756 0.0053492007 -0.037018046 -0.030337844 0.0117401285 0.075896956
0.035990205 -0.08632139 0.031311907 -0.05059819 0.024746822 -0.037501436 -0.054923095 -0.01348968
-0.05351828 0.05356083 -0.01491145 -0.07212449 -0.003755778 -0.053311262 0.03154013 -0.018735033

model.model.4.bias f4 [128]
00000000: 7146 583c 87cc 053b f252 443e bf6b 363d
00000010: 0edf 15bc 14cd 5f3c b4ec 543e 2af5 143e
00000020: 3bac 733d 3e0d 233d a5a8 ba3d 0727 da3c
00000030: 2400 1d3e 4b7f fcbb 29b4 a43d 6a9a 013d
00000040: 033b 393c a2a0 243e 7988 983d 65b1 4b3d
00000050: 4c2c d2bc cdc8 063e 5f3d 96bd 1b8d 55bb
00000060: 85dd 7b3d b660 f93d 3618 e53d 09d7 213e
00000070: ae89 253e 17fc d93c 005a 68bd 5003 f83d
00000080: 5ed0 553e 0ef8 80bd 6218 c83c 887f cc3d
00000090: 2893 cfbb 27c0 af3c 17ef 523c 38cc 4f3e
000000a0: bb60 703d b0fe f13d 1459 423d 606a 8fbd
000000b0: 62e9 723c 311f 403e 6f06 163c 50fd 203e
000000c0: f5a1 70bc 104d 70bd 1a6f 07bd 1e1d 8a3c
000000d0: 728d 033b 9449 e83d f835 5d3d 1855 57bd
000000e0: 8086 373a e163 8bbd b8a0 36bd 4a60 ffbc
000000f0: e3cb a6bd 83f6 363e 02e4 72bc 9fef 323d
00000100: 5410 8b3c 13fc 0abc 7614 b3bc 6c79 39bd
00000110: e07c 323e 6605 053d 8d02 cd3d 97a6 fdbc
00000120: 1d9a f43d adee 8abb 7083 db3d 0cc2 6a3e
00000130: 7e4a aabd 8d9e 513d 655a 013e a243 9f3d
00000140: af1c 963d a379 6b3e 3e1c afbd 86d9 413c
00000150: 9897 213e 8ca9 7fbd 60f7 acbd 6e64 05bd
00000160: 8015 8f3d dd76 d13d 6737 a4bd d9f3 7c3c
00000170: b22f 2f3e c834 d0bc 7764 5e3d 1930 4f3b
00000180: d999 25bd 8709 49bd 845a 8b3c 220e fd3d
00000190: 94ca 363e ab21 123e 7ea5 d93c 1150 913d
000001a0: 0aa0 113e 1991 af3c 6890 a4bc c255 913d
000001b0: 6830 2c3e 5758 70bd 6d7b 153e 417c b5bd
000001c0: 667c 0e3e 98c4 56bd a44a 063e a931 773c
000001d0: 6ced 383d ee06 c43d c2d2 843d bec4 123e
000001e0: af0e 13bc 30c6 7fbd 3b70 18bd 645b c13d
000001f0: d427 c43d 7066 98bb e4e1 7a3d afb9 4d3d
0.013200388 0.0020416097 0.19172266 0.04453635 -0.009147419 0.013659734 0.2079342 0.14546648
0.059490424 0.03980755 0.09114198 0.026629938 0.15332085 -0.007705604 0.08042175 0.0316414
0.011305573 0.16076902 0.07447905 0.049729723 -0.025655888 0.13162537 -0.07335924 -0.0032585326
0.061490554 0.12176649 0.111862585 0.15804686 0.16165802 0.026609464 -0.056726456 0.12110007
0.20880267 -0.06297313 0.02442569 0.09985262 -0.006334681 0.02145393 0.012874386 0.20292747
0.058686 0.11816156 0.047448233 -0.07002711 0.014826151 0.18761899 0.009156807 0.15721631
-0.014687051 -0.058667243 -0.03306494 0.016859587 0.0020073322 0.11342159 0.054006547 -0.052571386
0.0007000938 -0.0680616 -0.044586867 -0.031173844 -0.08144357 0.17867474 -0.014824869 0.04368555
0.01697556 -0.008482951 -0.021860342 -0.045281813 0.17430449 0.03247585 0.10010252 -0.030963225
0.11943457 -0.004239878 0.10718429 0.22925586 -0.083149895 0.051176596 0.12632139 0.07776572
0.0732969 0.2299562 -0.08550309 0.011831647 0.15780485 -0.062417552 -0.084456205 -0.03256648
0.06986523 0.102277495 -0.0801838 0.015438997 0.17108038 -0.025415793 0.05429503 0.0031614362
-0.040429924 -0.04908135 0.017010935 0.12356211 0.17850715 0.14270656 0.02656817 0.070953496
0.14221206 0.021431493 -0.02008839 0.07096435 0.1681534 -0.058677997 0.14597864 -0.0886159
0.13914642 -0.05243358 0.1311441 0.0150875235 0.0451483 0.09571634 0.06485511 0.14332864
-0.008975669 -0.062444866 -0.037216406 0.094412595 0.09577909 -0.0046508834 0.061250582 0.05022591

model.model.6.weight f4 [7, 128]
00000000: fa7c debc 1f92 43bd 798b b33d 16ec 803d
00000010: 45dd 9b3d ebfd b83d d8a3 bd3d 7626 673d
00000020: 01ec debc 1069 37bd d980 31bd fc6e ccbc
00000030: a70d a13d f06b 85bd 3f35 a73d 3f54 2d3c
00000040: 2120 733c b842 753d c907 10bd be32 fe3c
00000050: 96d9 85bd 0300 38bc 5d1e a83d 4d79 cd3d
00000060: eb6b 933d 426d 0fbd 7a38 923c d261 f33d
00000070: baca e53d 7c15 12ba 245b 92bd d7e3 323d
00000080: a1fe 053d b8c2 b8bc 4edf b53c 52e6 653d
00000090: cd5c 3c3d 41be 97bd 970e 97bd 8a89 c23d
000000a0: 5a36 28bd e9cf 843d 2f19 b3bc bd76 8abd
000000b0: 6e3e c5bc 635b 7d3d d3d4 2fbc a0d2 a53d
000000c0: 1a30 4d3d e22a 5cbd 5255 7e3c 244f f53d
000000d0: b82c 2abc 7e89 953d 4bda 5dbc a6c4 773d
000000e0: 983f cb3c 80bf 903a 0013 0d3d a537 a53d
000000f0: c183 903d 51cf 4e3c 94a7 bebc f6e0 3cbd
00000100: 705b b43c e3e5 2c3d 69ed a43c 3208 9e3b
00000110: 54a5 893d 7eac 75bd 7687 e83d 8bd7 4e3d
00000120: 375f ed3d b4ae 80bd 3d38 0ebd 01f9 743d
00000130: 5972 92bd bae9 28bd f6e9 5a3d d42b 163d
00000140: e815 803d f58d 0a3e 7d47 963d 05ad 85bc
00000150: d82b a4bc 7b06 a4bd 5058 f13c 2360 af3d
00000160: 6f6c 86bd 8a0c 09bd 140a 0d3d 1a99 6d3d
00000170: 1097 ed3d fa6e 91bd 33d7 9cbc b48c 983d
00000180: 783d 41bc 2c14 773d f04d e63b 537c 013e
00000190: 6fb9 e53d 1ce6 853d b16c 8c3d 5b9f 053e
000001a0: 2b8d fe3d f2e0 8e3d 1816 dbbc 399d 013e
000001b0: 2e6e e23d 4370 83bc c09b bf3d f51c 973d
000001c0: b5d0 cb3c 2487 4d3d cfcb 533d 484f 9c3d
000001d0: e37b 1a3d c7d8 413b d1d9 ddbb f568 6d3d
000001e0: f00d 313d 4613 243d 1113 953d 8c52 b03d
000001f0: d6a2 853d 6f75 a83d 91d9 b43d 0fe6 5b3d
00000200: 259e 9a3d a825 8fbc a226 863d 49c4 7a3d
00000210: fc12 02bd 3cca a23c afeb d73d 9d43 423d
00000220: 008f 443d 9ee7 843d 3929 29bb 9c85 21bb
00000230: 466d e83d 3bf4 9fbd d604 94bd f624 0fbd
00000240: fded 05bd e987 a5bc ae45 c7bc b28f b63d
00000250: ebb1 54bd d679 d93d 8e39 e9bc cb30 45bc
00000260: 2521 3ebd 7fe9 13bd 754a 0a3e 3232 c23d
00000270: a69e c23d f82c 8d3d 2a5d 663d c3ad f13c
00000280: 77c2 103e 10fb c33c 8174 a73d 2869 fa3c
00000290: 4836 93bd aa06 f2bc 57a9 a0bd a0c0 36bb
000002a0: b9a9 94bc 395a c93d 5139 193d 9ac2 82bd
000002b0: 74e3 b3bc b22d 2c3d 5982 c23c b114 ccbc
000002c0: bcf2 adbc 5caa f73c 646b e63c 5e3b 383b
000002d0: 7209 a23d dc46 843d 5d61 5a3c bc33 8b3c
000002e0: 705d f5bb 409f 92bd c029 f23b 35bf 853d
000002f0: d04f 86bc 4642 ba3d daad e13b f5fb 423b
00000300: a549 b4bd 9082 0a3d 40d2 85ba ac65 a8bc
00000310: d36b 483d 4088 b6bc 41ef 9b3c cf93 923d
00000320: b408 963d 74b3 a0bc 1e0d 0f3e 8c17 0f3e
00000330: 0308 b43d 648e 333c c0d1 ba3a 0087 01bd
00000340: 508f 1e3c ae97 143e ed3a a43d 0f47 a2bd
00000350: b16d 393d 91fe ad3d 0089 1d3b f8e0 b1bd
00000360: 13c6 123c 8437 a63d c1e1 48bd 407d 89bd
00000370: 2d54 3b3d a1fb 9c3d 958e 50bd 05fa c7bc
00000380: 0087 14bc 3a7f 93bd 6a3d 733d c005 d83d
00000390: 9c3c de3d 3324 153e f213 283d 8c80 f13d
000003a0: b293 f13c 2ed5 8c3d 2a0a 4c3d 326e d33d
000003b0: df9e babc 6839 10bd 9618 693d c598 adbd
000003c0: 491d 483d 26ef 8d3d 891d be3c 387d 023c
000003d0: d4cb 9f3c 61fd 03bd d4be 52bc b35c a03d
000003e0: 2c13 59bc a142 36bd 3048 83bc 1011 e43d
000003f0: 026b fcbc e623 213d cdd0 183d e69e 6b3d
-0.027159203 -0.047746774 0.08766837 0.0629503 0.07610563 0.09032806 0.09259766 0.056433164
-0.027212145 -0.04477793 -0.04333577 -0.024955265 0.07863932 -0.06514728 0.08164453 0.010579168
0.014839203 0.05987808 -0.035163675 0.031030055 -0.06535642 -0.011230472 0.08208916 0.10032902
0.07198318 -0.035016306 0.017849196 0.11883892 0.11220308 -0.00055726594 -0.0714629 0.043674316
0.032713536 -0.022553787 0.022201207 0.056127854 0.04598694 -0.07409335 -0.0737583 0.0949889
-0.04106746 0.06484968 -0.021862594 -0.06760929 -0.02407762 0.06185473 -0.010731894 0.08096814
0.0500947 -0.053751834 0.015523272 0.119779855 -0.010386638 0.07301615 -0.013540815 0.060490273
0.024810597 0.00110434 0.034441948 0.08067254 0.0705638 0.01262267 -0.023273267 -0.046112977
0.022016257 0.042211425 0.020132737 0.0048227543 0.06720987 -0.059978954 0.11353962 0.050498527
0.115904264 -0.06283322 -0.0347216 0.05980778 -0.07150716 -0.041238524 0.05344578 0.03666289
0.06254178 0.13530715 0.07337854 -0.016317854 -0.020040438 -0.080090486 0.029461056 0.085632585
-0.06563651 -0.033459224 0.03443344 0.058007337 0.116010785 -0.07101245 -0.019145584 0.07448712
-0.01179444 0.06032197 0.007028334 0.12645082 0.11217009 0.065380305 0.06856669 0.1304907
0.124292694 0.06976499 -0.026743934 0.12657632 0.11056171 -0.016044741 0.09355879 0.0737857
0.024879793 0.05017771 0.05170804 0.07632309 0.037715804 0.0029578672 -0.0067703505 0.057961423
0.043226182 0.040057443 0.07279027 0.086094946 0.06525199 0.08225524 0.0883056 0.053686198
0.07549695 -0.01747401 0.065503374 0.06122235 -0.031756386 0.019871823 0.10543 0.047427762
0.047987938 0.0648949 -0.0025811924 -0.0024646288 0.11348967 -0.07810255 -0.07227485 -0.034947358
-0.032697666 -0.020206409 -0.024325218 0.089141265 -0.05192749 0.106189415 -0.028469827 -0.012035559
-0.046418328 -0.03611135 0.13504966 0.0948223 0.09502916 0.06893343 0.056241192 0.029501801
0.14136682 0.023923427 0.08176518 0.03056772 -0.07188088 -0.029544193 -0.07844799 -0.002788581
-0.018147336 0.09831662 0.037408177 -0.063847736 -0.021959044 0.042035766 0.023743795 -0.02491221
-0.021233909 0.0302326 0.02812738 0.0028111557 0.07911958 0.06458828 0.013328877 0.016992442
-0.0074879453 -0.07159281 0.007390231 0.065306105 -0.01639548 0.09094672 0.00688718 0.002975223
-0.08803109 0.03381592 -0.0010209754 -0.020556293 0.048930954 -0.022281766 0.019034984 0.071570985
0.07325879 -0.01961682 0.13969848 0.13973826 0.087905906 0.010959242 0.0014253184 -0.031622887
0.009677723 0.14510986 0.08019052 -0.079237096 0.045270626 0.0849582 0.0024037957 -0.086854875
0.008958357 0.081160575 -0.04904342 -0.06713343 0.045734573 0.07665182 -0.050917227 -0.02441121
-0.00906539 -0.07202001 0.05938474 0.10547972 0.10851404 0.1456459 0.041034646 0.117920965
0.029489372 0.06876598 0.04981438 0.103237525 -0.022780834 -0.035210997 0.056908213 -0.08476404
0.048856054 0.069303796 0.023207443 0.007964425 0.019506373 -0.032224063 -0.01286288 0.07830181
-0.0132492 -0.044497136 -0.016025633 0.11136067 -0.030812744 0.039340876 0.037308503 0.057524584

model.model.6.bias f4 [7]
00000000: 51b6 eb3d fb7d 833e e02c 173e b3e7 0c3d
00000010: f719 f73d a9ee 9e3d c1b3 ca3d
0.115093835 0.25682053 0.14763212 0.034400653 0.12065499 0.077603646 0.098975666

model_old.model.0.weight f4 [128, 42]
00000000: 4134 efbd ccb2 87bd 406e f83d 6ebb 15bd
00000010: bbf1 0c3d 61b6 ec3d ae59 9c3c 1b9c f7bd
00000020: 460f 943d 5194 a5bb 16a4 e93d 9984 aa3c
00000030: 03fc 31bc c9aa f9bc 7a00 933c 3659 a83d
00000040: 9925 c73b 80c0 b8bc 0233 12be 1b13 77bd
00000050: 9e18 9d3c c357 6f3d d18a e33d 613f b6bd
00000060: f3ed 8bbd ba90 023e 18f2 f0bd 2861 b3bd
00000070: cde3 12bc 26a0 02bd 790c 023e 4b2a 0bbe
00000080: 97ed 063d 424e 20bd cefe 11be 5797 413d
00000090: efc5 6fbd e17f d33d 4682 12bb ef0d 03be
000000a0: 0133 14bd 413d 30bd 9d42 d43d 15a3 d13c
000000b0: 6e6a 74bd 683d bb3d 2254 bb3c e040 7e3d
000000c0: f388 f43c 2a1c 31be 5fe2 1cbe a69c e6bd
000000d0: 72f2 cfbd 628c 033e 6972 98bd fa5d 503d
000000e0: 1448 b73d 7635 1fbe 72a5 753d 930f 503d
000000f0: d888 2dbe c407 893d af06 bebd a478 da3d
00000100: 49e6 40bd 0276 a2bd 544c 0f3e 28b5 07be
00000110: d3ab ff3d c20c a23d f53a f53b 0a9e 273b
00000120: afaa e43d e9d7 583d 06e6 94bd 0aa1 30be
00000130: c66b 02be b26d a1bd f880 f3bd 4083 a5bd
00000140: 7590 223d 42c1 e53d 64d0 3bbe 5753 fcbd
00000150: 99a3 16bd 1078 853d 5f67 dbbc cfcc 35be
00000160: 7230 233e 0cb6 943d 809c 8cbc 7efe c53c
00000170: d7f1 c23c d1a6 41be a1de 823d ee1c c93d
00000180: 8693 d9bd 3b28 3f3c 1233 3bbe 7920 fd3d
00000190: 549c a4bd 9636 a73c 011e e7bc 39d3 653d
000001a0: 81db f63b 8dd0 903d c36a fc3d 8f04 9cbc
000001b0: 31db 34bd 89bd b8bc a65d 023e f875 fdbd
000001c0: 466a de3d cfa3 97bd 235b 2c3e 821c dcbd
000001d0: f3d0 903d 0870 cfbd e0f2 4fbd 30a4 de3d
000001e0: bd4b 273e 6f31 773d 75b9 6c3c 3e46 223e
000001f0: 28dc b43d 8496 eebd e249 d4bd 7bb7 24be
00000200: b72a d5bd 9ab0 973b 6226 d2bd efe9 c43d
00000210: b56e 0dbe d67d 0d3e dd40 a23d 1144 fcbd
00000220: b1c4 2abe b287 08bd 0017 9f3d a1a0 5cbc
00000230: 1584 d33d d983 a8bb 64a2 a43d f34e 7abd
00000240: 6bbf bdbd 119f d93d 624a e83d 2913 01bc
00000250: 61f9 2dbe 0853 013d 6d40 31bd 4658 b43c
00000260: 306b ab3d c53f 83bd f9e0 033e 24c6 54bd
00000270: 1653 f53d 30d6 78bd 3252 1d3b 6390 02bd
00000280: 81c8 3a3d 3c81 db3d d3a3 02be 31d7 a73d
00000290: 1ce9 203e eca8 b1bd 237e 01be 56e2 8abd
000002a0: 8e5b af3d 642c a43d b132 e0bd 4038 99bd
000002b0: deab 4d3c 2b80 1bbd 1fe7 ab3d 5057 c53d
000002c0: 95d1 76bd 0990 913c f479 6c3d ae13 5c3a
000002d0: 68ee c0bd ac2d e53d c89d e93d b936 c0bd
000002e0: 0470 87bc 9038 bf3d 0669 a53d 63f4 f53c
000002f0: cf56 0dbd 6d5a 0fbe 711f 35be 5a65 c43d
00000300: 0f90 833d 7087 0bbe aa01 57bd acf3 413c
00000310: 6e74 d9bc 2597 0fbe df24 0bbe 00c0 b43c
00000320: f11b 1cbe 82f9 09be 39f8 033e 70e9 18bd
00000330: d03b 47be 2c3e fe3c ac8a d2bd ca58 3ebd
00000340: 655c 31bd c168 a63c 0dee 27be 8ce0 d4bd
00000350: 59b8 2b3d ce97 f83d 420b a1bd 0a5f f73c
00000360: 83c8 03be d46f 57be b9b5 e53d ed7d e9bd
00000370: 0389 0e3d b573 03bb 1149 53be b532 50bd
00000380: 6148 883d 32c9 573d cbb5 3cbb ff8d 6ebd
00000390: 59a7 e83c 23a6 803d a368 90bc 17c4 2dbe
000003a0: 2ee6 e1bd e184 923d 953c a7bd 7e1d b0bd
000003b0: 18b6 0d3e bd6e 7ebb ebc2 b83d a289 7abd
000003c0: 6f3e 613c 7fd9 943d 2f47 2abd b2b0 10bd
000003d0: b269 993d 1d85 1cbd 48a3 cebd a57c fd3d
000003e0: 4cc5 d7bd 6857 373d f097 41bb e3b2 73bd
000003f0: 62bd ebbd 7e25 ec3d 50ad a9bd 0d1d 3a3e
-0.116798885 -0.066259 0.121304035 -0.0365557 0.03441022 0.115582235 0.019085731 -0.12090322
0.07229476 -0.005053081 0.1140825 0.02081518 -0.010863307 -0.030476945 0.017944563 0.08220141
0.00607748 -0.022552729 -0.1427727 -0.060320955 0.019176777 0.058433305 0.111104615 -0.08898807
-0.068324946 0.12750521 -0.11764926 -0.087587655 -0.008965445 -0.03189101 0.1270007 -0.13590352
0.032941427 -0.039137132 -0.14257357 0.04726347 -0.058538374 0.10327125 -0.002235548 -0.12798284
-0.036181454 -0.043027166 0.10364268 0.025590459 -0.05967181 0.09142572 0.022867266 0.06207359
0.029850459 -0.172959 -0.15320729 -0.11260347 -0.10153665 0.1284652 -0.07443697 0.050870873
0.08949295 -0.15547737 0.059972234 0.050796103 -0.16946733 0.06690934 -0.092786185 0.106675416
-0.047094617 -0.079326645 0.1399396 -0.132527 0.12483945 0.079125896 0.007483835 0.0025576376
0.11165368 0.052940283 -0.07270436 -0.17248932 -0.12736425 -0.07882251 -0.11889833 -0.080816746
0.039688546 0.112185016 -0.18341213 -0.12320583 -0.036777113 0.06517041 -0.02678269 -0.1775391
0.15936449 0.07261285 -0.017164469 0.024169203 0.023796959 -0.18911292 0.06390119 0.09819971
-0.10623841 0.011667307 -0.182812 0.12359709 -0.0803763 0.02041177 -0.02821255 0.05610964
0.007533491 0.07071028 0.12325051 -0.019045142 -0.04415435 -0.022551315 0.12731037 -0.123760164
0.10860114 -0.07404291 0.16831641 -0.10747625 0.07071104 -0.1012879 -0.050768733 0.1087116
0.16337486 0.060349878 0.014448513 0.15847108 0.08831054 -0.11649802 -0.103656545 -0.16085617
-0.10408538 0.004629207 -0.10261227 0.09614932 -0.13811763 0.13817534 0.07922528 -0.1231767
-0.16676594 -0.033332534 0.07768059 -0.013466031 0.10327927 -0.0051426706 0.08038786 -0.061110448
-0.09265026 0.10626043 0.113423124 -0.007878103 -0.16989662 0.031573325 -0.04327433 0.022014748
0.08370054 -0.064086474 0.12878789 -0.051946774 0.11978738 -0.06075114 0.002400529 -0.03187598
0.04560137 0.10718009 -0.12757806 0.081953414 0.15713924 -0.086747974 -0.12645774 -0.067814514
0.085623845 0.08016279 -0.109471686 -0.07481432 0.012553183 -0.037964027 0.08393692 0.09635794
-0.060258467 0.017768877 0.05773349 0.00083952665 -0.094204724 0.11190352 0.114070475 -0.093854375
-0.016532905 0.0933696 0.08076672 0.03002376 -0.034506615 -0.13999338 -0.17687775 0.09589644
0.06423961 -0.13625884 -0.05249182 0.011837881 -0.026544776 -0.14022501 -0.13588284 0.022064209
-0.15245034 -0.13474086 0.12887658 -0.037332 -0.1945641 0.031035505 -0.10280356 -0.046471395
-0.043301005 0.020313622 -0.16399403 -0.103943914 0.041923855 0.121383294 -0.078634754 0.030196685
-0.12869458 -0.21038753 0.112163015 -0.114009716 0.034798633 -0.002005798 -0.20633341 -0.050829608
0.0665443 0.05268211 -0.002879488 -0.058240887 0.02840011 0.06281688 -0.01762802 -0.16969334
-0.110302314 0.07154251 -0.08165852 -0.08599375 0.13838995 -0.003882333 0.09021553 -0.061166413
0.0137477955 0.072680466 -0.041571792 -0.03532476 0.07490863 -0.038212884 -0.10089737 0.1237729
-0.10535678 0.04476109 -0.0029540025 -0.05949677 -0.11510731 0.115305886 -0.0828501 0.18175144

model_old.model.0.bias f4 [128]
00000000: b105 843e 754c b5bd 5f57 073c 37c9 bbbd
00000010: 10ff 3b3e d4da 493e 8f38 7d3e 99bc 053e
00000020: d960 973e 2e1a 723e 7d9d c6bd b293 863e
00000030: 4fc6 9c3e fdaf bfbd d43b 353d 20eb 803e
00000040: f8da 333e 48b5 1a3e 44d9 20bd b4c1 88bd
00000050: 8d76 5fbd 2ec7 143e 9e49 853e d4fe a6bd
00000060: 9d1d 9cbd 7ccb 8cbc 8564 3c3e c990 87bd
00000070: 03f2 06bd 72a8 1dbe 6a59 283e 405e 353e
00000080: 5c45 d03d 721f 823e b782 7f3e 11ef 7e3e
00000090: 1bdb ba3d 1838 ddbd 565c dbbb 8bd3 893e
000000a0: 3e1c 223e 84cc b8bd 4e4e 963e 4667 3c3e
000000b0: 6323 4e3e 3e2a 963e d590 5e3e 490d 063e
000000c0: 771c 973e c6c4 8a3e c034 d5bd db8b c3bc
000000d0: 8e3a 8abd 3f3f 893e c985 6f3e fe6a c43e
000000e0: b936 73bd 3b4b 883e f89f 633e fbc6 4cbb
000000f0: 6a84 cd3e 314a 42bd ed28 663e ef62 5ebc
00000100: f8ef 8abc d147 183e 62d0 193e cf6c a5bd
00000110: 23c6 6bbc deea 5b3d 96c2 503d 71f7 813e
00000120: f27b 983e 87e0 1a3d 63e3 8c3e 2bfe 963e
00000130: 813f b63d c09c 55bd 1096 9b3e 224b 8b3e
00000140: 0003 253e f955 3c3e 57cf dbbd 1c87 96bd
00000150: fb41 ddbd 7528 1f3e cb6a 8b3e d0df 103e
00000160: b2af 79bc 4911 003e 2106 7b3d 50c6 8d3e
00000170: 0cca 043e 91b0 503e 1de8 923e 2faf 753e
00000180: 5847 4d3e 0647 a73e 535d d83d 8f0b e6bd
00000190: ff46 813e c1fa 6d3e c10a 733e 0a72 91bd
000001a0: ac95 bfbd e09a 9d3e 60e0 fdbd 7b08 0d3e
000001b0: 4495 753e 9aa5 503e b012 8fbd 754c f13d
000001c0: f939 6e3e 4b82 11bd b5bf 44bc e2a6 373e
000001d0: 55ed 0ebd 1975 8e3d 8d9e 333e 77b7 783e
000001e0: 10ba febc 7708 3b3d 9761 8e3e b83d 1d3e
000001f0: 2c16 8e3e d866 843e 6144 513e a03d 563e
0.25785592 -0.08852474 0.008260577 -0.09169238 0.18359017 0.19712383 0.24728607 0.13060226
0.29566076 0.236428 -0.09698007 0.26284558 0.30620047 -0.09359739 0.04424651 0.25179386
0.17563999 0.15108216 -0.0392697 -0.06677571 -0.05455642 0.14529106 0.26032728 -0.08154073
-0.07622836 -0.017186873 0.1839772 -0.066194125 -0.032945644 -0.15396288 0.16440359 0.17711735
0.10169479 0.25414616 0.24952208 0.24895884 0.09123822 -0.10801715 -0.006694357 0.26919207
0.15831086 -0.09023383 0.29356617 0.1839877 0.20130686 0.29329103 0.21734937 0.13091005
0.29513904 0.2710325 -0.10410452 -0.0238704 -0.0674945 0.26806065 0.23390879 0.3836288
-0.05937836 0.26619896 0.22228992 -0.0031246531 0.40140086 -0.047434036 0.2247655 -0.013573392
-0.01696013 0.14871146 0.15020898 -0.08077394 -0.014390501 0.053690784 0.05096682 0.25384095
0.29782063 0.037811782 0.27517232 0.2949079 0.08898831 -0.05215144 0.30387926 0.2720576
0.16114426 0.18392171 -0.10732906 -0.07349989 -0.108036004 0.15542777 0.27229914 0.14147878
-0.015239643 0.12506594 0.06128514 0.27690363 0.129677 0.20379855 0.28692713 0.23992608
0.20046747 0.32671374 0.10564675 -0.112326734 0.25249478 0.23240186 0.23734571 -0.07101829
-0.093547195 0.30782223 -0.12396312 0.13772766 0.23982722 0.20375672 -0.06985986 0.11782161
0.23264302 -0.035524648 -0.012008597 0.17934754 -0.034894306 0.06955928 0.17540951 0.24288736
-0.03109458 0.04566237 0.2780883 0.15355575 0.2775129 0.25859714 0.2043624 0.20921946

model_old.model.2.weight f4 [128, 128]
00000000: 7a4e 943d 8d12 6e3b ef7f 3a3c ce42 2abd
00000010: 4e20 9fbc e85f 293b f7ab 633e 0cab 513d
00000020: caee 263d 18fb cd3c 919c dc3d 0782 a33d
00000030: 799d df3d d24f 0abd 0a8f bd3c f93c d73d
00000040: 64b2 ee3d 1b67 afbd 07dc 9cbd b072 873c
00000050: f90d c6bd 2d4d 1cbd 8d57 be3d 12f0 a2bd
00000060: f624 d23d 8cef 94bd cbb7 70bd f8c3 e6bc
00000070: 782d 35bd b3d0 153d d5cb 27bd c6a5 1cbd
00000080: 8f75 7cbd e0da 3abd 13b5 2cbd fb5f 3bbd
00000090: 1836 d03d 69c2 8dbc 9dbf fcbc 041c 9db9
000000a0: 03e8 7fbd effa 0b3e 16eb 4c3d 3194 243c
000000b0: 570c 4f3d 7124 a0bb 8f3f 5bbd 3f8b c13d
000000c0: 05f2 843c b944 88bd b3ff 4b3c 6720 1bbd
000000d0: f200 c4bd d517 dd3c 9ae0 b9bd 5a80 7c3e
000000e0: 6642 bd3d 31c3 88bd b660 a83c f018 323d
000000f0: f2fc 7e3e fd58 c13d e02f 263e c2d4 bf3d
00000100: ee1e 21bd 3e1a 82bd cf5a 553d a913 23bd
00000110: 115d 65bc 4b22 60bc d0f4 013d 6be5 173e
00000120: 5204 9abc ccdd b23c 6dde 9e3c 5c16 be3d
00000130: 2681 82bc df69 633d b7a3 38bc 1210 143e
00000140: 2767 e23d f020 a23c de81 1fbc b45a bcbd
00000150: 0f8f 97bc d800 a03d e0e4 3e3d 4704 42bd
00000160: 0556 82bc 7b49 18bd 0a40 6f3b da48 dd3c
00000170: abb4 6dbc 1fc2 b6bc 76d0 58bd 0c6e f63d
00000180: c9af 4f3d 6784 013e 1895 1e3e b905 debc
00000190: 0a28 ed3d a245 48bd 354c 86bd a16d a4bd
000001a0: d563 e93d 683e 053e e001 3e3c 2a34 2f3d
000001b0: f700 cdbc 3280 be3d 40d3 4c3c 299c 9abd
000001c0: 3c13 c03c ebec 7bbc 5ce3 923d 6710 6c3c
000001d0: ad18 aa3d eb5e 333d 1a47 efbc 4f16 cf3d
000001e0: f660 be3d c033 3fbd 0e14 7a3e 441f ac3d
000001f0: 6153 833d f0da 7cbc c3b5 6f3d 822a 683c
00000200: 370a eebc 5349 8a3d ac56 96bc 70aa 31bd
00000210: 6aac a23d 9f90 c93d 43d5 c33d d3df c0bc
00000220: d09c 993d 12f8 6e3c 9aa0 18bd b252 f63d
00000230: 87ea 4c3d 82af a2bd b7ac 0c3c cb77 e73d
00000240: f46b b3bc 6865 c23d 8509 a4bd ab8d a53d
00000250: 1018 8a3d 683c c23d f687 763a 807c 7cbd
00000260: e311 f43d 5353 aa3d 002c be3d da67 86bd
00000270: 62c7 113d 2ae9 aabd b2f8 d53d 37b2 b63d
00000280: e990 12bd e35a 103d df5f ce3d 6526 003d
00000290: 5fb6 ed3d 3c7c 7ebd c01b e53c eff0 453d
000002a0: 6028 10bd 577a 9f3d dc8e 52bd 2034 07bc
000002b0: 895c efbc 374b f13b 53ef e4bb ec64 3d3e
000002c0: 27fe 873d bc9c 943d 497b 613d a4cc 843d
000002d0: 7c55 5b3d 2a61 19bd 385b 173d a7b6 883e
000002e0: 6a90 cd3d bdd4 f6bc 9d9d d53d 1590 4bbd
000002f0: f9ec 403e 0000 44bc 4269 043e b872 d4bc
00000300: 1807 09bd 0980 3bbd 5d12 2abd 276a 6d3d
00000310: dc12 8d3d b6e7 d13d 40ca 00bb 50b4 b73d
00000320: becd a93d a45a c13d d4f9 2cbd b312 b33d
00000330: efa5 49bd b7b3 04bd 902b a1bc c8f4 243e
00000340: 6088 ab3d 2892 283c 7028 843d d681 55bd
00000350: 4484 873b 6c76 37bd b59c 023e 3b16 f03d
00000360: b759 f33d 57ba 8fbc 9f87 8e3d dc25 d73d
00000370: 85c0 86bd 552a 6a3d 2a64 98bc cb31 71ba
00000380: 49ef bf3d 3ce3 033e 71b3 e73d 726f 183c
00000390: d091 1b3e 4216 6a3d 1e79 f53d b247 b33d
000003a0: 5e86 063d 0c64 c03d 7843 303d 3786 8fbd
000003b0: ee5a 033e 28a5 df3d 64ff ad3d 247b 83bd
000003c0: d4a5 973c 50b7 4bbd 7483 243e 3505 eb3d
000003d0: ddb2 c93d dcba d8bc 9449 1b3e 1096 963c
000003e0: 0c15 cb3d 56c5 943d 17b5 e93d 9ecf 583d
000003f0: 1116 a63d 5cda 9e3d 92c1 87ba 96c0 443c
0.07241531 0.0036326975 0.011383041 -0.041567616 -0.019424584 0.0025844518 0.22233568 0.051188514
0.04075507 0.025144145 0.1077205 0.07983785 0.109187074 -0.03376753 0.023139495 0.105096765
0.11655119 -0.08564588 -0.076591544 0.01653418 -0.09670634 -0.038159538 0.09294043 -0.07955946
0.10260956 -0.072722524 -0.05876903 -0.028169617 -0.044232816 0.036575984 -0.040965874 -0.03824403
-0.06163555 -0.04561889 -0.042164873 -0.04574583 0.101665676 -0.017304616 -0.030853087 -0.00029966247
-0.062477123 0.13669942 0.050028883 0.010045097 0.050548878 -0.0048871567 -0.05352741 0.09450387
0.016228685 -0.06653733 0.0124511 -0.0378727 -0.09570493 0.026988903 -0.090760425 0.24658337
0.0924118 -0.06677855 0.020553928 0.043480814 0.24901178 0.09440801 0.162292 0.09366752
-0.039336137 -0.063526616 0.052088555 -0.03981367 -0.01399924 -0.013680051 0.031727612 0.1483361
-0.018800888 0.021834277 0.01939317 0.092816085 -0.015930723 0.05552089 -0.011269501 0.14459255
0.11054831 0.019791096 -0.009735553 -0.09196988 -0.018500833 0.07812661 0.04660499 -0.04736736
-0.015910158 -0.03717945 0.0036506676 0.027012277 -0.014508407 -0.022309361 -0.05293318 0.120327085
0.05070475 0.12648164 0.15486562 -0.027102338 0.115799025 -0.048894532 -0.06557504 -0.080287226
0.113959946 0.13012087 0.011597127 0.042774357 -0.025024874 0.09301795 0.012501538 -0.075493164
0.023446672 -0.01537631 0.071722716 0.0144082075 0.08305488 0.043791693 -0.029208709 0.10111677
0.092958376 -0.046680212 0.24421713 0.08404401 0.06412388 -0.015433058 0.05852295 0.014170291
-0.029057605 0.06752267 -0.018351875 -0.043375432 0.079430416 0.098420374 0.09562161 -0.023544228
0.07500613 0.014585512 -0.037262537 0.12027492 0.05002835 -0.07943632 0.0085861 0.113021456
-0.021902062 0.09491998 -0.08009628 0.08083662 0.06742871 0.09484178 0.0009404415 -0.06164217
0.11917474 0.08316674 0.09285736 -0.06562777 0.035590537 -0.08345254 0.104478255 0.089207105
-0.03578273 0.035242926 0.1007688 0.031286616 0.1160705 -0.062130198 0.027967334 0.048325475
-0.035194755 0.07787006 -0.051405773 -0.008252174 -0.029218929 0.0073637026 -0.0069865375 0.1849553
0.066402726 0.07256457 0.055049215 0.064843446 0.05354832 -0.03744618 0.036952227 0.26701853
0.100373104 -0.030130738 0.10430453 -0.049697954 0.18840398 -0.011962891 0.12930778 -0.025933608
-0.03345403 -0.0457764 -0.04152142 0.057962563 0.06888363 0.102492735 -0.00196518 0.08969939
0.08291195 0.094411165 -0.042230442 0.08743801 -0.049230512 -0.032397952 -0.019674093 0.16109002
0.08375621 0.010288753 0.06453025 -0.052125774 0.0041356403 -0.04479067 0.12755091 0.1172299
0.11882346 -0.017544908 0.069594614 0.10505268 -0.06579689 0.057169277 -0.01860245 -0.000920084
0.09371812 0.12879652 0.113135226 0.009303914 0.15192342 0.057150133 0.11985992 0.08753909
0.032842986 0.093940824 0.043033093 -0.07008021 0.12827656 0.10920173 0.084959775 -0.064199716
0.01851169 -0.049735367 0.1606577 0.114756025 0.098485686 -0.026456289 0.15164787 0.018382102
0.09916124 0.07264201 0.11411493 0.052932374 0.081096776 0.077564925 -0.0010357371 0.012008807
