project/paper_notebooks/saved_variables/paper_notebooks/8/6-20epoch_100loop/looping-iteration-63/final_policy_agent1.pth (torch, 320501 bytes, 16 tensors)

model.model.0.weight f4 [128, 42]
-0.10769219 -0.06939922 0.12398082 -0.03493861 0.03560933 0.11302069 0.020360742 -0.122982435
0.070000395 -0.006520371 0.12042409 0.019358646 -0.011745176 -0.031154526 0.014677213 0.08085254
0.004467865 -0.015469627 -0.14308402 -0.061181065 0.018494282 0.054835804 0.1100296 -0.0900298
-0.07854684 0.12810355 -0.11830905 -0.08654329 -0.012616155 -0.032334227 0.1259457 -0.14442119
0.03384841 -0.039828632 -0.14227033 0.043615665 -0.058525596 0.10217062 -0.00964916 -0.12820975
-0.036680315 -0.04289369 0.10416615 0.019879268 -0.063325465 0.0834204 0.017974298 0.059498362
0.024243722 -0.18149598 -0.1555644 -0.11610221 -0.1030249 0.12430127 -0.07532101 0.046632167
0.08217317 -0.15580398 0.05805051 0.045886125 -0.17227156 0.06636863 -0.0948176 0.10238513
-0.047635015 -0.0801588 0.12419414 -0.1331268 0.12440606 0.07736098 0.0036985201 0.00238863
0.11082768 0.03869156 -0.073276564 -0.1728498 -0.12907477 -0.08270068 -0.11889833 -0.08142933
0.027496234 0.11167107 -0.18351556 -0.124623135 -0.044471767 0.060323823 -0.026636371 -0.18428166
0.15179774 0.06848522 -0.01945154 0.016979402 0.021898823 -0.19119711 0.058575194 0.09107384
-0.107760884 0.009649769 -0.18649481 0.12307602 -0.08127297 0.017811643 -0.031976633 0.055297486
0.006636658 0.067205675 0.122430764 -0.020000467 -0.0501504 -0.022834813 0.12654021 -0.12383531
0.10519724 -0.07433058 0.16723302 -0.11273934 0.07049012 -0.1020951 -0.050870467 0.105266936
0.16331087 0.059151717 0.009268122 0.15792392 0.08786536 -0.11647335 -0.107687175 -0.1623299
-0.10678211 0.00063432165 -0.10452219 0.09274807 -0.1404549 0.13408211 0.07875654 -0.12493635
-0.16847323 -0.03461654 0.07637271 -0.015038912 0.099421166 -0.0053148335 0.07876929 -0.06168412
-0.09333636 0.10560975 0.11250075 -0.010956095 -0.16992569 0.029997991 -0.044032175 0.021840528
0.08302962 -0.06447101 0.12624201 -0.05197592 0.118348956 -0.061568867 0.0022900596 -0.032502793
0.045401696 0.104358725 -0.12757806 0.08075166 0.15633148 -0.086857624 -0.12681809 -0.06772121
0.09069924 0.07427996 -0.10942017 -0.07539095 0.014204956 -0.04014701 0.08113929 0.09344197
-0.063212074 0.015631499 0.06324521 -0.0024889032 -0.094780594 0.10756168 0.10662801 -0.09484642
-0.01869233 0.09753188 0.07861852 0.02958915 -0.037451077 -0.14522217 -0.17766908 0.09487577
0.047837198 -0.13639724 -0.052727535 0.009461483 -0.031240556 -0.14049168 -0.13652046 0.0071329023
-0.1526562 -0.13500915 0.1261143 -0.04205953 -0.19462562 0.029994035 -0.11558794 -0.04709525
-0.043421745 0.017720863 -0.16491652 -0.10569419 0.044013154 0.11152702 -0.08652654 0.029479751
-0.13196546 -0.21109581 0.11243876 -0.11369309 0.032871317 -0.0019406191 -0.20655492 -0.05148838
0.06583265 0.05258327 -0.002708707 -0.058906715 0.02965375 0.062674426 -0.01789663 -0.17002732
-0.110302314 0.07148339 -0.08512488 -0.08562216 0.13825303 -0.003908776 0.08986383 -0.061166413
0.013648227 0.068058126 -0.041439828 -0.035423737 0.07490819 -0.038456194 -0.10089737 0.12359788
-0.10749793 0.044704363 -0.0030090287 -0.05949677 -0.10805343 0.1100727 -0.08035605 0.18175472
00000000: b98d dcbd 2e21 8ebd a8e9 fd3d ca1b 0fbd
00000010: 17db 113d 6477 e73d 92cb a63c 37de fbbd
00000020: 5e5c 8f3d d6a8 d5bb e8a0 f63d 0696 9e3c
00000030: d76e 40bc c737 ffbc b178 703c 0496 a53d
00000040: 2b67 923b 5274 7dbc 9e84 12be ff98 7abd
00000050: 5281 973c 829b 603d 3357 e13d 8b61 b8bd
00000060: 2add a0bd 942d 033e 044c f2bd 9c3d b1bd
00000070: fdb3 4ebc e570 04bd e9f7 003e 26e3 13be
00000080: a1a4 0a3d 5923 23bd 50af 11be 57a6 323d
00000090: 89b8 6fbd d43e d13d 8317 1ebc 6b49 03be
000000a0: 193e 16bd 4bb1 2fbd 1055 d53d d9d9 a23c
000000b0: c8b0 81bd 51d8 aa3d d63e 933c 8eb4 733d
000000c0: c59a c63c 15da 39be 464c 1fbe ffc6 edbd
000000d0: b8fe d2bd aa91 fe3d e741 9abd 5f01 3f3d
000000e0: 684a a83d 148b 1fbe 5fc6 6d3d 17f3 3b3d
000000f0: f567 30be 47ec 873d bb2f c2bd 4caf d13d
00000100: ef1c 43bd 4c2a a4bd 7f59 fe3d 6452 08be
00000110: 9bc8 fe3d 6f6f 9e3d df62 723b 908a 1c3b
00000120: 9ff9 e23d 0b7b 1e3d 0612 96bd 8aff 30be
00000130: 2d2c 04be f95e a9bd f880 f3bd 6cc4 a6bd
00000140: c83f e13c cdb3 e43d 81eb 3bbe 6a3a ffbd
00000150: 0728 36bd 1d16 773d 8534 dabc 55b4 3cbe
00000160: de70 1b3e fb41 8c3d d658 9fbc 6318 8b3c
00000170: 2965 b33c 2dc9 43be 8bec 6f3d ec84 ba3d
00000180: bdb1 dcbd 111a 1e3c 7ff8 3ebe 480f fc3d
00000190: 7172 a6bd b9e9 913c eef9 02bd 9e7f 623d
000001a0: 5378 d93b 21a3 893d fbbc fa3d 05d8 a3bc
000001b0: 816a 4dbd 1310 bbbc c293 013e 5e9d fdbd
000001c0: a771 d73d a23a 98bd 223f 2b3e e2e3 e6bd
000001d0: 205d 903d 3c17 d1bd 8d5d 50bd 3196 d73d
000001e0: f73a 273e 1249 723d 52d9 173c cfb6 213e
000001f0: c1f2 b33d 9489 eebd 188b dcbd cf39 26be
00000200: 94b0 dabd 9b48 263a bb0f d6bd b3f2 bd3d
00000210: 69d3 0fbe d24c 093e 1c4b a13d a1de ffbd
00000220: 3f84 2cbe 13ca 0dbd 4c69 9c3d c565 76bc
00000230: 539d cb3d 0e28 aebb cb51 a13d 7da8 7cbd
00000240: 2227 bfbd ed49 d83d cb66 e63d 3181 33bc
00000250: 0001 2ebe 59be f53c 155b 34bd e8ea b23c
00000260: 6f0b aa3d 6009 84bd 9645 013e b4e4 54bd
00000270: f060 f23d a32f 7cbd d314 163b a621 05bd
00000280: 21f7 393d 07ba d53d d3a3 02be 2061 a53d
00000290: 5c15 203e 69e2 b1bd 9adc 01be 6bb1 8abd
000002a0: 86c0 b93d 1720 983d af17 e0bd 9266 9abd
000002b0: e7bb 683c 3171 24bd 5b2c a63d 815e bf3d
000002c0: 5575 81bd a10d 803c b486 813d de1c 23bb
000002d0: 541c c2bd 4c49 dc3d c95f da3d d73e c2bd
000002e0: a820 99bc cbbe c73d bf02 a13d f264 f23c
000002f0: 4d66 19bd 1fb5 14be e2ee 35be 3a4e c23d
00000300: f0f0 433d b8ab 0bbe d4f8 57bd 5604 1b3c
00000310: 32ec ffbc 0ddd 0fbe 05cc 0bbe 1fbb e93b
00000320: e851 1cbe d73f 0abe 1b24 013e 9d46 2cbd
00000330: f04b 47be 0db6 f53c 5fb9 ecbd f3e6 40bd
00000340: 00db 31bd 582b 913c e0df 28be 3276 d8bd
00000350: 2347 343d 4768 e43d d434 b1bd 857f f13c
00000360: f421 07be 8029 58be 4b46 e63d ecd7 e8bd
00000370: 13a4 063d 5f5c feba 2283 53be 7be5 52bd
00000380: 45d3 863d 8e61 573d 9084 31bb 2b48 71bd
00000390: 6cec f23c 735b 803d f49b 92bc a41b 2ebe
000003a0: 2ee6 e1bd e265 923d f455 aebd ac5a afbd
000003b0: 3492 0d3e 3115 80bb 870a b83d a289 7abd
000003c0: d09c 5f3c 0f62 8b3d cfbc 29bd 7b18 11bd
000003d0: 7769 993d 3e84 1dbd 48a3 cebd e320 fd3d
000003e0: e027 dcbd ec1b 373d 2033 45bb e3b2 73bd
000003f0: 1e4b ddbd cc6d e13d b691 a4bd e91d 3a3e

model.model.0.bias f4 [128]
0.24889639 -0.09724866 -0.0012428456 -0.09665497 0.17379887 0.16956677 0.23815142 0.10260309
0.2905841 0.22795725 -0.09850548 0.2519921 0.27996457 -0.09419884 0.02229222 0.24437329
0.1651752 0.13917525 -0.02994711 -0.071392596 -0.05151146 0.115288205 0.23705986 -0.08547337
-0.07950415 -0.019650161 0.17093499 -0.07101302 -0.040412717 -0.15517458 0.15798976 0.16591518
0.09451193 0.24248977 0.23268545 0.23419788 0.0869291 -0.111853376 -0.011558089 0.26665878
0.14632751 -0.08700751 0.2826423 0.15810303 0.19290839 0.28197095 0.2261957 0.11782316
0.2758 0.2594965 -0.10867895 -0.022143502 -0.0721258 0.2678634 0.21453346 0.3744016
-0.06930406 0.2501345 0.21227513 -0.0029663898 0.39111015 -0.05194154 0.20504421 -0.013364475
-0.024699247 0.1382256 0.13051315 -0.08026197 -0.016621657 0.03891713 0.049220137 0.2401742
0.2844544 0.033235922 0.2641053 0.28480127 0.10296916 -0.04867694 0.2910287 0.2419372
0.14231119 0.17271 -0.11290091 -0.06146294 -0.116697565 0.14675552 0.26322907 0.12474176
-0.022680337 0.11363601 0.07396114 0.26808837 0.14077477 0.1941434 0.27231777 0.21137601
0.17807175 0.3169972 0.09414139 -0.11368107 0.23129769 0.22242466 0.213197 -0.07737834
-0.105215274 0.29854697 -0.12930037 0.12547079 0.22049151 0.19222489 -0.07863857 0.1229814
0.22177288 -0.037835125 -0.01708929 0.15501928 -0.040067744 0.056907542 0.14710985 0.22721355
-0.033264205 0.021748934 0.2507582 0.13794869 0.26183945 0.23938118 0.18768102 0.20029116
00000000: b2de 7e3e 4e2a c7bd fae6 a2ba 0af3 c5bd
00000010: 55f8 313e e9a2 2d3e f7dd 733e 9221 d23d
00000020: 70c7 943e a06d 693e 3ebd c9bd 1c05 813e
00000030: 8457 8f3e 52eb c0bd 2c9e b63c fe3c 7a3e
00000040: b023 293e f583 0e3e a453 f5bc 4836 92bd
00000050: aefd 52bd 391c ec3d d2bf 723e aa0c afbd
00000060: 12d3 a2bd 60f9 a0bc 9509 2f3e 466f 91bd
00000070: ce87 25bd 16e6 1ebe 11c8 213e abe5 293e
00000080: 798f c13d 3d4f 783e 1845 6e3e 92d1 6f3e
00000090: e207 b23d 6213 e5bd 245e 3dbc 8087 883e
000000a0: e1d6 153e fe30 b2bd 7eb6 903e c3e5 213e
000000b0: c789 453e 7f5e 903e d89f 673e 454d f13d
000000c0: a835 8d3e badc 843e 1293 debd 4a66 b5bc
000000d0: b1b6 93bd 6425 893e a9ae 5b3e 91b1 bf3e
000000e0: 49ef 8dbd a111 803e a75e 593e c367 42bb
000000f0: 973f c83e a7c0 54bd 1cf7 513e acf6 5abc
00000100: 1356 cabc 038b 0d3e 3da5 053e 6360 a4bd
00000110: 242a 88bc 9267 1f3d 0e9b 493d 3af0 753e
00000120: 02a4 913e 6422 083d cf38 873e 79d1 913e
00000130: 7fe1 d23d 7961 47bd b701 953e 63be 773e
00000140: 06ba 113e e4da 303e 9838 e7bd 90c0 7bbd
00000150: 22ff eebd 1447 163e f6c5 863e 9c78 ff3d
00000160: 1dcc b9bc ffb9 e83d f078 973d e142 893e
00000170: 4327 103e 87cd 463e 3c6d 8b3e f472 583e
00000180: 7158 363e 754d a23e 33cd c03d 9fd1 e8bd
00000190: 4dd9 6c3e 4ac3 633e 5050 5a3e 8978 9ebd
000001a0: 1b7b d7bd 26db 983e 5167 04be 6a7b 003e
000001b0: 87c8 613e 9ad6 443e 420d a1bd acdd fb3d
000001c0: 6e18 633e 01f9 1abd d7fe 8bbc 60bd 1e3e
000001d0: 131e 24bd e217 693d f7a3 163e abaa 683e
000001e0: 0c40 08bd d22a b23c 6163 803e 6c42 0d3e
000001f0: d20f 863e 5720 753e 742f 403e 2019 4d3e

model.model.2.weight f4 [128, 128]
0.0666199 -0.0047456333 0.016427707 -0.045496225 -0.021630405 -0.024176428 0.2155914 0.030068088
0.031708684 0.016076446 0.10701128 0.07366224 0.08343948 -0.035582133 0.008564627 0.09600063
0.109165885 -0.09369428 -0.08398803 0.012774036 -0.104201086 -0.06834932 0.067626946 -0.08284392
0.097932555 -0.07365789 -0.07811648 -0.033926584 -0.049786817 0.037807923 -0.03568033 -0.046432197
-0.07431515 -0.052649748 -0.06082972 -0.06154984 0.10495596 -0.009869874 -0.035071008 0.00051289087
-0.06674619 0.13847013 0.05023955 -0.013964037 0.051318888 -0.014632777 -0.05533914 0.08117608
-0.005859976 -0.07428446 0.009774181 -0.036673736 -0.097037606 0.020153902 -0.11332375 0.24216612
0.08183417 -0.07836264 0.018346306 0.046938926 0.23628008 0.09125618 0.14146 0.09118898
-0.049579058 -0.06102618 0.03512608 -0.03807164 -0.013313638 -0.022385739 0.026803968 0.12831575
-0.028846946 0.024628576 0.017853364 0.085936844 -0.027341397 0.061049186 -0.025754362 0.11389977
0.09779582 0.014732786 -0.010497198 -0.10367206 -0.026346229 0.07260462 0.045817997 -0.059975337
-0.02663674 -0.044357434 -0.00854117 0.024601871 -0.02924287 -0.029147426 -0.06561478 0.091001995
0.031858653 0.11263498 0.14561555 -0.019966632 0.09004798 -0.05183691 -0.08843252 -0.080133125
0.10326129 0.11901088 0.006479661 0.02533387 -0.04488685 0.077215016 0.005871064 -0.0906648
0.012793227 -0.018822776 0.07154881 -0.007072143 0.0801882 0.03679212 -0.0587122 0.079557166
0.091184236 -0.059413575 0.21729672 0.069553055 0.05149476 -0.04505935 0.043100886 0.005325581
-0.034824066 0.059511088 -0.013279202 -0.047320995 0.077691145 0.07168654 0.089393295 -0.044520874
0.06619969 0.0056256596 -0.03786491 0.11429103 0.023963781 -0.08120657 -0.006155736 0.10400641
-0.028786344 0.08744081 -0.08788669 0.07732395 0.0605896 0.064480826 -0.024833392 -0.06476409
0.114819296 0.08253541 0.07321059 -0.071006015 0.03030828 -0.082209505 0.11019046 0.081093974
-0.048760857 0.0287201 0.08192421 0.015379632 0.11956832 -0.05456298 0.023491872 0.04903212
-0.038956646 0.07922556 -0.050843272 -0.03212139 -0.028004907 -0.0018447062 -0.008341651 0.17180456
0.0445584 0.06506923 0.05277057 0.06600302 0.05262712 -0.043834902 0.014688655 0.26333445
0.08968979 -0.041266743 0.10200888 -0.046168547 0.17596152 -0.014957309 0.1085123 -0.028079504
-0.04416058 -0.043448497 -0.05810136 0.05968788 0.070043564 0.09389401 -0.006088611 0.06976187
0.07303168 0.09771239 -0.043464184 0.08106233 -0.06058113 -0.026366167 -0.03390028 0.13024679
0.07120673 0.0057344157 0.06396058 -0.06328853 -0.0038155764 -0.0499815 0.12726232 0.10479358
0.108280174 -0.02419228 0.057514835 0.10308981 -0.07995703 0.050423805 -0.030784884 -0.030193493
0.0747948 0.115301035 0.10431993 0.017099323 0.12580664 0.054270785 0.0968589 0.08801781
0.02232177 0.083402336 0.038367853 -0.08746079 0.1084892 0.093481645 0.07848829 -0.079310894
0.008158604 -0.05301306 0.16101225 0.09340674 0.09591198 -0.033209823 0.12216946 -0.0032476154
0.09753064 0.05996737 0.0867819 0.03883768 0.06882222 0.048196696 -0.016310167 0.0035514021
00000000: 0470 883d 4281 9bbb 6693 863c 405a 3abd
00000010: 3f32 b1bc a50d c6bc fec3 5c3e 5a51 f63c
00000020: f7e0 013d c0b2 833c bb28 db3d 3adc 963d
00000030: 51e2 aa3d 92be 11bd a652 0c3c fa9b c43d
00000040: 5d92 df3d c9e2 bfbd eb01 acbd 314a 513c
00000050: 6167 d5bd bafa 8bbd ff7f 8a3d 13aa a9bd
00000060: dd90 c83d f3d9 96bd 88fb 9fbd 9af6 0abd
00000070: 43ed 4bbd 7bdc 1a3d 8a25 12bd b02f 3ebd
00000080: 8b32 98bd 43a7 57bd 9628 79bd af1b 7cbd
00000090: 26f3 d63d 41b5 21bc 9ea6 0fbd 8673 063a
000000a0: 3ab2 88bd 1dcb 0d3e fdc7 4d3d 6bc9 64bc
000000b0: c133 523d 51be 6fbc 4bab 62bd a53f a63d
000000c0: 0b05 c0bb 7322 98bd e323 203c 3337 16bd
000000d0: a7bb c6bd cc19 a53c 4816 e8bd 65fa 773e
000000e0: ac98 a73d 987c a0bd fe4a 963c 0843 403d
000000f0: 68f3 713e 85e4 ba3d e4da 103e 4ac1 ba3d
00000100: 6913 4bbd 96f6 79bd 5de0 0f3d 02f1 1bbd
00000110: 7221 5abc 4c62 b7bc ff93 db3c 3465 033e
00000120: 6e50 ecbc dec1 c93c 3841 923c a8ff af3d
00000130: 11fb dfbc b60e 7a3d d0fa d2bc 4844 e93d
00000140: 2d49 c83d c961 713c 71fc 2bbc 0452 d4bd
00000150: 0cd4 d7bc bbb1 943d a7ab 3b3d b3a8 75bd
00000160: 4b35 dabc 24b0 35bd 43f0 0bbc dd89 c93c
00000170: be8e efbc 95c6 eebc 0b61 86bd 415f ba3d
00000180: 387e 023d 2bad e63d 3e1c 153e 1091 a3bc
00000190: 136b b83d f152 54bd 1c1c b5bd d61c a4bd
000001a0: a87a d33d fabb f33d 5653 d43b fa88 cf3c
000001b0: 46db 37bd e822 9e3d 0e62 c03b 77ae b9bd
000001c0: af9a 513c 3932 9abc 2f88 923d 6fbd e7bb
000001d0: b639 a43d 56b3 163d 347c 70bd deee a23d
000001e0: cdbe ba3d a65b 73bd 0883 5e3e d571 8e3d
000001f0: 2bec 523d 2790 38bd 8e8a 303d 3682 ae3b
00000200: aea3 0ebd e6c1 733d 0391 59bc a9d3 41bd
00000210: 891c 9f3d 65d0 923d d513 b73d 855b 36bd
00000220: b493 873d 7457 b83b 3c18 1bbd 6a11 ea3d
00000230: b14f c43c a14f a6bd 0eb6 c9bb 5001 d53d
00000240: 57d1 ebbc 2b14 b33d f0fd b3bd 055c 9e3d
00000250: cd2c 783d 860e 843d 666f cbbc 09a3 84bd
00000260: 6126 eb3d 5308 a93d 6fef 953d 9a6b 91bd
00000270: 1249 f83c 755d a8bd 89ab e13d 9914 a63d
00000280: 77b9 47bd 6a46 eb3c e1c7 a73d dafa 7b3c
00000290: 3ce0 f43d 6e7d 5fbd 0772 c03c e7d5 483d
000002a0: 0191 1fbd 0341 a23d 0941 50bd b891 03bd
000002b0: 8c6a e5bc 12ca f1ba 6cab 08bc 89ed 2f3e
000002c0: de82 363d 0443 853d f425 583d 972c 873d
000002d0: 898f 573d 3a8c 33bd afa8 703c c6d3 863e
000002e0: 48af b73d 5107 29bd 08ea d03d 3b1b 3dbd
000002f0: 422f 343e 800f 75bc b23b de3d fd06 e6bc
00000300: b9e1 34bd 0df7 31bd b1fb 6dbd 477b 743d
00000310: 0073 8f3d 814b c03d f982 c7bb 50df 8e3d
00000320: a291 953d 6f1d c83d 8007 32bd 0204 a63d
00000330: eb23 78bd dcfd d7bc 05db 0abd 6a5f 053e
00000340: d6d4 913d c4e7 bb3b c4fd 823d 6b9d 81bd
00000350: c00e 7abb 67b9 4cbd 0e51 023e 049e d63d
00000360: ffc1 dd3d e32e c6bc ad94 6b3d c020 d33d
00000370: 83c0 a3bd 3189 4e3d 9530 fcbc 5858 f7bc
00000380: 042e 993d f322 ec3d b0a5 d53d e113 8c3c
00000390: 75d3 003e 0b4b 5e3d f55d c63d ae42 b43d
000003a0: 25dc b63c d8ce aa3d 9c27 1d3d a51e b3bd
000003b0: 962f de3d 4e73 bf3d 78be a03d c06d a2bd
000003c0: aaab 053c 3924 59bd 65e0 243e 084c bf3d
000003d0: 806d c43d 0607 08bd fb33 fa3d f2d5 54bb
000003e0: 25be c73d 58a0 753d b5ba b13d 4214 1f3d
000003f0: aaf2 8c3d e669 453d e69c 85bc a4be 683b

model.model.2.bias f4 [128]
0.10962853 0.16572715 0.13885579 0.17833939 0.16845892 0.13785408 0.09925432 0.038359657
0.19081393 0.1787125 0.06823776 0.1373706 0.1682548 0.17687775 0.13843748 -0.02496882
0.17126177 0.0625492 0.06304736 0.17760591 0.065816574 -0.059692346 -0.027843356 0.037006825
0.1390632 0.117102236 0.19088234 -0.051215496 0.1675724 0.14259185 0.10407567 0.026512338
0.1238677 0.055820856 0.20399448 0.15294465 0.19208933 0.17580359 -0.027317842 0.14849678
0.2072847 -0.029802933 0.20761953 0.123138964 0.17108317 0.06553774 0.06652395 0.224072
0.14906318 0.09012635 0.11852936 0.12280818 0.1443534 0.18668981 -0.091284215 0.097088344
0.19191848 0.20928544 0.09912722 0.13760565 -0.06450348 0.20118462 0.045011383 0.10087603
0.099299 0.18491606 0.08191955 -0.0750232 0.17857288 0.061831787 0.09878006 0.0562795
0.1208127 0.02564646 0.12756234 -0.09115805 0.1162689 0.1487894 0.10697189 -0.029817825
0.17446403 0.19772936 -0.005923885 0.0048133633 0.06434799 0.15247823 -0.068777844 0.11937077
-0.040726732 0.20186597 0.16648099 0.1383004 0.15416764 0.020108925 0.097749844 0.08427815
0.17865555 0.123743564 0.089316085 0.07020319 0.1871424 0.18295419 0.039267857 0.111222565
0.062966906 -0.031598922 0.18652937 0.16887055 0.09026796 0.15162529 0.05476008 -0.08341237
0.07504813 0.07011416 0.08488757 0.13316688 0.077567585 0.12164499 -0.030449523 0.058913637
0.10401724 -0.007850865 0.0076749153 0.09543553 0.167018 -0.077749684 0.068555705 0.12446221
00000000: ec84 e03d 61b4 293e 3630 0e3e 9a9e 363e
00000010: 7f80 2c3e 9f29 0d3e d945 cb3d 041f 1d3d
00000020: ba64 433e 6900 373e 3dc0 8b3d e1aa 0c3e
00000030: fc4a 2c3e 711f 353e 8ec2 0d3e 698b ccbc
00000040: 3f5f 2f3e cc19 803d f91e 813d 53de 353e
00000050: d7ca 863d f67f 74bd c017 e4bc 7894 173d
00000060: 9566 0e3e 4cd3 ef3d a976 433e 57c7 51bd
00000070: 1998 2b3e 9903 123e a025 d53d 6730 d93c
00000080: 59ae fd3d 69a4 643d eee3 503e 869d 1c3e
00000090: 11b3 443e db05 343e abc9 dfbc 8a0f 183e
000000a0: 7142 543e 4825 f4bc 379a 543e 4830 fc3d
000000b0: 6d30 2f3e a738 863d b53d 883d 2173 653e
000000c0: 05a4 183e 2a94 b83d 85bf f23d db82 fb3d
000000d0: 61d1 133e 9d2b 3f3e 38f3 babd 41d6 c63d
000000e0: 4786 443e ec4e 563e 3603 cb3d 7fe8 0c3e
000000f0: 671a 84bd 5703 4e3e db5d 383d 1898 ce3d
00000100: 465d cb3d a35a 3d3e 70c5 a73d c3a5 99bd
00000110: cfdb 363e 5443 7d3d 334d ca3d 5585 663d
00000120: a66c f73d 8618 d23c b49f 023e 12b1 babd
00000130: 641e ee3d 405c 183e 1414 db3d 8344 f4bc
00000140: b3a6 323e 9179 4a3e 261d c2bb 6bb9 9d3b
00000150: e1c8 833d 4123 1c3e 66db 8cbd aa78 f43d
00000160: 13d1 26bd f4b5 4e3e fe79 2a3e 9f9e 0d3e
00000170: 1fde 1d3e 79bb a43c 1231 c83d 069a ac3d
00000180: 7bf1 363e 446d fd3d 5aeb b63d b1c6 8f3d
00000190: 42a2 3f3e 5858 3b3e 55d7 203d a8c8 e33d
000001a0: cbf4 803d df6d 01bd 8e01 3f3e 67ec 2c3e
000001b0: 69de b83d a943 1b3e 1b4c 603d 1bd4 aabd
000001c0: d5b2 993d 0398 8f3d 89d9 ad3d e65c 083e
000001d0: c1db 9e3d 0221 f93d 4771 f9bc 6d4f 713d
000001e0: fe06 d53d eaa0 00bc db7d fb3b b473 c33d
000001f0: c406 2b3e 3a3b 9fbd ef66 8c3d 0be6 fe3d

model.model.4.weight f4 [128, 128]
0.018665306 -0.003195302 -0.012342958 -0.07021604 -0.0101209115 -0.0632166 0.035740092 0.056008466
0.0073437872 0.03238986 -0.044403218 -0.03587205 0.030627165 0.06357917 0.044225648 0.065781854
0.04418506 -0.037689634 -0.04706151 -0.00024118248 0.01602953 0.051294617 0.053432096 -0.0441546
-0.052315045 -0.089894205 0.034217965 0.03705042 -0.08866949 0.06858337 0.024531322 0.074207745
0.013771368 0.07382993 -0.017753975 0.017459609 0.023310073 -0.0021265044 -0.015937239 0.051200554
-0.012691962 1.360476e-05 -0.07398762 -0.064285494 0.0072881742 -0.019654071 0.080273114 -0.09002902
0.016609881 -0.07908016 -0.012028838 0.07621204 0.060334086 0.04158804 -0.054569166 0.082486264
-0.003810925 -0.01728624 -0.09273662 -0.008085175 -0.064205386 0.032446843 0.044348944 0.06976401
0.018578859 -0.03203943 0.05760777 0.0036694123 0.006525968 0.034484252 -0.0013723294 0.048084456
0.060775056 0.07957556 0.024114324 -0.0035292814 -0.093295954 -0.083597325 0.0005221447 -0.021237543
-0.00023036927 0.07801593 0.07068381 -0.002232506 -0.091806605 0.065543965 0.06929251 0.077161655
0.024388894 0.05637272 0.004221708 -0.06803823 0.007309872 0.0761169 0.0052922335 0.0045061386
0.0008638718 0.0579927 -0.0627373 0.0053307177 0.005909145 0.05868602 -0.09316108 -0.032124557
-0.08853534 -0.014742697 0.051760413 -0.05005164 -0.016428392 -0.09391271 0.081420235 -0.05183741
-0.024897687 -0.06752718 0.014362546 -0.06486953 -0.042301208 -0.042921115 0.04919544 -0.080290586
-0.053577513 -0.01555907 0.023898507 0.071569875 0.006365872 0.012991567 0.07724834 0.044800926
-0.08413164 0.034373283 -0.05884323 0.058464024 -0.064486414 0.023588287 0.019296061 0.036006667
0.065382786 -0.03069446 0.0004684519 0.010154821 0.085596256 0.02803534 -0.030281361 -0.0078056306
-0.049066212 -0.0038528964 0.062114783 -0.046075147 -0.0006143823 -0.0577204 0.0770931 0.0024681091
-0.042816363 0.014304469 0.08140368 0.060017623 -0.06413575 0.040864293 -0.016622178 -0.058805276
-0.0072227214 -0.008267153 -0.03965395 0.03799345 -0.041084025 0.07487841 -0.0027988106 -0.07447981
-0.00058011385 0.025713995 -0.08784734 -0.06681139 0.021858444 0.019170305 0.056483842 0.049168993
0.07281078 -0.035744637 0.047421157 0.029762851 -0.040130932 0.06322348 0.017585017 -0.014750555
0.07152722 -0.026505312 0.045549754 -0.035568852 -0.06957568 0.017025322 0.08744488 0.07655077
-0.014824954 0.07061446 -0.027314229 0.045999102 -0.07759527 0.049844477 0.055612713 -0.020679437
-0.07858605 -0.06972554 -0.041458707 -0.056253828 0.029142218 -0.079688765 0.0842717 0.069945656
0.06714659 -0.06394028 -0.013043746 0.05284194 -0.07403068 0.040663276 0.0581268 -0.037456315
-0.02042313 -0.06934558 -0.08017287 -0.070973925 0.022331242 -0.052154545 -0.032989 -0.022251979
-0.0043261633 -0.037178442 -0.05238105 0.043200515 -0.07890472 0.036668837 -0.046565335 -0.025018223
0.07032432 0.07676109 0.028745756 0.0053492007 -0.037018046 -0.030337844 0.0117401285 0.075896956
0.035990205 -0.08632139 0.031311907 -0.05059819 0.024746822 -0.037501436 -0.054923095 -0.01348968
-0.05351828 0.05356083 -0.01491145 -0.07212449 -0.003755778 -0.053311262 0.03154013 -0.018735033
00000000: fce7 983c 4668 51bb 1e3a 4abc 6dcd 8fbd
00000010: 2ed2 25bc b477 81bd 3464 123d 2269 653d
00000020: 27a4 f03b 3bab 043d 26e0 35bd 92ee 12bd
00000030: d2e5 fa3c cc35 823d f425 353d a3b8 863d
00000040: 65fb 343d 7260 1abd 92c3 40bd eee5 7cb9
00000050: 5c50 833c 4e1a 523d 9ddb 5a3d 74db 34bd
00000060: 4d48 56bd 741a b8bd 2328 0c3d 2ec2 173d
00000070: 5998 b5bd 7075 8c3d e9f5 c83c 3bfa 973d
00000080: 4ea1 613c 2534 973d c970 91bc 7407 8f3c
00000090: c4f4 be3c d35c 0bbb d08e 82bc acb7 513d
000000a0: f2f1 4fbc 0040 6437 d286 97bd 1da8 83bd
000000b0: a3d1 ee3b 9301 a1bc 3b66 a43d 2361 b8bd
000000c0: 7211 883c c7f4 a1bd 9a14 45bc 0f15 9c3d
000000d0: e020 773d 3858 2a3d eb83 5fbd 8fee a83d
000000e0: b6c0 79bb df9b 8dbc b2ec bdbd af77 04bc
000000f0: 1d7e 83bd fbe6 043d 3da7 353d 6fe0 8e3d
00000100: b132 983c c73b 03bd 20f6 6b3d 867a 703b
00000110: cad7 d53b 5c3f 0d3d bcdf b3ba 35f4 443d
00000120: 44ef 783d 83f8 a23d 678b c53c 844b 67bb
00000130: f311 bfbd 1335 abbd 8ae0 083a 5bfa adbc
00000140: 488f 71b9 d1c6 9f3d acc2 903d 3c4f 12bb
00000150: 1a05 bcbd ea3b 863d 3be9 8d3d ee06 9e3d
00000160: 38cb c73c 15e7 663d 4156 8a3b a157 8bbd
00000170: a787 ef3b 2de3 9b3d 796a ad3b 3ba8 933b
00000180: 7575 623a c189 6d3d 6a7c 80bd 4dad ae3b
00000190: 80a1 c13b c160 703d 3ccb bebd 0a95 03bd
000001a0: 0452 b5bd 5a8b 71bc ba02 543d f302 4dbd
000001b0: d694 86bc 4f55 c0bd a7bf a63d 7753 54bd
000001c0: 3cf6 cbbc b14b 8abd e250 6b3c 51da 84bd
000001d0: 0844 2dbd 0dce 2fbd 2881 493d 646f a4bd
000001e0: 1874 5bbd 78eb 7ebc cdc6 c33c 3a93 923d
000001f0: ce98 d03b 95da 543c 6134 9e3d 2d81 373d
00000200: 364d acbd 00cb 0c3d 9905 71bd f977 6f3d
00000210: 7411 84bd 393c c13c c612 9e3c ba7b 133d
00000220: 69e7 853d f372 fbbc 8d9a f539 6860 263c
00000230: 174d af3d 5faa e53c 9e10 f8bc 60c6 ffbb
00000240: a7f9 48bd e080 7cbb 126c 7e3d 4bb9 3cbd
00000250: 800e 21ba 3a6c 6cbd fde2 9d3d 00c0 213b
00000260: 3660 2fbd 4b5d 6a3c f9b6 a63d 0ad5 753d
00000270: 9b59 83bd 5161 273d 3c2b 88bc cddd 70bd
00000280: 94ac ecbb f472 07bc 2e6c 22bd 059f 1b3d
00000290: b947 28bd da59 993d 406c 37bb df88 98bd
000002a0: c812 18ba 28a6 d23c 4ee9 b3bd 69d4 88bd
000002b0: 7b10 b33c 0b0b 9d3c 9a5b 673d 6d65 493d
000002c0: d11d 953d f868 12bd b03c 423d 39d1 f33c
000002d0: 5560 24bd 507b 813d 740e 903c 50ac 71bc
000002e0: dd7c 923d ab21 d9bc 6192 3a3d a5b0 11bd
000002f0: b27d 8ebd b078 8b3c 4d16 b33d a6c6 9c3d
00000300: 5de4 72bc 509e 903d 17c2 dfbc 8e69 3c3d
00000310: 45ea 9ebd b929 4c3d 28ca 633d ec67 a9bc
00000320: b9f1 a0bd 44cc 8ebd 9bd0 29bd 6a6a 66bd
00000330: a9bb ee3c dd33 a3bd a496 ac3d ab3f 8f3d
00000340: 2784 893d 1ff3 82bd 70b5 55bc ca70 583d
00000350: 669d 97bd 898e 263d 5e16 6e3d cb6b 19bd
00000360: 684e a7bc 0e05 8ebd ac31 a4bd c75a 91bd
00000370: 02f0 b63c 01a0 55bd 791f 07bd c849 b6bc
00000380: 7dc2 8dbb 6c48 18bd 838d 56bd 06f3 303d
00000390: cc98 a1bd 1032 163d 4bbb 3ebd 04f3 ccbc
000003a0: 3206 903d eb34 9d3d 387c eb3c 5948 af3b
000003b0: 3ca0 17bd 1287 f8bc ab59 403c dd6f 9b3d
000003c0: 776a 133d 45c9 b0bd ea40 003d 0c40 4fbd
000003d0: d9b9 ca3c 1b9b 19bd 0af7 60bd d203 5dbc
000003e0: fc35 5bbd 9a62 5b3d 284f 74bc 01b6 93bd
000003f0: 8023 76bb e95c 5abd 3930 013d 367a 99bc

model.model.4.bias f4 [128]
0.012876067 0.0020416097 0.18617518 0.04453635 -0.009147419 0.010943095 0.19107276 0.13971871
0.059581887 0.03980755 0.088264905 0.011291192 0.14733578 -0.007705604 0.08042175 0.0316414
0.011305573 0.16053739 0.07423834 0.041932095 -0.025625454 0.12117256 -0.07335924 -0.005457435
0.061490554 0.122541875 0.10142846 0.14104764 0.14268473 0.017174657 -0.056726456 0.11706743
0.20569618 -0.06297313 0.02442569 0.08323721 -0.006334681 0.02145393 0.012874386 0.19516273
0.058686 0.10571258 0.045241427 -0.07002711 0.014826151 0.18047714 -0.0034250743 0.1505484
-0.014687051 -0.058667243 -0.03306494 0.008447707 0.0020073322 0.105822615 0.054006547 -0.052571386
0.0007000938 -0.0680616 -0.044586867 -0.031173844 -0.08144357 0.1704166 -0.011331171 0.04368555
0.01697556 -0.008482951 -0.021860342 -0.045281813 0.1667831 0.03247585 0.095014915 -0.030963225
0.10692526 -0.004239878 0.09510813 0.21570502 -0.083149895 0.051176596 0.12375486 0.07776572
0.07298708 0.22458611 -0.08550309 0.011831647 0.16108549 -0.062417552 -0.084456205 -0.03256648
0.06986523 0.09630333 -0.0801838 0.015438997 0.16748877 -0.025361974 0.05429503 -0.009509872
-0.040429924 -0.04908135 0.017010935 0.11698546 0.16553625 0.13111876 0.026602937 0.05732441
0.14132652 0.021431493 -0.02008839 0.05921007 0.15692087 -0.05870544 0.12779555 -0.0886159
0.12359688 -0.05277601 0.118917346 0.0150875235 0.034329433 0.087624654 0.06485511 0.12395674
-0.008975669 -0.062444866 -0.037216406 0.07764585 0.079728134 -0.0046508834 0.053528685 0.05022591
00000000: 24f6 523c 87cc 053b b5a4 3e3e bf6b 363d
00000010: 0edf 15bc ab4a 333c 94a8 433e 6c12 0f3e
00000020: 230c 743d 3e0d 233d 3bc4 b43d b1fe 383c
00000030: 31df 163e 4b7f fcbb 29b4 a43d 6a9a 013d
00000040: 033b 393c ea63 243e 450a 983d fdc0 2b3d
00000050: 79ec d1bc 5229 f83d 5f3d 96bd 48d4 b2bb
00000060: 85dd 7b3d 3cf7 fa3d b9b9 cf3d cb6e 103e
00000070: f21b 123e deb1 8c3c 005a 68bd 0cc1 ef3d
00000080: 05a2 523e 0ef8 80bd 6218 c83c 4578 aa3d
00000090: 2893 cfbb 27c0 af3c 17ef 523c bdd8 473e
000000a0: bb60 703d d67f d83d 134f 393d 606a 8fbd
000000b0: 62e9 723c 00cf 383e 3677 60bb 5c29 1a3e
000000c0: f5a1 70bc 104d 70bd 1a6f 07bd 4068 0a3c
000000d0: 728d 033b 87b9 d83d f835 5d3d 1855 57bd
000000e0: 8086 373a e163 8bbd b8a0 36bd 4a60 ffbc
000000f0: e3cb a6bd b081 2e3e 60a6 39bc 9fef 323d
00000100: 5410 8b3c 13fc 0abc 7614 b3bc 6c79 39bd
00000110: 30c9 2a3e 6605 053d 2e97 c23d 97a6 fdbc
00000120: a1fb da3d adee 8abb 0dc8 c23d c7e1 5c3e
00000130: 7e4a aabd 8d9e 513d 3073 fd3d a243 9f3d
00000140: 407a 953d e7f9 653e 3e1c afbd 86d9 413c
00000150: 98f3 243e 8ca9 7fbd 60f7 acbd 6e64 05bd
00000160: 8015 8f3d ae3a c53d 6737 a4bd d9f3 7c3c
00000170: 2d82 2b3e eac3 cfbc 7764 5e3d 4bcf 1bbc
00000180: d999 25bd 8709 49bd 845a 8b3c 1396 ef3d
00000190: 5682 293e ff43 063e 67ee d93c 00cd 6a3d
000001a0: e6b7 103e 1991 af3c 6890 a4bc 4286 723d
000001b0: ddaf 203e 1e75 70bd d6dc 023e 417c b5bd
000001c0: 5c20 fd3d a82b 58bd f08a f33d a931 773c
000001d0: 059d 0c3d 8e74 b33d c2d2 843d 08dd fd3d
000001e0: af0e 13bc 30c6 7fbd 3b70 18bd ca04 9f3d
000001f0: 8148 a33d 7066 98bb e540 5b3d afb9 4d3d

model.model.6.weight f4 [7, 128]
-0.027159203 -0.047746774 0.076843396 0.0629503 0.07610563 0.07951304 0.081753805 0.045646794
-0.027212145 -0.04477793 -0.050165407 -0.035779897 0.06784436 -0.06514728 0.08164453 0.010579168
0.014839203 0.049091343 -0.035163675 0.020186946 -0.06535642 -0.022066854 0.08208916 0.09860836
0.07198318 -0.04582438 0.0070393616 0.10802228 0.10137274 -0.0113155395 -0.0714629 0.032902513
0.021879297 -0.022553787 0.022201207 0.046323474 0.04598694 -0.07409335 -0.0737583 0.08414255
-0.04106746 0.05404887 -0.032690443 -0.06760929 -0.02407762 0.0510213 -0.021518663 0.070193596
0.0500947 -0.053751834 0.015523272 0.10896236 -0.010386638 0.062183674 -0.013540815 0.060490273
0.024810597 0.00110434 0.034441948 0.08067254 0.0705638 0.0017722645 -0.0340901 -0.046112977
0.022016257 0.042211425 0.020132737 0.0048227543 0.05643101 -0.059978954 0.10279042 0.050498527
0.10505942 -0.06283322 -0.045544896 0.048960872 -0.07150716 -0.041238524 0.042647593 0.03666289
0.062354904 0.124466315 0.07337854 -0.016317854 -0.030867444 -0.080090486 0.029461056 0.085632585
-0.06563651 -0.04430645 0.03443344 0.058007337 0.10516758 -0.07106624 -0.019145584 0.06365648
-0.01179444 0.06032197 0.007028334 0.11560771 0.10132135 0.05455996 0.06856669 0.1196546
0.113456465 0.06976499 -0.026743934 0.11573908 0.09971828 -0.016044741 0.08278445 0.0737857
0.014132587 0.049957465 0.040900204 0.07632309 0.026930414 -0.007695515 -0.0067703505 0.047123216
0.043226182 0.040057443 0.07279027 0.07525312 0.054476757 0.08225524 0.07751245 0.053686198
0.07534173 -0.01747401 0.057662934 0.06122235 -0.031756386 0.012047117 0.09760228 0.03960162
0.04810676 0.0648949 -0.0070190006 -0.010306669 0.10576173 -0.07810255 -0.07227485 -0.034947358
-0.032697666 -0.028052188 -0.02432146 0.08129344 -0.051955942 0.09828697 -0.028469827 -0.012872813
-0.046418328 -0.043954443 0.12716101 0.08699568 0.087194614 0.061056376 0.056241192 0.021707257
0.13349397 0.023923427 0.08176518 0.02418716 -0.07188088 -0.029544193 -0.07844799 -0.010633205
-0.018147336 0.090391815 0.029564474 -0.063847736 -0.021959044 0.03420476 0.015955154 -0.03265911
-0.021233909 0.0302326 0.02812738 -0.004992109 0.07911958 0.05674507 0.013328877 0.016992442
-0.0074879453 -0.07159281 0.007390231 0.065306105 -0.01639548 0.08311443 -0.00050644093 0.002975223
-0.08803109 0.03381592 -0.0010209754 -0.020556293 0.04117686 -0.022281766 0.011252777 0.071570985
0.06540785 -0.01961682 0.1318645 0.13188814 0.087905906 0.010959242 -0.0063817888 -0.031622887
0.009504827 0.13725491 0.08019052 -0.079237096 0.037425082 0.0849582 0.0024037957 -0.086854875
0.008958357 0.07332151 -0.04904342 -0.06713343 0.03790704 0.07665182 -0.050917227 -0.032216437
-0.00906539 -0.07202001 0.05938474 0.0976244 0.100665756 0.13781705 0.041063663 0.110072166
0.021657974 0.06876598 0.04981438 0.09540112 -0.030617269 -0.035210997 0.04913073 -0.08476404
0.04114731 0.069303796 0.0153875975 0.007964425 0.011659325 -0.039985612 -0.01286288 0.07046764
-0.0132492 -0.044497136 -0.016025633 0.10352577 -0.038611043 0.039340876 0.029478027 0.057524584
00000000: fa7c debc 1f92 43bd 1260 9d3d 16ec 803d
00000010: 45dd 9b3d bcd7 a23d 8a6e a73d 22f8 3a3d
00000020: 01ec debc 1069 37bd 3e7a 4dbd f18d 12bd
00000030: fcf1 8a3d f06b 85bd 3f35 a73d 3f54 2d3c
00000040: 2120 733c 0114 493d c907 10bd 185f a53c
00000050: 96d9 85bd 8cc5 b4bc 5d1e a83d 2ef3 c93d
00000060: eb6b 933d 58b2 3bbd 72aa e63b c93a dd3d
00000070: 839c cf3d d064 39bc 245b 92bd c9c4 063d
00000080: 363c b33c b8c2 b8bc 4edf b53c afbd 3d3d
00000090: cd5c 3c3d 41be 97bd 970e 97bd ee52 ac3d
000000a0: 5a36 28bd 5962 5d3d 6ae6 05bd bd76 8abd
000000b0: 6e3e c5bc b6fb 503d e847 b0bc a9c1 8f3d
000000c0: 1a30 4d3d e22a 5cbd 5255 7e3c a827 df3d
000000d0: b82c 2abc 4fb4 7e3d 4bda 5dbc a6c4 773d
000000e0: 983f cb3c 80bf 903a 0013 0d3d a537 a53d
000000f0: c183 903d 544b e83a 10a2 0bbd f6e0 3cbd
00000100: 705b b43c e3e5 2c3d 69ed a43c 3208 9e3b
00000110: 3424 673d 7eac 75bd c983 d23d 8bd7 4e3d
00000120: 6529 d73d b4ae 80bd 498d 3abd 328b 483d
00000130: 5972 92bd bae9 28bd 3eaf 2e3d d42b 163d
00000140: db67 7f3d 32e8 fe3d 7d47 963d 05ad 85bc
00000150: b9dd fcbc 7b06 a4bd 5058 f13c 2360 af3d
00000160: 6f6c 86bd ae7a 35bd 140a 0d3d 1a99 6d3d
00000170: 1a62 d73d 2d8b 91bd 33d7 9cbc 545e 823d
00000180: 783d 41bc 2c14 773d f04d e63b bcc3 ec3d
00000190: 9181 cf3d 447a 5f3d b16c 8c3d 790d f53d
000001a0: dd5b e83d f2e0 8e3d 1816 dbbc 9c08 ed3d
000001b0: 1939 cc3d 4370 83bc e58a a93d f51c 973d
000001c0: 5e8c 673c 33a0 4c3d f986 273d 484f 9c3d
000001d0: 2c9d dc3c a92a fcbb d1d9 ddbb 4604 413d
000001e0: f00d 313d 4613 243d 1113 953d 4f1e 9a3d
000001f0: 0523 5f3d 6f75 a83d d9be 9e3d 0fe6 5b3d
00000200: c44c 9a3d a825 8fbc f82f 6c3d 49c4 7a3d
00000210: fc12 02bd 4561 453c b4e3 c73d 4f35 223d
00000220: 980b 453d 9ee7 843d a5ff e5bb 4edd 28bc
00000230: 9b99 d83d 3bf4 9fbd d604 94bd f624 0fbd
00000240: fded 05bd b4cd e5bc cc3d c7bc 2d7d a63d
00000250: c1cf 54bd ae4a c93d 8e39 e9bc 7ee8 52bc
00000260: 2521 3ebd 9309 34bd 7f36 023e cb2a b23d
00000270: 1793 b23d 4016 7a3d 2a5d 663d 6bd3 b13c
00000280: a5b2 083e 10fb c33c 8174 a73d 2724 c63c
00000290: 4836 93bd aa06 f2bc 57a9 a0bd e536 2ebc
000002a0: b9a9 94bc 581f b93d 3231 f23c 9ac2 82bd
000002b0: 74e3 b3bc 4a1a 0c3d 62b4 823c 8fc5 05bd
000002c0: bcf2 adbc 5caa f73c 646b e63c d894 a3bb
000002d0: 7209 a23d 856d 683d 5d61 5a3c bc33 8b3c
000002e0: 705d f5bb 409f 92bd c029 f23b 35bf 853d
000002f0: d04f 86bc e637 aa3d adc2 04ba f5fb 423b
00000300: a549 b4bd 9082 0a3d 40d2 85ba ac65 a8bc
00000310: 11a9 283d 4088 b6bc 915d 383c cf93 923d
00000320: 8df4 853d 74b3 a0bc 7d07 073e af0d 073e
00000330: 0308 b43d 648e 333c 531e d1bb 0087 01bd
00000340: 22ba 1b3c 8d8c 0c3e ed3a a43d 0f47 a2bd
00000350: 0b4b 193d 91fe ad3d 0089 1d3b f8e0 b1bd
00000360: 13c6 123c 9629 963d c1e1 48bd 407d 89bd
00000370: 6a44 1b3d a1fb 9c3d 958e 50bd 62f5 03bd
00000380: 0087 14bc 3a7f 93bd 6a3d 733d 4def c73d
00000390: d929 ce3d ea1f 0d3e 5f32 283d 846d e13d
000003a0: 106c b13c 2ed5 8c3d 2a0a 4c3d aa61 c33d
000003b0: 11d1 fabc 6839 10bd 4e3d 493d c598 adbd
000003c0: 158a 283d 26ef 8d3d 431c 7c3c 387d 023c
000003d0: c106 3f3c f4c7 23bd d4be 52bc 5751 903d
000003e0: 2c13 59bc a142 36bd 3048 83bc 5205 d43d
000003f0: 9d26 1ebd e623 213d e77b f13c e69e 6b3d

model.model.6.bias f4 [7]
0.10442282 0.24909873 0.14064021 0.038284127 0.115122356 0.07083384 0.08890708
00000000: a2db d53d bd13 7f3e fd03 103e d1cf 1c3d
00000010: 45c5 eb3d 5511 913d ea14 b63d

model_old.model.0.weight f4 [128, 42]
-0.10769219 -0.06939922 0.12398082 -0.03493861 0.03560933 0.11302069 0.020360742 -0.122982435
0.070000395 -0.006520371 0.12042409 0.019358646 -0.011745176 -0.031154526 0.014677213 0.08085254
0.004467865 -0.015469627 -0.14308402 -0.061181065 0.018494282 0.054835804 0.1100296 -0.0900298
-0.07854684 0.12810355 -0.11830905 -0.08654329 -0.012616155 -0.032334227 0.1259457 -0.14442119
0.03384841 -0.039828632 -0.14227033 0.043615665 -0.058525596 0.10217062 -0.00964916 -0.12820975
-0.036680315 -0.04289369 0.10416615 0.019879268 -0.063325465 0.0834204 0.017974298 0.059498362
0.024243722 -0.18149598 -0.1555644 -0.11610221 -0.1030249 0.12430127 -0.07532101 0.046632167
0.08217317 -0.15580398 0.05805051 0.045886125 -0.17227156 0.06636863 -0.0948176 0.10238513
-0.047635015 -0.0801588 0.12419414 -0.1331268 0.12440606 0.07736098 0.0036985201 0.00238863
0.11082768 0.03869156 -0.073276564 -0.1728498 -0.12907477 -0.08270068 -0.11889833 -0.08142933
0.027496234 0.11167107 -0.18351556 -0.124623135 -0.044471767 0.060323823 -0.026636371 -0.18428166
0.15179774 0.06848522 -0.01945154 0.016979402 0.021898823 -0.19119711 0.058575194 0.09107384
-0.107760884 0.009649769 -0.18649481 0.12307602 -0.08127297 0.017811643 -0.031976633 0.055297486
0.006636658 0.067205675 0.122430764 -0.020000467 -0.0501504 -0.022834813 0.12654021 -0.12383531
0.10519724 -0.07433058 0.16723302 -0.11273934 0.07049012 -0.1020951 -0.050870467 0.105266936
0.16331087 0.059151717 0.009268122 0.15792392 0.08786536 -0.11647335 -0.107687175 -0.1623299
-0.10678211 0.00063432165 -0.10452219 0.09274807 -0.1404549 0.13408211 0.07875654 -0.12493635
-0.16847323 -0.03461654 0.07637271 -0.015038912 0.099421166 -0.0053148335 0.07876929 -0.06168412
-0.09333636 0.10560975 0.11250075 -0.010956095 -0.16992569 0.029997991 -0.044032175 0.021840528
0.08302962 -0.06447101 0.12624201 -0.05197592 0.118348956 -0.061568867 0.0022900596 -0.032502793
0.045401696 0.104358725 -0.12757806 0.08075166 0.15633148 -0.086857624 -0.12681809 -0.06772121
0.09069924 0.07427996 -0.10942017 -0.07539095 0.014204956 -0.04014701 0.08113929 0.09344197
-0.063212074 0.015631499 0.06324521 -0.0024889032 -0.094780594 0.10756168 0.10662801 -0.09484642
-0.01869233 0.09753188 0.07861852 0.02958915 -0.037451077 -0.14522217 -0.17766908 0.09487577
0.047837198 -0.13639724 -0.052727535 0.009461483 -0.031240556 -0.14049168 -0.13652046 0.0071329023
-0.1526562 -0.13500915 0.1261143 -0.04205953 -0.19462562 0.029994035 -0.11558794 -0.04709525
-0.043421745 0.017720863 -0.16491652 -0.10569419 0.044013154 0.11152702 -0.08652654 0.029479751
-0.13196546 -0.21109581 0.11243876 -0.11369309 0.032871317 -0.0019406191 -0.20655492 -0.05148838
0.06583265 0.05258327 -0.002708707 -0.058906715 0.02965375 0.062674426 -0.01789663 -0.17002732
-0.110302314 0.07148339 -0.08512488 -0.08562216 0.13825303 -0.003908776 0.08986383 -0.061166413
0.013648227 0.068058126 -0.041439828 -0.035423737 0.07490819 -0.038456194 -0.10089737 0.12359788
-0.10749793 0.044704363 -0.0030090287 -0.05949677 -0.10805343 0.1100727 -0.08035605 0.18175472
00000000: b98d dcbd 2e21 8ebd a8e9 fd3d ca1b 0fbd
00000010: 17db 113d 6477 e73d 92cb a63c 37de fbbd
00000020: 5e5c 8f3d d6a8 d5bb e8a0 f63d 0696 9e3c
00000030: d76e 40bc c737 ffbc b178 703c 0496 a53d
00000040: 2b67 923b 5274 7dbc 9e84 12be ff98 7abd
00000050: 5281 973c 829b 603d 3357 e13d 8b61 b8bd
00000060: 2add a0bd 942d 033e 044c f2bd 9c3d b1bd
00000070: fdb3 4ebc e570 04bd e9f7 003e 26e3 13be
00000080: a1a4 0a3d 5923 23bd 50af 11be 57a6 323d
00000090: 89b8 6fbd d43e d13d 8317 1ebc 6b49 03be
000000a0: 193e 16bd 4bb1 2fbd 1055 d53d d9d9 a23c
000000b0: c8b0 81bd 51d8 aa3d d63e 933c 8eb4 733d
000000c0: c59a c63c 15da 39be 464c 1fbe ffc6 edbd
000000d0: b8fe d2bd aa91 fe3d e741 9abd 5f01 3f3d
000000e0: 684a a83d 148b 1fbe 5fc6 6d3d 17f3 3b3d
000000f0: f567 30be 47ec 873d bb2f c2bd 4caf d13d
00000100: ef1c 43bd 4c2a a4bd 7f59 fe3d 6452 08be
00000110: 9bc8 fe3d 6f6f 9e3d df62 723b 908a 1c3b
00000120: 9ff9 e23d 0b7b 1e3d 0612 96bd 8aff 30be
00000130: 2d2c 04be f95e a9bd f880 f3bd 6cc4 a6bd
00000140: c83f e13c cdb3 e43d 81eb 3bbe 6a3a ffbd
00000150: 0728 36bd 1d16 773d 8534 dabc 55b4 3cbe
00000160: de70 1b3e fb41 8c3d d658 9fbc 6318 8b3c
00000170: 2965 b33c 2dc9 43be 8bec 6f3d ec84 ba3d
00000180: bdb1 dcbd 111a 1e3c 7ff8 3ebe 480f fc3d
00000190: 7172 a6bd b9e9 913c eef9 02bd 9e7f 623d
000001a0: 5378 d93b 21a3 893d fbbc fa3d 05d8 a3bc
000001b0: 816a 4dbd 1310 bbbc c293 013e 5e9d fdbd
000001c0: a771 d73d a23a 98bd 223f 2b3e e2e3 e6bd
000001d0: 205d 903d 3c17 d1bd 8d5d 50bd 3196 d73d
000001e0: f73a 273e 1249 723d 52d9 173c cfb6 213e
000001f0: c1f2 b33d 9489 eebd 188b dcbd cf39 26be
00000200: 94b0 dabd 9b48 263a bb0f d6bd b3f2 bd3d
00000210: 69d3 0fbe d24c 093e 1c4b a13d a1de ffbd
00000220: 3f84 2cbe 13ca 0dbd 4c69 9c3d c565 76bc
00000230: 539d cb3d 0e28 aebb cb51 a13d 7da8 7cbd
00000240: 2227 bfbd ed49 d83d cb66 e63d 3181 33bc
00000250: 0001 2ebe 59be f53c 155b 34bd e8ea b23c
00000260: 6f0b aa3d 6009 84bd 9645 013e b4e4 54bd
00000270: f060 f23d a32f 7cbd d314 163b a621 05bd
00000280: 21f7 393d 07ba d53d d3a3 02be 2061 a53d
00000290: 5c15 203e 69e2 b1bd 9adc 01be 6bb1 8abd
000002a0: 86c0 b93d 1720 983d af17 e0bd 9266 9abd
000002b0: e7bb 683c 3171 24bd 5b2c a63d 815e bf3d
000002c0: 5575 81bd a10d 803c b486 813d de1c 23bb
000002d0: 541c c2bd 4c49 dc3d c95f da3d d73e c2bd
000002e0: a820 99bc cbbe c73d bf02 a13d f264 f23c
000002f0: 4d66 19bd 1fb5 14be e2ee 35be 3a4e c23d
00000300: f0f0 433d b8ab 0bbe d4f8 57bd 5604 1b3c
00000310: 32ec ffbc 0ddd 0fbe 05cc 0bbe 1fbb e93b
00000320: e851 1cbe d73f 0abe 1b24 013e 9d46 2cbd
00000330: f04b 47be 0db6 f53c 5fb9 ecbd f3e6 40bd
00000340: 00db 31bd 582b 913c e0df 28be 3276 d8bd
00000350: 2347 343d 4768 e43d d434 b1bd 857f f13c
00000360: f421 07be 8029 58be 4b46 e63d ecd7 e8bd
00000370: 13a4 063d 5f5c feba 2283 53be 7be5 52bd
00000380: 45d3 863d 8e61 573d 9084 31bb 2b48 71bd
00000390: 6cec f23c 735b 803d f49b 92bc a41b 2ebe
000003a0: 2ee6 e1bd e265 923d f455 aebd ac5a afbd
000003b0: 3492 0d3e 3115 80bb 870a b83d a289 7abd
000003c0: d09c 5f3c 0f62 8b3d cfbc 29bd 7b18 11bd
000003d0: 7769 993d 3e84 1dbd 48a3 cebd e320 fd3d
000003e0: e027 dcbd ec1b 373d 2033 45bb e3b2 73bd
000003f0: 1e4b ddbd cc6d e13d b691 a4bd e91d 3a3e

model_old.model.0.bias f4 [128]
0.24889639 -0.09724866 -0.0012428456 -0.09665497 0.17379887 0.16956677 0.23815142 0.10260309
0.2905841 0.22795725 -0.09850548 0.2519921 0.27996457 -0.09419884 0.02229222 0.24437329
0.1651752 0.13917525 -0.02994711 -0.071392596 -0.05151146 0.115288205 0.23705986 -0.08547337
-0.07950415 -0.019650161 0.17093499 -0.07101302 -0.040412717 -0.15517458 0.15798976 0.16591518
0.09451193 0.24248977 0.23268545 0.23419788 0.0869291 -0.111853376 -0.011558089 0.26665878
0.14632751 -0.08700751 0.2826423 0.15810303 0.19290839 0.28197095 0.2261957 0.11782316
0.2758 0.2594965 -0.10867895 -0.022143502 -0.0721258 0.2678634 0.21453346 0.3744016
-0.06930406 0.2501345 0.21227513 -0.0029663898 0.39111015 -0.05194154 0.20504421 -0.013364475
-0.024699247 0.1382256 0.13051315 -0.08026197 -0.016621657 0.03891713 0.049220137 0.2401742
0.2844544 0.033235922 0.2641053 0.28480127 0.10296916 -0.04867694 0.2910287 0.2419372
0.14231119 0.17271 -0.11290091 -0.06146294 -0.116697565 0.14675552 0.26322907 0.12474176
-0.022680337 0.11363601 0.07396114 0.26808837 0.14077477 0.1941434 0.27231777 0.21137601
0.17807175 0.3169972 0.09414139 -0.11368107 0.23129769 0.22242466 0.213197 -0.07737834
-0.105215274 0.29854697 -0.12930037 0.12547079 0.22049151 0.19222489 -0.07863857 0.1229814
0.22177288 -0.037835125 -0.01708929 0.15501928 -0.040067744 0.056907542 0.14710985 0.22721355
-0.033264205 0.021748934 0.2507582 0.13794869 0.26183945 0.23938118 0.18768102 0.20029116
00000000: b2de 7e3e 4e2a c7bd fae6 a2ba 0af3 c5bd
00000010: 55f8 313e e9a2 2d3e f7dd 733e 9221 d23d
00000020: 70c7 943e a06d 693e 3ebd c9bd 1c05 813e
00000030: 8457 8f3e 52eb c0bd 2c9e b63c fe3c 7a3e
00000040: b023 293e f583 0e3e a453 f5bc 4836 92bd
00000050: aefd 52bd 391c ec3d d2bf 723e aa0c afbd
00000060: 12d3 a2bd 60f9 a0bc 9509 2f3e 466f 91bd
00000070: ce87 25bd 16e6 1ebe 11c8 213e abe5 293e
00000080: 798f c13d 3d4f 783e 1845 6e3e 92d1 6f3e
00000090: e207 b23d 6213 e5bd 245e 3dbc 8087 883e
000000a0: e1d6 153e fe30 b2bd 7eb6 903e c3e5 213e
000000b0: c789 453e 7f5e 903e d89f 673e 454d f13d
000000c0: a835 8d3e badc 843e 1293 debd 4a66 b5bc
000000d0: b1b6 93bd 6425 893e a9ae 5b3e 91b1 bf3e
000000e0: 49ef 8dbd a111 803e a75e 593e c367 42bb
000000f0: 973f c83e a7c0 54bd 1cf7 513e acf6 5abc
00000100: 1356 cabc 038b 0d3e 3da5 053e 6360 a4bd
00000110: 242a 88bc 9267 1f3d 0e9b 493d 3af0 753e
00000120: 02a4 913e 6422 083d cf38 873e 79d1 913e
00000130: 7fe1 d23d 7961 47bd b701 953e 63be 773e
00000140: 06ba 113e e4da 303e 9838 e7bd 90c0 7bbd
00000150: 22ff eebd 1447 163e f6c5 863e 9c78 ff3d
00000160: 1dcc b9bc ffb9 e83d f078 973d e142 893e
00000170: 4327 103e 87cd 463e 3c6d 8b3e f472 583e
00000180: 7158 363e 754d a23e 33cd c03d 9fd1 e8bd
00000190: 4dd9 6c3e 4ac3 633e 5050 5a3e 8978 9ebd
000001a0: 1b7b d7bd 26db 983e 5167 04be 6a7b 003e
000001b0: 87c8 613e 9ad6 443e 420d a1bd acdd fb3d
000001c0: 6e18 633e 01f9 1abd d7fe 8bbc 60bd 1e3e
000001d0: 131e 24bd e217 693d f7a3 163e abaa 683e
000001e0: 0c40 08bd d22a b23c 6163 803e 6c42 0d3e
000001f0: d20f 863e 5720 753e 742f 403e 2019 4d3e

model_old.model.2.weight f4 [128, 128]
0.0666199 -0.0047456333 0.016427707 -0.045496225 -0.021630405 -0.024176428 0.2155914 0.030068088
0.031708684 0.016076446 0.10701128 0.07366224 0.08343948 -0.035582133 0.008564627 0.09600063
0.109165885 -0.09369428 -0.08398803 0.012774036 -0.104201086 -0.06834932 0.067626946 -0.08284392
0.097932555 -0.07365789 -0.07811648 -0.033926584 -0.049786817 0.037807923 -0.03568033 -0.046432197
-0.07431515 -0.052649748 -0.06082972 -0.06154984 0.10495596 -0.009869874 -0.035071008 0.00051289087
-0.06674619 0.13847013 0.05023955 -0.013964037 0.051318888 -0.014632777 -0.05533914 0.08117608
-0.005859976 -0.07428446 0.009774181 -0.036673736 -0.097037606 0.020153902 -0.11332375 0.24216612
0.08183417 -0.07836264 0.018346306 0.046938926 0.23628008 0.09125618 0.14146 0.09118898
-0.049579058 -0.06102618 0.03512608 -0.03807164 -0.013313638 -0.022385739 0.026803968 0.12831575
-0.028846946 0.024628576 0.017853364 0.085936844 -0.027341397 0.061049186 -0.025754362 0.11389977
0.09779582 0.014732786 -0.010497198 -0.10367206 -0.026346229 0.07260462 0.045817997 -0.059975337
-0.02663674 -0.044357434 -0.00854117 0.024601871 -0.02924287 -0.029147426 -0.06561478 0.091001995
0.031858653 0.11263498 0.14561555 -0.019966632 0.09004798 -0.05183691 -0.08843252 -0.080133125
0.10326129 0.11901088 0.006479661 0.02533387 -0.04488685 0.077215016 0.005871064 -0.0906648
0.012793227 -0.018822776 0.07154881 -0.007072143 0.0801882 0.03679212 -0.0587122 0.079557166
0.091184236 -0.059413575 0.21729672 0.069553055 0.05149476 -0.04505935 0.043100886 0.005325581
-0.034824066 0.059511088 -0.013279202 -0.047320995 0.077691145 0.07168654 0.089393295 -0.044520874
0.06619969 0.0056256596 -0.03786491 0.11429103 0.023963781 -0.08120657 -0.006155736 0.10400641
-0.028786344 0.08744081 -0.08788669 0.07732395 0.0605896 0.064480826 -0.024833392 -0.06476409
0.114819296 0.08253541 0.07321059 -0.071006015 0.03030828 -0.082209505 0.11019046 0.081093974
-0.048760857 0.0287201 0.08192421 0.015379632 0.11956832 -0.05456298 0.023491872 0.04903212
-0.038956646 0.07922556 -0.050843272 -0.03212139 -0.028004907 -0.0018447062 -0.008341651 0.17180456
0.0445584 0.06506923 0.05277057 0.06600302 0.05262712 -0.043834902 0.014688655 0.26333445
0.08968979 -0.041266743 0.10200888 -0.046168547 0.17596152 -0.014957309 0.1085123 -0.028079504
-0.04416058 -0.043448497 -0.05810136 0.05968788 0.070043564 0.09389401 -0.006088611 0.06976187
0.07303168 0.09771239 -0.043464184 0.08106233 -0.06058113 -0.026366167 -0.03390028 0.13024679
0.07120673 0.0057344157 0.06396058 -0.06328853 -0.0038155764 -0.0499815 0.12726232 0.10479358
0.108280174 -0.02419228 0.057514835 0.10308981 -0.07995703 0.050423805 -0.030784884 -0.030193493
0.0747948 0.115301035 0.10431993 0.017099323 0.12580664 0.054270785 0.0968589 0.08801781
0.02232177 0.083402336 0.038367853 -0.08746079 0.1084892 0.093481645 0.07848829 -0.079310894
0.008158604 -0.05301306 0.16101225 0.09340674 0.09591198 -0.033209823 0.12216946 -0.0032476154
0.09753064 0.05996737 0.0867819 0.03883768 0.06882222 0.048196696 -0.016310167 0.0035514021
00000000: 0470 883d 4281 9bbb 6693 863c 405a 3abd
00000010: 3f32 b1bc a50d c6bc fec3 5c3e 5a51 f63c
00000020: f7e0 013d c0b2 833c bb28 db3d 3adc 963d
00000030: 51e2 aa3d 92be 11bd a652 0c3c fa9b c43d
00000040: 5d92 df3d c9e2 bfbd eb01 acbd 314a 513c
00000050: 6167 d5bd bafa 8bbd ff7f 8a3d 13aa a9bd
00000060: dd90 c83d f3d9 96bd 88fb 9fbd 9af6 0abd
00000070: 43ed 4bbd 7bdc 1a3d 8a25 12bd b02f 3ebd
00000080: 8b32 98bd 43a7 57bd 9628 79bd af1b 7cbd
00000090: 26f3 d63d 41b5 21bc 9ea6 0fbd 8673 063a
000000a0: 3ab2 88bd 1dcb 0d3e fdc7 4d3d 6bc9 64bc
000000b0: c133 523d 51be 6fbc 4bab 62bd a53f a63d
000000c0: 0b05 c0bb 7322 98bd e323 203c 3337 16bd
000000d0: a7bb c6bd cc19 a53c 4816 e8bd 65fa 773e
000000e0: ac98 a73d 987c a0bd fe4a 963c 0843 403d
000000f0: 68f3 713e 85e4 ba3d e4da 103e 4ac1 ba3d
00000100: 6913 4bbd 96f6 79bd 5de0 0f3d 02f1 1bbd
00000110: 7221 5abc 4c62 b7bc ff93 db3c 3465 033e
00000120: 6e50 ecbc dec1 c93c 3841 923c a8ff af3d
00000130: 11fb dfbc b60e 7a3d d0fa d2bc 4844 e93d
00000140: 2d49 c83d c961 713c 71fc 2bbc 0452 d4bd
00000150: 0cd4 d7bc bbb1 943d a7ab 3b3d b3a8 75bd
00000160: 4b35 dabc 24b0 35bd 43f0 0bbc dd89 c93c
00000170: be8e efbc 95c6 eebc 0b61 86bd 415f ba3d
00000180: 387e 023d 2bad e63d 3e1c 153e 1091 a3bc
00000190: 136b b83d f152 54bd 1c1c b5bd d61c a4bd
000001a0: a87a d33d fabb f33d 5653 d43b fa88 cf3c
000001b0: 46db 37bd e822 9e3d 0e62 c03b 77ae b9bd
000001c0: af9a 513c 3932 9abc 2f88 923d 6fbd e7bb
000001d0: b639 a43d 56b3 163d 347c 70bd deee a23d
000001e0: cdbe ba3d a65b 73bd 0883 5e3e d571 8e3d
000001f0: 2bec 523d 2790 38bd 8e8a 303d 3682 ae3b
00000200: aea3 0ebd e6c1 733d 0391 59bc a9d3 41bd
00000210: 891c 9f3d 65d0 923d d513 b73d 855b 36bd
00000220: b493 873d 7457 b83b 3c18 1bbd 6a11 ea3d
00000230: b14f c43c a14f a6bd 0eb6 c9bb 5001 d53d
00000240: 57d1 ebbc 2b14 b33d f0fd b3bd 055c 9e3d
00000250: cd2c 783d 860e 843d 666f cbbc 09a3 84bd
00000260: 6126 eb3d 5308 a93d 6fef 953d 9a6b 91bd
00000270: 1249 f83c 755d a8bd 89ab e13d 9914 a63d
00000280: 77b9 47bd 6a46 eb3c e1c7 a73d dafa 7b3c
00000290: 3ce0 f43d 6e7d 5fbd 0772 c03c e7d5 483d
000002a0: 0191 1fbd 0341 a23d 0941 50bd b891 03bd
000002b0: 8c6a e5bc 12ca f1ba 6cab 08bc 89ed 2f3e
000002c0: de82 363d 0443 853d f425 583d 972c 873d
000002d0: 898f 573d 3a8c 33bd afa8 703c c6d3 863e
000002e0: 48af b73d 5107 29bd 08ea d03d 3b1b 3dbd
000002f0: 422f 343e 800f 75bc b23b de3d fd06 e6bc
00000300: b9e1 34bd 0df7 31bd b1fb 6dbd 477b 743d
00000310: 0073 8f3d 814b c03d f982 c7bb 50df 8e3d
00000320: a291 953d 6f1d c83d 8007 32bd 0204 a63d
00000330: eb23 78bd dcfd d7bc 05db 0abd 6a5f 053e
00000340: d6d4 913d c4e7 bb3b c4fd 823d 6b9d 81bd
00000350: c00e 7abb 67b9 4cbd 0e51 023e 049e d63d
00000360: ffc1 dd3d e32e c6bc ad94 6b3d c020 d33d
00000370: 83c0 a3bd 3189 4e3d 9530 fcbc 5858 f7bc
00000380: 042e 993d f322 ec3d b0a5 d53d e113 8c3c
00000390: 75d3 003e 0b4b 5e3d f55d c63d ae42 b43d
000003a0: 25dc b63c d8ce aa3d 9c27 1d3d a51e b3bd
000003b0: 962f de3d 4e73 bf3d 78be a03d c06d a2bd
000003c0: aaab 053c 3924 59bd 65e0 243e 084c bf3d
000003d0: 806d c43d 0607 08bd fb33 fa3d f2d5 54bb
000003e0: 25be c73d 58a0 753d b5ba b13d 4214 1f3d
000003f0: aaf2 8c3d e669 453d e69c 85bc a4be 683b
