project/paper_notebooks/saved_variables/paper_notebooks/7/6/6-looping-iteration-99/final_policy_agent1.pth (torch, 543093 bytes, 16 tensors)

model.model.0.weight f4 [32, 1, 4, 4]
000000 10 d9 1f be 7c 5f ef bd 38 fc 57 3e f1 09 b3 3c
       -0.15610147 -0.11688134 0.21092308 0.021855326
000010 be a0 80 3d ed 6e 43 3e 52 c8 a1 bb 8c 19 26 be
       0.06280659 0.19085284 -0.00493721 -0.16220683
000020 00 b8 30 3e 2e 7c 96 3c 98 bf 65 3e f0 62 58 3d
       0.1725769 0.01836976 0.22436368 0.05282873
000030 8a d7 fb 3d 71 a6 a5 3c 35 3b f5 3d 27 b8 21 3e
       0.1229697 0.020220967 0.119741835 0.15792905
000040 11 f9 4c 3d 3e 55 fe 3c 36 a2 16 be 5f 6f 98 bd
       0.050042216 0.031046506 -0.14710316 -0.07443117
000050 06 65 93 3d 4e c6 cf 3d 83 f3 3b 3e dd dd 59 be
       0.07197003 0.101452455 0.18354611 -0.2127604
000060 c0 43 82 be d0 e2 42 3e 4b 92 7e be f2 6f a4 be
       -0.25442314 0.19031835 -0.24860494 -0.32116657
000070 11 fb 48 bc a9 ce c3 bd 68 a4 54 3e 37 49 77 be
       -0.01226689 -0.09560902 0.20765841 -0.24149023
000080 8c 33 d3 3d e8 50 d8 bd 3a 0b 68 be 12 aa e5 3c
       0.10312566 -0.10562307 -0.22660533 0.028035197
000090 5c 8e 4d be 7f f9 d8 3d 2f 90 38 bd cc e6 9c be
       -0.20073837 0.105944626 -0.04505938 -0.30644834
0000a0 e9 8e 95 bd 14 70 49 bd bf c6 5a 3e 16 66 ba 3d
       -0.073026486 -0.04917915 0.21364878 0.091015026
0000b0 40 ab e5 bc 59 06 5d 3e f2 e2 75 3d 7d 41 09 3e
       -0.02803576 0.21584453 0.060030885 0.13403888
0000c0 1c 7f e8 3c f6 ad 77 be 86 8b 20 be 1d 9f 13 be
       0.028380923 -0.24187455 -0.15678224 -0.14416166
0000d0 d4 2c 1d be a1 c1 46 3e bc be b8 bd 37 07 8f 3d
       -0.15349132 0.19409801 -0.09020755 0.06983798
0000e0 5b f6 3e 3e 6f 68 38 be e2 ad 2d 3e 0b c2 eb 3d
       0.18648665 -0.18008588 0.16960862 0.1151162
0000f0 ef f9 5d be f9 f4 1c 3e 1a 51 f2 bd af 10 73 3e
       -0.21677373 0.15327825 -0.11831875 0.23736833
000100 ca 35 34 bc 2a 72 ac bd e7 2b 8c 3e bc d9 ec bd
       -0.010999152 -0.084202126 0.27377245 -0.11564967
000110 66 94 96 3e 25 24 a6 3d cc be 8f 3d ac a0 cb 3c
       0.29410094 0.08112363 0.070188135 0.024856888
000120 51 b7 83 3e 71 52 a9 3d f7 c1 dc bd 52 00 92 be
       0.25725797 0.082676776 -0.10779183 -0.2851587
000130 e9 88 08 be 5f b2 0a bd b1 dd ee bd 23 56 0f be
       -0.13333477 -0.033861514 -0.11663378 -0.13997702
000140 a0 b8 50 3d f7 7f 32 3e e7 0c 6e be 47 9e 62 be
       0.050957322 0.17431627 -0.2324711 -0.2213069
000150 fd d3 9c bc a5 d7 b7 3d f5 d6 2e 3a 09 54 7b be
       -0.019144053 0.08976678 0.00066696043 -0.24543776
000160 f6 5d 8f 3e 12 39 21 3e 4b 29 9b bc a6 a8 6e 3d
       0.28001374 0.15744427 -0.018940588 0.058266304
000170 fa 57 8d 3d 93 fa 58 be fe ba 4e 3e 77 d4 25 3e
       0.06901546 -0.21189336 0.2018852 0.1619433
000180 f0 a9 01 be 0c fe 91 3d 87 b1 60 be 1a fb 1a 3e
       -0.12662482 0.07128534 -0.21942721 0.1513485
000190 56 9d 38 bd 33 70 ea 3d 3c 82 ac bb ed ab cc 3d
       -0.045071922 0.114471816 -0.0052645486 0.0999373
0001a0 57 61 13 3e 28 7d 2b 3e 9d 94 53 3e b9 49 46 bd
       0.14392601 0.16746962 0.2066216 -0.04841015
0001b0 10 3d 84 bd 8a 56 31 3c 99 e2 7e 3e fd fd f9 bd
       -0.06456959 0.010823855 0.24891128 -0.122066475
0001c0 03 11 33 3e 44 65 67 be 03 6a 6d 3e ca 1f 4e be
       0.17486958 -0.22597224 0.23184972 -0.20129314
0001d0 3c df 08 3e 78 ac 50 be ed cd 8f bd d5 d8 10 3e
       0.13366407 -0.20378292 -0.07021699 0.14145215
0001e0 47 1d 8d 3e e7 17 97 3d d4 3c 6d bb d9 7f 6e 3e
       0.275614 0.07377606 -0.0036199586 0.23290958
0001f0 29 83 58 3e 02 70 9c bd 5e 6d b4 bd b5 6c 37 be
       0.21143784 -0.07638551 -0.08809923 -0.17912562
000200 a9 ca 4d be 5e 95 b0 3d 10 48 c6 bd 0a 4e ff 3d
       -0.2009684 0.086222395 -0.096817136 0.12466057
000210 08 2c 91 be 44 66 46 3e a9 50 60 3e b9 ec 7f be
       -0.28353906 0.19374949 0.2190577 -0.24992646
000220 b7 64 72 be ff 86 d4 3b 76 77 16 3e 07 29 e2 bd
       -0.23671232 0.0064858194 0.14694008 -0.110429816
000230 b3 31 35 3e f3 6d 7a 3d 26 86 3d 3e 52 fa ab bd
       0.1769474 0.061140012 0.18508205 -0.08397354
000240 8c 60 56 bd b5 d7 12 3e 99 4b 53 3e 8d c5 73 bc
       -0.052338168 0.14340098 0.20634307 -0.014878643
000250 27 0d 8f be b5 46 c4 bc 88 ba f8 bd c4 e7 1b bc
       -0.27939722 -0.023959497 -0.12144953 -0.009515706
000260 95 a5 8f 3d f6 63 11 be fd 8a 41 3e 7d 82 28 be
       0.07014004 -0.14198288 0.18900676 -0.16456027
000270 3c 2e 77 3e 69 51 d5 bd a2 63 11 3d 7d cf 82 bd
       0.24138731 -0.104159184 0.035495408 -0.063872315
000280 01 d9 8c 3d f7 c1 e6 3d 1c c8 86 be a5 f8 bd 3d
       0.06877328 0.112674646 -0.26324546 0.09275941
000290 6c 9b 6a 3e 67 86 75 be 16 a1 91 be 43 f3 1c be
       0.22910851 -0.23977052 -0.2844321 -0.15327172
0002a0 b9 4d 27 3e 75 f8 52 3d 33 7a 8b be 33 d7 e0 bd
       0.16338243 0.05150648 -0.27241668 -0.10978546
0002b0 d6 8d f3 3b b8 e7 73 bd 72 84 e0 3d 2b 0a 4e 3e
       0.0074326796 -0.059547156 0.10962762 0.20121066
0002c0 e9 16 95 bd 49 43 16 3d 84 f7 4a 3e 02 c4 43 bd
       -0.072797604 0.036685262 0.19820982 -0.04779435
0002d0 6b 8d 98 bd 2f 17 4d 3e 15 c7 76 3e d2 76 99 bd
       -0.07448848 0.20028375 0.24099381 -0.07493366
0002e0 74 63 d5 3d b4 d7 79 3e 98 d9 34 3e 41 46 4f 3d
       0.1041936 0.2439869 0.1766113 0.05060411
0002f0 55 54 3d 3d 0a 9d 4e be f9 47 20 be 7f 12 05 3e
       0.046223003 -0.20177093 -0.15652455 0.12995337
000300 25 86 da 3d c5 55 0c be 57 37 6a bd db 5f 28 bc
       0.10670117 -0.13704593 -0.057181682 -0.01027676
000310 b1 a5 6f bd d7 27 3b be fd f1 6f be b4 5d 90 bc
       -0.058507625 -0.18276916 -0.23432155 -0.017622806
000320 ee b7 af bd 4c 5b 44 be 5e 7c 42 3e e6 12 0e be
       -0.08580004 -0.19175452 0.18992755 -0.13874397
000330 b3 44 38 be eb 77 40 3d 04 af 30 be 2b e1 e0 bc
       -0.17994957 0.046989363 -0.17254263 -0.027451118
000340 b0 1b 9a bd a6 95 99 bb 48 e7 9c be b3 33 3d be
       -0.07524812 -0.004687029 -0.30645204 -0.18476753
000350 e0 e2 f0 3d f9 4a 50 3e 67 cc 35 be 6f 70 eb 3d
       0.11762023 0.203411 -0.17753755 0.114960544
000360 82 8c e7 bd 5d 0a 8e be 9d 82 6b 3e f8 d0 34 be
       -0.113060966 -0.27742282 0.22999044 -0.1765784
000370 14 55 35 3e 76 9c 10 bc 4c 1c 4f be 43 dc 55 3d
       0.17708236 -0.008826366 -0.20225638 0.05221201
000380 fd b8 00 3e bb 0f c9 3d 89 3a 93 3d b3 60 69 bc
       0.12570567 0.098174535 0.07188899 -0.014244246
000390 28 5a 2b 3d 82 7c bb 3d bd 96 19 3d 7a a1 89 be
       0.041834027 0.09154607 0.03749727 -0.2688101
0003a0 d6 a4 72 be d9 ed d0 3d 50 3b 31 be 58 ec 27 be
       -0.23695692 0.10201616 -0.17307782 -0.16398752
0003b0 49 46 92 3e 64 c1 88 bc c7 f1 48 3e 29 a9 43 be
       0.28569248 -0.016693778 0.1962348 -0.19107498
0003c0 32 41 a1 3a b1 8b d3 3d e7 41 8f bc da c7 66 bd
       0.0012302755 0.103293784 -0.01748748 -0.056342937
0003d0 99 11 30 3d 71 c6 ae bc ba 46 88 be a6 ae 01 3e
       0.042985532 -0.021334859 -0.2661646 0.1266428
0003e0 50 f0 5d be 6a 8f d5 3d de 1c 7f 3c 48 a5 0e be
       -0.21673703 0.10427745 0.015570847 -0.13930237
0003f0 ae 00 4c be 05 c7 34 3e a4 a6 bb bd bf b5 4f 3e
       -0.19922134 0.17654045 -0.091626436 0.20284174

model.model.0.bias f4 [32]
000000 b0 ac 51 3c c9 2e 1b be 39 34 47 be 01 2b c2 bd
       0.01279752 -0.15154566 -0.19453515 -0.094808586
000010 0e e9 0b be aa 45 5c be a9 93 c3 3c 0b d3 b2 3d
       -0.13663122 -0.2151095 0.02387412 0.087316595
000020 45 37 4b 3d 18 c4 1d 3e 62 5b c9 bb 86 91 33 be
       0.049613256 0.15406835 -0.006144927 -0.17535982
000030 68 13 9b 3d ba 5c 84 3d 7c 15 12 3e 7b 88 47 3e
       0.07572061 0.06462999 0.14266008 0.19485657
000040 92 b7 66 3e b0 a9 b5 3d d6 0c 80 bd 77 ad 66 bc
       0.22530964 0.08870256 -0.06252448 -0.014079443
000050 0f 14 81 3e fb 35 45 3e 64 e2 12 3e 2d e9 a1 3e
       0.25210616 0.19258873 0.14344174 0.31623212
000060 07 75 17 3e 2a 80 88 3d f0 bc 8a 3d c6 5d 89 3e
       0.14790736 0.0666507 0.06774318 0.26829356
000070 35 02 2e 3e a3 88 3c be bb 22 3f 3e 7e d7 19 be
       0.1699303 -0.18411498 0.18665592 -0.1502361

model.model.4.weight f4 [128, 384]
000000 52 c9 1a bd 96 c9 2d bd c9 f0 c8 bc 37 69 3e 3d
       -0.03778965 -0.042428575 -0.024528878 0.04648706
000010 a6 ce f1 3c 86 28 35 3d a6 09 e2 ba 52 f9 88 3c
       0.029517483 0.0442281 -0.0017245307 0.016720448
000020 d3 a2 8a 3c be 1f 25 3c c0 7d 62 bd 6a 88 42 bd
       0.016923344 0.010078369 -0.055295706 -0.047493376
000030 87 88 15 3d 8b a7 ff 3d 59 36 c4 3c 79 f1 88 3d
       0.036507156 0.12483128 0.023951696 0.06686682
000040 9d 9b 18 39 75 6b 26 bc e7 99 80 3b ed a4 72 bc
       0.0001455382 -0.010157456 0.0039245966 -0.014809829
000050 f4 39 b1 3d 6e 2f 19 bd c3 d2 ec bc f7 f4 b9 3d
       0.08653632 -0.037398748 -0.028909093 0.090799265
000060 e9 ed aa 3d ec 5d b1 3d 12 ec 5a 3d 23 2c 32 3d
       0.08346159 0.08660492 0.05344779 0.043499123
000070 4d 35 2b 3d ce bc 12 3d 9e 5a b4 3c a2 25 3e 3d
       0.04179888 0.03582459 0.022015866 0.04642261
000080 50 38 12 3d d8 14 f8 3c 67 f1 62 bd b9 4f dc bc
       0.035698235 0.030283377 -0.055406 -0.026893483
000090 4f cc 86 3c 56 af 81 3c 96 9e e0 3c 2d 7d e5 ba
       0.016454844 0.015830677 0.02741937 -0.0017508619
0000a0 cc 71 c7 3c 9a bf 3b 3b ea ec a5 3d ac 2c a7 3d
       0.024346255 0.002864814 0.081018284 0.08162817
0000b0 de 19 ba 3d 0f 15 72 bd a1 16 6e 3d 6e aa c4 bb
       0.09086965 -0.059102114 0.05812705 -0.006001762
0000c0 c4 11 31 bd 8c d2 c6 bd bb 2b da bc 70 04 b6 3c
       -0.043229833 -0.097081274 -0.02663218 0.022218913
0000d0 ba 13 e5 3c 08 d3 81 3b 68 73 82 bd 73 c6 f0 3b
       0.027963508 0.0039619245 -0.06369668 0.0073478757
0000e0 7a 7f f2 3b ff 0b e6 3c fb b6 11 3d a5 2e 6a 3d
       0.0074004503 0.028081892 0.035574894 0.05717339
0000f0 5d c0 bf bd 3b 42 95 3c f6 ae 39 bd 3f aa 7a bd
       -0.09362862 0.018220058 -0.04533287 -0.061197516
000100 55 e7 10 bd ce c3 cf 3d 40 d4 46 3d 40 40 1f 3d
       -0.035376865 0.10144769 0.04854226 0.038879633
000110 87 b4 98 3d dd 1e 8b 3d f3 31 12 3d b1 ac f4 3c
       0.07456308 0.06792996 0.035692167 0.029867502
000120 84 df e1 bd 86 e1 85 bb 7c 3c 89 bd 6e f1 c6 3c
       -0.1102896 -0.0040857224 -0.067009896 0.024285045
000130 46 39 8e b9 f3 d0 34 bd a7 5a 00 bd 6a 11 50 bc
       -0.00027127023 -0.044144582 -0.031336453 -0.012699464
000140 44 1a 5b 3d 6d f8 46 bc 61 06 73 3d a7 48 2f 3d
       0.053491846 -0.01214419 0.059332255 0.042793896
000150 b9 73 c1 bc 5e 32 8f bc 61 24 c5 bb 30 49 16 bd
       -0.023614751 -0.017480072 -0.0060162996 -0.03669089
000160 8d 97 4d bd c6 9d b7 bc aa 0a 26 3d b9 d7 8d bc
       -0.05019336 -0.0224141 0.040537514 -0.017314779
000170 f5 d5 ff ba f4 16 51 3d 55 e9 95 3d 19 e9 3a 3d
       -0.001951872 0.05104728 0.07319895 0.045632455
000180 58 8c 23 bc a1 c0 4c 3d e5 05 10 3d 4b f1 45 3d
       -0.009982191 0.049988393 0.03516187 0.048325818
000190 f8 17 02 bd 2f 51 cd bb 3f 54 80 3d 88 45 e2 bb
       -0.03176114 -0.0062657814 0.06266069 -0.0069052614
0001a0 90 23 7e 3b 5b 6a 8c 3c b9 f6 35 bd d2 56 08 3d
       0.003877852 0.017140558 -0.044424746 0.033285923
0001b0 dd 74 3b 3c 71 be 40 bc 76 f6 8e bc 3b 91 ed 3c
       0.011441437 -0.011764155 -0.017451506 0.028999915
0001c0 97 8d ed 3c 5b 5e 89 3d e5 3e 57 bd c2 c2 04 3d
       0.02899818 0.0670745 -0.052550215 0.032412298
0001d0 b0 4f 51 3b 1e a3 2f bd 77 6b dc bc 1b c9 6e bd
       0.0031938367 -0.04288017 -0.026906712 -0.058297258
0001e0 1c 5b 28 bd d5 9e 80 3c 67 01 bc bc ab 26 5e bc
       -0.041102514 0.015700737 -0.022949887 -0.013559024
0001f0 c9 e0 43 bc e0 13 a4 3d bb cf 5d 3d 31 d0 ee 3c
       -0.011955448 0.08011603 0.054153185 0.029152008
000200 50 8d c5 3d 7d 85 df 3c a2 f9 21 bd f8 40 53 3d
       0.09646094 0.027285332 -0.03954471 0.05157563
000210 6a 8e 46 bd e2 3b 22 bd 1e 84 26 bd 78 68 48 3c
       -0.04847566 -0.03960789 -0.04065334 0.012231939
000220 67 80 06 bc 91 26 de 38 18 dd 23 bd b0 34 86 bd
       -0.008209324 0.000105929685 -0.040005773 -0.06553018
000230 9d 4b 00 bd 7d 62 97 bd a6 ad 6c bc 77 8a 11 3c
       -0.03132211 -0.07391832 -0.014445698 0.00888311
000240 43 45 ef 3d 0a 62 f9 bc b3 f0 47 3e 47 cd c1 3d
       0.116831325 -0.030442256 0.19525413 0.09462982
000250 bf 56 fe 3d be 66 81 bd c7 cd 12 3e 68 e4 ee 3d
       0.12418889 -0.06318425 0.1433631 0.11664659
000260 6d b2 d3 bc 2b cd 19 bd 1a 02 0a 3e 35 7f df 3c
       -0.025841916 -0.03754918 0.13477364 0.027282337
000270 81 9d 03 3c ef aa 1c 3e 39 9e 83 3d 0c 55 3a 3d
       0.008033157 0.15299581 0.06426663 0.045491263
000280 4b fc 07 bd 4c c1 16 3e 24 1e a0 bb d8 69 68 3b
       -0.03319959 0.14722174 -0.0048864055 0.0035463478
000290 e3 d0 e2 3d 60 92 2e 3e 20 ec 03 3e 89 07 17 3e
       0.11074998 0.17048025 0.12883043 0.14748968
0002a0 46 fd d7 3b fa 94 82 3c 25 78 ba bc 05 bb 83 3d
       0.006591472 0.015940178 -0.022762368 0.064321555
0002b0 b6 d6 cf 3a 0e 89 e3 3c 35 74 bd 3c 4f 4b 28 3d
       0.0015856836 0.027775314 0.0231267 0.041087445
0002c0 47 69 1e 3d 59 76 9c 3c 9f 09 05 3d 0d cb 0f bd
       0.03867462 0.019099401 0.03247988 -0.035105754
0002d0 5b b2 ad 3d c8 06 4b 3d 1e 76 9b bb 08 d6 56 3d
       0.08481284 0.049567014 -0.0047443053 0.05245021
0002e0 de 7c bd 3c e3 3a c8 bb 27 61 e0 3d 19 0e d7 3a
       0.02313083 -0.0061105355 0.1095603 0.00164074
0002f0 1d 35 95 3d bf 4f af 3c 3f 83 04 3d a0 f6 24 3d
       0.07285521 0.02140033 0.03235173 0.040274262
000300 92 5d c8 3d 66 b6 7d 3c d4 2e 95 3d 2b 8f 1f 3c
       0.09783472 0.015485382 0.072843224 0.009738724
000310 f0 17 77 3c b1 22 f0 bd 64 42 a2 3d 4c 3f 86 3d
       0.015081391 -0.11725367 0.07922819 0.06555042
000320 e4 d6 35 bc 9e dc 95 bd 02 61 e1 3d 9a ed 86 3d
       -0.011098597 -0.0731747 0.11004831 0.06588288
000330 66 2d d2 3c 01 bc 4e bc 6b f1 ec b8 a8 4c 0f 3d
       0.025656413 -0.012618066 -0.000112983245 0.034985214
000340 2f 09 68 bc ef ec 34 3d ef 1f 74 bd 33 f9 25 3b
       -0.014162346 0.04417127 -0.059600767 0.0025325536
000350 ff 1b 8a bb c4 b2 bd 3c 3e e6 7f 3d f7 a1 b2 3d
       -0.004214763 0.023156531 0.062475435 0.087222986
000360 92 18 b8 3d 89 93 b8 3d 7e f6 e7 3d 7b b4 f6 3d
       0.089890614 0.09012515 0.113263115 0.12046143
000370 c9 a0 17 3e c6 27 ad 3d 7b 7a 04 3d 79 1a 90 bb
       0.14807428 0.08454852 0.03234337 -0.004397687
000380 62 fd 8d 3d fb 6a 44 3d 75 58 12 3e 35 68 c9 3d
       0.069330946 0.047953587 0.14291556 0.09834329
000390 f4 dc a8 bc 9c 62 c1 3c a5 cd 19 3e 74 fd ba 3d
       -0.020613171 0.02360659 0.15019853 0.091303736
0003a0 96 61 c9 3c e8 4e 6e bc ce 05 90 3c 27 71 a6 3d
       0.024582665 -0.01454518 0.017580893 0.08127051
0003b0 10 5e 74 bc ec d7 c3 3d 7e 5d 2f bd 08 f3 33 bb
       -0.014915004 0.09562668 -0.04281377 -0.002745809
0003c0 49 dc 12 bd 29 02 a2 bb 36 bc 5e 3a 7b 51 00 3d
       -0.03585461 -0.004944105 0.00084966735 0.031327706
0003d0 ad 74 c7 3c 43 a3 44 3d ff 71 05 bd 92 f7 20 bd
       0.024347628 0.04800726 -0.03257942 -0.0392986
0003e0 35 38 83 bb 56 af 00 bd 12 95 7e 3c c5 b2 23 bd
       -0.004004503 -0.031417213 0.015538471 -0.03996541
0003f0 ae ff 78 3d 33 69 76 3d b6 c6 0f bd 02 af b4 3c
       0.06079071 0.06015892 -0.035101615 0.022056106

model.model.4.bias f4 [128]
000000 c2 30 21 3d e3 7c 74 3c dc 73 2f bc 89 63 29 3d
       0.03935314 0.014922353 -0.010708775 0.04135469
000010 0c 88 09 3d 44 a0 15 bd d9 5a 42 3d 5e ed 22 bd
       0.03357701 -0.036529794 0.04744992 -0.039777152
000020 fc c3 24 3a 99 57 8f bc 70 32 a1 bc 18 f6 56 3d
       0.00062853075 -0.017497825 -0.01967737 0.052480787
000030 0a d4 36 3d b6 c8 6e bd ac 4e 8a bc 4a 70 7f bd
       0.04463581 -0.05829688 -0.016883217 -0.062362947
000040 b7 4a 8b 3b 76 7a 42 bd 8c 9c f6 3c 68 e1 bd 3d
       0.00425085 -0.04748007 0.030103944 0.092715085
000050 34 38 91 3c 25 cb 10 3d 03 e3 ed bb db 3e 81 3d
       0.017726995 0.035349984 -0.007259728 0.06310817
000060 a4 e9 0e 3d 62 1d 0e bd f0 91 20 bd ae f7 04 3b
       0.034890786 -0.03469599 -0.039201677 0.002028923
000070 73 d9 99 3c 54 76 4e bc 13 14 04 bc 9e 93 40 bd
       0.018780446 -0.012601454 -0.008061427 -0.04701578
000080 9f 3b 1f 3d af a4 69 3d ea cc ec 3c 4f c0 54 bb
       0.03887522 0.05704182 0.028906304 -0.0032463258
000090 2a 21 35 bd 79 26 46 bd 43 39 e3 3c 46 02 73 3d
       -0.04422108 -0.048376534 0.027737265 0.05932834
0000a0 64 64 1f bd 75 3e f2 3b 89 e1 f7 bc 7d 0f cb 3b
       -0.0389141 0.0073926994 -0.03025891 0.0061969147
0000b0 d3 75 1e bd 33 7f a8 bc 4f 33 55 bd 1f 56 1c bc
       -0.038686585 -0.020568466 -0.052050885 -0.009542017
0000c0 9d d6 06 3c d2 00 18 bd f5 29 5f 3c 4a 60 e7 3c
       0.008229879 -0.037110157 0.013620843 0.028244156
0000d0 9e a1 61 bc 2a 77 06 3d a0 3d 78 bc 78 f6 a8 bb
       -0.013771443 0.032828487 -0.015151411 -0.0051563345
0000e0 1e 9c f6 bc 6d 31 2b bd 52 f6 8d 3d 21 06 af 3c
       -0.03010374 -0.041795183 0.069317475 0.021365227
0000f0 26 69 95 bc 8d 78 9a 3c a5 3d 28 3d 64 d4 12 bd
       -0.018238615 0.018856311 0.041074414 -0.035847083
000100 a8 cd 92 3c 06 52 87 3d e4 28 4c bc ff 71 06 3d
       0.01792033 0.066074416 -0.012460921 0.03282356
000110 c4 a2 05 3d 45 be 52 3c db d1 5e 3d 8e a2 f3 3c
       0.03262593 0.012862747 0.054399353 0.029740598
000120 5e 2e 14 3d e7 72 1c 3d 37 7f 13 3c 57 82 23 3d
       0.03617703 0.038195517 0.009002498 0.039919224
000130 cd 0a d4 bc 68 20 50 3d 4b 70 4e 3d 8e eb 2b 3a
       -0.025884056 0.050812155 0.05040006 0.00065582327
000140 e8 97 6c 3d 86 ab da 3c a2 ca 05 bc 42 60 08 bd
       0.057762057 0.026693117 -0.008165987 -0.033294924
000150 91 74 5a bd 8d c8 c8 3c ad af 4f bd a5 68 9f 3c
       -0.053333823 0.024509693 -0.050704647 0.019459078
000160 ad e4 3c 3c fd 69 3c bd cf fa de 3c 04 37 a7 bc
       0.01152913 -0.045999516 0.027219204 -0.020411976
000170 95 07 36 3d de 50 96 bc 46 93 1e 3c 16 26 66 3c
       0.044440825 -0.018349107 0.009678667 0.014047166
000180 d1 f7 6d 3d bd ee 3b 3d 8d 21 08 3d 99 e5 0e 3c
       0.058097664 0.045881975 0.03323512 0.008721733
000190 d9 06 0a 3d 37 32 f5 3c da 8a 61 bc f6 3b 5d 3d
       0.033697937 0.02993117 -0.013766015 0.05401226
0001a0 9f 09 10 bd 1b c3 04 bb 55 e8 75 3d 57 da 0e 3d
       -0.035165425 -0.0020257893 0.060036022 0.034876194
0001b0 5d 6d 3d bd 9c 1f 3a bd 8b 89 63 3d 86 e9 10 bd
       -0.046246875 -0.0454403 0.055551093 -0.035378955
0001c0 76 17 76 bc 4d 07 23 bb a8 d0 c3 bb c1 71 2c 3d
       -0.015020242 -0.0024876178 -0.0059758015 0.04210067
0001d0 10 7d 5e 3d d7 35 8b bd 6c a0 cb 3c b9 2b 64 bc
       0.054318488 -0.067973785 0.024856769 -0.01392644
0001e0 3e 41 fb 3b f0 67 2e 3d 62 a3 06 bd 22 94 8a bc
       0.0076676896 0.04257959 -0.032870658 -0.016916338
0001f0 69 b8 14 bd b5 26 4e bd c8 75 a2 bc 3e e6 11 3d
       -0.03630868 -0.050329883 -0.019831553 0.035619967

model.model.6.weight f4 [128, 128]
000000 10 a9 98 bd 18 22 ce 3c f1 7d b3 bd 4d 71 33 bc
       -0.07454121 0.025162742 -0.08764256 -0.010952306
000010 ad 95 93 3d b6 3b b0 bd 6c 3a 93 3d 86 ca b8 bd
       0.07206283 -0.08605139 0.071888775 -0.09023003
000020 de 9c 4b 3d b9 85 2b 3d 7d ce f4 bc ca 29 b8 3a
       0.049710147 0.041875575 -0.029883618 0.001405054
000030 c6 84 c0 3b 98 8b d4 3c 3f 4b b2 3d b3 82 98 3d
       0.005875203 0.02594547 0.08705758 0.07446804
000040 24 32 9d bd 58 6a 21 bc 8b 8c 0c 3d ca 37 29 bd
       -0.07675579 -0.0098520145 0.03431372 -0.04131297
000050 5a d6 29 3d f0 7b 82 bd 74 d4 15 bd b4 7c a7 3d
       0.041464187 -0.063712955 -0.036579564 0.08178082
000060 0c 9b 88 bc f8 b8 a5 3d e0 84 6b bd 41 7a 94 3d
       -0.016675495 0.080919206 -0.057499766 0.072498806
000070 fc a1 df bc e3 12 8e bc cc aa fe 3c d3 5d 86 3d
       -0.02729892 -0.01734299 0.031087302 0.06560864
000080 bf 63 57 bc f4 be ad bb 04 02 96 bd 3a 32 40 3d
       -0.01314634 -0.0053023044 -0.07324603 0.0469229
000090 20 5a b1 3d 31 ab c6 bc 44 30 b0 3d b6 32 6d bc
       0.08659768 -0.024251552 0.08602956 -0.014477422
0000a0 23 a4 91 bd f5 19 fa bc f9 50 c2 bc de 0a 43 3d
       -0.07111385 -0.030529955 -0.023720251 0.047617786
0000b0 42 d1 63 3a 6d cb dd bc b6 6a 69 bd 72 db a2 bd
       0.00086905446 -0.02707454 -0.056986533 -0.07952012
0000c0 bf 95 73 bd 52 f1 b3 bd 9f 43 df 3b 58 99 0a 3c
       -0.05946898 -0.087862626 0.006813481 0.008459412
0000d0 9c 4a 9e 3d 4a 94 86 bd 00 b3 69 bd d9 c6 96 bd
       0.07729074 -0.06571253 -0.057055473 -0.07362146
0000e0 60 24 36 3b d4 56 8b bd 7d 0b ba bb 1d 71 64 bd
       0.0027792677 -0.068036705 -0.005677639 -0.055771936
0000f0 cf ea 24 bd 13 81 87 bd 1f b6 9a 3d ff 91 5c 3c
       -0.040262993 -0.06616416 0.07554268 0.013462543
000100 91 f9 05 bd 65 62 22 3d 35 cd 95 bd 9f 39 fe bc
       -0.03270871 0.039644618 -0.07314531 -0.031033335
000110 02 0f 4a 3d 1b 4b 0d 3d e4 4c a9 bc 07 4d 6f 3d
       0.04933072 0.034495454 -0.020666547 0.05842307
000120 a7 7b b5 bd 7d 4b 2a 3d 6a 46 87 bb db 90 6c 3b
       -0.088614754 0.041575897 -0.004128267 0.0036097083
000130 43 e2 85 bc 19 09 82 bd 6a bd 0f bd dd 07 1f 3d
       -0.016343242 -0.063493915 -0.03509275 0.03882586
000140 b1 cb b4 3c d4 52 7f bd 3f d0 7c bd 97 2f 97 3d
       0.022069784 -0.06233485 -0.061722036 0.07382124
000150 90 63 62 3c 9a 58 00 3d 90 e2 78 3d 23 56 91 3d
       0.013817683 0.031334497 0.06076294 0.070965074
000160 4b e3 89 3d 67 05 6e bd 79 ce 15 3d f1 13 ab 3d
       0.06732806 -0.05811062 0.03657386 0.08353413
000170 e5 e8 5b 3c b7 0f 1f bd 48 15 d5 3c 5d d5 33 3d
       0.013422226 -0.038833346 0.026011124 0.04390465
000180 d4 bf 1c 3d 5a 49 9a bc fd 16 8d 3d 2b f9 45 bd
       0.03826888 -0.018833805 0.0688915 -0.04833333
000190 8e a4 85 bd 50 16 21 bd 2f cc 88 3d 25 86 95 bd
       -0.06525527 -0.03932792 0.0667957 -0.07300977
0001a0 f5 c4 ac 3d ea d4 ff bc 90 e5 87 3d 7c 15 48 3c
       0.08436004 -0.031229455 0.066355824 0.0122121535
0001b0 23 d3 9c bd 16 84 9f bd 8e 12 82 bc 26 ed 90 3c
       -0.07657459 -0.07788865 -0.015877988 0.017691206
0001c0 6f 41 47 bc 33 28 be bc 62 69 e1 3a 37 c4 91 bd
       -0.012161597 -0.023212528 0.0017197544 -0.07117503
0001d0 34 21 90 bc 8f ef b3 3d b8 fc f6 3b e8 65 1c bd
       -0.017593957 0.087859266 0.0075374506 -0.038183123
0001e0 0c 1d 20 bd 77 f7 98 3d 69 2b 27 3d bd 8c 07 3c
       -0.0390902 0.07469075 0.040812884 0.008273301
0001f0 13 13 23 bd 7a c2 35 3d c8 b5 95 bc 96 fb 59 3d
       -0.039813112 0.04437492 -0.018275157 0.053218447
000200 a3 78 7d bd 2c f4 8e bd d8 8e 65 3c b3 ca 47 bd
       -0.061882626 -0.06980166 0.014011107 -0.048777293
000210 ca 1b 1d 3d 3c eb ed 3c 40 d1 fb 3a e4 52 ca 3c
       0.03835658 0.029042833 0.0019212142 0.024697728
000220 12 c2 b0 bd 66 53 21 3d 18 dd 83 bd 0a f4 49 3d
       -0.08630766 0.039386176 -0.06438655 0.049305
000230 72 ce 6c 3d 39 40 80 bd 1e f2 70 3d 2e d8 10 3d
       0.05781407 -0.062622495 0.05882465 0.035362415
000240 f0 09 56 3c 9c fa a3 bc 66 07 67 3d 31 fe ad bd
       0.013063893 -0.02001696 0.05640354 -0.08495749
000250 90 93 b4 bb a1 40 83 3d d7 e6 5a bd 6a 6a d4 bc
       -0.005510755 0.06408811 -0.053442802 -0.025929648
000260 d0 e5 1b 3c 38 db 6f bd e3 51 5c bd e5 f4 19 bd
       0.009515241 -0.058558673 -0.05378903 -0.037587065
000270 3e c6 35 bd 90 8d 68 bc 70 ab 2e 3c 80 cc be bc
       -0.04437851 -0.014193907 0.010660991 -0.023290873
000280 11 9c a5 bd 98 2c 94 3c 30 40 9e 3c 69 cb 80 bd
       -0.08086408 0.01808767 0.019317716 -0.062887974
000290 e9 40 92 3d 50 05 b9 bb 20 4a 1a 3c db c5 a0 3d
       0.07141287 -0.0056463853 0.009417087 0.07850238
0002a0 98 93 6e 3c 4a af 0f 3d 6d 63 82 3d 92 df 0e 3d
       0.014561556 0.035079278 0.0636662 0.034881182
0002b0 93 dc ab 3d 28 19 13 3d f8 73 aa bd 90 4f 98 3c
       0.083916806 0.035912663 -0.083229005 0.018592626
0002c0 e9 b6 8c 3d 78 5e db 3c c0 7c 22 bc 5f 54 5a bd
       0.06870825 0.026778445 -0.009917438 -0.05330312
0002d0 36 a3 9b bd e0 ad 38 bc 98 c2 9a bc 56 32 33 3d
       -0.075994894 -0.011271924 -0.018891618 0.043749176
0002e0 70 96 04 bc e7 41 b2 bd 5f fd 4f bd c0 12 11 bd
       -0.008092508 -0.08703976 -0.050778743 -0.035418272
0002f0 23 31 88 3d a8 9e ec 3c 28 fa 65 bc 80 9f 39 3b
       0.06649997 0.028884247 -0.014036693 0.002832383
000300 61 87 b3 3d d2 a5 38 3d 4e ae 9c bd 0e a7 78 3b
       0.08766056 0.045080014 -0.076504335 0.003794137
000310 e6 c5 03 bd 11 51 a7 3d 08 c8 16 bc a8 b7 85 3c
       -0.032171153 0.08169759 -0.009202965 0.016322926
000320 f5 9f 85 bd 28 38 da bc 4f 3a 87 3d d4 a1 20 bd
       -0.0652465 -0.026638106 0.06602918 -0.03921683
000330 42 71 18 3d 4f 58 9b bd 1c 82 c6 bc 80 58 4a ba
       0.037217386 -0.07585203 -0.024231963 -0.0007718876
000340 68 ea f4 3c ec 8e af bd f5 9b 8f bd e1 87 04 bd
       0.02989693 -0.08572182 -0.07012168 -0.032356147
000350 32 30 53 3d 1e 2e 79 3d 10 be 3f 3c 8c 8a 79 bd
       0.051559635 0.060834996 0.011703029 -0.060923144
000360 f6 53 1d 3d 03 84 81 3d 90 6f dc bc 3b cb 8c 3d
       0.03841015 0.06324007 -0.026908666 0.06874701
000370 81 79 8c 3d 37 24 af bd 68 2c 57 bc e5 4f 5a bd
       0.068591125 -0.08551829 -0.013133146 -0.05329885
000380 02 88 28 bd 16 48 86 bc 9d b0 f5 3c 5f e9 b4 bd
       -0.041145332 -0.016391795 0.029991442 -0.088335745
000390 ca 45 6f bd 08 e6 f1 3c 93 06 13 bd 94 ed 92 3c
       -0.058416165 0.029528633 -0.03589494 0.017935552
0003a0 de 5c 67 3d 0c 96 0f 3d 9e 46 97 bd 96 31 a4 bd
       0.05648505 0.035055205 -0.07386516 -0.0801727
0003b0 8a d5 78 bd e0 a9 df 3c d0 c7 b2 bd 8a 91 e1 bc
       -0.06075052 0.027302682 -0.087295175 -0.027535219
0003c0 08 ec 1c bc 4e 01 2d 3d 52 84 1a 3d 8c 05 f8 bc
       -0.009577759 0.042237572 0.037723847 -0.030276082
0003d0 60 df 0c 3d 60 a0 85 bd e3 f4 97 bd 83 ff 45 bd
       0.034392715 -0.0652473 -0.07419755 -0.048339378
0003e0 48 1d ad 3c 18 dd e1 3c e1 ea a0 bd cf 8d 86 3d
       0.021132126 0.027571246 -0.078572996 0.065700166
0003f0 5c f1 d3 bc 10 fe d3 3b 40 f1 c3 bc e0 e6 3f bc
       -0.025871925 0.0064694956 -0.023918748 -0.01171276

model.model.6.bias f4 [128]
000000 7e e5 97 bd 51 de 6c bd 37 61 6c 3d 29 81 83 3d
       -0.07416819 -0.057829205 0.0577099 0.0642112
000010 ea ba 1e 3c 4c b0 89 3d f0 10 89 3c 52 95 b0 3d
       0.0096881185 0.06723079 0.01673171 0.086222306
000020 e2 86 95 bd ea 3c 6e 3d 82 07 7d 3d d9 28 96 bd
       -0.073011175 0.05816356 0.061774738 -0.0733201
000030 19 7c e6 bc be bc 08 bd 90 69 ba 3d 68 46 57 bd
       -0.028135346 -0.033383124 0.09102166 -0.05255738
000040 32 1d e9 3d 77 e3 95 bd b8 93 67 bc 7a 01 95 bd
       0.11382522 -0.07318776 -0.01413434 -0.07275672
000050 7c f1 a4 bc 6c d0 84 bd 39 c0 25 bd 68 89 71 bc
       -0.02013468 -0.06485066 -0.04046652 -0.014742233
000060 de ba 6a bd 65 d9 95 bd 85 34 cd bc c0 a3 94 3c
       -0.057307117 -0.07316855 -0.025049457 0.018144488
000070 56 a5 34 bd 98 be e3 3c ce 35 ed 3c 4e bd d2 3a
       -0.04410299 0.027800843 0.02895632 0.0016078146
000080 70 e9 30 bd f4 13 df bc a2 c4 9d bd 02 2b a6 3c
       -0.043191373 -0.027231194 -0.0770352 0.02028418
000090 be aa 95 3c 6a 3e 64 3c cf 04 fe 3c 10 2c 6a 3c
       0.018269893 0.013930896 0.031008152 0.014292732
0000a0 45 5c 97 bc 1a 1f df 3c 4e fa 2c 3d 20 a2 98 bd
       -0.018476615 0.02723651 0.042230897 -0.07452798
0000b0 a4 e8 ae 3d a0 9d 05 3b 11 fb fd 3c 2a 15 9c 3d
       0.085404664 0.0020388141 0.031003507 0.07621224
0000c0 b3 25 71 bd c0 37 49 bc a1 c5 7f 3c 9a c5 a7 3c
       -0.058873843 -0.012281358 0.015611083 0.020479966
0000d0 3e 5d 73 bd 66 ba 11 bc e0 56 91 3d 55 ac 9c 3d
       -0.059415095 -0.0088945385 0.07096648 0.07650057
0000e0 3b 5b 6e 3c e0 46 1e 3b 31 fb 54 bd a1 81 0d 3d
       0.014548118 0.0024151132 -0.051997367 0.034547452
0000f0 2d ec 67 3b 0b 51 a0 bd b5 5b f8 3d d8 5b 8f 3d
       0.0035388574 -0.07827958 0.12126867 0.0699994
000100 70 d7 7b 3d e0 e1 37 3d f7 a8 82 bd 4d 01 b0 3d
       0.061484754 0.044893146 -0.06379884 0.08593998
000110 ae d3 42 bc dd 84 a2 bb 46 53 7c bd 33 6d a0 bc
       -0.011891289 -0.004959686 -0.061602853 -0.01958332
000120 44 2b e3 bb bb 9c bf 3c 08 5a 96 bd ae b4 87 bd
       -0.006932648 0.023390165 -0.07341391 -0.06626259
000130 61 89 eb bb 3c 89 5a bd 16 f2 be bc 1f 64 e0 ba
       -0.0071880077 -0.053353533 -0.023308795 -0.0017119682
000140 d2 cf 57 3d 6e d9 91 bd 2d f9 1a 3e b3 6e b4 bd
       0.052688427 -0.071215495 0.15134116 -0.08810177
000150 63 d4 95 3d f1 b6 b6 3d 6d 79 3e 3d ac 95 57 bd
       0.073159 0.08921612 0.04650252 -0.052632973
000160 5c f8 a9 3d c3 b4 c0 3d 87 64 5b 3d 3b aa ae 3c
       0.08299324 0.094094776 0.053562667 0.021321407
000170 ae ba 87 bc bb 57 9a 3d 37 cf 13 bd 4d a1 a3 3d
       -0.016568508 0.075362645 -0.036086287 0.0798975
000180 72 34 fc bc 39 f8 9b bd c4 4d a2 3c 1c 1d 80 3d
       -0.030786727 -0.07615704 0.019812472 0.06255552
000190 93 0e 07 bc 2d fb 42 3d db 99 fa 3d a7 c6 7d 3d
       -0.008243221 0.04760282 0.12236377 0.061957028
0001a0 83 23 36 3c ed 2b 8e bc af a9 bf 3d 3f 37 56 bc
       0.011116865 -0.01735493 0.093585365 -0.013074695
0001b0 c4 16 09 3d 58 e9 3e 3d 22 9f b6 bd a1 31 1d bd
       0.033468977 0.046609253 -0.08917071 -0.038377408
0001c0 15 c2 49 bd a9 91 a2 bd 4b 07 a2 3d 26 bf 05 bc
       -0.049257357 -0.07937939 0.07911547 -0.008163249
0001d0 e0 e9 a4 3d 00 d7 30 3d 94 84 8e 3c 2e 2e dc bd
       0.080524206 0.04317379 0.017397203 -0.107509956
0001e0 46 99 fd bc 76 a2 77 3d 19 01 e9 3d a0 5f 80 3c
       -0.030956876 0.06045767 0.113771625 0.015670598
0001f0 93 be 3a bd e1 e6 b8 3d fc a4 6c 3d f1 28 8c 3d
       -0.045591902 0.09028412 0.05777453 0.068437465

model.model.8.weight f4 [7, 128]
000000 1a 50 fd bb 98 a2 b4 bd ae 48 4c 3d f8 02 26 bd
       -0.007730496 -0.08820075 0.049874 -0.040530175
000010 94 6c e5 3c f2 8f ac bc b5 a3 f3 bc df d7 94 bd
       0.028005876 -0.021064732 -0.029741148 -0.07267737
000020 60 85 a6 bd 53 ff 89 3d d3 18 d5 3d 83 29 dd bc
       -0.08130908 0.06738152 0.104051255 -0.026997333
000030 47 b8 b8 39 1a 67 86 3d ee 0f a1 3d 9a 1b ae bc
       0.00035232512 0.06562634 0.078643665 -0.021253396
000040 ff 82 d1 3d f8 17 cf 3c 92 d5 b8 bc ed cf 92 bd
       0.10230064 0.025279984 -0.022562776 -0.07168565
000050 41 5a e0 bb 78 8e 01 bd 50 44 a6 3d 28 55 a0 3d
       -0.0068466966 -0.03163001 0.08118498 0.07828742
000060 4d 0f be bb 57 11 e5 3d ba 6f 1d bd d2 3d 41 3d
       -0.005800164 0.11184948 -0.03843663 0.047178097
000070 d6 63 13 bd fb 6b 05 3d 61 c9 d4 3d ce ff 36 3d
       -0.035983883 0.03257368 0.103899725 0.044677548
000080 39 bd ae 3d 4e 62 55 bd d2 8d 60 3d 67 11 00 3d
       0.08532185 -0.052095704 0.05482275 0.031266596
000090 46 7b 22 bc 90 8f 76 3d da 0c 92 3d ab f8 b1 bd
       -0.009917086 0.060195506 0.071313575 -0.08690008
0000a0 99 ed 91 bd 29 17 71 bd e8 a3 19 bd 72 af 10 bd
       -0.07125396 -0.058859978 -0.03750983 -0.035323568
0000b0 c4 c0 24 bd 5b 29 a3 3b 40 55 ce bb 42 67 c5 bc
       -0.040222898 0.004979295 -0.0062967837 -0.024097089
0000c0 51 2a 91 bd 56 fb 0b bd e3 ef 5f bd b5 0a 53 3d
       -0.07088149 -0.03417524 -0.054672133 0.051523883
0000d0 e9 87 ef 3c fd f7 1b bd 54 71 cc 3d 78 94 b5 3d
       0.029239612 -0.038078297 0.09982553 0.08866209
0000e0 b9 e7 8e 3d 1d 1e ae bd e8 1a 2a bd 22 0e b0 bd
       0.06977791 -0.085018374 -0.041529566 -0.085964456
0000f0 94 18 31 bc eb 22 9a bd 76 8f a1 3d 31 fa d9 3a
       -0.010809083 -0.07526191 0.07888691 0.0016630349
000100 8a 68 71 bd 23 3c 31 3d ea 21 19 3d 92 82 00 bb
       -0.058937587 0.04327024 0.03738586 -0.0019609076
000110 26 d0 c1 3d 38 6c fa 3c e2 65 5a 3d c8 44 76 bd
       0.09463529 0.03056918 0.05331982 -0.06012419
000120 0b 44 bb 3d f0 09 80 bd d0 89 7a bd da 99 07 3d
       0.091438375 -0.062518954 -0.061166584 0.03310571
000130 67 77 d7 3d 4b 89 bb bc 22 a0 c1 bd 6b e1 aa bc
       0.10520821 -0.022892615 -0.09454371 -0.02085944
000140 ae fc 7b bc 45 d3 96 3d ec 82 49 3d d0 eb 45 bc
       -0.015380068 0.07364515 0.049197122 -0.012080148
000150 a4 bc ec 3d 0f 1f ea 3d 7f a8 8c 3c 7a 11 31 bd
       0.11559418 0.11431705 0.017170189 -0.043229558
000160 4c e3 20 3d 4c ef d8 3d 2f 57 be 3d 79 90 96 bd
       0.039279267 0.10592517 0.09293973 -0.07351775
000170 6e f0 61 3d 13 42 7f 3d db 0a 3f bd 83 78 25 3d
       0.055160932 0.062318873 -0.046641212 0.040398132
000180 4d 17 a7 3d 1f 44 a3 3d b0 5e b2 3c c8 2c 57 bb
       0.08158741 0.079719774 0.021773666 -0.0032833088
000190 8b 4d a4 bc cb 37 8d bd 41 35 cc bc f9 92 a8 3d
       -0.020056507 -0.06895407 -0.024927737 0.08231158
0001a0 e1 f9 61 bd 54 c5 8a 3c 1b 1c a2 3d bc b3 ed bb
       -0.055169944 0.016939797 0.07915517 -0.007254092
0001b0 fa 12 de 3d 6f 71 46 3d 04 f4 95 3d d7 fb a4 3d
       0.10843463 0.048448022 0.07321933 0.08055847
0001c0 cf ca 13 bd 15 0c 4d bd 0a 41 8e bd 91 05 db bc
       -0.036082085 -0.05006035 -0.06945999 -0.026736053
0001d0 05 66 ac 3c 40 36 54 bd f8 c8 16 3c e1 a7 3b 3d
       0.02104474 -0.05180955 0.009203188 0.0458144
0001e0 d9 cc 20 bd aa ab 35 bd 7d 4f ae 3d 77 8a bb 3d
       -0.039257858 -0.044353165 0.08511255 0.091572694
0001f0 20 cc 87 3d fb e1 c2 3c 41 e7 85 bc c9 3f 52 3d
       0.06630731 0.023789397 -0.016345622 0.05133036
000200 08 03 03 3d b8 3e 3e 3c 9c 7e 63 bc 8b a3 c6 bc
       0.031985313 0.011611633 -0.0138851665 -0.024247905
000210 24 ca fa 3d af 6a 45 3d 28 dd f1 bc 0d 1a c0 bc
       0.122455865 0.048197445 -0.0295244 -0.023449922
000220 4e 11 9c bd 0e 7f a0 3d 2b 16 bc 3d 06 7d a1 bd
       -0.07620488 0.07836734 0.09183916 -0.078851745
000230 2a 09 a2 bd 97 6d fe 3c 99 b7 af bc 52 4c 3e bd
       -0.07911904 0.031058116 -0.02144985 -0.046459503
000240 7c 68 99 3d 2f 6b b3 3d 3b 1e 5a bb 9c 9f 80 3d
       0.07490632 0.08760678 -0.003328218 0.06280443
000250 4f 6d 0c bc f2 bc 20 3d d4 27 9f 3d 8b 4a 90 3c
       -0.008570983 0.039242692 0.077712685 0.01761367
000260 8d 32 2e bd 40 e6 ce 3d 65 97 92 bd 79 8c 06 3d
       -0.042528678 0.101025105 -0.071577825 0.03284881
000270 68 a9 c2 bc dc c4 d2 3d 50 47 29 3d a0 59 d4 3d
       -0.02376242 0.10291454 0.041327775 0.10368657
000280 ec c3 fb 3c 0a 83 01 bc de d1 ba bc b1 3d a7 3d
       0.030733071 -0.007904777 -0.02280515 0.081660636
000290 23 33 05 bc 5d 7f 21 3c b7 d6 ae 3d 95 38 cd 3d
       -0.008129868 0.009857026 0.08537047 0.10020558
0002a0 ab f4 53 bc fb 1c 38 bd 23 3b f5 bc bc e3 d3 3c
       -0.012936751 -0.044949513 -0.029935425 0.025865428
0002b0 91 03 fd bc b4 b6 91 3a 4a 54 77 bd 2d 95 25 3c
       -0.03088549 0.0011117072 -0.06038312 0.010106367
0002c0 a7 ef 98 3c 1c 57 2b 3d ff 8a 5b bd da f5 26 3d
       0.018668963 0.04183112 -0.053599354 0.040761806
0002d0 66 1f b1 3d 81 bb 50 bd 29 a1 8f 3b f2 90 86 3d
       0.08648567 -0.050960068 0.0043832255 0.06570615
0002e0 2f 17 8f 3d 0f 09 ae bd 04 b0 92 bc 40 33 cf 3a
       0.06986844 -0.084978215 -0.017906196 0.001580812
0002f0 ca 8e 9e 3d f6 28 49 3d 29 97 23 3c c7 68 91 bd
       0.077420786 0.04911133 0.00998477 -0.07100063
000300 fd 11 b0 bd 3d 51 94 3d c2 25 86 3d 43 d1 03 bd
       -0.08597181 0.072420575 0.065501705 -0.03218199
000310 10 af b8 3c 9e fa de bc f7 b7 5e bb 28 61 25 3d
       0.022544414 -0.027219113 -0.0033984163 0.04037586
000320 3a ca c5 bc f6 05 3d 3d a0 e4 7c bb b7 32 a1 3d
       -0.02414428 0.046148263 -0.003858842 0.07871001
000330 6f 27 e6 3c 28 e2 11 bc 74 65 bf bc 64 e8 80 bd
       0.028094975 -0.0089040175 -0.023363806 -0.06294325
000340 f8 2a 28 3c 02 ab fb 3c 24 99 fe 3d 21 6a 42 bd
       0.010264151 0.030721191 0.12431553 -0.047464494
000350 00 75 6d 3d 43 d9 8e 3d 21 4e 14 bd cd 47 b0 3d
       0.057972908 0.06975033 -0.036207322 0.08607445
000360 ca 08 79 3d 91 55 97 3d cb 79 27 3d 74 48 87 bd
       0.060799398 0.07389367 0.040887635 -0.06605616
000370 fc c0 26 3d ff 17 1b bb fa 48 60 3c e5 31 ce 3d
       0.040711388 -0.0023665426 0.013689274 0.100681104
000380 4f 61 9a 3d a1 a0 cf bb cf 8b 61 3c 09 fe 94 3b
       0.075380914 -0.006336287 0.013766243 0.004546885
000390 01 8a f4 3b 28 98 1d 3d b5 79 97 bd ac 14 85 3c
       0.0074627404 0.038475186 -0.07396261 0.016245209
0003a0 28 94 b2 bc 84 bd 94 3d d5 f1 47 3d bd be ba 3d
       -0.021799162 0.0726271 0.048814613 0.09118412
0003b0 f4 50 f9 ba 06 28 80 3d ea 28 14 3d 22 39 f9 3d
       -0.0019021318 0.06257634 0.03617183 0.121691
0003c0 5b 33 1c bc 8e cf 99 bd c8 d3 90 bd 11 0c 90 3d
       -0.0095337285 -0.07510291 -0.07071644 0.070335515
0003d0 53 e2 bd 3d 2d ef f1 bc 26 cc 23 3d 80 13 a6 bc
       0.092716835 -0.029532993 0.039989613 -0.02027297
0003e0 00 8f d3 bc a3 b2 40 bd 92 4c af 3d f0 2d 01 3b
       -0.025825024 -0.04704536 0.085595265 0.0019711219
0003f0 75 58 f1 3c 1e c3 26 3d 12 dd 95 3d f0 8e b0 3c
       0.029461125 0.040713422 0.073175564 0.021552533

model.model.8.bias f4 [7]
000000 31 1b a9 3d be e4 c8 3c b3 16 28 3d 70 82 7e 3d
       0.082571395 0.024523135 0.041037273 0.062136114
000010 d2 c7 96 bc 5a 9e 40 3c 78 39 b5 3c
       -0.018405829 0.011756504 0.02212213

model_old.model.0.weight f4 [32, 1, 4, 4]
000000 10 d9 1f be 7c 5f ef bd 38 fc 57 3e f1 09 b3 3c
       -0.15610147 -0.11688134 0.21092308 0.021855326
000010 be a0 80 3d ed 6e 43 3e 52 c8 a1 bb 8c 19 26 be
       0.06280659 0.19085284 -0.00493721 -0.16220683
000020 00 b8 30 3e 2e 7c 96 3c 98 bf 65 3e f0 62 58 3d
       0.1725769 0.01836976 0.22436368 0.05282873
000030 8a d7 fb 3d 71 a6 a5 3c 35 3b f5 3d 27 b8 21 3e
       0.1229697 0.020220967 0.119741835 0.15792905
000040 11 f9 4c 3d 3e 55 fe 3c 36 a2 16 be 5f 6f 98 bd
       0.050042216 0.031046506 -0.14710316 -0.07443117
000050 06 65 93 3d 4e c6 cf 3d 83 f3 3b 3e dd dd 59 be
       0.07197003 0.101452455 0.18354611 -0.2127604
000060 c0 43 82 be d0 e2 42 3e 4b 92 7e be f2 6f a4 be
       -0.25442314 0.19031835 -0.24860494 -0.32116657
000070 11 fb 48 bc a9 ce c3 bd 68 a4 54 3e 37 49 77 be
       -0.01226689 -0.09560902 0.20765841 -0.24149023
000080 8c 33 d3 3d e8 50 d8 bd 3a 0b 68 be 12 aa e5 3c
       0.10312566 -0.10562307 -0.22660533 0.028035197
000090 5c 8e 4d be 7f f9 d8 3d 2f 90 38 bd cc e6 9c be
       -0.20073837 0.105944626 -0.04505938 -0.30644834
0000a0 e9 8e 95 bd 14 70 49 bd bf c6 5a 3e 16 66 ba 3d
       -0.073026486 -0.04917915 0.21364878 0.091015026
0000b0 40 ab e5 bc 59 06 5d 3e f2 e2 75 3d 7d 41 09 3e
       -0.02803576 0.21584453 0.060030885 0.13403888
0000c0 1c 7f e8 3c f6 ad 77 be 86 8b 20 be 1d 9f 13 be
       0.028380923 -0.24187455 -0.15678224 -0.14416166
0000d0 d4 2c 1d be a1 c1 46 3e bc be b8 bd 37 07 8f 3d
       -0.15349132 0.19409801 -0.09020755 0.06983798
0000e0 5b f6 3e 3e 6f 68 38 be e2 ad 2d 3e 0b c2 eb 3d
       0.18648665 -0.18008588 0.16960862 0.1151162
0000f0 ef f9 5d be f9 f4 1c 3e 1a 51 f2 bd af 10 73 3e
       -0.21677373 0.15327825 -0.11831875 0.23736833
000100 ca 35 34 bc 2a 72 ac bd e7 2b 8c 3e bc d9 ec bd
       -0.010999152 -0.084202126 0.27377245 -0.11564967
000110 66 94 96 3e 25 24 a6 3d cc be 8f 3d ac a0 cb 3c
       0.29410094 0.08112363 0.070188135 0.024856888
000120 51 b7 83 3e 71 52 a9 3d f7 c1 dc bd 52 00 92 be
       0.25725797 0.082676776 -0.10779183 -0.2851587
000130 e9 88 08 be 5f b2 0a bd b1 dd ee bd 23 56 0f be
       -0.13333477 -0.033861514 -0.11663378 -0.13997702
000140 a0 b8 50 3d f7 7f 32 3e e7 0c 6e be 47 9e 62 be
       0.050957322 0.17431627 -0.2324711 -0.2213069
000150 fd d3 9c bc a5 d7 b7 3d f5 d6 2e 3a 09 54 7b be
       -0.019144053 0.08976678 0.00066696043 -0.24543776
000160 f6 5d 8f 3e 12 39 21 3e 4b 29 9b bc a6 a8 6e 3d
       0.28001374 0.15744427 -0.018940588 0.058266304
000170 fa 57 8d 3d 93 fa 58 be fe ba 4e 3e 77 d4 25 3e
       0.06901546 -0.21189336 0.2018852 0.1619433
000180 f0 a9 01 be 0c fe 91 3d 87 b1 60 be 1a fb 1a 3e
       -0.12662482 0.07128534 -0.21942721 0.1513485
000190 56 9d 38 bd 33 70 ea 3d 3c 82 ac bb ed ab cc 3d
       -0.045071922 0.114471816 -0.0052645486 0.0999373
0001a0 57 61 13 3e 28 7d 2b 3e 9d 94 53 3e b9 49 46 bd
       0.14392601 0.16746962 0.2066216 -0.04841015
0001b0 10 3d 84 bd 8a 56 31 3c 99 e2 7e 3e fd fd f9 bd
       -0.06456959 0.010823855 0.24891128 -0.122066475
0001c0 03 11 33 3e 44 65 67 be 03 6a 6d 3e ca 1f 4e be
       0.17486958 -0.22597224 0.23184972 -0.20129314
0001d0 3c df 08 3e 78 ac 50 be ed cd 8f bd d5 d8 10 3e
       0.13366407 -0.20378292 -0.07021699 0.14145215
0001e0 47 1d 8d 3e e7 17 97 3d d4 3c 6d bb d9 7f 6e 3e
       0.275614 0.07377606 -0.0036199586 0.23290958
0001f0 29 83 58 3e 02 70 9c bd 5e 6d b4 bd b5 6c 37 be
       0.21143784 -0.07638551 -0.08809923 -0.17912562
000200 a9 ca 4d be 5e 95 b0 3d 10 48 c6 bd 0a 4e ff 3d
       -0.2009684 0.086222395 -0.096817136 0.12466057
000210 08 2c 91 be 44 66 46 3e a9 50 60 3e b9 ec 7f be
       -0.28353906 0.19374949 0.2190577 -0.24992646
000220 b7 64 72 be ff 86 d4 3b 76 77 16 3e 07 29 e2 bd
       -0.23671232 0.0064858194 0.14694008 -0.110429816
000230 b3 31 35 3e f3 6d 7a 3d 26 86 3d 3e 52 fa ab bd
       0.1769474 0.061140012 0.18508205 -0.08397354
000240 8c 60 56 bd b5 d7 12 3e 99 4b 53 3e 8d c5 73 bc
       -0.052338168 0.14340098 0.20634307 -0.014878643
000250 27 0d 8f be b5 46 c4 bc 88 ba f8 bd c4 e7 1b bc
       -0.27939722 -0.023959497 -0.12144953 -0.009515706
000260 95 a5 8f 3d f6 63 11 be fd 8a 41 3e 7d 82 28 be
       0.07014004 -0.14198288 0.18900676 -0.16456027
000270 3c 2e 77 3e 69 51 d5 bd a2 63 11 3d 7d cf 82 bd
       0.24138731 -0.104159184 0.035495408 -0.063872315
000280 01 d9 8c 3d f7 c1 e6 3d 1c c8 86 be a5 f8 bd 3d
       0.06877328 0.112674646 -0.26324546 0.09275941
000290 6c 9b 6a 3e 67 86 75 be 16 a1 91 be 43 f3 1c be
       0.22910851 -0.23977052 -0.2844321 -0.15327172
0002a0 b9 4d 27 3e 75 f8 52 3d 33 7a 8b be 33 d7 e0 bd
       0.16338243 0.05150648 -0.27241668 -0.10978546
0002b0 d6 8d f3 3b b8 e7 73 bd 72 84 e0 3d 2b 0a 4e 3e
       0.0074326796 -0.059547156 0.10962762 0.20121066
0002c0 e9 16 95 bd 49 43 16 3d 84 f7 4a 3e 02 c4 43 bd
       -0.072797604 0.036685262 0.19820982 -0.04779435
0002d0 6b 8d 98 bd 2f 17 4d 3e 15 c7 76 3e d2 76 99 bd
       -0.07448848 0.20028375 0.24099381 -0.07493366
0002e0 74 63 d5 3d b4 d7 79 3e 98 d9 34 3e 41 46 4f 3d
       0.1041936 0.2439869 0.1766113 0.05060411
0002f0 55 54 3d 3d 0a 9d 4e be f9 47 20 be 7f 12 05 3e
       0.046223003 -0.20177093 -0.15652455 0.12995337
000300 25 86 da 3d c5 55 0c be 57 37 6a bd db 5f 28 bc
       0.10670117 -0.13704593 -0.057181682 -0.01027676
000310 b1 a5 6f bd d7 27 3b be fd f1 6f be b4 5d 90 bc
       -0.058507625 -0.18276916 -0.23432155 -0.017622806
000320 ee b7 af bd 4c 5b 44 be 5e 7c 42 3e e6 12 0e be
       -0.08580004 -0.19175452 0.18992755 -0.13874397
000330 b3 44 38 be eb 77 40 3d 04 af 30 be 2b e1 e0 bc
       -0.17994957 0.046989363 -0.17254263 -0.027451118
000340 b0 1b 9a bd a6 95 99 bb 48 e7 9c be b3 33 3d be
       -0.07524812 -0.004687029 -0.30645204 -0.18476753
000350 e0 e2 f0 3d f9 4a 50 3e 67 cc 35 be 6f 70 eb 3d
       0.11762023 0.203411 -0.17753755 0.114960544
000360 82 8c e7 bd 5d 0a 8e be 9d 82 6b 3e f8 d0 34 be
       -0.113060966 -0.27742282 0.22999044 -0.1765784
000370 14 55 35 3e 76 9c 10 bc 4c 1c 4f be 43 dc 55 3d
       0.17708236 -0.008826366 -0.20225638 0.05221201
000380 fd b8 00 3e bb 0f c9 3d 89 3a 93 3d b3 60 69 bc
       0.12570567 0.098174535 0.07188899 -0.014244246
000390 28 5a 2b 3d 82 7c bb 3d bd 96 19 3d 7a a1 89 be
       0.041834027 0.09154607 0.03749727 -0.2688101
0003a0 d6 a4 72 be d9 ed d0 3d 50 3b 31 be 58 ec 27 be
       -0.23695692 0.10201616 -0.17307782 -0.16398752
0003b0 49 46 92 3e 64 c1 88 bc c7 f1 48 3e 29 a9 43 be
       0.28569248 -0.016693778 0.1962348 -0.19107498
0003c0 32 41 a1 3a b1 8b d3 3d e7 41 8f bc da c7 66 bd
       0.0012302755 0.103293784 -0.01748748 -0.056342937
0003d0 99 11 30 3d 71 c6 ae bc ba 46 88 be a6 ae 01 3e
       0.042985532 -0.021334859 -0.2661646 0.1266428
0003e0 50 f0 5d be 6a 8f d5 3d de 1c 7f 3c 48 a5 0e be
       -0.21673703 0.10427745 0.015570847 -0.13930237
0003f0 ae 00 4c be 05 c7 34 3e a4 a6 bb bd bf b5 4f 3e
       -0.19922134 0.17654045 -0.091626436 0.20284174

model_old.model.0.bias f4 [32]
000000 b0 ac 51 3c c9 2e 1b be 39 34 47 be 01 2b c2 bd
       0.01279752 -0.15154566 -0.19453515 -0.094808586
000010 0e e9 0b be aa 45 5c be a9 93 c3 3c 0b d3 b2 3d
       -0.13663122 -0.2151095 0.02387412 0.087316595
000020 45 37 4b 3d 18 c4 1d 3e 62 5b c9 bb 86 91 33 be
       0.049613256 0.15406835 -0.006144927 -0.17535982
000030 68 13 9b 3d ba 5c 84 3d 7c 15 12 3e 7b 88 47 3e
       0.07572061 0.06462999 0.14266008 0.19485657
000040 92 b7 66 3e b0 a9 b5 3d d6 0c 80 bd 77 ad 66 bc
       0.22530964 0.08870256 -0.06252448 -0.014079443
000050 0f 14 81 3e fb 35 45 3e 64 e2 12 3e 2d e9 a1 3e
       0.25210616 0.19258873 0.14344174 0.31623212
000060 07 75 17 3e 2a 80 88 3d f0 bc 8a 3d c6 5d 89 3e
       0.14790736 0.0666507 0.06774318 0.26829356
000070 35 02 2e 3e a3 88 3c be bb 22 3f 3e 7e d7 19 be
       0.1699303 -0.18411498 0.18665592 -0.1502361
