project/paper_notebooks/saved_variables/paper_notebooks/8/5-50epoch_20loop/looping-iteration-8/best_policy_agent1.pth (torch, 320501 bytes, 16 tensors)

model.model.0.weight f4 [128, 42]
000000 35 86 e0 bd a1 27 81 bd 0e b2 02 3e 6f 86 07 bd
       -0.10963098 -0.06306387 0.12763235 -0.03308719
000010 bc e8 1d 3d 33 5a f8 3d 26 af ba 3c 71 0a e9 bd
       0.03855203 0.12126579 0.022788595 -0.11378945
000020 ba ec 96 3d d5 a4 82 3a 1a e5 ec 3d e3 bb c3 3c
       0.07369371 0.0009967337 0.11567135 0.023893302
000030 75 a0 c4 bb c3 26 ea bc be 21 cb 3c 0d ef a9 3d
       -0.0060005733 -0.028582936 0.024796363 0.082975484
000040 49 47 42 3c 8e 2a b4 bc a8 17 10 be 02 9f 64 bd
       0.011857816 -0.021992948 -0.14071524 -0.055815704
000050 f5 d9 a3 3c 39 17 86 3d 4e 73 e4 3d e9 cf aa bd
       0.020001391 0.06547398 0.11154805 -0.08340437
000060 ad 6d 8b bd 6c 87 03 3e d0 57 e8 bd 75 aa b2 bd
       -0.06808028 0.12844628 -0.11344874 -0.08723918
000070 c3 d9 23 bb 0f 3e 01 bd b5 81 07 3e 88 09 0b be
       -0.0025001622 -0.031553324 0.13233073 -0.13577855
000080 29 08 09 3d 81 68 10 bd 7b f4 11 be db ca 5c 3d
       0.033455048 -0.035255913 -0.14253418 0.053904396
000090 ae b9 6e bd 0e c5 dd 3d 46 82 12 bb 8a c1 02 be
       -0.058282547 0.10828601 -0.002235548 -0.12769142
0000a0 59 e6 05 bd 0c 6e 30 bd 31 f4 da 3d e3 05 de 3c
       -0.03269038 -0.0430737 0.10691107 0.027102416
0000b0 c1 11 69 bd 08 20 bf 3d bb 87 c9 3c cc 47 84 3d
       -0.056901697 0.09332281 0.024600854 0.06459007
0000c0 81 36 01 3d 4c 04 2e be 78 c2 1c be dc 48 e1 bd
       0.03154612 -0.16993827 -0.15308559 -0.11000225
0000d0 98 04 cf bd 60 cf 04 3e 85 22 94 bd 0b f9 52 3d
       -0.10108298 0.12969732 -0.072331466 0.051507037
0000e0 60 ab bd 3d 36 2f 1f be 37 31 80 3d 3e 0b 51 3d
       0.09261203 -0.15545353 0.06259387 0.051036112
0000f0 79 58 2d be ef 0c 8d 3d c5 ee bd bd 7e 89 e0 3d
       -0.16928281 0.068872325 -0.09274057 0.109637246
000100 49 e6 40 bd 7b 3d 9d bd 95 7a 0f 3e f0 a5 07 be
       -0.047094617 -0.07677742 0.14011605 -0.13246894
000110 2b a8 01 3e 95 1d a2 3d 08 61 2a 3c 0a 9e 27 3b
       0.12661807 0.079157986 0.010399111 0.0025576376
000120 5f cf e9 3d 8e 35 59 3d 93 c7 94 bd f9 91 2f be
       0.11416506 0.05302959 -0.07264628 -0.17145528
000130 c6 6b 02 be b7 cb 9b bd f8 80 f3 bd d6 f0 a0 bd
       -0.12736425 -0.07607215 -0.11889833 -0.07858436
000140 10 b0 22 3d b5 df e5 3d 22 ef 3a be 57 53 fc bd
       0.039718688 0.11224309 -0.18255284 -0.12320583
000150 bf ce f9 bc b1 ad 8b 3d e8 13 ae bc 8a ea 32 be
       -0.030494092 0.068202384 -0.021249726 -0.17472282
000160 28 4b 27 3e c2 60 9f 3d 9f 26 62 bc c0 39 f9 3c
       0.16337264 0.07782127 -0.013803153 0.030423045
000170 3f b6 cd 3c 97 58 3c be c3 e3 85 3d 8f 6c cf 3d
       0.025111316 -0.1839317 0.06537583 0.10128128
000180 27 37 d0 bd 71 7a 5d 3c 41 3b 35 be 89 ba fe 3d
       -0.101667695 0.013517962 -0.17698385 0.124379225
000190 95 f4 99 bd 0f c1 ab 3c db 97 d5 bc 8f 9c 77 3d
       -0.075173534 0.020966081 -0.026073387 0.06045204
0001a0 38 73 0a 3c e6 24 9d 3d bd 57 fd 3d 5d 92 65 bc
       0.008450322 0.076730534 0.123702504 -0.0140119465
0001b0 59 c5 33 bd ac 32 b1 bc 2a 87 06 3e 01 94 fc bd
       -0.043889377 -0.021630608 0.13137498 -0.12332917
0001c0 8f f2 e9 3d 43 ef 96 bd 27 8d 31 3e 55 cb db bd
       0.114232175 -0.07369854 0.17339002 -0.10732142
0001d0 10 e8 91 3d 46 b1 c7 bd b8 9f 4f bd 6a 88 ea 3d
       0.071243405 -0.09750609 -0.05068943 0.114518
0001e0 ca 8f 27 3e 88 3b 85 3d e3 37 6d 3c 73 99 22 3e
       0.16363445 0.06505495 0.014478656 0.15878849
0001f0 b4 c4 bb 3d 48 c5 ee bd 1a 39 c5 bd 8a 85 21 be
       0.091683775 -0.11658722 -0.09630032 -0.15773597
000200 10 4a c8 bd 51 ba 03 3c 7b d1 c9 bd ab 92 d0 3d
       -0.09779751 0.008040027 -0.09854408 0.10184225
000210 1b c2 09 be 77 18 15 3e 93 0a a5 3d 8f 06 f0 bd
       -0.13452952 0.14560114 0.080586575 -0.11720001
000220 e0 34 29 be 80 39 f8 bc 0e 11 a9 3d 37 e6 3d bc
       -0.16524076 -0.030300856 0.08255206 -0.011590532
000230 ac 95 e1 3d a4 d2 90 bb d6 7f b0 3d 78 0c 78 bd
       0.11014876 -0.0044196416 0.08618133 -0.060558766
000240 74 86 b9 bd e3 dc e2 3d 1a 25 ea 3d 90 39 5e ba
       -0.09058848 0.11077287 0.11432858 -0.00084772054
000250 b8 93 2d be 57 0d 18 3d f5 2e 30 bd 82 c1 bb 3c
       -0.16950881 0.037122097 -0.04301353 0.02291942
000260 54 fa b3 3d 30 8b 82 bd 83 84 0a 3e 70 0d 54 bd
       0.08787981 -0.06374204 0.13527112 -0.051770627
000270 78 24 00 3e 43 30 78 bd 8e 98 3a 3b 6c 7d e5 bc
       0.12513912 -0.0605929 0.0028472277 -0.028013907
000280 db f7 3a 3d 70 12 e9 3d 47 98 02 be f2 19 b2 3d
       0.04564653 0.1138047 -0.12753402 0.08696355
000290 00 f1 20 3e f3 35 b1 bd d5 ee fb bd 56 e2 8a bd
       0.15716934 -0.08652868 -0.12301413 -0.067814514
0002a0 c7 ac ba 3d d2 b5 a8 3d bc 7e d8 bd ae 25 95 bd
       0.09114986 0.082378045 -0.10571048 -0.072825775
0002b0 a3 b7 72 3c 73 47 0f bd 7e 28 b1 3d d1 aa d0 3d
       0.01481429 -0.03498025 0.086503014 0.10188831
0002c0 27 50 74 bd dd a1 ae 3c a5 c7 6f 3d 04 d2 16 3b
       -0.05964675 0.021317417 0.058540005 0.0023013363
0002d0 30 5f bc bd c8 fa e7 3d 46 8e f3 3d ab 3c c0 bd
       -0.09197843 0.113271296 0.11892371 -0.093865715
0002e0 76 d2 59 bc 3b d5 bf 3d 8f bc a7 3d 83 30 03 3d
       -0.013294807 0.09366842 0.081902616 0.032028686
0002f0 5b 02 0b bd 24 56 0a be 71 1f 35 be 5b c5 ca 3d
       -0.033937793 -0.13509423 -0.17687775 0.09900924
000300 27 f5 83 3d b6 5d 0b be 98 45 50 bd 7d c9 45 3c
       0.064432435 -0.13609967 -0.05084762 0.012071964
000310 42 f3 b5 bc 25 97 0f be ef 56 08 be 01 a6 b5 3c
       -0.02221072 -0.14022501 -0.13314413 0.022173883
000320 48 0e 1c be 10 83 08 be da 09 04 3e 47 86 07 bd
       -0.15239823 -0.13331246 0.12894383 -0.03308704
000330 d0 3b 47 be 30 95 09 3d ac 8a d2 bd ca 58 3e bd
       -0.1945641 0.033589542 -0.10280356 -0.046471395
000340 c8 31 2c bd c1 68 a6 3c 7f 48 26 be 32 fb d3 bd
       -0.042039663 0.020313622 -0.16238593 -0.10350646
000350 a9 7e 31 3d 0d 2b fb 3d f4 a6 9f bd 27 33 01 3d
       0.043333683 0.12264071 -0.07795516 0.031542923
000360 44 67 03 be 6a f9 55 be c3 2f e6 3d 31 cc e6 bd
       -0.12832361 -0.20895925 0.112395786 -0.11269415
000370 e7 eb 10 3d 32 58 c8 ba 47 3c 52 be 70 fa 4f bd
       0.035381224 -0.0015285073 -0.20530806 -0.050775945
000380 af 68 8b 3d b8 46 58 3d 3f d7 d0 ba c4 e3 6d bd
       0.06807076 0.052801818 -0.0015933289 -0.058078542
000390 e6 60 eb 3c b1 f1 82 3d a3 68 90 bc 62 40 2c be
       0.028732728 0.06393755 -0.01762802 -0.16821435
0003a0 71 d3 e1 bd 5f 39 95 3d 51 35 a7 bd 5d fd af bd
       -0.110266574 0.07286333 -0.08164466 -0.08593247
0003b0 96 a0 0e 3e bd 6e 7e bb 37 bf bb 3d 49 6f 7a bd
       0.13928446 -0.003882333 0.09167331 -0.061141286
0003c0 09 44 75 3c 7f d9 94 3d d6 2c 2a bd 6a 2b 0d bd
       0.014969834 0.072680466 -0.041546665 -0.03446523
0003d0 b2 69 99 3d fd d8 16 bd 48 a3 ce bd 36 0a 00 3e
       0.07490863 -0.03682803 -0.10089737 0.12503895
0003e0 4c c5 d7 bd 68 57 37 3d b3 46 18 bb e3 b2 73 bd
       -0.10535678 0.04476109 -0.00232355 -0.05949677
0003f0 a6 e5 e6 bd ce 12 ef 3d e0 c9 a5 bd 54 1e 3c 3e
       -0.11274271 0.116735086 -0.08095145 0.18370944

model.model.0.bias f4 [128]
000000 89 eb 87 3e 2f 6f ae bd d6 4d 73 3c b6 60 ac bd
       0.26546887 -0.085173 0.0148501005 -0.08416884
000010 6d 52 42 3e b1 b3 4c 3e 32 3e 80 3e 06 57 08 3e
       0.18976755 0.19990422 0.2504745 0.13314447
000020 27 85 9b 3e 0b 88 75 3e c6 e6 bd bd d6 29 89 3e
       0.30375025 0.23977678 -0.09272532 0.2678973
000030 48 e1 a0 3e 64 8d b9 bd 33 b5 54 3d 62 36 84 3e
       0.31421876 -0.09060171 0.051930618 0.2582274
000040 4a 11 3c 3e af ac 22 3e 8a 9b 20 bd d0 77 78 bd
       0.1836597 0.15886186 -0.039210834 -0.060661137
000050 a8 55 70 bd d0 65 19 3e 0a 73 88 3e ce 86 9d bd
       -0.05867544 0.14980245 0.26650268 -0.076917276
000060 e9 c6 91 bd 83 19 6c bc ea a8 42 3e f4 2e 83 bd
       -0.07118017 -0.014410379 0.19009748 -0.0640544
000070 15 ca e1 bc 72 a8 1d be a1 80 2b 3e ec 5a 3a 3e
       -0.02756218 -0.15396288 0.16748287 0.18198746
000080 8a b9 d8 3d 3f 23 86 3e 5c db 81 3e 90 8e 83 3e
       0.10582264 0.26198766 0.2536267 0.25694704
000090 d8 2d c5 3d 72 b7 e8 bd d0 49 b9 39 e5 cd 8d 3e
       0.096278846 -0.113631144 0.00035340944 0.27696148
0000a0 ec 17 2a 3e 5b 23 aa bd e5 64 9a 3e 62 12 3f 3e
       0.16610688 -0.08307525 0.301551 0.18659356
0000b0 8c 0d 56 3e ad 4d 9a 3e b5 57 5e 3e 66 fa 0b 3e
       0.20903605 0.30137387 0.21713145 0.13669738
0000c0 3d 68 99 3e aa dd 8e 3e f6 23 d5 bd d9 23 91 bc
       0.2996234 0.2790349 -0.1040725 -0.017717289
0000d0 87 70 97 bd a4 16 8d 3e 83 38 73 3e e2 de c6 3e
       -0.0739451 0.27556336 0.23752026 0.3884192
0000e0 0b 48 63 bd 80 3e 8c 3e 76 7e 6b 3e 14 91 e1 ba
       -0.055488627 0.27391434 0.2299746 -0.0017209374
0000f0 be c2 d0 3e a7 66 38 bd 3d f9 6c 3e e1 a1 18 bc
       0.40773576 -0.045019772 0.23141952 -0.009315939
000100 52 d3 50 bc 29 5b 1f 3e eb a2 21 3e 7d fe 99 bd
       -0.012745695 0.15562119 0.15784805 -0.07519243
000110 b3 e6 32 bc 13 68 72 3d da 8c 66 3d f6 16 84 3e
       -0.010919261 0.059181284 0.05628667 0.25798768
000120 6a 87 9c 3e d0 85 2a 3d 22 fb 90 3e 48 19 9a 3e
       0.30572063 0.04163152 0.283166 0.30097413
000130 d0 61 bb 3d 25 d3 36 bd 26 ad 9f 3e 86 5a 8f 3e
       0.09149516 -0.044634957 0.3118679 0.2799875
000140 2a e6 27 3e 4b b9 42 3e fa 16 cd bd 0e c7 99 bd
       0.16396394 0.19015996 -0.10014148 -0.0750867
000150 11 38 d4 bd 5c d8 24 3e a4 3a 8f 3e f8 a6 18 3e
       -0.10362256 0.1609816 0.27974427 0.14907444
000160 af 71 0d bc 79 aa 07 3e fa b0 88 3d 27 d6 8f 3e
       -0.008633061 0.13248624 0.066743806 0.28093073
000170 ea 89 09 3e 6c a6 58 3e 29 ec 96 3e 16 4c 7d 3e
       0.13431516 0.21157235 0.2947705 0.24736056
000180 ba 69 55 3e 78 3a ab 3e 5c 17 e3 3d 8d cd f5 bd
       0.20841113 0.33443046 0.1108844 -0.12002096
000190 61 3d 85 3e 74 36 76 3e f8 2e 7b 3e 83 66 91 bd
       0.2602339 0.2404421 0.24529636 -0.07099631
0001a0 8c 36 b1 bd ba 48 a1 3e 60 e0 fd bd b9 ef 14 3e
       -0.08652982 0.31500798 -0.12396312 0.14544572
0001b0 d8 cd 7d 3e ed 9c 58 3e 5b 50 8b bd 70 71 00 3e
       0.24785554 0.21153612 -0.06802436 0.12543273
0001c0 24 67 76 3e a8 03 e5 bc b7 70 1b bc 1e 28 3b 3e
       0.24062783 -0.027955845 -0.0094873225 0.18277022
0001d0 da 47 ee bc d2 62 97 3d 0d 12 3a 3e 97 66 80 3e
       -0.029086996 0.07391895 0.18170948 0.2507827
0001e0 25 43 c8 bc 05 d4 4e 3d b2 bf 91 3e ef 62 25 3e
       -0.02444608 0.050495166 0.28466564 0.16151021
0001f0 d8 36 92 3e b5 ca 87 3e ab 7d 59 3e 2d 8f 5d 3e
       0.28557467 0.2652184 0.21239345 0.21636648

model.model.2.weight f4 [128, 128]
000000 3c ba a1 3d d3 71 c9 3b 82 a2 84 3c e0 4e 0f bd
       0.078968495 0.006147602 0.016190771 -0.03498733
000010 44 3c 64 bc 2b 7a a4 3b 71 86 66 3e 79 36 5a 3d
       -0.013930384 0.0050194464 0.22512223 0.053274605
000020 ef ca 44 3d 41 1b e6 3c be d4 e3 3d cb a4 ac 3d
       0.048045095 0.028089168 0.11124562 0.08429869
000030 cb 22 ee 3d d4 34 f3 bc 5a 9a f3 3c 9a 7c e0 3d
       0.1162773 -0.029688276 0.029736686 0.10961266
000040 8b 37 fd 3d d5 68 a4 bd 01 d6 9b bd 87 62 b1 3c
       0.123641096 -0.080278076 -0.076091774 0.021653427
000050 e5 89 b9 bd d0 30 0d bd 2c b5 c8 3d 44 2f 9c bd
       -0.090595044 -0.03447038 0.09800181 -0.07626203
000060 7f c9 d9 3d 39 97 90 bd 31 8e 5c bd 9b fd d8 bc
       0.106341355 -0.070600934 -0.05384654 -0.026488116
000070 04 4c 24 bd b3 d0 15 3d 67 1e 1d bd ca a3 0a bd
       -0.040111557 0.036575984 -0.038359072 -0.033847608
000080 21 b4 6d bd 0c a8 1f bd 7e 40 1d bd 4f d6 1e bd
       -0.058033112 -0.03897862 -0.038391583 -0.0387786
000090 f0 a6 d8 3d 24 38 4e bc 4a 18 c5 bc 3b 6c dd 3b
       0.10578716 -0.012586627 -0.024059433 0.006757287
0000a0 c8 35 69 bd 05 49 12 3e 6e 0d 68 3d 87 4a 4d 3c
       -0.056936055 0.14285667 0.056653433 0.012529976
0000b0 8a 66 6a 3d ff fc b5 3a 41 a3 41 bd ed 43 cb 3d
       0.057226695 0.0013884603 -0.04727483 0.09925065
0000c0 60 42 a7 3c 96 44 74 bd 12 81 4b 3c 63 d4 05 bd
       0.020417392 -0.05963572 0.0124209095 -0.03267325
0000d0 82 78 b9 bd e3 71 0b 3d 96 0a b4 bd 47 4b 80 3e
       -0.09056188 0.034044158 -0.087910816 0.25057432
0000e0 c0 74 c3 3d 27 76 75 bd df 30 e0 3c 5a ff 36 3d
       0.09543753 -0.059927132 0.027367054 0.044677116
0000f0 f0 73 82 3e 5f ca c5 3d 1e c9 2b 3e 73 68 c6 3d
       0.25479078 0.0965774 0.16775939 0.09687891
000100 d5 0f 15 bd 74 e7 69 bd 62 7f 6b 3d fc 80 0f bd
       -0.03639205 -0.057105497 0.05749453 -0.03503512
000110 a3 ff 2e bc 9b 38 1f bc be 30 15 3d 78 e0 1b 3e
       -0.010681066 -0.009718086 0.036423437 0.15222347
000120 df cf 3f bc ac 66 cc 3c 6f d8 d6 3c f2 5e c8 3d
       -0.011707275 0.024951302 0.02622625 0.097837344
000130 cb e7 65 bc 34 4f 7a 3d 10 49 6f bb f1 b2 1a 3e
       -0.0140323145 0.06111069 -0.0036512055 0.15107323
000140 ea bd e7 3d 83 0c c8 3c 4a fa 72 bb 3a 70 ba bd
       0.1131552 0.024420029 -0.0037075453 -0.09103437
000150 2b 65 74 bc 81 44 aa 3d 12 df 5a 3d 3f 64 28 bd
       -0.014916698 0.08313847 0.053435393 -0.041111227
000160 d1 a0 28 bc fe 14 01 bd b3 c8 07 3c b3 93 fb 3c
       -0.010292248 -0.03151416 0.0082875965 0.030710077
000170 ba 10 0a bc f6 14 88 bc fc 73 40 bd d9 f2 00 3e
       -0.0084268395 -0.016611557 -0.04698561 0.12592639
000180 d5 e9 69 3d bd 5b 08 3e 5d de 22 3e b3 61 a6 bc
       0.057107765 0.13316245 0.15905137 -0.020310258
000190 93 a9 fa 3d 0b 29 2d bd ed 5d 6f bd 1b 62 a4 bd
       0.12239375 -0.04227547 -0.058439184 -0.08026525
0001a0 58 62 f6 3d e1 8e 0b 3e e0 01 3e 3c f1 3b 48 3d
       0.12030476 0.13628723 0.011597127 0.04888529
0001b0 d5 34 92 bc 66 5a cc 3d ba df 64 3c 27 ea 8c bd
       -0.017847458 0.0997818 0.013969356 -0.068805985
0001c0 a2 0d f5 3c 75 70 0a bc c3 97 97 3d 99 a5 8e 3c
       0.029913727 -0.008449663 0.07401993 0.017412947
0001d0 7c 22 b3 3d 84 12 40 3d 40 de c7 bc 79 ef dd 3d
       0.08746812 0.046892658 -0.02439797 0.108366914
0001e0 32 d8 c9 3d 63 62 32 bd 32 01 80 3e f0 33 ba 3d
       0.09855689 -0.04355086 0.25000912 0.090919375
0001f0 46 4d 91 3d 02 40 29 bc c7 52 86 3d 76 30 a5 3c
       0.07094817 -0.010330202 0.06558757 0.02016471
000200 35 c8 b6 bc f4 7c 8f 3d 81 b7 5a bc 3e 20 16 bd
       -0.022312263 0.07006255 -0.013349415 -0.036651842
000210 e5 32 ae 3d 21 c4 ce 3d 7c b8 c9 3d 69 b0 ae bc
       0.08505801 0.10096002 0.09849641 -0.021324353
000220 7a da a8 3d b5 24 90 3c 19 de 09 bd 94 79 ff 3d
       0.08244796 0.017595628 -0.033659074 0.12474361
000230 d1 aa 69 3d 4b 0b 9a bd be bc 77 3c d6 54 f1 3d
       0.05704767 -0.07521685 0.015120683 0.11783759
000240 ab ac 6e bc 0a 03 ce 3d 3b f3 a2 bd e4 5d b0 3d
       -0.014567534 0.100591734 -0.07956549 0.08611658
000250 a9 ea 96 3d 47 df c9 3d 7b d0 c8 3b d5 53 6e bd
       0.073689766 0.0985704 0.0061283684 -0.058185417
000260 8f f3 fb 3d 39 a7 ae 3d 58 a1 c8 3d fb e4 82 bd
       0.123023145 0.08527989 0.09796399 -0.06391331
000270 5d fb 22 3d 2a e9 aa bd ad 9e db 3d e9 b5 bf 3d
       0.0397905 -0.08345254 0.107236244 0.093608685
000280 af d5 03 bd fa 81 2d 3d ad 1a d6 3d 2a ed 1d 3d
       -0.032186206 0.042360283 0.10454307 0.038556255
000290 8e 4c f6 3d 7c e9 6a bd 66 2d 0e 3d b1 f1 63 3d
       0.120263204 -0.057351574 0.034711264 0.055650417
0002a0 ef 0a f0 bc f0 92 ac 3d 08 b1 35 bd 11 6c bc bb
       -0.029302089 0.084264636 -0.044358283 -0.005750187
0002b0 92 71 b8 bc 8a 23 66 3c 5e 6d f3 b9 9a 38 42 3e
       -0.022515092 0.014046559 -0.00046430057 0.18966904
0002c0 ba b7 90 3d 90 5b a3 3d 2a 5c 61 3d 12 6c 8f 3d
       0.07066293 0.079764485 0.055019535 0.07003035
0002d0 b4 3f 71 3d ef 17 f7 bc 52 19 23 3d 2f c9 8a 3e
       0.058898643 -0.03016278 0.03981907 0.27106616
0002e0 5c bb d3 3d 2a 27 bc bc 0b e8 e3 3d 34 7a 46 bd
       0.1033847 -0.022967894 0.11128243 -0.048456386
0002f0 5f e5 46 3e 50 50 1f bc e8 1c 0a 3e c1 a0 b9 bc
       0.19423436 -0.009723738 0.1348759 -0.022659661
000300 5f 26 f9 bc 85 ab 21 bd 56 8b 12 bd 46 c2 80 3d
       -0.030413805 -0.039470214 -0.035777412 0.06287055
000310 6b dd 93 3d c9 1d da 3d 20 f3 2d 3b 36 b3 bf 3d
       0.072199665 0.10650212 0.002654262 0.09360354
000320 59 84 b8 3d e0 c4 c7 3d 28 64 0f bd 09 98 bd 3d
       0.09009618 0.09754348 -0.035007626 0.09257514
000330 b7 51 41 bd af 8f d8 bc d9 a4 42 bc 85 ca 2b 3e
       -0.04719707 -0.026435701 -0.011880123 0.16776474
000340 76 e1 b0 3d af 92 75 3c 5e 02 91 3d 5f e7 51 bd
       0.08636753 0.014988585 0.0708053 -0.051246043
000350 c3 ae fe 3b fc 27 23 bd 11 a9 09 3e 6b 93 fd 3d
       0.007772298 -0.039833054 0.134434 0.12381633
000360 b9 e1 fe 3d 2f 47 3e bc 59 78 98 3d 93 c7 de 3d
       0.12445397 -0.011613651 0.074448295 0.108779095
000370 ef 44 73 bd 8d 8c 81 3d b1 60 48 bc 6f b1 a2 3b
       -0.059391912 0.06325636 -0.012230084 0.0049649994
000380 7f ad cd 3d dc f8 0a 3e d2 66 f0 3d 73 6b 85 3c
       0.100428574 0.13571495 0.117383614 0.016286587
000390 af 9f 22 3e 68 8b 83 3d 5a 10 02 3e 38 53 b3 3d
       0.15881227 0.06423074 0.1270155 0.08756107
0003a0 a2 e7 20 3d 43 54 cd 3d 78 43 30 3d 0e 51 82 bd
       0.039283402 0.10025837 0.043033093 -0.06363116
0003b0 5d ee 0a 3e 18 c0 ed 3d 67 1a b1 3d 28 4d 6a bd
       0.13567491 0.116089046 0.08647614 -0.05720249
0003c0 0c 3e cf 3c 87 2f 2e bd 30 e8 26 3e 4a 39 f1 3d
       0.025298141 -0.042525794 0.1629951 0.11778505
0003d0 a7 ea d2 3d 10 48 bf bc 39 52 20 3e 72 90 d1 3c
       0.10298663 -0.023349792 0.15656365 0.025581572
0003e0 b5 84 d6 3d 20 4e 9b 3d 8e a4 f5 3d 1f 3e 75 3d
       0.104745306 0.075832605 0.11994277 0.059873696
0003f0 93 bb b4 3d 20 af a9 3d 1a 70 cd 3b 59 c4 93 3c
       0.088248394 0.082853556 0.006269467 0.018037962

model.model.2.bias f4 [128]
000000 a4 3f 02 3e 34 a4 3b 3e 41 c2 1b 3e ee 8a 49 3e
       0.1271959 0.18324357 0.1521082 0.19681904
000010 7e 57 3f 3e d7 39 21 3e d0 42 f0 3d 79 91 1c 3d
       0.1868572 0.1574472 0.117314935 0.03822467
000020 2e 26 55 3e 04 44 4c 3e 9e de b2 3d 9d cc 1f 3e
       0.20815346 0.19947821 0.08733867 0.15605398
000030 59 c3 3b 3e ce 00 48 3e 9d a7 21 3e f3 f6 cb bc
       0.18336238 0.19531557 0.15786596 -0.024898028
000040 ac bd 42 3e 4f 7f a7 3d bd 7b a2 3d 93 47 49 3e
       0.19017667 0.08178579 0.079337575 0.1965621
000050 d7 ca 86 3d 4c 71 76 bd 43 7c 3c bd e6 0b 2b 3d
       0.065816574 -0.060166642 -0.046016943 0.041759394
000060 7a bf 21 3e 21 51 0d 3e 74 91 56 3e 57 c7 51 bd
       0.15795699 0.1380048 0.20953923 -0.051215496
000070 c0 ca 3e 3e 7a e2 24 3e a1 02 fb 3d cc f8 d8 3c
       0.1863203 0.16102019 0.12256361 0.026485823
000080 c3 08 12 3e 69 87 95 3d 50 2e 64 3e 07 d7 34 3e
       0.14261155 0.07301218 0.22283292 0.17660151
000090 cd 7b 56 3e f1 17 47 3e ab c9 df bc 7d 3f 2c 3e
       0.20945664 0.19442727 -0.027317842 0.16821094
0000a0 78 51 66 3e 48 25 f4 bc 50 25 68 3e 77 2c 11 3e
       0.22492015 -0.029802933 0.22670484 0.14177118
0000b0 08 75 41 3e 54 92 b2 3d 1b e4 b0 3d 69 13 79 3e
       0.188923 0.08719316 0.08637258 0.2432381
0000c0 18 d5 20 3e 57 c3 e1 3d 5c 17 0c 3e cc 6c 13 3e
       0.15706289 0.11023586 0.13680786 0.14396971
0000d0 d7 d3 29 3e 8c 18 54 3e 38 f3 ba bd 46 02 f0 3d
       0.16584717 0.20712489 -0.091284215 0.117191836
0000e0 74 f3 58 3e d6 cb 69 3e 7a a2 f0 3d 42 8f 1e 3e
       0.2118662 0.22831663 0.1174974 0.15484336
0000f0 a8 05 83 bd bd 75 60 3e 9e ad 81 3d 67 ef f5 3d
       -0.06397563 0.21919914 0.06331943 0.12008553
000100 46 06 f0 3d ed b9 4f 3e 82 54 cf 3d 41 ed 86 bd
       0.117199466 0.20285769 0.101235405 -0.06588221
000110 6e b6 49 3e 42 a1 a7 3d 58 b2 ef 3d 00 37 97 3d
       0.19698498 0.08185054 0.11703938 0.07383537
000120 8c 80 0c 3e 16 b9 d3 3c 78 9a 14 3e 81 25 ac bd
       0.13720912 0.025845092 0.1451205 -0.08405591
000130 cc 3b 0a 3e 05 34 2b 3e 4e 83 01 3e 7f af f3 bc
       0.13499373 0.16719063 0.12647745 -0.029746769
000140 49 f3 47 3e 50 53 5e 3e 2d 8f 70 3b c8 3e 93 bc
       0.195264 0.21711469 0.0036706433 -0.017974272
000150 a2 fb ab 3d e1 a8 26 3e 66 db 8c bd a1 63 0e 3e
       0.083976045 0.1627536 -0.068777844 0.13905193
000160 a8 8b 26 bd 5e 7b 64 3e 90 7c 3d 3e 6f 02 22 3e
       -0.04066053 0.22312686 0.18504548 0.15821241
000170 3a 8b 31 3e b6 99 9a 3c 6e 0e ed 3d 05 ca d4 3d
       0.17338267 0.018872123 0.11575018 0.10390095
000180 b6 7d 4a 3e 3f 9c 12 3e ae 09 db 3d 4b a8 b6 3d
       0.19774517 0.14317416 0.10695206 0.08918818
000190 d1 1c 53 3e 75 61 4f 3e 33 4b 3c 3d aa 74 03 3e
       0.20616461 0.2025202 0.045970153 0.12837473
0001a0 14 cd a6 3d 0a 41 c5 bc 5b 29 52 3e 7f a5 40 3e
       0.08144584 -0.024078865 0.20523588 0.18813132
0001b0 54 a4 e2 3d 4a 91 2d 3e c5 be 5f 3d 1b d4 aa bd
       0.11066499 0.16949955 0.05462529 -0.08341237
0001c0 a4 37 c0 3d e9 34 b3 3d 9f 14 c7 3d 8b 6f 1c 3e
       0.093856126 0.08750326 0.0972073 0.15276925
0001d0 af 93 c5 3d f3 13 10 3e 33 6c 06 bd 59 03 a2 3d
       0.09647309 0.1407011 -0.03281803 0.07910795
0001e0 6f b2 fe 3d 8f 27 0d bc a5 e1 0d 3c a3 cb ea 3d
       0.12436377 -0.008615389 0.008659755 0.11464622
0001f0 90 e0 3e 3e 8f 0d 9f bd 23 13 97 3d 5f 14 13 3e
       0.18640351 -0.07766258 0.07376697 0.1436324

model.model.4.weight f4 [128, 128]
000000 ba 06 9b 3c b2 15 3c bb f0 4e 45 bc bd 28 8f bd
       0.018924106 -0.0028699455 -0.012042746 -0.06990192
000010 a1 f8 20 bc 79 e1 80 bd 9b bc 13 3d 22 69 65 3d
       -0.009824903 -0.062930055 0.03606854 0.056008466
000020 06 7d fa 3b fa b2 05 3d 6f a5 34 bd f5 ac 11 bd
       0.0076442985 0.03264139 -0.044103082 -0.035565335
000030 37 e3 fc 3c 11 d5 82 3d 85 66 36 3d c2 9f 88 3d
       0.030870063 0.063882954 0.044531364 0.066710964
000040 c7 34 36 3d 99 36 19 bd 3f 12 3f bd f5 38 86 38
       0.044483926 -0.037405584 -0.04664826 6.400227e-05
000050 5c 50 83 3c 4e 1a 52 3d b3 41 5c 3d 62 de 33 bd
       0.01602953 0.051294617 0.053773593 -0.043913253
000060 72 09 55 bd a8 71 b7 bd bf 54 0d 3d 2e c2 17 3d
       -0.05201096 -0.08957225 0.03450465 0.03705042
000070 61 0d b5 bd 9a 0f 8d 3d 78 5b cb 3c 64 28 98 3d
       -0.088404424 0.068877414 0.02482389 0.07429579
000080 ef 0a 67 3c 04 d7 97 3d 30 31 8f bc d7 6a 91 3c
       0.014101728 0.07414058 -0.01747951 0.01775114
000090 28 31 c1 3c 23 20 f0 ba d0 8e 82 bc cb ff 52 3d
       0.02358301 -0.0018320124 -0.015937239 0.051513474
0000a0 e6 19 4b bc 00 40 64 37 3a fd 96 bd f6 18 83 bd
       -0.012396311 1.360476e-05 -0.07372518 -0.06401245
0000b0 23 da f7 3b 11 8f 9e bc 12 fe a4 3d be cb b7 bd
       0.0075638457 -0.019355329 0.080562726 -0.089744076
0000c0 cc dd 89 3c ba 43 a1 bd ee 2a 40 bc e4 b9 9c 3d
       0.016829394 -0.07874246 -0.011728985 0.07652643
0000d0 d8 50 78 3d 95 94 2b 3d eb 83 5f bd 1b 93 a9 3d
       0.060623974 0.041889746 -0.054569166 0.08280011
0000e0 11 83 66 bb fc 03 8b bc 0e 51 bd bd 4e e8 fe bb
       -0.0035173337 -0.016969673 -0.092439756 -0.0077791577
0000f0 3d b2 82 bd b2 17 06 3d 72 d0 36 3d e0 8a 8f 3d
       -0.063816525 0.03273744 0.044632383 0.0700891
000100 e3 e5 9a 3c 84 05 02 bd 8e 1e 6d 3d 86 7a 70 3b
       0.018908447 -0.03174354 0.057890467 0.0036694123
000110 a9 b4 df 3b c0 68 0e 3d 56 71 88 ba cf 15 46 3d
       0.0068269563 0.034767866 -0.0010409753 0.048360642
000120 52 4d 7a 3d 83 f8 a2 3d 5a 09 c8 3c 84 4b 67 bb
       0.061108895 0.07957556 0.024418522 -0.0035292814
000130 09 6e be bd 9b a1 aa bd b6 2a 64 3a 5b fa ad bc
       -0.09298331 -0.08331605 0.0008703874 -0.021237543
000140 38 5a c8 38 88 57 a0 3d 5c 75 91 3d aa 71 fe ba
       9.553548e-05 0.07829195 0.07102463 -0.0019412537
000150 7e 5a bb bd 76 d9 86 3d 3b e9 8d 3d c7 a5 9e 3d
       -0.091481194 0.06584446 0.06929251 0.07746463
000160 38 cb c7 3c 1f 48 68 3d 6f 97 93 3b 29 ba 8a bd
       0.024388894 0.056709405 0.0045041363 -0.067737885
000170 76 97 f9 3b 68 24 9c 3d 28 70 b6 3b eb 57 9c 3b
       0.0076169325 0.076241314 0.0055675693 0.004771223
000180 94 f7 96 3a 50 bc 6e 3d 7b 3f 7f bd a3 07 b9 3b
       0.0011517876 0.058285058 -0.0623164 0.0056466623
000190 31 8b cb 3b 76 99 71 3d b2 bb be bd 62 4a 02 bd
       0.0062116613 0.058984242 -0.09313144 -0.03180922
0001a0 ac ac b4 bd ae 86 72 bc 53 1c 55 3d 2d a4 4b bd
       -0.08821997 -0.014802618 0.052028965 -0.049717117
0001b0 39 cb 83 bc 2b b6 bf bd 3a 07 a6 3d 77 53 54 bd
       -0.016088115 -0.09360918 0.08106847 -0.05183741
0001c0 59 aa c9 bc 5f a5 89 bd 75 83 6f 3c e8 41 84 bd
       -0.02461736 -0.06720995 0.014618744 -0.06457883
0001d0 be 14 2c bd 86 8d 2e bd 28 81 49 3d c4 c5 a3 bd
       -0.04201197 -0.042615436 0.04919544 -0.07996705
0001e0 5a 2e 5a bd 78 eb 7e bc cf 50 c3 3c 3d 30 93 3d
       -0.05326686 -0.01555907 0.023842243 0.07186935
0001f0 63 ea d8 3b 95 da 54 3c 84 c7 9e 3d 9d ac 38 3d
       0.006619738 0.012991567 0.07752898 0.04508649
000200 36 4d ac bd 00 cb 0c 3d 99 05 71 bd f9 77 6f 3d
       -0.08413164 0.034373283 -0.05884323 0.058464024
000210 74 11 84 bd 39 3c c1 3c c6 12 9e 3c ba 7b 13 3d
       -0.064486414 0.023588287 0.019296061 0.036006667
000220 69 e7 85 3d f3 72 fb bc 8d 9a f5 39 68 60 26 3c
       0.065382786 -0.03069446 0.0004684519 0.010154821
000230 17 4d af 3d 5f aa e5 3c 9e 10 f8 bc 60 c6 ff bb
       0.085596256 0.02803534 -0.030281361 -0.0078056306
000240 a7 f9 48 bd e0 80 7c bb 12 6c 7e 3d 4b b9 3c bd
       -0.049066212 -0.0038528964 0.062114783 -0.046075147
000250 80 0e 21 ba 3a 6c 6c bd fd e2 9d 3d 00 c0 21 3b
       -0.0006143823 -0.0577204 0.0770931 0.0024681091
000260 36 60 2f bd 4b 5d 6a 3c f9 b6 a6 3d 0a d5 75 3d
       -0.042816363 0.014304469 0.08140368 0.060017623
000270 9b 59 83 bd 51 61 27 3d 3c 2b 88 bc cd dd 70 bd
       -0.06413575 0.040864293 -0.016622178 -0.058805276
000280 94 ac ec bb f4 72 07 bc 2e 6c 22 bd 05 9f 1b 3d
       -0.0072227214 -0.008267153 -0.03965395 0.03799345
000290 b9 47 28 bd da 59 99 3d 40 6c 37 bb df 88 98 bd
       -0.041084025 0.07487841 -0.0027988106 -0.07447981
0002a0 c8 12 18 ba 28 a6 d2 3c 4e e9 b3 bd 69 d4 88 bd
       -0.00058011385 0.025713995 -0.08784734 -0.06681139
0002b0 7b 10 b3 3c 0b 0b 9d 3c 9a 5b 67 3d 6d 65 49 3d
       0.021858444 0.019170305 0.056483842 0.049168993
0002c0 d1 1d 95 3d f8 68 12 bd b0 3c 42 3d 39 d1 f3 3c
       0.07281078 -0.035744637 0.047421157 0.029762851
0002d0 55 60 24 bd 50 7b 81 3d 74 0e 90 3c 50 ac 71 bc
       -0.040130932 0.06322348 0.017585017 -0.014750555
0002e0 dd 7c 92 3d ab 21 d9 bc 61 92 3a 3d a5 b0 11 bd
       0.07152722 -0.026505312 0.045549754 -0.035568852
0002f0 b2 7d 8e bd b0 78 8b 3c 4d 16 b3 3d a6 c6 9c 3d
       -0.06957568 0.017025322 0.08744488 0.07655077
000300 5d e4 72 bc 50 9e 90 3d 17 c2 df bc 8e 69 3c 3d
       -0.014824954 0.07061446 -0.027314229 0.045999102
000310 45 ea 9e bd b9 29 4c 3d 28 ca 63 3d ec 67 a9 bc
       -0.07759527 0.049844477 0.055612713 -0.020679437
000320 b9 f1 a0 bd 44 cc 8e bd 9b d0 29 bd 6a 6a 66 bd
       -0.07858605 -0.06972554 -0.041458707 -0.056253828
000330 a9 bb ee 3c dd 33 a3 bd a4 96 ac 3d ab 3f 8f 3d
       0.029142218 -0.079688765 0.0842717 0.069945656
000340 27 84 89 3d 1f f3 82 bd 70 b5 55 bc ca 70 58 3d
       0.06714659 -0.06394028 -0.013043746 0.05284194
000350 66 9d 97 bd 89 8e 26 3d 5e 16 6e 3d cb 6b 19 bd
       -0.07403068 0.040663276 0.0581268 -0.037456315
000360 68 4e a7 bc 0e 05 8e bd ac 31 a4 bd c7 5a 91 bd
       -0.02042313 -0.06934558 -0.08017287 -0.070973925
000370 02 f0 b6 3c 01 a0 55 bd 79 1f 07 bd c8 49 b6 bc
       0.022331242 -0.052154545 -0.032989 -0.022251979
000380 7d c2 8d bb 6c 48 18 bd 83 8d 56 bd 06 f3 30 3d
       -0.0043261633 -0.037178442 -0.05238105 0.043200515
000390 cc 98 a1 bd 10 32 16 3d 4b bb 3e bd 04 f3 cc bc
       -0.07890472 0.036668837 -0.046565335 -0.025018223
0003a0 32 06 90 3d eb 34 9d 3d 38 7c eb 3c 59 48 af 3b
       0.07032432 0.07676109 0.028745756 0.0053492007
0003b0 3c a0 17 bd 12 87 f8 bc ab 59 40 3c dd 6f 9b 3d
       -0.037018046 -0.030337844 0.0117401285 0.075896956
0003c0 77 6a 13 3d 45 c9 b0 bd ea 40 00 3d 0c 40 4f bd
       0.035990205 -0.08632139 0.031311907 -0.05059819
0003d0 d9 b9 ca 3c 1b 9b 19 bd 0a f7 60 bd d2 03 5d bc
       0.024746822 -0.037501436 -0.054923095 -0.01348968
0003e0 fc 35 5b bd 9a 62 5b 3d 28 4f 74 bc 01 b6 93 bd
       -0.05351828 0.05356083 -0.01491145 -0.07212449
0003f0 80 23 76 bb e9 5c 5a bd 39 30 01 3d 36 7a 99 bc
       -0.003755778 -0.053311262 0.03154013 -0.018735033

model.model.4.bias f4 [128]
000000 71 46 58 3c 87 cc 05 3b 6c 61 4c 3e bf 6b 36 3d
       0.013200388 0.0020416097 0.19959038 0.04453635
000010 0e df 15 bc 30 99 a9 3c 73 97 5c 3e 2d a6 1a 3e
       -0.009147419 0.020702928 0.21542148 0.15102454
000020 eb df 73 3d 3e 0d 23 3d 85 05 c3 3d db 10 06 3d
       0.059539717 0.03980755 0.09522537 0.03273092
000030 75 0e 21 3e 4b 7f fc bb 29 b4 a4 3d 6a 9a 01 3d
       0.15728171 -0.007705604 0.08042175 0.0316414
000040 03 3b 39 3c ab e1 2a 3e b3 78 98 3d 41 da 6b 3d
       0.011305573 0.16687648 0.074448965 0.05758119
000050 a4 00 d2 bc 0b 2b 0c 3e 5f 3d 96 bd ca 6c 71 3b
       -0.025635071 0.13688295 -0.07335924 0.0036838525
000060 85 dd 7b 3d e3 3e fa 3d 96 ad f0 3d 3b fe 28 3e
       0.061490554 0.12219026 0.11751859 0.16503231
000070 e3 b6 2c 3e 78 39 05 3d 00 5a 68 bd 65 a7 02 3e
       0.16866641 0.03252551 -0.056726456 0.12759168
000080 b7 a8 5b 3e 0e f8 80 bd 62 18 c8 3c 99 6e d9 3d
       0.21451078 -0.06297313 0.02442569 0.10616798
000090 28 93 cf bb 27 c0 af 3c 17 ef 52 3c e3 7a 57 3e
       -0.006334681 0.02145393 0.012874386 0.21042971
0000a0 bb 60 70 3d 60 50 fa 3d 33 5f 5c 3d 60 6a 8f bd
       0.058686 0.122223616 0.053801727 -0.07002711
0000b0 62 e9 72 3c d2 b7 46 3e a2 21 80 3c 5c 61 27 3e
       0.014826151 0.1940606 0.015641037 0.16345733
0000c0 f5 a1 70 bc 10 4d 70 bd 1a 6f 07 bd 93 41 c9 3c
       -0.014687051 -0.058667243 -0.03306494 0.024567401
0000d0 72 8d 03 3b 9c d3 f5 3d 8b 77 5d 3d 18 55 57 bd
       0.0020073322 0.12003252 0.054069083 -0.052571386
0000e0 80 86 37 3a e1 63 8b bd b8 a0 36 bd 4a 60 ff bc
       0.0007000938 -0.0680616 -0.044586867 -0.031173844
0000f0 e3 cb a6 bd 46 f7 3d 3e b8 81 71 bc 9f ef 32 3d
       -0.08144357 0.18551359 -0.0147404 0.04368555
000100 54 10 8b 3c 13 fc 0a bc 76 14 b3 bc 6c 79 39 bd
       0.01697556 -0.008482951 -0.021860342 -0.045281813
000110 82 f7 38 3e 66 05 05 3d 57 af db 3d 97 a6 fd bc
       0.18063167 0.03247585 0.10726803 -0.030963225
000120 4b f9 02 3e ad ee 8a bb d2 61 e6 3d e5 81 72 3e
       0.1279041 -0.004239878 0.112491265 0.23682363
000130 7e 4a aa bd 8d 9e 51 3d e6 dc 07 3e a2 43 9f 3d
       -0.083149895 0.051176596 0.1326786 0.07776572
000140 ee 61 97 3d c3 43 72 3e 3e 1c af bd 86 d9 41 3c
       0.073917255 0.23658662 -0.08550309 0.011831647
000150 cf b1 23 3e 8c a9 7f bd 60 f7 ac bd 6e 64 05 bd
       0.15985797 -0.062417552 -0.084456205 -0.03256648
000160 80 15 8f 3d 7c c4 dc 3d 67 37 a4 bd d9 f3 7c 3c
       0.06986523 0.10779664 -0.0801838 0.015438997
000170 e1 80 34 3e c8 34 d0 bc 77 64 5e 3d 9b 72 2f 3c
       0.17627288 -0.025415793 0.05429503 0.010708476
000180 d9 99 25 bd 87 09 49 bd 84 5a 8b 3c 4c be 04 3e
       -0.040429924 -0.04908135 0.017010935 0.12963217
000190 00 cd 3e 3e 8b 4b 19 3e 9c 22 da 3c c8 2b a0 3d
       0.18632889 0.14970224 0.026627831 0.078208506
0001a0 d1 31 17 3e 19 91 af 3c 68 90 a4 bc a0 a2 a2 3d
       0.14765097 0.021431493 -0.02008839 0.079411745
0001b0 a1 8b 33 3e 57 58 70 bd b9 ae 1d 3e 41 7c b5 bd
       0.17533733 -0.058677997 0.15398683 -0.0886159
0001c0 34 a6 15 3e 98 c4 56 bd a1 1e 0d 3e a9 31 77 3c
       0.14614183 -0.05243358 0.13781215 0.0150875235
0001d0 1a 9b 58 3d 01 af ce 3d c2 d2 84 3d 8f b5 1a 3e
       0.05288229 0.10091973 0.06485511 0.15108322
0001e0 af 0e 13 bc 30 c6 7f bd 3b 70 18 bd 49 c5 d1 3d
       -0.008975669 -0.062444866 -0.037216406 0.10242707
0001f0 72 7e d2 3d 70 66 98 bb c6 f3 8b 3d af b9 4d 3d
       0.10278024 -0.0046508834 0.068336055 0.05022591

model.model.6.weight f4 [7, 128]
000000 fa 7c de bc 1f 92 43 bd 8b 7d bc 3d 16 ec 80 3d
       -0.027159203 -0.047746774 0.09203633 0.0629503
000010 45 dd 9b 3d 26 f2 c1 3d 17 a3 c6 3d ba 12 79 3d
       0.07610563 0.09470014 0.09699076 0.060808875
000020 01 ec de bc 10 69 37 bd ae 3c 20 bd a9 91 a8 bc
       -0.027212145 -0.04477793 -0.03912037 -0.020577269
000030 dd ff a9 3d f0 6b 85 bd 3f 35 a7 3d 3f 54 2d 3c
       0.08300755 -0.06514728 0.08164453 0.010579168
000040 21 20 73 3c 09 96 83 3d c9 07 10 bd 60 0e 11 3d
       0.014839203 0.06425101 -0.035163675 0.0354141
000050 96 d9 85 bd 9f 87 e0 bb 5d 1e a8 3d 4e f1 d5 3d
       -0.06535642 -0.006852105 0.08208916 0.10446416
000060 eb 6b 93 3d c3 ba fa bc 95 08 b6 3c 4a 5a fc 3d
       0.07198318 -0.030606633 0.02222089 0.12321909
000070 b3 c8 ee 3d f5 d8 78 3b 24 5b 92 bd c1 b1 44 3d
       0.11659374 0.0037971113 -0.0714629 0.04802108
000080 21 f5 17 3d b8 c2 b8 bc 4e df b5 3c ea ba 77 3d
       0.037099008 -0.022553787 0.022201207 0.06048099
000090 cd 5c 3c 3d 41 be 97 bd 97 0e 97 bd 36 89 cb 3d
       0.04598694 -0.07409335 -0.0737583 0.0993828
0000a0 5a 36 28 bd b2 bc 8d 3d 7a 30 8f bc bd 76 8a bd
       -0.04106746 0.069207564 -0.01747917 -0.06760929
0000b0 6e 3e c5 bc af a9 87 3d a5 a4 d0 bb db be ae 3d
       -0.02407762 0.066241615 -0.0063672834 0.085324965
0000c0 1a 30 4d 3d e2 2a 5c bd 52 55 7e 3c 64 44 fe 3d
       0.0500947 -0.053751834 0.015523272 0.12415388
0000d0 b8 2c 2a bc 08 85 9e 3d 4b da 5d bc a6 c4 77 3d
       -0.010386638 0.077402174 -0.013540815 0.060490273
0000e0 98 3f cb 3c 80 bf 90 3a 00 13 0d 3d a5 37 a5 3d
       0.024810597 0.00110434 0.034441948 0.08067254
0000f0 c1 83 90 3d a9 61 8b 3c e8 49 9b bc f6 e0 3c bd
       0.0705638 0.017014341 -0.01895614 -0.046112977
000100 70 5b b4 3c e3 e5 2c 3d 69 ed a4 3c 32 08 9e 3b
       0.022016257 0.042211425 0.020132737 0.0048227543
000110 aa 95 92 3d 7e ac 75 bd 6e 72 f1 3d 8b d7 4e 3d
       0.071574524 -0.059978954 0.11789404 0.050498527
000120 5d 5d f6 3d b4 ae 80 bd 24 8d f8 bc 51 7d 83 3d
       0.120295264 -0.06283322 -0.030340739 0.064203866
000130 59 72 92 bd ba e9 28 bd 13 d1 6c 3d d4 2b 16 3d
       -0.07150716 -0.041238524 0.057816576 0.03666289
000140 e8 15 80 3d 63 0d 0f 3e 7d 47 96 3d 05 ad 85 bc
       0.06254178 0.1396995 0.07337854 -0.016317854
000150 fb 4b 80 bc 7b 06 a4 bd 50 58 f1 3c 23 60 af 3d
       -0.01566123 -0.080090486 0.029461056 0.085632585
000160 6f 6c 86 bd be 28 ee bc 14 0a 0d 3d 1a 99 6d 3d
       -0.06563651 -0.029072162 0.03443344 0.058007337
000170 85 98 f6 3d fa 6e 91 bd 33 d7 9c bc f0 86 a1 3d
       0.120408095 -0.07101245 -0.019145584 0.078870654
000180 78 3d 41 bc 2c 14 77 3d f0 4d e6 3b 83 fc 05 3e
       -0.01179444 0.06032197 0.007028334 0.13084607
000190 3f b7 ee 3d 03 e1 8e 3d b1 6c 8c 3d 57 1b 0a 3e
       0.11656045 0.06976511 0.06856669 0.13486992
0001a0 8d c4 03 3e f2 e0 8e 3d 18 16 db bc 7e 1a 06 3e
       0.12867947 0.06976499 -0.026743934 0.13096043
0001b0 c0 6b eb 3d 43 70 83 bc 66 8a c8 3d f5 1c 97 3d
       0.11495161 -0.016044741 0.097920224 0.0737857
0001c0 34 9c ef 3c 24 87 4d 3d b2 b4 65 3d 48 4f 9c 3d
       0.029249288 0.05017771 0.056080528 0.07632309
0001d0 a6 57 2c 3d 9c f7 ee 3b d1 d9 dd bb a0 57 7f 3d
       0.042075776 0.007292701 -0.0067703505 0.062339425
0001e0 f0 0d 31 3d 46 13 24 3d 11 13 95 3d 6a 51 b9 3d
       0.043226182 0.040057443 0.07279027 0.090487316
0001f0 ef 95 8e 3d 6f 75 a8 3d 63 ce bd 3d 0f e6 5b 3d
       0.06962191 0.08225524 0.09267881 0.053686198
000200 25 9e 9a 3d a8 25 8f bc 36 3c 8b 3d 49 c4 7a 3d
       0.07549695 -0.01747401 0.06798594 0.06122235
000210 fc 12 02 bd e7 34 b7 3c 0b 06 dd 3d 0f 6e 4c 3d
       -0.031756386 0.022364093 0.10792168 0.049909648
000220 4c a7 44 3d 9e e7 84 3d 45 c4 49 b9 cd e2 c0 37
       0.04801111 0.0648949 -0.0001924197 2.2993796e-05
000230 fe 77 ed 3d 3b f4 9f bd d6 04 94 bd f6 24 0f bd
       0.11595152 -0.07810255 -0.07227485 -0.034947358
000240 fd ed 05 bd 49 29 91 bc 4b d3 c5 bc da aa bb 3d
       -0.032697666 -0.017719882 -0.024148604 0.09163447
000250 eb b1 54 bd 9a 91 de 3d 8e 39 e9 bc c7 51 1f bc
       -0.05192749 0.10867615 -0.028469827 -0.009724087
000260 25 21 3e bd aa 8b 09 bd d4 d4 0c 3e c2 48 c7 3d
       -0.046418328 -0.03358046 0.13753062 0.09730674
000270 f4 b9 c7 3d fc 42 92 3d 2a 5d 66 3d 6b ea 02 3d
       0.097522646 0.071416825 0.056241192 0.03196184
000280 fc 4f 13 3e 10 fb c3 3c 81 74 a7 3d 0e 4f 07 3d
       0.1438598 0.023923427 0.08176518 0.033034377
000290 48 36 93 bd aa 06 f2 bc 57 a9 a0 bd 31 c9 98 b9
       -0.07188088 -0.029544193 -0.07844799 -0.00029141598
0002a0 b9 a9 94 bc fb 69 ce 3d 4c 6b 23 3d 9a c2 82 bd
       -0.018147336 0.10078808 0.03989725 -0.063847736
0002b0 74 e3 b3 bc 24 6a 36 3d 45 c5 d6 3c c8 c8 b7 bc
       -0.021959044 0.044534817 0.026217112 -0.022434607
0002c0 bc f2 ad bc 5c aa f7 3c 64 6b e6 3c a8 6e ad 3b
       -0.021233909 0.0302326 0.02812738 0.0052927323
0002d0 72 09 a2 3d fe 62 89 3d 7d 0d 5b 3c bc 33 8b 3c
       0.07911958 0.067083344 0.013369915 0.016992442
0002e0 70 5d f5 bb 40 9f 92 bd c0 29 f2 3b 35 bf 85 3d
       -0.0074879453 -0.07159281 0.007390231 0.065306105
0002f0 d0 4f 86 bc 24 5f bf 3d 04 f6 18 3c f5 fb 42 3b
       -0.01639548 0.093443185 0.009335998 0.002975223
000300 a5 49 b4 bd 90 82 0a 3d 40 d2 85 ba ac 65 a8 bc
       -0.08803109 0.03381592 -0.0010209754 -0.020556293
000310 fc 91 52 3d 40 88 b6 bc 87 45 b0 3c cf 93 92 3d
       0.051408753 -0.022281766 0.021517528 0.071570985
000320 0c 25 9b 3d 74 b3 a0 bc 98 9a 11 3e ec a5 11 3e
       0.075754255 -0.01961682 0.14219129 0.1422345
000330 03 08 b4 3d 64 8e 33 3c 18 7a 80 3b 00 87 01 bd
       0.087905906 0.010959242 0.0039208047 -0.031622887
000340 2b ea 24 3c 4e 26 17 3e ed 3a a4 3d 0f 47 a2 bd
       0.010065596 0.14760706 0.08019052 -0.079237096
000350 6e be 43 3d 91 fe ad 3d 00 89 1d 3b f8 e0 b1 bd
       0.04778903 0.0849582 0.0024037957 -0.086854875
000360 13 c6 12 3c b0 54 ab 3d c1 e1 48 bd 40 7d 89 bd
       0.008958357 0.08365762 -0.04904342 -0.06713343
000370 ab 90 45 3d a1 fb 9c 3d 95 8e 50 bd 14 95 b3 bc
       0.04823367 0.07665182 -0.050917227 -0.021921672
000380 00 87 14 bc 3a 7f 93 bd 6a 3d 73 3d c1 24 dd 3d
       -0.00906539 -0.07202001 0.05938474 0.10798026
000390 3e 59 e3 3d 63 b1 17 3e f2 13 28 3d b9 97 f6 3d
       0.11101006 0.14813761 0.041034646 0.120406576
0003a0 cf ff 02 3d 2e d5 8c 3d 2a 0a 4c 3d 33 88 d8 3d
       0.03198224 0.06876598 0.04981438 0.10572853
0003b0 2b 31 a6 bc 68 39 10 bd 69 39 73 3d c5 98 ad bd
       -0.020287117 -0.035210997 0.059380922 -0.08476404
0003c0 8b 38 52 3d 26 ef 8d 3d bc 70 d2 3c 38 7d 02 3c
       0.051323455 0.069303796 0.025688522 0.007964425
0003d0 2e 10 b4 3c 09 dc f3 bc d4 be 52 bc 1a 71 a5 3d
       0.021980371 -0.029768007 -0.01286288 0.08078213
0003e0 2c 13 59 bc a1 42 36 bd 30 48 83 bc 78 2c e9 3d
       -0.0132492 -0.044497136 -0.016025633 0.11385435
0003f0 cc 1a e8 bc e6 23 21 3d b3 ff 22 3d e6 9e 6b 3d
       -0.02833309 0.039340876 0.039794635 0.057524584

model.model.6.bias f4 [7]
000000 2f e0 f4 3d 78 c4 84 3e cb 99 1b 3e a2 a8 14 3d
       0.11956822 0.25931144 0.15195386 0.036293633
000010 4c 84 f9 3d e8 d6 a7 3d 97 5b d0 3d
       0.12183437 0.08195287 0.101737194

model_old.model.0.weight f4 [128, 42]
000000 19 84 e0 bd 89 27 81 bd e3 b2 02 3e 76 84 07 bd
       -0.10962696 -0.06306369 0.12763552 -0.03308531
000010 0a ec 1d 3d 57 5c f8 3d f6 b3 ba 3c 3b 08 e9 bd
       0.038555183 0.121269874 0.02279089 -0.11378523
000020 ba ec 96 3d ba 1c 83 3a 1a e5 ec 3d 85 c2 c3 3c
       0.07369371 0.0010003068 0.11567135 0.023896465
000030 a0 8a c4 bb 77 26 ea bc f7 2b cb 3c 0d ef a9 3d
       -0.0059979707 -0.028582795 0.024801238 0.082975484
000040 f0 54 42 3c 8e 2a b4 bc b7 16 10 be 1c 9b 64 bd
       0.011861071 -0.021992948 -0.14071165 -0.055811986
000050 0c da a3 3c df 18 86 3d 4e 73 e4 3d 64 ce aa bd
       0.020001434 0.065477125 0.11154805 -0.08340147
000060 ad 6d 8b bd a6 88 03 3e 76 56 e8 bd 6d aa b2 bd
       -0.06808028 0.12845096 -0.11344616 -0.087239124
000070 83 8d 23 bb 0f 3e 01 bd 9a 82 07 3e 88 09 0b be
       -0.0024956174 -0.031553324 0.13233414 -0.13577855
000080 29 08 09 3d 25 64 10 bd 7b f4 11 be eb cd 5c 3d
       0.033455048 -0.035251755 -0.14253418 0.053907316
000090 ae b9 6e bd a9 c6 dd 3d 46 82 12 bb 8a c1 02 be
       -0.058282547 0.10828907 -0.002235548 -0.12769142
0000a0 2f e4 05 bd 0c 6e 30 bd 98 f4 da 3d 37 06 de 3c
       -0.032688316 -0.0430737 0.10691184 0.027102573
0000b0 f8 10 69 bd 0c 20 bf 3d 3d 89 c9 3c 2f 48 84 3d
       -0.05690095 0.09332284 0.024601573 0.064590804
0000c0 10 37 01 3d 1a 04 2e be 78 c2 1c be 79 48 e1 bd
       0.031546652 -0.16993752 -0.15308559 -0.11000151
0000d0 98 04 cf bd 87 cf 04 3e 63 22 94 bd 0b f9 52 3d
       -0.10108298 0.1296979 -0.07233121 0.051507037
0000e0 c7 ab bd 3d 36 2f 1f be 9b 31 80 3d 3e 0b 51 3d
       0.092612796 -0.15545353 0.062594615 0.051036112
0000f0 79 58 2d be 29 0d 8d 3d c5 ee bd bd d2 89 e0 3d
       -0.16928281 0.06887276 -0.09274057 0.10963787
000100 49 e6 40 bd 18 3d 9d bd 95 7a 0f 3e f0 a5 07 be
       -0.047094617 -0.07677668 0.14011605 -0.13246894
000110 3b a8 01 3e 95 1d a2 3d f8 63 2a 3c 0a 9e 27 3b
       0.12661831 0.079157986 0.010399811 0.0025576376
000120 c3 cf e9 3d 8e 35 59 3d 93 c7 94 bd dd 91 2f be
       0.114165805 0.05302959 -0.07264628 -0.17145486
000130 c6 6b 02 be 6a cb 9b bd f8 80 f3 bd 98 f0 a0 bd
       -0.12736425 -0.076071575 -0.11889833 -0.078583896
000140 10 b0 22 3d b5 df e5 3d 05 ef 3a be 57 53 fc bd
       0.039718688 0.11224309 -0.18255241 -0.12320583
000150 3f c7 f9 bc c9 ad 8b 3d c6 0d ae bc 11 ea 32 be
       -0.030490516 0.06820256 -0.021246802 -0.17472102
000160 e5 4b 27 3e bd 62 9f 3d 80 1e 62 bc 9a 41 f9 3c
       0.16337545 0.07782505 -0.013801217 0.03042679
000170 3f b6 cd 3c cc 57 3c be c3 e3 85 3d 09 6e cf 3d
       0.025111316 -0.18392867 0.06537583 0.101284094
000180 e3 35 d0 bd 10 7b 5d 3c 15 3a 35 be 89 ba fe 3d
       -0.10166528 0.01351811 -0.17697938 0.124379225
000190 f9 f2 99 bd 0f c1 ab 3c 6c 91 d5 bc 15 a0 77 3d
       -0.075170465 0.020966081 -0.02607032 0.0604554
0001a0 69 73 0a 3c 4a 26 9d 3d bd 57 fd 3d e0 86 65 bc
       0.0084503675 0.07673319 0.123702504 -0.0140092075
0001b0 59 c5 33 bd 74 29 b1 bc c8 87 06 3e f9 93 fc bd
       -0.043889377 -0.021626212 0.13137734 -0.12332911
0001c0 ba f4 e9 3d 43 ef 96 bd fc 8d 31 3e 55 cb db bd
       0.11423631 -0.07369854 0.17339319 -0.10732142
0001d0 10 e8 91 3d 4c af c7 bd b8 9f 4f bd ad 89 ea 3d
       0.071243405 -0.09750232 -0.05068943 0.11452041
0001e0 ca 8f 27 3e 0a 3d 85 3d e3 37 6d 3c 73 99 22 3e
       0.16363445 0.06505783 0.014478656 0.15878849
0001f0 af c5 bb 3d 48 c5 ee bd fd 36 c5 bd 7e 85 21 be
       0.091685645 -0.11658722 -0.09629629 -0.1577358
000200 71 48 c8 bd d0 c1 03 3c c5 cf c9 bd b8 94 d0 3d
       -0.09779442 0.008041814 -0.09854082 0.10184616
000210 8b c1 09 be 96 19 15 3e 93 0a a5 3d af 04 f0 bd
       -0.13452737 0.14560542 0.080586575 -0.11719643
000220 e0 34 29 be fd 32 f8 bc 68 12 a9 3d a2 e5 3d bc
       -0.16524076 -0.03029775 0.08255464 -0.011590393
000230 2b 98 e1 3d a4 d2 90 bb 7d 81 b0 3d 78 0c 78 bd
       0.11015352 -0.0044196416 0.08618448 -0.060558766
000240 95 84 b9 bd c9 de e2 3d 1f 25 ea 3d f1 64 5d ba
       -0.09058491 0.11077649 0.114328615 -0.00084455224
000250 b8 93 2d be 54 10 18 3d f5 2e 30 bd 9b cb bb 3c
       -0.16950881 0.037124947 -0.04301353 0.022924235
000260 ab fb b3 3d 29 8b 82 bd ac 85 0a 3e 70 0d 54 bd
       0.08788236 -0.06374199 0.13527554 -0.051770627
000270 56 25 00 3e 43 30 78 bd 8e 98 3a 3b c7 74 e5 bc
       0.12514243 -0.0605929 0.0028472277 -0.028009785
000280 db f7 3a 3d fb 13 e9 3d 47 98 02 be 87 1b b2 3d
       0.04564653 0.11380764 -0.12753402 0.08696657
000290 00 f1 20 3e f3 35 b1 bd c1 ed fb bd 56 e2 8a bd
       0.15716934 -0.08652868 -0.12301207 -0.067814514
0002a0 17 ae ba 3d ea b5 a8 3d 39 7e d8 bd ae 25 95 bd
       0.09115236 0.08237822 -0.1057095 -0.072825775
0002b0 43 be 72 3c 86 46 0f bd e2 28 b1 3d 41 ac d0 3d
       0.01481587 -0.034979366 0.08650376 0.10189105
0002c0 27 50 74 bd fc a4 ae 3c a9 c7 6f 3d 07 d4 16 3b
       -0.05964675 0.021318905 0.05854002 0.0023014562
0002d0 d3 5e bc bd cc fa e7 3d 57 8f f3 3d ab 3c c0 bd
       -0.09197774 0.113271326 0.11892574 -0.093865715
0002e0 b4 ce 59 bc 3b d5 bf 3d 93 bc a7 3d bf 30 03 3d
       -0.013293911 0.09366842 0.081902646 0.03202891
0002f0 4e 02 0b bd 93 55 0a be 71 1f 35 be b8 c5 ca 3d
       -0.033937745 -0.13509206 -0.17687775 0.09900993
000300 27 f5 83 3d b6 5d 0b be 82 45 50 bd b7 c9 45 3c
       0.064432435 -0.13609967 -0.050847538 0.012072018
000310 d4 ee b5 bc 25 97 0f be a7 56 08 be 01 a6 b5 3c
       -0.022208609 -0.14022501 -0.13314305 0.022173883
000320 48 0e 1c be 0d 83 08 be da 09 04 3e 37 84 07 bd
       -0.15239823 -0.13331242 0.12894383 -0.033085074
000330 d0 3b 47 be d0 95 09 3d ac 8a d2 bd ca 58 3e bd
       -0.1945641 0.033590138 -0.10280356 -0.046471395
000340 c4 31 2c bd c1 68 a6 3c d9 47 26 be 32 fb d3 bd
       -0.042039648 0.020313622 -0.16238345 -0.10350646
000350 ae 81 31 3d a5 2b fb 3d a0 a5 9f bd 13 36 01 3d
       0.043336563 0.12264184 -0.07795262 0.03154571
000360 44 67 03 be 7c f8 55 be c3 2f e6 3d f4 ca e6 bd
       -0.12832361 -0.2089557 0.112395786 -0.11269179
000370 eb eb 10 3d ae dd c7 ba a4 3b 52 be 70 fa 4f bd
       0.03538124 -0.0015248561 -0.20530564 -0.050775945
000380 26 6a 8b 3d b8 46 58 3d 34 71 d0 ba c4 e3 6d bd
       0.068073556 0.052801818 -0.0015902878 -0.058078542
000390 e7 69 eb 3c d4 f3 82 3d a3 68 90 bc aa 3f 2c be
       0.028737022 0.06394163 -0.01762802 -0.16821161
0003a0 71 d3 e1 bd 7e 3a 95 3d 51 35 a7 bd 5d fd af bd
       -0.110266574 0.07286547 -0.08164466 -0.08593247
0003b0 1b a1 0e 3e bd 6e 7e bb af c0 bb 3d 49 6f 7a bd
       0.13928644 -0.003882333 0.09167611 -0.061141286
0003c0 0b 51 75 3c 7f d9 94 3d d6 2c 2a bd 43 26 0d bd
       0.014972935 0.072680466 -0.041546665 -0.034460317
0003d0 b2 69 99 3d 49 d6 16 bd 48 a3 ce bd f8 0a 00 3e
       0.07490863 -0.036825452 -0.10089737 0.12504184
0003e0 4c c5 d7 bd 68 57 37 3d 04 2a 18 bb e3 b2 73 bd
       -0.10535678 0.04476109 -0.0023218403 -0.05949677
0003f0 05 e5 e6 bd ce 12 ef 3d e0 c9 a5 bd 54 1e 3c 3e
       -0.11274151 0.116735086 -0.08095145 0.18370944

model_old.model.0.bias f4 [128]
000000 16 ec 87 3e bd 6e ae bd 61 5d 73 3c 88 5e ac bd
       0.26547307 -0.085172154 0.014853806 -0.08416468
000010 29 53 42 3e 6a b4 4c 3e 62 3e 80 3e 27 57 08 3e
       0.18977036 0.19990698 0.25047594 0.13314496
000020 b7 85 9b 3e 5d 88 75 3e 1e e5 bd bd 1b 2a 89 3e
       0.30375454 0.239778 -0.09272216 0.26789936
000030 db e1 a0 3e ff 8b b9 bd 4f b8 54 3d c3 36 84 3e
       0.31422314 -0.09059905 0.051933583 0.2582303
000040 69 12 3c 3e bd ad 22 3e 8a 9b 20 bd 27 74 78 bd
       0.18366398 0.15886588 -0.039210834 -0.060657647
000050 9f 54 70 bd 1c 66 19 3e b9 73 88 3e ab 84 9d bd
       -0.05867445 0.14980358 0.2665079 -0.0769132
000060 84 c4 91 bd 94 12 6c bc 15 aa 42 3e 47 2d 83 bd
       -0.071175605 -0.014408726 0.19010194 -0.0640512
000070 ee c2 e1 bc 72 a8 1d be e2 80 2b 3e b2 5b 3a 3e
       -0.02755877 -0.15396288 0.16748384 0.18199041
000080 10 ba d8 3d d2 23 86 3e 90 db 81 3e 1f 8f 83 3e
       0.105823636 0.26199204 0.25362825 0.2569513
000090 9a 2f c5 3d fc b8 e8 bd b0 9f bb 39 41 ce 8d 3e
       0.0962822 -0.11363408 0.00035786396 0.27696422
0000a0 0c 19 2a 3e 60 21 aa bd 73 65 9a 3e a7 12 3f 3e
       0.16611117 -0.08307147 0.30155525 0.18659459
0000b0 52 0e 56 3e 3c 4e 9a 3e 9f 58 5e 3e ef fa 0b 3e
       0.209039 0.30137813 0.21713494 0.13669942
0000c0 5f 68 99 3e 36 de 8e 3e f6 23 d5 bd 93 1e 91 bc
       0.2996244 0.27903908 -0.1040725 -0.017714774
0000d0 4c 72 97 bd 30 17 8d 3e e0 38 73 3e 3a df c6 3e
       -0.07394847 0.27556753 0.23752165 0.38842183
0000e0 62 46 63 bd 0d 3f 8c 3e 8e 7f 6b 3e 66 7f e1 ba
       -0.055487044 0.27391854 0.22997877 -0.0017204105
0000f0 65 c3 d0 3e 99 66 38 bd 24 fa 6c 3e 63 92 18 bc
       0.40774074 -0.04501972 0.23142296 -0.009312245
000100 9f c1 50 bc e0 5b 1f 3e 0b a4 21 3e f9 fc 99 bd
       -0.012741475 0.15562391 0.15785234 -0.07518954
000110 e0 dc 32 bc ee 69 72 3d 9b 8e 66 3d 55 17 84 3e
       -0.0109169185 0.059183054 0.056288343 0.2579905
000120 ba 87 9c 3e a8 87 2a 3d af fb 90 3e 92 19 9a 3e
       0.305723 0.041633278 0.2831702 0.30097634
000130 57 62 bb 3d a1 ce 36 bd b5 ad 9f 3e 14 5b 8f 3e
       0.09149616 -0.04463065 0.31187215 0.27999175
000140 6c e6 27 3e 5d ba 42 3e be 14 cd bd 0e c7 99 bd
       0.16396493 0.19016404 -0.10013722 -0.0750867
000150 99 36 d4 bd 2f d9 24 3e 44 3b 8f 3e 12 a8 18 3e
       -0.10361976 0.16098474 0.27974904 0.14907864
000160 45 68 0d bc 9c ab 07 3e d7 b2 88 3d 84 d6 8f 3e
       -0.008630817 0.13249058 0.06674736 0.2809335
000170 fb 8a 09 3e 8c a7 58 3e ad ec 96 3e 27 4d 7d 3e
       0.13431923 0.21157664 0.29477444 0.24736463
000180 d1 6a 55 3e 13 3b ab 3e 82 18 e3 3d d1 cf f5 bd
       0.20841528 0.33443508 0.11088659 -0.120025285
000190 ce 3d 85 3e 93 37 76 3e 13 30 7b 3e 83 66 91 bd
       0.26023716 0.24044637 0.24530058 -0.07099631
0001a0 3e 35 b1 bd 44 49 a1 3e 60 e0 fd bd 84 f0 14 3e
       -0.08652733 0.3150121 -0.12396312 0.14544874
0001b0 f3 ce 7d 3e 29 9e 58 3e 5b 50 8b bd 86 72 00 3e
       0.24785976 0.21154083 -0.06802436 0.12543687
0001c0 42 68 76 3e 28 fb e4 bc cf 6a 1b bc 3c 29 3b 3e
       0.24063209 -0.027951792 -0.009485914 0.18277448
0001d0 47 3f ee bc 88 64 97 3d e3 12 3a 3e f8 66 80 3e
       -0.029082907 0.07392222 0.18171267 0.2507856
0001e0 72 3a c8 bc 3c d6 4e 3d 4f c0 91 3e d2 63 25 3e
       -0.024441931 0.05049728 0.28467032 0.1615136
0001f0 68 37 92 3e 0c cb 87 3e c9 7e 59 3e 32 90 5d 3e
       0.28557897 0.265221 0.21239771 0.21637037
