project/paper_notebooks/saved_variables/paper_notebooks/7/7-20epoch_500loop/7-looping-iteration-22/final_policy_agent1.pth (torch, 543093 bytes, 16 tensors)

model.model.0.weight f4 [32, 1, 4, 4]
-0.42918444 -0.17354837 0.21699321 0.06363552 -0.020049043 0.32573822 -0.20207553 -0.41402364
0.09219076 0.21830067 -0.014758124 -0.06215049 0.09733075 0.30541894 -0.086742066 0.16068156
0.04055116 0.17151086 -0.1925707 -0.11876263 0.18803373 0.18709058 0.15437274 -0.10723156
-0.22607218 0.27522612 -0.28211066 -0.16991967 0.058594286 -0.18556577 0.074642405 -0.25359413
0.17981958 -0.12444296 -0.15438217 0.19816664 -0.22946982 0.10381191 -0.15938735 -0.50308925
-0.28093493 -0.0024525125 0.20525597 0.045919534 -0.06343554 0.22954357 0.06710258 0.08725622
0.02328203 -0.24683659 -0.028771633 -0.03051942 -0.08630353 0.15356125 0.02373483 0.24561462
0.16356786 -0.22701867 0.25625175 0.19569032 -0.17448425 0.12812437 -0.24351026 0.49483353
-0.12984867 0.020563733 0.08346364 -0.17882285 0.160128 0.08764682 0.04688858 0.38904238
0.25931975 0.0996982 -0.27267525 -0.08513555 -0.12424482 -0.12334599 -0.17097159 -0.14749636
0.020368509 -0.021841688 -0.35849243 -0.16284299 0.014373353 0.019673582 -0.0023873127 0.005804793
0.32950616 0.14060266 -0.01989714 0.17032705 0.17734443 -0.30714893 0.20849966 0.4465709
0.035174333 0.061235026 -0.1476259 0.08828692 -0.00324546 0.044032924 0.27574307 -0.0062458324
0.27662015 0.19678654 0.49386108 -0.68011767 -0.07874086 0.09684413 0.37890857 -0.23995823
-0.044436403 -0.06724327 0.07260008 -0.16650729 -0.07946112 -0.14666523 -0.15217413 0.41753942
0.015826551 0.14840484 -0.19225092 0.78340775 0.30318463 0.042591654 -0.06772868 -0.39099646
-0.054380104 0.055229712 0.005391454 0.18413986 -0.47338504 0.068523236 0.35719594 -0.542212
-0.2909605 -0.25808862 0.38189772 -0.7091322 0.17502019 -0.044098932 0.20167077 -0.18744595
0.14218046 0.005101847 0.2682199 -0.24022138 -0.2820441 -0.22757915 0.07724765 0.17211977
0.09211579 -0.27528387 0.30431324 -0.28159747 0.22660005 -0.17666134 0.116651215 0.30690685
-0.013624928 0.2530974 -0.1256397 0.24703363 -0.02750854 -0.1624295 0.06368001 -0.15645298
0.0057766526 0.00741845 -0.07169529 -0.03810133 0.1079153 -0.08263516 0.18550836 0.18276371
-0.041522864 -0.15699644 0.24634498 -0.14154395 -0.22262064 0.032978095 0.27786824 -0.49613497
0.01348972 0.040237118 0.16651925 -0.35220402 0.042375185 -0.26841858 -0.30756104 0.2113213
0.11109647 -0.43528745 -0.0025657578 0.05835158 -0.32465363 -0.181549 -0.25178868 0.17148107
-0.2277642 -0.16296703 0.18162943 0.049742684 -0.24552973 0.030430192 -0.023286562 -0.45490727
-0.14240444 -0.039297532 -0.35358843 -0.19317946 0.08063893 0.13975467 -0.22746003 0.19649015
-0.13070694 -0.24988744 0.1754605 -0.30603066 0.121533744 -0.06283309 -0.22372589 -0.005302935
0.15677027 0.014956392 0.1081938 0.035756268 -0.030600581 0.15942433 0.065178655 -0.15878089
-0.35358614 0.097649485 -0.15337987 -0.029418014 0.23164366 0.039707854 0.31624776 -0.16006348
0.04210501 0.044268914 0.10560107 -0.025162218 -0.19218731 0.034207802 -0.21597326 0.26478252
-0.24739374 0.11037913 0.017806644 -0.25615257 -0.06597056 0.21665592 -0.089175574 0.2531085
00000000: 10be dbbe aab6 31be 7833 5e3e 5753 823d
00000010: e43d a4bc 29c7 a63e e3ec 4ebe e8fa d3be
00000020: 82ce bc3d 368a 5f3e 0fcc 71bc 8391 7ebd
00000030: 5855 c73d df5f 9c3e d3a5 b1bd b589 243e
00000040: f918 263d 8ba0 2f3e 4131 45be d239 f3bd
00000050: ea8b 403e ac94 3f3e e313 1e3e 389c dbbd
00000060: 777f 67be 70ea 8c3e cf70 90be 6cff 2dbe
00000070: 9000 703d f404 3ebe 1ede 983d 17d7 81be
00000080: a022 383e f3db febd 5c16 1ebe 32ec 4a3e
00000090: 23fa 6abe 579b d43d 7036 23be 75ca 00bf
000000a0: b4d6 8fbe 55ba 20bb 9f2e 523e 1f16 3c3d
000000b0: 7eea 81bd 780d 6b3e 146d 893d 64b3 b23d
000000c0: f5b9 be3c bbc2 7cbe 7db2 ebbc dd03 fabc
000000d0: e8bf b0bd 293f 1d3e 8c6f c23c 6682 7b3e
000000e0: 557e 273e 9577 68be 6e33 833e 0b63 483e
000000f0: 00ac 32be 0933 033e c15a 79be d25a fd3e
00000100: 0df7 04be 4675 a83c fcee aa3d 561d 37be
00000110: 98f8 233e 2d80 b33d 3d0e 403d 9030 c73e
00000120: 8fc5 843e 922e cc3d 179c 8bbe 8c5b aebd
00000130: 1174 febd d39c fcbd 2d13 2fbe 4909 17be
00000140: dcdb a63c 57ed b2bc 528c b7be 50c0 26be
00000150: 367e 6b3c 7e2a a13c 7674 1cbb 2236 be3b
00000160: 08b5 a83e 25fa 0f3e 54ff a2bc 376a 2e3e
00000170: c799 353e a042 9dbe ef80 553e f1a4 e43e
00000180: f612 103d 94d1 7a3d 3e2b 17be c6cf b43d
00000190: c9b1 54bb de5b 343d 322e 8d3e d7a9 ccbb
000001a0: 28a1 8d3e 6982 493e 5cdb fc3e 311c 2ebf
000001b0: e342 a1bd 3756 c63d 4e00 c23e 9cb7 75be
000001c0: f202 36bd d7b6 89bd 5aaf 943d e380 2abe
000001d0: 83bc a2bd 692f 16be 89d3 1bbe bac7 d53e
000001e0: afa6 813c 70f7 173e 6ddd 44be 698d 483f
000001f0: 043b 9b3e 9674 2e3d 56b5 8abd b030 c8be
00000200: acbd 5ebd 8d38 623d cbaa b03b 298f 3c3e
00000210: 865f f2be e955 8c3d 63e2 b63e 68ce 0abf
00000220: c6f8 94be 3124 84be 1988 c33e b089 35bf
00000230: 7e38 333e 15a1 34bd c882 4e3e d5f1 3fbe
00000240: c197 113e 652d a73b 1e54 893e 98fc 75be
00000250: 1668 90be 820a 69be 0434 9e3d 2a40 303e
00000260: 34a7 bc3d 02f2 8cbe f2ce 9b3e 8b2d 90be
00000270: d809 683e b6e6 34be d5e6 ee3d e522 9d3e
00000280: 173b 5fbc fb95 813e b2a7 00be 62f6 7c3e
00000290: 9759 e1bc eb53 26be aa6a 823d 3635 20be
000002a0: 134a bd3b 7816 f33b fbd4 92bd 2410 1cbd
000002b0: b202 dd3d 9f3c a9bd e7f5 3d3e 6926 3b3e
000002c0: e113 2abd adc3 20be dc41 7c3e e6f0 10be
000002d0: aaf6 63be 0a14 073d bf44 8e3e 6705 febe
000002e0: fd03 5d3c adcf 243d 0684 2a3e 1654 b4be
000002f0: 9a91 2d3d 296e 89be a478 9dbe 9c64 583e
00000300: 8c86 e33d ffdd debe 4626 28bb 1102 6f3d
00000310: 0039 a6be fbe7 39be 72ea 80be bc98 2f3e
00000320: 053b 69be d4e0 26be 11fd 393e fcbe 4b3d
00000330: 256c 7bbe bd48 f93c 76c3 bebc 9be9 e8be
00000340: 78d2 11be 73f6 20bd 8b09 b5be d6d0 45be
00000350: 0626 a53d d91b 0f3e 48eb 68be b734 493e
00000360: 0ad8 05be 7ee2 7fbe ebab 333e 0db0 9cbe
00000370: afe6 f83d a3ae 80bd 6618 65be 3ec4 adbb
00000380: 6388 203e a80b 753c b694 dd3d 2a75 123d
00000390: 12ae fabc 2240 233e 637c 853d 7597 22be
000003a0: 3e09 b5be 74fc c73d 9d0f 1dbe 0cfe f0bc
000003b0: ff33 6d3e b4a4 223d 3aeb a13e aee7 23be
000003c0: 4e76 2c3d 5253 353d 6045 d83d ff20 cebc
000003d0: c0cc 44be 7b1d 0c3d 1828 5dbe 9391 873e
000003e0: c954 7dbe 740e e23d 3ddf 913c 6e26 83be
000003f0: 931b 87bd 0ddb 5d3e afa1 b6bd 7097 813e

model.model.0.bias f4 [32]
-0.037865866 -0.09713856 -0.25396964 -0.07086676 -0.10862528 -0.28415802 -0.04395041 -0.012492529
-0.03523551 -0.033205763 -0.08296023 -0.11774487 -0.009663314 -0.06915975 -0.07409195 -0.03599134
0.1948888 0.05314744 0.08407663 -0.12824228 0.01524284 -0.017816298 -0.030361587 0.31981668
-0.058562882 -0.010543292 -0.041043244 0.17431512 -0.026915565 -0.15008195 -0.040951435 -0.1742138
00000000: 3d19 1bbd 95f0 c6bd 4f08 82be 9822 91bd
00000010: ee76 debd 297d 91be 5805 34bd 77ad 4cbc
00000020: 1c53 10bd c402 08bd 0ee7 a9bd 3924 f1bd
00000030: e052 1ebc a1a3 8dbd 85bd 97bd a86b 13bd
00000040: ee90 473e 21b1 593d 5e30 ac3d f251 03be
00000050: 1bbd 793c 7cf3 91bc ddb8 f8bc 03bf a33e
00000060: a2df 6fbd c6bd 2cbc f61c 28bd aa7f 323e
00000070: 087e dcbc 15af 19be b1bc 27bd 1a65 32be

model.model.4.weight f4 [128, 384]
-0.17453042 -0.09974643 0.014888394 -0.09123121 -0.06524267 -0.13192855 0.019807018 0.02968376
-0.11641655 -0.22521617 0.07406168 0.18317902 0.042855598 0.015486261 -0.06445691 0.031241503
0.057858977 -0.03068768 -0.12897603 0.012305324 0.08653632 -0.04455492 -0.111213915 0.047219526
0.15920086 0.13940623 -0.06761343 0.100329235 0.16704208 0.07968627 -0.031010818 0.020797031
0.094201244 0.030283377 -0.017769195 -0.019093279 0.00096439227 0.09105908 0.011375726 0.02160813
-0.121775486 -0.034475837 0.12038645 0.106095545 0.03574986 -0.0913163 0.15637316 -0.07416804
0.028933411 -0.049585473 0.013861943 -0.08174306 -0.0072041214 -0.04455638 -0.0889141 0.12049592
-0.087163985 -0.040795796 -0.0037029698 -0.17599584 -0.07569433 0.0017714485 0.05196166 -0.16969854
-0.11474929 0.09772932 0.09680934 0.06716829 -0.018944105 0.05843754 0.027493559 -0.029162593
-0.11878291 -0.117873706 -0.24314587 -0.07909098 -0.09346874 -0.15234122 -0.05831317 0.06046612
-0.12748393 -0.06373529 0.09637571 0.1846814 -0.11837858 0.023572749 0.0050213845 0.10734076
-0.32595164 -0.050979156 0.04422508 0.017102942 -0.12686926 -0.014388446 0.16827396 -0.12152691
-0.15383154 -0.014880489 -0.15047382 -0.114245765 -0.15539984 -0.14767763 -0.10547357 0.029298795
-0.04079484 -0.16294584 -0.0112837 0.32600713 0.04591972 -0.22343887 -0.09605169 -0.17410783
0.03899066 -0.094055235 -0.058540586 0.053729113 -0.021294918 -0.24974592 -0.14411741 -0.08807307
-0.3226384 0.06348434 -0.19570114 0.09388154 -0.015768807 -0.004287515 -0.016401825 -0.0606942
0.10467582 -0.07352198 -0.042586904 0.1975284 -0.09444619 -0.110026106 -0.033484645 0.014749672
-0.010424528 -0.1193602 -0.12281474 -0.11560403 -0.0481683 -0.21911077 -0.03373089 0.057272647
0.14305468 -0.20015544 0.14392677 0.14580703 0.1286924 -0.18970121 0.104173206 0.03612871
-0.035495095 -0.16436268 0.098327406 0.033936184 -0.06477219 0.10493886 -0.009585229 -0.05588608
-0.11931561 0.04246873 0.009104155 0.030727617 -0.017828109 0.068935655 -0.021124132 0.024578016
0.029467165 -0.11590938 -0.22850585 -0.11515364 0.11808446 0.04815924 -0.04966075 0.065572806
0.11698225 -0.036269803 0.0056446856 -0.0405506 0.0122462 -0.08212315 -0.067000635 0.075995095
-0.040101703 -0.05704042 0.046437014 -0.0107163405 0.019806538 -0.0064370306 -0.08909132 -0.19703488
0.13539444 -0.065912925 0.04199833 0.021877242 -0.06830216 -0.19078636 0.05286098 0.07474261
-0.09557005 -0.14837135 -0.005944209 -0.12450079 -0.13133682 -0.2023206 -0.060308658 -0.059876908
-0.1214156 -0.25513142 -0.066793665 0.123768605 -0.22939508 -0.19220467 -0.12472838 -0.14213157
-0.15382646 0.2200448 0.078078076 0.15880798 0.042287663 -0.023321118 -0.011411818 0.4581549
-0.082433835 0.0015646439 0.086622134 0.108333275 -0.08534771 -0.10537099 -0.0033487703 0.05742944
0.02191228 -0.043713424 0.023673814 0.27168104 -0.13627847 0.022522474 -0.18085937 -0.13312143
-0.0019812274 -0.02126534 -0.12985857 -0.1880217 -0.00086573703 -0.013170477 -0.029202437 -0.11016334
-0.1583496 -0.041883864 -0.021221131 -0.17667995 0.020270653 -0.10470708 -0.04281865 0.13610792
00000000: 1ab8 32be db47 ccbd 73ee 733c 6ed7 babd
00000010: f39d 85bd 4718 07be 5442 a23c 5b2b f33c
00000020: cd6b eebd 119f 66be a6ad 973d 4893 3b3e
00000030: 5a89 2f3d 16ba 7d3c fc01 84bd 2eee ff3c
00000040: 89fd 6c3d bb64 fbbc 4b12 04be 459c 493c
00000050: f439 b13d 387f 36bd 1fc4 e3bd 4369 413d
00000060: 8d05 233e 82c0 0e3e e978 8abd 6a79 cd3d
00000070: 140d 2b3e 8e32 a33d 660a febc 895e aa3c
00000080: 95ec c03d d814 f83c b490 91bc 8269 9cbc
00000090: 45cf 7c3a 2f7d ba3d 4161 3a3c 8803 b13c
000000a0: 6d65 f9bd 8936 0dbd 2c8d f63d 9f48 d93d
000000b0: 726e 123d 0a04 bbbd 4920 203e 6ae5 97bd
000000c0: c305 ed3c 231a 4bbd 341d 633c e868 a7bd
000000d0: 8d10 ecbb c080 36bd 9818 b6bd 91c6 f63d
000000e0: 0883 b2bd 7e19 27bd 86ad 72bb 4138 34be
000000f0: a105 9bbd f32f e83a c0d5 543d 74c5 2dbe
00000100: ad01 ebbd 4f26 c83d fa43 c63d 878f 893d
00000110: ab30 9bbc 345c 6f3d 2c3a e13c 64e6 eebc
00000120: 7444 f3bd c567 f1bd 3bfb 78be 74fa a1bd
00000130: 8a6c bfbd 56ff 1bbe cad9 6ebd 52ab 773d
00000140: 268b 02be a687 82bd a160 c53d 1f1d 3d3e
00000150: 7870 f2bd a31b c13c 6d8a a43b 79d5 db3d
00000160: 22e3 a6be 85cf 50bd 5c25 353d 781b 8c3c
00000170: 04ea 01be 84bd 6bbc 0250 2c3e 1ae3 f8bd
00000180: 0486 1dbe 4bcd 73bc cf15 1abe aff9 e9bd
00000190: 2321 1fbe ce38 17be 8702 d8bd 0704 f03c
000001a0: 7d18 27bd 46db 26be 45df 38bc 68ea a63e
000001b0: 5116 3c3d 29cd 64be c0b6 c4bd 5349 32be
000001c0: acb4 1f3d 08a0 c0bd 41c8 6fbd 0f13 5c3d
000001d0: ae72 aebc 65bd 7fbe 8493 13be a75f b4bd
000001e0: dc30 a5be 1404 823d e165 48be f744 c03d
000001f0: 962d 81bc 487e 8cbb 1f5d 86bc 7b9a 78bd
00000200: 4760 d63d b192 96bd 9b6f 2ebd e344 4a3e
00000210: 016d c1bd 5e55 e1bd 3227 09bd 9ca8 713c
00000220: a4cb 2abc 1f73 f4bd 4b86 fbbd cec1 ecbd
00000230: 204c 45bd 935e 60be 6729 0abd b996 6a3d
00000240: ed7c 123e 8cf5 4cbe 8a61 133e 704e 153e
00000250: f1c7 033e 0941 42be c358 d53d b3fb 133d
00000260: 4e63 11bd b14e 28be e15f c93d ab00 0b3d
00000270: 48a7 84bd 2fea d63d 5d0b 1dbc cde8 64bd
00000280: be5b f4bd b1f3 2d3d 9829 153c 7cb8 fb3c
00000290: 410c 92bc 232e 8d3d 840c adbc d657 c93c
000002a0: 2065 f13c e661 edbd 70fd 69be acd5 ebbd
000002b0: 44d6 f13d a042 453d 1269 4bbd 094b 863d
000002c0: 6494 ef3d a58f 14bd 0ef7 b83b 6318 26bd
000002d0: 49a4 483c 2f30 a8bd a137 89bd 51a3 9b3d
000002e0: af41 24bd 37a3 69bd bd34 3e3d 9793 2fbc
000002f0: 5241 a23c baed d2bb 8375 b6bd 83c3 49be
00000300: d7a4 0a3e 5bfd 86bd 7106 2c3d e737 b33c
00000310: 01e2 8bbd 805d 43be c184 583d a712 993d
00000320: 3bba c3bd a9ee 17be a4c7 c2bb 45fa febd
00000330: 297d 06be 222d 4fbe 3606 77bd 7d41 75bd
00000340: bea8 f8bd 96a0 82be 1ecb 88bd 657a fd3d
00000350: 8be6 6abe 4dd1 44be 9871 ffbd f08a 11be
00000360: af84 1dbe 6d53 613e 66e7 9f3d 8f9e 223e
00000370: d435 2d3d ee0b bfbc a2f8 3abc 4793 ea3e
00000380: 12d3 a8bd bd14 cd3a f266 b13d d6dd dd3d
00000390: c8ca aebd bfcc d7bd 0b77 5bbb 223b 6b3d
000003a0: 6281 b33c d90c 33bd 96ef c13c c719 8b3e
000003b0: 958c 0bbe 0d81 b83c 3333 39be fc50 08be
000003c0: 7bd7 01bb a634 aebc a5f9 04be c388 40be
000003d0: a1f2 62ba fcc8 57bc f339 efbc 519d e1bd
000003e0: 6626 22be 6a8e 2bbd f0d7 adbc 97eb 34be
000003f0: a40e a63c aa70 d6bd 9c62 2fbd e05f 0b3e

model.model.4.bias f4 [128]
-0.045887742 -0.007018281 -0.013704408 -0.029760804 0.040135212 -0.08830789 0.051163528 -0.12141206
0.03693606 0.03432826 -0.03844002 0.07177988 0.0037255667 -0.05829688 -0.065982305 -0.02742318
-0.019567803 -0.04748007 0.005235072 -0.050150316 0.1787937 0.060736135 -0.08284574 -0.022043416
0.014824667 -0.06600106 -0.03715394 -0.055631958 0.005374709 -0.083994634 0.013400128 -0.05255017
-0.06490737 0.045480397 -0.030623036 -0.00925183 -0.028145345 -0.10621189 0.024446985 0.0016396068
-0.058577977 0.014811828 -0.043255802 0.02972589 0.04106601 0.023828633 -0.07323438 -0.023687666
0.033211216 0.01562707 0.05202555 0.023070883 0.01976993 -0.015404787 -0.040929362 0.017932622
-0.04997573 -0.12127652 0.08686349 0.039900765 0.086086065 -0.036099017 -0.020350864 -0.14418432
0.037917234 0.06214747 0.01864962 0.049970876 0.016891744 0.04232793 0.085823566 0.047865026
-0.0047950703 -0.027631229 0.041378126 0.084386535 -0.027652586 -0.0061174757 0.07915065 -0.06379078
0.07996526 0.00029136837 -0.015952263 0.05507758 -0.04067119 0.011413 -0.08116615 0.049015556
-0.07134728 0.055443604 0.112258926 -0.013371083 0.041277405 -0.001876919 0.060772058 -0.06657776
-0.01928511 -0.0259145 0.065750554 -0.06224513 0.027137375 0.009641165 0.04225814 0.026600743
-0.04829836 -0.024097618 0.028637508 -0.057652697 0.037465017 -0.0454403 0.03801088 -0.052887853
-0.08188557 -0.075372696 0.009866665 0.048955537 0.03517913 -0.027614916 0.11597186 0.04859079
-0.016003959 0.08650397 -0.08488478 -0.07979734 -0.135436 -0.050329883 0.056130335 0.02102709
00000000: c9f4 3bbd 9cf9 e5bb 7488 60bc eecc f3bc
00000010: d264 243d c4da b4bd d990 513d e3a6 f8bd
00000020: 444a 173d ca9b 0c3d 4873 1dbd 5401 933d
00000030: a328 743b b6c8 6ebd bb21 87bd 94a6 e0bc
00000040: a84c a0bc 767a 42bd f88a ab3b 6b6a 4dbd
00000050: b215 373e 74c6 783d 07ab a9bd 6594 b4bc
00000060: 29e3 723c 902b 87bd bb2e 18bd 56de 63bd
00000070: 541e b03b 6105 acbd 368c 5b3c d93e 57bd
00000080: 28ee 84bd a749 3a3d 29dd fabc fd94 17bc
00000090: 1191 e6bc 9f85 d9bd 0b45 c83c 13e8 d63a
000000a0: 76ef 6fbd 4fad 723c ff2c 31bd b683 f33c
000000b0: d534 283d 4434 c33c e8fb 95bd a30c c2bc
000000c0: 7c08 083d 5704 803c be18 553d 26ff bc3c
000000d0: 8cf4 a13c 5c64 7cbc 8ca5 27bd 6fe7 923c
000000e0: 5ab3 4cbd d35f f8bd 7ce5 b13d fc6e 233d
000000f0: e44d b03d 90dc 13bd dbb6 a6bc 0ea5 13be
00000100: 1a4f 1b3d 588e 7e3d 16c7 983c 43ae 4c3d
00000110: 8e60 8a3c 0d60 2d3d 44c4 af3d 1e0e 443d
00000120: f71f 9dbb e35a e2bc 1c7c 293d d9d2 ac3d
00000130: ad87 e2bc 1b75 c8bb bc19 a23d bea4 82bd
00000140: d4c4 a33d cdc2 9839 52ae 82bc 0799 613d
00000150: d596 26bd 97fd 3a3c 703a a6bd 89c4 483d
00000160: 861e 92bd d518 633d 02e8 e53d 6312 5bbc
00000170: 7f12 293d f302 f6ba 1fec 783d ec59 88bd
00000180: cffb 9dbc a54a d4bc 3aa8 863d c0f4 7ebd
00000190: 334f de3c faf5 1d3c df16 2d3d cde9 d93c
000001a0: 80d4 45bd 5e68 c5bc 3599 ea3c 3c25 6cbd
000001b0: eb74 193d 9c1f 3abd 4cb1 1b3d efa0 58bd
000001c0: 9fb3 a7bd 005d 9abd cba7 213c 9a85 483d
000001d0: fe17 103d ad38 e2bc a882 ed3d 2307 473d
000001e0: bc1a 83bc fe28 b13d 12d8 adbd ca6c a3bd
000001f0: bcaf 0abe b526 4ebd ece8 653d 0141 ac3c

model.model.6.weight f4 [128, 128]
-0.07099559 0.025162742 -0.09711194 -0.038370408 0.07206283 -0.08605139 0.06660475 -0.08883335
0.03418194 0.03434946 -0.031399295 -0.013828614 0.004466394 0.02594547 0.08388476 0.07446804
-0.07675579 -0.0098520145 0.033401452 -0.034966223 0.041464187 -0.06607903 -0.043323264 0.07359444
-0.016675495 0.08072118 -0.07302795 0.06635906 -0.046207614 -0.02256785 0.019386407 0.06560864
-0.0131805865 -0.029545369 -0.07324603 0.0469229 0.07764098 -0.048404567 0.068151355 -0.018986385
-0.07111385 -0.049150202 -0.04863303 0.05317664 -0.019334247 -0.03002689 -0.056986533 -0.07952012
-0.08340451 -0.096981816 -0.0026637204 0.008459412 0.07484975 -0.06571253 -0.057055473 -0.09142812
0.0027792677 -0.08013506 -0.023831882 -0.050819542 -0.045474865 -0.053455688 0.082970284 0.005098947
-0.054511964 0.027219541 -0.0963168 -0.04418329 0.04933072 0.013624629 -0.042402126 0.038300052
-0.08697109 0.032619853 -0.004128267 0.00037656262 -0.011790307 -0.06590821 -0.04963828 0.032407988
-0.0014140937 -0.06233485 -0.061722036 0.07346829 0.013817683 0.033014175 0.057244956 0.048839714
0.07093699 -0.082793556 0.041346796 0.08407783 0.008675424 -0.050028116 -0.0026700434 0.03497723
0.038110472 -0.032105982 0.049655635 -0.041260302 -0.074889064 -0.03932792 0.051267486 -0.07806856
0.08436004 -0.031229455 0.06625684 -0.003215927 -0.092102766 -0.07788865 -0.011217532 0.017691206
-0.010124927 -0.026147453 -0.021177333 -0.07219849 -0.021999065 0.087859266 -8.857224e-05 -0.0575843
-0.0390902 0.07375064 0.029098645 0.00991767 -0.04007575 0.04437492 -0.020627365 0.053218447
-0.061882626 -0.06980166 -0.01557053 -0.05847606 0.018473811 0.029042833 -0.017961605 0.024697728
-0.08630766 0.019503329 -0.111902416 0.019723363 0.037931222 -0.062622495 0.05882465 0.0154795945
0.013063893 -0.02001696 0.00089361984 -0.08495749 -0.005510755 0.044205267 -0.053442802 -0.03562842
0.009515241 -0.07844152 -0.09394603 -0.037587065 -0.06426134 -0.014193907 -0.009221813 -0.023290873
-0.08086408 -0.011493985 0.019317716 -0.062887974 0.05153005 -0.0056463853 -0.020164564 0.07850238
0.014561556 -0.0035683769 0.03408461 0.034881182 0.02188811 0.016030047 -0.083229005 0.018592626
0.04882537 0.006895609 -0.029800309 -0.05330312 -0.075994894 -0.011271924 -0.018891618 0.014167549
-0.008092508 -0.08703976 -0.08036039 -0.035418272 0.046617128 0.009001432 -0.014036693 0.002832383
0.058078907 -0.010346783 -0.096387215 -0.05823449 -0.032171153 0.052115943 -0.03878463 -0.013258737
-0.111566424 -0.046517912 0.04614634 -0.07786449 0.017334605 -0.07585203 -0.05381354 -0.0007718876
0.0003152656 -0.08572182 -0.07012168 -0.052238993 0.031676807 0.014018821 -0.008179791 -0.09050479
0.03841015 0.024592396 -0.046791524 0.017918129 0.048708245 -0.10540111 -0.061479595 -0.0629976
-0.041145332 -0.050628975 0.00040977553 -0.088335745 -0.0879978 0.029528633 -0.058330826 -0.038200982
0.05648505 0.035055205 -0.11712908 -0.0801727 -0.06075052 0.027302682 -0.13877068 -0.027535219
-0.029460503 0.042237572 -0.0055396846 -0.050158955 0.0145098725 -0.08513015 -0.0940804 -0.07792103
0.021132126 0.007688385 -0.078572996 0.065700166 -0.025871925 0.0064694956 -0.043801565 -0.01171276
00000000: 2366 91bd 1822 ce3c a0e2 c6bd 4a2a 1dbd
00000010: ad95 933d b63b b0bd 1268 883d 42ee b5bd
00000020: 5d02 0c3d 05b2 0c3d 8c9c 00bd 6991 62bc
00000030: d45a 923b 988b d43c c6cb ab3d b382 983d
00000040: 2432 9dbd 586a 21bc f6cf 083d be38 0fbd
00000050: 5ad6 293d 7154 87bd bc73 31bd afb8 963d
00000060: 0c9b 88bc 2551 a53d ae8f 95bd 42e7 873d
00000070: 3244 3dbd 36e0 b8bc 3ed0 9e3c d35d 863d
00000080: 63f3 57bc 2109 f2bc 0402 96bd 3a32 403d
00000090: 3c02 9f3d de43 46bd f092 8b3d 5689 9bbc
000000a0: 23a4 91bd b951 49bd 6e33 47bd c0cf 593d
000000b0: db62 9ebc f4fa f5bc b66a 69bd 72db a2bd
000000c0: fccf aabd 679e c6bd d091 2ebb 5899 0a3c
000000d0: d34a 993d 4a94 86bd 00b3 69bd ab3e bbbd
000000e0: 6024 363b da1d a4bd 143b c3bc 2728 50bd
000000f0: da43 3abd 5af4 5abd 53ec a93d 1115 a73b
00000100: f047 5fbd 84fb de3c be41 c5bd 8af9 34bd
00000110: 020f 4a3d d639 5f3c daad 2dbd 84e0 1c3d
00000120: e61d b2bd 659c 053d 6a46 87bb 616d c539
00000130: 222c 41bc e2fa 86bd 8251 4bbd 3dbe 043d
00000140: 1c59 b9ba d452 7fbd 3fd0 7cbd 8b76 963d
00000150: 9063 623c df39 073d b079 6a3d 270c 483d
00000160: 6a47 913d ab8f a9bd 425b 293d ff30 ac3d
00000170: 5e23 0e3c 48ea 4cbd e5fb 2ebb 4944 0f3d
00000180: ba19 1c3d 9081 03bd b563 4b3d 9000 29bd
00000190: 705f 99bd 5016 21bd dbfd 513d 69e2 9fbd
000001a0: f5c4 ac3d ead4 ffbc abb1 873d 4dc2 52bb
000001b0: 60a0 bcbd 1684 9fbd bdc9 37bc 26ed 903c
000001c0: 06e3 25bc 2f33 d6bc 167c adbc cddc 93bd
000001d0: 6237 b4bc 8fef b33d dcbf b9b8 84dd 6bbd
000001e0: 0c1d 20bd 930a 973d 4860 ee3c b97d 223c
000001f0: 7826 24bd 7ac2 353d b8fa a8bc 96fb 593d
00000200: a378 7dbd 2cf4 8ebd 891b 7fbc 9884 6fbd
00000210: 6456 973c 3ceb ed3c 3724 93bc e452 ca3c
00000220: 12c2 b0bd 72c5 9f3c 182d e5bd e492 a13c
00000230: c55d 1b3d 3940 80bd 1ef2 703d 209e 7d3c
00000240: f009 563c 9cfa a3bc d041 6a3a 31fe adbd
00000250: 9093 b4bb 9510 353d d7e6 5abd 1bef 11bd
00000260: d0e5 1b3c f3a5 a0bd c766 c0bd e5f4 19bd
00000270: 739b 83bd 908d 68bc 1617 17bc 80cc bebc
00000280: 119c a5bd 4451 3cbc 3040 9e3c 69cb 80bd
00000290: 2c11 533d 5005 b9bb 2830 a5bc dbc5 a03d
000002a0: 9893 6e3c 6edb 69bb 4e9c 0b3d 92df 0e3d
000002b0: b24e b33c 7251 833c f873 aabd 904f 983c
000002c0: 1cfd 473d 90f4 e13b c71f f4bc 5f54 5abd
000002d0: 36a3 9bbd e0ad 38bc 98c2 9abc 021f 683c
000002e0: 7096 04bc e741 b2bd fd93 a4bd c012 11bd
000002f0: 9af1 3e3d be7a 133c 28fa 65bc 809f 393b
00000300: 26e4 6d3d 8e85 29bc a966 c5bd 4a87 6ebd
00000310: e6c5 03bd 8777 553d a2dc 1ebd 2c3b 59bc
00000320: f07c e4bd 9189 3ebd f203 3d3d 6b77 9fbd
00000330: 4d01 8e3c 4f58 9bbd 966b 5cbd 8058 4aba
00000340: 3c4a a539 ec8e afbd f59b 8fbd 8ef8 55bd
00000350: 8abf 013d 32af 653c 8804 06bc 935a b9bd
00000360: f653 1d3d fe75 c93c 78a8 3fbd 0ac9 923c
00000370: 4c82 473d 8adc d7bd 07d2 7bbd e304 81bd
00000380: 0288 28bd 5460 4fbd 24d7 d639 5fe9 b4bd
00000390: 3138 b4bd 08e6 f13c 4eec 6ebd a278 1cbd
000003a0: de5c 673d 0c96 0f3d 5fe1 efbd 9631 a4bd
000003b0: 8ad5 78bd e0a9 df3c e719 0ebe 8a91 e1bc
000003c0: 2757 f1bc 4e01 2d3d 3e86 b5bb 7a73 4dbd
000003d0: d1ba 6d3c b758 aebd 3aad c0bd 1095 9fbd
000003e0: 481d ad3c d9ee fb3b e1ea a0bd cf8d 863d
000003f0: 5cf1 d3bc 10fe d33b 4569 33bd e0e6 3fbc

model.model.6.bias f4 [128]
-0.10155535 -0.129799 -0.0033746841 0.18267801 0.009811043 -0.024638176 -0.02133896 0.15338118
-0.113214836 -0.009051593 0.16954008 -0.120627284 0.032300804 -0.01815177 0.037372354 0.14240094
0.023304682 0.21230097 0.03900365 0.072249144 0.16663855 -0.093567476 0.061602924 -0.06441538
-0.05011969 -0.1362523 -0.100148074 0.18688644 -0.026351798 0.12376455 -0.03302275 0.16900606
-0.095147535 -0.07876863 -0.009258852 0.1656483 -0.009873773 0.073991835 -0.07613124 0.21119554
-0.036549725 0.08859834 0.16225977 -0.09829379 0.20835558 -0.043840274 -0.011501377 0.03082921
0.2237198 0.07285559 0.13618234 0.013057708 0.07175142 0.10550606 0.009045821 0.13749625
0.026517298 0.06444001 -0.07601816 0.029776653 -0.024891159 0.09856239 0.19452487 0.052784707
0.18266197 0.05531395 -0.07425564 0.06486171 -0.05222009 -0.11784991 0.17232184 0.03672298
0.0107018985 -0.021990584 -0.12664849 -0.04391374 0.034633316 -0.070902534 -0.053348146 -0.030060317
0.22044493 -0.0908422 0.14838539 -0.17479488 0.04790947 0.003175068 -0.070401706 -0.037102953
0.02354996 0.11493079 0.2387946 0.03971824 0.06325103 0.10831511 0.10720586 0.03746959
-0.004066913 -0.16875887 0.18942504 0.056682967 -0.023824433 0.093069814 0.17696504 0.14995365
0.0102844 -0.021835554 0.22952944 0.035621867 -0.035456743 0.009096305 -0.08005911 0.08473631
0.013751557 -0.12966044 0.053840294 0.0014752226 0.20051824 0.1341981 -0.058876585 -0.2046282
0.08363231 0.053424437 0.14996387 -0.04521292 -0.0065660668 0.025850384 0.03394669 0.09415821
00000000: 40fc cfbd 07ea 04be ce29 5dbb f20f 3b3e
00000010: 7fbe 203c 00d6 c9bc 0bcf aebc f50f 1d3e
00000020: 2edd e7bd 224d 14bc ea9b 2d3e 700b f7bd
00000030: d94d 043d 05b3 94bc c113 193d 8dd1 113e
00000040: 76e9 be3c 6d65 593e 4bc2 1f3d 5cf7 933d
00000050: 4ca3 2a3e 4ea0 bfbd 5953 7c3d 36ec 83bd
00000060: 4e4a 4dbd b985 0bbe 6f1a cdbd 295f 3f3e
00000070: badf d7bc 4578 fd3d dd42 07bd ed0f 2d3e
00000080: b6dc c2bd 7351 a1bd 71b2 17bc b59f 293e
00000090: 9bc5 21bc 0889 973d b2ea 9bbd a543 583e
000000a0: 2ab5 15bd 0c73 b53d 6d27 263e 414e c9bd
000000b0: 2a5b 553e dc91 33bd 4670 3cbc 8a8d fc3c
000000c0: ce16 653e 5035 953d 6273 0b3e ffef 553c
000000d0: 69f2 923d 9013 d83d ec34 143c d1cb 0c3e
000000e0: ce3a d93c 20f9 833d 69af 9bbd 2bee f33c
000000f0: 8be8 cbbc 14db c93d 8731 473e c734 583d
00000100: bd0b 3b3e e190 623d 5713 98bd 37d6 843d
00000110: bce4 55bd 4b5b f1bd 2375 303e d66a 163d
00000120: 0457 2f3c 9925 b4bc 24b0 01be e5de 33bd
00000130: aadb 0d3d 5935 91bd 9683 5abd 0e41 f6bc
00000140: 51bc 613e 7a0b babd 57f2 173e 6efd 32be
00000150: b83c 443d cd14 503b c52e 90bd 44f9 17bd
00000160: d9eb c03c d660 eb3d 9286 743e 98af 223d
00000170: c289 813d 50d4 dd3d bf8e db3d b679 193d
00000180: bd43 85bb 20cf 2cbe a3f8 413e 662c 683d
00000190: 752b c3bc 639b be3d 5336 353e 738d 193e
000001a0: e67f 283c 7ae0 b2bc c409 6b3e 3ce8 113d
000001b0: 173b 11bd ab08 153c 08f6 a3bd 3b8a ad3d
000001c0: 364e 613c b5c5 04be a487 5c3d 425c c13a
000001d0: a754 4d3e 3a6b 093e 9328 71bd 0e8a 51be
000001e0: 6b47 ab3d 95d3 5a3d 2190 193e 2f31 39bd
000001f0: 2928 d7bb 2fc4 d33c af0b 0b3d 05d6 c03d

model.model.8.weight f4 [7, 128]
-0.00044095275 -0.06943601 0.042179585 -0.05115498 -0.05544055 -0.03657244 -0.08342812 0.04679004
-0.08130908 0.059246045 0.21870488 -0.03425583 0.00029958322 0.0462133 0.07292563 0.1127471
0.093935765 0.06833565 0.069728024 -0.1675228 0.016032917 -0.03163001 0.10796782 0.07266992
0.06841148 0.085262775 0.0052116406 0.18968466 -0.09551277 0.04341641 0.07417965 0.04282827
0.064358644 0.009084736 0.096734315 0.07067044 -0.039103545 0.10224113 0.019875044 -0.10628015
-0.05740125 0.02511378 0.036101606 -0.035323568 -0.08173885 -0.022194756 -0.0062967837 -0.04467631
0.06910116 -0.0019195183 -0.11605932 0.013357414 0.16790111 -0.09030246 0.09844527 0.103445545
0.055217903 -0.012336868 -0.018454663 -0.085964456 -0.010809083 -0.105676375 0.14544457 0.013915281
-0.058967084 0.030161502 0.03738586 0.002302221 0.09463529 0.0095505 0.09991301 -0.0075834384
-0.0076678204 -0.041509274 -0.024155557 0.067424975 0.049448848 -0.022892615 -0.09981501 -0.034438685
0.080776915 0.072480805 0.027671285 0.0018823093 0.10159204 0.052545138 0.11964031 -0.052564904
0.1470662 0.13599306 0.21507525 0.018577432 0.058278386 0.07378005 -0.023811847 0.021883968
0.022194277 0.08607354 0.023301488 0.0076693217 -0.018742112 -0.21939951 -0.09799355 0.08701325
-0.023267334 0.06968154 0.08656161 -0.0031851456 0.07718624 0.013206658 0.06115511 0.17488794
-0.15066797 -0.109111 -0.015841192 -0.003238753 0.25189888 -0.13683139 -0.014306795 0.09972074
-0.042570047 -0.02767942 0.10048697 0.091572694 -0.00079333724 -0.033999998 -0.15968159 0.058382094
0.020373026 0.0020483448 -0.024986925 0.013922298 0.19683293 0.02426164 -0.18824577 -0.077894256
-0.052011892 0.07836734 0.123225704 -0.078851745 -0.1440201 0.041303374 -0.0125308735 7.318738e-05
0.07490632 0.16298732 -0.106904335 -0.05430034 -0.15023355 0.039242692 0.07673033 -0.011189131
-0.12990344 0.07726362 -0.071577825 0.10253684 -0.08349183 0.05510125 0.03266394 0.05621848
0.020703651 -0.007904777 0.01266217 0.07745982 -0.050586596 0.007023378 0.07098183 0.107130915
-0.012936751 -0.027987538 -0.13620773 0.002099564 -0.024881745 -0.01287149 -0.048312236 -0.023239477
0.004795438 -0.035780817 -0.25210774 0.04047422 -0.021940745 -0.055364057 0.019279065 0.07259595
0.057681475 -0.18479331 -0.017906196 0.001580812 0.077420786 0.09585246 0.11004777 -0.08890266
-0.09735548 0.05911284 0.065501705 -0.08344481 0.022544414 -0.04719921 -0.026604082 0.0051520527
-0.13426918 0.046148263 -0.003858842 0.04308579 0.042507924 -0.0089040175 -0.025564434 -0.075379625
-0.024468867 0.013224812 0.19714156 -0.06029098 0.05072716 0.05268089 0.011020288 0.06414122
0.08650568 0.10861867 0.11663433 -0.18157448 -0.043993674 -0.0015009792 -0.13125816 0.041748952
0.023081636 -0.00586725 0.028539853 -0.05393995 -0.13119371 -0.1200631 -0.27822652 0.022537606
-0.09919701 -0.012092354 0.057796918 0.050153356 -0.008961527 0.038633846 0.03617183 0.13448729
-0.1366164 -0.16114293 -0.12905383 0.038670015 0.15748478 -0.011715885 -0.033951975 0.00676274
-0.09053894 -0.10792684 0.15375367 0.0019711219 -0.010846438 0.085092165 -0.05907484 -0.033970766
00000000: ad2f e7b9 7834 8ebd 80c4 2c3d e287 51bd
00000010: a115 63bd fccc 15bd 5ddc aabd eaa6 3f3d
00000020: 6085 a6bd fbab 723d 2cf4 5f3e d74f 0cbd
00000030: 6111 9d39 284a 3d3d 085a 953d f4e7 e63d
00000040: 6561 c03d 90f3 8b3d 91cd 8e3d 198b 2bbe
00000050: 7757 833c 788e 01bd 3b1e dd3d f8d3 943d
00000060: 511b 8c3d 409e ae3d 69c6 aa3b b23c 423e
00000070: 339c c3bd 68d5 313d 80eb 973d b26c 2f3d
00000080: 77ce 833d 25d8 143c a41c c63d aabb 903d
00000090: 0a2b 20bd cc63 d13d fdd0 a23c 68a9 d9bd
000000a0: 931d 6bbd 6abb cd3c 47df 133d 72af 10bd
000000b0: b366 a7bd c7d1 b5bc 4055 cebb 82fe 36bd
000000c0: e984 8d3d 5998 fbba 82b0 edbd 0ed9 5a3c
000000d0: 45ee 2b3e 7ff0 b8bd ac9d c93d 42db d33d
000000e0: 2b2c 623d 9320 4abc 3c2e 97bc 220e b0bd
000000f0: 9418 31bc db6c d8bd 6cef 143e ebfc 633c
00000100: 7887 71bd 4115 f73c ea21 193d dce0 163b
00000110: 26d0 c13d b379 1c3c 319f cc3d 7e7e f8bb
00000120: 5742 fbbb a105 2abd e0e1 c5bc 1b16 8a3d
00000130: e08a 4a3d 4b89 bbbc d06b ccbd 940f 0dbd
00000140: 5e6e a53d d170 943d e4ae e23c d2b7 f63a
00000150: 7d0f d03d 9239 573d fb05 f53d 4c4e 57bd
00000160: 8698 163e c441 0b3e b03c 5c3e b32f 983c
00000170: 51b5 6e3d ff19 973d 1011 c3bc 0246 b33c
00000180: c6d0 b53c 5347 b03d c3e2 be3c ef4e fb3b
00000190: 0f89 99bc 44aa 60be d8b0 c8bd 0134 b23d
000001a0: 239b bebc 32b5 8e3d 3747 b13d e0bd 50bb
000001b0: d213 9e3d bd60 583c c87d 7a3d d315 333e
000001c0: b448 1abe 9775 dfbd 63c5 81bc 4241 54bb
000001d0: e4f8 803e 871d 0cbe 0c67 6abc 633a cc3d
000001e0: ee5d 2ebd f3bf e2bc 1dcc cd3d 778a bb3d
000001f0: f6f7 4fba 9543 0bbd 9283 23be 1022 6f3d
00000200: 55e5 a63c 863d 063b 61b1 ccbc 5a1a 643c
00000210: 928e 493e 59c0 c63c 80c3 40be 0687 9fbd
00000220: 6c0a 55bd 0e7f a03d c25d fc3d 067d a1bd
00000230: 017a 13be ba2d 293d 4b4e 4dbc 2d7c 9938
00000240: 7c68 993d 26e6 263e a9f0 dabd 096a 5ebd
00000250: d3d6 19be f2bc 203d cb24 9d3d 9e52 37bc
00000260: 6805 05be 643c 9e3d 6597 92bd d6fe d13d
00000270: c4fd aabd d9b1 613d a0ca 053d 5945 663d
00000280: b49a a93c 0a83 01bc fe74 4f3c 41a3 9e3d
00000290: e433 4fbd 5d24 e63b ec5e 913d 7467 db3d
000002a0: abf4 53bc 1f46 e5bc 0a7a 0bbe d798 093b
000002b0: cdd4 cbbc f1e2 52bc 0de3 45bd b760 bebc
000002c0: 0d23 9d3b e88e 12bd 4414 81be 4cc8 253d
000002d0: 14bd b3bc 6cc5 62bd 21ef 9d3c 2fad 943d
000002e0: 6943 6c3d 753a 3dbe 04b0 92bc 4033 cf3a
000002f0: ca8e 9e3d 4b4e c43d ba60 e13d 9912 b6bd
00000300: 4f62 c7bd 4e20 723d c225 863d 1de5 aabd
00000310: 10af b83c f553 41bd cef0 d9bc 8dd2 a83b
00000320: dc7d 09be f605 3d3d a0e4 7cbb ba7a 303d
00000330: ca1c 2e3d 28e2 11bc 816c d1bc a260 9abd
00000340: ef72 c8bc e2ac 583c 7adf 493e adf3 76bd
00000350: 48c7 4f3d ebc7 573d 708e 343c 795c 833d
00000360: e429 b13d 7773 de3d fbdd ee3d a9ee 39be
00000370: b632 34bd 81bc c4ba 8a68 06be f300 2b3d
00000380: b315 bd3c 0f42 c0bb 69cc e93c 23f0 5cbd
00000390: a557 06be a4e3 f5bd b573 8ebe c9a0 b83c
000003a0: cd27 cbbd 021f 46bc 76bc 6c3d 9b6d 4d3d
000003b0: 5ed3 12bc 863e 1e3d ea28 143d 09b7 093e
000003c0: 2be5 0bbe a702 25be b026 04be 7364 1e3d
000003d0: b143 213e fcf3 3fbc 3a11 0bbd fa99 dd3b
000003e0: 7b6c b9bd bf08 ddbd 9a71 1d3e f02d 013b
000003f0: 42b5 31bc cd44 ae3d 76f8 71bd ee24 0bbd

model.model.8.bias f4 [7]
0.106193475 -0.09841291 -0.06433639 0.06188917 -0.10618759 0.08631032 0.2372066
00000000: f77b d93d b58c c9bd ccc2 83bd 807f 7d3d
00000010: e178 d9bd 77c3 b03d 49e6 723e

model_old.model.0.weight f4 [32, 1, 4, 4]
-0.42915386 -0.17364196 0.2167639 0.06378 -0.020014534 0.32551852 -0.20208396 -0.41395518
0.09221105 0.21845996 -0.0147860255 -0.062133174 0.09736818 0.30527696 -0.08674175 0.16068156
0.039699774 0.17094176 -0.19171567 -0.118570276 0.18723059 0.18734258 0.15520254 -0.106932275
-0.2267107 0.2757973 -0.28263554 -0.17012885 0.05760384 -0.18482769 0.074642405 -0.25359413
0.17999524 -0.1242049 -0.15437943 0.19725594 -0.22909515 0.104139656 -0.15938735 -0.50308925
-0.28093493 -0.0022896135 0.20525597 0.045919534 -0.06343554 0.22980687 0.06710258 0.08725622
0.023323134 -0.24671523 -0.02850496 -0.030401923 -0.0862068 0.1536954 0.02396297 0.24547532
0.16364615 -0.22693802 0.25646502 0.19611917 -0.17448425 0.12826268 -0.24316444 0.4951046
-0.12957714 0.020679811 0.08386487 -0.17887819 0.16034852 0.08777893 0.046761647 0.38890222
0.25963557 0.099811524 -0.27267525 -0.08519308 -0.1238631 -0.12334405 -0.17097159 -0.1475957
0.020638263 -0.021838995 -0.35847017 -0.16257286 0.014584824 0.019639019 -0.0024069012 0.0059587434
0.32972398 0.14055909 -0.01989714 0.17056453 0.17762932 -0.30714893 0.20849966 0.44679075
0.0354597 0.06117331 -0.14701936 0.0894613 -0.0033719267 0.044309337 0.27626893 -0.0064980704
0.27640116 0.19709043 0.49413872 -0.68011767 -0.07893564 0.097288266 0.3791399 -0.23995823
-0.044126134 -0.06704871 0.072058305 -0.1657364 -0.07916419 -0.14642768 -0.1522704 0.41828513
0.016062526 0.14865099 -0.19225092 0.7835637 0.30353168 0.04276107 -0.06772868 -0.39064184
-0.054336734 0.05638225 0.006029554 0.18429044 -0.47341225 0.06914664 0.3578404 -0.542212
-0.29099575 -0.25522664 0.3822364 -0.7091322 0.17498119 -0.04105889 0.20200513 -0.18744595
0.1421265 0.005489652 0.26829588 -0.2404534 -0.28187415 -0.22757915 0.07753154 0.17221941
0.09237605 -0.27528387 0.30446333 -0.2814034 0.22678082 -0.17666134 0.11690781 0.30698487
-0.013862951 0.25353387 -0.12557752 0.24687262 -0.027578332 -0.16184317 0.063745834 -0.15674552
0.0055476013 0.007762349 -0.071428366 -0.03797675 0.10759141 -0.082044624 0.18540524 0.18300565
-0.04148665 -0.15708552 0.24668728 -0.14088292 -0.22261097 0.032978095 0.2783764 -0.49613497
0.013545409 0.040237118 0.16683513 -0.35220402 0.042443424 -0.26841858 -0.3071863 0.2113213
0.11063335 -0.43528745 -0.0024276436 0.058173377 -0.3242309 -0.181549 -0.25164786 0.17200032
-0.2277642 -0.16296703 0.18185444 0.049703743 -0.24552973 0.030430192 -0.022917105 -0.4550534
-0.14240444 -0.03930967 -0.35358843 -0.1932069 0.08063893 0.13973004 -0.22746003 0.19643141
-0.13070694 -0.24988744 0.1754605 -0.30603066 0.121533744 -0.06283309 -0.22372589 -0.005302935
0.15693204 0.015346595 0.10814235 0.035893913 -0.030227592 0.15983275 0.06512635 -0.15875305
-0.35344186 0.09801677 -0.15310462 -0.029529564 0.2318737 0.040200807 0.31649497 -0.16006348
0.042165343 0.044275533 0.104665436 -0.025727626 -0.19211532 0.03459861 -0.21597326 0.26412657
-0.24702623 0.110420115 0.017806644 -0.25612947 -0.06597056 0.21689491 -0.089175574 0.25309905
00000000: 0eba dbbe 33cf 31be 5bf7 5d3e 179f 823d
00000010: 85f5 a3bc 5daa a63e 19ef 4ebe eff1 d3be
00000020: 26d9 bc3d f8b3 5f3e 1641 72bc 5b7f 7ebd
00000030: f868 c73d 434d 9c3e a9a5 b1bd b589 243e
00000040: 3b9c 223d 5b0b 2f3e 1d51 44be f9d4 f2bd
00000050: 60b9 3f3e bcd6 3f3e 6aed 1e3e 4fff dabd
00000060: da26 68be 4e35 8d3e 9bb5 90be 4236 2ebe
00000070: 01f2 6b3d 7843 3dbe 1ede 983d 17d7 81be
00000080: ac50 383e 235f febd a415 1ebe 76fd 493e
00000090: eb97 6abe 2c47 d53d 7036 23be 75ca 00bf
000000a0: b4d6 8fbe 570d 16bb 9f2e 523e 1f16 3c3d
000000b0: 7eea 81bd 7e52 6b3e 146d 893d 64b3 b23d
000000c0: 2810 bf3c eba2 7cbe 3c83 e9bc 740d f9bc
000000d0: 318d b0bd 5462 1d3e fe4d c43c e25d 7b3e
000000e0: db92 273e 7162 68be 624f 833e 77d3 483e
000000f0: 00ac 32be 4b57 033e 1900 79be 5a7e fd3e
00000100: dfaf 04be b568 a93c 58c1 ab3d d82b 37be
00000110: 6732 243e 71c5 b33d 2489 3f3d 311e c73e
00000120: f4ee 843e fc69 cc3d 179c 8bbe b679 aebd
00000130: f0ab fdbd ce9b fcbd 2d13 2fbe 5423 17be
00000140: 9311 a93c b1e7 b2bc 6789 b7be 8079 26be
00000150: 30f5 6e3c 02e2 a03c 1abd 1dbb 9041 c33b
00000160: 95d1 a83e b9ee 0f3e 54ff a2bc 78a8 2e3e
00000170: 76e4 353e a042 9dbe ef80 553e c2c1 e43e
00000180: 313e 113d dd90 7a3d 3e8c 16be 7c37 b73d
00000190: 8bfb 5cbb b57d 353d 1f73 8d3e c4ed d4bb
000001a0: 7484 8d3e 13d2 493e c0ff fc3e 311c 2ebf
000001b0: 02a9 a1bd 123f c73d a01e c23e 9cb7 75be
000001c0: 9bbd 34bd d650 89bd 4e93 933d ceb6 29be
000001d0: d620 a2bd 23f1 15be c6ec 1bbe 7829 d63e
000001e0: 8f95 833c f737 183e 6ddd 44be a197 483f
000001f0: 8168 9b3e 3b26 2f3d 56b5 8abd 3502 c8be
00000200: 3290 5ebd 13f1 663d 9193 c53b a2b6 3c3e
00000210: 1763 f2be c19c 8d3d db36 b73e 68ce 0abf
00000220: 65fd 94be 11ad 82be 7db4 c33e b089 35bf
00000230: 452e 333e 5e2d 28bd 6fda 4e3e d5f1 3fbe
00000240: 9c89 113e 8ae2 b33b 145e 893e 6b39 76be
00000250: cf51 90be 820a 69be dbc8 9e3d 495a 303e
00000260: a82f bd3d 02f2 8cbe 9ee2 9b3e 1b14 90be
00000270: 3b39 683e b6e6 34be 5d6d ef3d 1f2d 9d3e
00000280: 6e21 63bc 31cf 813e 6597 00be 2dcc 7c3e
00000290: f4eb e1bc 37ba 25be 2d8d 823d e681 20be
000002a0: a7c8 b53b 4e5b fe3b 0949 92bd 828d 1bbd
000002b0: e358 dc3d 0307 a8bd dfda 3d3e d565 3b3e
000002c0: e8ed 29bd 07db 20be 979b 7c3e 9d43 10be
000002d0: 21f4 63be 0a14 073d 5a87 8e3e 6705 febe
000002e0: 90ed 5d3c adcf 243d d4d6 2a3e 1654 b4be
000002f0: 28d9 2d3d 296e 89be 8647 9dbe 9c64 583e
00000300: bd93 e23d ffdd debe 1a19 1fbb 3547 6e3d
00000310: 9801 a6be fbe7 39be fdd7 80be da20 303e
00000320: 053b 69be d4e0 26be 0d38 3a3e 2796 4b3d
00000330: 256c 7bbe bd48 f93c a7bc bbbc c2fc e8be
00000340: 78d2 11be 2d03 21bd 8b09 b5be 08d8 45be
00000350: 0626 a53d 6415 0f3e 48eb 68be 5125 493e
00000360: 0ad8 05be 7ee2 7fbe ebab 333e 0db0 9cbe
00000370: afe6 f83d a3ae 80bd 6618 65be 3ec4 adbb
00000380: cbb2 203e 4970 7b3c bd79 dd3d 7f05 133d
00000390: db9f f7bc 32ab 233e f760 853d 2990 22be
000003a0: 55f6 b4be 04bd c83d 75c7 1cbe fce7 f1bc
000003b0: 4d70 6d3e 9aa9 243d a10b a23e aee7 23be
000003c0: 91b5 2c3d 435a 353d d55a d63d bec2 d2bc
000003d0: e1b9 44be 46b7 0d3d 1828 5dbe 993b 873e
000003e0: 72f4 7cbe f123 e23d 3ddf 913c 6723 83be
000003f0: 931b 87bd b319 5e3e afa1 b6bd 3396 813e

model_old.model.0.bias f4 [32]
-0.037878938 -0.09774076 -0.25431234 -0.0707188 -0.108432874 -0.28393516 -0.043031592 -0.012217611
-0.034635592 -0.03323013 -0.08294629 -0.11742357 -0.009572782 -0.069209635 -0.074022725 -0.03669961
0.19297355 0.052180152 0.082337424 -0.12826723 0.014609329 -0.01782617 -0.030072005 0.31794843
-0.058591653 -0.010226573 -0.04071143 0.17180584 -0.026753843 -0.14996591 -0.04062992 -0.17501156
00000000: f226 1bbd 4f2c c8bd 3a35 82be 05d5 90bd
00000010: 0e12 debd f35f 91be e541 30bd 602c 48bc
00000020: 0dde 0dbd 511c 08bd bfdf a9bd c57b f0bd
00000030: 28d7 1cbc c8bd 8dbd 3a99 97bd 5552 16bd
00000040: dc9a 453e dbba 553d 86a0 a83d 7c58 03be
00000050: f85b 6f3c 3008 92bc 9159 f6bc 23ca a23e
00000060: cdfd 6fbd 5b8d 27bc 07c1 26bd dfed 2f3e
00000070: e02a dbbc aa90 19be 8f6b 26bd 3b36 33be

model_old.model.4.weight f4 [128, 384]
-0.17453042 -0.09974643 0.014888394 -0.09123121 -0.06524267 -0.13192855 0.019807018 0.02968376
-0.11641655 -0.22521617 0.07406168 0.18317902 0.042855598 0.015486261 -0.06445691 0.031241503
0.057858977 -0.03068768 -0.12897603 0.012305324 0.08653632 -0.04455492 -0.111213915 0.047219526
0.15920086 0.13940623 -0.06761343 0.100329235 0.16704208 0.07968627 -0.031010818 0.020797031
0.094201244 0.030283377 -0.017769195 -0.019093279 0.00096439227 0.09105908 0.011375726 0.02160813
-0.121775486 -0.034475837 0.12038645 0.106095545 0.03574986 -0.0913163 0.15637316 -0.07416804
0.028933411 -0.049585473 0.013861943 -0.08174306 -0.0072041214 -0.04455638 -0.0889141 0.12049592
-0.087163985 -0.040795796 -0.0037029698 -0.17599584 -0.07569433 0.0017714485 0.05196166 -0.16969854
-0.11474929 0.09772932 0.09680934 0.06716829 -0.018944105 0.05843754 0.027493559 -0.029162593
-0.11878291 -0.117873706 -0.24314587 -0.07909098 -0.09346874 -0.15234122 -0.05831317 0.06046612
-0.12748393 -0.06373529 0.09637571 0.1846814 -0.11837858 0.023572749 0.0050213845 0.10734076
-0.32595164 -0.050979156 0.04422508 0.017102942 -0.12686926 -0.014388446 0.16827396 -0.12152691
-0.15383154 -0.014880489 -0.15047382 -0.114245765 -0.15539984 -0.14767763 -0.10547357 0.029298795
-0.04079484 -0.16294584 -0.0112837 0.32600713 0.04591972 -0.22343887 -0.09605169 -0.17410783
0.03899066 -0.094055235 -0.058540586 0.053729113 -0.021294918 -0.24974592 -0.14411741 -0.08807307
-0.3226384 0.06348434 -0.19570114 0.09388154 -0.015768807 -0.004287515 -0.016401825 -0.0606942
0.10467582 -0.07352198 -0.042586904 0.1975284 -0.09444619 -0.110026106 -0.033484645 0.014749672
-0.010424528 -0.1193602 -0.12281474 -0.11560403 -0.0481683 -0.21911077 -0.03373089 0.057272647
0.14305468 -0.20015544 0.14392677 0.14580703 0.1286924 -0.18970121 0.104173206 0.03612871
-0.035495095 -0.16436268 0.098327406 0.033936184 -0.06477219 0.10493886 -0.009585229 -0.05588608
-0.11931561 0.04246873 0.009104155 0.030727617 -0.017828109 0.068935655 -0.021124132 0.024578016
0.029467165 -0.11590938 -0.22850585 -0.11515364 0.11808446 0.04815924 -0.04966075 0.065572806
0.11698225 -0.036269803 0.0056446856 -0.0405506 0.0122462 -0.08212315 -0.067000635 0.075995095
-0.040101703 -0.05704042 0.046437014 -0.0107163405 0.019806538 -0.0064370306 -0.08909132 -0.19703488
0.13539444 -0.065912925 0.04199833 0.021877242 -0.06830216 -0.19078636 0.05286098 0.07474261
-0.09557005 -0.14837135 -0.005944209 -0.12450079 -0.13133682 -0.2023206 -0.060308658 -0.059876908
-0.1214156 -0.25513142 -0.066793665 0.123768605 -0.22939508 -0.19220467 -0.12472838 -0.14213157
-0.15382646 0.2200448 0.078078076 0.15880798 0.042287663 -0.023321118 -0.011411818 0.4581549
-0.082433835 0.0015646439 0.086622134 0.108333275 -0.08534771 -0.10537099 -0.0033487703 0.05742944
0.02191228 -0.043713424 0.023673814 0.27168104 -0.13627847 0.022522474 -0.18085937 -0.13312143
-0.0019812274 -0.02126534 -0.12985857 -0.1880217 -0.00086573703 -0.013170477 -0.029202437 -0.11016334
-0.1583496 -0.041883864 -0.021221131 -0.17667995 0.020270653 -0.10470708 -0.04281865 0.13610792
00000000: 1ab8 32be db47 ccbd 73ee 733c 6ed7 babd
00000010: f39d 85bd 4718 07be 5442 a23c 5b2b f33c
00000020: cd6b eebd 119f 66be a6ad 973d 4893 3b3e
00000030: 5a89 2f3d 16ba 7d3c fc01 84bd 2eee ff3c
00000040: 89fd 6c3d bb64 fbbc 4b12 04be 459c 493c
00000050: f439 b13d 387f 36bd 1fc4 e3bd 4369 413d
00000060: 8d05 233e 82c0 0e3e e978 8abd 6a79 cd3d
00000070: 140d 2b3e 8e32 a33d 660a febc 895e aa3c
00000080: 95ec c03d d814 f83c b490 91bc 8269 9cbc
00000090: 45cf 7c3a 2f7d ba3d 4161 3a3c 8803 b13c
000000a0: 6d65 f9bd 8936 0dbd 2c8d f63d 9f48 d93d
000000b0: 726e 123d 0a04 bbbd 4920 203e 6ae5 97bd
000000c0: c305 ed3c 231a 4bbd 341d 633c e868 a7bd
000000d0: 8d10 ecbb c080 36bd 9818 b6bd 91c6 f63d
000000e0: 0883 b2bd 7e19 27bd 86ad 72bb 4138 34be
000000f0: a105 9bbd f32f e83a c0d5 543d 74c5 2dbe
00000100: ad01 ebbd 4f26 c83d fa43 c63d 878f 893d
00000110: ab30 9bbc 345c 6f3d 2c3a e13c 64e6 eebc
00000120: 7444 f3bd c567 f1bd 3bfb 78be 74fa a1bd
00000130: 8a6c bfbd 56ff 1bbe cad9 6ebd 52ab 773d
00000140: 268b 02be a687 82bd a160 c53d 1f1d 3d3e
00000150: 7870 f2bd a31b c13c 6d8a a43b 79d5 db3d
00000160: 22e3 a6be 85cf 50bd 5c25 353d 781b 8c3c
00000170: 04ea 01be 84bd 6bbc 0250 2c3e 1ae3 f8bd
00000180: 0486 1dbe 4bcd 73bc cf15 1abe aff9 e9bd
00000190: 2321 1fbe ce38 17be 8702 d8bd 0704 f03c
000001a0: 7d18 27bd 46db 26be 45df 38bc 68ea a63e
000001b0: 5116 3c3d 29cd 64be c0b6 c4bd 5349 32be
000001c0: acb4 1f3d 08a0 c0bd 41c8 6fbd 0f13 5c3d
000001d0: ae72 aebc 65bd 7fbe 8493 13be a75f b4bd
000001e0: dc30 a5be 1404 823d e165 48be f744 c03d
000001f0: 962d 81bc 487e 8cbb 1f5d 86bc 7b9a 78bd
00000200: 4760 d63d b192 96bd 9b6f 2ebd e344 4a3e
00000210: 016d c1bd 5e55 e1bd 3227 09bd 9ca8 713c
00000220: a4cb 2abc 1f73 f4bd 4b86 fbbd cec1 ecbd
00000230: 204c 45bd 935e 60be 6729 0abd b996 6a3d
00000240: ed7c 123e 8cf5 4cbe 8a61 133e 704e 153e
00000250: f1c7 033e 0941 42be c358 d53d b3fb 133d
00000260: 4e63 11bd b14e 28be e15f c93d ab00 0b3d
00000270: 48a7 84bd 2fea d63d 5d0b 1dbc cde8 64bd
00000280: be5b f4bd b1f3 2d3d 9829 153c 7cb8 fb3c
00000290: 410c 92bc 232e 8d3d 840c adbc d657 c93c
000002a0: 2065 f13c e661 edbd 70fd 69be acd5 ebbd
000002b0: 44d6 f13d a042 453d 1269 4bbd 094b 863d
000002c0: 6494 ef3d a58f 14bd 0ef7 b83b 6318 26bd
000002d0: 49a4 483c 2f30 a8bd a137 89bd 51a3 9b3d
000002e0: af41 24bd 37a3 69bd bd34 3e3d 9793 2fbc
000002f0: 5241 a23c baed d2bb 8375 b6bd 83c3 49be
00000300: d7a4 0a3e 5bfd 86bd 7106 2c3d e737 b33c
00000310: 01e2 8bbd 805d 43be c184 583d a712 993d
00000320: 3bba c3bd a9ee 17be a4c7 c2bb 45fa febd
00000330: 297d 06be 222d 4fbe 3606 77bd 7d41 75bd
00000340: bea8 f8bd 96a0 82be 1ecb 88bd 657a fd3d
00000350: 8be6 6abe 4dd1 44be 9871 ffbd f08a 11be
00000360: af84 1dbe 6d53 613e 66e7 9f3d 8f9e 223e
00000370: d435 2d3d ee0b bfbc a2f8 3abc 4793 ea3e
00000380: 12d3 a8bd bd14 cd3a f266 b13d d6dd dd3d
00000390: c8ca aebd bfcc d7bd 0b77 5bbb 223b 6b3d
000003a0: 6281 b33c d90c 33bd 96ef c13c c719 8b3e
000003b0: 958c 0bbe 0d81 b83c 3333 39be fc50 08be
000003c0: 7bd7 01bb a634 aebc a5f9 04be c388 40be
000003d0: a1f2 62ba fcc8 57bc f339 efbc 519d e1bd
000003e0: 6626 22be 6a8e 2bbd f0d7 adbc 97eb 34be
000003f0: a40e a63c aa70 d6bd 9c62 2fbd e05f 0b3e

model_old.model.4.bias f4 [128]
-0.045887742 -0.007018281 -0.015370898 -0.029760804 0.040135212 -0.08830789 0.050085403 -0.12141206
0.036644943 0.033073816 -0.03768004 0.07175765 0.0040907306 -0.05829688 -0.065982305 -0.027702546
-0.019567803 -0.04748007 0.005821625 -0.050150316 0.17549922 0.060228206 -0.08284574 -0.022043416
0.014824667 -0.06600106 -0.037216507 -0.055631958 0.0052048895 -0.083994634 0.01319919 -0.05255017
-0.06490737 0.04524485 -0.030623036 -0.00925183 -0.028427102 -0.10621189 0.024962455 0.0016396068
-0.058577977 0.013642519 -0.044977717 0.029273378 0.04096589 0.023408229 -0.07323438 -0.023687666
0.033607934 0.014976782 0.051879365 0.024266204 0.019668452 -0.015404787 -0.040929362 0.017709792
-0.04997573 -0.12127652 0.08669734 0.039143264 0.08271009 -0.036099017 -0.020350864 -0.14518031
0.037738517 0.06212985 0.019662889 0.049618367 0.016891744 0.042205524 0.08548645 0.047580793
-0.0038655053 -0.027631229 0.041121896 0.08437342 -0.028399672 -0.0061174757 0.07945466 -0.06379078
0.07990086 0.00029136837 -0.015952263 0.05463946 -0.04243666 0.0122984275 -0.08116615 0.04867976
-0.07134728 0.054149587 0.10680491 -0.012318544 0.042340945 -0.0007499127 0.05916144 -0.06657776
-0.01928511 -0.0259145 0.0655774 -0.06224513 0.028275164 0.009641165 0.042331394 0.02777639
-0.04829836 -0.024097618 0.028637508 -0.057652697 0.037209854 -0.0454403 0.039037924 -0.052887853
-0.08188557 -0.075372696 0.009936997 0.048563074 0.03454895 -0.03133924 0.1128507 0.048181266
-0.016003959 0.08560099 -0.08488478 -0.07979734 -0.135436 -0.050329883 0.05250909 0.02102709
00000000: c9f4 3bbd 9cf9 e5bb 38d6 7bbc eecc f3bc
00000010: d264 243d c4da b4bd 5a26 4d3d e3a6 f8bd
00000020: 0219 163d 6978 073d 6356 1abd adf5 923d
00000030: 890b 863b b6c8 6ebd bb21 87bd 73f0 e2bc
00000040: a84c a0bc 767a 42bd 54c3 be3b 6b6a 4dbd
00000050: 11b6 333e dab1 763d 07ab a9bd 6594 b4bc
00000060: 29e3 723c 902b 87bd 5670 18bd 56de 63bd
00000070: c78d aa3b 6105 acbd 6a41 583c d93e 57bd
00000080: 28ee 84bd aa52 393d 29dd fabc fd94 17bc
00000090: f4df e8bc 9f85 d9bd 107e cc3c 13e8 d63a
000000a0: 76ef 6fbd df84 5f3c 8e3a 38bd b9ce ef3c
000000b0: d9cb 273d 9dc2 bf3c e8fb 95bd a30c c2bc
000000c0: 79a8 093d 2d61 753c 757f 543d ebc9 c63c
000000d0: bc1f a13c 5c64 7cbc 8ca5 27bd 2014 913c
000000e0: 5ab3 4cbd d35f f8bd 608e b13d b054 203d
000000f0: e863 a93d 90dc 13bd dbb6 a6bc 26aa 14be
00000100: b493 1a3d df7b 7e3d 1114 a13c a13c 4b3d
00000110: 8e60 8a3c b3df 2c3d 8513 af3d 14e4 423d
00000120: 6b54 7dbb e35a e2bc 6f6f 283d f9cb ac3d
00000130: 6ea6 e8bc 1b75 c8bb 20b9 a23d bea4 82bd
00000140: 10a3 a33d cdc2 9839 52ae 82bc a0cd 5f3d
00000150: 10d2 2dbd 587f 493c 703a a6bd 6e64 473d
00000160: 861e 92bd f5cb 5d3d 88bc da3d b8d3 49bc
00000170: b36d 2d3d ca95 44ba 4453 723d ec59 88bd
00000180: cffb 9dbc a54a d4bc 724d 863d c0f4 7ebd
00000190: 51a1 e73c faf5 1d3c af63 2d3d 508b e33c
000001a0: 80d4 45bd 5e68 c5bc 3599 ea3c 3c25 6cbd
000001b0: 5c69 183d 9c1f 3abd 3be6 1f3d efa0 58bd
000001c0: 9fb3 a7bd 005d 9abd c9ce 223c 13ea 463d
000001d0: 3383 0d3d 935d 00bd 451e e73d b859 453d
000001e0: bc1a 83bc 924f af3d 12d8 adbd ca6c a3bd
000001f0: bcaf 0abe b526 4ebd c613 573d 0141 ac3c
