project/paper_notebooks/saved_variables/paper_notebooks/7/6/6-looping-iteration-23/best_policy_agent2.pth (torch, 543093 bytes, 16 tensors)

model.model.0.weight f4 [32, 1, 4, 4]
0.23533252 -0.26476744 -0.20716867 -0.24107152 -0.15573515 0.09771886 0.16976821 -0.059283324
0.18586144 -0.040857628 -0.02208614 -0.0850916 0.26547846 -0.013258253 -0.21842517 -0.11041908
-0.025855254 -0.119809024 -0.08729041 0.045841757 -0.04954455 0.048752785 0.14197715 -0.23596932
-0.20153888 -0.037038557 0.22697657 -0.20921516 -0.105044365 0.15853265 0.060885817 -0.22282562
-0.06851086 0.046961445 -0.19091912 -0.18189491 0.16918305 -0.06941653 -0.1285517 0.06984014
0.17749839 -0.1142834 -0.054810632 -0.032230746 0.26461646 0.08267777 0.015139587 0.19121802
-0.13515735 -0.15592809 0.1663038 -0.02031509 0.115924545 -0.011396742 -0.32134128 0.19916177
0.01116077 0.21802796 -0.20321877 -0.16774282 -0.018750096 0.03966211 -0.117628425 0.14320612
0.050867714 0.10045197 0.15629816 0.18681602 -0.14241868 0.027150907 -0.0014271708 0.043338053
0.017488038 0.15495548 0.07843229 -0.12919118 -0.093541086 0.029970722 -0.0034396762 0.16710843
-0.049210466 -0.184769 0.083278604 -0.17644969 0.011598683 0.10746521 0.28529242 -0.2219009
-0.18834853 0.06295611 -0.32247534 0.24185967 -0.054704364 -0.067102335 -0.090769924 -0.16941987
-0.225487 0.29344043 0.023279496 0.014129929 -0.2552679 0.09291683 0.009266887 -0.117231674
-0.027518759 0.073063344 -0.074089445 -0.059998784 -0.21517102 -0.20613295 -0.069831915 -0.09657097
0.06353918 -0.185424 0.27838376 -0.117491454 -0.036636267 0.0101882955 -0.041999876 0.15996197
-0.07873439 -0.13288662 0.121863626 -0.2419579 0.055851955 -0.040982522 -0.06968125 0.1840979
0.3018145 0.05607126 0.121487215 0.15041658 -0.08191955 -0.02227449 0.16591552 -0.26172084
0.2473027 0.06189006 -0.23394857 -0.21092603 0.111524105 -0.08059718 -0.08974621 -0.17339206
0.02138932 -0.24726756 0.11391503 -0.20092437 -0.06351879 -0.09962087 0.22132456 0.11966397
-0.24806432 0.16740166 0.076043546 -0.1759265 -0.08657873 -0.13700588 0.16464661 0.118965834
0.028627412 -0.10585786 -0.2476493 0.17749941 -0.26678383 -0.1004914 0.17343867 0.14238797
-0.06206556 0.09388197 0.15202166 -0.031513244 0.26620752 -0.1561305 0.12692782 0.15924607
-0.011084046 0.10335001 0.11244577 -0.20242691 -0.2368998 0.109471716 0.105954595 0.16562481
-0.19894974 0.22379777 -0.044866294 0.22229193 0.10070338 -0.068099424 -0.003974152 0.20468496
-0.1858799 0.10791545 -0.040993538 0.014893572 -0.26734504 0.015945492 0.20612355 -0.12433048
-0.16656654 -0.09710987 -0.060809143 -0.17744452 0.22204377 0.15244554 0.06083057 0.21351597
-0.00054240326 -0.03682363 -0.10106064 7.726169e-05 0.103047684 0.16004215 -0.10396824 -0.10455444
-0.20810819 -0.104587644 0.29252717 -0.16274688 0.08818624 -0.19859976 -0.13772249 -0.12582476
0.12959625 0.08915493 0.059061226 0.10107025 0.19102223 0.1678805 -0.12890536 0.21336138
-0.16933024 -0.29016912 0.13020383 -0.22577558 -0.18466574 -0.16753605 -0.08317751 -0.20863503
-0.24693067 -0.004386321 0.07489058 0.24687357 -0.18858598 0.1841062 0.031990185 -0.31305054
0.015389133 -0.2023131 0.22504358 -0.04762148 -0.019414758 -0.1364468 0.009163336 -0.20652552
00000000: 02fb 703e 998f 87be 0624 54be 74db 76be
00000010: 0979 1fbe d320 c83d b8d7 2d3e 12d3 72bd
00000020: 7652 3e3e 545a 27bd feed b4bc 8144 aebd
00000030: cbec 873e 2539 59bc d9aa 5fbe 6623 e2bd
00000040: 66ce d3bc 6f5e f5bd 51c5 b2bd 91c4 3b3d
00000050: 3aef 4abd 00b1 473d 7562 113e f1a1 71be
00000060: 3560 4ebe beb5 17bd 8c6c 683e 803c 56be
00000070: 8021 d7bd 6256 223e 6863 793d 662c 64be
00000080: 6c4f 8cbd a55a 403d 4d80 43be a942 3abe
00000090: 523e 2d3e 412a 8ebd 0fa3 03be 5908 8f3d
000000a0: 23c2 353e 6a0d eabd 1d81 60bd 6304 04bd
000000b0: cf7b 873e f652 a93d 080c 783c a8ce 433e
000000c0: b066 0abe 9dab 1fbe 8b4b 2a3e d56b a6bc
000000d0: d969 ed3d 67b9 3abc d886 a4be 10f1 4b3e
000000e0: aadb 363c b942 5f3e 9518 50be c6c4 2bbe
000000f0: cd99 99bc bd74 223d 2ce7 f0bd a0a4 123e
00000100: aa5a 503d c3b9 cd3d a00c 203e b34c 3f3e
00000110: 34d6 11be 946b de3c e80f bbba 3e83 313d
00000120: 1343 8f3c a6ac 1e3e 1ca1 a03d b14a 04be
00000130: 7892 bfbd 2985 f53c 316c 61bb 791e 2b3e
00000140: ea90 49bd 1634 3dbe f98d aa3d 3aaf 34be
00000150: 6708 3e3c b816 dc3d d911 923e fd39 63be
00000160: 70de 40be 22ef 803d 7d1b a5be 10aa 773e
00000170: af11 60bd f36c 89bd 95e5 b9bd 677c 2dbe
00000180: 10e6 66be d33d 963e a4b4 be3c 3881 673c
00000190: 79b2 82be 2e4b be3d 24d4 173c 2917 f0bd
000001a0: 056f e1bc 3ca2 953d 35bc 97bd 49c1 75bd
000001b0: cb55 5cbe 8414 53be 0904 8fbd 00c7 c5bd
000001c0: d420 823d cadf 3dbe 5188 8e3e 5c9f f0bd
000001d0: e90f 16bd cfec 263c 1008 2cbd 12cd 233e
000001e0: 7f3f a1bd 6e13 08be a393 f93d d0c3 77be
000001f0: 05c5 643d 4add 27bd 0bb5 8ebd 2984 3c3e
00000200: 6e87 9a3e faaa 653d 4ace f83d ce06 1a3e
00000210: 70c5 a7bd fe78 b6bc c2e5 293e 4600 86be
00000220: eb3c 7d3e 6e80 7d3d 3790 6fbe fefc 57be
00000230: c066 e43d 2210 a5bd dccc b7bd b08d 31be
00000240: a838 af3c b533 7dbe 494c e93d 1ebf 4dbe
00000250: 2416 82bd 0706 ccbd e8a2 623e 6212 f53d
00000260: 9304 7ebe 576b 2b3e b8bc 9b3d 1426 34be
00000270: 3050 b1bd 454b 0cbe 1f99 283e 5ca4 f33d
00000280: 0984 ea3c 01cc d8bd c797 7dbe 68c2 353e
00000290: e497 88be 6fce cdbd e899 313e 27ce 113e
000002a0: 7538 7ebd 3145 c03d 91ab 1b3e 0814 01bd
000002b0: 5a4c 883e ace0 1fbe 5ef9 013e 6711 233e
000002c0: dc99 35bc 2ca9 d33d f849 e63d 0049 4fbe
000002d0: dc95 72be b532 e03d b9fe d83d 8d99 293e
000002e0: 7bb9 4bbe 3e2b 653e b8c5 37bd 7fa0 633e
000002f0: 933d ce3d b677 8bbd 9a39 82bb ef98 513e
00000300: 4d57 3ebe c702 dd3d d7e8 27bd 2b04 743c
00000310: 73e1 88be 1fa0 823c 0d12 533e fba0 febd
00000320: 6b90 2abe 8ae1 c6bd 0213 79bd 04b4 35be
00000330: 715f 633e af1a 1c3e 7a29 793d eea3 5a3e
00000340: 1130 0eba 60d4 16bd e1f8 cebd 8e07 a238
00000350: aa0a d33d 17e2 233e 4ded d4bd a320 d6bd
00000360: 501a 55be 0c32 d6bd 1fc6 953e 1ea7 26be
00000370: fd9a b43d bc5d 4bbe 2007 0dbe 35d8 00be
00000380: e1b4 043e dc96 b63d 2fea 713d ebfd ce3d
00000390: 559b 433e dee8 2b3e c4ff 03be 687b 5a3e
000003a0: e864 2dbe 0c91 94be 2754 053e b731 67be
000003b0: 0419 3dbe 928e 2bbe f858 aabd 6ca4 55be
000003c0: 65db 7cbe 21bb 8fbb 3b60 993d 6dcc 7c3e
000003d0: af1c 41be 5686 3c3e 2408 033d 2948 a0be
000003e0: b422 7c3c 2a2b 4fbe d371 663e be0e 43bd
000003f0: b30b 9fbc b6b8 0bbe d121 163c 6d7b 53be

model.model.0.bias f4 [32]
0.11417893 0.08878114 0.2831865 0.17905518 0.22305548 -0.11633073 -0.13542025 0.01586182
0.13761608 0.25477523 0.30900303 0.06372203 0.08042365 -0.06056718 -0.17419164 -0.07440871
0.12088805 0.28344065 0.037632857 -0.20815153 0.22137783 -0.02080006 0.27518618 -0.17272764
0.15095384 0.1151022 0.19187142 0.1181275 0.27482542 0.021260735 -0.21690385 -0.18501234
00000000: a5d6 e93d e3d2 b53d d2fd 903e 3e5a 373e
00000010: a868 643e ce3e eebd 9bab 0abe a6f0 813c
00000020: 3beb 0c3e e671 823e a535 9e3e b280 823d
00000030: 28b5 a43d 4b15 78bd 4b5f 32be 9863 98bd
00000040: 2794 f73d 221f 913e e924 1a3d ad25 55be
00000050: dfb0 623e e364 aabc 34e5 8c3e 84df 30be
00000060: a593 1a3e b4ba eb3d f179 443e d5ec f13d
00000070: ebb5 8c3e fe2a ae3c 0b1c 5ebe e073 3dbe

model.model.4.weight f4 [128, 384]
0.018191159 0.12855045 0.021868473 0.06021367 0.037744783 -0.016455995 0.052625984 0.018147595
-0.15218954 0.16739444 0.02342608 0.036382914 -0.046329577 0.008527968 0.03378684 0.081043385
0.016421914 -0.07337676 0.030471968 0.066020444 0.021101046 0.083196156 -0.03292108 0.033587053
0.06849807 -0.009751862 -0.033292666 0.0032350929 -0.060863893 0.104036696 0.041673668 0.05830119
-0.01569441 0.11454509 0.042612284 0.024767583 0.044458404 0.015213166 -0.07315549 0.040908523
0.06156339 -0.020669239 0.029206755 -0.03034963 0.078573614 -0.032389786 -0.018810892 0.04151353
0.03176233 -0.02777125 -0.007095091 0.01209561 -0.016845085 -0.012693056 0.043728355 0.010897301
-0.008047787 -0.0007332358 -0.010379842 -0.048683785 0.22746399 0.10810611 0.17932974 0.010611381
0.14770727 0.0019713794 0.11423207 -0.033547774 0.10497381 0.0580976 0.12238572 0.12376861
0.08628154 0.06438907 0.105332226 0.11681069 0.022363193 -0.003075121 0.09664451 0.07228198
0.048735186 0.034858648 0.014113574 0.023788264 -0.0074289436 0.020271366 0.012668146 -0.044113453
-0.009799935 0.012365586 0.0061769616 -0.029030634 -0.011835497 0.02537218 -0.010423065 0.036899194
-0.07478928 0.011271005 0.02119626 0.03609751 -0.041711584 -0.111069605 -0.08238071 -0.012285381
-0.09559659 0.08796713 -0.048859444 -0.010889191 0.0062161414 0.100139596 0.027524233 -0.03486691
0.00020601208 0.07479718 0.036938768 0.030864032 -0.013380556 0.0800887 0.06357291 0.06339922
-0.009117226 0.003421624 0.037003692 -0.07194113 0.039592803 0.085771516 -0.029124895 -0.0123559935
0.057013497 0.053772304 0.041901287 -0.006934295 0.09674564 -0.046430234 -0.020177683 -0.024415225
-0.046284605 -0.067462415 0.09632676 -0.0235153 0.052775603 -0.033106815 0.04956531 0.08185813
0.025002215 -0.044844333 0.03256866 -0.0054409173 0.056397825 0.015994297 0.07197259 0.06692607
0.03655897 0.021887634 -0.017948698 0.056776192 0.15059498 0.022565193 -0.011175163 0.019237595
0.14027543 -0.06249015 0.10528075 0.09237867 -0.061374847 0.095278695 0.008745803 0.07806605
-0.08265762 -0.052067738 0.026539603 -0.018045336 -0.046549115 0.0061290474 -0.07201275 -0.098997094
-0.012221298 -0.03634726 0.04731199 -0.030883996 0.062135313 0.08798543 0.05875822 0.10399273
-0.039653305 0.06287577 0.060037132 0.08123482 0.0035858585 -0.015425637 -0.05813283 -0.06751839
0.05067074 0.06172482 0.080791414 0.036221597 -0.05001627 -0.0033398306 0.0426106 -0.060077183
-0.0271226 0.0948916 0.042753387 0.0007350671 -0.005188962 0.24861075 0.1178466 0.0090679545
0.17717339 0.07926358 0.045758013 0.048473913 0.07853224 0.12301639 0.009043784 -0.06163335
0.08815019 0.07042559 0.04676263 0.039715055 0.030111523 0.03803236 0.012484724 -0.02734729
-0.018050954 -0.058616024 -0.071829975 -0.011568083 -0.060978875 0.00028168876 -0.028122304 -0.09256449
0.105044276 -0.02686953 0.027983341 -0.08171139 0.0118373055 0.049379308 0.016403979 -0.10055839
0.05947052 0.07023403 0.06297932 0.113934554 0.049977638 0.017880533 0.03912861 -0.0498407
-0.06266422 -0.048199937 -0.046596278 -0.026713995 0.114643455 0.13388869 -0.067370415 0.072903335
00000000: a005 953c bba2 033e 8325 b33c 9ca2 763d
00000010: 469a 1a3d b9ce 86bc 588e 573d 44aa 943c
00000020: 93d7 1bbe 7369 2b3e 0de8 bf3c 4006 153d
00000030: 15c4 3dbd e4b8 0b3c 1264 0a3d 13fa a53d
00000040: 4087 863c 8e46 96bd 59a0 f93c ba35 873d
00000050: 1adc ac3c bf62 aa3d 41d8 06bd 9492 093d
00000060: b748 8c3d 46c6 1fbc e45d 08bd da03 543b
00000070: 6b4c 79bd 3111 d53d 02b2 2a3d 3bcd 6e3d
00000080: 9091 80bc 9e96 ea3d 388a 2e3d 63e5 ca3c
00000090: 041a 363d a540 793c 8cd2 95bd b28f 273d
000000a0: e529 7c3d 8952 a9bc 0143 ef3c ca9f f8bc
000000b0: 34eb a03d 27ab 04bd 4d19 9abc 170a 2a3d
000000c0: 3819 023d 8880 e3bc f07d e8bb aa2c 463c
000000d0: b4fe 89bc 89f6 4fbc 811c 333d 988a 323c
000000e0: ddda 03bc 9f36 40ba 3610 2abc a668 47bd
000000f0: 52ec 683e bc66 dd3d 37a2 373e 5cdb 2d3c
00000100: 9340 173e 4232 013b 81f2 e93d 6469 09bd
00000110: 82fc d63d c0f7 6d3d 5da5 fa3d 667a fd3d
00000120: 60b4 b03d 6bde 833d 6cb8 d73d 713a ef3d
00000130: 0433 b73c f887 49bb 8fed c53d 9308 943d
00000140: 8c9e 473d f1c7 0e3d 9f3c 673c 9bdf c23c
00000150: 7f6e f3bb 2310 a63c 0e8e 4f3c 4fb0 34bd
00000160: e88f 20bc 0799 4a3c 1c68 ca3b a7d1 edbc
00000170: ace9 41bc 51d9 cf3c 81c5 2abc 9c23 173d
00000180: 1f2b 99bd 05aa 383c c7a3 ad3c fcda 133d
00000190: c4d9 2abd 7678 e3bd 38b7 a8bd 9f48 49bc
000001a0: 25c8 c3bd 1c28 b43d d720 48bd 9468 32bc
000001b0: c6b0 cb3b fd15 cd3d 807a e13c 9bd0 0ebd
000001c0: f204 5839 442f 993d 1b4d 173d 91d6 fc3c
000001d0: 1f3a 5bbc 8b05 a43d 8432 823d 73d7 813d
000001e0: 6b60 15bc 533d 603b 2f91 173d df55 93bd
000001f0: 102c 223d faa8 af3d 5597 eebc cb70 4abc
00000200: fc86 693d 5940 5c3d afa0 2b3d 1539 e3bb
00000210: 9422 c63d a12d 3ebd ab4b a5bc 7002 c8bc
00000220: ed94 3dbd bc29 8abd f746 c53d 29a3 c0bc
00000230: 3b2b 583d 039b 07bd ff04 4b3d 3ca5 a73d
00000240: 72d1 cc3c b1ae 37bd b766 053d b949 b2bb
00000250: 6801 673d 7906 833c 5e66 933d 8910 893d
00000260: dcbe 153d b24d b33c 2609 93bc 278e 683d
00000270: 9235 1a3e a4da b83c 0818 37bc 2998 9d3c
00000280: 5da4 0f3e acf5 7fbd 6f9d d73d 0731 bd3d
00000290: 3164 7bbd 7a21 c33d 8e4a 0f3c 18e1 9f3d
000002a0: 6648 a9bd fb44 55bd 9569 d93c d0d3 93bc
000002b0: 49aa 3ebd 2dd6 c83b 6c7b 93bd fdbe cabd
000002c0: d73b 48bc dde0 14bd 38ca 413d 6f00 fdbc
000002d0: 9981 7e3d b531 b43d 76ac 703d 24fa d43d
000002e0: 816b 22bd 03c5 803d 7fe9 753d 715e a63d
000002f0: b900 6b3b d0bb 7cbc b11c 6ebd 1547 8abd
00000300: 1f8c 4f3d 2ad3 7c3d f875 a53d 195d 143d
00000310: dcdd 4cbd 0fe1 5abb 7488 2e3d 7e13 76bd
00000320: 3730 debc 8756 c23d 2d1e 2f3d 85b1 403a
00000330: 2b08 aabb d193 7e3e 8f59 f13d c291 143c
00000340: f16c 353e f254 a23d c16c 3b3d 958c 463d
00000350: 83d5 a03d 04f0 fb3d 612c 143c 4073 7cbd
00000360: 1688 b43d 4b3b 903d 2c8a 3f3d 41ac 223d
00000370: 71ac f63c d2c7 1b3d ba8c 4c3c 6d07 e0bc
00000380: 98df 93bc 5b17 70bd 981b 93bd 0f88 3dbc
00000390: fcc4 79bd a0af 9339 bf60 e6bc 7492 bdbd
000003a0: 7421 d73d 7d1d dcbc 523d e53c 4d58 a7bd
000003b0: 42f1 413c f541 4a3d a361 863c 8ff1 cdbd
000003c0: 5c97 733d dcd6 8f3d 4dfb 803d 8556 e93d
000003d0: 5ab5 4c3d 327a 923c 5245 203d c325 4cbd
000003e0: 1956 80bd 4c6d 45bd bddb 3ebd 4fd7 dabc
000003f0: 30ca ea3d 1e1a 093e 80f9 89bd 584e 953d

model.model.4.bias f4 [128]
0.03782871 0.034598283 0.09904781 0.035318874 0.01563721 -0.005136201 0.07710081 0.02163337
0.068898134 0.06103746 0.053246446 0.02587464 -0.019723529 0.06913237 0.06883509 0.049338784
0.038631912 0.06857111 0.038580485 0.0046164403 0.014837124 0.020202696 0.080929704 -0.036060676
-0.0075537674 0.09215416 0.02253576 0.06759976 0.042868324 0.06550573 -0.016759234 -0.006004965
0.04048873 -0.056780268 -0.029179966 0.015211442 0.08607943 0.007922436 0.043043386 0.075610496
0.0028878113 -0.04252546 0.0038290834 0.079544306 0.07304887 0.04327889 0.05002466 0.067689
0.025973927 0.09969043 0.040232353 0.05818024 0.009915494 0.027091304 0.07304989 0.01250971
0.05900854 0.034355342 0.055026144 0.0495335 0.03747448 0.006181283 0.036569335 0.065845735
0.0025490017 0.076713465 0.02771001 -0.014589058 0.067749895 -0.032215033 -0.061294764 0.060191542
0.07920021 0.030716421 0.08526947 -0.045486823 0.08455886 0.023738803 0.034083627 0.034000125
0.042208675 0.059946217 0.014605877 -0.025999356 0.0012742562 0.07471423 0.029023383 0.09720931
-0.01154577 0.009654293 0.050985616 0.008674234 -0.048564512 0.021203602 0.051013384 0.032289427
-0.008767633 0.027271926 0.015306525 -0.006641222 0.078872845 0.051367432 0.08378661 0.06502911
0.00058462645 0.048282996 0.00066785864 0.055273946 0.094659366 -0.01467485 0.05104947 0.08575934
0.04549628 0.07988011 -0.030276138 -0.05642419 0.06917556 0.007423881 0.0025918412 0.022757715
0.023630025 -0.027688894 0.05983364 0.012785785 0.0022500826 0.07653769 0.065648995 0.06648278
00000000: 47f2 1a3d eeb6 0d3d 94d9 ca3d 86aa 103d
00000010: 9b19 803c 944d a8bb 08e7 9d3d 7738 b13c
00000020: 771a 8d3d 6a02 7a3d f218 5a3d 0ef7 d33c
00000030: 3d93 a1bc 4695 8d3d 69f9 8c3d 7717 4a3d
00000040: 7f3c 1e3d 036f 8c3d 9206 1e3d 8245 973b
00000050: 6917 733c 2080 a53c 79be a53d 5cb4 13bd
00000060: 9885 f7bb 52bb bc3d ea9c b83c be71 8a3d
00000070: b296 2f3d de27 863d a94a 89bc 4cc5 c4bb
00000080: 83d7 253d 6d92 68bd d30a efbc 6939 793c
00000090: 6a4a b03d 1bcd 013c 434e 303d add9 9a3d
000000a0: 6f41 3d3b 2d2f 2ebd 5cf1 7a3b 20e8 a23d
000000b0: a59a 953d 3545 313d a8e6 4c3d 88a0 8a3d
000000c0: 46c7 d43c 7f2a cc3d aeca 243d 674e 6e3d
000000d0: 9974 223c 95ee dd3c 2e9b 953d 87f5 4c3c
000000e0: f0b2 713d 30b8 0c3d 1863 613d a4e3 4a3d
000000f0: d77e 193d 5c8c ca3b bac9 153d 21da 863d
00000100: 270d 273b f31b 9d3d 1a00 e33c f206 6fbc
00000110: 75c0 8a3d e9f3 03bd 3810 7bbd 688b 763d
00000120: b833 a23d 01a1 fb3c c3a1 ae3d 6450 3abd
00000130: 322d ad3d e177 c23c 469b 0b3d b743 0b3d
00000140: 01e3 2c3d 2a8a 753d 7d4d 6f3c 9afc d4bc
00000150: f104 a73a c603 993d 72c2 ed3c ad15 c73d
00000160: 782a 3dbc 0a2d 1e3c 4bd6 503d 601e 0e3c
00000170: 95eb 46bd 2db3 ad3c 69f3 503d eb41 043d
00000180: 1ea6 0fbc 6069 df3c 38c8 7a3c 9c9e d9bb
00000190: 1688 a13d a866 523d 5098 ab3d fb2d 853d
000001a0: 9e41 193a 64c4 453d 3c13 2f3a ef66 623d
000001b0: c5dc c13d c86e 70bc 4019 513d 98a2 af3d
000001c0: 4f5a 3a3d 2f98 a33d aa05 f8bc 0d1d 67bd
000001d0: eaab 8d3d 0744 f33b e1db 293b 636e ba3c
000001e0: c193 c13c d2d3 e2bc 1e14 753d 787b 513c
000001f0: 1f76 133b cbbf 9c3d fb72 863d 2028 883d

model.model.6.weight f4 [128, 128]
0.066021904 -0.052192647 -0.055514395 -0.07927772 0.054813236 -0.06940132 -0.06640405 -0.055750415
0.055337403 0.074239135 0.052390464 -0.041119006 -0.074206024 0.016930608 0.024766793 0.03874601
0.0165082 0.048249263 -0.0037085502 -0.052923292 -0.082101196 0.016251445 -0.040971298 -0.004991252
-0.051978182 0.036018297 0.059540115 0.033585038 0.033240307 -0.01736847 -0.041761767 -0.074315585
-0.07547651 -0.0040558768 -0.0716818 -0.023929575 -0.016049072 0.0021335878 -0.046379022 0.07352993
0.020663688 -0.049030215 -0.038018737 0.05118164 0.07819939 -0.038954362 -0.04523851 -0.0041329283
-1.1281182e-05 -0.00863481 -0.05735505 0.041893996 0.053393926 -0.0043393928 -0.047472812 0.08510111
-0.059397597 -0.02781571 0.031078974 -0.009186828 -0.059460748 -0.07111364 -0.085579924 -0.07553529
-0.037227746 -0.035986397 -0.0319095 -0.08155647 -0.00983943 -0.08260843 0.030140476 -0.03407632
-0.075753085 -0.0481266 0.08184275 0.05571527 0.04984184 -0.07312516 0.06780353 -0.047324304
0.08263944 0.06908173 0.08208002 -0.023447432 -0.01924828 -0.07734308 0.05857782 0.04604999
-0.024854934 -0.07377413 0.05570401 -0.029155878 0.07708302 0.082772054 -0.00829788 -0.035686214
-0.04279058 -0.05470069 0.057743624 0.05222006 -0.0012341322 -0.073364064 0.05150994 0.03216434
0.067167185 0.045367118 0.011962159 0.0026186767 -0.025384532 0.011649184 -0.032520182 -0.017418329
-0.0308988 -0.037368145 -0.067083634 0.061032128 0.046509415 0.03729721 0.026571754 0.012185664
0.01706102 -0.077480435 0.011540054 -0.08382133 0.0018715434 -0.0031972684 0.06759929 -0.06897132
0.017813519 0.013237089 -0.094553225 -0.07589642 -0.07489369 -0.054825343 -0.021403668 0.036888488
-0.095384136 -0.05904518 0.0033297148 -0.040280428 -0.07589364 0.07014236 0.008827577 -0.06697178
-0.041124333 -0.07422349 0.030690236 -0.07144593 -0.0912093 0.05790792 -0.042797696 -0.05886303
0.026715279 -0.029546488 -0.06296325 -0.05615911 0.012666856 -0.070295215 -0.009818896 -0.08556007
-0.09169638 -0.0070319977 -0.027527604 0.031909484 0.07412785 0.05648455 -0.024590928 0.07498334
-0.052753545 0.056493312 -0.03500818 0.069134004 0.021656308 0.055595692 -0.054846108 0.07531982
0.04695899 -0.08822791 0.051373705 0.024756843 0.0012886359 -0.04954623 -0.079947256 0.081320174
0.04225465 0.04921051 0.046173368 0.006078348 0.06453091 -0.021427384 0.0019754819 0.070978925
0.03728933 0.049507756 -0.07904118 -0.0040203566 -0.080537446 0.017517123 0.024584768 -0.035803594
0.06260387 -0.07980399 0.07763549 0.004476862 0.044895887 -0.011291117 -0.09560508 -0.02698467
-0.014390648 0.019489627 0.045663536 0.084084 -0.05724166 0.07434843 0.05541456 0.037545893
-0.009102301 0.052363392 -0.0878531 0.06440609 0.007306457 -0.03460896 -0.07032433 -0.07753357
0.025508799 0.08084863 0.0012266272 -0.055315033 -0.085149854 0.07751225 -0.025967238 -0.010262052
0.046057552 -0.05139936 -0.00043565163 0.032790832 -0.019358914 -0.0318881 -0.046727512 0.04818999
0.005580339 -0.036729813 -0.06131706 0.006619257 0.077234305 -0.09507583 0.002897388 0.061994772
0.0054501924 0.02398219 0.02833199 0.0011274719 0.022587905 -0.06030873 -0.091929905 0.061566483
00000000: 7e36 873d f5c7 55bd 1063 63bd 5b5c a2bd
00000010: d883 603d 4722 8ebd d9fe 87bd 8c5a 64bd
00000020: 79a9 623d b00a 983d 6297 563d 676c 28bd
00000030: 54f9 97bd 0fb2 8a3c bbe3 ca3c 23b4 1e3d
00000040: 343c 873c 05a1 453d 260b 73bb 18c6 58bd
00000050: ac24 a8bd c021 853c 85d1 27bd a88d a3bb
00000060: 13e7 54bd ec87 133d 56e0 733d 7790 093d
00000070: fd26 083d 5248 8ebc 630e 2bbd c532 98bd
00000080: 6e93 9abd 29e7 84bb e8cd 92bd f507 c4bc
00000090: 5879 83bc aad3 0b3b eef7 3dbd dc96 963d
000000a0: e546 a93c e8d3 48bd 89b9 1bbd d7a3 513d
000000b0: 0027 a03d 9c8e 1fbd 044c 39bd 846d 87bb
000000c0: 4f44 3db7 0579 0dbc 21ed 6abd 0a99 2b3d
000000d0: 97b3 5a3d 7731 8ebb da72 42bd 7e49 ae3d
000000e0: e54a 73bd c6dd e3bc 5599 fe3c 5984 16bc
000000f0: 1d8d 73bd 07a4 91bd 8744 afbd 3fb2 9abd
00000100: 1f7c 18bd 7966 13bd 89b3 02bd 1407 a7bd
00000110: 9035 21bc 9c2e a9bd 29e9 f63c 9c93 0bbd
00000120: 6f24 9bbd 6620 45bd 2c9d a73d b235 643d
00000130: f526 4c3d a5c2 95bd 94dc 8a3d 21d7 41bd
00000140: de3e a93d b97a 8d3d 9219 a83d d414 c0bc
00000150: 92ae 9dbc 0c66 9ebd 4cef 6f3d ea9e 3c3d
00000160: 939c cbbc e416 97bd e329 643d 4fd8 eebc
00000170: b4dd 9d3d 6584 a93d d5f3 07bc b52b 12bd
00000180: 2d45 2fbd d50d 60bd 9484 6c3d b4e4 553d
00000190: 9bc2 a1ba e63f 96bd 16fc 523d c1be 033d
000001a0: f38e 893d dfd2 393d eefc 433c 1b9e 2b3b
000001b0: 39f3 cfbc 38dc 3e3c e233 05bd e2b0 8ebc
000001c0: 7b1f fdbc 570f 19bd 2563 89bd d3fc 793d
000001d0: a880 3e3d f6c4 183d 02ad d93c 61a6 473c
000001e0: 8dc3 8b3c 10ae 9ebd 7f12 3d3c 84aa abbd
000001f0: 934e f53a 4389 51bb 7f71 8a3d d640 8dbd
00000200: a8ed 913c 60e0 583c 1fa5 c1bd 956f 9bbd
00000210: dd61 99bd 8a90 60bd bf56 afbc 6218 173d
00000220: c258 c3bd 5cd9 71bd 5837 5a3b 17fd 24bd
00000230: 206e 9bbd cca6 8f3d 8ba1 103c 8028 89bd
00000240: fd71 28bd 7c02 98bd 176a fb3c 3e52 92bd
00000250: f1cb babd db30 6d3d a34c 2fbd 5c1a 71bd
00000260: 00da da3c 7a0b f2bc e0f2 80bd 1807 66bd
00000270: a588 4f3c f0f6 8fbd 6fdf 20bc 1e3a afbd
00000280: 50cb bbbd ac6c e6bb 9281 e1bc 85b3 023d
00000290: 58d0 973d 585c 673d ea72 c9bc de90 993d
000002a0: 1a14 58bd 8865 673d bd64 0fbd 2196 8d3d
000002b0: 9268 b13c 4fb8 633d 50a6 60bd 4741 9a3d
000002c0: 1258 403d d6b0 b4bd 3c6d 523d ddce ca3c
000002d0: 72e7 a83a fdf0 4abd 63bb a3bd 318b a63d
000002e0: 3613 2d3d f690 493d 4920 3d3d e12c c73b
000002f0: c828 843d 7b88 afbc 1677 013b 665d 913d
00000300: b2bc 183d a5c8 4a3d 58e0 a1bd 32bd 83bb
00000310: d1f0 a4bd 1280 8f3c ff65 c93c caa6 12bd
00000320: 7536 803d 4670 a3bd 5bff 9e3d a4b2 923b
00000330: c0e4 373d 61fe 38bc 99cc c3bd f40e ddbc
00000340: c1c6 6bbc b6a8 9f3c b009 3b3d 3b34 ac3d
00000350: 3b76 6abd fd43 983d 61fa 623d b9c9 193d
00000360: d121 15bc ff7a 563d 53ec b3bd 57e7 833d
00000370: 016b ef3b 20c2 0dbd 3406 90bd ecc9 9ebd
00000380: d4f7 d03c f793 a53d c7c6 a03a 0492 62bd
00000390: 0c63 aebd bebe 9e3d 3fb9 d4bc 2a22 28bc
000003a0: d8a6 3c3d 2388 52bd 2c68 e4b9 ae4f 063d
000003b0: 9696 9ebc 199d 02bd 5965 3fbd de62 453d
000003c0: 47db b63b 0072 16bd 9927 7bbd 5ae6 d83b
000003d0: 052d 9e3d 1eb7 c2bd 1be2 3d3b 3bee 7d3d
000003e0: 8797 b23b 4c76 c43c 7d18 e83c aec7 933a
000003f0: 450a b93c 4906 77bd bf45 bcbd 232d 7c3d

model.model.6.bias f4 [128]
-0.022023998 0.07185043 -0.043187413 0.082626306 -0.063372366 -0.014021414 0.033564724 0.0030756423
0.053678628 -0.08577315 0.07425881 0.06755463 0.082560964 -0.022928456 0.046894625 -0.06520578
0.12823318 -0.052576363 -0.073920205 -0.02545155 0.028953783 0.070781775 -0.015733913 0.08215547
0.013158275 4.1262025e-05 -0.006885455 0.011760811 0.08724949 0.061519615 -0.018185478 0.12673877
0.05228321 0.015109852 -0.01785119 0.042863287 0.11009602 -0.07114161 0.049638007 0.05994011
0.013207696 0.020226069 -0.024325104 0.07301408 -0.013866699 -0.073977865 0.07354072 0.035687514
0.11070488 0.057481807 8.480288e-05 0.07333098 0.08339912 0.07026402 0.057503983 -0.022608357
0.090760015 0.05546816 0.04465672 0.07328459 0.038576733 0.045159347 -0.048182514 0.04562175
0.123497024 0.04901037 0.042570062 -0.06741022 0.111617 0.019917315 0.12354308 0.042255912
0.03589761 -0.03376022 -0.043745495 -0.03409536 -0.055385526 0.04295332 0.0020994917 -0.06595125
0.063594766 -0.0512608 -0.021812307 -0.00017104855 0.06706413 -0.012758786 0.03840892 0.0024724281
-0.046612613 0.044793107 0.067565955 0.12236247 0.007117353 0.07452685 0.055124946 -0.00039798947
0.07276896 0.035693582 -0.017057013 0.048316967 0.07565867 -0.03117674 -0.069487266 0.14137176
-0.061780095 0.046387214 0.0008929103 -0.016654307 0.054674957 -0.018605575 -0.014909556 0.11353494
-0.010269798 0.04299134 0.039274443 0.10989676 -0.02401338 0.06702297 -0.051621538 -0.07624403
0.06253784 0.06851849 -0.07087824 0.090372786 -0.046082724 0.10099877 0.02035017 0.06490673
00000000: ac6b b4bc 5126 933d 49e5 30bd fb37 a93d
00000010: 5fc9 81bd 13ba 65bc 2a7b 093d b790 493b
00000020: 1fde 5b3d d5a9 afbd 0115 983d 155a 8a3d
00000030: b915 a93d 75d4 bbbc 9414 403d 9c8a 85bd
00000040: 8f4f 033e 505a 57bd 7a63 97bd c57f d0bc
00000050: 7c30 ed3c 09f6 903d 68e4 80bc 2141 a83d
00000060: ce95 573c c310 2d38 629f e1bb 6bb0 403c
00000070: dcaf b23d fefb 7b3d b6f9 94bc cfc7 013e
00000080: eb26 563d 508f 773c a93c 92bc 6a91 2f3d
00000090: 067a e13d b1b2 91bd 3951 4b3d c383 753d
000000a0: 1865 583c 24b1 a53c 7145 c7bc 6888 953d
000000b0: 2731 63bc b581 97bd 849c 963d 122d 123d
000000c0: 3db9 e23d 0b72 6b3d 33d8 b138 8e2e 963d
000000d0: 28cd aa3d 95e6 8f3d 4c89 6b3d 2935 b9bc
000000e0: 63e0 b93d 9532 633d f7e9 363d 3b16 963d
000000f0: a302 1e3d 02f9 383d 075b 45bd dfdd 3a3d
00000100: 02ec fc3d 19bf 483d f25d 2e3d 5f0e 8abd
00000110: 7497 e43d a329 a33c 2804 fd3d 8914 2d3d
00000120: 5f09 133d 2848 0abd 7a2e 33bd 94a7 0bbd
00000130: efdb 62bd d2ef 2f3d a097 093b 7311 87bd
00000140: f93d 823d d8f6 51bd b9af b2bc 7f5b 33b9
00000150: eb58 893d 3a0a 51bc ac52 1d3d 7608 223b
00000160: deec 3ebd fa78 373d 0560 8a3d 2d99 fa3d
00000170: af38 e93b 88a1 983d b2ca 613d 3ea9 d0b9
00000180: e407 953d 6f33 123d 26bb 8bbc 03e8 453d
00000190: eff2 9a3d 5d66 ffbc 574f 8ebd c2c3 103e
000001a0: 200d 7dbd 8500 3e3d 3212 6a3a 9d6e 88bc
000001b0: d9f2 5f3d b86a 98bc 3647 74bc 0285 e83d
000001c0: a842 28bc b017 303d 3dde 203d 8d11 e13d
000001d0: b5b7 c4bc 5743 893d 1b71 53bd d425 9cbd
000001e0: d713 803d 6c53 8c3d 9c28 91bd 5e15 b93d
000001f0: 3dc1 3cbd 71d8 ce3d 66b5 a63c d2ed 843d

model.model.8.weight f4 [7, 128]
-0.024859967 -0.0010128906 -0.021793809 0.023013048 0.02354329 -0.01965377 0.09914372 0.07305713
0.007784216 0.080941476 -0.02985875 0.024079025 -0.020139346 -0.018681437 0.009813875 0.08169774
0.102105446 -0.0072551207 -0.00016794354 0.091640264 0.04043392 0.08478909 -0.054488182 -0.009483465
0.035814203 0.086863734 -0.0068881586 0.121181704 0.09369437 0.010615035 -0.064235285 0.093085006
0.09417803 0.076663814 0.01992584 -0.017712817 0.01066309 0.021722684 -0.026401011 0.024892258
-0.017400805 -0.07206135 -0.0113561405 0.010159154 0.050888665 -0.020639108 0.0031714977 0.0025251308
-0.0018896802 0.085069776 -0.059125215 0.019372739 -0.028996382 0.016885042 0.026992762 -0.011553385
0.089584775 0.11700671 0.09820654 0.06698521 -0.007487393 -0.035133872 0.05337765 0.061398763
0.010260333 0.070583895 0.005640446 -0.060400717 -0.006740698 0.039055422 0.11423982 0.11691467
-0.048536003 -0.07945529 0.056214653 0.08795249 0.0372184 0.053295255 -0.06854854 0.038985174
0.059873246 -0.06772913 0.13918364 0.023060575 -0.0020674022 0.086678274 -0.039359752 0.08964708
0.10335262 -0.04772359 -0.06510009 -0.029032921 0.022600688 0.030477066 -0.00050996646 0.016879894
-0.053234022 -0.02045024 0.065259226 0.019282833 0.08817632 -0.0015022574 0.013933334 -0.014398692
-0.026273523 0.053835116 0.13955073 -0.001991147 0.043398775 0.024001762 0.040726226 0.10073946
0.036932226 0.026190167 0.009907226 -0.02649438 0.10250804 0.0209577 -0.079256356 0.058441453
0.07604717 -0.014973946 0.07126147 -0.012923449 0.013526018 0.06344204 -0.06505743 0.044276066
-0.063606046 -0.0697068 0.0997647 0.0783728 0.0070918277 0.06845643 0.122846685 0.00076184265
0.10574295 0.06398217 0.0026585732 0.01758157 0.12031228 0.062075984 0.086989805 -0.0077411737
-0.015447706 0.041735318 -0.011409044 0.11480746 0.062483978 0.058446642 -0.08378014 -0.0800851
0.101369694 0.07596048 0.010894133 0.09339881 0.13029727 0.09596229 0.07765924 0.009491822
-0.028880818 -0.05954068 -0.036276884 -0.076789685 0.061633397 0.0281564 -0.031311143 -0.08182908
-0.03310795 -0.033773463 0.08467344 0.072259985 0.01572117 -0.004645958 0.052054606 0.08276988
0.019666374 0.0007123105 -0.06855849 0.021100877 0.008788349 -0.02796634 0.033172835 -0.011115179
0.13477473 0.08920205 -0.011306454 0.03331084 -0.028598985 -0.054291945 -0.015229725 -0.022492997
0.105323955 0.05966225 0.06746039 -0.06736085 0.043071628 0.06467609 0.0043774447 0.044243358
0.03395102 0.034432285 0.07277592 0.026474178 -0.019139964 0.09901769 0.02833724 0.007458276
0.02135232 -0.06337824 0.03889666 -0.04699328 0.08588023 -0.078864984 0.018953256 0.10162185
-0.019989036 -0.04947762 0.07423314 0.09854876 0.023070732 0.10617939 0.0036365408 -0.011900978
-0.058177885 0.09221387 -0.010974591 0.08098415 0.12475593 0.062134188 -0.081485294 0.058672294
0.04763014 -0.030437963 0.14161023 0.04355376 -0.02195989 0.0721977 0.05413178 0.13427483
-0.02170203 -0.0623597 0.036408797 0.1183507 -0.008500144 -0.07550987 -0.07557442 0.008653894
-0.02813217 -0.06342808 -0.008623593 -0.013960368 -0.06174394 -0.009007202 -0.08625547 -0.028142294
00000000: 21a7 cbbc f8c2 84ba ee88 b2bc dc85 bc3c
00000010: dcdd c03c f100 a1bc dd0b cb3d fa9e 953d
00000020: bd12 ff3b a5c4 a53d 569a f4bc 6041 c53c
00000030: 45fb a4bc d009 99bc 60ca 203c 2551 a73d
00000040: a91c d13d 5dbc edbb 001a 30b9 e4ad bb3d
00000050: 0a9e 253d e7a5 ad3d 002f 5fbd 8960 1bbc
00000060: eab1 123d 9de5 b13d 10b6 e1bb 1d2e f83d
00000070: d5e2 bf3d afea 2d3c ca8d 83bd 5aa3 be3d
00000080: 69e0 c03d eb01 9d3d 843b a33c 781a 91bc
00000090: 3eb4 2e3c c5f3 b13c ef46 d8bc d9ea cb3c
000000a0: 228c 8ebc e794 93bd 1b0f 3abc 9572 263c
000000b0: a270 503d 5913 a9bc e7d8 4f3b aa7c 253b
000000c0: 25af f7ba 1039 ae3d 482d 72bd 94b3 9e3c
000000d0: d289 edbc 8052 8a3c ed1f dd3c 694a 3dbc
000000e0: 3978 b73d 37a1 ef3d 8320 c93d 8b2f 893d
000000f0: ce58 f5bb 89e8 0fbd 86a2 5a3d 457d 7b3d
00000100: f51a 283c 4a8e 903d 7ed3 b83b be66 77bd
00000110: 13e1 dcbb 94f8 1f3d 91f6 e93d f570 ef3d
00000120: b0cd 46bd 75b9 a2bd 5641 663d 6f20 b43d
00000130: 5272 183d 204c 5a3d 2d63 8cbd ebae 1f3d
00000140: a63d 753d 92b5 8abd 2886 0e3e 88e9 bc3c
00000150: 417d 07bb 6184 b13d b137 21bd e398 b73d
00000160: 8aaa d33d d079 43bd 3253 85bd 73d6 edbc
00000170: 1425 b93c 0aab f93c 45af 05ba b447 8a3c
00000180: eb0b 5abd 4387 a7bc a1a6 853d 08f7 9d3c
00000190: c995 b43d 65e7 c4ba a348 643c 7ee8 6bbc
000001a0: 923b d7bc 3682 5c3d 63e6 0e3e e77d 02bb
000001b0: eac2 313d 589f c43c 8bd0 263d 7d50 ce3d
000001c0: 3f46 173d c38c d63c eb51 223c be0a d9bc
000001d0: bcef d13d 7caf ab3c 2851 a2bd 4e60 6f3d
000001e0: 9ebe 9b3d 4855 75bc 89f1 913d e0bc 53bc
000001f0: 3b9c 5d3c e6ed 813d d43c 85bd d25a 353d
00000200: e343 82bd 70c2 8ebd 6f51 cc3d eb81 a03d
00000210: 9062 e83b e332 8c3d 0b97 fb3d 65b6 473a
00000220: c38f d83d 1509 833d 753b 2e3b 3a07 903c
00000230: 4966 f63d 6343 7e3d b627 b23d aca9 fdbb
00000240: 6018 7dbc a7f2 2a3d 00ed 3abc 2c20 eb3d
00000250: 33ef 7f3d bf65 6f3d ec94 abbd a803 a4bd
00000260: ea9a cf3d 2b91 9b3d 4e7d 323c e047 bf3d
00000270: a66c 053e e187 c43d cf0b 9f3d 9683 1b3c
00000280: 7797 ecbc eee0 73bd 1297 14bd e943 9dbd
00000290: 4d73 7c3d 40a8 e63c 1d40 00bd 0196 a7bd
000002a0: 349c 07bd 0b56 0abd 4569 ad3d 0bfd 933d
000002b0: afc9 803c 1f3d 98bb 3637 553d 4183 a93d
000002c0: 601b a13c 59ba 3a3a 6568 8cbd bfdb ac3c
000002d0: 02fd 0f3c aa19 e5bc 3de0 073d 711c 36bc
000002e0: 6302 0a3e 90af b63d b53e 39bc f370 083d
000002f0: 6b48 eabc 3b61 5ebd 1986 79bc 3c43 b8bc
00000300: 16b4 d73d 6760 743d ac28 8a3d 7cf4 89bd
00000310: e06b 303d e674 843d ab70 8f3b 8638 353d
00000320: 3a10 0b3d de08 0d3d 8b0b 953d 60e0 d83c
00000330: 6acb 9cbc c9c9 ca3d 8023 e83c 8e64 f43b
00000340: 10eb ae3c 73cc 81bd 1b52 1f3d 077c 40bd
00000350: f9e1 af3d f783 a1bd dc43 9b3c 1e1f d03d
00000360: 0cc0 a3bc 0ba9 4abd 8b07 983d efd3 c93d
00000370: d5fe bc3c 9474 d93d 0853 6e3b 52fc 42bc
00000380: ef4b 6ebd a0da bc3d c5ce 33bc 05db a53d
00000390: 0980 ff3d 6b80 7e3d c3e1 a6bd 5c52 703d
000003a0: d217 433d 0959 f9bc 4602 113e 6d65 323d
000003b0: 3ae5 b3bc 63dc 933d 49b9 5d3d 577f 093e
000003c0: 75c8 b1bc e36c 7fbd 6421 153d da61 f23d
000003d0: 3044 0bbc eba4 9abd c3c6 9abd 10c9 0d3c
000003e0: 7075 e6bc 95e6 81bd f849 0dbc 07ba 64bc
000003f0: 37e7 7cbd f292 13bc b5a6 b0bd ab8a e6bc

model.model.8.bias f4 [7]
0.114159755 0.11827624 0.15904593 0.008357005 0.13152713 0.082304664 0.032529794
00000000: 97cc e93d d03a f23d f0dc 223e d2eb 083c
00000010: 0caf 063e 598f a83d f63d 053d

model_old.model.0.weight f4 [32, 1, 4, 4]
0.23562825 -0.26464564 -0.20700298 -0.24099821 -0.15546265 0.09779742 0.16992812 -0.059273414
0.18605888 -0.0407855 -0.022135708 -0.0850916 0.265497 -0.013306056 -0.21846746 -0.11041908
-0.02558284 -0.1200145 -0.08700921 0.04582167 -0.049296938 0.048536345 0.14224109 -0.23592216
-0.20148595 -0.037061255 0.227169 -0.20916294 -0.10502052 0.15853414 0.060981926 -0.22282562
-0.068234734 0.04727117 -0.19099961 -0.18180878 0.16939121 -0.0691352 -0.12845467 0.06990247
0.17756848 -0.1141343 -0.054641742 -0.032153837 0.26470935 0.082746655 0.015203687 0.19129196
-0.13532098 -0.15573344 0.16656393 -0.020337466 0.11567089 -0.011237811 -0.32125986 0.19916268
0.010937075 0.21807769 -0.20321877 -0.16768453 -0.018787097 0.03971396 -0.117628425 0.14326824
0.050573118 0.10016066 0.15595725 0.18664958 -0.14269948 0.026911287 -0.0017281616 0.043264348
0.017268363 0.15482493 0.078226775 -0.12925473 -0.093621045 0.029873481 -0.0035444302 0.16704378
-0.04895522 -0.18473582 0.083577886 -0.17637372 0.011700451 0.10749981 0.28560412 -0.2219009
-0.1882663 0.06298696 -0.32231295 0.24185967 -0.054652 -0.067102335 -0.09065546 -0.16941987
-0.22536746 0.29373208 0.023405883 0.014294808 -0.25521192 0.09319573 0.009296205 -0.11712744
-0.027518759 0.07329526 -0.074053526 -0.059955306 -0.21517102 -0.20605125 -0.06979186 -0.09657097
0.063263215 -0.18550964 0.27804518 -0.1176137 -0.036836404 0.010182245 -0.04230086 0.15996602
-0.07879053 -0.13285409 0.121641524 -0.24202958 0.0558433 -0.04093039 -0.06971941 0.18407531
0.30154052 0.055752907 0.121140674 0.15026449 -0.082064845 -0.022559451 0.16560388 -0.261819
0.24739254 0.06167172 -0.2341985 -0.21088298 0.11150349 -0.080717765 -0.08983982 -0.17347398
0.021693436 -0.24695073 0.11423519 -0.20083226 -0.0632403 -0.0994108 0.22161505 0.1197433
-0.24795848 0.1676079 0.07627392 -0.17587346 -0.08652791 -0.13690776 0.16472845 0.11901701
0.028910412 -0.10557892 -0.24734306 0.17767121 -0.2665869 -0.100199975 0.17362058 0.14248638
-0.061954044 0.09412157 0.15210018 -0.0314415 0.26628938 -0.15605177 0.1269827 0.15931118
-0.010961051 0.10316846 0.11270536 -0.2025232 -0.23681365 0.10929465 0.10617394 0.1656395
-0.19889453 0.22363143 -0.044744827 0.22224289 0.10076684 -0.06812538 -0.0038452288 0.20477073
-0.18582918 0.107904196 -0.040711228 0.014848566 -0.26727247 0.015772792 0.20629762 -0.12429744
-0.16649657 -0.09729676 -0.060660902 -0.17736623 0.22210152 0.15245621 0.06094477 0.21358846
-0.00032405203 -0.03694934 -0.10085237 0.00016169943 0.10327175 0.1598721 -0.103755206 -0.10455444
-0.20809345 -0.104571156 0.2927321 -0.16274688 0.08820562 -0.19859976 -0.13771448 -0.12582476
0.12932515 0.08884976 0.05878448 0.10087387 0.19082057 0.1675876 -0.12917094 0.21325995
-0.16934434 -0.29032406 0.1300506 -0.22581252 -0.18468802 -0.1676046 -0.083221965 -0.20863503
-0.2468622 -0.0041112504 0.07511412 0.24703714 -0.18857104 0.1844021 0.032168787 -0.3129934
0.015408438 -0.20216732 0.2251173 -0.047584787 -0.019382803 -0.13637559 0.0092110215 -0.2064485
00000000: 8848 713e a27f 87be 97f8 53be 3cc8 76be
00000010: 9a31 1fbe 044a c83d a301 2e3e aec8 72bd
00000020: 3886 3e3e b20e 27bd f255 b5bc 8144 aebd
00000030: 39ef 873e a501 5abc efb5 5fbe 6623 e2bd
00000040: 1b93 d1bc 2aca f5bd e231 b2bd 81af 3b3d
00000050: 96eb 49bd 0cce 463d a6a7 113e 9495 71be
00000060: 5552 4ebe 8bcd 17bd fe9e 683e cf2e 56be
00000070: 0015 d7bd c656 223e 2fc8 793d 662c 64be
00000080: a7be 8bbd 6a9f 413d 6795 43be 152c 3abe
00000090: e474 2d3e c196 8dbd 9f89 03be 0729 8f3d
000000a0: 83d4 353e 3ebf e9bd 05d0 5fbd beb3 03bd
000000b0: fc87 873e 1477 a93d e318 793c 0ae2 433e
000000c0: 9591 0abe 9678 1fbe bc8f 2a3e c29a a6bc
000000d0: dce4 ec3d cc1e 38bc 2c7c a4be 4df1 4b3e
000000e0: 6b31 333c c24f 5f3e 9518 50be 7eb5 2bbe
000000f0: 66e7 99bc 1bab 223d 2ce7 f0bd e9b4 123e
00000100: c225 4f3d 0821 cd3d 42b3 1f3e 1121 3f3e
00000110: d01f 12be 0f75 dc3c 7b83 e2ba f535 313d
00000120: 6276 8d3c 6d8a 1e3e 5c35 a03d 5a5b 04be
00000130: 64bc bfbd 3bb9 f43c ac49 68bb 860d 2b3e
00000140: 4585 48bd 632b 3dbe e22a ab3d 509b 34be
00000150: 40b3 3f3c dc28 dc3d b43a 923e fd39 63be
00000160: e2c8 40be 4fff 803d 3406 a5be 10aa 773e
00000170: c7da 5fbd f36c 89bd 92a9 b9bd 677c 2dbe
00000180: bac6 66be 0d64 963e b2bd bf3c c534 6a3c
00000190: 23ab 82be 67dd be3d 1c4f 183c 83e0 efbd
000001a0: 056f e1bc d31b 963d 60a9 97bd b293 75bd
000001b0: cb55 5cbe 19ff 52be 09ef 8ebd 00c7 c5bd
000001c0: 2590 813d 3df6 3dbe f05b 8e3e 74df f0bd
000001d0: c5e1 16bd 6ed3 263c ab43 2dbd 22ce 233e
000001e0: ee5c a1bd e70a 08be 311f f93d 9ad6 77be
000001f0: f2bb 643d a0a6 27bd 0dc9 8ebd 3d7e 3c3e
00000200: 8563 9a3e 295d 643d 9a18 f83d efde 193e
00000210: 9d11 a8bd 99ce b8bc 1094 293e 240d 86be
00000220: 7854 7d3e 7c9b 7c3d bbd1 6fbe b5f1 57be
00000230: f15b e43d 5b4f a5bd f1fd b7bd 2aa3 31be
00000240: 6fb6 b13c a7e0 7cbe 24f4 e93d f9a6 4dbe
00000250: 2184 81bd e497 cbbd 0eef 623e fa3b f53d
00000260: d4e8 7dbe 68a1 2b3e 8035 9c3d 2c18 34be
00000270: 8b35 b1bd 8c31 0cbe 93ae 283e 31bf f33d
00000280: 87d5 ec3c c339 d8bd 8047 7dbe 71ef 353e
00000290: 147e 88be a535 cdbd 98c9 313e f3e7 113e
000002a0: 86c3 7dbd cfc2 c03d 26c0 1b3e cdc8 00bd
000002b0: 1557 883e 09cc 1fbe c107 023e 7822 233e
000002c0: fb95 33bc fc49 d33d 11d2 e63d 3e62 4fbe
000002d0: 477f 72be e0d5 df3d b971 d93d 679d 293e
000002e0: 02ab 4bbe a3ff 643e 5a46 37bd a493 633e
000002f0: d85e ce3d 5285 8bbd 3c00 7cbb 6baf 513e
00000300: 014a 3ebe e0fc dc3d d1c0 26bd 6647 733c
00000310: f0d7 88be f135 813c af3f 533e a88f febd
00000320: 147e 2abe 8643 c7bd 9177 78bd 7e9f 35be
00000330: 956e 633e 7b1d 1c3e 39a1 793d efb6 5a3e
00000340: 87e5 a9b9 3158 17bd b08b cebd dc8d 2939
00000350: 2480 d33d 83b5 233e 9c7d d4bd a320 d6bd
00000360: 7316 55be 6729 d6bd fbe0 953e 1ea7 26be
00000370: 26a5 b43d bc5d 4bbe 0605 0dbe 35d8 00be
00000380: d06d 043e ddf6 b53d ffc7 703d f696 ce3d
00000390: 7866 433e 159c 2b3e 6345 04be d160 5a3e
000003a0: 9a68 2dbe 5ba5 94be fc2b 053e 663b 67be
000003b0: db1e 3dbe 8aa0 2bbe 4770 aabd 6ca4 55be
000003c0: 72c9 7cbe abb7 86bb 6fd5 993d 4ef7 7c3e
000003d0: c418 41be e7d3 3c3e 6bc3 033d ac40 a0be
000003e0: ac73 7c3c f304 4fbe 2685 663e 44e8 42bd
000003f0: afc8 9ebc 0ba6 0bbe d3e9 163c 3c67 53be

model_old.model.0.bias f4 [32]
0.11450419 0.089024656 0.28352615 0.17935283 0.22270483 -0.11603211 -0.13511379 0.015518713
0.1372706 0.25510415 0.3092379 0.06360902 0.08072374 -0.060341258 -0.17447583 -0.074106
0.12074559 0.28374255 0.037956227 -0.2081004 0.22157702 -0.020550258 0.27552858 -0.17246978
0.15061037 0.11542075 0.19221042 0.11776864 0.27451634 0.021595338 -0.21686518 -0.18504113
00000000: 2c81 ea3d 8f52 b63d 572a 913e 45a8 373e
00000010: bc0c 643e 3ea2 edbd 455b 0abe 3342 7e3c
00000020: aa90 0c3e 039d 823e 6e54 9e3e 7245 823d
00000030: 7d52 a53d 6528 77bd cba9 32be e3c4 97bd
00000040: 7749 f73d b446 913e fd77 1b3d 4518 55be
00000050: 16e5 623e 0459 a8bc 1512 8d3e eb9b 30be
00000060: 9b39 1a3e b761 ec3d cfd2 443e af30 f13d
00000070: 688d 8c3e b5e8 b03c e811 5ebe 6c7b 3dbe

model_old.model.4.weight f4 [128, 384]
0.018362392 0.12861092 0.022109572 0.06045897 0.037983894 -0.016278813 0.052901905 0.018439332
-0.15195781 0.16762155 0.023739662 0.036684286 -0.04604249 0.0086635025 0.033952035 0.081319526
0.01666031 -0.07318161 0.030722594 0.066318244 0.021342147 0.08342355 -0.03264176 0.0338977
0.06862086 -0.009506118 -0.032987446 0.0035127322 -0.060663957 0.10433891 0.041996468 0.05859799
-0.015426048 0.11486574 0.042912308 0.025071487 0.044602007 0.01545276 -0.07290502 0.04116907
0.06178144 -0.02046758 0.029474355 -0.030040972 0.07888368 -0.03213283 -0.01855364 0.04181352
0.032086626 -0.02744021 -0.0067933425 0.012412689 -0.01650826 -0.012373992 0.044034667 0.011212506
-0.0077159833 -0.00041258385 -0.010061359 -0.04837748 0.22762434 0.10813382 0.17939515 0.010715076
0.14792837 0.0019713794 0.11427549 -0.03342425 0.10505796 0.0580976 0.12238572 0.12376861
0.086298704 0.064678274 0.10533648 0.116928644 0.022363193 -0.0027805693 0.09664451 0.07234649
0.048735186 0.03508726 0.014113574 0.023834504 -0.0071464838 0.02033527 0.012857803 -0.043959722
-0.009513865 0.012541828 0.006414376 -0.028704824 -0.01159168 0.025606038 -0.010256854 0.037214555
-0.07450951 0.01159976 0.021514967 0.036429998 -0.0414216 -0.11074226 -0.08207855 -0.0119515285
-0.09531486 0.0882894 -0.048549313 -0.01058397 0.006506842 0.10023179 0.02773645 -0.034583844
0.00053362973 0.07497887 0.03723045 0.031177936 -0.01307016 0.08032058 0.0638744 0.06371243
-0.008884432 0.003680158 0.037209436 -0.07165688 0.0398738 0.08603124 -0.028849613 -0.012055641
0.05726905 0.05406615 0.042210475 -0.0066261566 0.09699228 -0.046115685 -0.02000161 -0.0241807
-0.0459628 -0.06717069 0.0965403 -0.023254065 0.053112365 -0.032804593 0.04986242 0.08209223
0.02518294 -0.044591486 0.032595664 -0.0051940456 0.05663798 0.016304113 0.07215929 0.06720449
0.036856472 0.022207102 -0.017721849 0.057074275 0.15078308 0.022734921 -0.011033137 0.019297319
0.14028288 -0.062297065 0.10546825 0.0923857 -0.061359037 0.09536343 0.008755071 0.07806605
-0.082404666 -0.051845197 0.026793625 -0.017837273 -0.04648536 0.0063560256 -0.07176645 -0.09896885
-0.012216934 -0.03625523 0.047346797 -0.030883996 0.062329374 0.08815352 0.058835197 0.10412429
-0.039500557 0.063076325 0.0601069 0.08130105 0.0036603375 -0.0153814135 -0.05813283 -0.06745276
0.050886568 0.061892796 0.08098439 0.036510635 -0.0497018 -0.0031077948 0.042834736 -0.05976031
-0.02679117 0.09514616 0.043060295 0.0010384512 -0.005147169 0.2486654 0.11811545 0.009314868
0.17734621 0.07943644 0.04605982 0.048765983 0.07876266 0.12324541 0.009350153 -0.061331373
0.08831736 0.07061128 0.04692265 0.039925717 0.030349554 0.038263924 0.012707726 -0.027061531
-0.017855387 -0.058453895 -0.07153781 -0.011268823 -0.060891148 0.00036583847 -0.028036324 -0.09254377
0.10505384 -0.026798557 0.028066227 -0.08164552 0.011929747 0.049458362 0.016480947 -0.10055839
0.05965848 0.07053081 0.063169345 0.11423768 0.05020976 0.018196287 0.039368432 -0.04954018
-0.062371455 -0.047895852 -0.046297908 -0.026406959 0.11478357 0.13410082 -0.06715961 0.073059835
00000000: ba6c 963c 95b2 033e 221f b53c d3a3 773d
00000010: 0095 1b3d 255b 85bc abaf 583d 150e 973c
00000020: d49a 1bbe fca4 2b3e ae79 c23c 4342 163d
00000030: 0d97 3cbd 5df1 0d3c 4a11 0b3d da8a a63d
00000040: 347b 883c 3de0 95bd f3ad fb3c dcd1 873d
00000050: bad5 ae3c f7d9 aa3d 5eb3 05bd 51d8 0a3d
00000060: 1889 8c3d 8cbf 1bbc d81d 07bd de35 663b
00000070: c57a 78bd a3af d53d 7d04 2c3d 7204 703d
00000080: 89bd 7cbc bb3e eb3d d1c4 2f3d b862 cd3c
00000090: 98b0 363d 932d 7d3c 3a4f 95bd e6a0 283d
000000a0: 890e 7d3d a0ab a7bc 3474 f13c 7c18 f6bc
000000b0: c48d a13d b79d 03bd cefd 97bc a744 2b3d
000000c0: 446d 033d 4bca e0bc b09a debb 975e 4b3c
000000d0: 553c 87bc 49bc 4abc b25d 343d a9b4 373c
000000e0: 5cd6 fcbb 1150 d8b9 66d8 24bc 7727 46bd
000000f0: 5b16 693e 4475 dd3d 5db3 373e 498e 2f3c
00000100: 897a 173e 4232 013b 4509 ea3d dee7 08bd
00000110: a128 d73d c0f7 6d3d 5da5 fa3d 667a fd3d
00000120: 60bd b03d 0b76 843d a7ba d73d 4978 ef3d
00000130: 0433 b73c 363a 36bb 8fed c53d 662a 943d
00000140: 8c9e 473d a9b7 0f3d 9f3c 673c 9440 c33c
00000150: 0d2d eabb 2796 a63c 89a9 523c 1c0f 34bd
00000160: 0be0 1bbc 3d7c 4d3c b02f d23b 6126 ebbc
00000170: 08eb 3dbc c1c3 d13c 5d0c 28bc 4a6e 183d
00000180: 7198 98bd eb0c 3e3c 2840 b03c 9f37 153d
00000190: b2a9 29bd d7cc e2bd cc18 a8bd 58d0 43bc
000001a0: 7034 c3bd 13d1 b43d a5db 46bd 6368 2dbc
000001b0: 5937 d53b 5346 cd3d 8d37 e33c caa7 0dbd
000001c0: 49e3 0b3a 868e 993d f57e 183d df68 ff3c
000001d0: 3924 56bc 1e7f a43d 95d0 823d aa7b 823d
000001e0: 0290 11bc ce2e 713b ec68 183d d8c0 92bd
000001f0: b652 233d 2631 b03d 0656 ecbc 0685 45bc
00000200: f492 6a3d 7874 5d3d e4e4 2c3d 3b20 d9bb
00000210: e3a3 c63d cde3 3cbd 6bda a3bc 9a16 c6bc
00000220: 7d43 3cbd c990 89bd ecb6 c53d 4f7f bebc
00000230: 5a8c 593d 1c5e 06bd 893c 4c3d f91f a83d
00000240: 744c ce3c 90a5 36bd 0883 053d d032 aabb
00000250: 3afd 673d 3490 853c 40c8 933d 82a2 893d
00000260: d0f6 163d abeb b53c 692d 91bc b7c6 693d
00000270: e166 1a3e 963e ba3c 55c4 34bc 6915 9e3c
00000280: 51a6 0f3e 352b 7fbd bdff d73d b734 bd3d
00000290: 9d53 7bbd e74d c33d 6e71 0f3c 18e1 9f3d
000002a0: c7c3 a8bd a15b 54bd 4e7e db3c 791f 92bc
000002b0: 6f67 3ebd 3546 d03b 4afa 92bd 2eb0 cabd
000002c0: 8929 48bc 5d80 14bd b7ee 413d 6f00 fdbc
000002d0: 164d 7f3d d589 b43d 2dfd 703d 1e3f d53d
000002e0: 56cb 21bd 292e 813d a732 763d 2a81 a63d
000002f0: 46e2 6f3b 5302 7cbc b11c 6ebd ac24 8abd
00000300: 6f6e 503d 4d83 7d3d 25db a53d 2d8c 153d
00000310: 1d94 4bbd 25ac 4bbb 7a73 2f3d 3ac7 74bd
00000320: 2879 dbbc fddb c23d fe5f 303d a41c 883a
00000330: 95a9 a8bb 25a2 7e3e 83e6 f13d 639d 183c
00000340: 3f9a 353e 92af a23d 39a9 3c3d d7be 473d
00000350: 514e a13d 1768 fc3d 6231 193c 9b36 7bbd
00000360: bbdf b43d a69c 903d f731 403d 2689 233d
00000370: a19f f83c a2ba 1c3d 1134 503c 25b0 ddbc
00000380: 7645 92bc 5a6d 6fbd 6a82 92bd dfa0 38bc
00000390: ff68 79bd 02ce bf39 6fac e5bc 9787 bdbd
000003a0: 7826 d73d a688 dbbc 25eb e53c c435 a7bd
000003b0: fc74 433c da94 4a3d 0d03 873c 8ff1 cdbd
000003c0: 735c 743d 7572 903d ee5e 813d 72f5 e93d
000003d0: c0a8 4d3d 6110 953c cb40 213d a5ea 4abd
000003e0: 3679 7fbd 712e 44bd e0a2 3dbd 6853 d8bc
000003f0: a613 eb3d ba51 093e fa8a 89bd 65a0 953d

model_old.model.4.bias f4 [128]
0.038138986 0.034945134 0.09939452 0.0356586 0.015972957 -0.0048956503 0.077440396 0.02195914
0.06922635 0.061371896 0.053409476 0.026209626 -0.019724151 0.06948407 0.068605386 0.049605254
0.03897395 0.06892612 0.038232032 0.0046164403 0.015185652 0.02053625 0.08123934 -0.035805635
-0.0075537674 0.09180739 0.02253576 0.067947954 0.04299557 0.06583195 -0.016759234 -0.0056729107
0.040837612 -0.056780268 -0.029179966 0.015540924 0.0857963 0.00826265 0.043043386 0.07595424
0.0028878113 -0.04252546 0.0041543944 0.07989524 0.07339228 0.043636773 0.050373804 0.068016
0.026325585 0.10004822 0.04058174 0.05837234 0.010193114 0.027091304 0.073360465 0.01250971
0.05933168 0.034690708 0.05537839 0.049860574 0.03763499 0.00653247 0.03689682 0.0661847
0.0025490017 0.07705426 0.028059226 -0.014271335 0.067790195 -0.032215033 -0.061138574 0.060530193
0.07954476 0.031042121 0.085620336 -0.045486823 0.08488922 0.024071971 0.034401245 0.033860017
0.042540945 0.060222875 0.014956823 -0.025999356 0.0015075041 0.07505169 0.028799605 0.097546026
-0.011204371 0.009689076 0.0513298 0.00899746 -0.048360813 0.021203602 0.051280662 0.032289427
-0.008767633 0.0275867 0.015306525 -0.0063211024 0.07918037 0.05173601 0.084132105 0.06538753
0.00092296675 0.0486322 0.0009966452 0.05561248 0.09500571 -0.014347664 0.051317364 0.08608888
0.045160208 0.08021693 -0.030134683 -0.05642419 0.06953145 0.0077408277 0.0029262826 0.023104832
0.023965593 -0.027688894 0.060191512 0.013127251 0.0025909327 0.07686402 0.06599579 0.06681966
00000000: a037 1c3d a122 0f3d 5b8f cb3d c10e 123d
00000010: b8d9 823c b16b a0bb 1299 9e3d a8e3 b33c
00000020: 8bc6 8d3d 1961 7b3d e5c3 5a3d 92b5 d63c
00000030: 8b94 a1bc aa4d 8e3d fb80 8c3d e12e 4b3d
00000040: 26a3 1f3d 2329 8d3d 3199 1c3d 8245 973b
00000050: 3ecd 783c a33b a83c d060 a63d eea8 12bd
00000060: 9885 f7bb 8305 bc3d ea9c b83c 4c28 8b3d
00000070: 1f1c 303d e7d2 863d a94a 89bc d3e3 b9bb
00000080: 5745 273d 6d92 68bd d30a efbc 5c9f 7e3c
00000090: f8b5 af3d 1160 073c 434e 303d e68d 9b3d
000000a0: 6f41 3d3b 2d2f 2ebd 9621 883b 1ea0 a33d
000000b0: b14e 963d 79bc 323d c354 4e3d f94b 8b3d
000000c0: c1a8 d73c 15e6 cc3d 0a39 263d d617 6f3d
000000d0: 0501 273c 95ee dd3c 033e 963d 87f5 4c3c
000000e0: c705 733d d817 0e3d 73d4 623d 9a3a 4c3d
000000f0: 2627 1a3d 550e d63b 1f21 173d d88b 873d
00000100: 270d 273b a0ce 9d3d 76dc e53c 51d2 69bc
00000110: 96d5 8a3d e9f3 03bd 716c 7abd 82ee 773d
00000120: 5de8 a23d 0c4c fe3c b759 af3d 6450 3abd
00000130: 66da ad3d 9532 c53c 52e8 0c3d cdb0 0a3d
00000140: 6a3f 2e3d 43ac 763d 760d 753c 9afc d4bc
00000150: 7297 c53a b3b4 993d 26ed eb3c 36c6 c73d
00000160: 8a92 37bc eebe 1e3c 323f 523d 156a 133c
00000170: fd15 46bd 2db3 ad3c ac0b 523d eb41 043d
00000180: 1ea6 0fbc 81fd e13c 38c8 7a3c 4021 cfbb
00000190: 5129 a23d 23e9 533d 744d ac3d e6e9 853d
000001a0: 40f3 713a 8f32 473d dda1 823a e9c9 633d
000001b0: 5b92 c23d 7712 6bbc 2832 523d 5e4f b03d
000001c0: e9f9 383d c648 a43d 03dd f6bc 0d1d 67bd
000001d0: 8166 8e3d c5a6 fd3b e0c6 3f3b 5846 bd3c
000001e0: 7e53 c43c d2d3 e2bc 608b 763d ae13 573c
000001f0: a3cc 293b e26a 9d3d cd28 873d bfd8 883d
