project/paper_notebooks/saved_variables/paper_notebooks/7/6/6-looping-iteration-10/best_policy_agent1.pth (torch, 543093 bytes, 16 tensors)

model.model.0.weight f4 [32, 1, 4, 4]
000000 c1 13 1b be e7 e4 e8 bd 20 85 67 3e 42 d5 24 3c
       -0.15144254 -0.11371785 0.22609377 0.01006061
000010 a6 e7 7b 3d ae ce 53 3e 23 dc e5 3c 14 9c 36 be
       0.061500214 0.20684311 0.02805907 -0.17832977
000020 2e 7b 22 3e a4 f1 dc 3c dd 14 75 3e c8 8f 23 3d
       0.15867302 0.026970692 0.2393374 0.039932042
000030 6d 6b d3 3d e1 4f da 3c b2 ea ec 3d 62 bf 19 3e
       0.10323224 0.026649417 0.11568202 0.15014413
000040 90 fa 42 3d a2 96 07 3d 85 97 0b be 5f a3 9b bd
       0.047602236 0.03310264 -0.13632019 -0.0759952
000050 d1 f6 85 3d 66 98 ce 3d 0c 81 49 3e ad 5f 57 be
       0.06541217 0.100876614 0.19678134 -0.21032591
000060 ff bb 7c be 2b 0c 4b 3e 86 d8 6b be 40 52 a4 be
       -0.2468109 0.1982886 -0.23031816 -0.32094002
000070 c1 e7 c7 bb 90 be 91 bd 43 bf 68 3e 37 49 77 be
       -0.0061006253 -0.07116425 0.2272921 -0.24149023
000080 0e 5f ce 3d 78 61 b5 bd 01 0a 58 be 35 3b 2d 3d
       0.10076724 -0.08856481 -0.21097566 0.042292792
000090 34 fd 42 be f0 0b fa 3d 84 6c fb bc 19 44 9a be
       -0.19041902 0.12209308 -0.030691393 -0.3013008
0000a0 3d c5 8d bd 27 17 fc bc 0d de 6d 3e 5d 05 c3 3d
       -0.06922386 -0.030772759 0.23229237 0.09522507
0000b0 34 75 d2 bc c9 40 72 3e 04 82 b0 3d 6b bc 0c 3e
       -0.025690652 0.23657526 0.086185485 0.13743751
0000c0 2e 42 28 3d 4d 37 6b be 83 7e 12 be 2e 36 0a be
       0.04107874 -0.22970314 -0.14306073 -0.1349723
0000d0 66 68 12 be 9e 1a 54 3e 88 43 9d bd 49 04 a1 3d
       -0.14297637 0.20713279 -0.07678896 0.078621455
0000e0 64 54 4e 3e 6d 15 2f be d2 14 3d 3e 8f cc fd 3d
       0.2014938 -0.17098017 0.18464974 0.12392532
0000f0 c1 e3 48 be 25 4a 23 3e 8d f4 e3 bd df 71 7c 3e
       -0.19618131 0.15946253 -0.11130629 0.24652813
000100 e8 9e 87 bc 1e 77 b5 bd 36 b2 91 3e be 3e 0a be
       -0.016555265 -0.088606104 0.28456277 -0.13500497
000110 66 36 92 3e a3 6b 9a 3d f7 45 b9 3d 0f dd 01 3c
       0.28557128 0.07540061 0.09046548 0.00792624
000120 75 77 75 3e b4 d9 98 3d 5d 43 a8 bd 2b a1 95 be
       0.2397135 0.074633986 -0.082159735 -0.29224524
000130 fd c1 20 be 51 23 37 bd 9a 8b d2 bd 9a 61 14 be
       -0.15699 -0.044711415 -0.10280533 -0.14490357
000140 a5 96 64 3d 2a 0b 3f 3e a7 ba 74 be 9f 61 61 be
       0.05580773 0.18656603 -0.23899327 -0.22009896
000150 49 0a 2c bc e5 8f d4 3d bc 7d e1 bb 12 08 7a be
       -0.010500499 0.10379008 -0.006881444 -0.24417141
000160 5c 3f 92 3e ca 76 3c 3e 02 2c ef bc 7f bd 79 3d
       0.28563964 0.1840469 -0.02919579 0.060971733
000170 14 ba 8c 3d 58 27 41 be 2a 5a 3e 3e 22 5d 28 3e
       0.06871429 -0.18862665 0.18589082 0.16441777
000180 c8 bf 0b be 4e 73 80 3d e8 09 6f be 14 57 1a 3e
       -0.13647377 0.062719926 -0.23343623 0.1507228
000190 9b f3 4c bd 26 25 d7 3d 19 f7 75 bc cc bb c8 3d
       -0.050037008 0.105051324 -0.015012526 0.098014444
0001a0 f2 58 06 3e 32 82 24 3e 54 a8 42 3e 67 aa 63 bd
       0.13119867 0.1606529 0.19009525 -0.05558243
0001b0 d7 8d aa bd 39 c2 8d bb 4b d6 69 3e 3c e2 02 be
       -0.08327835 -0.0043261317 0.22835653 -0.12781614
0001c0 a0 c9 4a 3e a8 32 6d be 35 3d 70 3e 48 ee 3c be
       0.19803476 -0.23163855 0.23460849 -0.18450272
0001d0 34 e2 25 3e 16 c3 57 be 57 91 83 bd 55 d9 19 3e
       0.16199571 -0.21070513 -0.06424206 0.15024312
0001e0 42 60 92 3e dc a2 83 3d d6 d8 2d bb 5d 2d 75 3e
       0.28589064 0.06427547 -0.002652695 0.23943086
0001f0 ef 8b 58 3e 40 c6 b4 bd ff 6d e3 bd 3c 4d 2e be
       0.2114713 -0.08826876 -0.111049645 -0.1702165
000200 82 bf 3f be 42 3e ba 3d 64 83 b2 bd f7 9d f3 3d
       -0.18725398 0.09093906 -0.08716467 0.11895364
000210 7c 44 8b be 20 8c 4e 3e 87 6f 6d 3e b7 78 80 be
       -0.27200687 0.20170641 0.23187076 -0.25092098
000220 32 6c 69 be 72 ea b6 3c cd 20 26 3e eb ef dc bd
       -0.2279518 0.02232859 0.1622345 -0.10787948
000230 0a 5f 3d 3e 21 88 b5 3d b6 46 4f 3e 64 bf a8 bd
       0.18493286 0.08863855 0.20241818 -0.0823963
000240 0c cb 73 bd 11 21 06 3e 56 ab 5a 3e 5f b8 c9 bc
       -0.059519812 0.13098551 0.21354422 -0.024624048
000250 13 aa 8c be c4 98 c7 bc c0 b6 f6 bd bd 8f 99 bc
       -0.27473506 -0.024364837 -0.120465755 -0.018745298
000260 a0 ce 83 3d df fe 00 be ee 86 4a 3e ad 31 30 be
       0.06435895 -0.12597226 0.19778034 -0.1720645
000270 d5 24 6c 3e fb 10 c6 bd 37 dc 41 3d 20 5f 8d bd
       0.23060925 -0.096712075 0.047329154 -0.06902909
000280 79 71 8b 3d 7c c9 e7 3d 7d d3 84 be 00 cc c0 3d
       0.068087526 0.11317727 -0.25942603 0.0941391
000290 54 68 73 3e 72 08 64 be 5c a8 91 be da 4e 13 be
       0.23770267 -0.22268847 -0.2844876 -0.14385548
0002a0 bb c2 3f 3e e8 89 96 3d fc 58 89 be d6 06 cb bd
       0.18726628 0.07350522 -0.26825702 -0.09913413
0002b0 90 ea f5 3c a7 a9 41 bd da 77 e3 3d d3 ad 58 3e
       0.030019075 -0.047280934 0.11106844 0.21160059
0002c0 ef 43 8f bd 52 5d 05 3d 92 ba 4b 3e 94 24 3b bd
       -0.06995379 0.0325597 0.1989539 -0.04568918
0002d0 ce d1 95 bd 42 70 47 3e 79 2a 73 3e 9b 2c a3 bd
       -0.07315408 0.19476417 0.23746671 -0.07967492
0002e0 9b 30 ca 3d 80 02 6e 3e 55 ec 29 3e 93 12 2b 3d
       0.09872552 0.23243141 0.1659406 0.04176576
0002f0 af 01 04 3d af 51 68 be de 3b 39 be 9d 95 f7 3d
       0.032228168 -0.2268741 -0.18089244 0.12089083
000300 10 31 c1 3d 91 d1 09 be 1e 1f 77 bd 5a b1 c7 bc
       0.09433186 -0.1345885 -0.06033241 -0.02437656
000310 0c 46 8d bd 44 b1 39 be 81 d0 70 be e3 23 d9 bc
       -0.06898126 -0.18134028 -0.23517038 -0.02650637
000320 21 94 b1 bd 4c 5b 44 be 48 7c 4b 3e 6c 17 0e be
       -0.086708315 -0.19175452 0.19871628 -0.13876122
000330 96 53 38 be eb 77 40 3d 94 ba 19 be 2b e1 e0 bc
       -0.18000636 0.046989363 -0.1501258 -0.027451118
000340 a4 c4 9a bd 90 9b 1f bc f1 b9 99 be 4b f3 30 be
       -0.075570375 -0.009741679 -0.30024675 -0.17280309
000350 50 b7 05 3e c8 5f 55 3e 95 24 30 be 5e 57 fd 3d
       0.1305821 0.20837319 -0.17201455 0.123701796
000360 88 cf c5 bd 40 d8 86 be 2e 0f 72 3e 7c 48 29 be
       -0.09658724 -0.2633686 0.23638603 -0.16531557
000370 35 e1 48 3e f0 54 58 3c 40 1f 4b be c6 85 80 3d
       0.1961716 0.013203844 -0.1983614 0.06275515
000380 31 a5 fa 3d 9a 30 d4 3d 3f 1b 93 3d b1 81 7f bc
       0.12238539 0.103608325 0.07182931 -0.015594886
000390 08 06 1e 3d 1f 6d c2 3d 4f bf 21 3d d1 71 86 be
       0.03857997 0.094934694 0.039489087 -0.2625871
0003a0 ad fd 70 be 35 d6 eb 3d 04 55 2a be b0 ff 23 be
       -0.2353427 0.11515466 -0.16633993 -0.16015506
0003b0 9c a9 97 3e bd 9c 3b 3c ee 07 63 3e 0a 68 40 be
       0.2962159 0.011450944 0.22170994 -0.18789688
0003c0 4d f5 0b bc e5 47 c5 3d 78 06 c9 bc 26 08 7f bd
       -0.008542371 0.096328534 -0.024539217 -0.06226363
0003d0 96 74 21 3d 6f 63 0b bd 53 5a 8a be c3 4f 01 3e
       0.039417826 -0.034030374 -0.27022037 0.12628083
0003e0 08 b6 52 be 68 f1 ab 3d cc b1 86 3c 76 0a 09 be
       -0.20577252 0.08395654 0.016442202 -0.13382897
0003f0 83 fc 3f be 53 fb 32 3e 5f 49 a3 bd 5d 61 54 3e
       -0.1874867 0.17478685 -0.07972979 0.20740266

model.model.0.bias f4 [32]
000000 d2 55 50 3c 1c ec 19 be 50 da 39 be ea 7c 9c bd
       0.012715774 -0.15031475 -0.18149686 -0.07641013
000010 4a 58 11 be 2c 57 50 be db b9 2e 3c bc 54 ba 3d
       -0.14193836 -0.20345753 0.010664429 0.09098193
000020 cb 3e 78 3d 0f c4 20 3e 84 4a 74 ba 53 88 31 be
       0.06060676 0.1569979 -0.0009318965 -0.1733716
000030 b7 34 a4 3d 02 a7 90 3d f7 e2 17 3e a3 c1 48 3e
       0.08017867 0.07063104 0.14832674 0.19605117
000040 58 9f 69 3e e4 72 b3 3d 1b 09 8c bd 01 c5 9a bc
       0.22814691 0.08762148 -0.06837674 -0.018892767
000050 a8 e8 74 3e 9e 9c 4c 3e 93 19 10 3e 1f ab a5 3e
       0.23916876 0.1998162 0.14072256 0.32357118
000060 fd fa 1d 3e ea 83 9c 3d 07 15 a5 3d d3 bf 8c 3e
       0.15427776 0.07642348 0.08060651 0.274901
000070 33 5c 31 3e 24 a8 44 be 00 df 3e 3e 38 53 19 be
       0.17320327 -0.19204766 0.18639755 -0.14973152

model.model.4.weight f4 [128, 384]
000000 8e 68 cb bc 58 3a 30 bd de 31 2a bc a0 ad 5a 3d
       -0.024830129 -0.04302439 -0.010387866 0.053388238
000010 03 9a 3e 3d 1d 9f 66 3d ee 44 a8 3c a0 a6 e3 3c
       0.046533596 0.056304086 0.02054068 0.027789414
000020 84 07 00 3d e2 e8 b3 3c 5f 4b 1d bd 9b 0b 13 bd
       0.031257167 0.021961633 -0.038401958 -0.03589974
000030 39 be 32 3d aa 1a 04 3e 7a 83 df 3c 9a 7c 95 3d
       0.04363844 0.12900797 0.027284373 0.072991565
000040 27 a5 5a 3c 03 2b 97 3c 1a 42 5c 3c 9b a3 1f bc
       0.013345039 0.018453127 0.013443494 -0.009743596
000050 b3 0f cf 3d d3 81 58 bc 7c 1f 44 bc a1 ac ce 3d
       0.10110416 -0.013214546 -0.011970397 0.1009152
000060 0c 1f ce 3d 76 26 cb 3d 0b 2d 5e 3d 2e 2d 4c 3d
       0.100645155 0.09919445 0.054242175 0.049847774
000070 ef 56 55 3d 16 26 66 3d e1 c6 02 3d 8a e6 50 3d
       0.05208486 0.056188665 0.031927947 0.05100111
000080 e4 4f 1f 3d fb b2 38 3d e4 db 2c bd e1 bb c2 bc
       0.03889455 0.045092564 -0.04220189 -0.023771228
000090 24 d3 9a 3c 3d fe db 3c 72 94 04 3d ad b6 77 bb
       0.018899508 0.026854629 0.03236813 -0.0037798092
0000a0 20 56 f5 3c d5 e3 ca 3c 7b f5 bb 3d 40 68 a8 3d
       0.029948294 0.024766842 0.09177681 0.08223009
0000b0 8c c0 ba 3d 51 74 31 bd 1b b9 8c 3d 9b 73 8d bb
       0.09118757 -0.04332382 0.068712436 -0.0043167598
0000c0 8a f1 55 bd cf c9 c3 bd 2d 0f d1 bc a8 6e c6 3c
       -0.052232303 -0.09559976 -0.025519932 0.024222687
0000d0 5b 58 e6 3c 6b 15 07 3c 98 71 2f bd 20 16 59 3c
       0.028118303 0.008244853 -0.04283294 0.013249904
0000e0 33 b4 b9 3c aa 71 f0 3c 2d b2 64 3d 74 70 87 3d
       0.022668933 0.029351074 0.055833984 0.066132456
0000f0 f3 8e a3 bd 55 8e 7c 3c d6 f0 1e bd 56 99 84 bd
       -0.0798625 0.015414794 -0.038803898 -0.06474559
000100 f3 07 d2 bc b5 ce ed 3d 03 79 7a 3d e4 66 1c 3d
       -0.025638556 0.11611692 0.061150562 0.03818406
000110 80 1d a6 3d cc dc c4 3d dc ea 3c 3d 41 e2 0c 3d
       0.081110954 0.09612426 0.046122417 0.03439546
000120 27 88 a7 bd 26 31 17 bb d3 7d 80 bd b7 5a 04 3d
       -0.08180266 -0.0023070066 -0.06273999 0.032313075
000130 cd f0 d5 3c 9a b1 ff bc cb cb 98 bc 2a 70 9b bb
       0.0261158 -0.031212617 -0.018651864 -0.0047435956
000140 91 ca 88 3d 15 fe 0b 3c b5 ba 80 3d 3e 7f 61 3d
       0.066792615 0.008544465 0.062856115 0.05505299
000150 03 23 db bc fa 95 08 bb 77 83 bf 3a 3c aa 0f bd
       -0.026750093 -0.0020841346 0.0014611323 -0.035074458
000160 d0 ec 58 bd 4a 0e d5 ba a0 d5 64 3d 2a 8b a2 bc
       -0.052960217 -0.0016254869 0.05586779 -0.01984175
000170 01 c2 9b 3b cb c3 81 3d 85 d4 bf 3d 31 98 31 3d
       0.0047533517 0.06336173 0.09366707 0.04335803
000180 fc 7e 3f 3c ee 8d 3d 3d 50 ec 6e 3d 78 e1 61 3d
       0.01168799 0.046277933 0.058330834 0.055146664
000190 c2 1b 3e bc 2c d8 5a bb 07 73 a7 3d 9f 55 a5 3b
       -0.011603298 -0.0033393009 0.081762366 0.005045607
0001a0 ef 34 e3 3c 20 8f ff 3c f6 c2 12 bd 97 b8 3a 3d
       0.027735202 0.031196177 -0.03583046 0.045586195
0001b0 59 25 e1 3c 84 9d a7 bc d4 fd b8 3a ab 8b 00 3d
       0.027483629 -0.020460851 0.0014113733 0.031383198
0001c0 80 26 17 3d 57 3d 5c 3d c4 70 19 bd 0b bb 19 3d
       0.03690195 0.053769436 -0.037461057 0.037531894
0001d0 37 16 10 3c 58 85 3a bd 07 c3 c0 bc 56 df 51 bd
       0.008794359 -0.045537323 -0.023530496 -0.05123838
0001e0 fb 9d 12 bd 15 77 ab 3c 12 5f a7 bc 3b ab a5 bc
       -0.035795193 0.020930806 -0.020431075 -0.02022325
0001f0 7f d0 31 bc 85 e2 a3 3d 2f d0 77 3d 66 45 b6 3c
       -0.010852932 0.080021895 0.060501274 0.022249889
000200 32 19 c8 3d b5 6a 9f 3c c9 63 d6 bc 05 b0 46 3d
       0.097704306 0.019460062 -0.026170628 0.04850771
000210 c4 8e 33 bd 4e e9 2e bd 43 97 1b bd 30 21 99 3c
       -0.043837324 -0.042702965 -0.03798605 0.018692583
000220 ad 8c ec 3b 8a b0 ab 3c 4f 10 12 bd 2e e1 56 bd
       0.0072189183 0.020958204 -0.035660084 -0.05246084
000230 af db 85 bb dc bb 55 bd 87 1b 19 bc 38 e0 b6 3c
       -0.004085026 -0.05218111 -0.009344942 0.022323713
000240 e5 e0 fe 3d eb 10 c8 ba 8c a9 54 3e f5 f6 dc 3d
       0.12445239 -0.0015263831 0.20767802 0.10789291
000250 97 fd 0d 3e 1d 7b 1d bd c4 a4 07 3e b1 eb fa 3d
       0.13866268 -0.038447488 0.13246447 0.12251986
000260 b3 83 cd bc 5b 27 c0 bc 8d 88 04 3e 95 66 df 3c
       -0.025087213 -0.023456266 0.12942715 0.027270595
000270 56 bf ec 3c f9 38 1b 3e c7 86 97 3d fd fd 7b 3d
       0.02889983 0.15158452 0.073987536 0.06152152
000280 77 43 e8 bb 9f 96 15 3e f6 43 89 3b 87 a6 53 3c
       -0.0070881206 0.14608239 0.00418901 0.012918121
000290 47 28 00 3e e3 85 37 3e 6c a1 13 3e f1 37 1b 3e
       0.12515365 0.17922167 0.14417046 0.15158059
0002a0 64 66 58 3c 4f 8d 94 3c ad 32 9e bc 22 7b 91 3d
       0.013208006 0.018133787 -0.019311273 0.07103564
0002b0 ab d0 80 3b 35 7d fe 3c e6 86 95 3c b3 df 43 3d
       0.003931125 0.031065563 0.018252801 0.047820758
0002c0 f8 35 4f 3d 62 a8 dd 3c 97 11 20 3d d4 e5 cc bc
       0.050588578 0.02705783 0.039079275 -0.025011934
0002d0 a9 d3 da 3d 9c 62 7e 3d 27 ed 7d bb be 50 7d 3d
       0.10684902 0.06210576 -0.003874609 0.06184458
0002e0 b4 c2 11 3d 44 de 9d 3b ae 2c d4 3d f6 b7 03 3c
       0.035586074 0.004817756 0.103600845 0.008039465
0002f0 9c e5 8a 3d df c3 fe 3c 5d 91 03 3d da cd 3d 3d
       0.06782076 0.031099258 0.03212105 0.046338893
000300 25 25 bd 3d 48 4c 25 3d c9 0a a6 3d 2a 0e 94 3c
       0.092356004 0.04035595 0.08107526 0.01807316
000310 2b 1f 8c 3c b2 7f bf bd 94 70 9b 3d ec 7a 8d 3d
       0.017104706 -0.09350528 0.07589832 0.06908211
000320 75 d9 8c ba ac ad 71 bd cd f9 e9 3d b8 40 8e 3d
       -0.001074596 -0.059003517 0.11424599 0.06945938
000330 5a d8 51 3d 3a cd 8c bb 12 da 16 3c 0d 2c 30 3d
       0.05123172 -0.004296926 0.009207265 0.04301076
000340 e9 f1 71 3c 6e c9 2f 3d 69 8b 3e bd 55 4f d3 3b
       0.0147671485 0.042916708 -0.04651967 0.006448666
000350 7b ef 3f 3c 0b f3 e1 3c 6b a2 a2 3d d7 09 be 3d
       0.011714811 0.027581712 0.07941135 0.092792206
000360 04 00 b4 3d d0 0c af 3d ee 29 d7 3d 61 74 f3 3d
       0.087890655 0.08547366 0.10506044 0.11887432
000370 3c de 15 3e f1 fa af 3d ec 6d 0d 3d bd 14 c0 bb
       0.14635557 0.08592785 0.034528658 -0.005861847
000380 49 25 8e 3d 3d 35 4b 3d 64 10 18 3e 68 ee c9 3d
       0.06940705 0.04961132 0.14850003 0.098599255
000390 b9 be 39 bc 7d e3 bb 3c 15 19 0c 3e 1a 7a b7 3d
       -0.011336976 0.022935623 0.13681443 0.08958836
0003a0 ae 09 85 3c b0 70 ce bc 19 9d 36 3c c6 2e a9 3d
       0.016239967 -0.025200218 0.011145853 0.082608745
0003b0 6e 6b 79 bc 40 fb a1 3d 77 5f 21 bd b1 eb b4 3b
       -0.015223367 0.0790925 -0.039397683 0.0055212607
0003c0 0b c5 87 bc 1c 56 3c 3b 4a 65 e0 3b 0d e9 05 3d
       -0.01657345 0.0028737849 0.006848012 0.032692958
0003d0 1d bb 07 3d 93 72 2f 3d fc 1f 88 bc c1 75 08 bd
       0.03313743 0.042833876 -0.016616814 -0.033315424
0003e0 a5 fe ca bb cb a6 f0 bc 67 b6 e8 3c 9b fd 06 bd
       -0.006194907 -0.029376408 0.028407289 -0.0329567
0003f0 fa d0 8c 3d 15 6f 90 3d 60 41 df bc 4b 7f 0d 3d
       0.068757966 0.07052437 -0.027252853 0.034545224

model.model.4.bias f4 [128]
000000 4b be 3e 3d e3 7c 74 3c b5 bd 87 bb 8f 6d 4a 3d
       0.046568196 0.014922353 -0.004142488 0.04942089
000010 0c 88 09 3d 95 a5 09 bd 7e f3 57 3d fb 0b 0b bd
       0.03357701 -0.033605177 0.052722447 -0.033946972
000020 fc c3 24 3a a8 a0 46 bc 82 4d 70 bc 2d ce 71 3d
       0.00062853075 -0.012123264 -0.014666917 0.059034515
000030 af de 44 3d b6 c8 6e bd af e7 43 bc 1d 05 68 bd
       0.04806393 -0.05829688 -0.011957093 -0.0566455
000040 ee c7 86 3b 76 7a 42 bd 9a 8c 11 3d 1d 31 a9 3d
       0.004113189 -0.04748007 0.03553448 0.08261321
000050 34 38 91 3c 92 ad 27 3d 99 8b 0e 3a c9 06 90 3d
       0.017726995 0.040937014 0.0005437672 0.07032544
000060 a4 e9 0e 3d 80 63 06 bd e3 3f 20 bd 3e 91 ce 3b
       0.034890786 -0.032809734 -0.039123427 0.0063039353
000070 d4 62 c1 3c ee 2b ca bb 35 98 cb ba 9e 93 40 bd
       0.023606695 -0.0061697876 -0.0015533032 -0.04701578
000080 1c dc 31 3d f9 13 81 3d 1c f1 16 3d 4f c0 54 bb
       0.043422803 0.063026376 0.036851034 -0.0032463258
000090 c3 89 2f bd 0a 8b 38 bd 7a 95 09 3d 63 cc 88 3d
       -0.04285599 -0.045054473 0.033589818 0.06679609
0000a0 64 64 1f bd 0d 09 58 3c 44 e9 d1 bc d6 80 45 3c
       -0.0389141 0.013185752 -0.025623925 0.012054643
0000b0 4a ce 13 bd 85 b9 6f bc 4f 33 55 bd 1f 56 1c bc
       -0.036085404 -0.014631634 -0.052050885 -0.009542017
0000c0 40 7a 57 3c f1 b9 f9 bc 77 ad aa 3c 4a 60 e7 3c
       0.013151705 -0.030484172 0.020834668 0.028244156
0000d0 37 f2 1a bc 2a 77 06 3d a0 3d 78 bc e8 a4 89 3a
       -0.009457163 0.032828487 -0.015151411 0.0010501416
0000e0 1e 9c f6 bc 98 19 00 bd cc 10 98 3d 4a 4f df 3c
       -0.03010374 -0.031274408 0.07425079 0.027259488
0000f0 b4 19 2b bc 33 69 8b 3c 09 3f 44 3d 77 a9 0f bd
       -0.01044314 0.017017936 0.047911678 -0.035073724
000100 20 49 d0 3c ce df 6f 3d 8d 9a 22 bc 8d b5 e1 3c
       0.025425494 0.058563046 -0.009924543 0.02755239
000110 c4 a2 05 3d 79 33 9c 3c 75 94 80 3d bf 9f 16 3d
       0.03262593 0.019067513 0.06278316 0.03677344
000120 1f 19 3a 3d e6 05 36 3d d6 df 9a 3c 11 f0 13 3d
       0.045434114 0.04443922 0.018905561 0.036117617
000130 fe 12 99 bc 11 dd 60 3d 23 69 6f 3d 3c a2 d6 3b
       -0.018685814 0.054898325 0.058449876 0.0065501016
000140 4d 1c 81 3d 61 fb da 3c a2 ca 05 bc 73 5a cb bc
       0.06304226 0.026731195 -0.008165987 -0.024823403
000150 fd 43 57 bd 0d b5 f8 3c 89 37 48 bd e8 36 e0 3c
       -0.052555073 0.03035977 -0.048881087 0.027369931
000160 04 ac 95 3c b3 ed 1e bd 9d a6 0a 3d 96 85 84 bc
       0.0182705 -0.038800906 0.0338503 -0.01617698
000170 87 85 49 3d cc 50 2d bc 26 5a 96 3c c3 33 9f 3c
       0.049199607 -0.0105783455 0.018353533 0.019433862
000180 fd b3 87 3d 26 99 01 3d 0d d6 1f 3d 96 77 4c 3c
       0.06626127 0.031640194 0.039022494 0.012479683
000190 7c 3f 24 3d d8 ff fb 3c da 8a 61 bc 85 93 7f 3d
       0.040099606 0.030761644 -0.013766015 0.062396545
0001a0 9f 09 10 bd 1b c3 04 bb c4 f1 82 3d 75 f6 2a 3d
       -0.035165425 -0.0020257893 0.063937694 0.041738946
0001b0 5d 6d 3d bd 9c 1f 3a bd 94 15 80 3d 38 c0 11 bd
       -0.046246875 -0.0454403 0.06254116 -0.035583705
0001c0 0d 49 12 bc 17 f9 00 3b fb 4d db 3a 87 63 4b 3d
       -0.0089285495 0.001967972 0.0016731614 0.049655464
0001d0 d8 6e 77 3d 38 79 89 bd 83 58 05 3d 40 7f e0 bb
       0.060408443 -0.06712574 0.032555114 -0.006851107
0001e0 3e 41 fb 3b c9 77 4e 3d 4a de e2 bc e8 eb 32 bc
       0.0076676896 0.050407205 -0.027693886 -0.010920502
0001f0 a2 24 e2 bc b5 26 4e bd f7 98 9b bc 3e e6 11 3d
       -0.027605359 -0.050329883 -0.018993838 0.035619967

model.model.6.weight f4 [128, 128]
000000 e7 c8 9a bd 18 22 ce 3c a0 bc b4 bd 90 25 37 bc
       -0.0755785 0.025162742 -0.0882504 -0.011178389
000010 ad 95 93 3d b6 3b b0 bd 92 0a 92 3d d0 d9 b8 bd
       0.07206283 -0.08605139 0.071309224 -0.090259194
000020 de 9c 4b 3d d9 c7 2a 3d 99 a7 fb bc 14 4e 07 3a
       0.049710147 0.041694496 -0.030719565 0.0005161476
000030 9c 73 b9 3b 98 8b d4 3c ba b7 b0 3d b3 82 98 3d
       0.0056595337 0.02594547 0.08628793 0.07446804
000040 24 32 9d bd 58 6a 21 bc 80 fb 0b 3d 29 ca 2c bd
       -0.07675579 -0.0098520145 0.034175396 -0.042184982
000050 5a d6 29 3d 79 63 83 bd 53 05 15 bd a7 ec a5 3d
       0.041464187 -0.06415457 -0.03638203 0.081017785
000060 0c 9b 88 bc 19 d0 a6 3d e0 84 6b bd 0e e8 95 3d
       -0.016675495 0.0814516 -0.057499766 0.073196515
000070 42 a4 db bc e4 38 90 bc 95 96 fa 3c d3 5d 86 3d
       -0.026811723 -0.017605253 0.030589381 0.06560864
000080 0b 3f 65 bc a7 df b5 bb b8 f7 95 bd 3a 32 40 3d
       -0.013992081 -0.005550343 -0.07322639 0.0469229
000090 89 4a b1 3d 31 ab c6 bc 2c 79 ae 3d 94 fc 77 bc
       0.086567946 -0.024251552 0.085192055 -0.015135903
0000a0 23 a4 91 bd 6b a6 ff bc 0e bf c6 bc cc 3e 42 3d
       -0.07111385 -0.031207284 -0.024261024 0.04742317
0000b0 1e d9 c8 3a f5 61 e1 bc b6 6a 69 bd 72 db a2 bd
       0.0015323495 -0.02751253 -0.056986533 -0.07952012
0000c0 a7 2f 74 bd 21 6d b4 bd 41 c4 d2 3b 58 99 0a 3c
       -0.059615757 -0.08809877 0.0064320867 0.008459412
0000d0 43 1d a0 3d 4a 94 86 bd 00 b3 69 bd cb 06 98 bd
       0.07818081 -0.06571253 -0.057055473 -0.07423171
0000e0 60 24 36 3b 77 88 8c bd 07 22 d8 bb 4a b0 63 bd
       0.0027792677 -0.06861966 -0.0065958533 -0.055588044
0000f0 81 e3 23 bd 36 c9 85 bd ad 2b 99 3d 83 72 5f 3c
       -0.040011887 -0.065325186 0.074790336 0.013638142
000100 cd cd 08 bd 30 8f 1d 3d f8 56 96 bd 9c 40 f4 bc
       -0.033399392 0.038466632 -0.07340807 -0.029815964
000110 02 0f 4a 3d fa 46 09 3d 76 95 af bc 7d e5 6c 3d
       0.04933072 0.033514954 -0.021433573 0.057836045
000120 f4 31 b7 bd 7d 4b 2a 3d 6a 46 87 bb df 53 90 3b
       -0.08945075 0.041575897 -0.004128267 0.0044045295
000130 7a d1 89 bc 2b cf 80 bd 47 af 13 bd 1f 1c 1d 3d
       -0.016823519 -0.06289514 -0.03605583 0.038356896
000140 06 4c b1 3c d4 52 7f bd 3f d0 7c bd 28 82 97 3d
       0.021642696 -0.06233485 -0.061722036 0.07397872
000150 90 63 62 3c d5 f8 fb 3c 86 de 7b 3d da 8b 8f 3d
       0.013817683 0.0307583 0.06149151 0.070090964
000160 b7 e7 87 3d 54 05 6b bd f7 da 12 3d a3 6c aa 3d
       0.06635993 -0.05737813 0.035853352 0.08321502
000170 e7 7a 50 3c f3 d7 20 bd 87 4f d2 3c ac 02 32 3d
       0.012724615 -0.039268445 0.025672687 0.04345958
000180 f3 a2 18 3d 64 82 a2 bc 95 b3 8b 3d 7b df 45 bd
       0.037264775 -0.019837566 0.06821362 -0.04830883
000190 2d f4 86 bd 50 16 21 bd 2f cc 88 3d 8e 15 97 bd
       -0.065895416 -0.03932792 0.0667957 -0.07377158
0001a0 f5 c4 ac 3d ea d4 ff bc cf d4 85 3d f2 e1 39 3c
       0.08436004 -0.031229455 0.06534731 0.0113453735
0001b0 23 d3 9c bd 16 84 9f bd 60 4f 8a bc 0e ed 90 3c
       -0.07657459 -0.07788865 -0.016883552 0.017691161
0001c0 e9 f7 4e bc 7c 73 c0 bc 9f fd 69 3a 84 85 93 bd
       -0.012632349 -0.023492567 0.0008926037 -0.072032005
0001d0 ea 15 98 bc 8f ef b3 3d 2f 6a e0 3b 43 f7 1f bd
       -0.018565137 0.087859266 0.0068485956 -0.039054167
0001e0 0c 1d 20 bd 5f ac 96 3d 91 e5 29 3d 84 96 fb 3b
       -0.0390902 0.07357096 0.041478697 0.007677855
0001f0 1a 14 25 bd 7a c2 35 3d 6b 69 92 bc 96 fb 59 3d
       -0.040302373 0.04437492 -0.017872533 0.053218447
000200 a3 78 7d bd 2c f4 8e bd d8 8e 65 3c b3 ca 47 bd
       -0.061882626 -0.06980166 0.014011107 -0.048777293
000210 ca 1b 1d 3d 3c eb ed 3c 40 d1 fb 3a e4 52 ca 3c
       0.03835658 0.029042833 0.0019212142 0.024697728
000220 12 c2 b0 bd 66 53 21 3d 18 dd 83 bd ea ab 49 3d
       -0.08630766 0.039386176 -0.06438655 0.049236216
000230 72 ce 6c 3d 39 40 80 bd 1e f2 70 3d 2e d8 10 3d
       0.05781407 -0.062622495 0.05882465 0.035362415
000240 f0 09 56 3c 9c fa a3 bc 66 07 67 3d 31 fe ad bd
       0.013063893 -0.02001696 0.05640354 -0.08495749
000250 90 93 b4 bb a1 40 83 3d d7 e6 5a bd 6a 6a d4 bc
       -0.005510755 0.06408811 -0.053442802 -0.025929648
000260 d0 e5 1b 3c 38 db 6f bd e3 51 5c bd e5 f4 19 bd
       0.009515241 -0.058558673 -0.05378903 -0.037587065
000270 3e c6 35 bd 90 8d 68 bc 70 ab 2e 3c 80 cc be bc
       -0.04437851 -0.014193907 0.010660991 -0.023290873
000280 11 9c a5 bd 98 2c 94 3c 30 40 9e 3c 69 cb 80 bd
       -0.08086408 0.01808767 0.019317716 -0.062887974
000290 e9 40 92 3d 50 05 b9 bb 98 29 19 3c db c5 a0 3d
       0.07141287 -0.0056463853 0.009348296 0.07850238
0002a0 98 93 6e 3c 4a af 0f 3d 6d 63 82 3d 92 df 0e 3d
       0.014561556 0.035079278 0.0636662 0.034881182
0002b0 93 dc ab 3d 28 19 13 3d f8 73 aa bd 90 4f 98 3c
       0.083916806 0.035912663 -0.083229005 0.018592626
0002c0 e9 b6 8c 3d 78 5e db 3c c0 7c 22 bc 5f 54 5a bd
       0.06870825 0.026778445 -0.009917438 -0.05330312
0002d0 36 a3 9b bd e0 ad 38 bc 98 c2 9a bc 56 32 33 3d
       -0.075994894 -0.011271924 -0.018891618 0.043749176
0002e0 70 96 04 bc e7 41 b2 bd 7f 45 50 bd c0 12 11 bd
       -0.008092508 -0.08703976 -0.050847527 -0.035418272
0002f0 23 31 88 3d a8 9e ec 3c 28 fa 65 bc 80 9f 39 3b
       0.06649997 0.028884247 -0.014036693 0.002832383
000300 61 87 b3 3d b2 5d 38 3d 4e ae 9c bd e0 24 74 3b
       0.08766056 0.04501123 -0.076504335 0.0037253425
000310 e6 c5 03 bd 11 51 a7 3d 08 c8 16 bc a8 b7 85 3c
       -0.032171153 0.08169759 -0.009202965 0.016322926
000320 f5 9f 85 bd 28 38 da bc 4f 3a 87 3d d4 a1 20 bd
       -0.0652465 -0.026638106 0.06602918 -0.03921683
000330 42 71 18 3d 4f 58 9b bd 1c 82 c6 bc 80 58 4a ba
       0.037217386 -0.07585203 -0.024231963 -0.0007718876
000340 68 ea f4 3c ec 8e af bd f5 9b 8f bd e1 87 04 bd
       0.02989693 -0.08572182 -0.07012168 -0.032356147
000350 32 30 53 3d 1e 2e 79 3d 10 be 3f 3c 8c 8a 79 bd
       0.051559635 0.060834996 0.011703029 -0.060923144
000360 f6 53 1d 3d 03 84 81 3d 90 6f dc bc 3b cb 8c 3d
       0.03841015 0.06324007 -0.026908666 0.06874701
000370 81 79 8c 3d 37 24 af bd 68 2c 57 bc e5 4f 5a bd
       0.068591125 -0.08551829 -0.013133146 -0.05329885
000380 02 88 28 bd 5c d8 86 bc 58 20 f5 3c 5f e9 b4 bd
       -0.041145332 -0.01646059 0.02992265 -0.088335745
000390 ca 45 6f bd 08 e6 f1 3c 93 06 13 bd 94 ed 92 3c
       -0.058416165 0.029528633 -0.03589494 0.017935552
0003a0 de 5c 67 3d 0c 96 0f 3d 9e 46 97 bd 96 31 a4 bd
       0.05648505 0.035055205 -0.07386516 -0.0801727
0003b0 8a d5 78 bd e0 a9 df 3c d0 c7 b2 bd 8a 91 e1 bc
       -0.06075052 0.027302682 -0.087295175 -0.027535219
0003c0 08 ec 1c bc 4e 01 2d 3d 52 84 1a 3d 8c 05 f8 bc
       -0.009577759 0.042237572 0.037723847 -0.030276082
0003d0 60 df 0c 3d 60 a0 85 bd e3 f4 97 bd 83 ff 45 bd
       0.034392715 -0.0652473 -0.07419755 -0.048339378
0003e0 48 1d ad 3c 18 dd e1 3c e1 ea a0 bd cf 8d 86 3d
       0.021132126 0.027571246 -0.078572996 0.065700166
0003f0 5c f1 d3 bc 10 fe d3 3b 40 f1 c3 bc e0 e6 3f bc
       -0.025871925 0.0064694956 -0.023918748 -0.01171276

model.model.6.bias f4 [128]
000000 c4 9f 99 bd 71 26 6d bd 52 5d 78 3d bc f3 83 3d
       -0.07501176 -0.05789799 0.060635872 0.06442973
000010 7c 93 6c 3c b3 7c 8e 3d 61 18 e4 3b 7c 64 b3 3d
       0.01443946 0.06957378 0.006960914 0.087594
000020 e2 86 95 bd 2a ed 87 3d 69 00 94 3d 99 dd 93 bd
       -0.073011175 0.06637032 0.07226641 -0.07220001
000030 d3 58 dc bc 58 8b 04 bd 80 83 bc 3d 68 46 57 bd
       -0.026897823 -0.03235945 0.09204769 -0.05255738
000040 88 72 ea 3d 77 e3 95 bd 74 68 a6 bc 16 f1 95 bd
       0.11447626 -0.07318776 -0.020313479 -0.07321374
000050 55 e8 91 bc 6c d0 84 bd 1d 2c 1b bd 90 86 99 bc
       -0.01781098 -0.06485066 -0.037883867 -0.018740922
000060 de ba 6a bd 38 e7 96 bd 51 af c6 bc cd 2f 00 3d
       -0.057307117 -0.0736832 -0.02425352 0.031295586
000070 56 a5 34 bd 76 2a 0e 3d 22 3f f5 3c 9b 37 97 3c
       -0.04410299 0.034708463 0.02993733 0.018459132
000080 8d 98 2c bd c6 73 fe bc e9 c7 9d bd 02 2b a6 3c
       -0.04213767 -0.031061064 -0.077041455 0.02028418
000090 be aa 95 3c a5 00 6f 3c 58 fb 1a 3d 43 cc e9 3c
       0.018269893 0.014587556 0.037837356 0.028539782
0000a0 cf dc 9b bc 3d 9a e7 3c 7a ee 2b 3d 20 a2 98 bd
       -0.019026188 0.028271789 0.041975476 -0.07452798
0000b0 3b d2 af 3d e2 a2 63 3a 11 fb fd 3c 1c fd 9e 3d
       0.0858502 0.0008683634 0.031003507 0.077631205
0000c0 d7 ed 6f bd f4 0f 16 bc 45 4b 8c 3b 09 73 ba 3c
       -0.05857643 -0.009159077 0.0042814338 0.022759931
0000d0 57 e9 70 bd 66 ba 11 bc cc a1 94 3d 94 73 aa 3d
       -0.05881628 -0.0088945385 0.07257423 0.08322826
0000e0 f2 59 08 3d 89 ad f8 3a 31 fb 54 bd a1 81 0d 3d
       0.033288904 0.0018972616 -0.051997367 0.034547452
0000f0 02 33 ad 3b 0b 51 a0 bd e6 48 ff 3d f8 de 8f 3d
       0.0052856216 -0.07827958 0.12465076 0.0702495
000100 9b ee 58 3d 8c 7e 72 3d 91 21 71 bd 21 8c a6 3d
       0.052961927 0.059202716 -0.058869902 0.08132196
000110 85 2d e9 bb d0 a1 ce bb 7a 99 7a bd b0 58 a3 bc
       -0.007116022 -0.0063059106 -0.061181523 -0.01993975
000120 fb 79 fc bb bb 9c bf 3c 08 5a 96 bd 4a 04 8b bd
       -0.007704971 0.023390165 -0.07341391 -0.067879274
000130 01 6f 25 3c 3c 89 5a bd 2c c8 f3 bc 04 52 40 bb
       0.010097266 -0.053353533 -0.029758535 -0.002934576
000140 42 cb 57 3d 6e d9 91 bd 01 ae 1e 3e b3 6e b4 bd
       0.052684076 -0.071215495 0.15496065 -0.08810177
000150 7b b0 a4 3d d8 8a c6 3d e5 61 7f 3d ac 95 57 bd
       0.080414735 0.09694451 0.06234922 -0.052632973
000160 97 48 c7 3d c2 4f cb 3d 3e e4 86 3d ca 87 a8 3c
       0.09730642 0.09927322 0.065865025 0.020572562
000170 c9 9f 85 bc 0a d4 8b 3d 1b 6c 0f bd da 23 a7 3d
       -0.016311543 0.068275526 -0.035015207 0.08161135
000180 52 3f e4 bc 7c 90 a1 bd b3 06 ca 3c 62 f6 80 3d
       -0.027862225 -0.07888886 0.024661398 0.06296994
000190 bd 1f 07 bc 73 54 30 3d d7 e2 ea 3d e1 7f 83 3d
       -0.008247313 0.043049287 0.114690475 0.06420875
0001a0 e3 6a 2e 3c e6 3c 34 bc 67 35 c3 3d ff 84 2c bc
       0.010645601 -0.011000847 0.0953167 -0.010529756
0001b0 49 10 23 3d ca e2 82 3d 47 0d a0 bd 69 85 73 bc
       0.039810453 0.06390913 -0.078150325 -0.01486335
0001c0 49 76 59 bd ff f2 a1 bd ba dc 96 3d 37 6a 08 bc
       -0.05309132 -0.07907676 0.07366319 -0.008326105
0001d0 ab 6d b2 3d 40 80 13 3d 6c e4 8d 3c 2e 2e dc bd
       0.08712324 0.03601098 0.017320834 -0.107509956
0001e0 26 ed f8 bc 46 a7 3c 3d 7f bd f7 3d c8 9a bb 3c
       -0.030386519 0.046057962 0.120966904 0.022900954
0001f0 a6 64 22 bd d5 f4 b9 3d cc b6 5a 3d c3 eb 8c 3d
       -0.039646767 0.09079901 0.053396985 0.068809055

model.model.8.weight f4 [7, 128]
000000 93 b1 fa bb 98 a2 b4 bd 18 47 6f 3d b1 e0 25 bd
       -0.007650563 -0.08820075 0.05841741 -0.040497486
000010 f2 ce 15 3d 8c aa 4c bc f4 6a c9 bc c5 4d 83 bd
       0.03657431 -0.012491833 -0.024587132 -0.06411318
000020 60 85 a6 bd fc 53 90 3d 4e 9b e6 3d a8 2b dc bc
       -0.08130908 0.07047269 0.11260091 -0.026876286
000030 35 e4 99 39 1d fb 97 3d 07 5a a1 3d 9a 1b ae bc
       0.00029352462 0.07420943 0.078784995 -0.021253396
000040 f4 53 d2 3d f8 17 cf 3c 91 ac 9e bc ed cf 92 bd
       0.10269919 0.025279984 -0.019369395 -0.07168565
000050 73 3a df bb 78 8e 01 bd 37 2b a9 3d 9f 45 a3 3d
       -0.0068123876 -0.03163001 0.08260196 0.079722635
000060 4d 0f be bb 13 5d f6 3d b8 5d 1d bd 32 fa 63 3d
       -0.005800164 0.12029471 -0.038419455 0.055658527
000070 d6 63 13 bd d3 a6 28 3d bf 38 e6 3d 40 72 59 3d
       -0.035983883 0.04117472 0.11241292 0.053087473
000080 ce 04 c0 3d 7e b9 33 bd d2 8d 60 3d 67 11 00 3d
       0.093759164 -0.04387807 0.05482275 0.031266596
000090 46 7b 22 bc 83 63 88 3d 4d 88 a3 3d be 43 a0 bd
       -0.009917086 0.06659605 0.07984982 -0.07825421
0000a0 13 5d 86 bd ce 55 71 bd a7 46 19 bd 72 af 10 bd
       -0.06560721 -0.05891972 -0.037420895 -0.035323568
0000b0 de 79 24 bd 80 10 5c 3c 40 55 ce bb 04 f1 c4 bc
       -0.040155284 0.013431668 -0.0062967837 -0.024040706
0000c0 a1 58 91 bd ff 2a 0a bd 57 96 3a bd c9 3c 74 3d
       -0.07096983 -0.03373241 -0.04555353 0.05962828
0000d0 58 2e ef 3c fd f7 1b bd d2 d9 dd 3d d8 3c c7 3d
       0.029196903 -0.038078297 0.108325616 0.09728402
0000e0 b0 31 9c 3d e6 de ad bd e8 1a 2a bd 22 0e b0 bd
       0.07626665 -0.0848978 -0.041529566 -0.085964456
0000f0 4b 3e 17 bc eb 22 9a bd 07 2d b3 3d bb e9 dc 3a
       -0.00923116 -0.07526191 0.08748823 0.0016854325
000100 37 2e 4e bd 28 38 54 3d 0e 00 1d 3d 30 91 e1 b9
       -0.050337043 0.051811367 0.03833013 -0.00043023517
000110 20 ab d0 3d 31 06 20 3d c3 20 6b 3d 68 23 76 bd
       0.101888895 0.039068405 0.05740429 -0.06009236
000120 dc b0 cc 3d f0 09 80 bd d0 89 7a bd 5e e2 08 3d
       0.09994671 -0.062518954 -0.061166584 0.033419006
000130 0f 09 e9 3d 4b 89 bb bc 3f bc b0 bd b7 59 a7 bc
       0.11378681 -0.022892615 -0.08629655 -0.020428522
000140 90 ff 7b bc 45 d3 96 3d 12 92 6c 3d d0 eb 45 bc
       -0.015380755 0.07364515 0.05775649 -0.012080148
000150 81 fe f5 3d 6f b3 fb 3d 46 b0 d1 3c 7a 11 31 bd
       0.120114334 0.122900836 0.025596749 -0.043229558
000160 4b f0 43 3d 06 f8 dc 3d b8 e8 cf 3d 4f f2 92 bd
       0.047836583 0.10789494 0.101518095 -0.07175123
000170 ae 14 67 3d 06 60 8c 3d f2 c1 32 bd d8 52 48 3d
       0.056416206 0.068542525 -0.043641992 0.04890713
000180 d7 6c b8 3d db c7 a6 3d df 60 f8 3c 1c 83 32 bb
       0.090051346 0.08143588 0.03031963 -0.0027238792
000190 f4 88 a4 bc 27 a7 89 bd 3b 63 85 bc 8b 6d ab 3d
       -0.020084836 -0.06721335 -0.016282668 0.08370503
0001a0 e1 f9 61 bd 2f b1 d0 3c 01 c3 b3 3d 5f a3 ec bb
       -0.055169944 0.025475113 0.087774284 -0.007221624
0001b0 c2 64 ef 3d 14 37 68 3d d4 09 a6 3d 2f 40 b4 3d
       0.1168914 0.05669315 0.08107343 0.088013045
0001c0 47 31 11 bd 15 0c 4d bd 4f 2c 8a bd ed c6 db bc
       -0.035447385 -0.05006035 -0.067467324 -0.026828254
0001d0 d5 91 f2 3c 19 1f 51 bd f8 c8 16 3c e1 a7 3b 3d
       0.029610554 -0.051055048 0.009203188 0.0458144
0001e0 24 a9 20 bd 87 42 12 bd df f5 be 3d 43 a2 cc 3d
       -0.039223805 -0.035707977 0.0932424 0.099918865
0001f0 36 c6 93 3d 6f 1f c3 3c 5c 9d 7e bc 0a 17 52 3d
       0.0721554 0.0238187 -0.015540447 0.051291503
000200 2a 14 06 3d b8 3e 3e 3c 76 d9 be bb 5f 15 c6 bc
       0.032734074 0.011611633 -0.005824263 -0.024180112
000210 d4 a1 05 3e 32 65 66 3d 10 27 c2 bc 0d f4 7b bc
       0.13050014 0.05624885 -0.023700267 -0.01537801
000220 4e 11 9c bd 92 f0 a3 3d 04 9f cc 3d 0d f6 a0 bd
       -0.07620488 0.080048695 0.09991267 -0.078594305
000230 2a 09 a2 bd de 28 20 3d e7 95 b1 bc 52 4c 3e bd
       -0.07911904 0.039101474 -0.021677924 -0.046459503
000240 89 e9 99 3d 2f 6b b3 3d 07 8c cf 3a 6f 8f 80 3d
       0.075152464 0.08760678 0.0015834578 0.06277358
000250 0c 9a 0b bc f2 bc 20 3d db 62 a1 3d 28 3b 98 3c
       -0.008520614 0.039242692 0.07880183 0.018582895
000260 8d 32 2e bd 0e 2e df 3d fd 7f 92 bd ad 5b 27 3d
       -0.042528678 0.10897456 -0.07153318 0.040858913
000270 68 a9 c2 bc c8 5b e3 3d ae 71 49 3d 62 bf e4 3d
       -0.02376242 0.1110149 0.04918068 0.11169316
000280 21 52 1e 3d 75 da ba b8 24 97 bb bc b1 3d a7 3d
       0.038652543 -8.909862e-05 -0.022899218 0.081660636
000290 23 33 05 bc f8 1b 61 3c 2d 51 bf 3d f3 cb dd 3d
       -0.008129868 0.013739578 0.09341655 0.10829916
0002a0 36 99 30 bc f5 9f 37 bd ac c1 f4 bc bc e3 d3 3c
       -0.010778716 -0.04483028 -0.029877506 0.025865428
0002b0 91 03 fd bc 31 04 12 3c 4a 54 77 bd 80 cd 39 3c
       -0.03088549 0.008912132 -0.06038312 0.011340499
0002c0 e2 5c 98 3c 02 e9 31 3d d0 26 39 bd e7 34 41 3d
       0.018598977 0.043435104 -0.04520303 0.047169592
0002d0 81 32 b1 3d 81 bb 50 bd 20 1a 49 3c 48 1e 97 3d
       0.08652211 -0.050960068 0.012274295 0.073788226
0002e0 4a 86 9c 3d 68 b5 ad bd 04 b0 92 bc 40 33 cf 3a
       0.07642801 -0.08481866 -0.017906196 0.001580812
0002f0 7d 69 a0 3d f6 28 49 3d a7 13 94 3c 3e bf 91 bd
       0.0783262 0.04911133 0.018075777 -0.07116555
000300 eb 85 9f bd 6b d6 a4 3d 82 7c 87 3d c4 63 ff bc
       -0.07789215 0.080487095 0.06615545 -0.031175502
000310 f9 2b f5 3c 9c 20 9d bc af 31 0c bb 8b 80 25 3d
       0.029928194 -0.019180588 -0.0021391918 0.04040579
000320 3e 6b 84 bc f6 05 3d 3d a0 e4 7c bb e3 e8 a1 3d
       -0.016164418 0.046148263 -0.003858842 0.07905748
000330 dd 01 14 3d 28 e2 11 bc d6 49 84 bc 14 b6 7f bd
       0.03613459 -0.0089040175 -0.016148489 -0.062429503
000340 f8 2a 28 3c 02 ab fb 3c cd 90 07 3e 21 6a 42 bd
       0.010264151 0.030721191 0.13238831 -0.047464494
000350 48 51 79 3d 33 5e 9f 3d 73 e2 e6 bc cd 47 b0 3d
       0.06086853 0.07781639 -0.028184151 0.08607445
000360 0e 0b 8d 3d 52 ad 99 3d 31 9d 48 3d c7 ee 85 bd
       0.06886874 0.07503761 0.048978034 -0.06539684
000370 e2 fb 2d 3d b4 73 84 3b 0c 51 87 3c 62 ab de 3d
       0.042476542 0.004042113 0.016518138 0.108725324
000380 4a bd aa 3d f0 d0 a9 bb 4a a8 b2 3c 31 09 b1 3b
       0.08336885 -0.005182378 0.021808762 0.005402707
000390 3b 51 f3 3b 5a 10 22 3d c2 bd 86 bd bd a0 89 3c
       0.007425455 0.039566375 -0.06579162 0.016800279
0003a0 28 94 b2 bc 70 3a a5 3d 76 fb 68 3d 05 c1 bc 3d
       -0.021799162 0.08067787 0.056880437 0.09216503
0003b0 d2 3a c8 3b f1 4b 90 3d 6a 17 34 3d de 47 04 3e
       0.0061105276 0.07045735 0.043967642 0.1291804
0003c0 38 68 14 bc 36 8b 99 bd d9 3d 8d bd be f0 8f 3d
       -0.009058051 -0.074972555 -0.06896562 0.0702834
0003d0 5d 71 ce 3d b0 56 e3 bc 26 cc 23 3d 80 13 a6 bc
       0.10080216 -0.027751297 0.039989613 -0.02027297
0003e0 28 37 d2 bc 02 1b 1f bd 82 5d bf 3d 06 c2 21 3c
       -0.025661066 -0.038844116 0.09344007 0.009872919
0003f0 bf 0f 0f 3d 0e 8a 26 3d fa c5 97 3d 13 b2 af 3c
       0.034927126 0.040659003 0.07410808 0.021447217

model.model.8.bias f4 [7]
000000 9a 5a ba 3d d5 d6 05 3d 30 b5 16 3d 30 f6 87 3d
       0.09099312 0.032675583 0.036793888 0.066387534
000010 31 63 09 bc 92 ad 90 3c 4d df 09 3d
       -0.0083854655 0.01766089 0.03366022

model_old.model.0.weight f4 [32, 1, 4, 4]
000000 f4 56 1b be 29 76 e8 bd 74 72 67 3e 92 fd 22 3c
       -0.15169889 -0.11350662 0.22602254 0.009948151
000010 b9 ba 7a 3d b2 25 54 3e 67 30 e4 3c 15 ab 36 be
       0.06121323 0.20717505 0.027855111 -0.178387
000020 b2 39 22 3e 57 45 e0 3c a5 cc 74 3e fa 2d 24 3d
       0.15842322 0.027376814 0.2390619 0.04008291
000030 77 56 d3 3d 82 02 dd 3c 23 3b ec 3d dd c8 19 3e
       0.10319226 0.026978735 0.11534717 0.1501803
000040 71 f7 43 3d fd 0a 09 3d c1 42 0b be f8 be 9b bd
       0.0478434 0.033457745 -0.13599683 -0.07604784
000050 a4 93 86 3d 2c 62 cf 3d 7a c3 49 3e 46 52 57 be
       0.06571129 0.10126147 0.19703475 -0.21027479
000060 a7 99 7c be c2 5e 4b 3e c4 b8 6b be 40 52 a4 be
       -0.24667989 0.19860366 -0.23019701 -0.32094002
000070 08 00 c8 bb 47 01 91 bd c1 f2 68 3e 37 49 77 be
       -0.0061035194 -0.07080322 0.22748853 -0.24149023
000080 3d c0 ce 3d 60 eb b4 bd b3 ec 57 be 81 c8 2d 3d
       0.1009526 -0.08833957 -0.21086387 0.042427544
000090 27 e7 42 be 3a 75 fa 3d 2c 0f fb bc 97 33 9a be
       -0.1903349 0.122293904 -0.030646883 -0.30117485
0000a0 fa b5 8d bd d1 ca fa bc ca fa 6d 3e 6c 4d c3 3d
       -0.06919475 -0.030614289 0.232402 0.095362514
0000b0 a1 ca d1 bc 37 72 72 3e c8 70 b0 3d e0 d9 0c 3e
       -0.025609316 0.23676382 0.08615261 0.13754988
0000c0 0b c1 28 3d dd 2e 6b be 20 4f 12 be 91 09 0a be
       0.041199725 -0.22967096 -0.14287996 -0.13480212
0000d0 a2 44 12 be 85 38 54 3e ce e2 9c bd 2c ff a0 3d
       -0.14283994 0.20724685 -0.07660447 0.0786117
0000e0 d0 80 4e 3e 66 37 2f be de 44 3d 3e 7d 41 fe 3d
       0.20166326 -0.17110977 0.18483302 0.12414835
0000f0 5d cd 48 be 3b 37 23 3e be d5 e3 bd c6 7b 7c 3e
       -0.1960959 0.15939038 -0.111247525 0.24656591
000100 f1 f9 8a bc 54 73 b5 bd 60 77 91 3e 91 5a 0a be
       -0.016964884 -0.08859888 0.28411388 -0.13511111
000110 e2 ff 91 3e 17 e1 9a 3d 28 5e b8 3d 7e 52 01 3c
       0.28515536 0.07562464 0.09002334 0.007893203
000120 55 24 75 3e e6 23 99 3d aa fd a8 bd 0d a2 95 be
       0.23939641 0.0747755 -0.082515076 -0.29225197
000130 16 ea 20 be 0c fc 35 bd df 37 d3 bd 58 5a 14 be
       -0.15714297 -0.044429824 -0.10313391 -0.14487588
000140 e2 af 63 3d 90 09 3f 3e 25 f6 74 be 1d 38 61 be
       0.055587657 0.18655992 -0.23922022 -0.21994062
000150 d2 26 2f bc ca e2 d4 3d 48 a3 e9 bb 69 e8 79 be
       -0.010690408 0.10394819 -0.0071300603 -0.24405064
000160 16 27 92 3e a9 c5 3c 3e 5a a1 f0 bc 62 59 7a 3d
       0.28545445 0.18434776 -0.029373813 0.0611204
000170 6e c7 8c 3d 38 3d 41 be 14 4c 3e 3e 2b 84 28 3e
       0.06873976 -0.1887101 0.18583709 0.16456668
000180 c5 fe 0b be 2c 46 7f 3d ba 56 6f be 9b 19 1a 3e
       -0.13671406 0.06232278 -0.23372927 0.1504883
000190 f9 d3 4d bd b1 f0 d6 3d 53 ab 7a bc 7c e6 c7 3d
       -0.05025098 0.10495127 -0.015299636 0.09760758
0001a0 c2 23 06 3e f9 37 24 3e 33 82 42 3e f9 73 64 bd
       0.13099578 0.16036977 0.1899498 -0.055774663
0001b0 1e b8 aa bd e2 7e 94 bb 80 85 69 3e 31 48 03 be
       -0.08335899 -0.004531727 0.22804832 -0.12820508
0001c0 b0 7a 4a 3e 79 51 6d be 17 f4 6f 3e 1b ca 3c be
       0.19773364 -0.2317561 0.23432957 -0.18436472
0001d0 d7 95 25 3e 6e cb 57 be 6e ba 83 bd 5f 0e 1a 3e
       0.1617044 -0.21073696 -0.06432043 0.15044545
0001e0 08 43 92 3e 54 a6 83 3d e8 0a 2c bb 93 62 75 3e
       0.28566766 0.06428209 -0.0026251618 0.23963384
0001f0 92 8e 58 3e cb 06 b5 bd c6 73 e3 bd 06 3d 2e be
       0.21148136 -0.08839186 -0.111060664 -0.17015466
000200 83 85 3f be 17 28 bb 3d 70 cf b1 bd a0 31 f4 3d
       -0.18703274 0.09138506 -0.08682144 0.11923528
000210 bf 21 8b be d3 f7 4e 3e 73 b6 6d 3e e0 53 80 be
       -0.27174184 0.20211725 0.2321413 -0.25063992
000220 1c 39 69 be c2 b2 b9 3c 0a 6d 26 3e 68 72 dc bd
       -0.22775692 0.022668246 0.16252533 -0.10764009
000230 5a 84 3d 3e 01 2f b6 3d 07 92 4f 3e 57 81 a8 bd
       0.1850752 0.08895684 0.20270549 -0.082277946
000240 67 1a 74 bd b3 94 06 3e c0 b0 5a 3e d9 12 cb bc
       -0.05959549 0.13142662 0.21356487 -0.02478926
000250 ce a7 8c be 4f 17 c4 bc cc 5b f6 bd 50 d3 9c bc
       -0.27471775 -0.023936896 -0.120292276 -0.01914373
000260 e2 26 84 3d c3 9b 00 be e9 a0 4a 3e e8 78 30 be
       0.06452729 -0.12559418 0.19787945 -0.17233622
000270 53 27 6c 3e 1d 47 c5 bd 13 ae 41 3d 91 85 8d bd
       0.23061876 -0.096327044 0.04728515 -0.069102414
000280 08 df 8b 3d 63 88 e8 3d 2c b9 84 be e8 28 c1 3d
       0.06829649 0.11354139 -0.25922525 0.094316304
000290 a7 9d 73 3e f6 c1 63 be 5e 8b 91 be 79 32 13 be
       0.23790608 -0.22241959 -0.2842664 -0.14374723
0002a0 b2 d4 3f 3e 01 44 97 3d 3d 69 89 be 3e bb ca bd
       0.1873348 0.073860176 -0.26838103 -0.09898995
0002b0 87 5d f6 3c 07 8f 40 bd 03 b7 e3 3d 2f d6 58 3e
       0.030073894 -0.0470114 0.11118891 0.21175455
0002c0 da 19 90 bd ac ae 03 3d 51 59 4b 3e 06 74 3c bd
       -0.07036181 0.032149002 0.1985829 -0.046009086
0002d0 1c 8b 96 bd ff 17 47 3e 30 bb 72 3e 67 f5 a3 bd
       -0.07350752 0.19442748 0.23704219 -0.08005791
0002e0 49 98 c9 3d de a5 6d 3e 92 91 29 3e 35 c9 29 3d
       0.09843499 0.23207805 0.16559437 0.04145165
0002f0 4e 96 03 3d 64 a6 68 be 40 92 39 be 0b e4 f6 3d
       0.032125764 -0.22719723 -0.18122196 0.120552145
000300 cc b9 c1 3d 81 c8 09 be 8f 1a 76 bd 62 ae c7 bc
       0.09459266 -0.13455392 -0.060083922 -0.024375144
000310 8b 04 8d bd 44 b1 39 be bb a0 70 be e3 23 d9 bc
       -0.06885632 -0.18134028 -0.23498814 -0.02650637
000320 17 92 b1 bd 4c 5b 44 be 2b ad 4b 3e 6c 17 0e be
       -0.086704426 -0.19175452 0.19890277 -0.13876122
000330 96 53 38 be eb 77 40 3d 93 b8 19 be 2b e1 e0 bc
       -0.18000636 0.046989363 -0.15011816 -0.027451118
000340 88 82 9a bd 9a bf 18 bc 69 a6 99 be 2b b8 30 be
       -0.07544428 -0.009323025 -0.30009773 -0.17257755
000350 ba db 05 3e f8 c5 55 3e bd f7 2f be b4 e2 fd 3d
       0.130721 0.208763 -0.17184348 0.12396756
000360 fa 9e c5 bd 3a aa 86 be 97 3d 72 3e 84 18 29 be
       -0.09649463 -0.26301748 0.23656307 -0.16513258
000370 30 00 49 3e b4 57 5d 3c 82 10 4b be 80 e1 80 3d
       0.19628978 0.01350968 -0.19830516 0.06293011
000380 12 3c fb 3d 54 23 d5 3d 97 ad 93 3d 66 d6 7c bc
       0.12267317 0.10407129 0.07210844 -0.015431976
000390 5d 32 1f 3d ef 52 c3 3d 9c b7 22 3d a2 5c 86 be
       0.03886639 0.09537303 0.039725885 -0.26242548
0003a0 ea c0 70 be bb 80 ec 3d 54 0e 2a be 7f e4 23 be
       -0.23511091 0.11547991 -0.16607028 -0.16005133
0003b0 de b2 97 3e 05 73 41 3c ef 31 63 3e e2 49 40 be
       0.29628652 0.011807208 0.22187017 -0.18778184
0003c0 bd 2c 06 bc 7b 1e c6 3d 5a 9f c5 bc df 75 7f bd
       -0.008189377 0.096737824 -0.024123836 -0.06236827
0003d0 5e 7e 22 3d 9f bc 09 bd fc 2d 8a be 22 57 01 3e
       0.039671294 -0.03362715 -0.26988208 0.12630895
0003e0 30 d4 52 be 04 8a ac 3d 89 e3 88 3c 96 49 09 be
       -0.20588756 0.08424762 0.01671006 -0.13406977
0003f0 fd 08 40 be 31 45 33 3e 7b 14 a3 bd 36 41 54 3e
       -0.18753429 0.17506863 -0.07962891 0.20728001

model_old.model.0.bias f4 [32]
000000 d8 ce 55 3c 25 8a 19 be 09 9d 39 be 6c 24 9c bd
       0.013049804 -0.14994104 -0.1812631 -0.076241344
000010 7a b8 11 be 4e 5c 50 be 5f 67 2f 3c fb e7 ba 3d
       -0.14230528 -0.20347711 0.010705798 0.09126278
000020 f0 e6 79 3d bb 20 21 3e 72 81 24 ba 66 f5 31 be
       0.061011255 0.15735142 -0.00062753924 -0.17378768
000030 ea b7 a4 3d 3b 58 91 3d 79 4a 18 3e 49 21 49 3e
       0.08042891 0.07096907 0.14872159 0.19641604
000040 dd 03 6a 3e 03 35 b4 3d 73 43 8b bd fa 12 98 bc
       0.22853036 0.08799174 -0.06799974 -0.018563736
000050 92 40 75 3e fd 04 4d 3e a3 d9 0f 3e 01 df a5 3e
       0.23950413 0.20021434 0.14047866 0.323967
000060 96 66 1e 3e 7c 24 9d 3d 77 d3 a5 3d 91 e7 8c 3e
       0.15468821 0.076729745 0.08096974 0.2752042
000070 7f b0 31 3e 02 42 44 be bf 35 3f 3e 78 c4 19 be
       0.17352484 -0.19165805 0.18672846 -0.15016353
