project/paper_notebooks/saved_variables/paper_notebooks/8/6-20epoch_100loop/looping-iteration-72/final_policy_agent1.pth (torch, 320501 bytes, 16 tensors)

model.model.0.weight f4 [128, 42]
00000000: 244a dfbd ccff 8ebd 8269 fd3d b649 14bd
00000010: d9a8 0b3d 9f41 e63d 0e15 993c 5c76 fbbd
00000020: 1bee 8f3d 478f d6bb ad66 f43d 2db5 973c
00000030: baa6 40bc 0e81 00bd 5d74 713c 785c a53d
00000040: 2b67 923b 2a88 75bc 3efa 12be 1661 7abd
00000050: 7cf4 973c 51bb 603d 3357 e13d 8b61 b8bd
00000060: 007c a5bd 615f 023e 044c f2bd 9c3d b1bd
00000070: ab34 4ebc e570 04bd e9f7 003e f831 15be
00000080: c5ab 073d 5923 23bd 50af 11be 57a6 323d
00000090: 89b8 6fbd d43e d13d 1dfb 29bc 133d 03be
000000a0: 193e 16bd 4bb1 2fbd baf9 d13d 6bda a23c
000000b0: 7235 82bd ae1b a63d 2d53 7d3c 1901 713d
000000c0: 6911 b63c 4a27 3abe c830 1fbe 772b eebd
000000d0: c751 d7bd 9970 fa3d 1858 9abd 2c6f 3c3d
000000e0: 2886 a83d d8a7 1fbe cd69 6d3d d44d 313d
000000f0: 6f88 32be 2103 883d 45e4 c2bd 4f61 d13d
00000100: ef1c 43bd c546 a4bd 4834 f83d a787 08be
00000110: 0e9b fe3d 2acf 9d3d df62 723b 908a 1c3b
00000120: 26dd e23d 6bb8 143d 9172 96bd 8aff 30be
00000130: 885d 04be f95e a9bd f880 f3bd 6cc4 a6bd
00000140: 63bd d23c ce6d e43d 81eb 3bbe 6a3a ffbd
00000150: c2db 3bbd 56f7 723d a3f4 dbbc 3502 3fbe
00000160: f106 193e ef78 8a3d 6f11 afbc 0342 8a3c
00000170: c1e0 b53c 00dc 43be 4af7 673d 936b b63d
00000180: 4dc3 dcbd 2a94 183c 7693 3ebe efe3 fb3d
00000190: c834 a6bd 9190 8c3c f85d 09bd 6fac 623d
000001a0: dffa d73b 9309 8a3d fbbc fa3d 5db5 a2bc
000001b0: aa9b 57bd c667 c0bc ff7c 013e 9e8c fdbd
000001c0: 57da d73d a23a 98bd 6766 2b3e 96df eabd
000001d0: 953b 8f3d 3c17 d1bd 9a39 50bd 95e6 d73d
000001e0: f73a 273e 1fc0 723d 4c59 fc3b 9cb3 213e
000001f0: c1f2 b33d fc89 eebd 188b dcbd cf39 26be
00000200: 94b0 dabd aa4e 973a bb0f d6bd 4003 bf3d
00000210: 69d3 0fbe d24c 093e 1c4b a13d a1de ffbd
00000220: 3f84 2cbe 13ca 0dbd 4c69 9c3d c565 76bc
00000230: 539d cb3d 0e28 aebb cb51 a13d 7da8 7cbd
00000240: 2227 bfbd ed49 d83d cb66 e63d 3181 33bc
00000250: 0001 2ebe 59be f53c 155b 34bd e8ea b23c
00000260: 6f0b aa3d 6009 84bd 9645 013e b4e4 54bd
00000270: f060 f23d a32f 7cbd d314 163b a621 05bd
00000280: 21f7 393d 07ba d53d d3a3 02be 2061 a53d
00000290: 5c15 203e 69e2 b1bd 9adc 01be 6bb1 8abd
000002a0: f600 b63d 91ad 963d 39a2 e1bd 6052 9dbd
000002b0: 3373 4e3c ce52 29bd a976 a13d f91e bf3d
000002c0: ae07 81bd 5d8f 813c 3c27 7e3d 824b 5dbb
000002d0: f310 c2bd cc4e db3d 609c da3d 1d56 c2bd
000002e0: 92fc 96bc 1776 c83d d621 a03d 54fa f23c
000002f0: 51bf 19bd a777 14be e2ee 35be 74da c23d
00000300: a16e 373d 0939 0cbe d4f8 57bd 093b 1b3c
00000310: 0f9a febc 0ddd 0fbe b384 0bbe 4e3b 9c3b
00000320: d9a4 1cbe d73f 0abe 4624 013e aab6 2bbd
00000330: f04b 47be 5696 f73c b09c f0bd a0e5 40bd
00000340: 00db 31bd 39a3 923c 33dd 29be 1c44 dabd
00000350: db4a 343d b210 e43d 5db2 b1bd b146 ef3c
00000360: c1cf 07be 8029 58be deb4 e63d ecd7 e8bd
00000370: 4b88 073d b7c0 02bb 2283 53be 7be5 52bd
00000380: 45d3 863d 8e61 573d 9084 31bb 7f44 65bd
00000390: 039a f43c 735b 803d f49b 92bc a41b 2ebe
000003a0: 2ee6 e1bd e265 923d b2c9 afbd c57a afbd
000003b0: 3492 0d3e 3115 80bb 870a b83d a289 7abd
000003c0: d09c 5f3c 8ccc 893d 52bf 29bd 7b18 11bd
000003d0: 7769 993d 3e84 1dbd 48a3 cebd e320 fd3d
000003e0: 1de9 dcbd 8362 373d 2033 45bb e3b2 73bd
000003f0: e927 e1bd 4bce df3d 1748 a5bd cb9a 383e
-0.10902813 -0.06982383 0.1237364 -0.03620311 0.034096573 0.11242985 0.018686797 -0.12278435
0.07027837 -0.0065478417 0.11933646 0.018519009 -0.011758501 -0.031373076 0.014737216 0.08074278
0.004467865 -0.014986077 -0.14353272 -0.061127745 0.018549196 0.05486614 0.1100296 -0.0900298
-0.08080292 0.12731697 -0.11830905 -0.08654329 -0.012585799 -0.032334227 0.1259457 -0.14569843
0.033122797 -0.039828632 -0.14227033 0.043615665 -0.058525596 0.10217062 -0.0103748115 -0.12816267
-0.036680315 -0.04289369 0.1025271 0.01987954 -0.0635785 0.08110748 0.015461725 0.058838937
0.022225099 -0.1817905 -0.15545952 -0.11629384 -0.10513645 0.122285075 -0.07536334 0.04600446
0.08228713 -0.15591371 0.057962228 0.043287113 -0.17434858 0.06641222 -0.09516195 0.10223638
-0.047635015 -0.08021311 0.12119347 -0.13332997 0.12431918 0.07705529 0.0036985201 0.00238863
0.11077337 0.036308687 -0.073460706 -0.1728498 -0.12926304 -0.08270068 -0.11889833 -0.08142933
0.025725072 0.11153756 -0.18351556 -0.124623135 -0.045863874 0.05931791 -0.02685005 -0.18653186
0.14944054 0.067613475 -0.021370618 0.01687718 0.022201898 -0.19126892 0.056632318 0.08907237
-0.10779438 0.009312669 -0.1861094 0.12299334 -0.08115536 0.017158778 -0.03353688 0.055340227
0.0065911855 0.067401074 0.122430764 -0.019861871 -0.052638687 -0.023486983 0.12645338 -0.12380336
0.10539692 -0.07433058 0.16738282 -0.11468427 0.06993786 -0.1020951 -0.050836183 0.10542027
0.16331087 0.059265252 0.0077010747 0.15791172 0.08786536 -0.11647412 -0.107687175 -0.1623299
-0.10678211 0.001154383 -0.10452219 0.09326792 -0.1404549 0.13408211 0.07875654 -0.12493635
-0.16847323 -0.03461654 0.07637271 -0.015038912 0.099421166 -0.0053148335 0.07876929 -0.06168412
-0.09333636 0.10560975 0.11250075 -0.010956095 -0.16992569 0.029997991 -0.044032175 0.021840528
0.08302962 -0.06447101 0.12624201 -0.05197592 0.118348956 -0.061568867 0.0022900596 -0.032502793
0.045401696 0.104358725 -0.12757806 0.08075166 0.15633148 -0.086857624 -0.12681809 -0.06772121
0.08886902 0.07357324 -0.1101727 -0.076817274 0.012600708 -0.041338734 0.07883961 0.093320794
-0.06300293 0.015815431 0.062049136 -0.003376693 -0.09475889 0.10708389 0.106743574 -0.09489081
-0.018430982 0.09788149 0.07818954 0.029660381 -0.03753597 -0.14498769 -0.17766908 0.09514323
0.04478324 -0.13693632 -0.052727535 0.009474524 -0.03107932 -0.14049168 -0.1362484 0.004767812
-0.1529726 -0.13500915 0.12611493 -0.04192225 -0.19462562 0.030223053 -0.11748636 -0.047093987
-0.043421745 0.017900096 -0.16588287 -0.10657522 0.0440167 0.11135997 -0.08676598 0.029208513
-0.13262846 -0.21109581 0.112649664 -0.11369309 0.033088963 -0.0019951293 -0.20655492 -0.05148838
0.06583265 0.05258327 -0.002708707 -0.055973526 0.029858595 0.062674426 -0.01789663 -0.17002732
-0.110302314 0.07148339 -0.08583392 -0.08568338 0.13825303 -0.003908776 0.08986383 -0.061166413
0.013648227 0.06728467 -0.041442223 -0.035423737 0.07490819 -0.038456194 -0.10089737 0.12359788
-0.1078665 0.044771682 -0.0030090287 -0.05949677 -0.109939404 0.10928019 -0.08070391 0.18027799

model.model.0.bias f4 [128]
00000000: 8bfb 7c3e 2e29 ccbd e7b3 6ebb 7de2 c4bd
00000010: 0fd8 2f3e 5ac1 2c3e efad 713e a62a ce3d
00000020: 78b9 933e 8329 673e c7f9 c9bd c559 7f3e
00000030: 1272 8d3e 3117 c0bd c1d9 9c3c 4d63 783e
00000040: 7793 283e e5d9 0d3e fb07 e2bc 0a30 92bd
00000050: 4226 4fbd ccef e73d a863 6f3e ff47 b1bd
00000060: af80 a3bd 3973 acbc 66c5 313e 3c36 95bd
00000070: 363c 26bd c352 1ebe cfc3 1f3e 1c5a 273e
00000080: d95d c73d 270b 763e 94df 6c3e b353 6c3e
00000090: 1142 ae3d 9090 e6bd 13c4 35bc 6874 873e
000000a0: d07f 133e ea46 b2bd 2e93 8f3e c5ba 1f3e
000000b0: 7079 433e b739 8f3e f4d8 693e 5af3 ee3d
000000c0: 4376 8c3e 6da6 833e b922 e1bd 6219 bebc
000000d0: 85e7 91bd da43 8a3e e710 593e 0e9a be3e
000000e0: 9f2d 94bd 1a69 7f3e 0ad3 563e 7a3a b2bb
000000f0: 512a c73e 575a 57bd ce7b 4f3e 0fc6 69bc
00000100: 3813 b8bc a83f 0b3e cb90 033e cffe a3bd
00000110: 6c37 91bc e2fc 133d 21b8 513d 68c6 733e
00000120: 579e 903e 79d6 013d 5612 863e 00b9 903e
00000130: 1b73 d43d 4e5c 4ebd f8d2 933e 889c 753e
00000140: 5bd8 0e3e 174e 2e3e a5b5 e8bd 5508 7ebd
00000150: 1ad8 eebd 3823 153e aa75 853e 8e90 f93d
00000160: 4aef c8bc 59eb e53d 56c2 9c3d 4b36 883e
00000170: c5ff 113e 937b 443e b732 8a3e 31af 553e
00000180: 3825 333e 522d a13e e06a bc3d ad40 e5bd
00000190: 2814 6b3e c6ab 613e b031 583e 9a20 a1bd
000001a0: 1a97 dbbd 4662 983e 6080 04be 56dd 033e
000001b0: 4d8d 5f3e c992 423e 4a3e a2bd 70c7 ff3d
000001c0: 4f3e 613e cd43 22bd 0e7b 8dbc 9de7 1c3e
000001d0: b8f8 24bd 4f3f 613d c79d 143e aaac 663e
000001e0: 5cf9 05bd 7cfc a13c 94da 7d3e 596f 0a3e
000001f0: 3ccc 843e af38 783e 89a0 3d3e 1a35 4b3e
0.24705331 -0.09968792 -0.0036423148 -0.09613512 0.17172264 0.16870633 0.23601507 0.10066728
0.2885244 0.22574429 -0.09862094 0.24936588 0.2762609 -0.093794234 0.019146802 0.2425663
0.16462503 0.13852651 -0.027591696 -0.07138069 -0.050573595 0.113250345 0.2337786 -0.0865631
-0.07983529 -0.021051036 0.17360458 -0.07285735 -0.040584765 -0.15461259 0.15602039 0.16342968
0.09734697 0.24027692 0.23132163 0.23078804 0.08508695 -0.11258042 -0.011094111 0.26455998
0.14404225 -0.08704932 0.28041977 0.1559859 0.19089293 0.2797372 0.22836667 0.116675094
0.27433977 0.2571291 -0.10992951 -0.023205463 -0.07124237 0.27004892 0.21197854 0.3722691
-0.07235264 0.24942437 0.20978943 -0.0054391 0.38899472 -0.05257639 0.20262071 -0.014268412
-0.022470102 0.13598502 0.12848203 -0.08007585 -0.017726623 0.03612984 0.05120099 0.23806155
0.28245804 0.031698678 0.26185864 0.28266144 0.10373517 -0.050380997 0.28871894 0.23985493
0.1394972 0.17021976 -0.11362771 -0.062019665 -0.11662312 0.14564216 0.26066333 0.12185775
-0.024528164 0.1122653 0.07654254 0.26603922 0.14257725 0.19187765 0.26991817 0.20867611
0.17494667 0.3147989 0.09200072 -0.111939766 0.22956908 0.22038183 0.21112704 -0.078675464
-0.1072218 0.29762477 -0.12939596 0.12877402 0.21831246 0.19001307 -0.07922037 0.124892116
0.21996425 -0.03961544 -0.017270591 0.15322728 -0.04027626 0.054992016 0.14513312 0.22526804
-0.03270851 0.019773714 0.24790412 0.13519038 0.25937068 0.24240373 0.1851827 0.19844475

model.model.2.weight f4 [128, 128]
00000000: e3e7 853d 80ea eabb 324e 833c 9043 38bd
00000010: ee97 bebc a5d2 c7bc df07 5b3e 754b ea3c
00000020: ea64 f13c 9075 783c 1df5 da3d 9edf 923d
00000030: 4583 a33d f32f 17bd 1d95 d93b 6ea8 c03d
00000040: 06ee d93d 8980 c3bd d3c2 afbd ddda 513c
00000050: 5bd0 d6bd a24a 90bd f0ee 843d 1cc8 abbd
00000060: fb76 c73d 36e1 9bbd 7f0f a4bd decf 0ebd
00000070: 4873 4cbd e850 1a3d fac2 15bd b37e 49bd
00000080: 1d12 9cbd c647 62bd 5b72 83bd fd67 84bd
00000090: f9e2 d43d ba86 01bc be8a 0fbd fdbe afba
000000a0: cc59 8abd 29c0 0d3e 0c4e 483d fa3e 80bc
000000b0: 1345 4b3d 9dc1 88bc ceca 69bd 82a9 a03d
000000c0: bc6b ecbb 9f7f 9dbd 0596 183c 3cf1 19bd
000000d0: d4de c8bd 8c16 903c 2780 edbd 0ca7 763e
000000e0: b7da a13d 8634 a3bd 400f 8a3c 6587 393d
000000f0: 9b81 6f3e dba2 b93d 0851 0e3e d530 b73d
00000100: b644 52bd fa60 81bd 2cf1 093d 954e 1bbd
00000110: 64d1 5cbc 45d6 c5bc bf7b c23c 38f7 ff3d
00000120: 453c fabc b83c b13c 14dc 853c 3569 ab3d
00000130: b414 e6bc c5a3 733d 809f eabc ece9 e43d
00000140: bfa5 c33d c42a 533c 48d4 2ebc d04e d7bd
00000150: 927b d7bc 4fa6 913d 6b5e 303d dfbe 7dbd
00000160: 171d e7bc 8c49 3bbd e64e 2ebc 791f be3c
00000170: c65f 02bd 89c6 01bd e335 8cbd 6169 b53d
00000180: 549c ef3c ffda e13d 15f1 123e 358c b1bc
00000190: 91af b43d 9d50 5ebd 397c b8bd e7bc a5bd
000001a0: 24b0 cf3d 122a ee3d 9c85 f43b f24d b83c
000001b0: 7215 42bd 6a93 983d 873b b73b ee0d bdbd
000001c0: f357 393c ba76 a8bc 7285 913d f06b 00bc
000001d0: 381d a43d 206d 143d 0fc9 78bd baac 9e3d
000001e0: 1ca1 bb3d bb20 77bd 1edd 5b3e d214 893d
000001f0: dbd5 483d d612 45bd a204 273d 9feb 3a3b
00000200: bc67 13bd 2806 6a3d d502 5fbc c4bc 3fbd
00000210: 65eb 9b3d fb88 923d 88d3 b33d 944e 3cbd
00000220: b5f7 823d a591 9c3b d6ef 1bbd 5c29 e63d
00000230: 712b a73c 3ddb a8bd 205e 03bc 7f24 d13d
00000240: 3bd6 00bd d0aa af3d bfa2 b7bd 126d 9e3d
00000250: 27c9 753d 6f83 7f3d 67ce e1bc 98be 86bd
00000260: 392e ea3d 4917 a43d acdb 913d 251e 93bd
00000270: 0c19 f63c eb90 a8bd b20a e03d be7c a03d
00000280: e96e 4fbd 90d3 d63c 01fd a03d 34d4 4a3c
00000290: 58ff f23d 182b 57bd f991 c03c fc3d 413d
000002a0: 0535 22bd 172b a23d 4d2e 55bd c87f 0abd
000002b0: 5668 f2bc e0eb 78bb deca 23bc 683f 2d3e
000002c0: fe51 313d be07 803d 5de3 563d 8045 853d
000002d0: 7edf 533d 1eaf 3dbd cdd1 463c 9d3a 863e
000002e0: e2ec b13d 80f4 2dbd b5ff cd3d f6a9 43bd
000002f0: afcf 313e a3de 7dbc 8133 d93d 446f f3bc
00000300: ed90 3bbd 5cc0 3abd c79b 73bd df68 753d
00000310: 7767 8f3d 25ca bc3d 187f 14bc 242c 883d
00000320: ef2d 923d 7710 c23d bbe2 37bd 8f9d a13d
00000330: 47fa 7abd 5ce3 e3bc 1968 16bd e633 033e
00000340: 4c41 8d3d 6beb 823b b8aa 823d 566a 84bd
00000350: 41a6 77bb 898a 52bd 25ff fe3d 3498 d23d
00000360: 3984 da3d ca56 d0bc fe0f 633d 0d7f d03d
00000370: 2fcf a8bd 295f 443d 2e66 09bd f776 05bd
00000380: 20b9 933d cd88 e73d d45b d13d 0a88 7c3c
00000390: 9eef fd3d 8768 543d c6fe c23d 2df0 b23d
000003a0: 2393 a73c ba6d a53d 593e 223d 55e1 b8bd
000003b0: b840 d93d 8fe1 b93d a826 a03d 68c4 a5bd
000003c0: dd26 de3b 88dd 5fbd 1b78 243e 96df bd3d
000003d0: 3f68 c43d d50d 0abd 0b17 f63d d388 aebb
000003e0: 889d c83d a0d2 713d 4e76 ac3d 2791 143d
000003f0: c408 883d 6900 393d e4a4 98bc 7c06 9d3a
0.065383695 -0.007169068 0.016028497 -0.044986308 -0.023265805 -0.024392435 0.21389721 0.028600434
0.029467065 0.015164748 0.10691283 0.07171558 0.07984022 -0.036910962 0.00664009 0.094071254
0.106411025 -0.095460005 -0.08582082 0.012808529 -0.104889594 -0.07045485 0.06490886 -0.08387777
0.097394906 -0.07611315 -0.08010768 -0.034866206 -0.04991463 0.037674814 -0.036562897 -0.049193095
-0.07620642 -0.05524423 -0.06418296 -0.06465147 0.10394854 -0.0079056565 -0.035044424 -0.0013408359
-0.06755409 0.13842835 0.048902556 -0.01565503 0.04962642 -0.016693885 -0.057078175 0.07844831
-0.0072149914 -0.076903574 0.009313111 -0.037583575 -0.09808126 0.017588876 -0.11596709 0.24087161
0.07903045 -0.079690024 0.016852975 0.045295138 0.23389284 0.09064265 0.13898098 0.08944861
-0.05133506 -0.06317325 0.033677265 -0.03791674 -0.013477657 -0.024150023 0.023740647 0.12498325
-0.030546317 0.021635398 0.016340293 0.08369676 -0.028086044 0.059482355 -0.028640509 0.111774296
0.09553098 0.012888614 -0.010670729 -0.10513079 -0.02630404 0.07111799 0.043058794 -0.061949607
-0.028212113 -0.045724437 -0.010638928 0.023208367 -0.031829618 -0.03168348 -0.068462156 0.0885799
0.029249348 0.11028098 0.14349778 -0.021673301 0.08822549 -0.054276098 -0.090080686 -0.08092671
0.10141018 0.11629118 0.0074622165 0.022498105 -0.047383733 0.07449992 0.005591813 -0.092311725
0.011312473 -0.020564426 0.07105531 -0.007838234 0.080133855 0.036236882 -0.06073862 0.07747789
0.091615885 -0.06033395 0.21471068 0.06693424 0.049032073 -0.048113666 0.040775903 0.0028521789
-0.0359876 0.057134777 -0.013611515 -0.04681088 0.07613257 0.07155033 0.08780581 -0.045973375
0.063949026 0.0047781044 -0.038070522 0.112383574 0.020406457 -0.082449414 -0.008018047 0.10212039
-0.031454306 0.08577502 -0.08966588 0.07735647 0.060006287 0.062381204 -0.02756424 -0.065793216
0.114345975 0.08012254 0.07121977 -0.07183484 0.03004124 -0.08230766 0.1093954 0.07836293
-0.05064288 0.026223928 0.07860757 0.012379695 0.11865109 -0.05253133 0.023507105 0.047178254
-0.039601345 0.07918375 -0.05204611 -0.033813268 -0.029590767 -0.003798239 -0.009997098 0.16918719
0.043291084 0.06251477 0.052462924 0.06507397 0.05172681 -0.046309583 0.012134981 0.26216593
0.0868776 -0.0424695 0.10058538 -0.04776951 0.17364381 -0.015494975 0.10605527 -0.029716142
-0.04579251 -0.045593604 -0.059474733 0.059914466 0.07002156 0.092182435 -0.009063505 0.06649044
0.071376674 0.09475797 -0.04489396 0.0789138 -0.06127384 -0.027818374 -0.03672037 0.12812766
0.0689722 0.003995349 0.06380218 -0.064655945 -0.0037788304 -0.05140165 0.12451009 0.10282937
0.10669751 -0.02543201 0.055435173 0.10180483 -0.08242642 0.047942314 -0.03354471 -0.032584157
0.07213044 0.113053896 0.10222593 0.015413294 0.12399219 0.051857498 0.095212504 0.08737216
0.020455902 0.08077569 0.03961024 -0.09027354 0.10608047 0.09076225 0.07819873 -0.08094102
0.006779535 -0.054654628 0.16061442 0.09271161 0.09590196 -0.033704598 0.12016114 -0.0053263693
0.09795672 0.05903876 0.08421002 0.03627124 0.06642297 0.045166407 -0.018633313 0.0011980082

model.model.2.bias f4 [128]
00000000: 0858 dc3d 1eb6 273e 3d53 0c3e ad78 343e
00000010: f356 2a3e 94e0 0a3e 1b02 c73d 041f 1d3d
00000020: 645e 413e 810c 373e 4052 873d 518c 0a3e
00000030: 9b76 2a3e c1ea 323e 7774 0b3e 2e2d d0bc
00000040: 8a26 2d3e 5eff 763d 9576 7d3d d4aa 333e
00000050: d7ca 863d 5402 73bd 3534 d2bc 5a4a 1e3d
00000060: 3a36 0c3e 2beb ea3d 0e52 413e 57c7 51bd
00000070: 7379 293e 4ed0 0f3e 77e5 d03d af39 d83c
00000080: 7c23 f93d 605a 5c3d 08a0 4e3e 4975 193e
00000090: 1abf 423e 9cbe 313e abc9 dfbc 40be 153e
000000a0: d438 523e 4825 f4bc 3445 523e 2de6 f73d
000000b0: c211 2d3e 30e6 803d 9997 833d 7127 633e
000000c0: c27f 183e 29ae b33d 4f8f ee3d 1790 f63d
000000d0: b82e 113e 086a 3c3e 38f3 babd 0add c13d
000000e0: 6c29 423e 6417 543e 09a7 c63d 05ec 0a3e
000000f0: 76d5 83bd 20e8 4b3e 9a1b 303d 940d ca3d
00000100: bf48 c73d 503e 3b3e b782 a33d c3a5 99bd
00000110: acb6 343e 3715 743d 0de6 c53d 442e 5e3d
00000120: c8af f33d 8618 d23c 9597 003e 12b1 babd
00000130: 22cd e93d 3738 163e ce7b d63d 8344 f4bc
00000140: a61b 303e a02f 483e cb86 efbb ad4c f43b
00000150: f626 7e3d d9b5 1b3e 66db 8cbd bec4 ef3d
00000160: 13d1 26bd 101f 4c3e 494d 283e c538 0b3e
00000170: e08a 1b3e 1b3e ad3c f1d5 c33d b3e1 a73d
00000180: cbbb 343e 39d8 f83d 7a19 b43d da78 8b3d
00000190: c25e 3d3e ecfd 383e b1dd 1d3d 3fef df3d
000001a0: 3450 793d df6d 01bd 38d5 3c3e 8b9f 2a3e
000001b0: 3201 b43d c334 193e 1b4c 603d 1bd4 aabd
000001c0: 947a 953d 3081 8b3d 6e31 ab3d 6f0f 063e
000001d0: b2af 9a3d 25ad f43d 782e fbbc f0c5 673d
000001e0: 012b d03d a3c2 01bc db7d fb3b 01b9 be3d
000001f0: 63ad 283e 3a3b 9fbd 4aea 8a3d cb74 fa3d
0.10758978 0.16378066 0.13703628 0.17624159 0.16634731 0.13562232 0.097171985 0.038359657
0.18883663 0.17875864 0.06607485 0.13530089 0.16646807 0.17472364 0.13618647 -0.025412168
0.16909233 0.06030213 0.061880667 0.17545635 0.065816574 -0.059328392 -0.02565966 0.038645126
0.13692561 0.11470636 0.18878958 -0.051215496 0.16550235 0.14044306 0.10200017 0.026394693
0.12164971 0.053797126 0.20178235 0.14986147 0.19018212 0.17357868 -0.027317842 0.14623356
0.2052949 -0.029802933 0.20534211 0.121044494 0.16901305 0.06293905 0.06425399 0.22183014
0.14892486 0.08773453 0.11648428 0.12039202 0.14177978 0.18399823 -0.091284215 0.09465988
0.18961114 0.20712048 0.09699828 0.13566597 -0.06437199 0.19912767 0.042995073 0.09865871
0.09730672 0.18285489 0.07983916 -0.0750232 0.17647809 0.059590545 0.09663019 0.05424334
0.11898762 0.02564646 0.12557824 -0.09115805 0.11416079 0.14669882 0.104728326 -0.029817825
0.17198047 0.19549417 -0.0073097697 0.0074554295 0.062048875 0.15206088 -0.068777844 0.117074475
-0.040726732 0.19933724 0.16435732 0.13595875 0.15189695 0.021147778 0.095622905 0.081973456
0.17649762 0.12150616 0.08793922 0.0681016 0.18493178 0.18065614 0.0385415 0.109343044
0.060867503 -0.031598922 0.18440711 0.16662423 0.087892905 0.14961533 0.05476008 -0.08341237
0.072987705 0.0681175 0.08359037 0.13091825 0.075530425 0.11947087 -0.030661806 0.056585252
0.10164452 -0.00791994 0.0076749153 0.093126304 0.16472392 -0.077749684 0.06782968 0.12229308

model.model.4.weight f4 [128, 128]
00000000: fce7 983c 4668 51bb 1e3a 4abc 6dcd 8fbd
00000010: 2ed2 25bc b477 81bd 3464 123d 2269 653d
00000020: 27a4 f03b 3bab 043d 26e0 35bd 92ee 12bd
00000030: d2e5 fa3c cc35 823d f425 353d a3b8 863d
00000040: 65fb 343d 7260 1abd 92c3 40bd eee5 7cb9
00000050: 5c50 833c 4e1a 523d 9ddb 5a3d 74db 34bd
00000060: 4d48 56bd 741a b8bd 2328 0c3d 2ec2 173d
00000070: 5998 b5bd 7075 8c3d e9f5 c83c 3bfa 973d
00000080: 4ea1 613c 2534 973d c970 91bc 7407 8f3c
00000090: c4f4 be3c d35c 0bbb d08e 82bc acb7 513d
000000a0: f2f1 4fbc 0040 6437 d286 97bd 1da8 83bd
000000b0: a3d1 ee3b 9301 a1bc 3b66 a43d 2361 b8bd
000000c0: 7211 883c c7f4 a1bd 9a14 45bc 0f15 9c3d
000000d0: e020 773d 3858 2a3d eb83 5fbd 8fee a83d
000000e0: b6c0 79bb df9b 8dbc b2ec bdbd af77 04bc
000000f0: 1d7e 83bd fbe6 043d 3da7 353d 6fe0 8e3d
00000100: b132 983c c73b 03bd 20f6 6b3d 867a 703b
00000110: cad7 d53b 5c3f 0d3d bcdf b3ba 35f4 443d
00000120: 44ef 783d 83f8 a23d 678b c53c 844b 67bb
00000130: f311 bfbd 1335 abbd 8ae0 083a 5bfa adbc
00000140: 488f 71b9 d1c6 9f3d acc2 903d 3c4f 12bb
00000150: 1a05 bcbd ea3b 863d 3be9 8d3d ee06 9e3d
00000160: 38cb c73c 15e7 663d 4156 8a3b a157 8bbd
00000170: a787 ef3b 2de3 9b3d 796a ad3b 3ba8 933b
00000180: 7575 623a c189 6d3d 6a7c 80bd 4dad ae3b
00000190: 80a1 c13b c160 703d 3ccb bebd 0a95 03bd
000001a0: 0452 b5bd 5a8b 71bc ba02 543d f302 4dbd
000001b0: d694 86bc 4f55 c0bd a7bf a63d 7753 54bd
000001c0: 3cf6 cbbc b14b 8abd e250 6b3c 51da 84bd
000001d0: 0844 2dbd 0dce 2fbd 2881 493d 646f a4bd
000001e0: 1874 5bbd 78eb 7ebc cdc6 c33c 3a93 923d
000001f0: ce98 d03b 95da 543c 6134 9e3d 2d81 373d
00000200: 364d acbd 00cb 0c3d 9905 71bd f977 6f3d
00000210: 7411 84bd 393c c13c c612 9e3c ba7b 133d
00000220: 69e7 853d f372 fbbc 8d9a f539 6860 263c
00000230: 174d af3d 5faa e53c 9e10 f8bc 60c6 ffbb
00000240: a7f9 48bd e080 7cbb 126c 7e3d 4bb9 3cbd
00000250: 800e 21ba 3a6c 6cbd fde2 9d3d 00c0 213b
00000260: 3660 2fbd 4b5d 6a3c f9b6 a63d 0ad5 753d
00000270: 9b59 83bd 5161 273d 3c2b 88bc cddd 70bd
00000280: 94ac ecbb f472 07bc 2e6c 22bd 059f 1b3d
00000290: b947 28bd da59 993d 406c 37bb df88 98bd
000002a0: c812 18ba 28a6 d23c 4ee9 b3bd 69d4 88bd
000002b0: 7b10 b33c 0b0b 9d3c 9a5b 673d 6d65 493d
000002c0: d11d 953d f868 12bd b03c 423d 39d1 f33c
000002d0: 5560 24bd 507b 813d 740e 903c 50ac 71bc
000002e0: dd7c 923d ab21 d9bc 6192 3a3d a5b0 11bd
000002f0: b27d 8ebd b078 8b3c 4d16 b33d a6c6 9c3d
00000300: 5de4 72bc 509e 903d 17c2 dfbc 8e69 3c3d
00000310: 45ea 9ebd b929 4c3d 28ca 633d ec67 a9bc
00000320: b9f1 a0bd 44cc 8ebd 9bd0 29bd 6a6a 66bd
00000330: a9bb ee3c dd33 a3bd a496 ac3d ab3f 8f3d
00000340: 2784 893d 1ff3 82bd 70b5 55bc ca70 583d
00000350: 669d 97bd 898e 263d 5e16 6e3d cb6b 19bd
00000360: 684e a7bc 0e05 8ebd ac31 a4bd c75a 91bd
00000370: 02f0 b63c 01a0 55bd 791f 07bd c849 b6bc
00000380: 7dc2 8dbb 6c48 18bd 838d 56bd 06f3 303d
00000390: cc98 a1bd 1032 163d 4bbb 3ebd 04f3 ccbc
000003a0: 3206 903d eb34 9d3d 387c eb3c 5948 af3b
000003b0: 3ca0 17bd 1287 f8bc ab59 403c dd6f 9b3d
000003c0: 776a 133d 45c9 b0bd ea40 003d 0c40 4fbd
000003d0: d9b9 ca3c 1b9b 19bd 0af7 60bd d203 5dbc
000003e0: fc35 5bbd 9a62 5b3d 284f 74bc 01b6 93bd
000003f0: 8023 76bb e95c 5abd 3930 013d 367a 99bc
0.018665306 -0.003195302 -0.012342958 -0.07021604 -0.0101209115 -0.0632166 0.035740092 0.056008466
0.0073437872 0.03238986 -0.044403218 -0.03587205 0.030627165 0.06357917 0.044225648 0.065781854
0.04418506 -0.037689634 -0.04706151 -0.00024118248 0.01602953 0.051294617 0.053432096 -0.0441546
-0.052315045 -0.089894205 0.034217965 0.03705042 -0.08866949 0.06858337 0.024531322 0.074207745
0.013771368 0.07382993 -0.017753975 0.017459609 0.023310073 -0.0021265044 -0.015937239 0.051200554
-0.012691962 1.360476e-05 -0.07398762 -0.064285494 0.0072881742 -0.019654071 0.080273114 -0.09002902
0.016609881 -0.07908016 -0.012028838 0.07621204 0.060334086 0.04158804 -0.054569166 0.082486264
-0.003810925 -0.01728624 -0.09273662 -0.008085175 -0.064205386 0.032446843 0.044348944 0.06976401
0.018578859 -0.03203943 0.05760777 0.0036694123 0.006525968 0.034484252 -0.0013723294 0.048084456
0.060775056 0.07957556 0.024114324 -0.0035292814 -0.093295954 -0.083597325 0.0005221447 -0.021237543
-0.00023036927 0.07801593 0.07068381 -0.002232506 -0.091806605 0.065543965 0.06929251 0.077161655
0.024388894 0.05637272 0.004221708 -0.06803823 0.007309872 0.0761169 0.0052922335 0.0045061386
0.0008638718 0.0579927 -0.0627373 0.0053307177 0.005909145 0.05868602 -0.09316108 -0.032124557
-0.08853534 -0.014742697 0.051760413 -0.05005164 -0.016428392 -0.09391271 0.081420235 -0.05183741
-0.024897687 -0.06752718 0.014362546 -0.06486953 -0.042301208 -0.042921115 0.04919544 -0.080290586
-0.053577513 -0.01555907 0.023898507 0.071569875 0.006365872 0.012991567 0.07724834 0.044800926
-0.08413164 0.034373283 -0.05884323 0.058464024 -0.064486414 0.023588287 0.019296061 0.036006667
0.065382786 -0.03069446 0.0004684519 0.010154821 0.085596256 0.02803534 -0.030281361 -0.0078056306
-0.049066212 -0.0038528964 0.062114783 -0.046075147 -0.0006143823 -0.0577204 0.0770931 0.0024681091
-0.042816363 0.014304469 0.08140368 0.060017623 -0.06413575 0.040864293 -0.016622178 -0.058805276
-0.0072227214 -0.008267153 -0.03965395 0.03799345 -0.041084025 0.07487841 -0.0027988106 -0.07447981
-0.00058011385 0.025713995 -0.08784734 -0.06681139 0.021858444 0.019170305 0.056483842 0.049168993
0.07281078 -0.035744637 0.047421157 0.029762851 -0.040130932 0.06322348 0.017585017 -0.014750555
0.07152722 -0.026505312 0.045549754 -0.035568852 -0.06957568 0.017025322 0.08744488 0.07655077
-0.014824954 0.07061446 -0.027314229 0.045999102 -0.07759527 0.049844477 0.055612713 -0.020679437
-0.07858605 -0.06972554 -0.041458707 -0.056253828 0.029142218 -0.079688765 0.0842717 0.069945656
0.06714659 -0.06394028 -0.013043746 0.05284194 -0.07403068 0.040663276 0.0581268 -0.037456315
-0.02042313 -0.06934558 -0.08017287 -0.070973925 0.022331242 -0.052154545 -0.032989 -0.022251979
-0.0043261633 -0.037178442 -0.05238105 0.043200515 -0.07890472 0.036668837 -0.046565335 -0.025018223
0.07032432 0.07676109 0.028745756 0.0053492007 -0.037018046 -0.030337844 0.0117401285 0.075896956
0.035990205 -0.08632139 0.031311907 -0.05059819 0.024746822 -0.037501436 -0.054923095 -0.01348968
-0.05351828 0.05356083 -0.01491145 -0.07212449 -0.003755778 -0.053311262 0.03154013 -0.018735033

model.model.4.bias f4 [128]
00000000: 24f6 523c 87cc 053b 93e6 3c3e bf6b 363d
00000010: 0edf 15bc 697e 193c a87b 403e e999 0d3e
00000020: a86f 733d 3e0d 233d cae2 b33d 99b9 1f3c
00000030: e74d 153e 4b7f fcbb 29b4 a43d 6a9a 013d
00000040: 033b 393c cf35 233e 450a 983d 2d2e 243d
00000050: 79ec d1bc 0597 f33d 5f3d 96bd 48d4 b2bb
00000060: 85dd 7b3d 5874 f93d fd27 cb3d 9ef7 0d3e
00000070: b549 0f3e c614 773c 005a 68bd 5d85 ec3d
00000080: 672a 513e 0ef8 80bd 6218 c83c faee a93d
00000090: 2893 cfbb 27c0 af3c 17ef 523c 56e4 453e
000000a0: bb60 703d b152 d53d 71ea 333d 606a 8fbd
000000b0: 62e9 723c a916 373e 9389 a1bb 5f90 183e
000000c0: f5a1 70bc 104d 70bd 1a6f 07bd 91a7 d33b
000000d0: 728d 033b 5c21 d53d f835 5d3d 1855 57bd
000000e0: 8086 373a e163 8bbd b8a0 36bd 4a60 ffbc
000000f0: e3cb a6bd 8891 2c3e ba28 3cbc 9fef 323d
00000100: 5410 8b3c 13fc 0abc e490 b2bc 6c79 39bd
00000110: be0f 293e 6605 053d cf98 bf3d 97a6 fdbc
00000120: 8bd7 d53d adee 8abb 4c71 be3d 2f09 5a3e
00000130: 7e4a aabd 8d9e 513d 1eee fa3d a243 9f3d
00000140: 250e 953d 391f 643e 3e1c afbd 86d9 413c
00000150: ce28 243e 8ca9 7fbd 60f7 acbd 6e64 05bd
00000160: 8015 8f3d 351a c23d 6737 a4bd d9f3 7c3c
00000170: 56f9 293e cc4a d0bc 7764 5e3d a858 43bc
00000180: d999 25bd ceda 48bd 845a 8b3c 38fc eb3d
00000190: 2dd7 263e 50c0 033e 67ee d93c 65d0 603d
000001a0: bd5f 0f3e 1991 af3c 6890 a4bc 02bf 683d
000001b0: 0350 1e3e 1e75 70bd fe33 003e 417c b5bd
000001c0: fd82 f73d a82b 58bd f0b0 ee3d a931 773c
000001d0: e34a 043d 3734 b03d c2d2 843d 973d f83d
000001e0: af0e 13bc 30c6 7fbd 3b70 18bd c0d2 983d
000001f0: f414 9e3d 7066 98bb b892 543d afb9 4d3d
0.012876067 0.0020416097 0.18447332 0.04453635 -0.009147419 0.009368517 0.18797171 0.13828243
0.059432656 0.03980755 0.08783491 0.00974884 0.14580499 -0.007705604 0.08042175 0.0316414
0.011305573 0.15938495 0.07423834 0.0400831 -0.025625454 0.11894039 -0.07335924 -0.005457435
0.061490554 0.12180394 0.099197365 0.1386399 0.13992961 0.015080636 -0.056726456 0.115488745
0.20426331 -0.06297313 0.02442569 0.08297534 -0.006334681 0.02145393 0.012874386 0.19325384
0.058686 0.10416163 0.043924753 -0.07002711 0.014826151 0.17879738 -0.00492973 0.14898823
-0.014687051 -0.058667243 -0.03306494 0.0064591845 0.0020073322 0.104067534 0.054006547 -0.052571386
0.0007000938 -0.0680616 -0.044586867 -0.031173844 -0.08144357 0.16852391 -0.011484319 0.04368555
0.01697556 -0.008482951 -0.021797605 -0.045281813 0.16509911 0.03247585 0.09355318 -0.030963225
0.10441502 -0.004239878 0.092989534 0.21292566 -0.083149895 0.051176596 0.122524485 0.07776572
0.072780885 0.22277535 -0.08550309 0.011831647 0.16031191 -0.062417552 -0.084456205 -0.03256648
0.06986523 0.09477655 -0.0801838 0.015438997 0.1659902 -0.02542629 0.05429503 -0.011922993
-0.040429924 -0.049036793 0.017010935 0.11522716 0.1629302 0.1286633 0.026602937 0.05488624
0.14001365 0.021431493 -0.02008839 0.056822784 0.1546021 -0.05870544 0.12519833 -0.0886159
0.12085531 -0.05277601 0.11654842 0.0150875235 0.03229798 0.08603709 0.06485511 0.12121122
-0.008975669 -0.062444866 -0.037216406 0.07462072 0.0771884 -0.0046508834 0.051897734 0.05022591

model.model.6.weight f4 [7, 128]
00000000: fa7c debc 1f92 43bd f78c 9a3d 16ec 803d
00000010: 45dd 9b3d 5f0c a03d f99d a43d 5859 353d
00000020: f99b ddbc 1069 37bd 1880 4fbd 4c34 18bd
00000030: 0f28 883d f06b 85bd 3f35 a73d 3f54 2d3c
00000040: 2120 733c b071 433d c907 10bd 0021 9a3c
00000050: 96d9 85bd 6a0c c0bc 5d1e a83d 2ef3 c93d
00000060: eb6b 933d d24b 41bd 1e64 b93b ef6a da3d
00000070: 21cb cc3d b4b8 4fbc 245b 92bd ef31 013d
00000080: 71ed a73c b8c2 b8bc 4edf b53c 2d85 3b3d
00000090: cd5c 3c3d 41be 97bd 970e 97bd a581 a93d
000000a0: 5a36 28bd e4be 573d 2b89 0bbd bd76 8abd
000000b0: 6e3e c5bc 225f 4b3d 4e9a bbbc 04fe 8c3d
000000c0: 1a30 4d3d e22a 5cbd 5255 7e3c d357 dc3d
000000d0: b82c 2abc a315 793d 4bda 5dbc a6c4 773d
000000e0: 983f cb3c 80bf 903a 0013 0d3d a537 a53d
000000f0: c183 903d e3d2 d139 5326 11bd f6e0 3cbd
00000100: 705b b43c e3e5 2c3d 69ed a43c 3208 9e3b
00000110: 738f 613d 7eac 75bd 04b7 cf3d 8bd7 4e3d
00000120: 5e57 d43d b4ae 80bd a12c 40bd 92e7 423d
00000130: 5972 92bd bae9 28bd 6114 293d d42b 163d
00000140: 4f01 7f3d 6716 fc3d 7d47 963d 05ad 85bc
00000150: 2f00 04bd 7b06 a4bd 5058 f13c 2360 af3d
00000160: 6f6c 86bd 1c1a 3bbd 140a 0d3d 1a99 6d3d
00000170: ef92 d43d ce73 91bd 33d7 9cbc 1822 7f3d
00000180: 783d 41bc e542 773d f04d e63b 95f2 e93d
00000190: efb0 cc3d 70d7 593d b16c 8c3d 953a f23d
000001a0: ca8a e53d f2e0 8e3d 1816 dbbc c038 ea3d
000001b0: 5368 c93d 4370 83bc 03bf a63d f51c 973d
000001c0: 5481 513c 33a0 4c3d feec 213d 484f 9c3d
000001d0: b476 d13c 7e9e 14bc d1d9 ddbb 4b62 3b3d
000001e0: f00d 313d 4613 243d 1113 953d 5a4d 973d
000001f0: 398d 593d 6f75 a83d 5fef 9b3d 0fe6 5b3d
00000200: c44c 9a3d a825 8fbc 171a 673d 49c4 7a3d
00000210: fc12 02bd b324 313c aa5d c53d cc25 1d3d
00000220: 980b 453d 9ee7 843d 58e8 e5bb 620c 3dbc
00000230: 5420 d63d 3bf4 9fbd d604 94bd f624 0fbd
00000240: fded 05bd aa00 f0bc cc3d c7bc adf4 a33d
00000250: c1cf 54bd 77c5 c63d 8e39 e9bc 7ee8 52bc
00000260: 2521 3ebd af1b 39bd a8ef 003e 6da0 af3d
00000270: d509 b03d 00fa 743d 2a5d 663d bbbe a73c
00000280: ef6d 073e 10fb c33c 8174 a73d 047b c23c
00000290: 4836 93bd aa06 f2bc 57a9 a0bd 356e 42bc
000002a0: b9a9 94bc 59b6 b63d 7e1a e83c 9ac2 82bd
000002b0: 74e3 b3bc 8b0d 073d 6881 713c 3bd6 0abd
000002c0: bcf2 adbc 5caa f73c 646b e63c deed cbbb
000002d0: 7209 a23d 165f 633d 5d61 5a3c bc33 8b3c
000002e0: 705d f5bb 409f 92bd c029 f23b 35bf 853d
000002f0: d04f 86bc 79b2 a73d f9ab dfba f5fb 423b
00000300: a549 b4bd 9082 0a3d 40d2 85ba ac65 a8bc
00000310: 73aa 233d 4088 b6bc 512e 243c cf93 923d
00000320: 506e 833d 74b3 a0bc c9c4 053e 81ca 053e
00000330: 0308 b43d 648e 333c f1a2 f9bb 0087 01bd
00000340: 22ba 1b3c f348 0b3e ed3a a43d 0f47 a2bd
00000350: 943f 143d 91fe ad3d 0089 1d3b f8e0 b1bd
00000360: 13c6 123c c0a3 933d c1e1 48bd 407d 89bd
00000370: 4137 163d a1fb 9c3d 958e 50bd fef8 08bd
00000380: 0087 14bc 3a7f 93bd 6a3d 733d 2869 c53d
00000390: 90a3 cb3d 59dd 0b3e 5f32 283d 1ce8 de3d
000003a0: a956 a73c 2ed5 8c3d 2a0a 4c3d 90dc c03d
000003b0: 0f72 02bd 6839 10bd b820 443d c598 adbd
000003c0: 019c 233d 26ef 8d3d fbcc 673c 387d 023c
000003d0: b2e1 2a3c cdd4 28bd d4be 52bc 21ce 8d3d
000003e0: 2c13 59bc a142 36bd 3048 83bc 1581 d13d
000003f0: 6b2c 23bd e623 213d ce66 e73c e69e 6b3d
-0.027159203 -0.047746774 0.07546418 0.0629503 0.07610563 0.078148596 0.080379434 0.044274658
-0.027051913 -0.04477793 -0.05065927 -0.03715925 0.066482656 -0.06514728 0.08164453 0.010579168
0.014839203 0.047715843 -0.035163675 0.018814564 -0.06535642 -0.02344342 0.08208916 0.09860836
0.07198318 -0.04719145 0.005657687 0.10664927 0.09999681 -0.012678314 -0.0714629 0.03154176
0.020498963 -0.022553787 0.022201207 0.045781303 0.04598694 -0.07409335 -0.0737583 0.08276681
-0.04106746 0.05267228 -0.03406636 -0.06760929 -0.02407762 0.049651273 -0.022900727 0.06884387
0.0500947 -0.053751834 0.015523272 0.10758939 -0.010386638 0.06081165 -0.013540815 0.060490273
0.024810597 0.00110434 0.034441948 0.08067254 0.0705638 0.0004002071 -0.03543694 -0.046112977
0.022016257 0.042211425 0.020132737 0.0048227543 0.055068444 -0.059978954 0.10142329 0.050498527
0.103682265 -0.06283322 -0.04691756 0.047584124 -0.07150716 -0.041238524 0.0412792 0.03666289
0.062257107 0.123089604 0.07337854 -0.016317854 -0.032226738 -0.080090486 0.029461056 0.085632585
-0.06563651 -0.045679197 0.03443344 0.058007337 0.10379588 -0.07102166 -0.019145584 0.062288374
-0.01179444 0.06036653 0.007028334 0.11423222 0.09994685 0.053183973 0.06856669 0.1182758
0.112081125 0.06976499 -0.026743934 0.114366055 0.098343514 -0.016044741 0.08141901 0.0737857
0.012787182 0.049957465 0.039532654 0.07632309 0.025569297 -0.009070991 -0.0067703505 0.045748036
0.043226182 0.040057443 0.07279027 0.073878005 0.053113196 0.08225524 0.07614016 0.053686198
0.07534173 -0.01747401 0.056421366 0.06122235 -0.031756386 0.010811972 0.096370056 0.038366124
0.04810676 0.0648949 -0.007016223 -0.011538597 0.10455385 -0.07810255 -0.07227485 -0.034947358
-0.032697666 -0.029297192 -0.02432146 0.080056526 -0.051955942 0.09705632 -0.028469827 -0.012872813
-0.046418328 -0.045192417 0.12591422 0.08575521 0.08595625 0.05980873 0.056241192 0.02047669
0.1322553 0.023923427 0.08176518 0.023740299 -0.07188088 -0.029544193 -0.07844799 -0.011867096
-0.018147336 0.08921499 0.028332945 -0.063847736 -0.021959044 0.0329719 0.0147403255 -0.033895712
-0.021233909 0.0302326 0.02812738 -0.0062234243 0.07911958 0.055510603 0.013328877 0.016992442
-0.0074879453 -0.07159281 0.007390231 0.065306105 -0.01639548 0.08188338 -0.0017064802 0.002975223
-0.08803109 0.03381592 -0.0010209754 -0.020556293 0.039957475 -0.022281766 0.010020808 0.071570985
0.06417525 -0.01961682 0.13063349 0.1306553 0.087905906 0.010959242 -0.007618301 -0.031622887
0.009504827 0.13602047 0.08019052 -0.079237096 0.036193445 0.0849582 0.0024037957 -0.086854875
0.008958357 0.07208967 -0.04904342 -0.06713343 0.036673788 0.07665182 -0.050917227 -0.033440582
-0.00906539 -0.07202001 0.05938474 0.096391976 0.099433064 0.13658656 0.041063663 0.10884115
0.020427065 0.06876598 0.04981438 0.09417069 -0.031847056 -0.035210997 0.047882766 -0.08476404
0.0399437 0.069303796 0.014147992 0.007964425 0.0104297865 -0.041218568 -0.01286288 0.069240816
-0.0132492 -0.044497136 -0.016025633 0.102296986 -0.039837282 0.039340876 0.028247263 0.057524584

model.model.6.bias f4 [7]
00000000: 1704 d33d 44c1 7d3e 0417 0f3e 6d59 193d
00000010: 52c1 ea3d 1227 8e3d 4404 b33d
0.103035145 0.24780756 0.13973624 0.0374388 0.11462654 0.06941046 0.08741048

model_old.model.0.weight f4 [128, 42]
00000000: 474e dfbd 5af2 8ebd 7c68 fd3d ac48 14bd
00000010: e9a9 0b3d 3f45 e63d a515 993c 5c76 fbbd
00000020: 1bee 8f3d 478f d6bb 7d65 f43d 3ba2 973c
00000030: baa6 40bc 0e81 00bd 5d74 713c 785c a53d
00000040: 2b67 923b d18d 75bc 2afb 12be 1661 7abd
00000050: 7cf4 973c 51bb 603d 3357 e13d 8b61 b8bd
00000060: 3976 a5bd 3b62 023e 044c f2bd 9c3d b1bd
00000070: ab34 4ebc e570 04bd e9f7 003e 7631 15be
00000080: c4c1 073d 5923 23bd 50af 11be 57a6 323d
00000090: 89b8 6fbd d43e d13d 1dfb 29bc 133d 03be
000000a0: 193e 16bd 4bb1 2fbd aefa d13d 6d1d a33c
000000b0: c636 82bd ae25 a63d f1a2 7d3c fc06 713d
000000c0: 0a12 b63c 4a27 3abe c830 1fbe 772b eebd
000000d0: 9349 d7bd 3c76 fa3d 1858 9abd 2c6f 3c3d
000000e0: 2886 a83d d8a7 1fbe cd69 6d3d 6073 313d
000000f0: 6783 32be 2103 883d 45e4 c2bd 4f61 d13d
00000100: ef1c 43bd c546 a4bd 9c3e f83d a787 08be
00000110: 0e9b fe3d 2acf 9d3d df62 723b 908a 1c3b
00000120: 26dd e23d f4ca 143d 9172 96bd 8aff 30be
00000130: 885d 04be f95e a9bd f880 f3bd 6cc4 a6bd
00000140: abd3 d23c ce6d e43d 81eb 3bbe 6a3a ffbd
00000150: 4fdf 3bbd 941e 733d fcf6 dbbc ebfd 3ebe
00000160: 330b 193e 147b 8a3d fa10 afbc 0342 8a3c
00000170: c1e0 b53c 00dc 43be 9506 683d 4471 b63d
00000180: 4dc3 dcbd 2a94 183c 7693 3ebe efe3 fb3d
00000190: c834 a6bd 4db3 8c3c 4554 09bd 6fac 623d
000001a0: dffa d73b 9309 8a3d fbbc fa3d 5db5 a2bc
000001b0: 1289 57bd 614d c0bc ff7c 013e 9e8c fdbd
000001c0: 57da d73d a23a 98bd 6766 2b3e 62d5 eabd
000001d0: e645 8f3d 3c17 d1bd 9a39 50bd 95e6 d73d
000001e0: f73a 273e 1fc0 723d 30bf fc3b 9cb3 213e
000001f0: c1f2 b33d fc89 eebd 188b dcbd cf39 26be
00000200: 94b0 dabd 8f4e 973a bb0f d6bd 4003 bf3d
00000210: 69d3 0fbe d24c 093e 1c4b a13d a1de ffbd
00000220: 3f84 2cbe 13ca 0dbd 4c69 9c3d c565 76bc
00000230: 539d cb3d 0e28 aebb cb51 a13d 7da8 7cbd
00000240: 2227 bfbd ed49 d83d cb66 e63d 3181 33bc
00000250: 0001 2ebe 59be f53c 155b 34bd e8ea b23c
00000260: 6f0b aa3d 6009 84bd 9645 013e b4e4 54bd
00000270: f060 f23d a32f 7cbd d314 163b a621 05bd
00000280: 21f7 393d 07ba d53d d3a3 02be 2061 a53d
00000290: 5c15 203e 69e2 b1bd 9adc 01be 6bb1 8abd
000002a0: 77fd b53d f1c0 963d 54a3 e1bd 0054 9dbd
000002b0: 8066 4e3c 1c4d 29bd ce76 a13d f91e bf3d
000002c0: ae07 81bd 5d8f 813c 921f 7e3d 0305 5ebb
000002d0: f310 c2bd cc4e db3d 609c da3d 1d56 c2bd
000002e0: 92fc 96bc 8b73 c83d 191d a03d 54fa f23c
000002f0: 51bf 19bd a777 14be e2ee 35be 74da c23d
00000300: c582 373d 503d 0cbe d4f8 57bd 093b 1b3c
00000310: 0f9a febc 0ddd 0fbe b384 0bbe 07c3 9c3b
00000320: d9a4 1cbe d73f 0abe 4624 013e aab6 2bbd
00000330: f04b 47be 5696 f73c b797 f0bd a0e5 40bd
00000340: 00db 31bd 39a3 923c 33dd 29be 6737 dabd
00000350: 6a47 343d b80c e43d 46b6 b1bd 3a4a ef3c
00000360: c1cf 07be 8029 58be deb4 e63d ecd7 e8bd
00000370: f27a 073d 0599 03bb 2283 53be 7be5 52bd
00000380: 45d3 863d 8e61 573d 9084 31bb 9e66 65bd
00000390: 3282 f43c 735b 803d f49b 92bc a41b 2ebe
000003a0: 2ee6 e1bd e265 923d c1c0 afbd c57a afbd
000003b0: 3492 0d3e 3115 80bb 870a b83d a289 7abd
000003c0: d09c 5f3c 1ed5 893d 52bf 29bd 7b18 11bd
000003d0: 7769 993d 3e84 1dbd 48a3 cebd e320 fd3d
000003e0: 15e9 dcbd 8362 373d 2033 45bb e3b2 73bd
000003f0: 662b e1bd 35e2 df3d 3a49 a5bd 249b 383e
-0.10903602 -0.06979819 0.123734444 -0.036202118 0.034097586 0.112436764 0.018687079 -0.12278435
0.07027837 -0.0065478417 0.1193342 0.018509975 -0.011758501 -0.031373076 0.014737216 0.08074278
0.004467865 -0.014987425 -0.14353624 -0.061127745 0.018549196 0.05486614 0.1100296 -0.0900298
-0.0807919 0.12732784 -0.11830905 -0.08654329 -0.012585799 -0.032334227 0.1259457 -0.14569649
0.033143774 -0.039828632 -0.14227033 0.043615665 -0.058525596 0.10217062 -0.0103748115 -0.12816267
-0.036680315 -0.04289369 0.102528915 0.019911492 -0.063581035 0.081126556 0.015480743 0.05884455
0.022225399 -0.1817905 -0.15545952 -0.11629384 -0.1051208 0.12229583 -0.07536334 0.04600446
0.08228713 -0.15591371 0.057962228 0.04332292 -0.17432939 0.06641222 -0.09516195 0.10223638
-0.047635015 -0.08021311 0.12121317 -0.13332997 0.12431918 0.07705529 0.0036985201 0.00238863
0.11077337 0.036326364 -0.073460706 -0.1728498 -0.12926304 -0.08270068 -0.11889833 -0.08142933
0.025735697 0.11153756 -0.18351556 -0.124623135 -0.04586726 0.059355333 -0.02685117 -0.1865155
0.14945678 0.067617565 -0.0213704 0.01687718 0.022201898 -0.19126892 0.056646902 0.089083225
-0.10779438 0.009312669 -0.1861094 0.12299334 -0.08115536 0.017175341 -0.03352763 0.055340227
0.0065911855 0.067401074 0.122430764 -0.019861871 -0.052620955 -0.023474397 0.12645338 -0.12380336
0.10539692 -0.07433058 0.16738282 -0.11466481 0.06995754 -0.1020951 -0.050836183 0.10542027
0.16331087 0.059265252 0.007713221 0.15791172 0.08786536 -0.11647412 -0.107687175 -0.1623299
-0.10678211 0.0011543798 -0.10452219 0.09326792 -0.1404549 0.13408211 0.07875654 -0.12493635
-0.16847323 -0.03461654 0.07637271 -0.015038912 0.099421166 -0.0053148335 0.07876929 -0.06168412
-0.09333636 0.10560975 0.11250075 -0.010956095 -0.16992569 0.029997991 -0.044032175 0.021840528
0.08302962 -0.06447101 0.12624201 -0.05197592 0.118348956 -0.061568867 0.0022900596 -0.032502793
0.045401696 0.104358725 -0.12757806 0.08075166 0.15633148 -0.086857624 -0.12681809 -0.06772121
0.08886235 0.073610194 -0.110174805 -0.07682037 0.01259768 -0.041333303 0.07883988 0.093320794
-0.06300293 0.015815431 0.062041827 -0.00338775 -0.09475889 0.10708389 0.106743574 -0.09489081
-0.018430982 0.09787663 0.0781805 0.029660381 -0.03753597 -0.14498769 -0.17766908 0.09514323
0.044802446 -0.13695264 -0.052727535 0.009474524 -0.03107932 -0.14049168 -0.1362484 0.0047839913
-0.1529726 -0.13500915 0.12611493 -0.04192225 -0.19462562 0.030223053 -0.11747687 -0.047093987
-0.043421745 0.017900096 -0.16588287 -0.106550984 0.04401342 0.111352384 -0.08677344 0.029210199
-0.13262846 -0.21109581 0.112649664 -0.11369309 0.033076234 -0.002008022 -0.20655492 -0.05148838
0.06583265 0.05258327 -0.002708707 -0.056006067 0.029847238 0.062674426 -0.01789663 -0.17002732
-0.110302314 0.07148339 -0.08581687 -0.08568338 0.13825303 -0.003908776 0.08986383 -0.061166413
0.013648227 0.06730102 -0.041442223 -0.035423737 0.07490819 -0.038456194 -0.10089737 0.12359788
-0.10786644 0.044771682 -0.0030090287 -0.05949677 -0.10994606 0.109318174 -0.080706075 0.18027931

model_old.model.0.bias f4 [128]
00000000: 8dfc 7c3e 471f ccbd eca4 6dbb 7de2 c4bd
00000010: 36d8 2f3e a5c0 2c3e 37af 713e e834 ce3d
00000020: c8ba 933e 332d 673e 99f9 c9bd 085b 7f3e
00000030: b876 8d3e 6814 c0bd 42ec 9c3c e762 783e
00000040: 7c90 283e eadc 0d3e 5d31 e2bc 0a30 92bd
00000050: f424 4fbd 27f5 e73d 0268 6f3e eb47 b1bd
00000060: 4487 a3bd 1f7b acbc 03be 313e e633 95bd
00000070: 363c 26bd 9f56 1ebe 99c4 1f3e e659 273e
00000080: a451 c73d d60c 763e b6dd 6c3e d859 6c3e
00000090: 4c43 ae3d 0d85 e6bd 13c4 35bc bf76 873e
000000a0: b681 133e ea46 b2bd fb93 8f3e 39c0 1f3e
000000b0: 5e7a 433e 7f3a 8f3e a7d6 693e 93f1 ee3d
000000c0: fc75 8c3e 6da7 833e 5d24 e1bd 6219 bebc
000000d0: 24e4 91bd 5543 8a3e 5214 593e b29a be3e
000000e0: 6e24 94bd f76d 7f3e d1d6 563e 8a21 b2bb
000000f0: f72a c73e 503d 57bd c77f 4f3e c7e6 69bc
00000100: a520 b8bc 3142 0b3e f992 033e 7f05 a4bd
00000110: 0636 91bc a402 143d bdb7 513d b6c7 733e
00000120: eaa0 903e cbd5 013d 2b13 863e abb9 903e
00000130: 4f79 d43d b560 4ebd fbd3 933e b59f 753e
00000140: a3dc 0e3e e950 2e3e b8b6 e8bd d5f7 7dbd
00000150: 1ad8 eebd 6321 153e a077 853e d598 f93d
00000160: bcc6 c8bc cceb e53d 63b6 9c3d fb36 883e
00000170: 3aff 113e b97d 443e dc33 8a3e 08b3 553e
00000180: 292c 333e e22d a13e 1970 bc3d 5f4a e5bd
00000190: 1718 6b3e 48ad 613e 1735 583e 321e a1bd
000001a0: 5f8e dbbd a061 983e bb7f 04be 47d4 033e
000001b0: 798d 5f3e 8594 423e 132f a2bd b2c2 ff3d
000001c0: 413f 613e d03b 22bd 9689 8dbc b3e8 1c3e
000001d0: 4401 25bd 5c44 613d 87a4 143e 0db1 663e
000001e0: 5cf9 05bd 220c a23c 67e2 7d3e f972 0a3e
000001f0: 6bcd 843e 2432 783e 6ba5 3d3e f134 4b3e
0.24705715 -0.09966903 -0.0036261631 -0.09613512 0.17172322 0.16870363 0.23601995 0.10068685
0.2885344 0.22575836 -0.0986206 0.2493707 0.27629638 -0.09378892 0.019155625 0.24256478
0.16461366 0.13853803 -0.027611429 -0.07138069 -0.05057235 0.11326056 0.2337952 -0.086562954
-0.07984784 -0.021054802 0.1735764 -0.072852895 -0.040584765 -0.15462731 0.1560234 0.16342887
0.097323686 0.24028334 0.23131451 0.23081148 0.085089296 -0.11255846 -0.011094111 0.26457784
0.1440495 -0.08704932 0.28042588 0.15600671 0.19089648 0.27974316 0.2283579 0.116671704
0.27433765 0.25713673 -0.10993264 -0.023205463 -0.071235925 0.27004495 0.21199158 0.37227398
-0.07233511 0.24944292 0.20980383 -0.005436127 0.38899967 -0.052548707 0.20263587 -0.014276213
-0.022476504 0.13599469 0.12849034 -0.08008861 -0.017725956 0.03613533 0.051200617 0.23806652
0.28247768 0.03169803 0.261865 0.28266653 0.103747 -0.050385196 0.28872666 0.23986705
0.13951354 0.17023052 -0.11362976 -0.06200393 -0.11662312 0.14563517 0.2606783 0.121873535
-0.024508826 0.11226615 0.07651975 0.26604447 0.14257517 0.19188584 0.2699269 0.20869076
0.17497315 0.31480318 0.092010684 -0.11195826 0.22958408 0.22038758 0.21114002 -0.078670874
-0.107205145 0.29761982 -0.1293935 0.12873946 0.21831311 0.19001968 -0.07919135 0.12488307
0.21996786 -0.039607823 -0.01727752 0.15323143 -0.04028441 0.054996833 0.14515887 0.22528477
-0.03270851 0.019781176 0.24793397 0.13520421 0.2593797 0.24237877 0.18520133 0.19844414
