project/paper_notebooks/saved_variables/paper_notebooks/7/7-20epoch_500loop/7-looping-iteration-174/best_policy_agent2.pth (torch, 543093 bytes, 16 tensors)

model.model.0.weight f4 [32, 1, 4, 4]
0	0x3da21a27	0.079151444
1	0xbed21519	-0.4103172
2	0xbe96584d	-0.29364243
3	0xbe6bff2d	-0.2304656
4	0xbea918a5	-0.33026615
5	0xbb8bb793	-0.004263827
6	0x3e0609bf	0.13089655
7	0xbe1659fa	-0.14682761
8	0x3ca2d61f	0.019877492
9	0xbd995c17	-0.07488268
10	0xbbf298fb	-0.0074034906
11	0xbe752146	-0.23938474
12	0x3e081d5b	0.13292448
13	0x3d2f4473	0.042789888
14	0xbdad6ad0	-0.084676385
15	0xbe118c0d	-0.14213581
16	0x3ee81b6c	0.4533342
17	0xbd5fcbe2	-0.054637797
18	0xbd6b0f56	-0.057387672
19	0x3f1d89b2	0.6153823
20	0x3ed38109	0.41309384
21	0x3ea5c9eb	0.32380614
22	0xbe362c1c	-0.17790264
23	0xbfb58279	-1.4180442
24	0xbe6faa68	-0.23404849
25	0x3dac2692	0.08405794
26	0xbdd89e25	-0.10577039
27	0xbebd6e78	-0.36998343
28	0xbf10476f	-0.56359
29	0x3d7cfff4	0.061767533
30	0xbe584125	-0.211186
31	0xbeb104db	-0.34574017
32	0x3e37bfb4	0.17944223
33	0xbdca2530	-0.09870374
34	0xbece1d81	-0.40256885
35	0x3cf5ce5f	0.030005632
36	0x3cd0eb0d	0.025502706
37	0xbe9abfbf	-0.30224416
38	0xbe9f8a90	-0.31160402
39	0x3e63de44	0.22252756
40	0xbd0d0120	-0.0344249
41	0xbf4c01f6	-0.7969049
42	0xbe43405b	-0.19067518
43	0xbed73c3b	-0.4203814
44	0xbf4d7453	-0.8025562
45	0xbe79cbeb	-0.24394195
46	0x3dd8900b	0.10574349
47	0x3e9826eb	0.29717192
48	0xbe79b29c	-0.2438454
49	0xbddc2b07	-0.10750394
50	0x3e00b28c	0.1256811
51	0xbe988aec	-0.2979349
52	0x3dbf5233	0.0934185
53	0x3db47230	0.08810842
54	0xbf5dabed	-0.8659046
55	0xbe1c97a9	-0.15292229
56	0x3e1128b0	0.14175677
57	0xbddacb91	-0.106833585
58	0xbe94a68d	-0.29033318
59	0xbee4866c	-0.44633806
60	0xbe669ba2	-0.22520307
61	0xbeb17103	-0.34656534
62	0xbeb60345	-0.3554937
63	0xbd3ca52f	-0.04605597
64	0xbddcb1da	-0.1077611
65	0xbd4b3b28	-0.049616963
66	0x3b8f0d2d	0.0043655843
67	0x3cce9d62	0.02522153
68	0xbe802fe7	-0.25036547
69	0xbe4502e7	-0.19239388
70	0xbe0e172b	-0.13876025
71	0xbe33c627	-0.17556058
72	0xbd978222	-0.07397868
73	0x3de7ef13	0.11324897
74	0xbd9f36a5	-0.077740945
75	0xbe9a50bf	-0.3013973
76	0xbe4f8a94	-0.20267707
77	0xbe186178	-0.14880931
78	0xbd6c323b	-0.05766509
79	0xbccd259d	-0.02504235
80	0x3eae60e0	0.34058285
81	0xbe8039f1	-0.25044206
82	0xbc64277f	-0.013925432
83	0xbee1f515	-0.44132295
84	0x3e21239b	0.15736239
85	0xbe1cec32	-0.15324476
86	0x3eae7709	0.34075192
87	0xbbec511e	-0.0072118184
88	0xbf7e5aaa	-0.9935709
89	0xbe3ed5d4	-0.18636256
90	0xbf419de3	-0.7563154
91	0x3e74d7ba	0.23910418
92	0xbe517b36	-0.20457157
93	0xbca80849	-0.020511763
94	0xbdd5be36	-0.104366705
95	0xbc99e1b5	-0.018784383
96	0x3cf9314a	0.03041901
97	0x3dee04b2	0.11621989
98	0xbdade1d1	-0.08490337
99	0xbe6a498a	-0.22879615
100	0xbe3825b2	-0.1798313
101	0xbd8cbbd9	-0.068717666
102	0x3d2a4741	0.04157186
103	0xbe9422d8	-0.28932834
104	0x3cbb1dae	0.0228413
105	0x3be9d384	0.0071358103
106	0xbc0be75a	-0.008539045
107	0xbe517d28	-0.204579
108	0xbe4bd145	-0.19904049
109	0xbe3b7c9d	-0.18309255
110	0x3d06ca45	0.032907743
111	0xbddb9b28	-0.10722953
112	0x3e56a2f5	0.209606
113	0x3e7659fc	0.24057764
114	0x3e1c70a7	0.15277348
115	0xbd6a3b66	-0.057185553
116	0xbeefe504	-0.46854413
117	0x3db08fc2	0.086211696
118	0x3ed0a66c	0.4075197
119	0xbbf9166d	-0.0076015503
120	0xbf03e467	-0.5152039
121	0xbf61f9cb	-0.8827178
122	0xbf3ba6ec	-0.7330158
123	0xbcadd806	-0.021221172
124	0xbdad4ed3	-0.084623
125	0xbf036118	-0.5132003
126	0xbf128dc9	-0.57247597
127	0x3e2a8cf3	0.1665533
128	0x3f02e41b	0.5112931
129	0x3e34b8fa	0.17648688
130	0xbe4b8796	-0.1987594
131	0xbd8765ca	-0.066112116
132	0x3eb1dc97	0.3473861
133	0xbdae5729	-0.08512718
134	0x3ec76323	0.38942823
135	0xbeea0b65	-0.45711818
136	0x3f253074	0.6452706
137	0x3c851112	0.016243491
138	0xbf29c0b9	-0.66309696
139	0xbf48a481	-0.78376013
140	0xbd12806b	-0.035767
141	0xbe908731	-0.28228143
142	0xbe212c19	-0.15739478
143	0xbedc19c3	-0.42988405
144	0x3d91e62d	0.07123981
145	0xbea3bf5b	-0.3198193
146	0xbb81a1a8	-0.0039560385
147	0xbed82c35	-0.42221227
148	0xbed6aa90	-0.41927004
149	0xbdc573a1	-0.09641195
150	0xbde1e831	-0.11030615
151	0xbb878328	-0.004135508
152	0xbe7bb1a0	-0.24579477
153	0x3a1d1b57	0.00059931487
154	0xbe7bc682	-0.24587443
155	0xbda27e10	-0.07934201
156	0x3d5935a8	0.053029686
157	0xbe168338	-0.14698493
158	0xbe45de20	-0.19323015
159	0x3e1296e6	0.14315376
160	0xbd36490a	-0.04450325
161	0xbe015428	-0.1262976
162	0xbee42b9d	-0.44564524
163	0xbd8f9478	-0.0701074
164	0xbef35752	-0.47527558
165	0xbda4e73a	-0.080519155
166	0xbdaad287	-0.08340936
167	0x3d07cc7a	0.03315399
168	0xbe8a1a87	-0.26973364
169	0x3dd5462e	0.10413776
170	0xbc903c84	-0.017606981
171	0xbe9f9721	-0.3116999
172	0x3da4198a	0.08012684
173	0xbe419042	-0.18902686
174	0x3e2d17d5	0.16903622
175	0x3ddbb704	0.10728267
176	0x3e67da5b	0.2264189
177	0x3e010890	0.12600923
178	0x3deaa9f8	0.114582
179	0xbe783538	-0.24239051
180	0xbdee89ad	-0.11647353
181	0x3e000bfe	0.12504575
182	0x3eb04ffd	0.34436026
183	0x3cbc6df1	0.023001643
184	0x3e6b506a	0.22979894
185	0x3e97c868	0.29645085
186	0xbf5d3662	-0.86411107
187	0xbe8864d0	-0.26639414
188	0x3ec9bb74	0.39400828
189	0xbf05fef6	-0.52342165
190	0xbf2171e8	-0.6306443
191	0x3dbad456	0.09122531
192	0xbe920ce1	-0.2852545
193	0xbd99036f	-0.07471358
194	0xbe126adc	-0.14298576
195	0xbe4c803c	-0.19970793
196	0xbebfac51	-0.37436154
197	0xbdd8575c	-0.105635375
198	0x3e080f40	0.13287067
199	0xbe13ec7d	-0.14445682
200	0xbe54e868	-0.20791781
201	0xbe1ab023	-0.15106253
202	0xbd7f2a40	-0.062296152
203	0xbe2de022	-0.16980031
204	0x3e392c10	0.18083215
205	0x3e634246	0.2219325
206	0xbd3c7707	-0.04601195
207	0x3e7a0405	0.24415596
208	0x3e6779f2	0.22605112
209	0x3e307eeb	0.17235915
210	0xbd228bf2	-0.039684244
211	0x3e154d8c	0.14580363
212	0x3f14465b	0.57919854
213	0x3eeeb383	0.46621332
214	0xbe1e6fab	-0.15472285
215	0x3dd66d62	0.10470082
216	0xbed55c23	-0.41671857
217	0x3dad1766	0.084517285
218	0x3eb818c4	0.35956395
219	0xbd73a94a	-0.05948762
220	0x3ceb8e6f	0.028754441
221	0xbf2280d7	-0.63477844
222	0x3e9db160	0.3079939
223	0xbe32f74e	-0.17477152
224	0x3d845075	0.064606585
225	0xbcad7b69	-0.02117701
226	0x3d874f21	0.066068895
227	0x3e61fe39	0.22069634
228	0x3cee91c8	0.029122248
229	0x3e0bc040	0.13647556
230	0x3e2c550f	0.16829322
231	0x3f1979b3	0.59951323
232	0xbe2b6a57	-0.16739784
233	0xbdb637a1	-0.08897329
234	0x3e87f6c8	0.26555467
235	0xbf86ee45	-1.0541464
236	0xbcb50413	-0.02209667
237	0x3e15015a	0.14551297
238	0xbebae826	-0.3650524
239	0xbf27dbc4	-0.6556971
240	0xbea5803c	-0.32324398
241	0xbf1b763b	-0.6072728
242	0xbe1ac4bd	-0.15114112
243	0x3ebf61dd	0.3737935
244	0xbf1f408e	-0.6220788
245	0x3d0188c4	0.03162457
246	0x3e768eb9	0.24077882
247	0xbfa8dfc7	-1.3193291
248	0xbe69d190	-0.22833848
249	0xbe828edd	-0.2549962
250	0x3d88e2cf	0.06683885
251	0xbe545b65	-0.20737989
252	0xbe748463	-0.23878627
253	0xbe94f639	-0.29094103
254	0x3e169415	0.14704926
255	0xbd725649	-0.05916432

model.model.0.bias f4 [32]
0	0xbe39462c	-0.18093175
1	0x3dafd243	0.08585026
2	0x3da367c6	0.079787776
3	0xbf0ed3b0	-0.5579176
4	0xbe141c35	-0.14463885
5	0xbea3475e	-0.31890386
6	0xbeba9183	-0.36439142
7	0xbe763a64	-0.24045712
8	0xbdb23f23	-0.087034486
9	0xbe3e44dc	-0.18580955
10	0xbd1e3655	-0.038626034
11	0xbe06e662	-0.13173822
12	0xbe8b6dde	-0.2723226
13	0xbf32ae3c	-0.6979711
14	0xbf42140b	-0.75811833
15	0xbe3221aa	-0.17395654
16	0xbe4a6431	-0.19764782
17	0xbe48a63d	-0.19594665
18	0xbee44ac3	-0.4458829
19	0xbb45115d	-0.0030070164
20	0x3e862e73	0.26207313
21	0xbea7459c	-0.32670295
22	0xbe28eeaf	-0.164973
23	0xbed19c92	-0.40939766
24	0x3ef50bdc	0.4786061
25	0xbb7e7513	-0.0038827106
26	0x3d38265b	0.044958454
27	0x3e1576a2	0.14596036
28	0xbdb19e32	-0.086727515
29	0x3e09001b	0.13378946
30	0xbe977dab	-0.29588065
31	0xbf4e2cbe	-0.8053702

model.model.4.weight f4 [128, 384]
0	0x3c37c300	0.011215925
1	0x3df35bfc	0.11882779
2	0xbccef89f	-0.025265036
3	0x3c0e91b1	0.008701728
4	0x3c99c8b6	0.018772464
5	0xbd15b610	-0.03655058
6	0x3cfa537b	0.030557385
7	0xbd158b06	-0.036509536
8	0xbe34e976	-0.17667183
9	0x3ded23b2	0.11579074
10	0xbc8af49d	-0.016962344
11	0xbc7ba35d	-0.015358773
12	0xbd958e5d	-0.07302544
13	0x3d56d8d6	0.052452885
14	0xbeca4ac3	-0.39510164
15	0xbd977f05	-0.07397274
16	0x3e0faf7b	0.14031784
17	0xbf160293	-0.5859768
18	0xbe570222	-0.20996907
19	0x3e7a0ac6	0.24418172
20	0x3ef8b80a	0.4857791
21	0x3e6ae42b	0.22938602
22	0xbf409a64	-0.7523558
23	0x3d7a42cc	0.06109886
24	0xbebe378b	-0.3715175
25	0x3d22c720	0.03974068
26	0xbea82b57	-0.32845566
27	0x3f09ad32	0.537799
28	0x3cb1cd64	0.021704383
29	0x3cdf4acf	0.027257351
30	0xbeaa7a36	-0.33296365
31	0xbeee18b0	-0.4650321
32	0xbe3762cf	-0.17908786
33	0x3e2d6c18	0.16935766
34	0x3d2f1383	0.042743217
35	0x3c79e27c	0.015251752
36	0x3e97b780	0.29632187
37	0x3e629870	0.22128463
38	0xbe114aa1	-0.14188625
39	0xbe552e89	-0.20818533
40	0xbe86a90e	-0.26300853
41	0xbdf74280	-0.12073231
42	0xbe297445	-0.1654826
43	0xbd844447	-0.06458335
44	0xbe213f0a	-0.15746704
45	0x3eac1abe	0.33614153
46	0x3d9a5244	0.07535222
47	0x3dd08b84	0.101828605
48	0x3dd2f8f6	0.10301392
49	0xbd9ac53a	-0.07557149
50	0x3d2ebb59	0.042659137
51	0xbd52d951	-0.05147678
52	0xbd7d9f13	-0.061919283
53	0x3b9f1d86	0.0048558144
54	0x3c645686	0.013936644
55	0xbd3fc41c	-0.046817884
56	0xbd60ff4d	-0.054930974
57	0x3d869cb9	0.06572861
58	0x3da53e00	0.08068466
59	0xbdf6a87b	-0.12043854
60	0x3e70c001	0.23510744
61	0x3db6e2b6	0.089299604
62	0x3ed8104d	0.42199937
63	0xbed96699	-0.42461088
64	0x3df9d38b	0.12198552
65	0x3e87a7b8	0.26495147
66	0x3f15b026	0.58471906
67	0xbea7dac6	-0.32784098
68	0xbee3b6d2	-0.44475418
69	0x3e2ca9f8	0.16861713
70	0xbeac2c5d	-0.33627596
71	0x3e5787e5	0.21047933
72	0x3c8af599	0.016962813
73	0x3d51cab9	0.051218722
74	0x3d205341	0.039141897
75	0x3dc28b98	0.09499282
76	0x3d2a56c4	0.041586652
77	0x3dab7f7f	0.08373927
78	0x3d771cf8	0.06033036
79	0x3d626d14	0.055279806
80	0x3d45b87a	0.048271634
81	0x3d2e4180	0.042542934
82	0x3cb1631b	0.021653702
83	0x3c835f09	0.016036527
84	0x3d5e9c25	0.05434813
85	0x3df8c21e	0.121464
86	0xbe17cd3a	-0.14824381
87	0xbeadeef4	-0.3397137
88	0x3e128cd4	0.14311534
89	0x3e720f4e	0.23638651
90	0x3e31b1ef	0.17353033
91	0x3cd01c22	0.02540404
92	0xbf2d1c8e	-0.67621696
93	0xbf3a0c20	-0.7267475
94	0x3ed016a4	0.40642273
95	0x3da4a4f2	0.08039273
96	0xbdd066e8	-0.10175878
97	0xbed34eb1	-0.41270974
98	0xbe782462	-0.24232629
99	0xbedab9d2	-0.42719895
100	0xbcb15cd7	-0.021650715
101	0x3e5185d1	0.20461203
102	0xbeb4b166	-0.35291594
103	0xbe8159e3	-0.2526389
104	0x3e030b6d	0.12797327
105	0x3ee8d056	0.45471448
106	0xbf425bdf	-0.75921434
107	0xbebe89ff	-0.37214658
108	0xbe37cb17	-0.17948566
109	0xbca1a3d4	-0.01973144
110	0xbda11406	-0.07865147
111	0x3cd30bcb	0.02576246
112	0x3e1a4919	0.15066947
113	0x3d886305	0.066595115
114	0xbc1cd1d3	-0.00957151
115	0xbd8fe03a	-0.0702519
116	0xbe156acf	-0.14591525
117	0xbde07ec9	-0.10961682
118	0x3eb8c877	0.36090443
119	0x3eb8da83	0.3610421
120	0x3da10c50	0.078636765
121	0x3aa9b603	0.001294792
122	0x3d2c1f87	0.042022254
123	0xbda2fa64	-0.079579145
124	0x3dddf643	0.10837986
125	0x3d9d4ef8	0.07681078
126	0xbd9e14e8	-0.07718831
127	0x3c9c0ccf	0.019049076
128	0x3dc1293c	0.09431693
129	0xbc7124bf	-0.014718234
130	0xbabaf1ef	-0.0014262776
131	0xbdf56338	-0.11981815
132	0x3c38d25d	0.011280623
133	0xbe3ae5a9	-0.18251671
134	0xbcfb18eb	-0.03065153
135	0xbea29ae9	-0.31758812
136	0xbe728490	-0.23683381
137	0x3e760282	0.24024394
138	0x3d1d95c2	0.0384729
139	0xbefaf49e	-0.49014753
140	0xbdb88039	-0.090088315
141	0xbe93cbe1	-0.28866485
142	0xbf021707	-0.50816387
143	0xbe8de855	-0.27716318
144	0xbc8fb320	-0.017541468
145	0xbda03416	-0.078224346
146	0x3cca1bb4	0.024671413
147	0xbc8deb4d	-0.017324114
148	0x3d09fdd9	0.033689354
149	0xbd10e582	-0.035375126
150	0x3db9bee8	0.090696156
151	0x3d4163bc	0.047214255
152	0x3c1be243	0.009514394
153	0x3d1d45ef	0.038396772
154	0xbcb83434	-0.02248583
155	0x3c871b2c	0.016492449
156	0xbce246da	-0.027621675
157	0x3f1dc976	0.6163553
158	0x3ea26687	0.31718847
159	0xbd60606c	-0.054779455
160	0xbeaa64f3	-0.33280143
161	0xbec4cabd	-0.38435927
162	0x3ebc94d9	0.36832312
163	0x3ede2e24	0.43394578
164	0xbeb73a47	-0.3578665
165	0xbeca399a	-0.39497072
166	0xbca6f0c6	-0.020378482
167	0xbcd10446	-0.025514733
168	0xbe546e9d	-0.2074532
169	0x3baf0643	0.0053413226
170	0x3df3b504	0.1189976
171	0xbe154a81	-0.14579202
172	0xbcc3c9bc	-0.023899905
173	0x3ee32ce8	0.44370198
174	0xbe8046ae	-0.25053924
175	0x3e306bbd	0.17228599
176	0xbe304fab	-0.17217891
177	0x3d1a476e	0.037665777
178	0xbe5c0ff5	-0.21490462
179	0x3ec85160	0.39124584
180	0x3f29756e	0.6619481
181	0xbb2d2f34	-0.002642584
182	0xbefaff47	-0.49022886
183	0x3eb562e7	0.3542702
184	0xbd8f694f	-0.07002508
185	0x3e695403	0.22785954
186	0xbd50ecb7	-0.051007
187	0x3efb5ac0	0.49092674
188	0x3ef04b77	0.46932575
189	0xbd6bbb52	-0.05755169
190	0xbdd730c3	-0.105073474
191	0x3c9fcbe3	0.0195064
192	0x3eb785a6	0.35844153
193	0x3bcec3e7	0.0063099745
194	0x3e68c18b	0.22730081
195	0xbf2f6d2b	-0.6852595
196	0xbe782a38	-0.24234855
197	0xbe80ab66	-0.25130767
198	0x3e3c1a56	0.18369421
199	0xbe95c5f7	-0.29252598
200	0xbe25d1e0	-0.16193342
201	0x3e055c57	0.13023506
202	0xbe5822e8	-0.21107066
203	0xbebffb9b	-0.37496647
204	0xbd22ae9d	-0.039717305
205	0x3e797679	0.243616
206	0xbec1249b	-0.3772324
207	0xbd12bbcc	-0.03582363
208	0x3ef968a6	0.48712653
209	0x3dac116f	0.08401763
210	0xbed52dc8	-0.4163649
211	0x3d753726	0.059867047
212	0x3f4552a1	0.77079207
213	0x3edefc19	0.4355171
214	0xbeed7fcb	-0.4638656
215	0xbe6bda8e	-0.23032591
216	0xbdc50560	-0.09620166
217	0x3e40dbd8	0.18833864
218	0xbe74d006	-0.2390748
219	0xbe4ea413	-0.20179777
220	0xbc919d11	-0.01777509
221	0x3e63baec	0.22239274
222	0x3e6e559d	0.23274846
223	0x3c9e9603	0.01935864
224	0xbc00feed	-0.007873279
225	0x3e586a8e	0.21134397
226	0xbe904a1d	-0.28181544
227	0x3e838479	0.25687006
228	0x3bc24468	0.005928565
229	0x3ed7a4c4	0.42117894
230	0x3d5f7ee3	0.054564368
231	0xbf0038ec	-0.50086856
232	0xbe834abf	-0.25642964
233	0xbdea55de	-0.11442159
234	0x3d87cda2	0.06631018
235	0xbe1ee0f9	-0.15515508
236	0xbac5bca2	-0.0015086124
237	0xbe56c53f	-0.20973681
238	0xbe651036	-0.22369465
239	0xbe91a38d	-0.28445092
240	0x3ea27eca	0.31737357
241	0xbe411b90	-0.1885817
242	0xbda6510a	-0.08120926
243	0x3e88d1a4	0.26722443
244	0x3dbfa431	0.09357489
245	0x3d0ef4f0	0.03490156
246	0xbe3095b6	-0.1724461
247	0xbe07f9a4	-0.13278824
248	0x3e64a0d2	0.22326973
249	0xbdaca1dc	-0.0842931
250	0xbed0e5a1	-0.40800193
251	0xbdac264c	-0.08405742
252	0x3c7c5d53	0.01540311
253	0x3d60edf7	0.05491444
254	0xbeafcee9	-0.34337547
255	0x3c93a38d	0.018022323

model.model.4.bias f4 [128]
0	0x3d5ae46e	0.053440504
1	0xbe7c16e9	-0.24618115
2	0xbc6f2284	-0.0145956315
3	0xbdd94b0e	-0.10610019
4	0xbda9e2db	-0.08295222
5	0xbe508145	-0.20361812
6	0x3d75df23	0.060027253
7	0xbdfda722	-0.12385394
8	0xbd515d09	-0.051114116
9	0x3e08abc0	0.13346767
10	0xbe4d98f6	-0.20077881
11	0x3d1a10ed	0.037613798
12	0xbda8135e	-0.08206819
13	0xbe683445	-0.22676189
14	0xbc9088a3	-0.017643278
15	0xbde86511	-0.11347402
16	0xbdefd177	-0.11709874
17	0xbdb186f4	-0.086683184
18	0xbec5378f	-0.3851895
19	0xbe0bfc40	-0.13670444
20	0xbeb4084d	-0.35162583
21	0xbe0b079a	-0.13577119
22	0xbd9b15cf	-0.07572519
23	0xbe3f3d65	-0.18675764
24	0x3f1864ef	0.5952901
25	0xbea235ca	-0.31681663
26	0xbd28d724	-0.0412208
27	0xbe3ab887	-0.18234454
28	0xbdcb8c49	-0.09938867
29	0xbe0f54f9	-0.13997258
30	0xbd49b66f	-0.049246248
31	0x3ecbb5fe	0.39787287
32	0xbe35a7df	-0.17739819
33	0xbdba9a18	-0.09111422
34	0xbe5f58a4	-0.21811157
35	0xbe8e5470	-0.27798796
36	0xbe6bef78	-0.23040569
37	0xbebcfe78	-0.36912894
38	0x3c4332a7	0.011913932
39	0xbe4f7003	-0.20257573
40	0xbe009bf5	-0.12559493
41	0xbdcd24c3	-0.10016777
42	0xbde405a8	-0.11133891
43	0xbd814a70	-0.06313026
44	0xbe52ae85	-0.20574386
45	0xbc9b7e54	-0.018981136
46	0xbdde6ad8	-0.108602226
47	0xbe651e19	-0.22374763
48	0xbdaa2ab1	-0.08308924
49	0xbe1d3018	-0.15350378
50	0xbe593e3f	-0.21215151
51	0x3e17cdc5	0.14824589
52	0xbd46963e	-0.048483126
53	0xbc19c2e8	-0.009384848
54	0xbd866f38	-0.06564182
55	0xbc6b655c	-0.014367428
56	0xbd09a485	-0.033604164
57	0xbd94a063	-0.07257154
58	0xbe19c746	-0.15017423
59	0x3dc57cdf	0.09642958
60	0xbc45ac09	-0.012064942
61	0xbe37f66a	-0.17965093
62	0xbdf6a1c9	-0.12042577
63	0xbdb8124b	-0.08987864
64	0xbd4dfbfe	-0.050289147
65	0x3caffe16	0.021483462
66	0xbe5a547f	-0.21321295
67	0xbe66c314	-0.22535354
68	0xbc915eb7	-0.017745359
69	0xbe464424	-0.19361931
70	0xbe56ef6f	-0.20989774
71	0xbd164c83	-0.03669406
72	0xbe162136	-0.14661106
73	0xbda81e2b	-0.08208879
74	0xbdef8235	-0.11694757
75	0xbd8d846d	-0.06910024
76	0x3d7cef42	0.06175161
77	0x3d814c37	0.06313365
78	0x3e003acb	0.12522428
79	0x3ef43fdf	0.4770498
80	0xbe2470fe	-0.16058728
81	0xbdae6dba	-0.085170224
82	0xbea598fc	-0.3234328
83	0xbcc0e9d7	-0.023549004
84	0xbe82b1a0	-0.25526142
85	0xbd218c20	-0.039440274
86	0xbee0198a	-0.43769485
87	0x3f378e51	0.7170153
88	0xbea2a17b	-0.31763825
89	0xbe91b0ea	-0.28455287
90	0x3ec967e6	0.3933708
91	0xbee01183	-0.4376336
92	0xbe0fdb87	-0.14048587
93	0xbca586e6	-0.020205926
94	0xbdf523f9	-0.11969752
95	0x3ee422ae	0.44557709
96	0xbea38976	-0.31940812
97	0xbdb46997	-0.08809202
98	0xbcb96d61	-0.022635164
99	0xbeaee762	-0.34160906
100	0x3cb2ef90	0.021842748
101	0xbe340f68	-0.17584002
102	0xbe8753b6	-0.26431054
103	0xbd4c7d77	-0.04992434
104	0xbdff925b	-0.12479087
105	0x3e91c758	0.284724
106	0xbe769dec	-0.2408368
107	0x3cc22702	0.023700241
108	0xbdd40afa	-0.10353656
109	0xbcc62f94	-0.024192609
110	0x3c14e9dc	0.00908896
111	0xbe9970db	-0.29968914
112	0xbe5c22b0	-0.21497607
113	0x3b66b1c8	0.003520118
114	0xbf2c16f5	-0.6722253
115	0xbdc8e5b8	-0.098094404
116	0xbe750ded	-0.23931094
117	0xbe322db7	-0.17400251
118	0xbdd4e4ab	-0.103951775
119	0xbe920957	-0.2852275
120	0x3e2f98d2	0.1714814
121	0xbe6ef4ad	-0.23335524
122	0xbe52762c	-0.20552891
123	0xbcb93e5a	-0.02261274
124	0x3dfddca5	0.123956
125	0x3cb78e71	0.022406789
126	0xbd54fdcc	-0.051999852
127	0xbd17d57a	-0.03706882

model.model.6.weight f4 [128, 128]
0	0x3e9f694e	0.3113503
1	0x3d94d2a6	0.072667405
2	0x3da3b2a0	0.079930544
3	0xbd38888e	-0.045052104
4	0x3f311a25	0.6918052
5	0x3bb127d2	0.0054063583
6	0xbeaf1d14	-0.34201872
7	0xbdc53d01	-0.09630776
8	0x3d173fdd	0.03692614
9	0xbde47d45	-0.11156706
10	0xbefccaf5	-0.49373594
11	0x3e66f46e	0.2255418
12	0xbd49c97b	-0.049264412
13	0xbe531086	-0.20611772
14	0x3ec836e6	0.39104384
15	0xbefd4ae3	-0.49471197
16	0xbe0fce76	-0.14043602
17	0xbcd22fb7	-0.025657518
18	0xbf38a7b8	-0.7213092
19	0xbeda00f7	-0.4257886
20	0xbe7888cf	-0.24270938
21	0x3c1e0731	0.009645269
22	0xbef5def4	-0.48021662
23	0x3b28d285	0.0025760245
24	0x3f0b97cd	0.54528505
25	0xbe48f1b4	-0.19623452
26	0xbd86487e	-0.065567955
27	0x3e50118a	0.2031919
28	0x3caca59b	0.02107506
29	0xbc79dfd2	-0.015251117
30	0xbd2b0e63	-0.041761767
31	0xbed99953	-0.4249979
32	0xbdebe7c0	-0.11518812
33	0x3bcc0491	0.0062261303
34	0x3e264d9d	0.16240545
35	0xbdb316d2	-0.08744587
36	0x3e52059e	0.20509955
37	0xbebf9a1d	-0.37422267
38	0xbd3db5e5	-0.046316046
39	0x3d39ff8c	0.045409724
40	0x3ec555f4	0.3854214
41	0x3e6c65d7	0.23085724
42	0xbede16c7	-0.43376753
43	0xbdc445d4	-0.09583631
44	0x3df2873e	0.11842202
45	0xbef97125	-0.48719135
46	0xbef38676	-0.47563523
47	0xbe379e73	-0.17931537
48	0x3e058db2	0.13042334
49	0x3ec67f69	0.3876908
50	0xbc40dfc2	-0.011772098
51	0xbf5c8e4b	-0.8615462
52	0x3d08f555	0.03343709
53	0x3c94ee14	0.01817993
54	0x3edf7115	0.43640962
55	0x3daf498b	0.08558949
56	0xbdbabddc	-0.09118244
57	0x3f1f8f6d	0.62328225
58	0x3ec445c3	0.38334474
59	0xbdfcb4ce	-0.12339173
60	0xbe346414	-0.17616302
61	0xbe3eab10	-0.18619943
62	0x3d1b68b5	0.037941653
63	0xbe0e6d9e	-0.13909003
64	0xbd3a536c	-0.045489714
65	0xbf275bfe	-0.65374744
66	0xbe583261	-0.21112968
67	0xbe42f193	-0.19037466
68	0xbef89502	-0.48551184
69	0x3d87f330	0.06638181
70	0x3c4ea555	0.01261266
71	0xbe63dd36	-0.22252354
72	0xbf2bc369	-0.6709505
73	0xbefcc8bd	-0.493719
74	0x3d97dfc9	0.074157305
75	0x3d63ed09	0.055645976
76	0x3ef54fa0	0.47912312
77	0xbebdfd04	-0.37107098
78	0x3eccc7aa	0.39996082
79	0x3eb9f80a	0.3632205
80	0x3f03f2f3	0.51542586
81	0x3df0d550	0.11759436
82	0xbe909c89	-0.28244427
83	0xbde8468c	-0.11341581
84	0xbd3fa93b	-0.04679225
85	0x3e10dc04	0.1414643
86	0xbe5a6b63	-0.21330027
87	0x3ed4eeba	0.41588384
88	0xbf3b00ab	-0.73047894
89	0xbf13a335	-0.5767091
90	0x3e0f7679	0.14010037
91	0xbefe3a53	-0.49653873
92	0x3db5b67f	0.08872699
93	0x3dcee309	0.10101897
94	0xbd116f37	-0.035506453
95	0x3ed6ce60	0.41954327
96	0xbeb6cf7d	-0.35705176
97	0xbb315de5	-0.0027064022
98	0x3d6c5e20	0.057706952
99	0xbe052492	-0.13002232
100	0x3e71086c	0.23538369
101	0xbead84d8	-0.33890414
102	0xbd207724	-0.03917612
103	0xbe8f2d45	-0.27964225
104	0x3f39369c	0.7234895
105	0x3ef48f34	0.47765505
106	0xbe9776a5	-0.29582706
107	0xbea1e00a	-0.3161624
108	0xbd9de504	-0.07709697
109	0x3dbfc07f	0.093628876
110	0x3d57faa3	0.05272926
111	0x3e17b047	0.14813338
112	0x3dd0fff3	0.102050684
113	0x3e8df2e7	0.27724382
114	0xbe5251dd	-0.20539041
115	0x3d6d4355	0.05792554
116	0xbe1f3e8f	-0.15551208
117	0x3beb4cc5	0.0071807825
118	0x3ca12816	0.019672435
119	0x3e36e330	0.17860103
120	0x3f3dcb80	0.7413864
121	0xbea6e71c	-0.32598197
122	0xbd10cea5	-0.03535332
123	0xbf11110d	-0.5666664
124	0x3e35c8a0	0.17752314
125	0x3f354962	0.708151
126	0x3da3c42b	0.079964004
127	0xbe01579d	-0.12631078
128	0xbd1b7306	-0.03795149
129	0xbd497473	-0.04918332
130	0xbe7d81eb	-0.24756591
131	0xbde70cbf	-0.11281728
132	0xbeaac909	-0.33356503
133	0xbcb297d1	-0.021800907
134	0xbd4cbb62	-0.04998339
135	0x3d074219	0.03302202
136	0xbdcb4ba7	-0.09926539
137	0xbd4e8e6b	-0.05042879
138	0xbe3ace48	-0.18242753
139	0xbe54e1c4	-0.20789248
140	0x3bcaa9af	0.0061847786
141	0x3e01af58	0.12664545
142	0xbde06689	-0.10957057
143	0xbdbe20ad	-0.09283576
144	0x3d036608	0.032079726
145	0xbe474dd6	-0.19463286
146	0xbc3d2f84	-0.011546973
147	0xbd50468f	-0.05084854
148	0xbba63726	-0.005072492
149	0x3dae3908	0.085069716
150	0xbd2e65cb	-0.042577546
151	0x3de30f83	0.11086943
152	0xbc1d16d0	-0.009587958
153	0xbc80fcc4	-0.015745528
154	0x3bc062db	0.0058711595
155	0xbe3b426e	-0.1828706
156	0x3d3fdc63	0.046841037
157	0xbd3fb061	-0.046799067
158	0xbc20df6f	-0.009818896
159	0xbe9f1dd2	-0.3107744
160	0xbddc5694	-0.10758701
161	0xbbe66cac	-0.0070319977
162	0x3cdc1898	0.026867196
163	0xbc9d4bc4	-0.019201167
164	0x3cb6adb1	0.02229962
165	0x3e0da3e6	0.13832054
166	0xbcc70e4f	-0.024298815
167	0x3da32081	0.07965184
168	0xbdaa2596	-0.0830795
169	0x3d0a959c	0.033834085
170	0xbde250d8	-0.11050576
171	0x3da4299e	0.0801575
172	0xbd6c10de	-0.057633273
173	0x3d319a39	0.04335997
174	0xbdc29f25	-0.09503011
175	0x3e2053a3	0.15656905
176	0xbe14df0a	-0.14538208
177	0xbddf1039	-0.10891766
178	0x3d9c7fe6	0.07641582
179	0x3dbab8f3	0.091173075
180	0x3c88250d	0.01661923
181	0xbd4af0fd	-0.04954623
182	0xbcf4a125	-0.029861996
183	0x3d90c988	0.07069689
184	0x3d84cb62	0.06484105
185	0x3d3b5ad4	0.045740917
186	0xbd2ef30a	-0.04271225
187	0xbda1d8c6	-0.079026744
188	0x3dd53f1f	0.1041243
189	0xbda680e6	-0.08130054
190	0xbdd504d0	-0.104013085
191	0x3dc51cea	0.096246555
192	0x3c7cdd98	0.015433691
193	0xbc150eff	-0.009097814
194	0xbe2ec9bc	-0.17069143
195	0xbdf727e8	-0.120681584
196	0xbe5da828	-0.21646178
197	0xbcdc14c1	-0.026865365
198	0xbd90b8e7	-0.07066517
199	0xbdc5dab0	-0.09660852
200	0x3d3c514b	0.045975965
201	0xbd840297	-0.064458065
202	0x3d2d9f84	0.042388454
203	0x3b93711f	0.004499569
204	0xbe27759f	-0.16353463
205	0x3d3c08b1	0.045906726
206	0xbe30befe	-0.17260358
207	0xbe6eb0ad	-0.23309584
208	0xbc3c416a	-0.011490205
209	0x3ca448ac	0.020054184
210	0x3cdcd87b	0.026958695
211	0xbce07467	-0.027399255
212	0xbd5750cb	-0.052567285
213	0xbdfd236c	-0.12360272
214	0xbe1411c8	-0.14459908
215	0xbdb7c7d0	-0.08973658
216	0x3db1596e	0.086596355
217	0x3d58b1a7	0.052903797
218	0xbda3c817	-0.079971485
219	0x3dcacaa7	0.09901934
220	0x3d016289	0.03158811
221	0xbd0dc220	-0.03460896
222	0xbdccc7e2	-0.09999062
223	0xbe3fd295	-0.18732674
224	0x3bd1b80a	0.006400113
225	0x3db188e3	0.08668687
226	0x3ab1b5a1	0.0013558158
227	0xbd0e35ce	-0.03471928
228	0xbe183387	-0.14863406
229	0x3d926549	0.07148225
230	0xbd3b3615	-0.045705874
231	0xbd8b762a	-0.068096474
232	0xbd2d9873	-0.042381715
233	0xbd12e175	-0.035859544
234	0xbda017d9	-0.078170486
235	0x3bc1b633	0.0059116124
236	0xbdaf3e0d	-0.08556757
237	0xbd5c754c	-0.0538228
238	0xbddfe5b3	-0.109324835
239	0x3c9824f5	0.01857231
240	0x3d092056	0.033478104
241	0xbd8263f3	-0.0636672
242	0xbdeafdb5	-0.11474172
243	0x3bd8e65a	0.006619257
244	0x3e2a7e96	0.16649851
245	0xbdb1ae9a	-0.08675881
246	0xbcadaa20	-0.021199286
247	0x3d7af04c	0.06126432
248	0xbd59e551	-0.05319721
249	0x3c86f1a1	0.01647264
250	0x3cdd4165	0.027008722
251	0x3de20bc6	0.11037402
252	0xbcf11a25	-0.029431412
253	0x3cbc2444	0.022966512
254	0xbe170d9a	-0.14751282
255	0x3d924620	0.071422815

model.model.6.bias f4 [128]
0	0x3ee7c1bf	0.45265004
1	0x3b21e619	0.00247038
2	0xbdfc9ff3	-0.123351954
3	0xbdb5748e	-0.08860122
4	0xbe37142f	-0.17878793
5	0xbd79223c	-0.060823664
6	0xbec5d9ab	-0.3864263
7	0xbd1ed94c	-0.03878145
8	0xbda43142	-0.08017208
9	0xbe8d21d3	-0.27564868
10	0xbdb33db8	-0.08752006
11	0xbce49bfd	-0.027906412
12	0xbd15b4ea	-0.036549486
13	0xbdac5082	-0.08413793
14	0xbd878323	-0.06616809
15	0xbe0ace45	-0.13555248
16	0x3d394792	0.04523427
17	0xbe8eca01	-0.27888492
18	0xbe3873fb	-0.18012993
19	0xbdd8dfb0	-0.1058954
20	0xbd52280f	-0.051307734
21	0xbcb324ae	-0.021868076
22	0xbe71a90c	-0.23599643
23	0xbd97d9de	-0.07414602
24	0xbde25aff	-0.110525124
25	0xbe80efda	-0.25182992
26	0xbddae5c5	-0.10688356
27	0xbe330410	-0.17482018
28	0x3b9f8ad0	0.0048688427
29	0x3d077244	0.033067957
30	0x3dd7340a	0.105079725
31	0xbd2da75f	-0.042395946
32	0xbd0978d1	-0.033562485
33	0xbdce0e09	-0.10061271
34	0x3f3b9e7d	0.7328871
35	0xbc721528	-0.014775552
36	0xbc8b9ec6	-0.017043483
37	0xbe8f68a8	-0.28009534
38	0xbe1ea477	-0.15492426
39	0xbda455d7	-0.08024185
40	0xbda100b0	-0.07861459
41	0xbe14bc2b	-0.14524905
42	0xbdb95cea	-0.09050925
43	0x3bd1e8fc	0.0064059477
44	0xbd67a430	-0.056553066
45	0xbdf05e27	-0.11736708
46	0xbd0017e9	-0.031272803
47	0xbda4391d	-0.08018706
48	0xbe914caa	-0.28378803
49	0xbe1d2adc	-0.15348381
50	0x3e266b3f	0.16251849
51	0xbc97079b	-0.018436244
52	0x3d8a808b	0.06762799
53	0xbdf0013d	-0.11718986
54	0xbd76d04c	-0.06025724
55	0xbd909aad	-0.07060752
56	0xbe3d2f6c	-0.18475121
57	0x3c3221f2	0.010872351
58	0xbd8a7cdd	-0.06762097
59	0xbdb90d3e	-0.09035729
60	0x3efb05e4	0.49027932
61	0xbe96ce1d	-0.29454127
62	0x3ddb930a	0.10721405
63	0xbdc2c8f7	-0.09510987
64	0xbd1ef5a4	-0.03880848
65	0xbe3ba4ee	-0.18324634
66	0xbe07dd86	-0.13268098
67	0x3eab55e6	0.33463973
68	0x3da30043	0.07959034
69	0xbdccb196	-0.09994809
70	0x3d691f40	0.056914568
71	0xbdc1354f	-0.09433996
72	0xbe22b991	-0.158911
73	0xbe101dba	-0.1407384
74	0xbe4ad8b3	-0.19809227
75	0xbe5655e1	-0.20931198
76	0xbf03ce17	-0.51486343
77	0xbe46a2bc	-0.19398016
78	0xbe52d826	-0.20590267
79	0xbe57296a	-0.21011892
80	0x3d0c5a37	0.034265723
81	0x3d97414a	0.073855
82	0xbddabad5	-0.10680167
83	0x3e36ba04	0.17844397
84	0xbd92d3ae	-0.07169281
85	0xbf12e454	-0.5737965
86	0xbbc31134	-0.0059529785
87	0xbdbd6b75	-0.092490114
88	0xbd855cc6	-0.06511836
89	0xbd2888af	-0.041145977
90	0xbb0c333b	-0.002139284
91	0xbcf5dd46	-0.030012738
92	0xbdb77542	-0.08957912
93	0x3d88224f	0.06647169
94	0xbdb47efd	-0.088132836
95	0xbd95b2f1	-0.07309521
96	0xbd5d2eba	-0.05399964
97	0xbdad3e94	-0.084592015
98	0xbe30aaa2	-0.17252591
99	0xbd972593	-0.073802136
100	0xbdb25a37	-0.08708613
101	0x3e0cfe61	0.13768913
102	0x3def19ca	0.11674841
103	0x3e0afbcf	0.1357262
104	0xbde40acd	-0.111348726
105	0xbc4438a2	-0.011976393
106	0xbe3c64ca	-0.18397823
107	0xbe21a1e7	-0.15784417
108	0x3d5ee0ba	0.054413535
109	0xbdc551ab	-0.096347176
110	0xbd6236f2	-0.05522818
111	0xbd612e29	-0.054975662
112	0xbdc0e44c	-0.09418544
113	0xbbda64e7	-0.0066648605
114	0xbd6a6cfb	-0.057232838
115	0xbd09d267	-0.03364792
116	0xbe003b9a	-0.12522736
117	0xbeae0666	-0.33989257
118	0xbd2dd3bf	-0.042438265
119	0xbe18421a	-0.14868966
120	0xbdab98a8	-0.08378726
121	0x3d9fd9f1	0.07805241
122	0x3caf4a3a	0.021397699
123	0xbce56c5c	-0.028005771
124	0xbe26cf29	-0.16289963
125	0x3d17b9ed	0.037042547
126	0xbda9f444	-0.08298543
127	0xbd85d535	-0.06534807

model.model.8.weight f4 [7, 128]
0	0xbe6bff13	-0.23046522
1	0xbddca131	-0.10772932
2	0xbddfb112	-0.10922445
3	0x3e3bfa4a	0.18357196
4	0x3d81329c	0.06308481
5	0xbd2dd132	-0.042435832
6	0x3ed1444b	0.40872416
7	0x3d53d70f	0.051718768
8	0x3c4663ea	0.012108782
9	0x3e763a37	0.24045645
10	0x3dab595b	0.083666526
11	0x3ea26bb6	0.31722802
12	0x3b87508a	0.004129474
13	0x3d5b1e5f	0.05349576
14	0x3eb7906e	0.3585238
15	0x3d18f2cb	0.03734092
16	0x3dadcb23	0.08486011
17	0x3e0e62fc	0.13904947
18	0x3d01a7d0	0.03165418
19	0x3e4d36b0	0.20040393
20	0x3cf39c9a	0.02973776
21	0x3d67b005	0.05656435
22	0x3eeff4a1	0.46866325
23	0x3d638f7b	0.055556756
24	0xbe511269	-0.20417179
25	0x3df27d4d	0.118403055
26	0x3c557385	0.01302803
27	0x3f19bc98	0.60053396
28	0x3d4fcc3b	0.05073188
29	0x3c77eb84	0.015131835
30	0x3e5b93c2	0.21443084
31	0x3d8c078b	0.06837376
32	0x3dc4b7f4	0.09605399
33	0xbb3df473	-0.0028984814
34	0xbe73d6f8	-0.23812473
35	0x3cce99fe	0.025219914
36	0x3d804016	0.062622234
37	0x3f2087e4	0.6270735
38	0xbc9ec88f	-0.019382743
39	0x3e2f60f4	0.17126828
40	0x3d125bd5	0.03573211
41	0x3d2478ca	0.040154256
42	0x3d86f385	0.065894164
43	0x3c808331	0.015687557
44	0x3d3b6bb2	0.045757003
45	0x3e7491f9	0.23883809
46	0xbd313564	-0.043263808
47	0xbbb885b5	-0.0056311735
48	0x3ecb923e	0.3976001
49	0x3df88de9	0.12136442
50	0xbe255ed5	-0.16149457
51	0xbda2d48c	-0.07950696
52	0xbdff9ae1	-0.12480713
53	0x3dff0676	0.12452404
54	0x3c2fb07c	0.0107232295
55	0xbc8c5403	-0.017129904
56	0x3e9a971b	0.3019341
57	0xbdd6b3da	-0.10483523
58	0x3e42d282	0.19025615
59	0x3dafe13c	0.08587882
60	0xbe0e770f	-0.13912605
61	0x3f1f39e6	0.6219772
62	0x3e76d09c	0.24103016
63	0x3e95a4ea	0.29227382
64	0xbe516d36	-0.20451817
65	0x3e3fe3c3	0.18739228
66	0x3e0d72d3	0.13813333
67	0xbdaa33fb	-0.08310696
68	0xbdcde280	-0.10052967
69	0x3d48414d	0.0488904
70	0x3de74013	0.11291518
71	0x3e20bf33	0.15697937
72	0x3dfcd1c3	0.123446964
73	0x3e0728a9	0.13199104
74	0x3c8acd25	0.016943524
75	0x3e8a3697	0.26994774
76	0x3e975b27	0.2956173
77	0x3e05e442	0.13075355
78	0xb8869408	-6.417191e-05
79	0x3ca76c35	0.02043734
80	0x3be1293d	0.006871371
81	0x3e7e53be	0.24836633
82	0x3dbc6cf4	0.09200469
83	0xbe98efb2	-0.29870373
84	0x3cfc85a1	0.030825438
85	0x3eda79c2	0.4267102
86	0x3e9632d6	0.2933566
87	0x3d832a67	0.06404572
88	0x3e53e7e7	0.20693932
89	0xbcdd83fb	-0.027040472
90	0xbe16bc7f	-0.14720343
91	0xbe0985d4	-0.13429958
92	0x3dcdbe2b	0.10046037
93	0xbd6931ed	-0.05693238
94	0x3e84ae59	0.25914267
95	0x3c8a47b4	0.016879894
96	0x3e4b55c1	0.19856931
97	0xbc959d3c	-0.018263452
98	0x3dc332b1	0.09531153
99	0x3d945228	0.072422326
100	0x3dba171c	0.09086439
101	0xbda962f0	-0.08270824
102	0x3dfd9aac	0.12383017
103	0xbdbda418	-0.09259814
104	0xbbe44bcc	-0.0069670435
105	0x3e7c4cfe	0.24638745
106	0x3dc22d01	0.0948124
107	0x3d3ae98b	0.04563288
108	0x3bd2a390	0.0064281896
109	0x3cc49f58	0.024001762
110	0x3c8742ef	0.016511409
111	0x3d1686cf	0.036749657
112	0x3e377de3	0.17919116
113	0x3cfebc40	0.031095624
114	0xbcc3cdf7	-0.023901923
115	0x3d32e31c	0.04367362
116	0x3da44720	0.080213785
117	0x3f1be172	0.6089088
118	0x3efc27af	0.49249026
119	0x3db46e24	0.0881007
120	0x3e18d353	0.14924364
121	0x3daf4cec	0.085595936
122	0x3eb2c331	0.34914544
123	0xbd7ea317	-0.062167253
124	0x3e47de61	0.19518425
125	0x3d020105	0.031739254
126	0x3d22b3cd	0.039722253
127	0xbe2050ae	-0.15655777
128	0xbe49971b	-0.19686548
129	0xbda68529	-0.08130867
130	0x3d12e4fa	0.0358629
131	0x3e86bb6c	0.26314867
132	0x3dd17e90	0.10229218
133	0x3da3d59f	0.07999729
134	0x3e361f97	0.17785488
135	0xbc043266	-0.008068657
136	0x3e716f24	0.23577553
137	0x3be4126f	0.0069602053
138	0x3c9c9e2e	0.019118395
139	0x3f0a82a5	0.541056
140	0x3df6172f	0.12016141
141	0x3e1bb715	0.15206559
142	0x3de4a2d4	0.111638695
143	0xbd102485	-0.035191078
144	0xbc9b5531	-0.01896152
145	0x3f153a80	0.5829239
146	0x3bf64847	0.0075159403
147	0x3e65632a	0.2240111
148	0x3ccfee6a	0.02538224
149	0x3d16ba8c	0.036799
150	0x3e59bb57	0.2126287
151	0x3e07c0f2	0.13257197
152	0x3d79b3cc	0.060962483
153	0x3d234a07	0.03986552
154	0x3e88b00c	0.26696813
155	0x3e0fd2ba	0.1404523
156	0x3e053ffb	0.13012688
157	0x3df50b02	0.1196499
158	0x3e8fd57f	0.28092572
159	0x3d3f726e	0.046739988
160	0x3d69b4f1	0.057057325
161	0xbca85486	-0.020548116
162	0x3d229afe	0.039698593
163	0xbd9d43e9	-0.076789685
164	0x3dc8c2b5	0.098027624
165	0x3f0d301e	0.55151546
166	0xbd6afa9d	-0.05736791
167	0xbd3c179f	-0.045920964
168	0x3bd6623c	0.006542472
169	0x3e646352	0.22303513
170	0x3e3bd392	0.18342426
171	0x3d5e5610	0.054281294
172	0xbc0e4f6a	-0.008685926
173	0x3eac7ffd	0.33691397
174	0x3e1244f4	0.14284116
175	0x3d6a715a	0.057237007
176	0x3ebb2bd8	0.36556888
177	0x3cfd1788	0.03089501
178	0xbd43f508	-0.047841102
179	0x3b848188	0.0040437616
180	0xbc98c2c1	-0.018647553
181	0x3e69f6bb	0.22848026
182	0x3d251b05	0.04030897
183	0xbc42a12f	-0.0118792495
184	0x3dc5bdbd	0.0965533
185	0x3e3321a4	0.17493302
186	0x3d6b4d16	0.05744656
187	0x3e4ac98a	0.19803444
188	0xbe5a6a9d	-0.21329732
189	0x3d94602b	0.07244905
190	0x3e5a2d5f	0.2130637
191	0x3ea44e20	0.32090855
192	0x3d847932	0.06468429
193	0x3cf94c0f	0.030431775
194	0x3e0f9871	0.14022996
195	0xbd74de63	-0.059782397
196	0x3d8dadb6	0.06917898
197	0x3c0418d2	0.008062558
198	0xbceebc16	-0.02914242
199	0x3e27f688	0.16402638
200	0x3e1297a6	0.14315662
201	0x3e8dbfaa	0.2768529
202	0x3e624ee9	0.22100414
203	0x3e3c57ac	0.18392819
204	0x3ec9e601	0.39433292
205	0x3e37bbc7	0.17942725
206	0x3d21c059	0.039490078
207	0x3d6976b9	0.05699799
208	0xbe81748a	-0.25284225
209	0xbf04db90	-0.51897526
210	0x3d5d9e13	0.05410583
211	0xbe3be3a9	-0.18348564
212	0x3da934ce	0.08262025
213	0x3e5857bd	0.2112722
214	0x3e4a9274	0.1978243
215	0x3dee8363	0.11646154
216	0x3e8572c7	0.2606413
217	0xbcf0bccf	-0.029386906
218	0x3d5d2527	0.05399051
219	0x3e750d6f	0.23930906
220	0xbe2976db	-0.16549246
221	0x3e1b0687	0.15139209
222	0x3d8d5d63	0.06902578
223	0xbc9ef7d7	-0.019405289
224	0x3e8570e0	0.2606268
225	0x3e29d294	0.16584235
226	0xbb87a759	-0.0041398224
227	0x3e935467	0.2877533
228	0x3e6a8b00	0.22904587
229	0x3ed43b44	0.41451466
230	0xbe5a0bed	-0.21293612
231	0xbd8e41e3	-0.06946161
232	0x3cdd7b44	0.027036317
233	0x3e352380	0.17689323
234	0x3e28070a	0.16408935
235	0x3e09b86c	0.13449258
236	0x3e85ae50	0.26109552
237	0x3d6f94dc	0.058491573
238	0x3d3db9ea	0.04631988
239	0x3e83e81d	0.25763026
240	0x3d3adea4	0.045622483
241	0xbd7cf0a9	-0.06175295
242	0x3dbaee76	0.09127514
243	0x3dd7c991	0.105364926
244	0x3c9ba34a	0.01899876
245	0x3dc17cde	0.09447645
246	0x3e546489	0.20741476
247	0x3d4bb355	0.04973157
248	0x3d728d8d	0.059217025
249	0x3c40081d	0.011720684
250	0x3ea2c9b8	0.31794524
251	0x3d1ea3bf	0.03873038
252	0x3e2cda4d	0.1688015
253	0x392709f8	0.00015930075
254	0x3e1566c2	0.1458998
255	0x3e71397e	0.23557088

model.model.8.bias f4 [7]
0	0xbe0ceb6e	-0.13761684
1	0xbd183613	-0.037160944
2	0xbe6bdad0	-0.23032689
3	0x3d6c1aef	0.057642873
4	0xbe5901a2	-0.21192029
5	0x3d0e8ccf	0.034802254
6	0x3e5a82f3	0.21339016

model_old.model.0.weight f4 [32, 1, 4, 4]
0	0x3da21a27	0.079151444
1	0xbed21519	-0.4103172
2	0xbe96584d	-0.29364243
3	0xbe6bff2d	-0.2304656
4	0xbea918a5	-0.33026615
5	0xbb8bb793	-0.004263827
6	0x3e0609bf	0.13089655
7	0xbe1659fa	-0.14682761
8	0x3ca2d61f	0.019877492
9	0xbd995c17	-0.07488268
10	0xbbf298fb	-0.0074034906
11	0xbe752146	-0.23938474
12	0x3e081d5b	0.13292448
13	0x3d2f4473	0.042789888
14	0xbdad6ad0	-0.084676385
15	0xbe118c0d	-0.14213581
16	0x3ee81b6c	0.4533342
17	0xbd5fcbe2	-0.054637797
18	0xbd6b0f56	-0.057387672
19	0x3f1d89b2	0.6153823
20	0x3ed38109	0.41309384
21	0x3ea5c9eb	0.32380614
22	0xbe362c1c	-0.17790264
23	0xbfb58279	-1.4180442
24	0xbe6faa68	-0.23404849
25	0x3dac2692	0.08405794
26	0xbdd89e25	-0.10577039
27	0xbebd6e78	-0.36998343
28	0xbf10476f	-0.56359
29	0x3d7cfff4	0.061767533
30	0xbe584125	-0.211186
31	0xbeb104db	-0.34574017
32	0x3e37bfb4	0.17944223
33	0xbdca2530	-0.09870374
34	0xbece1d81	-0.40256885
35	0x3cf5ce5f	0.030005632
36	0x3cd0eb0d	0.025502706
37	0xbe9abfbf	-0.30224416
38	0xbe9f8a90	-0.31160402
39	0x3e63de44	0.22252756
40	0xbd0d0120	-0.0344249
41	0xbf4c01f6	-0.7969049
42	0xbe43405b	-0.19067518
43	0xbed73c3b	-0.4203814
44	0xbf4d7453	-0.8025562
45	0xbe79cbeb	-0.24394195
46	0x3dd8900b	0.10574349
47	0x3e9826eb	0.29717192
48	0xbe79b29c	-0.2438454
49	0xbddc2b07	-0.10750394
50	0x3e00b28c	0.1256811
51	0xbe988aec	-0.2979349
52	0x3dbf5233	0.0934185
53	0x3db47230	0.08810842
54	0xbf5dabed	-0.8659046
55	0xbe1c97a9	-0.15292229
56	0x3e1128b0	0.14175677
57	0xbddacb91	-0.106833585
58	0xbe94a68d	-0.29033318
59	0xbee4866c	-0.44633806
60	0xbe669ba2	-0.22520307
61	0xbeb17103	-0.34656534
62	0xbeb60345	-0.3554937
63	0xbd3ca52f	-0.04605597
64	0xbddcb1da	-0.1077611
65	0xbd4b3b28	-0.049616963
66	0x3b8f0d2d	0.0043655843
67	0x3cce9d62	0.02522153
68	0xbe802fe7	-0.25036547
69	0xbe4502e7	-0.19239388
70	0xbe0e172b	-0.13876025
71	0xbe33c627	-0.17556058
72	0xbd978222	-0.07397868
73	0x3de7ef13	0.11324897
74	0xbd9f36a5	-0.077740945
75	0xbe9a50bf	-0.3013973
76	0xbe4f8a94	-0.20267707
77	0xbe186178	-0.14880931
78	0xbd6c323b	-0.05766509
79	0xbccd259d	-0.02504235
80	0x3eae60e0	0.34058285
81	0xbe8039f1	-0.25044206
82	0xbc64277f	-0.013925432
83	0xbee1f515	-0.44132295
84	0x3e21239b	0.15736239
85	0xbe1cec32	-0.15324476
86	0x3eae7709	0.34075192
87	0xbbec511e	-0.0072118184
88	0xbf7e5aaa	-0.9935709
89	0xbe3ed5d4	-0.18636256
90	0xbf419de3	-0.7563154
91	0x3e74d7ba	0.23910418
92	0xbe517b36	-0.20457157
93	0xbca80849	-0.020511763
94	0xbdd5be36	-0.104366705
95	0xbc99e1b5	-0.018784383
96	0x3cf9314a	0.03041901
97	0x3dee04b2	0.11621989
98	0xbdade1d1	-0.08490337
99	0xbe6a498a	-0.22879615
100	0xbe3825b2	-0.1798313
101	0xbd8cbbd9	-0.068717666
102	0x3d2a4741	0.04157186
103	0xbe9422d8	-0.28932834
104	0x3cbb1dae	0.0228413
105	0x3be9d384	0.0071358103
106	0xbc0be75a	-0.008539045
107	0xbe517d28	-0.204579
108	0xbe4bd145	-0.19904049
109	0xbe3b7c9d	-0.18309255
110	0x3d06ca45	0.032907743
111	0xbddb9b28	-0.10722953
112	0x3e56a2f5	0.209606
113	0x3e7659fc	0.24057764
114	0x3e1c70a7	0.15277348
115	0xbd6a3b66	-0.057185553
116	0xbeefe504	-0.46854413
117	0x3db08fc2	0.086211696
118	0x3ed0a66c	0.4075197
119	0xbbf9166d	-0.0076015503
120	0xbf03e467	-0.5152039
121	0xbf61f9cb	-0.8827178
122	0xbf3ba6ec	-0.7330158
123	0xbcadd806	-0.021221172
124	0xbdad4ed3	-0.084623
125	0xbf036118	-0.5132003
126	0xbf128dc9	-0.57247597
127	0x3e2a8cf3	0.1665533
128	0x3f02e41b	0.5112931
129	0x3e34b8fa	0.17648688
130	0xbe4b8796	-0.1987594
131	0xbd8765ca	-0.066112116
132	0x3eb1dc97	0.3473861
133	0xbdae5729	-0.08512718
134	0x3ec76323	0.38942823
135	0xbeea0b65	-0.45711818
136	0x3f253074	0.6452706
137	0x3c851112	0.016243491
138	0xbf29c0b9	-0.66309696
139	0xbf48a481	-0.78376013
140	0xbd12806b	-0.035767
141	0xbe908731	-0.28228143
142	0xbe212c19	-0.15739478
143	0xbedc19c3	-0.42988405
144	0x3d91e62d	0.07123981
145	0xbea3bf5b	-0.3198193
146	0xbb81a1a8	-0.0039560385
147	0xbed82c35	-0.42221227
148	0xbed6aa90	-0.41927004
149	0xbdc573a1	-0.09641195
150	0xbde1e831	-0.11030615
151	0xbb878328	-0.004135508
152	0xbe7bb1a0	-0.24579477
153	0x3a1d1b57	0.00059931487
154	0xbe7bc682	-0.24587443
155	0xbda27e10	-0.07934201
156	0x3d5935a8	0.053029686
157	0xbe168338	-0.14698493
158	0xbe45de20	-0.19323015
159	0x3e1296e6	0.14315376
160	0xbd36490a	-0.04450325
161	0xbe015428	-0.1262976
162	0xbee42b9d	-0.44564524
163	0xbd8f9478	-0.0701074
164	0xbef35752	-0.47527558
165	0xbda4e73a	-0.080519155
166	0xbdaad287	-0.08340936
167	0x3d07cc7a	0.03315399
168	0xbe8a1a87	-0.26973364
169	0x3dd5462e	0.10413776
170	0xbc903c84	-0.017606981
171	0xbe9f9721	-0.3116999
172	0x3da4198a	0.08012684
173	0xbe419042	-0.18902686
174	0x3e2d17d5	0.16903622
175	0x3ddbb704	0.10728267
176	0x3e67da5b	0.2264189
177	0x3e010890	0.12600923
178	0x3deaa9f8	0.114582
179	0xbe783538	-0.24239051
180	0xbdee89ad	-0.11647353
181	0x3e000bfe	0.12504575
182	0x3eb04ffd	0.34436026
183	0x3cbc6df1	0.023001643
184	0x3e6b506a	0.22979894
185	0x3e97c868	0.29645085
186	0xbf5d3662	-0.86411107
187	0xbe8864d0	-0.26639414
188	0x3ec9bb74	0.39400828
189	0xbf05fef6	-0.52342165
190	0xbf2171e8	-0.6306443
191	0x3dbad456	0.09122531
192	0xbe920ce1	-0.2852545
193	0xbd99036f	-0.07471358
194	0xbe126adc	-0.14298576
195	0xbe4c803c	-0.19970793
196	0xbebfac51	-0.37436154
197	0xbdd8575c	-0.105635375
198	0x3e080f40	0.13287067
199	0xbe13ec7d	-0.14445682
200	0xbe54e868	-0.20791781
201	0xbe1ab023	-0.15106253
202	0xbd7f2a40	-0.062296152
203	0xbe2de022	-0.16980031
204	0x3e392c10	0.18083215
205	0x3e634246	0.2219325
206	0xbd3c7707	-0.04601195
207	0x3e7a0405	0.24415596
208	0x3e6779f2	0.22605112
209	0x3e307eeb	0.17235915
210	0xbd228bf2	-0.039684244
211	0x3e154d8c	0.14580363
212	0x3f14465b	0.57919854
213	0x3eeeb383	0.46621332
214	0xbe1e6fab	-0.15472285
215	0x3dd66d62	0.10470082
216	0xbed55c23	-0.41671857
217	0x3dad1766	0.084517285
218	0x3eb818c4	0.35956395
219	0xbd73a94a	-0.05948762
220	0x3ceb8e6f	0.028754441
221	0xbf2280d7	-0.63477844
222	0x3e9db160	0.3079939
223	0xbe32f74e	-0.17477152
224	0x3d845075	0.064606585
225	0xbcad7b69	-0.02117701
226	0x3d874f21	0.066068895
227	0x3e61fe39	0.22069634
228	0x3cee91c8	0.029122248
229	0x3e0bc040	0.13647556
230	0x3e2c550f	0.16829322
231	0x3f1979b3	0.59951323
232	0xbe2b6a57	-0.16739784
233	0xbdb637a1	-0.08897329
234	0x3e87f6c8	0.26555467
235	0xbf86ee45	-1.0541464
236	0xbcb50413	-0.02209667
237	0x3e15015a	0.14551297
238	0xbebae826	-0.3650524
239	0xbf27dbc4	-0.6556971
240	0xbea5803c	-0.32324398
241	0xbf1b763b	-0.6072728
242	0xbe1ac4bd	-0.15114112
243	0x3ebf61dd	0.3737935
244	0xbf1f408e	-0.6220788
245	0x3d0188c4	0.03162457
246	0x3e768eb9	0.24077882
247	0xbfa8dfc7	-1.3193291
248	0xbe69d190	-0.22833848
249	0xbe828edd	-0.2549962
250	0x3d88e2cf	0.06683885
251	0xbe545b65	-0.20737989
252	0xbe748463	-0.23878627
253	0xbe94f639	-0.29094103
254	0x3e169415	0.14704926
255	0xbd725649	-0.05916432

model_old.model.0.bias f4 [32]
0	0xbe39462c	-0.18093175
1	0x3dafd243	0.08585026
2	0x3da367c6	0.079787776
3	0xbf0ed3b0	-0.5579176
4	0xbe141c35	-0.14463885
5	0xbea3475e	-0.31890386
6	0xbeba9183	-0.36439142
7	0xbe763a64	-0.24045712
8	0xbdb23f23	-0.087034486
9	0xbe3e44dc	-0.18580955
10	0xbd1e3655	-0.038626034
11	0xbe06e662	-0.13173822
12	0xbe8b6dde	-0.2723226
13	0xbf32ae3c	-0.6979711
14	0xbf42140b	-0.75811833
15	0xbe3221aa	-0.17395654
16	0xbe4a6431	-0.19764782
17	0xbe48a63d	-0.19594665
18	0xbee44ac3	-0.4458829
19	0xbb45115d	-0.0030070164
20	0x3e862e73	0.26207313
21	0xbea7459c	-0.32670295
22	0xbe28eeaf	-0.164973
23	0xbed19c92	-0.40939766
24	0x3ef50bdc	0.4786061
25	0xbb7e7513	-0.0038827106
26	0x3d38265b	0.044958454
27	0x3e1576a2	0.14596036
28	0xbdb19e32	-0.086727515
29	0x3e09001b	0.13378946
30	0xbe977dab	-0.29588065
31	0xbf4e2cbe	-0.8053702

model_old.model.4.weight f4 [128, 384]
0	0x3c37c300	0.011215925
1	0x3df35bfc	0.11882779
2	0xbccef89f	-0.025265036
3	0x3c0e91b1	0.008701728
4	0x3c99c8b6	0.018772464
5	0xbd15b610	-0.03655058
6	0x3cfa537b	0.030557385
7	0xbd158b06	-0.036509536
8	0xbe34e976	-0.17667183
9	0x3ded23b2	0.11579074
10	0xbc8af49d	-0.016962344
11	0xbc7ba35d	-0.015358773
12	0xbd958e5d	-0.07302544
13	0x3d56d8d6	0.052452885
14	0xbeca4ac3	-0.39510164
15	0xbd977f05	-0.07397274
16	0x3e0faf7b	0.14031784
17	0xbf160293	-0.5859768
18	0xbe570222	-0.20996907
19	0x3e7a0ac6	0.24418172
20	0x3ef8b80a	0.4857791
21	0x3e6ae42b	0.22938602
22	0xbf409a64	-0.7523558
23	0x3d7a42cc	0.06109886
24	0xbebe378b	-0.3715175
25	0x3d22c720	0.03974068
26	0xbea82b57	-0.32845566
27	0x3f09ad32	0.537799
28	0x3cb1cd64	0.021704383
29	0x3cdf4acf	0.027257351
30	0xbeaa7a36	-0.33296365
31	0xbeee18b0	-0.4650321
32	0xbe3762cf	-0.17908786
33	0x3e2d6c18	0.16935766
34	0x3d2f1383	0.042743217
35	0x3c79e27c	0.015251752
36	0x3e97b780	0.29632187
37	0x3e629870	0.22128463
38	0xbe114aa1	-0.14188625
39	0xbe552e89	-0.20818533
40	0xbe86a90e	-0.26300853
41	0xbdf74280	-0.12073231
42	0xbe297445	-0.1654826
43	0xbd844447	-0.06458335
44	0xbe213f0a	-0.15746704
45	0x3eac1abe	0.33614153
46	0x3d9a5244	0.07535222
47	0x3dd08b84	0.101828605
48	0x3dd2f8f6	0.10301392
49	0xbd9ac53a	-0.07557149
50	0x3d2ebb59	0.042659137
51	0xbd52d951	-0.05147678
52	0xbd7d9f13	-0.061919283
53	0x3b9f1d86	0.0048558144
54	0x3c645686	0.013936644
55	0xbd3fc41c	-0.046817884
56	0xbd60ff4d	-0.054930974
57	0x3d869cb9	0.06572861
58	0x3da53e00	0.08068466
59	0xbdf6a87b	-0.12043854
60	0x3e70c001	0.23510744
61	0x3db6e2b6	0.089299604
62	0x3ed8104d	0.42199937
63	0xbed96699	-0.42461088
64	0x3df9d38b	0.12198552
65	0x3e87a7b8	0.26495147
66	0x3f15b026	0.58471906
67	0xbea7dac6	-0.32784098
68	0xbee3b6d2	-0.44475418
69	0x3e2ca9f8	0.16861713
70	0xbeac2c5d	-0.33627596
71	0x3e5787e5	0.21047933
72	0x3c8af599	0.016962813
73	0x3d51cab9	0.051218722
74	0x3d205341	0.039141897
75	0x3dc28b98	0.09499282
76	0x3d2a56c4	0.041586652
77	0x3dab7f7f	0.08373927
78	0x3d771cf8	0.06033036
79	0x3d626d14	0.055279806
80	0x3d45b87a	0.048271634
81	0x3d2e4180	0.042542934
82	0x3cb1631b	0.021653702
83	0x3c835f09	0.016036527
84	0x3d5e9c25	0.05434813
85	0x3df8c21e	0.121464
86	0xbe17cd3a	-0.14824381
87	0xbeadeef4	-0.3397137
88	0x3e128cd4	0.14311534
89	0x3e720f4e	0.23638651
90	0x3e31b1ef	0.17353033
91	0x3cd01c22	0.02540404
92	0xbf2d1c8e	-0.67621696
93	0xbf3a0c20	-0.7267475
94	0x3ed016a4	0.40642273
95	0x3da4a4f2	0.08039273
96	0xbdd066e8	-0.10175878
97	0xbed34eb1	-0.41270974
98	0xbe782462	-0.24232629
99	0xbedab9d2	-0.42719895
100	0xbcb15cd7	-0.021650715
101	0x3e5185d1	0.20461203
102	0xbeb4b166	-0.35291594
103	0xbe8159e3	-0.2526389
104	0x3e030b6d	0.12797327
105	0x3ee8d056	0.45471448
106	0xbf425bdf	-0.75921434
107	0xbebe89ff	-0.37214658
108	0xbe37cb17	-0.17948566
109	0xbca1a3d4	-0.01973144
110	0xbda11406	-0.07865147
111	0x3cd30bcb	0.02576246
112	0x3e1a4919	0.15066947
113	0x3d886305	0.066595115
114	0xbc1cd1d3	-0.00957151
115	0xbd8fe03a	-0.0702519
116	0xbe156acf	-0.14591525
117	0xbde07ec9	-0.10961682
118	0x3eb8c877	0.36090443
119	0x3eb8da83	0.3610421
120	0x3da10c50	0.078636765
121	0x3aa9b603	0.001294792
122	0x3d2c1f87	0.042022254
123	0xbda2fa64	-0.079579145
124	0x3dddf643	0.10837986
125	0x3d9d4ef8	0.07681078
126	0xbd9e14e8	-0.07718831
127	0x3c9c0ccf	0.019049076
128	0x3dc1293c	0.09431693
129	0xbc7124bf	-0.014718234
130	0xbabaf1ef	-0.0014262776
131	0xbdf56338	-0.11981815
132	0x3c38d25d	0.011280623
133	0xbe3ae5a9	-0.18251671
134	0xbcfb18eb	-0.03065153
135	0xbea29ae9	-0.31758812
136	0xbe728490	-0.23683381
137	0x3e760282	0.24024394
138	0x3d1d95c2	0.0384729
139	0xbefaf49e	-0.49014753
140	0xbdb88039	-0.090088315
141	0xbe93cbe1	-0.28866485
142	0xbf021707	-0.50816387
143	0xbe8de855	-0.27716318
144	0xbc8fb320	-0.017541468
145	0xbda03416	-0.078224346
146	0x3cca1bb4	0.024671413
147	0xbc8deb4d	-0.017324114
148	0x3d09fdd9	0.033689354
149	0xbd10e582	-0.035375126
150	0x3db9bee8	0.090696156
151	0x3d4163bc	0.047214255
152	0x3c1be243	0.009514394
153	0x3d1d45ef	0.038396772
154	0xbcb83434	-0.02248583
155	0x3c871b2c	0.016492449
156	0xbce246da	-0.027621675
157	0x3f1dc976	0.6163553
158	0x3ea26687	0.31718847
159	0xbd60606c	-0.054779455
160	0xbeaa64f3	-0.33280143
161	0xbec4cabd	-0.38435927
162	0x3ebc94d9	0.36832312
163	0x3ede2e24	0.43394578
164	0xbeb73a47	-0.3578665
165	0xbeca399a	-0.39497072
166	0xbca6f0c6	-0.020378482
167	0xbcd10446	-0.025514733
168	0xbe546e9d	-0.2074532
169	0x3baf0643	0.0053413226
170	0x3df3b504	0.1189976
171	0xbe154a81	-0.14579202
172	0xbcc3c9bc	-0.023899905
173	0x3ee32ce8	0.44370198
174	0xbe8046ae	-0.25053924
175	0x3e306bbd	0.17228599
176	0xbe304fab	-0.17217891
177	0x3d1a476e	0.037665777
178	0xbe5c0ff5	-0.21490462
179	0x3ec85160	0.39124584
180	0x3f29756e	0.6619481
181	0xbb2d2f34	-0.002642584
182	0xbefaff47	-0.49022886
183	0x3eb562e7	0.3542702
184	0xbd8f694f	-0.07002508
185	0x3e695403	0.22785954
186	0xbd50ecb7	-0.051007
187	0x3efb5ac0	0.49092674
188	0x3ef04b77	0.46932575
189	0xbd6bbb52	-0.05755169
190	0xbdd730c3	-0.105073474
191	0x3c9fcbe3	0.0195064
192	0x3eb785a6	0.35844153
193	0x3bcec3e7	0.0063099745
194	0x3e68c18b	0.22730081
195	0xbf2f6d2b	-0.6852595
196	0xbe782a38	-0.24234855
197	0xbe80ab66	-0.25130767
198	0x3e3c1a56	0.18369421
199	0xbe95c5f7	-0.29252598
200	0xbe25d1e0	-0.16193342
201	0x3e055c57	0.13023506
202	0xbe5822e8	-0.21107066
203	0xbebffb9b	-0.37496647
204	0xbd22ae9d	-0.039717305
205	0x3e797679	0.243616
206	0xbec1249b	-0.3772324
207	0xbd12bbcc	-0.03582363
208	0x3ef968a6	0.48712653
209	0x3dac116f	0.08401763
210	0xbed52dc8	-0.4163649
211	0x3d753726	0.059867047
212	0x3f4552a1	0.77079207
213	0x3edefc19	0.4355171
214	0xbeed7fcb	-0.4638656
215	0xbe6bda8e	-0.23032591
216	0xbdc50560	-0.09620166
217	0x3e40dbd8	0.18833864
218	0xbe74d006	-0.2390748
219	0xbe4ea413	-0.20179777
220	0xbc919d11	-0.01777509
221	0x3e63baec	0.22239274
222	0x3e6e559d	0.23274846
223	0x3c9e9603	0.01935864
224	0xbc00feed	-0.007873279
225	0x3e586a8e	0.21134397
226	0xbe904a1d	-0.28181544
227	0x3e838479	0.25687006
228	0x3bc24468	0.005928565
229	0x3ed7a4c4	0.42117894
230	0x3d5f7ee3	0.054564368
231	0xbf0038ec	-0.50086856
232	0xbe834abf	-0.25642964
233	0xbdea55de	-0.11442159
234	0x3d87cda2	0.06631018
235	0xbe1ee0f9	-0.15515508
236	0xbac5bca2	-0.0015086124
237	0xbe56c53f	-0.20973681
238	0xbe651036	-0.22369465
239	0xbe91a38d	-0.28445092
240	0x3ea27eca	0.31737357
241	0xbe411b90	-0.1885817
242	0xbda6510a	-0.08120926
243	0x3e88d1a4	0.26722443
244	0x3dbfa431	0.09357489
245	0x3d0ef4f0	0.03490156
246	0xbe3095b6	-0.1724461
247	0xbe07f9a4	-0.13278824
248	0x3e64a0d2	0.22326973
249	0xbdaca1dc	-0.0842931
250	0xbed0e5a1	-0.40800193
251	0xbdac264c	-0.08405742
252	0x3c7c5d53	0.01540311
253	0x3d60edf7	0.05491444
254	0xbeafcee9	-0.34337547
255	0x3c93a38d	0.018022323
