project/paper_notebooks/saved_variables/paper_notebooks/7/6/6-looping-iteration-67/best_policy_agent1.pth (torch, 543093 bytes, 16 tensors)

model.model.0.weight f4 [32, 1, 4, 4]
0	0xbe29e2d4	-0.16590434
1	0xbdf783f2	-0.120857134
2	0x3e605f5f	0.21911381
3	0x3c274044	0.010208193
4	0x3d55ac6c	0.052166387
5	0x3e445646	0.19173536
6	0x3bbf644c	0.0058408137
7	0xbe31e348	-0.17371857
8	0x3e22b2ea	0.15888563
9	0x3c7335de	0.014844386
10	0x3e64000d	0.22265644
11	0x3d314197	0.043275442
12	0x3de1969b	0.11015054
13	0x3ca57081	0.020195248
14	0x3dec4082	0.115357414
15	0x3e1c3116	0.152531
16	0x3d58cac2	0.05292774
17	0x3d108fe1	0.035293464
18	0xbe0ec30b	-0.1394159
19	0xbd913752	-0.0709063
20	0x3d8ed05a	0.06973334
21	0x3dd46bc5	0.10372118
22	0x3e444d5c	0.19170135
23	0xbe594722	-0.21218541
24	0xbe816259	-0.25270346
25	0x3e4a5c55	0.19761784
26	0xbe77570d	-0.24154301
27	0xbea45d2e	-0.3210234
28	0xbc30b31d	-0.010784891
29	0xbdb0386c	-0.086045116
30	0x3e5b84f0	0.2143743
31	0xbe774937	-0.24149023
32	0x3dd82c05	0.10555271
33	0xbdcce579	-0.10004706
34	0xbe5bb1ac	-0.21454495
35	0x3d0aff76	0.033935033
36	0xbe4a9ba9	-0.19785942
37	0x3de2d2c7	0.11075359
38	0xbd09c2e8	-0.033633143
39	0xbe9c42d7	-0.30519745
40	0xbd93b253	-0.07211747
41	0xbd2da4df	-0.04239356
42	0x3e67709d	0.22601552
43	0x3dbc386f	0.09190451
44	0xbce17e39	-0.027526008
45	0x3e63e6e5	0.22256048
46	0x3d9207e8	0.07130414
47	0x3e09fdeb	0.13475768
48	0x3d0bf87f	0.03417253
49	0xbe71f079	-0.2362689
50	0xbe1b7cec	-0.15184373
51	0xbe0e51bb	-0.13898365
52	0xbe17daca	-0.14829555
53	0x3e4c740a	0.1996614
54	0xbdaeb5a2	-0.085307375
55	0x3d9a41f2	0.07532109
56	0x3e464651	0.19362761
57	0xbe33a47a	-0.17543212
58	0x3e32ecd8	0.17473161
59	0x3df6b4b8	0.12046188
60	0xbe5409f6	-0.20706925
61	0x3e20996c	0.15683526
62	0xbdf053f2	-0.11734761
63	0x3e77b323	0.24189429
64	0xbcab5d80	-0.020918608
65	0xbdb8acc0	-0.090173244
66	0x3e8f7bd2	0.28024155
67	0xbe01435f	-0.12623356
68	0x3e909ece	0.28246158
69	0x3d9756cc	0.07389602
70	0x3da04eb6	0.07827513
71	0x3c890e94	0.016730584
72	0x3e7b7646	0.24556836
73	0x3d96eff6	0.07369988
74	0xbdcc6015	-0.09979264
75	0xbe93bc8a	-0.2885478
76	0xbe137601	-0.14400484
77	0xbd27c97e	-0.040963642
78	0xbddadd9e	-0.106868014
79	0xbe11601f	-0.14196824
80	0x3d50ad30	0.050946414
81	0x3e3a0dd3	0.18169336
82	0xbe746f53	-0.23870592
83	0xbe625522	-0.22102788
84	0xbca03dd2	-0.019560728
85	0x3dca4c57	0.09877842
86	0xbbb770cd	-0.0055981637
87	0xbe79e9e7	-0.24405633
88	0x3e8e6eaf	0.2781882
89	0x3e2bce16	0.16777834
90	0xbcd1a410	-0.025590926
91	0x3d77ea6d	0.0605263
92	0x3d8789f5	0.0661811
93	0xbe4f4317	-0.20240436
94	0x3e477917	0.19479786
95	0x3e27b6fd	0.16378398
96	0xbe07b02e	-0.13250801
97	0x3d81a23c	0.06329772
98	0xbe692f7d	-0.22772022
99	0x3e1669d2	0.14688805
100	0xbd4a366f	-0.04936832
101	0x3dd9fb6e	0.106436595
102	0xbc4a4fb6	-0.012348106
103	0x3dc714db	0.09720775
104	0x3e0ab628	0.1354605
105	0x3e21ea60	0.15812063
106	0x3e480089	0.19531454
107	0xbd55fb39	-0.052241538
108	0xbd94325e	-0.07236169
109	0xba27b29c	-0.00063971593
110	0x3e75a397	0.23988186
111	0xbdfe8114	-0.124269634
112	0x3e371aaf	0.17881273
113	0xbe6cd939	-0.23129739
114	0x3e652a84	0.223795
115	0xbe4be720	-0.19912386
116	0x3e0e5a01	0.13901521
117	0xbe542852	-0.20718506
118	0xbd9ae3b9	-0.07562966
119	0x3e144743	0.14480309
120	0x3e8ab904	0.2709428
121	0x3d8da187	0.069155745
122	0xbc22c507	-0.00993467
123	0x3e718cd1	0.23588873
124	0x3e546ab7	0.20743833
125	0xbda6d4b2	-0.08146037
126	0xbdc6c541	-0.09705592
127	0xbe32fb5b	-0.17478697
128	0xbe4804a3	-0.19533019
129	0x3dbf4da5	0.093409814
130	0xbdbad737	-0.0912308
131	0x3e029c12	0.12754849
132	0xbe8f9ac3	-0.2804776
133	0x3e4d7901	0.2006569
134	0x3e646de7	0.2230755
135	0xbe7d995c	-0.24765533
136	0xbe7078eb	-0.23483627
137	0x3c83ec29	0.01610382
138	0x3e1b9180	0.15192223
139	0xbde2354d	-0.110453226
140	0x3e3724de	0.17885157
141	0x3d93fc67	0.07225876
142	0x3e41f748	0.18941987
143	0xbdabf655	-0.083965935
144	0xbd515fa3	-0.051116597
145	0x3e0f1286	0.1397191
146	0x3e57e187	0.21082126
147	0xbc83ecd9	-0.016104149
148	0xbe906416	-0.2820136
149	0xbcb36034	-0.02189646
150	0xbdf154de	-0.11783765
151	0xbc643755	-0.013929208
152	0x3d849f43	0.06475689
153	0xbe0a173d	-0.13485427
154	0x3e4743da	0.19459477
155	0xbe2d1608	-0.16902936
156	0x3e71b6ac	0.2360484
157	0xbdd1fb1d	-0.10252974
158	0x3d20f6d0	0.03929788
159	0xbd87ea37	-0.0663647
160	0x3d971dc2	0.07378723
161	0x3df50ee3	0.1196573
162	0xbe858b9d	-0.2608308
163	0x3dc64d06	0.0968266
164	0x3e73cd22	0.2380872
165	0xbe6c33dc	-0.23066658
166	0xbe9186f4	-0.28423274
167	0xbe187bed	-0.14891024
168	0x3e3281a0	0.1743226
169	0x3d79a00c	0.06094365
170	0xbe8b8b6b	-0.27254805
171	0xbdd8a175	-0.105776705
172	0x3c863918	0.016384646
173	0xbd6bd878	-0.057579488
174	0x3ddf5eef	0.10906779
175	0x3e526b50	0.20548749
176	0xbda1073c	-0.07862708
177	0x3ceeec75	0.029165486
178	0x3e4422ec	0.19153947
179	0xbd533ac4	-0.051569715
180	0xbda124d2	-0.07868351
181	0x3e454494	0.19264442
182	0x3e6fe875	0.23428519
183	0xbda1c0c9	-0.07898099
184	0x3dcb0588	0.099131644
185	0x3e6fb0b7	0.23407255
186	0x3e2b48a1	0.16726924
187	0x3d3fa26c	0.046785757
188	0x3d298fed	0.041397024
189	0xbe59cad2	-0.21268776
190	0xbe2aca31	-0.16678692
191	0x3e01a763	0.12661509
192	0x3de43939	0.11143727
193	0xbe0aabbf	-0.13542078
194	0xbd4d76d4	-0.05016215
195	0xbc3e8999	-0.0116294855
196	0xbd63a7fe	-0.05558013
197	0xbe3b27d7	-0.18276916
198	0xbe675615	-0.22591431
199	0xbc9e0c41	-0.019292952
200	0xbdaa493f	-0.08314752
201	0xbe445b4c	-0.19175452
202	0x3e4cfcd6	0.20018324
203	0xbe0df38f	-0.13862441
204	0xbe3844b3	-0.17994957
205	0x3d4077eb	0.046989363
206	0xbe278ad5	-0.16361554
207	0xbce0e12b	-0.027451118
208	0xbd8bad53	-0.06820168
209	0x3a58bea0	0.00082681514
210	0xbe9a396e	-0.3012194
211	0xbe3629f0	-0.17789435
212	0x3e01def1	0.12682702
213	0x3e57f969	0.21091236
214	0xbe31349c	-0.17305225
215	0x3df75a93	0.120778225
216	0xbdd942b3	-0.10608425
217	0xbe89974f	-0.26873252
218	0x3e70500d	0.23468037
219	0xbe2f445b	-0.1711592
220	0x3e3d8922	0.18509343
221	0xba55f804	-0.00081622624
222	0xbe4dc0ee	-0.20093128
223	0x3d6b3a17	0.057428446
224	0x3e052b48	0.13004792
225	0x3dd998e9	0.106248684
226	0x3da0b485	0.07846931
227	0xbc2fc429	-0.010727921
228	0x3d33bad7	0.043879356
229	0x3dbee255	0.09320513
230	0x3d2af5c1	0.041738275
231	0xbe88987b	-0.26678833
232	0xbe7270ca	-0.23675838
233	0x3de03d0a	0.10949142
234	0xbe2a3fa7	-0.16625844
235	0xbe279e6a	-0.16369024
236	0x3e9336e3	0.28752813
237	0xbbb6d27d	-0.0055792914
238	0x3e528673	0.20559101
239	0xbe42b312	-0.19013622
240	0x3bba26d2	0.0056808973
241	0x3dcac759	0.09901304
242	0xbc5e1ccc	-0.01355667
243	0xbd5b7198	-0.05357513
244	0x3d4f1faf	0.050567325
245	0xbd01d5ad	-0.031697918
246	0xbe87a320	-0.26491642
247	0x3e0675b4	0.13130838
248	0xbe561915	-0.20908006
249	0x3dbfb224	0.093601495
250	0x3c98180c	0.018566154
251	0xbe0ad1d5	-0.13556607
252	0xbe4402d4	-0.19141704
253	0x3e2c0f63	0.16802745
254	0xbdb32f53	-0.08749261
255	0x3e532043	0.20617776

model.model.0.bias f4 [32]
0	0x3c324928	0.0108817
1	0xbe14fa5c	-0.1454863
2	0xbe3fad9e	-0.18718573
3	0xbdb056de	-0.086103186
4	0xbe1537d3	-0.14572076
5	0xbe55acae	-0.20866653
6	0x3c821faf	0.015884249
7	0x3db3366c	0.087506145
8	0x3d7356ce	0.059408955
9	0x3e24dc9d	0.16099782
10	0x38844699	6.3074e-05
11	0xbe3aa134	-0.18225557
12	0x3dacd841	0.08439685
13	0x3d965dcc	0.07342109
14	0x3e1aec77	0.15129267
15	0x3e4ec99e	0.20194098
16	0x3e6f750f	0.23384498
17	0x3dbb3183	0.09140303
18	0xbd749585	-0.059712905
19	0xbc13e227	-0.009026087
20	0x3e7e04f5	0.24806578
21	0x3e4eb845	0.20187481
22	0x3e0c7f65	0.13720472
23	0x3ea71f3f	0.32641026
24	0x3e2059cf	0.1565926
25	0x3d99a689	0.07502467
26	0x3d9f2824	0.07771328
27	0x3e8d6c7a	0.27621824
28	0x3e35a902	0.17740253
29	0xbe36d1e8	-0.1785351
30	0x3e46139a	0.19343415
31	0xbe22387b	-0.15841858

model.model.4.weight f4 [128, 384]
0	0xbced407f	-0.028961418
1	0xbd19434e	-0.037417702
2	0xbc55777b	-0.013028975
3	0x3d5a4b82	0.053294666
4	0x3d19f6c5	0.037588853
5	0x3d66cb86	0.05634644
6	0x3c1c3200	0.009533405
7	0x3cbbe154	0.022934593
8	0x3cdbbcf1	0.026823493
9	0x3c65085e	0.013979046
10	0xbd4ccf4b	-0.050002377
11	0xbd298e9f	-0.04139578
12	0x3d224f99	0.03962669
13	0x3e0790bb	0.13238804
14	0x3ce32fb7	0.027732713
15	0x3d909ccc	0.07061157
16	0x3c1066df	0.008813589
17	0x3b4b68ca	0.00310378
18	0x3c180dd0	0.009280637
19	0xbc6076b9	-0.013700181
20	0x3dbc60a5	0.09198121
21	0xbce5f286	-0.028069746
22	0xbca14050	-0.019683987
23	0x3dc2b191	0.09506524
24	0x3dbe43c5	0.0929027
25	0x3dbbe1be	0.09173916
26	0x3d5dab51	0.05411846
27	0x3d3a758c	0.045522258
28	0x3d349328	0.04408565
29	0x3d375cc8	0.044766217
30	0x3cd74f7f	0.026283024
31	0x3d43e5b5	0.047826488
32	0x3d18bc78	0.037289113
33	0x3d14f731	0.036368553
34	0xbd4aa60e	-0.04947477
35	0xbccf4c0e	-0.02530482
36	0x3c9fd131	0.01950893
37	0x3c967ca1	0.018369975
38	0x3cf62c02	0.030050281
39	0xbaefb311	-0.0018287619
40	0x3cce4042	0.025177125
41	0x3c55b6f9	0.013044112
42	0x3daed9a2	0.08537604
43	0x3da75bd0	0.08171809
44	0x3dbaba86	0.09117608
45	0xbd55feb0	-0.052244842
46	0x3d7f107e	0.062271588
47	0xbbb6a9d9	-0.0055744466
48	0xbd2b4cd6	-0.041821323
49	0xbdbe90b1	-0.093049414
50	0xbca07f65	-0.019591996
51	0x3cdec371	0.027192803
52	0x3d032246	0.032015108
53	0x3c01ffd5	0.00793453
54	0xbd4ab5eb	-0.049489897
55	0x3c3c6609	0.011498936
56	0x3c8e8cef	0.017401187
57	0x3cf56dad	0.029959524
58	0x3d2efc01	0.0427208
59	0x3d7b40e7	0.061341193
60	0xbdb3af4a	-0.08773668
61	0x3cb5a7bd	0.02217471
62	0xbd21bfdb	-0.03948961
63	0xbd7766b6	-0.060400687
64	0xbd064d7f	-0.03278875
65	0x3de2f134	0.11081162
66	0x3d601960	0.0547117
67	0x3d22173f	0.03957295
68	0x3d9bc215	0.076053776
69	0x3da34b4a	0.079733446
70	0x3d21d26b	0.03950731
71	0x3cf6046b	0.030031404
72	0xbdc76205	-0.097354926
73	0x3b875b53	0.0041307597
74	0xbd80562c	-0.06266436
75	0x3cf777f0	0.030208558
76	0x3c44fd20	0.01202324
77	0xbd0e2889	-0.034706626
78	0xbcd18164	-0.025574394
79	0xbbfe8c55	-0.0077681937
80	0x3d760b07	0.06006911
81	0xbaff467c	-0.0019475962
82	0x3d7dd8c0	0.061974287
83	0x3d46dade	0.04854857
84	0xbc86d76a	-0.01646014
85	0xbc4a5a9a	-0.012350703
86	0x3b332603	0.002733589
87	0xbcf969df	-0.030445991
88	0xbd3dcea4	-0.046339646
89	0xbc7abc94	-0.01530375
90	0x3d50d442	0.050983675
91	0xbc43b5c8	-0.0119451955
92	0x3bc41081	0.0059834127
93	0x3d6f9438	0.05849096
94	0x3daed5f4	0.08536902
95	0x3d5127e2	0.051063426
96	0xbb25cfed	-0.0025300935
97	0x3d69ceb6	0.0570819
98	0x3d31989a	0.043358423
99	0x3d5e34ee	0.054249696
100	0xbcae3f4f	-0.021270422
101	0x3b2d587d	0.0026450448
102	0x3d8e0e37	0.06936305
103	0xb8c077b3	-9.177569e-05
104	0x3c601241	0.013676227
105	0x3ce37350	0.027764946
106	0xbd1bfb48	-0.038081437
107	0x3d2374e7	0.03990641
108	0x3caa8fc0	0.020820498
109	0xbc096e9e	-0.00838819
110	0xbbf46f7a	-0.007459578
111	0x3d17ef2e	0.037093334
112	0x3d1341a6	0.03595128
113	0x3d8f2fb0	0.069915175
114	0xbd36afb6	-0.044601165
115	0x3d21f8db	0.039543968
116	0x3c478941	0.01217872
117	0xbd10e35c	-0.035373077
118	0xbc9cbcff	-0.01913309
119	0xbd508591	-0.05090863
120	0xbd1b7f5a	-0.03796325
121	0x3ca7a037	0.020462139
122	0xbc6d4643	-0.014482084
123	0xbc4c6acf	-0.012476637
124	0xbc3a473e	-0.0113695245
125	0x3da9622b	0.08270677
126	0x3d820ed9	0.06350488
127	0x3cf448de	0.029819902
128	0x3dc676f7	0.096906595
129	0x3cf69bc7	0.030103577
130	0xbcf7a04b	-0.0302278
131	0x3d536873	0.051613282
132	0xbd2ac66d	-0.04169314
133	0xbd0cd5c2	-0.034383543
134	0xbd18bbda	-0.037288524
135	0x3c93948d	0.01801517
136	0x3abc3b1f	0.0014360881
137	0x3c50df65	0.012748574
138	0xbd1d982d	-0.038475204
139	0xbd734222	-0.05938924
140	0xbc9f5583	-0.019449955
141	0xbd844d95	-0.0646011
142	0xbc668e23	-0.014071974
143	0x3c722e91	0.01478161
144	0x3e0283d7	0.12745605
145	0xbcb557b3	-0.022136545
146	0x3e508fe5	0.20367391
147	0x3dd0b045	0.10189871
148	0x3e0844be	0.13307473
149	0xbd5d5a7d	-0.054041374
150	0x3e150763	0.14553599
151	0x3e015b01	0.12632371
152	0xbca5fcf7	-0.020262225
153	0xbceb6f57	-0.028739614
154	0x3e109f5e	0.14123294
155	0x3d0e94df	0.034809943
156	0x3c87039e	0.016481217
157	0x3e1f6a99	0.15568008
158	0x3d8d9f73	0.06915178
159	0x3d63f778	0.055655926
160	0xbcbfe566	-0.023424815
161	0x3e1f4dda	0.15557042
162	0x3bcca334	0.0062450413
163	0x3c57c067	0.013168431
164	0x3df4e931	0.1195854
165	0x3e375884	0.1790486
166	0x3e0bad76	0.13640389
167	0x3e1ebcb4	0.15501672
168	0x3c5d92eb	0.0135237975
169	0x3cc886a9	0.024478273
170	0xbc87a78f	-0.01655939
171	0x3d93ce45	0.07217077
172	0x3c0382f1	0.008026824
173	0x3d162f50	0.036666214
174	0x3ce29381	0.027658226
175	0x3d445e1b	0.04794131
176	0x3d479618	0.048727125
177	0x3cebf2bd	0.02880227
178	0x3d2b88ca	0.0418785
179	0xbcda55a7	-0.02665217
180	0x3dc0bbd7	0.094108276
181	0x3d73b1e6	0.05949583
182	0x38f677f0	0.00011752534
183	0x3d7e87e4	0.062141314
184	0x3d008f10	0.031386435
185	0x3b1c774c	0.0023874817
186	0x3ded4b47	0.11586624
187	0x3c1d5c2d	0.009604496
188	0x3da1d90d	0.07902727
189	0x3d01821b	0.03161822
190	0x3d27962d	0.040914703
191	0x3d43e198	0.047822565
192	0x3dd36354	0.1032168
193	0x3cbe4171	0.023224564
194	0x3d9fa58a	0.07795246
195	0x3c8ceb90	0.017202169
196	0x3cc30cf7	0.023809893
197	0xbddd56f2	-0.10807599
198	0x3dabb606	0.083843276
199	0x3d961f35	0.07330171
200	0xbb5aaca4	-0.0033367062
201	0xbd83c748	-0.06434494
202	0x3df3bfdd	0.119018294
203	0x3d9abf0c	0.075559705
204	0x3d116674	0.035498098
205	0xbbcd26f0	-0.006260745
206	0x3ba83adc	0.0051339697
207	0x3d2bb2e4	0.04191865
208	0xbaaf916a	-0.0013394777
209	0x3d44549a	0.047932245
210	0xbd4f8640	-0.05066514
211	0x3c1c51b5	0.009540965
212	0x3b8f8106	0.0043793945
213	0x3cf8a842	0.03035367
214	0x3d8d91b4	0.06912556
215	0x3dc31130	0.09524763
216	0x3db92a7b	0.09041306
217	0x3db98162	0.09057881
218	0x3de69399	0.11258621
219	0x3df84dfc	0.12124249
220	0x3e17ec52	0.14836243
221	0x3dad7c34	0.084709555
222	0x3d0edfc0	0.034881353
223	0xbb93dab0	-0.0045121536
224	0x3d8e3913	0.0694448
225	0x3d4484a7	0.04797807
226	0x3e16f693	0.14742498
227	0x3dc984dd	0.09839795
228	0xbc705c65	-0.014670466
229	0x3ccead16	0.025229018
230	0x3e18e072	0.14929369
231	0x3dc87c02	0.097892776
232	0x3ccda94d	0.025105143
233	0xbc4b57b9	-0.012411051
234	0x3c8d43d6	0.01724426
235	0x3db00ab7	0.08595794
236	0xbbf4c707	-0.007470015
237	0x3dc60991	0.096697934
238	0xbd261395	-0.04054602
239	0x3a984a46	0.0011618815
240	0xbce2a81f	-0.027668057
241	0x3b76bfdd	0.003765098
242	0x3c0b458f	0.008500471
243	0x3d1ca6bd	0.03824495
244	0x3ce7f9a2	0.028317276
245	0x3d49dbc1	0.04928184
246	0xbcc29761	-0.023753824
247	0xbcfd0982	-0.030888323
248	0x3ad37b79	0.001613482
249	0xbcc1068c	-0.023562692
250	0x3cb614c0	0.022226691
251	0xbd006f9e	-0.031356446
252	0x3d90df5e	0.07073854
253	0x3d892b02	0.06697656
254	0xbce15518	-0.027506396
255	0x3d022f2b	0.031783264

model.model.4.bias f4 [128]
0	0x3d48315c	0.048875198
1	0x3c747ce3	0.014922353
2	0xbad2c50b	-0.0016080452
3	0x3d516ca5	0.051129002
4	0x3d09880c	0.03357701
5	0xbcf95a5c	-0.030438595
6	0x3d66849c	0.05627881
7	0xbd0236f4	-0.03179069
8	0x3a24c3fc	0.00062853075
9	0xbc1216b4	-0.008916546
10	0xbc2fb275	-0.0107237
11	0x3d7ceeef	0.061751302
12	0x3d5436cd	0.051810075
13	0xbd6ec8b6	-0.05829688
14	0xbc03047c	-0.007996675
15	0xbd7b1601	-0.06130028
16	0x3b8b4ab7	0.00425085
17	0xbd427a76	-0.04748007
18	0x3d1d0027	0.038330223
19	0x3dc04dcc	0.093898386
20	0x3c913834	0.017726995
21	0x3d33c119	0.043885324
22	0x3aa279e2	0.0012395943
23	0x3d94e0ec	0.07269463
24	0x3d0ee9a4	0.034890786
25	0xbce80d33	-0.028326606
26	0xbd1fa0c7	-0.03897169
27	0x3c041368	0.008061267
28	0x3cda0e07	0.026618017
29	0xbb8a5067	-0.0042210105
30	0x3a81199e	0.0009849553
31	0xbd40939e	-0.04701578
32	0x3d42cbd3	0.047557663
33	0x3d853c22	0.0650561
34	0x3d100742	0.03516317
35	0xbb54c04f	-0.0032463258
36	0xbd2bca04	-0.041940704
37	0xbd3091f3	-0.043107938
38	0x3d15dc5b	0.0365871
39	0x3d8ccc6d	0.068749286
40	0xbd1f6464	-0.0389141
41	0x3c875dd0	0.016524225
42	0xbcb472f0	-0.022027463
43	0x3c629cb9	0.013831311
44	0xbd020586	-0.03174355
45	0xbc48be1d	-0.012252358
46	0xbd55334f	-0.052050885
47	0xbc1c561f	-0.009542017
48	0x3c87fd20	0.016600192
49	0xbce794d3	-0.028269207
50	0x3cbafb2a	0.022824842
51	0x3ce7604a	0.028244156
52	0xbbe830de	-0.0070859035
53	0x3d06772a	0.032828487
54	0xbc783da0	-0.015151411
55	0x3b882282	0.0041545043
56	0xbcf69c1e	-0.03010374
57	0xbd00675e	-0.03134858
58	0x3da02fda	0.07821627
59	0x3cf6c50a	0.030123252
60	0xbc1dd80c	-0.009634029
61	0x3cb47456	0.02202813
62	0x3d4d6798	0.050147623
63	0xbd0335c6	-0.032033704
64	0x3ce314a6	0.027719807
65	0x3d636f93	0.055526327
66	0xbbeab1ef	-0.0071623246
67	0x3d08305e	0.03324925
68	0x3d05a2c4	0.03262593
69	0x3ca69f24	0.020339556
70	0x3d837674	0.064190775
71	0x3d202f65	0.0391077
72	0x3d3cc303	0.046084415
73	0x3d1dab51	0.03849346
74	0x3c12956a	0.008946756
75	0x3d344139	0.044007514
76	0xbc879550	-0.01655069
77	0x3d6d79fc	0.05797766
78	0x3d76644f	0.060154255
79	0x3c2017f1	0.009771333
80	0x3d870cfe	0.06594275
81	0x3cdafb61	0.026731195
82	0xbc05caa2	-0.008165987
83	0xbcc3fbd3	-0.02392379
84	0xbd5a7491	-0.053333823
85	0x3d081a4f	0.033228215
86	0xbd35f59e	-0.044423692
87	0x3ceee516	0.029161971
88	0x3cabf631	0.020991417
89	0xbd18df5c	-0.037322387
90	0x3d1500c5	0.036377687
91	0xbc4d626e	-0.0125356745
92	0x3d59dfff	0.053192135
93	0xbc0f59c8	-0.008749433
94	0x3c9efdd2	0.01940814
95	0x3cb3bcb7	0.021940572
96	0x3d8b19a6	0.067920014
97	0x3d148fc9	0.036269937
98	0x3d2d7a14	0.04235275
99	0x3c863627	0.016383244
100	0x3d301d53	0.042996716
101	0x3cf97c70	0.030454844
102	0xbc618ada	-0.013766015
103	0x3d8240ae	0.06359993
104	0xbd10099f	-0.035165425
105	0xbb04c31b	-0.0020257893
106	0x3d8c31d8	0.068454444
107	0x3d360459	0.04443774
108	0xbd3d6d5d	-0.046246875
109	0xbd3a1f9c	-0.0454403
110	0x3d84e966	0.0648983
111	0xbd1134c9	-0.03545073
112	0xbbd10031	-0.0063781966
113	0x3ba74d38	0.0051056407
114	0x3b7fc9ec	0.0039030267
115	0x3d53cfe7	0.051711943
116	0x3d81c1a5	0.06335763
117	0xbd8b35d7	-0.067973785
118	0x3d0d6724	0.03452219
119	0xbb918da1	-0.0044419323
120	0x3bfb413e	0.0076676896
121	0x3d565daa	0.05233542
122	0xbcd75cdb	-0.026289394
123	0xbc077825	-0.008268391
124	0xbcdbcffd	-0.026832575
125	0xbd4e26b5	-0.050329883
126	0xbc6763fb	-0.014122958
127	0x3d11e63e	0.035619967

model.model.6.weight f4 [128, 128]
0	0xbd99feb9	-0.075192876
1	0x3cce2218	0.025162742
2	0xbdb40a40	-0.087910175
3	0xbc30e359	-0.010796391
4	0x3d9395ad	0.07206283
5	0xbdb03bb6	-0.08605139
6	0x3d92cc8e	0.07167922
7	0xbdb868aa	-0.09004338
8	0x3d4b9cde	0.049710147
9	0x3d2bdc2c	0.04195802
10	0xbcf8a297	-0.030350966
11	0x3a6fee02	0.00091525924
12	0x3bc20e70	0.0059221312
13	0x3cd48b98	0.02594547
14	0x3db197f0	0.08671558
15	0x3d9882b3	0.07446804
16	0xbd9d3224	-0.07675579
17	0xbc216a58	-0.0098520145
18	0x3d0cc565	0.034367938
19	0xbd2adca2	-0.041714318
20	0x3d29d65a	0.041464187
21	0xbd82e125	-0.06390599
22	0xbd13ea24	-0.036111966
23	0x3da6b790	0.081404805
24	0xbc889b0c	-0.016675495
25	0x3da6eb8a	0.08150394
26	0xbd6b84e0	-0.057499766
27	0x3d961da4	0.07329872
28	0xbcdce18c	-0.026963018
29	0xbc8cd340	-0.017190576
30	0x3cfdc9d8	0.030980036
31	0x3d865dd3	0.06560864
32	0xbc5e4aa4	-0.0135676
33	0xbbb1eb6d	-0.0054296763
34	0xbd960204	-0.07324603
35	0x3d40323a	0.0469229
36	0x3db15a20	0.08659768
37	0xbcc6ab31	-0.024251552
38	0x3daf4e03	0.085598014
39	0xbc71aa47	-0.01475007
40	0xbd91a423	-0.07111385
41	0xbcfc27bd	-0.030780667
42	0xbcc41001	-0.023933413
43	0x3d431c76	0.047634564
44	0x3abd0506	0.0014421053
45	0xbce07599	-0.027399825
46	0xbd696ab6	-0.056986533
47	0xbda2db72	-0.07952012
48	0xbd731715	-0.059348185
49	0xbdb3ad40	-0.08773279
50	0x3bdf85fc	0.006821392
51	0x3c0a9958	0.008459412
52	0x3d9fdecc	0.07806167
53	0xbd86944a	-0.06571253
54	0xbd69b300	-0.057055473
55	0xbd978971	-0.07399262
56	0x3b362460	0.0027792677
57	0xbd8bc5e3	-0.06824853
58	0xbbca9f32	-0.0061835283
59	0xbd634c61	-0.055492762
60	0xbd22dd37	-0.03976175
61	0xbd85c936	-0.065325186
62	0x3d9997f6	0.074996874
63	0x3c5f7283	0.013638142
64	0xbd071f60	-0.032988906
65	0x3d1f4904	0.038887993
66	0xbd95ad1d	-0.07308409
67	0xbcf7438e	-0.03018358
68	0x3d4a0f02	0.04933072
69	0x3d0a87cf	0.033820923
70	0xbcac3b0b	-0.021024248
71	0x3d6e6c3a	0.05820868
72	0xbdb659b4	-0.08903828
73	0x3d2a4b7d	0.041575897
74	0xbb87466a	-0.004128267
75	0x3b88a0a8	0.0041695423
76	0xbc869f90	-0.016433507
77	0xbd80c452	-0.06287445
78	0xbd11f35d	-0.03563248
79	0x3d1e1115	0.03859051
80	0x3cb30fce	0.021858122
81	0xbd7f52d4	-0.06233485
82	0xbd7cd03f	-0.061722036
83	0x3d97de8a	0.07415493
84	0x3c626390	0.013817683
85	0x3cff2176	0.031143885
86	0x3d7bde86	0.06149151
87	0x3d905680	0.070477486
88	0x3d88b555	0.06675211
89	0xbd6b4f6a	-0.057448782
90	0x3d148aa7	0.03626504
91	0x3dab1a9d	0.083546855
92	0x3c5675e4	0.013089631
93	0xbd1f579a	-0.038901903
94	0x3cd58126	0.02606256
95	0x3d33366c	0.043753073
96	0x3d1a4636	0.037664615
97	0xbca1a23a	-0.019730676
98	0x3d8c86f0	0.06861675
99	0xbd45750d	-0.04820733
100	0xbd86158c	-0.065470785
101	0xbd211650	-0.03932792
102	0x3d88cc2f	0.0667957
103	0xbd964a17	-0.0733835
104	0x3dacc4f5	0.08436004
105	0xbcffd4ea	-0.031229455
106	0x3d86b387	0.06577211
107	0x3c408d8a	0.011752496
108	0xbd9cd323	-0.07657459
109	0xbd9f8416	-0.07788865
110	0xbc879471	-0.016550275
111	0x3c90ed26	0.017691206
112	0xbc4cd6a7	-0.012502349
113	0xbcbf15f5	-0.0233259
114	0x3aaa5a0d	0.0012996808
115	0xbd92bf20	-0.071653605
116	0xbc94de65	-0.018172452
117	0x3db3ef8f	0.087859266
118	0x3becfda9	0.007232387
119	0xbd1e4b02	-0.03864575
120	0xbd201d0c	-0.0390902
121	0x3d977921	0.073961504
122	0x3d2a9523	0.041646134
123	0x3c039eaa	0.008033434
124	0xbd2374b5	-0.039906222
125	0x3d35c27a	0.04437492
126	0xbc91cc97	-0.017797751
127	0x3d59fb96	0.053218447
128	0xbd7d78a3	-0.061882626
129	0xbd8ef42c	-0.06980166
130	0x3c658ed8	0.014011107
131	0xbd47cab3	-0.048777293
132	0x3d1d1bca	0.03835658
133	0x3cedeb3c	0.029042833
134	0x3afbd140	0.0019212142
135	0x3cca52e4	0.024697728
136	0xbdb0c212	-0.08630766
137	0x3d215366	0.039386176
138	0xbd83dd18	-0.06438655
139	0x3d49abea	0.049236216
140	0x3d6cce72	0.05781407
141	0xbd804039	-0.062622495
142	0x3d70f21e	0.05882465
143	0x3d10d82e	0.035362415
144	0x3c5609f0	0.013063893
145	0xbca3fa9c	-0.02001696
146	0x3d670766	0.05640354
147	0xbdadfe31	-0.08495749
148	0xbbb49390	-0.005510755
149	0x3d8340a1	0.06408811
150	0xbd5ae6d7	-0.053442802
151	0xbcd46a6a	-0.025929648
152	0x3c1be5d0	0.009515241
153	0xbd6fdb38	-0.058558673
154	0xbd5c51e3	-0.05378903
155	0xbd19f4e5	-0.037587065
156	0xbd35c63e	-0.04437851
157	0xbc688d90	-0.014193907
158	0x3c2eab70	0.010660991
159	0xbcbecc80	-0.023290873
160	0xbda59c11	-0.08086408
161	0x3c942c98	0.01808767
162	0x3c9e4030	0.019317716
163	0xbd80cb69	-0.062887974
164	0x3d9240e9	0.07141287
165	0xbbb90550	-0.0056463853
166	0x3c192998	0.009348296
167	0x3da0c5db	0.07850238
168	0x3c6e9398	0.014561556
169	0x3d0faf4a	0.035079278
170	0x3d82636d	0.0636662
171	0x3d0edf92	0.034881182
172	0x3dabdc93	0.083916806
173	0x3d131928	0.035912663
174	0xbdaa73f8	-0.083229005
175	0x3c984f90	0.018592626
176	0x3d8cb6e9	0.06870825
177	0x3cdb5e78	0.026778445
178	0xbc227cc0	-0.009917438
179	0xbd5a545f	-0.05330312
180	0xbd9ba336	-0.075994894
181	0xbc38ade0	-0.011271924
182	0xbc9ac298	-0.018891618
183	0x3d333256	0.043749176
184	0xbc049670	-0.008092508
185	0xbdb241e7	-0.08703976
186	0xbd50457f	-0.050847527
187	0xbd1112c0	-0.035418272
188	0x3d883123	0.06649997
189	0x3cec9ea8	0.028884247
190	0xbc65fa28	-0.014036693
191	0x3b399f80	0.002832383
192	0x3db38761	0.08766056
193	0x3d385db2	0.04501123
194	0xbd9cae4e	-0.076504335
195	0x3b7424e0	0.0037253425
196	0xbd03c5e6	-0.032171153
197	0x3da75111	0.08169759
198	0xbc16c808	-0.009202965
199	0x3c85b7a8	0.016322926
200	0xbd859ff5	-0.0652465
201	0xbcda3828	-0.026638106
202	0x3d873a4f	0.06602918
203	0xbd20a1d4	-0.03921683
204	0x3d187142	0.037217386
205	0xbd9b584f	-0.07585203
206	0xbcc6821c	-0.024231963
207	0xba4a5880	-0.0007718876
208	0x3cf4ea68	0.02989693
209	0xbdaf8eec	-0.08572182
210	0xbd8f9bf5	-0.07012168
211	0xbd0487e1	-0.032356147
212	0x3d533032	0.051559635
213	0x3d792e1e	0.060834996
214	0x3c3fbe10	0.011703029
215	0xbd798a8c	-0.060923144
216	0x3d1d53f6	0.03841015
217	0x3d818403	0.06324007
218	0xbcdc6f90	-0.026908666
219	0x3d8ccb3b	0.06874701
220	0x3d8c7981	0.068591125
221	0xbdaf2437	-0.08551829
222	0xbc572c68	-0.013133146
223	0xbd5a4fe5	-0.05329885
224	0xbd288802	-0.041145332
225	0xbc86d85c	-0.01646059
226	0x3cf52058	0.02992265
227	0xbdb4e95f	-0.088335745
228	0xbd6f45ca	-0.058416165
229	0x3cf1e608	0.029528633
230	0xbd130693	-0.03589494
231	0x3c92ed94	0.017935552
232	0x3d675cde	0.05648505
233	0x3d0f960c	0.035055205
234	0xbd97469e	-0.07386516
235	0xbda43196	-0.0801727
236	0xbd78d58a	-0.06075052
237	0x3cdfa9e0	0.027302682
238	0xbdb2c7d0	-0.087295175
239	0xbce1918a	-0.027535219
240	0xbc1cec08	-0.009577759
241	0x3d2d014e	0.042237572
242	0x3d1a8452	0.037723847
243	0xbcf8058c	-0.030276082
244	0x3d0cdf60	0.034392715
245	0xbd85a060	-0.0652473
246	0xbd97f4e3	-0.07419755
247	0xbd45ff83	-0.048339378
248	0x3cad1d48	0.021132126
249	0x3ce1dd18	0.027571246
250	0xbda0eae1	-0.078572996
251	0x3d868dcf	0.065700166
252	0xbcd3f15c	-0.025871925
253	0x3bd3fe10	0.0064694956
254	0xbcc3f140	-0.023918748
255	0xbc3fe6e0	-0.01171276

model.model.6.bias f4 [128]
0	0xbd98d3d9	-0.07462282
1	0xbd6d2671	-0.05789799
2	0x3d8620b2	0.06549205
3	0x3d83f3bc	0.06442973
4	0x3c8e8c60	0.01740092
5	0x3d9a452d	0.075327255
6	0x3c130e3c	0.008975562
7	0x3dbf0bd6	0.093284294
8	0xbd9586e2	-0.073011175
9	0x3d6ccf95	0.057815153
10	0x3d947af9	0.07250018
11	0xbd93c20d	-0.072147466
12	0xbce1425c	-0.027497463
13	0xbcd75d62	-0.026289646
14	0x3dbba55c	0.09162399
15	0xbd574668	-0.05255738
16	0x3de9c36c	0.11414227
17	0xbd95e377	-0.07318776
18	0xbcb98683	-0.022647148
19	0xbd95017a	-0.07275672
20	0xbca2e037	-0.019882305
21	0xbd84d06c	-0.06485066
22	0xbd25fd64	-0.040524855
23	0xbc99079c	-0.018680386
24	0xbd6abade	-0.057307117
25	0xbd898773	-0.06715288
26	0xbcbfbd26	-0.023405623
27	0x3ce55341	0.0279938
28	0xbd34a556	-0.04410299
29	0x3d1724f2	0.03690047
30	0x3d14d7d5	0.036338646
31	0x3bf01c7c	0.0073276144
32	0xbd17d953	-0.03707249
33	0xbcbf4931	-0.02335033
34	0xbd9dc4a2	-0.0770352
35	0x3ca62b02	0.02028418
36	0x3c95aabe	0.018269893
37	0x3c94672c	0.018115602
38	0x3d25c0ce	0.040467076
39	0x3cb93e34	0.022612669
40	0xbc92eb61	-0.017934503
41	0x3ce4ba2a	0.027920801
42	0x3d2bee7a	0.041975476
43	0xbd98a220	-0.07452798
44	0x3dafbb40	0.08580637
45	0x3c0b70c0	0.008510768
46	0x3cfdfb11	0.031003507
47	0x3d9e7e95	0.07738987
48	0xbd6fa478	-0.05850646
49	0xbc435db2	-0.011924194
50	0x3ba17037	0.004926707
51	0x3ce4dc4f	0.027937083
52	0xbd7197d7	-0.058982696
53	0xbc11ba66	-0.0088945385
54	0x3da07c55	0.078362145
55	0x3db022f4	0.08600417
56	0x3ca5134c	0.020150803
57	0x3ae99551	0.0017820989
58	0xbd54fb31	-0.051997367
59	0x3d0d81a1	0.034547452
60	0x3bc5912f	0.00602927
61	0xbda0510b	-0.07827958
62	0x3e04b99f	0.12961434
63	0x3d8fc820	0.07020593
64	0x3d8161f3	0.063175105
65	0x3d657913	0.05602367
66	0xbd705027	-0.05867019
67	0x3da613a0	0.08109212
68	0xbb912c7f	-0.004430353
69	0x3a7196c0	0.0009215884
70	0xbd732843	-0.05936457
71	0xbca3ebc9	-0.020009892
72	0xbae54bd5	-0.0017493913
73	0x3cbf9cbb	0.023390165
74	0xbd965a08	-0.07341391
75	0xbd8c1c30	-0.06841314
76	0x3b8858c7	0.0041609737
77	0xbd5a893c	-0.053353533
78	0xbcce224a	-0.025162835
79	0xbb4f146c	-0.0031597866
80	0x3d57cb42	0.052684076
81	0xbd91d96e	-0.071215495
82	0x3e23eef7	0.16009127
83	0xbdb46eb3	-0.08810177
84	0x3d9ab037	0.075531416
85	0x3dca60b5	0.09881727
86	0x3d617c88	0.055050403
87	0xbd5795ac	-0.052632973
88	0x3dbfbc87	0.093621306
89	0x3dc06b49	0.09395463
90	0x3d8416b4	0.06449643
91	0x3ca31e0b	0.019911787
92	0xbc5b8f76	-0.013400903
93	0x3d9608b6	0.0732588
94	0xbd07f161	-0.03318918
95	0x3db39d77	0.087702684
96	0xbcbe691b	-0.023243478
97	0xbda1ed9e	-0.0790665
98	0x3cea166e	0.028575148
99	0x3d7d0338	0.061770648
100	0xbc040f61	-0.008060307
101	0x3d321480	0.04347658
102	0x3de6f896	0.11277883
103	0x3d7dc6a7	0.061957028
104	0x3c2e6ae3	0.010645601
105	0xbc2678e8	-0.010160662
106	0x3dce94bf	0.10086965
107	0xbc535394	-0.012898345
108	0x3d2d4373	0.042300653
109	0x3d641b46	0.055690072
110	0xbda6521a	-0.081211284
111	0xbcf7fc04	-0.030271538
112	0xbd597649	-0.05309132
113	0xbda291a9	-0.07937939
114	0x3d989b6e	0.07451521
115	0xbc04d13b	-0.008106525
116	0x3db8299c	0.08992311
117	0x3d1d1c4a	0.038357057
118	0x3c8de46c	0.017320834
119	0xbddc2e2e	-0.107509956
120	0xbcf8ed26	-0.030386519
121	0x3d62fa48	0.055414468
122	0x3df8f3e5	0.12155894
123	0x3cb88d52	0.022528324
124	0xbd2d2da9	-0.042279873
125	0x3dba6452	0.09101166
126	0x3d5bd9cb	0.0536745
127	0x3d8b8d52	0.06814064

model.model.8.weight f4 [7, 128]
0	0xbbff1818	-0.0077848546
1	0xbdb4a298	-0.08820075
2	0x3d5cb888	0.05388692
3	0xbd25e0b1	-0.040497486
4	0x3d031201	0.03199959
5	0xbc8adc69	-0.016950803
6	0xbcceb0f7	-0.025230868
7	0xbd8c8cfa	-0.06862827
8	0xbda68560	-0.08130908
9	0x3d8a22c4	0.06744912
10	0x3ddd4a24	0.10805157
11	0xbcdc2ba8	-0.026876286
12	0x39b8b847	0.00035232512
13	0x3d8eecfa	0.069787934
14	0x3da15147	0.078768305
15	0xbcae1b9a	-0.021253396
16	0x3dd1bc13	0.102409504
17	0x3ccf17f8	0.025279984
18	0xbc9f5e31	-0.019454094
19	0xbd92cfed	-0.07168565
20	0xbbdc508f	-0.0067234705
21	0xbd018e78	-0.03163001
22	0x3da64450	0.08118498
23	0x3da3459f	0.079722635
24	0xbbbe0f4d	-0.005800164
25	0x3ded0588	0.115733206
26	0xbd1d65a2	-0.038427003
27	0x3d5156b8	0.051108092
28	0xbd1363d6	-0.035983883
29	0x3d1606a8	0.03662744
30	0x3ddd0b6d	0.10793195
31	0x3d46a615	0.048498232
32	0x3db6d3f1	0.08927143
33	0xbd464680	-0.048407078
34	0x3d608dd2	0.05482275
35	0x3d001167	0.031266596
36	0xbc227b46	-0.009917086
37	0x3d7d01ec	0.06176941
38	0x3d9a427f	0.075322144
39	0xbda98ac9	-0.08278424
40	0xbd8b77b0	-0.06809938
41	0xbd711729	-0.058859978
42	0xbd1946a7	-0.037420895
43	0xbd10af72	-0.035323568
44	0xbd2479de	-0.040155284
45	0x3c15fff2	0.00915526
46	0xbbce5540	-0.0062967837
47	0xbcc4db9e	-0.024030503
48	0xbd9158a1	-0.07096983
49	0xbd0a0154	-0.033692673
50	0xbd4f0141	-0.050538305
51	0x3d630f6f	0.05543464
52	0x3cef2e58	0.029196903
53	0xbd1bf7fd	-0.038078297
54	0x3dd4c8f2	0.1038989
55	0x3dbdeddf	0.09273886
56	0x3d928e8f	0.07156097
57	0xbdaddee6	-0.0848978
58	0xbd2a1ae8	-0.041529566
59	0xbdb00e22	-0.085964456
60	0xbc15baa8	-0.009138741
61	0xbd9a22eb	-0.07526191
62	0x3da9f506	0.08298688
63	0x3adce9bb	0.0016854325
64	0xbd6061c6	-0.054780744
65	0x3d419bda	0.047267772
66	0x3d1ddf98	0.038543314
67	0xb9d96f6f	-0.0004147249
68	0x3dc7bc5c	0.097527236
69	0x3d0d9bef	0.034572538
70	0x3d5d0bc9	0.053966317
71	0xbd762368	-0.06009236
72	0x3dc38c04	0.0954819
73	0xbd8009f0	-0.062518954
74	0xbd7a89d0	-0.061166584
75	0x3d08e25e	0.033419006
76	0x3ddfc37c	0.109259576
77	0xbcbb894b	-0.022892615
78	0xbdb8f58c	-0.09031209
79	0xbca759b7	-0.020428522
80	0xbc7bff90	-0.015380755
81	0x3d96d345	0.07364515
82	0x3d59ee22	0.053205617
83	0xbc45ebd0	-0.012080148
84	0x3ded734f	0.11594259
85	0x3df272ab	0.118382774
86	0x3caca83c	0.021076314
87	0xbd31117a	-0.043229558
88	0x3d314c52	0.043285675
89	0x3dd8ef4c	0.10592517
90	0x3dc698b3	0.09697094
91	0xbd92f24f	-0.07175123
92	0x3d67db78	0.056605786
93	0x3d87bdd2	0.06628002
94	0xbd35db24	-0.044398442
95	0x3d35ebce	0.044414334
96	0x3daf2431	0.08551825
97	0x3da6c7db	0.08143588
98	0x3cd32b96	0.02577762
99	0xbb3b7af3	-0.002860722
100	0xbca488f4	-0.020084836
101	0xbd89a727	-0.06721335
102	0xbcaa43af	-0.020784227
103	0x3da892f9	0.08231158
104	0xbd61f9e1	-0.055169944
105	0x3cab636a	0.020921428
106	0x3daa9a9a	0.08330269
107	0xbbefe05e	-0.007320448
108	0x3de61e9a	0.112363055
109	0x3d555cf3	0.052090596
110	0x3d9ca196	0.076480076
111	0x3daab42e	0.08335148
112	0xbd113147	-0.035447385
113	0xbd4d0c15	-0.05006035
114	0xbd8a710e	-0.06759845
115	0xbcdb0591	-0.026736053
116	0x3ccd8b74	0.02509091
117	0xbd5359c7	-0.05159929
118	0x3c16c8f8	0.009203188
119	0x3d3ba7e1	0.0458144
120	0xbd20a924	-0.039223805
121	0xbd24ac38	-0.040203303
122	0x3db5890e	0.08864032
123	0x3dc34e9e	0.095364794
124	0x3d8ac925	0.067766465
125	0x3cc31f6f	0.0238187
126	0xbc7e9d5c	-0.015540447
127	0x3d52170a	0.051291503
128	0x3d034d5a	0.03205619
129	0x3c3e3eb8	0.011611633
130	0xbc181080	-0.009281278
131	0xbcc6155f	-0.024180112
132	0x3e0211dc	0.12702125
133	0x3d585a71	0.052820627
134	0xbccb6a6b	-0.024831017
135	0xbc9a5925	-0.018841336
136	0xbd9c114e	-0.07620488
137	0x3da06e33	0.07833519
138	0x3dc57d99	0.096430965
139	0xbda0f60d	-0.078594305
140	0xbda2092a	-0.07911904
141	0x3d122d69	0.035687838
142	0xbcb10f7c	-0.021613829
143	0xbd3e4c52	-0.046459503
144	0x3d99687c	0.07490632
145	0x3db36b2f	0.08760678
146	0x397ff81f	0.00024411127
147	0x3d809f9c	0.06280443
148	0xbc0cf26f	-0.008602723
149	0x3d20bcf2	0.039242692
150	0x3d9f542b	0.07779726
151	0x3c999cfb	0.018751612
152	0xbd2e328d	-0.042528678
153	0x3dd823cd	0.105537035
154	0xbd9257b8	-0.07145637
155	0x3d1932ab	0.037401836
156	0xbcc2a968	-0.02376242
157	0x3ddc3964	0.10753134
158	0x3d3bf157	0.045884456
159	0x3ddd80d1	0.108155854
160	0x3d107d94	0.03527601
161	0xbb6811a7	-0.0035410912
162	0xbcbad1de	-0.02280515
163	0x3da73db1	0.081660636
164	0xbc053323	-0.008129868
165	0x3c3af27c	0.011410352
166	0x3db838f9	0.08995242
167	0x3dd697fc	0.104782075
168	0xbc34066c	-0.010987859
169	0xbd37d1eb	-0.044877928
170	0xbcf4c1ac	-0.029877506
171	0x3cd3e3bc	0.025865428
172	0xbcfd0391	-0.03088549
173	0x3bbc9eba	0.0057562264
174	0xbd77544a	-0.06038312
175	0x3c3073f1	0.01076983
176	0x3c98efa7	0.018668963
177	0x3d2ceaa7	0.04221597
178	0xbd483968	-0.048882872
179	0x3d36a5c5	0.044591684
180	0x3db14382	0.08655454
181	0xbd50bb81	-0.050960068
182	0x3c135180	0.008991599
183	0x3d8fffee	0.070312366
184	0x3d954d99	0.07290191
185	0xbdad5435	-0.08463327
186	0xbc92b004	-0.017906196
187	0x3acf3340	0.001580812
188	0x3da05dc6	0.07830386
189	0x3d4928f6	0.04911133
190	0x3c6fa6b9	0.014627152
191	0xbd916975	-0.071001925
192	0xbda673b6	-0.08127539
193	0x3d9db165	0.07699851
194	0x3d877ee3	0.066159986
195	0xbd01b202	-0.031663902
196	0x3cda37a5	0.026637862
197	0xbcb9400b	-0.022613546
198	0xbb39707d	-0.0028295808
199	0x3d25b9db	0.04046045
200	0xbca0131a	-0.019540358
201	0x3d3d05f6	0.046148263
202	0xbb7ce4a0	-0.003858842
203	0x3da20dae	0.079127654
204	0x3d05e325	0.032687325
205	0xbc11e228	-0.0089040175
206	0xbc9a0b68	-0.018804267
207	0xbd7ee1fc	-0.062227234
208	0x3c282af8	0.010264151
209	0x3cfbab02	0.030721191
210	0x3e040130	0.12891078
211	0xbd426a21	-0.047464494
212	0x3d6e91e6	0.05824461
213	0x3d984787	0.07435518
214	0xbd019f3d	-0.031646002
215	0x3db047cd	0.08607445
216	0x3d85ee89	0.065396376
217	0x3d975591	0.07389367
218	0x3d3a5cbf	0.045498606
219	0xbd85c28c	-0.065312475
220	0x3d2bd3c3	0.04195
221	0x3ae1f82c	0.0017240099
222	0x3c81263d	0.015765304
223	0x3dd7a451	0.10529388
224	0x3da3afd9	0.07992525
225	0xbba9d0f0	-0.005182378
226	0x3c966677	0.018359406
227	0x3ba54121	0.0050431644
228	0x3bf6b7e8	0.0075292476
229	0x3d21ed9e	0.03953325
230	0xbd8dd34e	-0.06925069
231	0x3c8514ac	0.016245209
232	0xbcb29428	-0.021799162
233	0x3d9e1bc0	0.07720137
234	0x3d5ad5a5	0.053426404
235	0x3dbaa6e5	0.09113864
236	0x3b2d45e5	0.0026439365
237	0x3d892ad0	0.06697619
238	0x3d25cdef	0.040479597
239	0x3e00aee3	0.12566714
240	0xbc146838	-0.009058051
241	0xbd99cf8e	-0.07510291
242	0xbd8e668c	-0.06953153
243	0x3d900c11	0.070335515
244	0x3dc75762	0.09733464
245	0xbce7a937	-0.02827893
246	0x3d23cc26	0.039989613
247	0xbca61380	-0.02027297
248	0xbcd23728	-0.025661066
249	0xbd2d63da	-0.042331554
250	0x3db834ef	0.08994471
251	0x3bd19458	0.006395858
252	0x3d0134a7	0.031544354
253	0x3d27773b	0.04088519
254	0x3d9831b1	0.07431353
255	0x3cb04b85	0.021520386

model.model.8.bias f4 [7]
0	0x3db1c683	0.08680441
1	0x3cf01a31	0.029309364
2	0x3d3d2243	0.046175253
3	0x3d85f1c0	0.06540251
4	0xbc64db02	-0.013968231
5	0x3c6f17c2	0.014593067
6	0x3ceac165	0.02865667

model_old.model.0.weight f4 [32, 1, 4, 4]
0	0xbe29e2d4	-0.16590434
1	0xbdf783f2	-0.120857134
2	0x3e605f5f	0.21911381
3	0x3c274044	0.010208193
4	0x3d55ac6c	0.052166387
5	0x3e445646	0.19173536
6	0x3bbf644c	0.0058408137
7	0xbe31e348	-0.17371857
8	0x3e22b2ea	0.15888563
9	0x3c7335de	0.014844386
10	0x3e64000d	0.22265644
11	0x3d314197	0.043275442
12	0x3de1969b	0.11015054
13	0x3ca57081	0.020195248
14	0x3dec4082	0.115357414
15	0x3e1c3116	0.152531
16	0x3d58cac2	0.05292774
17	0x3d108fe1	0.035293464
18	0xbe0ec30b	-0.1394159
19	0xbd913752	-0.0709063
20	0x3d8ed05a	0.06973334
21	0x3dd46bc5	0.10372118
22	0x3e444d5c	0.19170135
23	0xbe594722	-0.21218541
24	0xbe816259	-0.25270346
25	0x3e4a5c55	0.19761784
26	0xbe77570d	-0.24154301
27	0xbea45d2e	-0.3210234
28	0xbc30b31d	-0.010784891
29	0xbdb0386c	-0.086045116
30	0x3e5b84f0	0.2143743
31	0xbe774937	-0.24149023
32	0x3dd82c05	0.10555271
33	0xbdcce579	-0.10004706
34	0xbe5bb1ac	-0.21454495
35	0x3d0aff76	0.033935033
36	0xbe4a9ba9	-0.19785942
37	0x3de2d2c7	0.11075359
38	0xbd09c2e8	-0.033633143
39	0xbe9c42d7	-0.30519745
40	0xbd93b253	-0.07211747
41	0xbd2da4df	-0.04239356
42	0x3e67709d	0.22601552
43	0x3dbc386f	0.09190451
44	0xbce17e39	-0.027526008
45	0x3e63e6e5	0.22256048
46	0x3d9207e8	0.07130414
47	0x3e09fdeb	0.13475768
48	0x3d0bf87f	0.03417253
49	0xbe71f079	-0.2362689
50	0xbe1b7cec	-0.15184373
51	0xbe0e51bb	-0.13898365
52	0xbe17daca	-0.14829555
53	0x3e4c740a	0.1996614
54	0xbdaeb5a2	-0.085307375
55	0x3d9a41f2	0.07532109
56	0x3e464651	0.19362761
57	0xbe33a47a	-0.17543212
58	0x3e32ecd8	0.17473161
59	0x3df6b4b8	0.12046188
60	0xbe5409f6	-0.20706925
61	0x3e20996c	0.15683526
62	0xbdf053f2	-0.11734761
63	0x3e77b323	0.24189429
64	0xbcab5d80	-0.020918608
65	0xbdb8acc0	-0.090173244
66	0x3e8f7bd2	0.28024155
67	0xbe01435f	-0.12623356
68	0x3e909ece	0.28246158
69	0x3d9756cc	0.07389602
70	0x3da04eb6	0.07827513
71	0x3c890e94	0.016730584
72	0x3e7b7646	0.24556836
73	0x3d96eff6	0.07369988
74	0xbdcc6015	-0.09979264
75	0xbe93bc8a	-0.2885478
76	0xbe137601	-0.14400484
77	0xbd27c97e	-0.040963642
78	0xbddadd9e	-0.106868014
79	0xbe11601f	-0.14196824
80	0x3d50ad30	0.050946414
81	0x3e3a0dd3	0.18169336
82	0xbe746f53	-0.23870592
83	0xbe625522	-0.22102788
84	0xbca03dd2	-0.019560728
85	0x3dca4c57	0.09877842
86	0xbbb770cd	-0.0055981637
87	0xbe79e9e7	-0.24405633
88	0x3e8e6eaf	0.2781882
89	0x3e2bce16	0.16777834
90	0xbcd1a410	-0.025590926
91	0x3d77ea6d	0.0605263
92	0x3d8789f5	0.0661811
93	0xbe4f4317	-0.20240436
94	0x3e477917	0.19479786
95	0x3e27b6fd	0.16378398
96	0xbe07b02e	-0.13250801
97	0x3d81a23c	0.06329772
98	0xbe692f7d	-0.22772022
99	0x3e1669d2	0.14688805
100	0xbd4a366f	-0.04936832
101	0x3dd9fb6e	0.106436595
102	0xbc4a4fb6	-0.012348106
103	0x3dc714db	0.09720775
104	0x3e0ab628	0.1354605
105	0x3e21ea60	0.15812063
106	0x3e480089	0.19531454
107	0xbd55fb39	-0.052241538
108	0xbd94325e	-0.07236169
109	0xba27b29c	-0.00063971593
110	0x3e75a397	0.23988186
111	0xbdfe8114	-0.124269634
112	0x3e371aaf	0.17881273
113	0xbe6cd939	-0.23129739
114	0x3e652a84	0.223795
115	0xbe4be720	-0.19912386
116	0x3e0e5a01	0.13901521
117	0xbe542852	-0.20718506
118	0xbd9ae3b9	-0.07562966
119	0x3e144743	0.14480309
120	0x3e8ab904	0.2709428
121	0x3d8da187	0.069155745
122	0xbc22c507	-0.00993467
123	0x3e718cd1	0.23588873
124	0x3e546ab7	0.20743833
125	0xbda6d4b2	-0.08146037
126	0xbdc6c541	-0.09705592
127	0xbe32fb5b	-0.17478697
128	0xbe4804a3	-0.19533019
129	0x3dbf4da5	0.093409814
130	0xbdbad737	-0.0912308
131	0x3e029c12	0.12754849
132	0xbe8f9ac3	-0.2804776
133	0x3e4d7901	0.2006569
134	0x3e646de7	0.2230755
135	0xbe7d995c	-0.24765533
136	0xbe7078eb	-0.23483627
137	0x3c83ec29	0.01610382
138	0x3e1b9180	0.15192223
139	0xbde2354d	-0.110453226
140	0x3e3724de	0.17885157
141	0x3d93fc67	0.07225876
142	0x3e41f748	0.18941987
143	0xbdabf655	-0.083965935
144	0xbd515fa3	-0.051116597
145	0x3e0f1286	0.1397191
146	0x3e57e187	0.21082126
147	0xbc83ecd9	-0.016104149
148	0xbe906416	-0.2820136
149	0xbcb36034	-0.02189646
150	0xbdf154de	-0.11783765
151	0xbc643755	-0.013929208
152	0x3d849f43	0.06475689
153	0xbe0a173d	-0.13485427
154	0x3e4743da	0.19459477
155	0xbe2d1608	-0.16902936
156	0x3e71b6ac	0.2360484
157	0xbdd1fb1d	-0.10252974
158	0x3d20f6d0	0.03929788
159	0xbd87ea37	-0.0663647
160	0x3d971dc2	0.07378723
161	0x3df50ee3	0.1196573
162	0xbe858b9d	-0.2608308
163	0x3dc64d06	0.0968266
164	0x3e73cd22	0.2380872
165	0xbe6c33dc	-0.23066658
166	0xbe9186f4	-0.28423274
167	0xbe187bed	-0.14891024
168	0x3e3281a0	0.1743226
169	0x3d79a00c	0.06094365
170	0xbe8b8b6b	-0.27254805
171	0xbdd8a175	-0.105776705
172	0x3c863918	0.016384646
173	0xbd6bd878	-0.057579488
174	0x3ddf5eef	0.10906779
175	0x3e526b50	0.20548749
176	0xbda1073c	-0.07862708
177	0x3ceeec75	0.029165486
178	0x3e4422ec	0.19153947
179	0xbd533ac4	-0.051569715
180	0xbda124d2	-0.07868351
181	0x3e454494	0.19264442
182	0x3e6fe875	0.23428519
183	0xbda1c0c9	-0.07898099
184	0x3dcb0588	0.099131644
185	0x3e6fb0b7	0.23407255
186	0x3e2b48a1	0.16726924
187	0x3d3fa26c	0.046785757
188	0x3d298fed	0.041397024
189	0xbe59cad2	-0.21268776
190	0xbe2aca31	-0.16678692
191	0x3e01a763	0.12661509
192	0x3de43939	0.11143727
193	0xbe0aabbf	-0.13542078
194	0xbd4d76d4	-0.05016215
195	0xbc3e8999	-0.0116294855
196	0xbd63a7fe	-0.05558013
197	0xbe3b27d7	-0.18276916
198	0xbe675615	-0.22591431
199	0xbc9e0c41	-0.019292952
200	0xbdaa493f	-0.08314752
201	0xbe445b4c	-0.19175452
202	0x3e4cfcd6	0.20018324
203	0xbe0df38f	-0.13862441
204	0xbe3844b3	-0.17994957
205	0x3d4077eb	0.046989363
206	0xbe278ad5	-0.16361554
207	0xbce0e12b	-0.027451118
208	0xbd8bad53	-0.06820168
209	0x3a58bea0	0.00082681514
210	0xbe9a396e	-0.3012194
211	0xbe3629f0	-0.17789435
212	0x3e01def1	0.12682702
213	0x3e57f969	0.21091236
214	0xbe31349c	-0.17305225
215	0x3df75a93	0.120778225
216	0xbdd942b3	-0.10608425
217	0xbe89974f	-0.26873252
218	0x3e70500d	0.23468037
219	0xbe2f445b	-0.1711592
220	0x3e3d8922	0.18509343
221	0xba55f804	-0.00081622624
222	0xbe4dc0ee	-0.20093128
223	0x3d6b3a17	0.057428446
224	0x3e052b48	0.13004792
225	0x3dd998e9	0.106248684
226	0x3da0b485	0.07846931
227	0xbc2fc429	-0.010727921
228	0x3d33bad7	0.043879356
229	0x3dbee255	0.09320513
230	0x3d2af5c1	0.041738275
231	0xbe88987b	-0.26678833
232	0xbe7270ca	-0.23675838
233	0x3de03d0a	0.10949142
234	0xbe2a3fa7	-0.16625844
235	0xbe279e6a	-0.16369024
236	0x3e9336e3	0.28752813
237	0xbbb6d27d	-0.0055792914
238	0x3e528673	0.20559101
239	0xbe42b312	-0.19013622
240	0x3bba26d2	0.0056808973
241	0x3dcac759	0.09901304
242	0xbc5e1ccc	-0.01355667
243	0xbd5b7198	-0.05357513
244	0x3d4f1faf	0.050567325
245	0xbd01d5ad	-0.031697918
246	0xbe87a320	-0.26491642
247	0x3e0675b4	0.13130838
248	0xbe561915	-0.20908006
249	0x3dbfb224	0.093601495
250	0x3c98180c	0.018566154
251	0xbe0ad1d5	-0.13556607
252	0xbe4402d4	-0.19141704
253	0x3e2c0f63	0.16802745
254	0xbdb32f53	-0.08749261
255	0x3e532043	0.20617776

model_old.model.0.bias f4 [32]
0	0x3c324928	0.0108817
1	0xbe14fa5c	-0.1454863
2	0xbe3fad9e	-0.18718573
3	0xbdb056de	-0.086103186
4	0xbe1537d3	-0.14572076
5	0xbe55acae	-0.20866653
6	0x3c821faf	0.015884249
7	0x3db3366c	0.087506145
8	0x3d7356ce	0.059408955
9	0x3e24dc9d	0.16099782
10	0x38844699	6.3074e-05
11	0xbe3aa134	-0.18225557
12	0x3dacd841	0.08439685
13	0x3d965dcc	0.07342109
14	0x3e1aec77	0.15129267
15	0x3e4ec99e	0.20194098
16	0x3e6f750f	0.23384498
17	0x3dbb3183	0.09140303
18	0xbd749585	-0.059712905
19	0xbc13e227	-0.009026087
20	0x3e7e04f5	0.24806578
21	0x3e4eb845	0.20187481
22	0x3e0c7f65	0.13720472
23	0x3ea71f3f	0.32641026
24	0x3e2059cf	0.1565926
25	0x3d99a689	0.07502467
26	0x3d9f2824	0.07771328
27	0x3e8d6c7a	0.27621824
28	0x3e35a902	0.17740253
29	0xbe36d1e8	-0.1785351
30	0x3e46139a	0.19343415
31	0xbe22387b	-0.15841858

model_old.model.4.weight f4 [128, 384]
0	0xbced407f	-0.028961418
1	0xbd19434e	-0.037417702
2	0xbc55777b	-0.013028975
3	0x3d5a4b82	0.053294666
4	0x3d19f6c5	0.037588853
5	0x3d66cb86	0.05634644
6	0x3c1c3200	0.009533405
7	0x3cbbe154	0.022934593
8	0x3cdbbcf1	0.026823493
9	0x3c65085e	0.013979046
10	0xbd4ccf4b	-0.050002377
11	0xbd298e9f	-0.04139578
12	0x3d224f99	0.03962669
13	0x3e0790bb	0.13238804
14	0x3ce32fb7	0.027732713
15	0x3d909ccc	0.07061157
16	0x3c1066df	0.008813589
17	0x3b4b68ca	0.00310378
18	0x3c180dd0	0.009280637
19	0xbc6076b9	-0.013700181
20	0x3dbc60a5	0.09198121
21	0xbce5f286	-0.028069746
22	0xbca14050	-0.019683987
23	0x3dc2b191	0.09506524
24	0x3dbe43c5	0.0929027
25	0x3dbbe1be	0.09173916
26	0x3d5dab51	0.05411846
27	0x3d3a758c	0.045522258
28	0x3d349328	0.04408565
29	0x3d375cc8	0.044766217
30	0x3cd74f7f	0.026283024
31	0x3d43e5b5	0.047826488
32	0x3d18bc78	0.037289113
33	0x3d14f731	0.036368553
34	0xbd4aa60e	-0.04947477
35	0xbccf4c0e	-0.02530482
36	0x3c9fd131	0.01950893
37	0x3c967ca1	0.018369975
38	0x3cf62c02	0.030050281
39	0xbaefb311	-0.0018287619
40	0x3cce4042	0.025177125
41	0x3c55b6f9	0.013044112
42	0x3daed9a2	0.08537604
43	0x3da75bd0	0.08171809
44	0x3dbaba86	0.09117608
45	0xbd55feb0	-0.052244842
46	0x3d7f107e	0.062271588
47	0xbbb6a9d9	-0.0055744466
48	0xbd2b4cd6	-0.041821323
49	0xbdbe90b1	-0.093049414
50	0xbca07f65	-0.019591996
51	0x3cdec371	0.027192803
52	0x3d032246	0.032015108
53	0x3c01ffd5	0.00793453
54	0xbd4ab5eb	-0.049489897
55	0x3c3c6609	0.011498936
56	0x3c8e8cef	0.017401187
57	0x3cf56dad	0.029959524
58	0x3d2efc01	0.0427208
59	0x3d7b40e7	0.061341193
60	0xbdb3af4a	-0.08773668
61	0x3cb5a7bd	0.02217471
62	0xbd21bfdb	-0.03948961
63	0xbd7766b6	-0.060400687
64	0xbd064d7f	-0.03278875
65	0x3de2f134	0.11081162
66	0x3d601960	0.0547117
67	0x3d22173f	0.03957295
68	0x3d9bc215	0.076053776
69	0x3da34b4a	0.079733446
70	0x3d21d26b	0.03950731
71	0x3cf6046b	0.030031404
72	0xbdc76205	-0.097354926
73	0x3b875b53	0.0041307597
74	0xbd80562c	-0.06266436
75	0x3cf777f0	0.030208558
76	0x3c44fd20	0.01202324
77	0xbd0e2889	-0.034706626
78	0xbcd18164	-0.025574394
79	0xbbfe8c55	-0.0077681937
80	0x3d760b07	0.06006911
81	0xbaff467c	-0.0019475962
82	0x3d7dd8c0	0.061974287
83	0x3d46dade	0.04854857
84	0xbc86d76a	-0.01646014
85	0xbc4a5a9a	-0.012350703
86	0x3b332603	0.002733589
87	0xbcf969df	-0.030445991
88	0xbd3dcea4	-0.046339646
89	0xbc7abc94	-0.01530375
90	0x3d50d442	0.050983675
91	0xbc43b5c8	-0.0119451955
92	0x3bc41081	0.0059834127
93	0x3d6f9438	0.05849096
94	0x3daed5f4	0.08536902
95	0x3d5127e2	0.051063426
96	0xbb25cfed	-0.0025300935
97	0x3d69ceb6	0.0570819
98	0x3d31989a	0.043358423
99	0x3d5e34ee	0.054249696
100	0xbcae3f4f	-0.021270422
101	0x3b2d587d	0.0026450448
102	0x3d8e0e37	0.06936305
103	0xb8c077b3	-9.177569e-05
104	0x3c601241	0.013676227
105	0x3ce37350	0.027764946
106	0xbd1bfb48	-0.038081437
107	0x3d2374e7	0.03990641
108	0x3caa8fc0	0.020820498
109	0xbc096e9e	-0.00838819
110	0xbbf46f7a	-0.007459578
111	0x3d17ef2e	0.037093334
112	0x3d1341a6	0.03595128
113	0x3d8f2fb0	0.069915175
114	0xbd36afb6	-0.044601165
115	0x3d21f8db	0.039543968
116	0x3c478941	0.01217872
117	0xbd10e35c	-0.035373077
118	0xbc9cbcff	-0.01913309
119	0xbd508591	-0.05090863
120	0xbd1b7f5a	-0.03796325
121	0x3ca7a037	0.020462139
122	0xbc6d4643	-0.014482084
123	0xbc4c6acf	-0.012476637
124	0xbc3a473e	-0.0113695245
125	0x3da9622b	0.08270677
126	0x3d820ed9	0.06350488
127	0x3cf448de	0.029819902
128	0x3dc676f7	0.096906595
129	0x3cf69bc7	0.030103577
130	0xbcf7a04b	-0.0302278
131	0x3d536873	0.051613282
132	0xbd2ac66d	-0.04169314
133	0xbd0cd5c2	-0.034383543
134	0xbd18bbda	-0.037288524
135	0x3c93948d	0.01801517
136	0x3abc3b1f	0.0014360881
137	0x3c50df65	0.012748574
138	0xbd1d982d	-0.038475204
139	0xbd734222	-0.05938924
140	0xbc9f5583	-0.019449955
141	0xbd844d95	-0.0646011
142	0xbc668e23	-0.014071974
143	0x3c722e91	0.01478161
144	0x3e0283d7	0.12745605
145	0xbcb557b3	-0.022136545
146	0x3e508fe5	0.20367391
147	0x3dd0b045	0.10189871
148	0x3e0844be	0.13307473
149	0xbd5d5a7d	-0.054041374
150	0x3e150763	0.14553599
151	0x3e015b01	0.12632371
152	0xbca5fcf7	-0.020262225
153	0xbceb6f57	-0.028739614
154	0x3e109f5e	0.14123294
155	0x3d0e94df	0.034809943
156	0x3c87039e	0.016481217
157	0x3e1f6a99	0.15568008
158	0x3d8d9f73	0.06915178
159	0x3d63f778	0.055655926
160	0xbcbfe566	-0.023424815
161	0x3e1f4dda	0.15557042
162	0x3bcca334	0.0062450413
163	0x3c57c067	0.013168431
164	0x3df4e931	0.1195854
165	0x3e375884	0.1790486
166	0x3e0bad76	0.13640389
167	0x3e1ebcb4	0.15501672
168	0x3c5d92eb	0.0135237975
169	0x3cc886a9	0.024478273
170	0xbc87a78f	-0.01655939
171	0x3d93ce45	0.07217077
172	0x3c0382f1	0.008026824
173	0x3d162f50	0.036666214
174	0x3ce29381	0.027658226
175	0x3d445e1b	0.04794131
176	0x3d479618	0.048727125
177	0x3cebf2bd	0.02880227
178	0x3d2b88ca	0.0418785
179	0xbcda55a7	-0.02665217
180	0x3dc0bbd7	0.094108276
181	0x3d73b1e6	0.05949583
182	0x38f677f0	0.00011752534
183	0x3d7e87e4	0.062141314
184	0x3d008f10	0.031386435
185	0x3b1c774c	0.0023874817
186	0x3ded4b47	0.11586624
187	0x3c1d5c2d	0.009604496
188	0x3da1d90d	0.07902727
189	0x3d01821b	0.03161822
190	0x3d27962d	0.040914703
191	0x3d43e198	0.047822565
192	0x3dd36354	0.1032168
193	0x3cbe4171	0.023224564
194	0x3d9fa58a	0.07795246
195	0x3c8ceb90	0.017202169
196	0x3cc30cf7	0.023809893
197	0xbddd56f2	-0.10807599
198	0x3dabb606	0.083843276
199	0x3d961f35	0.07330171
200	0xbb5aaca4	-0.0033367062
201	0xbd83c748	-0.06434494
202	0x3df3bfdd	0.119018294
203	0x3d9abf0c	0.075559705
204	0x3d116674	0.035498098
205	0xbbcd26f0	-0.006260745
206	0x3ba83adc	0.0051339697
207	0x3d2bb2e4	0.04191865
208	0xbaaf916a	-0.0013394777
209	0x3d44549a	0.047932245
210	0xbd4f8640	-0.05066514
211	0x3c1c51b5	0.009540965
212	0x3b8f8106	0.0043793945
213	0x3cf8a842	0.03035367
214	0x3d8d91b4	0.06912556
215	0x3dc31130	0.09524763
216	0x3db92a7b	0.09041306
217	0x3db98162	0.09057881
218	0x3de69399	0.11258621
219	0x3df84dfc	0.12124249
220	0x3e17ec52	0.14836243
221	0x3dad7c34	0.084709555
222	0x3d0edfc0	0.034881353
223	0xbb93dab0	-0.0045121536
224	0x3d8e3913	0.0694448
225	0x3d4484a7	0.04797807
226	0x3e16f693	0.14742498
227	0x3dc984dd	0.09839795
228	0xbc705c65	-0.014670466
229	0x3ccead16	0.025229018
230	0x3e18e072	0.14929369
231	0x3dc87c02	0.097892776
232	0x3ccda94d	0.025105143
233	0xbc4b57b9	-0.012411051
234	0x3c8d43d6	0.01724426
235	0x3db00ab7	0.08595794
236	0xbbf4c707	-0.007470015
237	0x3dc60991	0.096697934
238	0xbd261395	-0.04054602
239	0x3a984a46	0.0011618815
240	0xbce2a81f	-0.027668057
241	0x3b76bfdd	0.003765098
242	0x3c0b458f	0.008500471
243	0x3d1ca6bd	0.03824495
244	0x3ce7f9a2	0.028317276
245	0x3d49dbc1	0.04928184
246	0xbcc29761	-0.023753824
247	0xbcfd0982	-0.030888323
248	0x3ad37b79	0.001613482
249	0xbcc1068c	-0.023562692
250	0x3cb614c0	0.022226691
251	0xbd006f9e	-0.031356446
252	0x3d90df5e	0.07073854
253	0x3d892b02	0.06697656
254	0xbce15518	-0.027506396
255	0x3d022f2b	0.031783264
