project/paper_notebooks/saved_variables/paper_notebooks/4/dqn_vs_dqn/final_policy_agent2.pth (torch, 454057 bytes, 20 tensors)

model.model.model.0.weight f4 [128, 42]
00000000: 18b1 813d a69f 2e3e eb2d 7d3d f758 ac3d
00000010: 0e41 9bbd 6667 863d be59 4fbd 012b 933d
00000020: 59ba d33d 9e26 2dbe 43a6 64bd 55b6 fb3d
00000030: b4d7 f03d 6b44 d1bd e563 92bd c114 c63d
00000040: 9083 02be 61af a1bd 6370 ae3d b093 fe3c
00000050: 2db2 b23b 993f 4cbd cf2d f93d 4ef7 1bbd
00000060: b80e ee3d 4e54 b7bd 23ed af3c a0fb 1b3d
00000070: 5279 a93d db13 ebbd ca80 a3bb a86d 1bbe
00000080: 65ae 81bd 8ce9 0e3e 8025 093d 43b2 1cbe
00000090: e316 15be 74ac 633d 0345 95bc d828 493d
000000a0: 99d0 77bc 6eb0 65be 08af 453d 8aea 2a3d
000000b0: 99f5 863c 8a91 87bd 708c 0d3e 4919 6ebd
000000c0: 0932 68bd b2af 3f3e e2e8 3c3e 77f6 87bd
000000d0: 96a0 273d 11b4 6abd 1fe4 e53c f91f 40be
000000e0: 81a7 34be 8e35 c5bd d910 c53d 3f2f 573d
000000f0: 14c8 e03d a975 c0bd 53ff 463e edca 11bd
00000100: 621f 713d 6ccd ebbd 075d 213e c274 b7bd
00000110: 48dc b23b 82c8 4ebe 1b23 0d3e 600d 593d
00000120: 6085 ff3d fdd7 1e3e 7084 15be 25d5 0dbe
00000130: a4fd fc3d 456a 8c3d 3bc5 46bd df0b 6b3e
00000140: 369c 1b3e 614b afbd 9d2e cabd 59b4 d6bd
00000150: a05f e6bd 388c f23d 6006 893d be76 fdbd
00000160: d2b9 dc3d 5885 c3bd 564e 2b3e 6998 003e
00000170: 5713 f03d 5f48 433c f74c 6cbd 4564 073e
00000180: ec31 423d b7d9 e13d 040f 393e 2eba af3d
00000190: e819 8fbd a3b0 1e3e 967f 333e e0f7 563b
000001a0: 55a1 963d 0085 2e3e 2bc5 8f3d ccf2 523d
000001b0: 5f09 48ba eb5b ff3d 1212 4e3e 7364 853c
000001c0: 381d 813e 65d1 2abd 5ef6 3e3e 0970 523e
000001d0: 65fb a23d 7fd3 713e 867d 833d 8a20 353e
000001e0: 61c5 613e 4259 fdbb 3abd 4c3e 742d fc3d
000001f0: 089a 47bd 1e77 533e 563a 8eba 56fa b03d
00000200: e59f c83d 3b74 49bd 7cb9 f9bc 75cd c03a
00000210: 500f 4cbd 5f34 e93d cf33 b03d a935 2f3e
00000220: 724d 8abd f228 25be ddf3 11bd d6ff e93c
00000230: 2892 49bd 4857 05be 0bb5 c53d dc26 b1be
00000240: caa0 03be 400d 1fbc df85 2fbe 3772 ebbc
00000250: dd24 f53c 07e8 8abc 7a33 cebd 6ff1 3ebd
00000260: f2ac f63d f9b8 2e3e 85e2 a0bd f21f 80bd
00000270: bfc4 cdbd 27bb d238 36c1 c6bc 73c8 b1bd
00000280: c3ac b63d 73bb 4d3e 2cf0 f7bd a4d7 1f3e
00000290: 2809 533d 3b8f babd bc7a 90bd 689f 57bd
000002a0: c759 213d 054e cabd 4bb4 39bd 1be4 b3bd
000002b0: ac62 cabc 1728 f6bd cc7c c63d f4b0 123e
000002c0: ff4d f2bd 765c aabd 1913 dcbd ba52 be3c
000002d0: d15b 08bd c564 a93c d008 523c 092e 343e
000002e0: 1d6c 80bd 8f21 903c e9b4 e63d 76fa 5b3c
000002f0: bf29 d43b 3be6 4e3d 0b4d 023e 226c b03d
00000300: 6ce6 153e c95e 073d 51c8 b73d bcc8 0dbc
00000310: 9a99 973d ca3e 8c3d 7377 82bc 9831 76bd
00000320: 4df5 643d 406d 8fbd 836c 123e 014a 323b
00000330: 2ae9 213d 5451 033d bd9a 0d3c 8a8c d33d
00000340: 4739 97bd 6a41 05bd cd43 683e 974f 9dbd
00000350: ea88 fbbd e524 c93b b18b 413d 1262 3a3e
00000360: 28a6 f13d 32a0 623e a9b6 093e 4473 103e
00000370: ba14 613d 894a 07bb ffe0 173d 19f8 a9bd
00000380: f44a cf3d 8e59 df3d c2d5 15be 675d 443e
00000390: 9900 ef3d 5b18 1bbd fa21 13bc cb6a 50bd
000003a0: 68a7 ac3c 4169 00be 6803 0ebe dcf0 5fbd
000003b0: ad08 52bd b88f 24be de0c f4bd 1b71 1abe
000003c0: 371d 803d 3507 59bd 0528 7dbe 2141 793d
000003d0: 103a 33bb 6c90 37be 0d11 9f3b 74a2 03be
000003e0: db92 95bd d095 ebbd ab5a 95bd b424 ecbd
000003f0: 9805 2a3e ab41 95bc f8d6 0d3d b78b 2dbd
0.06332606 0.17053089 0.06181137 0.08415406 -0.075807676 0.065626904 -0.050622694 0.07185937
0.10338277 -0.16909263 -0.055822622 0.122906365 0.11759892 -0.10218128 -0.071479596 0.09671927
-0.127455 -0.07894779 0.0851753 0.031076282 0.005453369 -0.04986534 0.121669404 -0.038077645
0.11623901 -0.08951627 0.02147538 0.038081765 0.08275093 -0.114783965 -0.004989718 -0.1517855
-0.06332091 0.13956279 0.03348303 -0.15302376 -0.14559512 0.055584386 -0.018221384 0.049111217
-0.015125417 -0.22430584 0.048262626 0.04172758 0.016474532 -0.06619556 0.13823104 -0.058129583
-0.056688342 0.18719366 0.18448213 -0.06638806 0.04092463 -0.05730063 0.028062878 -0.18762197
-0.17642023 -0.09629355 0.09622354 0.05253529 0.10975662 -0.09397442 0.19433336 -0.035593916
0.05886782 -0.115137905 0.15758143 -0.08957817 0.0054583885 -0.20193675 0.13782923 0.05299127
0.12476611 0.1551208 -0.14601302 -0.1385084 0.123530656 0.06856207 -0.048527937 0.22953747
0.15196308 -0.08559299 -0.09872172 -0.10483617 -0.11248708 0.11843151 0.06690669 -0.12376164
0.1077763 -0.09546918 0.16729102 0.1255814 0.11722439 0.01191911 -0.057690587 0.13221844
0.04741089 0.11027854 0.18072134 0.08580433 -0.06987363 0.15497069 0.17529139 0.0032801554
0.073549904 0.17042923 0.07020029 0.05150108 -0.0007630791 0.12468704 0.20124081 0.01628325
0.25217605 -0.0417036 0.18648669 0.2055055 0.07958106 0.23615836 0.06420426 0.17688194
0.2204795 -0.0077315876 0.19994059 0.12313357 -0.04873088 0.20650908 -0.0010851126 0.08641498
0.097961225 -0.04918311 -0.030483954 0.0014709668 -0.04981929 0.11386942 0.08603632 0.17110313
-0.06753053 -0.161289 -0.035632957 0.028564375 -0.04921165 -0.13021576 0.09653672 -0.3459996
-0.12854305 -0.009707749 -0.17140912 -0.028740985 0.029924804 -0.016956342 -0.10068412 -0.046616968
0.120447055 0.17062749 -0.07855705 -0.06256093 -0.10047292 0.0001004844 -0.024262052 -0.08680811
0.089196704 0.20091037 -0.12106356 0.15609604 0.051522404 -0.0910935 -0.0705466 -0.052642256
0.03939226 -0.09878162 -0.045337956 -0.08783742 -0.024705254 -0.12019365 0.09691772 0.14325315
-0.11831283 -0.08318417 -0.1074583 0.023232806 -0.033290688 0.020677933 0.012819484 0.17595686
-0.06270621 0.017594127 0.112649746 0.013426414 0.006474703 0.050512534 0.12724702 0.08614375
0.1463868 0.03304938 0.08973754 -0.008653816 0.07402344 0.068479136 -0.015926098 -0.06010589
0.055898 -0.0700326 0.14299206 0.0027204754 0.039529003 0.032059982 0.0086428495 0.1032954
-0.07383972 -0.032533087 0.22682114 -0.07681196 -0.12281974 0.0061384314 0.04725236 0.18201473
0.1179927 0.22131422 0.13448586 0.1410647 0.054951407 -0.0020643792 0.037079807 -0.08299274
0.10121718 0.10905753 -0.14632323 0.19176255 0.11670036 -0.037865024 -0.008980269 -0.050883096
0.02107592 -0.12540151 -0.13868487 -0.05467306 -0.051277805 -0.1607045 -0.11916517 -0.15082209
0.06255572 -0.05298539 -0.24722297 0.060853127 -0.002734784 -0.17926186 0.0048543275 -0.1285494
-0.07303401 -0.11503184 -0.07292684 -0.11530438 0.16603696 -0.01821979 0.03462884 -0.04236957

model.model.model.0.bias f4 [128]
00000000: b4c0 5b3e 0f6c ff3c 6edf 27be b1bc b73e
00000010: d28d 003e d3ae 003e 02e2 5c3e cc23 843d
00000020: cae6 4e3d f749 913e 82a4 8b3c 144d 82bd
00000030: 58dc 753e 6dcb 48be f8b9 83bd 645e b03e
00000040: 48a5 1d3e 47ab ab3e 6519 d93d d601 09be
00000050: 4f53 c03e 7bd6 c93e 245f 8c3e d8fd 8d3d
00000060: 9fa9 08be 576e a73e cbaf ba3d 7af2 a83e
00000070: 7203 0e3d 80e4 373e a3a7 f7bd 519b 11be
00000080: 8899 8b3e e4be 743e c811 813e 151f bd3e
00000090: 6cbf 9ab9 1470 6a3e 2e49 883e 3f59 64bd
000000a0: 33f7 49bd ba8a 37be 581b f9bc 9a39 ab3e
000000b0: 5cf5 a33e 588b a5bd 79f8 e33d 3b61 6f3e
000000c0: 478d 703e c4ad 873c eb5f 953c 8ba5 a93e
000000d0: 1b68 2dbd a51c 7b3e 3412 0e3e 520d 0abe
000000e0: 9e6b 5c3e 4a7c bc3d a0e1 0d3e 7712 603a
000000f0: ba86 a7bc dd35 14be 6b12 a33d 6ac1 c23e
00000100: 9cfc 9f3e d137 49be 5eb2 953e 5bfe 9d3e
00000110: 4921 8e3e 6f69 3fbd 38e0 2ebd 5a88 6fbd
00000120: 55ee 04be 46fd 5a3d 05a8 60be d03c cf3e
00000130: 7940 93bd 614b 7a3e 62f3 8ebd ff26 a63d
00000140: 36a6 b03e 262f 8a3d 1383 1e3d d9bd 2c3e
00000150: b682 903e 99a8 da3e 83e3 2f3e e07b b5bc
00000160: 4616 d43d 3506 253e ffc3 793d cbce d03e
00000170: 230f f4bd c5d1 a63d b0ca d4bd 620e 983e
00000180: 2c84 5d3e 1ce0 01bc e88c 153e c7ff 9e3d
00000190: 4e16 d1bc 816c 943d 2a66 803d 564a a53d
000001a0: c0f0 01be bcb7 51be 1bd6 bc3d 1442 823e
000001b0: bd60 f9bd 14f6 e8bd 04a5 2b3c 5390 bfbb
000001c0: c2a5 1f3d 05ad be3e 7117 ddbd 26b3 ce3e
000001d0: e089 84bd 5b68 47be 5420 533d e87e 7c3d
000001e0: 7f17 313d 9f7f 983e 8cc2 64bd d1d7 69bd
000001f0: 9c8f e9bd 2966 ec3d 575b 06be bc8f 49bc
0.21460229 0.031179456 -0.16393825 0.35886148 0.125541 0.1256669 0.2157059 0.0645214
0.050513066 0.28376743 0.017046217 -0.06362358 0.24009836 -0.19608851 -0.06431955 0.34447014
0.15395081 0.33529112 0.10600547 -0.13379607 0.3756356 0.39421448 0.27416337 0.069331825
-0.13345955 0.3270137 0.09115561 0.32997495 0.034671254 0.1795826 -0.12092521 -0.14219405
0.27265573 0.23900944 0.2520888 0.36937776 -0.0002951579 0.22894317 0.26618332 -0.055749174
-0.049308013 -0.17924014 -0.030408546 0.33442384 0.32023132 -0.08083218 0.11131377 0.23376934
0.23491393 0.01656235 0.018234214 0.33134112 -0.04233561 0.24522646 0.13874131 -0.13481644
0.21525428 0.09203394 0.138556 0.00085476734 -0.020449985 -0.14473672 0.07962497 0.38038188
0.31247413 -0.19650199 0.29237646 0.3085812 0.2775977 -0.04673141 -0.0426943 -0.058479644
-0.12981541 0.053464197 -0.21939094 0.40476084 -0.071900316 0.24442817 -0.06980015 0.08112907
0.3450181 0.06747274 0.03869922 0.16869296 0.28224725 0.42706755 0.17176633 -0.022153795
0.10355811 0.16115649 0.060977932 0.4078277 -0.119169496 0.08145479 -0.10390222 0.29698473
0.21632451 -0.007926967 0.14604533 0.077636294 -0.025523331 0.07247258 0.06269486 0.08070819
-0.12689495 -0.20480245 0.09220525 0.2544104 -0.121766545 -0.11375061 0.0104763545 -0.005846062
0.03897644 0.37241378 -0.10795487 0.40371054 -0.0647161 -0.19473402 0.051544502 0.061644465
0.0432353 0.29784867 -0.055849597 -0.057090584 -0.114043444 0.11542923 -0.13120781 -0.012302335

model.model.model.2.weight f4 [128, 128]
00000000: 6a38 bb3d edbc 3ebd 590b 89bd 14e2 d63b
00000010: 5c7c 15bc 4c78 4fbd 1728 b5bd d853 a43d
00000020: 966e ea3c 9db2 65bd e6ab a43d 2ea9 2cbd
00000030: 7ab1 04bd 9d83 1b3d 5361 3cbd 7664 e7bc
00000040: d026 cf3d 7fe6 4dbb 4410 ca3d d42c c8bc
00000050: b9ae 513e 40a9 933e 6312 e63c ffc8 b23c
00000060: 538c b5bd 2040 9d3c c1c7 593d 8e7e 643e
00000070: 5d51 a53d 2f97 8e3d dd97 c0bd 4449 633d
00000080: dc8b 603e 3adf 883e 4886 003e d204 9a3d
00000090: 6014 ce3c 4939 043d 16bc 8b3d 0ede 363d
000000a0: 77a2 9a3b ddee 3fbc 37bd 5c3d 5e07 a2bc
000000b0: 6d5b 063d e6cd efbc 8caa 85bd 219d 2dbc
000000c0: e623 283e 05fd b63c f0b0 8cbd 990a c73d
000000d0: a742 8a3d 76ff 5ebc 68f8 08be 0a77 0f3d
000000e0: d3d0 1d3e 27fb 06be 8ae4 6dbd a791 b23d
000000f0: d4e8 28be 061e 88bc 205e dc3c 0d15 1a3e
00000100: 0052 593d d303 27bd 9b64 9d3d b4ab 8f3d
00000110: 64f8 213e 4fec 9b3c b550 f6bd a366 14bd
00000120: b2cd ccbc 4b76 063e 6753 14bd 806c d93d
00000130: 7bed 423d c3ae b83d eca7 9e3b 4fdc babd
00000140: 7f3b 9d3e 6603 dd3c 5d98 bebc 459b 423d
00000150: 2763 a53d e52e 503e 8615 453c ed67 2abe
00000160: 3163 8abd adc4 b03d 0532 aabd 2c6d 3f3e
00000170: 5487 093d b83d d0bd 9d35 1cbe 9cd8 03be
00000180: ccc3 673d 1ef4 c33d b5fe ee3d 0dcd 2cbb
00000190: 59f7 9d3d 75e1 e7bd 7c43 34be ebb0 2e3d
000001a0: 1b98 f7ba 6196 a93c 201d c7bc 6f4f 0d3e
000001b0: 8fa7 94ba 99de 3f3b 393a 473c fdf4 c93d
000001c0: d77f b73d b7ee 6a3d 8a0a 78bd 46db 3a3e
000001d0: 6c07 8d3d 6e33 bf3d 8947 04be 7b9c 653d
000001e0: 84a1 52bc 46fb e33c ad03 2fbd 9df0 63bd
000001f0: a75f 26bd 21c2 d23d db93 293d a073 8a3d
00000200: eb12 623c 5a7a 323e 2cf9 91bd 828a 523e
00000210: 28ca 153e 4c07 a13c fc82 143e 65ab 2f3c
00000220: d1a4 043d f77a ae3d 9ac9 15bd 6954 b53d
00000230: 5ed8 b13d 6ad5 a23d 6e93 063e f97a 1f3e
00000240: 077e 463e 3b7f e63d 72d5 c63d 40a8 f4bd
00000250: 2cb1 833d 07b0 2e3e dd7d 263e fcd5 98bb
00000260: 1f3a ef3d 3c6a 483e 6280 7c3d 7ccd 223e
00000270: cdda 4ebc 6ae4 bc3d 1435 e2bd 025e 37bd
00000280: ed9a 8d3d df7b f13d 2daf 5d3e 9cba 153e
00000290: 87a0 fabc 43c7 323d 86c1 e43d 2061 c13d
000002a0: d54c bd3d 0abf dd3d 5751 5f3e b3d7 533d
000002b0: 14bd 043e 7876 903d 6498 3b3d 0bef fb3d
000002c0: e7ad 213e 90ea 263e 4452 0cbd 627d 0c3e
000002d0: 0728 ba3d 2598 bcbc 0bdf a43d 019c b5bd
000002e0: e60d b83c abcf 8abd 705f c43d 5aca d93d
000002f0: 4dec 9c3d b0b7 0f3d 2e56 113e 5fd6 363e
00000300: 11dc 75bc 7b1c aa3c 4a9e 0f3e a4e3 893d
00000310: d6b0 813b b385 933d 819c 54bd 595d 923d
00000320: 206a 683c 79f4 bc3d 7ff7 ae3b 756e 303e
00000330: 0145 1ebd d30f 1c3d 6fe1 98bd 40ec dd3d
00000340: f98e 123e ac8d 733d c6e3 1f3e 60d4 b13d
00000350: fff3 08bc 4e66 313e 4de7 ab3c 9ed6 a33c
00000360: 4e18 31bd 4b82 3d3e 6e3a 1bbe 9a2f a23d
00000370: b389 993c 48db 28be a653 2fbc 5264 6b3e
00000380: 5865 ed3c 6fdd 1a3c 3ea5 a53c f50f f03d
00000390: 47f4 aa3d de1a 473d b4b1 e43d 58da 573d
000003a0: e1cc 683d 5556 903d 16cd 563d c77f 503e
000003b0: 4138 44bc 694b e93d a99b db3d 7854 a03d
000003c0: 951e bb3d 0198 2d3e 89c5 b3bd ea0d b93e
000003d0: 27f9 bfbc 2b15 b13c 0983 b73d f95d 403d
000003e0: cbeb e83d 310a cf3d 5d56 aa3d 08cb 6fbd
000003f0: a62b b5bd 461a bd3d 607b ba3d b784 8e3c
0.091416195 -0.046566892 -0.066916175 0.0065577123 -0.009123888 -0.050651833 -0.08845537 0.080238044
0.028617185 -0.056078542 0.080405995 -0.04215353 -0.032395817 0.037967313 -0.045991253 -0.028246146
0.10114825 -0.0031417904 0.09866384 -0.024435438 0.20476808 0.28840065 0.02808494 0.021824358
-0.08864655 0.019195616 0.053169016 0.22313902 0.080721594 0.0696243 -0.094039656 0.055489793
0.21928352 0.26732808 0.12551224 0.07520451 0.0251562 0.032281194 0.06822984 0.04464536
0.0047190743 -0.011714664 0.053891387 -0.019778904 0.032802034 -0.029272985 -0.0652667 -0.0105965445
0.16419944 0.022337446 -0.06869686 0.09718818 0.06750994 -0.013610711 -0.1337601 0.035025634
0.15411691 -0.13181745 -0.05807928 0.08719187 -0.16495067 -0.016615879 0.026900351 0.15047093
0.053056717 -0.04077513 0.076852046 0.07015172 0.1581741 0.01903358 -0.120271124 -0.036230695
-0.025000427 0.13131063 -0.03621235 0.10616398 0.04758976 0.09017708 0.004841795 -0.09124052
0.30709454 0.02697916 -0.023266012 0.047511358 0.080755524 0.20330389 0.012029057 -0.16641207
-0.067572005 0.08631263 -0.08310322 0.1869399 0.033576325 -0.10168022 -0.15254827 -0.12875599
0.05658321 0.09568046 0.11669675 -0.0026367337 0.077131934 -0.113222994 -0.17603868 0.04264919
-0.0018889935 0.020701589 -0.02430588 0.13799833 -0.001134144 0.0029276966 0.012159877 0.09861181
0.089599304 0.057356562 -0.060556926 0.18247709 0.06886181 0.09335981 -0.12917913 0.056057435
-0.012855891 0.027829777 -0.042728115 -0.05564939 -0.040618565 0.102909334 0.04140077 0.06760335
0.013798456 0.17429486 -0.07127604 0.20560649 0.14627898 0.0196568 0.14503092 0.010722016
0.032383744 0.085195474 -0.036569215 0.088539906 0.08683847 0.07950862 0.13142177 0.15574254
0.19384013 0.11254736 0.0970868 -0.11946154 0.06430277 0.17059337 0.1625895 -0.004664181
0.116810076 0.19571775 0.061645873 0.15898699 -0.012625408 0.09223254 -0.1104528 -0.044767387
0.069143154 0.11791205 0.21648856 0.14621967 -0.030594124 0.043647062 0.11169724 0.09442353
0.0924317 0.108274534 0.21808372 0.05171938 0.12962753 0.07053846 0.045799628 0.12301453
0.15788995 0.16300416 -0.034258142 0.13719705 0.09089666 -0.023021767 0.080503546 -0.08867646
0.022467565 -0.06777891 0.09588516 0.106342986 0.07662258 0.035087287 0.14193031 0.17855214
-0.015006081 0.020765534 0.14025226 0.06732872 0.003957848 0.072032355 -0.051907066 0.07146711
0.014185458 0.09226317 0.0053395624 0.17229636 -0.038640026 0.03810103 -0.07464873 0.10836077
0.14312352 0.05946128 0.15614232 0.086830854 -0.008358954 0.17324182 0.020984316 0.019999798
-0.04323607 0.18506734 -0.15159008 0.079192355 0.018742418 -0.16489899 -0.010701096 0.22987488
0.028978989 0.009452208 0.020220395 0.117217936 0.083473735 0.048609607 0.11166707 0.052698463
0.056836013 0.070477165 0.05244168 0.20361243 -0.011976303 0.113913365 0.10723049 0.07828611
0.091366924 0.16952516 -0.08777911 0.36143428 -0.023434235 0.021616539 0.0896054 0.04696462
0.11373099 0.10109366 0.08317254 -0.058543235 -0.08846216 0.09233527 0.09105563 0.017397268

model.model.model.2.bias f4 [128]
00000000: 791e 013e ce01 7b3e 5670 553d 6ca6 873e
00000010: 64bc af3d c10f 2c3d 3c42 293d c254 e23d
00000020: 5124 c13d 84cc 213e add2 713e b64d 603d
00000030: 20ee e0bc 2b4c 463e 6301 7dbc 1b41 0c3e
00000040: 0327 19bd e208 73bd e69f 8a3e c093 f33d
00000050: 30ce 2bbd ff95 883e 90c3 3ebc 424d 2bbc
00000060: 54fc c13d eb39 4f3e a9a3 6d3e 5f38 d33d
00000070: dc3b 5bbb a2b4 573e d7a1 9d3d 8788 2e3e
00000080: ec28 1d3e 2730 cd3d 1dbd 103e 2f7b 8ebd
00000090: f24f 8ebd bfd7 28bc e1b7 793d 4040 333e
000000a0: 7163 2c3e 4e25 273e 1591 acbc e4cc 553e
000000b0: da98 df3d 9ccd c53d f74c 093d 6ea8 063e
000000c0: 7028 f4bd e8e9 ba3c b399 d43d d124 9f3d
000000d0: 6777 9ebd 7842 3abd 0c91 623d c1cb b9bd
000000e0: 9134 6a3d 235a df3d f5d0 3a3e fc42 003e
000000f0: c8ce 2c3e 6cce 053c 20e4 c3bd b71e 3f3e
00000100: 30c6 fe3d a6da 983d 2121 f23c 9c58 9b3c
00000110: 3122 a03d e36e e8bd 1948 7d3e beb7 1d3e
00000120: 6298 b9bd 9b4a 823e dafe 183d baf2 653d
00000130: 46a7 023e c0ed 1d3e 5b59 f03c 2a18 aa3d
00000140: 737d d8bd 276e ff3d caf4 993d 1eeb 603d
00000150: e712 213e 6321 c63d 221e 6e3e db13 173e
00000160: 4148 8ebd 4289 36bb 1e42 b9bd 1030 a0bc
00000170: ed1e bdbd cefd 95bd 1d22 723d 1d65 b33d
00000180: f819 713b d94e 7b3e b698 1abc 670b 683e
00000190: 8a2e 93bd b85d 0fbd cb6f 8c3d 115b 9bbd
000001a0: 6a1a 4e3e a5e4 c8bd 552d 793e 2808 ff3d
000001b0: 3d1c bcbd c3f7 2b3e b78c 673e af5d 3ebd
000001c0: 4930 613d 064e 443e 223a 5b3e ff55 4ebd
000001d0: 16e9 983d 39ab 8e3b 03a1 6dba c01b 1d3e
000001e0: 78b0 fa3d 9ae8 293e 15c1 303e fef3 d53d
000001f0: 134f 6a3e b05c a8bc a297 213c 9065 703e
0.1260928 0.24512407 0.052109085 0.26494157 0.085808545 0.04200721 0.04132293 0.110513225
0.09430755 0.15800673 0.23615523 0.05476161 -0.027457297 0.19364993 -0.015442225 0.13696711
-0.03739072 -0.059334643 0.27075118 0.118934155 -0.041944683 0.26676938 -0.011643305 -0.010455431
0.09471956 0.20236938 0.23206963 0.10313486 -0.0033452427 0.21065 0.07696884 0.17044269
0.15347642 0.1001895 0.14134641 -0.06957089 -0.06948842 -0.010305344 0.060966376 0.17504978
0.16834809 0.16322824 -0.021065274 0.20878941 0.10917826 0.096583575 0.033520665 0.13150188
-0.11921775 0.022816613 0.10380878 0.07770694 -0.07737618 -0.045473546 0.05531411 -0.09072066
0.057179037 0.10905864 0.18243773 0.12525553 0.16875756 0.008166891 -0.09564996 0.1866406
0.12440145 0.07463579 0.029556813 0.01896315 0.078190215 -0.11349275 0.24734534 0.15402123
-0.09062268 0.25447544 0.03735242 0.056139685 0.12759122 0.15422726 0.029339483 0.0830539
-0.105708025 0.12472182 0.07517393 0.054911725 0.15729867 0.09674337 0.23253682 0.14753668
-0.06947375 -0.0027852808 -0.09045814 -0.019554168 -0.09234414 -0.073238 0.059114564 0.0875952
0.003678916 0.24541797 -0.009435823 0.226606 -0.07186611 -0.035001487 0.0685726 -0.07585729
0.20127264 -0.098092355 0.24333699 0.124527276 -0.091850735 0.16793732 0.22612272 -0.046476062
0.05497769 0.19170389 0.21408895 -0.05037498 0.074663326 0.0043539074 -0.0009064825 0.15342617
0.1224069 0.16592637 0.17261155 0.104469284 0.22881727 -0.02055201 0.009862812 0.23476243

model.model.model.4.weight f4 [128, 128]
00000000: 3c40 1bbd 1097 7ebc 3d0d 063d f7e8 6cbd
00000010: fafe a5bd bbb0 8d3c 85f2 113d a7b6 5d3d
00000020: e145 5ebd 3429 c33c e544 733d 6d4e 4a3d
00000030: 4048 92bc 779f 833d 3f7f 97bd 89af 74bb
00000040: 1208 65bd 92a2 6bbd 849a 853c cf4a 653c
00000050: 14f6 9d3d 1158 81bd 4697 cd3a c352 16bd
00000060: a4e7 823d 3db4 9abd 8aaf 463c dd6d 34ba
00000070: 861b 9cbd 4089 763d 0cfe a7bd ebe3 cf3a
00000080: 9065 103d d85e b2bd 6a66 7ebd de76 983d
00000090: 5515 763d 622f d9bb f94c 8cbd 629a 97bd
000000a0: cc32 773b 8cb0 723c ee5c 94bd 96ba 8c3b
000000b0: 1629 a63d 525e ab3d 1234 61bd 790a 8e3d
000000c0: 6996 a23d 7c21 a5bd 7ae1 953c 6924 c7bc
000000d0: 723e 84bd bfdb 133d fce2 8b3d 5d0c 363d
000000e0: c10a dbbc e4b5 ee3c 3b2b 30bd b094 afbd
000000f0: 88f5 afbc c144 a4bd b44f 93bc 9f4e 083d
00000100: 8c7b a7bd 9cd2 81bc 2879 aabc 2271 193d
00000110: 55ed 873c 9462 a43d 1b39 90bd 23f5 03bc
00000120: aff4 823d 1420 44bc 1e41 5c3d fd9e 9b3c
00000130: 85aa 5fbb 2314 36bd bcdc 8ebd dafc 2f3d
00000140: 7b1e 723d 0872 003b 7b73 cf3c a754 67bd
00000150: 2e28 4cb9 affb 873d 53f7 f53b 449d b0bd
00000160: 58a5 0e3d ada8 94bc d489 b0bd 9d32 023c
00000170: 1ceb 803d dfac a2bc 6d9c f23c 47ab 27bd
00000180: 0728 25bc 93a5 92bd 2bd8 843d 224e 493d
00000190: 8849 1dbd 549d 97bc 0ff1 43bd f911 99bd
000001a0: f6bb 5ebd cc32 feba 747a 00bd 6cea 003d
000001b0: 2ddc a23b 40fa 84bd 0ef0 d239 ea91 c2bb
000001c0: 57e7 10bc 124f 95bc b7c8 08bd c8a5 283c
000001d0: ab81 1cbd b32e 04bd 838d 873c eacf 1e3d
000001e0: ddf4 73bd 4550 f83c 5b0c 85bd 4075 abbc
000001f0: 83ba a43d 6f09 70bd 336b 4ebc 7bce 453d
00000200: efbe 023d 4e4d e13d 5cef cb3b 4f3e ad3c
00000210: e488 823d 0456 fa3c 1915 173d 421b 623c
00000220: f68d c23d a921 00bd 5a9c 74bd 611c 08be
00000230: 73a4 adbd 966b d3bc 372c 6ebd a06d 6e3c
00000240: e99a 92bd 3cf4 54bd d7bb 043e f78a b73d
00000250: 67a1 abbd 5081 953d 08e5 d2bb 42a3 a6bd
00000260: 3733 41bd 8b16 ad3d f610 ab3d 4849 533d
00000270: bc03 31bd d43b 8fbc 2904 253d 96f4 4ebd
00000280: 1852 82bd 052d 703d 9a66 be3c 4b4f 0dbd
00000290: 7558 383c b311 d9bd f87b 3cbc e42d df3d
000002a0: 2d5c 9b3c cf8b 3c3d 541d 0dbe 2a29 ac3d
000002b0: 8fb9 3bbd 7043 123d 9c1b cb3d 11fc 453d
000002c0: 0bb0 dcbc 90da 2c3f c077 553c 9294 753d
000002d0: b7ac d83d 86be 343d 1a31 053e ee93 ac3d
000002e0: d654 a5bd c5f6 073e 18ea 8cbd acee ec3d
000002f0: ac82 9c3a 6782 38bd 3513 ae3a 5060 7e3d
00000300: 0267 dc3d 6586 303f 99e2 8d3d f5e8 803d
00000310: 80c9 bd3d f9bd 47bd 8673 993d b3b1 1c3e
00000320: 0797 cc3d e62f 5e3d 327f ba3d bbb8 8b3d
00000330: c7a4 e53d 1713 c83d 5505 483c cec5 b8bd
00000340: 527b 1a3b 8806 ad3c a6bf d2bd aa74 363c
00000350: 396e 7e3d 1356 b53d cde0 483d e8e1 1e3d
00000360: 8f68 8ebd c8b1 2ebd dc73 c1bd 4f9b e43d
00000370: a7d9 64bc 2c0a 883d c416 53bd 776a 783d
00000380: 0fe5 9bbd e704 783d f655 ce3d 298f 1a3d
00000390: 700c c53b 2b72 e33d 50e8 c6bd 7394 a43d
000003a0: 5c51 3c3d 6d53 5fbd ecdf fb3d 6966 c23d
000003b0: 3971 b13d f40b 19bd 1cb5 e03d 560d 92bd
000003c0: 0705 af3d bacd ed3d 5374 9d3d c429 c53d
000003d0: a8a7 da3b dced debd 821b ad3d e449 ff3b
000003e0: bdf6 1a3d 480d 5f3d 592c 413d 545b d13d
000003f0: 9613 db3d 4ca6 46bd c7cb 50bd 8d97 e9bc
-0.037903056 -0.015538946 0.03272747 -0.05783936 -0.081052735 0.017296186 0.035631675 0.05412927
-0.05426586 0.023823358 0.059391875 0.0493912 -0.017856717 0.064269 -0.07397317 -0.0037336072
-0.0559159 -0.057528086 0.01630903 0.013994887 0.07712951 -0.063156255 0.0015685342 -0.03670002
0.06391838 -0.07553909 0.012126813 -0.0006882826 -0.07622437 0.060189486 -0.082027525 0.0015860772
0.035253108 -0.08709496 -0.06210939 0.07444547 0.060078938 -0.006627963 -0.06850619 -0.07402493
0.0037719486 0.0148126 -0.072442874 0.0042947037 0.08113305 0.083675995 -0.0549813 0.06935591
0.07938845 -0.08063027 0.018295992 -0.024309354 -0.06457223 0.036098238 0.06830403 0.044445384
-0.026738526 0.029139467 -0.043009978 -0.08573282 -0.021479383 -0.08020926 -0.017982341 0.033278104
-0.081778616 -0.015847497 -0.020809725 0.037461407 0.01659266 0.08026615 -0.07042142 -0.008054051
0.06394326 -0.011970539 0.053773038 0.01899671 -0.0034128737 -0.044452798 -0.069756955 0.042965747
0.0591111 0.0019599218 0.02532362 -0.056477215 -0.00019469924 0.06639802 0.00750629 -0.08623746
0.034825653 -0.018146837 -0.08620039 0.007946637 0.062948436 -0.019857822 0.029615605 -0.040934827
-0.010080344 -0.07160487 0.06486543 0.04914678 -0.038400203 -0.018507637 -0.047837313 -0.07474131
-0.054378472 -0.0019393801 -0.03136678 0.031473562 0.0049700947 -0.06493044 0.00040233176 -0.0059378045
-0.008844218 -0.01822618 -0.03339454 0.010293432 -0.0382096 -0.0322711 0.01654697 0.0387725
-0.05955969 0.030311713 -0.06496497 -0.020929933 0.08043387 -0.058602747 -0.0125988005 0.04829262
0.03192037 0.11001073 0.006223602 0.021147875 0.06373766 0.030558594 0.036885355 0.013800444
0.09499733 -0.0312821 -0.05971942 -0.13292076 -0.08478632 -0.025808137 -0.058147635 0.014552504
-0.07158453 -0.051990733 0.1296228 0.08962052 -0.083803944 0.07300055 -0.006435994 -0.08136608
-0.047167983 0.08451565 0.083528444 0.05158356 -0.043216452 -0.017484583 0.04028717 -0.050526224
-0.063633144 0.058636684 0.023242284 -0.034499448 0.011251559 -0.10599079 -0.011504166 0.10897425
0.018964851 0.04603177 -0.13780719 0.08406289 -0.04583126 0.035708845 0.099173754 0.048336092
-0.026939413 0.67521 0.013029039 0.05995614 0.10579818 0.04412701 0.13007012 0.08426653
-0.08072822 0.13277729 -0.06880587 0.115689605 0.0011940799 -0.045046236 0.0013280871 0.06210357
0.10761835 0.6895507 0.06927986 0.06294433 0.09266949 -0.048765156 0.074927375 0.15302162
0.09989744 0.0542449 0.09106292 0.06822344 0.112130694 0.09769266 0.0122083025 -0.09022103
0.002357204 0.021121278 -0.1029046 0.011136213 0.062116835 0.08854308 0.04904251 0.03878966
-0.06953537 -0.042650014 -0.094459265 0.11162435 -0.013967908 0.06642565 -0.051535383 0.060648408
-0.07612049 0.06055155 0.100749895 0.037734184 0.0060134456 0.1110576 -0.09712279 0.08036127
0.045976028 -0.05452292 0.12298569 0.094921894 0.08664174 -0.037364915 0.10972044 -0.0713145
0.08545881 0.11611505 0.07688203 0.09627107 0.006672818 -0.10885212 0.08452512 0.007790791
0.037832964 0.054456025 0.047161434 0.102224976 0.10697095 -0.048498437 -0.050975587 -0.028514648

model.model.model.4.bias f4 [128]
00000000: e6ab 413d 0069 6d3e 0cbd e23d f469 95bc
00000010: 5ebf 0d3e e517 a5bd 2daf a03d 97fc 483d
00000020: f063 f03d 6742 fb3d a306 3a3e 7bcd 473e
00000030: a2c0 ef3c fc53 aa3a 4229 b83d 246d 663e
00000040: 449e a1bd 9abf 01bd 8fb8 4e3d 0b29 413d
00000050: 1d40 1d3e 2c1f 80bd ceda e13d 98af 7d3c
00000060: cd5a 893e 148b 903d e064 5e3e fe9f 72bd
00000070: 6db4 b7bd 8ebb 253e 46ab 633e 8c30 4e3e
00000080: 5a9f 333e 2e31 da3d d49e 0d3e aa1f f43d
00000090: 03ef 2b3e 3620 9d3d 1cbe 213e 03da 2d3e
000000a0: daf6 483e 0031 fe3d 972e c43c b1a5 7b3e
000000b0: 8185 ae3d c2cf 1d3e b92b e53d 9e7f 583d
000000c0: b123 e43d 69eb 7a3d 4b61 e13d c36e 253e
000000d0: 5f9e 1abd 57bd 523e e333 77bc f749 643e
000000e0: 3b70 1b3e 055d 44bd d4f7 0c3e df89 363e
000000f0: 935f cd3c 9290 d43d 2b55 e33d b849 22bd
00000100: a9fe b83d 7722 013e 566b 26bd 9c38 703d
00000110: 9115 dbbd fd45 57bd f7d5 87bd fb08 91bd
00000120: 0a16 3e3e c55a ab3d beb3 063d ac28 3e3e
00000130: a1e0 ebbc 2876 5fbd dade 0a3e 1f73 b83c
00000140: 0560 253e f202 d33c 9f55 0c3e b238 a2bd
00000150: c7ab 34bd 84f6 593e 7581 50bd d956 3c3e
00000160: d3b8 683e 08d1 1a3e 92f0 5f3e 5512 c3bc
00000170: 46d4 4c3e 9d1b 363e f73d 1dbd 7fac 3fbc
00000180: 0831 753e 53fc 653d 662f 3dbd bc2d 0f3e
00000190: ef6b 743e 26db e6bc 4dd9 98b9 7233 cd3d
000001a0: a925 e53d fe44 6c3e f026 d93c 74ff 7b3e
000001b0: 0d98 4b3e e31a cf3d 52f3 5b3e 99a3 a53d
000001c0: 8483 7c3d 98d2 6cbd 5ded 053b c417 6d3e
000001d0: aed2 763e 3e6f d73d d87d 01bd 51f2 5a3d
000001e0: f846 c93d cd9b e73d 0946 163e 8321 a53b
000001f0: 809f 11bc 8994 373e 8d6b 113d 9e1f bc3d
0.047283076 0.23184586 0.11071214 -0.018238999 0.13842532 -0.08061198 0.07845912 0.049069013
0.117378116 0.122685246 0.18166594 0.19511978 0.02926666 0.0012995 0.08992244 0.22502571
-0.07891515 -0.031676866 0.050468978 0.047158282 0.15356489 -0.062559456 0.11028062 0.015483759
0.26827088 0.07057777 0.21718168 -0.05923461 -0.0896996 0.16184828 0.22233304 0.20135707
0.17541257 0.106539115 0.1383012 0.11920102 0.16790394 0.076721594 0.15795177 0.16977696
0.19625416 0.1241169 0.023947997 0.24574925 0.085215576 0.15411285 0.1118998 0.05285608
0.1113962 0.06125966 0.11004885 0.16155533 -0.03774869 0.2058004 -0.015088054 0.2229384
0.15179531 -0.047940273 0.13766414 0.17826031 0.025069987 0.10379137 0.11100229 -0.039621085
0.090329476 0.12610804 -0.040629707 0.058647737 -0.10697473 -0.05255698 -0.066326074 -0.07081791
0.18563095 0.08366922 0.03288626 0.18570203 -0.028793635 -0.054556042 0.13561574 0.022515832
0.1614991 0.02575824 0.13704537 -0.0792097 -0.044109132 0.21285444 -0.05090471 0.18392505
0.22726755 0.15118802 0.21869114 -0.023812452 0.20002851 0.17783971 -0.038389172 -0.011698841
0.23944485 0.05614884 -0.04618778 0.1398229 0.23869298 -0.02818067 -0.000291536 0.10019578
0.11188824 0.23073193 0.026507825 0.24609166 0.19882222 0.1011255 0.21479538 0.080878444
0.06164886 -0.057818025 0.002043567 0.23153597 0.24103805 0.10519265 -0.031614155 0.053453747
0.09827989 0.113090135 0.14675154 0.0050393953 -0.008888125 0.17927755 0.03550296 0.09185718

model.model.model.6.weight f4 [128, 128]
00000000: 0831 453b 3d81 34bd d4ef f13c 974e dfbc
00000010: 270b b4bd 4635 a8bd 6e29 1abd cc09 89bc
00000020: 2064 8abc 3148 adbd 118b fe3c 5d96 55bd
00000030: 07cf 69bd 3267 a4bb 18cb 2f3d 44c8 bdbc
00000040: 6392 adbc ff51 8c3d 4fdc 763d 24da 7bbc
00000050: 5d13 833c ec20 073d 7e00 53bc 8942 5b3d
00000060: e1eb 683d b434 86bd 5176 a8bd 8dfc 4a3b
00000070: 46f5 5d3d feaa 0c3c 38c0 dfbd 90eb cabc
00000080: 527a a3bd 264c 4fbd 04cb 443d fde1 853c
00000090: a113 1f3d fbb4 9cbd 0acb 343d 8935 f33c
000000a0: e8a8 ecbd c65a 69bd 9937 9e3d 0dff a2bd
000000b0: 8b64 a8bd f5f4 acbd fbb7 7dbb 9299 37bb
000000c0: e7db 80bd e9e7 cbbd bd6a 5a3c 82ed 62bd
000000d0: b933 80bc a567 7fbb fbcc e03c 1654 76bd
000000e0: 5798 bfbd f5a2 bdbd 6d0a 5e3d a205 aabd
000000f0: 8e17 1c3d f824 2d3d 207b bebb 8ace b0bd
00000100: 8407 26bc d106 9dbd 32ad 153c 4c7a c8bd
00000110: 012c 20bd 2fff 923d 76c7 7c3d 3141 883d
00000120: 1ed6 82bd 10cd 4bbc f664 bebd d36e 963d
00000130: 50d5 9b3c 092f 57bd 7640 96bd fe73 afbd
00000140: c932 cd3b a9e7 73bd 2044 fab9 e2af 86bd
00000150: 1612 80bd c024 e9bc 2fe6 813d 18c4 26bd
00000160: e8e9 443d 7cf8 dabd d0ee aabb 68b9 dbbd
00000170: 08cb 173d c37d 893d d2db 82bd 42d3 9dbc
00000180: dc29 71bc 62a4 8b3d a09b 8ebd 7a54 96bd
00000190: 711a 813d af2b b4bd dea4 7cbc 3d14 1dbd
000001a0: 0951 24bd f781 cebd 6596 afbc 2d60 e13c
000001b0: ff63 f5bb 6922 5e3d ef94 51bd 90cb 57bd
000001c0: 9906 0ebd ceb8 413d 40c0 a43d 8972 b7ba
000001d0: 46cd dcbc 7aa5 d2bd 29fc 633d 4731 5abd
000001e0: 7d3e e0bd 5a08 8abd cd9c b1bc 697e 9d3d
000001f0: b0fa 7d3d 68d0 b33c eb28 0ebd f992 64bc
00000200: b5b7 9bbd 4773 a33d 30e1 d33c c42b e53c
00000210: 764b 143d c8cf 4ebc bcda 73bd f3fc 71bd
00000220: 6188 9d3d cbdf 8a3d 63b1 a13d 62a7 503d
00000230: 0b7e 22bd 1a91 573d 84a2 babc f51e 4cbd
00000240: 88ed e23c c226 523d e73d 29bd 7f6e 39bd
00000250: 088d 2bbd e26e 093d ccef d3bc 8013 57bc
00000260: 2061 efbb 3e3f 6a3d 484c 113d 95cc 0ebd
00000270: 1a89 a4bd 3e8f 92bd 78d5 a1bc 6e01 6fbd
00000280: 4a3a 98bd 0b7c 853d de67 743d 56b0 5a3d
00000290: 06a4 8fbd 2705 8dbd 1826 b2bd ad43 32bd
000002a0: 6626 2a3d 9083 d73b 80f0 f1ba 2302 adbd
000002b0: 0814 1f3c f5f7 4fbd 1816 d2bc 6380 af3d
000002c0: 40fc adba 2cea eb3c 561f 2abd df5b 943d
000002d0: 531d 06bd a2af 9dbd 2758 adbd 48f2 64bc
000002e0: 3094 efbc d848 3b3c d258 1d3d bb82 afbd
000002f0: 5e92 2e3d 42ed d7bc 60c8 e0bb 4679 173d
00000300: f543 873d 83a0 813d 0516 a83d 19af 74bd
00000310: cba1 9c3d 40e9 17bc 303c e5bb 53b8 aabd
00000320: 24fa f33c 00f7 563b a027 cbbb 7e7e a8bd
00000330: 4685 77bd c01d f63a 4e63 743d fa7f 793d
00000340: ef58 2cbd bc1c b1bd d05c c1bb 5ddf a6bd
00000350: 804e f2ba 40cf 66bc 6e4f 443d f302 a93d
00000360: a032 613b 240f b83c a02f 933b 223c adbd
00000370: e444 e0bc 0da0 a13d 9b86 95bd 9a07 b3bd
00000380: d032 883b 9ae8 763d 6568 963d 3054 db3c
00000390: 18ca a1bc ec5f 84bc 8809 0c3d 917f 65bd
000003a0: ebf1 9bbd 79b3 46bd cb18 22bd e0c3 64bc
000003b0: 8a14 2b3d 6ec4 03bd 161b 4e3d 3503 9c3d
000003c0: e430 d43c 2891 9f3c 4f73 ab3d 9e3d 603d
000003d0: a4f9 46bd 94ec 9f3c c85b 0e3c 7cf5 87bd
000003e0: 0ec3 41bd f6e3 aabd 13d0 09bd 8024 b63c
000003f0: e790 883d 288f 5bbd 871f ad3d 0039 7b3a
0.003008904 -0.044068564 0.029533304 -0.027259154 -0.0879119 -0.08213286 -0.037637167 -0.016728304
-0.016893446 -0.08461035 0.031072171 -0.05214535 -0.057082202 -0.0050171847 0.042918295 -0.023166783
-0.021187967 0.06851577 0.060268696 -0.015371833 0.016000444 0.03299038 -0.012878535 0.05353025
0.056865577 -0.06553021 -0.08225692 0.0030973286 0.05418899 0.00858569 -0.10925335 -0.024770528
-0.07982315 -0.05060973 0.048045173 0.016343111 0.03883708 -0.07651707 0.044138946 0.029688613
-0.11555654 -0.056971334 0.07725448 -0.07958803 -0.08222302 -0.08445159 -0.0038714397 -0.002801512
-0.06291943 -0.09956343 0.013331112 -0.055402286 -0.015649663 -0.003897169 0.027441492 -0.060138784
-0.093552284 -0.09259597 0.05420916 -0.083018556 0.0381084 0.042271584 -0.0058130175 -0.08633144
-0.010133628 -0.07667316 0.009135531 -0.09788951 -0.039104465 0.07177579 0.06171366 0.06653059
-0.06388496 -0.012439027 -0.092966005 0.07345357 0.019022614 -0.05253509 -0.07336514 -0.08567046
0.0062621576 -0.0595471 -0.00047734473 -0.06576516 -0.062534496 -0.028459907 0.06342732 -0.040714353
0.048074633 -0.10691926 -0.005216457 -0.10728723 0.03705886 0.0671344 -0.06389584 -0.019265775
-0.014719453 0.06818463 -0.06963277 -0.073403314 0.063038714 -0.087973945 -0.015420167 -0.03834938
-0.040116344 -0.100833826 -0.021434018 0.02751168 -0.007488727 0.054232035 -0.051167425 -0.052684367
-0.03467426 0.047295384 0.08044481 -0.0013995926 -0.02695335 -0.102854684 0.0556604 -0.05326965
-0.10949419 -0.06739874 -0.021681214 0.076901264 0.062006652 0.021949962 -0.03470699 -0.013951057
-0.07603399 0.07980972 0.025864214 0.02797497 0.036204778 -0.012622781 -0.059534773 -0.05907912
0.07692028 0.06780966 0.07895162 0.05094088 -0.039670985 0.052628614 -0.022782572 -0.04983421
0.027701154 0.051306494 -0.0413188 -0.045271393 -0.041882545 0.03355301 -0.02587118 -0.013127208
-0.0073052794 0.05718922 0.035473138 -0.034863073 -0.080339625 -0.071562275 -0.01975511 -0.058350973
-0.07432993 0.065178 0.059669368 0.053390823 -0.07013707 -0.06885748 -0.08698672 -0.043521572
0.041540526 0.006576963 -0.0018458515 -0.08447673 0.009709366 -0.05077358 -0.0256453 0.0856941
-0.0013274029 0.028798185 -0.04153379 0.072440855 -0.03274281 -0.07699515 -0.08464079 -0.01397378
-0.029245466 0.0114309415 0.038414784 -0.08569857 0.042620055 -0.02635825 -0.006859824 0.03698089
0.06604759 0.06329443 0.08207325 -0.0597373 0.07648047 -0.00927192 -0.0069957003 -0.08335938
0.029782362 0.0032801032 -0.006199792 -0.082272515 -0.060429834 0.0018777177 0.059665017 0.060913064
-0.042077 -0.08648059 -0.0059009567 -0.08148072 -0.001848653 -0.014087498 0.047927313 0.08252516
0.003436245 0.022468157 0.0044917613 -0.08458735 -0.0273766 0.078918554 -0.073010646 -0.08741684
0.004156448 0.06028042 0.073441304 0.026773542 -0.019749686 -0.01615902 0.034188777 -0.05602986
-0.076145016 -0.048511002 -0.039574426 -0.013962716 0.041767634 -0.03216975 0.0503188 0.07617799
0.02590222 0.019478396 0.08371603 0.054746263 -0.04857792 0.019521989 0.008688875 -0.06638619
-0.04730516 -0.08344261 -0.0336457 0.022234201 0.06668263 -0.05360332 0.08453279 0.0009583384

model.model.model.6.bias f4 [128]
00000000: e14b 5abb bd09 a4bd 7542 a23c 879f 303d
00000010: 999b e73c c9c2 223e f610 cc3d c81e bc3d
00000020: e2f4 bdbd 5018 7b3e 84c8 a0bc b6f5 ccbd
00000030: f5ed 2e3d 48d7 673e c8b9 9c3b 4dab be3d
00000040: bbbf 4ebd c5a1 e73d a264 99bc 4472 743c
00000050: 5ed6 a3bd 508b 7f3d 5bb1 7bbd 91d8 f33d
00000060: d1ff 443e 3776 29bd 4d4f 2e3d 8f6e 2db8
00000070: bd0f c93c 9d61 acbd 6561 27bd 43cf e73d
00000080: cc4b 27bd ac29 fd3d 2e27 2c3e dd08 2c3b
00000090: 163e 4e3e ac1e c53d 453f c73c d44d 2fbd
000000a0: 50e1 afbd 7741 c33d b524 113d f484 a43d
000000b0: b64c dfba 3b3a 90bd de41 023d 2ff3 08be
000000c0: 840d 633e c29d 023d e689 263e 4187 8ebd
000000d0: 866e 683e 5bb3 073c 45b3 053e e18e e53d
000000e0: 872f a6bd 9a9a 1d3e 5c85 61bd da5e 46bd
000000f0: 161b 7a3e 49d9 fd3d 0560 0fbd 9094 523e
00000100: d60a 90bd b684 c33d dc14 3e3e 5f28 0a3e
00000110: fc28 0a3d 8e08 643e 888a 683d 1ed7 0a3e
00000120: 1392 c0bc de3c 50bd 10ef 803e 4e5a 4f3e
00000130: 7f1d 4b3e 65ed 393e c7df 21bc f3c6 a23d
00000140: 9f5a b43c b1ce 9b3d d62e 88bd 1df2 adbd
00000150: b112 59bd 7202 8f3d 0652 98bd d8a6 723e
00000160: 45c4 90bb 180b 373e bab7 9e3d 13de 3c3e
00000170: c805 1f3e c88d 733d 5f73 2c3e ac04 0b3e
00000180: a6e7 26bd 123b ab3b b947 623e d77c 203d
00000190: 6a12 1ebd 27b5 b6bd 71d3 2d3c 28bf b7bd
000001a0: 9b10 86bd d4d9 b13c 7d83 2c3e 49ae 5d3e
000001b0: add5 883d 5b19 2d3d 4ca1 343e cd9a 453d
000001c0: f470 293e 511a 4f3d 4a37 323e 6e20 6c3e
000001d0: 1971 64bd 46c2 0e3e 8186 3ebd 75a3 413e
000001e0: 7b15 a8bc 40ce 8fbd cf59 583e b384 813e
000001f0: 2617 1d3d d4d9 113e 3b95 883d 278b 23bd
-0.0033309388 -0.0800967 0.01980708 0.043120887 0.028272437 0.15894617 0.099641725 0.091855586
-0.09275223 0.24520993 -0.019626863 -0.10007803 0.042707402 0.22640717 0.004782889 0.09310017
-0.050475817 0.11310152 -0.018724743 0.014919821 -0.07999872 0.062388718 -0.061448436 0.11906541
0.19238211 -0.041372504 0.042556096 -4.134938e-05 0.024543637 -0.08417056 -0.040864367 0.11318829
-0.04084377 0.12361464 0.16811821 0.00262504 0.20140871 0.09624991 0.024322161 -0.042798832
-0.08587897 0.09533971 0.035435397 0.08033171 -0.0017036411 -0.070423566 0.031801097 -0.13374017
0.22173125 0.03188873 0.16263542 -0.069593914 0.22698411 0.008282508 0.13056667 0.112088926
-0.08114534 0.15391007 -0.055058822 -0.0484303 0.24424395 0.123949595 -0.03500368 0.20564485
-0.07033317 0.09546797 0.18562645 0.13491963 0.033730492 0.22268888 0.05677274 0.13558623
-0.023507154 -0.050839297 0.2518239 0.20249292 0.1983547 0.18156965 -0.009880013 0.07948103
0.022015868 0.07607783 -0.06649558 -0.08493445 -0.05299634 0.06982888 -0.0743752 0.23696458
-0.0044179284 0.17875326 0.07749887 0.1844409 0.15529549 0.059461385 0.16840886 0.13576001
-0.04074826 0.0052255476 0.22097673 0.039181557 -0.03859178 -0.08921271 0.010609494 -0.08972007
-0.06546136 0.021710314 0.16847034 0.21648516 0.066813804 0.04226051 0.17639655 0.048243333
0.16546994 0.050562207 0.17403904 0.23059246 -0.05577192 0.13941297 -0.04651499 0.1891001
-0.020518055 -0.07021761 0.2112801 0.25296554 0.038352154 0.14243251 0.066690885 -0.039927628

model.model.model.8.weight f4 [7, 128]
00000000: b07f 6a3d 1c13 97bc d9fd b0bd df8d d6bc
00000010: b8e2 4fbe b0db 0d3d ef26 07be 86a2 f9bd
00000020: 636a 9fbd 69fe e63d f007 7ebc da96 8bbd
00000030: fd45 a4bb 4587 cb3d 7932 55bd a192 b3bd
00000040: 75eb 23bc ab88 9639 2963 bdbc d058 32bc
00000050: b5f1 0ebd 37ad 93bd 6ec5 ab3d f4a0 8fbb
00000060: 23ae 113e fd8f ac3d b7a9 013d f6f0 76bd
00000070: 2da8 d1bd c9e6 ab3c b468 863d 5cdf 3d3c
00000080: 0050 aa37 f6cb 1f3e d108 e03d 3a18 dfbc
00000090: fe5f c13b d321 803d 0910 1ebd f6ac 34bd
000000a0: d200 adbd 6bd2 6cbd 6276 9a3b efc1 f5bd
000000b0: 71fe 6abd 2406 1f3d c17a 923c cfc4 aabd
000000c0: 47ee 3a3e 5dd0 71bd ab03 04bc 0b7a 58bd
000000d0: 9f6d cf3d 5fe5 3e3d 746c 31bd c84d 203e
000000e0: 991d 893c 9aac b1bd e295 753d 7931 283c
000000f0: addf 423e 97ce 823d 306d 6a3d f6d3 113d
00000100: 29cd 513d 8864 8a3d d479 b33d 627f 343c
00000110: 8d73 12be 339f d63d c620 aebc d8e9 5b3d
00000120: dfe1 533c 63ea a4bc 8c04 863d d181 5d3d
00000130: 5a2e a23d 1f09 153e 4a75 003d a19e 28be
00000140: 144b 89bd d162 7fbd 5406 453c 85ee 47bd
00000150: 4ebc a73c c14e cfbd ea1d 503c 938c c83d
00000160: e4c1 4ebd a1b4 d03d db27 51bc 7af5 c23d
00000170: e79d ca3d a0b9 ac3d cc67 2e3e 4dea 82bd
00000180: 1e63 7e3d ef78 d6bd 8660 1e3d 8385 363e
00000190: a921 10bc 6733 14bd 26b2 00be 817a 803d
000001a0: 8934 463d 863f 01be 09f3 113e 931b 0b3e
000001b0: c06f 9c3d fe61 d53c 5dfb 0d3e 0ba1 293d
000001c0: 0d09 4d3e c5a9 02bc 6ef2 df3d c179 353e
000001d0: 9a8b 49bd 42af 0c3e e7c3 71bd 7e35 2ebd
000001e0: 1e2c 79bd 427f e0bd a457 d83d f296 393e
000001f0: 1f84 e2bd 4d28 bb3d 0d52 3abd d725 bf3c
00000200: 4c48 113d f496 86bd e714 5abd 379e 383e
00000210: 51ae 0b3e 5525 113e 1d54 d8bb 6e2e d13c
00000220: 8f7f e73c 4867 fd3d 59ce aa3d a472 c4bd
00000230: d26d 37bd c9bd d63d 01fd 82bd fe33 bebd
00000240: cb3e 08bd 4b0a a0bc 90cd cb3c c124 ee3c
00000250: c6ab 1cbc b350 113e b645 9f3d 0735 dc3d
00000260: b465 c93d 8099 473a 804d b23c efca b4bd
00000270: 03a4 773d 1a3c adbc 4dc0 253c 0f0a 213d
00000280: 8661 223d 6f04 4b3e bdee 183e 7882 b53c
00000290: 0089 a73d ebec 0f3e 6237 33bd c702 c1bd
000002a0: baed 983d 8d4a 7cbd 44fc a73d 9251 f4bd
000002b0: e17d 633d 937b 9dbc 97e3 72bd 509e fcbc
000002c0: 2c75 033e 30d1 2bbb 0011 c83d db05 5dbc
000002d0: 46ed c93d 6b1c 7eba c3d7 4f3d c0fe 523d
000002e0: a154 72bd 626a b2bd de68 81bd 4d4d 26bd
000002f0: cfc5 0d3e b124 653d 8bf2 85bd 6e0e 083e
00000300: 6d5a b3bd bbf9 263e 3dec 153e e33d c23d
00000310: bd77 e03c a78e f23d 50c5 adbd 2bcd 073e
00000320: 1414 07be 1017 943d 5c5d 453d c618 093e
00000330: 394c 223e e90e 113e 19e3 26bd ab0b 53bd
00000340: 4689 b9bd d0c6 bcbd cb3e 63bd 2738 f23c
00000350: b64c 013d 2d96 a3bd 3ae4 b9bc 80d5 ba3d
00000360: cae9 9b3c 7c00 063e 501d 873d 2c65 0e3e
00000370: 7eaf ed3d 0e26 8cbd d1b2 953d 2717 a53d
00000380: fd9e 0c3d 8c25 b03d 96e3 003e cd4c 0e3e
00000390: e72b 00bd 2672 63bd 1179 a23c 77c7 a1bd
000003a0: c826 8ebd d1d2 abbc 8bd0 373e 3984 5b3d
000003b0: c5cb 813d 398e f5bc 8a32 4b3e f827 28bb
000003c0: 02d9 7c3d bfda 293d 416e 8b3d 2247 be3d
000003d0: 6fbf 79bd 6732 b83d 8d90 5ebc 0335 0d3d
000003e0: c498 9bbd 27ac fcbd bc53 1f3e 5ccb 7e3d
000003f0: 269b 58bd 7e54 0e3e dfd1 dfbd 55d4 203d
0.05725068 -0.01844173 -0.086421676 -0.026190696 -0.2030133 0.03463334 -0.13198446 -0.12189202
-0.077839635 0.11278994 -0.015504822 -0.06815882 -0.005013226 0.0993791 -0.052050088 -0.087682016
-0.010004868 0.00028712055 -0.023118572 -0.010885432 -0.03489848 -0.072107725 0.08387266 -0.004383201
0.14226584 0.08425901 0.031655993 -0.060288392 -0.10237155 0.02098407 0.06562939 0.011588898
2.0302832e-05 0.15605149 0.109391816 -0.027233232 0.0059013357 0.062564515 -0.03858951 -0.04411026
-0.08447422 -0.057817858 0.0047138194 -0.119998805 -0.05737156 0.038824216 0.0178808 -0.083383195
0.18254958 -0.0590366 -0.008057515 -0.052850764 0.101283304 0.046605464 -0.04331632 0.15654671
0.016737746 -0.08675499 0.059957393 0.010265701 0.19030638 0.0638706 0.057233036 0.035602532
0.051221047 0.06757456 0.08763471 0.011016699 -0.14301892 0.104795836 -0.021255862 0.053689808
0.01293227 -0.020131296 0.06543836 0.05407888 0.07918997 0.1455426 0.031361856 -0.16466762
-0.06703773 -0.062350098 0.0120254345 -0.048811454 0.020475533 -0.10122443 0.012702445 0.097924374
-0.050477877 0.10190702 -0.01276585 0.09519477 0.09893399 0.08433843 0.17031783 -0.063923456
0.062106244 -0.10472285 0.03866627 0.17824368 -0.008797088 -0.036181834 -0.12567958 0.06273366
0.048389945 -0.12621889 0.14252867 0.13584737 0.07638502 0.026047703 0.13865419 0.04141335
0.20022984 -0.0079750465 0.10934912 0.17722227 -0.0492054 0.1373873 -0.059024718 -0.042531483
-0.06083309 -0.109617725 0.10563591 0.18123987 -0.11060356 0.09138546 -0.045488406 0.023333473
0.03546934 -0.06571761 -0.05324259 0.18029104 0.13640715 0.14174397 -0.006601824 0.025534835
0.028259067 0.12373215 0.08340139 -0.095921785 -0.044782467 0.104854174 -0.06395913 -0.092872605
-0.03326301 -0.019536158 0.024878293 0.02907026 -0.009562438 0.1419094 0.07776968 0.10752302
0.098338515 0.0007614121 0.02176547 -0.08827769 0.06045915 -0.021146823 0.010116649 0.039316233
0.039643787 0.1982591 0.14934821 0.022156939 0.081804276 0.14055221 -0.04375399 -0.09424358
0.07467218 -0.061594535 0.08202413 -0.11929621 0.05553997 -0.019223964 -0.059299078 -0.030837208
0.12837666 -0.0026217215 0.097688675 -0.013490166 0.098597094 -0.00096935657 0.050742876 0.05151248
-0.05916274 -0.08711697 -0.0631883 -0.040601064 0.13844989 0.055943195 -0.06540402 0.13286754
-0.08757482 0.16306202 0.14640899 0.0948446 0.027400846 0.11843615 -0.084849 0.13261859
-0.13191253 0.07230961 0.048184738 0.13388357 0.15849389 0.14165844 -0.04074392 -0.0515248
-0.09059386 -0.09217608 -0.055479806 0.029567791 0.031567298 -0.07987628 -0.022691835 0.09122753
0.019032378 0.13086122 0.06597388 0.13905782 0.11605738 -0.06843196 0.07309497 0.080610566
0.03433131 0.086009115 0.12586817 0.13896485 -0.03129187 -0.055528782 0.01983312 -0.07899373
-0.06940991 -0.020974549 0.17950647 0.053592894 0.06337694 -0.029975044 0.19843498 -0.002565859
0.061730392 0.04146838 0.06808139 0.09290911 -0.06097358 0.089939885 -0.013584268 0.034474384
-0.07597497 -0.12337523 0.15559286 0.062205657 -0.052882336 0.13899419 -0.109287016 0.039264996

model.model.model.8.bias f4 [7]
00000000: c119 df3d 3e50 0c3e 4367 133e 8cc0 513d
00000010: a5f2 6d3e 6b1b a03d 000e f03d
0.10893584 0.13702485 0.1439486 0.051209018 0.23237093 0.078177296 0.1172142

model_old.model.model.0.weight f4 [128, 42]
00000000: 0903 853d da58 2f3e 0e99 7f3d 7344 a73d
00000010: 5bee 98bd 74d2 873d 819e 46bd 4175 923d
00000020: 6972 d93d de32 2cbe 056d 6abd 9b8a fe3d
00000030: 0910 f43d efec c9bd f4e9 8ebd 1918 c73d
00000040: 2dc3 04be ffea a2bd bb87 af3d 3604 033d
00000050: 09eb bc3b c21f 42bd 1918 003e 946d 15bd
00000060: 66fc ed3d 8375 b9bd 843c bf3c 8c52 143d
00000070: 0527 aa3d d5b3 eabd c04a a9bb 6193 1cbe
00000080: 85b7 81bd 7066 103e 016f 013d c416 1abe
00000090: cb18 15be c828 633d fc86 91bc d828 493d
000000a0: 635c 57bc 8823 68be ec1a 503d e6d6 373d
000000b0: 6a82 8f3c 74b5 8bbd 68f6 0d3e 1d1e 67bd
000000c0: 8204 60bd c023 403e 2a75 413e 6ba3 82bd
000000d0: a872 233d 4c85 63bd 07ab ff3c 3edf 3bbe
000000e0: ed55 31be 8870 c2bd 23b1 c23d e19d 5b3d
000000f0: 6b92 e33d 6d25 bcbd 0553 493e 99a4 06bd
00000100: a923 813d be4d e6bd 9037 223e 08a0 b9bd
00000110: bb5a f63b 352f 50be dcff 0c3e 1bdf 593d
00000120: 4189 003e 9e32 1e3e 2683 15be b4b2 0abe
00000130: 8fc4 f93d 5eed 8f3d eec9 46bd 303c 6b3e
00000140: 53a7 1c3e 614b afbd 1e14 c6bd 74ac d9bd
00000150: fbf3 e9bd 9016 ef3d 436d 873d 621b f9bd
00000160: 1617 da3d 4c37 c6bd 784f 293e 5793 003e
00000170: f58a e83d 644a 2c3c 9c3c 65bd 4ad8 043e
00000180: 5592 393d c370 da3d 70e2 363e f14c ad3d
00000190: c113 8bbd aa22 1e3e 2e34 323e 3d59 293b
000001a0: 6267 953d 8090 2b3e e074 883d 5f3a 4c3d
000001b0: 69b0 eeba 85d3 003e 6727 4c3e 8f5b 953c
000001c0: 3ab5 803e 518e 2bbd b85d 3f3e 77d0 523e
000001d0: 4c04 a33d 1d4a 703e 0269 873d eba5 323e
000001e0: 49c7 613e 665b e5bb ef98 4b3e 742d fc3d
000001f0: 5439 4fbd 3681 553e e90d d9b7 4c52 b33d
00000200: 21ef c93d 366d 56bd aea6 e1bc 6f9b 223b
00000210: 6e8a 48bd d24f e83d d4a6 b93d 7cf5 303e
00000220: 18b1 91bd 5983 22be 137c 0dbd 9097 f63c
00000230: e32f 44bd 0349 04be e8c8 c23d a990 b1be
00000240: eb39 02be a15f 21bc b0ae 2fbe d345 dbbc
00000250: a5d0 073d 3db3 73bc 454f cdbd 414d 43bd
00000260: 8b3c f73d 31b3 2c3e 4b24 9ebd 6098 7fbd
00000270: d83a cdbd 393c 5a3a dbfe c6bc e007 aebd
00000280: 8397 b23d 34b3 503e 59f2 f7bd 40a1 1e3e
00000290: 934b 563d 3b8f babd 3cb0 8bbd d905 62bd
000002a0: e9b4 263d e1e1 c8bd 2b79 38bd af8d b8bd
000002b0: a135 b5bc 2292 f5bd d6be c83d 1d7d 123e
000002c0: 0d28 efbd d725 a9bd 0072 dfbd a6fb d03c
000002d0: b6ca 04bd e330 c43c 0abe 5e3c ab00 353e
000002e0: 1960 85bd 79f1 9c3c 9e28 e83d af76 453c
000002f0: bfe5 ca3b 88e9 573d 9b27 053e cf56 b03d
00000300: 8552 173e 3915 043d c750 bb3d 31b6 26bc
00000310: ba24 9c3d 3c75 8c3d 76ab 88bc b832 76bd
00000320: 3cf2 643d 6366 8fbd c68f 103e d415 d43b
00000330: 57e4 213d c088 f83c bd9a 0d3c 8a8c d33d
00000340: 2f0b 92bd 989d 0cbd b767 6a3e f776 97bd
00000350: 847d f9bd e82d 513b 1392 4b3d 92df 3b3e
00000360: 8d22 f53d 28f7 623e f1d1 0d3e a091 123e
00000370: c190 583d 6a00 cc3a 9cb8 203d a9f3 a1bd
00000380: ea5b d33d d7cc e13d 3f0a 17be e8e1 443e
00000390: a074 f33d 987b 15bd 81c0 f7bb 0fc9 47bd
000003a0: e1a5 cb3c 9457 f9bd 09cf 0cbe 63dc 59bd
000003b0: 1bff 4abd e722 25be 6c06 f1bd e43f 1abe
000003c0: 576a 823d faf2 5abd a62d 7dbe 16b0 803d
000003d0: a598 44bb bf54 34be 31d7 9e3b 9a56 03be
000003e0: 2779 93bd d095 ebbd 1a4b 92bd a92b eebd
000003f0: 9c3c 2d3e ad8c 71bc 6fd2 143d 7ca1 35bd
0.064947195 0.17123738 0.062401824 0.081673525 -0.07467338 0.066319376 -0.048491005 0.07151271
0.10617525 -0.1681628 -0.057232875 0.12428781 0.11917121 -0.098596446 -0.06978217 0.09721393
-0.12965079 -0.07954978 0.085708104 0.031986438 0.005765323 -0.047393568 0.12509193 -0.036481455
0.11620407 -0.09055617 0.023344286 0.036211535 0.08308224 -0.114600815 -0.0051663816 -0.15290596
-0.06333832 0.14101577 0.031600002 -0.15047747 -0.14560239 0.055458814 -0.01776456 0.049111217
-0.013144585 -0.22669804 0.050806925 0.044882677 0.017518241 -0.06821719 0.13863528 -0.056425203
-0.0546918 0.18763638 0.18892351 -0.06378826 0.039904267 -0.055547044 0.031209482 -0.18346879
-0.17317934 -0.0949412 0.095064424 0.053617362 0.111119114 -0.09186826 0.19660576 -0.032871816
0.0630563 -0.11245297 0.15841508 -0.09063727 0.00751814 -0.20330508 0.13769478 0.053191286
0.12552358 0.15448996 -0.1460081 -0.13544732 0.12195694 0.07027696 -0.04853242 0.22972178
0.15298204 -0.08559299 -0.09671806 -0.10628596 -0.11423489 0.11674225 0.06612637 -0.12163426
0.106489345 -0.09678516 0.16534221 0.12556206 0.11354629 0.010515783 -0.055966005 0.12973133
0.04530557 0.10666039 0.17859817 0.08461941 -0.06790877 0.15442911 0.17402717 0.0025840544
0.07295109 0.16754341 0.06662917 0.049860355 -0.0018210533 0.12580688 0.19936906 0.018232135
0.25138265 -0.04188377 0.18688095 0.20587336 0.07959804 0.23465772 0.066118255 0.17446105
0.22048678 -0.006999421 0.19882558 0.12313357 -0.05059178 0.20850071 -2.5874893e-05 0.08755931
0.09860063 -0.052350245 -0.0275453 0.0024811884 -0.04896014 0.113433495 0.09065023 0.17281145
-0.07113856 -0.15870418 -0.034542155 0.030101568 -0.04789723 -0.12918477 0.09510976 -0.3468068
-0.12717406 -0.00984946 -0.17156482 -0.026766693 0.033157963 -0.014874277 -0.10024885 -0.047681097
0.120720945 0.16865231 -0.07721766 -0.062401175 -0.10020989 0.0008325014 -0.024291446 -0.08497596
0.08720305 0.2038086 -0.12106771 0.154912 0.052318167 -0.0910935 -0.068207234 -0.055181358
0.040699873 -0.09808708 -0.04503743 -0.09011399 -0.022120299 -0.11990763 0.09802024 0.1430554
-0.11677561 -0.082591705 -0.10910416 0.02551062 -0.032419883 0.023949092 0.0135951135 0.17676036
-0.0651247 0.019158112 0.11335872 0.012052222 0.0061919386 0.052712947 0.1300339 0.086103074
0.14777572 0.032246802 0.091462664 -0.010175274 0.076241925 0.06858298 -0.016683321 -0.060106963
0.055895075 -0.070019506 0.14117345 0.0064723287 0.039524402 0.030338645 0.0086428495 0.1032954
-0.07131039 -0.03432998 0.22891127 -0.073957376 -0.12182143 0.0031918231 0.049699854 0.18347004
0.11969481 0.22164595 0.13849618 0.14313364 0.052872423 0.0015564088 0.039238557 -0.079078026
0.103202656 0.11025398 -0.14750002 0.19226801 0.11887479 -0.03649482 -0.00756079 -0.04877573
0.02485937 -0.12174907 -0.13750853 -0.053188693 -0.049559694 -0.16126595 -0.11768803 -0.15063435
0.06367939 -0.053454377 -0.24724445 0.06283586 -0.002999821 -0.17610453 0.00484743 -0.12826005
-0.07200842 -0.11503184 -0.07143231 -0.11629421 0.16917652 -0.014743012 0.036333498 -0.044343457
