project/paper_notebooks/saved_variables/paper_notebooks/8/7-20epoch_500loop/looping-iteration-174/best_policy_agent1.pth (torch, 320501 bytes, 16 tensors)

model.model.0.weight f4 [128, 42]
-0.2813287 -0.18725942 0.20597777 -0.1682688 0.33263266 -0.006174248 -0.32984686 -0.13839912
-0.036253914 -0.04496639 0.35123253 0.07666218 0.14661342 -0.22822383 0.06306657 -0.0642044
0.14167514 -0.16864544 -0.08620701 0.3233901 0.114751674 -0.29893348 -0.091255695 -0.15367174
-0.11534331 0.09519801 -0.3498635 -0.23205009 -0.20678149 -0.06383821 0.018342767 -0.09099344
-0.06220096 -0.23464464 -0.2636301 -0.050420936 0.21442464 0.017920457 -0.011278851 -0.12851262
-0.10172069 -0.10767402 -0.33159438 0.03817872 -0.17515185 -0.33157098 -0.11275897 0.5504431
-0.23464517 -0.24159183 0.10977009 0.10702223 -0.17563313 -0.17639601 -0.111961834 0.043363966
0.103802554 0.42229345 0.28873354 -0.0019163173 -0.29102415 -0.0050014616 0.21028672 0.4399818
-0.34043604 -0.045041006 0.10102905 -0.12548932 -0.13028918 -0.1605425 0.0673103 0.019958092
0.16654158 -0.09275172 -0.072365776 -0.2852915 -0.36374167 -0.1409931 -0.07070806 -0.16195337
0.030386267 0.08054439 -0.24510741 -0.3288453 -0.16830094 -0.22983733 0.26571837 -0.26735577
-0.12384797 -0.0861396 0.27194577 -0.02087573 0.048052203 -0.31901827 0.10159155 -0.10021205
-0.2076835 0.19993703 -0.30768102 0.116270095 -0.24808003 -0.025493301 -0.20136155 0.11586074
0.26470768 -0.03222718 0.19808334 0.24055754 -0.16626951 -0.039445605 -0.3501598 -0.57950056
0.07720497 -0.13348562 0.36844423 0.0544854 -0.021592762 -0.4568818 -0.38289076 0.11529283
0.30735976 0.22070965 0.20025319 0.06690131 -0.09910578 -0.2268881 0.06845485 0.23543663
0.05858991 -0.1859533 -0.11537205 0.06268557 -0.11386656 0.03955638 0.48992348 -0.1981472
-0.47218165 -0.23023939 0.0048057926 -0.2648379 0.08200117 0.6535558 0.0590519 -0.5010422
-0.2547767 0.03563729 -0.38238567 0.54808724 -0.48924413 0.1101312 0.13065548 0.11705818
-0.21174258 0.114097275 0.17929788 -0.24072926 0.1597084 -0.06127633 0.11378015 -0.27133232
0.0055766073 0.07011494 -0.27237538 0.052045144 0.17317535 -0.13584028 -0.28047344 -0.114918746
0.05318664 0.10570752 -0.07761121 -0.2956277 -0.059765425 -0.08679349 0.08627771 0.09872299
-0.14819537 -0.002603535 -0.24706702 0.26883286 -0.3959317 0.1287855 0.65874565 -0.03362278
-0.26644585 -0.06592607 0.37974966 -0.41629112 0.4124058 -0.88019806 -0.19337755 -0.16557626
0.111120634 -0.11527074 0.0047488916 -0.22713688 -0.40522027 -0.19477387 -0.23722267 -0.12526053
-0.20527595 -0.061143685 0.07164051 -0.37916073 -0.15413661 0.1337411 -0.25492108 0.11712641
0.09821269 0.011250645 0.21035226 -0.3863663 0.52881265 0.41787222 -0.24337065 0.106966555
0.019773431 0.028167466 0.07646669 0.046241373 -0.09613443 -0.055689123 -0.18352957 0.08708113
0.07294993 -0.5954428 0.4237862 -0.06762606 0.0074031884 0.09440558 0.4527982 -0.18775383
-0.1523445 -0.22113317 -0.3661929 -0.12212763 0.20895347 -0.63561505 -0.05208267 -0.13871145
-0.20581579 -0.010711058 -0.065643385 0.093026735 -0.44434428 -0.23291032 -0.1269635 0.0579972
-0.3051751 0.08609622 -0.03697072 -0.23897149 -0.15259199 -0.22661275 -0.05808373 0.17109045
00000000: 510a 90be efc0 3fbe d6eb 523e a84e 2cbe
00000010: d44e aa3e 5951 cabb b0e1 a8be 80b8 0dbe
00000020: fc7e 14bd ad2e 38bd c0d4 b33e 1001 9d3d
00000030: d421 163e 82b3 69be 0c29 813d 997d 83bd
00000040: 4a13 113e 64b1 2cbe 4d8d b0bd 6393 a53e
00000050: ed02 eb3d cf0d 99be 44e4 babd 205c 1dbe
00000060: 1d39 ecbd 2df7 c23d 4f21 b3be 8a9e 6dbe
00000070: 87be 53be 9cbd 82bd 9243 963c c55a babd
00000080: 6fc6 7ebd af46 70be 86fa 86be 2f86 4ebd
00000090: 2292 5b3e eccd 923c eeca 38bc d098 03be
000000a0: f052 d0bd 3284 dcbd bdc6 a9be 4a61 1c3d
000000b0: 025b 33be acc3 a9be 2dee e6bd d7e9 0c3f
000000c0: d346 70be d963 77be 24cf e03d 792e db3d
000000d0: 2cd9 33be 28a1 34be 3f4c e5bd 6a9e 313d
000000e0: 6f96 d43d d936 d83e e2d4 933e f02c fbba
000000f0: 1e01 95be 4de3 a3bb 6755 573e 4b45 e13e
00000100: a24d aebe eb7c 38bd 52e8 ce3d 4680 00be
00000110: 876a 05be 4165 24be fcd9 893d 277f a33c
00000120: e089 2a3e 9df4 bdbd 8234 94bd ba11 92be
00000130: 593c babe 7f60 10be 63cf 90bd 1bd7 25be
00000140: 9fec f83c 75f4 a43d 70fd 7abe 695e a8be
00000150: 1557 2cbe 7a5a 6bbe 3d0c 883e dbe2 88be
00000160: 01a4 fdbd f569 b0bd 7a3c 8b3e 9403 abbc
00000170: 63d2 443d 5d56 a3be 3b0f d03d fa3b cdbd
00000180: fcaa 54be 4bbc 4c3e 5e88 9dbe 041f ee3d
00000190: b108 7ebe 54d7 d0bc b931 4ebe 6548 ed3d
000001a0: c487 873e a600 04bd 5cd6 4a3e b754 763e
000001b0: 8e42 2abe b791 21bd 2548 b3be 265a 14bf
000001c0: a41d 9e3d 74b0 08be b9a4 bc3e 152c 5f3d
000001d0: 4ee3 b0bc 69ec e9be 420a c4be a61e ec3d
000001e0: 425e 9d3e b601 623e 2c0f 4d3e 8e03 893d
000001f0: f9f7 cabd 5b55 68be 0e32 8c3d 4d16 713e
00000200: f9fb 6f3d 8b6a 3ebe 2e48 ecbd 4b61 803d
00000210: df32 e9bd df05 223d 40d7 fa3e 19e7 4abe
00000220: cbc1 f1be e0c3 6bbe e979 9d3b d598 87be
00000230: 3bf0 a73d 6f4f 273f 68e0 713d 4d44 00bf
00000240: 1772 82be 68f8 113d 0ec8 c3be 724f 0c3f
00000250: 357e fabe 778c e13d 8dca 053e 33bc ef3d
00000260: 0cd3 58be d5ab e93d dd99 373e bb81 76be
00000270: 998a 233e e4fc 7abd 9105 e93d 12ec 8abe
00000280: f9bb b63b 6c98 8f3d c974 8bbe 4a2d 553d
00000290: e154 313e b719 0bbe 379a 8fbe 855a ebbd
000002a0: 3cda 593d 2f7d d83d a0f2 9ebd 845c 97be
000002b0: 97cc 74bd c9c0 b1bd 5eb2 b03d 472f ca3d
000002c0: 87c0 17be 12a0 2abb 23ff 7cbe 76a4 893e
000002d0: 8fb7 cabe 59e0 033e 8ea3 283f 0ab8 09bd
000002e0: 976b 88be 3f04 87bd 8c6e c23e 1c24 d5be
000002f0: da26 d33e a954 61bf c404 46be d38c 29be
00000300: 3793 e33d 1113 ecbd 979c 9b3b 9296 68be
00000310: 0879 cfbe cd72 47be 80ea 72be 4c44 00be
00000320: dc33 52be cd71 7abd 42b8 923d 5b21 c2be
00000330: fdd5 1dbe 6df3 083e 0485 82be f9df ef3d
00000340: bc23 c93d a054 383c 9566 573e ced1 c5be
00000350: 4460 073f 59f3 d53e 2836 79be 4811 db3d
00000360: e4fb a13c 75bf e63c 919a 9c3d 9867 3d3d
00000370: 21e2 c4bd 471a 64bd 2def 3bbe 9757 b23d
00000380: c666 953d f06e 18bf 81fa d83e 887f 8abd
00000390: 7296 f23b b657 c13d 2ad5 e73e 8a42 40be
000003a0: 3200 1cbe bc70 62be a37d bbbe 0d1e fabd
000003b0: e6f7 553e abb7 22bf a354 55bd 600a 0ebe
000003c0: 60c1 52be 6f7d 2fbc 0a70 86bd cd84 be3d
000003d0: 1881 e3be 0b80 6ebe b802 02be 798e 6d3d
000003e0: e93f 9cbe 3753 b03d 9c6e 17bd f1b4 74be
000003f0: 1341 1cbe 2c0d 68be 35e9 6dbd 5632 2f3e

model.model.0.bias f4 [128]
-0.24226466 -0.028985284 -0.15355426 0.07250779 0.039982647 -0.06734831 -0.018210452 -0.37130168
0.59324926 -0.01961607 -0.18769152 -0.19245441 0.0021438869 0.1072492 -0.054280706 -0.1337351
-0.18644048 -0.050915565 -0.11037589 -0.35905328 -0.17169258 -0.04182869 0.3403316 -0.33564028
0.043256342 -0.49830478 -0.030102102 -0.49616423 0.38259622 0.07753117 -0.14983763 -0.096406564
0.069990605 -0.2359772 0.34792432 -0.10970218 -0.1785295 -0.09052915 -0.0004894937 0.40164787
-0.050338235 -0.08417271 0.25597763 -0.020019371 -0.29327023 0.2971083 0.2011167 -0.024642704
0.18039122 -0.3423609 -0.30023652 -0.33209473 -0.07537055 -0.29571128 -0.33014667 0.019932609
-0.2178568 0.17091501 -0.031123105 0.06604767 0.35065168 0.23782988 -0.13612786 -0.195732
-0.28123906 -0.091518305 -0.26503485 -0.27610543 -0.09997083 0.023898697 0.3183679 0.123959735
0.034642413 -0.14845574 -0.16530573 -0.14376168 -0.037645537 -0.10389662 0.27333233 0.34561035
-0.06303542 0.31216022 -0.050445627 0.28788608 0.28643048 -0.011543551 -0.16610473 -0.3255719
-0.103666805 0.002783261 0.30213428 0.50724095 0.3942064 -0.16538723 -0.31506494 0.20853141
-0.096474536 0.14993119 -0.12038626 -0.4302378 -0.022459248 0.20884536 -0.16480345 -0.091692515
-0.13201268 -0.06404261 -0.2097031 -0.2091782 -0.04977779 0.050786823 -0.054146133 -0.20041303
0.16742566 -0.33456504 -0.18084136 0.13071835 -0.42153516 -0.42375857 0.37090838 -0.050860565
-0.11374014 -0.0054271366 -0.06304201 -0.05240141 -0.15984583 0.21457158 -0.5806547 -0.0006220869
00000000: 3a14 78be 8c72 edbc 543d 1dbe f77e 943d
00000010: d8c4 233d e9ed 89bd 162e 95bc 411b bebe
00000020: 2fdf 173f e1b1 a0bc 3532 40be c512 45be
00000030: 7480 0c3b 78a5 db3d 7255 5ebd dbf1 08be
00000040: 41ea 3ebe d78c 50bd c10c e2bd d5d5 b7be
00000050: 2ed0 2fbe 8f54 2bbd f23f ae3e 0bd9 abbe
00000060: 902d 313d ce21 ffbe af98 f6bc 3d09 febe
00000070: a7e3 c33e a9c8 9e3d 096f 19be ce70 c5bd
00000080: 3c57 8f3d 02a4 71be 2323 b23e 89ab e0bd
00000090: 70d0 36be 5967 b9bd 5e51 00ba caa4 cd3e
000000a0: 772f 4ebd be62 acbd 800f 833e aaff a3bc
000000b0: 8427 96be 941e 983e 89f1 4d3e 7fdf c9bc
000000c0: 7ab8 383e ee49 afbe 9ab8 99be 5208 aabe
000000d0: e05b 9abd 7867 97be fc08 a9be b649 a33c
000000e0: da15 5fbe 5804 2f3e e2f5 febc 0044 873d
000000f0: 9e88 b33e ad89 733e 1a65 0bbe f86d 48be
00000100: 91fe 8fbe f36d bbbd a6b2 87be b15d 8dbe
00000110: 82bd ccbd 33c7 c33c 1e01 a33e 9ade fd3d
00000120: 34e5 0d3d c804 18be e845 29be 4336 13be
00000130: 3532 1abd c0c7 d4bd 37f2 8b3e d7f3 b03e
00000140: b718 81bd 77d3 9f3e 13a0 4ebd ce65 933e
00000150: 04a7 923e 2a21 3dbc 5c17 2abe 5cb1 a6be
00000160: 434f d4bd 5f67 363b 58b1 9a3e 8bda 013f
00000170: 6cd5 c93e 455b 29be 3150 a1be 4289 553e
00000180: 7194 c5bd 9087 193e 128d f6bd 2148 dcbe
00000190: 75fc b7bc 8fdb 553e 3cc2 28be 49c9 bbbd
000001a0: 552e 07be c628 83bd 69bc 56be cf32 56be
000001b0: cce3 4bbd d805 503d 56c8 5dbd 1339 4dbe
000001c0: a271 2b3e 1c4c abbe 7a2e 39be 08db 053e
000001d0: 75d3 d7be e2f6 d8be b4e7 bd3e 2b53 50bd
000001e0: 97f0 e8bd 1fd6 b1bb 2b1c 81bd dca2 56bd
000001f0: a0ae 23be a7b8 5b3e c9a5 14bf 8c13 23ba

model.model.2.weight f4 [128, 128]
0.19847791 -0.06932385 -0.1907425 -0.17944774 -0.2877932 0.27472144 -0.13859808 0.3225744
0.16050337 0.08888955 -0.23957147 -0.092689246 0.31273124 0.0199975 -0.16486615 0.39975002
0.25598958 -0.5475076 -0.15220128 0.10129809 0.10679828 0.023749096 0.11136876 -0.041917924
0.055587728 0.12023088 0.08712396 -0.11055352 -0.036153536 -0.034305632 -0.30035603 -0.007595982
-0.43814376 0.12812956 -0.07935641 -0.20533316 0.22444116 -0.1298325 -0.23778333 0.02913409
-0.18545075 0.06720054 0.10131415 0.06539491 -0.0043882397 -0.105308056 -0.24547383 0.049666364
-0.041257612 0.038389232 -0.031750716 -0.17234416 -0.49903312 0.1396222 -0.17392771 0.14832343
0.20687914 -0.45571294 0.254773 -0.287031 0.5098243 -0.08888501 -0.019593183 0.12288527
0.0106657725 -0.32682678 0.07136949 0.02024461 -0.11897673 -0.08113012 -0.22840604 -0.17891344
-0.26825923 -0.08970648 -0.030949926 -0.07569682 -0.31898457 -0.30237603 -0.07433204 0.11693536
0.011494923 -0.09978616 0.048725367 -0.34441325 0.011069025 0.03552024 -0.029662393 0.020734286
-0.21103835 -0.28208333 -0.2739612 0.2437894 -0.1455145 -0.028183509 -0.14557056 0.10285917
-0.08630811 0.2557749 0.0074783433 0.11622038 0.1983626 -0.01007849 -0.21339928 -0.5015543
0.14030574 0.30162486 -0.037339315 -0.19925463 -0.24762094 0.23869191 -0.44938934 -0.2088802
0.011465189 -0.24729358 0.28019616 0.35481432 0.020410998 -0.11869302 0.17857839 0.42342967
0.14494565 -0.040423565 0.07901966 0.14404184 -0.029079562 -0.30226853 0.20146778 -0.32554477
-0.04739553 0.0474632 0.08603481 -0.10741351 -0.12616315 0.018324954 -0.39784262 -0.3087166
0.16005662 -0.0053061885 -0.38671297 0.026147906 0.020343818 -0.123690225 -0.33048275 0.21817002
0.026261816 -0.21353629 -0.083868586 0.063720174 -0.07595098 0.03979743 0.10378349 0.062511526
0.24486259 0.101394475 0.016805582 -0.053558785 -0.19547313 -0.20672546 -0.24722187 0.10173739
-0.35192314 0.039935187 -0.29821795 -0.006163891 0.13628596 -0.05319705 -0.051662836 -0.02477848
-0.2605924 -0.040029753 0.037245315 0.02889939 0.029126097 -0.14397797 -0.05234291 0.21212168
0.09975792 0.11536935 0.05251034 0.10708162 -0.02613428 -0.115585774 -0.07961331 0.13839601
0.16819893 -0.546424 -0.10545111 -0.45950723 0.14813675 -0.39947212 0.12895115 -0.01862218
-0.02002118 -0.33556372 -0.19413415 0.35536483 -0.0027727403 -0.2816265 -0.2725716 -0.22770494
-0.04892931 -0.014156869 -0.10258556 0.024939315 -0.20335664 -0.20448461 -0.18702418 0.22374542
-0.039047267 -0.3229777 -0.14413668 -0.4840391 0.018427791 -0.28855142 0.12799561 -0.028746456
0.110485926 -0.60401076 -0.24633132 0.11267419 -0.3130254 -0.013624141 -0.26915482 0.012080163
-0.06512106 -0.070892826 0.06143229 0.04269801 -0.028149812 -0.12046436 -0.117493086 -0.23734163
-0.014545826 0.025918012 -0.005932588 -0.12755361 -0.12946977 0.08609725 -0.268245 -0.5283249
-0.15691333 -0.35932806 0.4167792 0.13483092 0.04805641 -0.13716108 0.10738261 -0.12195635
0.23284054 0.14246 0.0103750555 0.040836535 -0.14041007 -0.35658565 -0.051210318 -0.1917031
00000000: cb3d 4b3e aaf9 8dbd 0052 43be 26c1 37be
00000010: a159 93be 4aa8 8c3e a8ec 0dbe 7928 a53e
00000020: ff5a 243e b90b b63d 3952 75be dcd3 bdbd
00000030: 4f1e a03e ccd1 a33c acd2 28be 09ac cc3e
00000040: 1111 833e 7529 0cbf a7da 1bbe 5f75 cf3d
00000050: 0eb9 da3d 778d c23c 4e15 e43d 21b2 2bbd
00000060: f5af 633d 9c3b f63d 0c6e b23d e269 e2bd
00000070: bb15 14bd 1084 0cbd 44c8 99be b7e7 f8bb
00000080: 6154 e0be 6534 033e 9d85 a2bd db42 52be
00000090: e7d3 653e d0f2 04be 797d 73be 9daa ee3c
000000a0: cde6 3dbe 70a0 893d cb7d cf3d c4ed 853d
000000b0: 39cb 8fbb c0ab d7bd 7e5d 7bbe f56e 4b3d
000000c0: befd 28bd 073e 1d3d 0a0d 02bd fd7a 30be
000000d0: 4581 ffbe 1ff9 0e3e 1b1a 32be 19e2 173e
000000e0: 20d8 533e 3553 e9be 9b71 823e baf5 92be
000000f0: d883 023f 5809 b6bd e281 a0bc 46ab fb3d
00000100: 7ebf 2e3c d755 a7be 2b2a 923d 06d8 a53c
00000110: 12aa f3bd 8c27 a6bd 46e3 69be 1635 37be
00000120: 4659 89be 08b8 b7bd b38a fdbc ef06 9bbd
00000130: f251 a3be 08d1 9abe 663b 98bd ce7b ef3d
00000140: 3455 3c3c b05c ccbd 4094 473d ef56 b0be
00000150: db5a 353c ac7d 113d 8cfe f2bc f3da a93c
00000160: 701a 58be 3a6d 90be a444 8cbe eea3 793e
00000170: c101 15be 1ae1 e6bc 7310 15be d4a7 d23d
00000180: 4ec2 b0bd edf4 823e e40c f53b f304 ee3d
00000190: 911f 4b3e 4020 25bc 5785 5abe dd65 00bf
000001a0: 4fac 0f3e 936e 9a3e 1cf1 18bd 6809 4cbe
000001b0: 5890 7dbe a76b 743e 5c16 e6be b1e4 55be
000001c0: 7dd8 3b3c 873a 7dbe df75 8f3e 39aa b53e
000001d0: f734 a73c 5315 f3bd 41dd 363e c6cb d83e
000001e0: a26c 143e 2e93 25bd 0fd5 a13d b47f 133e
000001f0: 4338 eebc f1c2 9abe 924d 4e3e cead a6be
00000200: d121 42bd c668 423d 0533 b03d 9dfb dbbd
00000210: ea30 01be 371e 963c 07b2 cbbe 1a10 9ebe
00000220: e2e5 233e 89df adbb 3eff c5be 2234 d63c
00000230: 14a8 a63c 4d51 fdbd 0935 a9be f667 5f3e
00000240: 0523 d73c 42a9 5abe 4bc3 abbd b97f 823d
00000250: 308c 9bbd a102 233d 708c d43d 0b06 803d
00000260: 42bd 7a3e e8a7 cf3d dcab 893c 7560 5bbd
00000270: 1c2a 48be d7af 53be bb27 7dbe b15b d03d
00000280: 452f b4be 1493 233d 06b0 98be 77fa c9bb
00000290: 8c8e 0b3e 26e5 59bd 699c 53bd 3dfc cabc
000002a0: 5e6c 85be 3df6 23bd 8b8e 183d 6abe ec3c
000002b0: da99 ee3c f66e 13be 8565 56bd 6d36 593e
000002c0: e14d cc3d c446 ec3d 1515 573d 9c4d db3d
000002d0: 8f17 d6bc 3cb8 ecbd 4e0c a3bd afb7 0d3e
000002e0: 573c 2c3e 71e2 0bbf c0f6 d7bd 8844 ebbe
000002f0: 29b1 173e 9c87 ccbe c50b 043e 8b8d 98bc
00000300: 7503 a4bc 02cf abbe 1acb 46be 61f2 b53e
00000310: ddb6 35bb 5931 90be 818e 8bbe 7c2b 69be
00000320: 1a6a 48bd 36f2 67bc 6118 d2bd 894d cc3c
00000330: b93c 50be 6a64 51be 4483 3fbe 851d 653e
00000340: 07f0 1fbd 555d a5be 9198 13be f9d3 f7be
00000350: e1f5 963c 03bd 93be 4811 033e b07d ebbc
00000360: 7246 e23d 73a0 1abf 473e 7cbe bac1 e63d
00000370: dd44 a0be ca37 5fbc a9ce 89be e0eb 453c
00000380: 315e 85bd 4230 91bd 6da0 7b3d 1ce4 2e3d
00000390: 6f9a e6bc 05b6 f6bd 37a0 f0bd af09 73be
000003a0: 9e51 6ebc 0352 d43c 2866 c2bb 6a9d 02be
000003b0: b993 04be c153 b03d 6957 89be 4d40 07bf
000003c0: e3ad 20be d9f9 b7be 1564 d53e 1e11 0a3e
000003d0: ccd6 443d f473 0cbe 6aeb db3d 40c4 f9bd
000003e0: c06d 6e3e 09e1 113e 23fc 293c 3644 273d
000003f0: a8c7 0fbe 6592 b6be e9c1 51bd d14d 44be

model.model.2.bias f4 [128]
0.042746965 -0.044835307 0.059063938 -0.04312772 0.028688893 0.1814745 -0.10054798 0.0045746146
-0.13009542 0.08057609 -0.08521323 -0.10176809 0.085857704 -0.010079112 -0.16242905 -0.11425166
-0.01434041 -0.011901037 -0.06964184 0.027841022 -0.0018313854 -0.095946305 -0.08950056 -0.07016537
-0.024841212 -0.15936142 0.048710287 -0.051348317 0.288981 -0.16514261 -0.052238107 -0.042006876
-0.0061868546 -0.11959751 0.0427024 0.031110333 -0.16753995 0.0066080443 -0.057131246 0.05853868
0.02962352 -0.04939354 -0.11427053 0.18988715 0.09146643 -0.20803772 -0.046636824 0.11654524
0.052755408 -0.1221572 -0.06397271 -0.042977095 -0.025470657 0.046517394 -0.131345 -0.04624897
-0.19929649 -0.06450314 -0.06801145 -0.18965891 0.118944906 0.12540194 -0.0606443 -0.0892901
-0.24365178 0.033120576 -0.043297984 -0.11377374 0.09310701 -0.0496157 0.1497395 0.02151469
0.0026950154 -0.00034426144 -0.017960694 -0.13883379 -0.036237013 -0.045041602 -0.042906053 -0.055938214
-0.019962676 0.037773766 -0.109822735 0.21626064 -0.044256087 0.104062565 -0.020264635 -0.059346605
-0.096129134 -0.037237085 0.0038258652 -0.016037121 0.003346957 -0.054295123 -0.017174982 -0.050195858
-0.010688136 -0.11821577 -0.072497986 -0.029540798 -0.0043415744 0.03740185 -0.057632856 0.16715871
-0.18340085 0.00768058 0.32503676 -0.016043903 -0.08024999 -0.06309379 0.015984394 -0.11723537
-0.17392951 -0.061833743 -0.009177014 -0.18868652 0.040161844 0.07345302 -0.05368671 0.1864669
0.058096297 -0.04036431 -0.14709409 -0.083327554 0.02407848 0.15911932 0.21939889 -0.0809593
00000000: 7117 2f3d 3aa5 37bd 07ed 713d b1a6 30bd
00000010: f804 eb3c 74d4 393e 19ec cdbd a6e6 953b
00000020: bc37 05be 1405 a53d 4684 aebd ca6b d0bd
00000030: 2ad6 af3d dc22 25bc cd53 26be c6fc e9bd
00000040: 0af4 6abc 91fc 42bc 62a0 8ebd db12 e43c
00000050: 190b f0ba 7f7f c4bd 124c b7bd ddb2 8fbd
00000060: cc7f cbbc a42f 23be 7084 473d 9d52 52bd
00000070: 51f5 933e 251b 29be a0f7 55bd 670f 2cbd
00000080: 19bb cabb 8aef f4bd b6e8 2e3d 19db fe3c
00000090: 988f 2bbe 4b88 d83b 7402 6abd 41c6 6f3d
000000a0: 06ad f23c e150 4abd ab06 eabd c771 423e
000000b0: c052 bb3d d707 55be 4106 3fbd 45af ee3d
000000c0: 0e16 583d 8e2d fabd 2004 83bd c008 30bd
000000d0: d7a7 d0bc 0689 3e3d 4e7f 06be 8f6f 3dbd
000000e0: 6114 4cbe 391a 84bd 9649 8bbd f235 42be
000000f0: 6399 f33d 5e69 003e 2866 78bd badd b6bd
00000100: da7f 79be 71a9 073d 3a59 31bd 3502 e9bd
00000110: e3ae be3d d539 4bbd 5055 193e 933f b03c
00000120: db9e 303b fd7d b4b9 4e22 93bc 722a 0ebe
00000130: 436d 14bd 8b7d 38bd 42be 2fbd 781f 65bd
00000140: c488 a3bc aab8 1a3d beea e0bd 6e73 5d3e
00000150: df45 35bd c11e d53d 0502 a6bc 6d15 73bd
00000160: 5adf c4bd ea85 18bd 5ebb 7a3b 4860 83bc
00000170: 9f58 5b3b 9064 5ebd 8cb2 8cbc 2c9a 4dbd
00000180: 4b1d 2fbc 1c1b f2bd d379 94bd 8bff f1bc
00000190: c443 8ebb af32 193d 6e10 6cbd a72b 2b3e
000001a0: 6fcd 3bbe 60ad fb3b 386b a63e 816e 83bc
000001b0: 1b5a a4bd 5137 81bd b4f1 823c 1919 f0bd
000001c0: 941a 32be 6145 7dbd 305b 16bc 0a37 41be
000001d0: bf80 243d 896e 963d 98e6 5bbd 2ef1 3e3e
000001e0: 62f6 6d3d 0c55 25bd d59f 16be a3a7 aabd
000001f0: 3c40 c53c 2df0 223e 1aaa 603e fdcd a5bd

model.model.4.weight f4 [128, 128]
0.008946665 -0.012847401 -0.018483303 -0.07987934 -0.041921094 -0.07290747 0.01738863 0.056008466
-0.046334255 -0.019876549 -0.054080516 -0.04554277 0.020892622 0.05390552 0.03455393 0.0426793
0.034506492 -0.047383014 -0.05662567 -0.030334782 -0.049841147 0.051294617 0.043796167 -0.100023426
-0.061988395 -0.11443008 0.024527187 -0.030283181 -0.122895434 0.034386396 0.014846432 0.1106411
0.0041242805 0.064163156 -0.027456969 0.007773706 -0.012280574 -0.011809468 -0.015937239 0.017022448
-0.06491401 1.360476e-05 -0.107733786 -0.050728522 -0.026927203 -0.053364415 0.0705853 -0.12014308
0.0068519795 -0.088719875 -0.021706443 0.042517383 0.050646544 -0.042349182 -0.054569166 0.07282269
-0.013494788 -0.026947133 -0.10241718 -0.01775662 -0.084870845 0.02276 0.03465495 0.060111683
-0.06229387 -0.041720975 0.047913034 0.0036694123 -0.0031504966 0.024790408 -0.0780182 -0.00012121652
0.051131465 0.07957556 0.014441066 -0.0035292814 -0.10296073 -0.09329347 -0.009107061 -0.021237543
-0.009881918 0.06831453 0.061047222 -0.039258096 -0.12549022 0.05586704 0.057005014 0.06748721
0.024388894 0.04673197 -0.005473319 -0.07771531 -0.0023605225 -0.009840038 -0.004409877 -0.0052062282
-0.009189686 0.027965154 -0.0623164 -0.004330783 0.016816983 0.04900681 -0.10449466 -0.06274193
-0.098197386 -0.039316207 0.04205153 -0.08420815 -0.026065575 -0.11494988 0.08106847 -0.05183741
-0.059108377 -0.077187374 0.0046412973 -0.09858763 -0.08517256 -0.05259287 0.04919544 -0.08670313
-0.048054215 -0.01555907 -0.06724128 0.061891913 -0.0033577108 -0.028420905 0.021719541 0.03510906
-0.09034002 -0.024583887 0.122637086 -0.009257046 -0.14725535 0.017415244 -0.01035173 0.036006667
-0.04036961 -0.16973455 -0.018823534 0.07737627 0.085596256 0.03261971 -0.015217356 0.010039109
-0.1002947 -0.0038528964 0.2872215 -0.075699426 -0.14538942 -0.077447176 0.027886113 -0.08018438
-0.08394858 -0.23939002 -0.016389089 -0.14938286 -0.17756523 -0.056701608 -0.03591418 -0.041244265
-0.0072227214 -0.15938401 -0.058945958 0.05703421 -0.28472322 0.055586394 -0.0449709 0.0037368906
-0.0006284915 0.025713995 -0.15004666 -0.06455397 0.054101318 -0.012563211 0.034957618 -0.044435654
0.07281078 -0.035744637 0.07534794 0.0008242476 -0.040130932 0.07417876 0.017585017 -0.014750555
0.12587301 -0.064168975 0.026257738 -0.060289804 0.14383721 -0.0022666545 0.08744488 0.0707228
0.22067238 0.05792964 -0.12538172 0.045999102 -0.0826749 0.0980494 -0.085781336 -0.0033600815
-0.07858605 -0.06972554 -0.060750715 -0.056253828 0.020603279 -0.09898073 0.064979725 0.069945656
0.01948704 -0.06837034 -0.013043746 -0.06994199 -0.04543788 -0.0077561117 0.090729386 -0.056748297
-0.015929196 -0.07100497 -0.072825745 -0.09026592 0.0030392532 0.2833473 -0.032989 -0.041543953
-0.20269121 -0.103777915 -0.07854201 0.043200515 -0.08626227 0.017376848 0.0054200436 0.008548551
-0.036084414 0.0039219307 -0.20860648 0.041939266 -0.018097652 -0.111983895 0.009990735 0.07255243
0.07053851 -0.12279005 0.031311907 0.019362535 0.16014536 -0.099196106 -0.054923095 0.03832827
-0.07319464 0.043280654 -0.019856151 -0.1407167 -0.003755778 0.25596663 0.22528122 -0.09142762
00000000: 0895 123c e87d 52bc 4c6a 97bc c897 a3bd
00000010: 74b5 2bbd 8350 95bd 9a72 8e3c 2269 653d
00000020: fdc8 3dbd 25d4 a2bc 8883 5dbd 0e8b 3abd
00000030: 0127 ab3c 09cc 5c3d 6c88 0d3d 7dd0 2e3d
00000040: ae56 0d3d b114 42bd 52f0 67bd a680 f8bc
00000050: 3b26 4cbd 4e1a 523d 9c63 333d 15d9 ccbd
00000060: 8be7 7dbd 515a eabd 3ded c83c 6f14 f8bc
00000070: 9ab0 fbbd c0d8 0c3d 733e 733c cd97 e23d
00000080: f924 873b f967 833d 70ed e0bc 93ba fe3b
00000090: 7634 49bc 807c 41bc d08e 82bc a972 8b3c
000000a0: a3f1 84bd 0040 6437 88a3 dcbd b6c8 4fbd
000000b0: 7096 dcbc a594 5abd 078f 903d 930d f6bd
000000c0: 9286 e03b c4b2 b5bd b6d1 b1bc b526 2e3d
000000d0: c072 4f3d 5676 2dbd eb83 5fbd 1024 953d
000000e0: 3e19 5dbc 3cc0 dcbc 19c0 d1bd 5576 91bc
000000f0: c4d0 adbd 2e73 ba3c 59f2 0d3d ab37 763d
00000100: db27 7fbd 9de3 2abd 7540 443d 867a 703b
00000110: 9078 4ebb 4115 cb3c 02c8 9fbd a035 feb8
00000120: 3a6f 513d 83f8 a23d 399a 6c3c 844b 67bb
00000130: 13dd d2bd a610 bfbd c835 15bc 5bfa adbc
00000140: c5e7 21bc 7de8 8b3d a70c 7a3d 19cd 20bd
00000150: 8280 00be d6d4 643d 177e 693d bc36 8a3d
00000160: 38cb c73c 066a 3f3d 8759 b3bb 3429 9fbd
00000170: ffb2 1abb 1c38 21bc bb80 90bb 0299 aabb
00000180: 5690 16bc 2e17 e53c 7b3f 7fbd 3ee9 8dbb
00000190: c5c3 893c 5dbb 483d 4c01 d6bd d77e 80bd
000001a0: b61b c9bd 080a 21bd 3a3e 2c3d 5375 acbd
000001b0: 7987 d5bc d86a ebbd 3a07 a63d 7753 54bd
000001c0: a01b 72bd 6a14 9ebd 0616 983b 50e8 c9bd
000001d0: f36e aebd 9f6b 57bd 2881 493d 6991 b1bd
000001e0: 7fd4 44bd 78eb 7ebc ccb5 89bd 6082 7d3d
000001f0: 0a0d 5cbb f5d2 e8bc 2eed b13c 85ce 0f3d
00000200: 3004 b9bd 2664 c9bc 2729 fb3d ddaa 17bc
00000210: 1bca 16be 6aaa 8e3c 4d9a 29bc ba7b 133d
00000220: 9b5a 25bd e5ce 2dbe d033 9abc 7377 9e3d
00000230: 174d af3d 3f9c 053d 3852 79bc 137b 243c
00000240: 4f67 cdbd e080 7cbb b20e 933e 4d08 9bbd
00000250: f7e0 14be a09c 9ebd 6b71 e43c b537 a4bd
00000260: 3ced abbd a822 75be 6942 86bc d2f7 18be
00000270: a9d3 35be f23f 68bd bf1a 13bd bfef 28bd
00000280: 94ac ecbb 9035 23be 5171 71bd b49c 693d
00000290: 3ec7 91be 8fae 633d 6833 38bd 9fe6 743b
000002a0: 5ac1 24ba 28a6 d23c d5a5 19be df34 84bd
000002b0: 5899 5d3d edd5 4dbc b82f 0f3d 2902 36bd
000002c0: d11d 953d f868 12bd 0550 9a3d 5212 583a
000002d0: 5560 24bd 09eb 973d 740e 903c 50ac 71bc
000002e0: dbe4 003e 066b 83bd 781a d73c 71f2 76bd
000002f0: 104a 133e 278c 14bb 4d16 b33d 1ed7 903d
00000300: f1f7 613e a147 6d3d 1164 00be 8e69 3c3d
00000310: 7551 a9bd 20ce c83d 20ae afbd d034 5cbb
00000320: b9f1 a0bd 44cc 8ebd bed5 78bd 6a6a 66bd
00000330: 35c8 a83c 69b6 cabd 1714 853d ab3f 8f3d
00000340: 49a3 9f3c c005 8cbd 70b5 55bc bf3d 8fbd
00000350: 121d 3abd fb26 febb 54d0 b93d e770 68bd
00000360: f27d 82bc 0e6b 91bd aa25 95bd 57dd b8bd
00000370: 352e 473b e612 913e 791f 07bd fe29 2abd
00000380: 498e 4fbe 8489 d4bd a2da a0bd 06f3 303d
00000390: 46aa b0bd e459 8e3c 9f9a b13b 390f 0c3c
000003a0: 40cd 13bd 8a83 803b f09c 55be 82c8 2b3d
000003b0: 8741 94bc d057 e5bd 2eb0 233c 5e96 943d
000003c0: 7f76 903d 5a79 fbbd ea40 003d 2e9e 9e3c
000003d0: 25fd 233e 5427 cbbd 0af7 60bd 1bfe 1c3d
000003e0: 12e7 95bd 0e47 313d 5ea9 a2bc 0a18 10be
000003f0: 8023 76bb 0f0e 833e 1fb0 663e 673e bbbd

model.model.4.bias f4 [128]
-0.09595658 0.20619212 0.36467257 0.058107518 0.2086929 -0.0026960373 0.23665188 0.5911539
0.31157446 0.20834695 0.17711903 -0.15096879 0.10376584 -0.16297886 0.5543044 0.042139396
0.14964917 0.08296268 0.46810642 0.25933295 -0.19250664 -0.116092734 -0.1815455 -0.11110841
0.18868324 0.29978225 0.21912844 0.31298664 0.23695676 0.05890164 0.48228672 0.17897928
0.14572473 0.5611683 0.3291841 0.004646511 -0.08056982 -0.04174593 -0.1256031 0.5632716
-0.018878717 0.22726797 0.11211186 0.20504086 0.24303257 0.4504252 0.13558042 0.25753015
-0.025884401 -0.15287293 0.1043855 -0.12774096 -0.09686105 0.13614233 0.05820458 -0.050408598
-0.15991333 -0.046728767 -0.12438324 0.04535819 0.08183194 -0.10139324 0.14188392 0.077537455
0.118916705 0.16922548 0.39551398 0.01725044 0.21245173 0.20653193 0.25892624 -0.09313327
0.3892612 0.1702897 -0.03982457 0.7137166 -0.12997076 0.034116525 0.22559297 0.008155825
0.38945258 0.2892535 0.18289377 0.05771769 0.34319645 -0.14864953 0.15581939 0.32222933
0.30464563 -0.12863187 0.4423711 0.55693054 0.05676478 -0.07613363 -0.008669842 -0.06099833
0.06402276 -0.15058677 0.26613408 0.13051677 -0.0055533373 0.10870473 0.3666768 0.12901118
-0.090740524 0.09856878 0.1166896 -0.054653265 0.34560066 0.34168798 0.4094424 -0.013717396
0.67790794 0.2896884 0.27368122 0.3287786 0.41887438 -0.07424157 0.23231688 0.30944842
0.0141197685 -0.18643674 -0.2306282 -0.050780524 0.10021176 0.2773021 -0.049566578 0.19651787
00000000: e284 c4bd 0724 533e 5db6 ba3e 2602 6e3d
00000010: 97b3 553e 00b0 30bb df54 723e dd55 173f
00000020: b086 9f3e e758 553e b15e 353e 9097 1abe
00000030: 2f83 d43d eee3 26be e5e6 0d3f 5c9a 2c3d
00000040: a23d 193e 56e8 a93d a5ab ef3e 4ac7 843e
00000050: 7620 45be 07c2 edbd 10e7 39be ce8c e3bd
00000060: 2e36 413e 0f7d 993e 3563 603e c93f a03e
00000070: cba4 723e d942 713d 49ee f63e 5846 373e
00000080: dd38 153e baa8 0f3f d18a a83e c241 983b
00000090: ca01 a5bd c8fd 2abd 199e 00be 9132 103f
000000a0: 8aa7 9abc efb8 683e e79a e53d 3bf6 513e
000000b0: 88dd 783e 229e e63e 98d5 0a3e feda 833e
000000c0: 860b d4bc b98a 1cbe 11c8 d53d 87ce 02be
000000d0: 165f c6bd e568 0b3e ed67 6e3d 3f79 4ebd
000000e0: 52c0 23be aa66 3fbd a4bc febd 82c9 393d
000000f0: 8197 a73d 42a7 cfbd 054a 113e f5cb 9e3d
00000100: 9a8a f33d 7249 2d3e cf80 ca3e cb50 8d3c
00000110: f28c 593e 1b7d 533e fb91 843e a8bc bebd
00000120: 3e4d c73e 6c60 2e3e 171f 23bd 22b6 363f
00000130: 0e17 05be c5bd 0b3d d801 673e 02a0 053c
00000140: 5466 c73e 0919 943e 8148 3b3e 6269 6c3d
00000150: 72b7 af3e 9537 18be 1e8f 1f3e 3efb a43e
00000160: 83fa 9b3e 13b8 03be 777e e23e 0093 0e3f
00000170: 3082 683d f3eb 9bbd f40b 0ebc 63d9 79bd
00000180: 5d1e 833d 6b33 1abe ba42 883e 30a6 053e
00000190: c5f8 b5bb 96a0 de3d 10bd bb3e 821b 043e
000001a0: 2bd6 b9bd 6ede c93d f5fa ee3d 1adc 5fbd
000001b0: 92f2 b03e baf1 ae3e 6fa2 d13e eebe 60bc
000001c0: 608b 2d3f 0a52 943e f21f 8c3e ab55 a83e
000001d0: b476 d63e f70b 98bd 7ae4 6d3e 0670 9e3e
000001e0: 9a56 673c 46e9 3ebe cd29 6cbe 3dff 4fbd
000001f0: d33b cd3d 8afa 8d3e 5306 4bbd fb3b 493e

model.model.6.weight f4 [7, 128]
-0.01453794 0.34685346 0.2710653 -0.1404479 0.22992726 0.09954158 0.26219746 0.30131835
0.16680896 0.06148493 0.11359776 4.0760086e-05 0.02762695 -0.010161847 0.42782548 0.082867645
0.13460387 0.002456874 0.26458845 -0.056534134 -0.27459425 -0.35981256 0.08208916 0.07212666
0.15672022 0.22560796 0.022845121 0.43122447 0.427678 0.21417564 -0.2546819 0.03652599
-0.0051583825 -0.18795033 -0.088195235 0.28811383 0.19724837 -0.064439155 -0.004478437 0.2728193
-0.06903415 0.12855028 0.18714336 -0.22573534 0.021482768 0.42209598 -0.04360891 0.21662839
0.06793248 0.009930129 -0.043804605 0.101641856 0.060090177 0.07081104 0.2067246 0.012723856
0.05609956 0.2541402 0.1444 -0.1253658 0.24103807 0.0014971133 0.09451134 -0.06148635
0.37475285 0.15047652 0.39103964 -0.2101663 0.45905122 0.074335404 -0.08788972 0.050545737
0.37757444 -0.18815967 -0.1241058 0.2834959 0.102394626 0.009748394 0.3461063 0.13579322
0.043970488 0.05431848 0.2090523 0.25855327 0.18160409 -0.18456677 0.2895742 0.23511136
-0.14413987 -0.2420495 0.17763352 -0.037438557 0.16461682 -0.043058798 0.114547044 0.027741056
0.31666097 0.06032197 0.03530295 0.18463019 0.100999534 -0.0050540497 0.06882508 -0.058441516
0.14309654 0.00735219 0.17762889 0.041908193 0.1698742 -0.3625437 0.67305255 0.24323726
0.33691293 0.1818755 0.27655938 0.22939683 0.18246141 0.28696793 -0.20040984 -0.06741811
0.05481246 -0.03696613 -0.005391143 0.09420013 0.26366684 0.23800786 0.1812443 0.17341839
0.13886234 0.35867107 0.30057436 0.31187224 -0.46158102 0.0659943 0.028468506 0.25226665
0.013409407 0.2328216 -0.036894735 0.07381257 0.09175584 -0.107675225 0.026580108 -0.0062399423
-0.025706194 0.03758784 0.36829168 -0.36451265 0.035849765 0.16681358 -0.01993916 -0.010993493
0.20334676 0.13304187 -0.21906087 0.31901556 0.44131467 0.19277996 -0.25465816 0.071951285
0.15970114 -0.13095574 0.3604283 -0.16518976 -0.025809359 -0.01336661 0.00016769479 0.23563081
-0.24423689 0.26984638 0.13688284 0.19398078 0.08120517 0.21131311 -0.1288253 -0.11225008
-0.11324311 0.045318566 -0.3396065 0.054344635 0.14690422 -0.09184703 0.059188716 0.1485599
0.015827587 0.04807454 0.07380278 0.087412186 -0.111356705 -0.027029036 0.00014380204 0.027869109
-0.04326331 0.24699603 0.35688436 -0.050264243 0.38667196 0.14037916 0.073121674 0.050983723
0.076668836 0.04193922 0.14850433 0.72028947 0.3178454 0.017844902 0.29852042 0.15837443
0.49555966 0.29854164 0.15046617 -0.19568662 0.39562365 -6.706406e-05 0.07390031 -0.33000022
0.021130744 -0.046505384 0.03387437 -0.32170987 0.28896397 -0.011708066 -0.2079306 0.27840757
0.035215054 -0.05608092 -0.058236804 0.16969915 -0.005666317 0.041505802 0.25051203 0.0833411
-0.018952413 0.24720131 0.41486037 0.086337835 0.46627995 -0.23502624 0.25858998 -0.15653545
0.2570957 0.338337 0.10281385 0.2900813 0.27530435 -0.012006972 -0.22053199 0.34757194
0.23100178 0.0545996 0.052675605 0.028267624 -0.0413846 -0.18341224 0.30458826 0.040171936
00000000: 8a30 6ebc c796 b13e 12c9 8a3e 93d1 0fbe
00000010: 0d72 6b3e 75dc cb3d bf3e 863e 6646 9a3e
00000020: f8cf 2a3e 9fd7 7b3d f1a5 e83d cff5 2a38
00000030: ea51 e23c e07d 26bc f10b db3e 83b6 a93d
00000040: 99d5 093e 8103 213b 2378 873e 5690 67bd
00000050: 9e97 8cbe 5a39 b8be 5d1e a83d 24b7 933d
00000060: 447b 203e c605 673e b125 bb3c 74c9 dc3e
00000070: 9cf8 da3e dc50 5b3e aa65 82be 479c 153d
00000080: a607 a9bb 0d76 40be b49f b4bd a883 933e
00000090: 7afb 493e adf8 83bd dabf 92bb f9ae 8b3e
000000a0: c761 8dbd afa2 033e 82a2 3f3e 2a27 67be
000000b0: a1fc af3c f71c d83e 429f 32bd d5d3 5d3e
000000c0: 2f20 8b3d fbb1 223c 756c 33bd 9b29 d03d
000000d0: 1e21 763d 6105 913d 9daf 533e b877 503c
000000e0: a7c8 653d aa1e 823e 98dd 133e e45f 00be
000000f0: afd2 763e c93a c43a 298f c13d 1cd9 7bbd
00000100: 9bdf bf3e 8416 1a3e 5936 c83e d635 57be
00000110: c308 eb3e 293d 983d 87ff b3bd 0c09 4f3d
00000120: 7051 c13e eeac 40be 2f2b febd 6026 913e
00000130: 46b4 d13d bab7 1f3c d834 b13e 610d 0b3e
00000140: 661a 343d 0e7d 5e3d ce11 563e 1861 843e
00000150: 6cf6 393e 12ff 3cbe 1243 943e 08c1 703e
00000160: 6799 13be d3db 77be 90e5 353e 2c59 19bd
00000170: 5091 283e 6c5e 30bd a497 ea3d 3641 e33c
00000180: 6321 a23e 2c14 773d d399 103d b20f 3d3e
00000190: d8d8 ce3d 719c a5bb 2af4 8c3d 5f60 6fbd
000001a0: e687 123e a4ea f03b 59e4 353e eda7 2b3d
000001b0: 81f3 2d3e 549f b9be 2c4d 2c3f 3013 793e
000001c0: da7f ac3e 923d 3a3e 3199 8d3e 01e7 6a3e
000001d0: 2ad7 3a3e 76ed 923e 3d38 4dbe 8212 8abd
000001e0: 0883 603d cc69 17bd 2fa8 b0bb ffeb c03d
000001f0: 57ff 863e 55b8 733e 1b98 393e 9794 313e
00000200: ee31 0e3e bca3 b73e e2e4 993e b8ad 9f3e
00000210: 5954 ecbe 0528 873d c936 e93c 1829 813e
00000220: 21b3 5b3c c968 6e3e ef1e 17bd 0b2b 973d
00000230: 7cea bb3d d484 dcbd 87be d93c 6e78 ccbb
00000240: cc95 d2bc b5f5 193d ba90 bc3e 67a1 babe
00000250: 34d7 123d 2ed1 2a3e 7357 a3bc 0d1e 34bc
00000260: 223a 503e 213c 083e 7e51 60be 0256 a33e
00000270: fff3 e13e 1c68 453e 8e62 82be 325b 933d
00000280: b288 233e 4319 06be 0f8a b83e 8127 29be
00000290: 266e d3bc a0ff 5abc 3ad7 2f39 3449 713e
000002a0: 3c19 7abe 4e29 8a3e 042b 0c3e e6a2 463e
000002b0: e54e a63d 7762 583e c8ea 03be 5fe3 e5bd
000002c0: 01ec e7bd f69f 393d e7e0 adbe 7b98 5e3d
000002d0: 0f6e 163e 4c1a bcbd de6f 723d 1620 183e
000002e0: dba8 813c cfe9 443d e925 973d 2905 b33d
000002f0: fc0e e4bd ff6b ddbc 91c9 1639 c24d e43c
00000300: de34 31bd 87ec 7c3e 8cb9 b63e e1e1 4dbd
00000310: def9 c53e 8ebf 0f3e d1c0 953d 4fd4 503d
00000320: 8d04 9d3d 76c8 2b3d 8511 183e e464 383f
00000330: a2bc a23e 792f 923c abd7 983e e82c 223e
00000340: ffb9 fd3e 73da 983e ce13 1a3e 1362 48be
00000350: 2f8f ca3e bea4 8cb8 0c59 973d caf5 a8be
00000360: 621a ad3c 6e7c 3ebd dabf 0a3d 28b7 a4be
00000370: 16f3 933e 30d3 3fbc c2eb 54be 708b 8e3e
00000380: a93d 103d 1bb5 65bd b789 6ebd 9dc5 2d3e
00000390: 83ac b9bb fd01 2a3d 1d43 803e bdae aa3d
000003a0: 1742 9bbc 5722 7d3e 9468 d43e e4d1 b03d
000003b0: 3fbc ee3e b8aa 70be e865 843e d44a 20be
000003c0: 0ca2 833e 823a ad3e 1190 d23d 8985 943e
000003d0: b1f4 8c3e e4b8 44bc 23d3 61be f3f4 b13e
000003e0: bb8b 6c3e d5a3 5f3d 60c2 573d 8191 e73c
000003f0: e682 29bd 6bd0 3bbe fef2 9b3e 548b 243d

model.model.6.bias f4 [7]
0.0063783457 0.3669886 0.011186934 -0.08259731 0.09014613 0.28064167 0.24184208
00000000: 7101 d13b eee5 bb3e 6749 373c c728 a9bd
00000010: 899e b83d 44b0 8f3e 73a5 773e

model_old.model.0.weight f4 [128, 42]
-0.2813287 -0.18725942 0.20597777 -0.1682688 0.33263266 -0.006174248 -0.32984686 -0.13839912
-0.036253914 -0.04496639 0.35123253 0.07666218 0.14661342 -0.22822383 0.06306657 -0.0642044
0.14167514 -0.16864544 -0.08620701 0.3233901 0.114751674 -0.29893348 -0.091255695 -0.15367174
-0.11534331 0.09519801 -0.3498635 -0.23205009 -0.20678149 -0.06383821 0.018342767 -0.09099344
-0.06220096 -0.23464464 -0.2636301 -0.050420936 0.21442464 0.017920457 -0.011278851 -0.12851262
-0.10172069 -0.10767402 -0.33159438 0.03817872 -0.17515185 -0.33157098 -0.11275897 0.5504431
-0.23464517 -0.24159183 0.10977009 0.10702223 -0.17563313 -0.17639601 -0.111961834 0.043363966
0.103802554 0.42229345 0.28873354 -0.0019163173 -0.29102415 -0.0050014616 0.21028672 0.4399818
-0.34043604 -0.045041006 0.10102905 -0.12548932 -0.13028918 -0.1605425 0.0673103 0.019958092
0.16654158 -0.09275172 -0.072365776 -0.2852915 -0.36374167 -0.1409931 -0.07070806 -0.16195337
0.030386267 0.08054439 -0.24510741 -0.3288453 -0.16830094 -0.22983733 0.26571837 -0.26735577
-0.12384797 -0.0861396 0.27194577 -0.02087573 0.048052203 -0.31901827 0.10159155 -0.10021205
-0.2076835 0.19993703 -0.30768102 0.116270095 -0.24808003 -0.025493301 -0.20136155 0.11586074
0.26470768 -0.03222718 0.19808334 0.24055754 -0.16626951 -0.039445605 -0.3501598 -0.57950056
0.07720497 -0.13348562 0.36844423 0.0544854 -0.021592762 -0.4568818 -0.38289076 0.11529283
0.30735976 0.22070965 0.20025319 0.06690131 -0.09910578 -0.2268881 0.06845485 0.23543663
0.05858991 -0.1859533 -0.11537205 0.06268557 -0.11386656 0.03955638 0.48992348 -0.1981472
-0.47218165 -0.23023939 0.0048057926 -0.2648379 0.08200117 0.6535558 0.0590519 -0.5010422
-0.2547767 0.03563729 -0.38238567 0.54808724 -0.48924413 0.1101312 0.13065548 0.11705818
-0.21174258 0.114097275 0.17929788 -0.24072926 0.1597084 -0.06127633 0.11378015 -0.27133232
0.0055766073 0.07011494 -0.27237538 0.052045144 0.17317535 -0.13584028 -0.28047344 -0.114918746
0.05318664 0.10570752 -0.07761121 -0.2956277 -0.059765425 -0.08679349 0.08627771 0.09872299
-0.14819537 -0.002603535 -0.24706702 0.26883286 -0.3959317 0.1287855 0.65874565 -0.03362278
-0.26644585 -0.06592607 0.37974966 -0.41629112 0.4124058 -0.88019806 -0.19337755 -0.16557626
0.111120634 -0.11527074 0.0047488916 -0.22713688 -0.40522027 -0.19477387 -0.23722267 -0.12526053
-0.20527595 -0.061143685 0.07164051 -0.37916073 -0.15413661 0.1337411 -0.25492108 0.11712641
0.09821269 0.011250645 0.21035226 -0.3863663 0.52881265 0.41787222 -0.24337065 0.106966555
0.019773431 0.028167466 0.07646669 0.046241373 -0.09613443 -0.055689123 -0.18352957 0.08708113
0.07294993 -0.5954428 0.4237862 -0.06762606 0.0074031884 0.09440558 0.4527982 -0.18775383
-0.1523445 -0.22113317 -0.3661929 -0.12212763 0.20895347 -0.63561505 -0.05208267 -0.13871145
-0.20581579 -0.010711058 -0.065643385 0.093026735 -0.44434428 -0.23291032 -0.1269635 0.0579972
-0.3051751 0.08609622 -0.03697072 -0.23897149 -0.15259199 -0.22661275 -0.05808373 0.17109045
00000000: 510a 90be efc0 3fbe d6eb 523e a84e 2cbe
00000010: d44e aa3e 5951 cabb b0e1 a8be 80b8 0dbe
00000020: fc7e 14bd ad2e 38bd c0d4 b33e 1001 9d3d
00000030: d421 163e 82b3 69be 0c29 813d 997d 83bd
00000040: 4a13 113e 64b1 2cbe 4d8d b0bd 6393 a53e
00000050: ed02 eb3d cf0d 99be 44e4 babd 205c 1dbe
00000060: 1d39 ecbd 2df7 c23d 4f21 b3be 8a9e 6dbe
00000070: 87be 53be 9cbd 82bd 9243 963c c55a babd
00000080: 6fc6 7ebd af46 70be 86fa 86be 2f86 4ebd
00000090: 2292 5b3e eccd 923c eeca 38bc d098 03be
000000a0: f052 d0bd 3284 dcbd bdc6 a9be 4a61 1c3d
000000b0: 025b 33be acc3 a9be 2dee e6bd d7e9 0c3f
000000c0: d346 70be d963 77be 24cf e03d 792e db3d
000000d0: 2cd9 33be 28a1 34be 3f4c e5bd 6a9e 313d
000000e0: 6f96 d43d d936 d83e e2d4 933e f02c fbba
000000f0: 1e01 95be 4de3 a3bb 6755 573e 4b45 e13e
00000100: a24d aebe eb7c 38bd 52e8 ce3d 4680 00be
00000110: 876a 05be 4165 24be fcd9 893d 277f a33c
00000120: e089 2a3e 9df4 bdbd 8234 94bd ba11 92be
00000130: 593c babe 7f60 10be 63cf 90bd 1bd7 25be
00000140: 9fec f83c 75f4 a43d 70fd 7abe 695e a8be
00000150: 1557 2cbe 7a5a 6bbe 3d0c 883e dbe2 88be
00000160: 01a4 fdbd f569 b0bd 7a3c 8b3e 9403 abbc
00000170: 63d2 443d 5d56 a3be 3b0f d03d fa3b cdbd
00000180: fcaa 54be 4bbc 4c3e 5e88 9dbe 041f ee3d
00000190: b108 7ebe 54d7 d0bc b931 4ebe 6548 ed3d
000001a0: c487 873e a600 04bd 5cd6 4a3e b754 763e
000001b0: 8e42 2abe b791 21bd 2548 b3be 265a 14bf
000001c0: a41d 9e3d 74b0 08be b9a4 bc3e 152c 5f3d
000001d0: 4ee3 b0bc 69ec e9be 420a c4be a61e ec3d
000001e0: 425e 9d3e b601 623e 2c0f 4d3e 8e03 893d
000001f0: f9f7 cabd 5b55 68be 0e32 8c3d 4d16 713e
00000200: f9fb 6f3d 8b6a 3ebe 2e48 ecbd 4b61 803d
00000210: df32 e9bd df05 223d 40d7 fa3e 19e7 4abe
00000220: cbc1 f1be e0c3 6bbe e979 9d3b d598 87be
00000230: 3bf0 a73d 6f4f 273f 68e0 713d 4d44 00bf
00000240: 1772 82be 68f8 113d 0ec8 c3be 724f 0c3f
00000250: 357e fabe 778c e13d 8dca 053e 33bc ef3d
00000260: 0cd3 58be d5ab e93d dd99 373e bb81 76be
00000270: 998a 233e e4fc 7abd 9105 e93d 12ec 8abe
00000280: f9bb b63b 6c98 8f3d c974 8bbe 4a2d 553d
00000290: e154 313e b719 0bbe 379a 8fbe 855a ebbd
000002a0: 3cda 593d 2f7d d83d a0f2 9ebd 845c 97be
000002b0: 97cc 74bd c9c0 b1bd 5eb2 b03d 472f ca3d
000002c0: 87c0 17be 12a0 2abb 23ff 7cbe 76a4 893e
000002d0: 8fb7 cabe 59e0 033e 8ea3 283f 0ab8 09bd
000002e0: 976b 88be 3f04 87bd 8c6e c23e 1c24 d5be
000002f0: da26 d33e a954 61bf c404 46be d38c 29be
00000300: 3793 e33d 1113 ecbd 979c 9b3b 9296 68be
00000310: 0879 cfbe cd72 47be 80ea 72be 4c44 00be
00000320: dc33 52be cd71 7abd 42b8 923d 5b21 c2be
00000330: fdd5 1dbe 6df3 083e 0485 82be f9df ef3d
00000340: bc23 c93d a054 383c 9566 573e ced1 c5be
00000350: 4460 073f 59f3 d53e 2836 79be 4811 db3d
00000360: e4fb a13c 75bf e63c 919a 9c3d 9867 3d3d
00000370: 21e2 c4bd 471a 64bd 2def 3bbe 9757 b23d
00000380: c666 953d f06e 18bf 81fa d83e 887f 8abd
00000390: 7296 f23b b657 c13d 2ad5 e73e 8a42 40be
000003a0: 3200 1cbe bc70 62be a37d bbbe 0d1e fabd
000003b0: e6f7 553e abb7 22bf a354 55bd 600a 0ebe
000003c0: 60c1 52be 6f7d 2fbc 0a70 86bd cd84 be3d
000003d0: 1881 e3be 0b80 6ebe b802 02be 798e 6d3d
000003e0: e93f 9cbe 3753 b03d 9c6e 17bd f1b4 74be
000003f0: 1341 1cbe 2c0d 68be 35e9 6dbd 5632 2f3e

model_old.model.0.bias f4 [128]
-0.24226466 -0.028985284 -0.15355426 0.07250779 0.039982647 -0.06734831 -0.018210452 -0.37130168
0.59324926 -0.01961607 -0.18769152 -0.19245441 0.0021438869 0.1072492 -0.054280706 -0.1337351
-0.18644048 -0.050915565 -0.11037589 -0.35905328 -0.17169258 -0.04182869 0.3403316 -0.33564028
0.043256342 -0.49830478 -0.030102102 -0.49616423 0.38259622 0.07753117 -0.14983763 -0.096406564
0.069990605 -0.2359772 0.34792432 -0.10970218 -0.1785295 -0.09052915 -0.0004894937 0.40164787
-0.050338235 -0.08417271 0.25597763 -0.020019371 -0.29327023 0.2971083 0.2011167 -0.024642704
0.18039122 -0.3423609 -0.30023652 -0.33209473 -0.07537055 -0.29571128 -0.33014667 0.019932609
-0.2178568 0.17091501 -0.031123105 0.06604767 0.35065168 0.23782988 -0.13612786 -0.195732
-0.28123906 -0.091518305 -0.26503485 -0.27610543 -0.09997083 0.023898697 0.3183679 0.123959735
0.034642413 -0.14845574 -0.16530573 -0.14376168 -0.037645537 -0.10389662 0.27333233 0.34561035
-0.06303542 0.31216022 -0.050445627 0.28788608 0.28643048 -0.011543551 -0.16610473 -0.3255719
-0.103666805 0.002783261 0.30213428 0.50724095 0.3942064 -0.16538723 -0.31506494 0.20853141
-0.096474536 0.14993119 -0.12038626 -0.4302378 -0.022459248 0.20884536 -0.16480345 -0.091692515
-0.13201268 -0.06404261 -0.2097031 -0.2091782 -0.04977779 0.050786823 -0.054146133 -0.20041303
0.16742566 -0.33456504 -0.18084136 0.13071835 -0.42153516 -0.42375857 0.37090838 -0.050860565
-0.11374014 -0.0054271366 -0.06304201 -0.05240141 -0.15984583 0.21457158 -0.5806547 -0.0006220869
00000000: 3a14 78be 8c72 edbc 543d 1dbe f77e 943d
00000010: d8c4 233d e9ed 89bd 162e 95bc 411b bebe
00000020: 2fdf 173f e1b1 a0bc 3532 40be c512 45be
00000030: 7480 0c3b 78a5 db3d 7255 5ebd dbf1 08be
00000040: 41ea 3ebe d78c 50bd c10c e2bd d5d5 b7be
00000050: 2ed0 2fbe 8f54 2bbd f23f ae3e 0bd9 abbe
00000060: 902d 313d ce21 ffbe af98 f6bc 3d09 febe
00000070: a7e3 c33e a9c8 9e3d 096f 19be ce70 c5bd
00000080: 3c57 8f3d 02a4 71be 2323 b23e 89ab e0bd
00000090: 70d0 36be 5967 b9bd 5e51 00ba caa4 cd3e
000000a0: 772f 4ebd be62 acbd 800f 833e aaff a3bc
000000b0: 8427 96be 941e 983e 89f1 4d3e 7fdf c9bc
000000c0: 7ab8 383e ee49 afbe 9ab8 99be 5208 aabe
000000d0: e05b 9abd 7867 97be fc08 a9be b649 a33c
000000e0: da15 5fbe 5804 2f3e e2f5 febc 0044 873d
000000f0: 9e88 b33e ad89 733e 1a65 0bbe f86d 48be
00000100: 91fe 8fbe f36d bbbd a6b2 87be b15d 8dbe
00000110: 82bd ccbd 33c7 c33c 1e01 a33e 9ade fd3d
00000120: 34e5 0d3d c804 18be e845 29be 4336 13be
00000130: 3532 1abd c0c7 d4bd 37f2 8b3e d7f3 b03e
00000140: b718 81bd 77d3 9f3e 13a0 4ebd ce65 933e
00000150: 04a7 923e 2a21 3dbc 5c17 2abe 5cb1 a6be
00000160: 434f d4bd 5f67 363b 58b1 9a3e 8bda 013f
00000170: 6cd5 c93e 455b 29be 3150 a1be 4289 553e
00000180: 7194 c5bd 9087 193e 128d f6bd 2148 dcbe
00000190: 75fc b7bc 8fdb 553e 3cc2 28be 49c9 bbbd
000001a0: 552e 07be c628 83bd 69bc 56be cf32 56be
000001b0: cce3 4bbd d805 503d 56c8 5dbd 1339 4dbe
000001c0: a271 2b3e 1c4c abbe 7a2e 39be 08db 053e
000001d0: 75d3 d7be e2f6 d8be b4e7 bd3e 2b53 50bd
000001e0: 97f0 e8bd 1fd6 b1bb 2b1c 81bd dca2 56bd
000001f0: a0ae 23be a7b8 5b3e c9a5 14bf 8c13 23ba

model_old.model.2.weight f4 [128, 128]
0.19847791 -0.06932385 -0.1907425 -0.17944774 -0.2877932 0.27472144 -0.13859808 0.3225744
0.16050337 0.08888955 -0.23957147 -0.092689246 0.31273124 0.0199975 -0.16486615 0.39975002
0.25598958 -0.5475076 -0.15220128 0.10129809 0.10679828 0.023749096 0.11136876 -0.041917924
0.055587728 0.12023088 0.08712396 -0.11055352 -0.036153536 -0.034305632 -0.30035603 -0.007595982
-0.43814376 0.12812956 -0.07935641 -0.20533316 0.22444116 -0.1298325 -0.23778333 0.02913409
-0.18545075 0.06720054 0.10131415 0.06539491 -0.0043882397 -0.105308056 -0.24547383 0.049666364
-0.041257612 0.038389232 -0.031750716 -0.17234416 -0.49903312 0.1396222 -0.17392771 0.14832343
0.20687914 -0.45571294 0.254773 -0.287031 0.5098243 -0.08888501 -0.019593183 0.12288527
0.0106657725 -0.32682678 0.07136949 0.02024461 -0.11897673 -0.08113012 -0.22840604 -0.17891344
-0.26825923 -0.08970648 -0.030949926 -0.07569682 -0.31898457 -0.30237603 -0.07433204 0.11693536
0.011494923 -0.09978616 0.048725367 -0.34441325 0.011069025 0.03552024 -0.029662393 0.020734286
-0.21103835 -0.28208333 -0.2739612 0.2437894 -0.1455145 -0.028183509 -0.14557056 0.10285917
-0.08630811 0.2557749 0.0074783433 0.11622038 0.1983626 -0.01007849 -0.21339928 -0.5015543
0.14030574 0.30162486 -0.037339315 -0.19925463 -0.24762094 0.23869191 -0.44938934 -0.2088802
0.011465189 -0.24729358 0.28019616 0.35481432 0.020410998 -0.11869302 0.17857839 0.42342967
0.14494565 -0.040423565 0.07901966 0.14404184 -0.029079562 -0.30226853 0.20146778 -0.32554477
-0.04739553 0.0474632 0.08603481 -0.10741351 -0.12616315 0.018324954 -0.39784262 -0.3087166
0.16005662 -0.0053061885 -0.38671297 0.026147906 0.020343818 -0.123690225 -0.33048275 0.21817002
0.026261816 -0.21353629 -0.083868586 0.063720174 -0.07595098 0.03979743 0.10378349 0.062511526
0.24486259 0.101394475 0.016805582 -0.053558785 -0.19547313 -0.20672546 -0.24722187 0.10173739
-0.35192314 0.039935187 -0.29821795 -0.006163891 0.13628596 -0.05319705 -0.051662836 -0.02477848
-0.2605924 -0.040029753 0.037245315 0.02889939 0.029126097 -0.14397797 -0.05234291 0.21212168
0.09975792 0.11536935 0.05251034 0.10708162 -0.02613428 -0.115585774 -0.07961331 0.13839601
0.16819893 -0.546424 -0.10545111 -0.45950723 0.14813675 -0.39947212 0.12895115 -0.01862218
-0.02002118 -0.33556372 -0.19413415 0.35536483 -0.0027727403 -0.2816265 -0.2725716 -0.22770494
-0.04892931 -0.014156869 -0.10258556 0.024939315 -0.20335664 -0.20448461 -0.18702418 0.22374542
-0.039047267 -0.3229777 -0.14413668 -0.4840391 0.018427791 -0.28855142 0.12799561 -0.028746456
0.110485926 -0.60401076 -0.24633132 0.11267419 -0.3130254 -0.013624141 -0.26915482 0.012080163
-0.06512106 -0.070892826 0.06143229 0.04269801 -0.028149812 -0.12046436 -0.117493086 -0.23734163
-0.014545826 0.025918012 -0.005932588 -0.12755361 -0.12946977 0.08609725 -0.268245 -0.5283249
-0.15691333 -0.35932806 0.4167792 0.13483092 0.04805641 -0.13716108 0.10738261 -0.12195635
0.23284054 0.14246 0.0103750555 0.040836535 -0.14041007 -0.35658565 -0.051210318 -0.1917031
00000000: cb3d 4b3e aaf9 8dbd 0052 43be 26c1 37be
00000010: a159 93be 4aa8 8c3e a8ec 0dbe 7928 a53e
00000020: ff5a 243e b90b b63d 3952 75be dcd3 bdbd
00000030: 4f1e a03e ccd1 a33c acd2 28be 09ac cc3e
00000040: 1111 833e 7529 0cbf a7da 1bbe 5f75 cf3d
00000050: 0eb9 da3d 778d c23c 4e15 e43d 21b2 2bbd
00000060: f5af 633d 9c3b f63d 0c6e b23d e269 e2bd
00000070: bb15 14bd 1084 0cbd 44c8 99be b7e7 f8bb
00000080: 6154 e0be 6534 033e 9d85 a2bd db42 52be
00000090: e7d3 653e d0f2 04be 797d 73be 9daa ee3c
000000a0: cde6 3dbe 70a0 893d cb7d cf3d c4ed 853d
000000b0: 39cb 8fbb c0ab d7bd 7e5d 7bbe f56e 4b3d
000000c0: befd 28bd 073e 1d3d 0a0d 02bd fd7a 30be
000000d0: 4581 ffbe 1ff9 0e3e 1b1a 32be 19e2 173e
000000e0: 20d8 533e 3553 e9be 9b71 823e baf5 92be
000000f0: d883 023f 5809 b6bd e281 a0bc 46ab fb3d
00000100: 7ebf 2e3c d755 a7be 2b2a 923d 06d8 a53c
00000110: 12aa f3bd 8c27 a6bd 46e3 69be 1635 37be
00000120: 4659 89be 08b8 b7bd b38a fdbc ef06 9bbd
00000130: f251 a3be 08d1 9abe 663b 98bd ce7b ef3d
00000140: 3455 3c3c b05c ccbd 4094 473d ef56 b0be
00000150: db5a 353c ac7d 113d 8cfe f2bc f3da a93c
00000160: 701a 58be 3a6d 90be a444 8cbe eea3 793e
00000170: c101 15be 1ae1 e6bc 7310 15be d4a7 d23d
00000180: 4ec2 b0bd edf4 823e e40c f53b f304 ee3d
00000190: 911f 4b3e 4020 25bc 5785 5abe dd65 00bf
000001a0: 4fac 0f3e 936e 9a3e 1cf1 18bd 6809 4cbe
000001b0: 5890 7dbe a76b 743e 5c16 e6be b1e4 55be
000001c0: 7dd8 3b3c 873a 7dbe df75 8f3e 39aa b53e
000001d0: f734 a73c 5315 f3bd 41dd 363e c6cb d83e
000001e0: a26c 143e 2e93 25bd 0fd5 a13d b47f 133e
000001f0: 4338 eebc f1c2 9abe 924d 4e3e cead a6be
00000200: d121 42bd c668 423d 0533 b03d 9dfb dbbd
00000210: ea30 01be 371e 963c 07b2 cbbe 1a10 9ebe
00000220: e2e5 233e 89df adbb 3eff c5be 2234 d63c
00000230: 14a8 a63c 4d51 fdbd 0935 a9be f667 5f3e
00000240: 0523 d73c 42a9 5abe 4bc3 abbd b97f 823d
00000250: 308c 9bbd a102 233d 708c d43d 0b06 803d
00000260: 42bd 7a3e e8a7 cf3d dcab 893c 7560 5bbd
00000270: 1c2a 48be d7af 53be bb27 7dbe b15b d03d
00000280: 452f b4be 1493 233d 06b0 98be 77fa c9bb
00000290: 8c8e 0b3e 26e5 59bd 699c 53bd 3dfc cabc
000002a0: 5e6c 85be 3df6 23bd 8b8e 183d 6abe ec3c
000002b0: da99 ee3c f66e 13be 8565 56bd 6d36 593e
000002c0: e14d cc3d c446 ec3d 1515 573d 9c4d db3d
000002d0: 8f17 d6bc 3cb8 ecbd 4e0c a3bd afb7 0d3e
000002e0: 573c 2c3e 71e2 0bbf c0f6 d7bd 8844 ebbe
000002f0: 29b1 173e 9c87 ccbe c50b 043e 8b8d 98bc
00000300: 7503 a4bc 02cf abbe 1acb 46be 61f2 b53e
00000310: ddb6 35bb 5931 90be 818e 8bbe 7c2b 69be
00000320: 1a6a 48bd 36f2 67bc 6118 d2bd 894d cc3c
00000330: b93c 50be 6a64 51be 4483 3fbe 851d 653e
00000340: 07f0 1fbd 555d a5be 9198 13be f9d3 f7be
00000350: e1f5 963c 03bd 93be 4811 033e b07d ebbc
00000360: 7246 e23d 73a0 1abf 473e 7cbe bac1 e63d
00000370: dd44 a0be ca37 5fbc a9ce 89be e0eb 453c
00000380: 315e 85bd 4230 91bd 6da0 7b3d 1ce4 2e3d
00000390: 6f9a e6bc 05b6 f6bd 37a0 f0bd af09 73be
000003a0: 9e51 6ebc 0352 d43c 2866 c2bb 6a9d 02be
000003b0: b993 04be c153 b03d 6957 89be 4d40 07bf
000003c0: e3ad 20be d9f9 b7be 1564 d53e 1e11 0a3e
000003d0: ccd6 443d f473 0cbe 6aeb db3d 40c4 f9bd
000003e0: c06d 6e3e 09e1 113e 23fc 293c 3644 273d
000003f0: a8c7 0fbe 6592 b6be e9c1 51bd d14d 44be
