project/paper_notebooks/saved_variables/paper_notebooks/7/6/6-looping-iteration-38/final_policy_agent1.pth (torch, 543093 bytes, 16 tensors)

model.model.0.weight f4 [32, 1, 4, 4]
00000000: b268 2abe 704a f8bd 02dc 643e f1a3 073b
00000010: 5a42 4d3d 891f 4b3e c794 653c b0e0 36be
00000020: 49e2 1c3e 7f7d 833c 2b50 673e 00b5 1e3d
00000030: d143 d73d 74f8 b63c bb48 ed3d 8deb 193e
00000040: 88cc 613d d825 233d 1420 09be db91 89bd
00000050: 3f72 8b3d 8cee dc3d b321 4b3e f0fb 57be
00000060: f374 7fbe 131e 503e 969b 70be 2b57 a4be
00000070: 5459 f2bb e313 9cbd 51bc 633e 3749 77be
00000080: 4684 d83d 64b1 c0bd 3a03 55be ea1f 1f3d
00000090: c8b8 46be 0470 ee3d a36c dfbc cbcf 9bbe
000000a0: 7aa8 91bd 3aa4 15bd 666b 6f3e aa3a bd3d
000000b0: ec1e dbbc 36bc 6b3e 3bf4 a43d f245 0a3e
000000c0: d393 1f3d 1c12 6dbe e09e 15be 36e4 0bbe
000000d0: ef8b 13be 3263 513e 0cfe a3bd 1a87 9f3d
000000e0: 225a 4c3e 5354 2fbe 54ef 383e 2e6d fb3d
000000f0: 9f48 4cbe 4524 243e 402d ecbd 2f80 7a3e
00000100: ad60 e5bc b993 b6bd 3485 913e 5f97 0abe
00000110: d948 8c3e d0d1 963d 5d12 ad3d 721f 1f3c
00000120: 7927 733e 2982 923d 0b8c babd dae0 94be
00000130: 2b13 1bbe 35d0 38bd 348d ccbd 2c87 12be
00000140: 49db 533d 4d15 3f3e ceae 77be e9af 62be
00000150: 4f53 79bc 5471 d83d 1e3d 19bc 9189 7bbe
00000160: e1ca 8f3e 1914 373e 9078 f7bc 32b7 743d
00000170: 3f1a 893d e76a 45be 5d1e 413e ee13 273e
00000180: 45ab 0abe 98ff 693d 376d 6fbe 348c 133e
00000190: 302b 4dbd f4e1 d23d a3f3 85bc e698 c53d
000001a0: f70e 063e 0f37 203e 7897 413e 9c45 5abd
000001b0: dabe a3bd c304 0abb f54b 6f3e 5358 00be
000001c0: 900a 403e 4b8d 70be 49d6 5f3e 46da 45be
000001d0: 025a 183e 6803 57be 83b1 9fbd 740a 173e
000001e0: 0670 8d3e 1b75 863d f5ca 5bbc 6e93 723e
000001f0: 64b0 563e 1b1a b0bd f7af d7bd 80fe 2fbe
00000200: 7f94 42be 6043 cb3d edaf b2bd d20c 043e
00000210: 87f0 8dbe 88ba 533e 488a 683e ea0c 7ebe
00000220: 507a 6dbe f3d6 be3c ebf0 203e ce35 e3bd
00000230: 0ea6 393e 7956 a73d 4f48 493e 92be acbd
00000240: d547 55bd 056a 0f3e 946a 5a3e 02ef 88bc
00000250: 9ce9 90be dbdf 99bc c753 edbd 76c8 98bc
00000260: 299e 7c3d 7b62 05be f8ca 4b3e 2ebf 2ebe
00000270: 983e 6e3e ef5f ccbd 6ef8 373d 3c81 8bbd
00000280: bc62 9e3d dd94 ff3d 1e53 84be 2999 ca3d
00000290: 2d76 793e 5d6c 64be 86c0 90be 8d22 15be
000002a0: d1ad 3b3e bcb0 8c3d 8c1f 8abe 1b1a d1bd
000002b0: 2a52 ce3c 4787 54bd ffee e43d 4a50 553e
000002c0: e6f3 a5bd f28e c23c 8c86 403e 9682 5ebd
000002d0: b208 a5bd 8ebf 3f3e 4ae8 6b3e 8758 a5bd
000002e0: 8770 c33d e459 693e 360c 253e 9661 383d
000002f0: 438f 173d 4819 62be 7241 34be f5db fe3d
00000300: 1feb e43d ff5a 08be edbb 42bd fa62 87bc
00000310: 0340 62bd 44b1 39be fa4e 64be d411 cfbc
00000320: 814b a7bd 4c5b 44be ca1f 533e 6c17 0ebe
00000330: b9bb 38be eb77 403d 0fe8 1ebe 2be1 e0bc
00000340: 1c70 88bd 336e 9c3b fa14 99be 735a 31be
00000350: 08e0 063e 3656 5e3e ddca 2fbe b49a fd3d
00000360: 4957 cdbd e7f6 86be 9078 723e a4a8 2bbe
00000370: 644c 453e 9175 063c 2891 4bbe 9ac0 773d
00000380: a4ae 083e 22c4 e63d 3f55 a83d 7396 d5bb
00000390: 584a 403d ff41 ca3d b4e4 3a3d fe42 87be
000003a0: 30ae 6ebe ce6c ed3d 7b04 25be fb1b 26be
000003b0: ddb5 953e a177 973b 55fe 5c3e 18f0 41be
000003c0: df3f e13b 5b7f cb3d e242 2fbc ee6f 61bd
000003d0: fd3f 5a3d 545e 13bd 619d 86be 5e74 073e
000003e0: da02 51be c8d2 b73d fd07 ac3c f9aa 08be
000003f0: 5601 40be 3c20 2d3e 660c abbd a599 553e
-0.166415 -0.12123573 0.22349551 0.0020697082 0.050112106 0.19836248 0.014012522 -0.17859149
0.15320696 0.016051052 0.22589175 0.038746834 0.10510982 0.022335269 0.11586138 0.15031262
0.055126697 0.039831012 -0.13391143 -0.06717273 0.068089 0.10787687 0.19837074 -0.210922
-0.24946956 0.20323972 -0.23496851 -0.32097754 -0.0073959026 -0.076209806 0.22239806 -0.24149023
0.10572104 -0.094088346 -0.20802012 0.038848795 -0.19406426 0.11642459 -0.027273482 -0.3043197
-0.071122125 -0.03653357 0.23380813 0.09239705 -0.026748143 0.23021016 0.08054396 0.13503245
0.038959336 -0.2315144 -0.14611387 -0.13661274 -0.14408849 0.20447996 -0.0800744 0.077894405
0.19956258 -0.17122011 0.18060046 0.12276684 -0.19949578 0.1602946 -0.11532068 0.2446296
-0.0280002 -0.089148946 0.28421938 -0.13534306 0.27399328 0.07364237 0.08450768 0.009712087
0.23745526 0.07153732 -0.09108742 -0.29077798 -0.15144031 -0.045120437 -0.0998787 -0.14309376
0.0517228 0.1866047 -0.24187776 -0.22137417 -0.015217616 0.105684906 -0.00935295 -0.24564196
0.28084472 0.1787876 -0.030208856 0.05974502 0.06694459 -0.19279061 0.18859239 0.16316196
-0.13541897 0.05712852 -0.23381506 0.14408952 -0.050090015 0.102970034 -0.016351527 0.09648304
0.13091646 0.15646003 0.18905437 -0.05328904 -0.079953864 -0.0021059967 0.23368819 -0.12533693
0.1875403 -0.23491399 0.21859087 -0.19321546 0.14878085 -0.20997393 -0.077975295 0.14750081
0.2762453 0.06565305 -0.013415088 0.23689052 0.20965725 -0.08598729 -0.105316095 -0.17186928
-0.1900196 0.0992496 -0.087249614 0.12895516 -0.2772257 0.20676625 0.22709 -0.24809614
-0.2319119 0.023295855 0.15716903 -0.11094247 0.18129751 0.0817079 0.1965649 -0.08434786
-0.052070457 0.14005287 0.21329719 -0.01671553 -0.2830323 -0.0187835 -0.11588245 -0.018650275
0.06167427 -0.13025849 0.19901645 -0.17065117 0.23266065 -0.099792354 0.044914655 -0.06811759
0.07733676 0.12479565 -0.25844663 0.09892494 0.24361487 -0.22306962 -0.28271884 -0.14563961
0.18328024 0.06869647 -0.26977193 -0.10210057 0.025185663 -0.051886823 0.111783974 0.20831409
-0.081031606 0.023749802 0.18801326 -0.054323755 -0.08058299 0.18725416 0.2303783 -0.08073526
0.09542947 0.22788197 0.1611794 0.04501494 0.03700186 -0.22079957 -0.1760309 0.12444297
0.11177658 -0.13315962 -0.0475425 -0.016526688 -0.055236828 -0.18134028 -0.22295752 -0.025277056
-0.08168698 -0.19175452 0.20617595 -0.13876122 -0.1804036 0.046989363 -0.15518211 -0.027451118
-0.06662008 0.004773879 -0.29898816 -0.1731966 0.13171399 0.21712574 -0.1716723 0.12383023
-0.10026414 -0.26360247 0.23678803 -0.1676355 0.19267422 0.008206741 -0.19879591 0.060486414
0.1334787 0.11267878 0.082193844 -0.006518179 0.0469459 0.09875869 0.045628265 -0.26418298
-0.23308635 0.115930185 -0.1611499 -0.16221611 0.29240313 0.004622415 0.21581395 -0.18939245
0.006874069 0.099364005 -0.010697098 -0.055038385 0.05328368 -0.03597863 -0.26291946 0.13227984
-0.20411244 0.0897575 0.020999903 -0.13346471 -0.1875051 0.16906828 -0.08351974 0.20859392

model.model.0.bias f4 [32]
00000000: d5fa 963c 70cc 0fbe 33bd 38be 43c9 a2bd
00000010: dac5 17be b12a 4fbe d817 553c db70 c43d
00000020: 689c 8b3d fe87 2b3e ab88 013c 0c66 3ebe
00000030: 955b b93d 8402 a53d 1c2f 223e 4851 543e
00000040: 5656 753e 9d59 c53d ddf9 82bd 3368 a1bb
00000050: 04c4 803e b13b 563e d917 143e 7cd1 aa3e
00000060: 009b 273e 941e ab3d a4b5 b23d c4be 913e
00000070: fb41 3c3e e571 36be 60cb 4b3e 03a8 25be
0.018430153 -0.1404283 -0.18040924 -0.07948544 -0.14821568 -0.20231129 0.013006173 0.09591838
0.068169415 0.16751096 0.007906119 -0.18593615 0.09050671 0.080571204 0.15838283 0.20734131
0.23958716 0.09636233 -0.06395314 -0.0049257516 0.25149548 0.20921208 0.14462222 0.3336295
0.16367722 0.08355442 0.087260514 0.28465855 0.18384545 -0.17816885 0.199018 -0.16177373

model.model.4.weight f4 [128, 384]
00000000: 2cf7 abbc 1017 0fbd 108b c8bb 6025 6a3d
00000010: 6a05 3c3d 0e75 7d3d 6e5d 8f3c 2fa3 db3c
00000020: 7d12 0e3d e67d 8e3c c6ff 31bd 195b 15bd
00000030: 16a9 313d d663 0c3e aa0c d83c 0f36 943d
00000040: c5c0 773c 2469 563c 5643 463c 751c 5bbc
00000050: 9d65 c53d 13c6 97bc 7d31 74bc 24b5 c73d
00000060: 0466 cc3d fe32 c43d 4c31 5e3d f4dd 3f3d
00000070: cbc6 413d 41db 583d c2ea f73c 65a1 473d
00000080: a08e 223d cabf 273d 47b7 35bd 92a8 cfbc
00000090: d582 a73c 49ab b23c 3a90 023d 0810 5abb
000000a0: 7fbb da3c fddb ac3c a21c b53d 9b9a a73d
000000b0: e974 bd3d 0aff 43bd ffb5 883d 47fd a9bb
000000c0: dff1 2abd 7387 bdbd b4af 75bc 8a88 e53c
000000d0: cc94 153d 10b4 fb3b b4d2 23bd 79f3 4e3c
000000e0: 90c3 d43c d6fc ed3c 66b9 4d3d 94fb 843d
000000f0: 1c71 a8bd 1539 c63c 9d71 20bd eab0 74bd
00000100: 9de5 ecbc 0191 f53d acef 663d 55da 203d
00000110: 42fd a13d e781 b93d cb44 2d3d c429 fb3c
00000120: 99f2 b3bd 00f6 133c 1bbd 7ebd 730e 0d3d
00000130: 57f5 9e3c be50 d4bc 2c8f b4bc 029c 97bb
00000140: f6bd 813d b695 ff3b 35f5 823d a2fe 593d
00000150: 4028 69bc b1f2 0cbc 7fa2 263c 1f3d edbc
00000160: 01c1 2dbd 989a 1abc 407b 7b3d f3c4 27bc
00000170: 5fd4 4d3c 114e 7f3d be76 c33d 184d 603d
00000180: 5359 d23b 6e2e 773d 5a3b 4a3d f17a 743d
00000190: 13b9 5dbc 7e1b 083c e9ab 963d 1a9f ce3b
000001a0: 3d97 b93c 4325 173d 36f0 0cbd bd0f 3d3d
000001b0: 4ac3 f13c 5abb 0bbc 93bc f23a af8c 333d
000001c0: d28d 2f3d fe92 8e3d 408b 1fbd a6fe 383d
000001d0: c51d 943c c619 04bd 31c0 8bbc 9da3 34bd
000001e0: 27a3 0ebd a537 c63c 8a88 18bc 2dc0 48bc
000001f0: 2fbd 28bc 8509 ad3d a323 8f3d 214a e23c
00000200: 41a6 c93d 503b fa3c 1460 b5bc 271b 503d
00000210: 0c69 16bd b6fb 05bd 2f8a 10bd 0e2a af3c
00000220: 7654 1d3c 665d a03c 748b 1dbd 51bf 62bd
00000230: fba4 17bc 1d71 6dbd a684 5dbc ef42 993c
00000240: 9d60 073e 9290 4cbc eac9 563e 0de4 dc3d
00000250: 31e6 0f3e 5994 3dbd 76e8 153e 4ba2 073e
00000260: 5c91 93bc e98e b0bc 73b1 133e 0cbc 1f3d
00000270: 448c ac3c 5dc4 213e d4a6 953d e7f7 803d
00000280: 3940 5fbc e8c3 223e 7401 4a3c 8fb7 a43c
00000290: 5d74 013e e3d5 3e3e 9a09 143e c03f 253e
000002a0: 02f8 ac3c c7fa fa3c 4332 49bc ec77 a03d
000002b0: 76ad 613c b1b9 303d ff75 f43c 3e46 563d
000002c0: 9930 663d f2fc 143d ea31 443d 94a8 a9bc
000002d0: d3a0 d03d 798e 8c3d 61b2 133a 63b4 8e3d
000002e0: 611a 183d 5bad 303c c995 f13d 7f43 7b3c
000002f0: b97e a43d 0d1b 213d 1f15 373d 6679 5d3d
00000300: 0e87 d93d 1204 f83c 77eb ac3d d0e2 a33c
00000310: 7292 ed3c 3953 cfbd e518 b83d f1ea a13d
00000320: 3035 963b dae7 69bd 0d72 003e 4e24 a63d
00000330: 7b27 343d e722 a6ba a21a 173c ab02 433d
00000340: c422 fd3b 8317 513d fa0e 36bd e762 7c3c
00000350: d373 313c fe3f 103d caf7 9d3d 6ffe d13d
00000360: b3b8 b33d 8c1e b83d 2922 d93d c98f f73d
00000370: 82f2 153e a31b ae3d 2e84 113d 1a12 a5bb
00000380: 4925 8e3d 0bdf 453d f6e7 173e 11b8 c93d
00000390: 9012 14bc 4486 da3c 9953 183e f725 d03d
000003a0: 8004 ce3c 0a2d 73bc fbdf 813c 1317 b43d
000003b0: 134a 69bb f935 bf3d 3d79 25bd 32f7 a83b
000003c0: db21 afbc 207e 223c 5206 5f3c a1f1 333d
000003d0: 5964 fd3c 9c9e 503d 2207 8bbc 25fa c6bc
000003e0: 0b17 613b f403 9bbc 9806 ee3c 3960 c3bc
000003f0: c90e a03d 6574 963d c639 b2bc 89ad 163d
-0.020991884 -0.034934103 -0.006120093 0.05716455 0.0459036 0.06187921 0.017500605 0.02681121
0.0346856 0.017394017 -0.043456815 -0.03646383 0.043374144 0.1370996 0.026373226 0.07236873
0.015121643 0.013086591 0.012101015 -0.013373484 0.09638522 -0.018527066 -0.014904377 0.09751347
0.099803954 0.095800385 0.054246232 0.04684253 0.047308724 0.05294347 0.030263308 0.048737902
0.0396868 0.04095439 -0.04436424 -0.025348935 0.020448128 0.02181019 0.031875826 -0.0033273716
0.026700733 0.021100992 0.08843352 0.081837855 0.092508145 -0.047850646 0.06675338 -0.0051876637
-0.041734572 -0.092543505 -0.014995504 0.028019208 0.036518857 0.007681377 -0.039995864 0.012631291
0.025972158 0.029051226 0.050225638 0.06493297 -0.08224699 0.02419714 -0.03917085 -0.05973903
-0.028918082 0.11990548 0.056380913 0.039270718 0.07909633 0.0905798 0.042301934 0.030659564
-0.08786506 0.009030819 -0.062192064 0.034437608 0.019404097 -0.025917407 -0.022040926 -0.004626752
0.0633506 0.0077998294 0.06394426 0.053221352 -0.014230788 -0.008602784 0.010170578 -0.028959809
-0.04242039 -0.009436272 0.061396837 -0.010239827 0.01256284 0.06233031 0.09544133 0.054761022
0.0064193397 0.060347013 0.04937301 0.05968756 -0.013532895 0.008307336 0.07357008 0.0063055875
0.022655124 0.03690077 -0.03440877 0.046157587 0.029512066 -0.008528555 0.0018519334 0.04383534
0.04285986 0.0696163 -0.03895116 0.045164727 0.018080601 -0.032251142 -0.017059417 -0.044101346
-0.034823563 0.024196455 -0.009309897 -0.0122528495 -0.010299011 0.08449081 0.06989219 0.027623238
0.098461635 0.03054586 -0.02214054 0.050807144 -0.036721274 -0.032710753 -0.035288032 0.021382358
0.009602657 0.019575786 -0.03846307 -0.055358235 -0.009255643 -0.0579692 -0.013520395 0.018708674
0.13220449 -0.01248564 0.20975462 0.10785685 0.14052655 -0.046284053 0.14639458 0.13245504
-0.018013649 -0.02155252 0.1442316 0.038997695 0.021062978 0.15797563 0.073072106 0.062972836
-0.013626152 0.15895045 0.012329448 0.020107059 0.12642045 0.18636279 0.14456788 0.161376
0.021114353 0.030637158 -0.01228005 0.07835373 0.0137742665 0.04314584 0.029841421 0.052313082
0.05619869 0.03637404 0.047899164 -0.020710267 0.10186925 0.06863112 0.00056341855 0.06968
0.037134532 0.010783519 0.117961474 0.015335917 0.08031983 0.03933244 0.044697877 0.054070853
0.10621463 0.030275378 0.08443349 0.020005614 0.029000495 -0.10123295 0.08989123 0.0790614
0.004583977 -0.057105877 0.12543507 0.08112393 0.043982964 -0.0012675197 0.009222658 0.047609966
0.0077250917 0.051047813 -0.044447877 0.0154044395 0.010830837 0.035217278 0.07713278 0.102536075
0.08775463 0.08990201 0.10602219 0.12087972 0.1464329 0.08501365 0.035526447 -0.0050375583
0.06940705 0.048308413 0.1483458 0.09849561 -0.009037629 0.026675351 0.1487564 0.10163491
0.02514863 -0.014842281 0.015853873 0.087934636 -0.003559713 0.09336466 -0.040398825 0.005156421
-0.021378448 0.009917766 0.013612347 0.043931607 0.030931639 0.05093251 -0.016971175 -0.0242892
0.003434601 -0.018922783 0.029055879 -0.023849593 0.0781532 0.07346419 -0.021756064 0.03678659

model.model.4.bias f4 [128]
00000000: 20ea 643d e37c 743c b0b1 b03b 9512 703d
00000010: 0c88 093d a8ff bcbc 79d9 803d 1422 cabc
00000020: fcc3 243a c141 0abb 8fdb 8abb b08b 8c3d
00000030: 71b5 6e3d b6c8 6ebd afe6 d9ba 571d 77bd
00000040: eec7 863b 767a 42bd 10b6 393d 460c c63d
00000050: 3438 913c 50b6 4e3d 85b6 103c 9943 a33d
00000060: a4e9 0e3d 9aba b2bc e33f 20bd d0c5 823c
00000070: c064 093d e974 3f3b b5c3 013c 9e93 40bd
00000080: 10ed 5c3d a65b 933d b625 343d 4fc0 54bb
00000090: c2c6 0fbd d18c 16bd 8a90 303d 8a96 9b3d
000000a0: 6464 1fbd 9009 be3c 8ab2 7dbc 0748 b03c
000000b0: e195 d0bc 331e adbb 4f33 55bd 1f56 1cbc
000000c0: 536f bf3c 85e7 adbc 8726 f73c 4a60 e73c
000000d0: fbc6 493a 2a77 063d a03d 78bc 04cd 333c
000000e0: 1e9c f6bc 5e1e c0bc 4843 ad3d cb61 173d
000000f0: bb7b 00bb f925 dc3c a3ee 6a3d 48f1 cdbc
00000100: 76d4 0e3d d0bb 463d 997d 23ba 7b54 1a3d
00000110: c4a2 053d a090 de3c 5d30 923d e6da 3c3d
00000120: de73 5b3d d074 213d d62c 3d3c c5be 473d
00000130: 19c9 17bc 949b 843d 5314 8a3d daab 873c
00000140: c41f 953d 61fb da3c a2ca 05bc 2480 87bc
00000150: 79f8 57bd 069d 233d 616c 1cbd aa12 153d
00000160: c90b e43c 2e1f f2bc 275b 313d 70e1 c1bb
00000170: 5152 743d ca97 c3ba 2dac dc3c 0264 ed3c
00000180: 2c1a 9a3d e1ba 033d e35f 483d 23e1 bf3c
00000190: f22e 4c3d 22d5 fa3c da8a 61bc b460 913d
000001a0: 9f09 10bd 1bc3 04bb b124 993d aacc 523d
000001b0: 5d6d 3dbd 9c1f 3abd b0ea 923d bd7c 11bd
000001c0: 31b0 3c3a e8de 433c 33b6 353c 6513 713d
000001d0: bec9 8f3d 6a13 8abd f9a7 2a3d af85 253b
000001e0: 3e41 fb3b 5deb 733d 5fed 9bbc 7430 a6ba
000001f0: 1f15 9ebc b526 4ebd fec3 01bc 3ee6 113d
0.05588734 0.014922353 0.0053922758 0.05861147 0.03357701 -0.023071125 0.062914796 -0.024674453
0.00062853075 -0.0021096321 -0.004237599 0.06862581 0.058278505 -0.05829688 -0.0016624535 -0.060330715
0.004113189 -0.04748007 0.045339644 0.0967031 0.017726995 0.050466835 0.008832579 0.079718776
0.034890786 -0.021817494 -0.039123427 0.015963465 0.03354335 0.002921397 0.007920195 -0.04701578
0.053937018 0.07195215 0.043981276 -0.0032463258 -0.03510166 -0.036755387 0.043106593 0.075970724
-0.0389141 0.02319792 -0.015484462 0.02151872 -0.025462093 -0.005283141 -0.052050885 -0.009542017
0.023368513 -0.021228561 0.030169738 0.028244156 0.0007697192 0.032828487 -0.015151411 0.0109741725
-0.03010374 -0.02345198 0.084600985 0.036958497 -0.0019605 0.026873576 0.057356488 -0.025139466
0.034870587 0.048518956 -0.0006236672 0.037678223 0.03262593 0.027168572 0.07138131 0.046107195
0.053577296 0.03941804 0.011546334 0.048765916 -0.009264254 0.06474987 0.06742158 0.016561437
0.072814494 0.026731195 -0.008165987 -0.016540594 -0.052727196 0.03994467 -0.038189296 0.036394753
0.02783765 -0.029555883 0.04329982 -0.005916767 0.059648816 -0.0014922556 0.026937569 0.028978352
0.07524523 0.032160643 0.04891957 0.023422783 0.049849458 0.030619208 -0.013766015 0.07098523
-0.035165425 -0.0020257893 0.074777015 0.051464714 -0.046246875 -0.0454403 0.07173669 -0.03551935
0.00071978854 0.011955 0.011090803 0.058856387 0.07020901 -0.06741984 0.041664097 0.0025256684
0.0076676896 0.05955063 -0.019034086 -0.0012679235 -0.01929718 -0.050329883 -0.007920263 0.035619967

model.model.6.weight f4 [128, 128]
00000000: 8da1 99bd 1822 ce3c 69ad b3bd 2bdf 2dbc
00000010: ad95 933d b63b b0bd 0f27 933d 44d7 b7bd
00000020: de9c 4b3d ac8c 2c3d 483e f7bc b55b 8f3a
00000030: 9e41 c23b 988b d43c 48f2 b13d b382 983d
00000040: 2432 9dbd 586a 21bc bbac 0d3d 59f5 2abd
00000050: 5ad6 293d a54e 82bd bd56 13bd d711 a73d
00000060: 0c9b 88bc 8aeb a63d e084 6bbd a41d 963d
00000070: 6a86 dbbc 076f 8bbc df1d ff3c d35d 863d
00000080: f38d 5bbc 3087 a8bb 2925 96bd 3a32 403d
00000090: 205a b13d 31ab c6bc c8aa af3d 7bff 6ebc
000000a0: 23a4 91bd 5dc9 fabc 9da4 c2bc ae97 433d
000000b0: bc8a da3a a89f debc b66a 69bd 72db a2bd
000000c0: 676a 72bd 824e b3bd f2b1 e43b 5899 0a3c
000000d0: b6e1 9f3d 4a94 86bd 00b3 69bd 8c32 97bd
000000e0: 6024 363b c16c 8bbd 1af2 c4bb ccc2 62bd
000000f0: 1932 22bd 36c9 85bd 19eb 993d 8372 5f3c
00000100: c567 06bd 3b03 203d 1dad 95bd 5be7 f4bc
00000110: 020f 4a3d 5347 0b3d b6c3 aabc f11f 6f3d
00000120: 4d01 b6bd 7d4b 2a3d 6a46 87bb 6933 913b
00000130: 7039 85bc e632 80bd e241 11bd 8ecc 1e3d
00000140: 39f0 b43c d452 7fbd 3fd0 7cbd 925a 983d
00000150: 9063 623c 2748 003d 86de 7b3d 80b0 903d
00000160: 5512 893d 6a4f 6bbd 723c 153d ff32 ab3d
00000170: c97a 593c d2a5 1ebd 8bf2 d63c 79e9 333d
00000180: 3704 1b3d 6482 a2bc b8e2 8c3d 0d75 45bd
00000190: 48ba 85bd 5016 21bd 2fcc 883d 37ee 95bd
000001a0: f5c4 ac3d ead4 ffbc 5404 873d 824e 433c
000001b0: 23d3 9cbd 1684 9fbd 4132 86bc 26ed 903c
000001c0: 4ce2 48bc 5fd8 bcbc b908 c13a 3663 92bd
000001d0: 8a69 93bc 8fef b33d 27c9 f23b 8d8e 1dbd
000001e0: 0c1d 20bd cad3 973d a0c9 2b3d d146 063c
000001f0: 10ba 22bd 7ac2 353d f8c0 91bc 96fb 593d
00000200: a378 7dbd 2cf4 8ebd d88e 653c b3ca 47bd
00000210: ca1b 1d3d 3ceb ed3c 40d1 fb3a e452 ca3c
00000220: 12c2 b0bd 6653 213d 18dd 83bd eaab 493d
00000230: 72ce 6c3d 3940 80bd 1ef2 703d 2ed8 103d
00000240: f009 563c 9cfa a3bc 6607 673d 31fe adbd
00000250: 9093 b4bb a140 833d d7e6 5abd 6a6a d4bc
00000260: d0e5 1b3c 38db 6fbd e351 5cbd e5f4 19bd
00000270: 3ec6 35bd 908d 68bc 70ab 2e3c 80cc bebc
00000280: 119c a5bd 982c 943c 3040 9e3c 69cb 80bd
00000290: e940 923d 5005 b9bb 9829 193c dbc5 a03d
000002a0: 9893 6e3c 4aaf 0f3d 6d63 823d 92df 0e3d
000002b0: 93dc ab3d 2819 133d f873 aabd 904f 983c
000002c0: e9b6 8c3d 785e db3c c07c 22bc 5f54 5abd
000002d0: 36a3 9bbd e0ad 38bc 98c2 9abc 5632 333d
000002e0: 7096 04bc e741 b2bd 7f45 50bd c012 11bd
000002f0: 2331 883d a89e ec3c 28fa 65bc 809f 393b
00000300: 6187 b33d b25d 383d 4eae 9cbd e024 743b
00000310: e6c5 03bd 1151 a73d 08c8 16bc a8b7 853c
00000320: f59f 85bd 2838 dabc 4f3a 873d d4a1 20bd
00000330: 4271 183d 4f58 9bbd 1c82 c6bc 8058 4aba
00000340: 68ea f43c ec8e afbd f59b 8fbd e187 04bd
00000350: 3230 533d 1e2e 793d 10be 3f3c 8c8a 79bd
00000360: f653 1d3d 0384 813d 906f dcbc 3bcb 8c3d
00000370: 8179 8c3d 3724 afbd 682c 57bc e54f 5abd
00000380: 0288 28bd 5cd8 86bc 5820 f53c 5fe9 b4bd
00000390: ca45 6fbd 08e6 f13c 9306 13bd 94ed 923c
000003a0: de5c 673d 0c96 0f3d 9e46 97bd 9631 a4bd
000003b0: 8ad5 78bd e0a9 df3c d0c7 b2bd 8a91 e1bc
000003c0: 08ec 1cbc 4e01 2d3d 5284 1a3d 8c05 f8bc
000003d0: 60df 0c3d 60a0 85bd e3f4 97bd 83ff 45bd
000003e0: 481d ad3c 18dd e13c e1ea a0bd cf8d 863d
000003f0: 5cf1 d3bc 10fe d33b 40f1 c3bc e0e6 3fbc
-0.075015165 0.025162742 -0.0877331 -0.010612289 0.07206283 -0.08605139 0.07185184 -0.089766055
0.049710147 0.042126343 -0.030181065 0.0010937365 0.0059282323 0.02594547 0.086887896 0.07446804
-0.07675579 -0.0098520145 0.034588557 -0.041737888 0.041464187 -0.063626565 -0.035971392 0.081576996
-0.016675495 0.08150394 -0.057499766 0.07329872 -0.026797492 -0.017020715 0.031142173 0.06560864
-0.013400543 -0.0051430687 -0.073313065 0.0469229 0.08659768 -0.024251552 0.08577496 -0.0145872785
-0.07111385 -0.030613596 -0.023760134 0.047752075 0.0016673426 -0.02717574 -0.056986533 -0.07952012
-0.059183504 -0.087552086 0.0069792205 0.008459412 0.07806723 -0.06571253 -0.057055473 -0.07382688
0.0027792677 -0.068078525 -0.006010306 -0.055361554 -0.039598558 -0.065325186 0.075155444 0.013638142
-0.032813806 0.03906558 -0.07308409 -0.029895475 0.04933072 0.034003567 -0.020845275 0.05838007
-0.08886967 0.041575897 -0.004128267 0.0044311774 -0.01626274 -0.06259708 -0.03546322 0.038769297
0.022087203 -0.06233485 -0.061722036 0.0743915 0.013817683 0.03131881 0.06149151 0.07064915
0.0669295 -0.057448782 0.0364346 0.08359336 0.013273903 -0.038732357 0.0262387 0.04392383
0.037845816 -0.019837566 0.06879181 -0.04820733 -0.06529671 -0.03932792 0.0667957 -0.073208265
0.08436004 -0.031229455 0.065926224 0.011920573 -0.07657459 -0.07788865 -0.016381385 0.017691206
-0.012260985 -0.023052393 0.0014727331 -0.07147829 -0.01799466 0.087859266 0.007409233 -0.038466025
-0.0390902 0.074134424 0.04194033 0.008195595 -0.039728224 0.04437492 -0.01779221 0.053218447
-0.061882626 -0.06980166 0.014011107 -0.048777293 0.03835658 0.029042833 0.0019212142 0.024697728
-0.08630766 0.039386176 -0.06438655 0.049236216 0.05781407 -0.062622495 0.05882465 0.035362415
0.013063893 -0.02001696 0.05640354 -0.08495749 -0.005510755 0.06408811 -0.053442802 -0.025929648
0.009515241 -0.058558673 -0.05378903 -0.037587065 -0.04437851 -0.014193907 0.010660991 -0.023290873
-0.08086408 0.01808767 0.019317716 -0.062887974 0.07141287 -0.0056463853 0.009348296 0.07850238
0.014561556 0.035079278 0.0636662 0.034881182 0.083916806 0.035912663 -0.083229005 0.018592626
0.06870825 0.026778445 -0.009917438 -0.05330312 -0.075994894 -0.011271924 -0.018891618 0.043749176
-0.008092508 -0.08703976 -0.050847527 -0.035418272 0.06649997 0.028884247 -0.014036693 0.002832383
0.08766056 0.04501123 -0.076504335 0.0037253425 -0.032171153 0.08169759 -0.009202965 0.016322926
-0.0652465 -0.026638106 0.06602918 -0.03921683 0.037217386 -0.07585203 -0.024231963 -0.0007718876
0.02989693 -0.08572182 -0.07012168 -0.032356147 0.051559635 0.060834996 0.011703029 -0.060923144
0.03841015 0.06324007 -0.026908666 0.06874701 0.068591125 -0.08551829 -0.013133146 -0.05329885
-0.041145332 -0.01646059 0.02992265 -0.088335745 -0.058416165 0.029528633 -0.03589494 0.017935552
0.05648505 0.035055205 -0.07386516 -0.0801727 -0.06075052 0.027302682 -0.087295175 -0.027535219
-0.009577759 0.042237572 0.037723847 -0.030276082 0.034392715 -0.0652473 -0.07419755 -0.048339378
0.021132126 0.027571246 -0.078572996 0.065700166 -0.025871925 0.0064694956 -0.023918748 -0.01171276

model.model.6.bias f4 [128]
00000000: 1d77 98bd 7126 6dbd acd8 923d bcf3 833d
00000010: f625 bf3c e3f0 a43d 6118 e43b d7ce c93d
00000020: e286 95bd 558d 723d 49c8 a43d 0dc2 93bd
00000030: b2f4 dcbc e564 abbc c336 bb3d 6846 57bd
00000040: 6cc3 e93d 77e3 95bd 7a1a bcbc 16f1 95bd
00000050: b8fe 95bc 6cd0 84bd bec3 24bd 9c07 99bc
00000060: deba 6abd a4de 7ebd 7213 c6bc e11e 103d
00000070: 56a5 34bd 31b7 313d 4e7b 2a3d 5142 393c
00000080: 9bc9 00bd 8eda 9dbc a2c4 9dbd 022b a63c
00000090: beaa 953c 8e35 c13c 6995 423d 6e26 e23c
000000a0: c348 8ebc 2aba e43c 7aee 2b3d 20a2 98bd
000000b0: 40bb af3d da51 573c 11fb fd3c 7909 9f3d
000000c0: 78a4 6fbd d6a0 41bc aaa4 55bb 0614 093d
000000d0: d797 71bd 66ba 11bc 1932 ac3d 8643 be3d
000000e0: 92bb cf3c 5195 e93a 31fb 54bd a181 0d3d
000000f0: 6d51 c93b 0b51 a0bd 1bdc 0a3e 20c8 8f3d
00000100: 8f24 873d c42e 843d 2831 70bd 1c68 a63d
00000110: a2b6 143b 4f66 c13b 87f4 59bd c9eb a3bc
00000120: 4cfb 743b bb9c bf3c 085a 96bd 301c 8cbd
00000130: 6188 4b3c 3c89 5abd 9009 cbbc 6c14 4fbb
00000140: 42cb 573d 6ed9 91bd 8fbb 293e b36e b4bd
00000150: 4eb3 a53d 9b8c d93d a5ff 7f3d ac95 57bd
00000160: fba1 d03d dbdb c03d b24f 953d f896 a53c
00000170: d625 67bc 1e65 953d 4ae8 0cbd 537b be3d
00000180: 1e4e 8dbc 7c90 a1bd 0355 0f3d 5033 7d3d
00000190: 610f 04bc 6ea4 313d dd32 d83d e14d 7d3d
000001a0: e36a 2e3c 276a 85bb 8417 da3d 7689 52bc
000001b0: 45df 4a3d 7c20 803d 3676 96bd cccc cbbc
000001c0: 4976 59bd a991 a2bd bd2d 973d 9a4d 03bc
000001d0: 2201 c63d 52cc 1a3d 6ce4 8d3c 2e2e dcbd
000001e0: 26ed f8bc a48a 5b3d faa0 033e 057d f33c
000001f0: 3e0d 10bd 5264 ba3d cbd9 5b3d 528d 8b3d
-0.07444594 -0.05789799 0.07170233 0.06442973 0.02333353 0.08053758 0.006960914 0.09853905
-0.073011175 0.059216816 0.08046014 -0.072147466 -0.026972149 -0.020922134 0.09141304 -0.05255738
0.11414227 -0.07318776 -0.022961844 -0.07321374 -0.018309936 -0.06485066 -0.040225737 -0.018680386
-0.057307117 -0.062224045 -0.024179194 0.0351857 -0.04410299 0.043387596 0.0416215 0.011307315
-0.031442266 -0.019269254 -0.0770352 0.02028418 0.018269893 0.023585107 0.04750577 0.027606215
-0.01736868 0.027920801 0.041975476 -0.07452798 0.08580637 0.0131420735 0.031003507 0.07765479
-0.05850646 -0.011818131 -0.0032599368 0.03346636 -0.058982696 -0.0088945385 0.08407993 0.09290223
0.025357995 0.0017820989 -0.051997367 0.034547452 0.00614374 -0.07827958 0.13560526 0.07020593
0.0659877 0.06454232 -0.05864063 0.08125326 0.0022691865 0.0059020887 -0.053211715 -0.020009892
0.003738123 0.023390165 -0.07341391 -0.06841314 0.012422652 -0.053353533 -0.024784833 -0.0031597866
0.052684076 -0.071215495 0.16575454 -0.08810177 0.0809084 0.106225215 0.06249966 -0.052632973
0.10187145 0.09416934 0.07290591 0.02021359 -0.014108142 0.07294677 -0.034401216 0.09300866
-0.017249163 -0.07888886 0.034993183 0.061816514 -0.008060307 0.043369703 0.105565764 0.06184185
0.010645601 -0.0040714922 0.106490165 -0.012850156 0.049529333 0.06256196 -0.07346766 -0.024877928
-0.05309132 -0.07937939 0.07381771 -0.008014107 0.09668185 0.03779251 0.017320834 -0.107509956
-0.030386519 0.053599015 0.12854376 0.0297227 -0.03516888 0.09101166 0.0536745 0.06814064

model.model.8.weight f4 [7, 128]
00000000: 1818 ffbb 98a2 b4bd acda 6b3d b1e0 25bd
00000010: b031 123d c87e 59bc f46a c9bc 90fb 84bd
00000020: 6085 a6bd 58d4 8b3d 5ede e43d a82b dcbc
00000030: 35e4 9939 a56d 963d 075a a13d 9a1b aebc
00000040: 13bc d13d f817 cf3c 39c6 9ebc edcf 92bd
00000050: edac ddbb 788e 01bd 6987 a63d 9f45 a33d
00000060: 4d0f bebb cd91 f43d b85d 1dbd b279 603d
00000070: d663 13bd 7434 253d 3b89 e43d 56e5 553d
00000080: cc5b be3d 1e26 37bd d28d 603d 6711 003d
00000090: 467b 22bc 3ed8 853d 1cd3 a13d 3ff3 a1bd
000000a0: 2ca0 86bd 2917 71bd a746 19bd 72af 10bd
000000b0: de79 24bd e853 513c 4055 cebb 9edb c4bc
000000c0: a158 91bd 9224 0abd 57b5 3ebd 8dde 713d
000000d0: 582e ef3c fdf7 1bbd 4543 dc3d 0a84 c53d
000000e0: e837 9a3d e6de adbd e81a 2abd 220e b0bd
000000f0: 4b3e 17bc eb22 9abd 1081 b13d bbe9 dc3a
00000100: 0a3d 51bd d4c5 503d aa7e 1d3d bfb4 8eb9
00000110: 6235 cf3d 77b0 1c3d f24c 693d 6823 76bd
00000120: 060f cb3d f009 80bd d089 7abd 5ee2 083d
00000130: 3550 e73d 4b89 bbbc dfe9 b1bd b759 a7bc
00000140: 90ff 7bbc 45d3 963d 4217 693d d0eb 45bc
00000150: 6047 f43d 4701 fa3d c0dc ca3c 7a11 31bd
00000160: 277a 403d ca11 d93d c62e ce3d 4ff2 92bd
00000170: 818a 673d 577f 8d3d c33f 32bd 31fe 443d
00000180: 66b0 b63d dbc7 a63d 1e78 f13c f37a 3bbb
00000190: f488 a4bc 27a7 89bd e7e1 8bbc f992 a83d
000001a0: e1f9 61bd 5cb2 c93c 2c23 b23d 5ee0 efbb
000001b0: abad ed3d e387 643d 7131 a43d 764f b23d
000001c0: 4731 11bd 150c 4dbd 4aeb 89bd edc6 dbbc
000001d0: d4cf eb3c 0225 53bd f8c8 163c e1a7 3b3d
000001e0: 24a9 20bd 577f 15bd f222 bd3d 21e4 ca3d
000001f0: 0b2a 923d 6f1f c33c 5c9d 7ebc 0a17 523d
00000200: 4378 033d b83e 3e3c 4558 f5bb 5f15 c6bc
00000210: 38ea 033e 50a4 5f3d 1027 c2bc 2fad 8bbc
00000220: 4e11 9cbd 3871 a03d 1d2b c93d 0df6 a0bd
00000230: 2a09 a2bd a065 193d e795 b1bc 524c 3ebd
00000240: 7c68 993d 2f6b b33d c880 c839 6f8f 803d
00000250: 98ed 0dbc f2bc 203d 2b54 9f3d fb9c 993c
00000260: 8d32 2ebd 5cca db3d fd7f 92bd ca83 203d
00000270: 68a9 c2bc 97e7 df3d 6229 433d 2441 e13d
00000280: bbc8 173d 404b e8ba ded1 babc b13d a73d
00000290: 2333 05bc e35b 573c 85e5 bb3d 754a da3d
000002a0: ec17 2cbc ebd1 37bd acc1 f4bc bce3 d33c
000002b0: 9103 fdbc a7ad f53b 4a54 77bd f173 303c
000002c0: a7ef 983c a7ea 2c3d db81 40bd 17b2 3d3d
000002d0: 8243 b13d 81bb 50bd 8337 303c f1af 933d
000002e0: 2908 993d 3554 adbd 04b0 92bc 4033 cf3a
000002f0: 4894 a03d f628 493d 936d 863c 7569 91bd
00000300: 33cb a2bd 8e60 a13d 96a1 873d 75a7 01bd
00000310: 2fb1 e83c 22a3 aabc df9a 16bb dbb9 253d
00000320: 6582 91bc f605 3d3d a0e4 7cbb ae0d a23d
00000330: 4b35 0d3d 28e2 11bc d8b6 8cbc fce1 7ebd
00000340: f82a 283c 02ab fb3c 24d9 053e 216a 42bd
00000350: b24d 753d 45f2 9b3d 3677 f4bc cd47 b03d
00000360: dd9c 893d 9155 973d ceba 413d 8cc2 85bd
00000370: 138f 2b3d 4a01 383b a866 843c 904b db3d
00000380: bf59 a73d f0d0 a9bb 4011 a53c 8c98 a63b
00000390: e8b7 f63b 9eed 213d 8824 8abd ae98 853c
000003a0: 2894 b2bc f0c9 a13d 5921 623d 57bc ba3d
000003b0: fc7b 913b 9fdb 8c3d ba2c 2d3d 208e 023e
000003c0: 3868 14bc 8ecf 99bd 1a51 8ebd 110c 903d
000003d0: eb03 cb3d ff24 e7bc 26cc 233d 8013 a6bc
000003e0: 2837 d2bc ae0e 26bd 15e8 bb3d 5c0d 063c
000003f0: a77e 083d 3b77 273d b131 983d 854b b03c
-0.0077848546 -0.08820075 0.05758159 -0.040497486 0.035691917 -0.013274856 -0.024587132 -0.06493294
-0.08130908 0.06827611 0.11175226 -0.026876286 0.00029352462 0.07345132 0.078784995 -0.021253396
0.102409504 0.025279984 -0.01938163 -0.07168565 -0.006764999 -0.03163001 0.08131296 0.079722635
-0.005800164 0.11941872 -0.038419455 0.054803558 -0.035983883 0.040333226 0.11158987 0.052220665
0.092948526 -0.044714086 0.05482275 0.031266596 -0.009917086 0.065353855 0.07901594 -0.07907724
-0.06573519 -0.058859978 -0.037420895 -0.035323568 -0.040155284 0.012776352 -0.0062967837 -0.024030503
-0.07096983 -0.033726282 -0.046559658 0.05905013 0.029196903 -0.038078297 0.10755018 0.09644325
0.075301945 -0.0848978 -0.041529566 -0.085964456 -0.00923116 -0.07526191 0.08667195 0.0016854325
-0.051083602 0.050969914 0.038450874 -0.00027219017 0.10117604 0.038254227 0.056958146 -0.06009236
0.09914975 -0.062518954 -0.061166584 0.033419006 0.11294595 -0.022892615 -0.086871855 -0.020428522
-0.015380755 0.07364515 0.056906946 -0.012080148 0.11927676 0.12207275 0.024763465 -0.043229558
0.046991494 0.10599096 0.10067515 -0.07175123 0.056528572 0.06909054 -0.04351784 0.04809398
0.08920364 0.08143588 0.029476222 -0.002860722 -0.020084836 -0.06721335 -0.017075492 0.08231158
-0.055169944 0.024621181 0.08698115 -0.007320448 0.1160539 0.055793654 0.08017243 0.08706562
-0.035447385 -0.05006035 -0.06734331 -0.026828254 0.028785624 -0.051548965 0.009203188 0.0458144
-0.039223805 -0.036498394 0.09235181 0.099067934 0.07136925 0.0238187 -0.015540447 0.051291503
0.032097112 0.011611633 -0.007487329 -0.024180112 0.12882316 0.05460006 -0.023700267 -0.017050354
-0.07620488 0.07834095 0.09822676 -0.078594305 -0.07911904 0.037450433 -0.021677924 -0.046459503
0.07490632 0.08760678 0.00038242922 0.06277358 -0.008662604 0.039242692 0.07779726 0.018751612
-0.042528678 0.10731956 -0.07153318 0.039188184 -0.02376242 0.10932844 0.047646888 0.10998753
0.037056666 -0.0017722622 -0.02280515 0.081660636 -0.008129868 0.013144466 0.09174637 0.10658733
-0.01050375 -0.044877928 -0.029877506 0.025865428 -0.03088549 0.0074975076 -0.06038312 0.01076983
0.018668963 0.04221597 -0.04699884 0.046312418 0.08655454 -0.050960068 0.0107554225 0.072112925
0.074722596 -0.08463327 -0.017906196 0.001580812 0.078407824 0.04911133 0.016409671 -0.071001925
-0.079489134 0.078797445 0.06622617 -0.03165384 0.0284048 -0.02082974 -0.0022980494 0.04046045
-0.017762372 0.046148263 -0.003858842 0.079127654 0.034474652 -0.0089040175 -0.01717703 -0.062227234
0.010264151 0.030721191 0.13071114 -0.047464494 0.05988855 0.076145686 -0.029842 0.08607445
0.067193724 0.07389367 0.04729729 -0.065312475 0.041884493 0.002807694 0.016162232 0.10707772
0.081714146 -0.005182378 0.020149827 0.005084103 0.0075292476 0.03953325 -0.06745249 0.016308155
-0.021799162 0.07899845 0.055207584 0.09117954 0.004439829 0.06877827 0.042278983 0.12749529
-0.009058051 -0.07510291 -0.06949063 0.070335515 0.09912857 -0.028215883 0.039989613 -0.02027297
-0.025661066 -0.040541343 0.091751255 0.008181896 0.03332391 0.04088519 0.07431353 0.021520386

model.model.8.bias f4 [7]
00000000: 8441 b93d a490 fe3c d665 4c3d bde6 863d
00000010: c075 2fbc 70c9 893c 98ef 033d
0.09045699 0.03107483 0.049901806 0.065869786 -0.010709226 0.016819686 0.032210916

model_old.model.0.weight f4 [32, 1, 4, 4]
00000000: 305c 2abe 764a f8bd 82d7 643e a9cb 073b
00000010: 914d 4d3d b524 4b3e 222b 663c cce9 36be
00000020: a8e6 1c3e e3d9 833c 8d60 673e 00b5 1e3d
00000030: 823e d73d f318 b73c 374c ed3d 8deb 193e
00000040: 04db 613d f8fb 223d db15 09be 649c 89bd
00000050: 9a7e 8b3d 09dc dc3d b529 4b3e f0fb 57be
00000060: f374 7fbe 1912 503e ac96 70be 2b57 a4be
00000070: 5459 f2bb 3304 9cbd 05c3 633e 3749 77be
00000080: 8e71 d83d e7ad c0bd 8e0a 55be f434 1f3d
00000090: 47b3 46be be75 ee3d beb1 dfbc cbcf 9bbe
000000a0: 7aa8 91bd 579d 15bd 1066 6f3e aa3a bd3d
000000b0: ec1e dbbc 79bd 6b3e 9104 a53d f245 0a3e
000000c0: 4b82 1f3d 2f12 6dbe c1a1 15be 03e7 0bbe
000000d0: e090 13be 1b63 513e fe03 a4bd 457b 9f3d
000000e0: 6d57 4c3e 6054 2fbe d0ed 383e 2e6d fb3d
000000f0: 9f48 4cbe 3424 243e 402d ecbd 2f80 7a3e
00000100: f8ff e4bc 39a1 b6bd 7a7e 913e 0094 0abe
00000110: 514e 8c3e 91c7 963d 0712 ad3d 3f58 1f3c
00000120: cc2c 733e 0276 923d 5275 babd dae0 94be
00000130: 0a15 1bbe b4f6 38bd c982 ccbd 2c87 12be
00000140: 2114 543d 5610 3f3e 8daa 77be 82a8 62be
00000150: 937f 78bc 1a65 d83d 47df 18bc 9189 7bbe
00000160: c7d0 8f3e c818 373e c147 f7bc 32b7 743d
00000170: f126 893d a363 45be 5d1e 413e ee13 273e
00000180: c5af 0abe c2e0 693d 2365 6fbe e38b 133e
00000190: 8c3a 4dbd ced6 d23d 49b3 85bc 9684 c53d
000001a0: 300e 063e b638 203e 8aa0 413e 9c45 5abd
000001b0: e8cd a3bd e8c6 08bb 8748 6f3e 5358 00be
000001c0: af08 403e 4788 70be 25e2 5f3e ded3 45be
000001d0: 965e 183e d604 57be d7ad 9fbd 1f03 173e
000001e0: 8b78 8d3e 997a 863d 6760 5bbc 6e93 723e
000001f0: 86b8 563e 9118 b0bd 89c0 d7bd 80fe 2fbe
00000200: 7195 42be 4333 cb3d 9bb6 b2bd 7f02 043e
00000210: 32f0 8dbe d2b5 533e 498d 683e 1e0e 7ebe
00000220: 927a 6dbe b8c6 be3c 03f4 203e ce35 e3bd
00000230: 23a5 393e 5966 a73d d34b 493e 92be acbd
00000240: db49 55bd fa61 0f3e c663 5a3e a34a 89bc
00000250: 1ee9 90be 881d 9abc 4461 edbd 3aad 98bc
00000260: ad8c 7c3d 6962 05be 63c7 4b3e 2ebf 2ebe
00000270: b235 6e3e 8c5a ccbd 840e 383d 3c81 8bbd
00000280: 9e51 9e3d a68a ff3d 1e55 84be 2d99 ca3d
00000290: 326e 793e 036b 64be d5c2 90be 0a21 15be
000002a0: d7b2 3b3e 31b0 8c3d 7d1f 8abe 1b1a d1bd
000002b0: d18c ce3c 4787 54bd 5ced e43d 4a50 553e
000002c0: 2de8 a5bd a6c2 c23c da8b 403e ef5c 5ebd
000002d0: 8f03 a5bd 0ec3 3f3e 64ea 6b3e b557 a5bd
000002e0: 707b c33d a65c 693e 9914 253e 9661 383d
000002f0: 438f 173d 9623 62be 4741 34be f5db fe3d
00000300: f1cd e43d 4062 08be 19c7 42bd a7d8 87bc
00000310: 7b78 62bd 44b1 39be f155 64be d411 cfbc
00000320: 0e68 a7bd 4c5b 44be 741e 533e 6c17 0ebe
00000330: b9bb 38be eb77 403d b0d9 1ebe 2be1 e0bc
00000340: 1f79 88bd 56b7 9a3b 4a14 99be 1255 31be
00000350: c2e6 063e b14e 5e3e ddca 2fbe faa1 fd3d
00000360: 3746 cdbd 49fa 86be 9078 723e a4a8 2bbe
00000370: 8a57 453e 84d5 063c 2891 4bbe 9ac0 773d
00000380: 17ab 083e 13b8 e63d 9a46 a83d 82c7 d6bb
00000390: 9850 403d 9141 ca3d 2deb 3a3d 9c3f 87be
000003a0: 04b2 6ebe d465 ed3d df09 25be fb1b 26be
000003b0: 57b7 953e c850 983b 9b04 5d3e 18f0 41be
000003c0: fafc df3b d27b cb3d 6bc1 2fbc 7a86 61bd
000003d0: 9f1e 5a3d 0148 13bd ec9a 86be 587d 073e
000003e0: 74ff 50be 8abe b73d fd26 ac3c f9aa 08be
000003f0: d7fe 3fbe ff24 2d3e 36f3 aabd a599 553e
-0.16636729 -0.12123577 0.22347835 0.0020720756 0.0501228 0.19838221 0.01404837 -0.17862624
0.15322363 0.016095107 0.22595425 0.038746834 0.10509969 0.022350764 0.115868025 0.15031262
0.05514051 0.039791077 -0.13387243 -0.06719282 0.06811257 0.10784156 0.19840129 -0.210922
-0.24946956 0.20319404 -0.23494977 -0.32097754 -0.0073959026 -0.076179884 0.22242363 -0.24149023
0.10568534 -0.09408169 -0.20804808 0.03886886 -0.19404326 0.11643551 -0.027306434 -0.3043197
-0.071122125 -0.036527004 0.23378778 0.09239705 -0.026748143 0.23021497 0.080575116 0.13503245
0.038942616 -0.23151468 -0.14612485 -0.13662343 -0.14410734 0.20447962 -0.08008574 0.07787184
0.19955225 -0.1712203 0.18059468 0.12276684 -0.19949578 0.16029435 -0.11532068 0.2446296
-0.027954087 -0.089174695 0.28416806 -0.1353302 0.274035 0.07362283 0.08450704 0.009725629
0.23747557 0.071514145 -0.09104408 -0.29077798 -0.15144745 -0.04515715 -0.09985883 -0.14309376
0.05177701 0.18658575 -0.24186154 -0.22134593 -0.015167135 0.105661586 -0.009330577 -0.24564196
0.28088972 0.17880547 -0.030185582 0.05974502 0.066968806 -0.1927629 0.18859239 0.16316196
-0.13543613 0.05709911 -0.23378424 0.14408831 -0.050104663 0.10294877 -0.016320841 0.096444294
0.1309135 0.15646634 0.18908897 -0.05328904 -0.07998258 -0.002087051 0.2336751 -0.12533693
0.18753313 -0.23489486 0.21863611 -0.19319102 0.14879832 -0.20997939 -0.07796829 0.14747284
0.2763103 0.065663524 -0.013389683 0.23689052 0.20968828 -0.08598436 -0.1053477 -0.17186928
-0.1900232 0.09921887 -0.087262355 0.12891577 -0.27722317 0.20674828 0.22710146 -0.24810073
-0.23191288 0.023288116 0.15718083 -0.11094247 0.18129401 0.08173818 0.19657831 -0.08434786
-0.052072387 0.14002219 0.21327123 -0.016759222 -0.28302854 -0.01881291 -0.115908176 -0.018637288
0.061657596 -0.13025822 0.19900279 -0.17065117 0.2326267 -0.09978208 0.04493572 -0.06811759
0.07730411 0.12477617 -0.2584619 0.09892497 0.24358442 -0.22306447 -0.28273645 -0.14563385
0.1832994 0.06869543 -0.2697715 -0.10210057 0.02521363 -0.051886823 0.11178085 0.20831409
-0.08100925 0.023774456 0.18803349 -0.054287847 -0.080573194 0.18726751 0.23038632 -0.080733694
0.09545028 0.22789249 0.16121139 0.04501494 0.03700186 -0.22083887 -0.17603026 0.12444297
0.11172093 -0.1331873 -0.047553156 -0.0165828 -0.05529068 -0.18134028 -0.22298409 -0.025277056
-0.08174144 -0.19175452 0.20617086 -0.13876122 -0.1804036 0.046989363 -0.15512729 -0.027451118
-0.06663727 0.0047215624 -0.29898292 -0.17317608 0.13173965 0.21709706 -0.1716723 0.1238441
-0.10023158 -0.26362827 0.23678803 -0.1676355 0.19271675 0.008229617 -0.19879591 0.060486414
0.13346516 0.11265578 0.08216591 -0.006554545 0.04695186 0.09875787 0.045634437 -0.26415718
-0.23310095 0.11591688 -0.16117047 -0.16221611 0.2924144 0.0046483018 0.21583788 -0.18939245
0.006835577 0.09935726 -0.010727267 -0.055059887 0.05325186 -0.03595734 -0.2629007 0.13231409
-0.20409948 0.08971889 0.021014685 -0.13346471 -0.18749557 0.16908644 -0.0834717 0.20859392

model_old.model.0.bias f4 [32]
00000000: 7f1b 973c 89d3 0fbe 2bc2 38be a4ce a2bd
00000010: 9acc 17be f02b 4fbe 937d 553c e375 c43d
00000020: bf9b 8b3d 9982 2b3e 1e9a 013c 905b 3ebe
00000030: 3659 b93d 2300 a53d fd2c 223e ab4f 543e
00000040: 0053 753e 495c c53d 27fa 82bd c3cf a2bb
00000050: 29c1 803e 8c3a 563e 0218 143e 1dd0 aa3e
00000060: b298 273e 6524 ab3d 0fb9 b23d a1bc 913e
00000070: 643f 3c3e 1280 36be 65c4 4b3e 0c9f 25be
0.018445728 -0.14045538 -0.18042819 -0.0794957 -0.14824143 -0.20231605 0.0130304275 0.095927976
0.068168156 0.16749038 0.00791028 -0.18589616 0.09050219 0.08056667 0.15837474 0.20733516
0.23957443 0.096367426 -0.06395369 -0.004968615 0.2514737 0.20920771 0.14462283 0.33361903
0.16366842 0.08356551 0.087267034 0.28464225 0.18383557 -0.17822292 0.19899137 -0.16173953

model_old.model.4.weight f4 [128, 384]
00000000: 9525 acbc fc0f 0fbd fffe c8bb 2a06 6a3d
00000010: 9106 3c3d c183 7d3d c170 8f3c 70a1 db3c
00000020: c913 0e3d 4ab7 8e3c 39f0 31bd 4d5c 15bd
00000030: afb2 313d da5a 0c3e e1e2 d73c 2839 943d
00000040: f919 773c 8b91 563c 5643 463c 751c 5bbc
00000050: 7e6c c53d 9078 97bc 7d31 74bc 24b5 c73d
00000060: b760 cc3d fe32 c43d 4c31 5e3d 9edc 3f3d
00000070: 010f 423d 68de 583d c2ea f73c 65a1 473d
00000080: a08e 223d b7d7 273d 47b7 35bd 92a8 cfbc
00000090: ad40 a73c 49ab b23c 298b 023d 0810 5abb
000000a0: 7fbb da3c fddb ac3c a21c b53d 9b9a a73d
000000b0: e974 bd3d c0e9 43bd ffb5 883d 47fd a9bb
000000c0: f61a 2bbd 8278 bdbd 5641 76bc bc9e e53c
000000d0: b462 153d 4684 fc3b 84dc 23bd b723 4f3c
000000e0: c1ac d43c d6fc ed3c 3fd5 4d3d 94fb 843d
000000f0: ec72 a8bd f2c7 c53c 1375 20bd 65be 74bd
00000100: b4df ecbc c184 f53d 6500 673d cdd7 203d
00000110: 42fd a13d 7592 b93d 055c 2d3d c429 fb3c
00000120: f6e6 b3bd e51d 133c 4cba 7ebd 6913 0d3d
00000130: a630 9f3c a878 d4bc 3a4c b4bc 15c7 97bb
00000140: 11c7 813d f803 003c f6fb 823d 55fd 593d
00000150: 35e5 69bc d9a4 0cbc b931 263c 8d07 edbc
00000160: bce0 2dbd db10 1abc 586f 7b3d 0270 27bc
00000170: d25b 4d3c c079 7f3d 927a c33d eb48 603d
00000180: 7592 d23b 100c 773d 9c4c 4a3d dc6a 743d
00000190: d176 5dbc eaa3 073c 99c1 963d e676 ce3b
000001a0: 920f ba3c 322f 173d f4c1 0cbd 0d0c 3d3d
000001b0: 2fa1 f13c 720a 0cbc 249c f43a 4360 333d
000001c0: c596 2f3d b283 8e3d fd67 1fbd 9300 393d
000001d0: a3f3 933c 3f42 04bd 4bcf 8bbc cea8 34bd
000001e0: 2aad 0ebd 4e47 c63c 9540 19bc 24d9 48bc
000001f0: 7dc5 28bc ad0b ad3d 2522 8f3d b443 e23c
00000200: cea7 c93d 0fb7 f93c 3239 b5bc 6819 503d
00000210: 5999 16bd fd14 06bd e28d 10bd 331f af3c
00000220: 1cff 1c3c 598f a03c 9f8b 1dbd 40c0 62bd
00000230: f92e 17bc 5251 6dbd a684 5dbc ef42 993c
00000240: 2b56 073e 8fb2 4bbc e4d0 563e defa dc3d
00000250: 9ff2 0f3e 4f5a 3dbd e8dc 153e e9a4 073e
00000260: ccbe 93bc 6127 b0bc 19a4 133e 9ab5 1f3d
00000270: b9d8 ac3c 21c8 213e e6de 953d 8401 813d
00000280: 09dc 5ebc 7cb3 223e ee98 493c 5d97 a43c
00000290: 9881 013e f9d7 3e3e 1c12 143e d63d 253e
000002a0: 24f3 ac3c 2ddc fa3c 4514 49bc 0773 a03d
000002b0: 2968 613c 90b5 303d f347 f43c 0b4e 563d
000002c0: 691f 663d 7dfd 143d 8222 443d c6b1 a9bc
000002d0: e0b6 d03d cf88 8c3d a645 183a 9eaf 8e3d
000002e0: 8d46 183d 25bf 303c 9385 f13d 3529 7b3c
000002f0: ef72 a43d 8b13 213d 1dfa 363d de72 5d3d
00000300: a379 d93d 2c77 f83c 2ffa ac3d 228b a43c
00000310: e14e ed3c 1e37 cfbd be02 b83d 0aef a13d
00000320: 251c 963b 10b4 69bd 3b6a 003e fd20 a63d
00000330: a64d 343d 9ddb a4ba 6c93 173c 0629 433d
00000340: 87d9 fd3b 17f1 503d 5511 36bd 4022 7c3c
00000350: 60f2 313c c826 103d e10b 9e3d a5fa d13d
00000360: 18db b33d 6b1d b83d 6617 d93d c98f f73d
00000370: 82f2 153e a31b ae3d 2e84 113d 1a12 a5bb
00000380: 4925 8e3d 0bdf 453d f6e7 173e 11b8 c93d
00000390: bb3d 14bc f3c6 da3c 8548 183e 680a d03d
000003a0: 53a0 cd3c a3b8 72bc 37da 813c d117 b43d
000003b0: cb81 6cbb ca15 bf3d 3d79 25bd 32f7 a83b
000003c0: 3ae3 aebc f037 223c 47b5 5e3c 52d0 333d
000003d0: e691 fd3c ac8c 503d 1fcf 8abc 0e17 c7bc
000003e0: 04ec 603b 3b62 9bbc 7a4f ee3c 616e c3bc
000003f0: c605 a03d 9b7f 963d da1b b2bc 25d4 163d
-0.021014014 -0.034927353 -0.0061339135 0.057134785 0.0459047 0.06189323 0.01750982 0.026810378
0.034686837 0.017421383 -0.043441985 -0.036464978 0.043383297 0.13706532 0.026353301 0.07237464
0.015081876 0.013096224 0.012101015 -0.013373484 0.09639834 -0.018490106 -0.014904377 0.09751347
0.099793844 0.095800385 0.054246232 0.046841256 0.04737759 0.052946478 0.030263308 0.048737902
0.0396868 0.040977206 -0.04436424 -0.025348935 0.020416582 0.02181019 0.031870995 -0.0033273716
0.026700733 0.021100992 0.08843352 0.081837855 0.092508145 -0.047830343 0.06675338 -0.0051876637
-0.04177376 -0.09251501 -0.015030226 0.028029792 0.036471084 0.007706198 -0.040005222 0.012642792
0.025961282 0.029051226 0.050252195 0.06493297 -0.082250446 0.024143193 -0.03917415 -0.059751887
-0.028915264 0.119882114 0.05639686 0.039268304 0.07909633 0.090611376 0.042324085 0.030659564
-0.08784287 0.008979295 -0.062189385 0.03444234 0.019432377 -0.02593644 -0.022009004 -0.0046318867
0.06336797 0.007813446 0.06395714 0.053220112 -0.014275839 -0.008584225 0.010143691 -0.028934265
-0.04245065 -0.009403433 0.061385483 -0.010219576 0.012534099 0.06237197 0.09544863 0.05475704
0.0064261504 0.060314238 0.049389467 0.05967222 -0.013517098 0.008278826 0.073611446 0.006300795
0.022712503 0.036910243 -0.034364656 0.04615407 0.029495804 -0.008547412 0.0018662256 0.043792974
0.042868394 0.06958713 -0.03891753 0.045166563 0.018060511 -0.03228974 -0.017066618 -0.044106297
-0.03483311 0.024203923 -0.009353776 -0.012258802 -0.010300991 0.084494926 0.069889344 0.027620174
0.09846459 0.030482797 -0.022122 0.05080548 -0.036767337 -0.03273486 -0.03529156 0.021377182
0.009582307 0.019599603 -0.03846323 -0.055359125 -0.009227508 -0.05793888 -0.013520395 0.018708674
0.13216464 -0.012432708 0.20978123 0.107900366 0.14057396 -0.046228703 0.1463505 0.13246502
-0.018035315 -0.021503152 0.14418067 0.038991548 0.021099435 0.15799 0.07317905 0.06299117
-0.013602265 0.1588878 0.012304528 0.020091707 0.12647092 0.18637075 0.14460033 0.1613687
0.021112032 0.030622566 -0.012272899 0.0783444 0.013757744 0.0431419 0.029819464 0.05232052
0.0561823 0.036374558 0.04788447 -0.020714652 0.10191131 0.06862032 0.0005808718 0.0696709
0.037176657 0.01078776 0.117930554 0.015329649 0.08029734 0.03932528 0.04467212 0.054064624
0.106189035 0.030330263 0.08446156 0.020085875 0.028968276 -0.10117935 0.08984898 0.07906921
0.004580992 -0.057056487 0.12540524 0.08111761 0.044019364 -0.0012577657 0.009251457 0.047646545
0.0077468785 0.05101117 -0.044450123 0.015389025 0.010861009 0.035193235 0.077171095 0.10252885
0.08782023 0.08989986 0.10600166 0.12087972 0.1464329 0.08501365 0.035526447 -0.0050375583
0.06940705 0.048308413 0.1483458 0.09849561 -0.009047921 0.026706195 0.14871414 0.10158235
0.025100863 -0.014814529 0.015851123 0.08793605 -0.0036088105 0.09330328 -0.040398825 0.005156421
-0.021348584 0.009901032 0.013593025 0.04389984 0.030953359 0.050915405 -0.016944466 -0.024302986
0.0034320364 -0.018967738 0.029090632 -0.023856344 0.07813601 0.073485576 -0.021741796 0.03682341

model_old.model.4.bias f4 [128]
00000000: f1e2 643d e37c 743c 5a71 b03b 110c 703d
00000010: 0c88 093d 6516 bdbc 85d4 803d 1e2f cabc
00000020: fcc3 243a 94bd 0abb 2911 8bbb 5485 8c3d
00000030: e5ad 6e3d b6c8 6ebd 4698 dbba 571d 77bd
00000040: eec7 863b 767a 42bd 29af 393d 9904 c63d
00000050: 3438 913c 8ead 4e3d f9ac 103c c73f a33d
00000060: a4e9 0e3d b5ca b2bc e33f 20bd 4aad 823c
00000070: 4c60 093d 20e8 3e3b c290 013c 9e93 40bd
00000080: e6e1 5c3d 1153 933d 7323 343d 4fc0 54bb
00000090: 35d1 0fbd 2594 16bd 1883 303d 5394 9b3d
000000a0: 6464 1fbd 7af2 bd3c c2e1 7dbc 9a3d b03c
000000b0: b7b0 d0bc ed61 adbb 4f33 55bd 1f56 1cbc
000000c0: d261 bf3c 7502 aebc 291b f73c 4a60 e73c
000000d0: 4385 483a 2a77 063d a03d 78bc 33aa 333c
000000e0: 1e9c f6bc 0526 c0bc a23d ad3d a25a 173d
000000f0: eb9b 00bb 5c0d dc3c ade8 6a3d 2d05 cebc
00000100: f7ca 0e3d 77d7 463d f3d8 24ba 0b4b 1a3d
00000110: c4a2 053d b06f de3c 922b 923d 9bd1 3c3d
00000120: 7f6d 5b3d d074 213d 5545 3e3c eab0 473d
00000130: 59dd 17bc 1897 843d 6310 8a3d 1c9e 873c
00000140: 4d1c 953d 61fb da3c a2ca 05bc 2990 87bc
00000150: 79f8 57bd dc92 233d 5578 1cbd 930d 153d
00000160: b3f4 e33c c621 f2bc 4d53 313d 831d c2bb
00000170: 9e4a 743d 914f c4ba 85a1 dc3c 7455 ed3c
00000180: bd17 9a3d e1ba 033d f356 483d 62d0 bf3c
00000190: 5925 4c3d 22d5 fa3c da8a 61bc e35d 913d
000001a0: 9f09 10bd 1bc3 04bb db1f 993d 2dc4 523d
000001b0: 5d6d 3dbd 9c1f 3abd 89e6 923d bd7c 11bd
000001c0: 6ecf 3a3a 59bd 433c 5697 353c 370a 713d
000001d0: 36c4 8f3d 6a13 8abd a0a0 2a3d 3a07 253b
000001e0: 3e41 fb3b b1e2 733d 94f7 9bbc 1027 a7ba
000001f0: 3223 9ebc b526 4ebd 81e4 01bc 3ee6 113d
0.05588049 0.014922353 0.0053846063 0.058605257 0.03357701 -0.023081968 0.06290535 -0.02468067
0.00062853075 -0.0021170126 -0.004243989 0.06861368 0.058271307 -0.05829688 -0.0016753755 -0.060330715
0.004113189 -0.04748007 0.04533306 0.09668846 0.017726995 0.050458483 0.008830302 0.07971149
0.034890786 -0.021825174 -0.039123427 0.015951771 0.0335391 0.0029130057 0.007908048 -0.04701578
0.05392637 0.07193578 0.04397912 -0.0032463258 -0.035111625 -0.036762375 0.04309377 0.0759665
-0.0389141 0.02318691 -0.015495719 0.021513749 -0.02547489 -0.0052912147 -0.052050885 -0.009542017
0.023362074 -0.021241406 0.030164318 0.028244156 0.0007649252 0.032828487 -0.015151411 0.010965872
-0.03010374 -0.02345563 0.08459021 0.03695167 -0.0019624184 0.026861839 0.057350803 -0.025148952
0.03486153 0.048545327 -0.00062884315 0.037669223 0.03262593 0.027152866 0.07137217 0.046098333
0.05357122 0.03941804 0.01161321 0.048752703 -0.009269082 0.06474131 0.06741407 0.016554885
0.072807886 0.026731195 -0.008165987 -0.016548233 -0.052727196 0.039934978 -0.038200695 0.0363899
0.027826643 -0.02955712 0.043292332 -0.005923928 0.059641473 -0.0014977326 0.026932487 0.028971411
0.07524059 0.032160643 0.048911046 0.023414794 0.049840305 0.030619208 -0.013766015 0.070979856
-0.035165425 -0.0020257893 0.07476779 0.05145662 -0.046246875 -0.0454403 0.07172877 -0.03551935
0.00071262463 0.0119469995 0.011083445 0.058847632 0.07019846 -0.06741984 0.04165709 0.002518131
0.0076676896 0.05954236 -0.019038953 -0.001275273 -0.019303892 -0.050329883 -0.007928015 0.035619967
