project/paper_notebooks/saved_variables/paper_notebooks/8/6-20epoch_100loop/looping-iteration-52/best_policy_agent1.pth (torch, 320501 bytes, 16 tensors)

model.model.0.weight f4 [128, 42]
0	0xbdde994e	-0.10869084
1	0xbd8cab54	-0.06868616
2	0x3dfc35be	0.12314938
3	0xbd0600c9	-0.032715593
4	0x3d140f57	0.03614744
5	0x3de9e341	0.11420298
6	0x3cbd8cff	0.023138521
7	0xbdfc88b1	-0.12330759
8	0x3d9057e5	0.070480146
9	0xbbdaf84c	-0.0066824313
10	0x3dfa0f2d	0.12209926
11	0x3ca07359	0.019586252
12	0xbc4377bd	-0.011930403
13	0xbcf044fc	-0.02932977
14	0x3c6ff934	0.014646817
15	0x3da6b57e	0.08140086
16	0x3b8b2afe	0.0042470684
17	0xbc726eb1	-0.014796899
18	0xbe1320c5	-0.1436797
19	0xbd7aa8ce	-0.06119614
20	0x3c9c4a37	0.019078357
21	0x3d603f19	0.054747675
22	0x3de24b2b	0.110494934
23	0xbdb8781c	-0.09007284
24	0xbd9926c6	-0.074780986
25	0x3e02d415	0.12776215
26	0xbdf24c04	-0.11830905
27	0xbdb184af	-0.086678855
28	0xbc4f865f	-0.012666314
29	0xbd037c86	-0.032101177
30	0x3e00dc73	0.12584095
31	0xbe11341a	-0.14180031
32	0x3d09a48a	0.033604182
33	0xbd232359	-0.039828632
34	0xbe11b8e1	-0.14230682
35	0x3d323871	0.043510858
36	0xbd6fb889	-0.058525596
37	0x3dd107e4	0.10206583
38	0xbbf43c2e	-0.007453463
39	0xbe035b3d	-0.12827773
40	0xbd163e19	-0.036680315
41	0xbd301f31	-0.042998496
42	0x3dd65192	0.10464777
43	0x3cad0815	0.021122018
44	0xbd814b39	-0.06313176
45	0x3db30d3a	0.08742757
46	0x3ca2a354	0.019853272
47	0x3d792903	0.060830127
48	0x3ce75c9f	0.028242407
49	0xbe389f67	-0.18029557
50	0xbe1eebbc	-0.15519613
51	0xbded6198	-0.1159088
52	0xbdcbb9ed	-0.09947572
53	0x3e012b90	0.12614274
54	0xbd9a81a1	-0.07544256
55	0x3d4b8360	0.049685836
56	0x3da8fc76	0.08251278
57	0xbe1f8c7e	-0.15580937
58	0x3d6db63d	0.058035124
59	0x3d4a1698	0.049337953
60	0xbe2f38ec	-0.17111558
61	0x3d87eae5	0.066365995
62	0xbdc03543	-0.09385159
63	0x3dd1f22c	0.10251269
64	0xbd422a42	-0.04740358
65	0xbda4325a	-0.08017416
66	0x3e03a6a2	0.12856534
67	0xbe086758	-0.13320673
68	0x3dfec89b	0.12440606
69	0x3d9fb8a9	0.07798893
70	0x3b656c1c	0.0035007065
71	0x3b21b177	0.0024672428
72	0x3de2f191	0.110812314
73	0x3d2e8638	0.04260847
74	0xbd966458	-0.07343358
75	0xbe30ff8a	-0.1728498
76	0xbe0376b2	-0.12838247
77	0xbda95451	-0.08268035
78	0xbdf380f8	-0.11889833
79	0xbda6cc7a	-0.081444696
80	0x3cfa65a3	0.030566042
81	0x3de46e8f	0.111539
82	0xbe3beb81	-0.18351556
83	0xbdfdbb04	-0.12389186
84	0xbd37d28b	-0.044878524
85	0x3d7a8b2e	0.06116789
86	0xbcdf7be8	-0.027280763
87	0xbe3be2bc	-0.18348211
88	0x3e1c333f	0.15253924
89	0x3d8e9de2	0.069637075
90	0xbc96c41d	-0.018404061
91	0x3c8f16dc	0.017466955
92	0x3cb595bc	0.022166125
93	0xbe43c580	-0.19118309
94	0x3d73324d	0.059374142
95	0x3dbcc5ab	0.0921739
96	0xbddcc9c9	-0.10780675
97	0x3c2887e7	0.010286308
98	0xbe3ee266	-0.18641052
99	0x3dfc4782	0.123183265
100	0xbda68f85	-0.08132843
101	0x3c9350ef	0.017982928
102	0xbd01b851	-0.03166992
103	0x3d6216a3	0.05519737
104	0x3be58ec3	0.007005544
105	0x3d89a4bf	0.06720876
106	0x3dfb9190	0.12283623
107	0xbca44c62	-0.020055953
108	0xbd450e88	-0.04810956
109	0xbcbd4b0b	-0.023107072
110	0x3e0193c2	0.12654021
111	0xbdfd8cdf	-0.12380385
112	0x3dd7ab5d	0.10530732
113	0xbd97c2ad	-0.07410178
114	0x3e2b309e	0.16717765
115	0xbde33fc3	-0.11096146
116	0x3d8fe0a0	0.07025266
117	0xbdd1173c	-0.1020951
118	0xbd50311a	-0.050828077
119	0x3dd7842a	0.10523255
120	0x3e274b17	0.16337238
121	0x3d7212bd	0.0590999
122	0x3c33671a	0.010949874
123	0x3e21b00c	0.15789813
124	0x3db3f2c1	0.08786536
125	0xbdee54b3	-0.11637249
126	0xbddcae8c	-0.1077548
127	0xbe264e54	-0.16240817
128	0xbddae812	-0.10688795
129	0x3a2531e8	0.0006301687
130	0xbdd64739	-0.104628034
131	0x3dbdf0da	0.092744544
132	0xbe0fe525	-0.14052255
133	0x3e093b16	0.13401446
134	0x3da1430e	0.07874118
135	0xbe000b0e	-0.12504217
136	0xbe2c95fb	-0.16854088
137	0xbd0e391f	-0.034722444
138	0x3d9c31ce	0.07626687
139	0xbc77819b	-0.015106584
140	0x3dcb79df	0.099353544
141	0xbbaea92a	-0.0053302245
142	0x3da11a4d	0.078663446
143	0xbd7cef75	-0.0617518
144	0xbdbf5ea0	-0.0934422
145	0x3dd820e1	0.10553146
146	0x3de64357	0.11243313
147	0xbc349d07	-0.011023766
148	0xbe2e0100	-0.16992569
149	0x3cf4e042	0.02989209
150	0xbd34a20d	-0.044099856
151	0x3cb20cd1	0.021734627
152	0x3daa0b6f	0.08302962
153	0xbd8440de	-0.06457685
154	0x3e0133da	0.12617436
155	0xbd54e4b4	-0.05197592
156	0x3df22972	0.11824311
157	0xbd7c769b	-0.06163655
158	0x3b0f23e8	0.002184147
159	0xbd0521a6	-0.032502793
160	0x3d398815	0.045295794
161	0x3dd58289	0.10425288
162	0xbe02a3d3	-0.12757806
163	0x3da529a2	0.080645815
164	0x3e2003a0	0.15626383
165	0xbdb219e7	-0.08696347
166	0xbe01dc9a	-0.12681809
167	0xbd8ae8e9	-0.06782705
168	0x3dbb2590	0.09138024
169	0x3d9b60f6	0.07586853
170	0xbde0e8d0	-0.109819055
171	0xbd93d649	-0.07218606
172	0x3c7a952b	0.0152943535
173	0xbd1e9576	-0.038716756
174	0x3dae092f	0.084978454
175	0x3dc2059e	0.09473728
176	0xbd806724	-0.062696725
177	0x3c803fdb	0.015655449
178	0x3d872054	0.06597963
179	0xbac168cb	-0.0014755962
180	0xbdc236eb	-0.09483131
181	0x3de24acd	0.11049423
182	0x3ddbc651	0.10731185
183	0xbdc1bceb	-0.09459861
184	0xbc990ea6	-0.018683743
185	0x3dcbf875	0.09959499
186	0x3da1734b	0.078833185
187	0x3cf28ace	0.029607203
188	0xbd146cc3	-0.036236536
189	0xbe145675	-0.14486106
190	0xbe356eb7	-0.17718016
191	0x3dc2c748	0.09510666
192	0x3d577c5c	0.052608833
193	0xbe0b9ea6	-0.13634738
194	0xbd57f8d4	-0.052727535
195	0x3c2c25dd	0.010507074
196	0xbcfedb1b	-0.031110337
197	0xbe0f9725	-0.14022501
198	0xbe0bbb56	-0.13645682
199	0x3c386991	0.011255638
200	0xbe1c6506	-0.15272912
201	0xbe0a3fd7	-0.13500915
202	0x3e022065	0.1270767
203	0xbd2bfb77	-0.041987862
204	0xbe473bd0	-0.1945641
205	0x3cf63b8d	0.030057693
206	0xbde5a5cb	-0.11213263
207	0xbd4044ff	-0.0469408
208	0xbd31db00	-0.043421745
209	0x3c998032	0.018737886
210	0xbe285658	-0.16439188
211	0xbdd858cc	-0.10563812
212	0x3d33f9b6	0.043939315
213	0x3de835ed	0.113384105
214	0xbdafd201	-0.08584977
215	0x3cf68ccb	0.030096432
216	0xbe053d79	-0.13011731
217	0xbe582980	-0.21109581
218	0x3de62600	0.11237717
219	0xbde938d3	-0.113877915
220	0x3d096371	0.0335421
221	0xbb1af74b	-0.0023645933
222	0xbe53706e	-0.20648357
223	0xbd50804e	-0.05090361
224	0x3d86d345	0.06583265
225	0x3d57618e	0.05258327
226	0xbb3d8ce9	-0.00289231
227	0xbd722ce9	-0.05912486
228	0x3cea7eec	0.028624974
229	0x3d805b73	0.062674426
230	0xbc8f5e46	-0.017501008
231	0xbe2e1ba4	-0.17002732
232	0xbde1e62e	-0.110302314
233	0x3d9265e2	0.07148339
234	0xbdaba6e2	-0.0838144
235	0xbdaf55fb	-0.08561321
236	0x3e0d9234	0.13825303
237	0xbb7dadf0	-0.003870841
238	0x3db80a87	0.08986383
239	0xbd7a89a2	-0.061166413
240	0x3c5f9cd0	0.013648227
241	0x3d8e8437	0.06958812
242	0xbd29bccf	-0.041439828
243	0xbd11187b	-0.035423737
244	0x3d998d44	0.074976474
245	0xbd1d843e	-0.038456194
246	0xbdcea348	-0.10089737
247	0x3dfd20e3	0.12359788
248	0xbddb327f	-0.10702991
249	0x3d371bec	0.044704363
250	0xbb453320	-0.0030090287
251	0xbd73b2e3	-0.05949677
252	0xbddc1aec	-0.107473224
253	0x3de45655	0.11149279
254	0xbda52785	-0.080641784
255	0x3e3d75fc	0.18502039

model.model.0.bias f4 [128]
0	0x3e80e062	0.2517119
1	0xbdbf2c5d	-0.093346335
2	0xb99388ca	-0.0002813994
3	0xbdc5f54a	-0.09665926
4	0x3e35de40	0.17760563
5	0x3e30f1e5	0.17279775
6	0x3e77d688	0.24202931
7	0x3dd8cc4a	0.1058584
8	0x3e95b082	0.29236227
9	0x3e6bf28e	0.23041746
10	0xbdc723e2	-0.09723641
11	0x3e82bda9	0.25535324
12	0x3e91e8c2	0.28497893
13	0xbdbfeb9f	-0.09371113
14	0x3cdc94ff	0.026926516
15	0x3e7d960c	0.2476427
16	0x3e2b9ea3	0.16759734
17	0x3e1277c6	0.14303502
18	0xbd0a7821	-0.03380597
19	0xbd8c6d38	-0.06856769
20	0xbd60b44a	-0.054859437
21	0x3df2e114	0.118593365
22	0x3e78625d	0.24256273
23	0xbdad9c8e	-0.08477126
24	0xbda2a6d4	-0.07941976
25	0xbc857957	-0.01629321
26	0x3e2c8df0	0.1685102
27	0xbd8bc00a	-0.06823738
28	0xbd1fe093	-0.03903253
29	0xbe1ea17f	-0.15491293
30	0x3e24e572	0.16103151
31	0x3e2ebd32	0.1706436
32	0x3dbe1975	0.09282199
33	0x3e7c6020	0.24646044
34	0x3e721c56	0.23643622
35	0x3e73eec0	0.23821545
36	0x3db6e968	0.089312375
37	0xbde0f23e	-0.10983704
38	0xbc3b70ea	-0.011440495
39	0x3e89a3a7	0.2688267
40	0x3e184488	0.14869893
41	0xbdb19218	-0.08670443
42	0x3e92b75b	0.28655514
43	0x3e26b2b9	0.16279115
44	0x3e483ae3	0.19553714
45	0x3e9268e0	0.28595638
46	0x3e646e21	0.22307636
47	0x3df90a69	0.12160189
48	0x3e8e7b6d	0.2782854
49	0x3e86e3c1	0.26345637
50	0xbddc0b80	-0.10744381
51	0xbca47206	-0.020073902
52	0xbd969ead	-0.07354484
53	0x3e886100	0.26636505
54	0x3e5fd770	0.21859527
55	0x3ec1b394	0.3783232
56	0xbd86eff6	-0.06588738
57	0x3e815368	0.25258946
58	0x3e5cd00e	0.21563742
59	0x38661448	5.485516e-05
60	0x3eca4364	0.3950454
61	0xbd509c20	-0.050930142
62	0x3e54e9cd	0.20792313
63	0xbc2dac7f	-0.010600208
64	0xbcde5419	-0.02713971
65	0x3e115d91	0.14195849
66	0x3e08c380	0.13355827
67	0xbda337b8	-0.07969612
68	0xbc5a3c0a	-0.0133199785
69	0x3d30ccbb	0.043163996
70	0x3d46208f	0.048370894
71	0x3e7adfc4	0.24499422
72	0x3e93848d	0.28812066
73	0x3d1609bf	0.03663039
74	0x3e893f90	0.26806307
75	0x3e93d2ec	0.28871858
76	0x3dc949e7	0.09828549
77	0xbd45451d	-0.048161615
78	0x3e970fe8	0.29504323
79	0x3e7b430d	0.24537297
80	0x3e1707fb	0.14749138
81	0x3e34e6ca	0.17666164
82	0xbde3cce9	-0.11123068
83	0xbd854252	-0.0650679
84	0xbde9028a	-0.113774374
85	0x3e189e95	0.14904244
86	0x3e88e083	0.2673379
87	0x3e02ea19	0.12784614
88	0xbc986834	-0.018604375
89	0x3defceb6	0.11709349
90	0x3d8d6943	0.06904843
91	0x3e8b3551	0.27189115
92	0x3e0c3d31	0.13695218
93	0x3e4abb55	0.19798024
94	0x3e8d7851	0.27630857
95	0x3e5bf3be	0.21479699
96	0x3e3bbc9c	0.18333668
97	0x3ea4315d	0.3206891
98	0x3dc9bdc6	0.098506495
99	0xbdef02f8	-0.11670488
100	0x3e6fc736	0.23415837
101	0x3e679060	0.22613668
102	0x3e5f2944	0.21793085
103	0xbd9a1b33	-0.07524719
104	0xbdd4b9fc	-0.10387036
105	0x3e9aa678	0.3020513
106	0xbe0216a3	-0.12703948
107	0x3dfd9358	0.12381619
108	0x3e65a7f0	0.22427344
109	0x3e4814ef	0.19539236
110	0xbd99caa6	-0.07509355
111	0x3df79ecb	0.12090834
112	0x3e66dd04	0.22545248
113	0xbd11feec	-0.035643503
114	0xbc641020	-0.01391986
115	0x3e2217e1	0.15829422
116	0xbd1f57af	-0.03890198
117	0x3d711803	0.05886079
118	0x3e1a477e	0.15066335
119	0x3e6be4c6	0.23036489
120	0xbd0a682a	-0.033790745
121	0x3cc832d5	0.024438301
122	0x3e82bf7d	0.2553672
123	0x3e124470	0.1428392
124	0x3e884e10	0.26622057
125	0x3e747ee2	0.23876527
126	0x3e445ecc	0.19176787
127	0x3e50be52	0.20385101

model.model.2.weight f4 [128, 128]
0	0x3d8c9d47	0.06865936
1	0xba819512	-0.0009886345
2	0x3c81caa6	0.0158437
3	0xbd3a22b6	-0.04544326
4	0xbc97da75	-0.018536786
5	0xbcadba30	-0.021206945
6	0x3e60100e	0.21881124
7	0x3d0524bc	0.032505736
8	0x3d09453c	0.033513293
9	0x3c917103	0.017754083
10	0x3ddca4f0	0.10773647
11	0x3d9c3839	0.07627911
12	0x3db54cc6	0.08852534
13	0xbd11a5a4	-0.035558358
14	0x3c42fcc0	0.011901081
15	0x3dca46d6	0.09876792
16	0x3de59422	0.11209895
17	0xbdb914a1	-0.09037138
18	0xbda582b2	-0.08081569
19	0x3c79669d	0.015222219
20	0xbdcfa1d4	-0.10138288
21	0xbd850264	-0.064945966
22	0x3d94ce97	0.072659664
23	0xbda84bf8	-0.08217615
24	0x3dc915ef	0.098186366
25	0xbd8fe755	-0.07026545
26	0xbd966bf9	-0.07344813
27	0xbd01484d	-0.031563092
28	0xbd47ef82	-0.048812397
29	0x3d19752f	0.03746527
30	0xbd0f73d9	-0.03502259
31	0xbd2f2a17	-0.04276475
32	0xbd90afde	-0.07064794
33	0xbd48dbd2	-0.049037762
34	0xbd64ed58	-0.05589041
35	0xbd6d945c	-0.058002815
36	0x3dd8842d	0.105720855
37	0xbc48c882	-0.012254836
38	0xbd10558a	-0.035237826
39	0x3b1c051f	0.0023806763
40	0xbd86f5c4	-0.06589845
41	0x3e0dcb21	0.13847019
42	0x3d578232	0.0526144
43	0xbc210949	-0.009828874
44	0x3d55faf5	0.052241284
45	0xbc3abb74	-0.011397231
46	0xbd5a5078	-0.053299397
47	0x3dafd210	0.08584988
48	0xbb535ea1	-0.0032252448
49	0xbd8faf71	-0.07015885
50	0x3c28b8d0	0.010297969
51	0xbd0eff4f	-0.03491145
52	0xbdc2749c	-0.09494898
53	0x3cc2b873	0.023769593
54	0xbddffce5	-0.10936908
55	0x3e7b637f	0.24549673
56	0x3dae4826	0.08509855
57	0xbd9c4b41	-0.07631541
58	0x3cac10e6	0.021004152
59	0x3d4c2396	0.049838625
60	0x3e762d7d	0.2404079
61	0x3dbbca39	0.0916943
62	0x3e13f143	0.14447503
63	0x3dc13c98	0.094353855
64	0xbd3d4b19	-0.046214197
65	0xbd70a8e5	-0.05875482
66	0x3d17cb44	0.037059084
67	0xbd1aa386	-0.037753604
68	0xbc3ac486	-0.011399394
69	0xbc9b5de1	-0.018965663
70	0x3cf3df2f	0.029769508
71	0x3e086a2b	0.1332175
72	0xbcd29f79	-0.025710808
73	0x3ceb4cd0	0.02872315
74	0x3ca91da2	0.020644013
75	0x3db87aed	0.09007821
76	0xbcbf827b	-0.023377648
77	0x3d7a8150	0.06115848
78	0xbcb1ba24	-0.021695204
79	0x3df10922	0.1176932
80	0x3dd17cc6	0.10228877
81	0x3c923468	0.017847255
82	0xbc1eb5a5	-0.009686862
83	0xbdcc3c46	-0.09972434
84	0xbcc47138	-0.023979768
85	0x3d991989	0.074755736
86	0x3d4a8067	0.04943886
87	0xbd6a7fe5	-0.057250876
88	0xbcbf9857	-0.023388071
89	0xbd2a6a5a	-0.04160533
90	0xbb9fb8d1	-0.0048743268
91	0x3ce1a895	0.027546206
92	0xbcce9df1	-0.025221797
93	0xbcd22de7	-0.025656654
94	0xbd7c3476	-0.06157347
95	0x3dc1e7e4	0.09468058
96	0x3d15127f	0.036394592
97	0x3debe017	0.11517351
98	0x3e19467e	0.14968297
99	0xbc9464b7	-0.01811443
100	0x3dbf651c	0.09345457
101	0xbd469136	-0.048478328
102	0xbdac6c89	-0.08419139
103	0xbda17ec5	-0.078855075
104	0x3dd6eb8b	0.10494145
105	0x3dfc6e57	0.12325733
106	0x3c104dc2	0.008807601
107	0x3cf8edc5	0.030386815
108	0xbd293f0d	-0.041319896
109	0x3da50414	0.080574185
110	0x3c0b1d8f	0.008490934
111	0xbdb49f48	-0.08819443
112	0x3c8018c3	0.015636807
113	0xbc8955c7	-0.016764535
114	0x3d9872e1	0.074437864
115	0xbb9bbe27	-0.0047528925
116	0x3da6178f	0.08109962
117	0x3d1b102e	0.037857227
118	0xbd6202fd	-0.05517863
119	0x3da8ae92	0.08236422
120	0x3dba4a62	0.09096219
121	0xbd6e009c	-0.05810605
122	0x3e62e10e	0.22156164
123	0x3d96d6fb	0.07365223
124	0x3d60d186	0.054887317
125	0xbd2468dc	-0.040139064
126	0x3d4071a3	0.046983372
127	0x3c0f93fe	0.008763311
128	0xbd06095e	-0.032723777
129	0x3d819227	0.063267045
130	0xbc648fee	-0.013950331
131	0xbd41d52c	-0.047322437
132	0x3da54a8f	0.080708615
133	0x3d98c108	0.07458693
134	0x3dbd66b6	0.09248106
135	0xbd2c73e2	-0.042102702
136	0x3d8b0f1b	0.067899905
137	0x3bee04d8	0.007263761
138	0xbd182b39	-0.037150595
139	0x3def6844	0.11689809
140	0x3cefadf1	0.029257746
141	0xbda65491	-0.081215985
142	0xbb27a941	-0.002558306
143	0x3dda8ca6	0.10671358
144	0xbcd31ece	-0.025771525
145	0x3db9d6ce	0.09074174
146	0xbdad6db4	-0.0846819
147	0x3da336e6	0.079694554
148	0x3d822d73	0.06356325
149	0x3d8b12b2	0.06790675
150	0xbca05c64	-0.019575305
151	0xbd834489	-0.064095564
152	0x3deb6314	0.11493507
153	0x3dafbff8	0.08581537
154	0x3d9fe224	0.07806805
155	0xbd8cf3c6	-0.068824336
156	0x3cff08de	0.031132158
157	0xbda91645	-0.08256201
158	0x3de2d7f7	0.11076348
159	0x3dade153	0.08490243
160	0xbd3867af	-0.045020755
161	0x3d045408	0.0323067
162	0x3db2238b	0.086981855
163	0x3c9c82ea	0.019105393
164	0x3df63be7	0.12023144
165	0xbd69c1f1	-0.057069723
166	0x3cc04375	0.023469666
167	0x3d507e20	0.050901532
168	0xbd1c9018	-0.038223356
169	0x3da27a49	0.0793348
170	0xbd46e599	-0.048558805
171	0xbce4d3f9	-0.027933108
172	0xbcdd5b08	-0.027020946
173	0x3ab5613c	0.0013838182
174	0xbbd39a6f	-0.006457619
175	0x3e34c4e9	0.1765324
176	0x3d408687	0.047003295
177	0x3d8ddbdf	0.06926703
178	0x3d5952a3	0.053057324
179	0x3d8b1251	0.06790603
180	0x3d5fa12e	0.054597072
181	0xbd24b2e2	-0.04020966
182	0x3c9838f0	0.018581837
183	0x3e886e46	0.26646632
184	0x3dbe7a83	0.09300711
185	0xbd209084	-0.03920032
186	0x3dd66a1d	0.10469458
187	0xbd31a85b	-0.043373447
188	0x3e386bf7	0.18009935
189	0xbc6c24b4	-0.014413048
190	0x3de44d44	0.1114755
191	0xbccc7e4d	-0.024962569
192	0xbd26e0f3	-0.040741872
193	0xbd27e34c	-0.04098825
194	0xbd6667d4	-0.056251362
195	0x3d75ab1f	0.059977647
196	0x3d93491f	0.07191681
197	0x3dc7272e	0.0972427
198	0xbb578794	-0.0032887207
199	0x3d993de0	0.07482505
200	0x3d9c02ec	0.07617745
201	0x3dd06584	0.101756126
202	0xbd26dcbe	-0.04073786
203	0x3dae525d	0.08511803
204	0xbd688652	-0.056768723
205	0xbcd8ad36	-0.02644978
206	0xbcf49316	-0.029855292
207	0x3e094166	0.13403854
208	0x3d9b0e4d	0.07571087
209	0x3c0f0536	0.00872927
210	0x3d848e31	0.06472433
211	0xbd7353b1	-0.059405986
212	0xbaa77822	-0.0012776891
213	0xbd44669e	-0.047949426
214	0x3e05fc8c	0.1308462
215	0x3ddc2b27	0.10750418
216	0x3de49b16	0.11162393
217	0xbcafecf9	-0.021475302
218	0x3d7aa099	0.061188314
219	0x3dd8f8a9	0.10594303
220	0xbd9b881e	-0.07594322
221	0x3d5cd0d0	0.053910077
222	0xbcdae249	-0.02671923
223	0xbcd94e42	-0.026526574
224	0x3da2d03b	0.07949873
225	0x3df11ffa	0.11773677
226	0x3ddda893	0.108231686
227	0x3c99c1cb	0.018769166
228	0x3e044af1	0.12919213
229	0x3d6bf158	0.05760321
230	0x3dcf0fa6	0.101104066
231	0x3db68d45	0.08913664
232	0x3cc43a5c	0.02395361
233	0x3db35ddc	0.08758137
234	0x3d25bc8b	0.04046301
235	0xbda886d7	-0.08228844
236	0x3de581dc	0.11206409
237	0x3dc637d6	0.096786186
238	0x3da6357e	0.081156716
239	0xbd9d626e	-0.076847896
240	0x3c3327a7	0.010934747
241	0xbd50b894	-0.050957277
242	0x3e27bb3a	0.16380015
243	0x3dc3d247	0.095615916
244	0x3dc63be7	0.09679394
245	0xbd03d2a3	-0.0321833
246	0x3e00b232	0.12567976
247	0xb9d5902d	-0.00040733945
248	0x3dc711ed	0.09720216
249	0x3d7aec07	0.06126025
250	0x3dbaa920	0.09114289
251	0x3d2ffb1f	0.042964097
252	0x3d93de05	0.07220081
253	0x3d595d0e	0.05306726
254	0xbc4a4f1f	-0.0123479655
255	0x3be3f7b9	0.006957021

model.model.2.bias f4 [128]
0	0x3de82b99	0.113364406
1	0x3e2d786f	0.16940473
2	0x3e11bba8	0.14231741
3	0x3e3a9b36	0.18223271
4	0x3e308032	0.17236403
5	0x3e112fa6	0.14178333
6	0x3dd34e83	0.10317709
7	0x3d1d1f04	0.038359657
8	0x3e4721f0	0.1944654
9	0x3e38e7c0	0.18057156
10	0x3d93c26a	0.07214816
11	0x3e10ae5b	0.14129011
12	0x3e2fe062	0.17175439
13	0x3e392f50	0.18084455
14	0x3e11d33d	0.14240737
15	0xbcbbe955	-0.02293841
16	0x3e3362c4	0.17518145
17	0x3d880e30	0.06643331
18	0x3d87a702	0.06623651
19	0x3e39f7d1	0.1816094
20	0x3d86cad7	0.065816574
21	0xbd74f331	-0.059802238
22	0xbcf671d8	-0.030083582
23	0x3d1295e6	0.035787486
24	0x3e126290	0.14295411
25	0x3df85abd	0.12126682
26	0x3e478995	0.19486077
27	0xbd51c757	-0.051215496
28	0x3e2f8f6d	0.17144556
29	0x3e160014	0.14648467
30	0x3ddd3373	0.10800829
31	0x3cd93fe2	0.02651972
32	0x3e02b6ab	0.12764995
33	0x3d7406d7	0.059576835
34	0x3e54ee4c	0.20794028
35	0x3e212bf3	0.15739422
36	0x3e486f20	0.19573641
37	0x3e380084	0.17968947
38	0xbcdfc9ab	-0.027317842
39	0x3e1c1623	0.1524282
40	0x3e582c1a	0.21110573
41	0xbcf42548	-0.029802933
42	0x3e58b0cb	0.21161191
43	0x3e0201f4	0.12696058
44	0x3e331ff4	0.17492658
45	0x3d8ef8a2	0.06981017
46	0x3d9073e4	0.070533544
47	0x3e69835b	0.22804014
48	0x3e1ac0bd	0.15112586
49	0x3dc0ac86	0.09407906
50	0x3dfa9475	0.12235347
51	0x3e01ffcf	0.1269524
52	0x3e18205e	0.14856097
53	0x3e436fdd	0.19085641
54	0xbdbaf338	-0.091284215
55	0x3dcf3845	0.101181544
56	0x3e48c09c	0.19604725
57	0x3e5a4cd6	0.21318373
58	0x3dd2e6ae	0.10297905
59	0x3e10ae1e	0.1412892
60	0xbd84cb7a	-0.064841226
61	0x3e51d865	0.20492704
62	0x3d47eba1	0.048808698
63	0x3dd6cb22	0.10487963
64	0x3dd34d65	0.10317496
65	0x3e4151c2	0.18878844
66	0x3dafd0d5	0.085847534
67	0xbd99a5c3	-0.0750232
68	0x3e3ac4a4	0.18239075
69	0x3d86c439	0.06580395
70	0x3dd241cd	0.10266457
71	0x3d760531	0.060063545
72	0x3dfeac9f	0.124352686
73	0x3cd21886	0.02564646
74	0x3e0680df	0.13135098
75	0xbdbac044	-0.09118703
76	0x3df6183e	0.120163426
77	0x3e1c51ab	0.15265529
78	0x3de33557	0.11094158
79	0xbcf44483	-0.029817825
80	0x3e36e69b	0.17861407
81	0x3e4e938c	0.20173472
82	0xbb43d0b0	-0.0029879026
83	0x3ada189f	0.0016639418
84	0x3d8be498	0.0683071
85	0x3e1ee7a6	0.15518054
86	0xbd8cdb66	-0.068777844
87	0x3dfcd417	0.123451404
88	0xbd26d113	-0.040726732
89	0x3e530483	0.2060719
90	0x3e2e6737	0.17031561
91	0x3e11c53e	0.14235398
92	0x3e21e21d	0.15808912
93	0x3c9d42d2	0.019196901
94	0x3dcfe5bf	0.101512425
95	0x3db4b013	0.08822646
96	0x3e3ad34c	0.18244666
97	0x3e02e690	0.12783265
98	0x3dbed594	0.093180805
99	0x3d9766fe	0.07392691
100	0x3e43ad58	0.19109094
101	0x3e3f79a0	0.1869874
102	0x3d2041a3	0.039125096
103	0x3deb7587	0.11497026
104	0x3d890317	0.066900425
105	0xbd016ddf	-0.031598922
106	0x3e4300e1	0.19043304
107	0x3e30f982	0.1728268
108	0x3dc1317d	0.09433267
109	0x3e1f1bcc	0.15537947
110	0x3d604c1b	0.05476008
111	0xbdaad41b	-0.08341237
112	0x3da18b74	0.07887927
113	0x3d9740df	0.0738542
114	0x3db4075b	0.087904654
115	0x3e0c6c89	0.13713278
116	0x3da6f65f	0.0815246
117	0x3e009f4b	0.12560765
118	0xbcfa0620	-0.030520499
119	0x3d8106a2	0.06300093
120	0x3ddd7f82	0.10815336
121	0xbc047e91	-0.008086816
122	0x3bf8e561	0.0075957035
123	0x3dcbb25d	0.099461295
124	0x3e2f11d7	0.17096649
125	0xbd9f1dab	-0.077693306
126	0x3d905c0e	0.07048808
127	0x3e038e83	0.12847333

model.model.4.weight f4 [128, 128]
0	0x3c9a76ff	0.01885557
1	0xbb44fb03	-0.0030056841
2	0xbc471c83	-0.012152794
3	0xbd8f6981	-0.07002545
4	0xbc22b36e	-0.009930475
5	0xbd8113ae	-0.06302582
6	0x3d132be7	0.03593054
7	0x3d656922	0.056008466
8	0x3bf6e8a1	0.0075350557
9	0x3d057271	0.032579843
10	0xbd35180f	-0.044212397
11	0xbd122750	-0.035682023
12	0x3cfc6996	0.030812066
13	0x3d8299c3	0.06376984
14	0x3d35ee2b	0.044416588
15	0x3d871be2	0.06597115
16	0x3d35c370	0.044375837
17	0xbd19985c	-0.037498817
18	0xbd3ffcda	-0.046871997
19	0xb8543b97	-5.0600236e-05
20	0x3c83505c	0.01602953
21	0x3d521a4e	0.051294617
22	0x3d5ba2ef	0.053622182
23	0xbd341354	-0.043963745
24	0xbd557fe7	-0.05212393
25	0xbdb7b655	-0.08970324
26	0x3d0cf05f	0.034408923
27	0x3d17c22e	0.03705042
28	0xbdb53491	-0.08847917
29	0x3d8cd969	0.06877405
30	0x3cca8621	0.02472216
31	0x3d981a90	0.074269414
32	0x3c64c2d6	0.013962468
33	0x3d979829	0.07402069
34	0xbc8fe0ea	-0.017563302
35	0x3c90977f	0.017650364
36	0x3cc0848a	0.0235007
37	0xbafdb368	-0.0019355835
38	0xbc828ed0	-0.015937239
39	0x3d527f88	0.051391155
40	0xbc4cd45a	-0.0125018
41	0x37644000	1.360476e-05
42	0xbd9722f6	-0.07379715
43	0xbd8343dc	-0.064094275
44	0x3bf511dd	0.007478936
45	0xbc9f7273	-0.019463753
46	0x3da4ca43	0.08046391
47	0xbdb7fd0f	-0.08983814
48	0x3c899aaa	0.016797382
49	0xbda190dd	-0.078889586
50	0xbc41f611	-0.011838452
51	0x3d9c792c	0.07640299
52	0x3d77e86c	0.06052439
53	0x3d2b2022	0.04177869
54	0xbd5f83eb	-0.054569166
55	0x3da95265	0.08267669
56	0xbb6d39f7	-0.003619788
57	0xbc8c0c9d	-0.017095858
58	0xbdbd8900	-0.09254646
59	0xbc01591c	-0.0078947805
60	0xbd835dc9	-0.064143725
61	0x3d05aeb8	0.032637328
62	0x3d366ee3	0.044539344
63	0x3d8f4470	0.06995475
64	0x3c99c17c	0.018769018
65	0xbd027421	-0.03184903
66	0x3d6cbea1	0.057798985
67	0x3b707a86	0.0036694123
68	0x3bdc1a0e	0.006716973
69	0x3d0e0738	0.034674853
70	0xba9ad730	-0.0011813398
71	0x3d45bbb4	0.04827471
72	0x3d79b78c	0.06096606
73	0x3da2f883	0.07957556
74	0x3cc71ab7	0.02430473
75	0xbb674b84	-0.0035292814
76	0xbdbeae22	-0.09310557
77	0xbdaad12c	-0.083406776
78	0x3a3adbd1	0.0007128092
79	0xbcadfa5b	-0.021237543
80	0xb829eb0a	-4.0511637e-05
81	0x3da02aac	0.07820639
82	0x3d912572	0.0708722
83	0xbb05d30a	-0.0020419979
84	0xbdbba0fb	-0.09161564
85	0x3d869de3	0.06573083
86	0x3d8de93b	0.06929251
87	0x3d9e6ae9	0.07735235
88	0x3cc7cb38	0.024388894
89	0x3d67aec9	0.056563172
90	0x3b909277	0.004411991
91	0xbd8af3a5	-0.06784753
92	0x3bf5c3b0	0.0075001344
93	0x3d9c2468	0.076241314
94	0x3bb3a8ce	0.0054827696
95	0x3b99ec01	0.0046973233
96	0x3a8a4044	0.0010547717
97	0x3d6e51bc	0.058183417
98	0xbd803653	-0.062603615
99	0x3bb4ea98	0.00552113
100	0x3bc7e425	0.006100195
101	0x3d71291b	0.05887709
102	0xbdbecb3c	-0.09316108
103	0xbd02cd0b	-0.031933825
104	0xbdb4ee31	-0.08834494
105	0xbc718b5a	-0.014742697
106	0x3d54caf5	0.051951367
107	0xbd4c3b1f	-0.04986107
108	0xbc8504ea	-0.016237695
109	0xbdbff149	-0.09372193
110	0x3da6bfa7	0.081420235
111	0xbd545377	-0.05183741
112	0xbcca65b9	-0.024706708
113	0xbd89e7a5	-0.06733636
114	0x3c6e7218	0.014553569
115	0xbd847644	-0.0646787
116	0xbd2c7c48	-0.04211071
117	0xbd2f0674	-0.042730764
118	0x3d498128	0.04919544
119	0xbda40b3f	-0.080099575
120	0xbd5aabcc	-0.053386495
121	0xbc7eeb78	-0.01555907
122	0x3cc3c6cd	0.023898507
123	0x3d92f767	0.071760945
124	0x3bd6d3e8	0.006556023
125	0x3c54da95	0.012991567
126	0x3d9e98a6	0.07743959
127	0x3d384936	0.044991694
128	0xbdac4d36	-0.08413164
129	0x3d0ccb00	0.034373283
130	0xbd710599	-0.05884323
131	0x3d6f77f9	0.058464024
132	0xbd841174	-0.064486414
133	0x3cc13c39	0.023588287
134	0x3c9e12c6	0.019296061
135	0x3d137bba	0.036006667
136	0x3d85e769	0.065382786
137	0xbcfb72f3	-0.03069446
138	0x39f59a8d	0.0004684519
139	0x3c266068	0.010154821
140	0x3daf4d17	0.085596256
141	0x3ce5aa5f	0.02803534
142	0xbcf8109e	-0.030281361
143	0xbbffc660	-0.0078056306
144	0xbd48f9a7	-0.049066212
145	0xbb7c80e0	-0.0038528964
146	0x3d7e6c12	0.062114783
147	0xbd3cb94b	-0.046075147
148	0xba210e80	-0.0006143823
149	0xbd6c6c3a	-0.0577204
150	0x3d9de2fd	0.0770931
151	0x3b21c000	0.0024681091
152	0xbd2f6036	-0.042816363
153	0x3c6a5d4b	0.014304469
154	0x3da6b6f9	0.08140368
155	0x3d75d50a	0.060017623
156	0xbd83599b	-0.06413575
157	0x3d276151	0.040864293
158	0xbc882b3c	-0.016622178
159	0xbd70ddcd	-0.058805276
160	0xbbecac94	-0.0072227214
161	0xbc0772f4	-0.008267153
162	0xbd226c2e	-0.03965395
163	0x3d1b9f05	0.03799345
164	0xbd2847b9	-0.041084025
165	0x3d9959da	0.07487841
166	0xbb376c40	-0.0027988106
167	0xbd9888df	-0.07447981
168	0xba1812c8	-0.00058011385
169	0x3cd2a628	0.025713995
170	0xbdb3e94e	-0.08784734
171	0xbd88d469	-0.06681139
172	0x3cb3107b	0.021858444
173	0x3c9d0b0b	0.019170305
174	0x3d675b9a	0.056483842
175	0x3d49656d	0.049168993
176	0x3d951dd1	0.07281078
177	0xbd1268f8	-0.035744637
178	0x3d423cb0	0.047421157
179	0x3cf3d139	0.029762851
180	0xbd246055	-0.040130932
181	0x3d817b50	0.06322348
182	0x3c900e74	0.017585017
183	0xbc71ac50	-0.014750555
184	0x3d927cdd	0.07152722
185	0xbcd921ab	-0.026505312
186	0x3d3a9261	0.045549754
187	0xbd11b0a5	-0.035568852
188	0xbd8e7db2	-0.06957568
189	0x3c8b78b0	0.017025322
190	0x3db3164d	0.08744488
191	0x3d9cc6a6	0.07655077
192	0xbc72e45d	-0.014824954
193	0x3d909e50	0.07061446
194	0xbcdfc217	-0.027314229
195	0x3d3c698e	0.045999102
196	0xbd9eea45	-0.07759527
197	0x3d4c29b9	0.049844477
198	0x3d63ca28	0.055612713
199	0xbca967ec	-0.020679437
200	0xbda0f1b9	-0.07858605
201	0xbd8ecc44	-0.06972554
202	0xbd29d09b	-0.041458707
203	0xbd666a6a	-0.056253828
204	0x3ceebba9	0.029142218
205	0xbda333dd	-0.079688765
206	0x3dac96a4	0.0842717
207	0x3d8f3fab	0.069945656
208	0x3d898427	0.06714659
209	0xbd82f31f	-0.06394028
210	0xbc55b570	-0.013043746
211	0x3d5870ca	0.05284194
212	0xbd979d66	-0.07403068
213	0x3d268e89	0.040663276
214	0x3d6e165e	0.0581268
215	0xbd196bcb	-0.037456315
216	0xbca74e68	-0.02042313
217	0xbd8e050e	-0.06934558
218	0xbda431ac	-0.08017287
219	0xbd915ac7	-0.070973925
220	0x3cb6f002	0.022331242
221	0xbd55a001	-0.052154545
222	0xbd071f79	-0.032989
223	0xbcb649c8	-0.022251979
224	0xbb8dc27d	-0.0043261633
225	0xbd18486c	-0.037178442
226	0xbd568d83	-0.05238105
227	0x3d30f306	0.043200515
228	0xbda198cc	-0.07890472
229	0x3d163210	0.036668837
230	0xbd3ebb4b	-0.046565335
231	0xbcccf304	-0.025018223
232	0x3d900632	0.07032432
233	0x3d9d34eb	0.07676109
234	0x3ceb7c38	0.028745756
235	0x3baf4859	0.0053492007
236	0xbd17a03c	-0.037018046
237	0xbcf88712	-0.030337844
238	0x3c4059ab	0.0117401285
239	0x3d9b6fdd	0.075896956
240	0x3d136a77	0.035990205
241	0xbdb0c945	-0.08632139
242	0x3d0040ea	0.031311907
243	0xbd4f400c	-0.05059819
244	0x3ccab9d9	0.024746822
245	0xbd199b1b	-0.037501436
246	0xbd60f70a	-0.054923095
247	0xbc5d03d2	-0.01348968
248	0xbd5b35fc	-0.05351828
249	0x3d5b629a	0.05356083
250	0xbc744f28	-0.01491145
251	0xbd93b601	-0.07212449
252	0xbb762380	-0.003755778
253	0xbd5a5ce9	-0.053311262
254	0x3d013039	0.03154013
255	0xbc997a36	-0.018735033

model.model.4.bias f4 [128]
0	0x3c5614cd	0.013066483
1	0x3b05cc87	0.0020416097
2	0x3e41cf4c	0.18926734
3	0x3d366bbf	0.04453635
4	0xbc15df0e	-0.009147419
5	0x3c5ea372	0.013588773
6	0x3e47f413	0.195267
7	0x3e121de0	0.14269209
8	0x3d73ba07	0.05950358
9	0x3d230d3e	0.03980755
10	0x3db6da93	0.089284085
11	0x3c5d8b0d	0.013521922
12	0x3e196bb6	0.14982495
13	0xbbfc7f4b	-0.007705604
14	0x3da4b429	0.08042175
15	0x3d019a6a	0.0316414
16	0x3c393b03	0.011305573
17	0x3e2655c2	0.16243652
18	0x3d980a45	0.07423834
19	0x3d3a7851	0.0455249
20	0xbcd1ec79	-0.025625454
21	0x3dfe9598	0.124308765
22	0xbd963d5f	-0.07335924
23	0xbbb433e1	-0.0054993485
24	0x3d7bdd85	0.061490554
25	0x3dfec242	0.124393955
26	0x3dd56d1a	0.104212
27	0x3e141bd7	0.14463745
28	0x3e164702	0.14675525
29	0x3ca4f5d3	0.02013675
30	0xbd685a00	-0.056726456
31	0x3df4e00d	0.11956797
32	0x3e55853c	0.20851606
33	0xbd80f80e	-0.06297313
34	0x3cc81862	0.02442569
35	0x3dad613c	0.084658116
36	0xbbcf9328	-0.006334681
37	0x3cafc027	0.02145393
38	0x3c52ef17	0.012874386
39	0x3e4b733f	0.19868182
40	0x3d7060bb	0.058686
41	0x3ddcc67a	0.10780044
42	0x3d4425b4	0.04788752
43	0xbd8f6a60	-0.07002711
44	0x3c72e962	0.014826151
45	0x3e3c7ea0	0.18407679
46	0xbaa06bea	-0.0012239192
47	0x3e1cc2fb	0.15308754
48	0xbc70a1f5	-0.014687051
49	0xbd704d10	-0.058667243
50	0xbd076f1a	-0.03306494
51	0x3c366e0b	0.011134635
52	0x3b038d72	0.0020073322
53	0x3de048ca	0.109513834
54	0x3d5d35f8	0.054006547
55	0xbd575518	-0.052571386
56	0x3a378680	0.0007000938
57	0xbd8b63e1	-0.0680616
58	0xbd36a0b8	-0.044586867
59	0xbcff604a	-0.031173844
60	0xbda6cbe3	-0.08144357
61	0x3e324689	0.1740972
62	0xbc2f1b46	-0.010687655
63	0x3d32ef9f	0.04368555
64	0x3c8b1054	0.01697556
65	0xbc0afc13	-0.008482951
66	0xbcb31476	-0.021860342
67	0xbd39796c	-0.045281813
68	0x3e2db4b4	0.16963464
69	0x3d050566	0.03247585
70	0x3dc81a1f	0.09770607
71	0xbcfda697	-0.030963225
72	0x3de3c708	0.111219466
73	0xbb8aeead	-0.004239878
74	0x3dc8eb9b	0.09810563
75	0x3e60fc84	0.21971327
76	0xbdaa4a7e	-0.083149895
77	0x3d519e8d	0.051176596
78	0x3e014828	0.12625182
79	0x3d9f43a2	0.07776572
80	0x3d955ef7	0.07293504
81	0x3e695681	0.22786905
82	0xbdaf1c3e	-0.08550309
83	0x3c41d986	0.011831647
84	0x3e26ebfc	0.16300958
85	0xbd7fa98c	-0.062417552
86	0xbdacf760	-0.084456205
87	0xbd05646e	-0.03256648
88	0x3d8f1580	0.06986523
89	0x3dcc221a	0.09967442
90	0xbda43767	-0.0801838
91	0x3c7cf3d9	0.015438997
92	0x3e2ebb55	0.17063649
93	0xbcd034c8	-0.025415793
94	0x3d5e6477	0.05429503
95	0xbbd4ea30	-0.006497644
96	0xbd2599d9	-0.040429924
97	0xbd490987	-0.04908135
98	0x3c8b5a84	0.017010935
99	0x3df6f2cd	0.12058029
100	0x3e2dc72d	0.16970511
101	0x3e09d755	0.13461049
102	0x3cd9ee67	0.026602937
103	0x3d794532	0.060857005
104	0x3e12fd7c	0.14354509
105	0x3caf9119	0.021431493
106	0xbca49068	-0.02008839
107	0x3d81cc36	0.06337778
108	0x3e242ac4	0.16031939
109	0xbd70751e	-0.05870544
110	0x3e065fc4	0.13122469
111	0xbdb57c41	-0.0886159
112	0x3e025144	0.12726313
113	0xbd582ba8	-0.05277601
114	0x3dfb4054	0.12268129
115	0x3c7731a9	0.0150875235
116	0x3d1bf9e6	0.03808012
117	0x3db8649a	0.09003563
118	0x3d84d2c2	0.06485511
119	0x3e02ac4c	0.12761039
120	0xbc130eaf	-0.008975669
121	0xbd7fc630	-0.062444866
122	0xbd18703b	-0.037216406
123	0x3da736d8	0.081647575
124	0x3da986a1	0.082776316
125	0xbb986670	-0.0046508834
126	0x3d6811f9	0.056657765
127	0x3d4db9af	0.05022591

model.model.6.weight f4 [7, 128]
0	0xbcde7cfa	-0.027159203
1	0xbd43921f	-0.047746774
2	0x3da0ec6d	0.07857595
3	0x3d80ec16	0.0629503
4	0x3d9bdd45	0.07610563
5	0x3da6606d	0.081238605
6	0x3daaf568	0.08347589
7	0x3d41fe75	0.04736181
8	0xbcdeec01	-0.027212145
9	0xbd376910	-0.04477793
10	0xbd4ae631	-0.049535934
11	0xbd0b7b5b	-0.034053188
12	0x3d8e6c85	0.06954292
13	0xbd856bf0	-0.06514728
14	0x3da7353f	0.08164453
15	0x3c2d543f	0.010579168
16	0x3c732021	0.014839203
17	0x3d5023a3	0.050815236
18	0xbd1007c9	-0.035163675
19	0x3cb384c4	0.021913894
20	0xbd85d996	-0.06535642
21	0xbca699c3	-0.020336991
22	0x3da81e5d	0.08208916
23	0x3dc9f32e	0.09860836
24	0x3d936beb	0.07198318
25	0xbd349fbd	-0.04409765
26	0x3c0fb9cf	0.008772328
27	0x3de0c2ea	0.10974677
28	0x3dd32345	0.103094615
29	0xbc1d1be9	-0.009589174
30	0xbd925b24	-0.0714629
31	0x3d0dc886	0.034615062
32	0x3cc16758	0.023608848
33	0xbcb8c2b8	-0.022553787
34	0x3cb5df4e	0.022201207
35	0x3d413aed	0.047175337
36	0x3d3c5ccd	0.04598694
37	0xbd97be41	-0.07409335
38	0xbd970e97	-0.0737583
39	0x3dafdadb	0.08586665
40	0xbd28365a	-0.04106746
41	0x3d6452da	0.055743076
42	0xbcfdb4b9	-0.030969964
43	0xbd8a76bd	-0.06760929
44	0xbcc53e6e	-0.02407762
45	0x3d5808a4	0.052742615
46	0xbca23039	-0.019798385
47	0x3d933f60	0.07189822
48	0x3d4d301a	0.0500947
49	0xbd5c2ae2	-0.053751834
50	0x3c7e5552	0.015523272
51	0x3de2ae08	0.1106835
52	0xbc2a2cb8	-0.010386638
53	0x3d82e398	0.06391066
54	0xbc5dda4b	-0.013540815
55	0x3d77c4a6	0.060490273
56	0x3ccb3f98	0.024810597
57	0x3a90bf80	0.00110434
58	0x3d0d1300	0.034441948
59	0x3da537a5	0.08067254
60	0x3d9083c1	0.0705638
61	0x3b651869	0.0034957177
62	0xbd04ee9f	-0.03245413
63	0xbd3ce0f6	-0.046112977
64	0x3cb45b70	0.022016257
65	0x3d2ce5e3	0.042211425
66	0x3ca4ed69	0.020132737
67	0x3b9e0832	0.0048227543
68	0x3d6e1ff9	0.05813596
69	0xbd75ac7e	-0.059978954
70	0x3dd60479	0.10450072
71	0x3d4ed78b	0.050498527
72	0x3ddab11f	0.106783144
73	0xbd80aeb4	-0.06283322
74	0xbd337727	-0.043814804
75	0x3d4f9cd2	0.050686665
76	0xbd927259	-0.07150716
77	0xbd28e9ba	-0.041238524
78	0x3d35bab8	0.044367522
79	0x3d162bd4	0.03666289
80	0x3d7f67db	0.062354904
81	0x3e0138e6	0.12619361
82	0x3d96477d	0.07337854
83	0xbc85ad05	-0.016317854
84	0xbceec064	-0.029144473
85	0xbda4067b	-0.080090486
86	0x3cf15850	0.029461056
87	0x3daf6023	0.085632585
88	0xbd866c6f	-0.06563651
89	0xbd2e6d3d	-0.042584646
90	0x3d0d0a14	0.03443344
91	0x3d6d991a	0.058007337
92	0x3ddae9af	0.10689103
93	0xbd916efa	-0.07101245
94	0xbc9cd733	-0.019145584
95	0x3d85e3a3	0.06537559
96	0xbc413d78	-0.01179444
97	0x3d77142c	0.06032197
98	0x3be64df0	0.007028334
99	0x3df04b91	0.11733163
100	0x3dd309e6	0.10304622
101	0x3d6688f4	0.056282952
102	0x3d8c6cb1	0.06856669
103	0x3df894c6	0.12137751
104	0x3debe15f	0.115175955
105	0x3d8ee0f2	0.06976499
106	0xbcdb1618	-0.026743934
107	0x3df08ecd	0.11745987
108	0x3dcfbfce	0.10144006
109	0xbc837043	-0.016044741
110	0x3dad092f	0.08449017
111	0x3d971cf5	0.0737857
112	0x3c818ccd	0.01581421
113	0x3d4ca033	0.049957465
114	0x3d2e9725	0.04262461
115	0x3d9c4f48	0.07632309
116	0x3ceab063	0.02864856
117	0xbbc50429	-0.006012459
118	0xbbddd9d1	-0.0067703505
119	0x3d481470	0.048847616
120	0x3d310df0	0.043226182
121	0x3d241346	0.040057443
122	0x3d951311	0.07279027
123	0x3d9da4ba	0.07697435
124	0x3d662079	0.056183312
125	0x3da8756f	0.08225524
126	0x3da246c4	0.07923654
127	0x3d5be60f	0.053686198
128	0x3d9a9e25	0.07549695
129	0xbc8f25a8	-0.01747401
130	0x3d744f7c	0.059646115
131	0x3d7ac449	0.06122235
132	0xbd0212fc	-0.031756386
133	0x3c65ea1a	0.014032865
134	0x3dcbf942	0.099596515
135	0x3d2a5bc1	0.04159141
136	0x3d44b97c	0.048028454
137	0x3d84e79e	0.0648949
138	0xbbdc1fc7	-0.0067176553
139	0xbc082381	-0.008309246
140	0x3ddca09d	0.10772822
141	0xbd9ff43b	-0.07810255
142	0xbd9404d6	-0.07227485
143	0xbd0f24f6	-0.034947358
144	0xbd05edfd	-0.032697666
145	0xbcd58664	-0.026065059
146	0xbcc73dcc	-0.02432146
147	0x3daa9580	0.08329296
148	0xbd54cfc1	-0.051955942
149	0x3dcd6943	0.10029843
150	0xbce9398e	-0.028469827
151	0xbc52e87e	-0.012872813
152	0xbd3e2125	-0.046418328
153	0xbd2be094	-0.04196222
154	0x3e044158	0.12915552
155	0x3db642e3	0.088994764
156	0x3db6a823	0.08918788
157	0x3d811911	0.06303609
158	0x3d665d2a	0.056241192
159	0x3cc1ebf8	0.023672089
160	0x3e0abe7b	0.13549225
161	0x3cc3fb10	0.023923427
162	0x3da77481	0.08176518
163	0x3ccc412a	0.024933416
164	0xbd933648	-0.07188088
165	0xbcf206aa	-0.029544193
166	0xbda0a957	-0.07844799
167	0xbc0d7da8	-0.008635916
168	0xbc94a9b9	-0.018147336
169	0x3dbd4162	0.092409864
170	0x3d014254	0.031557396
171	0xbd82c29a	-0.063847736
172	0xbcb3e374	-0.021959044
173	0x3d144a2f	0.03620356
174	0x3c92ed1c	0.017935328
175	0xbcfb6f62	-0.03069276
176	0xbcadf2bc	-0.021233909
177	0x3cf7aa5c	0.0302326
178	0x3ce66b64	0.02812738
179	0xbb452634	-0.0030082585
180	0x3da20972	0.07911958
181	0x3d7095f3	0.058736753
182	0x3c5a615d	0.013328877
183	0x3c8b33bc	0.016992442
184	0xbbf55d70	-0.0074879453
185	0xbd929f40	-0.07159281
186	0x3bf229c0	0.007390231
187	0x3d85bf35	0.065306105
188	0xbc864fd0	-0.01639548
189	0x3dae4e15	0.08510987
190	0x3ab9a281	0.001416281
191	0x3b42fbf5	0.002975223
192	0xbdb449a5	-0.08803109
193	0x3d0a8290	0.03381592
194	0xba85d240	-0.0010209754
195	0xbca865ac	-0.020556293
196	0x3d30c311	0.04315478
197	0xbcb68840	-0.022281766
198	0x3c5883a4	0.013214979
199	0x3d9293cf	0.071570985
200	0x3d8a0e07	0.06740957
201	0xbca0b374	-0.01961682
202	0x3e090f6d	0.1338479
203	0x3e091b12	0.13389233
204	0x3db40803	0.087905906
205	0x3c338e64	0.010959242
206	0xbb8fdc85	-0.0043903016
207	0xbd018700	-0.031622887
208	0x3c1acd36	0.00944834
209	0x3e0e989d	0.13925405
210	0x3da43aed	0.08019052
211	0xbda2470f	-0.079237096
212	0x3d217383	0.0394168
213	0x3dadfe91	0.0849582
214	0x3b1d8900	0.0024037957
215	0xbdb1e0f8	-0.086854875
216	0x3c12c613	0.008958357
217	0x3d9a43c9	0.0753246
218	0xbd48e1c1	-0.04904342
219	0xbd897d40	-0.06713343
220	0x3d236c0f	0.039897975
221	0x3d9cfba1	0.07665182
222	0xbd508e95	-0.050917227
223	0xbcf7aa38	-0.030232534
224	0xbc148700	-0.00906539
225	0xbd937f3a	-0.07202001
226	0x3d733d6a	0.05938474
227	0x3dcc0a92	0.099629536
228	0x3dd24169	0.10266382
229	0x3e0f2993	0.13980703
230	0x3d28325f	0.041063663
231	0x3de583da	0.11206789
232	0x3cc1c7fc	0.02365493
233	0x3d8cd52e	0.06876598
234	0x3d4c0a2a	0.04981438
235	0x3dc77863	0.09739759
236	0xbcea74f8	-0.028620228
237	0xbd103968	-0.035210997
238	0x3d514faf	0.051101383
239	0xbdad98c5	-0.08476404
240	0x3d307fb7	0.04309055
241	0x3d8def26	0.069303796
242	0x3c8e3d6c	0.017363273
243	0x3c027d38	0.007964425
244	0x3c5f8e5a	0.013644779
245	0xbd1bca21	-0.038034562
246	0xbc52bed4	-0.01286288
247	0x3d946ab7	0.07246917
248	0xbc59132c	-0.0132492
249	0xbd3642a1	-0.044497136
250	0xbc834830	-0.016025633
251	0x3dd81d69	0.105524845
252	0xbd15fd0e	-0.036618285
253	0x3d2123e6	0.039340876
254	0x3d00e795	0.031470854
255	0x3d6b9ee6	0.057524584

model.model.6.bias f4 [7]
0	0x3dd95832	0.10612525
1	0x3e808c35	0.2510697
2	0x3e1157bf	0.14193629
3	0x3d2460ae	0.040131263
4	0x3ded36ae	0.11582695
5	0x3d935544	0.071939975
6	0x3dbaaf99	0.09115524

model_old.model.0.weight f4 [128, 42]
0	0xbdde994e	-0.10869084
1	0xbd8cab54	-0.06868616
2	0x3dfc35be	0.12314938
3	0xbd0600c9	-0.032715593
4	0x3d140f57	0.03614744
5	0x3de9e341	0.11420298
6	0x3cbd8cff	0.023138521
7	0xbdfc88b1	-0.12330759
8	0x3d9057e5	0.070480146
9	0xbbdaf84c	-0.0066824313
10	0x3dfa0f2d	0.12209926
11	0x3ca07359	0.019586252
12	0xbc4377bd	-0.011930403
13	0xbcf044fc	-0.02932977
14	0x3c6ff934	0.014646817
15	0x3da6b57e	0.08140086
16	0x3b8b2afe	0.0042470684
17	0xbc726eb1	-0.014796899
18	0xbe1320c5	-0.1436797
19	0xbd7aa8ce	-0.06119614
20	0x3c9c4a37	0.019078357
21	0x3d603f19	0.054747675
22	0x3de24b2b	0.110494934
23	0xbdb8781c	-0.09007284
24	0xbd9926c6	-0.074780986
25	0x3e02d415	0.12776215
26	0xbdf24c04	-0.11830905
27	0xbdb184af	-0.086678855
28	0xbc4f865f	-0.012666314
29	0xbd037c86	-0.032101177
30	0x3e00dc73	0.12584095
31	0xbe11341a	-0.14180031
32	0x3d09a48a	0.033604182
33	0xbd232359	-0.039828632
34	0xbe11b8e1	-0.14230682
35	0x3d323871	0.043510858
36	0xbd6fb889	-0.058525596
37	0x3dd107e4	0.10206583
38	0xbbf43c2e	-0.007453463
39	0xbe035b3d	-0.12827773
40	0xbd163e19	-0.036680315
41	0xbd301f31	-0.042998496
42	0x3dd65192	0.10464777
43	0x3cad0815	0.021122018
44	0xbd814b39	-0.06313176
45	0x3db30d3a	0.08742757
46	0x3ca2a354	0.019853272
47	0x3d792903	0.060830127
48	0x3ce75c9f	0.028242407
49	0xbe389f67	-0.18029557
50	0xbe1eebbc	-0.15519613
51	0xbded6198	-0.1159088
52	0xbdcbb9ed	-0.09947572
53	0x3e012b90	0.12614274
54	0xbd9a81a1	-0.07544256
55	0x3d4b8360	0.049685836
56	0x3da8fc76	0.08251278
57	0xbe1f8c7e	-0.15580937
58	0x3d6db63d	0.058035124
59	0x3d4a1698	0.049337953
60	0xbe2f38ec	-0.17111558
61	0x3d87eae5	0.066365995
62	0xbdc03543	-0.09385159
63	0x3dd1f22c	0.10251269
64	0xbd422a42	-0.04740358
65	0xbda4325a	-0.08017416
66	0x3e03a6a2	0.12856534
67	0xbe086758	-0.13320673
68	0x3dfec89b	0.12440606
69	0x3d9fb8a9	0.07798893
70	0x3b656c1c	0.0035007065
71	0x3b21b177	0.0024672428
72	0x3de2f191	0.110812314
73	0x3d2e8638	0.04260847
74	0xbd966458	-0.07343358
75	0xbe30ff8a	-0.1728498
76	0xbe0376b2	-0.12838247
77	0xbda95451	-0.08268035
78	0xbdf380f8	-0.11889833
79	0xbda6cc7a	-0.081444696
80	0x3cfa65a3	0.030566042
81	0x3de46e8f	0.111539
82	0xbe3beb81	-0.18351556
83	0xbdfdbb04	-0.12389186
84	0xbd37d28b	-0.044878524
85	0x3d7a8b2e	0.06116789
86	0xbcdf7be8	-0.027280763
87	0xbe3be2bc	-0.18348211
88	0x3e1c333f	0.15253924
89	0x3d8e9de2	0.069637075
90	0xbc96c41d	-0.018404061
91	0x3c8f16dc	0.017466955
92	0x3cb595bc	0.022166125
93	0xbe43c580	-0.19118309
94	0x3d73324d	0.059374142
95	0x3dbcc5ab	0.0921739
96	0xbddcc9c9	-0.10780675
97	0x3c2887e7	0.010286308
98	0xbe3ee266	-0.18641052
99	0x3dfc4782	0.123183265
100	0xbda68f85	-0.08132843
101	0x3c9350ef	0.017982928
102	0xbd01b851	-0.03166992
103	0x3d6216a3	0.05519737
104	0x3be58ec3	0.007005544
105	0x3d89a4bf	0.06720876
106	0x3dfb9190	0.12283623
107	0xbca44c62	-0.020055953
108	0xbd450e88	-0.04810956
109	0xbcbd4b0b	-0.023107072
110	0x3e0193c2	0.12654021
111	0xbdfd8cdf	-0.12380385
112	0x3dd7ab5d	0.10530732
113	0xbd97c2ad	-0.07410178
114	0x3e2b309e	0.16717765
115	0xbde33fc3	-0.11096146
116	0x3d8fe0a0	0.07025266
117	0xbdd1173c	-0.1020951
118	0xbd50311a	-0.050828077
119	0x3dd7842a	0.10523255
120	0x3e274b17	0.16337238
121	0x3d7212bd	0.0590999
122	0x3c33671a	0.010949874
123	0x3e21b00c	0.15789813
124	0x3db3f2c1	0.08786536
125	0xbdee54b3	-0.11637249
126	0xbddcae8c	-0.1077548
127	0xbe264e54	-0.16240817
128	0xbddae812	-0.10688795
129	0x3a2531e8	0.0006301687
130	0xbdd64739	-0.104628034
131	0x3dbdf0da	0.092744544
132	0xbe0fe525	-0.14052255
133	0x3e093b16	0.13401446
134	0x3da1430e	0.07874118
135	0xbe000b0e	-0.12504217
136	0xbe2c95fb	-0.16854088
137	0xbd0e391f	-0.034722444
138	0x3d9c31ce	0.07626687
139	0xbc77819b	-0.015106584
140	0x3dcb79df	0.099353544
141	0xbbaea92a	-0.0053302245
142	0x3da11a4d	0.078663446
143	0xbd7cef75	-0.0617518
144	0xbdbf5ea0	-0.0934422
145	0x3dd820e1	0.10553146
146	0x3de64357	0.11243313
147	0xbc349d07	-0.011023766
148	0xbe2e0100	-0.16992569
149	0x3cf4e042	0.02989209
150	0xbd34a20d	-0.044099856
151	0x3cb20cd1	0.021734627
152	0x3daa0b6f	0.08302962
153	0xbd8440de	-0.06457685
154	0x3e0133da	0.12617436
155	0xbd54e4b4	-0.05197592
156	0x3df22972	0.11824311
157	0xbd7c769b	-0.06163655
158	0x3b0f23e8	0.002184147
159	0xbd0521a6	-0.032502793
160	0x3d398815	0.045295794
161	0x3dd58289	0.10425288
162	0xbe02a3d3	-0.12757806
163	0x3da529a2	0.080645815
164	0x3e2003a0	0.15626383
165	0xbdb219e7	-0.08696347
166	0xbe01dc9a	-0.12681809
167	0xbd8ae8e9	-0.06782705
168	0x3dbb2590	0.09138024
169	0x3d9b60f6	0.07586853
170	0xbde0e8d0	-0.109819055
171	0xbd93d649	-0.07218606
172	0x3c7a952b	0.0152943535
173	0xbd1e9576	-0.038716756
174	0x3dae092f	0.084978454
175	0x3dc2059e	0.09473728
176	0xbd806724	-0.062696725
177	0x3c803fdb	0.015655449
178	0x3d872054	0.06597963
179	0xbac168cb	-0.0014755962
180	0xbdc236eb	-0.09483131
181	0x3de24acd	0.11049423
182	0x3ddbc651	0.10731185
183	0xbdc1bceb	-0.09459861
184	0xbc990ea6	-0.018683743
185	0x3dcbf875	0.09959499
186	0x3da1734b	0.078833185
187	0x3cf28ace	0.029607203
188	0xbd146cc3	-0.036236536
189	0xbe145675	-0.14486106
190	0xbe356eb7	-0.17718016
191	0x3dc2c748	0.09510666
192	0x3d577c5c	0.052608833
193	0xbe0b9ea6	-0.13634738
194	0xbd57f8d4	-0.052727535
195	0x3c2c25dd	0.010507074
196	0xbcfedb1b	-0.031110337
197	0xbe0f9725	-0.14022501
198	0xbe0bbb56	-0.13645682
199	0x3c386991	0.011255638
200	0xbe1c6506	-0.15272912
201	0xbe0a3fd7	-0.13500915
202	0x3e022065	0.1270767
203	0xbd2bfb77	-0.041987862
204	0xbe473bd0	-0.1945641
205	0x3cf63b8d	0.030057693
206	0xbde5a5cb	-0.11213263
207	0xbd4044ff	-0.0469408
208	0xbd31db00	-0.043421745
209	0x3c998032	0.018737886
210	0xbe285658	-0.16439188
211	0xbdd858cc	-0.10563812
212	0x3d33f9b6	0.043939315
213	0x3de835ed	0.113384105
214	0xbdafd201	-0.08584977
215	0x3cf68ccb	0.030096432
216	0xbe053d79	-0.13011731
217	0xbe582980	-0.21109581
218	0x3de62600	0.11237717
219	0xbde938d3	-0.113877915
220	0x3d096371	0.0335421
221	0xbb1af74b	-0.0023645933
222	0xbe53706e	-0.20648357
223	0xbd50804e	-0.05090361
224	0x3d86d345	0.06583265
225	0x3d57618e	0.05258327
226	0xbb3d8ce9	-0.00289231
227	0xbd722ce9	-0.05912486
228	0x3cea7eec	0.028624974
229	0x3d805b73	0.062674426
230	0xbc8f5e46	-0.017501008
231	0xbe2e1ba4	-0.17002732
232	0xbde1e62e	-0.110302314
233	0x3d9265e2	0.07148339
234	0xbdaba6e2	-0.0838144
235	0xbdaf55fb	-0.08561321
236	0x3e0d9234	0.13825303
237	0xbb7dadf0	-0.003870841
238	0x3db80a87	0.08986383
239	0xbd7a89a2	-0.061166413
240	0x3c5f9cd0	0.013648227
241	0x3d8e8437	0.06958812
242	0xbd29bccf	-0.041439828
243	0xbd11187b	-0.035423737
244	0x3d998d44	0.074976474
245	0xbd1d843e	-0.038456194
246	0xbdcea348	-0.10089737
247	0x3dfd20e3	0.12359788
248	0xbddb327f	-0.10702991
249	0x3d371bec	0.044704363
250	0xbb453320	-0.0030090287
251	0xbd73b2e3	-0.05949677
252	0xbddc1aec	-0.107473224
253	0x3de45655	0.11149279
254	0xbda52785	-0.080641784
255	0x3e3d75fc	0.18502039

model_old.model.0.bias f4 [128]
0	0x3e80e062	0.2517119
1	0xbdbf2c5d	-0.093346335
2	0xb99388ca	-0.0002813994
3	0xbdc5f54a	-0.09665926
4	0x3e35de40	0.17760563
5	0x3e30f1e5	0.17279775
6	0x3e77d688	0.24202931
7	0x3dd8cc4a	0.1058584
8	0x3e95b082	0.29236227
9	0x3e6bf28e	0.23041746
10	0xbdc723e2	-0.09723641
11	0x3e82bda9	0.25535324
12	0x3e91e8c2	0.28497893
13	0xbdbfeb9f	-0.09371113
14	0x3cdc94ff	0.026926516
15	0x3e7d960c	0.2476427
16	0x3e2b9ea3	0.16759734
17	0x3e1277c6	0.14303502
18	0xbd0a7821	-0.03380597
19	0xbd8c6d38	-0.06856769
20	0xbd60b44a	-0.054859437
21	0x3df2e114	0.118593365
22	0x3e78625d	0.24256273
23	0xbdad9c8e	-0.08477126
24	0xbda2a6d4	-0.07941976
25	0xbc857957	-0.01629321
26	0x3e2c8df0	0.1685102
27	0xbd8bc00a	-0.06823738
28	0xbd1fe093	-0.03903253
29	0xbe1ea17f	-0.15491293
30	0x3e24e572	0.16103151
31	0x3e2ebd32	0.1706436
32	0x3dbe1975	0.09282199
33	0x3e7c6020	0.24646044
34	0x3e721c56	0.23643622
35	0x3e73eec0	0.23821545
36	0x3db6e968	0.089312375
37	0xbde0f23e	-0.10983704
38	0xbc3b70ea	-0.011440495
39	0x3e89a3a7	0.2688267
40	0x3e184488	0.14869893
41	0xbdb19218	-0.08670443
42	0x3e92b75b	0.28655514
43	0x3e26b2b9	0.16279115
44	0x3e483ae3	0.19553714
45	0x3e9268e0	0.28595638
46	0x3e646e21	0.22307636
47	0x3df90a69	0.12160189
48	0x3e8e7b6d	0.2782854
49	0x3e86e3c1	0.26345637
50	0xbddc0b80	-0.10744381
51	0xbca47206	-0.020073902
52	0xbd969ead	-0.07354484
53	0x3e886100	0.26636505
54	0x3e5fd770	0.21859527
55	0x3ec1b394	0.3783232
56	0xbd86eff6	-0.06588738
57	0x3e815368	0.25258946
58	0x3e5cd00e	0.21563742
59	0x38661448	5.485516e-05
60	0x3eca4364	0.3950454
61	0xbd509c20	-0.050930142
62	0x3e54e9cd	0.20792313
63	0xbc2dac7f	-0.010600208
64	0xbcde5419	-0.02713971
65	0x3e115d91	0.14195849
66	0x3e08c380	0.13355827
67	0xbda337b8	-0.07969612
68	0xbc5a3c0a	-0.0133199785
69	0x3d30ccbb	0.043163996
70	0x3d46208f	0.048370894
71	0x3e7adfc4	0.24499422
72	0x3e93848d	0.28812066
73	0x3d1609bf	0.03663039
74	0x3e893f90	0.26806307
75	0x3e93d2ec	0.28871858
76	0x3dc949e7	0.09828549
77	0xbd45451d	-0.048161615
78	0x3e970fe8	0.29504323
79	0x3e7b430d	0.24537297
80	0x3e1707fb	0.14749138
81	0x3e34e6ca	0.17666164
82	0xbde3cce9	-0.11123068
83	0xbd854252	-0.0650679
84	0xbde9028a	-0.113774374
85	0x3e189e95	0.14904244
86	0x3e88e083	0.2673379
87	0x3e02ea19	0.12784614
88	0xbc986834	-0.018604375
89	0x3defceb6	0.11709349
90	0x3d8d6943	0.06904843
91	0x3e8b3551	0.27189115
92	0x3e0c3d31	0.13695218
93	0x3e4abb55	0.19798024
94	0x3e8d7851	0.27630857
95	0x3e5bf3be	0.21479699
96	0x3e3bbc9c	0.18333668
97	0x3ea4315d	0.3206891
98	0x3dc9bdc6	0.098506495
99	0xbdef02f8	-0.11670488
100	0x3e6fc736	0.23415837
101	0x3e679060	0.22613668
102	0x3e5f2944	0.21793085
103	0xbd9a1b33	-0.07524719
104	0xbdd4b9fc	-0.10387036
105	0x3e9aa678	0.3020513
106	0xbe0216a3	-0.12703948
107	0x3dfd9358	0.12381619
108	0x3e65a7f0	0.22427344
109	0x3e4814ef	0.19539236
110	0xbd99caa6	-0.07509355
111	0x3df79ecb	0.12090834
112	0x3e66dd04	0.22545248
113	0xbd11feec	-0.035643503
114	0xbc641020	-0.01391986
115	0x3e2217e1	0.15829422
116	0xbd1f57af	-0.03890198
117	0x3d711803	0.05886079
118	0x3e1a477e	0.15066335
119	0x3e6be4c6	0.23036489
120	0xbd0a682a	-0.033790745
121	0x3cc832d5	0.024438301
122	0x3e82bf7d	0.2553672
123	0x3e124470	0.1428392
124	0x3e884e10	0.26622057
125	0x3e747ee2	0.23876527
126	0x3e445ecc	0.19176787
127	0x3e50be52	0.20385101
